results/priority-sort/priority-sort-task-1-batch-35000.model (torch_old, 876115 bytes, 49 tensors)

ntm.read0_bias f4 [1, 20]
0	0x3c0bd4d3	0.008534628
1	0x3c0a3326	0.008435046
2	0xbc07660d	-0.008264077
3	0x393e8c89	0.00018172165
4	0x3b991218	0.0046713464
5	0x3c186f83	0.00930393
6	0x3b190bdd	0.0023353018
7	0x3c35f5bd	0.011105952
8	0x3bc8c34d	0.0061267973
9	0xbc3ae341	-0.011406721
10	0xbaa94e7e	-0.0012917069
11	0xbaefb1f7	-0.0018287291
12	0xbcd5a487	-0.02607943
13	0x3b3ff7f7	0.0029292086
14	0x3c8bdc98	0.01707296
15	0xbc770feb	-0.015079479
16	0xbc1a3b2d	-0.009413523
17	0x3b45c244	0.0030175606
18	0x3c21bae9	0.009871223
19	0x3ab091dc	0.0013471204

ntm.read1_bias f4 [1, 20]
0	0x3bf37f26	0.0074309288
1	0xbb212216	-0.0024586967
2	0x3bc981eb	0.0061495206
3	0x3bd10506	0.0063787727
4	0x3b5e6907	0.0033937113
5	0x3ba88059	0.0051422534
6	0xbb4991af	-0.0030757
7	0xbaf59ccb	-0.0018738745
8	0xbad51a34	-0.001625842
9	0xbaa60a10	-0.0012667794
10	0x3c9c2b38	0.019063577
11	0x3c3600dd	0.011108604
12	0xbb94c1cc	-0.004539704
13	0xbc232c4a	-0.00995929
14	0x3920e3fe	0.00015343723
15	0xbbdbbd97	-0.0067059505
16	0x3b1187d4	0.0022206204
17	0x3c0e78e4	0.008695815
18	0xbc1b70b7	-0.0094873225
19	0xbb7851ea	-0.0037890621

ntm.read2_bias f4 [1, 20]
0	0x3c09ed5d	0.008418408
1	0xbcb163fb	-0.02165412
2	0x3cd69734	0.026195146
3	0xbc72e7b3	-0.014825749
4	0x3be93683	0.007117094
5	0x3b68e38a	0.0035536014
6	0x3bb0e4b0	0.0053983554
7	0x3b343d87	0.0027502493
8	0xbc259714	-0.010106821
9	0xbc23635b	-0.009972419
10	0x3c243e20	0.010024577
11	0xba8813ff	-0.0010381936
12	0xbb640392	-0.0034792167
13	0x3b7b3d58	0.0038336124
14	0xbadc026a	-0.0016785387
15	0x3b6740ab	0.0035286348
16	0x3c856155	0.016281763
17	0xbc813c46	-0.01577581
18	0x3c95b1ed	0.018273318
19	0xbc32a613	-0.010903853

ntm.read3_bias f4 [1, 20]
0	0xbc10fce8	-0.00884936
1	0x3b0abf3e	0.0021171118
2	0xbc2279a0	-0.009916693
3	0x3b9d8ee8	0.0048082955
4	0x39d403db	0.00040438664
5	0x3b64a9a6	0.0034891157
6	0x3cb959ed	0.022625888
7	0xbc4ea3d3	-0.012612301
8	0x3ad15c4b	0.001597294
9	0xba0c119a	-0.0005343199
10	0x3c3cf1a5	0.011532222
11	0x3bd36515	0.006451259
12	0xba57e970	-0.0008236384
13	0x3b827ef9	0.0039824215
14	0x3bc2468e	0.005928821
15	0xbc066061	-0.008201689
16	0xbc6b8295	-0.014374395
17	0xbb40a240	-0.0029393584
18	0xbc138b90	-0.009005442
19	0x3c904819	0.017612504

ntm.read4_bias f4 [1, 20]
0	0x3aa959b4	0.001292041
1	0x3c923ded	0.017851794
2	0xbaee6d46	-0.0018190525
3	0x3bf3011b	0.0074159033
4	0xbb81a800	-0.0039567947
5	0xbc10fe10	-0.008849636
6	0xbbd212e6	-0.0064109443
7	0x3c071c50	0.008246496
8	0xbb1d4cf6	-0.002400217
9	0x3c084d30	0.008319184
10	0xbc33277e	-0.010934709
11	0xbc705574	-0.014668811
12	0xbc448f4b	-0.011997054
13	0xbc1d5dd8	-0.009604894
14	0xb9c9d257	-0.00038494423
15	0x3ad8f3bd	0.0016552132
16	0x3bb88c4a	0.005631958
17	0xbb134f43	-0.0022477664
18	0xbc8af8b7	-0.0169643
19	0x3c29f7b6	0.010374

ntm.controller.lstm_h_bias f4 [2, 1, 100]
0	0x3d641ffc	0.055694565
1	0xbd0edfef	-0.03488153
2	0xbc7cce7a	-0.015430087
3	0xbdf2cb67	-0.11855202
4	0xbd5f56d2	-0.054526158
5	0x3dab02b5	0.08350126
6	0xbdb254b6	-0.087075636
7	0xbd6d4d15	-0.05793484
8	0xbb7059e8	-0.0036674682
9	0x3a794fb8	0.0009510475
10	0xbd1927a7	-0.03739133
11	0xbd4dc272	-0.050234266
12	0x3d43ee81	0.047834877
13	0x3ca2a581	0.019854309
14	0xbdb51936	-0.08842699
15	0x3d86c475	0.0658044
16	0xbcba4bfe	-0.022741314
17	0xbcae3292	-0.021264348
18	0x3e018630	0.12648845
19	0x3d94b3fd	0.072608925
20	0xbd7e37ae	-0.06206482
21	0x3cc0d0a2	0.023536984
22	0x3cab59b4	0.020916797
23	0xbdc250bc	-0.09488055
24	0xbd80aee9	-0.062833615
25	0x3dcdadd4	0.10042921
26	0xbd53ec3f	-0.051738974
27	0xbcb68d15	-0.02228407
28	0xbbc21809	-0.0059232754
29	0xbcd29560	-0.025705993
30	0xbd78f329	-0.06077877
31	0xbd9d2c03	-0.0767441
32	0xbd271319	-0.040789697
33	0xbd26caf8	-0.04072091
34	0xbe28152b	-0.16414325
35	0x3d0b8ac6	0.03406789
36	0xbd41205c	-0.04715
37	0xbd09c1ad	-0.03363197
38	0x3e212148	0.15735352
39	0x3c58b1dd	0.013226
40	0x3d36c1f0	0.044618547
41	0xbd09b4af	-0.03361958
42	0xbd015d56	-0.031583153
43	0x3b2af14e	0.002608377
44	0xbc59439b	-0.013260747
45	0xbc91572e	-0.017741766
46	0x3b39e165	0.0028363105
47	0x3da06367	0.078314595
48	0x3d129200	0.035783768
49	0xbc1e9cb2	-0.009680914
50	0x3c3dd77b	0.011587019
51	0x3de4a959	0.11165113
52	0xbd23f063	-0.040024173
53	0x3e05e744	0.13076502
54	0xba3893cb	-0.0007041066
55	0xbbb53154	-0.005529562
56	0x3d1140c9	0.035462175
57	0xbdc67255	-0.09689776
58	0x3d76c569	0.06024686
59	0x3dd63631	0.10459555
60	0x3de08a40	0.10963869
61	0xbc9a2e60	-0.018820941
62	0x3d55499b	0.05207215
63	0x3d038314	0.032107428
64	0x3d8b7d7b	0.06811043
65	0xbd4a68fd	-0.04941653
66	0xbce37b53	-0.027768767
67	0xbdb3d424	-0.08780697
68	0xbdf302a1	-0.11865736
69	0xbe12f678	-0.14351833
70	0xbc1dec4d	-0.009638858
71	0xbdcf44ad	-0.10120521
72	0x3c4cbaeb	0.012495737
73	0xbd03f62b	-0.032217186
74	0x3c9a1197	0.018807216
75	0xbd2aa52f	-0.041661438
76	0xbd8fe128	-0.07025367
77	0xbde23714	-0.110456616
78	0x3cb50aa8	0.022099808
79	0xbd5165cb	-0.051122468
80	0x3cf06ada	0.029347826
81	0xbd68ddf7	-0.056852307
82	0xbe3c15ec	-0.18367738
83	0xbc1b034e	-0.009461237
84	0xbd222c69	-0.039593134
85	0x3cdec4e4	0.027193494
86	0xbd4da117	-0.050202455
87	0xbd000081	-0.03125048
88	0x3ca8b4a7	0.020593954
89	0x3df36e02	0.11886217
90	0xbb31fda3	-0.0027159236
91	0xbc8e7736	-0.017390829
92	0x3d576e39	0.05259535
93	0xbd180327	-0.03711238
94	0x3dce96f5	0.100873865
95	0xbd9795fe	-0.074016556
96	0x3db39aed	0.08769784
97	0x3dd20b96	0.10256116
98	0x3d1ee745	0.038794775
99	0xbd34b070	-0.044113576
100	0x3e9af3a8	0.3026402
101	0x3d41c267	0.047304537
102	0x3d836225	0.06415204
103	0x3db7979c	0.08964464
104	0xbe0f23ae	-0.13978454
105	0x3db8dfc4	0.09027055
106	0x3dd571b7	0.1042208
107	0xbe01d6dd	-0.1267962
108	0x3dc06bce	0.09395562
109	0xbde685f9	-0.11256022
110	0xbd21b0be	-0.039475195
111	0xbdc3e942	-0.09565975
112	0x3df8d63b	0.12150236
113	0x3d88ad53	0.06673684
114	0xbd73d013	-0.059524607
115	0xbdb8efb6	-0.09030096
116	0x3e348418	0.17628515
117	0xbc4cfefd	-0.012511966
118	0xbe133843	-0.14376931
119	0x3ca89b88	0.020581976
120	0xbd9c91d0	-0.07644999
121	0x3d892ed4	0.06698385
122	0x3d1ea8ea	0.038735308
123	0x3d9ed8be	0.07756184
124	0xbd2e5913	-0.042565417
125	0xbdd5b677	-0.10435193
126	0xbd78e864	-0.0607685
127	0x3e0f4b1b	0.13993494
128	0xb8fab17d	-0.00011953989
129	0x3e1f8d53	0.15581255
130	0x3dbb0eec	0.091337055
131	0x3d387c56	0.04504045
132	0x3d9ffb5e	0.07811616
133	0xbc8e292a	-0.017353613
134	0x3e1f4d63	0.15556864
135	0xbdf25d68	-0.11834222
136	0xbb300b17	-0.0026862079
137	0x3ce12160	0.027481735
138	0x3db96a62	0.09053494
139	0xbda0b74a	-0.078474596
140	0x3dada064	0.08477858
141	0xbd956409	-0.07294471
142	0xbdd06e28	-0.10177261
143	0xbd9cd050	-0.0765692
144	0xbc2b3de6	-0.010451769
145	0x3ca940e9	0.020660834
146	0x3dd5afc1	0.10433913
147	0xbbb6521c	-0.0055639874
148	0x3e00d0d1	0.12579657
149	0xbc9aea52	-0.01891056
150	0xbb30789a	-0.0026927353
151	0x3e15243d	0.14564605
152	0x3d864384	0.06555846
153	0xbc6b2dac	-0.014354151
154	0xbd518f04	-0.05116178
155	0x3b9d624e	0.0048029786
156	0xbdf5256a	-0.11970027
157	0xbdb7aa9d	-0.08968089
158	0x3d33eb83	0.043925773
159	0xbdde381f	-0.10850548
160	0x3d6541a5	0.055970807
161	0x3ddd010f	0.107912175
162	0x3e136ec2	0.1439772
163	0x3ddb1ff9	0.10699458
164	0xbd05dcca	-0.032681264
165	0xbd1627a2	-0.03665889
166	0x3c874df7	0.016516669
167	0xbb827cc9	-0.0039821607
168	0x3d5480d7	0.051880684
169	0x3d692441	0.05691934
170	0x3d5e7bef	0.05431741
171	0x3e89832f	0.26857898
172	0xbe210d74	-0.15727788
173	0x3da63b25	0.0811675
174	0x3da68d43	0.08132412
175	0xbe1d946a	-0.15388647
176	0x3db9b5f0	0.09067905
177	0xbd4268d3	-0.04746325
178	0xbddf8747	-0.10914474
179	0xbe361d6a	-0.17784658
180	0x3d6371de	0.055528514
181	0xbd93c83b	-0.07215925
182	0xbc3fb9ce	-0.011702014
183	0xbdee1422	-0.11624934
184	0x3e3b234f	0.18275188
185	0xbdcc3ccd	-0.09972534
186	0xbda4d772	-0.080489054
187	0xbe158c08	-0.14604199
188	0xbd271898	-0.04079494
189	0xbddbfc30	-0.1074146
190	0x3da52926	0.08064489
191	0xbdb3692d	-0.08760295
192	0x3d4d067f	0.050055023
193	0x3e5114c2	0.20418075
194	0xbcd50a62	-0.026005927
195	0xbe310275	-0.17286094
196	0x3da052f8	0.07828325
197	0xbe02913b	-0.12750714
198	0x3e00f83f	0.12594698
199	0xbd152d4b	-0.036420148

ntm.controller.lstm_c_bias f4 [2, 1, 100]
0	0x3d0f91e1	0.03505123
1	0xbcf6e8ea	-0.030140359
2	0xbd326ace	-0.043558888
3	0xbc98b67d	-0.018641705
4	0xbb934d57	-0.0044953036
5	0xbcaa451e	-0.02078491
6	0xbe156cfb	-0.14592354
7	0x3e01961d	0.1265492
8	0xbd9b942e	-0.075966224
9	0xbd5ae7cc	-0.053443715
10	0x3d9c1c5e	0.07622598
11	0xbddb14ab	-0.106973015
12	0xbd049584	-0.03236915
13	0xbce3f02b	-0.027824482
14	0x3e24c585	0.16090973
15	0xbccd61cf	-0.025071053
16	0x3c9011ab	0.01758655
17	0xbde31926	-0.11088781
18	0x3de2614d	0.11053715
19	0xbd3d5d58	-0.046231598
20	0xbce9cb1d	-0.028539235
21	0xbd48cd66	-0.04902401
22	0x3c615b3f	0.013754665
23	0xbc1c5d6c	-0.009543758
24	0xbc215420	-0.009846717
25	0x3dd358e1	0.10319687
26	0x3c7d06cf	0.015443518
27	0xb9776754	-0.00023594248
28	0xbd8f72ce	-0.07004319
29	0x3cb288c7	0.021793736
30	0xbd95c039	-0.07312054
31	0xbda7f270	-0.08200538
32	0xbd8708f1	-0.06593502
33	0xbdace595	-0.08442227
34	0xbcd92bc1	-0.026510121
35	0xbd76d81e	-0.0602647
36	0xbce2781a	-0.02764516
37	0xbe011087	-0.12603961
38	0x3a7e397b	0.00096978963
39	0xbd701773	-0.058616113
40	0x3c818548	0.015810624
41	0xbd8b9486	-0.06815438
42	0xbda75080	-0.08169651
43	0x3cc0a7af	0.023517458
44	0xbcd83f16	-0.02639727
45	0x3d810e8f	0.06301605
46	0x3d1103e7	0.035404112
47	0x3cd6a4ba	0.026201595
48	0xbce6c314	-0.028169192
49	0xbacefd36	-0.0015792015
50	0x3c8a505c	0.016884021
51	0xbd628f84	-0.05531265
52	0x3c416588	0.011803992
53	0xbcf9b6aa	-0.030482609
54	0x3e0372ef	0.12836812
55	0xbce1283e	-0.02748501
56	0xbb0abaa0	-0.0021168366
57	0x3c33b7a2	0.010969074
58	0x3c810437	0.01574908
59	0x3d340dee	0.043958597
60	0x3d0349f2	0.03205294
61	0xbd10047c	-0.035160527
62	0xbc38b2ff	-0.011273145
63	0xbcddc520	-0.027071536
64	0x3d0d7eb4	0.03454466
65	0xbd0a1841	-0.033714537
66	0xbd1b207f	-0.037872788
67	0x3d5c858f	0.05383831
68	0x3cb2553f	0.021769164
69	0xbd3a5eb4	-0.045500472
70	0x3d26c6a8	0.040716797
71	0xbdcf392b	-0.10118326
72	0xbd578a5f	-0.052622195
73	0x3d4726e2	0.048621066
74	0x3d51efe3	0.051254164
75	0xbd85270c	-0.06501588
76	0x3c9b278c	0.018939756
77	0xbe0fba83	-0.14035992
78	0xbd81f401	-0.06345368
79	0xbd787ca2	-0.060665734
80	0xbcc4a3e4	-0.02400393
81	0xbd8bde1a	-0.06829472
82	0xbc32f220	-0.010921985
83	0xbdc889c3	-0.09791901
84	0x3daaaa61	0.083332784
85	0xbc063226	-0.008190667
86	0x3c6cedb7	0.0144609725
87	0x3daf0031	0.085449584
88	0xbdb53bd9	-0.08849306
89	0xbbed457d	-0.0072409497
90	0x3b05653f	0.0020354537
91	0x3c5666a3	0.013085994
92	0x3cc4b81c	0.024013571
93	0xbd4f3565	-0.05058803
94	0xbd39902e	-0.045303516
95	0xbc467641	-0.012113155
96	0x3d88fd59	0.06688947
97	0xbaad13f4	-0.0013204799
98	0xbcc7fe8d	-0.024413371
99	0xbdb686a2	-0.08912398
100	0x3d763c4c	0.060116097
101	0x3c2884f2	0.010285603
102	0xbd81a268	-0.06329805
103	0xbd2ec5fd	-0.042669285
104	0xbe00ea42	-0.12589362
105	0xbba1c184	-0.004936399
106	0x3dba674b	0.09101733
107	0x3c98bb40	0.018643975
108	0x3de37667	0.11106568
109	0xbd3cac11	-0.046062533
110	0xbdd1353d	-0.102152325
111	0xbd992f4d	-0.07479725
112	0x3d688435	0.056766707
113	0xbcfa4322	-0.03054959
114	0xbbd4b190	-0.0064908937
115	0x3e15ab50	0.14616132
116	0x3e16fa35	0.14743884
117	0x3e164e7a	0.14678374
118	0xbd31a04b	-0.043365758
119	0xbddaa59a	-0.10676117
120	0xbcdf4f3d	-0.027259463
121	0xbd6af4dc	-0.057362422
122	0xbce3bb45	-0.027799258
123	0xbd19e6c2	-0.037573583
124	0xbe162bc2	-0.1466513
125	0xbd3ef0fe	-0.046616547
126	0xbd828384	-0.06372741
127	0x3e7dd99d	0.24790044
128	0xbb2115c4	-0.0024579624
129	0xbd856358	-0.06513089
130	0x3db1de59	0.086849876
131	0xbcd63b08	-0.026151195
132	0x3d33eb34	0.04392548
133	0x3dc0c17c	0.09411904
134	0x3d5cf26e	0.053942136
135	0xbe3a3f01	-0.18188097
136	0x3cf61658	0.030039951
137	0x3dd43ec5	0.10363535
138	0x3d06fff4	0.03295894
139	0xbc22b5d1	-0.009931044
140	0x3cd5ce0b	0.026099226
141	0xbd27705f	-0.04087865
142	0xbda2a150	-0.07940924
143	0xbddc0dc7	-0.10744815
144	0xbafe82fd	-0.00194177
145	0xbde322da	-0.11090632
146	0x3dab1a1d	0.0835459
147	0x3d8d7ea0	0.069089174
148	0x3debd4ff	0.11515235
149	0x3e04de1d	0.12975354
150	0xbd454914	-0.048165396
151	0xbd0075f6	-0.031362496
152	0x3d52b4d2	0.051441975
153	0xbdef3ffe	-0.116821274
154	0xbd84efd8	-0.06491059
155	0x3d0071c3	0.03135849
156	0xbd207d5f	-0.039182063
157	0x3d4a1521	0.049336556
158	0x3d7deff9	0.061996434
159	0x3dc97ba4	0.09838036
160	0xbc22c041	-0.009933532
161	0x3d68420c	0.056703612
162	0xbcb1378a	-0.021632928
163	0x3d1347dd	0.035957206
164	0xbe15e393	-0.14637594
165	0xbca164ca	-0.01970138
166	0xbcf33fb1	-0.029693456
167	0xbc925611	-0.017863305
168	0xbcaf97cf	-0.021434693
169	0x3de15331	0.110021956
170	0x3da38355	0.07984034
171	0x3ce91ab0	0.028455108
172	0xbddfac32	-0.109215155
173	0x3cc9bf3c	0.02462732
174	0x3aa6decb	0.0012731192
175	0x3bf97f9d	0.0076140896
176	0x3dd0590f	0.101732366
177	0xbe194208	-0.14966595
178	0xbd73ed99	-0.059552763
179	0xbd8c02dd	-0.06836484
180	0x3d6053bb	0.05476735
181	0x3c70ccd2	0.0146972705
182	0x3d11b1a5	0.035569806
183	0xbe22ec75	-0.15910514
184	0x3c20dea9	0.009818711
185	0xbd671b19	-0.056422327
186	0xbd6275f8	-0.055288285
187	0xbe1c9ec5	-0.15294941
188	0x3e2f5f34	0.17126161
189	0x3c721930	0.014776513
190	0x3d8447fe	0.06459044
191	0x3c85b097	0.016319556
192	0xbddf0b8b	-0.108908735
193	0x3c014b48	0.007891484
194	0x3d966bcb	0.073447786
195	0xbe1ac320	-0.15113497
196	0x3d236bd3	0.03989775
197	0xbcf0720a	-0.029351253
198	0x3d4a58fb	0.049401265
199	0x3d164890	0.036690295

ntm.controller.lstm.weight_ih_l0 f4 [400, 110]
0	0xbe94ea09	-0.29084805
1	0x3dde7768	0.10862619
2	0x3ca172a8	0.019707993
3	0xbe74dbd4	-0.23911983
4	0xbeb836c2	-0.35979277
5	0xbe630c1c	-0.22172588
6	0x3d8460f5	0.064638056
7	0x3e185aae	0.14878342
8	0xbe47593d	-0.19467635
9	0xbdd99da3	-0.1062577
10	0xbe3bb992	-0.18332508
11	0x3d287fd3	0.041137528
12	0x3e940ba7	0.2891514
13	0x3e0471d0	0.12934041
14	0x3cfd05ea	0.03088661
15	0x3e77bc4d	0.24192925
16	0xbd7a7257	-0.0611442
17	0x3ddf5550	0.10904944
18	0x3e6edc29	0.23326172
19	0xbe5570de	-0.20843837
20	0x3da53e1a	0.080684856
21	0xbe8ed8d1	-0.27899793
22	0x3d6a872f	0.057257827
23	0xbeb0277d	-0.34405127
24	0x3d9cefe1	0.07662941
25	0xbded0f45	-0.11575178
26	0xbe11a43a	-0.14222804
27	0xbea74ea9	-0.326772
28	0xbe7a92e1	-0.24470092
29	0xbd38ebbe	-0.045146696
30	0x3cf7c04d	0.030243063
31	0xbe91781c	-0.2841195
32	0x3da4f843	0.08055165
33	0x3c1abbc2	0.009444179
34	0x3e4173ca	0.18891826
35	0xbd23da43	-0.040003072
36	0xbe9a19ac	-0.3009771
37	0x3eb37573	0.35050544
38	0xbe5a6988	-0.2132932
39	0x3e443026	0.19158992
40	0x3e045b83	0.12925534
41	0xbe930556	-0.28715008
42	0x3ded01f6	0.1157264
43	0x3d481edd	0.04885756
44	0x3ea54074	0.32275736
45	0x3e3bac76	0.18327507
46	0x3e712082	0.23547557
47	0x3e4dcd9f	0.2009797
48	0x3e761124	0.24029976
49	0xbe53a86e	-0.2066972
50	0xbdd3c41d	-0.1034014
51	0x3e010f55	0.12603505
52	0x3eaca9bd	0.3372325
53	0xbe325762	-0.17416146
54	0xbe9b4ac3	-0.30330476
55	0xbdb9f024	-0.09079006
56	0xbcf70eaa	-0.03015836
57	0xbc469e21	-0.012122662
58	0x3e71cdcf	0.23613666
59	0xbe65192f	-0.22372888
60	0xbeb54c2c	-0.35409677
61	0x3c08604f	0.008323743
62	0xbab7b18c	-0.0014014705
63	0xbe611dc2	-0.21984008
64	0xbe5aabe0	-0.21354628
65	0xbe771d5f	-0.24132298
66	0x3dc1f07e	0.09469698
67	0xbd518180	-0.05114889
68	0x3e398af6	0.18119416
69	0xbd160282	-0.036623485
70	0xbe783159	-0.24237575
71	0x3dce2fad	0.10067687
72	0x3d0d55cf	0.03450566
73	0x3d42f730	0.047599018
74	0xbe805106	-0.25061816
75	0x3eacf34c	0.3377937
76	0x3d58aedc	0.052901134
77	0x3d7c992a	0.061669506
78	0x3e3af18e	0.18256208
79	0x3e8a796b	0.2704576
80	0xbeaf2278	-0.34205985
81	0x3dd9fe72	0.10644235
82	0xbde198c3	-0.11015465
83	0xbe186fc0	-0.14886379
84	0xbd850797	-0.06495588
85	0x3e758a74	0.23978597
86	0x3d0377a6	0.032096528
87	0xbe35cabd	-0.1775312
88	0xbe6f15d3	-0.23348169
89	0xbd57769d	-0.052603353
90	0xbd1a0d81	-0.037610535
91	0x3e90aae5	0.28255382
92	0x3e7f14f5	0.24910338
93	0x3c9f0a3d	0.019414062
94	0x3e27f18f	0.16400741
95	0xbe4ad093	-0.19806127
96	0xbd8776ba	-0.06614442
97	0x3e889e1c	0.26683128
98	0x3eab7deb	0.33494505
99	0x3db339e8	0.08751279
100	0x3d2be8a4	0.04196991
101	0xbdb940a6	-0.09045534
102	0xbe0c1b53	-0.13682298
103	0xbe5f1199	-0.21784057
104	0xbc666fad	-0.0140647115
105	0xbca5ffb6	-0.020263534
106	0x3dc6ca3f	0.09706544
107	0x3e9b45f0	0.30326796
108	0x3ea876a7	0.32903025
109	0x3d946f6e	0.07247816
110	0xbe6f154d	-0.2334797
111	0xbc8b9e6e	-0.017043319
112	0xbe5535b2	-0.20821264
113	0xbea84048	-0.32861543
114	0x3e1e4bd9	0.15458621
115	0x3c1be580	0.009515166
116	0x3dd050ce	0.10171662
117	0x3e316275	0.17322715
118	0xbea0abb8	-0.3138101
119	0x38c459f0	9.3627605e-05
120	0x3d2aba82	0.041681774
121	0x3d6b5cac	0.057461426
122	0xbe160801	-0.14651491
123	0xbea7d0bd	-0.32776442
124	0x3ea267c5	0.31719795
125	0x3e425134	0.18976289
126	0x3e4546ef	0.1926534
127	0xbe70f718	-0.23531759
128	0x3cede15a	0.02903812
129	0xbea0c9ff	-0.3140411
130	0x3e178fa0	0.14800882
131	0x3e07099f	0.13187264
132	0xbe9e913d	-0.30970183
133	0x3c61741b	0.013760592
134	0xbea3495a	-0.318919
135	0x3cf125cb	0.029436966
136	0x3e7dd72e	0.24789116
137	0xbe985f2e	-0.29760116
138	0xbd1e409f	-0.038635846
139	0x3e98d15d	0.29847232
140	0x3da2d2aa	0.07950337
141	0x3e0b0b56	0.13578543
142	0xbe8011c7	-0.25013563
143	0xbea4328c	-0.32069814
144	0xbe5d2941	-0.21597768
145	0xbd003369	-0.03129903
146	0xbe51d2b0	-0.20490527
147	0x3e93f7fc	0.28900135
148	0xbe3d7466	-0.18501434
149	0xbcfdac6f	-0.030966012
150	0xbeaf2698	-0.34209132
151	0xbe9184c2	-0.284216
152	0x3e2939b9	0.16525926
153	0xbea648db	-0.3247746
154	0x3d9ab105	0.07553295
155	0x3e61729b	0.22016375
156	0xbd0f0bb1	-0.03492326
157	0x3e620c77	0.22075067
158	0xbe0e2a52	-0.13883331
159	0x3dd747c9	0.10511739
160	0xbe3b19a3	-0.18271498
161	0xbd83ae98	-0.064297855
162	0xbb069a36	-0.0020538694
163	0x3dda020f	0.10644924
164	0x3e61205c	0.21985
165	0x3d8738ca	0.066026285
166	0x3dce6c52	0.10079254
167	0xbe51bdd3	-0.20482568
168	0xbde8e8c0	-0.113725185
169	0x3e1a18e5	0.15048559
170	0xbe8f8f29	-0.2803891
171	0x3ea3ff8e	0.3203091
172	0x3e891784	0.26775753
173	0x3de7db18	0.11321086
174	0xbe082c0d	-0.13298054
175	0xbeaf0a50	-0.34187555
176	0x3e85f9fe	0.2616729
177	0xbe7475d0	-0.23873067
178	0xbe2935ce	-0.16524431
179	0xbe129767	-0.14315568
180	0x3e5e0300	0.21680832
181	0x3e71f80d	0.2362978
182	0xbe8323e8	-0.25613332
183	0xbeaa06a3	-0.33208188
184	0xbc90503a	-0.01761638
185	0xbe62efce	-0.2216179
186	0x3def8226	0.11694746
187	0xbeaf8f71	-0.34289125
188	0xbd6de1e8	-0.05807677
189	0xbd2c5f42	-0.042083032
190	0xbe842e90	-0.25816774
191	0x3ea49861	0.32147506
192	0xbec61bf7	-0.3869321
193	0xbeb114ed	-0.34586278
194	0xbe5c8a73	-0.21537189
195	0x3da2d53d	0.07950828
196	0xbe188976	-0.14896187
197	0x3e97a789	0.29620007
198	0xbdbacc89	-0.09121043
199	0x3df19204	0.117954284
200	0xbe1d0516	-0.15333971
201	0x3c2b4ea8	0.010455765
202	0x3d003558	0.031300873
203	0x3df6073a	0.12013097
204	0x3e92e7e7	0.28692552
205	0x3df85992	0.12126459
206	0x3c7da312	0.0154807735
207	0xbe206c7e	-0.15666386
208	0xbe567b7a	-0.2094554
209	0x3e79db33	0.24400024
210	0x3e2821ed	0.16419192
211	0x3defdca9	0.117120095
212	0xbe388435	-0.18019183
213	0x3e4c54ec	0.1995427
214	0x3caa74f0	0.020807713
215	0xbe10dab5	-0.1414593
216	0xbd96097d	-0.073260285
217	0x3e0efdea	0.13964048
218	0x3e4eceed	0.20196123
219	0x3d712bbd	0.058879603
220	0x3e222477	0.15834223
221	0xbdd4d84f	-0.1039282
222	0x3e0063a3	0.12538008
223	0x3d3c73b3	0.046008777
224	0x3d8ae5ac	0.06782088
225	0x3db3c492	0.08777727
226	0xbd72326b	-0.059130114
227	0xbe18de7e	-0.14928624
228	0x3e83b4e7	0.25723955
229	0x3e853056	0.2601344
230	0x3e81654f	0.25272605
231	0x3e3ccb9a	0.18437043
232	0xbe6eb56d	-0.23311396
233	0xbe68c57f	-0.22731589
234	0x3e6f81b4	0.23389322
235	0xbe66f331	-0.22553708
236	0xbe8b4f77	-0.27209064
237	0x3e67473a	0.22585765
238	0xbdc1d4b2	-0.094643965
239	0x3d319e79	0.043364022
240	0x3d8a6a6b	0.06758579
241	0xbdf679ef	-0.12034976
242	0x3db49e86	0.088192984
243	0xbe3988f2	-0.18118647
244	0xbe9557ea	-0.29168636
245	0xbda88962	-0.08229329
246	0xbe53eb9c	-0.20695347
247	0xbdd14eb3	-0.10220089
248	0x3c9edd50	0.01939264
249	0x390a29db	0.00013176298
250	0xbea8a45c	-0.32937896
251	0xbd510e09	-0.051038776
252	0xbdfb1773	-0.12260332
253	0xbe9323fb	-0.28738388
254	0xbe375b0a	-0.17905822
255	0xbd85d543	-0.06534817

ntm.controller.lstm.weight_hh_l0 f4 [400, 100]
0	0xbe912452	-0.28348023
1	0x3d6b7ede	0.057494037
2	0xbe65fae0	-0.22458982
3	0x3ea0016e	0.3125109
4	0x3e625fab	0.22106807
5	0x3e4ee357	0.20203911
6	0xbe80115c	-0.25013244
7	0xbd939506	-0.07206158
8	0xbe6eef64	-0.23333508
9	0x3e62f644	0.22164255
10	0xbe8a85c5	-0.27055183
11	0xbe17695c	-0.14786285
12	0x3e92f472	0.28702122
13	0xbe4b9dbf	-0.19884394
14	0x3e8b0990	0.27155733
15	0x39ca8445	0.0003862699
16	0xbd89c3b8	-0.067267835
17	0xbdce6551	-0.10077918
18	0xbe94e835	-0.2908341
19	0xbe2d7ddc	-0.16942543
20	0xbdeb4dc8	-0.11489445
21	0xbe368269	-0.17823185
22	0xbe35e4d8	-0.17763078
23	0xbd9d94e5	-0.07694415
24	0x3ebe58dc	0.3717717
25	0x3e06fdd7	0.1318277
26	0x3e855cca	0.26047355
27	0x3bc4ddca	0.0060078846
28	0x3e9ed8fd	0.31024924
29	0xbddd0f3b	-0.107939206
30	0xbdbedc52	-0.093193665
31	0x3e8eb2f0	0.27870893
32	0x3dbea8f4	0.09309569
33	0xbdb0555b	-0.0861003
34	0x3e1c1919	0.15243949
35	0x3e3f3892	0.18673924
36	0x3e1a5323	0.15070777
37	0xbea69c84	-0.32541287
38	0x3d9e5e4b	0.07732829
39	0xbeae8c7f	-0.34091565
40	0x3ea8a99d	0.32941905
41	0x3e99540e	0.2994694
42	0xbe5fdee9	-0.21862377
43	0x3ea34fd4	0.31896842
44	0x3d65e7e7	0.056129362
45	0x3eba2ff9	0.36364725
46	0xbe8b998f	-0.27265593
47	0xbe959319	-0.2921379
48	0x3dbba5e2	0.09162499
49	0x3ea8d09b	0.32971653
50	0x3dc78067	0.09741288
51	0x3e28829b	0.16456072
52	0x3b2169b6	0.002462966
53	0xbd23a593	-0.039952826
54	0xbe1805f7	-0.14846025
55	0xbe37733c	-0.17915052
56	0x3e16a618	0.14711797
57	0xbd7cd054	-0.061722115
58	0xbde2abe1	-0.110679395
59	0x3e1c4991	0.15262438
60	0xbdc33307	-0.09531217
61	0xbe429913	-0.19003706
62	0xbe8121e9	-0.25221184
63	0x3e98fecc	0.29881895
64	0x3def0c0b	0.11672219
65	0xbdeaa031	-0.11456335
66	0xbe508fb7	-0.20367323
67	0x3d5c0e9d	0.053724874
68	0x3ea0d928	0.31415677
69	0xbee23256	-0.44179028
70	0x3d93e5af	0.07221543
71	0x3d8b6236	0.068058416
72	0x3e5971e5	0.21234854
73	0xbe144247	-0.14478408
74	0x3e678461	0.22609092
75	0x3cf7ace2	0.030233804
76	0x3dc4aa12	0.09602751
77	0x3eabf62d	0.33586255
78	0xbe2bc1b3	-0.16773109
79	0x3e667f53	0.22509508
80	0xbe22f647	-0.1591426
81	0xbec14c37	-0.3775346
82	0x3ebc7238	0.36805892
83	0x3e8185a1	0.25297263
84	0x3e91bb2e	0.2846312
85	0xbe71d915	-0.23617966
86	0xbe9c3911	-0.30512288
87	0xbd19a485	-0.037510414
88	0x3c729d0d	0.014807952
89	0xbe254102	-0.1613808
90	0x3e2edc39	0.17076196
91	0x3e55ad85	0.20866974
92	0xbeab624c	-0.33473432
93	0x3e0b2cd8	0.13591325
94	0x3e1b3e83	0.15160565
95	0x3de93006	0.11386113
96	0x3d08df03	0.033415806
97	0x3d826747	0.06367355
98	0x3dcb2950	0.09919989
99	0xbea511ba	-0.32240087
100	0x3e9d9508	0.30777764
101	0xbe45e954	-0.19327289
102	0xbe52d43b	-0.20588772
103	0xbe1870c4	-0.14886767
104	0xbdf1ec66	-0.118126675
105	0x3e1ff0d4	0.15619212
106	0xbcc2b469	-0.023767667
107	0x3b65bf00	0.0035056472
108	0x3ddfed19	0.10933895
109	0xbe2c3700	-0.16817856
110	0x3ddc9063	0.10769727
111	0x3e1f6908	0.1556741
112	0xbea8db1c	-0.32979667
113	0x3e2fb31a	0.17158166
114	0xbe541fe9	-0.20715298
115	0x3e53cd82	0.20683864
116	0xbe3cc8d1	-0.1843598
117	0xbe424497	-0.18971477
118	0xbd909dd0	-0.0706135
119	0xbe9c08eb	-0.30475554
120	0xbc461049	-0.012088844
121	0xbdd2c322	-0.10291125
122	0x3d98faf6	0.07469742
123	0x3d3e8583	0.046514045
124	0x3e851d37	0.25998852
125	0xbebf9572	-0.37418705
126	0xbeb03559	-0.344157
127	0xbe5bbec9	-0.21459498
128	0xbdba02c6	-0.0908256
129	0x3e67a308	0.22620785
130	0x3e9a91f8	0.3018949
131	0x3e2fa75d	0.17153688
132	0x3ed9373a	0.42424947
133	0xbec37c93	-0.3818098
134	0x3eaf38b7	0.34222957
135	0x3e35453f	0.17702197
136	0x3ce321f2	0.027726147
137	0x3be9dd38	0.007136967
138	0xbe813251	-0.252337
139	0xbd2a5aba	-0.04159043
140	0x3e0b9101	0.13629533
141	0xbe74ded7	-0.23913132
142	0x3ea88e00	0.32920837
143	0x3e6c998e	0.23105451
144	0xbe1530f4	-0.14569455
145	0x3ddbff78	0.10742086
146	0xbe164a70	-0.14676833
147	0xbde72655	-0.11286608
148	0x3d9451c0	0.07242155
149	0xbe3698c5	-0.17831714
150	0x3d9b7cc2	0.07592155
151	0xbd0e14b4	-0.034687713
152	0x3e0240cc	0.1272003
153	0x3d837391	0.06418527
154	0xbe16f5d6	-0.14742216
155	0xbe7a2050	-0.24426389
156	0x3e4f1794	0.20223838
157	0x3e342100	0.17590714
158	0xbe51e28c	-0.20496577
159	0x3e294674	0.16530782
160	0x3e314fd5	0.1731561
161	0x3dd8d1d1	0.10586894
162	0xbe5d3f77	-0.21606241
163	0xbe625238	-0.22101676
164	0x3eaac639	0.33354357
165	0x3e1ffbfa	0.15623465
166	0xbe3a694d	-0.18204232
167	0x3cf51d21	0.029921116
168	0x3edfeaf8	0.43733954
169	0xbe1cd890	-0.15316987
170	0xbe940ca4	-0.28915894
171	0x3e8f0f39	0.279413
172	0xbe574a61	-0.21024467
173	0xbe1e9abf	-0.15488718
174	0xbeb6a32a	-0.3567136
175	0xbe86247b	-0.26199707
176	0x3d235225	0.03987326
177	0x3e3779c3	0.17917542
178	0x3da94839	0.082657285
179	0xbd6f2f45	-0.05839469
180	0xbd5f7569	-0.05455533
181	0x3e8227ff	0.2542114
182	0x3da8c188	0.08240038
183	0x3e41e5b9	0.18935288
184	0x3d165cf6	0.03670975
185	0x3e9b102c	0.30285776
186	0x3d87de6e	0.06634222
187	0xbe28b660	-0.1647582
188	0x3ddb5456	0.10709445
189	0x3e767f83	0.2407208
190	0xbddf71a0	-0.10910344
191	0x3e70323e	0.23456666
192	0x3c0e46bf	0.008683859
193	0x3d560ee4	0.052260295
194	0xbb558292	-0.0032579047
195	0x3e437dfd	0.1909103
196	0x3c99b992	0.018765245
197	0x3ea76e03	0.3270112
198	0x3e55e9ae	0.20889923
199	0x3eae4d72	0.3404346
200	0xbdef8da5	-0.116969384
201	0x3bbea28e	0.005817718
202	0x3e97ef22	0.2967463
203	0xbe884c9d	-0.2662095
204	0x3d94f502	0.07273294
205	0xbd7482eb	-0.059695166
206	0x3e41adf9	0.18914022
207	0x3e7fb22a	0.24970308
208	0x3ba93797	0.0051640975
209	0x3e2bf8ee	0.16794178
210	0xbc624f7f	-0.013812899
211	0xbe86702e	-0.2625746
212	0xbe414ca1	-0.18876888
213	0xbe61c46b	-0.22047584
214	0xbe0cc79a	-0.13748017
215	0x3ea23414	0.31680357
216	0x3de55d9d	0.11199496
217	0x3e858aa1	0.26082328
218	0x3e694519	0.22780265
219	0xbea7351b	-0.32657704
220	0xbe4add43	-0.19810967
221	0x3e9bb46b	0.30411085
222	0xbdbea746	-0.093092486
223	0xbeb9761f	-0.36222932
224	0xbeaca58e	-0.33720058
225	0xbe5204ba	-0.20509616
226	0x3e48d9f9	0.196144
227	0xbe421320	-0.18952608
228	0x3e9742c0	0.29543114
229	0x3d4a5e2b	0.04940621
230	0xbe96e253	-0.29469547
231	0xbe82849e	-0.25491804
232	0x3e8b48b6	0.27203912
233	0xbda3a57c	-0.07990548
234	0xbd195e49	-0.037443433
235	0xbe309e12	-0.17247799
236	0xbe57fa36	-0.21091542
237	0x3ea91a70	0.33027983
238	0x3e929889	0.28632
239	0x3e66c9bb	0.22537892
240	0x3e8010d2	0.25012833
241	0x3e80420e	0.25050396
242	0x3dad14c8	0.08451229
243	0x3ccce041	0.025009276
244	0xbe3caaa9	-0.18424477
245	0x3e80a015	0.25122133
246	0x3ec38867	0.38190004
247	0x3d3579c6	0.044305585
248	0x3de24c5c	0.11049721
249	0xbe439200	-0.19098663
250	0xbd9be04f	-0.07611143
251	0xbdab64b6	-0.083688185
252	0xbe597ead	-0.21239729
253	0x3e446904	0.19180685
254	0xbd717b3b	-0.058955412
255	0x3d60417a	0.054749943

ntm.controller.lstm.bias_ih_l0 f4 [400]
0	0x3c8550be	0.016273852
1	0xbd34c46d	-0.04413264
2	0xbcc5a1ad	-0.024124945
3	0x3b732f0b	0.0037106897
4	0xbcc8c57e	-0.024508234
5	0xbcb18993	-0.021672046
6	0xbd0043d1	-0.031314675
7	0xbd917098	-0.07101554
8	0xbce521db	-0.027970245
9	0xbcfee371	-0.031114312
10	0xbd99d6dc	-0.07511684
11	0xbdcbd7c3	-0.09953263
12	0x3c8d0351	0.017213495
13	0xbd227d26	-0.039670132
14	0xbde07389	-0.109595366
15	0x3d6d3b87	0.057918098
16	0x3d397464	0.045277014
17	0xbdceb7ce	-0.10093652
18	0xbdae1696	-0.08500402
19	0xbdcd3c34	-0.100212485
20	0xbd6d4030	-0.057922542
21	0xbd3035db	-0.04302011
22	0xbd3dd1dd	-0.04634272
23	0xbbaa3ecf	-0.0051954756
24	0xbb00d7ae	-0.0019659805
25	0xbda73bdf	-0.081657164
26	0xbc2d059d	-0.01056042
27	0xbcfa3496	-0.030542653
28	0x3c5207cb	0.012819241
29	0xbd8d1761	-0.06889225
30	0xbb3bdad1	-0.002866436
31	0xbcc2494a	-0.023716588
32	0xbd11765c	-0.035513267
33	0xbcee5996	-0.029095452
34	0xbc9a8a08	-0.018864647
35	0xbcc84655	-0.0244476
36	0xbda1692f	-0.0788139
37	0xbd865eb6	-0.065610334
38	0xbd3e6650	-0.04648429
39	0xbd0e831b	-0.034793
40	0x3cbd2079	0.023086773
41	0xbd0c8559	-0.034306858
42	0xbd3edfaf	-0.04660004
43	0xbd9abcf8	-0.07555574
44	0x3bde9d27	0.0067936364
45	0xbcb08ba6	-0.021550965
46	0xbd09f042	-0.033676393
47	0xbbb38b04	-0.0054792184
48	0xbd72a520	-0.059239507
49	0x3a4859e9	0.0007642792
50	0xbd8c9345	-0.06864027
51	0xbd4217b6	-0.047385894
52	0xbd5dc994	-0.054147318
53	0xbd8377de	-0.06419347
54	0xbd67658e	-0.056493334
55	0xbd4ee2f7	-0.05050942
56	0xbc322831	-0.01087384
57	0xbd22ec44	-0.0397761
58	0xbd54d8b1	-0.051964466
59	0xbaecb387	-0.0018058874
60	0xbccdb914	-0.025112666
61	0x3bd72689	0.006565873
62	0xbc1de163	-0.009636256
63	0xbd265f05	-0.04061796
64	0xbcbbd234	-0.022927381
65	0xbcda5920	-0.026653826
66	0xbd751a32	-0.059839435
67	0xbd109072	-0.035294004
68	0xbd7f6053	-0.06234772
69	0xbdbc0c96	-0.09182088
70	0xbcced370	-0.025247306
71	0xbcfecb90	-0.031102926
72	0xbd99f81b	-0.075180255
73	0xbd5a0db3	-0.05323572
74	0xbda63af7	-0.081167154
75	0xbced49f7	-0.028965933
76	0xbe016ff7	-0.12640367
77	0xbc749b68	-0.01492963
78	0xbc1743de	-0.009232489
79	0xbcff7db8	-0.031187877
80	0xbd5931cd	-0.05302601
81	0xbd4e9c5a	-0.050442077
82	0xbdb0f8ab	-0.0864118
83	0xbcef7c01	-0.029233934
84	0xbce1d899	-0.027569102
85	0xbda5b930	-0.08091962
86	0xbb4f5457	-0.0031635964
87	0x3ba692e4	0.0050834287
88	0xbd278856	-0.040901504
89	0x3d327254	0.043566063
90	0x3c370fce	0.011173202
91	0xbd0f2d87	-0.034955528
92	0xba60cb72	-0.00085752376
93	0x3b6fcb4e	0.0036589685
94	0xbcaabb11	-0.020841153
95	0xbd9d781b	-0.07688924
96	0x3a096b30	0.00052421074
97	0xbd1f8234	-0.03894253
98	0xbd93d6f3	-0.07218733
99	0x3d57a97a	0.05265186
100	0x3cd8cfe6	0.026466321
101	0x3d696a5e	0.056986205
102	0x3c1b360b	0.009473334
103	0x3bb57801	0.005537987
104	0xbbdb7696	-0.006697486
105	0x3d0b7fad	0.034057308
106	0x3c5f4b1d	0.013628748
107	0xbac1aca5	-0.0014776184
108	0x3d596a44	0.05307986
109	0xbd0e37ac	-0.03472106
110	0xbc01149e	-0.007878451
111	0x3a5c63f5	0.0008407229
112	0xbd2f2e9c	-0.04276906
113	0xbd0a2991	-0.033731047
114	0xbcf2c639	-0.029635536
115	0x3da7db7f	0.081961624
116	0x3c13ab08	0.009012945
117	0xbc0ccd91	-0.008593933
118	0x3d421603	0.047384273
119	0xbca920fb	-0.02064561
120	0xbd10b7d3	-0.03533156
121	0xbd4e85b2	-0.05042047
122	0x3dd271cb	0.102756105
123	0x3c08aa7f	0.008341431
124	0x3de01776	0.10941975
125	0x3c8d86e5	0.017276237
126	0x3cd242ac	0.025666557
127	0xbc69c686	-0.014268523
128	0x3ac58404	0.0015069251
129	0xbd502d02	-0.050824173
130	0x3d749d9b	0.059720617
131	0x3aac4624	0.0013143462
132	0xbd04536a	-0.032306112
133	0xbcafbbc3	-0.021451836
134	0x3bc4e4df	0.006008729
135	0xbd789bc8	-0.06069544
136	0xbd64328f	-0.05571228
137	0xbd36bdaf	-0.04461449
138	0x3d3bd962	0.04586161
139	0xbd2e12d8	-0.04249844
140	0x3d0d1b0b	0.03444962
141	0x3d8c7762	0.06858708
142	0xbc8d1517	-0.01722197
143	0xbd70bd3a	-0.05877421
144	0x3d8d8d35	0.06911699
145	0x3cc10330	0.02356109
146	0xbcfd5549	-0.030924456
147	0x3cbc1515	0.022959271
148	0xbc263a49	-0.010145732
149	0x3d2a161e	0.041525
150	0xbbcdab81	-0.0062765484
151	0xbbd8482a	-0.0066003995
152	0x3ccf37f1	0.02529523
153	0xbd71487d	-0.05890702
154	0x3d4c3d4c	0.049863145
155	0xbc5fb692	-0.013654368
156	0xbc8b1b1a	-0.016980696
157	0xbc668089	-0.014068731
158	0xbc4a0d72	-0.012332307
159	0xbc1b50c7	-0.009479708
160	0x3cb73eda	0.022368837
161	0x3cf716db	0.030162266
162	0x3b943bd1	0.0045237322
163	0x3d588cf7	0.05286881
164	0x3d86f64b	0.065899454
165	0x3d53eadf	0.051737662
166	0x3cfb4aed	0.030675376
167	0x3d89c26b	0.067265354
168	0x3d7834d7	0.060597267
169	0xbd03eb13	-0.032206606
170	0xbc08da51	-0.008352832
171	0x3ce1e90a	0.027576942
172	0xbc912802	-0.017719273
173	0x3d3524cd	0.04422455
174	0xbdc1be47	-0.09460121
175	0xbc811ebd	-0.015761727
176	0xbd90f1ce	-0.070773706
177	0xbca726d5	-0.020404259
178	0xbcc08a1a	-0.023503352
179	0x3d510caa	0.051037468
180	0xbd6646cd	-0.056219865
181	0xbd3b794f	-0.045769986
182	0xbda4bb49	-0.08043534
183	0xbd22c8a8	-0.039742142
184	0xbba02380	-0.0048870444
185	0xbd866266	-0.06561737
186	0x3cc82e10	0.024436027
187	0x3d313ad7	0.043269005
188	0x3bbae1c7	0.0057031843
189	0x3d917811	0.07102979
190	0x3d59c698	0.05316791
191	0xbb852a27	-0.004063863
192	0xbb874bc5	-0.0041289055
193	0x3be2cc90	0.0069213584
194	0xbcb72e2c	-0.022360884
195	0x3cb6af2b	0.022300323
196	0xbd5fbfc2	-0.054626234
197	0xbc60d71a	-0.013723159
198	0x3d5ce1b8	0.0539262
199	0x3d49afe8	0.049240023
200	0x3d915450	0.070961595
201	0x3c0b5723	0.008504662
202	0x3ced9f95	0.029006759
203	0x3cf4dedf	0.02989143
204	0xbd54aa83	-0.051920425
205	0xbc65401a	-0.013992334
206	0xbc1073a8	-0.008816637
207	0xbbf0eaae	-0.0073521947
208	0xbb3fbe8f	-0.002925787
209	0xbd8acc54	-0.06777254
210	0x3d0bfe4f	0.034178074
211	0x3c866232	0.016404245
212	0x3ccccaad	0.024998987
213	0x3c1bbdd3	0.009505707
214	0x3c94e36d	0.018174851
215	0xbd0c65b9	-0.034276698
216	0x3c1a8d46	0.009433096
217	0xbc7f7516	-0.01559188
218	0x3a95fb8f	0.0011442768
219	0xbd094b47	-0.033519056
220	0x3d900f11	0.07034124
221	0xbd5389cb	-0.05164508
222	0x3c60df86	0.013725167
223	0xba8801b3	-0.0010376483
224	0x3c0900ac	0.008361977
225	0xbb466f62	-0.0030278792
226	0x3ce3ad7a	0.027792681
227	0x3ca92594	0.020647801
228	0xbd972409	-0.0737992
229	0xbd733b8d	-0.059382964
230	0x3b87e326	0.0041469513
231	0x3cc4f0e8	0.024040654
232	0x3a674508	0.0008822237
233	0xbc456e1b	-0.012050177
234	0x3d2f99ca	0.042871274
235	0xbd1d1390	-0.038348734
236	0x3b358a44	0.002770082
237	0xbcb31e05	-0.0218649
238	0xbd433266	-0.047655486
239	0xbda3a5e1	-0.07990623
240	0xbccdaef7	-0.025107844
241	0xbca73342	-0.020410184
242	0xbd321de9	-0.043485556
243	0x3abd1e5f	0.0014428607
244	0xbc19f9dc	-0.00939795
245	0x3d328a9e	0.043589227
246	0x3d6f935d	0.058490146
247	0xbd178ac8	-0.036997586
248	0x3d3a8c79	0.04554412
249	0x3bc2c315	0.0059436657
250	0xbd4b6f7a	-0.04966686
251	0xbbea356b	-0.007147481
252	0x3cb9e716	0.022693198
253	0x3b4f2dd8	0.0031613018
254	0xbb9b4019	-0.0047378656
255	0x3ca49120	0.020088732

ntm.controller.lstm.bias_hh_l0 f4 [400]
0	0x3c8550be	0.016273852
1	0xbd34c46d	-0.04413264
2	0xbcc5a1ad	-0.024124945
3	0x3b732f0b	0.0037106897
4	0xbcc8c57e	-0.024508234
5	0xbcb18993	-0.021672046
6	0xbd0043d1	-0.031314675
7	0xbd917098	-0.07101554
8	0xbce521db	-0.027970245
9	0xbcfee371	-0.031114312
10	0xbd99d6dc	-0.07511684
11	0xbdcbd7c3	-0.09953263
12	0x3c8d0351	0.017213495
13	0xbd227d26	-0.039670132
14	0xbde07389	-0.109595366
15	0x3d6d3b87	0.057918098
16	0x3d397464	0.045277014
17	0xbdceb7ce	-0.10093652
18	0xbdae1696	-0.08500402
19	0xbdcd3c34	-0.100212485
20	0xbd6d4030	-0.057922542
21	0xbd3035db	-0.04302011
22	0xbd3dd1dd	-0.04634272
23	0xbbaa3ecf	-0.0051954756
24	0xbb00d7ae	-0.0019659805
25	0xbda73bdf	-0.081657164
26	0xbc2d059d	-0.01056042
27	0xbcfa3496	-0.030542653
28	0x3c5207cb	0.012819241
29	0xbd8d1761	-0.06889225
30	0xbb3bdad1	-0.002866436
31	0xbcc2494a	-0.023716588
32	0xbd11765c	-0.035513267
33	0xbcee5996	-0.029095452
34	0xbc9a8a08	-0.018864647
35	0xbcc84655	-0.0244476
36	0xbda1692f	-0.0788139
37	0xbd865eb6	-0.065610334
38	0xbd3e6650	-0.04648429
39	0xbd0e831b	-0.034793
40	0x3cbd2079	0.023086773
41	0xbd0c8559	-0.034306858
42	0xbd3edfaf	-0.04660004
43	0xbd9abcf8	-0.07555574
44	0x3bde9d27	0.0067936364
45	0xbcb08ba6	-0.021550965
46	0xbd09f042	-0.033676393
47	0xbbb38b04	-0.0054792184
48	0xbd72a520	-0.059239507
49	0x3a4859e9	0.0007642792
50	0xbd8c9345	-0.06864027
51	0xbd4217b6	-0.047385894
52	0xbd5dc994	-0.054147318
53	0xbd8377de	-0.06419347
54	0xbd67658e	-0.056493334
55	0xbd4ee2f7	-0.05050942
56	0xbc322831	-0.01087384
57	0xbd22ec44	-0.0397761
58	0xbd54d8b1	-0.051964466
59	0xbaecb387	-0.0018058874
60	0xbccdb914	-0.025112666
61	0x3bd72689	0.006565873
62	0xbc1de163	-0.009636256
63	0xbd265f05	-0.04061796
64	0xbcbbd234	-0.022927381
65	0xbcda5920	-0.026653826
66	0xbd751a32	-0.059839435
67	0xbd109072	-0.035294004
68	0xbd7f6053	-0.06234772
69	0xbdbc0c96	-0.09182088
70	0xbcced370	-0.025247306
71	0xbcfecb90	-0.031102926
72	0xbd99f81b	-0.075180255
73	0xbd5a0db3	-0.05323572
74	0xbda63af7	-0.081167154
75	0xbced49f7	-0.028965933
76	0xbe016ff7	-0.12640367
77	0xbc749b68	-0.01492963
78	0xbc1743de	-0.009232489
79	0xbcff7db8	-0.031187877
80	0xbd5931cd	-0.05302601
81	0xbd4e9c5a	-0.050442077
82	0xbdb0f8ab	-0.0864118
83	0xbcef7c01	-0.029233934
84	0xbce1d899	-0.027569102
85	0xbda5b930	-0.08091962
86	0xbb4f5457	-0.0031635964
87	0x3ba692e4	0.0050834287
88	0xbd278856	-0.040901504
89	0x3d327254	0.043566063
90	0x3c370fce	0.011173202
91	0xbd0f2d87	-0.034955528
92	0xba60cb72	-0.00085752376
93	0x3b6fcb4e	0.0036589685
94	0xbcaabb11	-0.020841153
95	0xbd9d781b	-0.07688924
96	0x3a096b30	0.00052421074
97	0xbd1f8234	-0.03894253
98	0xbd93d6f3	-0.07218733
99	0x3d57a97a	0.05265186
100	0x3cd8cfe6	0.026466321
101	0x3d696a5e	0.056986205
102	0x3c1b360b	0.009473334
103	0x3bb57801	0.005537987
104	0xbbdb7696	-0.006697486
105	0x3d0b7fad	0.034057308
106	0x3c5f4b1d	0.013628748
107	0xbac1aca5	-0.0014776184
108	0x3d596a44	0.05307986
109	0xbd0e37ac	-0.03472106
110	0xbc01149e	-0.007878451
111	0x3a5c63f5	0.0008407229
112	0xbd2f2e9c	-0.04276906
113	0xbd0a2991	-0.033731047
114	0xbcf2c639	-0.029635536
115	0x3da7db7f	0.081961624
116	0x3c13ab08	0.009012945
117	0xbc0ccd91	-0.008593933
118	0x3d421603	0.047384273
119	0xbca920fb	-0.02064561
120	0xbd10b7d3	-0.03533156
121	0xbd4e85b2	-0.05042047
122	0x3dd271cb	0.102756105
123	0x3c08aa7f	0.008341431
124	0x3de01776	0.10941975
125	0x3c8d86e5	0.017276237
126	0x3cd242ac	0.025666557
127	0xbc69c686	-0.014268523
128	0x3ac58404	0.0015069251
129	0xbd502d02	-0.050824173
130	0x3d749d9b	0.059720617
131	0x3aac4624	0.0013143462
132	0xbd04536a	-0.032306112
133	0xbcafbbc3	-0.021451836
134	0x3bc4e4df	0.006008729
135	0xbd789bc8	-0.06069544
136	0xbd64328f	-0.05571228
137	0xbd36bdaf	-0.04461449
138	0x3d3bd962	0.04586161
139	0xbd2e12d8	-0.04249844
140	0x3d0d1b0b	0.03444962
141	0x3d8c7762	0.06858708
142	0xbc8d1517	-0.01722197
143	0xbd70bd3a	-0.05877421
144	0x3d8d8d35	0.06911699
145	0x3cc10330	0.02356109
146	0xbcfd5549	-0.030924456
147	0x3cbc1515	0.022959271
148	0xbc263a49	-0.010145732
149	0x3d2a161e	0.041525
150	0xbbcdab81	-0.0062765484
151	0xbbd8482a	-0.0066003995
152	0x3ccf37f1	0.02529523
153	0xbd71487d	-0.05890702
154	0x3d4c3d4c	0.049863145
155	0xbc5fb692	-0.013654368
156	0xbc8b1b1a	-0.016980696
157	0xbc668089	-0.014068731
158	0xbc4a0d72	-0.012332307
159	0xbc1b50c7	-0.009479708
160	0x3cb73eda	0.022368837
161	0x3cf716db	0.030162266
162	0x3b943bd1	0.0045237322
163	0x3d588cf7	0.05286881
164	0x3d86f64b	0.065899454
165	0x3d53eadf	0.051737662
166	0x3cfb4aed	0.030675376
167	0x3d89c26b	0.067265354
168	0x3d7834d7	0.060597267
169	0xbd03eb13	-0.032206606
170	0xbc08da51	-0.008352832
171	0x3ce1e90a	0.027576942
172	0xbc912802	-0.017719273
173	0x3d3524cd	0.04422455
174	0xbdc1be47	-0.09460121
175	0xbc811ebd	-0.015761727
176	0xbd90f1ce	-0.070773706
177	0xbca726d5	-0.020404259
178	0xbcc08a1a	-0.023503352
179	0x3d510caa	0.051037468
180	0xbd6646cd	-0.056219865
181	0xbd3b794f	-0.045769986
182	0xbda4bb49	-0.08043534
183	0xbd22c8a8	-0.039742142
184	0xbba02380	-0.0048870444
185	0xbd866266	-0.06561737
186	0x3cc82e10	0.024436027
187	0x3d313ad7	0.043269005
188	0x3bbae1c7	0.0057031843
189	0x3d917811	0.07102979
190	0x3d59c698	0.05316791
191	0xbb852a27	-0.004063863
192	0xbb874bc5	-0.0041289055
193	0x3be2cc90	0.0069213584
194	0xbcb72e2c	-0.022360884
195	0x3cb6af2b	0.022300323
196	0xbd5fbfc2	-0.054626234
197	0xbc60d71a	-0.013723159
198	0x3d5ce1b8	0.0539262
199	0x3d49afe8	0.049240023
200	0x3d915450	0.070961595
201	0x3c0b5723	0.008504662
202	0x3ced9f95	0.029006759
203	0x3cf4dedf	0.02989143
204	0xbd54aa83	-0.051920425
205	0xbc65401a	-0.013992334
206	0xbc1073a8	-0.008816637
207	0xbbf0eaae	-0.0073521947
208	0xbb3fbe8f	-0.002925787
209	0xbd8acc54	-0.06777254
210	0x3d0bfe4f	0.034178074
211	0x3c866232	0.016404245
212	0x3ccccaad	0.024998987
213	0x3c1bbdd3	0.009505707
214	0x3c94e36d	0.018174851
215	0xbd0c65b9	-0.034276698
216	0x3c1a8d46	0.009433096
217	0xbc7f7516	-0.01559188
218	0x3a95fb8f	0.0011442768
219	0xbd094b47	-0.033519056
220	0x3d900f11	0.07034124
221	0xbd5389cb	-0.05164508
222	0x3c60df86	0.013725167
223	0xba8801b3	-0.0010376483
224	0x3c0900ac	0.008361977
225	0xbb466f62	-0.0030278792
226	0x3ce3ad7a	0.027792681
227	0x3ca92594	0.020647801
228	0xbd972409	-0.0737992
229	0xbd733b8d	-0.059382964
230	0x3b87e326	0.0041469513
231	0x3cc4f0e8	0.024040654
232	0x3a674508	0.0008822237
233	0xbc456e1b	-0.012050177
234	0x3d2f99ca	0.042871274
235	0xbd1d1390	-0.038348734
236	0x3b358a44	0.002770082
237	0xbcb31e05	-0.0218649
238	0xbd433266	-0.047655486
239	0xbda3a5e1	-0.07990623
240	0xbccdaef7	-0.025107844
241	0xbca73342	-0.020410184
242	0xbd321de9	-0.043485556
243	0x3abd1e5f	0.0014428607
244	0xbc19f9dc	-0.00939795
245	0x3d328a9e	0.043589227
246	0x3d6f935d	0.058490146
247	0xbd178ac8	-0.036997586
248	0x3d3a8c79	0.04554412
249	0x3bc2c315	0.0059436657
250	0xbd4b6f7a	-0.04966686
251	0xbbea356b	-0.007147481
252	0x3cb9e716	0.022693198
253	0x3b4f2dd8	0.0031613018
254	0xbb9b4019	-0.0047378656
255	0x3ca49120	0.020088732

ntm.controller.lstm.weight_ih_l1 f4 [400, 100]
0	0xbe8d709c	-0.27624977
1	0x3e4414c5	0.19148548
2	0xbe53603e	-0.20642182
3	0xbe594514	-0.21217757
4	0x3d48bff5	0.04901119
5	0x3dfc4d71	0.12319458
6	0xbd38bb1b	-0.045100313
7	0xbe844c98	-0.25839686
8	0xbcbeb44e	-0.023279335
9	0xbe8e4b56	-0.27791852
10	0x3e6d1150	0.23151135
11	0x3e91a00f	0.28442428
12	0x3e299d8b	0.16564004
13	0xbdd54a17	-0.10414522
14	0x3c19cd10	0.00938727
15	0xbd22730c	-0.0396605
16	0xbd2472c7	-0.040148523
17	0x3b2dbf4b	0.0026511725
18	0x3c3dee94	0.011592526
19	0xbd8ccd89	-0.0687514
20	0xbb42d074	-0.0029726299
21	0xbe220a2e	-0.15824196
22	0xbe01005f	-0.12597798
23	0xbe8a9dbf	-0.27073476
24	0xbc265ce3	-0.010153982
25	0xbe599160	-0.21246862
26	0xbe580ea7	-0.2109934
27	0xbdf775a9	-0.12082989
28	0x3df18f01	0.11794854
29	0x3eba91cd	0.36439362
30	0xbe0ea11c	-0.13928646
31	0xbea87145	-0.32898918
32	0x3eb5b437	0.35489056
33	0x3e52db96	0.20591578
34	0x3e3df240	0.18549442
35	0xbeab32b4	-0.3343712
36	0x3d2cbcaa	0.04217211
37	0xbe2dbb21	-0.16965915
38	0x3eb68cd7	0.35654327
39	0x3daa3670	0.083111644
40	0xbe5c4128	-0.2150923
41	0x3e907864	0.2821685
42	0xbea61d91	-0.32444432
43	0xbe54bdce	-0.2077553
44	0xbe0b9c15	-0.1363376
45	0xbe64d790	-0.22347856
46	0x3d8bc3ea	0.06824477
47	0xbe0a0bd1	-0.1348107
48	0xbcfb5022	-0.030677859
49	0x3ab66a3f	0.0013917162
50	0x3e70604e	0.23474237
51	0xbeae3359	-0.3402355
52	0x3cdefadf	0.027219234
53	0xbe129e18	-0.1431812
54	0xbe45c167	-0.19312058
55	0x3ebd93b0	0.3702674
56	0x3e9a47fb	0.30133042
57	0x3bd8310d	0.006597644
58	0xbd97967f	-0.07401752
59	0xbcdd83a6	-0.027040314
60	0x3ce09590	0.027415067
61	0xbe50a52a	-0.20375505
62	0x3ddf1ec8	0.10894543
63	0xbe87f20c	-0.26551855
64	0x3e23d86c	0.16000527
65	0x3d95894a	0.073015764
66	0xbeb3f1b5	-0.35145345
67	0x3e7824ae	0.24232742
68	0xbd18a57b	-0.03726719
69	0x3e61f51b	0.22066157
70	0x3e233dda	0.15941563
71	0x3e84b6e5	0.25920787
72	0xbe8c1c6c	-0.27365434
73	0x3e2e56dc	0.17025322
74	0xbc92cc9e	-0.017919835
75	0xbc56cba6	-0.013110077
76	0x3e30692b	0.17227618
77	0x3e7c687d	0.24649234
78	0x3e813e01	0.25242618
79	0x3d486e08	0.04893306
80	0x3eb160df	0.3464422
81	0xbe910ae5	-0.28328624
82	0x3c02b9e3	0.007978889
83	0xbe400b35	-0.18754275
84	0x3e5b0596	0.2138885
85	0xbe1b8651	-0.15187956
86	0x3df8930c	0.12137422
87	0xbdb1eb0e	-0.08687411
88	0x3ea09495	0.3136336
89	0x3e6d7fe3	0.23193316
90	0xbe54f3b0	-0.20796084
91	0x3ecc9232	0.39955288
92	0x3e8de10c	0.2771076
93	0x3e77cfce	0.24200365
94	0x3e8c9b9e	0.27462476
95	0xbdbae79b	-0.091262065
96	0x3dd4519b	0.103671275
97	0x3e6996bf	0.22811411
98	0x3e563195	0.20917352
99	0x3e8bff88	0.27343392
100	0xbe95a852	-0.2922998
101	0x3e9f743a	0.3114336
102	0xbe0b6387	-0.13612185
103	0x3e242fec	0.16033906
104	0xbe15f503	-0.14644246
105	0x3e0f34b8	0.13984954
106	0x3ebcd4a7	0.3688099
107	0xbe79f2b8	-0.24408996
108	0x3e9fddfe	0.31224054
109	0x3e975f91	0.295651
110	0x3cc688ee	0.024235215
111	0xbc882e93	-0.01662377
112	0x3e86a5db	0.26298413
113	0xbda1a1cb	-0.07892188
114	0x3e29d855	0.1658643
115	0x3e7acadf	0.24491452
116	0xbd97a11e	-0.074037775
117	0x3ea723a0	0.32644367
118	0xbd1f0c93	-0.03883035
119	0xbccabb21	-0.024747433
120	0x3e87f867	0.26556703
121	0xbe5108ce	-0.20413515
122	0x3e99db0b	0.3004993
123	0xbe8d9508	-0.27652764
124	0x3df01012	0.11721815
125	0x3dad1eff	0.08453178
126	0xbd83f553	-0.06443276
127	0x3e4d510b	0.20050447
128	0xbe8e3fc7	-0.27783033
129	0x3d636e8e	0.055525355
130	0xbe986e70	-0.29771757
131	0xbe9fbbc0	-0.3119793
132	0xbe8d87cb	-0.27642664
133	0xbd27aca7	-0.04093614
134	0xbea6d319	-0.3258293
135	0xbe4587f1	-0.19290139
136	0xbe979b4e	-0.29610676
137	0xbb40f962	-0.0029445519
138	0xbe611444	-0.21980387
139	0x3e4cfe7b	0.20018952
140	0xbe0670fc	-0.13129038
141	0x3d3b1be9	0.045680914
142	0xbe61af1f	-0.2203946
143	0x3e8bbe6d	0.2729372
144	0x3af49754	0.0018660822
145	0x3e119f83	0.14221005
146	0xbe7cbe59	-0.24681987
147	0xb868934b	-5.5450288e-05
148	0xbddf61be	-0.10907315
149	0x3e0dbd7f	0.13841818
150	0xbe1b8daf	-0.15190767
151	0x3db68901	0.0891285
152	0x3e7a0ba6	0.24418506
153	0x3e85d6ff	0.26140592
154	0xbe8a9397	-0.27065727
155	0x3d36fc8d	0.044674445
156	0x3e96d5a4	0.2945987
157	0x3e619f89	0.22033514
158	0xbe1ee787	-0.15518008
159	0x3de1f6bd	0.1103339
160	0xbdac4e21	-0.084133394
161	0x3d4c6ba8	0.049907357
162	0xbe3af31f	-0.18256806
163	0x3dca66ca	0.09882887
164	0xbe3b3609	-0.18282332
165	0xbe860d1d	-0.2618188
166	0xbeb630e0	-0.35584164
167	0x3e0d9da5	0.13829668
168	0xbe900dd6	-0.28135556
169	0x3e513bec	0.20433015
170	0xbd93274a	-0.07185228
171	0x3e623d30	0.22093654
172	0x3dc8e768	0.09809762
173	0xbe92cb78	-0.2867086
174	0xbebba425	-0.3664867
175	0x3ea592d4	0.32338583
176	0x3e7fe6fa	0.24990454
177	0xbea2091d	-0.31647578
178	0xbe8a8620	-0.27055454
179	0x3e636026	0.22204646
180	0xbddef222	-0.10886027
181	0x3d922b36	0.07137148
182	0x3ead5174	0.33851206
183	0xbd5ae577	-0.05344149
184	0x3d3bbfb8	0.045837134
185	0x3e9d7304	0.30751812
186	0xbe75397c	-0.2394771
187	0xbb8ec18b	-0.004356568
188	0xbe953ab2	-0.29146343
189	0xbe9d82fe	-0.30764002
190	0xbcff679a	-0.03117733
191	0xbe25b4da	-0.1618227
192	0x3c89f318	0.016839549
193	0x3e852979	0.26008204
194	0xbbdf5265	-0.006815242
195	0xbe45f785	-0.19332702
196	0xbe298f88	-0.16558659
197	0xbebf496d	-0.37360707
198	0xbd2c9368	-0.042132765
199	0x3c754ba5	0.014971648
200	0xbe6931f7	-0.22772966
201	0xbe70b85b	-0.23507826
202	0x3cb1c9ee	0.021702733
203	0x3cde0ac5	0.027104745
204	0xbecc29e8	-0.39875722
205	0x3e903e13	0.2817236
206	0xbe2d5bf4	-0.16929609
207	0xbd3f3b1a	-0.046687223
208	0xbe1a8c5f	-0.1509261
209	0x3e55141b	0.20808451
210	0xbe757584	-0.2397061
211	0x3e813ab2	0.25240093
212	0x3e3cdefe	0.1844444
213	0x3d00ee5e	0.031477325
214	0xbeb88f57	-0.3604686
215	0xbe739958	-0.23788965
216	0x3eb469e3	0.35237035
217	0x3cb8447f	0.022493599
218	0x3e6d103e	0.23150727
219	0xbec1d418	-0.37857127
220	0x3d93103e	0.07180832
221	0xbd8fad4d	-0.070154764
222	0x3e247ecc	0.16063994
223	0x3d9f3e79	0.077755876
224	0x3e33de98	0.17565382
225	0x3e845a5f	0.25850198
226	0xbea146d8	-0.31499362
227	0x3e7b2f85	0.24529846
228	0x3d204f36	0.03913804
229	0x3caf339f	0.02138692
230	0xbea21953	-0.31659946
231	0xbe95f4aa	-0.29288226
232	0xbdd43b81	-0.10362912
233	0x3ec3d7a6	0.38250464
234	0xbe24f928	-0.1611067
235	0x3e7d99bf	0.2476568
236	0x3d71f881	0.059074882
237	0xbe3b3d56	-0.18285117
238	0x3eae86aa	0.34087116
239	0x3e1aef9e	0.15130469
240	0xbeaa722f	-0.3329024
241	0xbe8b06d2	-0.2715364
242	0x3e72d7a6	0.23715076
243	0xbe8170f8	-0.252815
244	0xbe576055	-0.21032842
245	0x3abafca8	0.0014265971
246	0xbe783a9c	-0.24241108
247	0x3eb1c6df	0.3472204
248	0x3e37bfc6	0.1794425
249	0x3e66477e	0.2248821
250	0xbeac6473	-0.33670387
251	0x3e4220c0	0.18957806
252	0xbe8625ed	-0.2620081
253	0xbd99c4ed	-0.07508264
254	0xbd05ab78	-0.03263423
255	0xbec35ae5	-0.38155285
