results/priority-sort/priority-sort-task-1-batch-8000.model (torch_old, 876115 bytes, 49 tensors)

ntm.read0_bias f4 [1, 20]
00000000: d3d4 0b3c 2633 0a3c 0d66 07bc 898c 3e39
00000010: 1812 993b 836f 183c dd0b 193b bdf5 353c
00000020: 4dc3 c83b 41e3 3abc 7e4e a9ba f7b1 efba
00000030: 87a4 d5bc f7f7 3f3b 98dc 8b3c eb0f 77bc
00000040: 2d3b 1abc 44c2 453b e9ba 213c dc91 b03a
0.008534628 0.008435046 -0.008264077 0.00018172165 0.0046713464 0.00930393 0.0023353018 0.011105952
0.0061267973 -0.011406721 -0.0012917069 -0.0018287291 -0.02607943 0.0029292086 0.01707296 -0.015079479
-0.009413523 0.0030175606 0.009871223 0.0013471204

ntm.read1_bias f4 [1, 20]
00000000: 267f f33b 1622 21bb eb81 c93b 0605 d13b
00000010: 0769 5e3b 5980 a83b af91 49bb cb9c f5ba
00000020: 341a d5ba 100a a6ba 382b 9c3c dd00 363c
00000030: ccc1 94bb 4a2c 23bc fee3 2039 97bd dbbb
00000040: d487 113b e478 0e3c b770 1bbc ea51 78bb
0.0074309288 -0.0024586967 0.0061495206 0.0063787727 0.0033937113 0.0051422534 -0.0030757 -0.0018738745
-0.001625842 -0.0012667794 0.019063577 0.011108604 -0.004539704 -0.00995929 0.00015343723 -0.0067059505
0.0022206204 0.008695815 -0.0094873225 -0.0037890621

ntm.read2_bias f4 [1, 20]
00000000: 5ded 093c fb63 b1bc 3497 d63c b3e7 72bc
00000010: 8336 e93b 8ae3 683b b0e4 b03b 873d 343b
00000020: 1497 25bc 5b63 23bc 203e 243c ff13 88ba
00000030: 9203 64bb 583d 7b3b 6a02 dcba ab40 673b
00000040: 5561 853c 463c 81bc edb1 953c 13a6 32bc
0.008418408 -0.02165412 0.026195146 -0.014825749 0.007117094 0.0035536014 0.0053983554 0.0027502493
-0.010106821 -0.009972419 0.010024577 -0.0010381936 -0.0034792167 0.0038336124 -0.0016785387 0.0035286348
0.016281763 -0.01577581 0.018273318 -0.010903853

ntm.read3_bias f4 [1, 20]
00000000: e8fc 10bc 3ebf 0a3b a079 22bc e88e 9d3b
00000010: db03 d439 a6a9 643b ed59 b93c d3a3 4ebc
00000020: 4b5c d13a 9a11 0cba a5f1 3c3c 1565 d33b
00000030: 70e9 57ba f97e 823b 8e46 c23b 6160 06bc
00000040: 9582 6bbc 40a2 40bb 908b 13bc 1948 903c
-0.00884936 0.0021171118 -0.009916693 0.0048082955 0.00040438664 0.0034891157 0.022625888 -0.012612301
0.001597294 -0.0005343199 0.011532222 0.006451259 -0.0008236384 0.0039824215 0.005928821 -0.008201689
-0.014374395 -0.0029393584 -0.009005442 0.017612504

ntm.read4_bias f4 [1, 20]
00000000: b459 a93a ed3d 923c 466d eeba 1b01 f33b
00000010: 00a8 81bb 10fe 10bc e612 d2bb 501c 073c
00000020: f64c 1dbb 304d 083c 7e27 33bc 7455 70bc
00000030: 4b8f 44bc d85d 1dbc 57d2 c9b9 bdf3 d83a
00000040: 4a8c b83b 434f 13bb b7f8 8abc b6f7 293c
0.001292041 0.017851794 -0.0018190525 0.0074159033 -0.0039567947 -0.008849636 -0.0064109443 0.008246496
-0.002400217 0.008319184 -0.010934709 -0.014668811 -0.011997054 -0.009604894 -0.00038494423 0.0016552132
0.005631958 -0.0022477664 -0.0169643 0.010374

ntm.controller.lstm_h_bias f4 [2, 1, 100]
00000000: 7881 663d 0b14 71bd ca09 c5bc 89ad debd
00000010: 1631 dfbc e1e9 073d 6904 38bd 7d27 e3bc
00000020: cfbc 3e3d 4bf5 a0bb 4e2d 8d3c 78ec dcbc
00000030: 3822 653c 3b80 de3b 95fe 77bd 4b9d f43c
00000040: 6c2f 33bd ee5e b9bc b600 953d 4407 5a3d
00000050: f1de 8cbd c35b 9a3c be3e 693c 4a68 7bbd
00000060: 2cdd 96bd 5cbf 823d 7916 00bd f3fe 3ebd
00000070: 2db5 89bb 83c2 c8bc aa69 6fbd 2a27 95bd
00000080: 1342 00bb 5e24 72bd db05 f7bd 1464 ddba
00000090: 0eb9 c7bc 856c 02bd ed00 b13d 1467 16bc
000000a0: f4ab 523d 4ded 3dbd b27b 19bd e74a 1b3d
000000b0: 96ba 53bd e812 3ebc 3ca1 14bc 40f1 9c3d
000000c0: 2336 3a3d f0ef 3fba 37d8 f7bb 6a13 753d
000000d0: 4ffd ea3c 92a6 f83d a8e4 cebb 65c2 7b3c
000000e0: 0347 3b3c c8a4 90bd b5ac 1c3d 83a2 e53d
000000f0: 84be 863d 4b5e 7abc 274e 3d3d 768a c4bb
00000100: d938 ab3d 66b0 09bd e62e 00bd 86eb 57bd
00000110: a0ba 8ebd 70b3 78bd a570 13bd be83 a8bd
00000120: 690f 293b bdb0 663c ab9e d03c 17f6 23bd
00000130: 872e 8dbc d8e8 93bd 5276 a8bc 67c2 3c3c
00000140: a191 753d d78b aabc fb4e d5bd 1dba 1abd
00000150: 89bc e4bc c4af 02bc e163 37bd 97e7 75bd
00000160: db12 fb3a bdad a33d 2774 52bb 9948 9fbb
00000170: cec6 373d acda 89bc ea14 a63d cbdf 35bd
00000180: 5aa5 af3d 5b09 8a3d db79 a8bc 220e dabc
00000190: 336e 0f3e b2a0 cd3c 2f92 a83d 3e66 da3b
000001a0: b3fd bebd 9bfd 153d e9db d13c 06b2 a9bd
000001b0: 365f 833d d93f 87bd 067e 4d3d c049 1dbd
000001c0: dc7a a03d a9e5 b43d 580b a1bc 074e 8cbd
000001d0: e176 c33d 322a 823c ca94 36bd ea8a 173c
000001e0: b0b6 75bc 6c67 363d 3cf0 5d3c 7519 af3c
000001f0: 99c1 213c 3046 c0bc 0752 0e3c db05 d43d
00000200: 5585 ae3c 8784 f03d 8ea6 80bc a76a daba
00000210: 26c6 503d f804 083b 56f7 da3d d2d8 00bd
00000220: 497e b83c 63b5 3e3d 7684 d43d 5a16 37bd
00000230: ca9f 4e3d 84cc 5dbd 56fd a4bd 80b9 b8bb
00000240: 809b b9bc 4800 debb bd30 353d d1ce e4bc
00000250: 67cd 673d ff14 e5bc 932d 19bc f238 b43c
00000260: 174c 893d 605c 683b e518 7ebd 904b c7bc
00000270: 581a 0abe 512d 07bd 012b 833c 1cac 94bd
00000280: 993a 513d 6738 803d e55f 263d c6b7 4b3d
00000290: 0a41 32bd 8606 83bd 10cb e03c 7467 adbd
000002a0: 009b 74bd 93fa a53c 7c45 183d 0f4f f33d
000002b0: fa2b 86bd f6f5 a7bb 1181 653d 620f 03be
000002c0: edab 893b 8819 0f3d 8d1c 35bc dd85 97bd
000002d0: 5294 a0bc 1ef4 72bd 0af1 7d3b c761 6abd
000002e0: 2141 723d 22ff c5bd 4539 59bc 6d2a a2bc
000002f0: e81c 00bd e065 abbd bee1 99bc 035d 37bd
00000300: 814b b33c 707b c73d c57a cb3c 5953 12be
00000310: 3c75 313d 20c8 abbc f586 053e b272 db39
0.056275815 -0.058857005 -0.02405252 -0.10872943 -0.027245086 0.03318203 -0.04492608 -0.02772879
0.04656678 -0.0049120537 0.017233517 -0.026968226 0.013985209 0.0067901886 -0.060545523 0.02986016
-0.043746397 -0.022628274 0.07275526 0.053229585 -0.0687846 0.018842584 0.01423615 -0.061378755
-0.07366404 0.06384155 -0.03127143 -0.046629857 -0.004202506 -0.024506813 -0.05845038 -0.072828606
-0.0019570633 -0.059116714 -0.12061664 -0.0016890788 -0.024380233 -0.031841774 0.08642755 -0.009179849
0.05143352 -0.046368886 -0.03747148 0.03791323 -0.051691614 -0.011601187 -0.009071644 0.07663202
0.045461785 -0.0007321825 -0.0075636166 0.059832968 0.02868524 0.12141146 -0.006313879 0.0153661715
0.011430505 -0.070626795 0.038250644 0.11212637 0.06579307 -0.01528127 0.04621711 -0.005997951
0.08360452 -0.033615492 -0.031294726 -0.052714847 -0.0696919 -0.060718 -0.035996098 -0.08228253
0.0025796539 0.014080224 0.025466284 -0.04002961 -0.0172341 -0.07222146 -0.020564232 0.0115209585
0.059953336 -0.020818634 -0.10415455 -0.037775148 -0.027921932 -0.007976476 -0.044772986 -0.060035314
0.00191554 0.07992122 -0.003211269 -0.0048609492 0.04486733 -0.016827904 0.08109458 -0.04440288
0.0857646 0.06740066 -0.020565918 -0.026618067 0.14006881 0.02510104 0.08231007 0.0066650202
-0.09325733 0.03661881 0.025617557 -0.082859084 0.064146444 -0.06603975 0.050169013 -0.03840041
0.078359336 0.08832867 -0.01965873 -0.0685082 0.09544159 0.01588926 -0.04457549 0.009249428
-0.014997169 0.044532225 0.013546046 0.021374444 0.009872817 -0.023470968 0.008686549 0.10352679
0.021303812 0.117440276 -0.01570442 -0.0016663865 0.05097022 0.0020754915 0.10691707 -0.031456776
0.022521155 0.046559703 0.103768274 -0.04469905 0.050445355 -0.05415012 -0.080561325 -0.0056373477
-0.022657156 -0.006774936 0.044235934 -0.027930649 0.05659237 -0.027964113 -0.009349245 0.02199981
0.06703966 0.003545545 -0.06203546 -0.024328023 -0.13486612 -0.0330022 0.016011717 -0.0725939
0.051081274 0.06260758 0.040618796 0.049735807 -0.043519057 -0.063977286 0.027440578 -0.08466998
-0.059718132 0.020261085 0.03717564 0.118803136 -0.065513566 -0.0051257564 0.05603129 -0.12798837
0.0042014034 0.034936458 -0.01105417 -0.07398579 -0.019601975 -0.05931484 0.0038748407 -0.057222154
0.059144143 -0.09667803 -0.013258283 -0.01979562 -0.031277567 -0.083690405 -0.0187844 -0.044766437
0.021886589 0.09740341 0.024838815 -0.14289607 0.043324694 -0.02096945 0.13039763 0.0004185639

ntm.controller.lstm_c_bias f4 [2, 1, 100]
00000000: e57a 483d 4fcb dcbb 097e 28bd f81b 833c
00000010: 6435 d03c cbb4 49bd 50c4 cbbd ef63 233d
00000020: 01c2 11bd 5c7d 28bc 9ac6 b23d 1e14 35bd
00000030: 9a93 07bd 431c cbbc ab76 ce3d b4e2 96bc
00000040: 7bf4 4a3c a5ab a4bd f84a ed3b ce7c 2dbd
00000050: 05c1 02bd a114 25bd 4bf9 f43b db4b 00bc
00000060: 0d42 00bd c461 933d 8b23 003d d23b 8bbc
00000070: 37fa 8dbd 1b70 c93c 7aeb babd a2b0 6cbd
00000080: 7f42 feba 2474 b0bd bcea 0fbd ec54 a6bd
00000090: 4dec 07bd b2fc cfbd 485e c5bc df50 88bd
000000a0: 45d7 df3c 35cf 81bb d4f1 98bd b8b2 8d3c
000000b0: ee65 2a3d 7a04 5d3c 0f07 713c c9a8 6f3c
000000c0: d7b9 20bc 8ef2 273b 99bf 14bb 17c7 71b9
000000d0: bdda c53b 7622 d93c 8248 b63c 642d e1bc
000000e0: 4044 50ba 2628 893c 0d18 d1bb a912 593d
000000f0: a106 443d 861f a3bc e13e a6bb a795 b4bc
00000100: c6d3 16bc e30e 99bb a5f7 6ebd c672 7e3d
00000110: a16d 28bd 2bde 403b f835 833d 9ead f8bd
00000120: 842c 20bd 6468 5a3d 7ee1 9f3c e77d 2dbd
00000130: 26f1 b53c 3e9a f3bd ff50 80bd badf adbd
00000140: 8829 f6bc 1de9 3fbd aea0 6e3c 78a8 33bd
00000150: fd53 a63d 27ca 1ebc 4edb 4ebc ed9e ae3d
00000160: b8d6 7fbd 9eb8 6fbb 8b99 2d3c 18ed 693c
00000170: bb79 063d 7e8f 0bbd fe67 85bd bf2d fbbc
00000180: 0114 313d dddb a53a 2975 bc3c a7e7 8cbd
00000190: e66e 4b3c c602 033d e5aa afbc 3a2a babd
000001a0: aa7d bebd 5015 4ebd eb8d 9f3b f903 ccbb
000001b0: 3a44 8c3d dc24 bc3c 6345 3cbd e027 44bd
000001c0: ff3c 063c d5ee fabc 6777 0d3d f7b3 ad3d
000001d0: 5707 c63d 09f0 cc3d 2b81 1abb 33bf 90bc
000001e0: e71b cd3b bfb1 ccbc 40f4 20bd 150f a9bc
000001f0: 333a 04be b99c 293c 1bab 4c3d 61f4 003e
00000200: b1f2 dc3c edf8 85bd b4b1 09bb ca46 28bd
00000210: f3f2 863c 2c8d b03d ec41 913d 2dd8 e5bd
00000220: fcfe 943d bc0c 9a3d 233e 063d cb34 933c
00000230: b51d 993b 1cdc fa3c 591c 69bd 78fe 81bd
00000240: c8d9 85bc 32e2 debd 0d66 ef3c 203d 72bb
00000250: 33f5 ba3d 3c6a dc3d 2313 93bd 0554 46bd
00000260: 5cf0 0f3c 4fae 6fbd bef0 d0bc aea4 42bc
00000270: 2bc9 7bbd 1cf4 e33d 6948 1f3d aa67 5d3d
00000280: d962 ff3c e5a3 913c f261 87bd 63fe c3ba
00000290: f996 8bbd efc2 8a3c a510 76bc 4fb8 81bc
000002a0: e502 a9bc 5618 683d 605f 0f3d 639b 92b9
000002b0: 869c 3abd 705f 47bc bf94 873c 281d bf3d
000002c0: a985 f6bb 459e f3bc 2783 43bb a10e dbbb
000002d0: 375b 813d 242c a1bc ce8d 3a3d dbbe a6bd
000002e0: 1967 f8bc 3cc9 2dbd 2198 fe3b 7f9c 09be
000002f0: 76da b43d f8d2 eb3c 5405 403d cf2f 993d
00000300: 1e32 c4bd 8369 50bb b11d cd3d 5ddf 45bd
00000310: 4a53 16ba 01b4 e43b bb9d b33c 1daa 373d
0.048945326 -0.0067381035 -0.04113582 0.016004547 0.025416084 -0.049244683 -0.09949553 0.039890226
-0.035585407 -0.010283794 0.087292865 -0.04420864 -0.03309975 -0.02479375 0.10081228 -0.018418647
0.01238739 -0.08040551 0.007241603 -0.04235535 -0.03192236 -0.040302876 0.007476007 -0.007830585
-0.03131299 0.07196382 0.031283896 -0.016996298 -0.0693249 0.024589589 -0.09126945 -0.057785638
-0.001939848 -0.08615902 -0.03513597 -0.08121666 -0.03318434 -0.1015562 -0.024092808 -0.0665605
0.027324328 -0.0039614686 -0.07468 0.017297134 0.041601114 0.013489837 0.014711156 0.014627644
-0.009809933 0.0025626752 -0.002269721 -0.00023057718 0.0060380385 0.02650569 0.022251371 -0.027487464
-0.00079447404 0.016742777 -0.006381041 0.05299631 0.047857884 -0.019912492 -0.0050734137 -0.022044016
-0.009205764 -0.004670964 -0.05834164 0.062121175 -0.041120175 0.0029429297 0.06406778 -0.1214249
-0.039104953 0.05332221 0.019516703 -0.042356398 0.022209715 -0.11894654 -0.06265449 -0.08489938
-0.0300491 -0.046853174 0.014564676 -0.043861836 0.08121488 -0.009691752 -0.0126255285 0.085264064
-0.06246063 -0.0036578546 0.0105956895 0.014277719 0.032830935 -0.03407239 -0.065139756 -0.030661462
0.043231968 0.0012654025 0.023005085 -0.06880122 0.012416577 0.031985067 -0.021443794 -0.09090085
-0.09301312 -0.050313294 0.004869213 -0.0062260595 0.06848951 0.022966795 -0.04596461 -0.04788959
0.008193254 -0.030631462 0.0345377 0.08481591 0.09669369 0.100067206 -0.0023575525 -0.017669296
0.0062594297 -0.0249871 -0.039295435 -0.020637074 -0.12912826 0.010352307 0.049967866 0.12593223
0.026971193 -0.065416194 -0.002101046 -0.041083135 0.01647327 0.086206764 0.07092652 -0.11222873
0.07275197 0.0752196 0.032774102 0.01796951 0.004672731 0.030622534 -0.0569118 -0.06347364
-0.016339198 -0.10882987 0.029223466 -0.0036962703 0.09128799 0.1076245 -0.071813844 -0.04841997
0.0087853335 -0.058515843 -0.02550542 -0.011880083 -0.061471146 0.111305445 0.038887415 0.05405394
0.031175064 0.017778346 -0.066104785 -0.0014953132 -0.06815905 0.016938655 -0.015018617 -0.015834955
-0.020631263 0.056663834 0.035003066 -0.00027963062 -0.04555943 -0.01216875 0.01655042 0.09331733
-0.0075232578 -0.029738555 -0.0029832812 -0.0066850935 0.06316226 -0.019674368 0.04554539 -0.081418715
-0.030322598 -0.04242824 0.0077696 -0.13438605 0.088307306 0.028787121 0.04688008 0.07479822
-0.095798716 -0.003180117 0.10015429 -0.04830872 -0.0005734457 0.006979466 0.021925798 0.044839967

ntm.controller.lstm.weight_ih_l0 f4 [400, 110]
00000000: e0ad 7abe 1457 173e fe33 c73d 61e7 47be
00000010: e212 9bbe f4ce 61be ea44 df3d 50bf 493e
00000020: 54f2 8abe da8c a9bd 418b 23be 47d9 2d3d
00000030: 0a0b 6c3e 5d4b f13d 9b4e 2e3d 6c40 583e
00000040: c3de abbd a8cf ea3d 4614 863e d463 7dbe
00000050: eb1a 6a3d ac2e 9cbe 22dd 073d defd afbe
00000060: d00c 1f3d 29b3 42be e3e1 1abe d2f1 acbe
00000070: c528 82be fc92 e53a 0cfa 7d3d e50a 8cbe
00000080: 9c4a 5c3d cf58 ba3c cbe7 423e e9b5 8bbd
00000090: 959c a5be 177d a73e e39a 43be 901f 2d3e
000000a0: 6822 fa3d d395 9cbe 7a70 bd3d 9639 823d
000000b0: 8eb5 973e 9772 d13d 44b8 673e d1de 3d3e
000000c0: 93c2 543e 1d12 4fbe 685b 87bd 4969 043e
000000d0: d2f7 a13e 885d 27be c22b a6be 3e2f f2bd
000000e0: 7225 40bd f9d1 fbbc 4238 8b3e cb18 6dbe
000000f0: 2b50 b7be d7a5 2cbc f92f 03bd 3bbc 35be
00000100: 0b04 60be 00ae 95be 808f c33d a8b1 87bd
00000110: e5a3 1d3e 6a9e 3fbd da2e 67be a4a8 c23d
00000120: 4fe5 04bd b78c 203d 04a9 70be 67a6 9c3e
00000130: dc8a 023d 3bc6 5e3d b383 4c3e 679a 783e
00000140: dcd9 b9be f73b bc3d 669f 00be fa0c 20be
00000150: ff70 d4bd 2384 3f3e 5d3d 8e3c 9ab0 42be
00000160: e659 86be 6dc2 68bb 1874 3abc 86da a03e
00000170: 2d10 613e 7c6e 013d 1efd 0c3e 83af 67be
00000180: 66ef b2bd 1feb 723e 3024 b53e 7377 923d
00000190: 7765 923c 83ac 0bbe 7db0 2bbe 3b99 4bbe
000001a0: 05a7 ecbc 8700 dfbd c03b c43d f96f 963e
000001b0: 2fcb 923e a63a bb3d 6888 64be 5a96 eabc
000001c0: 294a 5cbe 33ee 91be dcb9 703e 45a1 b03d
000001d0: 21e0 423e dcc5 5e3e c7e1 8fbe addd a2bd
000001e0: 1174 213d 4985 a63d 6242 1abe 65b0 b4be
000001f0: 4c88 9b3e 12d8 4e3e bd2f 3e3e 8395 58be
00000200: 59c7 fa3c 7ac1 91be 06a5 273e a5c1 073e
00000210: 168c 97be 08d8 b93c 3dda 97be 0bfa 733d
00000220: 46e3 a03e 175c 96be 7b09 26bd 280b 993e
00000230: 3d36 a33d dd48 1c3e 2a5f 83be 72f5 aebe
00000240: 0423 68be 1547 b0bc 7a1f 59be ae6b 9a3e
00000250: 93dc 3fbe c54d cd3b 5524 a8be 1da0 91be
00000260: f8ad 393e e9c5 acbe cbee c53d c73c 853e
00000270: dec3 e53c 0c51 683e 5948 22be 8cdc f63d
00000280: de4a 3dbe 8e8d 80bd 8c94 95bc 51b6 c23d
00000290: 7425 5b3e ba1a 923d ba22 bf3d 17d9 49be
000002a0: 0e27 d1bd de91 243e 3b2c 8fbe 8990 a13e
000002b0: 5826 913e 074c db3d 0f6d f8bd 31fc 96be
000002c0: 3b26 9c3e d803 76be e1d2 4bbe cb02 edbd
000002d0: 3ab3 5e3e 00db 813e 302a 81be 602d b7be
000002e0: a78e 28bc 751b 59be d162 e13d a281 a5be
000002f0: 0a5f 48bd 26ba bcbc 231f 73be 64e2 a83e
00000300: 34b4 bfbe 55c4 abbe 53ec 47be 0a21 de3d
00000310: a321 acbd 23b2 983e 592d cebd 7c47 ec3d
00000320: 0546 0bbe 0664 b13c a4cf e33c 096f d13d
00000330: 1ecc 993e 66ab 023e c022 7b3c cebf 08be
00000340: 1341 5cbe 559b 913e cbcb 3a3e 008e 063e
00000350: 22ca 2dbe 8afb 3e3e 8a42 2e3d 63c4 bfbd
00000360: 1ca2 e2bc dfe9 103e 5d3b 413e f950 a53d
00000370: e7bc 653e 5c8b eabd b28f 313e 7c2f a33d
00000380: 4c5b c93d 14c9 193e d257 88bd 7bcc 10be
00000390: f4be 3bbc a2f8 973e efa6 853e 5ade 533e
000003a0: 1783 7dbe 84ee 67be ece5 6e3e 5ff7 6abe
000003b0: 5686 89be 304a 653e a16a d8bd 8348 e43c
000003c0: b749 a33d 13a4 fdbd 8202 c13d 236b 44be
000003d0: c50a 97be cdd8 efbd 6e82 58be b7f8 a7bd
000003e0: 42ba 4d3d a98e f0bb 79fb 9cbe ee33 11bd
000003f0: 7a96 01be fad3 92be 0969 38be 3272 85bd
-0.2448039 0.14779311 0.097267136 -0.19521858 -0.30287844 -0.22051603 0.10901816 0.19701886
-0.27138007 -0.082788184 -0.1597109 0.04244354 0.23051086 0.117819525 0.042555433 0.21118325
-0.08392098 0.114653885 0.26187342 -0.24745113 0.057154577 -0.30504358 0.033169873 -0.34373373
0.03883058 -0.19013657 -0.15125231 -0.33778244 -0.2542173 0.0017515118 0.06200604 -0.27352062
0.05378209 0.022747425 0.19033735 -0.06821806 -0.32346025 0.32712623 -0.19102053 0.16906571
0.12213594 -0.30583057 0.09249969 0.0635864 0.29630703 0.102269344 0.22628886 0.18542029
0.20777349 -0.20221753 -0.06609231 0.12930788 0.31634384 -0.16344273 -0.3245526 -0.11825417
-0.04691071 -0.030739771 0.2719136 -0.23153989 -0.3580335 -0.010537586 -0.032028172 -0.17747585
-0.21876542 -0.29234314 0.09548855 -0.06625682 0.15394552 -0.046781935 -0.22576466 0.09504822
-0.03244525 0.039196696 -0.23501974 0.30595705 0.031870708 0.054388266 0.19972114 0.2427765
-0.36299026 0.09191125 -0.12560806 -0.1562995 -0.10373115 0.1870275 0.017363245 -0.1901268
-0.26240462 -0.0035516277 -0.011380218 0.3141672 0.21978827 0.031599507 0.13768432 -0.22625546
-0.08737068 0.23722504 0.3537917 0.071516894 0.017870648 -0.13640027 -0.16766544 -0.19882672
-0.028888235 -0.108887725 0.09581709 0.29382303 0.28670642 0.09142046 -0.2231766 -0.028636146
-0.21512665 -0.28502044 0.235084 0.0862451 0.19030811 0.21755165 -0.28101942 -0.079524375
0.03941733 0.08130891 -0.15064386 -0.35290828 0.30377424 0.20199612 0.18572898 -0.21150784
0.030612634 -0.28467923 0.16371545 0.13257463 -0.29599065 0.02268602 -0.2965869 0.05956463
0.31423396 -0.29367134 -0.040536385 0.29891324 0.079693295 0.1526217 -0.25658542 -0.34171635
-0.22669607 -0.02151827 -0.21203414 0.30160278 -0.18736486 0.0062653744 -0.3284022 -0.2844247
0.1813277 -0.33744743 0.09664687 0.26022932 0.028047498 0.22687167 -0.15847911 0.12053785
-0.18485591 -0.062769994 -0.01825931 0.0950743 0.21401006 0.07134004 0.093327954 -0.1971172
-0.10212527 0.16071269 -0.27963433 0.31555584 0.28349566 0.107078604 -0.12130176 -0.29489282
0.30497918 -0.24024904 -0.19904663 -0.11572798 0.21748057 0.25362396 -0.252275 -0.35776806
-0.010287917 -0.2120188 0.11005176 -0.32325464 -0.04891876 -0.023037981 -0.23742346 0.32985222
-0.37442172 -0.33548227 -0.19523744 0.108461455 -0.08404853 0.29823408 -0.10067243 0.11537072
-0.13600929 0.02165414 0.027808972 0.102262564 0.30038542 0.12760696 0.015328109 -0.13354418
-0.21509199 0.2843882 0.18241803 0.13140106 -0.16971639 0.18650642 0.042543925 -0.0936363
-0.02766519 0.14151715 0.18870302 0.08072085 0.22435342 -0.11452362 0.17339972 0.07968041
0.098318666 0.15018111 -0.066573754 -0.14140503 -0.011459101 0.2968188 0.26103923 0.20690289
-0.24757038 -0.2264958 0.23329896 -0.22945927 -0.26860303 0.22391582 -0.10567213 0.027866608
0.07973044 -0.1238481 0.094243065 -0.19181494 -0.29500404 -0.11711273 -0.21143505 -0.082017355
0.050226457 -0.007341225 -0.30660608 -0.035449915 -0.12655059 -0.2867735 -0.18008818 -0.06515922

ntm.controller.lstm.weight_hh_l0 f4 [400, 100]
00000000: d55a 8bbe 097d 333c 06f3 52be 6910 6c3e
00000010: 4aaf 703e 1e99 3c3e e99b 6fbe 8808 8cbd
00000020: d2ba 35be c3db 643e 590a 85be b9c4 04be
00000030: 1584 673e d232 5cbe 5a65 7d3e dbe6 443b
00000040: 4582 a8bd 1d47 ebbd bc19 8dbe 408e 2bbe
00000050: e6c6 e9bd 62a4 41be 6942 58be 06bf 2dbc
00000060: e835 a83e 28f6 883d 8adb 853e 1e7d 0b3c
00000070: 6e1f 993e bfc4 afbd 46a3 94bd d779 843e
00000080: 1bfa 5a3d 6387 d9bd 20cc eb3d f5f6 453e
00000090: 0c4d 013e 218d 9abe ef8d 563e 1eb4 a3be
000000a0: c1a1 a63e c1d6 4c3e d0a6 6abe 0d8a 9f3e
000000b0: 5252 533d e08b a43e a977 a2be c7f1 93be
000000c0: c75b e23d 4e46 903e 1f47 093e 4d54 343e
000000d0: 9bd5 8c3c 3842 093c e180 29be 356a 29be
000000e0: 73f9 ee3d e5ef bbbd 167b edbd 52da 433e
000000f0: 88ef 8bbd 2d83 20be f643 71be 6f9e ba3e
00000100: 89bb 203e 6cc8 2fbe 3f7f 38be f8ec d63d
00000110: 3130 873e 6ddd b8be a90a 163d bc39 9a39
00000120: 8f6a 673e a235 0fbe a664 613e 2e7d 6fbc
00000130: d974 853d 9ae7 a83e 59ce 71be 9dd9 463e
00000140: 4135 0abe eca0 a3be 5d54 9c3e 736f 713e
00000150: ca4e 8f3e c211 8dbe 920a a2be bbc5 a2bd
00000160: abf0 023d fed3 27be e5ef 343e 0f4c 643e
00000170: b206 adbe 4feb 183e cc89 fe3d 3e1d 213d
00000180: 8728 7e3c 903a f33d da63 d23d 03b5 94be
00000190: c8da aa3e 033b f6bd 7ad5 3abe f2b4 03be
000001a0: 8323 35be 456b 563e afea d0bd 16c3 37bb
000001b0: fa6e 093e bf51 19be d56d 143e 74b4 1e3e
000001c0: 9467 94be 80d2 233e 844f 5dbe 89b3 183e
000001d0: 30d2 44be d76f 40be 5a8a 06be 9eab 9fbe
000001e0: 3796 f03c 8426 1bbe 79ce 1e3d 93ff bc3c
000001f0: c4db 683e d0a9 abbe accc a5be 212d 51be
00000200: 6ffc 9ebd a2a8 4b3e de98 9c3e 08f9 433e
00000210: 3c24 c63e 486b b4be cd81 883e 0650 543e
00000220: 07d5 27bd 9fd3 a2bc e83b 87be 1204 3cbd
00000230: 1fca 253e a529 77be 7ba6 a03e 42b0 763e
00000240: 507e 0abe a72a 313d d8cd 80bd 7180 d5bd
00000250: e488 123a 6ea4 35be 74c0 d23d 0ea2 4c3c
00000260: ac68 173e 1bc3 c13c 7fec 0bbe 1981 9cbe
00000270: cd73 813e 8060 093e 33c5 3abe 5b78 013e
00000280: 9093 703e 3520 5d3d b322 68be 518e 4dbe
00000290: 83a0 833e 3512 6b3e adc9 3cbe 412d 083c
000002a0: dfb6 c43e ef75 2ebe 974a 95be 0428 5e3e
000002b0: 69a5 eebd 0cca 27be ca46 abbe 39c6 7abe
000002c0: 7b21 4b3d aab5 443e 3c42 e23d 1cdf 7cbd
000002d0: 3cf1 20bd d76d 803e 357a c03d 09b4 6c3e
000002e0: b7b5 933d d36e 9d3e 1c11 93bb fc91 3ebe
000002f0: 4147 cc3d e7a7 7b3e e13a c5bd 2b64 993e
00000300: b8ba 433d cbed 943d f937 933d 8c05 6a3e
00000310: 9002 88bb c3fc ad3e 4718 5a3e 2e66 a63e
00000320: 53bd d2bd 62a7 6abd d2b1 943e 7188 8bbe
00000330: d35a c83d 4a2e b1bd a32b 343e 1376 7d3e
00000340: 14f1 913d c009 1b3e 72d2 423d 8289 6bbe
00000350: 1c81 4bbe 01b4 56be aabe 18be ca9f 9b3e
00000360: cdcc d13d 460f 9c3e f0d1 913e 4ed6 8ebe
00000370: 8f22 38be 4257 ad3e 454c 2bbe 36a8 9cbe
00000380: a6b8 a0be 10ff 81be f43d 583e 7b15 45be
00000390: 8fd6 863e bf33 0d3d 7469 a9be 9339 79be
000003a0: 2fb2 733e 03a8 f6bd abad 03bd ec02 53be
000003b0: dee4 3cbe 22e2 b43e c4eb 8a3e 8773 9c3e
000003c0: 2691 4c3e 93aa 3b3e 6ade 433d 6192 c13c
000003d0: 4a67 12be ffb1 7a3e 83f1 aa3e 30d7 a23c
000003e0: febb 283e 63dd 76be a9ab 70bd af52 dcbd
000003f0: 7851 55be 5b10 3f3e 1365 a7bd 75bf 733d
-0.27217737 0.010955104 -0.20600519 0.23053135 0.23504367 0.18417785 -0.23399319 -0.06837565
-0.17747048 0.22349457 -0.25984457 -0.12965669 0.22608979 -0.21503761 0.24745694 0.0030044827
-0.08227972 -0.11488173 -0.27558696 -0.16753483 -0.1141489 -0.18910363 -0.21119083 -0.010604626
0.32853627 0.066875756 0.26144058 0.008513717 0.2990679 -0.08582448 -0.072577044 0.25874206
0.053461175 -0.10621526 0.11513543 0.19332488 0.12627047 -0.30185798 0.20952581 -0.31973356
0.32545283 0.20003797 -0.22915196 0.31160012 0.05159218 0.32137966 -0.31731918 -0.288954
0.110526614 0.28178638 0.13406037 0.17610283 0.017191699 0.008377604 -0.1655307 -0.16544421
0.116686724 -0.091766156 -0.115957424 0.19126251 -0.06832796 -0.1567504 -0.23561081 0.36449
0.15696539 -0.17166299 -0.1801729 0.10494417 0.26403955 -0.36106434 0.03663126 0.00029416184
0.22599243 -0.13985303 0.2201105 -0.0146172475 0.065164275 0.32989198 -0.23613872 0.1941895
-0.13496877 -0.3195871 0.30533114 0.23577671 0.279898 -0.2755261 -0.3164869 -0.0794787
0.0319678 -0.16389462 0.17669638 0.22294639 -0.3379417 0.14933513 0.124286264 0.03933453
0.015512592 0.11876404 0.102729514 -0.2904435 0.33370042 -0.12022974 -0.18245497 -0.12861994
-0.17689328 0.20939358 -0.10201012 -0.0028039864 0.1342124 -0.1497259 0.14495023 0.15498525
-0.28985274 0.15998268 -0.21612364 0.14912237 -0.19220805 -0.18792664 -0.13138714 -0.3118562
0.029368503 -0.15151411 0.038771126 0.023071086 0.22740084 -0.33527994 -0.32382715 -0.20427372
-0.07762992 0.19888547 0.30585378 0.19137967 0.3869952 -0.352381 0.2666153 0.20733652
-0.040974643 -0.0198763 -0.26412892 -0.04590232 0.16190384 -0.2413698 0.31377015 0.24090675
-0.13524747 0.043253567 -0.062892616 -0.10424889 0.00055898563 -0.17738506 0.10290614 0.012489809
0.14786023 0.023652604 -0.13664435 -0.30567244 0.2528366 0.13415718 -0.18239288 0.12643568
0.2349379 0.053985793 -0.22669487 -0.2007382 0.25708398 0.22956164 -0.18436308 0.008311571
0.3842077 -0.17037176 -0.2915847 0.21694952 -0.11652643 -0.16385669 -0.33452445 -0.24489678
0.049592476 0.19209924 0.110477895 -0.06173621 -0.03929256 0.250838 0.09398309 0.23115553
0.07212394 0.30748615 -0.0044881236 -0.18610376 0.09974528 0.24575768 -0.09630371 0.29959235
0.04778549 0.07271918 0.0718841 0.22853678 -0.004150696 0.33981904 0.21298324 0.32499832
-0.10290017 -0.057288535 0.29041916 -0.27252534 0.09782948 -0.08651407 0.17594771 0.24752073
0.0712606 0.15140438 0.047563978 -0.23001674 -0.1987347 -0.20967104 -0.14916483 0.30395347
0.10244141 0.30480403 0.28480482 -0.27897877 -0.17981933 0.33855635 -0.16728313 -0.30597085
-0.31390876 -0.2538991 0.21117383 -0.19246475 0.2633557 0.034473177 -0.33088267 -0.24338369
0.2379844 -0.120437644 -0.032148045 -0.20606583 -0.18446681 0.35328776 0.27133 0.3055689
0.19977245 0.18326788 0.047819532 0.02362937 -0.14297214 0.24481963 0.33387384 0.019878
0.16477963 -0.2410789 -0.058757458 -0.10757958 -0.20831859 0.18658583 -0.08173575 0.05950876

ntm.controller.lstm.bias_ih_l0 f4 [400]
00000000: 0b18 e53c 117c 353b 4d40 bb3b 8087 3d3c
00000010: aa2d d3bc 765e 84bc ff29 84bb a56b 0abb
00000020: fe36 90bb ee66 a3bc 597a 31bc 8cd5 1bbd
00000030: 02ae 393c 98db 95bb 877a fabc 9c3f b03c
00000040: 7565 e83c b320 05b9 3d44 99bc 8593 e3bc
00000050: e7e7 a2bc 8fa8 9dbc 28d5 54bb 8072 68bb
00000060: 2fc1 da3c acc2 3639 897c df3a 29f7 4bbb
00000070: 1ada 793c e031 62bc a497 bd3b 99b1 c7bb
00000080: f089 80bb f85a 483c 457d 85bc b4d8 43bc
00000090: 31a6 ecbb 13a5 62ba 0d9f 93bc 12ba a6bc
000000a0: 024f 083b 9bc9 cd3b d23f a4bc aea5 7dbc
000000b0: d576 9c3c 77c1 4d3b 8252 c3bc 74a5 a33c
000000c0: 2b92 49bb e929 0d3c 6131 b4bc 8782 85bc
000000d0: c356 513b d78a 9dbc 09b8 b0bb 1847 23bc
000000e0: 7658 c83b a359 3bbb 3399 cabc 1c14 b73c
000000f0: 0dbd 9fbb 44fd c23c f8d5 a53b 4c9e c8bc
00000100: 7c35 153a a4d7 3a3b 26c6 13bc 73c0 9d3c
00000110: 45f6 f73b e5d5 ddbc 141b 27bd 87f7 473c
00000120: 899c e7bc 6191 2cbc e045 b5bc 4f72 b2bb
00000130: 73e9 dcbc f6f0 a5bc e681 f8bc 55de b7bc
00000140: 8f7e 98bc a8a9 4fbc 634d 32bd 0e8b 673b
00000150: 0ee4 2abc 9028 e0bc bab7 e63b 7502 053c
00000160: 0a9a 0e3b 85fe df3c 951d db3c 7675 12bc
00000170: a6f9 a0bc 1fe1 953c a749 b5bb a468 88ba
00000180: 048e f33b fa95 4ebc 36a1 cbbc 8479 cb3c
00000190: bbbe bc3c 8931 e13c 0161 833c 5d49 37bb
000001a0: 9a67 b4bc 8d22 083c d600 8d3b 442a 2cba
000001b0: e103 b23c ce5b 06bd 603c 69bc 9a44 6abc
000001c0: e68d 2d3c 58c1 063b 18b5 353b 80ba 0b3d
000001d0: d142 993c a99c 60bc b7c5 bbbb 3350 6abc
000001e0: 6b00 99bc 86a4 cfbc a724 023d e3e5 123a
000001f0: a553 e53c 6115 5f3c 2219 483c 10be 343c
00000200: d9ee 1a3c 7953 7cbc a074 b73c a0fc f5bb
00000210: 51dd 30bc d820 a53a 2341 48bc ebc1 fabb
00000220: 2b3f 4cbc 4202 de39 b3b8 ebbc 3c82 d0bc
00000230: a1a0 3b3c 63b4 e53c 3d8c 17bc 9853 cfbc
00000240: 651b 023d 368b 213c 3c3b 9abc f8db f13c
00000250: bed2 84bb fb3e 7e3c a784 62bc 417a 42bb
00000260: 278e 113c 68b3 2bbc c9a4 103d a85e d13a
00000270: f19d 113c 8c7a f3bb b79e 7ebc f6d9 b33c
00000280: 5f69 fdbb 2f52 e23c a0ab 023c 2788 9ebc
00000290: d38b 803c 6e03 aa3c 25a0 57bb d656 163d
000002a0: e7d1 013d 3cc8 a0bc 8565 c9bc 7370 793c
000002b0: 7cb7 dbbc 0239 a43b 4ad2 c0bc b79e 91bb
000002c0: dbf4 d7bc e583 60bc 2836 9abc cf42 963b
000002d0: 4e51 d7bc aa30 94bc c948 48bd 7b88 b33b
000002e0: 2a68 d0bb 2d60 12bd f1be 1f3c 7f51 a13c
000002f0: 5f99 273c d13f 183d b487 ea3c 3e2c c7bb
00000300: 2477 03bd a1ea 353c c10b 653c e2d9 2c3b
00000310: c9a3 553c 2209 e5bb 04ce 8a3c 6d01 e73c
00000320: 9a00 793c c920 02bb 327a bd3b a49a 55bb
00000330: 3279 a6bc f3d4 3d3b d9bf d13a 58db 36bc
00000340: f350 09bc b7a5 79bc 26d9 b93c 30a4 bb3b
00000350: 99d2 883c eed6 e5bb d269 333b 534b 5abc
00000360: 4cd0 9ebc 1426 cd3b 3b12 bc3b 829f f2b9
00000370: c325 e93c d2db 01bd 80c7 583c 1cff 28bb
00000380: 2d8c c93b 4471 183c 185c 863b 02fa 9238
00000390: 9912 eebc 3388 b0bc 140e cfbb a6ee ee3c
000003a0: b3e4 9fbc a754 9a3b 59d9 cb3c 757a acbc
000003b0: 0238 5dbc 059b 7c3b 3dfe 07bc ce63 f8bc
000003c0: cb47 67bc f32f 3b3b 8896 a4bb eac9 07bc
000003d0: 7d85 493b f2f4 523c e9c5 de3c c11a 3fbd
000003e0: 9e41 2f3d a41e ce3b 8e5d 97bc ff17 9b3b
000003f0: 4dfd be3c e064 003c 1f46 37bc ca18 703c
0.027965566 0.0027692358 0.0057144524 0.01156795 -0.02577861 -0.016158324 -0.0040333266 -0.002112129
-0.004401087 -0.019946542 -0.010832393 -0.03804545 0.011332991 -0.0045732968 -0.030576004 0.021514706
0.028368691 -0.0001269605 -0.018709296 -0.027780304 -0.01988597 -0.019245414 -0.0032475684 -0.0035468638
0.026703445 0.00017429393 0.0017050664 -0.003112266 0.015249753 -0.013805836 0.0057858992 -0.0060941693
-0.0039226934 0.01222872 -0.016295085 -0.0119535215 -0.00722196 -0.0008645814 -0.018020177 -0.020352397
0.0020799045 0.0062801368 -0.020049963 -0.015481396 0.019099632 0.0031395832 -0.023843054 0.019976355
-0.003075729 0.008615949 -0.021996202 -0.016297592 0.0031942583 -0.019231243 -0.0053930325 -0.009965681
0.006114061 -0.0028587363 -0.024731254 0.022348456 -0.0048748315 0.023802407 0.0050609075 -0.024489544
0.0005691869 0.002850988 -0.00901941 0.019256806 0.0075671994 -0.027079532 -0.040797308 0.012205011
-0.028272884 -0.010532708 -0.022128046 -0.0054457556 -0.026966786 -0.0202565 -0.030335378 -0.022444883
-0.018615035 -0.012674727 -0.043530833 0.0035330686 -0.010430349 -0.027363092 0.007040945 0.008118262
0.0021759295 0.027343044 0.026747504 -0.008939138 -0.019650292 0.018295823 -0.0055324617 -0.0010407162
0.007432701 -0.012608999 -0.024857145 0.024838217 0.023040166 0.02748944 0.016037466 -0.0027967312
-0.022022057 0.008309019 0.004303078 -0.00065675774 0.021730365 -0.032802396 -0.014235586 -0.014298582
0.010592913 0.002056202 0.0027726348 0.034113407 0.018708618 -0.013709226 -0.0057303566 -0.014301348
-0.018676957 -0.025347006 0.031773236 0.0005603714 0.027993986 0.013615937 0.012213023 0.011031643
0.00945636 -0.015400761 0.022394478 -0.007506922 -0.010794953 0.0012598289 -0.012222561 -0.0076525114
-0.012466232 0.00042344822 -0.028774595 -0.025452726 0.011451871 0.028040117 -0.009249744 -0.025308415
0.031764407 0.009859851 -0.018827073 0.029523835 -0.0040534427 0.015517945 -0.013825572 -0.002967492
0.008883989 -0.0104797855 0.0353134 0.0015973644 0.008887754 -0.00743038 -0.01554077 0.021954518
-0.0077335085 0.027627079 0.007975489 -0.019352032 0.015691673 0.020753589 -0.003290185 0.036703907
0.03169432 -0.01962673 -0.024584541 0.015224564 -0.02682089 0.0050116787 -0.023537774 -0.004443969
-0.026361873 -0.013703321 -0.018824652 0.004585601 -0.026283886 -0.018089611 -0.04889754 0.005478916
-0.0063600736 -0.03573625 0.009750114 0.01969218 0.010229438 0.037170235 0.028629161 -0.006078272
-0.032096043 0.011103303 0.013979853 0.0026374985 0.013039538 -0.006989614 0.016943939 0.028198922
0.015197897 -0.0019855967 0.005782389 -0.0032593394 -0.020321462 0.002896604 0.001600261 -0.011160694
-0.008381116 -0.015237263 0.022686552 0.00572636 0.016701983 -0.007014147 0.0027376306 -0.013323623
-0.019386433 0.006260643 0.005739478 -0.0004627668 0.028460389 -0.031703778 0.013231158 -0.0025786823
0.0061507435 0.009304348 0.004100334 7.00839e-05 -0.029061602 -0.02154932 -0.006318817 0.02916653
-0.019518232 0.0047097984 0.024883913 -0.021054486 -0.013502123 0.0038544547 -0.008300361 -0.030321028
-0.014116238 0.0028562516 -0.0050228275 -0.008287886 0.0030749731 0.012875782 0.02719398 -0.046656374
0.042787187 0.0062902737 -0.018477228 0.004733085 0.023314143 0.0078365505 -0.011186152 0.014654348

ntm.controller.lstm.bias_hh_l0 f4 [400]
00000000: 0b18 e53c 117c 353b 4d40 bb3b 8087 3d3c
00000010: aa2d d3bc 765e 84bc ff29 84bb a56b 0abb
00000020: fe36 90bb ee66 a3bc 597a 31bc 8cd5 1bbd
00000030: 02ae 393c 98db 95bb 877a fabc 9c3f b03c
00000040: 7565 e83c b320 05b9 3d44 99bc 8593 e3bc
00000050: e7e7 a2bc 8fa8 9dbc 28d5 54bb 8072 68bb
00000060: 2fc1 da3c acc2 3639 897c df3a 29f7 4bbb
00000070: 1ada 793c e031 62bc a497 bd3b 99b1 c7bb
00000080: f089 80bb f85a 483c 457d 85bc b4d8 43bc
00000090: 31a6 ecbb 13a5 62ba 0d9f 93bc 12ba a6bc
000000a0: 024f 083b 9bc9 cd3b d23f a4bc aea5 7dbc
000000b0: d576 9c3c 77c1 4d3b 8252 c3bc 74a5 a33c
000000c0: 2b92 49bb e929 0d3c 6131 b4bc 8782 85bc
000000d0: c356 513b d78a 9dbc 09b8 b0bb 1847 23bc
000000e0: 7658 c83b a359 3bbb 3399 cabc 1c14 b73c
000000f0: 0dbd 9fbb 44fd c23c f8d5 a53b 4c9e c8bc
00000100: 7c35 153a a4d7 3a3b 26c6 13bc 73c0 9d3c
00000110: 45f6 f73b e5d5 ddbc 141b 27bd 87f7 473c
00000120: 899c e7bc 6191 2cbc e045 b5bc 4f72 b2bb
00000130: 73e9 dcbc f6f0 a5bc e681 f8bc 55de b7bc
00000140: 8f7e 98bc a8a9 4fbc 634d 32bd 0e8b 673b
00000150: 0ee4 2abc 9028 e0bc bab7 e63b 7502 053c
00000160: 0a9a 0e3b 85fe df3c 951d db3c 7675 12bc
00000170: a6f9 a0bc 1fe1 953c a749 b5bb a468 88ba
00000180: 048e f33b fa95 4ebc 36a1 cbbc 8479 cb3c
00000190: bbbe bc3c 8931 e13c 0161 833c 5d49 37bb
000001a0: 9a67 b4bc 8d22 083c d600 8d3b 442a 2cba
000001b0: e103 b23c ce5b 06bd 603c 69bc 9a44 6abc
000001c0: e68d 2d3c 58c1 063b 18b5 353b 80ba 0b3d
000001d0: d142 993c a99c 60bc b7c5 bbbb 3350 6abc
000001e0: 6b00 99bc 86a4 cfbc a724 023d e3e5 123a
000001f0: a553 e53c 6115 5f3c 2219 483c 10be 343c
00000200: d9ee 1a3c 7953 7cbc a074 b73c a0fc f5bb
00000210: 51dd 30bc d820 a53a 2341 48bc ebc1 fabb
00000220: 2b3f 4cbc 4202 de39 b3b8 ebbc 3c82 d0bc
00000230: a1a0 3b3c 63b4 e53c 3d8c 17bc 9853 cfbc
00000240: 651b 023d 368b 213c 3c3b 9abc f8db f13c
00000250: bed2 84bb fb3e 7e3c a784 62bc 417a 42bb
00000260: 278e 113c 68b3 2bbc c9a4 103d a85e d13a
00000270: f19d 113c 8c7a f3bb b79e 7ebc f6d9 b33c
00000280: 5f69 fdbb 2f52 e23c a0ab 023c 2788 9ebc
00000290: d38b 803c 6e03 aa3c 25a0 57bb d656 163d
000002a0: e7d1 013d 3cc8 a0bc 8565 c9bc 7370 793c
000002b0: 7cb7 dbbc 0239 a43b 4ad2 c0bc b79e 91bb
000002c0: dbf4 d7bc e583 60bc 2836 9abc cf42 963b
000002d0: 4e51 d7bc aa30 94bc c948 48bd 7b88 b33b
000002e0: 2a68 d0bb 2d60 12bd f1be 1f3c 7f51 a13c
000002f0: 5f99 273c d13f 183d b487 ea3c 3e2c c7bb
00000300: 2477 03bd a1ea 353c c10b 653c e2d9 2c3b
00000310: c9a3 553c 2209 e5bb 04ce 8a3c 6d01 e73c
00000320: 9a00 793c c920 02bb 327a bd3b a49a 55bb
00000330: 3279 a6bc f3d4 3d3b d9bf d13a 58db 36bc
00000340: f350 09bc b7a5 79bc 26d9 b93c 30a4 bb3b
00000350: 99d2 883c eed6 e5bb d269 333b 534b 5abc
00000360: 4cd0 9ebc 1426 cd3b 3b12 bc3b 829f f2b9
00000370: c325 e93c d2db 01bd 80c7 583c 1cff 28bb
00000380: 2d8c c93b 4471 183c 185c 863b 02fa 9238
00000390: 9912 eebc 3388 b0bc 140e cfbb a6ee ee3c
000003a0: b3e4 9fbc a754 9a3b 59d9 cb3c 757a acbc
000003b0: 0238 5dbc 059b 7c3b 3dfe 07bc ce63 f8bc
000003c0: cb47 67bc f32f 3b3b 8896 a4bb eac9 07bc
000003d0: 7d85 493b f2f4 523c e9c5 de3c c11a 3fbd
000003e0: 9e41 2f3d a41e ce3b 8e5d 97bc ff17 9b3b
000003f0: 4dfd be3c e064 003c 1f46 37bc ca18 703c
0.027965566 0.0027692358 0.0057144524 0.01156795 -0.02577861 -0.016158324 -0.0040333266 -0.002112129
-0.004401087 -0.019946542 -0.010832393 -0.03804545 0.011332991 -0.0045732968 -0.030576004 0.021514706
0.028368691 -0.0001269605 -0.018709296 -0.027780304 -0.01988597 -0.019245414 -0.0032475684 -0.0035468638
0.026703445 0.00017429393 0.0017050664 -0.003112266 0.015249753 -0.013805836 0.0057858992 -0.0060941693
-0.0039226934 0.01222872 -0.016295085 -0.0119535215 -0.00722196 -0.0008645814 -0.018020177 -0.020352397
0.0020799045 0.0062801368 -0.020049963 -0.015481396 0.019099632 0.0031395832 -0.023843054 0.019976355
-0.003075729 0.008615949 -0.021996202 -0.016297592 0.0031942583 -0.019231243 -0.0053930325 -0.009965681
0.006114061 -0.0028587363 -0.024731254 0.022348456 -0.0048748315 0.023802407 0.0050609075 -0.024489544
0.0005691869 0.002850988 -0.00901941 0.019256806 0.0075671994 -0.027079532 -0.040797308 0.012205011
-0.028272884 -0.010532708 -0.022128046 -0.0054457556 -0.026966786 -0.0202565 -0.030335378 -0.022444883
-0.018615035 -0.012674727 -0.043530833 0.0035330686 -0.010430349 -0.027363092 0.007040945 0.008118262
0.0021759295 0.027343044 0.026747504 -0.008939138 -0.019650292 0.018295823 -0.0055324617 -0.0010407162
0.007432701 -0.012608999 -0.024857145 0.024838217 0.023040166 0.02748944 0.016037466 -0.0027967312
-0.022022057 0.008309019 0.004303078 -0.00065675774 0.021730365 -0.032802396 -0.014235586 -0.014298582
0.010592913 0.002056202 0.0027726348 0.034113407 0.018708618 -0.013709226 -0.0057303566 -0.014301348
-0.018676957 -0.025347006 0.031773236 0.0005603714 0.027993986 0.013615937 0.012213023 0.011031643
0.00945636 -0.015400761 0.022394478 -0.007506922 -0.010794953 0.0012598289 -0.012222561 -0.0076525114
-0.012466232 0.00042344822 -0.028774595 -0.025452726 0.011451871 0.028040117 -0.009249744 -0.025308415
0.031764407 0.009859851 -0.018827073 0.029523835 -0.0040534427 0.015517945 -0.013825572 -0.002967492
0.008883989 -0.0104797855 0.0353134 0.0015973644 0.008887754 -0.00743038 -0.01554077 0.021954518
-0.0077335085 0.027627079 0.007975489 -0.019352032 0.015691673 0.020753589 -0.003290185 0.036703907
0.03169432 -0.01962673 -0.024584541 0.015224564 -0.02682089 0.0050116787 -0.023537774 -0.004443969
-0.026361873 -0.013703321 -0.018824652 0.004585601 -0.026283886 -0.018089611 -0.04889754 0.005478916
-0.0063600736 -0.03573625 0.009750114 0.01969218 0.010229438 0.037170235 0.028629161 -0.006078272
-0.032096043 0.011103303 0.013979853 0.0026374985 0.013039538 -0.006989614 0.016943939 0.028198922
0.015197897 -0.0019855967 0.005782389 -0.0032593394 -0.020321462 0.002896604 0.001600261 -0.011160694
-0.008381116 -0.015237263 0.022686552 0.00572636 0.016701983 -0.007014147 0.0027376306 -0.013323623
-0.019386433 0.006260643 0.005739478 -0.0004627668 0.028460389 -0.031703778 0.013231158 -0.0025786823
0.0061507435 0.009304348 0.004100334 7.00839e-05 -0.029061602 -0.02154932 -0.006318817 0.02916653
-0.019518232 0.0047097984 0.024883913 -0.021054486 -0.013502123 0.0038544547 -0.008300361 -0.030321028
-0.014116238 0.0028562516 -0.0050228275 -0.008287886 0.0030749731 0.012875782 0.02719398 -0.046656374
0.042787187 0.0062902737 -0.018477228 0.004733085 0.023314143 0.0078365505 -0.011186152 0.014654348

ntm.controller.lstm.weight_ih_l1 f4 [400, 100]
00000000: c71b 85be 6f4d 473e e05f 4dbe 90d7 35be
00000010: 3955 2e3c d951 7c3d b141 76bd 0318 8ebe
00000020: 8e39 0f3d f961 abbe aba9 7b3e ebea 973e
00000030: 01c4 663e 9cab 05be 4e23 5bbd 88d5 b0bd
00000040: c4bb 14bd 4289 773d d55a 1ebc 643b 8ebd
00000050: 10d4 403c 0372 38be a21e cabd 01b5 62be
00000060: 2847 e2bb 3871 74be 2d04 39be 7b87 dbbd
00000070: 9be1 c03d a0d2 9a3e 8f99 0abe bc56 a4be
00000080: 48e6 8d3e dbd4 573e c04f 383e 4dac a7be
00000090: c9c0 953d fb4a 16be 3b22 b13e 826d 113e
000000a0: 63d3 59be f16e 853e a568 afbe d89f 70be
000000b0: 1f17 08be ec14 68be d59c 883d caa0 03be
000000c0: b2e0 a03a f898 7ebd c5f0 5c3e 9c20 a8be
000000d0: aee8 313d 723a 4fbe b214 24be 1abc a73e
000000e0: 7229 913e 36bd 9b3d 583b 1abe 1018 c7bd
000000f0: 637c ea3d 3585 5dbe 08e2 a93d bd5d 8abe
00000100: d4f7 003e 9a16 0d3b 3609 96be 016a 8c3e
00000110: 8efa 07be b027 673e 50c0 413e 2ec8 a03e
00000120: 07ea 93be 479c 153e e563 8ebb 2a56 a5bc
00000130: 62e3 443e e2f1 643e 7d60 463e bab7 2d3d
00000140: ab63 a73e 46a4 6fbe 1577 9d3b 9c7d 35be
00000150: c761 823e df48 33be ba2b 943d bc23 abbd
00000160: da30 9e3e c335 563e f24e 35be 5b9c ad3e
00000170: 94aa 483e e53b 883e f123 a23e 9611 1abe
00000180: 8405 d73d 44f9 7f3e 790c 603e 0c97 6f3e
00000190: ce4f 97be 43bb 803e 6d52 14be b17d 4e3e
000001a0: a102 babd 4c19 e53d 3398 b93e 89f8 86be
000001b0: b06d ad3e f8e6 853e c1fa d73d b8ce cebb
000001c0: c601 823e 3dc8 72bd 939c 3a3e 34fa 5e3e
000001d0: 9814 4abd 4186 a33e c902 dcbc 74fb a33b
000001e0: 300f 8a3e e769 46be 9022 8a3e 720d 89be
000001f0: 920e d53d eba0 d33d f345 f1bc cb38 2f3e
00000200: cdf0 99be 3c27 8e3c 1624 87be e2d4 aabe
00000210: 23ee 97be 6650 f0bd 43f9 94be c640 66be
00000220: e7ca 92be 4fa6 733c 1040 41be b1c3 4c3e
00000230: 143c 39be 95d1 8f3d 7023 52be 4a12 a53e
00000240: b49b 69bb 3343 1b3e 51fd 86be 00bd f0bb
00000250: 5383 d8bd 8d27 033e 47d8 29be bf91 da3d
00000260: 7014 813e 53a0 943e a2d0 90be 8f00 023e
00000270: fb27 8c3e 9656 6a3e 9fdb 55be 7bd4 153e
00000280: 08cd 8ebc 6c1f 9d3d 5d5d 3ebe c360 e53d
00000290: 94c5 0abe 1235 7ebe bb5b b6be 2d32 3a3e
000002a0: 5b7d 93be da0f 543e 66e9 e2bd 2171 813e
000002b0: 8c94 003e c125 76be 1251 a2be 0eca a43e
000002c0: cc55 603e 1df9 a5be 5d7a 94be 8c83 813e
000002d0: d368 93bd b912 fa3d f96e af3e 869e 68bd
000002e0: 118f ab3d 8192 8d3e 05d3 53be edfd f43c
000002f0: b368 9dbe d984 a3be 19bb a7bd f194 1abe
00000300: 3bb4 b0bc 072c 7f3e bb89 00bd 3262 1bbe
00000310: 8002 53be 6803 a7be 56b4 89bd 997e 693d
00000320: 7a91 4ebe 0c0c 6cbe b11a ba3d da63 6b3b
00000330: 8375 52be 3de7 8a3e 0a31 f7bd 918e 6abd
00000340: 1e06 37be c661 383e cd50 7dbe f161 8a3e
00000350: d347 d23d 28d9 8f3b f1db b1be 1e07 a6be
00000360: 70cf 963e c566 813d 3615 883e 4283 66be
00000370: 6a01 0c3e 667b 09bd a91a 283e a8f1 dc3c
00000380: 59de 223e 1204 553e 5f0d 4dbe 5459 9b3e
00000390: 2b5e ebbc a01f d3bd 2330 81be a3d3 5dbe
000003a0: b826 00be f236 a43e 9afb 24be 685d 5a3e
000003b0: 7c6e 9b3d 48b6 21be 96b2 a53e 63cf 0c3e
000003c0: 944b adbe 42bb 73be cd25 183e 6cdb 72be
000003d0: cdda 4dbe a6e3 87bb e6c0 99be 1cbd 7d3e
000003e0: ceed 903e 1707 323e 0e47 99be 7a74 6f3e
000003f0: d058 56be 102b 9bbd 367a f4bd c763 9ebe
-0.25997755 0.19463132 -0.20056105 -0.17758012 0.010640436 0.061601494 -0.060121242 -0.27752694
0.034966998 -0.33473185 0.24576442 0.29671416 0.22535707 -0.13053745 -0.053500466 -0.08634478
-0.03631188 0.060433634 -0.009665211 -0.069449216 0.01176931 -0.18012242 -0.09869124 -0.2213936
-0.006905455 -0.23871315 -0.18067999 -0.107192 0.09418031 0.3023882 -0.1353514 -0.32097423
0.27714753 0.21077292 0.17999172 -0.32748643 0.073121615 -0.1467704 0.34596428 0.1420193
-0.21272044 0.26061204 -0.34259525 -0.23498476 -0.1329007 -0.22664231 0.06670538 -0.12854305
0.0012273996 -0.0621576 0.21576221 -0.3283738 0.04343479 -0.20237139 -0.1602352 0.32760698
0.28351933 0.076044485 -0.150617 -0.097213864 0.11449506 -0.21632846 0.08295065 -0.27024642
0.12594539 0.0021528364 -0.29303902 0.27424625 -0.13279173 0.22573733 0.18921018 0.31402725
-0.28889486 0.14610396 -0.0043454044 -0.020182688 0.19227365 0.22357896 0.19372745 0.042411543
0.32693228 -0.23402509 0.0048054554 -0.17723697 0.25465223 -0.17508267 0.07234903 -0.08356425
0.30896646 0.20918946 -0.17705896 0.33908352 0.1959632 0.26608196 0.31668046 -0.15045771
0.10499099 0.24997431 0.21879758 0.23397464 -0.29553074 0.2514287 -0.14484568 0.20165135
-0.09082533 0.111864656 0.3624893 -0.26361492 0.33872747 0.26152778 0.105458744 -0.006311264
0.25391978 -0.059272993 0.18223791 0.21775132 -0.049336046 0.31938365 -0.026856797 0.005004341
0.26964712 -0.19376336 0.26979494 -0.2676807 0.1040317 0.10333427 -0.0294523 0.17111509
-0.3006653 0.017352693 -0.2639472 -0.33365542 -0.2967387 -0.11734085 -0.29096422 -0.22485647
-0.28670427 0.014871194 -0.18872094 0.19996525 -0.18089324 0.070223965 -0.20521331 0.32240516
-0.0035645785 0.15162353 -0.2636514 -0.0073467493 -0.10571923 0.12808056 -0.1658641 0.1067233
0.25210905 0.29028568 -0.28284174 0.12695526 0.27374253 0.22884592 -0.2088456 0.14631836
-0.01743175 0.07672009 -0.18590303 0.112000965 -0.13551933 -0.24824932 -0.3561686 0.18183203
-0.28806576 0.20709172 -0.110796735 0.25281623 0.12556666 -0.2403784 -0.31702477 0.32185405
0.21907729 -0.3241662 -0.28999606 0.25295675 -0.07197728 0.12210602 0.34264353 -0.056791805
0.08376897 0.27650836 -0.20685966 0.029906237 -0.30743942 -0.31937292 -0.08189983 -0.15095879
-0.021570316 0.24919139 -0.03138135 -0.15174177 -0.20606422 -0.32619786 -0.067238495 0.0570055
-0.20172682 -0.2305147 0.09087122 0.003591767 -0.2055264 0.27129546 -0.120699 -0.05726487
-0.17873427 0.18006048 -0.24737854 0.27027848 0.10267606 0.0043899007 -0.34738114 -0.32427305
0.29455137 0.0631843 0.26578683 -0.22511008 0.13672414 -0.033564948 0.1641642 0.0269707
0.15905131 0.20802334 -0.20024632 0.3034159 -0.028731426 -0.10308766 -0.25232038 -0.21662764
-0.1251477 0.3207317 -0.16111603 0.21324694 0.075894326 -0.15792191 0.32362813 0.13750987
-0.33846724 -0.23801902 0.1485817 -0.23716515 -0.20102997 -0.004147011 -0.30029982 0.24779171
0.2830643 0.17385517 -0.29937023 0.23384276 -0.20932317 -0.07576573 -0.119373724 -0.309355

ntm.controller.lstm.weight_hh_l1 f4 [400, 100]
00000000: ecc0 623e 5833 8f3d a420 a7be cc03 80bc
00000010: d214 723d 3079 05be 5032 393e 2cc0 5a3c
00000020: cb76 473e 10fe 99be ecad 13bc 5344 2ebd
00000030: 6202 453d d348 f0bb 5fdd 3cbe 640e a9be
00000040: 4fbd 3dbe f9ed a73e 23f2 acbd 9d36 72bc
00000050: 7662 ab3d 67f9 443e e112 233e 9af1 b23d
00000060: 9af8 2d3e df72 453c cb25 16be 29a4 8c3e
00000070: 11d2 643e 4b4c 9a3d f4e5 473e 447d 9ebe
00000080: ef51 67bd dc5e a83e 65a3 77be caaa c13d
00000090: c9ab 663e d704 fbbd 0115 803e 12a8 bb3d
000000a0: 58c4 a23c 8a3e 9d3e 9d9f 193e 1e54 9d3e
000000b0: 3b07 57be c5fb 49be 6921 2a3e 6e92 82be
000000c0: a4c8 4d3b 98b5 acbe aca9 78be dc12 863e
000000d0: 041a 9fbb 9275 623d cedf 9d3d c29d 89be
000000e0: 0e20 c9bd fbb1 733e 9062 90be d4c9 5b3e
000000f0: 933b 18be caa4 34be 68f9 81be b2ec 65be
00000100: 5443 babe 4be9 61bb 0165 7c3e bc08 8dbe
00000110: c592 f53c 8033 3e3d 0434 ef3d 6b44 68bd
00000120: 436e 3d3e 9000 9fbe 73d6 1a3e 7199 36be
00000130: 5e5f 843e 9284 9cbd 7385 c43d 5be1 5c3d
00000140: 461d f43c ad77 363e fe73 423c 49f6 233d
00000150: 0ed6 183e ba6d 613e 1fe6 acbe 5a52 573e
00000160: c632 473e f8c9 083e a6ae a6be 3eec 33be
00000170: ea3a cc3d f0ab 7b3e dc3c 81be 2010 eabd
00000180: 5eb9 99be d332 afbd 4c21 b33a 2f7f 5b3e
00000190: 2df8 eabd 4e43 59be 589d 63be f764 a43e
000001a0: 0bee f83d 1dcf 8fbe 78eb 45be a9f9 663c
000001b0: 12e7 a9bd cc09 28be 09e1 86be fee1 aa3e
000001c0: 879f 1f3d 09e1 9a3e d082 48be 8da3 8cbe
000001d0: 72c7 9a3e 0a61 003e ed1e 10be 933b af3e
000001e0: 5043 a4bc d5d2 c8bc f195 fd3c 8154 7bbd
000001f0: 72a1 433e 7aaa 5bbe d8c7 97be 4a72 96be
00000200: 1108 8cbd 1e2c a93e 4b91 36bc 4032 2b3e
00000210: ca39 203e 79d1 0d3e 4fde 3cbd 0ef7 a73d
00000220: 690b 87be 3f18 88be f451 083e 24ee cdbc
00000230: 7cbb a1be b927 813e 68d6 c2be d083 e33d
00000240: f861 d3bd df41 9c3e 3a02 133e ba4d 82be
00000250: 4038 e73d 13b8 e93d 0803 55be fc70 afbe
00000260: b43c 3c3d ccbb 92be 076a 193e 26d6 81bd
00000270: aa04 5e3e a30b 8d3c 1a2c 723e 9561 a23e
00000280: 8070 fcbd 17e7 953d d6d5 52be d0df a33d
00000290: 6937 273d b4b7 8bbe 536b 81be 070d 983e
000002a0: 900c 21be a1a0 883e 4482 7dbd ecf5 8a3e
000002b0: eecc 09be 46fb 89be d22b 4d3e 5bf2 b83c
000002c0: 5d44 5b3e 45e4 29be db83 923e 09b7 4f3e
000002d0: 0237 8fbe f117 813e 0dc6 fcbd 3613 483e
000002e0: c428 14be dfeb 353e 6263 d93d 4efd 51be
000002f0: 1356 293e 964e c83c 8f2f d63d c0a0 a8be
00000300: ccb1 ab3d 004f 713e cd88 9f3e 0e2a 8e3e
00000310: 9894 a03e b902 503e e3dc 41be 8a88 a23e
00000320: a4fb 283e 7aea 8d3e 8b01 1abe a150 22bd
00000330: 6247 90be 8805 84be 0e97 793d f15a 7b3e
00000340: d716 153e 8079 1c3e 6062 ef3d 75e0 5d3e
00000350: 318e 27be c0d3 92bd daf2 af3d e30f 0abe
00000360: e245 b23e 4a40 173e 329d 603e 37a5 16be
00000370: 0a65 28bd cce4 903b 8328 a2be ffb3 8d3e
00000380: 2178 3dbd c293 95be 9eb9 69be 256c 7b3e
00000390: edd4 903e 5e9b b33d 8b75 973e 84c2 983d
000003a0: b23b 863e 1d42 afbe 73bc 4fbd 1e67 1bbd
000003b0: 095a 15bd a206 f7bc 331e 173c bc09 3fba
000003c0: a5be 93be 6fbd 72be 463c fcbc af66 dfbc
000003d0: 3b86 8e3e 4822 9abe 01bc b33d d416 103e
000003e0: 94ed 92be 58cd 163e 4c7a b93d 785a 2a3e
000003f0: 22b5 3abe 9b85 ac3e d8a4 0e3e 16b6 663c
0.22143906 0.06992215 -0.3264209 -0.01562681 0.059101887 -0.1303451 0.18085599 0.013351481
0.1947891 -0.30076647 -0.009013634 -0.042545628 0.048097976 -0.0073329 -0.18443821 -0.33018792
-0.18529247 0.32798746 -0.084446214 -0.014783529 0.08368389 0.19235764 0.1592517 0.08737488
0.16989365 0.012051313 -0.14662854 0.27468994 0.22345759 0.07534083 0.19521314 -0.30954945
-0.056474622 0.32884872 -0.24183424 0.094564036 0.22526468 -0.122567825 0.25016025 0.09162916
0.019869015 0.30711776 0.15002294 0.3072824 -0.20998852 -0.19724949 0.16614307 -0.25502342
0.0031400109 -0.33732295 -0.24283475 0.26186264 -0.004855396 0.055287905 0.07708703 -0.26878172
-0.09820567 0.23798363 -0.28200197 0.2146371 -0.14866476 -0.17640987 -0.25385594 -0.22453573
-0.36379492 -0.003447133 0.24647905 -0.27545726 0.029977212 0.046435833 0.11679843 -0.056705873
0.18499093 -0.31055117 0.15120868 -0.17831971 0.2585401 -0.07642473 0.09595766 0.053925853
0.029799115 0.1781909 0.011868475 0.040029798 0.14925405 0.22014514 -0.33769318 0.21027508
0.19452962 0.13358295 -0.3255512 -0.17570588 0.099721745 0.24577308 -0.25241745 -0.11428857
-0.30024236 -0.08554616 0.001366654 0.21435235 -0.11473117 -0.21217081 -0.2222799 0.3210828
0.12154778 -0.28087702 -0.19328105 0.01409761 -0.08296026 -0.16409987 -0.26343563 0.33375543
0.038970497 0.30249813 -0.19581151 -0.2746853 0.3023029 0.12537017 -0.14074297 0.3422514
-0.020051628 -0.024514595 0.030955287 -0.061359886 0.19104555 -0.2145175 -0.29644656 -0.2938407
-0.06837476 0.3304147 -0.011143039 0.16718388 0.15647045 0.13849439 -0.046110447 0.08201419
-0.26375893 -0.26580998 0.13312513 -0.025137968 -0.31588352 0.25225618 -0.38054204 0.111091256
-0.103214204 0.30519006 0.14356318 -0.25449926 0.11290026 0.114120625 -0.20801938 -0.34265888
0.04595633 -0.28658903 0.14981852 -0.06339674 0.21681467 0.017217463 0.23649636 0.31715074
-0.12326145 0.073194675 -0.20589384 0.08001673 0.040824328 -0.27288592 -0.25277194 0.2969744
-0.15727448 0.2668505 -0.06189181 0.27140749 -0.1345708 -0.2694952 0.20036247 0.022576502
0.21412797 -0.16590984 0.28616223 0.20284666 -0.27971655 0.25213578 -0.12342463 0.19538578
-0.14468676 0.17765759 0.10614659 -0.20506784 0.16536741 0.024451535 0.1045829 -0.32935143
0.083835214 0.23565292 0.31159058 0.2776646 0.31363368 0.20313539 -0.18931918 0.31744796
0.16502243 0.27717954 -0.15039651 -0.039627675 -0.2817946 -0.2578547 0.060935073 0.2454641
0.14559494 0.15280724 0.116886854 0.21667655 -0.16362835 -0.07169294 0.08591242 -0.13482623
0.3481894 0.14770618 0.21934965 -0.14711462 -0.041111983 0.004421806 -0.31671533 0.2767639
-0.046257142 -0.29214293 -0.22824714 0.24552973 0.2828745 0.08769868 0.29581866 0.07458976
0.2621742 -0.34230128 -0.05071683 -0.037940137 -0.036462817 -0.03015453 0.009223509 -0.00072875223
-0.28856388 -0.23705076 -0.03079046 -0.027270643 0.27836785 -0.3010428 0.08776093 0.14071208
-0.28696883 0.1472677 0.090565294 0.16636074 -0.18233159 0.33695683 0.1393007 0.014081499
