results/priority-sort/priority-sort-task-1-batch-20000.model (torch_old, 876115 bytes, 49 tensors)

ntm.read0_bias f4 [1, 20]
00000000: d3d4 0b3c 2633 0a3c 0d66 07bc 898c 3e39
00000010: 1812 993b 836f 183c dd0b 193b bdf5 353c
00000020: 4dc3 c83b 41e3 3abc 7e4e a9ba f7b1 efba
00000030: 87a4 d5bc f7f7 3f3b 98dc 8b3c eb0f 77bc
00000040: 2d3b 1abc 44c2 453b e9ba 213c dc91 b03a
0.008534628 0.008435046 -0.008264077 0.00018172165 0.0046713464 0.00930393 0.0023353018 0.011105952
0.0061267973 -0.011406721 -0.0012917069 -0.0018287291 -0.02607943 0.0029292086 0.01707296 -0.015079479
-0.009413523 0.0030175606 0.009871223 0.0013471204

ntm.read1_bias f4 [1, 20]
00000000: 267f f33b 1622 21bb eb81 c93b 0605 d13b
00000010: 0769 5e3b 5980 a83b af91 49bb cb9c f5ba
00000020: 341a d5ba 100a a6ba 382b 9c3c dd00 363c
00000030: ccc1 94bb 4a2c 23bc fee3 2039 97bd dbbb
00000040: d487 113b e478 0e3c b770 1bbc ea51 78bb
0.0074309288 -0.0024586967 0.0061495206 0.0063787727 0.0033937113 0.0051422534 -0.0030757 -0.0018738745
-0.001625842 -0.0012667794 0.019063577 0.011108604 -0.004539704 -0.00995929 0.00015343723 -0.0067059505
0.0022206204 0.008695815 -0.0094873225 -0.0037890621

ntm.read2_bias f4 [1, 20]
00000000: 5ded 093c fb63 b1bc 3497 d63c b3e7 72bc
00000010: 8336 e93b 8ae3 683b b0e4 b03b 873d 343b
00000020: 1497 25bc 5b63 23bc 203e 243c ff13 88ba
00000030: 9203 64bb 583d 7b3b 6a02 dcba ab40 673b
00000040: 5561 853c 463c 81bc edb1 953c 13a6 32bc
0.008418408 -0.02165412 0.026195146 -0.014825749 0.007117094 0.0035536014 0.0053983554 0.0027502493
-0.010106821 -0.009972419 0.010024577 -0.0010381936 -0.0034792167 0.0038336124 -0.0016785387 0.0035286348
0.016281763 -0.01577581 0.018273318 -0.010903853

ntm.read3_bias f4 [1, 20]
00000000: e8fc 10bc 3ebf 0a3b a079 22bc e88e 9d3b
00000010: db03 d439 a6a9 643b ed59 b93c d3a3 4ebc
00000020: 4b5c d13a 9a11 0cba a5f1 3c3c 1565 d33b
00000030: 70e9 57ba f97e 823b 8e46 c23b 6160 06bc
00000040: 9582 6bbc 40a2 40bb 908b 13bc 1948 903c
-0.00884936 0.0021171118 -0.009916693 0.0048082955 0.00040438664 0.0034891157 0.022625888 -0.012612301
0.001597294 -0.0005343199 0.011532222 0.006451259 -0.0008236384 0.0039824215 0.005928821 -0.008201689
-0.014374395 -0.0029393584 -0.009005442 0.017612504

ntm.read4_bias f4 [1, 20]
00000000: b459 a93a ed3d 923c 466d eeba 1b01 f33b
00000010: 00a8 81bb 10fe 10bc e612 d2bb 501c 073c
00000020: f64c 1dbb 304d 083c 7e27 33bc 7455 70bc
00000030: 4b8f 44bc d85d 1dbc 57d2 c9b9 bdf3 d83a
00000040: 4a8c b83b 434f 13bb b7f8 8abc b6f7 293c
0.001292041 0.017851794 -0.0018190525 0.0074159033 -0.0039567947 -0.008849636 -0.0064109443 0.008246496
-0.002400217 0.008319184 -0.010934709 -0.014668811 -0.011997054 -0.009604894 -0.00038494423 0.0016552132
0.005631958 -0.0022477664 -0.0169643 0.010374

ntm.controller.lstm_h_bias f4 [2, 1, 100]
00000000: 43c4 f23c 6f4c 3bbd 94d0 d6bc dd1c d2bd
00000010: 8043 17bd 0502 a13d 9520 92bd 8525 52bd
00000020: 4496 b73c fedb 333b a0fd 6ebc 2a68 07bd
00000030: 26d9 1d3d 3bce aa3c fbe1 b4bd 5e91 8f3d
00000040: b1af 0dbd 67bf 48bc 944c ab3d 69cc 893d
00000050: 4cc0 90bd e8c6 d53c a822 f13c 4268 a6bd
00000060: 5e6f 83bd 7fec c43d 69cf 2cbd 9a4f 0dbd
00000070: 13d5 8bbb c27c acbc 5b80 82bd cad1 babd
00000080: 80c4 9cbc 0eb9 59bd dfb1 03be 892d df3c
00000090: bd1d 20bd 7e1e 1cbd e419 c83d 0a9f 53bc
000000a0: aecd 493d 347a 30bd abb7 15bd f87d b33c
000000b0: b372 14bd 1e73 03bd 36af f7ba bbcc 973d
000000c0: 22ea 273d 0aca 36bc d3ee 97bc ebff d63d
000000d0: 0f38 2abc a27e 0e3e f596 8cbc 92ed 97ba
000000e0: 7291 143c 077f cebd 6879 373d 65aa e03d
000000f0: eafb c23d 0f13 55bc 7a3b 533d 61c5 24ba
00000100: 7aeb 8a3d e55f 1ebd c5a7 9539 7047 a3bd
00000110: 7ed6 b5bd 903c e5bd 6b20 c7bc 663e c6bd
00000120: c61a 693c f1f3 e1bc 3403 4e3c 5a28 19bd
00000130: becb 81bd ccfb adbd 9ad3 22bc 13fe d1bb
00000140: 930a e83c 96c1 69bd 848b 1ebe 3652 eabc
00000150: 6087 f8bc 3f01 9d3c b23f 43bd 52ea 1abd
00000160: c0bc d2ba fd36 d53d 7a8e b0bb 8dd0 c4bb
00000170: b39f 473d dc83 04bd aacc 9f3d f81b 89bd
00000180: 440a b63d 6498 bf3d 777d 95bb 59ec 12bd
00000190: a2e9 6b3e 39b0 173d d559 973d 3354 5c3d
000001a0: 48b8 f0bd 9751 563d 01ce 9f3d 328a d6bd
000001b0: 5019 983d 6f13 b6bd c1d3 223c 0c5b 72bd
000001c0: 16e0 d53d edf4 8f3d 6af7 4cbd b8cb adbd
000001d0: f6f2 113e 78f6 d6ba 16bf debd 79f5 133c
000001e0: 0e4b 4ebd 0b7e 0c3d c91a fc3c 7536 1f3d
000001f0: 9ba0 a1bc cd75 90bd ca23 05bd 7a4a 133e
00000200: 42d5 103c 4d8b 063e a13e 363d cc4f 9c3c
00000210: 5e68 9c3d 8451 0fbb 79bd 0f3e 6b27 a4bd
00000220: d5bb c7bc e308 d43c 5a37 c83d 90c1 55bd
00000230: ad47 8d3d 05bb a5bd 9f17 b2bd b18a 69bd
00000240: fbe7 2cbd 020a aaba 17e5 bf3d 7e56 14bc
00000250: 7462 cb3d 459a d6bc d070 033c 44d7 963d
00000260: 568c 823d 1757 b6bc 8a7f 9bbd 8521 083b
00000270: 8232 0dbe a575 69bd 969b 003d 639d a9bd
00000280: 9027 6c3d 3566 d23d 65bd d83d 25c5 a83d
00000290: d96b 27bd 7165 67bd 8980 f43b e33f 66bd
000002a0: e6c0 02bc c67b 6a3d 1672 593d 6faf 493e
000002b0: 2485 e9bd b1c3 643d 0450 7f3d 0fa4 2fbe
000002c0: 4c91 323d e465 88bc 6de7 9fbd dc73 1bbe
000002d0: e474 963c e8d1 60bd 27de 05bb f552 b1bd
000002e0: c260 d33d 4589 c0bd f964 7dbd 9791 ebbd
000002f0: da2d 0bbd da87 c9bd e54b 433d 3d67 86bd
00000300: 02d4 313d 2cce 0d3e ed2e 86bb 57b2 1cbe
00000310: ed44 563d 173e 76bd 832c ef3d 8c2c b6bc
0.0296346 -0.04572719 -0.026222505 -0.102594115 -0.036929607 0.07861713 -0.07135121 -0.051305313
0.02241052 0.0027444358 -0.014586836 -0.033058323 0.038537167 0.020850291 -0.08832165 0.070101485
-0.03459138 -0.012252665 0.083642155 0.06728441 -0.07067928 0.026095822 0.02943547 -0.08125354
-0.06417726 0.096154206 -0.04218999 -0.034499742 -0.004267344 -0.021055583 -0.06372138 -0.09122045
-0.019136667 -0.053154998 -0.12860821 0.027243393 -0.03909086 -0.038115017 0.09770563 -0.012916336
0.049268417 -0.043085292 -0.036552113 0.021910653 -0.0362422 -0.032092206 -0.0018896821 0.07412096
0.04099477 -0.011156568 -0.018546497 0.10498031 -0.010389342 0.13915494 -0.017161826 -0.0011591187
0.00906788 -0.10082822 0.044793516 0.1097 0.09520705 -0.013005032 0.051570393 -0.0006285515
0.06783195 -0.03866567 0.00028544493 -0.0797261 -0.08878802 -0.11193192 -0.02430745 -0.0967987
0.014227575 -0.02758214 0.012574006 -0.037391998 -0.06337689 -0.08495292 -0.009938145 -0.006408462
0.028325355 -0.057069384 -0.15482908 -0.028603654 -0.03033799 0.019165633 -0.047668166 -0.03782112
-0.001607798 0.10410879 -0.0053880783 -0.0060063065 0.048736285 -0.032352313 0.078027084 -0.06694788
0.08888677 0.09355238 -0.0045620757 -0.03586993 0.23038343 0.037033293 0.07390181 0.053791236
-0.11753899 0.052323904 0.07802964 -0.104755774 0.07426703 -0.088904254 0.009938181 -0.05916886
0.104431316 0.07029138 -0.05004064 -0.08486122 0.14252838 -0.0016400358 -0.108762905 0.009030693
-0.050364546 0.03429989 0.03077449 0.038870294 -0.019729903 -0.07053719 -0.032504834 0.1438388
0.008839907 0.13139077 0.04449332 0.019081019 0.07637094 -0.0021868655 0.14037122 -0.08015331
-0.024381557 0.025883144 0.097761825 -0.05218655 0.06898437 -0.08092312 -0.086959116 -0.057017032
-0.04221342 -0.0012972953 0.09369867 -0.0090538245 0.09930888 -0.026196608 0.008022502 0.073652774
0.06374423 -0.022258325 -0.075926855 0.0020771932 -0.13788798 -0.05699696 0.03139838 -0.08281972
0.057654917 0.10273401 0.10582999 0.08240727 -0.040874336 -0.056493226 0.0074616116 -0.05621327
-0.007980561 0.057246946 0.053087316 0.19695829 -0.11402348 0.05585069 0.06233217 -0.17152427
0.043595597 -0.016650148 -0.07807813 -0.15180916 0.018366285 -0.054887682 -0.0020426603 -0.08658401
0.103211895 -0.09401182 -0.061863873 -0.115023784 -0.033979274 -0.09840365 0.0476798 -0.0656266
0.043415077 0.1384818 -0.0040949495 -0.15302406 0.052311826 -0.060117807 0.11678412 -0.022238038

ntm.controller.lstm_c_bias f4 [2, 1, 100]
00000000: 7b71 1c3d 0382 14bc 8eb9 0ebd 30ef 9bbb
00000010: 5ad3 1d3d d0ff b6bc 6a5b f4bd 27d0 b33d
00000020: d47e 5abd c948 18bd 4cf0 8b3d c06f 9bbd
00000030: 4654 09bd b62a 02bd f6dd 123e 42d5 62bc
00000040: 1d8a 353c 8bbe c0bd d6e3 a73d ff82 3fbd
00000050: aaef fabc 04c6 3fbd b75b ecb9 06fb e3bc
00000060: 2ffb ebba 3c44 a33d 03ff bb3c 3a37 cabb
00000070: 4b7f 85bd 3507 eb3c c895 b0bd b336 99bd
00000080: 0e7b 56bd 0cd4 aabd e448 15bd ebbd 87bd
00000090: a3a6 90bc 6703 02be 79d3 b1bb aced 06bd
000000a0: 7207 a83c 71d9 67bd 283f a0bd 3769 4f3c
000000b0: 63c8 3ebb 92b6 cd3c a585 8c3c 4321 9a3c
000000c0: 331f d0bc 2ee1 e03b 50a5 173c 25ff 1ebd
000000d0: 8d9e b73a 885c fabb d557 d13d ac96 9dbc
000000e0: ecaa cbbb 181e 273c 5371 0c3c bb9f 783d
000000f0: 3c89 a33c d39b debc 3a7f 3dbc 5572 de3a
00000100: a18a f03c 9673 39bc b26d 3dbd be67 693d
00000110: 1156 66bc 7fdb a4bc 146f ff3c ddfc eabd
00000120: 4e1e 57bd 78ea 1a3d da10 b63c 31bd 4fbd
00000130: f9f8 bebb 480c 05be 7f2f 69bd 2b4a 67bd
00000140: b6d4 16bd 49a3 7dbd 96c6 9d3b 84dd 86bd
00000150: f2a5 a33d ce84 78bc 9af0 46bc 8502 983d
00000160: 7238 9bbd fdb8 6bba 2372 d43a 01ae a13c
00000170: 328a ac3c b18f 61bd 2815 99bd 0492 1abd
00000180: b4eb 743d e6ce 463a 1e9e 55bc 2f35 a4bd
00000190: 4a4f 3b3d d097 783c e38b 36bd 84de 6bbd
000001a0: 58bb dfbd 083e ffbc 8618 663d ab95 7f3c
000001b0: d2ee c73d 0dc2 81bc 4ad4 babd c4ac 86bd
000001c0: 5378 443d 763e 54bd fd8c 9a3b 1e17 e63d
000001d0: 1b7a 0d3e b30f fc3d ce4b 10bd bc32 8bbd
000001e0: 35ec 9cbc f11e 5dbd 972a e0bc 68e1 3cbd
000001f0: a25e 13be 31da d3bc f055 b9bb be02 463e
00000200: 7730 8f3c 8864 84bd 09e5 4d3d 95b2 50bd
00000210: 57a5 af3c feb6 c03d 7388 823d 1b21 10be
00000220: bc90 ee3c cfd3 b93d 48f3 163d 2bf7 f43b
00000230: cfaa 863c 7cc4 22bc 6657 8cbd 1fa8 a5bd
00000240: da17 27bd 6caf f9bd 68f3 b83d e498 de3c
00000250: 2e9f dd3d 1851 e33d 7233 33bd fd41 50bd
00000260: 5031 d23c b679 acbd d6a2 44bd b441 b23b
00000270: 134f 82bd 4fb3 b83d ff6f 633d fc01 a63d
00000280: 31ce 90bb 7f0e 1e3d b81d 32bd 6760 0c3d
00000290: 8bf0 03be c00f 23bd 8aa2 0bbd 6428 c9bc
000002a0: d893 10bd 4082 c73d a5d2 4f3d 0149 cc3c
000002b0: b693 aabd f554 243c b0e7 983b 7822 d13c
000002c0: 5f6a 3d3d 6fe2 bebd ced0 c3bc fcc6 11bd
000002d0: 0d87 633d 9ca6 52bb a48a fd3c 605a 02be
000002e0: e989 52bc 4db2 28bd 2224 2cbd 0bbe 19be
000002f0: be07 0b3e a933 553c 3b3b 783d b4c0 653d
00000300: f327 dbbd 1865 a2bb 89a7 b13d 1a1a 04be
00000310: af73 13ba 4e07 91bb a3d4 f53c 734b 213d
0.03819416 -0.0090642 -0.034844927 -0.004758738 0.03853164 -0.022338778 -0.11931498 0.08779936
-0.05334361 -0.03717879 0.06832942 -0.07589674 -0.033527635 -0.031779014 0.14342484 -0.01384479
0.011080292 -0.09411343 0.08197753 -0.046755787 -0.030631859 -0.0468197 -0.0004508176 -0.027829658
-0.0018003936 0.07971999 0.022948748 -0.0061711343 -0.0651842 0.02868996 -0.086223185 -0.07481136
-0.052363448 -0.08341226 -0.036446467 -0.06628021 -0.017657584 -0.1269661 -0.005426821 -0.032941505
0.020511363 -0.056603853 -0.07824546 0.0126593625 -0.002911114 0.02511147 0.01715357 0.018814689
-0.025405502 0.006862781 0.009255722 -0.038817544 0.0014009044 -0.007640425 0.10221831 -0.019236885
-0.006215444 0.010200046 0.0085719405 0.060699206 0.0199629 -0.027173912 -0.011565978 0.001697133
0.029362978 -0.011319062 -0.04624719 0.056983702 -0.014058606 -0.020124195 0.031180896 -0.11474011
-0.052519135 0.037821263 0.022224832 -0.050717536 -0.0058280197 -0.12992966 -0.05693006 -0.056467216
-0.03682395 -0.0619233 0.004814933 -0.065852195 0.07990636 -0.015168382 -0.012142325 0.074223556
-0.075791255 -0.0008992104 0.0016208332 0.019736292 0.02106199 -0.055068675 -0.07474738 -0.037736908
0.059795097 0.0007583931 -0.013038186 -0.080179565 0.045729913 0.015172914 -0.044567 -0.057585254
-0.10924405 -0.031157508 0.05617573 0.0155996485 0.09762348 -0.015839601 -0.09122522 -0.06575921
0.047966313 -0.05181738 0.004716514 0.11234878 0.13816111 0.12307682 -0.035228543 -0.06796786
-0.019155601 -0.053984586 -0.027364058 -0.0461134 -0.14391568 -0.025860878 -0.0056559965 0.19336984
0.017479165 -0.06464487 0.050267253 -0.05095156 0.021441145 0.09409903 0.06373682 -0.14075129
0.02912175 0.090736024 0.036853105 0.007475754 0.01643887 -0.009934541 -0.068526074 -0.08088707
-0.04079423 -0.12191662 0.09030801 0.027172513 0.10821377 0.11099452 -0.043750234 -0.05084418
0.02565828 -0.08421652 -0.048006855 0.0054399613 -0.063627385 0.090185754 0.05552673 0.08105847
-0.004419111 0.038588043 -0.043485373 0.034271624 -0.12884729 -0.039809942 -0.034090556 -0.024555393
-0.035297245 0.0974164 0.050737996 0.024937155 -0.08328955 0.010030021 0.004666291 0.025529131
0.04624402 -0.093205325 -0.023903277 -0.035590157 0.055548716 -0.0032142764 0.030949898 -0.12729788
-0.012850263 -0.041185666 -0.042026646 -0.15013902 0.13577172 0.013012805 0.06060336 0.05609198
-0.10700979 -0.004955899 0.08674533 -0.12900582 -0.0005624843 -0.0044259196 0.03000862 0.039378595

ntm.controller.lstm.weight_ih_l0 f4 [400, 110]
00000000: b410 88be b988 083e 517b 303d 8f60 61be
00000010: 33f0 b0be 35dd 5fbe 7780 bd3d 8bd0 1d3e
00000020: d9b7 80be ae37 ddbd 0025 2bbe c2cd 503d
00000030: 942c 833e 15bd e33d adc3 243d 9e0d 6a3e
00000040: 1eba 8bbd 9f58 d23d feaa 763e b8f3 5dbe
00000050: 6c71 8b3d bc81 96be ecc5 393d ca9e b4be
00000060: 6a5b 673d cf93 11be 9382 02be 001d a8be
00000070: 1816 82be 9b55 adbc 53ba 473d 0a5f 8dbe
00000080: 8bc3 8f3d 947d 293c 5324 3e3e b7e3 53bd
00000090: 5161 9dbe 5d9c a93e fccb 4fbe b962 453e
000000a0: 1006 003e 75f1 98be 5553 d03d 097f 373d
000000b0: 90e1 9d3e 48f2 1b3e ec4f 813e 0315 473e
000000c0: 7558 633e 2f9e 54be e35a aabd f11a 003e
000000d0: 7468 a33e 403c 2abe 1a41 a3be 7dcb d2bd
000000e0: 39a9 0ebd 2132 c7bc 17e6 803e 043e 59be
000000f0: 24ec b5be 0a35 99bb 3f62 93bc 7f16 4ebe
00000100: 8b73 5cbe b21e 83be da3f e33d 67be 6dbd
00000110: 1dfe 1b3e 244d 4abd bde3 6bbe 4ed5 dc3d
00000120: 7fe2 20bb 0234 053d 4da1 74be a953 a53e
00000130: 8529 3b3d 972c 4c3d babf 3d3e c33a 873e
00000140: aaa1 b7be 721f bf3d e042 f4bd 95e1 24be
00000150: 3b1c b1bd 0d9f 693e 07b0 413d 7c3f 39be
00000160: 9f5d 7bbe be2c debc 30df d7bc 40e6 9d3e
00000170: 86be 723e a06b af3c 3c61 163e c562 55be
00000180: 8238 97bd a328 6f3e 1321 b13e c9cd aa3d
00000190: 0138 d43c 3c0d febd d2f5 1ebe 32e6 5abe
000001a0: 9b99 abbc 21ff 5abd 1f0a e63d d988 9a3e
000001b0: 0122 9e3e 0eed 823d 1a96 68be 0387 56bc
000001c0: 66c3 3abe 1146 9cbe 9023 433e bbc8 113d
000001d0: a835 0a3e d793 353e 8f06 a2be 0098 16bd
000001e0: 12a1 2d3d 8d82 793d 585e 04be 49c8 b3be
000001f0: ff5f 973e b58d 4a3e f9ab 433e 7479 4dbe
00000200: 0410 273d 08ef 9dbe fb7b 283e add2 063e
00000210: 0f5b 9bbe 41d4 a53c 5fb1 9dbe 3023 493d
00000220: 7680 8c3e 7817 97be 4c42 10bd ac86 993e
00000230: ce5e a23d 5789 103e 9da9 72be b8f4 b1be
00000240: c4ce 72be 126a c7bc 5b18 54be 3cec a23e
00000250: 738a 30be 5014 04bd 2639 a7be b3eb 93be
00000260: 2533 2f3e dc78 a7be e1df ac3d e2ee 733e
00000270: 1611 40bc 4d93 653e bccc 0ebe fa83 e73d
00000280: 8945 3fbe 9505 89bd 6314 0a3c 8eaa ae3d
00000290: 1529 493e 7736 923d 9c19 cc3d b491 39be
000002a0: 1113 bfbd d7db 0d3e 840e 8bbe ec23 a43e
000002b0: 15a0 8d3e a0f9 e23d 4bc0 06be 942e a3be
000002c0: 8b8a 913e 4f06 74be 5520 32be ec30 07be
000002d0: 4546 633e f2c4 6b3e 3ce1 6dbe 1b25 b2be
000002e0: 0987 05bd ca37 5bbe 569c eb3d af08 a0be
000002f0: 3dec 2abd b24e 39bd e462 78be 5d68 a43e
00000300: 22e7 c2be 6bc9 adbe 2e41 52be fd97 cd3d
00000310: 1f36 fdbd b0f1 983e d02d bdbd 8444 f23d
00000320: 6516 0ebe 13a6 7d3c 5dc7 493d eb1e ca3d
00000330: faa8 923e f045 023e 284f 893c 9c6a 03be
00000340: 7bef 49be c3eb 7f3e f277 433e 6357 113e
00000350: 27b8 36be 9fe4 4b3e 0048 e93c cdba f7bd
00000360: 2dab 6abd 1e0f 123e f0c6 4d3e 77c9 8e3d
00000370: c3b9 463e a368 efbd c145 0a3e 59ec 6a3d
00000380: fcca 843d d891 d23d ce51 85bd 6236 19be
00000390: 71cc e73d 53da 8a3e 30e9 843e 16fc 4b3e
000003a0: f8ba 7cbe f721 59be 3848 813e 9cc2 63be
000003b0: bc50 88be d521 5a3e 9828 d6bd 1667 1b3d
000003c0: d34d 9d3d 50b7 f5bd e936 be3d 5709 48be
000003d0: 06fc 94be 40d4 c9bd dbfd 5cbe 13cd adbd
000003e0: 46b7 233d 2a51 85bc 7f8d 9ebe 5712 42bd
000003f0: e23a 0abe 12e9 8cbe 57f7 27be 5c16 76bd
-0.26575243 0.13333406 0.043086354 -0.2200949 -0.34558257 -0.21861728 0.09253018 0.15411584
-0.25140265 -0.10801636 -0.16713333 0.050977476 0.25619948 0.11120049 0.040225673 0.22856757
-0.068226084 0.102708094 0.24088666 -0.21675003 0.06808743 -0.29395854 0.04535477 -0.35277396
0.056483664 -0.14216541 -0.12745123 -0.32834625 -0.2540748 -0.021158984 0.048761677 -0.27611572
0.07019719 0.010344882 0.18568544 -0.051730838 -0.3073831 0.33127108 -0.20292658 0.19275941
0.12502313 -0.29871717 0.10172144 0.044798885 0.30836153 0.15229142 0.25256288 0.19441609
0.22201712 -0.20763467 -0.083181165 0.12510277 0.3191563 -0.16624546 -0.31885606 -0.102927186
-0.034829352 -0.024315896 0.25175545 -0.21215063 -0.35531723 -0.004675512 -0.017991183 -0.20125769
-0.21528451 -0.25609356 0.11096163 -0.05804291 0.15233655 -0.049389973 -0.23036094 0.10782872
-0.0024549065 0.0325203 -0.23889656 0.3229039 0.045693893 0.04984721 0.18530169 0.2641202
-0.35865527 0.093321696 -0.11926818 -0.16101678 -0.08647963 0.2281458 0.047287013 -0.18090624
-0.24547432 -0.027120944 -0.026351541 0.3083973 0.23705491 0.021413624 0.1468553 -0.20838459
-0.07383825 0.23355345 0.34595546 0.08340032 0.025905611 -0.12404868 -0.1552346 -0.21376875
-0.020947268 -0.053465966 0.11232399 0.3018253 0.30885318 0.06392871 -0.22713509 -0.013093713
-0.18238601 -0.30522206 0.19056535 0.035591822 0.1349703 0.17732178 -0.3164563 -0.036766052
0.042389937 0.06091552 -0.12926614 -0.35113743 0.29565427 0.1978062 0.19108571 -0.20065862
0.040786758 -0.3084643 0.16453545 0.13166304 -0.3034291 0.020242812 -0.30799386 0.049105823
0.27441758 -0.29510093 -0.035219476 0.2998556 0.07928239 0.14114891 -0.23697515 -0.34757018
-0.23711687 -0.02434257 -0.20712416 0.31820858 -0.17240314 -0.032245934 -0.32660788 -0.28890762
0.17109354 -0.32709396 0.08441139 0.23821595 -0.011722824 0.22419472 -0.13945287 0.113044694
-0.1867887 -0.06690518 0.008427712 0.085286245 0.19644578 0.071392946 0.09965822 -0.18121988
-0.093298085 0.13853393 -0.27159512 0.32058656 0.27661195 0.110827684 -0.13159291 -0.31871474
0.28426012 -0.23830532 -0.17395146 -0.13202256 0.22194774 0.23024347 -0.23230451 -0.34793934
-0.032599483 -0.21408 0.11504428 -0.31256625 -0.0417292 -0.045241065 -0.24256474 0.32110873
-0.38066965 -0.33942732 -0.20532677 0.10038755 -0.123638384 0.29871893 -0.09237254 0.118294746
-0.1387573 0.01548149 0.049262393 0.098691784 0.28644544 0.12721992 0.016761377 -0.12833637
-0.19720261 0.2499228 0.19088724 0.14193492 -0.17843686 0.19911431 0.028476715 -0.12096176
-0.057292152 0.14263579 0.2009542 0.0697202 0.194068 -0.1168988 0.13503172 0.057354305
0.06484029 0.10281724 -0.06509744 -0.14962152 0.11318291 0.27119693 0.25959158 0.19920382
-0.24680698 -0.21204363 0.2525041 -0.22242206 -0.26624095 0.21301968 -0.104569614 0.037940107
0.076808594 -0.11997855 0.09287817 -0.19534813 -0.2909853 -0.098549366 -0.21581213 -0.084863804
0.039969705 -0.016274054 -0.30967328 -0.04738077 -0.13499025 -0.2752157 -0.16402946 -0.060079917

ntm.controller.lstm.weight_hh_l0 f4 [400, 100]
00000000: 4fc8 92be 49dd 1e3d 5538 61be 8c0c 973e
00000010: 66c4 693e ef7a 3e3e d62c 79be 3798 a0bd
00000020: de83 47be 6672 663e 2a6b 85be 5595 09be
00000030: 4644 833e d682 4abe edab 803e aaa6 b4bc
00000040: a50e 85bd a1d1 d0bd e059 98be 2c1f 2dbe
00000050: 0356 fcbd d4d6 3cbe e8a0 4fbe f26a 50bd
00000060: 146f ad3e e750 e43d 6fae 843e 9825 dc3a
00000070: f6d6 9e3e 6df5 d0bd 8d6c 9bbd 5fc0 883e
00000080: a16e aa3d bf41 afbd ce6d 243e f29c 403e
00000090: 93af 143e e41a 9ebe bc99 0b3e 3e18 a6be
000000a0: 947e a73e cb7c 893e 34ad 5fbe cc04 9a3e
000000b0: 1d87 743d dfa2 ac3e 418d 92be de1c 92be
000000c0: dbe4 cc3d b19c 9a3e 35e2 e43d 8d36 2a3e
000000d0: a391 a83b 17ba d6bc 6638 1cbe 3777 47be
000000e0: d8ee 023e 0f2f 91bd 241a ffbd 53c0 213e
000000f0: 8f13 91bd 92e3 2ebe b159 76be 1f7c a23e
00000100: ff96 003e 6992 0cbe 2146 4abe f09a b73d
00000110: 0142 963e 82c9 c9be 019d 803d d3c5 293d
00000120: c7ba 6a3e 13ce 11be d641 683e 7785 963c
00000130: fc77 b43d 5ed5 a43e 459c 46be dcdc 4e3e
00000140: 9fcf 28be 1ddb bbbe 6cec b53e b7f8 763e
00000150: 42d5 903e 5b9c 80be 1f1b 9cbe c30b 52bd
00000160: 432c c03c 2c82 26be 0652 2b3e 628b 573e
00000170: ee1e adbe d325 123e 135c 073e fd8f b03d
00000180: 41e5 fc3c 2cf2 c63d bf97 d03d c758 9dbe
00000190: 29a5 9d3e 077c 1fbe 64df 47be 50a1 11be
000001a0: dabc 0ebe 00cc 4b3e dc2b 6dbd 654b 033d
000001b0: 99da f13d 7dfd 1fbe f928 013e 37b8 203e
000001c0: e607 a5be 8eb5 2f3e 40d7 60be cbaf 433e
000001d0: fada 3cbe 5713 3bbe 0757 abbd f12b 9cbe
000001e0: c6e5 913c 9709 f6bd c57a 7e3d f7b4 e93c
000001f0: 73d2 8c3e 6aee adbe 93d8 afbe 28ef 6abe
00000200: 6d05 a2bd b38e 5c3e 1a5d 9d3e fed7 373e
00000210: d510 d13e d8db bdbe b9dd 993e d39d 363e
00000220: bdd0 5f3b ccd3 ea3b d0db 83be db9d 54bd
00000230: 05d4 1b3e 298c 75be 0f34 a53e d5ee 693e
00000240: 4b96 0ebe 7345 a03d 6ae1 eebd 93a6 edbd
00000250: 023f 033d c878 2cbe f5e8 ad3d 9b15 80bc
00000260: daf6 1d3e 23a1 353d 3616 11be bee2 87be
00000270: f3a2 6b3e d4b0 173e 98b8 42be 815c 253e
00000280: d4f4 383e e67d ba3d 6a2a 62be e254 62be
00000290: fca1 9a3e 5ac0 563e c6d2 3dbe 046e 6b3c
000002a0: 48a0 de3e 0c40 1dbe 5567 96be 8e78 803e
000002b0: 30f9 29be dc18 14be 8ec0 abbe 648e 82be
000002c0: 283f c13c 773d 3e3e 8bf7 c73d 9f80 5dbd
000002d0: ad42 fdbc cb88 833e c71c a43d d2d0 543e
000002e0: 8747 233d 24bc 9f3e c9d7 313d 0cc4 31be
000002f0: ff2a d13d 8646 7c3e e0fe d7bd a3f6 853e
00000300: 6c48 553d 29e4 513d a070 743c 9efe 633e
00000310: 74d1 443c af1c af3e 5b44 633e a0c1 aa3e
00000320: 482a e4bd 4d06 d1bc 485f 933e f95b 8fbe
00000330: 891f 963d cb78 a0bd ab6b 343e 261a 7e3e
00000340: ee96 e53c e19d 313e b241 a33a 49b1 83be
00000350: f1fe 36be e94d 53be 0210 0bbe c363 9d3e
00000360: 0107 dc3d 11c9 8a3e 1656 873e 532a 9bbe
00000370: 7ffa 48be 14b8 9b3e aac0 0abe 9943 b0be
00000380: 2ea6 aabe 4d81 67be 0868 4a3e 10a2 4dbe
00000390: bfcd 8d3e 91bf 4d3d 62d3 aabe 3569 80be
000003a0: 304e 8f3e 7c20 d5bd 63ca f1bc 05fd 44be
000003b0: ac72 3ebe 76be b53e 5d69 923e bfe9 903e
000003c0: 9762 6a3e ce08 7a3e 2c8b 853d 6646 e93c
000003d0: 051a 2cbe 37e8 803e bc01 c13e e07d f23c
000003e0: d62e 0c3e 4bb2 58be 2b1a 9dbd 453e d8bd
000003f0: ddd6 59be 35f9 453e 42f5 91bd 72d7 843d
-0.28668448 0.038785253 -0.21994145 0.2950176 0.22828826 0.18601583 -0.2433351 -0.07841533
-0.19483897 0.22504577 -0.26058322 -0.13435872 0.25638026 -0.19776472 0.2513117 -0.022052128
-0.06496934 -0.101962335 -0.2975607 -0.16906422 -0.12321093 -0.18441325 -0.20276225 -0.05088324
0.33873808 0.111482434 0.25914332 0.0016795872 0.31023377 -0.10203061 -0.07589064 0.26709267
0.08321882 -0.08557462 0.16057512 0.1880987 0.14520101 -0.3087989 0.13632864 -0.3244037
0.3271376 0.26853022 -0.21843415 0.30081785 0.059699167 0.3371801 -0.28623393 -0.2853765
0.10004588 0.3019767 0.11175958 0.16622372 0.0051443144 -0.026211781 -0.1525589 -0.1947907
0.12786424 -0.07089054 -0.12456158 0.15796022 -0.07083809 -0.17078999 -0.24057652 0.31735322
0.125576 -0.13727726 -0.19753315 0.08965099 0.29347232 -0.3941155 0.06279946 0.041448426
0.22922812 -0.14238767 0.22681364 0.018374188 0.08811948 0.32194036 -0.1939555 0.20201439
-0.16485451 -0.36690608 0.35531938 0.24118315 0.28287703 -0.2511929 -0.30489442 -0.051280748
0.023458606 -0.16260594 0.16730508 0.21049264 -0.3381266 0.14272241 0.13218717 0.086212136
0.030871036 0.09714159 0.10185193 -0.30731794 0.3079007 -0.15574656 -0.1951881 -0.14221692
-0.13939229 0.19902039 -0.057903156 0.032054324 0.11809272 -0.15624042 0.12613286 0.15695272
-0.3223259 0.17159101 -0.21957111 0.19110028 -0.18442908 -0.18269096 -0.083662085 -0.30502275
0.01780976 -0.12013548 0.0621288 0.028528674 0.2750431 -0.33970958 -0.3434492 -0.22942793
-0.07911191 0.2153881 0.30735093 0.17953488 0.40833154 -0.3708179 0.30051973 0.17833643
0.0034151517 0.0071663614 -0.2575364 -0.051908355 0.15217598 -0.23979248 0.3226628 0.22845013
-0.1392452 0.078257464 -0.11664088 -0.11604037 0.03204251 -0.1684295 0.08491699 -0.015635302
0.15426198 0.044343125 -0.14168629 -0.26540178 0.23011379 0.14813548 -0.1901573 0.16148569
0.18062145 0.091060445 -0.22086492 -0.22102693 0.3020171 0.20971814 -0.18537435 0.0143694915
0.4348166 -0.15356463 -0.2937571 0.25091976 -0.16598964 -0.14462608 -0.33545345 -0.2549926
0.023589686 0.18578134 0.09764012 -0.05407774 -0.030915583 0.25690302 0.08013301 0.20782784
0.039863136 0.31198227 0.04341868 -0.17359942 0.10213279 0.24636278 -0.105466604 0.2616473
0.05207102 0.05124298 0.01491943 0.22265097 0.012012828 0.3420157 0.22194044 0.3335085
-0.11140877 -0.0255157 0.2878363 -0.27999857 0.073302336 -0.078355394 0.17619197 0.24814662
0.02802607 0.17345382 0.0012455492 -0.25721195 -0.1787069 -0.20635189 -0.13580325 0.30740175
0.107435234 0.27106526 0.26432866 -0.30305728 -0.19626807 0.30413878 -0.13550058 -0.34426573
-0.3332991 -0.22607918 0.19766247 -0.20081353 0.27696034 0.05023152 -0.33364397 -0.25080267
0.2798934 -0.104065865 -0.02951545 -0.19237144 -0.18598431 0.35496873 0.2859601 0.28303334
0.22889172 0.24417421 0.065206856 0.028475951 -0.168068 0.25177166 0.37696636 0.029601038
0.13689741 -0.21161763 -0.07671007 -0.10558752 -0.2127337 0.19333346 -0.07126857 0.064864054

ntm.controller.lstm.bias_ih_l0 f4 [400]
00000000: 613f 7b3c ec2f cfbc f41e 1ebc 6d08 943b
00000010: 075c 6abc 69fa aebc cfcf e739 f6bd 16bd
00000020: d233 85bc e4cb 81bc a1dd cabc 5ac1 87bd
00000030: 6954 d73b 8854 e5bc e255 8ebd 68d7 1c3d
00000040: 4fa4 103d 8cc8 1cbd e5e3 49bd 0787 9bbd
00000050: 589e 49bd 8564 10bd f963 bebc 8abb aebb
00000060: 904e da3c 2998 0ebd de2b 80bc 539c c2bc
00000070: 8c26 da3b fcf5 55bd db6a 1f3c 0ee5 14bc
00000080: 2e8a 7c3b a1b0 c1bc 34b8 06bd 96e2 51bc
00000090: c6a1 15bd ac08 90bc 28e5 a2bc 6e67 a8bc
000000a0: 336d 3b3c 6c56 f8bb 3929 25bd e5a4 3bbd
000000b0: 90c7 363c 9ce9 c3ba a7b4 dbbc 2b08 59b9
000000c0: 23aa 28bd 964a 603b 334b 1fbd f3b2 13bd
000000d0: 8b7b 54bc f002 dabc d547 1dbd 76e3 c3bc
000000e0: 60b4 49bc 1f45 a9bc 17cf 1cbd 643b 9d3c
000000f0: e412 50bb fb61 573c 3c2f 3fbb 4553 d8bc
00000100: 0a31 8f3b f6d9 a4bc cc3f c2bc 71a7 43bc
00000110: 01c3 0dbc c966 3fbd 76bd 2cbd a527 15bc
00000120: 0632 38bd 8652 08bd 79bf 92bd 703b ffbc
00000130: 9f11 99bd 4235 29bd 8b1e 24bc e80b 08bd
00000140: 4d4d 0fbd d89e 4ebd dc9c a2bd d9c2 80bc
00000150: eabe 87bc 9e1b 11bd edc4 ed3b 7503 6e3b
00000160: 776b f5bc f014 103d 6f04 8a3c e48d 69bc
00000170: 6d21 813b 60d0 cd3b 3195 3fbc 4f1c 25bd
00000180: 65cc a93a 577f f1bc 15fe efbc 4105 473d
00000190: e556 6f3c 5d28 393d f631 e53b 2863 c43b
000001a0: 394d 95bc a06f e73c 755c 9d3c 372b 8ebc
000001b0: 932f 303d 41b9 edbc fcbd bfbb b726 0ab9
000001c0: 8287 9cbc e61b 68bc 9c06 44bc 2e20 6a3d
000001d0: c2eb 4d3c a8c9 05bc 6198 233c 569a d1bc
000001e0: 30ae 07bd ac3d 33bd 16bf 793d ac9d 17bb
000001f0: 5a60 803d c4b0 a63c 0df8 b43c 9abf b1bb
00000200: 867a 21b9 1f27 19bd 6a01 123d 6513 bb3b
00000210: 937f 94bb 7845 0cbc ed31 41bc be99 8fbc
00000220: b915 03bd fd38 44bc f6e8 863c cae9 85bc
00000230: c7a4 d93c d12c 4f3d e4a0 43bc 5dcd 51bd
00000240: 1bf9 723d 5dad 213c 5c81 5bbc 7b80 b23c
00000250: 2fc2 38bc 1f3e e73c 0fa8 2dbc 7d01 76bc
00000260: fd8d a73c dd3c e5bc c1e8 263d b27a 563c
00000270: cb86 79bc a763 c2bc 339d 6abc 9538 463c
00000280: 78b5 893c e523 083d 656e d63b eb3e fe3c
00000290: 7e1b 233d 3af0 e93c 49ad e43b 4374 813d
000002a0: 850d 2c3d ac40 e5bc e4ae c0bc e095 273c
000002b0: 33ab babc 3218 f73c e96d a3bd 78b3 a7bc
000002c0: 52f8 1dbd 185d 74bc c7f6 51bc 77a0 233d
000002d0: 3a82 aabc 119e 75bd 23b9 aabd bf5b c5bc
000002e0: 330b 87bc 3d60 34bd 105e 883c bc69 fa3c
000002f0: c726 64ba 7cbe 6c3d 629d 0c3d d387 9a3b
00000300: 3841 47bc e436 fc3b 5da7 ccbb afd0 e63b
00000310: fefc 18bc 0203 52bc e6b1 3c3d a49b 0f3d
00000320: 7338 443d 2156 c2bb 4739 a93c 02d2 5d3c
00000330: d4a6 0bbd 328e abba bec0 0cbc 6122 0fbc
00000340: c3d7 96bb 505a 1cbd e4a1 103d a842 5c3b
00000350: e56e 893c aec6 22bc 786f 603c ad52 d2bc
00000360: 75a7 d7bb afa8 4abc 140e 013c abc5 84bc
00000370: a90c 5f3d 87c3 26bd 79d2 503c cc07 56bb
00000380: ea36 c63b ac92 64ba ca2e a63c 46b0 113c
00000390: 02e8 58bd a103 9bbc c2f4 3a3b ded6 f73c
000003a0: 1b8d 38bc bfed 163a 76d6 ae3c ab28 0dbd
000003b0: c818 473c 670a a3bc 9a9d f6bc ba0d 41bd
000003c0: bd13 f4bc 2934 9bbc 6622 1cbd 4e96 4cbc
000003d0: 1f3b fcbb 7c80 1f3d e926 563d cca9 2fbd
000003e0: 5187 623d d04e a93b 2927 06bd 6dd7 42bb
000003f0: ed39 c73c bbc5 573c 207a 6fbc 8452 af3c
0.015334935 -0.025291406 -0.0096509345 0.004517606 -0.014304168 -0.02135964 0.00044214583 -0.036802255
-0.016260061 -0.015844293 -0.024763884 -0.06628676 0.006571342 -0.02799441 -0.069499746 0.038291365
0.035312947 -0.038277194 -0.049289603 -0.07594114 -0.049223274 -0.035252113 -0.02324103 -0.005332415
0.02664879 -0.03481308 -0.015645918 -0.023756182 0.006657427 -0.052236542 0.009730066 -0.009087814
0.003853451 -0.023643794 -0.032890514 -0.01281037 -0.036531232 -0.01758226 -0.01988466 -0.020557132
0.011439609 -0.0075786617 -0.040322516 -0.045811553 0.011155978 -0.001494694 -0.02681954 -0.00020697775
-0.04117788 0.0034224144 -0.038890075 -0.03605933 -0.012968908 -0.026612729 -0.038398582 -0.023912173
-0.012311071 -0.020662842 -0.038283434 0.019193359 -0.003174954 0.013145919 -0.002917244 -0.026406894
0.0043698596 -0.020123463 -0.023712061 -0.011941777 -0.00865245 -0.046728883 -0.04217287 -0.00910369
-0.04496958 -0.033281825 -0.07165427 -0.031156272 -0.07474064 -0.041310556 -0.010017048 -0.03321448
-0.03498583 -0.050444454 -0.07940075 -0.01571791 -0.016570527 -0.03542673 0.0072561414 0.0036317979
-0.02995847 0.035176218 0.016847817 -0.014255021 0.0039407522 0.0062809438 -0.011693285 -0.0403102
0.0012954591 -0.029479666 -0.02929596 0.048588995 0.01460812 0.04520451 0.006994481 0.0059932657
-0.0182253 0.02825147 0.019209126 -0.01735459 0.04301412 -0.029019 -0.0058515053 -0.00013175128
-0.019107584 -0.014166808 -0.011964466 0.057159595 0.012568416 -0.008165754 0.00998506 -0.025586288
-0.033125103 -0.043759987 0.06097325 -0.0023134751 0.062683776 0.02034796 0.022090936 -0.005424452
-0.000153998 -0.037390824 0.03564588 0.005709099 -0.0045318096 -0.0085614845 -0.011791688 -0.017529365
-0.03200314 -0.011976478 0.016468506 -0.01634683 0.02656783 0.05057985 -0.011940215 -0.05122124
0.059319597 0.009867993 -0.013397541 0.02178978 -0.011276766 0.028227864 -0.01059915 -0.015015003
0.020453447 -0.027983123 0.040749315 0.013090776 -0.015229891 -0.023729159 -0.014319706 0.012098451
0.016810164 0.033237357 0.006543922 0.031035861 0.03982114 0.028556932 0.006978665 0.06321003
0.04200508 -0.02798494 -0.023520894 0.010228604 -0.022786712 0.030162904 -0.07979948 -0.02047132
-0.038566895 -0.014914773 -0.012815184 0.039947953 -0.02081405 -0.059965197 -0.08336093 -0.0240916
-0.016484832 -0.044037092 0.016646415 0.030567996 -0.0008703288 0.057798848 0.03432978 0.0047158985
-0.012161545 0.007696973 -0.006245537 0.00704392 -0.009337662 -0.0128181 0.046068095 0.03506054
0.047905397 -0.0059306775 0.020657195 0.013538839 -0.034094647 -0.0013088642 -0.008590875 -0.008736224
-0.0046033575 -0.038172066 0.03531064 0.0033609066 0.016776511 -0.009935064 0.013698451 -0.025674189
-0.0065812417 -0.012369319 0.007876892 -0.016207537 0.054455433 -0.040713813 0.012745493 -0.0032658456
0.0060490267 -0.00087193656 0.020285983 0.0088921245 -0.052955635 -0.018922629 0.0028527235 0.030253824
-0.011264111 0.0005757473 0.021342497 -0.034462612 0.012151904 -0.019902421 -0.030104447 -0.04713223
-0.029794568 -0.01894577 -0.038118742 -0.012487007 -0.0076974775 0.03894089 0.0522832 -0.04288654
0.05530483 0.005166866 -0.03275219 -0.0029730455 0.024319613 0.013169701 -0.014616519 0.021401651

ntm.controller.lstm.bias_hh_l0 f4 [400]
00000000: 613f 7b3c ec2f cfbc f41e 1ebc 6d08 943b
00000010: 075c 6abc 69fa aebc cfcf e739 f6bd 16bd
00000020: d233 85bc e4cb 81bc a1dd cabc 5ac1 87bd
00000030: 6954 d73b 8854 e5bc e255 8ebd 68d7 1c3d
00000040: 4fa4 103d 8cc8 1cbd e5e3 49bd 0787 9bbd
00000050: 589e 49bd 8564 10bd f963 bebc 8abb aebb
00000060: 904e da3c 2998 0ebd de2b 80bc 539c c2bc
00000070: 8c26 da3b fcf5 55bd db6a 1f3c 0ee5 14bc
00000080: 2e8a 7c3b a1b0 c1bc 34b8 06bd 96e2 51bc
00000090: c6a1 15bd ac08 90bc 28e5 a2bc 6e67 a8bc
000000a0: 336d 3b3c 6c56 f8bb 3929 25bd e5a4 3bbd
000000b0: 90c7 363c 9ce9 c3ba a7b4 dbbc 2b08 59b9
000000c0: 23aa 28bd 964a 603b 334b 1fbd f3b2 13bd
000000d0: 8b7b 54bc f002 dabc d547 1dbd 76e3 c3bc
000000e0: 60b4 49bc 1f45 a9bc 17cf 1cbd 643b 9d3c
000000f0: e412 50bb fb61 573c 3c2f 3fbb 4553 d8bc
00000100: 0a31 8f3b f6d9 a4bc cc3f c2bc 71a7 43bc
00000110: 01c3 0dbc c966 3fbd 76bd 2cbd a527 15bc
00000120: 0632 38bd 8652 08bd 79bf 92bd 703b ffbc
00000130: 9f11 99bd 4235 29bd 8b1e 24bc e80b 08bd
00000140: 4d4d 0fbd d89e 4ebd dc9c a2bd d9c2 80bc
00000150: eabe 87bc 9e1b 11bd edc4 ed3b 7503 6e3b
00000160: 776b f5bc f014 103d 6f04 8a3c e48d 69bc
00000170: 6d21 813b 60d0 cd3b 3195 3fbc 4f1c 25bd
00000180: 65cc a93a 577f f1bc 15fe efbc 4105 473d
00000190: e556 6f3c 5d28 393d f631 e53b 2863 c43b
000001a0: 394d 95bc a06f e73c 755c 9d3c 372b 8ebc
000001b0: 932f 303d 41b9 edbc fcbd bfbb b726 0ab9
000001c0: 8287 9cbc e61b 68bc 9c06 44bc 2e20 6a3d
000001d0: c2eb 4d3c a8c9 05bc 6198 233c 569a d1bc
000001e0: 30ae 07bd ac3d 33bd 16bf 793d ac9d 17bb
000001f0: 5a60 803d c4b0 a63c 0df8 b43c 9abf b1bb
00000200: 867a 21b9 1f27 19bd 6a01 123d 6513 bb3b
00000210: 937f 94bb 7845 0cbc ed31 41bc be99 8fbc
00000220: b915 03bd fd38 44bc f6e8 863c cae9 85bc
00000230: c7a4 d93c d12c 4f3d e4a0 43bc 5dcd 51bd
00000240: 1bf9 723d 5dad 213c 5c81 5bbc 7b80 b23c
00000250: 2fc2 38bc 1f3e e73c 0fa8 2dbc 7d01 76bc
00000260: fd8d a73c dd3c e5bc c1e8 263d b27a 563c
00000270: cb86 79bc a763 c2bc 339d 6abc 9538 463c
00000280: 78b5 893c e523 083d 656e d63b eb3e fe3c
00000290: 7e1b 233d 3af0 e93c 49ad e43b 4374 813d
000002a0: 850d 2c3d ac40 e5bc e4ae c0bc e095 273c
000002b0: 33ab babc 3218 f73c e96d a3bd 78b3 a7bc
000002c0: 52f8 1dbd 185d 74bc c7f6 51bc 77a0 233d
000002d0: 3a82 aabc 119e 75bd 23b9 aabd bf5b c5bc
000002e0: 330b 87bc 3d60 34bd 105e 883c bc69 fa3c
000002f0: c726 64ba 7cbe 6c3d 629d 0c3d d387 9a3b
00000300: 3841 47bc e436 fc3b 5da7 ccbb afd0 e63b
00000310: fefc 18bc 0203 52bc e6b1 3c3d a49b 0f3d
00000320: 7338 443d 2156 c2bb 4739 a93c 02d2 5d3c
00000330: d4a6 0bbd 328e abba bec0 0cbc 6122 0fbc
00000340: c3d7 96bb 505a 1cbd e4a1 103d a842 5c3b
00000350: e56e 893c aec6 22bc 786f 603c ad52 d2bc
00000360: 75a7 d7bb afa8 4abc 140e 013c abc5 84bc
00000370: a90c 5f3d 87c3 26bd 79d2 503c cc07 56bb
00000380: ea36 c63b ac92 64ba ca2e a63c 46b0 113c
00000390: 02e8 58bd a103 9bbc c2f4 3a3b ded6 f73c
000003a0: 1b8d 38bc bfed 163a 76d6 ae3c ab28 0dbd
000003b0: c818 473c 670a a3bc 9a9d f6bc ba0d 41bd
000003c0: bd13 f4bc 2934 9bbc 6622 1cbd 4e96 4cbc
000003d0: 1f3b fcbb 7c80 1f3d e926 563d cca9 2fbd
000003e0: 5187 623d d04e a93b 2927 06bd 6dd7 42bb
000003f0: ed39 c73c bbc5 573c 207a 6fbc 8452 af3c
0.015334935 -0.025291406 -0.0096509345 0.004517606 -0.014304168 -0.02135964 0.00044214583 -0.036802255
-0.016260061 -0.015844293 -0.024763884 -0.06628676 0.006571342 -0.02799441 -0.069499746 0.038291365
0.035312947 -0.038277194 -0.049289603 -0.07594114 -0.049223274 -0.035252113 -0.02324103 -0.005332415
0.02664879 -0.03481308 -0.015645918 -0.023756182 0.006657427 -0.052236542 0.009730066 -0.009087814
0.003853451 -0.023643794 -0.032890514 -0.01281037 -0.036531232 -0.01758226 -0.01988466 -0.020557132
0.011439609 -0.0075786617 -0.040322516 -0.045811553 0.011155978 -0.001494694 -0.02681954 -0.00020697775
-0.04117788 0.0034224144 -0.038890075 -0.03605933 -0.012968908 -0.026612729 -0.038398582 -0.023912173
-0.012311071 -0.020662842 -0.038283434 0.019193359 -0.003174954 0.013145919 -0.002917244 -0.026406894
0.0043698596 -0.020123463 -0.023712061 -0.011941777 -0.00865245 -0.046728883 -0.04217287 -0.00910369
-0.04496958 -0.033281825 -0.07165427 -0.031156272 -0.07474064 -0.041310556 -0.010017048 -0.03321448
-0.03498583 -0.050444454 -0.07940075 -0.01571791 -0.016570527 -0.03542673 0.0072561414 0.0036317979
-0.02995847 0.035176218 0.016847817 -0.014255021 0.0039407522 0.0062809438 -0.011693285 -0.0403102
0.0012954591 -0.029479666 -0.02929596 0.048588995 0.01460812 0.04520451 0.006994481 0.0059932657
-0.0182253 0.02825147 0.019209126 -0.01735459 0.04301412 -0.029019 -0.0058515053 -0.00013175128
-0.019107584 -0.014166808 -0.011964466 0.057159595 0.012568416 -0.008165754 0.00998506 -0.025586288
-0.033125103 -0.043759987 0.06097325 -0.0023134751 0.062683776 0.02034796 0.022090936 -0.005424452
-0.000153998 -0.037390824 0.03564588 0.005709099 -0.0045318096 -0.0085614845 -0.011791688 -0.017529365
-0.03200314 -0.011976478 0.016468506 -0.01634683 0.02656783 0.05057985 -0.011940215 -0.05122124
0.059319597 0.009867993 -0.013397541 0.02178978 -0.011276766 0.028227864 -0.01059915 -0.015015003
0.020453447 -0.027983123 0.040749315 0.013090776 -0.015229891 -0.023729159 -0.014319706 0.012098451
0.016810164 0.033237357 0.006543922 0.031035861 0.03982114 0.028556932 0.006978665 0.06321003
0.04200508 -0.02798494 -0.023520894 0.010228604 -0.022786712 0.030162904 -0.07979948 -0.02047132
-0.038566895 -0.014914773 -0.012815184 0.039947953 -0.02081405 -0.059965197 -0.08336093 -0.0240916
-0.016484832 -0.044037092 0.016646415 0.030567996 -0.0008703288 0.057798848 0.03432978 0.0047158985
-0.012161545 0.007696973 -0.006245537 0.00704392 -0.009337662 -0.0128181 0.046068095 0.03506054
0.047905397 -0.0059306775 0.020657195 0.013538839 -0.034094647 -0.0013088642 -0.008590875 -0.008736224
-0.0046033575 -0.038172066 0.03531064 0.0033609066 0.016776511 -0.009935064 0.013698451 -0.025674189
-0.0065812417 -0.012369319 0.007876892 -0.016207537 0.054455433 -0.040713813 0.012745493 -0.0032658456
0.0060490267 -0.00087193656 0.020285983 0.0088921245 -0.052955635 -0.018922629 0.0028527235 0.030253824
-0.011264111 0.0005757473 0.021342497 -0.034462612 0.012151904 -0.019902421 -0.030104447 -0.04713223
-0.029794568 -0.01894577 -0.038118742 -0.012487007 -0.0076974775 0.03894089 0.0522832 -0.04288654
0.05530483 0.005166866 -0.03275219 -0.0029730455 0.024319613 0.013169701 -0.014616519 0.021401651

ntm.controller.lstm.weight_ih_l1 f4 [400, 100]
00000000: 6cbf 8dbe bbe3 543e 6807 52be e2d6 4dbe
00000010: 02df 243d af0c e33d 6b79 97bd 5f78 84be
00000020: 673f 89bb f096 93be 43a6 723e f5a2 9c3e
00000030: 3559 3e3e 50ca c3bd cd6b ddbb e019 46bd
00000040: 7b44 44bd 074e 0a3d fb9d 103d d49d 86bd
00000050: bbe8 22ba 3d7c 3bbe dc4d cfbd b3ef 7fbe
00000060: d609 023d d99d 61be bbb1 47be b519 f2bd
00000070: 6edd fc3d ef40 b33e 8974 2ebe 4725 a8be
00000080: ee3d 9c3e 2c7c 693e 4f61 353e 9d7f abbe
00000090: 5962 793d 2cad 31be 39a9 a83e 4e30 d33d
000000a0: cb42 6ebe 8801 823e 4d40 a7be 02e2 58be
000000b0: e2bf febd c726 78be d8ab ae3d de7b 0bbe
000000c0: 18d5 d5bc a38e 02bb 412c 5a3e 7ce1 afbe
000000d0: 2bae 013d 6220 22be 4ef5 40be 3100 c43e
000000e0: ccd5 883e a2f2 5c3d 1a34 f3bd e36f 5bbd
000000f0: ef73 863d 0cef 63be b403 c43d 495c a1be
00000100: edeb 2a3e e200 e93c 8852 b7be 43fa 8e3e
00000110: 736c 90bd 115e 473e de55 263e 15f7 973e
00000120: 606a 9bbe 0e5b 383e 4e3e 9cbb 3e40 373c
00000130: 1026 1c3e d4b8 7a3e cb91 813e 8f77 183d
00000140: 6aec a83e 730e 91be b8fa 1a3d 6151 34be
00000150: 63f7 613e c5ad 16be 1ba0 d43d 924c 85bd
00000160: 54ba 9f3e 4405 583e 071e 49be 95f4 b53e
00000170: 38af 813e 6675 713e 5e22 8d3e b13e c1bd
00000180: d7df de3d 3383 733e b8cc 653e 45bf 8b3e
00000190: 5133 9bbe fe4c 843e 5aca 21be d87a 383e
000001a0: 1522 04be 8125 213e efd6 ae3e c7a5 7fbe
000001b0: 2e5b a43e 6daa 953e f81e 8b3d 36f4 0f3a
000001c0: 480e 823e c365 71bd c135 283e 5635 5a3e
000001d0: fd22 80bd d579 933e 2775 53bd 90e5 bdbc
000001e0: ea90 833e 65a1 2dbe 6fc1 8e3e fa75 86be
000001f0: 7616 f33d 8e61 cb3d 8f94 77bd 700b 2c3e
00000200: 1bf3 8abe 89ff 4a3d f92c 8dbe 1c5f afbe
00000210: 1693 93be 056f ccbd 12d1 9dbe 901b 64be
00000220: 205c 95be c70e fdbb ccb4 3fbe f2d2 3a3e
00000230: 2aa2 20be 3430 553d 5bd9 59be 76ee a23e
00000240: a68c bb3b 8f7d 053e a839 7abe 5718 4a3c
00000250: 4f29 07be 6c1e 053e 50ef 35be bcfa e13d
00000260: 5cbd 7b3e 0fde 943e 8795 89be bf65 b03d
00000270: df0f 763e 4c57 683e 1e6e 41be 83e3 d83d
00000280: c256 12bd 1cdd a53d 4ba7 26be 4434 e33d
00000290: c3bd 19be ecd9 69be 5e47 bdbe ea3d 333e
000002a0: f1e4 90be 364b 4d3e 1c1e b2bd 73b5 783e
000002b0: 3ec2 143e f56e 88be c44f acbe a46d a63e
000002c0: 1a05 683e 9e0e aebe ac96 87be 0881 713e
000002d0: a3b0 bfbd f6f5 ce3d c176 aa3e 4d29 60bd
000002e0: 8a27 943d 7c0a 9b3e e36e 6abe d888 b13c
000002f0: ec5e a3be 4b7a a0be 8a2f 95bd 2507 18be
00000300: 1785 09bd f9cc 7d3e 0b7d bb3b 255b 3bbe
00000310: b5f9 39be 95b3 a6be f034 7cbd 4fbd 093d
00000320: 359d 5dbe b435 80be 654a 473d 2ed4 393d
00000330: 2ae2 97be 83ac 883e ada7 24be 080a 5ebd
00000340: f013 1cbe 321b 413e 7d52 53be e8f3 803e
00000350: f369 1b3e 6260 393c ca51 b7be 1f37 92be
00000360: 4a9b ae3e 4f84 493d 62fc 6e3e 8050 a1be
00000370: 47fd e03d 17f6 29bd 2e2d 253e dfa5 943d
00000380: 21b9 203e 8d5a 723e 986f 8fbe 0725 883e
00000390: f3b2 f6bb 8dca fabc d9a6 93be 190e 9ebe
000003a0: a0a5 cbbd 14d7 af3e eabf 16be 3fe0 6d3e
000003b0: 6c12 a33d b174 3abe db69 a73e d0c2 023e
000003c0: 2b30 a7be 0573 8cbe b88b 5f3e 4ec2 7abe
000003d0: 0167 69be 6e78 0a3c 7e2f 8abe 1323 a53e
000003e0: 8ba9 623e a332 363e e460 a2be d584 633e
000003f0: d82e 6ebe 7b50 92bd 6566 b0bd 2e29 b3be
-0.27685106 0.20789997 -0.20510638 -0.20101503 0.04025174 0.110864036 -0.073962055 -0.25873086
-0.0041884664 -0.28826094 0.23696236 0.30593076 0.18588717 -0.095600724 -0.0067572356 -0.04836452
-0.04791687 0.03376582 0.035306912 -0.06573072 -0.0006214489 -0.18309112 -0.10122272 -0.24993782
0.03174766 -0.2203287 -0.19501393 -0.118213095 0.12346922 0.35010478 -0.17036642 -0.3284094
0.30516 0.22801274 0.17712902 -0.334958 0.060884807 -0.17351216 0.32941607 0.10311948
-0.23267667 0.25391793 -0.32666245 -0.21179965 -0.124389425 -0.24233542 0.0852887 -0.1362147
-0.026102588 -0.0019921444 0.21305944 -0.34351718 0.03166024 -0.15832666 -0.18843576 0.38281396
0.26725614 0.05394233 -0.11875172 -0.0535735 0.06565081 -0.22259158 0.09571019 -0.3151572
0.16691561 0.028442804 -0.35805154 0.2792531 -0.07051935 0.19469477 0.16243693 0.29680696
-0.30354595 0.18003485 -0.0047681695 0.01118475 0.15248895 0.24484569 0.25306544 0.037223395
0.3299287 -0.28331336 0.03783676 -0.17609169 0.22067027 -0.14714725 0.103821 -0.06508745
0.31196845 0.21095759 -0.19640361 0.35538164 0.25328994 0.2357994 0.27565283 -0.094357856
0.10882538 0.23780517 0.22441375 0.27294365 -0.3031259 0.2583999 -0.15799847 0.18015611
-0.12903626 0.15736963 0.34148356 -0.24965583 0.32100815 0.29231587 0.06793016 0.00054914074
0.2540152 -0.05893494 0.16426755 0.21309409 -0.062566735 0.28803888 -0.051625397 -0.023180753
0.25696498 -0.16956098 0.27881953 -0.26261884 0.118695185 0.099307165 -0.06044441 0.16801238
-0.271386 0.049560104 -0.27573374 -0.3425225 -0.28823155 -0.09982113 -0.3082357 -0.2227614
-0.29171848 -0.007722709 -0.18721312 0.18244532 -0.1568686 0.052047923 -0.21274321 0.31822556
0.0057235537 0.13036178 -0.24436057 0.012334905 -0.13199352 0.12999886 -0.17767072 0.11034152
0.24583954 0.29075667 -0.26871893 0.086131565 0.24029492 0.22689551 -0.18889663 0.105902694
-0.03572727 0.08098814 -0.16274755 0.11093953 -0.15013795 -0.22837037 -0.3696851 0.17504087
-0.28299668 0.20048222 -0.08697149 0.24287967 0.14527223 -0.26647153 -0.33654606 0.32505524
0.22658196 -0.33995527 -0.2648214 0.23584378 -0.09359863 0.10105507 0.33293727 -0.054726887
0.07234104 0.30281436 -0.22893862 0.021671697 -0.31908357 -0.31343302 -0.07284458 -0.14846475
-0.03357419 0.24785222 0.0057216934 -0.18296488 -0.18161662 -0.32558885 -0.061573923 0.033627804
-0.21642001 -0.25040972 0.048654933 0.045368366 -0.29664737 0.26694116 -0.16079588 -0.054208785
-0.1524198 0.1885803 -0.20636936 0.25186086 0.15177135 0.011314483 -0.35804588 -0.2855768
0.3410285 0.049198445 0.23338464 -0.3150673 0.10985809 -0.041494455 0.16130516 0.072582
0.15695621 0.23667355 -0.28014827 0.2659075 -0.0075286566 -0.030614162 -0.28838232 -0.3087013
-0.099437 0.3434378 -0.14721647 0.23230074 0.07962498 -0.18208577 0.3269795 0.12769628
-0.32653937 -0.27431503 0.21830642 -0.24488184 -0.22793199 0.008451564 -0.2698936 0.32253322
0.22134988 0.17792754 -0.31714547 0.2221864 -0.23260057 -0.07144257 -0.0861328 -0.34992355

ntm.controller.lstm.weight_hh_l1 f4 [400, 100]
00000000: 90d9 6f3e a339 9c3d a37d 84be 43c0 67ba
00000010: 274d 873d f884 10be 5b27 513e 9ab5 c83b
00000020: da1f 523e fad1 a1be 3ec0 3abd 9bf7 3abd
00000030: 4490 553d b734 ca3b 58d9 3abe f55c 9fbe
00000040: 7823 2abe 6268 aa3e 28ed 51bd e090 98bc
00000050: 3ca8 a63d a1fc 303e ac36 123e 8f84 ba3d
00000060: 5bb7 db3d 8a48 c4bc 7a34 38be ca12 7b3e
00000070: 2e3d 393e 1e11 4c3d 0910 3a3e e793 94be
00000080: 004b 25bd f5dc a93e adcf 68be 18b2 c03d
00000090: 100c 443e 47c0 10be 3c4e 7f3e 4639 dd3d
000000a0: 6cec 003d 8d3d 923e b9ea 033e d0cb a33e
000000b0: ba49 79be 19a6 4cbe 4f29 2d3e d8a0 5cbe
000000c0: 7be4 8a3c 1fec b3be 0289 48be 5fc5 873e
000000d0: d218 e2bb 5704 593d 3a12 503d 888e 82be
000000e0: a175 ecbd 6f06 823e 0f6f 85be 2c98 603e
000000f0: 4c57 25be 894f 31be 2581 6bbe 8aa9 5fbe
00000100: f6de b0be f11e 8c3c f153 733e 182d 8cbe
00000110: 0473 be3c 8ae1 643d 9a23 133e af2a aabd
00000120: cb47 2d3e 42f9 8fbe be37 033e 142f 5dbe
00000130: d3fc 703e f67b 5ebd 1439 a23d 1cb9 303d
00000140: 8267 243d 6886 493e a19d aa3c f72d 773c
00000150: c476 1d3e 35f3 603e 8055 abbe c759 593e
00000160: 3877 493e 27d4 063e 88ef a5be 423d 3dbe
00000170: 8f8a be3d 1e38 5a3e bf13 8bbe 040b 0abe
00000180: 7245 94be dd75 c0bd 37bd f5bc 1e97 373e
00000190: 2823 dcbd eafb 36be fc92 72be 333e 9d3e
000001a0: 82dc fa3d 2eb1 87be cad1 7cbe 7922 093d
000001b0: 45f0 b6bd 75ed 33be 462a 87be 6b33 a83e
000001c0: f1d6 8c3c 8520 8e3e 683b 65be 33ef a0be
000001d0: 0090 9c3e bc79 023e 4537 ebbd 5e9b ac3e
000001e0: e584 6abc 08cf 24bc 8436 7d3d 510f 25bd
000001f0: d447 5d3e badd 53be 91f5 98be 312b 94be
00000200: 688c 5abd 60ec af3e b596 b9bc 49b0 503e
00000210: de2d 123e 4cde f73d 5330 61bd bdc0 923d
00000220: 486e 82be 7f2c 7bbe 39fe ee3d e2d3 f8bc
00000230: 8bc9 a8be b92d 7e3e 5294 c7be 3ca5 9e3d
00000240: 1804 c0bd 2f8c b23e ca74 0e3e cbaf 74be
00000250: 39a8 e03d 759c a03d 32e2 6bbe a97d a1be
00000260: bb21 7a3d 9cdc 9dbe 61a4 253e 4767 86bd
00000270: 0b04 6d3e acf9 0bbc ac02 853e 7ac5 a53e
00000280: ed7a dcbd 6412 623d dd41 6dbe 9d06 9d3d
00000290: d022 853d 572c 86be 0748 6ebe fd8d 943e
000002a0: b388 1ebe 9c9d 873e 323b 88bd 462e 833e
000002b0: e7cd c0bd c59f 85be 2cc8 4b3e 516b 083d
000002c0: c445 723e 54d9 27be c9f1 983e 5863 2f3e
000002d0: 15a7 88be c027 7e3e 7178 00be dd4b 3e3e
000002e0: 7fb8 1dbe 38ce 363e 5b66 f73d 3312 71be
000002f0: 68b7 033e da93 423d 828e fb3d 79b1 a1be
00000300: 87c8 db3d 8178 733e feb1 a13e 7b13 943e
00000310: 2535 993e 30ca 533e f93b 20be 798b a23e
00000320: eef5 3c3e 33a3 6b3e 7e1b 39be 89ce 443b
00000330: 6d10 9dbe 62aa 85be ce62 183d 7387 9f3e
00000340: 0f88 373e a55b 093e 3b72 b53d 76a7 6f3e
00000350: 55b7 17be 35a2 88bd d12c bd3d 7860 05be
00000360: 98b4 c43e 5afc 173e adfc 3b3e 9bac 30be
00000370: 6d31 45bd 3e62 aabb b33c 92be c959 8d3e
00000380: 89a0 dabc 29f5 98be def1 77be 14cc 913e
00000390: 64d4 963e 0f35 9a3d 66d3 a13e 3aff ac3d
000003a0: c65c 8d3e 57aa abbe bb7b 3fbd 8b09 dcbd
000003b0: ab3a 4bbd 5d04 ebbc 9feb 0f3c c402 06bb
000003c0: 84ce 8cbe 0f00 84be dab3 303d a5de 4dbb
000003d0: b2c4 833e deaa a6be 7c05 0c3e 6924 043e
000003e0: b4c6 8cbe c558 463e 5615 ce3d 0daf c73d
000003f0: eb84 35be 57b9 be3e cc85 0e3e 94f6 c23c
0.23422837 0.07628181 -0.25877103 -0.00088406 0.066065125 -0.14113224 0.20425169 0.006125164
0.20519963 -0.31605512 -0.045593493 -0.04564629 0.052139536 0.006170835 -0.18246973 -0.31125608
-0.16615093 0.33282763 -0.05125156 -0.01862377 0.08137557 0.1728387 0.14278668 0.09107315
0.10728332 -0.02396037 -0.17988768 0.24518886 0.18089744 0.04982101 0.1817018 -0.2901909
-0.04035473 0.3317639 -0.22735472 0.09408969 0.19145226 -0.14135848 0.24932188 0.1080194
0.03147547 0.28562585 0.12882508 0.31991434 -0.2434453 -0.19985236 0.16910289 -0.21545732
0.016954651 -0.35141084 -0.19583514 0.2651777 -0.0068999315 0.052982654 0.050798632 -0.25499368
-0.115458734 0.25395533 -0.26061293 0.21933049 -0.16146582 -0.17315497 -0.22998483 -0.21842018
-0.34545106 0.017104598 0.2376249 -0.27378154 0.023248203 0.055879153 0.1436905 -0.083089225
0.16921918 -0.28119856 0.12814233 -0.2159999 0.23533945 -0.054317437 0.07921043 0.043145284
0.040137775 0.19680178 0.020827116 0.0150866425 0.15377337 0.21967776 -0.3346367 0.21225654
0.19674385 0.13166867 -0.3240931 -0.18480399 0.09303772 0.2131047 -0.27163503 -0.13480765
-0.28959233 -0.09397481 -0.029997451 0.1792874 -0.10748893 -0.17869535 -0.23688883 0.30711517
0.1224909 -0.26502365 -0.24689403 0.03348014 -0.089325465 -0.17571051 -0.2639944 0.3285173
0.017192336 0.27759185 -0.22385943 -0.31432495 0.30578613 0.1274175 -0.11485151 0.33712286
-0.014313911 -0.010059126 0.06181957 -0.04029781 0.21609432 -0.2069005 -0.29874852 -0.28939202
-0.053356558 0.34360027 -0.02265487 0.20379747 0.1427531 0.12102947 -0.054977726 0.07165668
-0.25474763 -0.24528693 0.11669583 -0.030374471 -0.32966265 0.2482213 -0.38980347 0.0774636
-0.09375781 0.34872577 0.13911739 -0.23895185 0.10969586 0.07842342 -0.23035505 -0.31541184
0.061067324 -0.30832374 0.16175987 -0.06562667 0.23146074 -0.008543413 0.259786 0.32377225
-0.10765634 0.05519332 -0.23169656 0.07667277 0.065007806 -0.26205704 -0.23269664 0.29014578
-0.15481834 0.26487434 -0.066519156 0.2562124 -0.09414273 -0.26098457 0.19900578 0.03330547
0.23659426 -0.16391498 0.29871967 0.1712774 -0.26689973 0.24819851 -0.12545945 0.18583627
-0.15402411 0.17852104 0.1208007 -0.23542099 0.12862933 0.047504283 0.122830406 -0.31580713
0.10731607 0.23776437 0.3158111 0.28921112 0.2992336 0.20682597 -0.15647878 0.31747034
0.1845319 0.23011474 -0.18076894 0.003003033 -0.30676594 -0.26106554 0.037203602 0.31158027
0.17922996 0.13413866 0.08859678 0.23403725 -0.1481603 -0.066715635 0.09237064 -0.13025081
0.38419032 0.14842358 0.18358107 -0.17253344 -0.04814284 -0.0051996997 -0.28561935 0.27607563
-0.026687877 -0.29874542 -0.24213359 0.28476012 0.29458916 0.075296514 0.31606597 0.08447118
0.27609843 -0.33528396 -0.046748858 -0.10744008 -0.049616497 -0.028688604 0.008784204 -0.0020448426
-0.2750131 -0.25781295 0.04314027 -0.0031413224 0.25736004 -0.32552236 0.13673967 0.12904514
-0.27495348 0.193698 0.10062663 0.09750185 -0.17726485 0.37250778 0.13918227 0.023799218
