results/priority-sort/priority-sort-task-42-1-4-batch-20000.model (torch_old, 859809 bytes, 49 tensors)

ntm.read0_bias f4 [1, 20]
0	0xbb6920f7	-0.0035572627
1	0xbba33f9d	-0.0049819485
2	0x3c2308d9	0.00995084
3	0x3c46db8f	0.012137308
4	0x3b362c94	0.0027797567
5	0x3a416241	0.00073770067
6	0x3b3c405b	0.0028724882
7	0xbb2f3bb7	-0.0026738474
8	0xbb6dec52	-0.0036304188
9	0x3bdc0db3	0.0067155003
10	0xbc664ee4	-0.014056895
11	0xbaa5d48e	-0.0012651847
12	0xba7c79c2	-0.00096311804
13	0xbcc26cd3	-0.023733532
14	0x38e60e9c	0.00010969976
15	0xbc88f900	-0.016720295
16	0x3b013b44	0.0019719163
17	0x3bcd146e	0.006258539
18	0x3b3a2ad8	0.0028406885
19	0xbbe8808c	-0.007095402

ntm.read1_bias f4 [1, 20]
0	0xbc7d5721	-0.015462668
1	0x3c03e6db	0.008050646
2	0xbc2156aa	-0.0098473225
3	0xbb804620	-0.0039146096
4	0x3acaa2a1	0.0015459844
5	0xba033269	-0.0005004765
6	0xbb01b28c	-0.001979026
7	0x3c59bd35	0.013289739
8	0x3afc42fd	0.0019246038
9	0x3a935d60	0.0011243038
10	0xbc00f821	-0.007871659
11	0x3a09b5bf	0.00052532175
12	0x3c6c967c	0.014440175
13	0xbc832c1b	-0.016012242
14	0x3c6b933e	0.014378367
15	0xbc523ddb	-0.01283213
16	0x3b908ed9	0.00441156
17	0xbba7d260	-0.005121514
18	0x3cf46fb0	0.029838413
19	0xbc8987d9	-0.01678841

ntm.read2_bias f4 [1, 20]
0	0xbb8cc9a7	-0.0042965
1	0xbbe4f6fc	-0.0069874506
2	0x3b9d1117	0.004793297
3	0xba9d33ab	-0.0011993548
4	0x3c4327bb	0.011911328
5	0xbc95bfc9	-0.018279927
6	0xbbeee1a1	-0.0072900807
7	0xbb213102	-0.0024595861
8	0xbc28636b	-0.010277609
9	0xbca96ee4	-0.02068276
10	0x3a1c22f4	0.0005956136
11	0x3bc20530	0.0059210286
12	0x3cedd08a	0.029030103
13	0x3b149912	0.0022674245
14	0x3b182d0b	0.0023220207
15	0x3bc9f03d	0.006162672
16	0x3bae6269	0.00532179
17	0xbbb928b4	-0.005650604
18	0x3c18a5eb	0.009316902
19	0x3c2390b6	0.009983232

ntm.read3_bias f4 [1, 20]
0	0x3c48e91c	0.012262609
1	0xbc22c2d0	-0.009934142
2	0x3cb1dd3e	0.021711942
3	0x3c0e93ad	0.008702201
4	0xba8c234d	-0.0010691673
5	0xbb15e8ef	-0.0022874435
6	0x3a6d4f05	0.00090526073
7	0xbb025687	-0.0019888
8	0x3bc67d87	0.0060574445
9	0x3c43722f	0.011929079
10	0x3c600630	0.01367335
11	0xbbd693b0	-0.0065483674
12	0xbc03aa2e	-0.0080361795
13	0xbabd910d	-0.0014462784
14	0x3baeacc1	0.0053306525
15	0x3bb8e12e	0.005642078
16	0x3ba63dfe	0.005073308
17	0x3baa644e	0.0051999455
18	0x3bf10b75	0.007356102
19	0xbb94a280	-0.004535973

ntm.read4_bias f4 [1, 20]
0	0xbbe86027	-0.0070915404
1	0xbbfe7a86	-0.007766071
2	0x3c28a820	0.01029399
3	0xb942883d	-0.00018552034
4	0xbc40e8c9	-0.01177425
5	0xbc66339b	-0.01405039
6	0x3b80b0bc	0.0039273184
7	0xbbebae6c	-0.0071924236
8	0xbbd6b730	-0.0065525994
9	0x3a4d9e5c	0.0007843727
10	0x3ab45b06	0.0013760037
11	0xbb884dd1	-0.004159667
12	0xba5dec40	-0.0008465685
13	0xb9c210ca	-0.00037015072
14	0x3bbbf958	0.005736511
15	0x3ba667eb	0.005078306
16	0xbbe96d8e	-0.0071236556
17	0xbc361f5e	-0.011115877
18	0x3c495890	0.012289181
19	0xbcc96830	-0.024585813

ntm.controller.lstm_h_bias f4 [2, 1, 100]
0	0xbdbf7622	-0.09348704
1	0x3d4d3b8b	0.050105613
2	0x3c52d22e	0.012867494
3	0x3caf1653	0.02137295
4	0x3ca86f82	0.020560984
5	0xbd7e1c3a	-0.062038638
6	0x3c8098bc	0.01569783
7	0x3e004d93	0.12529592
8	0x3d600819	0.054695223
9	0x3d14ab27	0.036296036
10	0xbbadffe3	-0.005310045
11	0xba6ebc8e	-0.00091070763
12	0xbb5f3bf9	-0.0034062846
13	0x3de60b6b	0.112326466
14	0xbd951334	-0.07279053
15	0x3dbcc6e9	0.092176266
16	0xbcaf6fb8	-0.021415576
17	0x3ce7b93f	0.028286574
18	0x3c27d818	0.010244392
19	0x39fb9b4b	0.00047990153
20	0xbd9f8864	-0.07789686
21	0xbd560b31	-0.052256767
22	0x3d939dda	0.07207842
23	0xbd8cd492	-0.06876482
24	0xbe1752b8	-0.14777648
25	0xbd4a77ab	-0.04943053
26	0xbd604fb3	-0.054763507
27	0x3cd42a19	0.02589898
28	0x3ca5703f	0.020195125
29	0x3da12dfc	0.07870099
30	0xbd9b2b20	-0.07576585
31	0x3d35ce3f	0.044386145
32	0xbd6e507d	-0.05818223
33	0x3dc36145	0.09540037
34	0xbcc04cf9	-0.023474203
35	0xbc919999	-0.017773436
36	0xbd8fd4cb	-0.07023009
37	0xbd8f396e	-0.06993376
38	0x3d90991c	0.07060453
39	0xbdc18f95	-0.09451214
40	0xbd63d283	-0.05562068
41	0x3cdffb0f	0.027341394
42	0xbcfcd3f4	-0.030862786
43	0x3e1852ee	0.14875385
44	0x3d4ec6d6	0.050482593
45	0xbc1d50b0	-0.009601757
46	0xbcb3363e	-0.02187645
47	0x3e118fab	0.14214961
48	0xbcd6754e	-0.026178982
49	0xbe1bab82	-0.15202144
50	0xbc26d508	-0.010182627
51	0xbe008cef	-0.12553762
52	0xbd121515	-0.035664637
53	0xbcbce529	-0.02305849
54	0x3c13c9e5	0.009020303
55	0x3d5966bc	0.05307649
56	0x3d15b0ae	0.036545448
57	0xbcc0eddc	-0.02355092
58	0x3d9c7e62	0.07641293
59	0xbd9b0714	-0.075697094
60	0x3db94f32	0.090483084
61	0x3cddbd24	0.027067728
62	0x3c0b25e7	0.008492923
63	0x3d9ca409	0.07648475
64	0x3c950eec	0.018195592
65	0x3d8c8e0d	0.068630315
66	0xbca4ebb6	-0.020131927
67	0x3d4789e0	0.048715472
68	0xbc8e0ba4	-0.017339535
69	0x3b89dfd2	0.0042075897
70	0x3daa2fc3	0.08309891
71	0x3e174b90	0.14774919
72	0x3c244c21	0.010027916
73	0x3cccfb7a	0.025022257
74	0xbdb76ccd	-0.08956299
75	0x3d1357ec	0.03597252
76	0xbd2cf1ad	-0.042222667
77	0xbd0fb485	-0.035084266
78	0xbd4d8a39	-0.050180648
79	0x3d204018	0.039123625
80	0xbbc04675	-0.005867774
81	0xbb972a30	-0.0046131834
82	0x3d7c7b8a	0.061641254
83	0xbd35512b	-0.04426686
84	0x3e02cc66	0.12773284
85	0x3dab77d1	0.083724625
86	0x3d414de4	0.047193423
87	0xbdc0b9ee	-0.09410463
88	0x3d203543	0.039113294
89	0x3cc2cf17	0.023780389
90	0x3ca2edcd	0.019888783
91	0xbcaf756b	-0.021418294
92	0xbd714e74	-0.05891271
93	0x3d7c3728	0.06157604
94	0x3d908d9b	0.07058259
95	0x3d66a2bd	0.056307543
96	0x3d5a99a6	0.053369187
97	0x3d04d6f5	0.03243156
98	0x3d2790cf	0.040909585
99	0x3d3e01ca	0.046388425
100	0x3cad583b	0.021160236
101	0xbd6e1fda	-0.058135845
102	0xbdac2d2c	-0.08407053
103	0x3d161795	0.036643583
104	0x3c3af5a4	0.011411104
105	0x3c13255e	0.008981077
106	0x3d1e249d	0.038609136
107	0x3d44f377	0.04808375
108	0x3d869d1d	0.06572936
109	0x3ca0d09b	0.01963072
110	0x3d236afb	0.039896946
111	0xbcc498c7	-0.023998631
112	0x3c339908	0.010961778
113	0x3c0b5fb6	0.008506706
114	0xbd08d73d	-0.033408392
115	0xbd3e8c85	-0.04652073
116	0xbd47f6b5	-0.048819263
117	0xbc3cf9b9	-0.011534148
118	0x3cf58813	0.029972112
119	0xbbcd025c	-0.006256385
120	0x3e174631	0.1477287
121	0x3a17e91a	0.0005794928
122	0xbcfe545b	-0.031046083
123	0xbdabdf55	-0.083922066
124	0xbd7ff032	-0.062484927
125	0x3d706022	0.05868543
126	0x3cc6c816	0.02426533
127	0xbcdc2333	-0.026872253
128	0xbdad68ec	-0.08467278
129	0xbd9e7a8f	-0.0773822
130	0xbda6a375	-0.08136646
131	0xbcf859c7	-0.030316247
132	0x3c686915	0.01418521
133	0x3d8cf706	0.068830535
134	0x3cfc8316	0.030824225
135	0xba40278d	-0.0007330112
136	0x3dd809e7	0.10548764
137	0xbc8df636	-0.017329317
138	0x3d01d907	0.031701114
139	0x3c580026	0.013183629
140	0x3d1e6ccd	0.03867798
141	0x3d37f76e	0.0449137
142	0x3d530bf1	0.05152506
143	0x3d4845f1	0.048894826
144	0xbcf708a4	-0.030155487
145	0x3db8445e	0.08997415
146	0x3cc19748	0.023631707
147	0x3dde1593	0.10843959
148	0x3cfe991c	0.031078868
149	0xbc9dded9	-0.019271301
150	0x3cca0e34	0.024664976
151	0xbcaac6ce	-0.02084675
152	0x3cdf9759	0.027293848
153	0xbce1afe5	-0.027549693
154	0xbdbf1d94	-0.093318135
155	0x3d29bb68	0.04143849
156	0xbcdda598	-0.0270565
157	0x3d0c3966	0.034234427
158	0x3cbff1ca	0.023430724
159	0x3d67778c	0.056510493
160	0xbdfad77d	-0.122481324
161	0xbc09e9b0	-0.008417532
162	0x3cab8ad7	0.020940227
163	0x3cf934b3	0.030420637
164	0xbd5784bc	-0.05261682
165	0x3cff79b5	0.031185964
166	0x3c8149ce	0.015782263
167	0x3c7963ce	0.015221549
168	0xbdcb416b	-0.09924587
169	0x3cff4f7a	0.031165827
170	0xbdc63a76	-0.09679119
171	0x3c90a362	0.017656032
172	0x3dde5b7a	0.108572915
173	0x3cac1626	0.021006655
174	0xbd4d8345	-0.050174017
175	0xbcc0cc64	-0.023534961
176	0x3c814cca	0.015783686
177	0xbcdd8a82	-0.027043585
178	0xbd812b59	-0.06307096
179	0x3dbb758c	0.0915328
180	0xbcfdc328	-0.030976847
181	0x3d6804dc	0.05664526
182	0x3c792b77	0.015208117
183	0xbcbe06f2	-0.023196671
184	0xbc9e1ea4	-0.01930172
185	0xbd47245d	-0.048618663
186	0x3d959d0c	0.07305345
187	0x3da37ed3	0.07983174
188	0xbd64bd21	-0.05584443
189	0xbd1303bd	-0.035892237
190	0x3d0f6841	0.035011534
191	0x3c48f2c6	0.012264913
192	0xbd5ed030	-0.05439776
193	0xbd445cdb	-0.047940116
194	0x3cb2eebe	0.021842357
195	0xbdb4a7bc	-0.08821055
196	0xbd91756c	-0.071024746
197	0x3e130351	0.14356734
198	0xbc1d6726	-0.009607112
199	0xbb9eff02	-0.0048521766

ntm.controller.lstm_c_bias f4 [2, 1, 100]
0	0xbdb767c7	-0.08955341
1	0xbd4bbf55	-0.049743015
2	0xbc851eeb	-0.016250094
3	0x3d3c755f	0.04601037
4	0xbbbd6426	-0.005779761
5	0x3b703aff	0.0036656258
6	0xbd435f2d	-0.04769819
7	0x3d165c2b	0.036708992
8	0xbc9583f3	-0.018251395
9	0xbd4def76	-0.050277196
10	0x3bc0775e	0.0058736047
11	0x3d807050	0.06271422
12	0x3d179d4e	0.03701525
13	0xbd178bc8	-0.03699854
14	0xbdc7a53d	-0.097483136
15	0xbcf7ebb5	-0.030263761
16	0xbd5920bc	-0.053009734
17	0x3b816880	0.003949225
18	0xbe03c154	-0.12866718
19	0x3d5997f1	0.05312342
20	0x3d997fea	0.07495101
21	0xbd8916ad	-0.06693778
22	0x3c729f0b	0.014808427
23	0xbc6e201f	-0.014534025
24	0x3c59441a	0.013260866
25	0xbd93c026	-0.07214384
26	0xbd83dc27	-0.06438475
27	0x3db06f65	0.08614997
28	0x3d88b36b	0.06674846
29	0xbbe9d5dc	-0.0071360897
30	0xbdbda92d	-0.09260783
31	0x3d827de7	0.0637167
32	0x3d7c48c5	0.061592836
33	0xbe36393a	-0.17795268
34	0xbd817a79	-0.06322188
35	0xbd5b020e	-0.053468756
36	0xbda4f79b	-0.080550395
37	0x3d57ec94	0.052715853
38	0xbd134266	-0.035951994
39	0x3bb56a95	0.005536387
40	0xbd8f5413	-0.06998458
41	0xbc6adf21	-0.014335425
42	0x3c595ee1	0.01326725
43	0x3d906929	0.07051308
44	0x3df1db7d	0.11809442
45	0x3c3e563b	0.011617239
46	0x3d34018e	0.043946795
47	0xbc4c9459	-0.012486541
48	0xbca84e0b	-0.020545026
49	0xbddf6bdc	-0.109092444
50	0xbc01190c	-0.007879507
51	0xbc5b2652	-0.0133758355
52	0x3dbd6ce1	0.09249283
53	0xbc9b5732	-0.018962476
54	0xbd7c6e01	-0.061628345
55	0xbd659028	-0.05604568
56	0xbda72a1c	-0.081623286
57	0x3c41c609	0.011827
58	0x3d163b2f	0.036677536
59	0x3c48b4fe	0.012250183
60	0xbd4585ec	-0.04822342
61	0x3d793ef5	0.060851056
62	0xbd09bcb9	-0.033627246
63	0xbd7c57a7	-0.06160703
64	0x3d106c7e	0.035259716
65	0xbda90f30	-0.0825485
66	0xbd8b41a8	-0.06799632
67	0xbcea3f6c	-0.028594695
68	0xbce3cc89	-0.02780749
69	0x3bf1fd02	0.007384897
70	0x3e0877be	0.13326928
71	0xbd3c3f7b	-0.045958977
72	0xbbdbc900	-0.0067073107
73	0x3c0a8460	0.008454412
74	0x3b4a8ae6	0.0030905544
75	0xbd8bc8b7	-0.06825393
76	0xbcdd90d5	-0.0270466
77	0x3b4d9280	0.0031367838
78	0x3cee5752	0.029094372
79	0xbd4db14c	-0.05021791
80	0x3c2a251f	0.010384827
81	0x3d25f8f3	0.04052062
82	0xbd47fb83	-0.048823845
83	0x391b5c64	0.0001481637
84	0x3d3ca43d	0.046055067
85	0x3cb86795	0.02251033
86	0x3d60567e	0.054769985
87	0x3d7b2192	0.061311312
88	0xbe304af1	-0.17216088
89	0xbd2ee053	-0.0426944
90	0x3d4d181f	0.05007183
91	0xbca0cc1a	-0.019628573
92	0xbc5cec7d	-0.013484118
93	0xbdb07e51	-0.08617843
94	0xbdbf407e	-0.09338473
95	0xbd83d18e	-0.06436454
96	0x3c2f7ddd	0.0107111605
97	0x3c7d6b8b	0.015467535
98	0x3d02810d	0.031861354
99	0xbc808880	-0.015690088
100	0x3c6504a4	0.013978157
101	0xbd223cf1	-0.0396089
102	0xbd465ced	-0.048428465
103	0xbc8819be	-0.016613837
104	0xbceed7d4	-0.02915565
105	0x3d298dfa	0.041395165
106	0x3d377701	0.044791225
107	0xbd5a63b5	-0.053317744
108	0x3db2e169	0.087344
109	0x3d657578	0.05602023
110	0x3c9c0fe9	0.019050555
111	0xbda097dc	-0.07841465
112	0x3a2f1ba5	0.00066798396
113	0x3bc15e29	0.0059011173
114	0x3d464630	0.04840678
115	0x3d16a041	0.036773924
116	0x3d5a73a2	0.053332932
117	0x3d15b1cf	0.036546525
118	0x3cc49ab3	0.023999548
119	0xbd959fb5	-0.07305852
120	0x3dd6ed71	0.10494507
121	0xbd97e9bd	-0.07417629
122	0x3d88da61	0.066822775
123	0x3d804869	0.06263811
124	0x3cd904e5	0.026491592
125	0xbd3cebb8	-0.046123236
126	0x3cb9b27f	0.022668121
127	0x3d007f22	0.031371243
128	0xbd630c31	-0.05543155
129	0x3da514dd	0.0806062
130	0xbcd0a2c1	-0.025468232
131	0xbd196690	-0.037451327
132	0x3c81a6a2	0.015826527
133	0x3d2c8cd5	0.042126495
134	0x3c72fa2c	0.014830153
135	0x3cd1b0b2	0.02559695
136	0xbc5abe45	-0.013351028
137	0xbe0205d6	-0.12697539
138	0x3c5ea79b	0.013589765
139	0xbd241f8b	-0.040069144
140	0xbd77738d	-0.060412932
141	0xbc2f1e99	-0.010688447
142	0xbc855647	-0.016276492
143	0x3d524ceb	0.051342886
144	0x3d68c315	0.05682667
145	0x3cf41e8e	0.029799726
146	0x3c034f00	0.008014441
147	0xbd6cee1a	-0.05784426
148	0x3c6dc9e7	0.014513469
149	0xbd1a1465	-0.037617106
150	0xbd937551	-0.07200111
151	0xbc55c489	-0.013047346
152	0x3cfcfeec	0.030883275
153	0xbce06226	-0.02739055
154	0xbd2c8044	-0.04211451
155	0x3db8b992	0.0901977
156	0x3daeb0c0	0.08529806
157	0x3cb978d5	0.022640625
158	0x3d0e2194	0.03469999
159	0xbe1ade89	-0.15123953
160	0x3d547e1e	0.051878087
161	0xbda8d440	-0.082436085
162	0xbcfc5fdd	-0.03080743
163	0xbcf26112	-0.029587302
164	0x3c06ff2f	0.008239551
165	0xbcbe8105	-0.02325488
166	0xbc5aaa12	-0.013346212
167	0xbd184ff3	-0.03718562
168	0xbc1d81dc	-0.00961348
169	0xbc20d004	-0.00981522
170	0xbdc48b06	-0.09596829
171	0xbc177273	-0.009243595
172	0x3d9d7fb9	0.07690377
173	0xbdfbb829	-0.12290985
174	0x3c9978d4	0.018734373
175	0x3d0726c8	0.03299597
176	0xbd0931f5	-0.03349491
177	0x3d950b1a	0.07277508
178	0x3d521687	0.051291015
179	0xbd87fe02	-0.06640245
180	0xbc4bac0c	-0.012431156
181	0xbc98aa3f	-0.018635867
182	0x3d5783de	0.052615993
183	0xbd8424d7	-0.06452339
184	0x3cc42559	0.02394359
185	0x3d84f25d	0.064915396
186	0x3cabe313	0.0209823
187	0xbd57992d	-0.052636314
188	0x3d634bae	0.055492096
189	0xbd6047b1	-0.05475587
190	0x3dd1e584	0.10248855
191	0x3bd6f94e	0.006560481
192	0xbce1a700	-0.027545452
193	0x3c85e126	0.01634271
194	0x3c965740	0.01835215
195	0x3c1eea2a	0.009699384
196	0xbd480e23	-0.048841607
197	0xbbd233e8	-0.006414879
198	0x3b33db52	0.0027443958
199	0x3d2fb999	0.04290161

ntm.controller.lstm.weight_ih_l0 f4 [400, 103]
0	0xbe57287c	-0.21011537
1	0x3ead5dec	0.3386072
2	0x3e87ddf7	0.26536533
3	0xb9c0ed52	-0.0003679791
4	0x3e1652b0	0.1467998
5	0x3e676d42	0.22600272
6	0xbdb45a04	-0.088062316
7	0x3e5f7f0c	0.21825808
8	0x3d3dabe6	0.046306513
9	0xbe59267f	-0.21206091
10	0x3e83ac73	0.25717506
11	0xbd9bd355	-0.07608668
12	0x3e8fc354	0.2807871
13	0xbe4a883b	-0.1977853
14	0x3e80e597	0.25175163
15	0xbe99ef01	-0.30065158
16	0xbdfc859b	-0.12330171
17	0x3d0feb27	0.035136368
18	0x3e44413f	0.19165514
19	0xbd81a343	-0.06329968
20	0x3dfae8b3	0.12251415
21	0x3ed71db0	0.42014837
22	0x3da2323d	0.079197384
23	0x3d3ec3cd	0.04657345
24	0xbebea4c1	-0.37235072
25	0xbdeb2a2a	-0.114826515
26	0xbe35511c	-0.17706722
27	0xbea2cc94	-0.31796706
28	0xbe572d36	-0.2101334
29	0xbe573890	-0.2101767
30	0xbe3ea098	-0.18615949
31	0xbdf288ef	-0.11842524
32	0x3e9c634e	0.30544513
33	0x3e925973	0.2858387
34	0xbe5bae6a	-0.21453252
35	0xbea64dec	-0.32481325
36	0xbd8c5b56	-0.068533584
37	0xbebad89c	-0.36493385
38	0x3e39c828	0.1814276
39	0xbd03a1fc	-0.032136902
40	0x3d01aeb3	0.031660747
41	0xbb3b9d52	-0.0028627706
42	0xbd88a205	-0.06671528
43	0x3e797bba	0.24363604
44	0xbe9b4d8c	-0.303326
45	0x3ec62f67	0.3870804
46	0xbed72c0d	-0.42025796
47	0xbde7cd51	-0.11318458
48	0xbeb29d0a	-0.34885436
49	0xbe2a7733	-0.16647033
50	0x3e04ef71	0.12981965
51	0x3e083280	0.13300514
52	0xbea3c278	-0.31984305
53	0x3ba26c17	0.004956733
54	0x3ea165c7	0.31522962
55	0x3dbbec40	0.091759205
56	0x3e07b213	0.13251524
57	0x3dd594d9	0.10428781
58	0x3e9706bb	0.29497322
59	0x3e338f42	0.17535117
60	0xbeab922c	-0.33509958
61	0xbc2588e4	-0.010103438
62	0xbe5be867	-0.21475373
63	0xbec586be	-0.38579363
64	0x3ce2a021	0.027664246
65	0xbdc75113	-0.097322606
66	0x3e549641	0.20760442
67	0x3e24ee34	0.16106492
68	0x3d89321b	0.0669901
69	0x3da896c3	0.082318805
70	0x3cb85a37	0.022503955
71	0x3e40879c	0.18801731
72	0x3e4f20f2	0.20227411
73	0xbebfc97c	-0.37458408
74	0x3e5e20d0	0.21692204
75	0xbe8d0f92	-0.27550942
76	0xbe3ae838	-0.18252647
77	0xbe208052	-0.1567395
78	0xbe88681b	-0.26641926
79	0xbe5276a4	-0.2055307
80	0xbe1158f4	-0.14194089
81	0xbe3b5b99	-0.1829666
82	0x3e9d06db	0.30669293
83	0xbea0c2e1	-0.3139868
84	0xbe4a7fb2	-0.19775274
85	0x3e856887	0.2605631
86	0x3e07d791	0.13265826
87	0x3d53309c	0.05156003
88	0xbe711462	-0.23542932
89	0x3df842c7	0.12122112
90	0x3bbe1830	0.005801223
91	0x3d8ba4e7	0.06818562
92	0x3d92234d	0.07135639
93	0xbe955b8c	-0.29171407
94	0x3e17414c	0.14771003
95	0xbe6f813f	-0.23389147
96	0xbd63a638	-0.05557844
97	0x3dd29b1a	0.102834895
98	0x3e44b5a7	0.1920992
99	0x3e6f5ca2	0.2337518
100	0x3c1d72a1	0.009609849
101	0x3d079f8b	0.033111136
102	0x3eba0c6c	0.36337602
103	0xbce23ff4	-0.027618386
104	0x3e64803e	0.22314546
105	0x3df444f6	0.11927216
106	0xbe6e4118	-0.23267019
107	0xbe8f6c5e	-0.28012365
108	0xbe2644dd	-0.16237207
109	0xbdaf7ed3	-0.08569112
110	0x3d996596	0.07490079
111	0xbdc0d1b6	-0.09414999
112	0x3e41c25f	0.18921803
113	0x3e77d5c8	0.24202645
114	0xbd0ca747	-0.034339216
115	0xbe6ba266	-0.23011169
116	0xbd5539e0	-0.052057147
117	0xbe213c6a	-0.15745702
118	0xbe95503c	-0.29162776
119	0x3d9a9a99	0.075490184
120	0xbe50ac87	-0.20378314
121	0x3ebaddb6	0.36497277
122	0x3e017d88	0.12645543
123	0xbe7e69c5	-0.24845035
124	0xbe2274f9	-0.15864934
125	0xbe1ccae0	-0.15311766
126	0xbe9a128d	-0.30092278
127	0xbe563920	-0.20920229
128	0xbd3e95ad	-0.04652946
129	0xbda2b21f	-0.0794413
130	0x3b784b5b	0.0037886712
131	0xbeb7acce	-0.35874027
132	0xbe455a07	-0.19272624
133	0xbe8855ec	-0.26628053
134	0xbc12e017	-0.00896456
135	0x3e55e7fd	0.20889278
136	0xbeb8615f	-0.36011788
137	0x3e455d34	0.19273835
138	0xbe93d5bb	-0.28874
139	0xbe2d67ef	-0.16934179
140	0x3e92bf89	0.28661755
141	0x3da0c460	0.078499556
142	0xbed95899	-0.42450407
143	0x3db5c223	0.08874919
144	0xbce67e6a	-0.02813645
145	0x3e5cc96d	0.21561213
146	0xbe0d3f24	-0.13793617
147	0x3d5dc45c	0.05414234
148	0x3e1784f7	0.14796816
149	0x3e2b5ae3	0.1673389
150	0xbd028967	-0.03186932
151	0x3bf5b6f9	0.0074986187
152	0x3de8285f	0.11335825
153	0xbeb41c7d	-0.35177985
154	0xbd927180	-0.07150555
155	0x3e4e5e05	0.20153053
156	0xbd23e321	-0.04001153
157	0xbe7fd5af	-0.24983858
158	0xbe188eb6	-0.1489819
159	0x3e172bf4	0.1476286
160	0xbe0a2317	-0.13489948
161	0x3d6c5de9	0.057706747
162	0xbc1490df	-0.009067743
163	0xbea63867	-0.32464907
164	0x3ec26aa8	0.37971997
165	0x3e8ddb96	0.27706593
166	0xbcc31744	-0.023814805
167	0xbed661eb	-0.4187158
168	0x3e506909	0.20352568
169	0x3d1c9d23	0.038235795
170	0xbe967dd9	-0.2939289
171	0xbc40b304	-0.011761431
172	0x3e001455	0.12507756
173	0x3e32bf23	0.17455725
174	0xbe48232b	-0.19544666
175	0xbd4ea0d8	-0.05044636
176	0xbe5edc0a	-0.21763626
177	0xbe191b74	-0.14951879
178	0xbe013f1d	-0.12621732
179	0xbe37c374	-0.17945653
180	0xbd0dfb63	-0.03466357
181	0x3e22f382	0.15913203
182	0x3e20ce70	0.1570375
183	0x3e49bc92	0.1970084
184	0x3b982488	0.0046430267
185	0x3e7733ad	0.24140806
186	0xbe997d85	-0.29978576
187	0xbe992c21	-0.2991648
188	0x3ecf6501	0.40506747
189	0xbe944cc8	-0.2896483
190	0xbe5f7d9a	-0.21825257
191	0xbec6c4ce	-0.38822025
192	0xbed5745f	-0.41690347
193	0x3e3e07bb	0.18557636
194	0x3e3de31e	0.1854367
195	0xbe9c9235	-0.30580297
196	0xbe867db4	-0.2626778
197	0x3ebe7127	0.37195703
198	0xbdefaff8	-0.11703485
199	0xbe2c57ee	-0.16830418
200	0xbed1d628	-0.409837
201	0xbeaaa7a1	-0.33331016
202	0x3e81b0e2	0.25330263
203	0xbe1e7dd3	-0.15477686
204	0x3b518ce0	0.0031974837
205	0xbd493ebf	-0.049132105
206	0xbea25e1a	-0.3171242
207	0x3eda3033	0.42614898
208	0x3ea09ec1	0.3137112
209	0x3c4b13bd	0.012394843
210	0xbe3a6c4a	-0.18205371
211	0x3dc6eb16	0.09712808
212	0xbec17785	-0.377865
213	0x3e80a6d9	0.25127295
214	0xbdf3a04c	-0.118958086
215	0x3e668014	0.22509795
216	0x3e954116	0.2915122
217	0x3e3637a5	0.17794664
218	0x3e504b81	0.20341302
219	0xbd904ae1	-0.07045532
220	0x3b85e2d7	0.0040858793
221	0xbc6d787a	-0.014494056
222	0xbe1feb17	-0.15617023
223	0xbea8b74f	-0.32952353
224	0xbdf77128	-0.1208213
225	0xbe8e7b5f	-0.278285
226	0xbe8856a9	-0.26628616
227	0xbdf0bec4	-0.11755136
228	0xbe61ba6b	-0.22043769
229	0x3e875c8b	0.26437792
230	0xbd22aadf	-0.039713737
231	0xbe3eafe0	-0.18621778
232	0x3dd53e61	0.104122885
233	0xbe0b039e	-0.13575599
234	0x3df7a7a9	0.120925255
235	0x3e8a8505	0.2705461
236	0xbe126ca5	-0.14299257
237	0x3e4ffe7c	0.20311922
238	0xbea72798	-0.32647395
239	0x3eb799b9	0.3585947
240	0xbe933da5	-0.2875797
241	0xbe3c987a	-0.1841754
242	0x3e13d156	0.14435324
243	0xbe1c5511	-0.15266825
244	0x3e6365c8	0.22206795
245	0xbe9da625	-0.3079082
246	0xbe4a22c4	-0.19739825
247	0xbccbfd2b	-0.024900993
248	0x3eb13879	0.34613398
249	0xbebeff9a	-0.37304384
250	0xbc610769	-0.013734677
251	0x3dbe3d66	0.092890546
252	0xbd345ee6	-0.044035815
253	0x3b497857	0.0030741894
254	0x3e85ba19	0.26118544
255	0x3e996d0c	0.2996601

ntm.controller.lstm.weight_hh_l0 f4 [400, 100]
0	0xbd9e1cf3	-0.077203654
1	0xbdfc8f49	-0.12332017
2	0xbee33c92	-0.4438215
3	0xbd906586	-0.07050614
4	0x3bf2c600	0.0074088573
5	0x3e3773bc	0.17915243
6	0xbe9c3dcb	-0.30515894
7	0x3d582f61	0.05277956
8	0x3e7c8bb1	0.24662663
9	0x3ec26744	0.3796941
10	0xbe7b7391	-0.24555804
11	0x3e4b5207	0.1985551
12	0xbe6478ed	-0.22311755
13	0x3d391297	0.045183744
14	0x3ef90356	0.48635358
15	0xbc01d90c	-0.007925283
16	0x3e161eec	0.14660233
17	0xbe0c09eb	-0.13675658
18	0xbebfb68d	-0.37443963
19	0x3e80333c	0.2503909
20	0xbe1b2310	-0.15150094
21	0xbd01aa75	-0.0316567
22	0xbe49bb13	-0.1970027
23	0xbe9acafc	-0.3023299
24	0xbdba006d	-0.090821125
25	0xbe4b117d	-0.1983089
26	0xbe6cdb06	-0.23130426
27	0xbee262c2	-0.4421597
28	0x3e1e0653	0.154321
29	0xbec9131d	-0.39272395
30	0xbcf730cf	-0.030174641
31	0x3e3346ca	0.17507473
32	0xbd62932f	-0.055316146
33	0xbd279c67	-0.04092064
34	0x3dd81c9c	0.10552332
35	0x3e2395b8	0.15975082
36	0xbc452a8f	-0.012034073
37	0x3db16059	0.08660955
38	0xbd9ff51e	-0.07810424
39	0xbe6e6aac	-0.2328288
40	0xbdd5d6f1	-0.104413874
41	0xbe627009	-0.2211305
42	0x3e81c2da	0.25343972
43	0xbd9bd7cf	-0.076095216
44	0xbd8799af	-0.0662111
45	0x3e8d6919	0.27619246
46	0x3d98eeca	0.074674204
47	0x3df2ce04	0.118557006
48	0xbbec26f2	-0.007206791
49	0xbd0e4e84	-0.034742847
50	0x3d9b9730	0.07597196
51	0x3dd71e84	0.10503867
52	0x3d1ae5dc	0.037816867
53	0x3ea900b3	0.33008346
54	0x3eb55d9a	0.35422975
55	0xbe80d275	-0.25160566
56	0xbe6ad88d	-0.2293417
57	0xbe2fb2d0	-0.17158055
58	0xbdd23a3a	-0.10265012
59	0xbd57cb8f	-0.052684363
60	0x3e7073c1	0.23481657
61	0xbeb63e9d	-0.35594645
62	0xbe5d9d66	-0.21642074
63	0x3e95a15f	0.2922468
64	0x3e3cdbf5	0.18443282
65	0x3da15ca3	0.07878997
66	0xbe5e31a4	-0.21698624
67	0x3e4088db	0.18802206
68	0x3e10f8b6	0.14157376
69	0xbccd3121	-0.02504784
70	0xbe18b95e	-0.14914462
71	0xbe2b36d6	-0.16720137
72	0x3f066f70	0.5251379
73	0x3d838703	0.06422236
74	0x3d79562d	0.0608732
75	0xbe5d76ea	-0.21627393
76	0x3d0e1516	0.034688078
77	0xbec2fb98	-0.38082576
78	0xbcc4596b	-0.023968419
79	0x3e113b9b	0.14182894
80	0x3e4b0ffe	0.1983032
81	0xbe638b64	-0.22221142
82	0x3d512253	0.051058125
83	0xbe907af0	-0.28218794
84	0x3e81c02c	0.25341928
85	0xbeac76b3	-0.3368431
86	0x3d316d9d	0.043317426
87	0x3eb3333e	0.35000032
88	0x3deb488f	0.11488449
89	0x3eb7480f	0.35797164
90	0x3cdf5c6f	0.027265755
91	0x3cfd122b	0.030892452
92	0x3e4a723b	0.19770138
93	0xbcbc5c2f	-0.022993175
94	0x3e7c48b4	0.24637109
95	0x3d9a2ce3	0.07528093
96	0xbe425e05	-0.18981178
97	0x3e5ae748	0.2137729
98	0x3e2898a5	0.1646448
99	0xbe12ab56	-0.14323172
100	0x3b8f1106	0.004366043
101	0x3e0489f4	0.1294325
102	0xbe55dc34	-0.20884782
103	0x3e03e08f	0.12878631
104	0xbdb80c48	-0.089867175
105	0xbd96bfaf	-0.073607795
106	0xbdb6857a	-0.089121774
107	0xbe47eba1	-0.19523479
108	0x3d8858fe	0.06657599
109	0x3e51ef45	0.2050143
110	0xbdee5891	-0.116379865
111	0xbda5905a	-0.080841735
112	0x3ba8dd06	0.005153301
113	0x3e1c1579	0.15242566
114	0xbe9d078e	-0.30669826
115	0xbe9c9aca	-0.30586845
116	0xbd2ddcf4	-0.042447045
117	0x3e6e5370	0.23274016
118	0x3e2e0209	0.16992964
119	0xbd5335c7	-0.051564958
120	0xbb9ee7df	-0.0048494185
121	0xbdf53b76	-0.11974232
122	0xbe078706	-0.13235101
123	0xbd79bd6f	-0.060971674
124	0x3e182fa8	0.1486193
125	0x3e182979	0.1485957
126	0x3e93abeb	0.288421
127	0x3e41860e	0.18898794
128	0xbe9d3c4f	-0.30710074
129	0x3ddcee20	0.10787606
130	0xbdd63c55	-0.10460726
131	0x3e7682d7	0.24073349
132	0x3e4b6752	0.19863632
133	0x3d07ee1f	0.033186074
134	0xbee248ab	-0.44196066
135	0xbce4af4b	-0.027915617
136	0xbe021ee6	-0.127071
137	0xbe123fb9	-0.14282121
138	0xbd6129a3	-0.05497135
139	0x3e9a73e3	0.3016654
140	0x3e3d6efc	0.18499368
141	0xbe438265	-0.1909271
142	0x3c7e421a	0.0155186895
143	0x3d0caa9f	0.034342404
144	0x3e0d57b0	0.13802981
145	0x3dfdfc98	0.12401694
146	0x3d736d9b	0.0594307
147	0x3dccff5b	0.10009643
148	0xbeb92ecb	-0.36168513
149	0x3d7166f2	0.058936067
150	0x3c192719	0.0093477005
151	0x3e34242c	0.17591923
152	0xbe615c4b	-0.22007863
153	0x3e7fae94	0.2496894
154	0x3e969d1a	0.29416734
155	0xbe9d544e	-0.30728382
156	0x3e8e6d52	0.2781778
157	0x3e0c8e9c	0.13726276
158	0xbe3352b9	-0.17512025
159	0x3e048efd	0.1294517
160	0xbddf65ad	-0.10908065
161	0xbdc1d909	-0.09465224
162	0xbe03c798	-0.12869108
163	0xbe52b2a5	-0.2057596
164	0xbdad66c9	-0.0846687
165	0x3ea6f5b0	0.3260932
166	0xbda77efe	-0.08178519
167	0x3e1ffa7b	0.15622894
168	0x3ecc962c	0.39958322
169	0xbdefc66c	-0.11707768
170	0x3dd69e99	0.10479469
171	0xbdb0f749	-0.08640916
172	0x3e3359b4	0.17514688
173	0xbe552667	-0.2081543
174	0x3d9f3170	0.07773101
175	0x3ea4f0eb	0.32215056
176	0x3e2a13c4	0.16609102
177	0x3e2c6396	0.16834864
178	0xbe905bc8	-0.28195024
179	0x3e1c875e	0.15286013
180	0x3cdaf404	0.026727684
181	0xbe8e2110	-0.277596
182	0xbda0a8b0	-0.078446746
183	0x3e13067c	0.14357942
184	0xbe45ea93	-0.19327764
185	0x3d7307d9	0.059333656
186	0xbcee947e	-0.029123541
187	0x3da2823d	0.07934997
188	0xbb0af5ae	-0.0021203565
189	0x3e95c72d	0.29253522
190	0xbe2f32b1	-0.17109181
191	0xbd8025ba	-0.06257196
192	0xbd91673f	-0.07099771
193	0xbe0f30f8	-0.13983524
194	0x3e0afcd0	0.13573003
195	0x3bd380fb	0.0064545847
196	0xbe5df710	-0.21676278
197	0xbea10264	-0.31447136
198	0xbe794f87	-0.24346744
199	0xbea1ff43	-0.31640062
200	0x3ec02f78	0.37536216
201	0xbe89fa4a	-0.26948768
202	0xbdc8128f	-0.09769165
203	0xbe87c132	-0.26514584
204	0xbe5332e8	-0.20624888
205	0x3e33e068	0.17566073
206	0xbe38c8be	-0.18045327
207	0xbd90c378	-0.07068533
208	0xbe973916	-0.2953574
209	0x3e88d649	0.26725987
210	0xbe30f014	-0.17279083
211	0x3d512ca1	0.051067952
212	0xbe1cc2a9	-0.15308632
213	0xbc1765eb	-0.009240608
214	0x3e8d6d31	0.2762237
215	0xbebbcb60	-0.366786
216	0x3d467d5e	0.048459403
217	0xbe6b3b6c	-0.22971886
218	0x3eb2ee07	0.34947225
219	0x3e436770	0.19082427
220	0x3e975354	0.29555762
221	0x3e3e2efb	0.18572609
222	0xbc80ecf9	-0.015737997
223	0xbdcbd601	-0.099529274
224	0xbd5ef6d6	-0.05443462
225	0x3d2f30b4	0.042771056
226	0x3ea61458	0.32437396
227	0xbe94cfd1	-0.290648
228	0x3deb0bdc	0.11476871
229	0x3c070f0a	0.008243332
230	0x3deba772	0.11506547
231	0xbeacc38a	-0.33742934
232	0xbeb2ad15	-0.34897676
233	0xbda55b67	-0.08074074
234	0xbe30cc1d	-0.17265363
235	0x3dc6a83a	0.097000554
236	0xbea7b49a	-0.32754976
237	0x3de5055f	0.11182665
238	0x3e1b0a47	0.15140639
239	0xbc71db27	-0.014761723
240	0xbe3affdd	-0.18261667
241	0x3e9e7183	0.30945978
242	0x3e87dba7	0.2653477
243	0xbebd728c	-0.37001455
244	0xbd8483de	-0.06470464
245	0xbd46a798	-0.048499674
246	0x3e74b987	0.23898898
247	0xbcaaf857	-0.02087037
248	0xbcf9e3ed	-0.030504191
249	0x3eb6626d	0.35621968
250	0xbdfa4f32	-0.122221366
251	0x3eb737d7	0.3578479
252	0x3db17976	0.08665745
253	0xbdff5d84	-0.124690086
254	0x3deef53d	0.11667869
255	0xbe8a1bcd	-0.26974335

ntm.controller.lstm.bias_ih_l0 f4 [400]
0	0x3c2a69b6	0.01040118
1	0xbc8d2bb9	-0.017232763
2	0xbcb041f8	-0.021515831
3	0xbd393e25	-0.04522528
4	0x3d25ab3d	0.04044651
5	0x3db135cd	0.0865284
6	0xbc4afbec	-0.012389164
7	0xbc33b42f	-0.010968252
8	0x3c657569	0.014005044
9	0xbb180c04	-0.0023200521
10	0xbc9a62ef	-0.018846003
11	0xbc36bb45	-0.011153047
12	0xbcf54de5	-0.02994437
13	0x3d34180c	0.043968245
14	0x3c98944d	0.018625403
15	0xbda50fe5	-0.08059672
16	0xbbe89393	-0.0070976703
17	0x3cccb204	0.024987228
18	0xbcb0a03f	-0.021560786
19	0xbc7893fd	-0.015172002
20	0xbd9f946a	-0.077919796
21	0x3cfd5dd4	0.03092853
22	0xbc8f36bd	-0.017482156
23	0x3d83e010	0.06439221
24	0x39afe43a	0.00033548643
25	0xbc4f5310	-0.012654081
26	0x3c90a6d0	0.017657667
27	0xbdca379c	-0.09873888
28	0xbcf6b9c4	-0.030117877
29	0xbd9e16cb	-0.07719191
30	0xb9ca573f	-0.00038593446
31	0xbc090607	-0.008363253
32	0xbc711c4e	-0.014716221
33	0xbcfaaef0	-0.030600995
34	0xbcedcaef	-0.02902743
35	0x3bd319e5	0.006442296
36	0xbd113028	-0.035446316
37	0x3c3eb50e	0.0116398465
38	0x3cd6d333	0.026223755
39	0xbcc52360	-0.02406472
40	0xbc933a81	-0.017972233
41	0xbd010ef7	-0.031508412
42	0xbd1720be	-0.03689646
43	0x3a1364fc	0.0005622653
44	0x3c5048de	0.012712685
45	0xbcabe041	-0.020980956
46	0xbc6924ac	-0.014229935
47	0xbd434923	-0.04767717
48	0xbcfa10d5	-0.030525604
49	0xbc8a1100	-0.01685381
50	0xbc7963c2	-0.015221538
51	0xbd02fc86	-0.031979106
52	0xbc81ea53	-0.015858805
53	0x3c0e9754	0.008703072
54	0xbd4d33ff	-0.050098415
55	0xbc5872b5	-0.013210942
56	0x3cf28e30	0.029608816
57	0x3c1df8dd	0.009641853
58	0x3d1d64e9	0.038426314
59	0x3ca831fa	0.020531643
60	0x3c57c3fb	0.013169284
61	0x3b9b14f7	0.004732724
62	0xbd46d521	-0.0485431
63	0x3caffe98	0.021483704
64	0x3d22240b	0.039585155
65	0xbc532ca2	-0.012889059
66	0xbb05aa4e	-0.00203957
67	0x3ccf99b4	0.025341846
68	0xbd4a9c3a	-0.049465396
69	0xbd0d0c39	-0.034435485
70	0xbcb97c51	-0.022642286
71	0xbc09cf3e	-0.008411227
72	0x3d489ca2	0.0489775
73	0x3c326986	0.010889417
74	0xbd0cea4f	-0.03440314
75	0xbcb2346c	-0.021753512
76	0xbc8a3625	-0.016871521
77	0x3ce3254a	0.027727742
78	0x3caecf82	0.021339182
79	0xbc44241d	-0.011971501
80	0xbd097de7	-0.033567335
81	0xbbdb2d6f	-0.0066887657
82	0x3c0166cc	0.007898044
83	0xbcd7e8c1	-0.026356103
84	0xbd193913	-0.037407946
85	0xbc9cd197	-0.019142909
86	0x3b9ac3a0	0.0047230273
87	0xbcaa6893	-0.020801818
88	0x3d16d364	0.03682269
89	0xba8e89a9	-0.0010874766
90	0xb9ab5b1f	-0.00032683552
91	0xbc38545f	-0.011250584
92	0xbc883d38	-0.016630754
93	0x3ca44fb2	0.020057533
94	0xbc8bb2ec	-0.01705309
95	0xbd3ee040	-0.04660058
96	0xbcb289df	-0.021794258
97	0xbd94b0fb	-0.07260319
98	0x3bf07545	0.0073381984
99	0x3cab1a93	0.020886695
100	0x3d3905da	0.045171596
101	0xbcb59ff1	-0.022170993
102	0x3c4a6168	0.012352325
103	0xbd9d0f72	-0.076689616
104	0xbd3789f2	-0.04480929
105	0xbc1d5c2c	-0.009604495
106	0xbc2ba707	-0.010476834
107	0x3c3acd33	0.011401462
108	0x3cb1af1a	0.02168994
109	0xbc876dcf	-0.016531853
110	0x3d0cdd36	0.03439065
111	0x3d51aea3	0.051191937
112	0x3c034846	0.008012837
113	0x3c1a8a6f	0.009432419
114	0x3d0bcb1f	0.03412926
115	0xbd56698f	-0.052346762
116	0x3c357182	0.011074426
117	0xbca7c117	-0.020477815
118	0xbd19251d	-0.03738891
119	0x3c556f9b	0.013027097
120	0x3c714ddb	0.014728035
121	0x3d256c74	0.040386632
122	0xbb120450	-0.0022280402
123	0xbccb7962	-0.024838153
124	0xbd07ac0e	-0.03312307
125	0x3cc112c2	0.023568515
126	0xbd2ba7d1	-0.04190809
127	0x3ca8a436	0.020586114
128	0x3d1a9ca3	0.037747037
129	0xbd945203	-0.07242205
130	0x3d79e28b	0.061007064
131	0x3ba5405f	0.005043074
132	0xbca54d8e	-0.020178583
133	0x3d32e24c	0.043672845
134	0xbd80da4e	-0.06291638
135	0x3cea3151	0.028587969
136	0xbc4088c8	-0.011751361
137	0x3d0023c6	0.031284116
138	0x3ce98d67	0.028509809
139	0xbca0bbc2	-0.01962078
140	0xbc945be3	-0.018110221
141	0x3a079241	0.0005171635
142	0xbcff8b10	-0.03119424
143	0x3ccdc862	0.025119964
144	0x3d462186	0.048371814
145	0xbcf5419d	-0.029938513
146	0xbce5c506	-0.02804805
147	0xbd00aec1	-0.03141666
148	0xbb6542c4	-0.0034982422
149	0x3c103342	0.008801283
150	0xbcbe492e	-0.023228254
151	0xbc9ebb80	-0.019376516
152	0xbbb36613	-0.0054748147
153	0x3b6a1836	0.0035719997
154	0xbcc03f35	-0.02346764
155	0xbd496a9f	-0.049173947
156	0x3c9960e5	0.01872296
157	0x3ca6df2a	0.020370085
158	0x3c8adcdf	0.016951023
159	0x3b770f45	0.003769831
160	0x3acffe34	0.0015868605
161	0x3c7692e7	0.015049673
162	0xbcf14394	-0.02945117
163	0x3d039c45	0.032131452
164	0x3d00207b	0.031280976
165	0xbbf8e507	-0.0075956616
166	0xbc113965	-0.008863782
167	0x3d3e2686	0.046423458
168	0xbcba434d	-0.02273717
169	0xbdd4fdb6	-0.10399954
170	0x3a8db306	0.00108108
171	0x3c12b95a	0.008955324
172	0x3aabc6ae	0.0013105476
173	0x3be00288	0.0068362392
174	0x3c4ef323	0.0126312105
175	0xbd574ffe	-0.05256652
176	0xbd14f7f1	-0.036369268
177	0x3d955c83	0.07293036
178	0x3cfd3c12	0.030912433
179	0xbda133df	-0.07871222
180	0xbd2e1422	-0.04249967
181	0xbc7db82f	-0.015485807
182	0xbb7e9c74	-0.0038850578
183	0xbc9dff0b	-0.019286653
184	0xbd12f285	-0.035875816
185	0xbb5f88ff	-0.0034108756
186	0x3cc18e85	0.023627529
187	0x3b084c6c	0.0020797504
188	0x3d00f23c	0.031481013
189	0xbd0c1bc7	-0.034206178
190	0xbd05fd5b	-0.03271232
191	0xbbcb9123	-0.00621237
192	0xbc6d28f3	-0.014475095
193	0x3d372aad	0.044718433
194	0x3d37ea66	0.044901274
195	0xbcd60af3	-0.026128268
196	0xbcb78bcc	-0.022405528
197	0xbd845862	-0.0646217
198	0xbb806436	-0.003918196
199	0x3c346160	0.011009544
200	0xbc646f35	-0.013942529
201	0x3b0b2192	0.0021229726
202	0x3d073e83	0.0330186
203	0xbd19e98a	-0.037576236
204	0x3cbe9971	0.023266526
205	0xbbd8ae6c	-0.0066125896
206	0x3c80b40b	0.015710851
207	0xbbc54101	-0.006019712
208	0xbc82f3f2	-0.015985463
209	0xbc9f6072	-0.019455168
210	0xbbeff592	-0.0073229754
211	0xbd5b1357	-0.05348524
212	0xbba621a1	-0.005069927
213	0xbca13a1e	-0.019681033
214	0x3ca8dc68	0.02061291
215	0x3ca43352	0.020044003
216	0xbc867f9b	-0.016418269
217	0xbc0c5bbc	-0.008566793
218	0xbc17767b	-0.009244557
219	0x3c10f1d7	0.008846722
220	0xbc723006	-0.0147819575
221	0x3c6402fa	0.013916725
222	0xbb7d80ab	-0.0038681428
223	0x3cf01cd1	0.029310616
224	0xbbb44559	-0.005501431
225	0x3c17dc45	0.009268825
226	0xbb50e945	-0.003187732
227	0x3ca71e2a	0.020400126
228	0x3c49f594	0.012326617
229	0xbcb75d63	-0.022383397
230	0x3c592d5d	0.013255444
231	0x3c0a2643	0.008431974
232	0x3af827b1	0.0018932727
233	0xbcdf28de	-0.027241167
234	0x3c2acd02	0.010424854
235	0xbc76c37e	-0.015061257
236	0x3b2ac8f9	0.002605973
237	0x3d4f9a42	0.05068422
238	0xbce57e5c	-0.028014354
239	0x3bd43d87	0.006477061
240	0x3b31f6cb	0.0027155157
241	0xbcf95874	-0.030437686
242	0xbc89112f	-0.016731827
243	0xbc8a42a0	-0.016877472
244	0x3ba69f9e	0.005084946
245	0xbc87155a	-0.016489673
246	0x3c1a217b	0.009407396
247	0xbc520449	-0.0128184045
248	0xbb29b27d	-0.002589374
249	0xbb9fdcf1	-0.004878633
250	0xbbb148db	-0.0054102964
251	0xbcb2e2aa	-0.021836597
252	0x3b815a33	0.00394752
253	0x3c3fe4e1	0.011712284
254	0x3c2dc668	0.010606386
255	0xbccb0c21	-0.024786057

ntm.controller.lstm.bias_hh_l0 f4 [400]
0	0x3c2a69b6	0.01040118
1	0xbc8d2bb9	-0.017232763
2	0xbcb041f8	-0.021515831
3	0xbd393e25	-0.04522528
4	0x3d25ab3d	0.04044651
5	0x3db135cd	0.0865284
6	0xbc4afbec	-0.012389164
7	0xbc33b42f	-0.010968252
8	0x3c657569	0.014005044
9	0xbb180c04	-0.0023200521
10	0xbc9a62ef	-0.018846003
11	0xbc36bb45	-0.011153047
12	0xbcf54de5	-0.02994437
13	0x3d34180c	0.043968245
14	0x3c98944d	0.018625403
15	0xbda50fe5	-0.08059672
16	0xbbe89393	-0.0070976703
17	0x3cccb204	0.024987228
18	0xbcb0a03f	-0.021560786
19	0xbc7893fd	-0.015172002
20	0xbd9f946a	-0.077919796
21	0x3cfd5dd4	0.03092853
22	0xbc8f36bd	-0.017482156
23	0x3d83e010	0.06439221
24	0x39afe43a	0.00033548643
25	0xbc4f5310	-0.012654081
26	0x3c90a6d0	0.017657667
27	0xbdca379c	-0.09873888
28	0xbcf6b9c4	-0.030117877
29	0xbd9e16cb	-0.07719191
30	0xb9ca573f	-0.00038593446
31	0xbc090607	-0.008363253
32	0xbc711c4e	-0.014716221
33	0xbcfaaef0	-0.030600995
34	0xbcedcaef	-0.02902743
35	0x3bd319e5	0.006442296
36	0xbd113028	-0.035446316
37	0x3c3eb50e	0.0116398465
38	0x3cd6d333	0.026223755
39	0xbcc52360	-0.02406472
40	0xbc933a81	-0.017972233
41	0xbd010ef7	-0.031508412
42	0xbd1720be	-0.03689646
43	0x3a1364fc	0.0005622653
44	0x3c5048de	0.012712685
45	0xbcabe041	-0.020980956
46	0xbc6924ac	-0.014229935
47	0xbd434923	-0.04767717
48	0xbcfa10d5	-0.030525604
49	0xbc8a1100	-0.01685381
50	0xbc7963c2	-0.015221538
51	0xbd02fc86	-0.031979106
52	0xbc81ea53	-0.015858805
53	0x3c0e9754	0.008703072
54	0xbd4d33ff	-0.050098415
55	0xbc5872b5	-0.013210942
56	0x3cf28e30	0.029608816
57	0x3c1df8dd	0.009641853
58	0x3d1d64e9	0.038426314
59	0x3ca831fa	0.020531643
60	0x3c57c3fb	0.013169284
61	0x3b9b14f7	0.004732724
62	0xbd46d521	-0.0485431
63	0x3caffe98	0.021483704
64	0x3d22240b	0.039585155
65	0xbc532ca2	-0.012889059
66	0xbb05aa4e	-0.00203957
67	0x3ccf99b4	0.025341846
68	0xbd4a9c3a	-0.049465396
69	0xbd0d0c39	-0.034435485
70	0xbcb97c51	-0.022642286
71	0xbc09cf3e	-0.008411227
72	0x3d489ca2	0.0489775
73	0x3c326986	0.010889417
74	0xbd0cea4f	-0.03440314
75	0xbcb2346c	-0.021753512
76	0xbc8a3625	-0.016871521
77	0x3ce3254a	0.027727742
78	0x3caecf82	0.021339182
79	0xbc44241d	-0.011971501
80	0xbd097de7	-0.033567335
81	0xbbdb2d6f	-0.0066887657
82	0x3c0166cc	0.007898044
83	0xbcd7e8c1	-0.026356103
84	0xbd193913	-0.037407946
85	0xbc9cd197	-0.019142909
86	0x3b9ac3a0	0.0047230273
87	0xbcaa6893	-0.020801818
88	0x3d16d364	0.03682269
89	0xba8e89a9	-0.0010874766
90	0xb9ab5b1f	-0.00032683552
91	0xbc38545f	-0.011250584
92	0xbc883d38	-0.016630754
93	0x3ca44fb2	0.020057533
94	0xbc8bb2ec	-0.01705309
95	0xbd3ee040	-0.04660058
96	0xbcb289df	-0.021794258
97	0xbd94b0fb	-0.07260319
98	0x3bf07545	0.0073381984
99	0x3cab1a93	0.020886695
100	0x3d3905da	0.045171596
101	0xbcb59ff1	-0.022170993
102	0x3c4a6168	0.012352325
103	0xbd9d0f72	-0.076689616
104	0xbd3789f2	-0.04480929
105	0xbc1d5c2c	-0.009604495
106	0xbc2ba707	-0.010476834
107	0x3c3acd33	0.011401462
108	0x3cb1af1a	0.02168994
109	0xbc876dcf	-0.016531853
110	0x3d0cdd36	0.03439065
111	0x3d51aea3	0.051191937
112	0x3c034846	0.008012837
113	0x3c1a8a6f	0.009432419
114	0x3d0bcb1f	0.03412926
115	0xbd56698f	-0.052346762
116	0x3c357182	0.011074426
117	0xbca7c117	-0.020477815
118	0xbd19251d	-0.03738891
119	0x3c556f9b	0.013027097
120	0x3c714ddb	0.014728035
121	0x3d256c74	0.040386632
122	0xbb120450	-0.0022280402
123	0xbccb7962	-0.024838153
124	0xbd07ac0e	-0.03312307
125	0x3cc112c2	0.023568515
126	0xbd2ba7d1	-0.04190809
127	0x3ca8a436	0.020586114
128	0x3d1a9ca3	0.037747037
129	0xbd945203	-0.07242205
130	0x3d79e28b	0.061007064
131	0x3ba5405f	0.005043074
132	0xbca54d8e	-0.020178583
133	0x3d32e24c	0.043672845
134	0xbd80da4e	-0.06291638
135	0x3cea3151	0.028587969
136	0xbc4088c8	-0.011751361
137	0x3d0023c6	0.031284116
138	0x3ce98d67	0.028509809
139	0xbca0bbc2	-0.01962078
140	0xbc945be3	-0.018110221
141	0x3a079241	0.0005171635
142	0xbcff8b10	-0.03119424
143	0x3ccdc862	0.025119964
144	0x3d462186	0.048371814
145	0xbcf5419d	-0.029938513
146	0xbce5c506	-0.02804805
147	0xbd00aec1	-0.03141666
148	0xbb6542c4	-0.0034982422
149	0x3c103342	0.008801283
150	0xbcbe492e	-0.023228254
151	0xbc9ebb80	-0.019376516
152	0xbbb36613	-0.0054748147
153	0x3b6a1836	0.0035719997
154	0xbcc03f35	-0.02346764
155	0xbd496a9f	-0.049173947
156	0x3c9960e5	0.01872296
157	0x3ca6df2a	0.020370085
158	0x3c8adcdf	0.016951023
159	0x3b770f45	0.003769831
160	0x3acffe34	0.0015868605
161	0x3c7692e7	0.015049673
162	0xbcf14394	-0.02945117
163	0x3d039c45	0.032131452
164	0x3d00207b	0.031280976
165	0xbbf8e507	-0.0075956616
166	0xbc113965	-0.008863782
167	0x3d3e2686	0.046423458
168	0xbcba434d	-0.02273717
169	0xbdd4fdb6	-0.10399954
170	0x3a8db306	0.00108108
171	0x3c12b95a	0.008955324
172	0x3aabc6ae	0.0013105476
173	0x3be00288	0.0068362392
174	0x3c4ef323	0.0126312105
175	0xbd574ffe	-0.05256652
176	0xbd14f7f1	-0.036369268
177	0x3d955c83	0.07293036
178	0x3cfd3c12	0.030912433
179	0xbda133df	-0.07871222
180	0xbd2e1422	-0.04249967
181	0xbc7db82f	-0.015485807
182	0xbb7e9c74	-0.0038850578
183	0xbc9dff0b	-0.019286653
184	0xbd12f285	-0.035875816
185	0xbb5f88ff	-0.0034108756
186	0x3cc18e85	0.023627529
187	0x3b084c6c	0.0020797504
188	0x3d00f23c	0.031481013
189	0xbd0c1bc7	-0.034206178
190	0xbd05fd5b	-0.03271232
191	0xbbcb9123	-0.00621237
192	0xbc6d28f3	-0.014475095
193	0x3d372aad	0.044718433
194	0x3d37ea66	0.044901274
195	0xbcd60af3	-0.026128268
196	0xbcb78bcc	-0.022405528
197	0xbd845862	-0.0646217
198	0xbb806436	-0.003918196
199	0x3c346160	0.011009544
200	0xbc646f35	-0.013942529
201	0x3b0b2192	0.0021229726
202	0x3d073e83	0.0330186
203	0xbd19e98a	-0.037576236
204	0x3cbe9971	0.023266526
205	0xbbd8ae6c	-0.0066125896
206	0x3c80b40b	0.015710851
207	0xbbc54101	-0.006019712
208	0xbc82f3f2	-0.015985463
209	0xbc9f6072	-0.019455168
210	0xbbeff592	-0.0073229754
211	0xbd5b1357	-0.05348524
212	0xbba621a1	-0.005069927
213	0xbca13a1e	-0.019681033
214	0x3ca8dc68	0.02061291
215	0x3ca43352	0.020044003
216	0xbc867f9b	-0.016418269
217	0xbc0c5bbc	-0.008566793
218	0xbc17767b	-0.009244557
219	0x3c10f1d7	0.008846722
220	0xbc723006	-0.0147819575
221	0x3c6402fa	0.013916725
222	0xbb7d80ab	-0.0038681428
223	0x3cf01cd1	0.029310616
224	0xbbb44559	-0.005501431
225	0x3c17dc45	0.009268825
226	0xbb50e945	-0.003187732
227	0x3ca71e2a	0.020400126
228	0x3c49f594	0.012326617
229	0xbcb75d63	-0.022383397
230	0x3c592d5d	0.013255444
231	0x3c0a2643	0.008431974
232	0x3af827b1	0.0018932727
233	0xbcdf28de	-0.027241167
234	0x3c2acd02	0.010424854
235	0xbc76c37e	-0.015061257
236	0x3b2ac8f9	0.002605973
237	0x3d4f9a42	0.05068422
238	0xbce57e5c	-0.028014354
239	0x3bd43d87	0.006477061
240	0x3b31f6cb	0.0027155157
241	0xbcf95874	-0.030437686
242	0xbc89112f	-0.016731827
243	0xbc8a42a0	-0.016877472
244	0x3ba69f9e	0.005084946
245	0xbc87155a	-0.016489673
246	0x3c1a217b	0.009407396
247	0xbc520449	-0.0128184045
248	0xbb29b27d	-0.002589374
249	0xbb9fdcf1	-0.004878633
250	0xbbb148db	-0.0054102964
251	0xbcb2e2aa	-0.021836597
252	0x3b815a33	0.00394752
253	0x3c3fe4e1	0.011712284
254	0x3c2dc668	0.010606386
255	0xbccb0c21	-0.024786057

ntm.controller.lstm.weight_ih_l1 f4 [400, 100]
0	0xbe3ac016	-0.18237337
1	0x3e941e2a	0.28929263
2	0xbd2c3d38	-0.04205057
3	0xbd6e7abc	-0.058222517
4	0xbe3dcf52	-0.18536118
5	0xbe4fe9d4	-0.20304042
6	0xbea1becf	-0.31590888
7	0xbc82a4ad	-0.015947664
8	0x3de4dc9d	0.11174891
9	0x3dfcbcce	0.12340699
10	0x3e9e906f	0.3096957
11	0x3e8ad7db	0.2711781
12	0x3cc0fa57	0.023556871
13	0x3eae84d8	0.34085727
14	0x3dd61a6a	0.10454257
15	0x3e88998d	0.2667965
16	0xbe554c96	-0.20829996
17	0x3eba4244	0.36378682
18	0x3eaa5f43	0.33275804
19	0xbe506df3	-0.20354442
20	0xbea3c226	-0.3198406
21	0xbd006796	-0.031348787
22	0x3eaa5dff	0.33274838
23	0x3d222bda	0.0395926
24	0xbe6e8c07	-0.23295604
25	0x3e44ded0	0.19225621
26	0xbe0f9d76	-0.1402491
27	0x3e66f856	0.2255567
28	0xbc9333a1	-0.017968955
29	0x3e7baa4a	0.24576679
30	0xbe705cdb	-0.23472922
31	0xbe7ac6ec	-0.24489945
32	0xbeae3120	-0.34021854
33	0x3e1937da	0.14962712
34	0x3e593de7	0.2121502
35	0xbe03b908	-0.12863553
36	0xbe13adff	-0.14421843
37	0x3e896349	0.2683356
38	0xbda0526f	-0.07828223
39	0x3de23edc	0.11047146
40	0x3e7759d0	0.24155354
41	0x3cc49017	0.023994489
42	0x3e39cba1	0.18144085
43	0xbe8272d9	-0.25478247
44	0x3e41677d	0.18887134
45	0x3e88e3d9	0.26736334
46	0xbe4b6b20	-0.19865084
47	0xbe4d3cff	-0.200428
48	0x3c754186	0.014969235
49	0xbe2c527b	-0.16828339
50	0x3de05576	0.109538004
51	0x3c7fa973	0.015604365
52	0xbec67ebf	-0.38768575
53	0x3db9afff	0.09066772
54	0xbe821638	-0.25407577
55	0xbe40540e	-0.18782064
56	0xbe481d43	-0.19542412
57	0x3ebcecf9	0.36899546
58	0x3e64e150	0.22351575
59	0x3ea2018c	0.31641805
60	0xbe96fca4	-0.29489625
61	0x3e08cff6	0.13360581
62	0x3e849b1b	0.25899586
63	0x3ea1b399	0.31582335
64	0xbda36618	-0.07978457
65	0x3df1b1ce	0.11801492
66	0xbe98bd8c	-0.29832113
67	0x3e04bc46	0.12962446
68	0xbe8f0cb3	-0.27939376
69	0xbc25c193	-0.0101169525
70	0xbe37f7dd	-0.17965646
71	0xbd9e7334	-0.07736817
72	0xbcbc2fb3	-0.022971964
73	0xbe035567	-0.12825547
74	0xbe6a79b6	-0.22897992
75	0xbe98224b	-0.29713663
76	0xbe2287a8	-0.15872061
77	0xbe49b4dc	-0.19697899
78	0x3e7426d4	0.23842937
79	0xbdf1e697	-0.1181156
80	0xbe8584a1	-0.2607775
81	0x3e5fccd2	0.21855476
82	0x3df72f56	0.120695755
83	0x3ea3ad14	0.31967986
84	0x3d3ad71e	0.045615308
85	0xbe53524b	-0.20636861
86	0x3ebd9a8e	0.37031978
87	0x3e05b6a8	0.13057959
88	0xbe656e4e	-0.22405359
89	0xbe79c886	-0.243929
90	0xbe7745a3	-0.24147658
91	0x3e5a5d75	0.21324714
92	0x3e0af106	0.13568506
93	0xbbb9b816	-0.0056676967
94	0x3e9ce6f3	0.3064495
95	0xbec345d1	-0.38139203
96	0x3e499585	0.19685943
97	0xbd5e2604	-0.054235473
98	0xbe1714d9	-0.14754046
99	0x3e20351c	0.1564526
100	0xbd340983	-0.043954384
101	0x3e5e6f8e	0.21722242
102	0xbea806da	-0.32817727
103	0xbe87f96c	-0.2655748
104	0x3e93c424	0.2886058
105	0xbe837d2b	-0.25681433
106	0xbd2cad47	-0.042157438
107	0x3eafa861	0.3430815
108	0x3e88fc49	0.26754978
109	0xbde1ba06	-0.11021809
110	0xbe2abd95	-0.16673882
111	0xbe3aa2e8	-0.18226206
112	0xbe341b6e	-0.17588589
113	0xbd21ab39	-0.03946993
114	0x3d4f280d	0.050575305
115	0x3e4710fc	0.19440073
116	0x3e209aae	0.15684006
117	0x3d1a061b	0.03760348
118	0xbe2c60e6	-0.16833839
119	0x3e67a3dc	0.22621101
120	0x3dbbcc9f	0.09169888
121	0x3e82ca87	0.2554514
122	0x3e2f9f3a	0.17150584
123	0xbddd5881	-0.108078964
124	0xbe5d6c05	-0.21623237
125	0x3ed875c1	0.4227734
126	0x3e91504a	0.28381568
127	0x3d38b4e9	0.045094404
128	0xbe3aad87	-0.18230258
129	0xbd75a1b2	-0.059968658
130	0xbe2c9730	-0.16854548
131	0x3e7860fe	0.2425575
132	0x3eb525de	0.35380453
133	0xbea3fb44	-0.32027638
134	0x3e04f52e	0.12984154
135	0x3d96dc16	0.07366197
136	0xbd9f8535	-0.07789079
137	0x3d713706	0.058890365
138	0xbd190bf5	-0.03736492
139	0x3ed02bde	0.40658468
140	0xbe47eac7	-0.19523154
141	0xbe136312	-0.14393261
142	0xbe278feb	-0.16363494
143	0x3e204f19	0.15655173
144	0xbe0c88fc	-0.1372413
145	0xbe0439a9	-0.1291262
146	0x3e7ac837	0.24490438
147	0x3dc13b86	0.09435181
148	0x3e420856	0.18948492
149	0x3e23be0e	0.15990469
150	0xbda8a08d	-0.08233748
151	0x3dfcd54c	0.12345371
152	0x3dc6e3cb	0.09711417
153	0xbe118295	-0.1420997
154	0x3df86cdc	0.12130138
155	0x3e4092bf	0.18805979
156	0x3e6c697d	0.23087116
157	0x3deda7f3	0.116042994
158	0x3cea66f9	0.028613554
159	0x3df96c88	0.12178904
160	0x3e0eea4f	0.13956569
161	0xbe1e8ec2	-0.15484145
162	0x3d8258d6	0.063646
163	0x3e8608f2	0.261787
164	0x3d6c3fab	0.057677906
165	0xbea02fb7	-0.31286404
166	0x3e02f6fb	0.12789528
167	0xbebb12d7	-0.3653781
168	0x3cae8379	0.021302925
169	0xbea91165	-0.33021083
170	0xbdac32da	-0.08408137
171	0x3cd956f9	0.02653073
172	0xbe78e165	-0.24304731
173	0xbea99645	-0.3312246
174	0x3d98d2bc	0.074620694
175	0xbecbc440	-0.39798164
176	0xbe84e2dd	-0.25954333
177	0x3e2ba213	0.16761045
178	0xbecc9e1d	-0.3996438
179	0x3dc5e2ed	0.09662423
180	0xbeb24bf0	-0.3482356
181	0x3ea5ed88	0.32407784
182	0xbe746877	-0.23867975
183	0xbe08ac2a	-0.13346925
184	0x3d1d9f42	0.03848196
185	0xbe49691a	-0.19669
186	0x3e7397ea	0.2378842
187	0x3e8c297f	0.2737541
188	0xbd9ff0fd	-0.07809637
189	0x3cae8141	0.021301867
190	0x3ea36778	0.31914878
191	0x3e7a11d1	0.24420859
192	0x3ea8ad26	0.32944602
193	0xbdd49d5c	-0.103815764
194	0x3e619c8e	0.22032377
195	0xbe0f3e2a	-0.13988557
196	0x3a337943	0.00068463775
197	0xbeb524d2	-0.35379654
198	0xbdb388af	-0.08766305
199	0xbe7d8d81	-0.2476101
200	0xbe112e6d	-0.14177866
201	0xbe6d42b9	-0.23169984
202	0x3c82e129	0.015976505
203	0x3ea80b7f	0.3282127
204	0x3d810890	0.06300461
205	0xbe9434d8	-0.28946567
206	0xbd302016	-0.04299935
207	0xbe8a788b	-0.27045092
208	0xbe4db122	-0.20087102
209	0xbe720325	-0.23634012
210	0x3e790f1f	0.24322174
211	0xbe52f633	-0.2060173
212	0xbe23d591	-0.15999438
213	0xbe7db9e2	-0.2477794
214	0xbe7f85ed	-0.24953432
215	0xbe97297d	-0.2952384
216	0xbe1f140d	-0.15534993
217	0x3e80c736	0.25151986
218	0x3c863df7	0.016386969
219	0xbe349d09	-0.17638029
220	0xbe0548cb	-0.1301605
221	0x3de2ee83	0.11080649
222	0xbe1f894b	-0.15579717
223	0x3e1aeed3	0.15130167
224	0xbe80eacb	-0.25179133
225	0x3e972142	0.2951756
226	0x3d26f6a7	0.04076257
227	0x3e7a91d2	0.24469689
228	0x3e59e329	0.21278061
229	0x3e55f89c	0.20895618
230	0x3e6394e5	0.22224768
231	0xbb904a0f	-0.0044033597
232	0x3dc11713	0.09428229
233	0xbd82784b	-0.063706
234	0xbcdbf73d	-0.02685129
235	0x3dd4719c	0.10373232
236	0x3e7b9c67	0.24571382
237	0xbbac5c20	-0.0052600056
238	0xbe76fe7f	-0.2412052
239	0x3e1ddab3	0.15415458
240	0xbe4db994	-0.20090324
241	0xbe9ebedb	-0.31004986
242	0xbe266bb2	-0.1625202
243	0xbdb6b738	-0.08921665
244	0xbb5c62b8	-0.0033628177
245	0xbdb4f1f6	-0.08835213
246	0xbe147daa	-0.14501062
247	0xbeab7036	-0.33484048
248	0xbe42e167	-0.19031297
249	0xbd9d1f30	-0.07671964
250	0x3ea446af	0.32085177
251	0xbe39fa71	-0.18161942
252	0xbe430511	-0.19044901
253	0x3e8f701b	0.28015217
254	0x3d01b778	0.03166911
255	0xbbc10721	-0.0058907424
