results/priority-sort/priority-sort-task-42-1-8-batch-20000.model (torch_old, 859809 bytes, 49 tensors)

ntm.read0_bias f4 [1, 20]
0	0xbb6920f7	-0.0035572627
1	0xbba33f9d	-0.0049819485
2	0x3c2308d9	0.00995084
3	0x3c46db8f	0.012137308
4	0x3b362c94	0.0027797567
5	0x3a416241	0.00073770067
6	0x3b3c405b	0.0028724882
7	0xbb2f3bb7	-0.0026738474
8	0xbb6dec52	-0.0036304188
9	0x3bdc0db3	0.0067155003
10	0xbc664ee4	-0.014056895
11	0xbaa5d48e	-0.0012651847
12	0xba7c79c2	-0.00096311804
13	0xbcc26cd3	-0.023733532
14	0x38e60e9c	0.00010969976
15	0xbc88f900	-0.016720295
16	0x3b013b44	0.0019719163
17	0x3bcd146e	0.006258539
18	0x3b3a2ad8	0.0028406885
19	0xbbe8808c	-0.007095402

ntm.read1_bias f4 [1, 20]
0	0xbc7d5721	-0.015462668
1	0x3c03e6db	0.008050646
2	0xbc2156aa	-0.0098473225
3	0xbb804620	-0.0039146096
4	0x3acaa2a1	0.0015459844
5	0xba033269	-0.0005004765
6	0xbb01b28c	-0.001979026
7	0x3c59bd35	0.013289739
8	0x3afc42fd	0.0019246038
9	0x3a935d60	0.0011243038
10	0xbc00f821	-0.007871659
11	0x3a09b5bf	0.00052532175
12	0x3c6c967c	0.014440175
13	0xbc832c1b	-0.016012242
14	0x3c6b933e	0.014378367
15	0xbc523ddb	-0.01283213
16	0x3b908ed9	0.00441156
17	0xbba7d260	-0.005121514
18	0x3cf46fb0	0.029838413
19	0xbc8987d9	-0.01678841

ntm.read2_bias f4 [1, 20]
0	0xbb8cc9a7	-0.0042965
1	0xbbe4f6fc	-0.0069874506
2	0x3b9d1117	0.004793297
3	0xba9d33ab	-0.0011993548
4	0x3c4327bb	0.011911328
5	0xbc95bfc9	-0.018279927
6	0xbbeee1a1	-0.0072900807
7	0xbb213102	-0.0024595861
8	0xbc28636b	-0.010277609
9	0xbca96ee4	-0.02068276
10	0x3a1c22f4	0.0005956136
11	0x3bc20530	0.0059210286
12	0x3cedd08a	0.029030103
13	0x3b149912	0.0022674245
14	0x3b182d0b	0.0023220207
15	0x3bc9f03d	0.006162672
16	0x3bae6269	0.00532179
17	0xbbb928b4	-0.005650604
18	0x3c18a5eb	0.009316902
19	0x3c2390b6	0.009983232

ntm.read3_bias f4 [1, 20]
0	0x3c48e91c	0.012262609
1	0xbc22c2d0	-0.009934142
2	0x3cb1dd3e	0.021711942
3	0x3c0e93ad	0.008702201
4	0xba8c234d	-0.0010691673
5	0xbb15e8ef	-0.0022874435
6	0x3a6d4f05	0.00090526073
7	0xbb025687	-0.0019888
8	0x3bc67d87	0.0060574445
9	0x3c43722f	0.011929079
10	0x3c600630	0.01367335
11	0xbbd693b0	-0.0065483674
12	0xbc03aa2e	-0.0080361795
13	0xbabd910d	-0.0014462784
14	0x3baeacc1	0.0053306525
15	0x3bb8e12e	0.005642078
16	0x3ba63dfe	0.005073308
17	0x3baa644e	0.0051999455
18	0x3bf10b75	0.007356102
19	0xbb94a280	-0.004535973

ntm.read4_bias f4 [1, 20]
0	0xbbe86027	-0.0070915404
1	0xbbfe7a86	-0.007766071
2	0x3c28a820	0.01029399
3	0xb942883d	-0.00018552034
4	0xbc40e8c9	-0.01177425
5	0xbc66339b	-0.01405039
6	0x3b80b0bc	0.0039273184
7	0xbbebae6c	-0.0071924236
8	0xbbd6b730	-0.0065525994
9	0x3a4d9e5c	0.0007843727
10	0x3ab45b06	0.0013760037
11	0xbb884dd1	-0.004159667
12	0xba5dec40	-0.0008465685
13	0xb9c210ca	-0.00037015072
14	0x3bbbf958	0.005736511
15	0x3ba667eb	0.005078306
16	0xbbe96d8e	-0.0071236556
17	0xbc361f5e	-0.011115877
18	0x3c495890	0.012289181
19	0xbcc96830	-0.024585813

ntm.controller.lstm_h_bias f4 [2, 1, 100]
0	0xbe1e9ff3	-0.15490703
1	0x3c9d5778	0.019206747
2	0x3881ff4e	6.1987535e-05
3	0x3c1c6bb4	0.009547163
4	0x3c458d25	0.012057577
5	0xbd8d888c	-0.0691081
6	0xb8adf19d	-8.294287e-05
7	0x3e05c0ed	0.13061877
8	0xbce8e26c	-0.028428279
9	0x3d0ce0c2	0.034394033
10	0xbd085362	-0.033282645
11	0xbc46b5cb	-0.012128304
12	0xbd6a127f	-0.057146545
13	0x3df55815	0.11979691
14	0xbd6b4ca2	-0.05744613
15	0x3d39a0e7	0.045319464
16	0x3a8e0395	0.0010834808
17	0x3c714194	0.014725108
18	0x3c7a507a	0.015277976
19	0xbd0d1b76	-0.034450017
20	0xbd75abd2	-0.059978314
21	0xbd325f49	-0.043547902
22	0xbc4d0e05	-0.01251555
23	0xbd8872d8	-0.0666253
24	0xbe351337	-0.17683111
25	0x3d2f0ba9	0.04273573
26	0xbdabdc12	-0.083915845
27	0x3c27cd59	0.01024183
28	0xbb08eeae	-0.0020894217
29	0x3e2d5c80	0.16929817
30	0xbd8b3642	-0.06797458
31	0x3cadd081	0.021217586
32	0xbcfcada1	-0.030844511
33	0x3d80e7eb	0.06294235
34	0xbd880532	-0.06641616
35	0x3b351530	0.0027631037
36	0xbddd4edc	-0.10806057
37	0xbd9725b1	-0.07380236
38	0x3d9b386d	0.07579122
39	0xbd6f4bee	-0.05842202
40	0xbd59c77f	-0.05316877
41	0x3d44032e	0.047854595
42	0xbced4256	-0.028962296
43	0x3dc50fb2	0.09622134
44	0x3cd919cd	0.02650156
45	0xbc9024c7	-0.017595662
46	0x3bf2014d	0.007385409
47	0x3e1171a2	0.14203504
48	0xbd7e8827	-0.062141564
49	0xbdfb9bc5	-0.1228557
50	0xbca71051	-0.020393522
51	0xbdd496e1	-0.1038034
52	0xbc047840	-0.00808531
53	0xbc01a787	-0.007913477
54	0xbd4c2c43	-0.0498469
55	0x3d408efa	0.047011353
56	0x3d0afa31	0.033930007
57	0xbc26b4ca	-0.010174939
58	0x3cc774e0	0.024347723
59	0xbdcdaff5	-0.10043327
60	0x3d896e1d	0.067104556
61	0x3d1702d8	0.036867946
62	0x3d4cb1c6	0.049974225
63	0x3e20b1e1	0.15692855
64	0xbc70e36e	-0.014702661
65	0x3dd72ba1	0.105063684
66	0xbaff18dc	-0.0019462365
67	0x3d1d55fd	0.038412083
68	0x3cb70528	0.022341326
69	0x3be3b7c1	0.0069493954
70	0x3b21af76	0.0024671233
71	0x3e11d7ea	0.14242521
72	0x3c8ac581	0.01693988
73	0x3d8e18ac	0.069382995
74	0xbd3aaa8a	-0.045572795
75	0x3d3e64b7	0.046482768
76	0xbd3bbcf2	-0.04583449
77	0x3c8e7372	0.017389033
78	0xbdab607b	-0.083680116
79	0x3c91c49b	0.017793944
80	0x3d045fab	0.0323178
81	0x3cc2f339	0.023797618
82	0x3d60934d	0.054827977
83	0xbd97676c	-0.07392773
84	0x3e25ea6a	0.16202703
85	0x3d2749cc	0.040841863
86	0x3d863eef	0.065549724
87	0xbd56a8b9	-0.052407
88	0x3d4e72d3	0.050402474
89	0x3d3a0500	0.045414925
90	0x3d8ab5df	0.067729704
91	0xbd36c8dc	-0.04462515
92	0xbdf9c99c	-0.12196657
93	0xbc2a2c69	-0.010386565
94	0x3dd5ab6e	0.10433088
95	0x3c169000	0.009189606
96	0x3cfd3504	0.030909069
97	0x3d777223	0.060411584
98	0x3d37963d	0.044821013
99	0x3d2310cc	0.03981094
100	0x3c676f86	0.01412571
101	0xbd007504	-0.031361595
102	0xbde8ea3c	-0.11372802
103	0x3d795d5f	0.06088006
104	0xbc972e2f	-0.01845464
105	0xbd92456c	-0.071421474
106	0x3a22eba9	0.00062149257
107	0x3de08630	0.10963094
108	0x3c0dfe4d	0.008666587
109	0x3cccbd5a	0.024992634
110	0x3c4fdf65	0.012687539
111	0x3cb1afc4	0.021690257
112	0x3d1d8254	0.03845437
113	0xbbe26d3d	-0.006909995
114	0xbd5245d0	-0.05133611
115	0xbd08b0a0	-0.033371568
116	0x3cbca9d3	0.023030197
117	0xbd59412e	-0.053040676
118	0xbcc7f553	-0.024408972
119	0x3d1c6111	0.038178507
120	0x3e27bdf1	0.1638105
121	0x3c10ab21	0.008829863
122	0xbce890b8	-0.02838932
123	0xbe00c7fd	-0.1257629
124	0xbcd80dd6	-0.026373785
125	0x3df0733d	0.1174073
126	0xbb7d21ed	-0.0038624958
127	0xbca97dfa	-0.020689953
128	0xbd561641	-0.052267317
129	0xbde870bc	-0.113496274
130	0x3c5bfd23	0.013427052
131	0x3bec04b9	0.0072027114
132	0x3d24b667	0.040213015
133	0x3d271676	0.040792905
134	0x3d24eee3	0.040266883
135	0xbccdbc0a	-0.025114078
136	0x3c96f172	0.018425677
137	0x3ce6355c	0.028101616
138	0x3d67b7c2	0.05657173
139	0xbd841ee1	-0.06451202
140	0x3d73fa94	0.05956514
141	0x3dc88b3e	0.09792183
142	0xbc847d74	-0.016173102
143	0x3c8ffc62	0.0175764
144	0x3b340739	0.0027470125
145	0x3e03eaa5	0.12882479
146	0x3bfab7b0	0.007651292
147	0x3e12d110	0.14337564
148	0x3d9097c9	0.07060201
149	0xbd7c159f	-0.061544057
150	0x3ddfa9e1	0.10921074
151	0xbd4e7800	-0.05040741
152	0x3da6814d	0.08130131
153	0xbd92bba1	-0.071646936
154	0xbdf0cd04	-0.117578536
155	0x3c009d2d	0.007849974
156	0xbc639ee5	-0.013892864
157	0x3dc0d4de	0.09415601
158	0x3d2a9e1d	0.041654695
159	0x3db9adbc	0.0906634
160	0xbe0e3fa4	-0.13891464
161	0x3c8d00ec	0.017212354
162	0x3c9eb9f6	0.019375782
163	0xbc535b26	-0.012900149
164	0xbc28aaf7	-0.010294667
165	0x3cd9a8a6	0.026569676
166	0x3d7761ea	0.060396113
167	0x3d094e81	0.033522133
168	0xbdbe153a	-0.092813924
169	0xbdcf4446	-0.10120444
170	0xbc9c2c31	-0.01906404
171	0xbc5b7cab	-0.013396422
172	0x3d3e8835	0.046516616
173	0x3dc553ba	0.0963511
174	0xbd413f94	-0.047179773
175	0xbd72311c	-0.059128866
176	0x3dcafe7b	0.099118195
177	0xbd4ece3b	-0.050489645
178	0xbd658956	-0.056039177
179	0x3e1c9e0b	0.15294664
180	0x3c4dac96	0.012553355
181	0x3d97dc5c	0.07415077
182	0xbd058726	-0.03259959
183	0x3d3663b3	0.044528674
184	0xbd3a84ee	-0.045536928
185	0xbdeb61a4	-0.11493233
186	0x3caa72ba	0.020806659
187	0x3d9fd8fb	0.078050576
188	0xbd64718f	-0.05577236
189	0xbca3ced4	-0.019996084
190	0x3d2ba59e	0.04190599
191	0xbccea166	-0.025223445
192	0xbd4053a4	-0.046954766
193	0xbc022cf0	-0.007945284
194	0x3d3d8d34	0.04627724
195	0xbd88793a	-0.06663747
196	0xbd117fbf	-0.03552222
197	0x3dcea543	0.10090115
198	0xbd2a2ad6	-0.041544758
199	0xbbaaa93e	-0.0052081635

ntm.controller.lstm_c_bias f4 [2, 1, 100]
0	0xbde4e64a	-0.11176737
1	0xbd6a85a0	-0.05725634
2	0xbcaaeb2f	-0.020864097
3	0x3d4652eb	0.04841892
4	0xbca27995	-0.019833365
5	0xbd7e4fd5	-0.062087853
6	0xbcc2904b	-0.023750445
7	0x3cc8103b	0.024421802
8	0xbb938ffe	-0.004503249
9	0xbdada999	-0.08479614
10	0x3c051725	0.008123194
11	0x3d94cf5e	0.07266115
12	0x3d385a9a	0.04500828
13	0x3ce4a03b	0.027908435
14	0xbdd5d082	-0.1044016
15	0xbdad1cb8	-0.08452743
16	0x3c601787	0.013677484
17	0x3b90e423	0.0044217273
18	0xbdbce57d	-0.09223459
19	0x3d81e1ff	0.063419335
20	0x3d34dd0b	0.044156116
21	0xbd850054	-0.06494203
22	0xbd8d5356	-0.06900661
23	0xbbfb58bc	-0.00767049
24	0x3cfa9ddd	0.030592853
25	0xbd74777d	-0.059684265
26	0xbd960b44	-0.073263675
27	0x3dec89ee	0.115497455
28	0x3d8ffa5f	0.07030176
29	0x3d0ac685	0.03388073
30	0xbd955558	-0.07291669
31	0x3d490b03	0.049082767
32	0x3d34ab68	0.04410878
33	0xbe4a5c45	-0.1976176
34	0xbd09e507	-0.033665683
35	0xbd8b18af	-0.067918174
36	0xbdf59a8c	-0.11992368
37	0x3ceb8899	0.028751658
38	0xbcbdd197	-0.02317123
39	0x3d0422e2	0.03225983
40	0xbdf27636	-0.11838953
41	0x3c9d92cd	0.01923504
42	0x3d169393	0.03676183
43	0x3e2eb209	0.17060103
44	0x3d64082f	0.055671867
45	0xbc6f94d9	-0.01462289
46	0x3c186ddf	0.009303539
47	0x3cdc6354	0.026902832
48	0xbb3569fb	-0.0027681577
49	0xbdb97c04	-0.09056857
50	0xbb8172df	-0.0039504613
51	0xbd78c067	-0.060730364
52	0x3df01b67	0.117239766
53	0xbe032a47	-0.12809096
54	0xbe0392ca	-0.12848964
55	0xbd37f39c	-0.04491006
56	0xbddc4e43	-0.10757115
57	0xbc350cc7	-0.01105041
58	0x3ca56df2	0.020194028
59	0x3c9cbcb1	0.019132944
60	0xbdc7e553	-0.09760537
61	0x3d40906d	0.047012735
62	0xbc12e67e	-0.008966086
63	0xbd46d556	-0.048543297
64	0x3d107292	0.035265513
65	0xbd95b3c5	-0.07309679
66	0xbcc766e4	-0.024341054
67	0xbc70f401	-0.014706613
68	0x3c44ce18	0.012012027
69	0x3d3a3798	0.045463175
70	0x3df35193	0.118807934
71	0xbd3fc3fe	-0.046817772
72	0xbc60e476	-0.013726344
73	0x3ceb4f03	0.0287242
74	0x3c636537	0.013879112
75	0xbd1bf4b2	-0.038075157
76	0xbdb626d3	-0.08894124
77	0xbcf1ded7	-0.029525204
78	0x3ba4e23e	0.005031853
79	0xbc8db828	-0.017299727
80	0x3cbf8887	0.023380531
81	0x3dbc8db4	0.09206715
82	0xbd958b11	-0.073019154
83	0xbca51cf5	-0.02015541
84	0x3da7f4f1	0.08201016
85	0xbb7e2d9e	-0.0038784514
86	0x3d627122	0.055283673
87	0x3d7bc11a	0.061463453
88	0xbe125408	-0.14289868
89	0xbd8fd3d6	-0.070228264
90	0x3daeaa54	0.08528581
91	0xbad64760	-0.0016348176
92	0xbc9765f2	-0.018481229
93	0xbdebcc18	-0.11513537
94	0xbda09eb7	-0.078427725
95	0xbdc7bcd9	-0.09752817
96	0xbca611ec	-0.020272218
97	0xbc27dcd0	-0.010245517
98	0x3dc200dc	0.0947282
99	0xbd9dda95	-0.07707707
100	0xbd04773d	-0.032340277
101	0xbd5ead7f	-0.054364678
102	0xbdb03dec	-0.08605561
103	0x3aa5c277	0.0012646456
104	0xbd4a42d4	-0.04938014
105	0x3bc98b30	0.0061506256
106	0xbc9ffaee	-0.019528832
107	0xbc6241bd	-0.013809619
108	0x3d015d0c	0.031582877
109	0x3d9b26d1	0.07575763
110	0xbcb47c1c	-0.022031836
111	0xbdbdfe6f	-0.09277045
112	0x3db5dec8	0.08880383
113	0x3bd22100	0.0064126253
114	0xbb39382c	-0.002826224
115	0x3cffb25e	0.031212982
116	0x3da2468a	0.079236105
117	0x3d0bd25e	0.03413617
118	0x3c1f0c21	0.009707482
119	0xbd72772a	-0.059195675
120	0x3e11c70e	0.1423609
121	0xbcd7b8c0	-0.026333213
122	0x3c942b5f	0.018087087
123	0x3d7aec90	0.06126076
124	0x3cf9dbaa	0.030500252
125	0x3c9c1dae	0.019057121
126	0x3d1a10da	0.037613727
127	0x3de4b958	0.11168164
128	0xbdd0aaf3	-0.10188856
129	0x3d80ee25	0.062954225
130	0xbd30a46e	-0.043125562
131	0xbc7e456c	-0.015519481
132	0x3cc8284a	0.024433274
133	0x3d295807	0.041343715
134	0x3d90836b	0.07056316
135	0xbc5161c8	-0.0127796605
136	0xbd924c19	-0.07143421
137	0xbdf102a0	-0.11768079
138	0x3de3d9a1	0.11125494
139	0xbd899e74	-0.06719676
140	0xbc746f7a	-0.014919156
141	0x3c84cabc	0.016209953
142	0xbce8b8a2	-0.028408352
143	0x3e043bd8	0.12913454
144	0x3dab1d9b	0.08355256
145	0x3d6c4cef	0.057690557
146	0x3d5f0052	0.054443665
147	0xbdacf10d	-0.08444414
148	0x3d1a944e	0.03773909
149	0xbc2e1dac	-0.0106271915
150	0xbb904dc8	-0.0044038035
151	0xbc833539	-0.01601659
152	0x3dc387d7	0.09547394
153	0xbd8aa5cc	-0.067699045
154	0xbcf94faf	-0.030433504
155	0x3cd37911	0.025814565
156	0x3d96959d	0.07352755
157	0x3cc59466	0.024118613
158	0x3d71eb93	0.05906255
159	0xbdcf21db	-0.10113879
160	0x3cf97a7b	0.030453911
161	0xbe14ee6c	-0.14544076
162	0xbd7a88aa	-0.06116549
163	0x3ccb434c	0.024812363
164	0x3a4c4e21	0.00077936245
165	0xbd005746	-0.03133323
166	0x3b9a29b1	0.004704677
167	0xbd2e3c7e	-0.04253816
168	0x3b6804e1	0.0035403299
169	0xbd4a2a33	-0.04935665
170	0xbd135de8	-0.035978228
171	0xbcdf2385	-0.027238617
172	0x3d8819e0	0.0664556
173	0xbd3ac380	-0.0455966
174	0x3d2d1234	0.042253688
175	0xbcac85b3	-0.021059847
176	0xbccfca7c	-0.025365107
177	0x3d9aa21b	0.075504504
178	0x3e0226cb	0.12710111
179	0xbb900e7d	-0.0043962584
180	0x3d1b1074	0.037857488
181	0xbd0d5d38	-0.03451273
182	0x3d7738ae	0.06035679
183	0xbd409313	-0.04701526
184	0x3d546bec	0.051860735
185	0x3c774b9c	0.01509371
186	0x3d73c5ff	0.059514996
187	0xbd584def	-0.0528087
188	0x3d2d240f	0.042270716
189	0xbd808b8a	-0.06276615
190	0x3d11a508	0.035557777
191	0xbd0c0cc5	-0.034191865
192	0xbcbd8e55	-0.023139158
193	0x3d2ea322	0.042636044
194	0x3ae08011	0.001712801
195	0xbd6a13e7	-0.057147887
196	0xbd9d82c9	-0.07690961
197	0xbc91d50a	-0.01780178
198	0xbd41525c	-0.047197685
199	0x3d76a6c1	0.060217623

ntm.controller.lstm.weight_ih_l0 f4 [400, 103]
0	0xbdb7b259	-0.08969564
1	0x3e4dba6c	0.20090646
2	0x3e635483	0.22200207
3	0x3d955e9b	0.07293435
4	0x3e91a16e	0.28443474
5	0x3e09c9e5	0.13455923
6	0x3d0a0ed4	0.033705547
7	0x3eb70d59	0.3575237
8	0x3e303efc	0.17211527
9	0xbd819dd8	-0.063289344
10	0x3ec144ca	0.37747794
11	0xbe07ec11	-0.13273646
12	0x3e956be3	0.29183874
13	0xbe1477f9	-0.14498891
14	0x3e0c8de1	0.13725998
15	0xbe6e6962	-0.23282388
16	0xbe854986	-0.26032656
17	0x3df13bd0	0.117789865
18	0x3e0edc95	0.13951333
19	0x3dd83050	0.1055609
20	0x3e2c32f9	0.1681632
21	0x3e9b2b0a	0.30306274
22	0x3d8353df	0.064124815
23	0x3e051db3	0.1299961
24	0xbe613be1	-0.21995498
25	0xbe7b31cd	-0.24530716
26	0xbdf13d83	-0.117793106
27	0xbe3f72b9	-0.18696107
28	0xbda233a5	-0.07920007
29	0xbd8ebb28	-0.06969291
30	0xbd3395a3	-0.043843877
31	0xbe25b72e	-0.16183159
32	0x3ea82398	0.32839656
33	0x3eb8face	0.3612885
34	0xbe9af030	-0.30261374
35	0xbe645f0b	-0.22301881
36	0xbe483d15	-0.19554551
37	0xbe860512	-0.26175743
38	0x3e0b6e93	0.136164
39	0x3e0bbe23	0.1364675
40	0x3d987501	0.07444192
41	0xbda98b92	-0.08278574
42	0xbdbc0648	-0.091808856
43	0x3eb1d658	0.34733844
44	0xbe2f6acb	-0.17130582
45	0x3e7b74ce	0.24556276
46	0xbeb15bc7	-0.34640333
47	0x3d082ccb	0.033245843
48	0xbe81bc38	-0.25338912
49	0xbd526706	-0.051367782
50	0x3e863029	0.26208618
51	0x3dd59e7a	0.10430618
52	0xbeb43014	-0.3519293
53	0x3de58265	0.112065114
54	0x3e71fbd4	0.23631221
55	0x3e71e219	0.23621406
56	0x3d6ba19e	0.057527177
57	0x3e4344e4	0.19069248
58	0x3e89c43c	0.26907527
59	0x3eb257ed	0.34832707
60	0xbe912124	-0.28345597
61	0xbdf077cd	-0.117416
62	0xbe59bdc7	-0.212638
63	0xbe855b44	-0.26046193
64	0x3e1929b0	0.14957309
65	0xbe3c808e	-0.18408415
66	0x3e9dae66	0.30797118
67	0x3e91a797	0.28448173
68	0x3e5122a1	0.20423366
69	0x3e4eb7b4	0.20187265
70	0x3e1080f5	0.14111693
71	0x3e453c9e	0.19261405
72	0x3e869371	0.26284364
73	0xbe8baeb1	-0.27281716
74	0x3db719fe	0.089405045
75	0xbe381caf	-0.17979692
76	0xbe8ae736	-0.27129525
77	0xbd72388d	-0.059135962
78	0xbe80c080	-0.25146866
79	0xbce359f2	-0.02775285
80	0xbd649479	-0.055805657
81	0xbe958bde	-0.29208273
82	0x3e8d0176	0.27540177
83	0xbe696666	-0.22792968
84	0xbd4b9ef6	-0.049712144
85	0x3e14f22f	0.1454551
86	0x3e4f801d	0.20263715
87	0x3e2e1037	0.16998373
88	0xbdd5498e	-0.1041442
89	0x3e8cbff1	0.2749019
90	0x3de468a4	0.11152771
91	0x3d257568	0.04039517
92	0x3da1c531	0.078989394
93	0xbe2a8a83	-0.166544
94	0x3d6b7e59	0.05749354
95	0xbe10f7f6	-0.1415709
96	0xbe118880	-0.14212227
97	0x3e571182	0.21002772
98	0x3e48e40a	0.1961824
99	0x3ec3712f	0.3817229
100	0x3d9185ec	0.07105622
101	0xbdb03687	-0.0860415
102	0x3e92571a	0.28582078
103	0xbb6e75c7	-0.0036386119
104	0x3e4836b7	0.19552122
105	0x3e137270	0.14399123
106	0xbe0d5be5	-0.13804586
107	0xbe7941ef	-0.24341558
108	0xbe78ea41	-0.24308111
109	0xbcd3a074	-0.025833346
110	0x3e2ccbae	0.16874573
111	0xbdbe6f03	-0.092985176
112	0x3e8c259a	0.27372438
113	0x3e836431	0.25662377
114	0xbd61acc1	-0.05509639
115	0xbe38f460	-0.18061972
116	0x3be3c05d	0.0069504217
117	0xbe6b04ca	-0.22951046
118	0xbe77e8a3	-0.24209838
119	0xbcb1a09f	-0.021683035
120	0xbdd87ad8	-0.105703056
121	0x3ea162f8	0.3152082
122	0x3e65d0fc	0.22443002
123	0xbe728ffd	-0.2368774
124	0xbe68c976	-0.22733101
125	0xbe1b4259	-0.15162028
126	0xbe5103c3	-0.20411591
127	0xbe2cb95e	-0.16867587
128	0xbe1350e4	-0.14386326
129	0xbcf5f76b	-0.030025205
130	0x3dba02bc	0.09082553
131	0xbeb4d802	-0.3532105
132	0xbdbe3c04	-0.09288791
133	0xbe73221c	-0.2374348
134	0x3b7de053	0.0038738444
135	0x3e39af6f	0.18133329
136	0xbe8eb884	-0.2787515
137	0x3df6acea	0.120446995
138	0xbe7b22eb	-0.24525039
139	0xbe8b6be6	-0.27230757
140	0x3ec46e80	0.38365555
141	0x3da58596	0.0808212
142	0xbea5dea9	-0.3239644
143	0x3de947d7	0.113906555
144	0xbdbbc546	-0.09168486
145	0x3e70a652	0.23500946
146	0xbd649fa5	-0.05581631
147	0x3dd1af63	0.102385305
148	0x3d411b0f	0.047144946
149	0x3e694227	0.22779141
150	0x3d81aa5b	0.06331321
151	0x3ca0e75e	0.019641574
152	0x3e5aff0f	0.2138636
153	0xbea01ba3	-0.31271085
154	0xbd0c8efa	-0.03431604
155	0x3e21625c	0.15760177
156	0x3d176998	0.036965936
157	0xbe963e5e	-0.29344457
158	0xbdb768bc	-0.08955523
159	0x3d99732c	0.074926704
160	0xbd1b7a07	-0.03795817
161	0x3d21aa8b	0.039469283
162	0x3db1c3ab	0.08679899
163	0xbe94b977	-0.29047748
164	0x3e9f16c9	0.3107207
165	0x3e9996ec	0.29997957
166	0x3dabf129	0.08395607
167	0xbeb95cf3	-0.36203727
168	0x3dd1ae80	0.10238361
169	0x3dccfcc6	0.1000915
170	0xbe5239bb	-0.20529835
171	0x3cca8232	0.024720285
172	0x3e67ae92	0.22625187
173	0x3e45a8a5	0.19302614
174	0xbe149aa3	-0.14512114
175	0xbd364d0c	-0.04450707
176	0xbdf6ce6a	-0.12051089
177	0xbe815e25	-0.2526714
178	0xbdb8ea94	-0.09029117
179	0xbe89e0fb	-0.2692946
180	0x3d92e682	0.07172872
181	0x3e302767	0.17202531
182	0x3e7e75d6	0.24849638
183	0x3e746921	0.23868228
184	0xbd8824af	-0.06647622
185	0x3e80722f	0.25087115
186	0xbe46742d	-0.19380255
187	0xbe7d37d8	-0.24728334
188	0x3e9b571a	0.3033989
189	0xbe728287	-0.23682605
190	0xbe0e7505	-0.13911827
191	0xbeb43073	-0.35193214
192	0xbeacaac0	-0.33724022
193	0x3e45c6b1	0.19314076
194	0x3e3079f1	0.17234017
195	0xbe93b974	-0.28852427
196	0xbe34e5ea	-0.1766583
197	0x3e9e3a5d	0.30903903
198	0xbdd86943	-0.10566952
199	0xbe8b79a2	-0.27241236
200	0xbea0587a	-0.31317502
201	0xbea1efea	-0.31628352
202	0x3eace861	0.3377104
203	0xbdc72012	-0.09722914
204	0xbd96a9e5	-0.073566236
205	0xbd1a4ea9	-0.037672672
206	0xbe899531	-0.26871637
207	0x3ec37567	0.38175508
208	0x3ea1cc13	0.3160101
209	0x3bc78261	0.0060885404
210	0xbe23c5dd	-0.15993448
211	0x3e021d75	0.1270655
212	0xbeb421d7	-0.35182068
213	0x3e96576f	0.29363582
214	0xbde93e4b	-0.113888346
215	0x3e548d93	0.20757131
216	0x3e92875f	0.28618905
217	0x3dff0c24	0.124534875
218	0x3e69cf76	0.22833046
219	0xbdc649be	-0.09682034
220	0xbd51a87a	-0.051186062
221	0x3d040071	0.032226983
222	0xbe1f10a7	-0.15533696
223	0xbea68c1a	-0.32528764
224	0xbe257062	-0.16156152
225	0xbe6cbdd6	-0.23119292
226	0xbe6a7004	-0.22894293
227	0xbe1f0dfe	-0.15532681
228	0xbe7c9156	-0.24664816
229	0x3e628e41	0.22124578
230	0xbd69b0b2	-0.057053275
231	0xbe232da2	-0.15935376
232	0x3e03fbfb	0.12889092
233	0xbdec40dc	-0.115358084
234	0x3dce3a54	0.10069719
235	0x3e702f46	0.23455533
236	0xbe26afc4	-0.16277987
237	0x3e188e4f	0.14898036
238	0xbeb122bc	-0.34596813
239	0x3eb33d11	0.35007527
240	0xbea1a15c	-0.3156842
241	0xbe0f9a1f	-0.14023636
242	0x3e213536	0.15742955
243	0xbe0bfb5e	-0.13670108
244	0x3e6c9907	0.2310525
245	0xbe912d94	-0.28355086
246	0xbe4ab920	-0.19797182
247	0x3bb9750e	0.005659706
248	0x3eadf70e	0.3397755
249	0xbed1e88d	-0.40997735
250	0x3b07adb9	0.0020702912
251	0x3dbdca67	0.09267121
252	0xbcd3baa9	-0.025845842
253	0x3cf83f72	0.03030369
254	0x3e828c8f	0.25497863
255	0x3e9471e9	0.28993157

ntm.controller.lstm.weight_hh_l0 f4 [400, 100]
0	0xbe703437	-0.23457418
1	0xbd0c2261	-0.034212474
2	0xbebb95e5	-0.36637798
3	0xbddfef84	-0.10934356
4	0x3ddbb0ba	0.10727067
5	0xbc84efbb	-0.016227594
6	0xbe9aedcf	-0.3025956
7	0x3db322ac	0.087468475
8	0x3e7e9891	0.24862887
9	0x3e8d9aa2	0.27657038
10	0xbe74aa87	-0.23893176
11	0x3e2aea0d	0.16690846
12	0xbe58eabf	-0.21183299
13	0x3db65c08	0.08904272
14	0x3eb8d5a7	0.36100504
15	0x3d8598e1	0.065233
16	0x3e2f2b0a	0.17106262
17	0xbe36a1c1	-0.17835142
18	0xbe8c01cc	-0.2734512
19	0x3e8cfb2a	0.27535373
20	0xbe3796dd	-0.17928644
21	0xbe066fcd	-0.13128586
22	0xbd3c858d	-0.0460258
23	0xbe63b923	-0.22238593
24	0xbe15c75a	-0.14626828
25	0xbe53e2b5	-0.2069195
26	0xbe6d26fe	-0.23159406
27	0xbe92c5f1	-0.28666642
28	0x3e3e977c	0.18612474
29	0xbea084ca	-0.3135131
30	0xbe10fe47	-0.14159499
31	0x3e727625	0.23677881
32	0xbc1c48a7	-0.009538806
33	0xbd2b9c94	-0.04189737
34	0x3e72b8c4	0.23703295
35	0x3ddea7d4	0.108718544
36	0xbd936b87	-0.071982436
37	0x3ddf96d7	0.10917442
38	0xbdf394a6	-0.11893587
39	0xbe6d72a1	-0.23188259
40	0xbe0846cd	-0.13308258
41	0xbe6d8053	-0.23193483
42	0x3e1fc2ac	0.15601605
43	0x3d6ccf88	0.057815105
44	0x3cb34cad	0.021887148
45	0x3e862dea	0.26206905
46	0x3e29f0f6	0.16595826
47	0x3dfc42a5	0.12317399
48	0xbd1baab4	-0.038004592
49	0xbe692acc	-0.22770232
50	0x3e04e017	0.12976108
51	0xbaff7a13	-0.0019491337
52	0x3e0b455c	0.13600677
53	0x3e6020a8	0.21887457
54	0x3e8ed688	0.2789805
55	0xbe7072f4	-0.23481351
56	0xbea11658	-0.3146236
57	0xbe0843e4	-0.13307148
58	0x3dac6336	0.084173605
59	0xbdfd4fdc	-0.123687476
60	0x3e790316	0.24317583
61	0xbe32f6c5	-0.17476948
62	0xbe086b5e	-0.13322207
63	0x3ea6bf82	0.32567984
64	0x3e2fc5ad	0.17165251
65	0x3e1a17c9	0.15048136
66	0xbe9dcea0	-0.30821705
67	0x3de49400	0.11161041
68	0x3e24575e	0.16048953
69	0xbe04f867	-0.12985383
70	0xbe235027	-0.15948544
71	0xbdc8cb18	-0.09804362
72	0x3ed73c9d	0.42038432
73	0x3e32e267	0.17469178
74	0x3e1c8453	0.15284853
75	0xbe35208f	-0.17688201
76	0xbd300705	-0.042975444
77	0xbe9dcde2	-0.3082114
78	0x3c8fa6b1	0.01753554
79	0x3e0115eb	0.12606017
80	0x3e0675db	0.13130896
81	0xbe83edd3	-0.25767383
82	0x3decc759	0.1156146
83	0xbea6ebb6	-0.32601708
84	0x3e75aab7	0.23990904
85	0xbe9acd25	-0.30234638
86	0x3ddaadda	0.10677691
87	0x3e9f561c	0.31120384
88	0x3d244c65	0.040111918
89	0x3e9c1e37	0.30491802
90	0x3cad288e	0.021137502
91	0x3d67949f	0.05653822
92	0x3e25c5c3	0.16188721
93	0xbe21f84b	-0.15817373
94	0x3e893b6a	0.26803142
95	0x3e37c1f8	0.17945087
96	0xbdd06f5c	-0.1017749
97	0x3e5e7bbf	0.21726893
98	0x3e853e47	0.26024076
99	0xbdd83fff	-0.10559081
100	0xbd2923b7	-0.041293826
101	0x3e1de629	0.1541983
102	0xbe5140a3	-0.20434813
103	0x3e1df539	0.15425576
104	0xbe377f1b	-0.1791958
105	0xbdf7c186	-0.120974585
106	0xbe2b092b	-0.16702716
107	0xbe56ccd9	-0.2097658
108	0xbb36d393	-0.0027897104
109	0x3e408f1f	0.18804596
110	0xbe1de8ce	-0.15420839
111	0xbd21c3b2	-0.03949327
112	0x3d2857d4	0.041099384
113	0x3e3572eb	0.17719619
114	0xbeab2c30	-0.3343215
115	0xbe8ca2cb	-0.2746795
116	0xbc379443	-0.011204782
117	0x3dbd3363	0.09238317
118	0x3df402c9	0.11914594
119	0xbc4e2a02	-0.012583258
120	0xbc407858	-0.011747442
121	0xbe5f08ee	-0.2178075
122	0xbe0510c6	-0.1299468
123	0xbdb4b7d5	-0.08824126
124	0x3dfbeece	0.12301408
125	0x3c97d5d2	0.018534575
126	0x3e8494d7	0.25894806
127	0x3deeb04a	0.11654718
128	0xbe45713c	-0.19281477
129	0x3e6dd8da	0.23227254
130	0xbe125c1c	-0.1429295
131	0x3e7ac60b	0.2448961
132	0x3e85f91e	0.26166624
133	0xbccabb21	-0.024747433
134	0xbe9190c9	-0.28430775
135	0xbe22ae04	-0.15886694
136	0xbde0b48d	-0.10971937
137	0xbdcf91b3	-0.10135212
138	0xbe1c0e62	-0.15239862
139	0x3e95bcc8	0.2924559
140	0x3e0172a6	0.12641391
141	0xbe970c0b	-0.29501376
142	0x3d4d01fb	0.050050717
143	0x3dbdf536	0.09275286
144	0x3e8b39dd	0.27192584
145	0x3df8591f	0.121263735
146	0x3e012197	0.1261047
147	0x3dc8a6e8	0.0979746
148	0xbeaf3948	-0.3422339
149	0x3bf4925c	0.0074637365
150	0x3c22de6d	0.009940726
151	0x3e627397	0.22114407
152	0xbdfe2745	-0.12409834
153	0x3e435fa8	0.19079459
154	0x3e382e0f	0.1798632
155	0xbe4fedbc	-0.20305532
156	0x3dc2ead4	0.09517446
157	0x3e12c0e9	0.14331402
158	0xbd5abd65	-0.053403277
159	0x3d2be23a	0.041963793
160	0xbdf98307	-0.121831946
161	0xbd6b0c52	-0.057384796
162	0xbd8335c8	-0.06406742
163	0xbdd13ce7	-0.10216694
164	0xbd5f982a	-0.054588474
165	0x3ec7c9f1	0.39021257
166	0xbd2b645b	-0.041843753
167	0x3d115cb3	0.035488795
168	0x3e9f3d0f	0.31101272
169	0xbe04ef8f	-0.1298201
170	0x3dee71d9	0.116428085
171	0xbd550923	-0.052010667
172	0x3e0e35da	0.1388773
173	0xbe0e9a3e	-0.13926026
174	0x3e10cb9c	0.14140171
175	0x3ea29d6f	0.31760737
176	0x3d1a8c05	0.03773119
177	0x3e7a9d20	0.24474001
178	0xbeba62d6	-0.3640353
179	0x3e3b9191	0.18317248
180	0x3c6700fa	0.014099354
181	0xbe4313b6	-0.19050488
182	0x3c0c9216	0.0085797515
183	0x3e07c542	0.13258842
184	0xbe4eb588	-0.20186436
185	0x3d2d1437	0.042255607
186	0xbd4dd710	-0.050253928
187	0x3dab2140	0.08355951
188	0xbdb261b3	-0.08710041
189	0x3e48b26e	0.19599316
190	0xbe5dec5b	-0.21672194
191	0xbc93478c	-0.017978452
192	0xbe101601	-0.14070894
193	0xbe492241	-0.19641973
194	0x3dc2b74d	0.09507618
195	0x3df45af0	0.119314075
196	0xbe1fd3d9	-0.15608157
197	0xbe1b7535	-0.1518143
198	0xbe509889	-0.20370688
199	0xbe94642e	-0.2898268
200	0x3eaa661d	0.3328103
201	0xbe804e0a	-0.2505954
202	0xbdabb066	-0.08383255
203	0xbe7fe8b8	-0.24991119
204	0xbe0b786e	-0.13620159
205	0x3dfdc366	0.12390785
206	0xbe3f3923	-0.1867414
207	0xbd4b3eca	-0.049620427
208	0xbea76f03	-0.32701883
209	0x3e6c6e2d	0.23088904
210	0xbe595c07	-0.21226512
211	0x3d986f34	0.07443085
212	0xbe1e3812	-0.15451077
213	0x3c90694a	0.01762833
214	0x3e85ce9a	0.26134187
215	0xbea20f8e	-0.31652492
216	0x3bf1056c	0.0073553827
217	0xbea2e93a	-0.31818563
218	0x3ea18a92	0.31551033
219	0x3e5bdb1e	0.21470305
220	0x3ea40fb7	0.3204324
221	0x3e14c71f	0.14529084
222	0x3d216325	0.039401192
223	0xbdc7a48f	-0.09748184
224	0xbdc4118c	-0.09573659
225	0x3d21d0e6	0.03950586
226	0x3eb8de39	0.36107042
227	0xbe6c5afc	-0.23081583
228	0x3e169872	0.14706591
229	0xbc4e20d5	-0.01258107
230	0x3ded5acb	0.11589583
231	0xbebadaae	-0.36494964
232	0xbeba518f	-0.3639035
233	0xbd8e4e25	-0.06948499
234	0xbdef8507	-0.11695295
235	0x3d56d5ba	0.05244992
236	0xbe982af5	-0.29720274
237	0x3df4dcca	0.11956175
238	0x3e05e05d	0.13073869
239	0xbdae0e2c	-0.08498797
240	0xbe75d38d	-0.24006481
241	0x3e7069de	0.23477885
242	0x3e783a98	0.24241102
243	0xbeb975d3	-0.36222705
244	0xbc1fa795	-0.0097445445
245	0xbd8bef7c	-0.068327874
246	0x3e927a46	0.28608912
247	0x3c49e525	0.012322699
248	0xbd1863ce	-0.037204556
249	0x3e98a565	0.29813686
250	0xbdc02b8e	-0.093833074
251	0x3ea8b3d5	0.329497
252	0x3dd682fb	0.10474201
253	0xbddaeecb	-0.106900774
254	0x3df56e5f	0.11983942
255	0xbe537ada	-0.20652333

ntm.controller.lstm.bias_ih_l0 f4 [400]
0	0x3b983c66	0.004645872
1	0xbc96990a	-0.018383522
2	0xbba927d6	-0.0051622195
3	0xbcdc65f9	-0.026904093
4	0xbd534f9f	-0.051589604
5	0x3d19c9d9	0.037546013
6	0xbc7ed57a	-0.0155538265
7	0x3b489b2d	0.003061007
8	0x3cc41f7f	0.0239408
9	0xbb878646	-0.0041358797
10	0x3c9aa32c	0.018876635
11	0xbd862146	-0.06549315
12	0xbc2247e0	-0.009904832
13	0xbc7b7d43	-0.015349689
14	0x3d3360a0	0.04379332
15	0xbd0ec351	-0.034854237
16	0xbcb56b28	-0.022145823
17	0xbcbf4b3e	-0.023351308
18	0x3b5dc226	0.0033837645
19	0xbddd9a1d	-0.108204104
20	0xbd8c02c2	-0.068364635
21	0xbceb03b7	-0.028688295
22	0xbca3175a	-0.019908596
23	0xbd73aa38	-0.059488505
24	0xbd4bcc9c	-0.049755678
25	0xbd24cdda	-0.040235378
26	0xbd022081	-0.03176928
27	0x3b4d9e65	0.0031374928
28	0x3b99b280	0.0046904683
29	0xbd0f4d82	-0.034986027
30	0xbc9bd85d	-0.019024068
31	0xbd67b200	-0.05656624
32	0xbd13a9f5	-0.036050756
33	0xbcd235cf	-0.025660424
34	0xbcf8e4b7	-0.030382497
35	0xbc97989c	-0.018505387
36	0xbc91b807	-0.017787946
37	0xbcf0dff1	-0.029403659
38	0xbc917c06	-0.017759334
39	0xbcbb13e0	-0.022836626
40	0xbce9a8cb	-0.02852287
41	0xbc6623d6	-0.01404663
42	0xbd1a4924	-0.03766741
43	0xbb19bc3f	-0.002345815
44	0xbc89b112	-0.016808067
45	0xbba1dd48	-0.004939709
46	0xbc27875c	-0.010225143
47	0xbd8f522e	-0.069980964
48	0xbc40f0dd	-0.011776176
49	0xbcb9b1df	-0.022667823
50	0xbce03993	-0.027371204
51	0xbd85b8ac	-0.06529364
52	0xbc138b79	-0.009005421
53	0xbbbb8461	-0.005722568
54	0xbc892c43	-0.016744738
55	0xbd11c02d	-0.035583664
56	0x3cb92736	0.022601705
57	0xbcf9bcfd	-0.030485624
58	0x3cd9cef9	0.02658795
59	0xbc5cf30f	-0.013485684
60	0xbd0f5c1c	-0.03499995
61	0x3c5e3315	0.013561984
62	0xbcd2440d	-0.025667215
63	0x3c3b56d6	0.0114342775
64	0xbd7f55ef	-0.062337812
65	0xbd48990e	-0.04897409
66	0xbdc9943d	-0.09842727
67	0xbab975a1	-0.0014149436
68	0x3b813113	0.0039426177
69	0xbca3e8ee	-0.02000853
70	0xbd13adcb	-0.036054414
71	0xbc209168	-0.009800293
72	0x3c9078f0	0.017635792
73	0x3b9e6e4e	0.0048349267
74	0x3b8806cb	0.0041512004
75	0x3c4c9b8b	0.012488256
76	0xbbe90490	-0.0071111396
77	0x3c782a13	0.01514675
78	0xbcc30e06	-0.023810398
79	0xbd8a217e	-0.067446694
80	0xbc9b0a25	-0.018925736
81	0xbcab98fe	-0.020946976
82	0xbba116a5	-0.0049160295
83	0xbd54d4f4	-0.0519609
84	0x38e78be8	0.00011040998
85	0xbd961cea	-0.07329734
86	0x3c9e15fb	0.01929759
87	0xbc0eadbd	-0.008708415
88	0x3bf9f630	0.007628225
89	0xbd118f17	-0.03553685
90	0xbd0a5fe1	-0.033782844
91	0xbc449705	-0.0119988965
92	0xbd1ea683	-0.038733017
93	0xbc59eb22	-0.013300689
94	0xbd30c7fc	-0.04315947
95	0xbbfb42b4	-0.0076678637
96	0xbdcff686	-0.101544425
97	0xbd67c84a	-0.056587495
98	0xbbcc56b9	-0.006235924
99	0xbc8143bc	-0.015779369
100	0x3b4406e0	0.0029911324
101	0xbc002416	-0.007821104
102	0x3ba30ff4	0.004976267
103	0xbc261601	-0.010137082
104	0xbc9f11e0	-0.019417703
105	0x3ce3d0c3	0.027809506
106	0x3adab452	0.001668582
107	0xbced26e4	-0.028949209
108	0x3cde3b9b	0.027128031
109	0x3d02647e	0.031834118
110	0x3cb68484	0.022279985
111	0xbc3d65b2	-0.011559891
112	0x3d625cdb	0.055264335
113	0xbd7229e1	-0.05912197
114	0x3d42bdc9	0.047544274
115	0x3c3a551c	0.011372831
116	0xbd35177c	-0.04421185
117	0xbc8c95ef	-0.017161338
118	0x3d4ccdb4	0.05000086
119	0xbd766d5f	-0.0601629
120	0xbc85740d	-0.016290689
121	0xbbdc2689	-0.006718461
122	0xbc782e7c	-0.0151478015
123	0xbd973ec3	-0.07385018
124	0xbd57a3ea	-0.052646555
125	0xbabca56c	-0.0014392561
126	0xbbecca38	-0.007226255
127	0x3cc23be5	0.0237102
128	0x3cb39b38	0.0219246
129	0xbc9fe892	-0.019520078
130	0xbd49686d	-0.049171854
131	0xbd32c6d8	-0.043646663
132	0xbc74ac78	-0.014933698
133	0x3c7186cb	0.01474161
134	0xbc91bf9d	-0.017791564
135	0x3d27f1f0	0.041002214
136	0xbbb0d792	-0.0053967917
137	0x3cc32fb9	0.023826467
138	0x3c2e25e0	0.010629147
139	0x3b88606a	0.004161884
140	0xbc6e68c6	-0.014551347
141	0xbbac5129	-0.0052586985
142	0xbd2331ff	-0.039842602
143	0x3ce1029e	0.027467068
144	0x3d285adb	0.04110227
145	0x3d21fa41	0.0395453
146	0x3ca14d00	0.019690037
147	0xbd9a08a2	-0.07521178
148	0x3d063362	0.032763846
149	0x39cc9944	0.00039024104
150	0xbd225209	-0.039629016
151	0xbc663501	-0.014050723
152	0xbd173d9a	-0.036923982
153	0x3cf4ce8a	0.029883642
154	0x3c842a6b	0.016133508
155	0x3d688a5f	0.056772586
156	0x3d136f82	0.035995014
157	0xbd438351	-0.047732655
158	0x3c524a50	0.0128351
159	0xba4ac315	-0.0007734758
160	0xbccea72b	-0.025226196
161	0x3cd967f3	0.026538825
162	0x3c89d86a	0.016826827
163	0xbc6c18d8	-0.01441022
164	0xbc55d7f3	-0.013051975
165	0xbbb752e4	-0.005594598
166	0xbdaa56b9	-0.08317322
167	0xbce8fa5a	-0.02843969
168	0x3b8b8525	0.0042578154
169	0xbd0bbe61	-0.034117106
170	0xbbc4b20d	-0.0060026706
171	0xbc3e7ba1	-0.011626155
172	0xbc080bf5	-0.008303632
173	0x3c3d6051	0.011558608
174	0x3d122c84	0.035686985
175	0xbb431ded	-0.0029772476
176	0xbc24744d	-0.010037494
177	0x3daca774	0.08430377
178	0x3cd3e3b7	0.025865419
179	0xbda8a804	-0.082351714
180	0xbd1e0163	-0.03857554
181	0xbbaeb00f	-0.0053310464
182	0xbcd82ecc	-0.026389502
183	0x3b9a546d	0.0047097714
184	0xbc397051	-0.011318282
185	0xbd547373	-0.051867913
186	0xbc9ae5ce	-0.018908408
187	0x3d3dec9c	0.046368226
188	0x3c2f5462	0.010701271
189	0xbd821403	-0.06351473
190	0xbcc08fb9	-0.023506032
191	0x3c533dbd	0.0128931375
192	0xbd3e8f1f	-0.04652321
193	0x3cdac8ce	0.02670708
194	0x3c463eba	0.012099916
195	0xbd3df0f0	-0.046372354
196	0xbda83714	-0.0821363
197	0xbd15a4cd	-0.03653412
198	0x3bece063	0.0072288974
199	0xbd2c4f7b	-0.042067986
200	0xbc01ed7d	-0.007930157
201	0x3aa298cd	0.0012405157
202	0x3c6a8a36	0.014315179
203	0xbbfb51b9	-0.007669654
204	0x3b628f91	0.0034570436
205	0xbd0d9f79	-0.034575913
206	0x3cfee6d7	0.031115932
207	0xba4b56d3	-0.0007756773
208	0xbc417e79	-0.011809939
209	0xbc82ab1d	-0.015950734
210	0x3b241cdb	0.0025041613
211	0xbcbb235a	-0.022844005
212	0x3b878001	0.0041351323
213	0xbc77e76d	-0.01513086
214	0xbbbd2458	-0.005772155
215	0xbc117099	-0.008876943
216	0xbba09603	-0.0049006953
217	0xbb21c394	-0.0024683224
218	0x3cc50f56	0.024055164
219	0x3ca62c6e	0.020284858
220	0xbc5934ae	-0.013257189
221	0x3caff1dc	0.021477632
222	0x3b096c81	0.0020969214
223	0x3c974138	0.018463716
224	0xbc605b11	-0.013693587
225	0x3c39ed62	0.0113481
226	0xbc922201	-0.01783848
227	0x3d057531	0.032582466
228	0x3ce449fe	0.027867313
229	0xbb53a0bb	-0.0032291848
230	0x3c9a0522	0.018801276
231	0x3ce25f83	0.027633434
232	0x3c617a8a	0.013762126
233	0x3c39cb51	0.011339978
234	0x3d24ee56	0.040266357
235	0x396b2050	0.00022423384
236	0xbc2a37b6	-0.010389259
237	0x3c373840	0.011182845
238	0xbc89cd4c	-0.016821526
239	0xbb96e39b	-0.0046047694
240	0x3cb2b92c	0.021816812
241	0xb89826ea	-7.255173e-05
242	0xbd193e10	-0.037412703
243	0x3b95be27	0.004569787
244	0x3c2e85b1	0.010651992
245	0x3ba8d908	0.0051528253
246	0x3c912d54	0.01772181
247	0xbd2771d8	-0.040880054
248	0x3ce4fdb8	0.027953014
249	0xbb5f2395	-0.0034048308
250	0x3cac7365	0.021051118
251	0xbd068e4f	-0.03285056
252	0x3d0a0a35	0.03370114
253	0xbcc52bc8	-0.024068728
254	0xbcbd7c42	-0.02313054
255	0xbcf185cf	-0.02948275

ntm.controller.lstm.bias_hh_l0 f4 [400]
0	0x3b983c66	0.004645872
1	0xbc96990a	-0.018383522
2	0xbba927d6	-0.0051622195
3	0xbcdc65f9	-0.026904093
4	0xbd534f9f	-0.051589604
5	0x3d19c9d9	0.037546013
6	0xbc7ed57a	-0.0155538265
7	0x3b489b2d	0.003061007
8	0x3cc41f7f	0.0239408
9	0xbb878646	-0.0041358797
10	0x3c9aa32c	0.018876635
11	0xbd862146	-0.06549315
12	0xbc2247e0	-0.009904832
13	0xbc7b7d43	-0.015349689
14	0x3d3360a0	0.04379332
15	0xbd0ec351	-0.034854237
16	0xbcb56b28	-0.022145823
17	0xbcbf4b3e	-0.023351308
18	0x3b5dc226	0.0033837645
19	0xbddd9a1d	-0.108204104
20	0xbd8c02c2	-0.068364635
21	0xbceb03b7	-0.028688295
22	0xbca3175a	-0.019908596
23	0xbd73aa38	-0.059488505
24	0xbd4bcc9c	-0.049755678
25	0xbd24cdda	-0.040235378
26	0xbd022081	-0.03176928
27	0x3b4d9e65	0.0031374928
28	0x3b99b280	0.0046904683
29	0xbd0f4d82	-0.034986027
30	0xbc9bd85d	-0.019024068
31	0xbd67b200	-0.05656624
32	0xbd13a9f5	-0.036050756
33	0xbcd235cf	-0.025660424
34	0xbcf8e4b7	-0.030382497
35	0xbc97989c	-0.018505387
36	0xbc91b807	-0.017787946
37	0xbcf0dff1	-0.029403659
38	0xbc917c06	-0.017759334
39	0xbcbb13e0	-0.022836626
40	0xbce9a8cb	-0.02852287
41	0xbc6623d6	-0.01404663
42	0xbd1a4924	-0.03766741
43	0xbb19bc3f	-0.002345815
44	0xbc89b112	-0.016808067
45	0xbba1dd48	-0.004939709
46	0xbc27875c	-0.010225143
47	0xbd8f522e	-0.069980964
48	0xbc40f0dd	-0.011776176
49	0xbcb9b1df	-0.022667823
50	0xbce03993	-0.027371204
51	0xbd85b8ac	-0.06529364
52	0xbc138b79	-0.009005421
53	0xbbbb8461	-0.005722568
54	0xbc892c43	-0.016744738
55	0xbd11c02d	-0.035583664
56	0x3cb92736	0.022601705
57	0xbcf9bcfd	-0.030485624
58	0x3cd9cef9	0.02658795
59	0xbc5cf30f	-0.013485684
60	0xbd0f5c1c	-0.03499995
61	0x3c5e3315	0.013561984
62	0xbcd2440d	-0.025667215
63	0x3c3b56d6	0.0114342775
64	0xbd7f55ef	-0.062337812
65	0xbd48990e	-0.04897409
66	0xbdc9943d	-0.09842727
67	0xbab975a1	-0.0014149436
68	0x3b813113	0.0039426177
69	0xbca3e8ee	-0.02000853
70	0xbd13adcb	-0.036054414
71	0xbc209168	-0.009800293
72	0x3c9078f0	0.017635792
73	0x3b9e6e4e	0.0048349267
74	0x3b8806cb	0.0041512004
75	0x3c4c9b8b	0.012488256
76	0xbbe90490	-0.0071111396
77	0x3c782a13	0.01514675
78	0xbcc30e06	-0.023810398
79	0xbd8a217e	-0.067446694
80	0xbc9b0a25	-0.018925736
81	0xbcab98fe	-0.020946976
82	0xbba116a5	-0.0049160295
83	0xbd54d4f4	-0.0519609
84	0x38e78be8	0.00011040998
85	0xbd961cea	-0.07329734
86	0x3c9e15fb	0.01929759
87	0xbc0eadbd	-0.008708415
88	0x3bf9f630	0.007628225
89	0xbd118f17	-0.03553685
90	0xbd0a5fe1	-0.033782844
91	0xbc449705	-0.0119988965
92	0xbd1ea683	-0.038733017
93	0xbc59eb22	-0.013300689
94	0xbd30c7fc	-0.04315947
95	0xbbfb42b4	-0.0076678637
96	0xbdcff686	-0.101544425
97	0xbd67c84a	-0.056587495
98	0xbbcc56b9	-0.006235924
99	0xbc8143bc	-0.015779369
100	0x3b4406e0	0.0029911324
101	0xbc002416	-0.007821104
102	0x3ba30ff4	0.004976267
103	0xbc261601	-0.010137082
104	0xbc9f11e0	-0.019417703
105	0x3ce3d0c3	0.027809506
106	0x3adab452	0.001668582
107	0xbced26e4	-0.028949209
108	0x3cde3b9b	0.027128031
109	0x3d02647e	0.031834118
110	0x3cb68484	0.022279985
111	0xbc3d65b2	-0.011559891
112	0x3d625cdb	0.055264335
113	0xbd7229e1	-0.05912197
114	0x3d42bdc9	0.047544274
115	0x3c3a551c	0.011372831
116	0xbd35177c	-0.04421185
117	0xbc8c95ef	-0.017161338
118	0x3d4ccdb4	0.05000086
119	0xbd766d5f	-0.0601629
120	0xbc85740d	-0.016290689
121	0xbbdc2689	-0.006718461
122	0xbc782e7c	-0.0151478015
123	0xbd973ec3	-0.07385018
124	0xbd57a3ea	-0.052646555
125	0xbabca56c	-0.0014392561
126	0xbbecca38	-0.007226255
127	0x3cc23be5	0.0237102
128	0x3cb39b38	0.0219246
129	0xbc9fe892	-0.019520078
130	0xbd49686d	-0.049171854
131	0xbd32c6d8	-0.043646663
132	0xbc74ac78	-0.014933698
133	0x3c7186cb	0.01474161
134	0xbc91bf9d	-0.017791564
135	0x3d27f1f0	0.041002214
136	0xbbb0d792	-0.0053967917
137	0x3cc32fb9	0.023826467
138	0x3c2e25e0	0.010629147
139	0x3b88606a	0.004161884
140	0xbc6e68c6	-0.014551347
141	0xbbac5129	-0.0052586985
142	0xbd2331ff	-0.039842602
143	0x3ce1029e	0.027467068
144	0x3d285adb	0.04110227
145	0x3d21fa41	0.0395453
146	0x3ca14d00	0.019690037
147	0xbd9a08a2	-0.07521178
148	0x3d063362	0.032763846
149	0x39cc9944	0.00039024104
150	0xbd225209	-0.039629016
151	0xbc663501	-0.014050723
152	0xbd173d9a	-0.036923982
153	0x3cf4ce8a	0.029883642
154	0x3c842a6b	0.016133508
155	0x3d688a5f	0.056772586
156	0x3d136f82	0.035995014
157	0xbd438351	-0.047732655
158	0x3c524a50	0.0128351
159	0xba4ac315	-0.0007734758
160	0xbccea72b	-0.025226196
161	0x3cd967f3	0.026538825
162	0x3c89d86a	0.016826827
163	0xbc6c18d8	-0.01441022
164	0xbc55d7f3	-0.013051975
165	0xbbb752e4	-0.005594598
166	0xbdaa56b9	-0.08317322
167	0xbce8fa5a	-0.02843969
168	0x3b8b8525	0.0042578154
169	0xbd0bbe61	-0.034117106
170	0xbbc4b20d	-0.0060026706
171	0xbc3e7ba1	-0.011626155
172	0xbc080bf5	-0.008303632
173	0x3c3d6051	0.011558608
174	0x3d122c84	0.035686985
175	0xbb431ded	-0.0029772476
176	0xbc24744d	-0.010037494
177	0x3daca774	0.08430377
178	0x3cd3e3b7	0.025865419
179	0xbda8a804	-0.082351714
180	0xbd1e0163	-0.03857554
181	0xbbaeb00f	-0.0053310464
182	0xbcd82ecc	-0.026389502
183	0x3b9a546d	0.0047097714
184	0xbc397051	-0.011318282
185	0xbd547373	-0.051867913
186	0xbc9ae5ce	-0.018908408
187	0x3d3dec9c	0.046368226
188	0x3c2f5462	0.010701271
189	0xbd821403	-0.06351473
190	0xbcc08fb9	-0.023506032
191	0x3c533dbd	0.0128931375
192	0xbd3e8f1f	-0.04652321
193	0x3cdac8ce	0.02670708
194	0x3c463eba	0.012099916
195	0xbd3df0f0	-0.046372354
196	0xbda83714	-0.0821363
197	0xbd15a4cd	-0.03653412
198	0x3bece063	0.0072288974
199	0xbd2c4f7b	-0.042067986
200	0xbc01ed7d	-0.007930157
201	0x3aa298cd	0.0012405157
202	0x3c6a8a36	0.014315179
203	0xbbfb51b9	-0.007669654
204	0x3b628f91	0.0034570436
205	0xbd0d9f79	-0.034575913
206	0x3cfee6d7	0.031115932
207	0xba4b56d3	-0.0007756773
208	0xbc417e79	-0.011809939
209	0xbc82ab1d	-0.015950734
210	0x3b241cdb	0.0025041613
211	0xbcbb235a	-0.022844005
212	0x3b878001	0.0041351323
213	0xbc77e76d	-0.01513086
214	0xbbbd2458	-0.005772155
215	0xbc117099	-0.008876943
216	0xbba09603	-0.0049006953
217	0xbb21c394	-0.0024683224
218	0x3cc50f56	0.024055164
219	0x3ca62c6e	0.020284858
220	0xbc5934ae	-0.013257189
221	0x3caff1dc	0.021477632
222	0x3b096c81	0.0020969214
223	0x3c974138	0.018463716
224	0xbc605b11	-0.013693587
225	0x3c39ed62	0.0113481
226	0xbc922201	-0.01783848
227	0x3d057531	0.032582466
228	0x3ce449fe	0.027867313
229	0xbb53a0bb	-0.0032291848
230	0x3c9a0522	0.018801276
231	0x3ce25f83	0.027633434
232	0x3c617a8a	0.013762126
233	0x3c39cb51	0.011339978
234	0x3d24ee56	0.040266357
235	0x396b2050	0.00022423384
236	0xbc2a37b6	-0.010389259
237	0x3c373840	0.011182845
238	0xbc89cd4c	-0.016821526
239	0xbb96e39b	-0.0046047694
240	0x3cb2b92c	0.021816812
241	0xb89826ea	-7.255173e-05
242	0xbd193e10	-0.037412703
243	0x3b95be27	0.004569787
244	0x3c2e85b1	0.010651992
245	0x3ba8d908	0.0051528253
246	0x3c912d54	0.01772181
247	0xbd2771d8	-0.040880054
248	0x3ce4fdb8	0.027953014
249	0xbb5f2395	-0.0034048308
250	0x3cac7365	0.021051118
251	0xbd068e4f	-0.03285056
252	0x3d0a0a35	0.03370114
253	0xbcc52bc8	-0.024068728
254	0xbcbd7c42	-0.02313054
255	0xbcf185cf	-0.02948275

ntm.controller.lstm.weight_ih_l1 f4 [400, 100]
0	0xbe42c0d9	-0.19018878
1	0x3e983eae	0.2973532
2	0xbd96dc5b	-0.07366248
3	0xbda2ab51	-0.07942832
4	0xbe86729b	-0.26259312
5	0xbe68a423	-0.22718863
6	0xbeb2d302	-0.3492661
7	0xbe04cd63	-0.12968974
8	0x3d566a77	0.052347627
9	0x3d997d12	0.074945584
10	0x3e73989f	0.23788689
11	0x3ead8c9d	0.33896342
12	0x3d812647	0.06306129
13	0x3ea0918c	0.31361043
14	0x3dbd1baa	0.09233792
15	0x3e8ea66e	0.2786135
16	0xbe44be1a	-0.19213143
17	0x3ea278ef	0.3173289
18	0x3e962176	0.29322404
19	0xbe8a26fc	-0.26982868
20	0xbe965cd7	-0.29367706
21	0xbdbacae8	-0.091207325
22	0x3e90e2e8	0.28298116
23	0x3cef39af	0.02920231
24	0xbe8040de	-0.2504949
25	0x3e489c9c	0.19590992
26	0xbe18a16f	-0.14905332
27	0x3e5c70f2	0.2152746
28	0x3cedded0	0.02903691
29	0x3ea44e6f	0.3209109
30	0xbe7a5ea2	-0.24450162
31	0xbe538d72	-0.20659426
32	0xbe9d5d5d	-0.30735293
33	0x3e0887c7	0.13333045
34	0x3e56dfbe	0.20983788
35	0xbdff4b12	-0.124654904
36	0xbe37c27e	-0.17945287
37	0x3e88e7f6	0.26739472
38	0xbdb3fe78	-0.087887704
39	0x3d428a80	0.047495365
40	0x3e48e6e8	0.19619334
41	0xbd2c35cd	-0.042043496
42	0x3e387446	0.18013105
43	0xbe9d4715	-0.30718294
44	0x3e51680f	0.20449851
45	0x3e95b5d7	0.29240295
46	0xbe470d2e	-0.19438621
47	0xbe70d9c1	-0.23520567
48	0x3d2c9a0c	0.042139098
49	0xbe2d779b	-0.16940157
50	0x3df59f78	0.11993307
51	0x3bb6dd9a	0.005580616
52	0xbe9ded36	-0.3084504
53	0x3e05f6cb	0.13082425
54	0xbe6335af	-0.22188447
55	0xbe47b9fa	-0.19504538
56	0xbe83f86d	-0.2577547
57	0x3eb2a8b6	0.3489434
58	0x3e874d14	0.26425993
59	0x3ea7a063	0.32739553
60	0xbe915f37	-0.28392956
61	0x3e1a6be7	0.15080224
62	0x3e81dea1	0.25365165
63	0x3e737b74	0.23777562
64	0xbcae94ef	-0.021311251
65	0x3dd7e49e	0.10541652
66	0xbe87be78	-0.26512504
67	0x3dd5091a	0.104021266
68	0xbec7258d	-0.38895836
69	0xbd88eb40	-0.066854954
70	0xbe4e2099	-0.20129623
71	0xbd403ab4	-0.046930984
72	0xbc81a3b7	-0.015825136
73	0xbde5cbe9	-0.112205334
74	0xbe7f2164	-0.24915081
75	0xbe831411	-0.25601247
76	0xbe277622	-0.16353658
77	0xbe0711f3	-0.13190441
78	0x3e431bd6	0.19053587
79	0x3d7941ba	0.060853697
80	0xbe660cae	-0.22465774
81	0x3e527c68	0.2055527
82	0x3e38b0ea	0.18036237
83	0x3ea42d67	0.3206589
84	0x3a57a3fe	0.0008226036
85	0xbe1f6889	-0.15567221
86	0x3eab5f6b	0.33471236
87	0x3dbe5368	0.09293252
88	0xbe854798	-0.26031184
89	0xbe8c6305	-0.27419296
90	0xbe641c3c	-0.22276396
91	0x3e292b5d	0.16520448
92	0x3d8f1e1c	0.06988165
93	0xbc79d1b6	-0.015247753
94	0x3e8e20b9	0.2775934
95	0xbec49d39	-0.384012
96	0x3e5abff2	0.21362284
97	0xbd9b1365	-0.075720586
98	0xbddf80dd	-0.109132506
99	0x3de0278c	0.10945043
100	0xbd80b541	-0.062845714
101	0x3e2a7b4f	0.16648601
102	0xbe8b994b	-0.2726539
103	0xbe66c230	-0.22535014
104	0x3ea5bf6b	0.32372603
105	0xbe911f20	-0.2834406
106	0xbddfb7e5	-0.10923747
107	0x3e8c9656	0.27458447
108	0x3e4254b1	0.1897762
109	0xbde66dec	-0.11251435
110	0xbe85598e	-0.26044887
111	0xbe4ab199	-0.1979431
112	0xbe56c20c	-0.2097246
113	0xbdf31a53	-0.11870255
114	0x3d4d2ebf	0.05009341
115	0x3e96e818	0.29473948
116	0x3e5a9657	0.21346413
117	0x3d8aaa78	0.067707956
118	0xbe679322	-0.2261472
119	0x3e86819d	0.26270762
120	0x3e584d6f	0.21123289
121	0x3e8a1069	0.26965645
122	0x3de405b5	0.11133901
123	0xbda5d8ad	-0.08097968
124	0xbdfb1965	-0.12260703
125	0x3ebbcbe1	0.36678985
126	0x3ea6d753	0.32586154
127	0x3d2e45ff	0.042547222
128	0xbdfd8243	-0.12378361
129	0x3d0d62dd	0.03451811
130	0xbe2f05fc	-0.17092127
131	0x3e84cc6c	0.25937212
132	0x3ebca1dd	0.36842242
133	0xbe9a882b	-0.30182013
134	0x3dadc04c	0.08483943
135	0x3e014eca	0.12627712
136	0xbd8e9aea	-0.06963141
137	0x3da08f88	0.078398764
138	0xbcc847ed	-0.02444836
139	0x3eba9998	0.36445308
140	0xbe214913	-0.15750532
141	0xbe340c76	-0.17582878
142	0xbddd9cdf	-0.108209364
143	0x3df7fc4d	0.121086694
144	0xbe1b88c3	-0.15188889
145	0xbdbde6ae	-0.09272514
146	0x3e6f773d	0.2338533
147	0x3e473dd1	0.19457175
148	0x3e236e5c	0.15960068
149	0x3df7e2cc	0.12103805
150	0xbd4e856d	-0.050420213
151	0x3e23df5d	0.16003175
152	0x3e09ac86	0.13444719
153	0xbd8c3879	-0.06846709
154	0x3e11585b	0.14193861
155	0x3eb189ac	0.34675348
156	0x3e5e51a6	0.21710834
157	0x3e0313fe	0.12800595
158	0x3d95bcd3	0.07311406
159	0x3db60abd	0.08888767
160	0x3dd96d1a	0.106165126
161	0xbe1ed116	-0.15509447
162	0x3daa1328	0.08304435
163	0x3e24b9c6	0.16086492
164	0x3e326af3	0.1742361
165	0xbeaa8ee3	-0.3331214
166	0x3e0738cd	0.13205262
167	0xbe9b4f4a	-0.3033393
168	0xbc432e36	-0.011912873
169	0xbe90369a	-0.28166658
170	0xbe4d7fa6	-0.20068225
171	0x3d5a5b3e	0.05330967
172	0xbe85404b	-0.26025614
173	0xbe983994	-0.2973143
174	0x3c475741	0.012166799
175	0xbeb6732e	-0.3563475
176	0xbe86c05f	-0.26318642
177	0x3e403848	0.1877147
178	0xbeb6094a	-0.35553962
179	0x3c119877	0.008886448
180	0xbe8f200d	-0.2795414
181	0x3e93470e	0.28765148
182	0xbe97a390	-0.29616976
183	0xbe2c85f4	-0.16847974
184	0x3ccff335	0.025384525
185	0xbe165ec6	-0.1468459
186	0x3e0ef60c	0.13961047
187	0x3e762882	0.2403889
188	0xbe02d29d	-0.12775655
189	0xbd3daffc	-0.04631041
190	0x3ea46e59	0.3211544
191	0x3e8656e7	0.26238176
192	0x3e8500c9	0.25977162
193	0xbd5ef984	-0.054437175
194	0x3e320050	0.17382932
195	0xbe323dff	-0.17406462
196	0x3d2c9218	0.042131513
197	0xbe9fbe2f	-0.31199786
198	0xbd2c8356	-0.04211744
199	0xbe5b4462	-0.21412805
200	0xbdf2168c	-0.11820707
201	0xbe705e52	-0.2347348
202	0x3d245440	0.04011941
203	0x3ec8e444	0.39236653
204	0x3cff4a88	0.031163469
205	0xbea601dc	-0.32423294
206	0xbd4a7bb7	-0.04943439
207	0xbea94caf	-0.33066317
208	0xbdfead2a	-0.12435372
209	0xbe9bcd46	-0.3043005
210	0x3e7e8822	0.24856618
211	0xbe528d1f	-0.20561646
212	0xbdcc54ec	-0.09977135
213	0xbe603217	-0.21894108
214	0xbe8a77a6	-0.2704441
215	0xbea302ab	-0.31837973
216	0xbdc5b4b6	-0.096536085
217	0x3eaa6c1c	0.33285606
218	0x3d712b99	0.05887947
219	0xbe1a867b	-0.15090363
220	0xbe17518d	-0.14777203
221	0x3e08c800	0.13357544
222	0xbe4a521c	-0.19757885
223	0x3df1601c	0.117859095
224	0xbe97e22c	-0.29664743
225	0x3ef0931f	0.46987244
226	0x3cdf5e9b	0.027266791
227	0x3ea542b9	0.32277468
228	0x3e059602	0.13045505
229	0x3e8e2d99	0.27769163
230	0x3d7afd90	0.061276972
231	0x3d115b63	0.035487544
232	0x3dabf2f3	0.08395948
233	0xbda6f45d	-0.08152077
234	0xbd4f0506	-0.0505419
235	0x3d937bba	0.07201333
236	0x3e49c375	0.19703467
237	0x3d5c0d5a	0.05372367
238	0xbe47c11e	-0.19507262
239	0x3e764e49	0.24053301
240	0xbe46f2ef	-0.1942861
241	0xbe900218	-0.28126597
242	0xbe30c85d	-0.17263933
243	0xbc43d88c	-0.011953484
244	0xbd98c081	-0.07458592
245	0xbd8b23b6	-0.06793921
246	0xbe257cab	-0.16160838
247	0xbe9ae081	-0.30249408
248	0xbe325886	-0.17416582
249	0xbdea70e6	-0.11447315
250	0x3e85d8ad	0.26141873
251	0xbe6d7717	-0.2318996
252	0xbdd07c63	-0.10179975
253	0x3e495f64	0.19665295
254	0x3c40df31	0.011771963
255	0xbe1101e2	-0.14160874
