results/priority-sort/priority-sort-task-42-1-8-batch-70000.model (torch_old, 859809 bytes, 49 tensors)

ntm.read0_bias f4 [1, 20]
0	0xbb6920f7	-0.0035572627
1	0xbba33f9d	-0.0049819485
2	0x3c2308d9	0.00995084
3	0x3c46db8f	0.012137308
4	0x3b362c94	0.0027797567
5	0x3a416241	0.00073770067
6	0x3b3c405b	0.0028724882
7	0xbb2f3bb7	-0.0026738474
8	0xbb6dec52	-0.0036304188
9	0x3bdc0db3	0.0067155003
10	0xbc664ee4	-0.014056895
11	0xbaa5d48e	-0.0012651847
12	0xba7c79c2	-0.00096311804
13	0xbcc26cd3	-0.023733532
14	0x38e60e9c	0.00010969976
15	0xbc88f900	-0.016720295
16	0x3b013b44	0.0019719163
17	0x3bcd146e	0.006258539
18	0x3b3a2ad8	0.0028406885
19	0xbbe8808c	-0.007095402

ntm.read1_bias f4 [1, 20]
0	0xbc7d5721	-0.015462668
1	0x3c03e6db	0.008050646
2	0xbc2156aa	-0.0098473225
3	0xbb804620	-0.0039146096
4	0x3acaa2a1	0.0015459844
5	0xba033269	-0.0005004765
6	0xbb01b28c	-0.001979026
7	0x3c59bd35	0.013289739
8	0x3afc42fd	0.0019246038
9	0x3a935d60	0.0011243038
10	0xbc00f821	-0.007871659
11	0x3a09b5bf	0.00052532175
12	0x3c6c967c	0.014440175
13	0xbc832c1b	-0.016012242
14	0x3c6b933e	0.014378367
15	0xbc523ddb	-0.01283213
16	0x3b908ed9	0.00441156
17	0xbba7d260	-0.005121514
18	0x3cf46fb0	0.029838413
19	0xbc8987d9	-0.01678841

ntm.read2_bias f4 [1, 20]
0	0xbb8cc9a7	-0.0042965
1	0xbbe4f6fc	-0.0069874506
2	0x3b9d1117	0.004793297
3	0xba9d33ab	-0.0011993548
4	0x3c4327bb	0.011911328
5	0xbc95bfc9	-0.018279927
6	0xbbeee1a1	-0.0072900807
7	0xbb213102	-0.0024595861
8	0xbc28636b	-0.010277609
9	0xbca96ee4	-0.02068276
10	0x3a1c22f4	0.0005956136
11	0x3bc20530	0.0059210286
12	0x3cedd08a	0.029030103
13	0x3b149912	0.0022674245
14	0x3b182d0b	0.0023220207
15	0x3bc9f03d	0.006162672
16	0x3bae6269	0.00532179
17	0xbbb928b4	-0.005650604
18	0x3c18a5eb	0.009316902
19	0x3c2390b6	0.009983232

ntm.read3_bias f4 [1, 20]
0	0x3c48e91c	0.012262609
1	0xbc22c2d0	-0.009934142
2	0x3cb1dd3e	0.021711942
3	0x3c0e93ad	0.008702201
4	0xba8c234d	-0.0010691673
5	0xbb15e8ef	-0.0022874435
6	0x3a6d4f05	0.00090526073
7	0xbb025687	-0.0019888
8	0x3bc67d87	0.0060574445
9	0x3c43722f	0.011929079
10	0x3c600630	0.01367335
11	0xbbd693b0	-0.0065483674
12	0xbc03aa2e	-0.0080361795
13	0xbabd910d	-0.0014462784
14	0x3baeacc1	0.0053306525
15	0x3bb8e12e	0.005642078
16	0x3ba63dfe	0.005073308
17	0x3baa644e	0.0051999455
18	0x3bf10b75	0.007356102
19	0xbb94a280	-0.004535973

ntm.read4_bias f4 [1, 20]
0	0xbbe86027	-0.0070915404
1	0xbbfe7a86	-0.007766071
2	0x3c28a820	0.01029399
3	0xb942883d	-0.00018552034
4	0xbc40e8c9	-0.01177425
5	0xbc66339b	-0.01405039
6	0x3b80b0bc	0.0039273184
7	0xbbebae6c	-0.0071924236
8	0xbbd6b730	-0.0065525994
9	0x3a4d9e5c	0.0007843727
10	0x3ab45b06	0.0013760037
11	0xbb884dd1	-0.004159667
12	0xba5dec40	-0.0008465685
13	0xb9c210ca	-0.00037015072
14	0x3bbbf958	0.005736511
15	0x3ba667eb	0.005078306
16	0xbbe96d8e	-0.0071236556
17	0xbc361f5e	-0.011115877
18	0x3c495890	0.012289181
19	0xbcc96830	-0.024585813

ntm.controller.lstm_h_bias f4 [2, 1, 100]
0	0xbe1de567	-0.15419541
1	0x3d322b0d	0.043498088
2	0x3cf17e04	0.029479034
3	0x3d318be9	0.04334632
4	0x3d45e7a7	0.048316624
5	0xbcc204cf	-0.023683934
6	0xbc0f93e8	-0.008763291
7	0x3dd0e119	0.10199184
8	0xbd8aef69	-0.06783945
9	0x3da540ad	0.080689766
10	0xbd25fba5	-0.04052319
11	0xbc67765b	-0.014127339
12	0xbdecd7c1	-0.11564589
13	0x3dfa6a1f	0.12227272
14	0xbc137109	-0.008999118
15	0x3d8f36a1	0.069928415
16	0xbcd41e7c	-0.025893442
17	0x3d0c5de5	0.034269232
18	0x3db819c2	0.08989288
19	0xbda4d6de	-0.08048795
20	0xbcc38c6f	-0.023870675
21	0xbd5d11f4	-0.0539722
22	0x3c4f5559	0.012654626
23	0xbd988091	-0.07446397
24	0xbe163fcb	-0.14672773
25	0x3c62331e	0.013806133
26	0xbd4b5b3f	-0.049647566
27	0x3cdae592	0.026720796
28	0x3b2917cc	0.0025801538
29	0x3e3b7b9b	0.1830887
30	0xbdb8098e	-0.089861974
31	0x3c8366ff	0.016040323
32	0xbd3b5129	-0.045731697
33	0x3d0f5553	0.03499348
34	0xbdd4fb61	-0.10399509
35	0x3cd1aee1	0.025596084
36	0xbdc4256d	-0.09577451
37	0xbd00e512	-0.03146846
38	0x3cc6f627	0.024287296
39	0xbcd8857f	-0.026430843
40	0x3c570255	0.013123115
41	0x3c852042	0.016250733
42	0x3c545989	0.0129608
43	0x3d935860	0.071945906
44	0x3b876431	0.004131817
45	0x3c7ffabb	0.015623744
46	0xbd113403	-0.035449993
47	0x3dddcc9c	0.10830042
48	0xbd9f305b	-0.07772895
49	0xbdfe18a8	-0.124070466
50	0xbc70b782	-0.014692189
51	0xbd2a21e6	-0.041536234
52	0x3cd09c5b	0.025465181
53	0x3c4f714a	0.012661288
54	0x3cf6d1c1	0.030129315
55	0x3dab68a9	0.08369572
56	0x3d0baa39	0.034097884
57	0x3ca27c3c	0.01983463
58	0x3d5dade8	0.054120928
59	0xbdcaacc8	-0.09896237
60	0x3d9351ed	0.071933605
61	0x3b8f7627	0.0043780985
62	0x3d4a60be	0.049408667
63	0x3e153bd9	0.14573611
64	0xbd183cc2	-0.03716732
65	0x3df0320d	0.117282964
66	0xbcebd745	-0.028789172
67	0x3d7f5264	0.062334433
68	0x3c629731	0.013829992
69	0x3d627781	0.05528975
70	0xbd47f080	-0.048813343
71	0x3e204fcf	0.15655445
72	0xbbc9ac52	-0.0061545754
73	0x3ddef6c5	0.10886911
74	0xbd7ccd77	-0.061719384
75	0xb9956a0a	-0.000284985
76	0xbcc15e5b	-0.023604563
77	0xbcca3e4f	-0.024687914
78	0x3c203174	0.009777416
79	0xbcf7166a	-0.030162055
80	0x3c9e8406	0.019350063
81	0xbbfa9af6	-0.0076478673
82	0x3de01327	0.10941153
83	0xbcf6fda5	-0.030150244
84	0x3ddd4a04	0.10805133
85	0x3d3551e3	0.044267546
86	0x3d8cdbaf	0.06877839
87	0xbdcebdf5	-0.10094825
88	0x3d9d52d7	0.07681816
89	0x3ce58822	0.028019015
90	0x3d10433a	0.035220362
91	0xbcd78713	-0.026309526
92	0xbe24fcd7	-0.16112076
93	0x3c414685	0.011796598
94	0x3dd67c72	0.10472955
95	0x3cad52e6	0.021157693
96	0xbc652487	-0.01398576
97	0x3dacad3d	0.0843148
98	0x3cf88b50	0.030339867
99	0x3d066860	0.032814384
100	0xbd8e39a0	-0.06944585
101	0x3cbac814	0.022800483
102	0xbd58f2e0	-0.052966
103	0x3cdc4762	0.026889507
104	0xbd5bd343	-0.05366827
105	0xbd94536b	-0.07242473
106	0x3d49affe	0.049240105
107	0x3ddaa604	0.10676196
108	0x3cd48a69	0.025944905
109	0x3b24459f	0.0025065911
110	0x390fcf78	0.00013714831
111	0xbbbad1ad	-0.005701265
112	0x3d812346	0.06305556
113	0xbac6c0c9	-0.0015163656
114	0x3cbfe16e	0.023422923
115	0x3c5eb356	0.013592562
116	0xbc5382d2	-0.012909608
117	0xbddd4542	-0.108042255
118	0xbd80bb7e	-0.06285761
119	0x3d97ca63	0.07411649
120	0x3e04661e	0.1292958
121	0x3d740bbe	0.05958151
122	0x3b4389f9	0.0029836877
123	0xbde7e022	-0.11322047
124	0xbd1a90c3	-0.03773571
125	0x3d30a3b2	0.043124862
126	0xbddff08e	-0.10934554
127	0xbd9a7e10	-0.07543576
128	0x3bd79362	0.0065788487
129	0xbe20ec08	-0.15715039
130	0x3d871b90	0.06597054
131	0x39f84220	0.00047351513
132	0x3da0633e	0.07831429
133	0x3dda03d6	0.10645263
134	0x3b684a2f	0.0035444607
135	0x3c89285f	0.016742883
136	0x3d8cfb2f	0.06883847
137	0x3d7492f2	0.05971045
138	0x3c2ba834	0.0104771145
139	0xbd527a7a	-0.051386334
140	0x3d88d10f	0.066805
141	0x3df41687	0.11918359
142	0xbc02c514	-0.007981557
143	0xbc18e4d5	-0.009331902
144	0x3c877e18	0.016539618
145	0x3d88151a	0.0664465
146	0x3c49a0b8	0.012306385
147	0x3d773b82	0.060359485
148	0x3d0f9b8d	0.035060454
149	0xbdd4e0d6	-0.103944466
150	0x3daea8dd	0.08528302
151	0xbd9f853e	-0.07789086
152	0x3da37557	0.07981365
153	0xb9d18529	-0.00039962798
154	0xbcb76da0	-0.02239114
155	0x3d841682	0.064496055
156	0xbc1ec5ae	-0.009690685
157	0x3dbc8fa0	0.09207082
158	0xbc3a2e6b	-0.011363606
159	0x3e01ca2b	0.12674777
160	0xbd968836	-0.07350199
161	0x3d9de5a5	0.07709817
162	0x3d3236cc	0.04350929
163	0xbdb65f8a	-0.089049414
164	0x3d11a60b	0.03555874
165	0x3d0afc75	0.033932168
166	0x3dab18f7	0.08354371
167	0x3dbb070d	0.09132204
168	0xbdde4231	-0.10852469
169	0xbd03bec2	-0.032164343
170	0xbb839798	-0.004015874
171	0x3c8218ff	0.01588106
172	0x3d46ee61	0.04856718
173	0x3d17626b	0.036959093
174	0xbde90aa8	-0.11378986
175	0xbd2be2cc	-0.041964337
176	0x3dd83c34	0.10558358
177	0xbdb91e68	-0.09039003
178	0xbda9a8da	-0.08284159
179	0x3e06a6f2	0.13149622
180	0x3c958c99	0.018255519
181	0x3dbdd574	0.092692286
182	0xbd9061c6	-0.07049899
183	0x3dd78633	0.10523643
184	0xbd96003f	-0.07324266
185	0xbe132c51	-0.14372374
186	0xbc3e5cd7	-0.011618814
187	0x3df8557e	0.12125681
188	0xbde1fb55	-0.11034266
189	0xbbde2ca9	-0.0067802262
190	0x3de269a9	0.11055309
191	0x3c86b6d9	0.01644461
192	0x3c485adc	0.012228694
193	0xbd367910	-0.044549048
194	0x3d4ed961	0.050500277
195	0xbd061ce1	-0.032742385
196	0x3cef57ce	0.029216673
197	0x3e1983b5	0.14991648
198	0x3c8f9aa3	0.017529791
199	0xba7cfee1	-0.0009651017

ntm.controller.lstm_c_bias f4 [2, 1, 100]
0	0xbe0a563a	-0.13509455
1	0xbc206e16	-0.0097918715
2	0xba1eb6ff	-0.000605449
3	0x3de24b26	0.1104949
4	0xbc07200f	-0.008247389
5	0xbd239456	-0.039936386
6	0xbde262bf	-0.110539906
7	0x3d0d56c1	0.034506563
8	0x3ccf84b6	0.025331836
9	0xbcbd0465	-0.023073385
10	0x3d849819	0.06474323
11	0x3d870717	0.06593149
12	0x3ccbe085	0.024887333
13	0x3dd40c32	0.103538886
14	0xbd991938	-0.07475513
15	0xbd9eb909	-0.077501364
16	0x3c8b9b23	0.017041748
17	0x3d215f35	0.039397437
18	0xbd05c852	-0.032661743
19	0x3d670b42	0.05640722
20	0x3d04ec97	0.032452192
21	0xbd2f33ba	-0.04277394
22	0xbda912cc	-0.08255538
23	0x3ca3f068	0.020012096
24	0xbc07ea9a	-0.008295679
25	0xbc5bd439	-0.013417297
26	0xbd9640d2	-0.07336582
27	0x3db37394	0.08762279
28	0x3d40ee34	0.04710217
29	0x3d2d1584	0.042256847
30	0xbd548ac9	-0.05189017
31	0x3d0139e9	0.031549368
32	0xbc8f614b	-0.017502448
33	0xbe5bd90d	-0.21469517
34	0xbd007f79	-0.031371567
35	0x3c3da856	0.011575779
36	0xbe46aceb	-0.194019
37	0x3d008cc1	0.031384233
38	0x3c3e938e	0.0116318595
39	0x3d4f6821	0.050636414
40	0xbde5593a	-0.11198659
41	0x3d383f3a	0.044982173
42	0x3d244167	0.040101435
43	0x3e386fbd	0.18011375
44	0x3d07c317	0.033145037
45	0xbcf50e7f	-0.029914139
46	0x3c5789ab	0.013155381
47	0x3c43588a	0.011922965
48	0x3b8d54c6	0.0043130843
49	0xbd9823af	-0.07428681
50	0xbcf5abf9	-0.02998923
51	0xbd3b1445	-0.045673627
52	0x3e0cd795	0.13754113
53	0xbe0d3d60	-0.13792944
54	0xbd44f221	-0.048082475
55	0xbd397032	-0.045273013
56	0xbdc96513	-0.098337315
57	0x3cbd7da2	0.023131195
58	0x3c01e852	0.007928925
59	0x3c6f2cc8	0.014598079
60	0xbde52a37	-0.111896925
61	0x3dc61915	0.09672753
62	0x3c8f4469	0.017488675
63	0x3bbdc31e	0.005791082
64	0x3cd81e61	0.026381673
65	0xbc2bdf5e	-0.010490267
66	0xbcca66bd	-0.024707193
67	0x3d21df36	0.03951951
68	0x3c0c9463	0.0085803
69	0x3d678e54	0.05653222
70	0x3de24736	0.11048739
71	0xbd198648	-0.037481576
72	0xbcf66893	-0.030079162
73	0x3d8097d4	0.06278959
74	0x3bc69dd7	0.0060612964
75	0xbdc36c43	-0.09542134
76	0xbe094fe3	-0.1340938
77	0xbc70a127	-0.014686859
78	0xbc001544	-0.00781757
79	0xbd4a93bf	-0.049457308
80	0x3a13c588	0.00056370394
81	0x3c9ffea3	0.0195306
82	0xbd9f7e16	-0.07787721
83	0xbdcc655e	-0.09980272
84	0x3d7a09da	0.06104455
85	0xbcaecd22	-0.02133805
86	0x3da896c9	0.08231885
87	0x3d232d76	0.039838277
88	0xbd939141	-0.07205439
89	0xbdca4449	-0.098763056
90	0x3d6f66e7	0.058447745
91	0x3da9c0eb	0.08288749
92	0xbd5ab641	-0.053396467
93	0xbdc6eafa	-0.09712787
94	0x3d11c8de	0.035591953
95	0xbdda900a	-0.106720045
96	0xbcf790ea	-0.030220468
97	0xbd23091f	-0.03980362
98	0x3ddd76fa	0.108137086
99	0xbd031da2	-0.032010682
100	0xbca8a66f	-0.020587174
101	0x3ab9d577	0.0014177997
102	0xbd8320d4	-0.06402746
103	0xbd3e829a	-0.04651127
104	0xbd8348ac	-0.064103454
105	0xbdabd873	-0.08390894
106	0x3d915bc1	0.07097579
107	0xbb64e04a	-0.0034923726
108	0xbc399b33	-0.011328506
109	0x3d5e9eff	0.05435085
110	0x3d182f1f	0.037154313
111	0xbde93779	-0.11387534
112	0x3da36813	0.07978835
113	0xbca876ed	-0.02056452
114	0x3d1a0f12	0.03761203
115	0x3bb21ac4	0.0054353196
116	0x3dc1cd86	0.094630286
117	0x3c911b69	0.017713265
118	0xba23e028	-0.00062513584
119	0xbd03ff9c	-0.03222619
120	0x3e0fd239	0.14045037
121	0xbcb61f94	-0.022231854
122	0xbcc7d2c8	-0.0243925
123	0x3d2cf61f	0.042226907
124	0x3d2d651c	0.042332754
125	0xbcf70e19	-0.03015809
126	0xbd25d752	-0.04048855
127	0x3db40eda	0.08791895
128	0xbda0e6bc	-0.07856509
129	0x3caea4b3	0.02131877
130	0xb9e50334	-0.0004368067
131	0x3ced21ee	0.028946843
132	0x3d2ad26a	0.041704573
133	0x3db12da0	0.086512804
134	0x3ceb739c	0.02874165
135	0xbcb96c69	-0.022634702
136	0xbd927e12	-0.07152952
137	0xbde8cfd7	-0.11367767
138	0x3e2e8fbd	0.1704702
139	0xbda7d1a7	-0.08194285
140	0x3c5c261d	0.013436821
141	0x3d092e8d	0.03349166
142	0xbcd0b65b	-0.025477579
143	0x3e08babb	0.13352482
144	0x3de297ba	0.11064096
145	0x3dbe7b8c	0.093009084
146	0x3db37d29	0.08764107
147	0xbd54e7bd	-0.051978815
148	0x3dff157d	0.124552704
149	0xbd8c763f	-0.06858491
150	0x3c352431	0.011055992
151	0xbda09e8c	-0.078427404
152	0x3debf33d	0.115210034
153	0xbdb6f8f9	-0.089342065
154	0xbc75a907	-0.014993913
155	0x3d6bbd85	0.057553787
156	0x3dbd70e6	0.09250049
157	0x3d3ca123	0.04605211
158	0x3c11ead6	0.008906087
159	0xbd37b5a0	-0.044850945
160	0x3d3b9d9c	0.045804605
161	0xbdd8dd51	-0.10589088
162	0xbcb62972	-0.02223656
163	0x3c81c560	0.015841186
164	0x3d25f0e4	0.040512934
165	0xbcd3d431	-0.025858017
166	0x3cbbbe03	0.022917753
167	0xbcdee010	-0.02720645
168	0xbabb7268	-0.0014301063
169	0xbdcf7660	-0.1013
170	0x3adb2c7e	0.0016721634
171	0xbd8d894e	-0.069109544
172	0x3dc27608	0.09495169
173	0xbda0dc85	-0.07854561
174	0x3c17ad18	0.009257577
175	0xbd8b028e	-0.06787597
176	0x3d567c24	0.052364483
177	0x3d7adb8a	0.061244525
178	0x3e00d041	0.12579443
179	0x3d9e984b	0.07743891
180	0x3d950e5f	0.07278132
181	0xbb9332e9	-0.004492153
182	0x3c6bd8dc	0.014394965
183	0xbd214d3a	-0.03938029
184	0xbbf8d6ff	-0.007593989
185	0x3c1890a2	0.009311827
186	0x3d4e3e97	0.05035266
187	0xb9df8ae9	-0.0004263737
188	0x3cbdf95f	0.023190198
189	0xbe1a2e8a	-0.15056816
190	0x3d2e97f8	0.042625397
191	0xbc86b357	-0.016442938
192	0xbda8efe8	-0.082488835
193	0x3b66466a	0.0035137185
194	0x3c31e587	0.010857946
195	0xbd87a7a6	-0.06623773
196	0xbcef2230	-0.029191107
197	0x3c97ae56	0.018515747
198	0xbd45e7f4	-0.04831691
199	0xbc3042a6	-0.010758078

ntm.controller.lstm.weight_ih_l0 f4 [400, 103]
0	0xbe82f567	-0.25577852
1	0x3ea694bf	0.3253536
2	0x3e2c8af8	0.16849887
3	0x3e0491ab	0.12946193
4	0x3ea24858	0.3169582
5	0x3d3d2ce6	0.046185397
6	0x3c8be52e	0.017077055
7	0x3e90754c	0.2821449
8	0x3e93ae54	0.2884394
9	0xbd7d04e2	-0.061772235
10	0x3eda0c9d	0.42587748
11	0xbdc6f5bf	-0.09714841
12	0x3e910dff	0.2833099
13	0xbd1f6b5a	-0.038920738
14	0x3df8548d	0.12125502
15	0xbe372db6	-0.17888531
16	0xbe5000f1	-0.20312859
17	0x3defe75f	0.117140524
18	0x3e5a00aa	0.21289316
19	0x3d5d8548	0.054082185
20	0x3e5e13ef	0.21687292
21	0x3ea52453	0.32254276
22	0x3db0ceff	0.08633231
23	0x3e52adf4	0.2057417
24	0xbe63e6b1	-0.2225597
25	0xbe8ea371	-0.2785907
26	0xbd9006dd	-0.07032559
27	0xbe830429	-0.2558911
28	0x3d38add4	0.04508765
29	0xbdc399ca	-0.09550817
30	0xbda041d5	-0.078250565
31	0xbe28d72b	-0.1648833
32	0x3eb4c644	0.35307515
33	0x3ee59ad7	0.44844696
34	0xbeb1ccd9	-0.347266
35	0xbe696b5f	-0.22794865
36	0xbe10d9b4	-0.14145547
37	0xbe8ddc66	-0.27707213
38	0x3e529c35	0.20567401
39	0x3dafd67a	0.0858583
40	0x3e24ed81	0.16106226
41	0xbdde146e	-0.108437404
42	0xbb6a1ce3	-0.0035722784
43	0x3ede2f9a	0.43395692
44	0xbe1dcc72	-0.15410021
45	0x3e3e127f	0.18561743
46	0xbeb590ad	-0.3546194
47	0xbd833820	-0.06407189
48	0xbdb3eebc	-0.08785769
49	0xbd88ab00	-0.06673241
50	0x3e8139f7	0.25239536
51	0x3e2f8717	0.17141376
52	0xbe955b80	-0.2917137
53	0x3e3cf992	0.18454579
54	0x3e27f49f	0.1640191
55	0x3e573284	0.21015364
56	0x3d8518fd	0.06498907
57	0x3e44cf21	0.19219638
58	0x3e859b38	0.26094985
59	0x3e8d1464	0.2755462
60	0xbe3715f4	-0.17879468
61	0xbdde1fad	-0.108458854
62	0xbe718744	-0.23586756
63	0xbe763fe5	-0.24047811
64	0x3e405497	0.18782268
65	0xbe790ed6	-0.24322066
66	0x3e946d0b	0.28989443
67	0x3e598591	0.21242358
68	0x3ebcd7af	0.36883304
69	0x3e13fa25	0.14450891
70	0x3e459c70	0.19297957
71	0x3e2ae281	0.16687967
72	0x3e5c17a9	0.214934
73	0xbe891123	-0.26770887
74	0x3d8ac235	0.06775323
75	0xbdceb4fc	-0.10093114
76	0xbe7c8cff	-0.2466316
77	0xbdac79a8	-0.084216416
78	0xbe8b418c	-0.27198446
79	0xbd8f4e0f	-0.0699731
80	0x3b722c28	0.0036952589
81	0xbe837a9f	-0.2567949
82	0x3e95d727	0.2926571
83	0xbe04459c	-0.12917179
84	0xbc0694e6	-0.008214211
85	0x3db771d0	0.08957255
86	0x3e43f3cb	0.19135968
87	0x3de0aa32	0.10969962
88	0x3d8d8077	0.06909268
89	0x3e24c029	0.16088928
90	0x3e42f257	0.19037758
91	0x3d0ebdb8	0.0348489
92	0x3da84d58	0.08217877
93	0xbddebfd2	-0.108764306
94	0x3ccaa217	0.024735494
95	0xbda6bc53	-0.08141389
96	0xbe1810b9	-0.14850129
97	0x3e4d7711	0.20064951
98	0x3e3c238a	0.18372932
99	0x3ece38d9	0.40277746
100	0x3e1e44ce	0.15455934
101	0xbdaf747c	-0.085671395
102	0x3eac9adc	0.33711898
103	0xbd5aae83	-0.053389084
104	0x3e5cf56a	0.21577993
105	0x3e890fa8	0.26769757
106	0xbd997ba8	-0.07494289
107	0xbe6d5c00	-0.23179626
108	0xbe68e3e2	-0.2274318
109	0xbd9fb601	-0.07798386
110	0x3e25a6e3	0.16176943
111	0xbde89958	-0.11357373
112	0x3e909893	0.28241405
113	0x3ea88864	0.32916558
114	0xbda34a93	-0.07973208
115	0xbe508ff3	-0.20367412
116	0xbd76a0da	-0.060211994
117	0xbe980be2	-0.29696566
118	0xbe00c7fb	-0.12576286
119	0xbdca1f1a	-0.098692134
120	0xbdf93281	-0.12167836
121	0x3ec45978	0.3834951
122	0x3e97b137	0.29627392
123	0xbe84e4dd	-0.2595586
124	0xbe32d8cf	-0.17465518
125	0xbe16b600	-0.14717865
126	0xbe15994c	-0.1460926
127	0xbe20f357	-0.15717827
128	0xbdefd8ed	-0.11711297
129	0xbdb9bbdc	-0.090690345
130	0x3d84258e	0.064524755
131	0xbebe0832	-0.37115628
132	0xbd88a661	-0.06672359
133	0xbe5a88df	-0.21341275
134	0xbc66eef6	-0.014095059
135	0x3e28aaaa	0.16471353
136	0xbea50af1	-0.3223491
137	0x3cd2b938	0.025723085
138	0xbe14f55a	-0.14546719
139	0xbeb4382e	-0.35199112
140	0x3eb29212	0.34877068
141	0x3e3efa41	0.18650152
142	0xbe7125a7	-0.2354952
143	0x3df72284	0.1206713
144	0xbd883e27	-0.066524796
145	0x3e78a49f	0.24281548
146	0xbcb16b24	-0.021657534
147	0x3ddba4bc	0.1072478
148	0x3d76f88e	0.060295634
149	0x3e1279ba	0.14304247
150	0x3d22968c	0.039694354
151	0xbc48fc80	-0.012267232
152	0x3e5767ad	0.21035643
153	0xbe720617	-0.23635136
154	0xbd5d55cb	-0.054036897
155	0x3e0b9575	0.13631232
156	0xbd04e184	-0.03244163
157	0xbecabf3c	-0.39599025
158	0x3cab1559	0.020884203
159	0x3c2f623d	0.010704574
160	0xbda3f686	-0.08006005
161	0x3e1cefaa	0.153258
162	0x3e2149ae	0.15750763
163	0xbe95dfe2	-0.29272372
164	0x3eb4c23a	0.35304433
165	0x3e96361a	0.2933815
166	0x3dead5ea	0.11466582
167	0xbeba887d	-0.36432257
168	0x3ddf7ba2	0.10912253
169	0x3cdef924	0.027218409
170	0xbe558178	-0.2085017
171	0xb8acf694	-8.247528e-05
172	0x3e8011a2	0.25013453
173	0x3e91506f	0.28381678
174	0xbe282882	-0.16421703
175	0xbd1c70cb	-0.038193505
176	0xbe40c658	-0.18825662
177	0xbeae2ebe	-0.34020036
178	0x3d01fb98	0.03173408
179	0xbea7972c	-0.32732522
180	0x3d2a04fa	0.041508652
181	0x3e8c3207	0.27381918
182	0x3eabd21c	0.33558738
183	0x3e550846	0.20803937
184	0xbadd3114	-0.0016875588
185	0x3e6e42f4	0.23267728
186	0xbe2a5c98	-0.16636884
187	0xbe853010	-0.2601323
188	0x3ea41e07	0.3205416
189	0xbe9959aa	-0.2995122
190	0xbe1358cc	-0.14389342
191	0xbec8d412	-0.39224297
192	0xbea980f4	-0.33106196
193	0x3e8fd3ae	0.28091186
194	0x3e1e4d31	0.15459134
195	0xbe932fc7	-0.2874739
196	0xbe75c8c7	-0.24002372
197	0x3e5bb61d	0.2145619
198	0x3c527596	0.0128454175
199	0xbeaaa85d	-0.33331576
200	0xbeb49bd7	-0.35275146
201	0xbe52728b	-0.20551507
202	0x3eca9e04	0.3957368
203	0xbdeee072	-0.11663903
204	0xbcca7f37	-0.024718864
205	0xbdb09e7c	-0.086239785
206	0xbed56694	-0.41679823
207	0x3f641b18	0.8910384
208	0x3e5e55ae	0.21712372
209	0x3b762d78	0.0037563723
210	0xbe855d42	-0.26047713
211	0x3e7a0c58	0.24418771
212	0xbed919aa	-0.42402393
213	0x3e70d656	0.23519263
214	0xbe508403	-0.20362858
215	0x3e668f1e	0.22515532
216	0x3ea0fd83	0.31443414
217	0x3d3659b5	0.044519145
218	0x3e47a512	0.19496563
219	0xbe33168e	-0.17489073
220	0x3bb00b6a	0.0053724544
221	0x3c145f58	0.009055935
222	0xbdaee485	-0.085396804
223	0xbea65b16	-0.32491368
224	0xbe72d43d	-0.23713775
225	0xbe679d11	-0.2261851
226	0xbea387fd	-0.31939688
227	0xbe02e27e	-0.12781712
228	0xbe82c041	-0.25537303
229	0x3e734869	0.23758091
230	0xbe2e263d	-0.17006774
231	0xbcd4c7cf	-0.025974182
232	0x3df8c829	0.121475525
233	0xbe30dcc5	-0.17271717
234	0xbb2d9d24	-0.0026491368
235	0x3e876c0b	0.26449618
236	0xbe31cd41	-0.17363454
237	0x3d8ce43d	0.068794705
238	0xbecedea1	-0.40404227
239	0x3e8b4caa	0.27206928
240	0xbe8ff470	-0.2811618
241	0xbe413323	-0.18867163
242	0x3e702bed	0.23454256
243	0xbe266a4d	-0.16251488
244	0x3e20b42e	0.15693733
245	0xbe9fc6e1	-0.3120642
246	0xbe6f38f5	-0.23361571
247	0x3c956292	0.018235479
248	0x3ebdb475	0.3705174
249	0xbed4569c	-0.41472328
250	0xbdcea3d7	-0.10089844
251	0x3e5d23b7	0.21595655
252	0xbcf2ebb6	-0.029653411
253	0xbd066eaf	-0.0328204
254	0x3e578666	0.21047363
255	0x3ead4bce	0.33846897

ntm.controller.lstm.weight_hh_l0 f4 [400, 100]
0	0xbdf3efd4	-0.11910978
1	0x3cea3479	0.028589474
2	0xbd78a782	-0.060706623
3	0xbda2fc8f	-0.07958328
4	0xbbf02ef7	-0.0073298174
5	0x3dfc1b6e	0.12309919
6	0xbe6e7544	-0.23286921
7	0x3e02ce8f	0.12774108
8	0x3e99ca92	0.3003736
9	0x3e89cbc6	0.2691328
10	0xbe6ea267	-0.23304139
11	0xbe040d7f	-0.12895773
12	0xbe847f3b	-0.2587832
13	0x3d11e303	0.035616886
14	0x3e84d1e2	0.25941378
15	0xbd685e95	-0.056730825
16	0x3ed05195	0.40687242
17	0xbd39dff2	-0.045379587
18	0xbe4bc9f0	-0.19901252
19	0x3e9e8a41	0.30964854
20	0xbe121733	-0.14266662
21	0xbe084f84	-0.13311583
22	0xbd9b2fe5	-0.075774945
23	0xbe373d79	-0.17894544
24	0xbe56872b	-0.2095
25	0xbe60ae17	-0.2194141
26	0xbe838b37	-0.2569215
27	0xbe83f9d8	-0.25776553
28	0x3e2b0aed	0.16703387
29	0xbe90ac15	-0.28256288
30	0xbe628328	-0.22120345
31	0x3eb34f48	0.35021424
32	0xbd4758a6	-0.048668526
33	0x3c8b9eb1	0.017043443
34	0x3e8ed9fe	0.2790069
35	0x3dfa2d25	0.12215642
36	0xbe38a337	-0.18031012
37	0x3e3e8303	0.18604665
38	0xbdd4fcc0	-0.10399771
39	0xbe872fa1	-0.26403525
40	0xbddf324e	-0.10898267
41	0x3c35086f	0.011049374
42	0x3e2968fd	0.16543956
43	0xbc9bc65a	-0.01901548
44	0xbd464036	-0.04840108
45	0x3e7e2064	0.24817044
46	0x3dda7ebd	0.10668705
47	0x3df952e7	0.121740155
48	0x3d5fff20	0.054686666
49	0x3df0a0c0	0.11749411
50	0xbd9633a1	-0.07334066
51	0x3cf5d1d8	0.030007288
52	0x3e17ad21	0.14812137
53	0x3e80beba	0.25145513
54	0x3e6e7dd4	0.23290187
55	0xbee30dfb	-0.44346604
56	0xbebf9147	-0.37415525
57	0x3d47cf6e	0.048781805
58	0x3e182ff5	0.14862044
59	0xbe365104	-0.17804343
60	0x3e6183ed	0.22022982
61	0xbe359ce2	-0.17735627
62	0xbdda974d	-0.106733896
63	0x3e5d55d1	0.21614768
64	0x3f0544dc	0.52058196
65	0x3de6c357	0.11267727
66	0xbec62a88	-0.38704324
67	0x3d9bc4f2	0.07605924
68	0x3dee94bd	0.11649463
69	0xbdf0cb22	-0.117574945
70	0xbeba35cf	-0.36369178
71	0xbe196e95	-0.1498359
72	0x3e833c3b	0.2563189
73	0xbdeeec70	-0.116661906
74	0x3e665c2d	0.224961
75	0xbe25dc85	-0.16197403
76	0xbcc81921	-0.024426045
77	0xbe72177e	-0.23641774
78	0x3e5a96cc	0.21346587
79	0x3e809b5a	0.25118524
80	0x3e36d23c	0.17853636
81	0xbe95c8e5	-0.29254833
82	0xbd3c531c	-0.045977697
83	0xbea92203	-0.3303376
84	0x3e7cb27e	0.24677464
85	0xbeecb60e	-0.46232647
86	0xbd7b192a	-0.061303295
87	0x3e6bc944	0.23025995
88	0x3dce7da9	0.100825615
89	0x3e34a8e9	0.17642559
90	0x3e3b2647	0.1827632
91	0x3d5a282a	0.05326096
92	0x3e83c2e3	0.25734624
93	0xbdd897ef	-0.10575854
94	0x3ecf1042	0.4044209
95	0x3d9be2f4	0.07611647
96	0xbcdaf6ef	-0.026729075
97	0x3e92e9a3	0.28693876
98	0x3e6e6469	0.23280491
99	0xbdd7df91	-0.10540689
100	0xbca93091	-0.020653041
101	0x3e4e1849	0.20126452
102	0xbe3faa94	-0.18717414
103	0x3e360f32	0.17779234
104	0xbea1310e	-0.31482738
105	0xbdb4561a	-0.08805485
106	0xbe26de15	-0.16295655
107	0xbe3e586a	-0.18588415
108	0xbc88e72b	-0.016711792
109	0x3e1397e5	0.14413412
110	0xbe47a44b	-0.19496267
111	0xbde93d09	-0.11388595
112	0x3cdf7050	0.027275234
113	0x3cc9f980	0.024655104
114	0xbeac96b7	-0.33708736
115	0xbea685cb	-0.3252395
116	0x3d565b32	0.052333064
117	0x3db3a616	0.08771913
118	0x3e2f2e70	0.17107558
119	0xbd1a34f1	-0.037648145
120	0xbd1d56e9	-0.038412962
121	0xbe55abb0	-0.20866275
122	0xbe0413f8	-0.12898242
123	0xbdcdb41e	-0.1004412
124	0x3d37d8e6	0.044884585
125	0x3cb5e646	0.02220453
126	0x3e52b7ec	0.20577973
127	0xbba6571a	-0.0050763013
128	0xbe847825	-0.25872913
129	0x3e6aaf32	0.22918394
130	0xbe54bfd6	-0.20776305
131	0x3e59ac1f	0.21257065
132	0x3e91d17e	0.28480142
133	0xbd86c91f	-0.065813296
134	0xbe996c55	-0.29965463
135	0xbdd8665c	-0.105663985
136	0xbde86413	-0.11347213
137	0xbda3afe2	-0.07992531
138	0xbe4c7aff	-0.19968794
139	0x3eae5e73	0.34056434
140	0x3e1eecc9	0.15520014
141	0xbe8978dd	-0.26850024
142	0xbca78a64	-0.020451732
143	0x3e05643a	0.13026515
144	0x3e9577e1	0.29193023
145	0x3def8e34	0.11697045
146	0x3dfd133b	0.123571835
147	0x3d3e10ff	0.046402927
148	0xbeabd024	-0.33557236
149	0xbd4ce28a	-0.050020732
150	0xb991dd4d	-0.00027821437
151	0x3e33f68e	0.17574522
152	0xbdf0ce39	-0.11758084
153	0x3d9ac5d7	0.07557266
154	0x3e57133e	0.21003434
155	0xbe768a64	-0.2407623
156	0x3de5d4b0	0.112222075
157	0x3e4f6c24	0.20256096
158	0xbd5e7d9d	-0.054319013
159	0x3de7cd65	0.11318473
160	0xbd925356	-0.07144801
161	0x3c546615	0.012963791
162	0xbdad6046	-0.08465628
163	0xbe1c82d0	-0.15284276
164	0xbc9fa12d	-0.019486034
165	0x3e93cf74	0.28869212
166	0xbc9dc436	-0.0192586
167	0x3d76095f	0.06006753
168	0x3ed0f9dc	0.40815628
169	0xbe3870f6	-0.18011841
170	0x3e1572a8	0.14594519
171	0xbce6185d	-0.02808779
172	0x3e268365	0.1626106
173	0xbe34885f	-0.17630146
174	0x3e0fd5a8	0.14046347
175	0x3e9ff7e5	0.31243816
176	0x3b78902d	0.0037927732
177	0x3e961f33	0.29320678
178	0xbec52772	-0.38506657
179	0x3e2de236	0.16980824
180	0xbd68ebef	-0.05686563
181	0xbe838992	-0.25690895
182	0xbbdb83da	-0.0066990675
183	0x3e370e14	0.17876464
184	0xbe7bd7ee	-0.2459409
185	0x3d4bbaba	0.049738623
186	0xbdcbdd0d	-0.099542715
187	0x3c9ac9c2	0.018895034
188	0xbde52702	-0.11189081
189	0x3e6c9eca	0.23107448
190	0xbe697d18	-0.22801626
191	0x3b96b8b5	0.0045996555
192	0xbe1082eb	-0.14112441
193	0xbe681955	-0.22665913
194	0x3dfa5ab8	0.122243345
195	0x3e24d411	0.16096522
196	0xbe27cd59	-0.16386928
197	0xbe19531b	-0.14973108
198	0xbe5b3cb5	-0.21409877
199	0xbe98a80e	-0.29815716
200	0x3edf3fb8	0.436033
201	0xbe8bb0e3	-0.2728339
202	0xbe882749	-0.26592472
203	0xbe1dc28c	-0.15406245
204	0xbe3ea8b3	-0.18619041
205	0x3e20f9e9	0.15720333
206	0xbe5f311a	-0.21796075
207	0xbe13c428	-0.14430296
208	0xbe843170	-0.25818968
209	0x3e721a57	0.2364286
210	0xbdff78eb	-0.12474235
211	0x3edbaa95	0.4290358
212	0xbe279098	-0.16363752
213	0xbd32a43e	-0.043613665
214	0x3eff8f2b	0.49913916
215	0xbe86e121	-0.26343635
216	0xbcbc37bb	-0.022975793
217	0xbe8d850f	-0.27640578
218	0x3e8b3f0a	0.27196532
219	0x3ea290f9	0.3175123
220	0x3e869b7d	0.26290503
221	0x3e90b639	0.28264025
222	0xbad279e5	-0.0016058056
223	0xbe251c9a	-0.16124192
224	0xbd31aaa3	-0.043375622
225	0x3dbe912b	0.09305032
226	0x3eab064f	0.3340325
227	0xbe9fb079	-0.31189325
228	0x3d762aee	0.060099535
229	0xbe1905c8	-0.14943612
230	0x3e3afc7e	0.1826038
231	0xbecdede0	-0.40220547
232	0xbed0b640	-0.40764046
233	0xbd7b0380	-0.061282635
234	0xbe4c88fa	-0.19974127
235	0x3e0e85a5	0.13918169
236	0xbe8b62b3	-0.2722374
237	0x3e00457c	0.12526506
238	0x3e6984aa	0.22804514
239	0x3d9c9a5a	0.07646628
240	0xbe811d79	-0.25217798
241	0x3e4ee137	0.202031
242	0x3edcbf61	0.4311476
243	0xbeb9ba89	-0.36275128
244	0xbd2e1d43	-0.042508375
245	0xbd8f11dd	-0.06985829
246	0x3eba0cad	0.36337796
247	0x3d85d4fa	0.06534763
248	0xbdaa96d5	-0.0832955
249	0x3e5e3b8d	0.21702404
250	0xbbf26672	-0.0073974663
251	0x3e8bd642	0.27311903
252	0x3d4f80ca	0.050659932
253	0xbb548264	-0.0032426352
254	0x3dd1bdf8	0.10241312
255	0xbd81f955	-0.063463844

ntm.controller.lstm.bias_ih_l0 f4 [400]
0	0x3d907ab8	0.07054657
1	0xbd81f199	-0.06344909
2	0xbd1f60d9	-0.03891072
3	0xbd9059b4	-0.070483595
4	0xbd30a358	-0.043124527
5	0x3da3c06e	0.079956874
6	0xbd5f52b7	-0.054522242
7	0xbd0c9654	-0.03432305
8	0xbd85c4a4	-0.06531647
9	0xbcd9af24	-0.026572771
10	0x3d252ea7	0.040327694
11	0xbc83130f	-0.016000299
12	0xb58d1300	-1.0510848e-06
13	0x3cd50aae	0.026006069
14	0x3de42300	0.11139488
15	0xbd80b5fd	-0.062847115
16	0xbd5df642	-0.054189928
17	0x3c681156	0.014164289
18	0xbddaca8e	-0.106831655
19	0xbe292416	-0.16517672
20	0xbe132438	-0.14369285
21	0xbdbded47	-0.09273773
22	0xbd623aeb	-0.05523197
23	0xbdc8359f	-0.097758524
24	0xbdbb2bbd	-0.09139202
25	0xbd0ac83f	-0.033882376
26	0xbd8aef93	-0.067839764
27	0xbc6c2b08	-0.014414556
28	0xbd5be611	-0.053686205
29	0xbe1d716a	-0.15375295
30	0xbd9342ee	-0.071905
31	0xbe21d4d9	-0.15803851
32	0xbdb05773	-0.086104296
33	0xbdfd4df3	-0.12368383
34	0xbd9029d0	-0.07039225
35	0xbd89cb89	-0.067282744
36	0xbd248f94	-0.04017599
37	0xbd99ba40	-0.075062275
38	0xbd384818	-0.04499063
39	0xbd860c5e	-0.065453276
40	0xbd87e85f	-0.06636118
41	0xbca457b4	-0.020061351
42	0xbb69e12a	-0.0035687187
43	0xbd1f718f	-0.038926657
44	0xbd5f4e8f	-0.05451828
45	0xbd218c2e	-0.039440326
46	0xbcaeff0a	-0.021361846
47	0xbe21565e	-0.15755603
48	0xbdaa8fa1	-0.08328176
49	0xbdd9c03e	-0.106323704
50	0xbbff6254	-0.007793704
51	0xbde5a9a0	-0.11213994
52	0xbd81c872	-0.0633706
53	0xbca8017d	-0.020508522
54	0xbe0c5330	-0.13703609
55	0xbe90bd1a	-0.28269273
56	0xbc71e725	-0.014764582
57	0x3d1b53fe	0.037921898
58	0x3cade303	0.021226412
59	0xbb932499	-0.0044904468
60	0xbbef9938	-0.0073119663
61	0xbce303d8	-0.027711794
62	0xbda92202	-0.082584396
63	0x3ca5c16f	0.020233838
64	0x3bf2be3b	0.007407931
65	0xbccffc0f	-0.025388746
66	0xbe2254e0	-0.1585269
67	0xbd09db54	-0.033656433
68	0xbd2dded3	-0.04244883
69	0xbce6920c	-0.028145812
70	0xbdeeb499	-0.1165554
71	0x3cb16b5e	0.021657642
72	0x3dfaafc2	0.122405544
73	0xbd508f22	-0.050917752
74	0x3a93e959	0.0011284753
75	0xbd6554a4	-0.055988923
76	0xbd6706bf	-0.056402918
77	0xbc4eb6db	-0.012616838
78	0xbda211e9	-0.07913572
79	0xbdc10fa5	-0.09426812
80	0xbba5309e	-0.005041196
81	0xbcc95911	-0.024578603
82	0x3e87099d	0.26374522
83	0xbdae53e1	-0.085120924
84	0xbddaaddd	-0.10677693
85	0xbdf8cfcc	-0.12149009
86	0x3d6f4f5a	0.058425285
87	0xbce6ebc0	-0.028188586
88	0xbe025f6b	-0.12731712
89	0xbd4126e3	-0.047156226
90	0xbbff2a86	-0.0077870516
91	0xbd70e38a	-0.05881075
92	0xbe01218f	-0.12610458
93	0xbd6c85c4	-0.057744756
94	0xbd13b4c0	-0.03606105
95	0xbd28ff23	-0.041258942
96	0xbdca973f	-0.09892129
97	0xbdb51ded	-0.088435985
98	0xbba25095	-0.004953454
99	0xbd3581fc	-0.044313416
100	0xbccf022b	-0.025269588
101	0xbc58cc13	-0.013232249
102	0xbc7b3cf2	-0.015334355
103	0xbcc6f1c2	-0.024285201
104	0xbd081f82	-0.033233173
105	0x3d786389	0.0606418
106	0x3c85e97e	0.01634669
107	0xbd998e93	-0.07497897
108	0x3d289ff5	0.041168172
109	0x3da2f3a9	0.07956631
110	0x3d6ddf07	0.058074024
111	0xbde5fdb4	-0.11230031
112	0x3e1622f5	0.14661773
113	0xbdc4690b	-0.09590348
114	0x3d513122	0.051072247
115	0x3d05586d	0.032555033
116	0xbdd51067	-0.10403519
117	0x3d0a726a	0.03380052
118	0x3d9dd3a3	0.07706382
119	0xbd767b3d	-0.060176123
120	0xbce81b58	-0.028333351
121	0xbdb53dc2	-0.0884967
122	0xbdaaa509	-0.08332259
123	0xbe047484	-0.12935072
124	0xbc0e2657	-0.008676133
125	0xbde56f5d	-0.112028815
126	0xba8021c6	-0.000977569
127	0x3db081f6	0.08618538
128	0x3d2edfed	0.04269402
129	0xbd659839	-0.056053374
130	0xbd33bf02	-0.04388333
131	0xbdb2aba0	-0.08724141
132	0xbd006296	-0.03134402
133	0xb999ca27	-0.0002933305
134	0xbd87ef0a	-0.0663739
135	0x3cf8ad77	0.030356152
136	0xbd315a82	-0.043299206
137	0xbcc31d1a	-0.023817588
138	0xbda74010	-0.08166516
139	0x3c7fc99e	0.015612034
140	0xbca07774	-0.01958821
141	0xbd618ac7	-0.05506399
142	0xbe12851f	-0.14308594
143	0x3cf3f02d	0.02977761
144	0x3d66fb0c	0.05639176
145	0x3d2f9963	0.04287089
146	0xbc3d8e76	-0.01156961
147	0xbdb47645	-0.088116206
148	0x3d7bbd95	0.061460096
149	0x3c7585d4	0.01498552
150	0xbd9772ea	-0.07394965
151	0xbd506972	-0.05088181
152	0xbddf589f	-0.10905575
153	0x3ca7ff8b	0.020507595
154	0xbb992475	-0.0046735355
155	0x3b1dadb2	0.002405983
156	0x3c830b4a	0.015996594
157	0xbe111336	-0.14167485
158	0xbcf29092	-0.029609952
159	0x3defb2b5	0.117040075
160	0xbd79db87	-0.061000373
161	0x3cc2f149	0.023796694
162	0x3cb4bbe9	0.022062259
163	0xbcb378c1	-0.021908166
164	0x3bd85e9d	0.0066030757
165	0x3d9f3ba1	0.07775045
166	0xbe3eeecf	-0.18645786
167	0xbd7e7081	-0.06211901
168	0xbb0914b8	-0.002091689
169	0x3c1badc5	0.009501879
170	0xbdda514c	-0.106600374
171	0xbce0aaef	-0.027425257
172	0xbc2255f1	-0.009908185
173	0x3b71e24b	0.0036908563
174	0x3d3eba2c	0.046564266
175	0x3d1f241f	0.038852807
176	0x395eb7f0	0.00021240092
177	0x3e14b8e9	0.14523663
178	0xbd06a555	-0.032872517
179	0xbe648d63	-0.2231956
180	0xbc9cd417	-0.019144101
181	0xbc87c834	-0.016574956
182	0x3cb86bf6	0.022512417
183	0x3c81fec4	0.015868552
184	0xbcb9c02b	-0.02267464
185	0xbe3bbb3c	-0.18333143
186	0xbd093693	-0.03349931
187	0x3dec7ab5	0.11546842
188	0xbd289ae8	-0.041163355
189	0xbd4f1901	-0.050560955
190	0xbd932a04	-0.07185748
191	0x3c724b40	0.014788449
192	0xbcff2dbc	-0.031149738
193	0x3d87534d	0.06607685
194	0xbd541bf3	-0.051784467
195	0xbdb1a8e2	-0.0867479
196	0xbdb13eba	-0.08654542
197	0xbd401d7d	-0.046903122
198	0x3cd92c39	0.026510345
199	0xbda6a1b0	-0.08136308
200	0xbc25ac44	-0.010111872
201	0x3d06ebf8	0.03293988
202	0x3c81637d	0.01579451
203	0x3bb6e17e	0.00558108
204	0x3d0fa021	0.03506482
205	0xbd891af5	-0.06694595
206	0x3d2036d5	0.039114792
207	0x3c4a1f06	0.012336498
208	0x3af50722	0.0018694142
209	0xbd148354	-0.036258057
210	0x3c3ce6b4	0.011529613
211	0xbb294a78	-0.002583174
212	0x3c4bbe5e	0.012435524
213	0xbc8a6838	-0.016895398
214	0x3c27ff87	0.010253794
215	0x3c838247	0.016053332
216	0xbd441e48	-0.04788044
217	0x3ce4962b	0.027903637
218	0x3cc36358	0.023851082
219	0x3cfff6e4	0.031245656
220	0xbd36a1a1	-0.044587735
221	0x3c92c47f	0.017915962
222	0xbced0468	-0.028932765
223	0x3d9307f3	0.071792506
224	0xbc4d1a51	-0.012518481
225	0x3d8057fa	0.0626678
226	0xbcd25b98	-0.02567844
227	0x3d82a53c	0.06379172
228	0x3beb93f1	0.007189267
229	0x3c8b6027	0.017013622
230	0xbbe85dd7	-0.0070912647
231	0x3d6785b4	0.056523994
232	0x3a19db2a	0.0005869145
233	0x3b8b9868	0.0042601116
234	0x3c3441ab	0.011001985
235	0xbc1f6f76	-0.009731164
236	0xbcff988e	-0.031200673
237	0x3cd48e9e	0.025946911
238	0xbcb6b2ed	-0.022302115
239	0x3b4dc792	0.003139947
240	0x3d228dee	0.039686136
241	0x3bbbb9ba	0.0057289274
242	0xbcef8606	-0.029238712
243	0x3be5b642	0.007010252
244	0x3c1280e2	0.008941861
245	0xbc5dada2	-0.013530167
246	0x3be1e504	0.006893756
247	0xbd057bcb	-0.03258876
248	0x3d31e987	0.0434356
249	0xbc9d9444	-0.019235738
250	0x3d9625d0	0.07331431
251	0xbd81ae0b	-0.06332024
252	0x3d2f4e85	0.04279949
253	0xbcbc6e23	-0.023001736
254	0x3b2c5dbe	0.0026300992
255	0xbd5507cc	-0.05200939

ntm.controller.lstm.bias_hh_l0 f4 [400]
0	0x3d907ab8	0.07054657
1	0xbd81f199	-0.06344909
2	0xbd1f60d9	-0.03891072
3	0xbd9059b4	-0.070483595
4	0xbd30a358	-0.043124527
5	0x3da3c06e	0.079956874
6	0xbd5f52b7	-0.054522242
7	0xbd0c9654	-0.03432305
8	0xbd85c4a4	-0.06531647
9	0xbcd9af24	-0.026572771
10	0x3d252ea7	0.040327694
11	0xbc83130f	-0.016000299
12	0xb58d1300	-1.0510848e-06
13	0x3cd50aae	0.026006069
14	0x3de42300	0.11139488
15	0xbd80b5fd	-0.062847115
16	0xbd5df642	-0.054189928
17	0x3c681156	0.014164289
18	0xbddaca8e	-0.106831655
19	0xbe292416	-0.16517672
20	0xbe132438	-0.14369285
21	0xbdbded47	-0.09273773
22	0xbd623aeb	-0.05523197
23	0xbdc8359f	-0.097758524
24	0xbdbb2bbd	-0.09139202
25	0xbd0ac83f	-0.033882376
26	0xbd8aef93	-0.067839764
27	0xbc6c2b08	-0.014414556
28	0xbd5be611	-0.053686205
29	0xbe1d716a	-0.15375295
30	0xbd9342ee	-0.071905
31	0xbe21d4d9	-0.15803851
32	0xbdb05773	-0.086104296
33	0xbdfd4df3	-0.12368383
34	0xbd9029d0	-0.07039225
35	0xbd89cb89	-0.067282744
36	0xbd248f94	-0.04017599
37	0xbd99ba40	-0.075062275
38	0xbd384818	-0.04499063
39	0xbd860c5e	-0.065453276
40	0xbd87e85f	-0.06636118
41	0xbca457b4	-0.020061351
42	0xbb69e12a	-0.0035687187
43	0xbd1f718f	-0.038926657
44	0xbd5f4e8f	-0.05451828
45	0xbd218c2e	-0.039440326
46	0xbcaeff0a	-0.021361846
47	0xbe21565e	-0.15755603
48	0xbdaa8fa1	-0.08328176
49	0xbdd9c03e	-0.106323704
50	0xbbff6254	-0.007793704
51	0xbde5a9a0	-0.11213994
52	0xbd81c872	-0.0633706
53	0xbca8017d	-0.020508522
54	0xbe0c5330	-0.13703609
55	0xbe90bd1a	-0.28269273
56	0xbc71e725	-0.014764582
57	0x3d1b53fe	0.037921898
58	0x3cade303	0.021226412
59	0xbb932499	-0.0044904468
60	0xbbef9938	-0.0073119663
61	0xbce303d8	-0.027711794
62	0xbda92202	-0.082584396
63	0x3ca5c16f	0.020233838
64	0x3bf2be3b	0.007407931
65	0xbccffc0f	-0.025388746
66	0xbe2254e0	-0.1585269
67	0xbd09db54	-0.033656433
68	0xbd2dded3	-0.04244883
69	0xbce6920c	-0.028145812
70	0xbdeeb499	-0.1165554
71	0x3cb16b5e	0.021657642
72	0x3dfaafc2	0.122405544
73	0xbd508f22	-0.050917752
74	0x3a93e959	0.0011284753
75	0xbd6554a4	-0.055988923
76	0xbd6706bf	-0.056402918
77	0xbc4eb6db	-0.012616838
78	0xbda211e9	-0.07913572
79	0xbdc10fa5	-0.09426812
80	0xbba5309e	-0.005041196
81	0xbcc95911	-0.024578603
82	0x3e87099d	0.26374522
83	0xbdae53e1	-0.085120924
84	0xbddaaddd	-0.10677693
85	0xbdf8cfcc	-0.12149009
86	0x3d6f4f5a	0.058425285
87	0xbce6ebc0	-0.028188586
88	0xbe025f6b	-0.12731712
89	0xbd4126e3	-0.047156226
90	0xbbff2a86	-0.0077870516
91	0xbd70e38a	-0.05881075
92	0xbe01218f	-0.12610458
93	0xbd6c85c4	-0.057744756
94	0xbd13b4c0	-0.03606105
95	0xbd28ff23	-0.041258942
96	0xbdca973f	-0.09892129
97	0xbdb51ded	-0.088435985
98	0xbba25095	-0.004953454
99	0xbd3581fc	-0.044313416
100	0xbccf022b	-0.025269588
101	0xbc58cc13	-0.013232249
102	0xbc7b3cf2	-0.015334355
103	0xbcc6f1c2	-0.024285201
104	0xbd081f82	-0.033233173
105	0x3d786389	0.0606418
106	0x3c85e97e	0.01634669
107	0xbd998e93	-0.07497897
108	0x3d289ff5	0.041168172
109	0x3da2f3a9	0.07956631
110	0x3d6ddf07	0.058074024
111	0xbde5fdb4	-0.11230031
112	0x3e1622f5	0.14661773
113	0xbdc4690b	-0.09590348
114	0x3d513122	0.051072247
115	0x3d05586d	0.032555033
116	0xbdd51067	-0.10403519
117	0x3d0a726a	0.03380052
118	0x3d9dd3a3	0.07706382
119	0xbd767b3d	-0.060176123
120	0xbce81b58	-0.028333351
121	0xbdb53dc2	-0.0884967
122	0xbdaaa509	-0.08332259
123	0xbe047484	-0.12935072
124	0xbc0e2657	-0.008676133
125	0xbde56f5d	-0.112028815
126	0xba8021c6	-0.000977569
127	0x3db081f6	0.08618538
128	0x3d2edfed	0.04269402
129	0xbd659839	-0.056053374
130	0xbd33bf02	-0.04388333
131	0xbdb2aba0	-0.08724141
132	0xbd006296	-0.03134402
133	0xb999ca27	-0.0002933305
134	0xbd87ef0a	-0.0663739
135	0x3cf8ad77	0.030356152
136	0xbd315a82	-0.043299206
137	0xbcc31d1a	-0.023817588
138	0xbda74010	-0.08166516
139	0x3c7fc99e	0.015612034
140	0xbca07774	-0.01958821
141	0xbd618ac7	-0.05506399
142	0xbe12851f	-0.14308594
143	0x3cf3f02d	0.02977761
144	0x3d66fb0c	0.05639176
145	0x3d2f9963	0.04287089
146	0xbc3d8e76	-0.01156961
147	0xbdb47645	-0.088116206
148	0x3d7bbd95	0.061460096
149	0x3c7585d4	0.01498552
150	0xbd9772ea	-0.07394965
151	0xbd506972	-0.05088181
152	0xbddf589f	-0.10905575
153	0x3ca7ff8b	0.020507595
154	0xbb992475	-0.0046735355
155	0x3b1dadb2	0.002405983
156	0x3c830b4a	0.015996594
157	0xbe111336	-0.14167485
158	0xbcf29092	-0.029609952
159	0x3defb2b5	0.117040075
160	0xbd79db87	-0.061000373
161	0x3cc2f149	0.023796694
162	0x3cb4bbe9	0.022062259
163	0xbcb378c1	-0.021908166
164	0x3bd85e9d	0.0066030757
165	0x3d9f3ba1	0.07775045
166	0xbe3eeecf	-0.18645786
167	0xbd7e7081	-0.06211901
168	0xbb0914b8	-0.002091689
169	0x3c1badc5	0.009501879
170	0xbdda514c	-0.106600374
171	0xbce0aaef	-0.027425257
172	0xbc2255f1	-0.009908185
173	0x3b71e24b	0.0036908563
174	0x3d3eba2c	0.046564266
175	0x3d1f241f	0.038852807
176	0x395eb7f0	0.00021240092
177	0x3e14b8e9	0.14523663
178	0xbd06a555	-0.032872517
179	0xbe648d63	-0.2231956
180	0xbc9cd417	-0.019144101
181	0xbc87c834	-0.016574956
182	0x3cb86bf6	0.022512417
183	0x3c81fec4	0.015868552
184	0xbcb9c02b	-0.02267464
185	0xbe3bbb3c	-0.18333143
186	0xbd093693	-0.03349931
187	0x3dec7ab5	0.11546842
188	0xbd289ae8	-0.041163355
189	0xbd4f1901	-0.050560955
190	0xbd932a04	-0.07185748
191	0x3c724b40	0.014788449
192	0xbcff2dbc	-0.031149738
193	0x3d87534d	0.06607685
194	0xbd541bf3	-0.051784467
195	0xbdb1a8e2	-0.0867479
196	0xbdb13eba	-0.08654542
197	0xbd401d7d	-0.046903122
198	0x3cd92c39	0.026510345
199	0xbda6a1b0	-0.08136308
200	0xbc25ac44	-0.010111872
201	0x3d06ebf8	0.03293988
202	0x3c81637d	0.01579451
203	0x3bb6e17e	0.00558108
204	0x3d0fa021	0.03506482
205	0xbd891af5	-0.06694595
206	0x3d2036d5	0.039114792
207	0x3c4a1f06	0.012336498
208	0x3af50722	0.0018694142
209	0xbd148354	-0.036258057
210	0x3c3ce6b4	0.011529613
211	0xbb294a78	-0.002583174
212	0x3c4bbe5e	0.012435524
213	0xbc8a6838	-0.016895398
214	0x3c27ff87	0.010253794
215	0x3c838247	0.016053332
216	0xbd441e48	-0.04788044
217	0x3ce4962b	0.027903637
218	0x3cc36358	0.023851082
219	0x3cfff6e4	0.031245656
220	0xbd36a1a1	-0.044587735
221	0x3c92c47f	0.017915962
222	0xbced0468	-0.028932765
223	0x3d9307f3	0.071792506
224	0xbc4d1a51	-0.012518481
225	0x3d8057fa	0.0626678
226	0xbcd25b98	-0.02567844
227	0x3d82a53c	0.06379172
228	0x3beb93f1	0.007189267
229	0x3c8b6027	0.017013622
230	0xbbe85dd7	-0.0070912647
231	0x3d6785b4	0.056523994
232	0x3a19db2a	0.0005869145
233	0x3b8b9868	0.0042601116
234	0x3c3441ab	0.011001985
235	0xbc1f6f76	-0.009731164
236	0xbcff988e	-0.031200673
237	0x3cd48e9e	0.025946911
238	0xbcb6b2ed	-0.022302115
239	0x3b4dc792	0.003139947
240	0x3d228dee	0.039686136
241	0x3bbbb9ba	0.0057289274
242	0xbcef8606	-0.029238712
243	0x3be5b642	0.007010252
244	0x3c1280e2	0.008941861
245	0xbc5dada2	-0.013530167
246	0x3be1e504	0.006893756
247	0xbd057bcb	-0.03258876
248	0x3d31e987	0.0434356
249	0xbc9d9444	-0.019235738
250	0x3d9625d0	0.07331431
251	0xbd81ae0b	-0.06332024
252	0x3d2f4e85	0.04279949
253	0xbcbc6e23	-0.023001736
254	0x3b2c5dbe	0.0026300992
255	0xbd5507cc	-0.05200939

ntm.controller.lstm.weight_ih_l1 f4 [400, 100]
0	0xbe7b8be8	-0.24565089
1	0x3e9c1ad9	0.30489233
2	0xbd1e2d09	-0.038617168
3	0xbcd68e03	-0.026190763
4	0xbeac0dc9	-0.33604267
5	0xbe87d2a0	-0.26527882
6	0xbec11c33	-0.37716827
7	0xbe3bf646	-0.18355665
8	0x3d757369	0.059924517
9	0x3e38b5cb	0.18038099
10	0x3e7aa90a	0.24478546
11	0x3ec5b8f0	0.3861766
12	0x3d0033cc	0.031299397
13	0x3e79d84a	0.24398914
14	0x3e6af14c	0.2294361
15	0x3e8f1667	0.2794678
16	0xbe4e8798	-0.20168912
17	0x3ec7b3e1	0.39004424
18	0x3ea103a3	0.31448087
19	0xbe6db017	-0.23211704
20	0xbe4056e3	-0.18783145
21	0xbd89afd2	-0.06722988
22	0x3e832055	0.25610605
23	0xbcf42ad9	-0.029805588
24	0xbe6b37c3	-0.2297049
25	0x3e8227fb	0.25421128
26	0xbe56c93a	-0.209752
27	0x3e2bdf4c	0.167844
28	0xbc3b2fab	-0.011424939
29	0x3e9c5e63	0.3054076
30	0xbe590414	-0.21192962
31	0xbe577b5d	-0.21043153
32	0xbea698cc	-0.3253845
33	0x3e024c0c	0.12724322
34	0x3e0be04a	0.13659778
35	0xbd256860	-0.040382743
36	0xbea46fc6	-0.32116526
37	0x3e8197dc	0.25311172
38	0xbd93d732	-0.072187796
39	0x3e085578	0.13313854
40	0x3e44a42b	0.1920325
41	0xbdc16b0f	-0.09444248
42	0x3e81a134	0.253183
43	0xbea34188	-0.31885934
44	0x3e4de55c	0.20107025
45	0x3ea0db9a	0.31417543
46	0xbe44df00	-0.19225693
47	0xbe88e01d	-0.26733485
48	0x3d885953	0.06657662
49	0xbe252e94	-0.1613105
50	0x3e089d79	0.13341321
51	0xbdb255d8	-0.0870778
52	0xbecde62c	-0.4021467
53	0x3e124c40	0.142869
54	0xbe59a89d	-0.21255727
55	0xbe163ae0	-0.14670897
56	0xbe8fb6a5	-0.28069034
57	0x3ea88438	0.32913375
58	0x3e8e11e8	0.27748036
59	0x3ea331b7	0.31873867
60	0xbeb5ca29	-0.35505798
61	0x3e0c4b73	0.13700657
62	0x3e7f90de	0.24957606
63	0x3e5acea2	0.21367887
64	0xbddff9a3	-0.10936286
65	0x3e1f3426	0.15547237
66	0xbea5f077	-0.32410023
67	0x3e273f59	0.16332759
68	0xbeb48504	-0.35257733
69	0xbd246929	-0.04013935
70	0xbe6753aa	-0.22590509
71	0xbd3d2f2f	-0.046187576
72	0x3d0de0a5	0.034638066
73	0xbdfc6c5f	-0.12325358
74	0xbea28e5c	-0.31749237
75	0xbe8cc090	-0.27490664
76	0xbe20744b	-0.15669362
77	0xbe4d477e	-0.20046803
78	0x3e101b9e	0.14073035
79	0x3d2f7c14	0.04284294
80	0xbe61a8a8	-0.22036994
81	0x3e29324e	0.16523096
82	0x3deb14a6	0.11478548
83	0x3ea151a5	0.31507602
84	0xbd119da1	-0.035550717
85	0xbe2cefde	-0.16888377
86	0x3e9a3be3	0.30123815
87	0x3c24a1b9	0.010048323
88	0xbe7358c1	-0.23764326
89	0xbec5639d	-0.3855256
90	0xbe6dbff7	-0.2321776
91	0x3e3630ce	0.17792055
92	0x3ce1b060	0.027549922
93	0x3bb8bdfd	0.0056378827
94	0x3ec5dec4	0.3864652
95	0xbed268eb	-0.4109567
96	0x3e47ce5c	0.19512314
97	0xbde43e20	-0.11144662
98	0xbdf368a9	-0.11885197
99	0x3e22f114	0.15912277
100	0xbc813fa8	-0.015777424
101	0x3ea079bd	0.3134288
102	0xbe7629c7	-0.24039374
103	0xbe0e2fbe	-0.138854
104	0x3ecc5f0b	0.39916262
105	0xbeade245	-0.33961692
106	0xbdfef20a	-0.12448509
107	0x3ea76317	0.32692787
108	0x3e4a7e47	0.19774733
109	0xbe055a41	-0.1302271
110	0xbe9fed11	-0.31235555
111	0xbe7acdbb	-0.24492542
112	0xbe927253	-0.28602847
113	0xbe161a47	-0.14658462
114	0x3dcc5510	0.09977162
115	0x3e515e21	0.20446064
116	0x3e5a11e5	0.21295889
117	0x3c5f2aac	0.013621014
118	0xbd8889e2	-0.06666924
119	0x3e6126fb	0.21987526
120	0x3e93a53f	0.2883701
121	0x3e584365	0.21119459
122	0x3e309469	0.17244114
123	0xbe5137cb	-0.2043144
124	0xbe135b54	-0.14390308
125	0x3ebaa764	0.36455834
126	0x3eb73f90	0.35790682
127	0x3d363086	0.04447987
128	0xbe2f28f1	-0.17105462
129	0x3d6e579e	0.058189027
130	0xbe7c8434	-0.24659806
131	0x3e64e58a	0.22353187
132	0x3e9f983c	0.31170833
133	0xbe94d503	-0.29068765
134	0x3c285ee0	0.010276526
135	0x3e046deb	0.12932555
136	0xbdfa4d24	-0.12221745
137	0x3dda0aa2	0.10646559
138	0x3d8e0026	0.06933622
139	0x3ecc43e8	0.39895558
140	0xbe6cc1b6	-0.2312077
141	0xbe306412	-0.17225674
142	0xbdedae2a	-0.11605485
143	0x3e48b909	0.19601835
144	0xbe384a15	-0.1799701
145	0xbdf78e73	-0.12087717
146	0x3e362657	0.17788063
147	0x3e4cc0cc	0.19995421
148	0x3e841275	0.25795332
149	0x3df13442	0.117775455
150	0xbdf00927	-0.11720496
151	0x3e71d6e5	0.23617132
152	0x3d1b6109	0.037934337
153	0xbe108e25	-0.14116724
154	0x3e0dda9b	0.13852923
155	0x3e63e429	0.22255005
156	0x3e0e0ab3	0.13871269
157	0x3e0b1f24	0.13586098
158	0x3db5ccbd	0.08876941
159	0x3dc61ea6	0.096738145
160	0x3e041911	0.12900187
161	0xbdb130a2	-0.08651854
162	0x3d5aefd4	0.053451374
163	0x3e65da5b	0.22446577
164	0x3e81a761	0.25323012
165	0xbea29e33	-0.3176132
166	0x3e183c49	0.14866747
167	0xbeb83262	-0.3597594
168	0xbe028e5e	-0.12749621
169	0xbe7afe21	-0.24511005
170	0xbdf34430	-0.1187824
171	0x3e0e094e	0.13870737
172	0xbebe1551	-0.37125638
173	0xbebb4c57	-0.3658168
174	0x3ab307b2	0.001365891
175	0xbee6bc8f	-0.45065734
176	0xbe883b03	-0.26607522
177	0x3ea33348	0.31875062
178	0xbe8859b4	-0.26630938
179	0x3e454544	0.19264704
180	0xbe8a718e	-0.2703976
181	0x3e95d019	0.29260328
182	0xbe9dc47e	-0.30813974
183	0xbe47b19f	-0.19501351
184	0xbd313002	-0.043258674
185	0xbe93066a	-0.2871583
186	0x3e407e06	0.18798074
187	0x3e620d07	0.22075282
188	0x3cb1afa9	0.021690207
189	0xbd1f657e	-0.03891515
190	0x3e92803a	0.28613454
191	0x3e9518ff	0.29120633
192	0x3eb18f8e	0.34679836
193	0xbd4065e1	-0.04697216
194	0x3e6bef48	0.23040497
195	0xbe13cca6	-0.14433536
196	0xbb4ccc43	-0.003124968
197	0xbe59fbb4	-0.21287423
198	0xbe2b05ef	-0.16701482
199	0xbe00781b	-0.12545817
200	0xbd8371f6	-0.06418221
201	0xbe38d4ab	-0.18049876
202	0x3e8340d7	0.25635406
203	0x3f00f087	0.50367016
204	0x3e1a6587	0.15077792
205	0xbeb3bc6f	-0.351047
206	0xbd60a765	-0.05484714
207	0xbead2cc9	-0.3382323
208	0xbd9723c9	-0.07379872
209	0xbe2d0e70	-0.16900039
210	0x3e8c9dc6	0.27464122
211	0xbece4549	-0.40287235
212	0xbe1e7006	-0.15472421
213	0xbe811e36	-0.25218362
214	0xbe928618	-0.2861793
215	0xbe8afc5e	-0.27145666
216	0xbded99f5	-0.116016306
217	0x3eda0685	0.425831
218	0x3d8aa218	0.06769198
219	0xbd8d3cd6	-0.06896369
220	0xbde39387	-0.11112123
221	0x3d37d5f1	0.044881765
222	0xbe87450b	-0.26419863
223	0x3ded65c9	0.115916796
224	0xbe3484cf	-0.17628787
225	0x3f46d96c	0.7767551
226	0xbc695a37	-0.0142427
227	0x3ec131db	0.3773335
228	0xbcaba61c	-0.02095323
229	0x3efa1236	0.4884202
230	0x3d2c3cb8	0.042050093
231	0x3da75390	0.08170235
232	0x3c151f88	0.009101756
233	0xbdf0d678	-0.11759657
234	0xbcf9d277	-0.030495865
235	0x3dbfdee6	0.093686864
236	0x3e858bba	0.26083165
237	0x3ddeacee	0.108728275
238	0xbdad93b7	-0.0847544
239	0x3e6463ce	0.22303697
240	0xbe12298c	-0.14273661
241	0xbe2e979a	-0.17050019
242	0xbe38be2e	-0.18041298
243	0x3daa000c	0.0830079
244	0xbe1a8623	-0.15090232
245	0xbdc32202	-0.09527971
246	0xbe245303	-0.16047291
247	0xbe163ee6	-0.14672431
248	0xbdaa73bd	-0.083228566
249	0xbd90b194	-0.0706512
250	0x3e7107cc	0.2353813
251	0xbe40c256	-0.18824133
252	0xbe0e3f67	-0.13891374
253	0x3e5fda82	0.21860698
254	0xbbafac42	-0.005361111
255	0xbebd41a6	-0.36964148
