results/priority-sort/priority-sort-task-1-batch-42000.model (torch_old, 876115 bytes, 49 tensors)

ntm.read0_bias f4 [1, 20]
0	0x3c0bd4d3	0.008534628
1	0x3c0a3326	0.008435046
2	0xbc07660d	-0.008264077
3	0x393e8c89	0.00018172165
4	0x3b991218	0.0046713464
5	0x3c186f83	0.00930393
6	0x3b190bdd	0.0023353018
7	0x3c35f5bd	0.011105952
8	0x3bc8c34d	0.0061267973
9	0xbc3ae341	-0.011406721
10	0xbaa94e7e	-0.0012917069
11	0xbaefb1f7	-0.0018287291
12	0xbcd5a487	-0.02607943
13	0x3b3ff7f7	0.0029292086
14	0x3c8bdc98	0.01707296
15	0xbc770feb	-0.015079479
16	0xbc1a3b2d	-0.009413523
17	0x3b45c244	0.0030175606
18	0x3c21bae9	0.009871223
19	0x3ab091dc	0.0013471204

ntm.read1_bias f4 [1, 20]
0	0x3bf37f26	0.0074309288
1	0xbb212216	-0.0024586967
2	0x3bc981eb	0.0061495206
3	0x3bd10506	0.0063787727
4	0x3b5e6907	0.0033937113
5	0x3ba88059	0.0051422534
6	0xbb4991af	-0.0030757
7	0xbaf59ccb	-0.0018738745
8	0xbad51a34	-0.001625842
9	0xbaa60a10	-0.0012667794
10	0x3c9c2b38	0.019063577
11	0x3c3600dd	0.011108604
12	0xbb94c1cc	-0.004539704
13	0xbc232c4a	-0.00995929
14	0x3920e3fe	0.00015343723
15	0xbbdbbd97	-0.0067059505
16	0x3b1187d4	0.0022206204
17	0x3c0e78e4	0.008695815
18	0xbc1b70b7	-0.0094873225
19	0xbb7851ea	-0.0037890621

ntm.read2_bias f4 [1, 20]
0	0x3c09ed5d	0.008418408
1	0xbcb163fb	-0.02165412
2	0x3cd69734	0.026195146
3	0xbc72e7b3	-0.014825749
4	0x3be93683	0.007117094
5	0x3b68e38a	0.0035536014
6	0x3bb0e4b0	0.0053983554
7	0x3b343d87	0.0027502493
8	0xbc259714	-0.010106821
9	0xbc23635b	-0.009972419
10	0x3c243e20	0.010024577
11	0xba8813ff	-0.0010381936
12	0xbb640392	-0.0034792167
13	0x3b7b3d58	0.0038336124
14	0xbadc026a	-0.0016785387
15	0x3b6740ab	0.0035286348
16	0x3c856155	0.016281763
17	0xbc813c46	-0.01577581
18	0x3c95b1ed	0.018273318
19	0xbc32a613	-0.010903853

ntm.read3_bias f4 [1, 20]
0	0xbc10fce8	-0.00884936
1	0x3b0abf3e	0.0021171118
2	0xbc2279a0	-0.009916693
3	0x3b9d8ee8	0.0048082955
4	0x39d403db	0.00040438664
5	0x3b64a9a6	0.0034891157
6	0x3cb959ed	0.022625888
7	0xbc4ea3d3	-0.012612301
8	0x3ad15c4b	0.001597294
9	0xba0c119a	-0.0005343199
10	0x3c3cf1a5	0.011532222
11	0x3bd36515	0.006451259
12	0xba57e970	-0.0008236384
13	0x3b827ef9	0.0039824215
14	0x3bc2468e	0.005928821
15	0xbc066061	-0.008201689
16	0xbc6b8295	-0.014374395
17	0xbb40a240	-0.0029393584
18	0xbc138b90	-0.009005442
19	0x3c904819	0.017612504

ntm.read4_bias f4 [1, 20]
0	0x3aa959b4	0.001292041
1	0x3c923ded	0.017851794
2	0xbaee6d46	-0.0018190525
3	0x3bf3011b	0.0074159033
4	0xbb81a800	-0.0039567947
5	0xbc10fe10	-0.008849636
6	0xbbd212e6	-0.0064109443
7	0x3c071c50	0.008246496
8	0xbb1d4cf6	-0.002400217
9	0x3c084d30	0.008319184
10	0xbc33277e	-0.010934709
11	0xbc705574	-0.014668811
12	0xbc448f4b	-0.011997054
13	0xbc1d5dd8	-0.009604894
14	0xb9c9d257	-0.00038494423
15	0x3ad8f3bd	0.0016552132
16	0x3bb88c4a	0.005631958
17	0xbb134f43	-0.0022477664
18	0xbc8af8b7	-0.0169643
19	0x3c29f7b6	0.010374

ntm.controller.lstm_h_bias f4 [2, 1, 100]
0	0x3d7e83bd	0.062137354
1	0xbce9446e	-0.028475013
2	0x3ba79029	0.005113621
3	0xbdfdcce6	-0.12392597
4	0xbda0d328	-0.07852775
5	0x3da83b62	0.082144514
6	0xbdd6f007	-0.10495
7	0xbcfdea58	-0.030995533
8	0xbc0438b4	-0.00807016
9	0x3993b672	0.00028173957
10	0xbd4c47dc	-0.049873218
11	0xbd05e443	-0.03268839
12	0x3d27ad4f	0.040936764
13	0x3cacea10	0.021107703
14	0xbdc1ff33	-0.094725035
15	0x3d71553a	0.05891917
16	0xbd1bcebf	-0.038038965
17	0xbd3fb739	-0.046805594
18	0x3e0379e8	0.12839472
19	0x3da0b103	0.07846262
20	0xbd6aaf3d	-0.057296026
21	0x3c464069	0.0121003175
22	0x3d479f32	0.048735805
23	0xbd4cfd30	-0.050046146
24	0xbd94270d	-0.07234011
25	0x3de81f42	0.11334087
26	0xbd319d35	-0.043362815
27	0xbca90b8a	-0.020635385
28	0xbc826303	-0.015916353
29	0xbd325f75	-0.043548066
30	0xbd3427a8	-0.04398313
31	0xbd88a8d2	-0.06672825
32	0xbcccc832	-0.024997804
33	0xbd1e9746	-0.038718484
34	0xbe1679da	-0.1469492
35	0x3d32fdd7	0.04369911
36	0xbd431616	-0.047628485
37	0xbd03b728	-0.032157093
38	0x3e22b0dd	0.1588778
39	0xbb112359	-0.0022146313
40	0x3d0d95a4	0.034566537
41	0xbd08d0e6	-0.033402346
42	0xbd4659cf	-0.048425492
43	0xb9c33a57	-0.00037236765
44	0x3b9c5a21	0.0047714864
45	0xbc8e8a8f	-0.017400054
46	0xbc171fe8	-0.009223916
47	0x3d9c14e5	0.07621173
48	0x3d30dd51	0.043179814
49	0xbc583b57	-0.0131977415
50	0x3d3ea485	0.046543617
51	0x3de06291	0.109563
52	0xbd7d8d6b	-0.061902445
53	0x3e058334	0.13038331
54	0x3cd7d743	0.026347762
55	0xbbf16093	-0.007366249
56	0x3d2ed73d	0.042685736
57	0xbdbb88cc	-0.09156951
58	0x3d7e2619	0.06204805
59	0x3dbb4032	0.09143104
60	0x3de44217	0.11145418
61	0xbd0bc26e	-0.03412097
62	0x3d3e2833	0.046425056
63	0x3b663dd0	0.0035132058
64	0x3d984bad	0.07436309
65	0xbd720dd8	-0.059095234
66	0xbc959ea4	-0.018264122
67	0xbd93bd81	-0.072138794
68	0xbe047864	-0.1293655
69	0xbe142a43	-0.14469247
70	0xbc585220	-0.013203174
71	0xbdd79467	-0.105263524
72	0xbc4427ec	-0.011972409
73	0xbced8dc0	-0.028998256
74	0x3cf38d48	0.029730454
75	0xbd6714e5	-0.05641641
76	0xbda34a0d	-0.079731084
77	0xbe089902	-0.13339618
78	0x3caebefa	0.0213313
79	0xbd7b91c9	-0.06141833
80	0x3c4248f4	0.011858214
81	0xbd7a24b7	-0.06107017
82	0xbe2fcdb0	-0.17168307
83	0x3b68baaa	0.003551165
84	0xbd2910a5	-0.04127564
85	0x3d44e9a5	0.048074383
86	0xbd84faa6	-0.0649312
87	0xbd1520cd	-0.036408234
88	0x3cbb7a85	0.02288557
89	0x3df2b620	0.11851144
90	0x3b2ccbe2	0.002636664
91	0xbcd50c2e	-0.026006784
92	0x3d3e374c	0.046439454
93	0xbd1a0860	-0.037605643
94	0x3ddf19f9	0.10893626
95	0xbd93b82e	-0.07212864
96	0x3d91c13f	0.07116937
97	0x3dc46481	0.09589482
98	0x3d7d837d	0.061892975
99	0xbd2bbd64	-0.041928664
100	0x3e9d7841	0.3075581
101	0x3d47cd3b	0.048779707
102	0x3d4e962a	0.050436176
103	0x3dd1bd14	0.10241142
104	0xbe0ccce1	-0.1375003
105	0x3da28f69	0.079375096
106	0x3df51f3b	0.11968847
107	0xbe15139c	-0.14558262
108	0x3ddc9709	0.10770995
109	0xbe01392c	-0.12619466
110	0xbd7dd863	-0.06197394
111	0xbde5720e	-0.11203395
112	0x3e05aab8	0.13053405
113	0x3d8ca29f	0.06866955
114	0xbd815566	-0.063151166
115	0xbde46595	-0.11152188
116	0x3e3e0511	0.1855662
117	0xbc45eed2	-0.012080865
118	0xbe278feb	-0.16363494
119	0x3cee61f7	0.029099448
120	0xbd8bfabb	-0.068349324
121	0x3da3435b	0.079718314
122	0x3d225c76	0.03963896
123	0x3d8dbf7a	0.06921287
124	0xbd1fcc94	-0.03901346
125	0xbdc47f90	-0.09594643
126	0xbd823e59	-0.06359548
127	0x3e0ff0f8	0.14056766
128	0x3c35f4ac	0.011105698
129	0x3e28c995	0.16483147
130	0x3dcd426c	0.100224346
131	0x3d42a292	0.04751832
132	0x3d9be3e1	0.07611824
133	0xbc7563fa	-0.01497745
134	0x3e0f4c08	0.13993847
135	0xbdde4317	-0.1085264
136	0x3c0c2130	0.008552834
137	0x3cdc45c3	0.026888734
138	0x3da05e73	0.07830515
139	0xbdd050d8	-0.1017167
140	0x3dc4ef6a	0.09615977
141	0xbd7b6f56	-0.061385475
142	0xbdd82cd0	-0.10555422
143	0xbdab5bb9	-0.08367104
144	0xbc7cf666	-0.015439605
145	0x3d32957b	0.043599587
146	0x3de67f41	0.112547405
147	0xbc83a224	-0.016068526
148	0x3e09a818	0.13443029
149	0xbce1c327	-0.027558876
150	0x3b91f80a	0.0044546174
151	0x3e2996cc	0.1656143
152	0x3d9b5d5a	0.07586165
153	0xbcea5073	-0.028602814
154	0xbd6bd512	-0.057576247
155	0xbad0a443	-0.0015918094
156	0xbdedf482	-0.11618902
157	0xbdc1d04f	-0.0946356
158	0x3d28e453	0.041233372
159	0xbddb0bd8	-0.106956184
160	0x3d4445d4	0.047918156
161	0x3e047291	0.12934329
162	0x3e16d182	0.14728358
163	0x3deebb3f	0.11656808
164	0xbce4e9e5	-0.02794356
165	0xbd31edc9	-0.04343966
166	0x3cbfeab8	0.023427352
167	0x3c0d2355	0.008614381
168	0x3da77679	0.08176894
169	0x3d8be8d4	0.06831518
170	0x3d10daf1	0.03536505
171	0x3e8e42e6	0.27785414
172	0xbe2c9aa3	-0.16855864
173	0x3dca7d1b	0.09887143
174	0x3d9cd3cc	0.076575845
175	0xbe0b5744	-0.13607508
176	0x3dcb051f	0.09913086
177	0xbd49d9f4	-0.049280122
178	0xbdf6e573	-0.12055483
179	0xbe3c6619	-0.18398322
180	0x3da3ad31	0.07992018
181	0xbd97b567	-0.074076466
182	0xbb73ff2c	-0.0037230952
183	0xbdd5a4cf	-0.10431825
184	0x3e5e3fc7	0.21704017
185	0xbdc53065	-0.09628371
186	0xbdc2ab92	-0.09505381
187	0xbe0e533b	-0.13898937
188	0xbd2484cc	-0.040165707
189	0xbdfef223	-0.12448528
190	0x3dbee2dd	0.093206145
191	0xbdb355b7	-0.08756583
192	0x3d659f27	0.056059983
193	0x3e5f7584	0.21822172
194	0xbd176b17	-0.036967363
195	0xbe321a12	-0.17392758
196	0x3dc4b936	0.09605639
197	0xbe161b2c	-0.14658803
198	0x3dee7664	0.11643675
199	0xbd30b4a4	-0.043141022

ntm.controller.lstm_c_bias f4 [2, 1, 100]
0	0x3d462d7c	0.04838322
1	0xbd11d021	-0.035598878
2	0xbd23bdcf	-0.039975937
3	0xbca6c4fb	-0.0203576
4	0xbc955aca	-0.018231768
5	0xbca2a666	-0.019854736
6	0xbe2bc2c5	-0.16773517
7	0x3e129152	0.14313248
8	0xbd945a84	-0.07243827
9	0xbd5be091	-0.05368096
10	0x3d66be1d	0.05633365
11	0xbdeb07f7	-0.114761285
12	0xbc6f9b1e	-0.014624385
13	0xbd0351f0	-0.032060564
14	0x3e2edc55	0.17076237
15	0xbd16e5f6	-0.0368404
16	0x3c5f2439	0.013619476
17	0xbe054d3c	-0.13017744
18	0x3de32b42	0.11092235
19	0xbd1d6287	-0.03842404
20	0xbca48717	-0.020083947
21	0xbd59741d	-0.05308925
22	0x3cb6a251	0.022294195
23	0xbc8af0f8	-0.016960606
24	0xbc972e93	-0.018454826
25	0x3e07135a	0.13190976
26	0x3c381b3f	0.011236965
27	0xbb6b7bd0	-0.0035931952
28	0xbd8f95ab	-0.07010969
29	0x3bba7131	0.005689763
30	0xbd8a26c1	-0.06745673
31	0xbd96af1e	-0.0735762
32	0xbd9e2e4d	-0.07723675
33	0xbda7970b	-0.08183106
34	0xbcd684c9	-0.026186364
35	0xbd3afbe5	-0.04565038
36	0xbc952e7c	-0.018210642
37	0xbdf28839	-0.11842389
38	0x3caabc7f	0.020841835
39	0xbd8799c6	-0.06621127
40	0x3b48af7a	0.003062217
41	0xbd972093	-0.0737926
42	0xbda38588	-0.079844534
43	0x3d44ecb9	0.04807732
44	0xbc89df43	-0.016830092
45	0x3d896244	0.06708196
46	0x3d336d3c	0.043805346
47	0x3d121f58	0.035674423
48	0xbcd6bfd3	-0.026214516
49	0x3b7a9892	0.0038237912
50	0x3ce4539a	0.027871896
51	0xbd69a327	-0.05704036
52	0xbada934f	-0.0016675981
53	0xbcb25ba8	-0.02177222
54	0x3e0e7105	0.13910301
55	0xbd233214	-0.03984268
56	0xbc4124df	-0.011788576
57	0x3ce7f293	0.02831391
58	0x3c98b715	0.018641988
59	0x3cdd15d0	0.02698794
60	0x3d017c63	0.031612765
61	0xbd1fc0c7	-0.039002206
62	0xbc7ae5fc	-0.015313622
63	0xbd4fea5b	-0.05076061
64	0x3d0d3e6c	0.03448336
65	0xbd4c9d6f	-0.049954828
66	0xbd51d871	-0.051231805
67	0x3d5274eb	0.051381033
68	0x3cc960c0	0.024582267
69	0xbd448244	-0.047975793
70	0x3d1938f6	0.037407838
71	0xbd953bbb	-0.07286783
72	0xbd8aadcc	-0.067714304
73	0x3d28b747	0.041190412
74	0x3d8621ad	0.06549392
75	0xbd46c414	-0.04852684
76	0x3cdcac9e	0.026937779
77	0xbe106771	-0.1410196
78	0xbd3ac417	-0.045597162
79	0xbd7825da	-0.060582973
80	0xbd12d6e4	-0.035849467
81	0xbd896ccf	-0.06710207
82	0xbbf435cd	-0.0074527026
83	0xbdcd3fa0	-0.10021901
84	0x3db1a54f	0.08674108
85	0xbc02efda	-0.007991755
86	0x3cd45d9a	0.025923539
87	0x3dc85547	0.0978189
88	0xbda535df	-0.08066916
89	0x3aea8966	0.0017893731
90	0x3b2e826a	0.0026628026
91	0x3c5d2e1a	0.013499761
92	0x3ca29043	0.01984418
93	0xbd6e9624	-0.058248654
94	0xbce96ade	-0.028493341
95	0xbc5225cd	-0.012826395
96	0x3d84feb4	0.06493893
97	0xb9587984	-0.00020644633
98	0xbc15c8b3	-0.009142089
99	0xbdbae303	-0.0912533
100	0x3d7ecec9	0.062208924
101	0x3ca31dac	0.01991161
102	0xbd67a85b	-0.05655704
103	0xbcfa044f	-0.030519633
104	0xbdfcd245	-0.12344793
105	0xbc01cfbc	-0.007923063
106	0x3dd91745	0.106001414
107	0xb98844ec	-0.00025991292
108	0x3dd865bd	0.1056628
109	0xbd4f877e	-0.050666325
110	0xbde2e1a4	-0.11078194
111	0xbda1a436	-0.07892649
112	0x3d91aab3	0.071126364
113	0x3b38fb04	0.002822579
114	0xbc4b41a4	-0.012405787
115	0x3e2330b0	0.15936542
116	0x3e17ee1e	0.14836928
117	0x3e144230	0.14478374
118	0xbd4d1fa0	-0.050078988
119	0xbdcfcb95	-0.10146252
120	0xbc92da14	-0.017926253
121	0xbd630c49	-0.055431638
122	0xbccc22df	-0.024918972
123	0xbcb7b47d	-0.02242493
124	0xbe1172d6	-0.14203963
125	0xbd66578f	-0.056235846
126	0xbda5a82f	-0.08088719
127	0x3e779bb1	0.24180485
128	0xbcb9829b	-0.022645285
129	0xbd8a5d55	-0.06756083
130	0x3dc7f226	0.09762983
131	0xbbc22bca	-0.00592563
132	0x3ca5e209	0.020249384
133	0x3db6946a	0.089150265
134	0x3d3cb2b8	0.046068877
135	0xbe3b1bb6	-0.1827229
136	0x3d30b0f3	0.043137502
137	0x3dbf9465	0.09354476
138	0x3bb9a259	0.0056651053
139	0xbc835c72	-0.016035292
140	0x3c6b830b	0.014374505
141	0xbd3ee040	-0.04660058
142	0xbdafaf02	-0.08578302
143	0xbdebbe2a	-0.1151088
144	0xbc52f229	-0.012875118
145	0xbde58ca4	-0.11208466
146	0x3dc50130	0.09619367
147	0x3d9c33b2	0.076270476
148	0x3de8874a	0.11353929
149	0x3df564fb	0.11982151
150	0xbd365736	-0.044516765
151	0xbcd80eb4	-0.026374198
152	0x3d805f57	0.06268185
153	0xbdf84cdc	-0.12124035
154	0xbdc13bbb	-0.09435221
155	0x3d344b14	0.044016913
156	0xbd045087	-0.03230336
157	0x3c9c5867	0.019085122
158	0x3d6b652d	0.057469536
159	0x3dd1f6f5	0.102521814
160	0xbc303243	-0.010754171
161	0x3d6db65b	0.058035236
162	0xbcd9090d	-0.026493574
163	0x3d12c6a3	0.035833966
164	0xbe148589	-0.14504065
165	0xbc466fca	-0.0121116135
166	0xbd036a26	-0.032083653
167	0xbce0d221	-0.027443947
168	0x3a1fc4f0	0.00060947146
169	0x3dd3d603	0.10343554
170	0x3db0cc7b	0.086327516
171	0x3cf7bc37	0.030241115
172	0xbde3f224	-0.11130169
173	0x3cf6803d	0.030090446
174	0x3c690d81	0.014224411
175	0xbbb66315	-0.0055660107
176	0x3e00ef29	0.12591232
177	0xbe20a5bf	-0.15688227
178	0xbd9de4b1	-0.07709635
179	0xbdb9b44a	-0.090675905
180	0x3d8ce90c	0.06880388
181	0x3cb1ead3	0.021718418
182	0x3c7920da	0.015205586
183	0xbe25b028	-0.1618048
184	0x3ca3e8b7	0.020008428
185	0xbd773d38	-0.060361117
186	0xbd62d637	-0.055380072
187	0xbe1d8f3d	-0.15386672
188	0x3e41120b	0.18854539
189	0x3bf9450b	0.0076071075
190	0x3d6c13d6	0.057636105
191	0x3b396399	0.0028288125
192	0xbddd70bd	-0.10812519
193	0x3c9e8815	0.019351998
194	0x3d836fc4	0.06417802
195	0xbe188233	-0.14893417
196	0x3d735962	0.059411414
197	0xbd16741c	-0.036731824
198	0x3d3c5ba6	0.04598584
199	0x3d0c2df5	0.034223516

ntm.controller.lstm.weight_ih_l0 f4 [400, 110]
0	0xbe9de732	-0.3084045
1	0x3dbf7694	0.09348789
2	0x3b979c1e	0.004626765
3	0xbe8199da	-0.25312692
4	0xbeb9e1ba	-0.36305028
5	0xbe705186	-0.23468599
6	0x3d1a2cbc	0.03764032
7	0x3e16a4ff	0.14711379
8	0xbe2c6d5f	-0.16838597
9	0xbdfb804e	-0.122803316
10	0xbe2c72e3	-0.16840701
11	0x3d532c45	0.05155589
12	0x3e93f3f6	0.28897065
13	0x3e066f14	0.1312831
14	0x3cfe59ac	0.031048618
15	0x3e80a1d1	0.25123456
16	0xbd610e39	-0.054945204
17	0x3deb0cbb	0.114770375
18	0x3e60a138	0.219365
19	0xbe3ca1e3	-0.1842113
20	0x3da7d139	0.08194203
21	0xbe92b4c9	-0.28653553
22	0x3d7e08a2	0.06201995
23	0xbebc347e	-0.36758798
24	0x3db203ef	0.086921565
25	0xbdeb60f8	-0.11493105
26	0xbe16be45	-0.1472102
27	0xbea4cac3	-0.32185945
28	0xbe670d5f	-0.22563694
29	0xbd682bc7	-0.056682374
30	0x3cf9bc0d	0.030485177
31	0xbe8cb48b	-0.27481493
32	0x3d94fcc8	0.07274777
33	0x3c218cd0	0.0098602325
34	0x3e45a46e	0.19301006
35	0xbd021272	-0.031755872
36	0xbe96feef	-0.29491374
37	0x3eb6e414	0.35720885
38	0xbe6e1c12	-0.23252895
39	0x3e48d3e9	0.19612087
40	0x3e0842e4	0.13306767
41	0xbe9796a4	-0.29607117
42	0x3df9d661	0.12199093
43	0x3d0a634a	0.033786096
44	0x3e9e168d	0.3087658
45	0x3e48dde9	0.19615902
46	0x3e6b3071	0.22967698
47	0x3e4ef4ad	0.20210524
48	0x3e83e5f6	0.25761384
49	0xbe5fd981	-0.21860315
50	0xbdc94765	-0.098280706
51	0x3e04a1a7	0.1295229
52	0x3ea8fd5d	0.330058
53	0xbe30aa12	-0.17252377
54	0xbe99dd86	-0.3005182
55	0xbda6df7b	-0.08148094
56	0xbcc53d9b	-0.024077227
57	0xbc30519f	-0.0107616475
58	0x3e5eb4c2	0.21748641
59	0xbe5ba425	-0.21449335
60	0xbeb507e6	-0.3535759
61	0xbaf8c33a	-0.001897908
62	0x3bd923b9	0.006626573
63	0xbe737975	-0.23776801
64	0xbe74a4f0	-0.23891044
65	0xbe6f3f98	-0.23364103
66	0x3db95c75	0.09050838
67	0xbd39b224	-0.045335904
68	0x3e49bd91	0.1970122
69	0xbd71849b	-0.058964353
70	0xbe65e93d	-0.22452255
71	0x3dde1e44	0.108456165
72	0x3d1a8bf3	0.037731122
73	0x3d46c6b2	0.048529334
74	0xbe818a95	-0.25301042
75	0x3eb204fe	0.34769434
76	0x3d753a12	0.059869833
77	0x3d8d66ad	0.069043495
78	0x3e2e7c2f	0.1703956
79	0x3e96a870	0.29425383
80	0xbeae5f85	-0.3405725
81	0x3dc856ee	0.097822055
82	0xbdd7d812	-0.10539259
83	0xbe2fb77f	-0.17159842
84	0xbd5bc700	-0.053656578
85	0x3e7639aa	0.24045435
86	0x3cec176a	0.028819758
87	0xbe2f8df9	-0.17144002
88	0xbe59fd59	-0.2128805
89	0xbd8268e3	-0.06367662
90	0xbd134467	-0.035953905
91	0x3e929513	0.2862936
92	0x3e77d4b5	0.24202235
93	0x3c9642f3	0.01834247
94	0x3e2d5fed	0.16931124
95	0xbe43ec5f	-0.19133137
96	0xbd721f07	-0.05911162
97	0x3e8a7bd3	0.27047595
98	0x3ea25743	0.317072
99	0x3dc49e61	0.09600521
100	0x3d3b3317	0.04570302
101	0xbdc4c1df	-0.096072905
102	0xbe036704	-0.12832266
103	0xbe79fd0a	-0.24412933
104	0xbd1e57cf	-0.03865796
105	0xbc7eae03	-0.015544417
106	0x3dbecd70	0.09316528
107	0x3e9ae0b3	0.30249557
108	0x3eb3a528	0.35086942
109	0x3d62a7b8	0.05533573
110	0xbe7d3cdb	-0.24730246
111	0xbc999736	-0.01874886
112	0xbe468481	-0.19386484
113	0xbe9b5ea2	-0.30345637
114	0x3e129ed5	0.14318402
115	0x3c2d6659	0.010583484
116	0x3db0a439	0.08625073
117	0x3e29af6c	0.16570824
118	0xbea38c27	-0.31942865
119	0x3c802e60	0.015647113
120	0x3d2718f2	0.040795274
121	0x3d4ed2c7	0.05049398
122	0xbe2372c8	-0.15961754
123	0xbea3e171	-0.32007936
124	0x3ea7015e	0.3261823
125	0x3e379f4d	0.17931862
126	0x3e3c2783	0.18374448
127	0xbe7de38a	-0.2479383
128	0x3d0c6f72	0.03428597
129	0xbea9d8e4	-0.33173287
130	0x3e15b324	0.14619118
131	0x3e0010b1	0.12506367
132	0xbe9db04e	-0.30798572
133	0x3cb1dbdb	0.02171128
134	0xbea0a161	-0.31373122
135	0x3c5468d3	0.012964445
136	0x3e7819b6	0.24228558
137	0xbe99c3d7	-0.30032226
138	0xbd0ac9c8	-0.03388384
139	0x3e8f5ca1	0.28000358
140	0x3da479d6	0.08031051
141	0x3e035199	0.12824096
142	0xbe848f32	-0.258905
143	0xbe99d1b9	-0.30042818
144	0xbe57f192	-0.21088246
145	0xbd1c88af	-0.03821629
146	0xbe5a9cd6	-0.2134889
147	0x3e8f4360	0.2798109
148	0xbe3a622e	-0.18201515
149	0xbd0ce675	-0.03439947
150	0xbeb2081b	-0.3477181
151	0xbe97be93	-0.29637584
152	0x3e29df15	0.16589005
153	0xbea1e6a2	-0.3162127
154	0x3dbe6d05	0.092981376
155	0x3e4c2b02	0.19938281
156	0xbd0b6324	-0.034030095
157	0x3e6133f0	0.21992469
158	0xbe04e616	-0.12978396
159	0x3d9fe04f	0.07806455
160	0xbe39a19f	-0.1812806
161	0xbd89024d	-0.06689892
162	0xbc142691	-0.009042398
163	0x3df6ec97	0.12056845
164	0x3e683c8c	0.22679347
165	0x3d6c0b82	0.057628162
166	0x3dc13d65	0.09435538
167	0xbe5d8f59	-0.21636714
168	0xbde07f26	-0.10961752
169	0x3e108382	0.14112666
170	0xbe968154	-0.29395545
171	0x3ea0b111	0.3138509
172	0x3e88b4df	0.26700494
173	0x3dfc74f7	0.12326997
174	0xbe052d91	-0.13005663
175	0xbeb8a162	-0.36060625
176	0x3e876da0	0.26450825
177	0xbe7393b6	-0.23786816
178	0xbe26eacd	-0.16300507
179	0xbe295408	-0.16535962
180	0x3e599391	0.21247698
181	0x3e6d6a20	0.23185015
182	0xbe89469b	-0.2681168
183	0xbea67d01	-0.32517245
184	0xbbfb4d91	-0.0076691587
185	0xbe6f8216	-0.23389468
186	0x3dde454d	0.10853062
187	0xbeb6f690	-0.35734987
188	0xbd56852b	-0.052373093
189	0xbd6e4c99	-0.058178518
190	0xbe84a49a	-0.2590683
191	0x3ea03586	0.31290835
192	0xbec52026	-0.3850109
193	0xbead5919	-0.3385704
194	0xbe59bf1c	-0.21264309
195	0x3d7e7a31	0.06212825
196	0xbe1dfe06	-0.15428934
197	0x3e95a388	0.29226327
198	0xbdadfc7e	-0.08495425
199	0x3dcbe4dc	0.09955761
200	0xbe1374ab	-0.14399974
201	0x3bc9f5e4	0.0061633456
202	0x3c6059c5	0.013693278
203	0x3e07eebc	0.13274664
204	0x3e996a64	0.29963982
205	0x3de86d64	0.113489896
206	0x3c93d1c4	0.01804436
207	0xbe284a71	-0.16434647
208	0xbe4b8979	-0.1987666
209	0x3e76bb8e	0.24094984
210	0x3e270f11	0.16314341
211	0x3dee60eb	0.116395794
212	0xbe3bc15b	-0.18335478
213	0x3e4ce792	0.20010212
214	0x3cd09a69	0.025464254
215	0xbe1e4ffe	-0.15460202
216	0xbd900675	-0.070324816
217	0x3e08aa54	0.13346225
218	0x3e5d7b5f	0.21629094
219	0x3d146cac	0.03623645
220	0x3e2307dd	0.15920968
221	0xbdeaf4f9	-0.11472506
222	0x3dadd97f	0.0848875
223	0x3d10b152	0.035325356
224	0x3d3a66de	0.045508258
225	0x3d7033a4	0.058643
226	0xbd92e6dc	-0.07172939
227	0xbe28b07a	-0.1647357
228	0x3e9f0f28	0.3106625
229	0x3e830a73	0.2559391
230	0x3e851a5d	0.25996676
231	0x3e4840cd	0.1955597
232	0xbe61fb28	-0.22068465
233	0xbe6577a8	-0.22408926
234	0x3e76d564	0.2410484
235	0xbe620b4d	-0.22074623
236	0xbe87cabe	-0.26521868
237	0x3e6b26bd	0.22963996
238	0xbdce7154	-0.100802094
239	0x3d8595fc	0.06522748
240	0x3d9717a9	0.0737756
241	0xbdf827a1	-0.121169336
242	0x3daca677	0.08430188
243	0xbe43f074	-0.19134694
244	0xbe944c77	-0.28964588
245	0xbdba8197	-0.091067486
246	0xbe49ac83	-0.19694714
247	0xbdc9fa06	-0.09862141
248	0x3cea7ab3	0.02862296
249	0x3c339def	0.010962947
250	0xbea6ed97	-0.32603142
251	0xbd3e3c9a	-0.046444513
252	0xbddca328	-0.10773307
253	0xbe93473b	-0.28765282
254	0xbe2ce10a	-0.1688272
255	0xbd7f8397	-0.062381353

ntm.controller.lstm.weight_hh_l0 f4 [400, 100]
0	0xbe96abb3	-0.2942787
1	0x3d9dab4b	0.07698687
2	0xbe708695	-0.23488839
3	0x3ea1944b	0.3155845
4	0x3e733478	0.23750484
5	0x3e473cc6	0.19456777
6	0xbe77f40f	-0.24214195
7	0xbd9fe136	-0.078066275
8	0xbe802991	-0.25031713
9	0x3e682fd8	0.22674501
10	0xbe9b9f81	-0.3039513
11	0xbe14316d	-0.1447198
12	0x3e9a0ec3	0.30089387
13	0xbe465b66	-0.19370803
14	0x3e91d829	0.2848523
15	0x3bfd0314	0.007721314
16	0xbd885b1e	-0.06658004
17	0xbdc44bd8	-0.095847785
18	0xbe9dba99	-0.30806425
19	0xbe3cadcf	-0.18425678
20	0xbdec4bd1	-0.11537898
21	0xbe308643	-0.17238717
22	0xbe38ebe9	-0.18058743
23	0xbdd5e49a	-0.10443993
24	0x3ec22f08	0.37926507
25	0x3e024129	0.12720169
26	0x3e843469	0.25821236
27	0xbb50638f	-0.0031797623
28	0x3ea830b9	0.32849672
29	0xbdc95d32	-0.09832229
30	0xbdd23605	-0.1026421
31	0x3e8ee06d	0.27905598
32	0x3dc7ccca	0.09755857
33	0xbd9dc2bb	-0.077031575
34	0x3e280189	0.16406836
35	0x3e40c79d	0.18826146
36	0x3e1bd80a	0.15219131
37	0xbeab210b	-0.33423647
38	0x3d4b609d	0.049652684
39	0xbead0dd0	-0.337996
40	0x3ead2f42	0.33825117
41	0x3e9a0e8d	0.30089226
42	0xbe4f7b69	-0.20261921
43	0x3eabdb59	0.33565786
44	0x3d23e43e	0.04001259
45	0x3ebca7df	0.36846825
46	0xbe84513c	-0.25843227
47	0xbe8feb5b	-0.2810925
48	0x3d9a2838	0.07527202
49	0x3eb3f89a	0.35150605
50	0x3db658c8	0.089036524
51	0x3e207b42	0.15672019
52	0x3b55d477	0.003262786
53	0xbd7b2827	-0.06131759
54	0xbe1ed744	-0.15511805
55	0xbe4217da	-0.18954411
56	0x3e1b7aa8	0.15183508
57	0xbd8a07e7	-0.067397885
58	0xbdc70398	-0.09717482
59	0x3e1f222e	0.15540382
60	0xbdc9487d	-0.09828279
61	0xbe3e7880	-0.18600655
62	0xbe772ec2	-0.2413893
63	0x3e96c28d	0.29445305
64	0x3dd5910c	0.10428056
65	0xbdb3a07c	-0.08770844
66	0xbe36c7a8	-0.178496
67	0x3d108c36	0.035289966
68	0x3ea1d4c0	0.31607628
69	0xbee62398	-0.4494903
70	0x3d9a0f1d	0.07522414
71	0x3d818e1f	0.063259356
72	0x3e60e070	0.21960616
73	0xbe11be73	-0.14232807
74	0x3e7491c6	0.23883733
75	0x3d40a12a	0.047028698
76	0x3df16f46	0.11788802
77	0x3ea74ab4	0.3267418
78	0xbe24e64a	-0.16103473
79	0x3e6871cf	0.22699665
80	0xbe2ef6de	-0.1708636
81	0xbec2960d	-0.38005105
82	0x3eba23f0	0.36355543
83	0x3e82624b	0.25465617
84	0x3e91e7a1	0.2849703
85	0xbe55f31a	-0.20893517
86	0xbe9dca39	-0.30818346
87	0xbccce4c6	-0.025011431
88	0x3ad3584d	0.0016124338
89	0xbe26b9ff	-0.1628189
90	0x3e2d9ea5	0.1695505
91	0x3e5ecfd4	0.21758968
92	0xbe9d167a	-0.3068121
93	0x3e093204	0.13397986
94	0x3e2f5dcc	0.17125624
95	0x3e05aa2e	0.130532
96	0x3cf0c68a	0.029391546
97	0x3d8fb17b	0.070162736
98	0x3db34527	0.08753424
99	0xbea914b3	-0.33023605
100	0x3ea274f8	0.31729865
101	0xbe494012	-0.19653347
102	0xbe65801e	-0.22412154
103	0xbe1bcc39	-0.15214624
104	0xbe10f054	-0.14154178
105	0x3e11fd4a	0.14256778
106	0xbd142cfd	-0.036175717
107	0x3b215d05	0.0024622094
108	0x3dec7850	0.11546385
109	0xbe3368b1	-0.17520405
110	0x3df05299	0.11734504
111	0x3e1e2276	0.15442833
112	0xbea72891	-0.32648137
113	0x3e2d14dd	0.1690249
114	0xbe5b0770	-0.21389556
115	0x3e4279af	0.18991731
116	0xbe3b6a11	-0.1830218
117	0xbe4dc234	-0.20093614
118	0xbd41d526	-0.047322415
119	0xbe9e40a4	-0.30908692
120	0xbcd70962	-0.026249591
121	0xbde2434b	-0.11047991
122	0x3da70986	0.08156113
123	0x3d4b3acc	0.04961662
124	0x3e86e9f8	0.2635038
125	0xbec738f3	-0.38910636
126	0xbeaf73d0	-0.34268045
127	0xbe57234e	-0.21009561
128	0xbde041b9	-0.109500356
129	0x3e5b8e32	0.21440962
130	0x3e9dd55b	0.3082684
131	0x3e292b4e	0.16520426
132	0x3ed74c69	0.42050484
133	0xbeccd73a	-0.40007955
134	0x3eb3fe88	0.3515513
135	0x3e4e6bab	0.2015826
136	0x3d0209e0	0.0317477
137	0x3c4d4a4e	0.012529923
138	0xbe768c7f	-0.24077033
139	0xbd29617e	-0.04135274
140	0x3e0be3ac	0.13661069
141	0xbe714dc2	-0.23564819
142	0x3ea55b9c	0.32296455
143	0x3e5a11a4	0.21295792
144	0xbe13f03f	-0.14447115
145	0x3dd93e84	0.10607627
146	0xbe27b7dc	-0.1637873
147	0xbdf34762	-0.118788496
148	0x3dc3686a	0.095414
149	0xbe3ddd4b	-0.18541448
150	0x3d9cd72d	0.07658229
151	0xbcca9d36	-0.024733167
152	0x3e09d8aa	0.13461557
153	0x3dae0256	0.08496539
154	0xbe081051	-0.13287474
155	0xbe5b026c	-0.21387643
156	0x3e4366a1	0.19082119
157	0x3e3a4206	0.18189248
158	0xbe580f27	-0.2109953
159	0x3e245ec8	0.16051781
160	0x3e3350c5	0.1751128
161	0x3deae74e	0.11469899
162	0xbe5c2fdf	-0.21502636
163	0xbe6b010f	-0.22949623
164	0x3eaac781	0.33355334
165	0x3e03ecf8	0.12883365
166	0xbe462927	-0.19351636
167	0x3d4052c9	0.04695395
168	0x3ed8ca20	0.4234171
169	0xbe1d96ef	-0.15389608
170	0xbe9479df	-0.2899923
171	0x3e9a407b	0.3012732
172	0xbe6f8841	-0.2339182
173	0xbe267c4e	-0.16258356
174	0xbeba6e59	-0.36412314
175	0xbe886796	-0.2664153
176	0x3cdeeb56	0.027211826
177	0x3e2dcb20	0.16972017
178	0x3da97ac5	0.082753696
179	0xbd4857f7	-0.048912015
180	0xbd52fd37	-0.051511016
181	0x3e853e3f	0.26024053
182	0x3dc29f84	0.095030814
183	0x3e45d994	0.1932128
184	0x3d26e245	0.04074313
185	0x3e940359	0.28908804
186	0x3d7fc22e	0.062441044
187	0xbe28b4b3	-0.16475181
188	0x3de7a7f2	0.1131133
189	0x3e761830	0.24032664
190	0xbde34659	-0.11097402
191	0x3e64f3a4	0.22358567
192	0xbd11efbb	-0.035629015
193	0x3d510669	0.051031504
194	0xbc1316b2	-0.008977579
195	0x3e47d946	0.19516477
196	0x3c8e743a	0.017389406
197	0x3ea466db	0.32109722
198	0x3e5aee16	0.21379885
199	0x3eaed86c	0.34149492
200	0xbe0a9594	-0.13533622
201	0x3bd3ccfa	0.006463644
202	0x3e95c7d1	0.2925401
203	0xbe8af5e9	-0.2714074
204	0x3d3fc9a4	0.04682316
205	0xbcebd6e6	-0.028788995
206	0x3e4fdd4e	0.20299265
207	0x3e7d39b6	0.24729046
208	0x3c8d59eb	0.01725479
209	0x3e43b1cb	0.19110791
210	0xbce034e3	-0.027368968
211	0xbe82c73e	-0.25542635
212	0xbe3cb1ab	-0.1842715
213	0xbe64a7d1	-0.22329642
214	0xbe056e74	-0.13030416
215	0x3ea5c0f2	0.32373768
216	0x3dd71c77	0.10503476
217	0x3e733851	0.23751952
218	0x3e492207	0.19641887
219	0xbeaf9d4b	-0.34299693
220	0xbe565535	-0.20930941
221	0x3e8ef8ce	0.27924198
222	0xbdb4b5be	-0.08823727
223	0xbeb4d7f0	-0.35320997
224	0xbeb1dc48	-0.34738374
225	0xbe579a43	-0.2105494
226	0x3e527991	0.20554186
227	0xbe520df7	-0.2051314
228	0x3e9fac8c	0.3118633
229	0x3d7951a4	0.060868874
230	0xbe910708	-0.28325677
231	0xbe84bff3	-0.25927696
232	0x3e896446	0.26834315
233	0xbd9a413d	-0.075319745
234	0xbd3cbdd6	-0.04607948
235	0xbe30ebf5	-0.1727751
236	0xbe583079	-0.21112241
237	0x3eaaef11	0.33385518
238	0x3e8bc044	0.27295125
239	0x3e61edb1	0.22063328
240	0x3e8024ff	0.25028226
241	0x3e8e36f1	0.27776292
242	0x3dd0216c	0.10162625
243	0x3d20fdc5	0.039304513
244	0xbe435a68	-0.19077456
245	0x3e7b1d60	0.24522924
246	0x3ecd5323	0.4010249
247	0x3d574294	0.05255373
248	0x3db2e3b7	0.087348394
249	0xbe2b4edf	-0.16729306
250	0xbd9d1338	-0.07669681
251	0xbdac4366	-0.08411293
252	0xbe562276	-0.20911583
253	0x3e430f32	0.19048765
254	0xbd6a9170	-0.057267606
255	0x3d5d4b11	0.054026667

ntm.controller.lstm.bias_ih_l0 f4 [400]
0	0x3bc3f6eb	0.0059803627
1	0xbd31e1e1	-0.043428306
2	0xbd2df2cc	-0.042467877
3	0x3bdfb6de	0.0068272194
4	0xbce34e5c	-0.027747326
5	0xbcc1016f	-0.023560254
6	0xbd2c38d4	-0.042046383
7	0xbdbcc04a	-0.09216364
8	0xbcec3615	-0.028834382
9	0xbd22ad29	-0.03971592
10	0xbda79b41	-0.08183909
11	0xbdf3f4e4	-0.119119436
12	0x3cbc1a1e	0.022961672
13	0xbd0dde70	-0.03463596
14	0xbdf27001	-0.11837769
15	0x3d73a95f	0.059487697
16	0x3d2fd6bc	0.042929396
17	0xbdddf1d0	-0.10837138
18	0xbdc49dd9	-0.096004196
19	0xbde012de	-0.10941099
20	0xbd82a7a9	-0.06379635
21	0xbd675a50	-0.056482613
22	0xbd675e5a	-0.056486465
23	0xbc52e1bc	-0.012871202
24	0xbccd5fff	-0.025070189
25	0xbdd16a81	-0.10225392
26	0xbc5e6923	-0.013574871
27	0xbd1736b3	-0.0369174
28	0x3c19280e	0.009347929
29	0xbdb3b4ae	-0.08774696
30	0xbc8c7077	-0.017143471
31	0xbd06e427	-0.032932427
32	0xbd16887a	-0.036751248
33	0xbc9af708	-0.018916622
34	0xbceebcbf	-0.029142736
35	0xbca8577b	-0.020549526
36	0xbdc6be12	-0.09704222
37	0xbd91ead5	-0.07124869
38	0xbd856894	-0.06514087
39	0xbcd792d0	-0.026315123
40	0x3cbc9b62	0.023023311
41	0xbd235857	-0.03987917
42	0xbd870d4c	-0.06594333
43	0xbd869c2e	-0.06572758
44	0xbc177b76	-0.009245744
45	0xbce8b06a	-0.028404433
46	0xbd142b43	-0.03617407
47	0xbb866592	-0.0041014636
48	0xbd997d63	-0.07494619
49	0xbc615145	-0.013752286
50	0xbdb614fa	-0.0889072
51	0xbd99198d	-0.074755765
52	0xbd923567	-0.07139092
53	0xbd987f11	-0.07446111
54	0xbd9fbc8e	-0.07799636
55	0xbd53e4e2	-0.05173195
56	0xbaede087	-0.0018148579
57	0xbd19f5a6	-0.037587784
58	0xbd83ecac	-0.06441626
59	0xbc1c07bb	-0.009523327
60	0xbd14e2fa	-0.036349274
61	0x3bde3016	0.0067806346
62	0xbba16f9e	-0.004926636
63	0xbd857efa	-0.065183595
64	0xbcdd262a	-0.026995737
65	0xbd08b390	-0.03337437
66	0xbd38db68	-0.045131117
67	0xbd4483af	-0.047977146
68	0xbda09831	-0.07841528
69	0xbddb1e16	-0.10699098
70	0xbd4a8b41	-0.04944921
71	0xbd059658	-0.032614082
72	0xbdb5c706	-0.08875851
73	0xbd62331f	-0.055224534
74	0xbdae3b7d	-0.0850744
75	0xbd330764	-0.04370822
76	0xbdfc82ce	-0.123296365
77	0xbca1065b	-0.01965635
78	0xbc10f71c	-0.008847978
79	0xbd16c5ab	-0.036809605
80	0xbd2836b1	-0.041067783
81	0xbd65cc6f	-0.056103166
82	0xbdb40fe8	-0.087920964
83	0xbd08444e	-0.033268265
84	0xbd374c1d	-0.04475032
85	0xbdd47341	-0.103735454
86	0xbc727c5e	-0.014800159
87	0xb7d3d7ed	-2.5253708e-05
88	0xbd37af54	-0.04484494
89	0x3d460c1a	0.048351385
90	0x3c89995c	0.01679676
91	0xbd323640	-0.043508768
92	0xbbd82eba	-0.006597367
93	0xbb8c3232	-0.0042784447
94	0xbcf8c986	-0.030369531
95	0xbdbf1a95	-0.09331242
96	0x3c0cf8c6	0.008604234
97	0xbd1db7cf	-0.03850537
98	0xbdb897ef	-0.09013354
99	0x3d1b6077	0.037933793
100	0x3cb62eba	0.022239078
101	0x3d7f1690	0.062277377
102	0xbb611f51	-0.0034350941
103	0x3b0d9b57	0.0021607482
104	0x3b740992	0.003723715
105	0x3c959559	0.018259691
106	0x39ed05cb	0.0004520848
107	0xbc10bcc4	-0.008834068
108	0x3d8444ec	0.06458458
109	0xbd430a8e	-0.047617488
110	0xbc61f15d	-0.013790456
111	0x3ba6e748	0.005093489
112	0xbd595533	-0.053059768
113	0xbd00339a	-0.03129921
114	0xbcf84577	-0.03030656
115	0x3db0ed0d	0.08638964
116	0x3c483846	0.012220448
117	0xbc2ccfcf	-0.010547592
118	0x3d563747	0.05229881
119	0xbc4eddef	-0.012626155
120	0xbd02034a	-0.031741418
121	0xbd5ccbd3	-0.05390532
122	0x3def080e	0.11671458
123	0x3c8b0b7d	0.016973251
124	0x3debb68a	0.11509426
125	0x3c6df89c	0.014524605
126	0x3d189a31	0.037256423
127	0xbcb930ef	-0.022606341
128	0x3a39866c	0.00070772204
129	0xbd9b21d2	-0.0757481
130	0x3d7ee818	0.06223306
131	0x3bbb00b0	0.005706869
132	0xbcb492c1	-0.022042634
133	0x3bb8bd12	0.0056377733
134	0x3bca1a72	0.0061677033
135	0xbd8b7486	-0.068093345
136	0xbd6871ed	-0.056749273
137	0xbd4894c6	-0.048970006
138	0x3d40ed5d	0.047101367
139	0xbd3c66dd	-0.045996536
140	0x3d14ddca	0.036344327
141	0x3daffec4	0.085935146
142	0xbcb0c5ec	-0.021578752
143	0xbd9b28b8	-0.07576126
144	0x3d960870	0.07325828
145	0x3cd8f994	0.026486196
146	0xbd2010ba	-0.03907845
147	0x3cdc56ae	0.0268968
148	0xbc30bcdd	-0.010787216
149	0x3cf96503	0.030443674
150	0xbc818352	-0.015809689
151	0xbd025c36	-0.03182622
152	0x3d0d846f	0.034550127
153	0xbda927f7	-0.08259576
154	0x3d50a109	0.050934825
155	0xbb64ca2f	-0.003491055
156	0xbc565ce7	-0.013083673
157	0xbbdf55ba	-0.0068156393
158	0xbc4d5ff5	-0.012535085
159	0xbc24cf38	-0.01005917
160	0x3d150b03	0.036387455
161	0x3d215395	0.03938635
162	0x3c0c3ee7	0.008559919
163	0x3d965b9d	0.073416926
164	0x3da8ceec	0.08242592
165	0x3d62232b	0.05520932
166	0x3cfa2315	0.030534307
167	0x3d8c7a63	0.06859281
168	0x3d89bc5d	0.067253806
169	0xbcd5280f	-0.026020078
170	0xbc09bdb5	-0.008407046
171	0x3d1089ff	0.035287853
172	0xba46f245	-0.00075892016
173	0x3d4e89f6	0.05042454
174	0xbdd98c7a	-0.10622497
175	0xbcd328c3	-0.025776273
176	0xbd661d5d	-0.056180347
177	0xbc9c461e	-0.019076403
178	0xbcd80c33	-0.026373005
179	0x3d768538	0.06018564
180	0xbd578c57	-0.052624073
181	0xbd6ec918	-0.058297247
182	0xbda0431c	-0.078253
183	0xbd4668a9	-0.048439655
184	0xbc912759	-0.017718958
185	0xbd9061e5	-0.07049922
186	0x3cd8c63a	0.02646171
187	0x3d3c4c83	0.045971405
188	0x3b95b3e5	0.0045685642
189	0x3d98748f	0.07444107
190	0x3d80787b	0.0627298
191	0xbbf26d09	-0.007398252
192	0xbc05f6e7	-0.008176542
193	0x3c0d57a1	0.008626849
194	0xbc8f9181	-0.017525436
195	0x3d08fe6b	0.033445757
196	0xbd6b4b0d	-0.05744462
197	0xbcb447cf	-0.022006897
198	0x3d593c1e	0.053035848
199	0x3d670379	0.056399796
200	0x3da46d4f	0.080286615
201	0x3c4ecd82	0.012622239
202	0x3c0afa39	0.008482509
203	0x3d2855cf	0.04109746
204	0xbd62fa29	-0.055414353
205	0xbb8f6d14	-0.004377017
206	0xbc9a0c44	-0.018804677
207	0xbbe80fc8	-0.0070819594
208	0xbb629cbd	-0.0034578287
209	0xbd8d3f96	-0.06896894
210	0x3ce24c57	0.027624292
211	0x3c91b23f	0.01778519
212	0x3cedb8d3	0.029018795
213	0x3c066932	0.008203791
214	0x3ce759fa	0.028241146
215	0xbd16a8fb	-0.036782246
216	0x3c5515b4	0.013005663
217	0xbcde226a	-0.02711602
218	0xbbeb628e	-0.0071833795
219	0xbd1b02ca	-0.037844457
220	0x3d9d7bd2	0.076896325
221	0xbd4cd771	-0.05001015
222	0x3c84dc6f	0.016218392
223	0xbabfaaa1	-0.0014622995
224	0x3bb02233	0.0053751706
225	0xbc07d62f	-0.008290811
226	0x3d04e03e	0.032440417
227	0x3cbae5c0	0.022814631
228	0xbd994eb3	-0.07485714
229	0xbd3b2732	-0.045691676
230	0x3bc84b26	0.006112474
231	0x3ca2326c	0.019799434
232	0x39bcc31b	0.0003600352
233	0xbc1dd4d3	-0.009633261
234	0x3d34cdd2	0.044141598
235	0xbd23ab41	-0.039958242
236	0xbae56e4a	-0.0017504182
237	0xbcd2e868	-0.025745586
238	0xbd5d460a	-0.054021873
239	0xbda063d3	-0.0783154
240	0xbcb9d226	-0.022683214
241	0xbca5bc23	-0.020231312
242	0xbd0eea3f	-0.034891363
243	0xbb67dfc1	-0.003538117
244	0xbbe08652	-0.0068519497
245	0x3d403e7c	0.04693459
246	0x3d63a7c5	0.05557992
247	0xbd183e6a	-0.037168898
248	0x3d334758	0.04376921
249	0x3c113939	0.008863741
250	0xbd6bbd32	-0.057553478
251	0xbc8ea6e5	-0.017413566
252	0x3c1a3359	0.009411656
253	0x3b992b5f	0.0046743597
254	0x3bccfc59	0.006255668
255	0x3ccd006d	0.025024617

ntm.controller.lstm.bias_hh_l0 f4 [400]
0	0x3bc3f6eb	0.0059803627
1	0xbd31e1e1	-0.043428306
2	0xbd2df2cc	-0.042467877
3	0x3bdfb6de	0.0068272194
4	0xbce34e5c	-0.027747326
5	0xbcc1016f	-0.023560254
6	0xbd2c38d4	-0.042046383
7	0xbdbcc04a	-0.09216364
8	0xbcec3615	-0.028834382
9	0xbd22ad29	-0.03971592
10	0xbda79b41	-0.08183909
11	0xbdf3f4e4	-0.119119436
12	0x3cbc1a1e	0.022961672
13	0xbd0dde70	-0.03463596
14	0xbdf27001	-0.11837769
15	0x3d73a95f	0.059487697
16	0x3d2fd6bc	0.042929396
17	0xbdddf1d0	-0.10837138
18	0xbdc49dd9	-0.096004196
19	0xbde012de	-0.10941099
20	0xbd82a7a9	-0.06379635
21	0xbd675a50	-0.056482613
22	0xbd675e5a	-0.056486465
23	0xbc52e1bc	-0.012871202
24	0xbccd5fff	-0.025070189
25	0xbdd16a81	-0.10225392
26	0xbc5e6923	-0.013574871
27	0xbd1736b3	-0.0369174
28	0x3c19280e	0.009347929
29	0xbdb3b4ae	-0.08774696
30	0xbc8c7077	-0.017143471
31	0xbd06e427	-0.032932427
32	0xbd16887a	-0.036751248
33	0xbc9af708	-0.018916622
34	0xbceebcbf	-0.029142736
35	0xbca8577b	-0.020549526
36	0xbdc6be12	-0.09704222
37	0xbd91ead5	-0.07124869
38	0xbd856894	-0.06514087
39	0xbcd792d0	-0.026315123
40	0x3cbc9b62	0.023023311
41	0xbd235857	-0.03987917
42	0xbd870d4c	-0.06594333
43	0xbd869c2e	-0.06572758
44	0xbc177b76	-0.009245744
45	0xbce8b06a	-0.028404433
46	0xbd142b43	-0.03617407
47	0xbb866592	-0.0041014636
48	0xbd997d63	-0.07494619
49	0xbc615145	-0.013752286
50	0xbdb614fa	-0.0889072
51	0xbd99198d	-0.074755765
52	0xbd923567	-0.07139092
53	0xbd987f11	-0.07446111
54	0xbd9fbc8e	-0.07799636
55	0xbd53e4e2	-0.05173195
56	0xbaede087	-0.0018148579
57	0xbd19f5a6	-0.037587784
58	0xbd83ecac	-0.06441626
59	0xbc1c07bb	-0.009523327
60	0xbd14e2fa	-0.036349274
61	0x3bde3016	0.0067806346
62	0xbba16f9e	-0.004926636
63	0xbd857efa	-0.065183595
64	0xbcdd262a	-0.026995737
65	0xbd08b390	-0.03337437
66	0xbd38db68	-0.045131117
67	0xbd4483af	-0.047977146
68	0xbda09831	-0.07841528
69	0xbddb1e16	-0.10699098
70	0xbd4a8b41	-0.04944921
71	0xbd059658	-0.032614082
72	0xbdb5c706	-0.08875851
73	0xbd62331f	-0.055224534
74	0xbdae3b7d	-0.0850744
75	0xbd330764	-0.04370822
76	0xbdfc82ce	-0.123296365
77	0xbca1065b	-0.01965635
78	0xbc10f71c	-0.008847978
79	0xbd16c5ab	-0.036809605
80	0xbd2836b1	-0.041067783
81	0xbd65cc6f	-0.056103166
82	0xbdb40fe8	-0.087920964
83	0xbd08444e	-0.033268265
84	0xbd374c1d	-0.04475032
85	0xbdd47341	-0.103735454
86	0xbc727c5e	-0.014800159
87	0xb7d3d7ed	-2.5253708e-05
88	0xbd37af54	-0.04484494
89	0x3d460c1a	0.048351385
90	0x3c89995c	0.01679676
91	0xbd323640	-0.043508768
92	0xbbd82eba	-0.006597367
93	0xbb8c3232	-0.0042784447
94	0xbcf8c986	-0.030369531
95	0xbdbf1a95	-0.09331242
96	0x3c0cf8c6	0.008604234
97	0xbd1db7cf	-0.03850537
98	0xbdb897ef	-0.09013354
99	0x3d1b6077	0.037933793
100	0x3cb62eba	0.022239078
101	0x3d7f1690	0.062277377
102	0xbb611f51	-0.0034350941
103	0x3b0d9b57	0.0021607482
104	0x3b740992	0.003723715
105	0x3c959559	0.018259691
106	0x39ed05cb	0.0004520848
107	0xbc10bcc4	-0.008834068
108	0x3d8444ec	0.06458458
109	0xbd430a8e	-0.047617488
110	0xbc61f15d	-0.013790456
111	0x3ba6e748	0.005093489
112	0xbd595533	-0.053059768
113	0xbd00339a	-0.03129921
114	0xbcf84577	-0.03030656
115	0x3db0ed0d	0.08638964
116	0x3c483846	0.012220448
117	0xbc2ccfcf	-0.010547592
118	0x3d563747	0.05229881
119	0xbc4eddef	-0.012626155
120	0xbd02034a	-0.031741418
121	0xbd5ccbd3	-0.05390532
122	0x3def080e	0.11671458
123	0x3c8b0b7d	0.016973251
124	0x3debb68a	0.11509426
125	0x3c6df89c	0.014524605
126	0x3d189a31	0.037256423
127	0xbcb930ef	-0.022606341
128	0x3a39866c	0.00070772204
129	0xbd9b21d2	-0.0757481
130	0x3d7ee818	0.06223306
131	0x3bbb00b0	0.005706869
132	0xbcb492c1	-0.022042634
133	0x3bb8bd12	0.0056377733
134	0x3bca1a72	0.0061677033
135	0xbd8b7486	-0.068093345
136	0xbd6871ed	-0.056749273
137	0xbd4894c6	-0.048970006
138	0x3d40ed5d	0.047101367
139	0xbd3c66dd	-0.045996536
140	0x3d14ddca	0.036344327
141	0x3daffec4	0.085935146
142	0xbcb0c5ec	-0.021578752
143	0xbd9b28b8	-0.07576126
144	0x3d960870	0.07325828
145	0x3cd8f994	0.026486196
146	0xbd2010ba	-0.03907845
147	0x3cdc56ae	0.0268968
148	0xbc30bcdd	-0.010787216
149	0x3cf96503	0.030443674
150	0xbc818352	-0.015809689
151	0xbd025c36	-0.03182622
152	0x3d0d846f	0.034550127
153	0xbda927f7	-0.08259576
154	0x3d50a109	0.050934825
155	0xbb64ca2f	-0.003491055
156	0xbc565ce7	-0.013083673
157	0xbbdf55ba	-0.0068156393
158	0xbc4d5ff5	-0.012535085
159	0xbc24cf38	-0.01005917
160	0x3d150b03	0.036387455
161	0x3d215395	0.03938635
162	0x3c0c3ee7	0.008559919
163	0x3d965b9d	0.073416926
164	0x3da8ceec	0.08242592
165	0x3d62232b	0.05520932
166	0x3cfa2315	0.030534307
167	0x3d8c7a63	0.06859281
168	0x3d89bc5d	0.067253806
169	0xbcd5280f	-0.026020078
170	0xbc09bdb5	-0.008407046
171	0x3d1089ff	0.035287853
172	0xba46f245	-0.00075892016
173	0x3d4e89f6	0.05042454
174	0xbdd98c7a	-0.10622497
175	0xbcd328c3	-0.025776273
176	0xbd661d5d	-0.056180347
177	0xbc9c461e	-0.019076403
178	0xbcd80c33	-0.026373005
179	0x3d768538	0.06018564
180	0xbd578c57	-0.052624073
181	0xbd6ec918	-0.058297247
182	0xbda0431c	-0.078253
183	0xbd4668a9	-0.048439655
184	0xbc912759	-0.017718958
185	0xbd9061e5	-0.07049922
186	0x3cd8c63a	0.02646171
187	0x3d3c4c83	0.045971405
188	0x3b95b3e5	0.0045685642
189	0x3d98748f	0.07444107
190	0x3d80787b	0.0627298
191	0xbbf26d09	-0.007398252
192	0xbc05f6e7	-0.008176542
193	0x3c0d57a1	0.008626849
194	0xbc8f9181	-0.017525436
195	0x3d08fe6b	0.033445757
196	0xbd6b4b0d	-0.05744462
197	0xbcb447cf	-0.022006897
198	0x3d593c1e	0.053035848
199	0x3d670379	0.056399796
200	0x3da46d4f	0.080286615
201	0x3c4ecd82	0.012622239
202	0x3c0afa39	0.008482509
203	0x3d2855cf	0.04109746
204	0xbd62fa29	-0.055414353
205	0xbb8f6d14	-0.004377017
206	0xbc9a0c44	-0.018804677
207	0xbbe80fc8	-0.0070819594
208	0xbb629cbd	-0.0034578287
209	0xbd8d3f96	-0.06896894
210	0x3ce24c57	0.027624292
211	0x3c91b23f	0.01778519
212	0x3cedb8d3	0.029018795
213	0x3c066932	0.008203791
214	0x3ce759fa	0.028241146
215	0xbd16a8fb	-0.036782246
216	0x3c5515b4	0.013005663
217	0xbcde226a	-0.02711602
218	0xbbeb628e	-0.0071833795
219	0xbd1b02ca	-0.037844457
220	0x3d9d7bd2	0.076896325
221	0xbd4cd771	-0.05001015
222	0x3c84dc6f	0.016218392
223	0xbabfaaa1	-0.0014622995
224	0x3bb02233	0.0053751706
225	0xbc07d62f	-0.008290811
226	0x3d04e03e	0.032440417
227	0x3cbae5c0	0.022814631
228	0xbd994eb3	-0.07485714
229	0xbd3b2732	-0.045691676
230	0x3bc84b26	0.006112474
231	0x3ca2326c	0.019799434
232	0x39bcc31b	0.0003600352
233	0xbc1dd4d3	-0.009633261
234	0x3d34cdd2	0.044141598
235	0xbd23ab41	-0.039958242
236	0xbae56e4a	-0.0017504182
237	0xbcd2e868	-0.025745586
238	0xbd5d460a	-0.054021873
239	0xbda063d3	-0.0783154
240	0xbcb9d226	-0.022683214
241	0xbca5bc23	-0.020231312
242	0xbd0eea3f	-0.034891363
243	0xbb67dfc1	-0.003538117
244	0xbbe08652	-0.0068519497
245	0x3d403e7c	0.04693459
246	0x3d63a7c5	0.05557992
247	0xbd183e6a	-0.037168898
248	0x3d334758	0.04376921
249	0x3c113939	0.008863741
250	0xbd6bbd32	-0.057553478
251	0xbc8ea6e5	-0.017413566
252	0x3c1a3359	0.009411656
253	0x3b992b5f	0.0046743597
254	0x3bccfc59	0.006255668
255	0x3ccd006d	0.025024617

ntm.controller.lstm.weight_ih_l1 f4 [400, 100]
0	0xbe8e9c97	-0.27853844
1	0x3e4e784e	0.2016308
2	0xbe5d7fcb	-0.2163078
3	0xbe5707fd	-0.20999141
4	0x3d30cf56	0.04316648
5	0x3de2af1d	0.110685565
6	0xbcf8c831	-0.030368896
7	0xbe88979c	-0.2667817
8	0xbca15373	-0.019693112
9	0xbe86cfc8	-0.263304
10	0x3e72b065	0.23700102
11	0x3e950f7d	0.2911338
12	0x3e369342	0.17829612
13	0xbdba3d84	-0.090937644
14	0x3c899489	0.01679446
15	0xbd262471	-0.040562097
16	0xbd20c6d7	-0.03925213
17	0xbc382bb3	-0.011240887
18	0x3c9b3b13	0.018949067
19	0xbd77bbec	-0.06048195
20	0xbcbef86a	-0.023311812
21	0xbe36d9b8	-0.1785649
22	0xbdefeddd	-0.11715291
23	0xbe6d51ef	-0.23175786
24	0xbcbaa4d2	-0.02278367
25	0xbe613534	-0.21992952
26	0xbe569e45	-0.20958813
27	0xbdf913b7	-0.121619634
28	0x3df6e7c6	0.12055926
29	0x3ec167b5	0.37774435
30	0xbe1013a7	-0.14069997
31	0xbea49b5f	-0.3214979
32	0x3eb23818	0.3480842
33	0x3e58eeec	0.21184891
34	0x3e2716ba	0.16317263
35	0xbeaed444	-0.3414632
36	0x3d25e7fe	0.040504448
37	0xbe08012e	-0.132817
38	0x3eb78f38	0.35851455
39	0x3db2a806	0.08723454
40	0xbe5abea6	-0.21361789
41	0x3e951544	0.29117787
42	0xbea0dffa	-0.3142088
43	0xbe5f7cc5	-0.2182494
44	0xbe037200	-0.12836456
45	0xbe609797	-0.21932827
46	0x3d9974c5	0.07492975
47	0xbe0b7f73	-0.13622837
48	0xbd052bb2	-0.032512374
49	0xbbc99529	-0.0061518145
50	0x3e682575	0.22670539
51	0xbeac0386	-0.33596438
52	0x3ca21f65	0.01979036
53	0xbe0b8d13	-0.13628034
54	0xbe340df8	-0.17583454
55	0x3ebdfd97	0.37107536
56	0x3ea5417b	0.3227652
57	0x3c06daa0	0.008230835
58	0xbd933642	-0.07188083
59	0xbd645a88	-0.0557504
60	0x3d32e72f	0.043677505
61	0xbe519327	-0.2046629
62	0x3df4467b	0.119275056
63	0xbe8b4b26	-0.2720577
64	0x3e248268	0.16065371
65	0x3d9ffe7c	0.07812211
66	0xbeb093ed	-0.34487858
67	0x3e7773a1	0.24165203
68	0xbcf6f5bc	-0.030146472
69	0x3e54618d	0.20740338
70	0x3e0be996	0.13663325
71	0x3e847c82	0.25876242
72	0xbe964ca0	-0.29355335
73	0x3e2a02b5	0.16602595
74	0xbcb84f01	-0.02249861
75	0xbb114ced	-0.0022171095
76	0x3e362a33	0.17789535
77	0x3e61adad	0.22038908
78	0x3e8488d9	0.25885656
79	0x3d3505b4	0.044194892
80	0x3eb2c088	0.34912515
81	0xbe9626ea	-0.29326564
82	0x3c486acf	0.012232496
83	0xbe359c12	-0.17735317
84	0x3e5b41de	0.21411845
85	0xbe0d125b	-0.13776533
86	0x3dfc29f1	0.12312687
87	0xbdb6c940	-0.08925104
88	0x3ea74fc4	0.32678044
89	0x3e631e78	0.22179592
90	0xbe5bb457	-0.21455513
91	0x3ec69b01	0.38790134
92	0x3e923fac	0.28564203
93	0x3e75a478	0.23988521
94	0x3e8c9383	0.27456293
95	0xbda63dd7	-0.08117264
96	0x3db3b9ee	0.08775698
97	0x3e7b960c	0.24568957
98	0x3e60c3e7	0.21949731
99	0x3e8d67d8	0.2761829
100	0xbe97a4bb	-0.29617867
101	0x3eae5ece	0.34056705
102	0xbdf0c5c3	-0.1175647
103	0x3e16231e	0.14661834
104	0xbe445bb0	-0.19175601
105	0x3e16cc2d	0.14726324
106	0x3ec638d9	0.38715246
107	0xbe76c371	-0.24097992
108	0x3e87e9f7	0.2654569
109	0x3e9a58d7	0.30145904
110	0xbc7f5d2f	-0.015586182
111	0xba1dcfdc	-0.0006020048
112	0x3e907fe9	0.28222588
113	0xbd840e2a	-0.06448014
114	0x3e471f2d	0.19445486
115	0x3e878ec2	0.26476103
116	0xbdadc174	-0.08484164
117	0x3ea6aa86	0.32551974
118	0xbb1944b6	-0.0023386902
119	0xbc8e8788	-0.01739861
120	0x3e82242e	0.25418228
121	0xbe57372b	-0.21017139
122	0x3ea9246b	0.33035597
123	0xbe8aebac	-0.27132928
124	0x3e115127	0.14191113
125	0x3dcf8985	0.10133652
126	0xbd8a3d13	-0.0674993
127	0x3e606f69	0.219175
128	0xbe89c2f1	-0.2690654
129	0x3d874013	0.06604018
130	0xbea8e6ad	-0.32988492
131	0xbe9b32b3	-0.30312118
132	0xbe8a8e35	-0.2706162
133	0xbc86c49e	-0.016451176
134	0xbeafa0c3	-0.3430234
135	0xbe43a135	-0.19104464
136	0xbea0d906	-0.31415576
137	0xbbc40d77	-0.0059830504
138	0xbe65789a	-0.22409287
139	0x3e49d6b3	0.19710808
140	0xbe08acd8	-0.13347185
141	0x3d6ad5e2	0.05733288
142	0xbe6932c3	-0.2277327
143	0x3e8360ba	0.25659734
144	0x3b024fc4	0.001988397
145	0x3e3ab45e	0.18232867
146	0xbe78990e	-0.24277136
147	0x3b8749ec	0.004128685
148	0xbdba0f4c	-0.09084949
149	0x3e17c940	0.14822865
150	0xbe37659a	-0.17909852
151	0x3dad81e0	0.08472037
152	0x3e530c95	0.20610268
153	0x3e89048a	0.26761276
154	0xbe853782	-0.26018912
155	0x3cf56d3c	0.029959314
156	0x3e94d924	0.29071915
157	0x3e6795b4	0.22615701
158	0xbe33a48c	-0.17543238
159	0x3df8b436	0.121437475
160	0xbdd68543	-0.104746364
161	0x3cfb4573	0.030672764
162	0xbe46c4e7	-0.1941105
163	0x3dec2a51	0.11531509
164	0xbe32c0a4	-0.17456299
165	0xbea10ede	-0.31456655
166	0xbeaf4d80	-0.34238815
167	0x3e09f9d3	0.13474207
168	0xbe66df7c	-0.2254619
169	0x3e376bd9	0.17912234
170	0xbd8de92a	-0.06929238
171	0x3e66eec8	0.22552025
172	0x3d404533	0.046940994
173	0xbe996324	-0.2995845
174	0xbebfa8a9	-0.37433365
175	0x3eaf37c7	0.34222242
176	0x3e838903	0.2569047
177	0xbe91d23c	-0.2848071
178	0xbe762d49	-0.24040712
179	0x3e506dc6	0.20354375
180	0xbe1a912d	-0.15094443
181	0x3cb23d8f	0.021757869
182	0x3ea8d20b	0.3297275
183	0xbd61615e	-0.055024497
184	0x3c8cf7ad	0.017207945
185	0x3e9fd8b4	0.3122002
186	0xbe776419	-0.24159278
187	0x3c6bf29a	0.014401102
188	0xbe90e4fe	-0.28299707
189	0xbea40221	-0.32032874
190	0xbc526e66	-0.012843704
191	0xbe43df7d	-0.19128223
192	0x3d309135	0.04310723
193	0x3e86a72e	0.26299423
194	0xbc31f617	-0.010861895
195	0xbe4faf80	-0.20281792
196	0xbe170945	-0.1474963
197	0xbecab523	-0.3959132
198	0xbc61cf12	-0.01378228
199	0x3c7a027d	0.015259382
200	0xbe63cf8f	-0.22247146
201	0xbe71709d	-0.23578115
202	0x3954b5f3	0.00020285677
203	0x3d12c8f9	0.035836194
204	0xbed36df1	-0.41294816
205	0x3e98573d	0.29754058
206	0xbe0f86f6	-0.14016327
207	0xbd105c33	-0.035244178
208	0xbe1000d1	-0.14062811
209	0x3e50bed7	0.203853
210	0xbe7b0b3f	-0.24516009
211	0x3e8075da	0.25089914
212	0x3e2739b5	0.16330607
213	0x3cf717b3	0.030162668
214	0xbec2e7c9	-0.38067463
215	0xbe6f4ecd	-0.23369904
216	0x3ebb2b6a	0.3655656
217	0x3cd3d56a	0.0258586
218	0x3e789d63	0.24278788
219	0xbece64e7	-0.40311357
220	0x3d4f2977	0.050576653
221	0xbd82471e	-0.06361221
222	0x3e1373d3	0.14399652
223	0x3dc47ace	0.09593736
224	0x3e17b862	0.1481643
225	0x3e811527	0.2521145
226	0xbea57651	-0.3231683
227	0x3e8004a8	0.25003552
228	0x3d20bbb9	0.039241526
229	0x3cc0ae16	0.02352051
230	0xbe9b25a8	-0.30302167
231	0xbe913ea7	-0.28368112
232	0xbda4b267	-0.0804184
233	0x3ec8ac54	0.39193976
234	0xbe2de3c3	-0.16981415
235	0x3e750aca	0.23929897
236	0x3d5b9661	0.05361021
237	0xbe3562de	-0.17713496
238	0x3eba1639	0.3634508
239	0x3e28638d	0.16444226
240	0xbea70dbb	-0.32627663
241	0xbe852656	-0.2600581
242	0x3e7f1ea3	0.2491403
243	0xbe8b0c7b	-0.2715796
244	0xbe67c431	-0.22633435
245	0xba22bce5	-0.0006207957
246	0xbe80b923	-0.25141248
247	0x3eb281a8	0.34864545
248	0x3e218e54	0.1577695
249	0x3e781989	0.24228491
250	0xbeabf42f	-0.33584735
251	0x3e4180ec	0.18896836
252	0xbe78616b	-0.24255912
253	0xbdd5d2b1	-0.10440577
254	0xbca5a0d4	-0.02021829
255	0xbececc4f	-0.4039025
