results/priority-sort/priority-sort-task-42-1-4-batch-40000.model (torch_old, 859809 bytes, 49 tensors)

ntm.read0_bias f4 [1, 20]
0	0xbb6920f7	-0.0035572627
1	0xbba33f9d	-0.0049819485
2	0x3c2308d9	0.00995084
3	0x3c46db8f	0.012137308
4	0x3b362c94	0.0027797567
5	0x3a416241	0.00073770067
6	0x3b3c405b	0.0028724882
7	0xbb2f3bb7	-0.0026738474
8	0xbb6dec52	-0.0036304188
9	0x3bdc0db3	0.0067155003
10	0xbc664ee4	-0.014056895
11	0xbaa5d48e	-0.0012651847
12	0xba7c79c2	-0.00096311804
13	0xbcc26cd3	-0.023733532
14	0x38e60e9c	0.00010969976
15	0xbc88f900	-0.016720295
16	0x3b013b44	0.0019719163
17	0x3bcd146e	0.006258539
18	0x3b3a2ad8	0.0028406885
19	0xbbe8808c	-0.007095402

ntm.read1_bias f4 [1, 20]
0	0xbc7d5721	-0.015462668
1	0x3c03e6db	0.008050646
2	0xbc2156aa	-0.0098473225
3	0xbb804620	-0.0039146096
4	0x3acaa2a1	0.0015459844
5	0xba033269	-0.0005004765
6	0xbb01b28c	-0.001979026
7	0x3c59bd35	0.013289739
8	0x3afc42fd	0.0019246038
9	0x3a935d60	0.0011243038
10	0xbc00f821	-0.007871659
11	0x3a09b5bf	0.00052532175
12	0x3c6c967c	0.014440175
13	0xbc832c1b	-0.016012242
14	0x3c6b933e	0.014378367
15	0xbc523ddb	-0.01283213
16	0x3b908ed9	0.00441156
17	0xbba7d260	-0.005121514
18	0x3cf46fb0	0.029838413
19	0xbc8987d9	-0.01678841

ntm.read2_bias f4 [1, 20]
0	0xbb8cc9a7	-0.0042965
1	0xbbe4f6fc	-0.0069874506
2	0x3b9d1117	0.004793297
3	0xba9d33ab	-0.0011993548
4	0x3c4327bb	0.011911328
5	0xbc95bfc9	-0.018279927
6	0xbbeee1a1	-0.0072900807
7	0xbb213102	-0.0024595861
8	0xbc28636b	-0.010277609
9	0xbca96ee4	-0.02068276
10	0x3a1c22f4	0.0005956136
11	0x3bc20530	0.0059210286
12	0x3cedd08a	0.029030103
13	0x3b149912	0.0022674245
14	0x3b182d0b	0.0023220207
15	0x3bc9f03d	0.006162672
16	0x3bae6269	0.00532179
17	0xbbb928b4	-0.005650604
18	0x3c18a5eb	0.009316902
19	0x3c2390b6	0.009983232

ntm.read3_bias f4 [1, 20]
0	0x3c48e91c	0.012262609
1	0xbc22c2d0	-0.009934142
2	0x3cb1dd3e	0.021711942
3	0x3c0e93ad	0.008702201
4	0xba8c234d	-0.0010691673
5	0xbb15e8ef	-0.0022874435
6	0x3a6d4f05	0.00090526073
7	0xbb025687	-0.0019888
8	0x3bc67d87	0.0060574445
9	0x3c43722f	0.011929079
10	0x3c600630	0.01367335
11	0xbbd693b0	-0.0065483674
12	0xbc03aa2e	-0.0080361795
13	0xbabd910d	-0.0014462784
14	0x3baeacc1	0.0053306525
15	0x3bb8e12e	0.005642078
16	0x3ba63dfe	0.005073308
17	0x3baa644e	0.0051999455
18	0x3bf10b75	0.007356102
19	0xbb94a280	-0.004535973

ntm.read4_bias f4 [1, 20]
0	0xbbe86027	-0.0070915404
1	0xbbfe7a86	-0.007766071
2	0x3c28a820	0.01029399
3	0xb942883d	-0.00018552034
4	0xbc40e8c9	-0.01177425
5	0xbc66339b	-0.01405039
6	0x3b80b0bc	0.0039273184
7	0xbbebae6c	-0.0071924236
8	0xbbd6b730	-0.0065525994
9	0x3a4d9e5c	0.0007843727
10	0x3ab45b06	0.0013760037
11	0xbb884dd1	-0.004159667
12	0xba5dec40	-0.0008465685
13	0xb9c210ca	-0.00037015072
14	0x3bbbf958	0.005736511
15	0x3ba667eb	0.005078306
16	0xbbe96d8e	-0.0071236556
17	0xbc361f5e	-0.011115877
18	0x3c495890	0.012289181
19	0xbcc96830	-0.024585813

ntm.controller.lstm_h_bias f4 [2, 1, 100]
0	0xbdb71900	-0.08940315
1	0x3d5ebcca	0.054379262
2	0xbb56a5c9	-0.0032752624
3	0x3c617b66	0.013762331
4	0x3cb526b4	0.022113182
5	0xbdc92928	-0.09822303
6	0xbb848522	-0.004044191
7	0x3dff4a13	0.124653004
8	0x3d498767	0.049201395
9	0x3d5f0342	0.054446466
10	0x3c5175d4	0.01278444
11	0x3bd69ddb	0.0065495796
12	0xbcce2c9b	-0.025167754
13	0x3e09e1f4	0.134651
14	0xbd800bac	-0.06252226
15	0x3dcf654b	0.10126742
16	0xbca317c3	-0.019908791
17	0x3d06080b	0.032722514
18	0xbc611c77	-0.013739697
19	0x3c200b98	0.009768389
20	0xbd6777b5	-0.056510646
21	0xbd138eb2	-0.036024757
22	0x3d725721	0.059165124
23	0xbd884252	-0.066532746
24	0xbe0994fd	-0.13435741
25	0xbda4aa1a	-0.08040257
26	0xbd79d016	-0.06098946
27	0x3d82b95e	0.06383012
28	0x3c55686d	0.013025385
29	0x3da2a4ca	0.07941587
30	0xbd98cbfa	-0.074607804
31	0x3cc7189d	0.024303729
32	0xbdb62584	-0.08893874
33	0x3dcf6e98	0.10128516
34	0xbbcd51b4	-0.0062658433
35	0x3a992ab6	0.0011685702
36	0xbd695cd6	-0.0569733
37	0xbd775a2c	-0.06038873
38	0x3d8700c4	0.06591943
39	0xbdb9274e	-0.090407
40	0xbd63fd7c	-0.055661663
41	0x3c57e2dc	0.013176646
42	0xbc3a8c60	-0.011386007
43	0x3e150840	0.14553928
44	0x3d40bd37	0.04705545
45	0xbc997c07	-0.018735899
46	0xbcfe421a	-0.031037379
47	0x3e0d6d0d	0.13811131
48	0xbcd3052b	-0.0257593
49	0xbe0cd8a8	-0.13754523
50	0xbc8ad750	-0.016948372
51	0xbdda68f0	-0.106645465
52	0xbca8dc4a	-0.020612855
53	0xbc78b762	-0.015180441
54	0x3cbe678c	0.023242734
55	0x3d8d99f0	0.06914127
56	0x3d00a610	0.03140837
57	0xbc143c3a	-0.009047562
58	0x3d666dd4	0.056257084
59	0xbd9d5473	-0.07682123
60	0x3d4e4c4d	0.050365735
61	0x3c9380b4	0.018005706
62	0x3ba1d832	0.0049391026
63	0x3da561a0	0.08075261
64	0xbc234455	-0.009965022
65	0x3d8c6dcf	0.06856882
66	0xbba448d0	-0.0050135627
67	0x3da1702e	0.07882725
68	0xbcaa90d5	-0.020821014
69	0x3ceb6755	0.028735796
70	0x3da09736	0.07841341
71	0x3e13293f	0.14371203
72	0x3cd02d06	0.025412094
73	0x3b6c4dd4	0.0036057131
74	0xbda4dce5	-0.08049945
75	0x3d1912f4	0.03737159
76	0xbd1229a0	-0.035684228
77	0xbb98e352	-0.0046657706
78	0xbccd356e	-0.025049891
79	0x3d600321	0.054690484
80	0xbcd4d823	-0.025981968
81	0xbc253b71	-0.010084973
82	0x3d40482c	0.04694383
83	0xbd738da4	-0.05946125
84	0x3e0296ab	0.12752788
85	0x3de61f7d	0.11236475
86	0x3cbb7810	0.022884399
87	0xbde5f384	-0.112280875
88	0x3d299dc4	0.041410223
89	0x3d315720	0.04329598
90	0xbc87958a	-0.016550798
91	0xbc8d1da1	-0.017226042
92	0xbd861da1	-0.0654862
93	0x3da9b902	0.082872406
94	0x3d9ce84b	0.07661494
95	0x3d5a361f	0.05327427
96	0x3d2b98dd	0.04189383
97	0x3c7ec401	0.015549661
98	0x3a465da9	0.0007567057
99	0x3d42a9a2	0.047525056
100	0x3c443f7f	0.011978029
101	0xbd65b141	-0.056077246
102	0xbdc106be	-0.09425114
103	0x3cae2ad3	0.021260655
104	0x3d4165ca	0.047216214
105	0xbc020bbe	-0.00793737
106	0x3d191a45	0.03737857
107	0x3ceb2e71	0.028708668
108	0x3d77cb35	0.060496528
109	0x3cf5f35b	0.030023267
110	0x3d2c8390	0.042117655
111	0xbd2b5a28	-0.041834027
112	0x3c43cfab	0.011951367
113	0x3c0f647d	0.008751986
114	0xbcf8d069	-0.030372815
115	0xbd4f303f	-0.05058312
116	0xbcfc4267	-0.030793382
117	0xbd00c4f8	-0.031437844
118	0x3ccb5fcd	0.024825955
119	0xbb81f92b	-0.0039664707
120	0x3e1c0b8e	0.15238783
121	0x3aaff1b1	0.001342347
122	0xbd4f5de9	-0.05062667
123	0xbdc14007	-0.0943604
124	0xbd47b9a9	-0.048761044
125	0x3d8746b7	0.06605285
126	0x3cdeb1f0	0.027184457
127	0xbce3d216	-0.027810138
128	0xbd94510d	-0.07242022
129	0xbda7249d	-0.0816128
130	0xbddcd803	-0.107833885
131	0xbba34f6e	-0.004983834
132	0x3c10e348	0.008843251
133	0x3d6da060	0.058014274
134	0x3c94a522	0.018145148
135	0xbc933d55	-0.017973581
136	0x3dc8ec77	0.09810727
137	0xbc0d8a5a	-0.008638943
138	0x3d57254e	0.05252581
139	0xbaafa96e	-0.0013401934
140	0x3d0e8dde	0.034803264
141	0x3d26dc88	0.04073766
142	0x3d27103c	0.040786967
143	0x3ce23bce	0.027616408
144	0xbd000943	-0.031258833
145	0x3dc91012	0.09817518
146	0x3d071925	0.032982964
147	0x3ddd9537	0.10819476
148	0x3d342614	0.043981627
149	0xbd090156	-0.03344854
150	0x3cc4f789	0.024043815
151	0xbccaeb6f	-0.024770467
152	0x3d0d5f0e	0.03451448
153	0xbd03410b	-0.03204445
154	0xbdaefcc5	-0.08544306
155	0x3d1f0e44	0.038831964
156	0xbc15dbb4	-0.00914662
157	0x3d0b41e2	0.033998378
158	0x3cbdeaa1	0.023183169
159	0x3d8dfd63	0.06933095
160	0xbe02949a	-0.12752
161	0x398e356c	0.00027124153
162	0x3c621a68	0.013800241
163	0x3c9907a6	0.018680405
164	0xbd26a4b9	-0.040684436
165	0x3c3b7339	0.011441045
166	0xbbb2b0c9	-0.0054532033
167	0x3c2b3515	0.010449667
168	0xbd95948d	-0.073037244
169	0x3ca08c37	0.01959811
170	0xbdaf084a	-0.08546503
171	0x3c58f6f5	0.013242473
172	0x3de21df6	0.11040871
173	0x3d03d25e	0.032183044
174	0xbd55c2e1	-0.052187804
175	0xbd0cf2c4	-0.034411207
176	0x3ab3d0f2	0.0013718887
177	0xbd36ca7b	-0.044626694
178	0xbd75628f	-0.059908446
179	0x3dcca8fb	0.09993168
180	0xbced92d0	-0.02900067
181	0x3cd5b39a	0.026086617
182	0x3c77ae95	0.015117307
183	0xbc99c4b5	-0.018770555
184	0xbca53504	-0.020166881
185	0xbd8240bd	-0.06360004
186	0x3df9f26b	0.12204441
187	0x3d9f22aa	0.077702835
188	0xbd7928f5	-0.060830075
189	0xbc18339c	-0.009289648
190	0x3d174b0d	0.03693681
191	0x3c5dadbb	0.01353019
192	0xbd3b0116	-0.045655333
193	0xbd967e74	-0.07348338
194	0x3d271113	0.040787768
195	0xbdad2f9d	-0.08456347
196	0xbd99d55f	-0.075114004
197	0x3e158137	0.14600073
198	0xbc13ff91	-0.0090331
199	0x3ccd59d4	0.025067247

ntm.controller.lstm_c_bias f4 [2, 1, 100]
0	0xbdc52822	-0.09626795
1	0xbd29e6a3	-0.041479718
2	0xbc8b9355	-0.017038027
3	0x3d9a9961	0.07548786
4	0x3c96de4c	0.018416546
5	0xbd15a4f3	-0.03653426
6	0xbd396ee4	-0.04527177
7	0x3d6a0565	0.05713405
8	0x3d43d941	0.04781461
9	0xbd5a542a	-0.05330292
10	0x3cb8762b	0.022517284
11	0x3d998fab	0.074981056
12	0x3ca562d7	0.020188732
13	0xbbedf9da	-0.0072624506
14	0xbdb4c8d0	-0.088273644
15	0xbc9d8fbf	-0.019233583
16	0xbd135c0c	-0.035976455
17	0x3c723a30	0.014784381
18	0xbdb7ef50	-0.08981192
19	0x3d946b81	0.07247067
20	0x3cb3663d	0.021899337
21	0xbdb8f684	-0.09031394
22	0x3c9ffa2d	0.019528473
23	0xbc1bf498	-0.009518765
24	0x3ca7bf15	0.020476857
25	0xbd3e8b68	-0.046519667
26	0xbdcd630c	-0.10028657
27	0x3dce25e7	0.10065823
28	0x3d42c3c0	0.047549963
29	0xbbc06ca2	-0.005872325
30	0xbdb23426	-0.08701353
31	0x3dca73ba	0.09885354
32	0x3d9b728f	0.0759021
33	0xbe44c149	-0.19214357
34	0xbd5244d2	-0.051335163
35	0xbc0b5f75	-0.008506645
36	0xbdaffb18	-0.08592814
37	0x3d27b878	0.040947407
38	0xbd22859e	-0.03967821
39	0x3d1c92b3	0.03822584
40	0xbd870dcd	-0.06594429
41	0xbcd7d78e	-0.026347902
42	0x3cddd566	0.027079295
43	0x3da1846b	0.07886585
44	0x3e08b9a3	0.13352065
45	0x3c560829	0.013063469
46	0x3d0cd5a7	0.034383442
47	0xbbc87bcc	-0.0061182734
48	0xbd2d272d	-0.04227369
49	0xbdcee0d8	-0.10101479
50	0x3afd94f8	0.0019346764
51	0xbc2f7af3	-0.010710466
52	0x3db8fafa	0.09032245
53	0xbc8700f3	-0.016479945
54	0xbd6cf94b	-0.05785493
55	0xbd82783c	-0.06370589
56	0xbdb9f1a5	-0.09079293
57	0x3d1d57c8	0.038413793
58	0x3c48aa46	0.012247628
59	0x3bf0318c	0.007330125
60	0xbd8ea8b6	-0.06965773
61	0x3d945d16	0.07244317
62	0xbd135f94	-0.035979822
63	0xbda29550	-0.07938635
64	0x3c9cfd2f	0.019163696
65	0xbdb3cdad	-0.08779464
66	0xbd8dca1f	-0.06923317
67	0xbd56002d	-0.05224626
68	0xbcd5bbd1	-0.026090534
69	0x3d1e99c1	0.03872085
70	0x3de25b41	0.110525616
71	0xbd683e05	-0.05669977
72	0x3cbab30f	0.02279046
73	0x3bcf7a6a	0.0063317316
74	0xbc0969a5	-0.008387004
75	0xbd90be58	-0.07067555
76	0xbd2be3a2	-0.041965134
77	0x3c0996f0	0.008397803
78	0x3c9b1df9	0.01893519
79	0xbcca7bc4	-0.02471722
80	0x3c83baf9	0.016080366
81	0x3c5a40d7	0.013321123
82	0xbd7f515a	-0.062333442
83	0xbd0e6029	-0.034759674
84	0x3d31ef91	0.04344136
85	0x3cf936da	0.030421663
86	0x3d4c1e66	0.049833678
87	0x3dc55edf	0.09637236
88	0xbe357ac4	-0.17722613
89	0xbd01ee9d	-0.0317217
90	0x3d03ff4d	0.032225896
91	0x3b73f3f9	0.0037224276
92	0xbc9e5e38	-0.019332036
93	0xbd873b0a	-0.06603058
94	0xbd88d0cc	-0.0668045
95	0xbd9f23cf	-0.07770502
96	0x3c8ea1d3	0.017411148
97	0xbcfb1749	-0.030650752
98	0x3cc6b853	0.024257815
99	0xbc65ef7a	-0.014034146
100	0x3ba2b0e9	0.004964937
101	0xbd207974	-0.039178327
102	0xbd520acb	-0.051279824
103	0xbd0caf79	-0.03434703
104	0xbcc373b5	-0.023858884
105	0x3d885829	0.0665744
106	0x3d41e024	0.047332898
107	0xbd0b665c	-0.034033164
108	0x3d9e21d3	0.07721295
109	0x3d94c461	0.07264019
110	0x3c91f265	0.017815778
111	0xbdb33374	-0.08750048
112	0xbc86a0bc	-0.016434066
113	0xbc02b21d	-0.007977036
114	0x3d421999	0.047387693
115	0x3d344ba2	0.04401744
116	0x3d2abf77	0.0416865
117	0x3d6ab3d6	0.05730041
118	0x3bfd6f5f	0.0077342237
119	0xbd9f5366	-0.07779579
120	0x3e0113b0	0.12605166
121	0xbdb481f1	-0.08813847
122	0x3d72aeb9	0.05924866
123	0x3d78f8d8	0.06078419
124	0x3d40464c	0.04694204
125	0xbd0c7273	-0.034288835
126	0x3d20feee	0.03930562
127	0x3d79583c	0.060875162
128	0xbd8f3d64	-0.06994131
129	0x3d99e152	0.075136796
130	0xbcdd3783	-0.02700401
131	0xbb7470fe	-0.0037298794
132	0x3d082e1a	0.03324709
133	0x3d032a86	0.032022975
134	0x3c86bd99	0.01644783
135	0x3caa7776	0.020808917
136	0xbc1f379a	-0.009717846
137	0xbe09ac4f	-0.13444637
138	0x3c2ab310	0.010418668
139	0xbd2e7967	-0.042596247
140	0xbd6f53c0	-0.05842948
141	0xbc852aa7	-0.01625569
142	0xbd0f7a42	-0.035028704
143	0x3d912ce8	0.07088643
144	0x3d11e86e	0.035622053
145	0x3d024a6d	0.03180926
146	0x3b742781	0.0037254991
147	0xbd4b3f69	-0.04962102
148	0x3c9336a4	0.01797039
149	0xbcc98bb7	-0.024602754
150	0xbdb660f1	-0.08905209
151	0xbb9cfc04	-0.004790785
152	0x3d21a1a5	0.039460797
153	0xbd109857	-0.035301533
154	0xbcc323cf	-0.023820786
155	0x3dfff364	0.12497595
156	0x3d996b39	0.07491154
157	0x3cb5ab73	0.02217648
158	0x3d15cd09	0.03657249
159	0xbe266962	-0.16251138
160	0x3d7b55d4	0.06136115
161	0xbdcca248	-0.0999189
162	0xbd30af39	-0.043135855
163	0xba391728	-0.00070606405
164	0x3a5207d9	0.00080120336
165	0xbccc0ad0	-0.0249075
166	0xbc789411	-0.0151720205
167	0xbd86c4ff	-0.06580543
168	0x3cbae68f	0.022815017
169	0x3cc295d3	0.023753082
170	0xbdf618fa	-0.12016483
171	0xbc3b67ca	-0.011438319
172	0x3dac907a	0.08425994
173	0xbe04da04	-0.12973791
174	0x3cb46315	0.022019902
175	0x3c8c57a6	0.017131638
176	0xbd7bdddd	-0.061490882
177	0x3d98b6cb	0.0745674
178	0x3d808631	0.06275595
179	0xbd602ebe	-0.054732077
180	0x3b9760c1	0.0046196883
181	0xbcc29e52	-0.023757134
182	0x3d9e838e	0.07739936
183	0xbd914f8e	-0.07095252
184	0x3d299e9a	0.04141102
185	0x3da5902a	0.08084138
186	0x3cdf40db	0.027252605
187	0xbd7ca14f	-0.061677273
188	0x3d53fd07	0.051754978
189	0xbd184f4b	-0.037184995
190	0x3debe96a	0.115191296
191	0x3a786066	0.00094748137
192	0xbd04f4cf	-0.03246003
193	0xbbf71cbb	-0.0075412667
194	0x3d0b5f5c	0.03402649
195	0x3c50c3fb	0.012742038
196	0xbd4bcf91	-0.049758498
197	0xbbd63c5f	-0.0065379585
198	0xbc2daf50	-0.01060088
199	0x3d501f6c	0.050811216

ntm.controller.lstm.weight_ih_l0 f4 [400, 103]
0	0xbea223e5	-0.3166801
1	0x3ed9ab93	0.42513713
2	0x3e87ad4d	0.26499406
3	0xbd17e332	-0.037081905
4	0x3db7ccf5	0.08974639
5	0x3e7d31c1	0.24726011
6	0xbdd7a508	-0.10529524
7	0x3e4b99e4	0.19882923
8	0x3d0b3039	0.033981536
9	0xbe80f969	-0.25190285
10	0x3e4e6e7d	0.20159335
11	0xbcfcaa8c	-0.030843042
12	0x3ea0e379	0.31423548
13	0xbe82b051	-0.25525144
14	0x3e9d0a66	0.30671996
15	0xbebb275e	-0.36553472
16	0xbe03c9e3	-0.12869982
17	0x3d7015d1	0.058614556
18	0x3e6a295b	0.22867338
19	0xbda60b97	-0.08107679
20	0x3dd3fd08	0.10350996
21	0x3f01d5a3	0.5071661
22	0x3d64740d	0.055774737
23	0xbc5ada7f	-0.013357758
24	0xbee0db8b	-0.43917498
25	0xbdb09764	-0.086226255
26	0xbe41726a	-0.18891302
27	0xbea78720	-0.3272028
28	0xbe6143a8	-0.21998465
29	0xbe754ea5	-0.23955782
30	0xbe84103f	-0.25793645
31	0xbda3d782	-0.08000089
32	0x3ea5b6eb	0.32366118
33	0x3e6329b4	0.22183877
34	0xbe2d7d5f	-0.16942357
35	0xbec733b0	-0.38906622
36	0xbd59b244	-0.053148523
37	0xbeb37368	-0.35048985
38	0x3e597c02	0.21238711
39	0xbd5b10ed	-0.05348294
40	0x3c646544	0.013940159
41	0x3db18637	0.086681776
42	0xbde50bab	-0.11183866
43	0x3e529796	0.20565638
44	0xbeb35cc1	-0.35031703
45	0x3edf7590	0.4364438
46	0xbedd072e	-0.4316954
47	0xbe095102	-0.13409808
48	0xbeb80a35	-0.35945287
49	0xbe498e1f	-0.19683121
50	0x3d97f249	0.07419259
51	0x3e32bea8	0.17455542
52	0xbe9841d3	-0.2973772
53	0xbd78a52d	-0.0607044
54	0x3ec3711f	0.38172242
55	0x3d4cc602	0.049993522
56	0x3e150d6f	0.14555906
57	0x3e02a28c	0.12757319
58	0x3ea28b7c	0.31747043
59	0x3e17a251	0.14808013
60	0xbeb4a754	-0.3528391
61	0x3da2a11c	0.079408854
62	0xbe5d9cde	-0.21641871
63	0xbed2da98	-0.411824
64	0xbc1fde32	-0.009757565
65	0xbda073f4	-0.07834616
66	0x3e411fb9	0.18859757
67	0x3e212d96	0.15740046
68	0x3d607692	0.054800577
69	0x3d34ae1f	0.044111367
70	0xbd039583	-0.032125007
71	0x3e6373ad	0.22212096
72	0x3e6a8044	0.22900492
73	0xbee0d2aa	-0.43910724
74	0x3e9623c3	0.2932416
75	0xbeb3703c	-0.35046566
76	0xbe24ebdb	-0.16105597
77	0xbe03dd21	-0.12877323
78	0xbe75d4a8	-0.24006903
79	0xbe5fbcc9	-0.2184936
80	0xbe1ca5fe	-0.15297696
81	0xbdd097cb	-0.10185202
82	0x3e91a3c9	0.2844527
83	0xbeb00f49	-0.34386662
84	0xbe7914e2	-0.24324372
85	0x3e8e3ad3	0.27779254
86	0x3df46f8c	0.119353384
87	0x3d4daaaf	0.050211605
88	0xbe78e2f2	-0.24305323
89	0x3da9bb79	0.08287711
90	0xbd5b51fb	-0.05354498
91	0x3daac0c0	0.083375454
92	0x3db4bce9	0.08825094
93	0xbeb6eb86	-0.35726565
94	0x3e34973c	0.17635816
95	0xbe9b83fd	-0.30374137
96	0xbd7bd5c1	-0.06148315
97	0x3e00cb77	0.12577616
98	0x3e5f6bff	0.21818541
99	0x3e5ce024	0.21569878
100	0xbc91b2a1	-0.017785372
101	0x3e0a7243	0.1352015
102	0x3ea5957d	0.32340613
103	0xbd9868e8	-0.07441884
104	0x3e9ba695	0.3040053
105	0x3e2e8618	0.1704334
106	0xbe868b87	-0.26278326
107	0xbe90dfb8	-0.28295684
108	0xbe1ed155	-0.15509541
109	0xbdb10921	-0.08644319
110	0x3d965f48	0.07342392
111	0xbdcef7be	-0.10105847
112	0x3e2eb50e	0.17061254
113	0x3e7ae438	0.24501121
114	0xbcf7c73c	-0.03024637
115	0xbe785d78	-0.24254405
116	0xbd90fe9d	-0.07079814
117	0xbe21a549	-0.15785708
118	0xbea172d0	-0.31532907
119	0x3d9fa394	0.07794872
120	0xbe5b6acc	-0.21427459
121	0x3ec29fd1	0.38012555
122	0x3de2a9bf	0.11067533
123	0xbe82fa2a	-0.25581485
124	0xbe14aee5	-0.14519842
125	0xbe192e3d	-0.14959045
126	0xbea78e0d	-0.32725564
127	0xbe659861	-0.22421409
128	0xbca6d005	-0.020362863
129	0xbd890541	-0.06690455
130	0xbb0dfc22	-0.0021665175
131	0xbebfd502	-0.374672
132	0xbe5e621a	-0.2171711
133	0xbe89b598	-0.26896358
134	0x3c2ffe09	0.010741719
135	0x3e6adafc	0.22935098
136	0xbecf03c0	-0.4043255
137	0x3e7133e2	0.23554948
138	0xbe9cf8e9	-0.30658653
139	0xbe20c1ba	-0.15698901
140	0x3e95d52d	0.29264203
141	0x3d8661b9	0.06561608
142	0xbee59c87	-0.44845983
143	0x3d8a8a31	0.06764639
144	0x3c50b1b9	0.012737685
145	0x3e359e01	0.17736055
146	0xbe492625	-0.19643457
147	0x3d162014	0.036651686
148	0x3e3f4da1	0.18681957
149	0x3e3b02b3	0.18262748
150	0xbd2980af	-0.041382488
151	0xbc82e640	-0.015978932
152	0x3dbc630d	0.0919858
153	0xbeb22857	-0.34796402
154	0xbd83e8df	-0.06440901
155	0x3e6bcec6	0.23028097
156	0xbda93a2f	-0.08263051
157	0xbe69d385	-0.22834595
158	0xbe2e527e	-0.17023656
159	0x3e0bfa14	0.13669616
160	0xbe09a761	-0.13442756
161	0x3d2c6c98	0.04209575
162	0xbd1690d5	-0.036759216
163	0xbeb19cb4	-0.34689867
164	0x3ed85b65	0.42257228
165	0x3e6d7661	0.23189689
166	0xbd6fc1f1	-0.058534566
167	0xbedc8830	-0.43072653
168	0x3e54c464	0.20778042
169	0x3d2ab3e0	0.04167545
170	0xbe97daf2	-0.2965923
171	0xbd1621ee	-0.03665345
172	0x3dc7fc89	0.09764964
173	0x3e2f3c2d	0.17112799
174	0xbe3b2126	-0.18274364
175	0xbd888bba	-0.06667276
176	0xbe880e70	-0.26573515
177	0xbe002639	-0.12514581
178	0xbe0ba4f7	-0.13637148
179	0xbe310b34	-0.1728943
180	0xbd00abac	-0.03141372
181	0x3e191572	0.14949587
182	0x3e029a51	0.1275418
183	0x3e2fc4c4	0.17164904
184	0x3d2eb01c	0.04264842
185	0x3e558d38	0.20854652
186	0xbeadecac	-0.3396963
187	0xbe9f52e1	-0.3111792
188	0x3edb2884	0.42804348
189	0xbe90a3a2	-0.28249842
190	0xbe5c4131	-0.21509244
191	0xbecfd84f	-0.40594718
192	0xbedad325	-0.42739215
193	0x3e496796	0.19668421
194	0x3e4d4108	0.20044339
195	0xbea4a098	-0.32153773
196	0xbe93abb0	-0.28841925
197	0x3ecb3b3a	0.39693624
198	0xbe05ddd9	-0.1307291
199	0xbe243cca	-0.16038814
200	0xbecf1d11	-0.40451863
201	0xbeaebfe6	-0.34130782
202	0x3e6e4c02	0.23271182
203	0xbe1e74c5	-0.15474232
204	0x3cf1c065	0.029510686
205	0xbd9b70a2	-0.075898424
206	0xbea986d2	-0.33110672
207	0x3f0b786a	0.5448061
208	0x3e8c57fd	0.2741088
209	0x3d0088c7	0.03138044
210	0xbe59dd2c	-0.21275777
211	0x3d3a347c	0.04546021
212	0xbec03a84	-0.37544644
213	0x3e4a1742	0.19735435
214	0xbdb19ee4	-0.08672884
215	0x3e8b9aaa	0.27266437
216	0x3e9afcd6	0.30271024
217	0x3e6eff41	0.23339559
218	0x3e83bb10	0.25728655
219	0xbdaeb6b7	-0.08530944
220	0x3d004877	0.031319108
221	0x3c4597e4	0.012060139
222	0xbe301df0	-0.1719892
223	0xbeaf85e2	-0.34281832
224	0xbd97fda3	-0.07421424
225	0xbe8b72bc	-0.27235973
226	0xbe8a7e7c	-0.27049625
227	0xbdff0441	-0.12451983
228	0xbe8a6aaf	-0.27034518
229	0x3e81e4c7	0.25369856
230	0xbd31816b	-0.043336313
231	0xbe502752	-0.203275
232	0x3dcbcf5c	0.0995166
233	0xbe3574fa	-0.17720404
234	0x3e1cc65c	0.15310043
235	0x3e9ad37d	0.30239478
236	0xbe0fd596	-0.1404632
237	0x3e81329d	0.25233927
238	0xbea09ecb	-0.3137115
239	0x3eb55abc	0.35420787
240	0xbe89af70	-0.2689166
241	0xbe25ffb7	-0.16210829
242	0x3e0c6514	0.13710433
243	0xbe283f77	-0.1643046
244	0x3e7f202a	0.24914613
245	0xbe9ad53e	-0.30240816
246	0xbe2db53f	-0.16963671
247	0xbd0347bf	-0.032050844
248	0x3eadde96	0.33958882
249	0xbeb88b9b	-0.3604401
250	0xbd187fbe	-0.0372312
251	0x3d8fb118	0.070162
252	0xbd3c7e73	-0.04601903
253	0xbcfcd683	-0.030864006
254	0x3e9b0686	0.30278414
255	0x3eb4f871	0.35345796

ntm.controller.lstm.weight_hh_l0 f4 [400, 100]
0	0x3c074849	0.00825698
1	0xbe240f7e	-0.16021535
2	0xbef88f36	-0.4854676
3	0xbdbc5c64	-0.091973096
4	0xbdc1aebf	-0.09457158
5	0x3e81dff7	0.25366184
6	0xbeb024d4	-0.34403098
7	0x3d90dca6	0.07073335
8	0x3e702a63	0.23453669
9	0x3ecd9922	0.40155894
10	0xbe74235c	-0.23841614
11	0x3e8aa67f	0.2708015
12	0xbe7ece78	-0.24883449
13	0x3dbf5a20	0.09343362
14	0x3f07a95f	0.52992815
15	0xbda7196b	-0.08159145
16	0x3e0d849d	0.13820119
17	0xbdb14e0a	-0.08657463
18	0xbed683fd	-0.41897574
19	0x3e647360	0.22309637
20	0xbe029b54	-0.12754565
21	0xbd103cb9	-0.03521416
22	0xbe5bb713	-0.21456556
23	0xbeaf6665	-0.34257808
24	0xbdcc3050	-0.099701524
25	0xbe8206ea	-0.253959
26	0xbe50b0fe	-0.20380017
27	0xbee29e05	-0.44261184
28	0x3e81f902	0.2538529
29	0xbedff22c	-0.4373945
30	0xbd4a770b	-0.049429934
31	0x3daf27a8	0.08552486
32	0xbd878eac	-0.066190094
33	0xbd0ad701	-0.03389645
34	0x3d5ad245	0.053423185
35	0x3e18af30	0.14910579
36	0xbd3af83c	-0.04564689
37	0x3d38b6d4	0.045096233
38	0xbd4c7be5	-0.049922843
39	0xbe856147	-0.2605078
40	0xbde84443	-0.11341145
41	0xbe827c6a	-0.25485545
42	0x3eb6c7f7	0.35699436
43	0xbe0aae75	-0.13543113
44	0xbda03b78	-0.07823843
45	0x3e8ea95b	0.27863583
46	0x3d11507b	0.035477143
47	0x3e118d60	0.14214087
48	0x3bd8ac2d	0.006612322
49	0x3d2b4424	0.04181303
50	0x3d0b6e02	0.03404046
51	0x3e3767c3	0.17910676
52	0x3b7fd391	0.0039036016
53	0x3ec7f2b3	0.39052352
54	0x3ebc88b8	0.36823058
55	0xbe3351b2	-0.17511633
56	0xbe2e735c	-0.17036194
57	0xbe440e6d	-0.19146128
58	0xbe03c422	-0.12867787
59	0xbd8bf650	-0.0683409
60	0x3e606736	0.21914372
61	0xbee8db01	-0.45479587
62	0xbe845917	-0.2584922
63	0x3eae16c0	0.34001732
64	0x3e6c6668	0.2308594
65	0x3d185945	0.03719451
66	0xbe32e50f	-0.17470191
67	0x3e568435	0.2094887
68	0x3df49362	0.119421735
69	0xbdd1db59	-0.10246915
70	0xbde900a5	-0.11377076
71	0xbe20052a	-0.1562697
72	0x3f0e1f6d	0.555167
73	0x3d801589	0.062541075
74	0x3d2e2473	0.04251523
75	0xbe7d65df	-0.24745892
76	0x3d03e245	0.03219821
77	0xbed62c74	-0.4183079
78	0xbccbde1b	-0.024886182
79	0x3e07fe5d	0.13280626
80	0x3e645cb9	0.22300996
81	0xbe579622	-0.21053365
82	0x3cdb539d	0.026773268
83	0xbe791e05	-0.24327858
84	0x3e843cc0	0.258276
85	0xbeb48271	-0.3525577
86	0x3cc16a28	0.02361019
87	0x3eb71d18	0.35764384
88	0x3e167ff7	0.14697252
89	0x3ea56771	0.32305482
90	0x3de8e176	0.11371128
91	0x3d369e3e	0.044584505
92	0x3e30d17a	0.17267409
93	0x3db41117	0.08792322
94	0x3e41aac6	0.18912801
95	0x3dae23cb	0.08502921
96	0xbe76eff4	-0.24114972
97	0x3e842048	0.2580588
98	0x3de1b432	0.11020698
99	0xbdd02830	-0.10163915
100	0xbd1bcf8e	-0.038039736
101	0x3dd4d8c9	0.10392911
102	0xbe55e1a1	-0.20886852
103	0x3e1233de	0.14277598
104	0xbcd1d4b5	-0.025614122
105	0xbdf6c7fc	-0.12049863
106	0xbe1bfee5	-0.15233953
107	0xbe2f7188	-0.17133152
108	0x3d8ad3d3	0.067786835
109	0x3e399b06	0.18125543
110	0xbdfb9b36	-0.122854635
111	0xbe08b1b2	-0.13349035
112	0x3cc9bd97	0.024626536
113	0x3de7c28b	0.11316403
114	0xbeb2aab2	-0.34895855
115	0xbe73e4da	-0.23817769
116	0xbe022193	-0.1270812
117	0x3e6e6d2d	0.23283835
118	0x3e34a119	0.17639579
119	0xbceb2ed2	-0.02870885
120	0xbc1e3f3b	-0.00965863
121	0xbddb44c7	-0.107064776
122	0xbda8c5aa	-0.082408264
123	0x3c89246d	0.016741002
124	0x3e2b50fd	0.16730113
125	0x3e2a66b2	0.16640738
126	0x3e9e9633	0.30973968
127	0x3e7d7a0c	0.24753588
128	0xbeac9eee	-0.33715004
129	0x3ddda62d	0.10822711
130	0xbdb2ace8	-0.087243855
131	0x3e661ccf	0.22471927
132	0x3e70a4f2	0.23500422
133	0x3cca2eec	0.024680577
134	0xbeeec9ba	-0.4663828
135	0xbd046fde	-0.032333247
136	0xbd77838e	-0.060428195
137	0xbdd3e29d	-0.103459574
138	0xbd333ff1	-0.04376215
139	0x3e90fef8	0.28319526
140	0x3e52f903	0.20602803
141	0xbe5e594b	-0.2171375
142	0xbd4d75ec	-0.050161287
143	0x3d1a75bb	0.037709933
144	0x3e0246cd	0.12722321
145	0x3dfa70a5	0.122285165
146	0x3d94be1b	0.07262822
147	0x3da76d23	0.08175113
148	0xbeca3104	-0.3949052
149	0xbbf35096	-0.007425378
150	0x3df72397	0.12067335
151	0x3e3516c0	0.1768446
152	0xbe5cf3d3	-0.21577387
153	0x3e859e4d	0.26097336
154	0x3eb6020d	0.3554844
155	0xbec94105	-0.39307418
156	0x3e9d5996	0.3073241
157	0x3e5b10b7	0.21393095
158	0xbe4ad33f	-0.19807146
159	0x3e247e71	0.16063859
160	0xbddb6d54	-0.10714212
161	0xbd987694	-0.07444492
162	0xbe09126b	-0.13385932
163	0xbe8d75b7	-0.27628872
164	0xbe1d032d	-0.15333243
165	0x3eb94cee	0.36191505
166	0xbe156492	-0.14589146
167	0x3e14e120	0.14539003
168	0x3ed1ce22	0.4097758
169	0xbdaab3f3	-0.08335104
170	0x3da80564	0.08204153
171	0xbddf60ee	-0.1090716
172	0x3e3829d4	0.17984706
173	0xbe0c818a	-0.1372129
174	0x3db6244a	0.0889364
175	0x3ea8b59c	0.32951057
176	0x3de89d99	0.11358184
177	0x3e17a2d7	0.14808212
178	0xbe93dd33	-0.288797
179	0x3dcb78dc	0.099351615
180	0xbc4623ec	-0.012093525
181	0xbe900198	-0.28126216
182	0xbdc1a1ba	-0.09454675
183	0x3e003b0f	0.12522529
184	0xbe490aec	-0.19633073
185	0x3dcada95	0.099049725
186	0xbd09b6c5	-0.03362157
187	0x3d99dd56	0.075129196
188	0xbcd13b96	-0.025541108
189	0x3e98d3ca	0.29849082
190	0xbe5d91b7	-0.21637617
191	0xbdb96e2e	-0.09054218
192	0xbd25a8cb	-0.040444177
193	0xbe35d56e	-0.17757198
194	0x3db96506	0.09052472
195	0xbd631a46	-0.05544498
196	0xbe4e8e21	-0.20171405
197	0xbeeda98f	-0.46418425
198	0xbe7628a7	-0.24038945
199	0xbeafb500	-0.3431778
200	0x3ee6ca56	0.45076245
201	0xbe9a88b9	-0.30182436
202	0xbe3990de	-0.18121669
203	0xbe8cdf10	-0.27513933
204	0xbe6ea221	-0.23304035
205	0x3e41c320	0.1892209
206	0xbe49f03e	-0.19720551
207	0xbda0edbf	-0.078578465
208	0xbe99846c	-0.29983842
209	0x3e8edf10	0.27904558
210	0xbe343de8	-0.1760174
211	0x3de3563a	0.11100431
212	0xbe368339	-0.17823495
213	0x3d039197	0.032121267
214	0x3eb1efb7	0.347532
215	0xbea7140e	-0.32632488
216	0x3d3ce156	0.046113335
217	0xbe7f3d5b	-0.24925749
218	0x3ea2160c	0.31657445
219	0x3e2f46f2	0.17116907
220	0x3ea056d4	0.31316245
221	0x3e4bbd2f	0.19896387
222	0xbc05b686	-0.008161193
223	0xbde2c3b1	-0.110724814
224	0xbcb18a39	-0.021672355
225	0xbaede203	-0.0018149022
226	0x3eaf58be	0.34247392
227	0xbed8505c	-0.4224881
228	0x3e0c0d9c	0.13677067
229	0xbc8e3373	-0.017358517
230	0x3e26ef43	0.16302209
231	0xbec2bba2	-0.38033777
232	0xbec7b1b0	-0.39002752
233	0xbda569bf	-0.0807681
234	0xbe85a6c4	-0.26103795
235	0x3daa96c1	0.08329535
236	0xbea0405e	-0.31299108
237	0x3dd51ac0	0.10405493
238	0x3e1c6070	0.15271163
239	0xbcffae81	-0.03121114
240	0xbe5388c3	-0.20657639
241	0x3e85a53f	0.26102635
242	0x3e9bb0dc	0.3040837
243	0xbec65a90	-0.3874097
244	0xbd64a3ba	-0.055820204
245	0xbd8ab83c	-0.06773421
246	0x3e2b2c05	0.16716011
247	0x3a865920	0.001024995
248	0xbc6eb130	-0.014568612
249	0x3ed293a3	0.41128263
250	0xbe2122d9	-0.1573595
251	0x3ed038c9	0.40668324
252	0x3da12324	0.07868031
253	0xbd8b98d1	-0.06816257
254	0x3dba7900	0.0910511
255	0xbe693d97	-0.22777401

ntm.controller.lstm.bias_ih_l0 f4 [400]
0	0x3c12e77d	0.008966324
1	0xbd44bc66	-0.048031233
2	0xbc1a0183	-0.0093997745
3	0xbd92a297	-0.07159918
4	0x3d3cd73c	0.0461037
5	0x3df189c3	0.11793854
6	0xbaf1f0b8	-0.0018458581
7	0xbbad4dc5	-0.005288812
8	0x3af06e40	0.0018343404
9	0xbc1eaaf3	-0.009684312
10	0xbd5a8524	-0.05334963
11	0xbc993672	-0.01870272
12	0xbd6bb933	-0.057549667
13	0x3d2e7928	0.042596012
14	0x3d0a9890	0.0338369
15	0xbd8b703e	-0.06808518
16	0xbd18fbb3	-0.037349414
17	0x3d8a0321	0.06738878
18	0x3c9079fa	0.017636288
19	0x3c4db81c	0.012556102
20	0xbdea3aee	-0.11437021
21	0xbd1bc49a	-0.03802929
22	0xbcaeab49	-0.02132191
23	0x3e027936	0.12741551
24	0x3c73ebca	0.014887759
25	0xbbab7d49	-0.005233441
26	0x3c8e6799	0.017383384
27	0xbdc4a43c	-0.09601638
28	0xbd48a517	-0.048985567
29	0xbdc817d8	-0.09770173
30	0xbbf7eea5	-0.0075662904
31	0xbd8d3190	-0.06894219
32	0x3b3f5852	0.002919693
33	0xbcd2d4bc	-0.025736205
34	0xbd24bba7	-0.04021802
35	0xbbe579ed	-0.00700306
36	0xbcaf449e	-0.021395024
37	0x3cd6a5a2	0.026202027
38	0x3cba7f7a	0.022765864
39	0xbcbb0bc9	-0.022832768
40	0xbc7e4b4a	-0.01552088
41	0xbd18bb7d	-0.037288178
42	0xbccd4384	-0.025056608
43	0xbb78020d	-0.003784302
44	0x3bf8da84	0.0075944085
45	0xbcd4000c	-0.025878929
46	0x3cb33dbe	0.021880027
47	0xbd33badf	-0.043879386
48	0xbca50852	-0.020145569
49	0xbcd0c688	-0.025485292
50	0xbd0eaf6f	-0.034835275
51	0xbcf1daf0	-0.029523343
52	0xbc876e88	-0.016532198
53	0x3cc4564c	0.02396693
54	0xbe02b8cd	-0.12765808
55	0xbc9931b6	-0.018700462
56	0x3cf8f824	0.03039176
57	0x3d7e09cb	0.062021058
58	0x3d88da92	0.06682314
59	0x39b4ea1b	0.00034506698
60	0x3ce5a54b	0.02803292
61	0xbc10a763	-0.008828971
62	0xbd82f4b6	-0.06394331
63	0x3c2fc9a8	0.010729231
64	0x3dbca92e	0.09211956
65	0xbc134269	-0.008988001
66	0x3bbf0850	0.0058298483
67	0x3bf3a5e2	0.0074355463
68	0xbd939541	-0.07206202
69	0xbc3b8502	-0.011445286
70	0xbd5c261b	-0.053747278
71	0xbcfe3db4	-0.031035282
72	0x3df82531	0.12116469
73	0x3cc77667	0.02434845
74	0xbd4224c7	-0.047398355
75	0x3cd62d98	0.026144788
76	0xbd717992	-0.05895383
77	0x3cbf9d85	0.02339054
78	0x3b818c20	0.003953472
79	0x3dac2040	0.08404589
80	0xbb455f60	-0.0030116662
81	0xbd14191d	-0.036156762
82	0x3c8f6982	0.017506365
83	0xbd32dc1d	-0.043666948
84	0xbdb32df6	-0.08749001
85	0xbd261c2d	-0.040554214
86	0x3c2682d5	0.010163029
87	0xbcb319ed	-0.021862948
88	0xbc12178e	-0.008916749
89	0xbc0d658c	-0.008630168
90	0xbb9164b9	-0.004437056
91	0xbcfaaaba	-0.030598987
92	0xbccfd41f	-0.025369702
93	0x3cdb5085	0.026771793
94	0xbd3fc76d	-0.046821047
95	0xbccf77fd	-0.02532577
96	0xbd293de9	-0.041318808
97	0x3ccf3cd2	0.025297556
98	0x3cd790e6	0.02631421
99	0x3bfe4d14	0.0077606533
100	0x3d6c8232	0.05774135
101	0xbd72412c	-0.059144184
102	0x3cdc1c55	0.026868979
103	0xbe1bbc27	-0.15208493
104	0xbd8554fa	-0.065103486
105	0xb8c04e1a	-9.169821e-05
106	0xbc32978b	-0.0109003885
107	0x3c0311e5	0.007999872
108	0x3d022013	0.03176887
109	0xbce6425d	-0.028107816
110	0x3cac4d4d	0.021032954
111	0x3d5282b2	0.051394172
112	0x3b63ca45	0.0034758013
113	0x3b8efbb2	0.0043635005
114	0x3d61d787	0.055137184
115	0xbcc0559b	-0.02347832
116	0x3b56deb1	0.0032786543
117	0xbcbd4c79	-0.023107754
118	0xbd1ac719	-0.03778753
119	0x3d12773b	0.03575824
120	0xbd678ce9	-0.056530867
121	0x3d69aa0d	0.05704694
122	0xbcdd31db	-0.027001312
123	0xbc302c95	-0.010752817
124	0xbcf9c8fd	-0.030491346
125	0x3c8b313d	0.016991252
126	0xbd5e433a	-0.05426333
127	0x3d9b7403	0.07590487
128	0xbcef0d91	-0.029181274
129	0xbd2dcbf8	-0.042430848
130	0x3d9b6932	0.07588424
131	0xbd61325a	-0.05497966
132	0xbbba7092	-0.005689689
133	0x3d915964	0.07097128
134	0xbdb054a6	-0.086098954
135	0x3d75783f	0.05992913
136	0xbc2123aa	-0.009835163
137	0x3d41481a	0.047187902
138	0x3cf7d96b	0.03025504
139	0xbd4076be	-0.04698824
140	0xbc8b604f	-0.017013697
141	0x3c1c75db	0.009549583
142	0xbd132d4f	-0.03593188
143	0x3ca113eb	0.019662818
144	0x3d82238f	0.063544385
145	0xbd961aa2	-0.073292986
146	0xbc07541e	-0.008259801
147	0xbd34784c	-0.044060037
148	0xbb70485a	-0.0036664219
149	0xbadf7f3b	-0.0017051467
150	0xbd9139de	-0.070911154
151	0xbcfe8bbb	-0.031072488
152	0x3b855fde	0.004070266
153	0x3c0fdf1c	0.008781221
154	0xbd851478	-0.06498045
155	0xbdd3681f	-0.10322594
156	0x3d194816	0.037422262
157	0x3d670a48	0.05640629
158	0xbc4ab829	-0.012373009
159	0xbc844939	-0.016148197
160	0xba8e1f25	-0.0010843022
161	0x3c89d18d	0.016823554
162	0xbd47f060	-0.048813224
163	0xbc1b7a7e	-0.009489654
164	0x3cccf84f	0.025020747
165	0xbcafce29	-0.02146061
166	0xbcc1b778	-0.023647055
167	0x3d41dbeb	0.04732887
168	0xbcdcd071	-0.026954861
169	0xbe19216d	-0.14954157
170	0xbb249c6a	-0.0025117644
171	0xbcb482fb	-0.022035113
172	0xbcd96719	-0.026538419
173	0xba6e7377	-0.0009096185
174	0x3cc9be73	0.024626946
175	0xbd9f7df3	-0.07787695
176	0xbd88c3ca	-0.06677969
177	0x3dd02a93	0.101643704
178	0xbc2787ca	-0.010225246
179	0xbdab9060	-0.08377147
180	0xbd6c863e	-0.05774521
181	0xbd16d4ee	-0.03682416
182	0xbcc1db44	-0.023664124
183	0xbcfdc32f	-0.03097686
184	0xbcd47e29	-0.025939064
185	0xbcff3c92	-0.031156812
186	0x3cddd68d	0.027079845
187	0x3abb8e99	0.0014309465
188	0x3d1624bd	0.03665613
189	0xbd7c10e2	-0.06153954
190	0xbd5bfd65	-0.053708453
191	0xbc792d40	-0.015208542
192	0xbd4d8a03	-0.050180446
193	0x3d9cce7e	0.07656573
194	0x3d3c4881	0.045967583
195	0xbd461487	-0.04835942
196	0xbdb32c9c	-0.08748743
197	0xbdc3f764	-0.095686704
198	0xbd3eea99	-0.04661045
199	0xbc3f51be	-0.011677204
200	0xbce15423	-0.02750594
201	0x3c3d953c	0.011571225
202	0x3d075fae	0.03305023
203	0xbcdfe43f	-0.027330516
204	0x3cc0303f	0.023460506
205	0xbcc500f1	-0.0240483
206	0x3cdb2bc6	0.026754271
207	0x3c335069	0.010944464
208	0xbc3c7f11	-0.011504904
209	0xbcafe5af	-0.021471826
210	0xb9491eea	-0.0001918037
211	0xbd6580cb	-0.05603103
212	0x3a4bc641	0.00077733776
213	0xbcc49c14	-0.024000205
214	0x3c894587	0.016756786
215	0x3d19455c	0.037419662
216	0xbc84ff26	-0.016234946
217	0xbbb3937f	-0.0054802294
218	0x3c65de86	0.0140301045
219	0xbc08072c	-0.008302491
220	0xbd5e1ed7	-0.05422863
221	0x3c89ae91	0.016806873
222	0xbbd0d806	-0.0063734083
223	0x3d710afb	0.058848362
224	0xbc1107ba	-0.00885194
225	0x3d0d5522	0.034505017
226	0xbc87f3f6	-0.016595822
227	0x3cbcf105	0.023064146
228	0xbbb14314	-0.0054096077
229	0xbd00f0ef	-0.031479772
230	0x3c91480a	0.017734546
231	0x3d0acd95	0.033887465
232	0x3c07f216	0.008297464
233	0xbd0a5a65	-0.033777613
234	0x3c0e2495	0.008675714
235	0xbc8d2dfe	-0.017233845
236	0x38b6f2c2	8.7236534e-05
237	0x3d87f1ed	0.066379406
238	0xbd1af3d9	-0.037830207
239	0x3d12180b	0.03566746
240	0x3c99a582	0.018755678
241	0xbcc037cf	-0.023464112
242	0xbcfd89e4	-0.03094954
243	0xbbd177d9	-0.006392461
244	0xbacfe94d	-0.0015862376
245	0xbc303f25	-0.010757242
246	0x3d1ac4d7	0.037785377
247	0xbd155d34	-0.03646584
248	0xb85e9776	-5.3069984e-05
249	0x3bf971a7	0.0076124254
250	0x3b5c4e38	0.0033615958
251	0xbd4bc559	-0.049748752
252	0xbcfedad0	-0.031110197
253	0xbbca69d5	-0.006177167
254	0x3cb5f0d5	0.022209564
255	0xbce2ea06	-0.027699482

ntm.controller.lstm.bias_hh_l0 f4 [400]
0	0x3c12e77d	0.008966324
1	0xbd44bc66	-0.048031233
2	0xbc1a0183	-0.0093997745
3	0xbd92a297	-0.07159918
4	0x3d3cd73c	0.0461037
5	0x3df189c3	0.11793854
6	0xbaf1f0b8	-0.0018458581
7	0xbbad4dc5	-0.005288812
8	0x3af06e40	0.0018343404
9	0xbc1eaaf3	-0.009684312
10	0xbd5a8524	-0.05334963
11	0xbc993672	-0.01870272
12	0xbd6bb933	-0.057549667
13	0x3d2e7928	0.042596012
14	0x3d0a9890	0.0338369
15	0xbd8b703e	-0.06808518
16	0xbd18fbb3	-0.037349414
17	0x3d8a0321	0.06738878
18	0x3c9079fa	0.017636288
19	0x3c4db81c	0.012556102
20	0xbdea3aee	-0.11437021
21	0xbd1bc49a	-0.03802929
22	0xbcaeab49	-0.02132191
23	0x3e027936	0.12741551
24	0x3c73ebca	0.014887759
25	0xbbab7d49	-0.005233441
26	0x3c8e6799	0.017383384
27	0xbdc4a43c	-0.09601638
28	0xbd48a517	-0.048985567
29	0xbdc817d8	-0.09770173
30	0xbbf7eea5	-0.0075662904
31	0xbd8d3190	-0.06894219
32	0x3b3f5852	0.002919693
33	0xbcd2d4bc	-0.025736205
34	0xbd24bba7	-0.04021802
35	0xbbe579ed	-0.00700306
36	0xbcaf449e	-0.021395024
37	0x3cd6a5a2	0.026202027
38	0x3cba7f7a	0.022765864
39	0xbcbb0bc9	-0.022832768
40	0xbc7e4b4a	-0.01552088
41	0xbd18bb7d	-0.037288178
42	0xbccd4384	-0.025056608
43	0xbb78020d	-0.003784302
44	0x3bf8da84	0.0075944085
45	0xbcd4000c	-0.025878929
46	0x3cb33dbe	0.021880027
47	0xbd33badf	-0.043879386
48	0xbca50852	-0.020145569
49	0xbcd0c688	-0.025485292
50	0xbd0eaf6f	-0.034835275
51	0xbcf1daf0	-0.029523343
52	0xbc876e88	-0.016532198
53	0x3cc4564c	0.02396693
54	0xbe02b8cd	-0.12765808
55	0xbc9931b6	-0.018700462
56	0x3cf8f824	0.03039176
57	0x3d7e09cb	0.062021058
58	0x3d88da92	0.06682314
59	0x39b4ea1b	0.00034506698
60	0x3ce5a54b	0.02803292
61	0xbc10a763	-0.008828971
62	0xbd82f4b6	-0.06394331
63	0x3c2fc9a8	0.010729231
64	0x3dbca92e	0.09211956
65	0xbc134269	-0.008988001
66	0x3bbf0850	0.0058298483
67	0x3bf3a5e2	0.0074355463
68	0xbd939541	-0.07206202
69	0xbc3b8502	-0.011445286
70	0xbd5c261b	-0.053747278
71	0xbcfe3db4	-0.031035282
72	0x3df82531	0.12116469
73	0x3cc77667	0.02434845
74	0xbd4224c7	-0.047398355
75	0x3cd62d98	0.026144788
76	0xbd717992	-0.05895383
77	0x3cbf9d85	0.02339054
78	0x3b818c20	0.003953472
79	0x3dac2040	0.08404589
80	0xbb455f60	-0.0030116662
81	0xbd14191d	-0.036156762
82	0x3c8f6982	0.017506365
83	0xbd32dc1d	-0.043666948
84	0xbdb32df6	-0.08749001
85	0xbd261c2d	-0.040554214
86	0x3c2682d5	0.010163029
87	0xbcb319ed	-0.021862948
88	0xbc12178e	-0.008916749
89	0xbc0d658c	-0.008630168
90	0xbb9164b9	-0.004437056
91	0xbcfaaaba	-0.030598987
92	0xbccfd41f	-0.025369702
93	0x3cdb5085	0.026771793
94	0xbd3fc76d	-0.046821047
95	0xbccf77fd	-0.02532577
96	0xbd293de9	-0.041318808
97	0x3ccf3cd2	0.025297556
98	0x3cd790e6	0.02631421
99	0x3bfe4d14	0.0077606533
100	0x3d6c8232	0.05774135
101	0xbd72412c	-0.059144184
102	0x3cdc1c55	0.026868979
103	0xbe1bbc27	-0.15208493
104	0xbd8554fa	-0.065103486
105	0xb8c04e1a	-9.169821e-05
106	0xbc32978b	-0.0109003885
107	0x3c0311e5	0.007999872
108	0x3d022013	0.03176887
109	0xbce6425d	-0.028107816
110	0x3cac4d4d	0.021032954
111	0x3d5282b2	0.051394172
112	0x3b63ca45	0.0034758013
113	0x3b8efbb2	0.0043635005
114	0x3d61d787	0.055137184
115	0xbcc0559b	-0.02347832
116	0x3b56deb1	0.0032786543
117	0xbcbd4c79	-0.023107754
118	0xbd1ac719	-0.03778753
119	0x3d12773b	0.03575824
120	0xbd678ce9	-0.056530867
121	0x3d69aa0d	0.05704694
122	0xbcdd31db	-0.027001312
123	0xbc302c95	-0.010752817
124	0xbcf9c8fd	-0.030491346
125	0x3c8b313d	0.016991252
126	0xbd5e433a	-0.05426333
127	0x3d9b7403	0.07590487
128	0xbcef0d91	-0.029181274
129	0xbd2dcbf8	-0.042430848
130	0x3d9b6932	0.07588424
131	0xbd61325a	-0.05497966
132	0xbbba7092	-0.005689689
133	0x3d915964	0.07097128
134	0xbdb054a6	-0.086098954
135	0x3d75783f	0.05992913
136	0xbc2123aa	-0.009835163
137	0x3d41481a	0.047187902
138	0x3cf7d96b	0.03025504
139	0xbd4076be	-0.04698824
140	0xbc8b604f	-0.017013697
141	0x3c1c75db	0.009549583
142	0xbd132d4f	-0.03593188
143	0x3ca113eb	0.019662818
144	0x3d82238f	0.063544385
145	0xbd961aa2	-0.073292986
146	0xbc07541e	-0.008259801
147	0xbd34784c	-0.044060037
148	0xbb70485a	-0.0036664219
149	0xbadf7f3b	-0.0017051467
150	0xbd9139de	-0.070911154
151	0xbcfe8bbb	-0.031072488
152	0x3b855fde	0.004070266
153	0x3c0fdf1c	0.008781221
154	0xbd851478	-0.06498045
155	0xbdd3681f	-0.10322594
156	0x3d194816	0.037422262
157	0x3d670a48	0.05640629
158	0xbc4ab829	-0.012373009
159	0xbc844939	-0.016148197
160	0xba8e1f25	-0.0010843022
161	0x3c89d18d	0.016823554
162	0xbd47f060	-0.048813224
163	0xbc1b7a7e	-0.009489654
164	0x3cccf84f	0.025020747
165	0xbcafce29	-0.02146061
166	0xbcc1b778	-0.023647055
167	0x3d41dbeb	0.04732887
168	0xbcdcd071	-0.026954861
169	0xbe19216d	-0.14954157
170	0xbb249c6a	-0.0025117644
171	0xbcb482fb	-0.022035113
172	0xbcd96719	-0.026538419
173	0xba6e7377	-0.0009096185
174	0x3cc9be73	0.024626946
175	0xbd9f7df3	-0.07787695
176	0xbd88c3ca	-0.06677969
177	0x3dd02a93	0.101643704
178	0xbc2787ca	-0.010225246
179	0xbdab9060	-0.08377147
180	0xbd6c863e	-0.05774521
181	0xbd16d4ee	-0.03682416
182	0xbcc1db44	-0.023664124
183	0xbcfdc32f	-0.03097686
184	0xbcd47e29	-0.025939064
185	0xbcff3c92	-0.031156812
186	0x3cddd68d	0.027079845
187	0x3abb8e99	0.0014309465
188	0x3d1624bd	0.03665613
189	0xbd7c10e2	-0.06153954
190	0xbd5bfd65	-0.053708453
191	0xbc792d40	-0.015208542
192	0xbd4d8a03	-0.050180446
193	0x3d9cce7e	0.07656573
194	0x3d3c4881	0.045967583
195	0xbd461487	-0.04835942
196	0xbdb32c9c	-0.08748743
197	0xbdc3f764	-0.095686704
198	0xbd3eea99	-0.04661045
199	0xbc3f51be	-0.011677204
200	0xbce15423	-0.02750594
201	0x3c3d953c	0.011571225
202	0x3d075fae	0.03305023
203	0xbcdfe43f	-0.027330516
204	0x3cc0303f	0.023460506
205	0xbcc500f1	-0.0240483
206	0x3cdb2bc6	0.026754271
207	0x3c335069	0.010944464
208	0xbc3c7f11	-0.011504904
209	0xbcafe5af	-0.021471826
210	0xb9491eea	-0.0001918037
211	0xbd6580cb	-0.05603103
212	0x3a4bc641	0.00077733776
213	0xbcc49c14	-0.024000205
214	0x3c894587	0.016756786
215	0x3d19455c	0.037419662
216	0xbc84ff26	-0.016234946
217	0xbbb3937f	-0.0054802294
218	0x3c65de86	0.0140301045
219	0xbc08072c	-0.008302491
220	0xbd5e1ed7	-0.05422863
221	0x3c89ae91	0.016806873
222	0xbbd0d806	-0.0063734083
223	0x3d710afb	0.058848362
224	0xbc1107ba	-0.00885194
225	0x3d0d5522	0.034505017
226	0xbc87f3f6	-0.016595822
227	0x3cbcf105	0.023064146
228	0xbbb14314	-0.0054096077
229	0xbd00f0ef	-0.031479772
230	0x3c91480a	0.017734546
231	0x3d0acd95	0.033887465
232	0x3c07f216	0.008297464
233	0xbd0a5a65	-0.033777613
234	0x3c0e2495	0.008675714
235	0xbc8d2dfe	-0.017233845
236	0x38b6f2c2	8.7236534e-05
237	0x3d87f1ed	0.066379406
238	0xbd1af3d9	-0.037830207
239	0x3d12180b	0.03566746
240	0x3c99a582	0.018755678
241	0xbcc037cf	-0.023464112
242	0xbcfd89e4	-0.03094954
243	0xbbd177d9	-0.006392461
244	0xbacfe94d	-0.0015862376
245	0xbc303f25	-0.010757242
246	0x3d1ac4d7	0.037785377
247	0xbd155d34	-0.03646584
248	0xb85e9776	-5.3069984e-05
249	0x3bf971a7	0.0076124254
250	0x3b5c4e38	0.0033615958
251	0xbd4bc559	-0.049748752
252	0xbcfedad0	-0.031110197
253	0xbbca69d5	-0.006177167
254	0x3cb5f0d5	0.022209564
255	0xbce2ea06	-0.027699482

ntm.controller.lstm.weight_ih_l1 f4 [400, 100]
0	0xbe318705	-0.17336662
1	0x3ea67350	0.3250985
2	0xbd884ce4	-0.06655291
3	0xbd74c25d	-0.05975567
4	0xbe735143	-0.23761468
5	0xbe0e764a	-0.13912311
6	0xbe8e8e00	-0.27842712
7	0xbc6a8d0c	-0.014315855
8	0x3d956fdb	0.07296725
9	0x3e209333	0.15681152
10	0x3e94035c	0.28908813
11	0x3e92251a	0.2854393
12	0x3af9699e	0.0019028669
13	0x3eb9da3e	0.36299318
14	0x3e04f484	0.129839
15	0x3e74010f	0.23828529
16	0xbe4cc42c	-0.19996709
17	0x3eb9261d	0.3616189
18	0x3eb94db3	0.36192092
19	0xbe855bba	-0.26046544
20	0xbea453a5	-0.32095066
21	0xbcc7663d	-0.024340743
22	0x3eb00cc4	0.3438474
23	0xbc4e0105	-0.012573485
24	0xbe870448	-0.26370454
25	0x3e25cde6	0.16191825
26	0xbe4ab732	-0.19796446
27	0x3e51d6ac	0.20492047
28	0xbce6251b	-0.028093865
29	0x3e6abb97	0.22923122
30	0xbe507374	-0.20356542
31	0xbe865b9f	-0.26241776
32	0xbeb6bb1c	-0.35689628
33	0x3dfc20f7	0.12310975
34	0x3e81a0cc	0.2531799
35	0xbe266359	-0.16248836
36	0xbe41451f	-0.18874024
37	0x3e922f55	0.28551736
38	0xbe02d41b	-0.12776224
39	0x3e0e8aed	0.13920183
40	0x3e56f5f1	0.20992257
41	0x3d499b8e	0.049220614
42	0x3e550310	0.2080195
43	0xbe6958b1	-0.2278774
44	0x3e3b9da2	0.18321851
45	0x3e783ab1	0.24241139
46	0xbe4311f3	-0.19049816
47	0xbe81c321	-0.25344184
48	0x3d2d44bb	0.042301875
49	0xbe2b0b1a	-0.16703454
50	0x3dd9200f	0.10601818
51	0xbc036066	-0.008018589
52	0xbeddebaf	-0.43343875
53	0x3b8e9fca	0.0043525444
54	0xbe7e989b	-0.24862902
55	0xbe559d9b	-0.20860903
56	0xbe317bf6	-0.17332444
57	0x3eb5eb12	0.35530907
58	0x3e731800	0.23739624
59	0x3e9eaff3	0.30993614
60	0xbeaafd0a	-0.33396178
61	0x3e295691	0.16536929
62	0x3e896083	0.26831445
63	0x3eae9ddd	0.34104815
64	0xbdf00d10	-0.117212415
65	0x3dabf5c3	0.08396485
66	0xbe8d8b38	-0.27645278
67	0x3e1ae14a	0.15125003
68	0xbe7304ce	-0.23732302
69	0xbc8bbce2	-0.01705784
70	0xbe18a3d2	-0.14906242
71	0xbdd4e0b5	-0.10394422
72	0xbc86579a	-0.016399194
73	0xbe1d43b8	-0.15357864
74	0xbe682648	-0.22670853
75	0xbe9929be	-0.2991466
76	0xbdf06ad0	-0.11739123
77	0xbe34102d	-0.17584296
78	0x3e78fa05	0.24314125
79	0xbe23fe89	-0.16015066
80	0xbe994ffe	-0.29943842
81	0x3e4ee524	0.20204598
82	0x3e1087bc	0.14114279
83	0x3eaca805	0.3372194
84	0x3cbe0428	0.023195341
85	0xbe85eb4a	-0.26156074
86	0x3ebfd529	0.37467316
87	0x3dec349a	0.115334705
88	0xbe55a19b	-0.20862429
89	0xbe840050	-0.25781488
90	0xbe8139b2	-0.2523933
91	0x3e3ccabe	0.18436715
92	0x3e2f4879	0.1711749
93	0xbd1b2009	-0.037872348
94	0x3e98bd0c	0.2983173
95	0xbeba39fa	-0.36372358
96	0x3e181832	0.1485298
97	0xbdab3e0f	-0.08361446
98	0xbe3659f8	-0.17807758
99	0x3e3dd517	0.18538319
100	0xbd7a295e	-0.061074607
101	0x3e518396	0.20460352
102	0xbe97acfe	-0.2962417
103	0xbebc1c8e	-0.36740535
104	0x3e909074	0.2823521
105	0xbe83aba8	-0.257169
106	0xbcc7abf5	-0.024373988
107	0x3eb30c78	0.3497045
108	0x3e96d65d	0.2946042
109	0xbe213ecb	-0.1574661
110	0xbe1b4b59	-0.15165462
111	0xbe1040b5	-0.14087184
112	0xbe094aa9	-0.13407387
113	0xbe17962f	-0.14803384
114	0x3d24938f	0.040179785
115	0x3df3f802	0.11912538
116	0x3e2d1820	0.16903734
117	0x3dac78a7	0.0842145
118	0xbe6e22f1	-0.23255517
119	0x3e5f5935	0.21811374
120	0x3d01d609	0.03169826
121	0x3e7d6bd6	0.24748167
122	0x3e443394	0.191603
123	0xbd1c64cd	-0.03818207
124	0xbe89ac94	-0.2688948
125	0x3f032042	0.51221097
126	0x3e4bf982	0.19919398
127	0x3de05176	0.109530374
128	0xbe3ce579	-0.18446912
129	0xbd273a04	-0.040826812
130	0xbe436765	-0.1908241
131	0x3e8ed405	0.27896133
132	0x3ed25407	0.41079733
133	0xbea62f3d	-0.32457915
134	0x3c578119	0.013153338
135	0x3dbbc271	0.09167946
136	0xbdfee70f	-0.12446415
137	0x3d2b3165	0.041795153
138	0xbd10c894	-0.035347536
139	0x3edf4a5e	0.43611425
140	0xbe721a18	-0.23642766
141	0xbdd6ca55	-0.104878105
142	0xbe30b77a	-0.17257491
143	0x3e268a19	0.16263618
144	0xbe18b63a	-0.14913264
145	0xbe071e8a	-0.13195243
146	0x3e872cbc	0.26401317
147	0x3d831378	0.06400198
148	0x3e19bc47	0.15013228
149	0x3e0d538c	0.13801402
150	0xbc90bb1c	-0.017667346
151	0x3dc7f064	0.09762648
152	0x3e0f996e	0.14023373
153	0xbe025c21	-0.12730457
154	0x3e14439e	0.14478919
155	0x3e397842	0.18112281
156	0x3e759110	0.23981118
157	0x3dbe3375	0.092871584
158	0x3b03a671	0.002008822
159	0x3db145bd	0.0865588
160	0x3dbd149b	0.09232446
161	0xbe08ce12	-0.1335986
162	0x3e09d425	0.13459833
163	0x3e83203f	0.2561054
164	0x3d330dde	0.043714397
165	0xbe9f6d08	-0.31137872
166	0x3dc9d37c	0.098547906
167	0xbec301f2	-0.38087422
168	0x3d5af1cd	0.053453255
169	0xbed2e7f8	-0.41192603
170	0xbdaa08eb	-0.08302482
171	0xbc15be65	-0.009139632
172	0xbe4d38fe	-0.20041272
173	0xbe9d0944	-0.30671132
174	0x3e17ef49	0.14837374
175	0xbed0691f	-0.407052
176	0xbe6c6b22	-0.23087743
177	0x3e0e0c4e	0.13871881
178	0xbedbf8f7	-0.42963383
179	0x3e362536	0.17787632
180	0xbeacc239	-0.3374193
181	0x3e8b5667	0.27214357
182	0xbe97887b	-0.29596314
183	0xbe32b806	-0.17453012
184	0xbbecbaf1	-0.0072244336
185	0xbe69afdb	-0.2282099
186	0x3e922548	0.28544068
187	0x3e84891a	0.2588585
188	0xbdca2e97	-0.098721676
189	0xbd816bfa	-0.06319423
190	0x3eab2e6a	0.3343385
191	0x3e8863c7	0.26638624
192	0x3eafbea7	0.34325144
193	0xbe11cd43	-0.14238457
194	0x3e596e72	0.21233538
195	0xbe3289e5	-0.17435415
196	0x3c27f678	0.010251634
197	0xbecbd7eb	-0.3981317
198	0xbd063f47	-0.03277519
199	0xbeac0462	-0.33597094
200	0xbe065d69	-0.1312157
201	0xbe8db3de	-0.2767629
202	0xbd0c959c	-0.034322366
203	0x3e917ba6	0.2841465
204	0x3d65c140	0.0560925
205	0xbe9da7b6	-0.30792016
206	0xbbb523f2	-0.0055279667
207	0xbe917dc3	-0.2841626
208	0xbe5cdef9	-0.21569432
209	0xbe6cfd94	-0.23143607
210	0x3e69c662	0.22829583
211	0xbe33c70b	-0.17556398
212	0xbe3410d3	-0.17584543
213	0xbe784676	-0.24245629
214	0xbe688ad9	-0.22709216
215	0xbe9d0154	-0.30665076
216	0xbdeef8d9	-0.11668558
217	0x3e97b29c	0.29628456
218	0xbb7d943a	-0.0038693086
219	0xbe3fc83a	-0.18728724
220	0xbdf79114	-0.12088218
221	0x3dc1d73b	0.0946488
222	0xbe244003	-0.16040044
223	0x3e25830f	0.16163276
224	0xbe6996fd	-0.22811504
225	0x3e8b2252	0.27174622
226	0x3aff13cb	0.0019460855
227	0x3e4c5d0d	0.19957371
228	0x3e6a601b	0.22888224
229	0x3e5d723e	0.21625611
230	0x3e82c989	0.25544384
231	0x3ab14b38	0.0013526445
232	0x3db698cc	0.089158624
233	0xbd8c2515	-0.0684301
234	0xbd8a4e8f	-0.06753265
235	0x3de7fb71	0.113272555
236	0x3e808ce8	0.25107503
237	0xbc4b139e	-0.012394814
238	0xbe85b389	-0.26113537
239	0x3e37fe68	0.17968142
240	0xbe502a85	-0.2032872
241	0xbea1385a	-0.31488305
242	0xbe1ce2f5	-0.15320952
243	0xbdbdb97f	-0.09263896
244	0x3d69ae58	0.057051033
245	0xbdd4cba9	-0.103904076
246	0xbe3388d9	-0.17532672
247	0xbeafb25e	-0.3431577
248	0xbe46ab5b	-0.19401304
249	0xbd81f1c8	-0.06344944
250	0x3ea42149	0.32056645
251	0xbdf9596f	-0.12175261
252	0xbe4bc34a	-0.19898716
253	0x3e734a1b	0.23758738
254	0x3d9ff77f	0.07810878
255	0xbc9b999a	-0.018994141
