results/priority-sort/priority-sort-task-1-batch-41000.model (torch_old, 876115 bytes, 49 tensors)

ntm.read0_bias f4 [1, 20]
000000 d3 d4 0b 3c 26 33 0a 3c 0d 66 07 bc 89 8c 3e 39
       0.008534628 0.008435046 -0.008264077 0.00018172165
000010 18 12 99 3b 83 6f 18 3c dd 0b 19 3b bd f5 35 3c
       0.0046713464 0.00930393 0.0023353018 0.011105952
000020 4d c3 c8 3b 41 e3 3a bc 7e 4e a9 ba f7 b1 ef ba
       0.0061267973 -0.011406721 -0.0012917069 -0.0018287291
000030 87 a4 d5 bc f7 f7 3f 3b 98 dc 8b 3c eb 0f 77 bc
       -0.02607943 0.0029292086 0.01707296 -0.015079479
000040 2d 3b 1a bc 44 c2 45 3b e9 ba 21 3c dc 91 b0 3a
       -0.009413523 0.0030175606 0.009871223 0.0013471204

ntm.read1_bias f4 [1, 20]
000000 26 7f f3 3b 16 22 21 bb eb 81 c9 3b 06 05 d1 3b
       0.0074309288 -0.0024586967 0.0061495206 0.0063787727
000010 07 69 5e 3b 59 80 a8 3b af 91 49 bb cb 9c f5 ba
       0.0033937113 0.0051422534 -0.0030757 -0.0018738745
000020 34 1a d5 ba 10 0a a6 ba 38 2b 9c 3c dd 00 36 3c
       -0.001625842 -0.0012667794 0.019063577 0.011108604
000030 cc c1 94 bb 4a 2c 23 bc fe e3 20 39 97 bd db bb
       -0.004539704 -0.00995929 0.00015343723 -0.0067059505
000040 d4 87 11 3b e4 78 0e 3c b7 70 1b bc ea 51 78 bb
       0.0022206204 0.008695815 -0.0094873225 -0.0037890621

ntm.read2_bias f4 [1, 20]
000000 5d ed 09 3c fb 63 b1 bc 34 97 d6 3c b3 e7 72 bc
       0.008418408 -0.02165412 0.026195146 -0.014825749
000010 83 36 e9 3b 8a e3 68 3b b0 e4 b0 3b 87 3d 34 3b
       0.007117094 0.0035536014 0.0053983554 0.0027502493
000020 14 97 25 bc 5b 63 23 bc 20 3e 24 3c ff 13 88 ba
       -0.010106821 -0.009972419 0.010024577 -0.0010381936
000030 92 03 64 bb 58 3d 7b 3b 6a 02 dc ba ab 40 67 3b
       -0.0034792167 0.0038336124 -0.0016785387 0.0035286348
000040 55 61 85 3c 46 3c 81 bc ed b1 95 3c 13 a6 32 bc
       0.016281763 -0.01577581 0.018273318 -0.010903853

ntm.read3_bias f4 [1, 20]
000000 e8 fc 10 bc 3e bf 0a 3b a0 79 22 bc e8 8e 9d 3b
       -0.00884936 0.0021171118 -0.009916693 0.0048082955
000010 db 03 d4 39 a6 a9 64 3b ed 59 b9 3c d3 a3 4e bc
       0.00040438664 0.0034891157 0.022625888 -0.012612301
000020 4b 5c d1 3a 9a 11 0c ba a5 f1 3c 3c 15 65 d3 3b
       0.001597294 -0.0005343199 0.011532222 0.006451259
000030 70 e9 57 ba f9 7e 82 3b 8e 46 c2 3b 61 60 06 bc
       -0.0008236384 0.0039824215 0.005928821 -0.008201689
000040 95 82 6b bc 40 a2 40 bb 90 8b 13 bc 19 48 90 3c
       -0.014374395 -0.0029393584 -0.009005442 0.017612504

ntm.read4_bias f4 [1, 20]
000000 b4 59 a9 3a ed 3d 92 3c 46 6d ee ba 1b 01 f3 3b
       0.001292041 0.017851794 -0.0018190525 0.0074159033
000010 00 a8 81 bb 10 fe 10 bc e6 12 d2 bb 50 1c 07 3c
       -0.0039567947 -0.008849636 -0.0064109443 0.008246496
000020 f6 4c 1d bb 30 4d 08 3c 7e 27 33 bc 74 55 70 bc
       -0.002400217 0.008319184 -0.010934709 -0.014668811
000030 4b 8f 44 bc d8 5d 1d bc 57 d2 c9 b9 bd f3 d8 3a
       -0.011997054 -0.009604894 -0.00038494423 0.0016552132
000040 4a 8c b8 3b 43 4f 13 bb b7 f8 8a bc b6 f7 29 3c
       0.005631958 -0.0022477664 -0.0169643 0.010374

ntm.controller.lstm_h_bias f4 [2, 1, 100]
000000 bd 26 97 3d a2 43 0d bd 41 0e c1 3b 83 83 fd bd
       0.073804356 -0.034488328 0.005891592 -0.123785995
000010 c7 0e 9f bd 24 78 a3 3d a3 e8 d5 bd a6 a4 0e bd
       -0.077664904 0.079818994 -0.104447626 -0.03482499
000020 4a 1a 89 bc 22 24 44 ba ee 92 4a bd 65 f1 ed bc
       -0.016736168 -0.0007482191 -0.04945653 -0.02904577
000030 3c 10 30 3d fd 33 a7 3c 88 bc bc bd 34 02 6d 3d
       0.042984232 0.020410532 -0.09215647 0.05786343
000040 71 c9 18 bd 2f a4 22 bd 7a 48 02 3e 80 00 99 3d
       -0.037301484 -0.03970736 0.1272296 0.074707985
000050 ad c0 4c bd 37 81 09 3c 9c 0d 3d 3d d5 aa 68 bd
       -0.049988437 0.008392624 0.046155557 -0.056803543
000060 dc 25 a2 bd b3 c2 db 3d 6c 65 33 bd 1b 7c 91 bc
       -0.07917377 0.10730495 -0.043797895 -0.017759373
000070 08 cf 9f bc 27 bf 3e bd 33 45 39 bd 45 ac 76 bd
       -0.0195079 -0.046569016 -0.04523201 -0.060222883
000080 17 5d e7 bc df 8b 29 bd f2 8b 1b be 8a 26 26 3d
       -0.02824263 -0.041393157 -0.15190104 0.040564097
000090 3f f5 24 bd 67 8e e0 bc c7 05 25 3e 4b 4d 06 bc
       -0.040272947 -0.027411653 0.16115485 -0.008197139
0000a0 70 fd 11 3d e2 fc f8 bc 27 b9 3d bd e6 63 66 3b
       0.035642087 -0.030394021 -0.046319153 0.003515476
0000b0 92 df 1d bc d6 d9 92 bc 46 74 23 bb 3c c4 9a 3d
       -0.009635823 -0.017926138 -0.002494113 0.0755696
0000c0 26 ca 2e 3d 23 79 81 bc 47 40 3d 3d c0 92 e0 3d
       0.042673253 -0.015804833 0.046203878 0.1096549
0000d0 a8 f1 5d bd 09 f7 03 3e 5b d2 ba 3c 23 87 6e bb
       -0.05418554 0.12887205 0.022805383 -0.0036396466
0000e0 b6 bc 17 3d 7e 0a ba bd 30 a5 8a 3d 00 2f c5 3d
       0.037045203 -0.090840325 0.06769788 0.09628105
0000f0 dc ed ce 3d f4 71 01 bd 8f 20 36 3d 8f ba 0d 3c
       0.10103962 -0.031602815 0.044464644 0.008650436
000100 8d 85 9c 3d ef 1f 72 bd 46 8b 91 bc 27 42 99 bd
       0.0764266 -0.059112485 -0.017766606 -0.07483321
000110 a4 1b f7 bd b4 99 12 be 26 bd c7 bb 54 11 c7 bd
       -0.12065819 -0.14316446 -0.0060955463 -0.09720102
000120 c1 d5 89 bb 18 1d 01 bd 50 67 fc 3c 38 91 5c bd
       -0.0042063897 -0.031521887 0.030810982 -0.05384943
000130 da 02 a9 bd 5f da 04 be 75 61 90 3c 4c 6c 74 bd
       -0.08252497 -0.12973927 0.017624596 -0.059673592
000140 6e 7b a6 3c 7c c1 6f bd fb 89 30 be 1b a0 fe 3b
       0.020322528 -0.05853413 -0.17240135 0.007770551
000150 17 cb 2c bd 80 c6 32 3d a5 61 8b bd dc 4d 1c bd
       -0.04218587 0.043646336 -0.068057336 -0.03816019
000160 76 c6 f3 3c 29 4b fe 3d 13 63 85 3b f6 b0 02 bd
       0.02975772 0.124166794 0.0040706485 -0.031907044
000170 c7 f3 3a 3d 00 e4 0a bd 6e 6d e5 3d da cc 94 bd
       0.04564264 -0.033908844 0.11202513 -0.07265635
000180 f9 cc 9f 3d 6b f1 ba 3d cc ad 8a 3d 42 5f 29 bd
       0.07802767 0.09128078 0.067714304 -0.04135061
000190 8e c5 9d 3e 4b 15 2d 3d 51 20 41 3d 4b b1 c4 3d
       0.30814785 0.042256635 0.04714996 0.096041285
0001a0 aa 71 0e be 1c 3d a8 3d 46 4d de 3d 8a 0b 0f be
       -0.13910547 0.08214781 0.108545825 -0.13969246
0001b0 ad 30 db 3d c3 5a fb bd ca 87 5f bd 85 d7 ea bd
       0.107026435 -0.12273171 -0.054572858 -0.11466888
0001c0 98 07 05 3e 1d 41 7c 3d d5 ab 88 bd d8 d3 d7 bd
       0.12991178 0.061585534 -0.06673399 -0.10538453
0001d0 dc 1e 35 3e 31 64 43 bc c9 5c 29 be 0e 2f 02 3d
       0.17687553 -0.011925743 -0.16539301 0.031783156
0001e0 47 16 88 bd 33 23 ac 3d dd 9a f4 3c 5a ae 96 3d
       -0.06644874 0.08405151 0.029859 0.07357474
0001f0 ef 26 18 bd 4d f2 b8 bd 7f 8d 85 bd cc 91 0c 3e
       -0.037146505 -0.0903059 -0.06521129 0.13727492
000200 88 a2 18 3c 7c 3a 2a 3e 86 72 d0 3d 99 a0 22 3d
       0.009316094 0.16623873 0.101780936 0.03970394
000210 26 80 92 3d 92 36 99 bc fa 2d 0e 3e 57 24 d6 bd
       0.071533486 -0.018702779 0.13884726 -0.1045615
000220 d0 e6 e2 3b 60 18 ca 3c dd e3 9f 3d c5 d8 c6 bd
       0.0069244877 0.024669826 0.07807133 -0.09709314
000230 65 cc c3 3d fe f9 62 bd fb 78 ce bd 08 aa 9f bd
       0.095604695 -0.055414192 -0.10081669 -0.07796103
000240 14 f1 9e bc 52 a9 19 3d 8b 4e da 3d ce 34 80 bc
       -0.019402064 0.037514992 0.10659512 -0.01565018
000250 0c dd 01 3e d8 17 d8 bc 87 f6 a9 3b 70 46 27 3e
       0.12681979 -0.026378557 0.005186859 0.16335464
000260 73 cd 93 3d 51 93 c0 bc 85 97 4a bd bf bf b1 ba
       0.07216921 -0.023507746 -0.049460907 -0.0013561173
000270 b5 ec f0 bd 6a 54 b6 bd 0a 9f 1d 3d 64 bb e7 bd
       -0.11763898 -0.089028195 0.03848175 -0.11315039
000280 05 9f 44 3d be 72 02 3e c4 be 1e 3e b4 65 ef 3d
       0.048003215 0.12739083 0.15502459 0.1168932
000290 4c 70 0e bd ea b1 1f bd 4b 84 c1 3c 30 1d 24 3b
       -0.034775063 -0.03898803 0.023622653 0.0025041811
0002a0 3c 9a a5 3d 18 0e 79 3d 39 3d 02 3d cf 3d 8d 3e
       0.080860585 0.060804456 0.031796668 0.2758622
0002b0 cc f2 2b be e9 57 c0 3d 1a fc 9c 3d dc b2 0b be
       -0.16791838 0.093917675 0.07665272 -0.13642448
0002c0 e0 7c c8 3d 84 78 59 bd 36 4e ec bd 65 49 3b be
       0.09789443 -0.05309345 -0.11538355 -0.18289717
0002d0 4a 86 8c 3d a5 05 96 bd 17 16 e2 bb 25 bc c8 bd
       0.06861551 -0.07325295 -0.006899606 -0.09801511
0002e0 ec 8f 5d 3e 99 a4 cd bd 9c 78 c6 bd c3 39 13 be
       0.21636933 -0.1004116 -0.09690973 -0.14377503
0002f0 8e f8 2d bd 1d 84 fc bd 85 72 bc 3d 9e 66 b1 bd
       -0.04247337 -0.12329886 0.0920153 -0.08662151
000300 7c 41 51 3d d3 c6 5c 3e 0e fb 10 bd 41 bf 2f be
       0.05108784 0.2156022 -0.035395674 -0.17162801
000310 45 b8 bf 3d b5 e6 13 be 74 2c f7 3d ba 3d 25 bd
       0.093613185 -0.14443476 0.12069026 -0.04034207

ntm.controller.lstm_c_bias f4 [2, 1, 100]
000000 e9 ad 59 3d ae ad 2b bd f4 2b 2f bd 2b 59 5c bc
       0.05314437 -0.04191368 -0.042766526 -0.013448994
000010 fa 59 91 bc 32 51 b6 bc 65 a6 2a be 42 a4 12 3e
       -0.0177431 -0.022255514 -0.16665037 0.14320472
000020 33 f4 9a bd 8a fe 57 bd 23 b6 7b 3d 47 20 e0 bd
       -0.075661086 -0.05273298 0.061452996 -0.109436564
000030 ca 10 34 bc f4 ab 06 bd ba 4e 2d 3e 19 47 1f bd
       -0.010990331 -0.03287883 0.16924563 -0.038886163
000040 79 a3 60 3c bd ed 01 be 85 cf cc 3d 78 52 36 bd
       0.01371085 -0.12688346 0.10000519 -0.044512242
000050 b0 45 67 bc 5a be 5c bd 63 01 bf 3c 54 eb 93 bc
       -0.014115736 -0.05389247 0.02331609 -0.01805655
000060 eb 24 d2 bc 57 61 05 3e 5a 9e 1e 3c 2c 1b ff ba
       -0.02565237 0.13025413 0.009681309 -0.0019463054
000070 52 cd 96 bd 10 a9 da 3b c1 58 86 bd 33 e3 8c bd
       -0.073633805 0.006672986 -0.06559897 -0.06879272
000080 16 ed 94 bd 32 a1 ba bd 4a 7a be bc 1b d0 52 bd
       -0.07271783 -0.09112777 -0.023251671 -0.051467996
000090 94 61 24 bc 89 75 f8 bd 26 ac 75 3c a4 04 93 bd
       -0.01003303 -0.12131793 0.014994657 -0.071786195
0000a0 6f 2e 1d 3b 63 bf 92 bd d9 e1 9e bd b1 47 4e 3d
       0.0023983975 -0.0716541 -0.07757921 0.05036134
0000b0 38 9c 94 bc 14 2b 8c 3d a2 dc 29 3d e0 65 fc 3c
       -0.018140897 0.06844154 0.041470177 0.030810297
0000c0 ed 6b c2 bc da 12 89 ba d0 7c f6 3c 21 3f 5f bd
       -0.023733104 -0.0010457889 0.030088812 -0.054503564
0000d0 29 10 9c ba c8 2f b0 bc 7a b8 13 3e 46 13 16 bd
       -0.0011906672 -0.021507159 0.14425841 -0.036639474
0000e0 28 35 84 bc 7c c9 f8 3c 5a 92 87 3c 29 cd e0 3c
       -0.016138628 0.030369513 0.016549278 0.027441578
0000f0 59 7e 06 3d 22 55 1f bd 7c 3a 9b bc e4 5f 41 bd
       0.03283534 -0.03889955 -0.018948786 -0.04721059
000100 21 b4 11 3d e2 8b 21 bd bd 39 3b bd 49 10 54 3d
       0.035572175 -0.039440043 -0.04570936 0.051773343
000110 e9 46 d3 3c f4 2c 44 bd d0 98 25 3d e8 4a 8f bd
       0.025790649 -0.047894433 0.040428936 -0.06996709
000120 e4 c7 7e bd 42 a6 2f 3d 98 24 7f 3d 1a 80 4d bd
       -0.06220235 0.042883165 0.062290758 -0.050170995
000130 62 b9 c9 3c b6 f6 0a be 00 d3 54 bd 7e c2 74 bd
       0.02462453 -0.13570675 -0.051959038 -0.059755795
000140 0f e1 21 bd 8c 8c 72 bd 2d ad 52 bb 07 e0 c1 bd
       -0.039521273 -0.059216067 -0.0032146678 -0.09466558
000150 82 62 a5 3d fc 00 9a bc b0 14 e3 3c 8d aa bb 3d
       0.080754295 -0.018799298 0.027719826 0.09163389
000160 88 f9 9a bd b2 df 26 3b 68 e8 c4 3b 75 53 16 3c
       -0.075671256 0.0025462923 0.0060091503 0.009175171
000170 79 b0 a4 3c 37 62 5a bd e7 db f2 bc 26 6c 55 bc
       0.02010368 -0.05331632 -0.029645873 -0.013026273
000180 e4 c2 85 3d 71 e4 3b bb f6 aa 03 bc bf d9 b6 bd
       0.06531313 -0.0028670097 -0.008036366 -0.089282505
000190 d5 9d 7e 3d ff 86 93 3c b2 f6 84 bd bf 75 21 bd
       0.06216224 0.018008707 -0.06492366 -0.039418932
0001a0 8a 8a ee bd bb 6f dd bb ff dd cb 3d 71 7d 32 3b
       -0.11647518 -0.006757704 0.09954452 0.0027235413
0001b0 df 49 e2 3d 26 f4 3f bd 13 1d d2 bd 1b a5 94 bd
       0.11049246 -0.046863697 -0.10259452 -0.07258054
0001c0 e7 b5 9b 3d 0f 30 62 3b c9 92 20 bc c7 ef 22 3e
       0.076030545 0.0034513508 -0.009800621 0.1591178
0001d0 76 b4 10 3e 31 94 10 3e 86 72 4c bd f4 81 c6 bd
       0.1413134 0.1411903 -0.049913906 -0.09692755
0001e0 bf 67 8a bc 63 55 3f bd 1d 54 ef bc a6 29 d5 bc
       -0.016895173 -0.04671229 -0.029214913 -0.026020836
0001f0 19 f5 0e be 69 ff 47 bd df 10 a4 bd b5 c9 73 3e
       -0.13960685 -0.048827562 -0.080110304 0.23807414
000200 44 50 b8 bc 2a 6f 80 bd d7 bc d3 3d a2 14 30 bc
       -0.022499211 -0.06271203 0.10338753 -0.010747107
000210 5b 9c ba 3c c2 b2 b2 3d be 9a 26 3d 8c aa 3a be
       0.022779634 0.087255016 0.040674917 -0.18229121
000220 1f bd 24 3d 65 c5 c7 3d 47 41 13 3c e0 82 59 bc
       0.040219422 0.09754447 0.008987731 -0.013275832
000230 08 f3 bf 3c 93 36 21 bd 39 9a a6 bd 5b 8a e6 bd
       0.023431316 -0.039358687 -0.081348844 -0.11256858
000240 7b f6 42 bc 73 27 e3 bd 8a 16 ba 3d a1 b4 98 3d
       -0.011899586 -0.11091509 0.0908633 0.07456327
000250 41 bd de 3d ac cf ff 3d 17 36 4a bd 7e b2 f8 bc
       0.10875941 0.12490782 -0.04936799 -0.03035855
000260 54 9a 77 3d 7a db f7 bd ac c6 a9 bd be f6 33 3d
       0.060449913 -0.12102409 -0.08289847 0.043936484
000270 8e a5 02 bd 2b 94 f5 3c 86 0a 59 3d 9c eb cc 3d
       -0.031896167 0.029977879 0.05298855 0.100058764
000280 22 ff 21 bc 1e b6 87 3d 68 cb b9 bc 5f 2d 03 3d
       -0.009887489 0.06626533 -0.02268 0.03202569
000290 0c c4 14 be 25 6d ca bb 76 1b e6 bc 1c 0a f8 bc
       -0.14527911 -0.006177562 -0.028089266 -0.030278258
0002a0 0a 4f 7a bb 4c bf c4 3d e7 ad a6 3d cc 13 db 3c
       -0.0038194084 0.096067995 0.08138638 0.026742838
0002b0 52 98 df bd f3 d5 f7 3c 01 a3 3b 3c d8 de f5 bb
       -0.10917725 0.030253386 0.011452437 -0.0075033717
0002c0 44 c6 f9 3d 38 15 21 be f8 3b 92 bd 0a 9e af bd
       0.12196019 -0.1573075 -0.071403444 -0.085750654
0002d0 28 7c 7d 3d 95 81 d6 3c d9 05 bd 3c 1d 00 24 be
       0.061885983 0.026184836 0.023074077 -0.16015668
0002e0 75 31 95 3c ae 35 7f bd 7f 3f 62 bd 42 82 1c be
       0.01821206 -0.062307052 -0.055236336 -0.15284064
0002f0 dd 1b 3e 3e c7 2f 1d 3c ee c6 69 3d 82 c2 8f 3b
       0.18565316 0.009593911 0.05707448 0.004387201
000300 1e 4c de bd 63 ab 66 3c 90 6d 84 3d d2 17 18 be
       -0.10854362 0.014078948 0.0646621 -0.14852837
000310 3e 49 6a 3d e5 ef 14 bd 2d 63 1d 3d 7f 0b 14 3d
       0.057198755 -0.036361594 0.03842466 0.036143776

ntm.controller.lstm.weight_ih_l0 f4 [400, 110]
000000 2e 88 9b be 94 bb c3 3d 3a a2 b0 3b 20 59 82 be
       -0.30377334 0.09557262 0.0053904327 -0.25458622
000010 e7 18 b9 be 8f f9 6b be e7 6f 1c 3d 0e 24 18 3e
       -0.3615181 -0.23044418 0.038192656 0.14857504
000020 72 01 30 be 5f 2b e8 bd e6 28 37 be 23 fa 50 3d
       -0.17188051 -0.113363974 -0.17886695 0.0510198
000030 91 a9 91 3e 44 3c 11 3e 15 7a 13 3d 4d 67 80 3e
       0.2844968 0.14183146 0.0360051 0.25078812
000040 ed 47 67 bd 16 cf e4 3d 36 e8 64 3e 27 43 40 be
       -0.05646508 0.11172311 0.22354206 -0.18775617
000050 55 b1 b0 3d 56 23 8e be 15 9f 7d 3d 19 48 bb be
       0.086275734 -0.27761334 0.06191929 -0.36578444
000060 e6 47 ad 3d ed 6e ec bd 03 28 10 be 29 68 a7 be
       0.08460979 -0.11544595 -0.14077763 -0.32696655
000070 ba 1f 67 be 85 9b 60 bd 26 a8 c8 3c af 60 8b be
       -0.22570696 -0.054835815 0.024494242 -0.272222
000080 1d ca 92 3d 9a 5d 97 3c 6d 4c 4a 3e 3a 6d 02 bd
       0.07167456 0.01847725 0.19755717 -0.031842448
000090 e0 c0 97 be 4c ed b3 3e 05 68 69 be 7a 8d 4b 3e
       -0.2963934 0.3514198 -0.22793587 0.19878188
0000a0 99 44 0b 3e 51 60 93 be 60 25 f9 3d 9d e0 12 3d
       0.13600387 -0.2878442 0.12165332 0.03585874
0000b0 5b ae 9c 3e b5 cf 47 3e 77 d8 71 3e 73 d9 49 3e
       0.30601773 0.19512828 0.23617731 0.19711857
0000c0 a3 82 84 3e 14 4c 61 be 56 80 dd bd 0c 1a 09 3e
       0.25880918 -0.22001678 -0.10815494 0.13388842
0000d0 0d 9d a8 3e 90 6a 27 be 86 33 97 be 7e 9f a8 bd
       0.3293232 -0.16349244 -0.29531497 -0.08233546
0000e0 41 c9 d1 bc ab 6c 7e bc 3c 21 64 3e a2 13 59 be
       -0.02560866 -0.015528838 0.22278303 -0.21198896
0000f0 be a4 b2 be aa ce f7 3b 58 fa bc 3b 47 0d 74 be
       -0.34891313 0.007562478 0.005767148 -0.2383319
000100 f5 19 71 be 26 a8 6c be f0 c2 c6 3d 75 1f 49 bd
       -0.23545058 -0.23111019 0.0970515 -0.049102265
000110 f4 1d 49 3e 1e db 6a bd 98 27 70 be 5f 40 e0 3d
       0.19640332 -0.057337873 -0.23452604 0.10949778
000120 66 fe 08 3d 66 92 71 3d 57 d5 7d be a9 be b1 3e
       0.03344574 0.058977507 -0.24788414 0.34715775
000130 d0 17 6e 3d 6f 8e 86 3d 70 c1 32 3e 9b f7 94 3e
       0.058128178 0.06570136 0.17456603 0.29095158
000140 9e 0a ac be 44 b8 dd 3d c3 28 d8 bd 64 04 2e be
       -0.3360185 0.108261615 -0.1055465 -0.16993862
000150 cb 9b 64 bd 99 e2 75 3e 39 74 0f 3d 7d 9c 35 be
       -0.05581264 0.24012221 0.035022948 -0.17735477
000160 01 0e 5a be b8 a0 7d bd 92 2b 37 bd e6 5d 95 3e
       -0.21294405 -0.06192085 -0.044719286 0.291732
000170 5a 09 77 3e 6d 3a e3 3c 0c cc 32 3e c5 b0 43 be
       0.24124661 0.02773782 0.1746065 -0.19110401
000180 4e f8 79 bd 15 8e 8a 3e 4a 01 a3 3e e5 2a c7 3d
       -0.061027817 0.27061525 0.3183692 0.09724978
000190 39 57 45 3d 9f 01 b9 bd 96 d8 03 be b4 d6 7a be
       0.048178885 -0.09033512 -0.1287559 -0.24495965
0001a0 f0 31 1d bd ab 1a 53 bc 40 d6 ce 3d 12 9e 99 3e
       -0.038377702 -0.012884776 0.10099459 0.3000341
0001b0 b9 08 b4 3e e4 85 5f 3d fd 26 7c be 34 15 b1 bc
       0.35162905 0.054571047 -0.24624248 -0.021616556
0001c0 08 00 42 be b7 ac 9f be 81 c2 05 3e ae 09 30 3c
       -0.18945324 -0.31186458 0.13062479 0.010744495
0001d0 ea 64 ad 3d 5e 59 2c 3e 68 87 a6 be b3 2b 5d 3c
       0.084665135 0.16830966 -0.32525182 0.013499188
0001e0 d8 84 44 3d bf 9a 4e 3d dc c1 28 be 1a 80 aa be
       0.047978252 0.050440546 -0.16480201 -0.3330086
0001f0 f9 25 a4 3e ad bc 3a 3e 32 74 3e 3e 02 a1 7c be
       0.3206022 0.18236037 0.18599012 -0.24670795
000200 05 ad e4 3c 85 af a9 be f1 9c 14 3e 24 cf f5 3d
       0.027914533 -0.33141723 0.14512993 0.120023996
000210 18 6f 9e be f6 d2 95 3c f8 8c a3 be fe 50 6d 3c
       -0.30944133 0.01828907 -0.31943488 0.014484642
000220 1a 3d 6f 3e bd fd 9a be 00 ae 13 bd 41 a5 90 3e
       0.23363152 -0.30271712 -0.03605461 0.2825108
000230 51 ea b8 3d 2c 69 03 3e 1f 9e 86 be 05 41 9f be
       0.09029067 0.12833089 -0.26292512 -0.31104293
000240 49 46 58 be 68 97 14 bd ee 91 58 be a9 71 90 3e
       -0.21120562 -0.036277205 -0.21149418 0.28211716
000250 c1 4b 3f be 0b b3 07 bd ff 8a b1 be 81 b6 9a be
       -0.18681242 -0.033129733 -0.34676358 -0.30217364
000260 87 9e 28 3e d3 66 a2 be 95 95 b2 3d 4b dc 4d 3e
       0.16466723 -0.31719074 0.08719937 0.20103566
000270 54 7b 35 bd 64 ae 5c 3e a0 92 07 be 71 92 ac 3d
       -0.044307068 0.215509 -0.13239527 0.08426369
000280 96 23 34 be e8 b3 87 bd a6 2b 3e bc 4e 90 e3 3d
       -0.175917 -0.06626111 -0.011607086 0.11111508
000290 03 7b 68 3e 7b 00 73 3d b7 f1 c4 3d ec cf 5a be
       0.22703175 0.05932663 0.09616416 -0.21368378
0002a0 f9 49 ea bd a4 4c 11 3e b7 c2 96 be 7d ee 9e 3e
       -0.114398904 0.14189392 -0.2944543 0.31041327
0002b0 2f bb 87 3e bf 75 f6 3d 56 5f 0a be 27 8f b9 be
       0.26509997 0.12034177 -0.1351293 -0.3624203
0002c0 08 a7 83 3e ec af 76 be 8b f5 28 be 96 72 22 be
       0.25713372 -0.24090546 -0.16499917 -0.15864024
0002d0 42 0e 61 3e b7 64 6c 3e bf e6 8a be 3f e8 ac be
       0.21978095 0.23085295 -0.2712917 -0.3377094
0002e0 18 d5 59 bc d9 3f 6c be 91 af e2 3d 2f 1a b6 be
       -0.013295434 -0.23071231 0.11068643 -0.35566851
0002f0 9e 23 74 bd 30 5a 6f bd c0 75 85 be 88 f4 9d 3e
       -0.05960428 -0.05843562 -0.260664 0.30850625
000300 19 da c5 be 9c 2a af be 8b 4a 5f be 9d a6 84 3d
       -0.38642958 -0.34212196 -0.2180578 0.064770915
000310 de 70 26 be 44 93 94 3e 0c 00 b4 bd 6d 15 d2 3d
       -0.16253993 0.29018605 -0.087890714 0.10257993
000320 d6 2e 0a be 71 bd f3 3b 82 8a 18 3c 06 f1 f6 3d
       -0.13494429 0.0074383547 0.009310367 0.1205769
000330 db 45 98 3e a4 35 ec 3d 15 fc 98 3c 8f a8 27 be
       0.29740795 0.11533669 0.01867489 -0.16372894
000340 79 55 52 be f3 b5 7a 3e f9 77 28 3e 80 55 e9 3d
       -0.20540418 0.2448347 0.16452016 0.11393261
000350 29 1b 3d be 01 54 4d 3e ee 7c bc 3c ae 2b 1b be
       -0.18467392 0.20051576 0.02300879 -0.15153381
000360 3e 29 a5 bd a9 2c 03 3e d7 53 5c 3e 43 7a 29 3d
       -0.08064507 0.12810005 0.21516357 0.041376363
000370 bd f4 21 3e 60 5b e8 bd 22 0b ba 3d 9e b0 0a 3d
       0.15816016 -0.113455534 0.09084155 0.03385984
000380 13 a6 45 3d 0d 5d 7a 3d 8f b3 92 bd 91 63 29 be
       0.048254084 0.061123896 -0.07163154 -0.16541888
000390 9a 2f 98 3e df c9 84 3e 5b 75 79 3e 85 85 49 3e
       0.29723817 0.25935265 0.24361174 0.1967984
0003a0 e8 97 68 be 85 40 63 be 29 41 7c 3e c3 7a 5c be
       -0.22714198 -0.22192581 0.24634232 -0.21531205
0003b0 51 b9 86 be 9e 94 6b 3e 45 b1 cf bd 17 f4 80 3d
       -0.2631326 0.23005912 -0.10141233 0.062965564
0003c0 90 a2 95 3d 67 8c ee bd a9 83 c1 3d 27 40 40 be
       0.07306397 -0.11647873 0.0944894 -0.18774472
0003d0 36 e4 90 be c4 e2 ad bd 02 10 4e be b3 82 c5 bd
       -0.2829911 -0.08490518 -0.20123294 -0.096440695
0003e0 f3 62 e8 3c 15 9e 2e 3a c5 e7 ab be b5 83 44 bd
       0.028367495 0.00066611293 -0.33575264 -0.047977168
0003f0 93 69 f1 bd 14 91 93 be 66 0f 25 be dc 90 65 bd
       -0.11787715 -0.28821623 -0.16119155 -0.05604635

ntm.controller.lstm.weight_hh_l0 f4 [400, 100]
000000 8e 15 96 be c4 d8 93 3d b1 d5 71 be f9 1c a1 3e
       -0.2931332 0.07219079 -0.23616673 0.31467417
000010 04 5c 76 3e 46 55 47 3e be cb 7c be 96 9c aa bd
       0.24058539 0.19466123 -0.24687096 -0.08330648
000020 e8 76 7d be 5a 2d 69 3e 50 e3 9a be 5b 49 12 be
       -0.2475239 0.22771206 -0.3025155 -0.14285795
000030 86 12 9a 3e 3e c8 45 be c7 18 97 3e 42 88 19 3c
       0.30092257 -0.19314668 0.2951109 0.009370865
000040 11 d4 8f bd 57 4b c5 bd 35 4c 9b be e4 c6 3b be
       -0.0702287 -0.096335106 -0.3033158 -0.1833759
000050 c8 bb eb bd 29 44 35 be 58 96 36 be 1e 26 cb bd
       -0.11510426 -0.17701782 -0.17830789 -0.0991938
000060 94 cd c0 3e 04 19 f6 3d 66 79 85 3e f9 26 42 bb
       0.37656844 0.1201649 0.26069182 -0.002962528
000070 64 6f a6 3e 6d a0 c7 bd c8 62 cf bd d8 dc 8f 3e
       0.3250686 -0.09747396 -0.10126263 0.28098178
000080 60 d3 cc 3d 70 df a8 bd f2 23 2a 3e 40 73 44 3e
       0.10001254 -0.08245742 0.16615275 0.1918459
000090 e4 a7 1f 3e 6d 26 ab be 6d d7 4f 3d 80 55 ab be
       0.15591389 -0.33427754 0.050742555 -0.3346367
0000a0 db 52 aa 3e fa 7d 98 3e 7f 20 50 be a4 ae ac 3e
       0.3326634 0.29783612 -0.20324896 0.3372699
0000b0 fc 8b 36 3d b8 9a bc 3e 5f 12 84 be fb fa 92 be
       0.044567093 0.3683679 -0.25795266 -0.28707108
0000c0 12 04 9f 3d ca 46 b1 3e 3c a6 b9 3d a3 98 19 3e
       0.07764448 0.3462432 0.0906491 0.14999633
0000d0 f4 e6 11 3c 75 8f 58 bd d9 5c 21 be 74 d8 3d be
       0.008905161 -0.052871186 -0.15758075 -0.18539602
0000e0 b1 31 18 3e 34 c9 87 bd d5 72 cd bd e5 02 25 3e
       0.14862706 -0.06630173 -0.10031668 0.16114385
0000f0 c7 41 d7 bd b5 23 40 be aa 9a 78 be 6d 32 9a 3e
       -0.10510593 -0.18763621 -0.2427775 0.30116597
000100 40 88 e4 3d 58 b6 b6 bd 94 c4 37 be 53 22 23 3d
       0.111588 -0.08921498 -0.17946082 0.039827656
000110 eb cf 9e 3e 75 f0 e5 be 05 13 91 3d 8b de 86 3d
       0.31018004 -0.44910017 0.07083706 0.065854155
000120 1b ee 5f 3e 91 5e 13 be af 59 74 3e f7 c8 2b 3d
       0.21868174 -0.14391543 0.23862337 0.041939702
000130 50 c1 ee 3d 4a b2 a5 3e 06 59 24 be 5c 08 68 3e
       0.11657965 0.32362586 -0.16049585 0.22659439
000140 e8 d4 2a be 6a 88 c1 be 95 82 ba 3e 84 3f 82 3e
       -0.1668278 -0.37799388 0.3642775 0.25439084
000150 42 bd 8f 3e 88 c3 59 be ee aa 9c be 5b b6 cd bc
       0.2807408 -0.21265996 -0.3059916 -0.025111368
000160 b7 ee 27 3c fa 70 27 be 61 44 31 3e a2 2e 5d 3e
       0.010249785 -0.16351691 0.1731124 0.2159982
000170 b0 26 9d be 09 b1 08 3e 59 3c 2f 3e 3e 04 05 3e
       -0.3069358 0.13348784 0.17112865 0.129899
000180 57 83 c9 3c a0 d5 97 3d 7f af a9 3d c6 f2 a5 be
       0.02459876 0.074137926 0.08285426 -0.32411784
000190 9e 6f a1 3e c2 00 4a be 02 20 5d be ee 88 19 be
       0.3153047 -0.19726852 -0.21594241 -0.14993641
0001a0 3a f2 0b be ec 50 1a 3e d4 05 c9 bc 58 fe 76 3b
       -0.13666621 0.15069932 -0.024538912 0.0037688222
0001b0 e7 73 de 3d 81 a7 32 be 1e a2 f6 3d c1 e7 1e 3e
       0.1086195 -0.1744671 0.1204264 0.15518095
0001c0 15 83 ab be db 91 2c 3e 5b 93 54 be 0c f2 43 3e
       -0.33498445 0.16852514 -0.20759337 0.19135302
0001d0 5e 24 3a be 35 3b 4b be b3 ce 39 bd 2c 4e a0 be
       -0.18177935 -0.19846804 -0.04536314 -0.3130964
0001e0 a9 11 5c bc 3d 3d da bd 33 83 ac 3d 19 da 3f 3d
       -0.013431945 -0.106562115 0.08423462 0.046838854
0001f0 eb a6 8b 3e de e1 c6 be 15 ae af be 8b f6 58 be
       0.27275786 -0.38844198 -0.34312502 -0.21187799
000200 3e 7f d9 bd b7 d2 65 3e 8a 9f 9d 3e 87 e7 28 3e
       -0.10619973 0.22443663 0.3078578 0.1649457
000210 b4 b5 da 3e 84 ad ca be f2 a2 b0 3e 13 49 49 3e
       0.42716753 -0.39585507 0.34499317 0.19656782
000220 26 7a 0c 3d 06 ae 1c 3c 4f 39 71 be 7f 36 28 bd
       0.034296177 0.009562975 -0.23557018 -0.041067597
000230 c9 d9 0b 3e f3 2f 75 be 73 89 a6 3e a2 39 60 3e
       0.13657297 -0.23944072 0.3252674 0.21896985
000240 29 64 14 be 88 4b d4 3d 53 7e 29 be 2d f8 ee bd
       -0.14491333 0.10365969 -0.16552095 -0.116684295
000250 7a f1 b6 3d 16 2e 3b be ef 67 a0 3d 13 95 c2 bc
       0.08932777 -0.18279299 0.07832324 -0.023752725
000260 0c 00 07 3e 29 51 ab 3d 6c 90 08 be 5a bd 56 be
       0.13183612 0.083650894 -0.13336343 -0.2097067
000270 76 48 42 3e 4e 6e 3d 3e 7a b3 56 be c8 2e 28 3e
       0.18972954 0.18499109 -0.20966902 0.16424096
000280 79 32 32 3e bb 8e ed 3d fc b9 58 be 53 36 70 be
       0.17402066 0.11599489 -0.21164697 -0.23458223
000290 58 bf a9 3e 08 68 0c 3e cd b7 41 be 8e b9 49 3d
       0.33153796 0.1371156 -0.1891777 0.049249224
0002a0 c5 b3 d9 3e cf 5c 1d be d8 59 96 be 75 cc 96 3e
       0.42519966 -0.15367435 -0.2936542 0.29452863
0002b0 07 7b 6a be c5 46 28 be 76 c8 bd be d7 03 87 be
       -0.22898494 -0.16433246 -0.37067002 -0.26370117
0002c0 e5 f8 98 3c 3b 21 2a 3e a6 06 b6 3d cb f8 5f bd
       0.01867337 0.16614239 0.08887987 -0.054680627
0002d0 3f 9e 53 bd 05 38 85 3e e1 d5 d7 3d e3 da 47 3e
       -0.051664587 0.26019302 0.10538841 0.19517092
0002e0 66 52 2a 3d 29 d4 94 3e c0 ed 78 3d 26 77 27 be
       0.041582488 0.29068115 0.06077361 -0.16354045
0002f0 32 e1 dd 3d 39 82 75 3e 20 20 ee bd ac 6b 62 3e
       0.10833968 0.23975457 -0.11627221 0.22111386
000300 c4 33 ec bc 7d e2 4a 3d e6 58 56 bc e4 97 52 3e
       -0.028833278 0.049532402 -0.0130827185 0.20565754
000310 2d 81 95 3c 21 ec a6 3e aa 61 58 3e c0 30 ae 3e
       0.018250072 0.32602027 0.21131006 0.34021568
000320 96 ad 07 be ce 32 19 3c 2b 7e 94 3e 3b 3b 8b be
       -0.13249812 0.009350492 0.2900251 -0.27193627
000330 63 77 72 3d 49 30 fc bc 76 5a 4f 3e dc 7e 7c 3e
       0.059195887 -0.030784743 0.20249352 0.24657768
000340 ae 27 38 3c d1 bf 44 3e a1 5e e5 bc d4 7b 80 be
       0.011239929 0.19213797 -0.027999224 -0.25094473
000350 5c 27 43 be a2 0e 5d be 93 61 fe bd 04 8a a7 3e
       -0.19057983 -0.21587613 -0.124209546 0.32722485
000360 c3 2f d0 3d 84 21 7b 3e 3b 42 50 3e ef 15 aa be
       0.1016536 0.24524504 0.20337765 -0.3321986
000370 51 e0 53 be b9 39 93 3e 9b ad b3 bd 6c 5f b4 be
       -0.20691039 0.28754976 -0.08773347 -0.3522905
000380 fd c7 a9 be 85 34 5d be 7a 5e 55 3e 2d 72 50 be
       -0.3316039 -0.21602066 0.20836821 -0.20356055
000390 57 c6 9d 3e cd 85 77 3d a4 b2 96 be 07 98 83 be
       0.30815384 0.060430337 -0.29433167 -0.25701925
0003a0 8e b3 8a 3e b7 2f 89 bd 4a 3c 13 bd 12 e9 2f be
       0.27090114 -0.06698554 -0.035946168 -0.17178753
0003b0 2a 0d 59 be 4b 0e ad 3e 43 4d 8a 3e ed 44 69 3e
       -0.21196428 0.33799967 0.2701207 0.227802
0003c0 c1 c9 7a 3e 45 cc 8a 3e 9d 23 cb 3d 5c d0 03 3d
       0.24491026 0.2710897 0.09918902 0.03218113
0003d0 3b 3a 41 be 57 17 7d 3e 8e 89 d1 3e 1a 69 49 3d
       -0.1886987 0.24715935 0.40925258 0.0491725
0003e0 b0 b7 b9 3d 7f 01 28 be e5 f8 b6 bd af 07 b9 bd
       0.09068239 -0.1640682 -0.089341916 -0.09034669
0003f0 bf 21 54 be 06 38 43 3e b8 a3 80 bd 9b 01 75 3d
       -0.20715998 0.1906434 -0.06281227 0.059815984

ntm.controller.lstm.bias_ih_l0 f4 [400]
000000 81 19 07 3c c7 79 2e bd fe 5f 26 bd 07 f9 9d 3a
       0.008245827 -0.042596605 -0.04061889 0.0012052365
000010 eb 54 c6 bc 76 99 30 bc 28 92 4b bd 43 a4 c9 bd
       -0.024210414 -0.010778775 -0.049699932 -0.098457836
000020 37 e2 09 bd 23 a9 2a bd 62 39 a3 bd 50 87 ee bd
       -0.033663 -0.041665208 -0.07969929 -0.116469026
000030 00 6c c2 3c f4 74 23 bd 9d 7c f5 bd 27 91 6a 3d
       0.023733139 -0.039906457 -0.11986659 0.057267334
000040 47 ee 3b 3d 02 f7 d7 bd 6f c3 bd bd b2 7c e5 bd
       0.045881536 -0.1054516 -0.092657916 -0.11205424
000050 f2 2f 7c bd fb 9f 66 bd af 8b 5c bd 9b fb 6d bc
       -0.06156916 -0.056304913 -0.05384415 -0.014525319
000060 a5 1b 96 bc 59 9b c0 bd cd c9 54 bc 67 2d 1b bd
       -0.018323729 -0.0940463 -0.012987566 -0.037885096
000070 a3 c4 d9 3b 25 f8 ad bd 08 5f 71 bc 50 fa ed bc
       0.0066457554 -0.084945954 -0.01473213 -0.029050022
000080 54 5b 12 bd 11 11 98 bc 9f 6c e0 bc 9f 62 a2 bc
       -0.03573163 -0.018562825 -0.027395545 -0.019822417
000090 db 75 b6 bd 79 fd ac bd 3d 0b 8e bd 96 9f fb bc
       -0.08909198 -0.084467836 -0.06935737 -0.030715745
0000a0 a9 fb ea 3c 09 dc 32 bd 00 95 7a bd a7 b6 85 bd
       0.028684454 -0.043666873 -0.061177254 -0.06528979
0000b0 43 a1 cc 3a 23 3e f3 bc 7c 7d 1a bd 74 1c c0 bb
       0.0015612025 -0.029692715 -0.037717327 -0.005862767
0000c0 4d 09 a2 bd ce 32 24 bc 76 9f b4 bd 2f b7 92 bd
       -0.0791193 -0.010021878 -0.08819477 -0.07163846
0000d0 6c ad 92 bd f1 59 93 bd 0f 89 87 bd 46 3b 44 bd
       -0.07161984 -0.07194889 -0.06617939 -0.04790809
0000e0 af 31 21 3b 88 73 13 bd b7 10 82 bd b0 5d a8 bb
       0.0024596264 -0.03599885 -0.06350844 -0.0051381215
0000f0 81 44 15 bd d7 08 3a 3c 12 61 08 bc 14 ee 60 bd
       -0.036442284 0.011354647 -0.008323925 -0.05491455
000100 f4 13 b0 bc 4c 5d 13 bd 5f 72 5b bd a0 7a 30 bd
       -0.02149389 -0.035977647 -0.05357587 -0.043085694
000110 46 73 97 bd b8 b8 cf bd 50 b8 58 bd 48 ac 18 bd
       -0.073950335 -0.10142654 -0.05291015 -0.037273675
000120 ff 76 a9 bd 71 5d 51 bd 0e 38 a1 bd 65 48 1a bd
       -0.0827465 -0.051114503 -0.0787202 -0.037666697
000130 5e e3 f3 bd 11 64 82 bc 92 76 02 bc 5c 0d 11 bd
       -0.11908601 -0.015916856 -0.00796284 -0.03541313
000140 35 58 2d bd fe cb 69 bd 37 98 a8 bd 21 75 02 bd
       -0.04232045 -0.057079308 -0.08232158 -0.031849984
000150 a4 5a 20 bd 6c 0d c9 bd 2f 42 43 bc ab 69 40 3b
       -0.03914894 -0.09817013 -0.011917635 0.0029359858
000160 94 7f 50 bd 2c 50 46 3d 48 2e 80 3c 56 df 27 bd
       -0.050902918 0.0484163 0.015647069 -0.040984474
000170 21 65 18 ba e6 59 a2 bb e7 7f d4 bc 0f e9 c6 bd
       -0.0005813409 -0.0049545644 -0.025939895 -0.09712421
000180 5c 3d 74 3b c8 97 3c bd b7 54 b9 bd 82 30 1d 3d
       0.0037268018 -0.046043187 -0.09049361 0.03837634
000190 ac 81 ac 3c 77 fd 76 3d d5 0a 8d bb f4 54 8b bb
       0.021057926 0.060300317 -0.00430427 -0.0042520706
0001a0 74 55 d3 3b 7b ec bc 3c 39 fc 62 ba e4 d3 94 bc
       0.006449396 0.023061981 -0.00086588 -0.018167444
0001b0 72 42 81 3d c1 55 28 bd b0 33 86 bc e7 2e ce 3b
       0.063115016 -0.041097406 -0.016382068 0.0062922123
0001c0 2b 01 79 bd d1 a7 f5 bc 41 0f 0c bd 3e 88 a8 3d
       -0.06079213 -0.029987248 -0.034194235 0.08229111
0001d0 4d b6 65 3c ec 10 49 bc 8a d9 54 3d c5 2a 7d bc
       0.014020515 -0.012272101 0.051965274 -0.015452092
0001e0 26 48 06 bd 4f 16 5f bd ec 24 e6 3d 6d 33 91 3c
       -0.03278365 -0.054464635 0.11237511 0.017724717
0001f0 a7 2b f3 3d df dc 87 3c 31 5a 12 3d ca 60 af bc
       0.118735604 0.016584812 0.035730544 -0.021408457
000200 9d 04 b8 ba b8 37 93 bd 34 e4 7b 3d 8e c3 8f 3b
       -0.0014039461 -0.07188362 0.06149693 0.0043873256
000210 71 d3 c8 bc e8 19 03 3b 02 25 8b 3b 69 8a 83 bd
       -0.024514886 0.0020004455 0.004246355 -0.06422884
000220 65 9e 51 bd 5b 7d 61 bd 00 09 2d 3d 9b 61 52 bd
       -0.051176447 -0.05505119 0.04224491 -0.051362615
000230 42 a0 11 3d 26 32 a3 3d 71 16 ab bc 6e 9e a0 bd
       0.035553224 0.079685494 -0.020884724 -0.07842718
000240 c1 e9 91 3d e1 cb b4 3c bf 16 2e bd 97 51 d4 3c
       0.07124663 0.022069873 -0.04250216 0.025917811
000250 a3 01 74 bc f4 62 00 3d 0b 88 84 bc 4a 96 f1 bc
       -0.014892968 0.03134437 -0.016178152 -0.029490609
000260 03 0c b6 3c ff 31 a7 bd 93 44 5a 3d f6 ac e8 3a
       0.022222525 -0.08163833 0.053288054 0.0017751742
000270 ae ba 74 bc 08 23 45 bb 99 ff 70 bc 58 f5 d5 bb
       -0.014937086 -0.0030080695 -0.014709377 -0.0065294914
000280 13 87 fa 3c 7d 94 0d 3d c8 93 bb 3b 23 dc 9e 3d
       0.030581987 0.034565438 0.005724404 0.077568315
000290 43 e6 ac 3d 3d ac 65 3d c2 50 f8 3c 3b ae 92 3d
       0.084423564 0.056072462 0.030311946 0.07162138
0002a0 35 3d 90 3d 44 b5 b7 bc 21 e4 47 bc a6 a6 07 3d
       0.07042924 -0.022425301 -0.012200386 0.033117913
0002b0 0e 3e 32 b9 20 40 4e 3d 6a 33 ca bd e7 b8 8a bc
       -0.0001699852 0.050354123 -0.09873088 -0.016933871
0002c0 cd bf 69 bd 79 85 7a bc 68 70 de bc 4b c5 74 3d
       -0.05706768 -0.015290611 -0.027153209 0.059758466
0002d0 2b a5 51 bd ef 98 7c bd b7 28 99 bd b9 e7 43 bd
       -0.051182907 -0.061669286 -0.07478469 -0.04782841
0002e0 d8 19 52 bc 95 06 8c bd 06 78 f6 3c da a5 38 3d
       -0.012823544 -0.06837193 0.030086529 0.045080043
0002f0 e3 e4 4c 3b 42 c8 93 3d ae 30 72 3d 6a 1e ea ba
       0.0031264357 0.072159305 0.059128456 -0.0017861847
000300 ba 1e 5f bc 1b 52 be 3b 25 f2 8a bc fa 85 eb 3c
       -0.013618166 0.0058081276 -0.016961167 0.028750408
000310 0d ca 76 bd 74 84 d3 bc bb 08 55 3d 66 d7 5d 3d
       -0.060251284 -0.025819995 0.05201028 0.054160498
000320 69 39 a3 3d 28 e4 29 3c 08 f9 1a 3c 96 26 2b 3d
       0.079699345 0.010369338 0.009458788 0.041784845
000330 40 78 59 bd 47 95 af bb 85 3f a0 bc 71 20 d0 bb
       -0.053093195 -0.0053583714 -0.019561538 -0.0063515236
000340 47 33 5b bb 0c d7 81 bd fa b9 fb 3c ab a1 a7 3c
       -0.0033447312 -0.06339845 0.030728329 0.020462831
000350 d8 72 eb 3c cb 95 52 3c 49 f0 91 3c 36 08 18 bd
       0.028741285 0.012853096 0.017814772 -0.037117206
000360 e9 16 44 3c 70 67 bd bc 18 f0 04 bc 08 21 19 bd
       0.011968353 -0.023120612 -0.008113883 -0.037385017
000370 5b 68 9e 3d e7 f7 4d bd bc 17 85 3c 5e 22 45 bb
       0.07734748 -0.050285246 0.016246669 -0.00300803
000380 6e 0f 94 3b eb 19 e0 ba 54 ab 04 3d 30 3c b8 3c
       0.004518441 -0.0017097568 0.032389954 0.022489637
000390 b4 70 8c bd 51 bc 4d bd 5c 6a c4 3b d9 61 a1 3c
       -0.06857434 -0.05022842 0.0059941243 0.019699978
0003a0 a6 1f 54 ba 08 cb 84 bc b7 56 3d 3d d3 2a 19 bd
       -0.0008091874 -0.016210094 0.046225276 -0.037394356
0003b0 27 c1 9f ba 10 11 d8 bc f0 a5 65 bd d3 02 9c bd
       -0.0012188301 -0.026375324 -0.056066453 -0.07617726
0003c0 e5 b8 bd bc bd 82 83 bc 45 f3 1c bd d6 5b 0c 3a
       -0.023159454 -0.016053552 -0.038317937 0.0005354261
0003d0 ec c8 04 bc b5 02 36 3d 36 dc 6d 3d d0 27 0a bd
       -0.008104544 0.044436175 0.058071338 -0.033729374
0003e0 8a 52 0f 3d 5f 56 fa 3b b9 c8 6c bd be 82 81 bc
       0.034990825 0.007639691 -0.05780861 -0.015809413
0003f0 e1 9e 59 3c 30 d3 13 3b 54 8d 43 3b be 11 cf 3c
       0.013282509 0.0022556297 0.0029838877 0.025277015

ntm.controller.lstm.bias_hh_l0 f4 [400]
000000 81 19 07 3c c7 79 2e bd fe 5f 26 bd 07 f9 9d 3a
       0.008245827 -0.042596605 -0.04061889 0.0012052365
000010 eb 54 c6 bc 76 99 30 bc 28 92 4b bd 43 a4 c9 bd
       -0.024210414 -0.010778775 -0.049699932 -0.098457836
000020 37 e2 09 bd 23 a9 2a bd 62 39 a3 bd 50 87 ee bd
       -0.033663 -0.041665208 -0.07969929 -0.116469026
000030 00 6c c2 3c f4 74 23 bd 9d 7c f5 bd 27 91 6a 3d
       0.023733139 -0.039906457 -0.11986659 0.057267334
000040 47 ee 3b 3d 02 f7 d7 bd 6f c3 bd bd b2 7c e5 bd
       0.045881536 -0.1054516 -0.092657916 -0.11205424
000050 f2 2f 7c bd fb 9f 66 bd af 8b 5c bd 9b fb 6d bc
       -0.06156916 -0.056304913 -0.05384415 -0.014525319
000060 a5 1b 96 bc 59 9b c0 bd cd c9 54 bc 67 2d 1b bd
       -0.018323729 -0.0940463 -0.012987566 -0.037885096
000070 a3 c4 d9 3b 25 f8 ad bd 08 5f 71 bc 50 fa ed bc
       0.0066457554 -0.084945954 -0.01473213 -0.029050022
000080 54 5b 12 bd 11 11 98 bc 9f 6c e0 bc 9f 62 a2 bc
       -0.03573163 -0.018562825 -0.027395545 -0.019822417
000090 db 75 b6 bd 79 fd ac bd 3d 0b 8e bd 96 9f fb bc
       -0.08909198 -0.084467836 -0.06935737 -0.030715745
0000a0 a9 fb ea 3c 09 dc 32 bd 00 95 7a bd a7 b6 85 bd
       0.028684454 -0.043666873 -0.061177254 -0.06528979
0000b0 43 a1 cc 3a 23 3e f3 bc 7c 7d 1a bd 74 1c c0 bb
       0.0015612025 -0.029692715 -0.037717327 -0.005862767
0000c0 4d 09 a2 bd ce 32 24 bc 76 9f b4 bd 2f b7 92 bd
       -0.0791193 -0.010021878 -0.08819477 -0.07163846
0000d0 6c ad 92 bd f1 59 93 bd 0f 89 87 bd 46 3b 44 bd
       -0.07161984 -0.07194889 -0.06617939 -0.04790809
0000e0 af 31 21 3b 88 73 13 bd b7 10 82 bd b0 5d a8 bb
       0.0024596264 -0.03599885 -0.06350844 -0.0051381215
0000f0 81 44 15 bd d7 08 3a 3c 12 61 08 bc 14 ee 60 bd
       -0.036442284 0.011354647 -0.008323925 -0.05491455
000100 f4 13 b0 bc 4c 5d 13 bd 5f 72 5b bd a0 7a 30 bd
       -0.02149389 -0.035977647 -0.05357587 -0.043085694
000110 46 73 97 bd b8 b8 cf bd 50 b8 58 bd 48 ac 18 bd
       -0.073950335 -0.10142654 -0.05291015 -0.037273675
000120 ff 76 a9 bd 71 5d 51 bd 0e 38 a1 bd 65 48 1a bd
       -0.0827465 -0.051114503 -0.0787202 -0.037666697
000130 5e e3 f3 bd 11 64 82 bc 92 76 02 bc 5c 0d 11 bd
       -0.11908601 -0.015916856 -0.00796284 -0.03541313
000140 35 58 2d bd fe cb 69 bd 37 98 a8 bd 21 75 02 bd
       -0.04232045 -0.057079308 -0.08232158 -0.031849984
000150 a4 5a 20 bd 6c 0d c9 bd 2f 42 43 bc ab 69 40 3b
       -0.03914894 -0.09817013 -0.011917635 0.0029359858
000160 94 7f 50 bd 2c 50 46 3d 48 2e 80 3c 56 df 27 bd
       -0.050902918 0.0484163 0.015647069 -0.040984474
000170 21 65 18 ba e6 59 a2 bb e7 7f d4 bc 0f e9 c6 bd
       -0.0005813409 -0.0049545644 -0.025939895 -0.09712421
000180 5c 3d 74 3b c8 97 3c bd b7 54 b9 bd 82 30 1d 3d
       0.0037268018 -0.046043187 -0.09049361 0.03837634
000190 ac 81 ac 3c 77 fd 76 3d d5 0a 8d bb f4 54 8b bb
       0.021057926 0.060300317 -0.00430427 -0.0042520706
0001a0 74 55 d3 3b 7b ec bc 3c 39 fc 62 ba e4 d3 94 bc
       0.006449396 0.023061981 -0.00086588 -0.018167444
0001b0 72 42 81 3d c1 55 28 bd b0 33 86 bc e7 2e ce 3b
       0.063115016 -0.041097406 -0.016382068 0.0062922123
0001c0 2b 01 79 bd d1 a7 f5 bc 41 0f 0c bd 3e 88 a8 3d
       -0.06079213 -0.029987248 -0.034194235 0.08229111
0001d0 4d b6 65 3c ec 10 49 bc 8a d9 54 3d c5 2a 7d bc
       0.014020515 -0.012272101 0.051965274 -0.015452092
0001e0 26 48 06 bd 4f 16 5f bd ec 24 e6 3d 6d 33 91 3c
       -0.03278365 -0.054464635 0.11237511 0.017724717
0001f0 a7 2b f3 3d df dc 87 3c 31 5a 12 3d ca 60 af bc
       0.118735604 0.016584812 0.035730544 -0.021408457
000200 9d 04 b8 ba b8 37 93 bd 34 e4 7b 3d 8e c3 8f 3b
       -0.0014039461 -0.07188362 0.06149693 0.0043873256
000210 71 d3 c8 bc e8 19 03 3b 02 25 8b 3b 69 8a 83 bd
       -0.024514886 0.0020004455 0.004246355 -0.06422884
000220 65 9e 51 bd 5b 7d 61 bd 00 09 2d 3d 9b 61 52 bd
       -0.051176447 -0.05505119 0.04224491 -0.051362615
000230 42 a0 11 3d 26 32 a3 3d 71 16 ab bc 6e 9e a0 bd
       0.035553224 0.079685494 -0.020884724 -0.07842718
000240 c1 e9 91 3d e1 cb b4 3c bf 16 2e bd 97 51 d4 3c
       0.07124663 0.022069873 -0.04250216 0.025917811
000250 a3 01 74 bc f4 62 00 3d 0b 88 84 bc 4a 96 f1 bc
       -0.014892968 0.03134437 -0.016178152 -0.029490609
000260 03 0c b6 3c ff 31 a7 bd 93 44 5a 3d f6 ac e8 3a
       0.022222525 -0.08163833 0.053288054 0.0017751742
000270 ae ba 74 bc 08 23 45 bb 99 ff 70 bc 58 f5 d5 bb
       -0.014937086 -0.0030080695 -0.014709377 -0.0065294914
000280 13 87 fa 3c 7d 94 0d 3d c8 93 bb 3b 23 dc 9e 3d
       0.030581987 0.034565438 0.005724404 0.077568315
000290 43 e6 ac 3d 3d ac 65 3d c2 50 f8 3c 3b ae 92 3d
       0.084423564 0.056072462 0.030311946 0.07162138
0002a0 35 3d 90 3d 44 b5 b7 bc 21 e4 47 bc a6 a6 07 3d
       0.07042924 -0.022425301 -0.012200386 0.033117913
0002b0 0e 3e 32 b9 20 40 4e 3d 6a 33 ca bd e7 b8 8a bc
       -0.0001699852 0.050354123 -0.09873088 -0.016933871
0002c0 cd bf 69 bd 79 85 7a bc 68 70 de bc 4b c5 74 3d
       -0.05706768 -0.015290611 -0.027153209 0.059758466
0002d0 2b a5 51 bd ef 98 7c bd b7 28 99 bd b9 e7 43 bd
       -0.051182907 -0.061669286 -0.07478469 -0.04782841
0002e0 d8 19 52 bc 95 06 8c bd 06 78 f6 3c da a5 38 3d
       -0.012823544 -0.06837193 0.030086529 0.045080043
0002f0 e3 e4 4c 3b 42 c8 93 3d ae 30 72 3d 6a 1e ea ba
       0.0031264357 0.072159305 0.059128456 -0.0017861847
000300 ba 1e 5f bc 1b 52 be 3b 25 f2 8a bc fa 85 eb 3c
       -0.013618166 0.0058081276 -0.016961167 0.028750408
000310 0d ca 76 bd 74 84 d3 bc bb 08 55 3d 66 d7 5d 3d
       -0.060251284 -0.025819995 0.05201028 0.054160498
000320 69 39 a3 3d 28 e4 29 3c 08 f9 1a 3c 96 26 2b 3d
       0.079699345 0.010369338 0.009458788 0.041784845
000330 40 78 59 bd 47 95 af bb 85 3f a0 bc 71 20 d0 bb
       -0.053093195 -0.0053583714 -0.019561538 -0.0063515236
000340 47 33 5b bb 0c d7 81 bd fa b9 fb 3c ab a1 a7 3c
       -0.0033447312 -0.06339845 0.030728329 0.020462831
000350 d8 72 eb 3c cb 95 52 3c 49 f0 91 3c 36 08 18 bd
       0.028741285 0.012853096 0.017814772 -0.037117206
000360 e9 16 44 3c 70 67 bd bc 18 f0 04 bc 08 21 19 bd
       0.011968353 -0.023120612 -0.008113883 -0.037385017
000370 5b 68 9e 3d e7 f7 4d bd bc 17 85 3c 5e 22 45 bb
       0.07734748 -0.050285246 0.016246669 -0.00300803
000380 6e 0f 94 3b eb 19 e0 ba 54 ab 04 3d 30 3c b8 3c
       0.004518441 -0.0017097568 0.032389954 0.022489637
000390 b4 70 8c bd 51 bc 4d bd 5c 6a c4 3b d9 61 a1 3c
       -0.06857434 -0.05022842 0.0059941243 0.019699978
0003a0 a6 1f 54 ba 08 cb 84 bc b7 56 3d 3d d3 2a 19 bd
       -0.0008091874 -0.016210094 0.046225276 -0.037394356
0003b0 27 c1 9f ba 10 11 d8 bc f0 a5 65 bd d3 02 9c bd
       -0.0012188301 -0.026375324 -0.056066453 -0.07617726
0003c0 e5 b8 bd bc bd 82 83 bc 45 f3 1c bd d6 5b 0c 3a
       -0.023159454 -0.016053552 -0.038317937 0.0005354261
0003d0 ec c8 04 bc b5 02 36 3d 36 dc 6d 3d d0 27 0a bd
       -0.008104544 0.044436175 0.058071338 -0.033729374
0003e0 8a 52 0f 3d 5f 56 fa 3b b9 c8 6c bd be 82 81 bc
       0.034990825 0.007639691 -0.05780861 -0.015809413
0003f0 e1 9e 59 3c 30 d3 13 3b 54 8d 43 3b be 11 cf 3c
       0.013282509 0.0022556297 0.0029838877 0.025277015

ntm.controller.lstm.weight_ih_l1 f4 [400, 100]
000000 f0 9f 8d be b4 2e 52 3e 06 c6 5a be ff 98 57 be
       -0.27661085 0.20525628 -0.21364602 -0.21054457
000010 e7 37 3f 3d 71 c1 ee 3d 3b 7f 0f bd e6 9f 89 be
       0.046684172 0.1165799 -0.035033446 -0.26879805
000020 11 db 68 bc ab 89 88 be c0 81 6d 3e 53 cc 96 3e
       -0.014212386 -0.26667532 0.23194027 0.29452762
000030 c0 2d 37 3e d4 98 bf bd ed 18 9b 3c 47 87 25 bd
       0.17888546 -0.093553215 0.018932784 -0.040412214
000040 99 90 3e bd 53 2d b3 bb a9 09 d1 3c b8 e9 6b bd
       -0.046524618 -0.0054680496 0.025517302 -0.05759594
000050 15 30 53 bc 9c ab 31 be 56 ad f6 bd 9d 2f 6c be
       -0.012889882 -0.1735062 -0.1204478 -0.23065038
000060 97 d2 8d bc 0d bb 5d be 49 69 52 be 74 8d f6 bd
       -0.017312331 -0.21653385 -0.20547976 -0.12038699
000070 b7 3c f8 3d 2f c4 bf 3e 66 d8 11 be 47 b6 a2 be
       0.121209554 0.37454364 -0.14242706 -0.31779692
000080 eb 22 b0 3e e9 ba 57 3e 18 f3 27 3e 04 7c ad be
       0.3440164 0.21067394 0.16401327 -0.3388368
000090 f0 3b 12 3d 38 f3 0f be c6 e8 b5 3e 6e 26 d1 3d
       0.035701692 -0.14057624 0.35529155 0.10212408
0000a0 a0 71 5d be bf 22 90 3e 7b 67 a3 be 05 1f 5d be
       -0.21625376 0.2815151 -0.31914887 -0.21593864
0000b0 09 b2 00 be 01 3d 63 be fd c2 a6 3d 76 4f 0b be
       -0.12567915 -0.2219124 0.0814266 -0.1360453
0000c0 11 02 f1 bc e0 ec 16 bc 2d c3 6a 3e 4a 6e ad be
       -0.02941993 -0.009211749 0.22926016 -0.33873206
0000d0 f6 fc 71 3c 56 3f 0f be fa ac 3d be c9 5e b6 3e
       0.014769783 -0.13989004 -0.18523017 0.3561919
0000e0 3f 82 a7 3e c2 50 62 3c 9b f8 99 bd c0 2e 60 bd
       0.32716557 0.0138131995 -0.07518121 -0.054732084
0000f0 db 8b 27 3d bd 4c 57 be bd 26 ed 3d 92 e9 87 be
       0.04090486 -0.21025367 0.11579654 -0.26545388
000100 c8 3f 28 3e f3 79 a2 3d 3c c2 af be fd b3 7f 3e
       0.1643058 0.07933416 -0.34327877 0.24971004
000110 14 d6 05 bd 09 ab 57 3e b1 70 0c 3e c8 31 82 3e
       -0.032674864 0.21061338 0.13714863 0.25428605
000120 6c 53 96 be 0a f3 24 3e 1f dd 5b bc f8 ad b0 bb
       -0.2936052 0.16108337 -0.013419419 -0.0053918324
000130 5a c1 34 3e fd 01 5f 3e 18 2e 81 3e 74 bd 00 3d
       0.17651883 0.21778102 0.2523048 0.031430677
000140 69 20 ae 3e 09 de 94 be fb a1 04 3c 3d 95 31 be
       0.34009102 -0.2907565 0.00809526 -0.17342086
000150 ca 43 5b 3e 7f 29 0c be 8f dd f1 3d eb a5 b8 bd
       0.21412578 -0.13687705 0.11809837 -0.09016021
000160 9c 19 a7 3e 3f c0 62 3e 9d 0b 56 be b3 b4 c8 3e
       0.32636726 0.22143649 -0.20902868 0.39200363
000170 35 78 99 3e 09 43 77 3e f1 55 8e 3e ea 58 b1 bd
       0.29974523 0.24146666 0.27799943 -0.08659537
000180 90 a6 bb 3d a2 eb 78 3e 87 b7 5c 3e 61 a3 8f 3e
       0.09162629 0.24308637 0.21554385 0.28054336
000190 25 8c 96 be a5 ca ac 3e 0c e8 fb bd 00 f8 05 3e
       -0.29403797 0.33748356 -0.12300119 0.13082886
0001a0 51 8f 3e be 1c 0f 0e 3e 9a 9f c6 3e 64 b5 77 be
       -0.18609358 0.13872951 0.3879364 -0.24190289
0001b0 22 cb 8d 3e 70 4e 98 3e 21 06 37 bc 75 33 d8 ba
       0.2769404 0.29747343 -0.011170895 -0.0016494828
0001c0 84 e3 94 3e 16 35 86 bd 99 27 43 3e 14 ad 84 3e
       0.2907983 -0.06553094 0.19058074 0.25913298
0001d0 70 29 be bd 0e e3 a3 3e 2d 01 00 bc c4 8d b1 bc
       -0.09285247 0.32009166 -0.00781278 -0.021674044
0001e0 a4 e6 82 3e e8 5c 53 be b8 54 a9 3e 13 9b 88 be
       0.2556659 -0.2064091 0.33072448 -0.26680812
0001f0 02 d9 0c 3e 0a 0c c2 3d 27 44 82 bd 0e 11 61 3e
       0.13754657 0.094749525 -0.06360655 0.21979162
000200 08 cb 8e be 71 82 6d 3d db ea a8 be ce 49 9a be
       -0.27889276 0.057985727 -0.3299168 -0.30134434
000210 36 5c 91 be df db cd bc 70 98 b0 be c3 1b 46 be
       -0.28390664 -0.025129257 -0.344913 -0.19346528
000220 d5 67 a1 be 47 aa 03 3c ab bc 5a be ff 85 4c 3e
       -0.3152453 0.008036203 -0.21361034 0.1997299
000230 5d e7 08 be af 90 7e 3d 00 7e 6d be 8f 71 7b 3e
       -0.13369508 0.0621497 -0.23192596 0.24555038
000240 b8 74 ae 3b ec ca 31 3e 1d 62 78 be 62 70 4b 3b
       0.0053239726 0.17362565 -0.24256177 0.0031042327
000250 2a 64 ba bd ee 68 15 3e 9b be 3a be 15 f1 ba 3d
       -0.09101136 0.14590809 -0.18236773 0.09128014
000260 a1 97 51 3e 9c f6 8b 3e 99 64 85 be da 0a 0e 3d
       0.20467998 0.27336586 -0.26053312 0.034678318
000270 14 7e 94 3e 28 aa 5d 3e e9 3e 36 be 2f e2 e9 3d
       0.2900244 0.2164694 -0.17797436 0.11420094
000280 cb c3 ca bd 83 58 00 3d 58 21 4a be 03 ca fa 3d
       -0.09900626 0.03133441 -0.19739282 0.12245562
000290 fc c0 2c be 59 74 9a be 3e 62 b3 be 3a 57 09 3e
       -0.16870493 -0.3016689 -0.3503589 0.1341218
0002a0 17 95 65 be 02 ca 35 3e 87 10 95 bd c6 1c 5f 3e
       -0.22420155 0.17752841 -0.07278543 0.2178832
0002b0 64 4a 6c 3d 28 ed 96 be e4 fd c1 be fb 1b ae 3e
       0.057688132 -0.2947781 -0.37889016 0.34005722
0002c0 9a 88 84 3e 84 5c 90 be 4e e6 7f be da 12 53 3e
       0.2588547 -0.28195584 -0.24990198 0.2061266
0002d0 36 e3 15 be 69 76 93 3c 04 a5 a3 3e 53 e6 50 bd
       -0.14637455 0.018000798 0.31961834 -0.051000904
0002e0 0a f9 c5 3c 96 be 9f 3e 1e 8c 78 be 70 6d 26 3c
       0.024166603 0.31200093 -0.242722 0.010157928
0002f0 4d 85 94 be 49 c3 a7 be 8f 14 8b bc 8b 51 45 be
       -0.2900795 -0.32766178 -0.016977577 -0.19269387
000300 0d d8 0d 3d 7e 46 88 3e b6 7d 23 bc 62 a3 57 be
       0.03462987 0.2661628 -0.009978702 -0.2105842
000310 8a c5 1b be 28 d9 cb be 43 e1 9a bc 28 4d ca 3c
       -0.15212074 -0.39814115 -0.018906241 0.024694994
000320 db 05 62 be 94 54 6f be a4 b2 b0 3b 1f a8 07 3d
       -0.22072546 -0.23372108 0.0053923894 0.033119317
000330 5b e2 d4 be a7 ad 95 3e 44 d7 12 be 83 86 2c bd
       -0.41578946 0.2923405 -0.1433993 -0.042120468
000340 60 52 19 be c1 6b 4b 3e c4 e7 7c be 2b c7 7f 3e
       -0.1497283 0.19865324 -0.24697787 0.2497832
000350 6e 48 28 3e 95 0a eb 3c 00 e0 c1 be 9c b3 6f be
       0.1643388 0.02869157 -0.3786621 -0.2340836
000360 38 3f bb 3e 61 6b e0 3c 81 cb 7b 3e c9 ce ce be
       0.3657167 0.027394952 0.2458935 -0.4039214
000370 ce d1 83 3d b5 d8 7d bd 08 81 17 3e dc e5 bd 3d
       0.064365014 -0.061974246 0.14795315 0.09272358
000380 81 a1 1d 3e af 39 81 3e 48 86 a5 be 0e 7f 83 3e
       0.1539364 0.25239322 -0.3232901 0.25682873
000390 db bd 02 3d 69 ea b6 3c dc 6f 9a be 96 08 8f be
       0.03191934 0.022328572 -0.30163467 -0.27936238
0003a0 48 d9 a7 bd 20 3c c9 3e d5 c3 2c be 10 47 79 3e
       -0.0819574 0.39303684 -0.16871579 0.24343514
0003b0 c5 67 61 3d 36 2d 38 be 77 f3 bd 3e f7 1e 27 3e
       0.055030603 -0.17985997 0.3709981 0.16320406
0003c0 95 79 a4 be bb f7 87 be 94 2e 73 3e 01 78 89 be
       -0.3212401 -0.2655619 0.23748237 -0.26849368
0003d0 d7 c6 67 be 43 9c 05 bb 08 a9 81 be f8 8b b5 3e
       -0.22634445 -0.0020387329 -0.25324273 0.3545835
0003e0 ed 9c 2a 3e d1 5a 79 3e b3 cc a9 be 38 69 46 3e
       0.16661425 0.2435105 -0.33163986 0.19376075
0003f0 1a fa 7b be 53 de cb bd 32 fc 87 bc 0f 73 d1 be
       -0.24607125 -0.09954514 -0.016599748 -0.40908095
