results/priority-sort/priority-sort-task-10-batch-20000.model (torch_old, 859287 bytes, 49 tensors)

ntm.read0_bias f4 [1, 20]
00000000: d0ac 633c a705 3e3a b2b0 ffba db2e 603c
00000010: 3e18 de3a 58c9 413c d1cc 84bb 0508 95bb
00000020: 6540 f13b 7cc1 c13b ac38 7dbc 99df 6c3c
00000030: 46c6 cabb 55ca d63c bb9f 11bb 3872 d2bb
00000040: 2c13 ffbb d4ca 0d3c c2a8 8e3c 8d78 9a3b
0.013896182 0.0007248767 -0.0019507615 0.013683046 0.0016944481 0.011827789 -0.0040527363 -0.004548075
0.0073624128 0.0059129577 -0.015455406 0.014457607 -0.006188187 0.026219526 -0.002222045 -0.0064223073
-0.007784268 0.008654315 0.017414454 0.004714078

ntm.read1_bias f4 [1, 20]
00000000: c79c ddbb 6d29 9639 8147 b13b 4bd3 85bb
00000010: ab9b ba3b 74cb 42bb 97fe 3c3b 8b16 83bc
00000020: e6b9 96bc 02bc 1c3c 19aa 0a3c 646f 2cbc
00000030: 84ed 8939 30ea 723c 0bee 5c3b 8bb9 ee3b
00000040: 660a 003c dbbc e63b 7d4b eabb c578 39bc
-0.006763074 0.00028641094 0.0054101353 -0.004084026 0.0056948266 -0.0029723318 0.002883827 -0.01600196
-0.01839919 0.009566309 0.008463406 -0.0105246045 0.0002630764 0.014826342 0.003371122 0.007285302
0.007814979 0.0070415563 -0.007150112 -0.011320298

ntm.read2_bias f4 [1, 20]
00000000: 807e 4fbc e55a 843a a745 8a3b b42f 32bc
00000010: cdf9 98bb 5445 44bc 6604 fc3b f91d 09b8
00000020: bbd4 663b e9cb 523c 83cb ed3b 2a42 d0bb
00000030: d6ca 9c3b 861f 323c 3711 4abc 617d 1c3c
00000040: 756c d6bb 1a47 813b 8661 2dbb e251 95bb
-0.012664437 0.001009789 0.004219729 -0.010875631 -0.0046684504 -0.01197942 0.007690954 -3.269126e-05
0.0035222012 0.012865999 0.0072569265 -0.0063555436 0.004784922 0.010871774 -0.012333206 0.009551377
-0.006543691 0.0039452435 -0.0026455834 -0.0045568803

ntm.read3_bias f4 [1, 20]
00000000: 836d 6b3c f3a3 38bc 4512 58bc dbe3 8c3a
00000010: f917 3e3c 0419 9bbb c217 fd39 988c e2bb
00000020: 020e d4bb 18aa 0dbc 69be 76ba b684 98bb
00000030: cac5 e7bb 0bc9 aa3b 0104 bfba b196 99ba
00000040: 9405 07bc 668d ffbb 5607 04bc dee3 d4bb
0.014369371 -0.011269557 -0.01318795 0.0010749059 0.011602395 -0.0047332067 0.0004827362 -0.0069137327
-0.0064713964 -0.008646511 -0.00094125286 -0.0046544923 -0.007073139 0.0052119545 -0.0014573337 -0.0011717883
-0.008241076 -0.0077988384 -0.00805839 -0.0064968904

ntm.read4_bias f4 [1, 20]
00000000: 2eb2 d0bb b338 583a d41f 843a 39cb 02bb
00000010: 276b 2c3c 403b 33bc aae8 95bc a6b4 983a
00000020: bed7 fb3b ac75 953c c555 ee3a 573a a63a
00000030: c4d4 2a3c 702e 113b 993e 80bc 9929 ae3a
00000040: 168f 8cbb b047 2b3c 4cb9 023c cd50 823a
-0.006368897 0.0008248195 0.0010080286 -0.0019957556 0.010523594 -0.010939419 -0.01829942 0.0011650517
0.0076856306 0.018244587 0.001818352 0.0012682182 0.010426704 0.0022152923 -0.015654849 0.0013287544
-0.004289518 0.010454103 0.0079787485 0.0009942293

ntm.controller.lstm_h_bias f4 [2, 1, 100]
00000000: e55c 6fbd 1b04 b3bd 8d38 6b3d 546d 723d
00000010: 1d09 e9bc f63d 283d c041 bbbd 04bf 65bd
00000020: 520f 783c 1e16 66bd 3ea3 113d a300 d23c
00000030: b55c 773c 1d10 eabd c9fa 2abd 661e 0dbd
00000040: 6ae6 02bd caa4 0c3c 09ed 5a3c 64df 03bd
00000050: 198b 04bd 7063 d5bc bdee 1cbd 4b5a adbc
00000060: 4dcb d03c d833 00bd 4c63 9fbd ca25 253d
00000070: 220c 7a3d 3a71 cebc ba80 653c e41d 933d
00000080: 6443 84bd 0bf7 1abd 6c05 0c3c 8de4 653d
00000090: 6d34 bf3d 5d29 04bc 18b3 313c 8c6e afbc
000000a0: 5eee 783c d8f3 043d 902b e03c 5d9b 39bc
000000b0: 4703 c13b f48e 43bd 0a76 cfbd 5055 4fbd
000000c0: 6649 0a3e 3951 60bd 2ff2 e5bd e253 21bd
000000d0: d525 b7bc 436c d63b 3612 6f3d 11a3 aabd
000000e0: d1cb 043e 2f3c 693d 1d6e 3abd 612f a13c
000000f0: 19f7 d33c 6280 123d d2c6 053b 6f42 aa3c
00000100: 787c d83d f2b0 c93d 1a81 583d 1c81 933d
00000110: 5cdf cc3c b5aa 653d 799c 82bd 8a0b 943c
00000120: 64a9 dfbc 009f 163d bdea 23bd cadc 6ebd
00000130: 28f6 0f3d cac0 80bd 736c 6b3c 6aff d03c
00000140: 6fc8 133c 3b08 b63a a3ac 39bc 8aa0 973d
00000150: 494b 8fbd 1041 093e aa09 353e 7f81 a13c
00000160: 1b75 1cbe 9373 10bc 7708 14bd 9a88 61ba
00000170: c251 1ebd 42df c7bc b85c d5bd 1bc0 a3bd
00000180: 8a56 8bbc b88f 40be 8952 c3bd e5b9 9dbd
00000190: acb6 50bd 3d7a 8bbd 43a4 e43c 85db fbbb
000001a0: 509c dcbc 9f44 cc3c 4a76 ac3d f0b2 adbd
000001b0: 9d61 9e3c cca4 6ebd 337f 303d 6f5f 68bd
000001c0: c5bd 973d 413a 33bd 17c0 5abd 1a2b 8cbc
000001d0: e195 c0bd ed83 313c 3821 a93c a9e1 10bd
000001e0: 6edc 2a3d d83f 48bd 5c40 c93d c999 c6bd
000001f0: 0a7e 0e3b 01e0 083d 1d60 743d c0cd 0ebd
00000200: 0185 8bbc 1389 cc3c cda7 94bd 7c96 8fbd
00000210: 50da 9ebd 0953 b63c 9318 6e3d 76ad 39bd
00000220: 9851 ed3c f646 5ebc a5fc 213d 3073 11ba
00000230: 1c33 debc 5c50 ddbc 6894 cd3d 7d33 aabd
00000240: 5603 a8bd 8192 0c3d c313 97bb af64 7abc
00000250: 2e53 313d 5495 383c 1d79 893d 8d16 ef3c
00000260: c7e5 5e3d 5ba3 ad3d 382a bf3c d93b cb3d
00000270: eb31 4cbd 99c3 88bd cad0 b03c ad96 84bd
00000280: ba98 91bc 64f6 5dbd 8dc9 0d3e e29d ccbc
00000290: 2713 e53d 13c3 90bd 50a6 193d 1ae1 8a3d
000002a0: e564 d03c 3621 9d3c ebf3 febc 75c3 5e3d
000002b0: 52f2 8e3c a493 083c e1cf 28bd 9105 0cbd
000002c0: 0f31 e7bc 6f4a fd3d 8310 313d 6b87 063c
000002d0: 746f 5a3c 17d0 823d 58f7 1b3d 8a87 80bd
000002e0: c344 313d 6521 8dbd fc3b e6bc 5518 57ba
000002f0: 4a74 273d 7dfb a33c ef86 b8bc a717 ce3c
00000300: 4b87 74bc 2141 053e a38d 413c 4ad1 e9bb
00000310: 9686 25bd fc1e 773d 82c2 573b da97 a7bd
-0.0584382 -0.087410174 0.057426978 0.059186295 -0.028446728 0.041074716 -0.091434 -0.05609037
0.015140371 -0.056173436 0.03555607 0.02563507 0.015097787 -0.114288546 -0.041743074 -0.03445282
-0.03195802 0.008584211 0.013362178 -0.032195464 -0.032359216 -0.026048392 -0.038313616 -0.02116122
0.025487566 -0.031299442 -0.07782611 0.04031924 0.061046727 -0.025200475 0.014007742 0.071834356
-0.06458166 -0.037833255 0.008546215 0.056126166 0.09336171 -0.008066502 0.010845922 -0.021415018
0.01519355 0.03245911 0.027364522 -0.011328545 0.0058902833 -0.047743753 -0.10129936 -0.05061847
0.13504562 -0.05476496 -0.112278335 -0.039386638 -0.022356907 0.0065436675 0.058366977 -0.08331884
0.12968375 0.05694216 -0.04551517 0.019675912 0.025874661 0.035766967 0.0020412696 0.020783631
0.105706155 0.09848203 0.052857496 0.0720236 0.02500885 0.056071002 -0.06377501 0.018071909
-0.027302451 0.036772728 -0.040018786 -0.05831603 0.035146862 -0.062867716 0.014369118 0.025512416
0.009019955 0.0013887951 -0.011332664 0.07403667 -0.069967814 0.13403726 0.17679468 0.019715069
-0.15279047 -0.008816618 -0.036140885 -0.0008603424 -0.03865219 -0.02439845 -0.10418075 -0.079956256
-0.017009038 -0.18804824 -0.09537227 -0.07701472 -0.05095546 -0.068104245 0.027910357 -0.007686081
-0.026930004 0.024935065 0.08420999 -0.08481395 0.019333655 -0.05826263 0.043090057 -0.056731638
0.074092425 -0.043756727 -0.053405847 -0.017110396 -0.09403587 0.010834676 0.020645723 -0.035371456
0.041714124 -0.04888901 0.09826729 -0.09697301 0.0021742606 0.03341675 0.059661973 -0.034864187
-0.017031195 0.024967706 -0.07258568 -0.070111245 -0.077564836 0.022256391 0.058128905 -0.04533144
0.028969571 -0.013566723 0.03954758 -0.00055484753 -0.02712398 -0.027015857 0.10038072 -0.08310602
-0.08203761 0.034319405 -0.00461051 -0.015282794 0.043292217 0.011266071 0.06712554 0.029185558
0.05441835 0.08478423 0.023335561 0.099235244 -0.049852293 -0.06677932 0.021583933 -0.064740516
-0.017773021 -0.054190055 0.13846417 -0.024977628 0.11185294 -0.070684575 0.037512124 0.06781216
0.025438735 0.019180875 -0.031122169 0.05438562 0.017449532 0.0083359815 -0.041213874 -0.034184996
-0.028221635 0.12367713 0.043228637 0.008210997 0.013332237 0.06387346 0.038077682 -0.06275852
0.043278467 -0.06891135 -0.028104775 -0.0008205225 0.040882386 0.02001738 -0.022525279 0.025157763
-0.0149248345 0.13013126 0.011813554 -0.007135545 -0.040411554 0.060332283 0.0032922332 -0.0818326

ntm.controller.lstm_c_bias f4 [2, 1, 100]
00000000: b6dc d33b f74a edbd 363b 0e3e ab11 08bd
00000010: 18f9 933d 1379 993b 7b8f 92bc b146 a0ba
00000020: 0f2e bdbd 6503 8a3d 1cba 443d f51a 89bd
00000030: 980d e53b acd8 4cbc 7236 d43c bc13 fd3c
00000040: 1293 25bd 3437 473d df56 40bd 2459 1cbd
00000050: c629 2fbd 4f17 afbd 2a43 2f3e 1506 c4bd
00000060: 66ea b23c b769 973d 9b33 1d3d e001 963d
00000070: 2144 7d3d ff91 58bd 3217 45bd 715d 30bd
00000080: afc4 d53d 3290 5c3d 2fc1 8f3d e71e ebbc
00000090: 0452 a33d dc85 a33d 6d45 983d e532 44bc
000000a0: 62c0 343c 4d0e 18bc 0ed9 723d 90a5 09bd
000000b0: 072b b23c 55c5 85bd a8f6 0f3d 522f 6cbd
000000c0: b304 c83c e551 43bd cb66 0b3d 2f5b dfbb
000000d0: c80a c7bd 8a01 a6bc bfa3 a4bc c273 a3bb
000000e0: dc75 a1bd 69a5 5cbd 77b7 873c 8db0 e1bc
000000f0: 0b7b 1cbe 3478 863d 7d66 46bb ca29 573b
00000100: 7f46 6c3b c61c 873d 23a3 113d 22fa 2bbc
00000110: 5520 be3c 2f56 8cbd c9ee ca3c bc2a f5bd
00000120: f18e 343d db75 2bbd 90fa 8a3d 8a0c aebc
00000130: 5a1a d63c 2073 98bd 46c2 cebd ed36 e2bc
00000140: 35f6 3e3d 5ebb 323d b213 e13d 15b7 0cbe
00000150: 14c2 ca3c c5da d43d 9223 f9bd dfbf 27bd
00000160: 6039 6cbd 049c a9bd e486 88bb c8b5 6ebc
00000170: 61a0 adbd 8500 2d39 a435 b83d 4335 9e3d
00000180: ae45 533d 6534 e43b 4a4c e83a 4302 b4bc
00000190: 0d46 e7bd 3570 d9bb 0557 f03b bad8 663c
000001a0: ee98 80bc 160e 913d 74a3 893d 8b8d a1ba
000001b0: ee5f 843c 66f1 ccbd 7e23 8d3b 9399 f83b
000001c0: c4d0 b63c 57c8 3d3d d0ec 9e3c 89e1 5fbc
000001d0: 50dd 44bc 2799 0b3d afb1 d4bd c335 a1bd
000001e0: b42e 30bd 819b 9fbb 8b2f 63bc 8a4f 29bb
000001f0: 0fc2 72bc 8415 9bbc af82 1cbe 67d5 573d
00000200: 6125 56bd 8046 ab3c 156a db38 08e2 b13d
00000210: 193a 43bd f599 26bc ebd1 6fbd c88a 343d
00000220: 02c6 f03d 1c40 0f3d 0732 57be 2409 fa3c
00000230: a05b 1b3e bb53 02bd 9bf8 073d 28f2 d3bc
00000240: 8608 d0bd a782 0abe e5d4 23be 21ea 56bd
00000250: abf9 c53c da97 ddbd 831e 053d 7fa4 75bd
00000260: fc23 383b f669 923d e41e bc3b db75 773b
00000270: bd80 a2bd 799f 9f3d a236 dcbb 5aa7 5dbd
00000280: 7d5d b9bc 7888 f83d 0897 733c 560a 823c
00000290: 37b6 943d 6b04 79bd f979 f03b a539 703c
000002a0: 2c00 b93d 27f3 adbd 5b68 23bd d9d3 183c
000002b0: 9fc8 463d 3bca 783b 113f cbbd 64d1 b0bd
000002c0: 507e 06be 629c 063d 46ee 1fbd 71c0 c63d
000002d0: 9ef9 44bd c5a7 33bd 5efb 95bc 51ab b9bc
000002e0: 8bd7 dbbd 5db6 8ebd 139c eebd adfc 30bd
000002f0: 8fbd e2bb 6b20 d6bb da74 91bd 2c0f febc
00000300: cff0 4dbd b41f ee3b 5c35 9abc 91cf f53c
00000310: 98df 88bd e9fb f0bb a59e 8b3c 4b67 ba3d
0.00646552 -0.11586564 0.13889775 -0.033219974 0.07225245 0.0046836226 -0.017890682 -0.0012228099
-0.092373006 0.06738929 0.04802905 -0.06694595 0.006990146 -0.0125028305 0.025904868 0.0308932
-0.04042346 0.04863663 -0.046957847 -0.03817095 -0.042764448 -0.08549368 0.17115465 -0.095714726
0.021840286 0.073932104 0.038379293 0.073245764 0.06183255 -0.052873608 -0.048117824 -0.043057863
0.10437905 0.053848453 0.07019269 -0.028701259 0.079746276 0.07984516 0.07435117 -0.011975025
0.011032196 -0.009280753 0.05928903 -0.03360516 0.021749033 -0.06531779 0.03514734 -0.057662316
0.024416303 -0.047685523 0.034033578 -0.00681629 -0.09718853 -0.020264406 -0.020097611 -0.0049881646
-0.07883808 -0.053868685 0.016566975 -0.027550006 -0.15281312 0.06565896 -0.003027349 0.0032831305
0.003605276 0.06597285 0.03555597 -0.010496648 0.023208776 -0.06852376 0.024772065 -0.119710416
0.044081632 -0.041860443 0.06786072 -0.021246213 0.026135612 -0.07443833 -0.100956485 -0.027614081
0.04662152 0.04363572 0.10990085 -0.13741715 0.024750747 0.103932895 -0.121649876 -0.040954467
-0.057671905 -0.08281711 -0.004166471 -0.014569707 -0.084778555 0.00016498759 0.08994606 0.077250026
0.051580124 0.0069642537 0.0017722931 -0.021973735 -0.11292658 -0.0066356906 0.0073345923 0.014089758
-0.015697923 0.07082765 0.06720629 -0.0012325508 0.016159024 -0.100069806 0.0043072095 0.007586667
0.022316344 0.046333637 0.01940003 -0.013664612 -0.012015656 0.034081604 -0.10385453 -0.07871582
-0.04301329 -0.0048708324 -0.013866316 -0.0025834762 -0.014816775 -0.018931158 -0.15284227 0.05269375
-0.05228174 0.02090764 0.00010462493 0.0868569 -0.047662828 -0.010168542 -0.058549803 0.044077665
0.11756517 0.03497325 -0.21015178 0.030521937 0.15171671 -0.031818133 0.033196073 -0.025872305
-0.10157876 -0.13526402 -0.15999182 -0.052469376 0.024166903 -0.10819979 0.0324998 -0.05997133
0.002809762 0.07149117 0.005740987 0.0037759456 -0.07934711 0.07794089 -0.00672038 -0.054114677
-0.022627586 0.12135404 0.014867552 0.01587407 0.07261317 -0.06079523 0.007338759 0.014662181
0.09033236 -0.08493643 -0.039894443 0.009327852 0.04853117 0.0037962336 -0.09924138 -0.08633688
-0.13134122 0.032863982 -0.039045595 0.09704674 -0.048089616 -0.04386117 -0.018308338 -0.022664698
-0.10734471 -0.06968377 -0.116508625 -0.04320972 -0.00691957 -0.0065346262 -0.07102366 -0.031013094
-0.05027848 0.007266963 -0.018824272 0.030006202 -0.06683272 -0.007354249 0.017043421 0.09101733

ntm.controller.lstm.weight_ih_l0 f4 [400, 103]
00000000: 3ae1 44bd a659 8cbe d08a b3bd c3ab 933e
00000010: 2f60 a2be d84a 923e efa0 5e3e 66f0 babe
00000020: 3bfc 23be 5e15 4a3c 8ec3 59be b1f2 df3c
00000030: 761c 19be 9e1f 53be 0b61 16be c0bd 86be
00000040: 2b21 793e 05fc 3a3e 7a39 e63d 0594 493e
00000050: feba 97be bff8 a53e 914a bdbe 4af8 833e
00000060: e5e2 a8be 61ab 893d 494f e93c bcad 803e
00000070: 3edc 93be e1bd 6abe aa8d 29be 4f43 7c3d
00000080: 6dcb 84be 98c1 fa3d 4fd0 a13e 1957 f83c
00000090: 022e 323e 98e7 b5be bed1 8f3e 6270 a3be
000000a0: 7b75 893e 6683 be3e 3391 07bd 7f03 d83e
000000b0: 12c9 08bc f14d 083e 102b b83e b1ed 74bc
000000c0: 3f39 d83c c8d1 52bd 868c eabd 9f81 a6be
000000d0: bf85 ac3e 930c 68be e0bb 483e d4a0 4ebe
000000e0: 420c 543e 5ef5 833e 49b9 86be 73b2 0b3a
000000f0: e001 453d 7a63 69bd 8b66 edbd 5c90 90bd
00000100: 7558 813e 6428 983e 178b 863e f27b c6be
00000110: 9d1c 58be b222 bebc 6677 0b3e 9247 83be
00000120: c692 d13e a3bc 623e 68a3 cbbe 8882 bc3e
00000130: cb1a 893e cf8c 9cbe 497c 87be 20e6 e7be
00000140: ef60 74be 70fd c4bd 804e 2c3e aa1d 973e
00000150: 6f47 31be 8d61 5fbe 1221 cb3e 5e66 10be
00000160: 876d ecbd 2f52 59be e134 d9bd 56da ae3d
00000170: 3f3c 643e f3c9 a6be a3e3 2f3d 334a 0d3e
00000180: ad99 bbbd fa08 973c 0b1f 31be 0438 92be
00000190: 53a9 b33d f190 b43e 567f 45be b200 4d3e
000001a0: 828a be3e 0a92 39be 2a72 953e 2fa9 ebbc
000001b0: cd8b 933e 144b c5bc 024b 893d b353 9abd
000001c0: b062 98be 0873 b13e 56de be3e 4277 80bd
000001d0: a73d 94be b900 843e a0fe e0bd c90f 5ebd
000001e0: 77f0 f9bd 7bb9 94be 3266 ad3e e6bb 72be
000001f0: 419b 2f3e dbe2 a03e 04f4 8ebe 96be 583e
00000200: b61a 553e 96ea 2a3d f6c1 413e bf2d b13e
00000210: ad14 8bbe 9f10 503e 7d12 bcbd b8d1 75be
00000220: 9650 1abe 8fbb a23e b924 3cbd f6b9 5abe
00000230: 8910 6a3d e254 9abe 644b 933e cb1f 5f3e
00000240: 09e3 11be 2a0f c23e a436 223c 158a 62bd
00000250: aac7 cbbe f2ce 563e 9775 473c 586c 51bc
00000260: 8156 6e3e 3c5a a73e 0e9f 8a3e 1212 e73c
00000270: 90c9 19be d92d 233d 5130 45be 059e 7dbe
00000280: 6759 693d 597a 883e 9e7d 5e3e d766 30be
00000290: e4ce ca3c e470 56bd a70c babe e730 633e
000002a0: f99e 49be 689e 663d 8d9c d53c 0f87 b33d
000002b0: a54f 8c3e bda0 dc3d 3660 2bbe 12dd ae3d
000002c0: 53c4 95be 592c b23c b024 973e 248e 643d
000002d0: d639 843e 5e68 aa3e 78e0 80be 4b67 2f3e
000002e0: dd73 a7be db0b df3d ada1 3b3e 081c 343e
000002f0: dba9 c9be 08e9 de3d 78a8 893e a70f b93e
00000300: 2d8a 353e 3462 453e 1ac4 c9bd 5740 29be
00000310: de71 4dbe 5a85 6e3e cc79 83be 6d93 8d3e
00000320: eb9e 933e b2ec 39be a3a6 17be f990 ecbd
00000330: 8ade a13e d39e b43e 02d8 aebe a552 403e
00000340: 6503 d03d 6d3b 4b3e 3d61 7ebd 4a6b 4b3e
00000350: 7655 f2bd 6eed 993e 2c75 a7bc 2539 5fbe
00000360: 7475 e9bc ce12 093d 682b 82be 68ac cdbd
00000370: 0a44 9abe ceca 423e f71e 8b3e b752 0b3e
00000380: 06cb 383c 41ee 65be 8cc4 2dbe 3e86 b6bd
00000390: d390 13bd 9861 4a3e d544 9b3e f1b9 84be
000003a0: 4e14 89be c2f2 843e b644 6ebe 2185 aa3e
000003b0: e77c 90be f2f4 f33d 151d b3bd 3119 d6bd
000003c0: f2e6 32be 300a 6dbe 4f13 c2be 13df dd3d
000003d0: e48e b0be 9ba4 183e 3be7 50bd c442 ae3e
000003e0: ed2a c13e b656 f23c a86b bcbe 41b7 d7bd
000003f0: 29aa dd3d 1934 38bd c790 90bc b577 2b3d
-0.048066355 -0.27412146 -0.08766711 0.2884198 -0.31714007 0.28572726 0.21741079 -0.36511534
-0.16014187 0.012334196 -0.21266004 0.027337404 -0.14952263 -0.2061753 -0.14685456 -0.26316643
0.24329059 0.182602 0.112414315 0.19685371 -0.2963485 0.3241634 -0.36970952 0.25775367
-0.32985607 0.06722141 0.028480189 0.2513255 -0.2887897 -0.22923996 -0.16557947 0.061587628
-0.25936452 0.12243956 0.3160424 0.030314969 0.17400363 -0.35528255 0.28089708 -0.3192168
0.26847443 0.37209624 -0.033097457 0.42190167 -0.00834872 0.13310982 0.35970354 -0.014949248
0.026394485 -0.051469594 -0.11452584 -0.32520768 0.3369579 -0.22661047 0.19602919 -0.20178539
0.20707801 0.25773138 -0.26313236 0.000532902 0.04809749 -0.056979634 -0.11591824 -0.07058784
0.252628 0.29718316 0.26277992 -0.38766438 -0.21104665 -0.023209903 0.13619766 -0.2564054
0.40932292 0.22142272 -0.39773107 0.36818337 0.26778254 -0.30576178 -0.2646201 -0.4529276
-0.23865102 -0.09618652 0.1682682 0.2951482 -0.17312406 -0.21814556 0.39673668 -0.1410155
-0.11544328 -0.21222757 -0.10605789 0.08537738 0.22288607 -0.3257595 0.0429417 0.13797836
-0.09160171 0.018436898 -0.17296998 -0.28558362 0.087725304 0.35266832 -0.19286856 0.20019796
0.37215048 -0.18122116 0.29188663 -0.028767196 0.28817597 -0.024083652 0.0670376 -0.075354956
-0.29762793 0.34658074 0.37279004 -0.062727466 -0.28953287 0.257818 -0.10986066 -0.054214273
-0.12204068 -0.2904776 0.3386703 -0.2370449 0.17149068 0.31423077 -0.27920544 0.21166453
0.2081097 0.041727625 0.18921646 0.34605214 -0.27164212 0.2031884 -0.09183214 -0.24005783
-0.15069804 0.3178372 -0.04593346 -0.21360001 0.057144675 -0.30142885 0.28768456 0.21789472
-0.14246763 0.37902194 0.009900723 -0.055307467 -0.3980077 0.20977381 0.012174032 -0.012782179
0.23275186 0.3268603 0.27074474 0.028206859 -0.15018296 0.039838646 -0.19256712 -0.24767311
0.056970026 0.26655844 0.21727607 -0.1722673 0.024756856 -0.052353755 -0.36337778 0.22186624
-0.1968955 0.05630341 0.026075626 0.08765995 0.27404514 0.10772846 -0.1673592 0.085382596
-0.29251346 0.021749662 0.29520178 0.05579962 0.25825375 0.3328275 -0.25171256 0.17129247
-0.32705584 0.10890933 0.18323393 0.17588818 -0.39387402 0.10884291 0.26886344 0.36144754
0.17728491 0.19275743 -0.098518565 -0.1652845 -0.20062968 0.23293057 -0.2567886 0.2765154
0.28832182 -0.18156698 -0.1480966 -0.11551089 0.31615096 0.35277423 -0.34149176 0.18781526
0.101568975 0.19846888 -0.062104452 0.19865146 -0.11832707 0.30063957 -0.020441614 -0.21799143
-0.028498389 0.0334652 -0.2542374 -0.100426495 -0.30130035 0.19022676 0.27172062 0.13605772
0.011278873 -0.22454168 -0.16969508 -0.089123234 -0.036026787 0.19763792 0.30325952 -0.25923112
-0.26773304 0.2596646 -0.23268399 0.33304694 -0.28220293 0.11911954 -0.08745781 -0.10454024
-0.17470911 -0.23148417 -0.37905356 0.10833564 -0.34484017 0.14906542 -0.05100177 0.34035313
0.37728062 0.029582363 -0.36800885 -0.10533 0.10823471 -0.04497156 -0.01764716 0.04186221

ntm.controller.lstm.weight_hh_l0 f4 [400, 100]
00000000: bec2 3b3e af60 283e a63d 8cbe cc2e 9e3c
00000010: fe8b ddbd 7f1a 34be 54a0 0cbe 016c c23e
00000020: 1e57 913e 00a7 51be a4f3 ed3d d708 19be
00000030: 11e9 a13e ae94 21be a434 b2bd d57b 883e
00000040: 0697 433e e9fc cbbd 3ce7 7d3e 31dc 9b3e
00000050: a5ca ae3e 9d10 99be e80b 3d3e 4bac b73e
00000060: 57a4 b73c 31fd 633e 303d 6fbe d0e8 763d
00000070: 5c7c ac3b c6b8 5fbe 2098 b439 82e2 983e
00000080: 8842 ac3d 609a 9c3e 3411 83be e668 a6be
00000090: 9817 76be 9685 a43e 1f1d 243e a6ed 6ebe
000000a0: 6a3a 713e 3e26 433e 31f3 4dbe a89e 803d
000000b0: 755a 85be ca7f e0bd 1e6e 933e 3a6c a6be
000000c0: e2c1 49bd 7d03 53be 4896 9ebe 4b90 85be
000000d0: 963e 803e b336 9e3e d6eb 5e3e 5c86 d8bd
000000e0: 09c3 82be 0224 9f3e 7a0a 75be 28be 8a3e
000000f0: d05b 983d 8e0e 653e 53e2 a0be adaa ef3d
00000100: e3dc 173d b782 a13c 5cc4 74be e01c 263d
00000110: d81c 633e 675a 4dbe 2b9b aabe 6851 81be
00000120: 87f4 3bbe a2d7 a83e cf1b 23be 14c7 333e
00000130: 3832 493e eb03 2abe 6f95 823e b32f 7c3e
00000140: cf15 483d d20a 03be 0ace 0dbe 34a5 50be
00000150: 8982 1d3e a207 303d 096b 1c3e 0656 cf3d
00000160: 22ed b73e 9b31 023e d1e6 843d c463 9a3e
00000170: 1efc 2e3c 1047 853d 5b8d 933e 8302 88be
00000180: 791b 3d3e 437a b33e 5b43 22be 9f77 82bd
00000190: 5de4 98bc ead1 2b3d 197f b23d 850f 00be
000001a0: d071 3bbe 54b9 9d3e 35eb 993e 9207 933e
000001b0: 2f71 f23e 6364 ecbd 1b7d 5abe a012 cb3c
000001c0: 218d 1bbe 02d4 033e 4fb4 5fbe 20d3 a13e
000001d0: cc52 573e 4448 c8be 5248 0abd c2df b53e
000001e0: b6ad d23e 7a20 6e3e 45cb 6bbe 6726 18bd
000001f0: d2d8 053e 978e 58be 1548 78be 80f8 a33b
00000200: 29ab 1abe f89e 2c3e 025e e2bd 8294 6cbe
00000210: 105d 993e 92ae df3d 416c 8c3e 9d2d 1ebe
00000220: 18d4 12bd 6ea0 9f3e ded1 353e d063 a5bd
00000230: a33a d23d c208 9d3e 5d67 853e 6d6d 883e
00000240: 61aa a23e 043e 7c3e 5538 6e3e 6dc3 ae3e
00000250: 7603 2abc 9f5c 193e 94c1 5f3e 0104 2abe
00000260: 5e99 7a3e ece4 b23e 6db3 3d3e 2bfc 243d
00000270: 8ece c6be 2652 883e e02f ac3d 5dd2 a13b
00000280: 8424 87be f992 72bd d115 8d3e 17ac 913e
00000290: 2a10 09bd 743f 06be 6d77 983e e9de a43e
000002a0: 04b2 97be 0b2c 5c3e 05e1 d73d 5a1e e6bd
000002b0: 3d1d 6dbe 8196 b2be 19e5 733d 95db 9d3e
000002c0: 07c0 37be 3197 a9bb 6b44 31be 0072 8e3e
000002d0: ae0d 18be 763e 6f3d 036e 8a3e 8cc9 a33e
000002e0: 3d16 ab3c 2773 66be 5ae6 5bbd 12c2 18be
000002f0: dcf4 c23e f2bc 583e e733 313d 4b1b a73d
00000300: 102c 0b3e b657 8d3e 40eb 163d 275f 4c3e
00000310: cfaf 663e 28f0 a93e be48 8b3e 39af d73c
00000320: 499a 393e 42e3 593e e33b b23d 0e21 c8bd
00000330: 3b83 963e 5f28 243e a1f3 c33d a914 2c3e
00000340: c82e 75be b80e b03e 75bf bcbe 860b 363d
00000350: 1344 aa3e 4a08 e13e 537b d6bb 8c76 47be
00000360: e19c dc3b 3799 8fbe 2132 9d3e 9af4 71be
00000370: d16d 493e c006 8c3e 2822 95be c62b c9bd
00000380: efb0 ac3e 14a7 823e 8ea7 c0bd 041b 9cbd
00000390: 9f87 9bbe a635 61be 7101 a33d faad 133d
000003a0: 7419 85be b5c2 4abe cdd9 803e 4602 a2be
000003b0: c6c0 843d ed8b 92be bdd5 bbbd 885e 023e
000003c0: 225f a63e 47dc 8fbb 76fb 333e 973d 9fbe
000003d0: 3371 b1be 2522 91bd 29de 923e d5f2 66be
000003e0: ee64 ee3d 2fb4 0bbe 5e1f ccbd 95d7 83bd
000003f0: b540 99be 06f0 9dbe 4301 82be e475 95be
0.18336007 0.16443132 -0.27390784 0.019309424 -0.10817717 -0.17588232 -0.13733035 0.37973025
0.28386778 -0.20473862 0.116187364 -0.14944778 0.31623128 -0.15779373 -0.08701447 0.26656976
0.1910058 -0.09960348 0.2479524 0.3044143 0.3413898 -0.29895487 0.18461573 0.35873637
0.02241723 0.22264554 -0.23363185 0.06028062 0.005263848 -0.21847829 0.00034445617 0.29860312
0.08411127 0.3058653 -0.25599062 -0.32501906 -0.24032438 0.32133168 0.16026734 -0.23332843
0.2355744 0.19057557 -0.20112301 0.06280261 -0.26045576 -0.10961874 0.2879495 -0.32504445
-0.049257167 -0.206068 -0.3097403 -0.2608665 0.2504775 0.30901107 0.21769652 -0.10572502
-0.25539425 0.3108216 -0.23929778 0.27098203 0.07439387 0.22368833 -0.31422672 0.11702476
0.03707589 0.01971565 -0.2390303 0.04055488 0.22178972 -0.20054017 -0.3332151 -0.2525742
-0.18354999 0.32977015 -0.15928577 0.17556411 0.19648063 -0.16603057 0.25504634 0.24627571
0.048848923 -0.12797096 -0.13848129 -0.2037552 0.15381826 0.04297603 0.15275206 0.101238295
0.35923105 0.12714235 0.06489337 0.3015424 0.010680227 0.06507695 0.28818783 -0.26564416
0.18467511 0.35054216 -0.15846007 -0.06370472 -0.01866358 0.041948237 0.08715648 -0.1250592
-0.18305135 0.30805457 0.3006226 0.28716713 0.47351977 -0.11542585 -0.21336786 0.024789155
-0.15190555 0.12873843 -0.21846126 0.31606388 0.21027678 -0.39117634 -0.033760376 0.35522276
0.41148156 0.23254576 -0.2302676 -0.037146 0.13070992 -0.21148144 -0.24246247 0.0050039887
-0.15104355 0.16857517 -0.11053087 -0.23103526 0.29953814 0.109219685 0.2742634 -0.15447088
-0.0358468 0.31177086 0.17755839 -0.08075678 0.1026509 0.30670744 0.26055422 0.26645985
0.31770614 0.24633032 0.23263676 0.34133473 -0.010376802 0.14976738 0.21851188 -0.1660309
0.24472567 0.3494028 0.18525477 0.04027955 -0.38829464 0.26625174 0.08407569 0.0049384073
-0.26395047 -0.059222195 0.27555707 0.28451607 -0.03346268 -0.13110143 0.29778615 0.32201317
-0.29628003 0.21501176 0.10540966 -0.11236258 -0.23155685 -0.3488045 0.059544656 0.3083159
-0.17944346 -0.005175494 -0.17311256 0.2782135 -0.14848968 0.058409177 0.27037057 0.31989706
0.020884627 -0.22504865 -0.053686477 -0.14917782 0.38077438 0.21165827 0.04326239 0.081595026
0.13591027 0.2760598 0.036845446 0.19958173 0.22528003 0.33191037 0.27203935 0.02632867
0.18125261 0.21278098 0.08702829 -0.0977193 0.29396996 0.16031025 0.09567953 0.16804756
-0.23943627 0.3438623 -0.3686482 0.044444583 0.33255062 0.43951637 -0.006545463 -0.19478816
0.0067325686 -0.2804658 0.30702308 -0.23628464 0.19670798 0.273489 -0.29127622 -0.09822802
0.3372874 0.25518095 -0.094069585 -0.0762234 -0.30376908 -0.21993122 0.07959259 0.03605459
-0.25995982 -0.19800837 0.2516617 -0.3164236 0.06482081 -0.2862238 -0.09171627 0.12731373
0.32494456 -0.004390273 0.17576393 -0.31101677 -0.34656677 -0.07086591 0.2868512 -0.2255357
0.116403446 -0.13642953 -0.0996692 -0.064376034 -0.2993218 -0.30847186 -0.25391588 -0.29191506

ntm.controller.lstm.bias_ih_l0 f4 [400]
00000000: 41f4 d7bc 4002 85bd eb11 32bd bfba 1ebd
00000010: 00c4 babb b580 863c 1457 62ba b1dd 8d3c
00000020: fc2e 763c 0132 783c ea30 873d 52a6 c13d
00000030: 4a7c 6c3d 1452 6a3d 452c 083d af71 cd3d
00000040: 37b5 eb3c 5833 093d d1e1 9a3d cf41 943d
00000050: 67d6 c23c 6377 233b 0007 503d 3138 8dbc
00000060: 22b2 dabb 4378 e83b 1a26 9dbc be3c 533b
00000070: 5d03 a033 7077 6c3d 28f8 3f3d 69ee 893d
00000080: 3f93 483c ecb5 bc3c 68a8 b4bc 3927 43bb
00000090: 4df1 513d 097e 9b3d 9448 fcbb 6600 e03c
000000a0: 004c 313d a785 d0bc c317 a9bb fe7c 85bd
000000b0: de42 f83c fc8d 3abc babf 1c3d 4883 e7bc
000000c0: d84f dc3b 1dff d83d b75b 8b3d 3f18 4c3d
000000d0: 3c9d 953d 4060 503d 909b 9fbc 7b07 ea3c
000000e0: bb85 21bc 2ccb a23b b381 903c a11d fabc
000000f0: 531b 78bc d8f7 9a3c b187 80bc da38 7a3d
00000100: 7141 24bd 61db 1fbd 8048 d5bc 827c 923d
00000110: 077c 7f3c c30b 453d be23 513d 5995 563d
00000120: c65b c53c 92b1 913d b2e1 cbbc a675 b3bb
00000130: 672f 81bc 2134 84bd b039 a93c e018 cbbb
00000140: e47d 1d3d 2057 133d dfeb d43c 494b f0b9
00000150: 4896 babc 459f 153c 1412 6bbc 5e07 2fbc
00000160: 92c4 c83a f249 2a3d f06e 823b 0c37 863d
00000170: 740e 713d 389f fa3c f784 693c 7c63 453d
00000180: 926a 2c3d 5c9e 78bb 89de 823d 17a1 1b3b
00000190: f23d cebc a784 5abc dc17 f93a 1f60 28bd
000001a0: c1fc 9fbc 103a 11bd 3fe8 10bc 186f 47b6
000001b0: 6e58 f43c d023 ce3c 7cfc 253c 61ac b1b9
000001c0: d55f bf3c e3ed eb3c 4aa7 5f3c 437f 423c
000001d0: 014a d23b 2f71 323d 4a80 523c 312d fa3c
000001e0: 6147 fabb 341f a73b 7402 463d f905 a53b
000001f0: 5982 f4bc 9d6e 723c db33 9b3b 1196 2abc
00000200: 29e1 713c 1038 2ebd d639 3cb9 f949 3a3c
00000210: 6f15 0e3d e246 8fbc 922d 81bc f55b 343c
00000220: ef0e 28bc de27 f33d d48e 1abb d2dc 913c
00000230: 7863 4b3d 9d2c 59bd a882 2b3c f7d8 74bd
00000240: b0d9 ddbc f4f6 563b b529 373c c822 943d
00000250: f16d 093d 0c4d 90ba 22cc 863c 1089 f7bc
00000260: a5cd 2f3b a7f8 ab3c 88e7 cfbb 31f6 c33a
00000270: b72c 853d e539 983c 9432 9cbc fbc2 1dbc
00000280: f723 133d df81 a8bc db24 ddba 11c7 a839
00000290: a02b cebd a4c8 1cbd b473 48bc 63d0 abbc
000002a0: a75c e33c 79fb 11bc 2dce afbc 4ae9 c0bc
000002b0: c337 43bc b4de cdbc cd7c 2ebd 05b5 a2bc
000002c0: 370d 323c ae36 7ebd 30b0 f7b9 6904 223d
000002d0: fc68 f03c 1382 27bc 4df2 7d3d 49a2 78bc
000002e0: 8a17 1a3c 52f8 b13c 010e 013d 525c 96bc
000002f0: 4475 7f3d bec0 3abc f5d4 36bd 2917 75bc
00000300: 2f28 fd3a f1fa bbbc 1edf 003d cd4c d9bb
00000310: ffd7 abbc 9452 093d 904d c63c b728 1bbd
00000320: 98c7 31bc 45d6 3a3b 68af 213b 3d1d f03a
00000330: 4bc1 3dbc 60ae 42bd 0346 37bc de2c 1c3d
00000340: dffc 09bc 3fd7 98bc 2cb0 e5bc fa46 643c
00000350: 12fa b7bc 76f9 a5bc c146 4e3c a9b2 983a
00000360: 08d9 a83c c7bd 6a3c cd57 debc 544b b2ba
00000370: f105 113c 452f 17bd 9bed 3a3c 902f 823c
00000380: 43d3 fcbc b0d9 663c da90 b83a 5e29 f63b
00000390: 23a9 d33c 77dd a0bc 2dc3 b73c cfce 8ebc
000003a0: eea9 983c f993 d03b 21de 8abc a109 89bc
000003b0: f857 f33b 56e9 543d 9926 6bbc 6a7a e63a
000003c0: 512b 38bd 964b b53c 6479 22bc 1d39 2bbc
000003d0: f6fa 433b 45cf de3c ba79 0fbc 80b8 92ba
000003e0: 50c6 a8bc 3efc 833c 49c8 323d 7739 f6bb
000003f0: df92 22bd 5cb6 f4b9 5e18 7dbc a2d0 063d
-0.026361587 -0.0649457 -0.04347412 -0.038752314 -0.0056996346 0.016418794 -0.00086341915 0.017317625
0.01502585 0.015148641 0.066011265 0.09455551 0.05773572 0.057207182 0.033245344 0.10031449
0.028772933 0.03349623 0.07562602 0.072391145 0.023783876 0.0024942986 0.050787926 -0.017238708
-0.006674067 0.0070944144 -0.019183207 0.003223225 7.4511924e-08 0.057731092 0.04686752 0.06734926
0.012242137 0.023035966 -0.022052959 -0.0029778017 0.051255513 0.07592399 -0.0076990817 0.02734394
0.04328537 -0.025454355 -0.0051603033 -0.06517981 0.030305322 -0.011386391 0.038268782 -0.028260842
0.0067233853 0.10595534 0.068046026 0.04982781 0.07305381 0.05087304 -0.019483358 0.02856802
-0.009858544 0.0049680676 0.01763997 -0.030531706 -0.015143233 0.01891701 -0.015689703 0.061089374
-0.040101472 -0.039027575 -0.026035547 0.07152654 0.015593535 0.04810692 0.051059477 0.052388523
0.024091613 0.07113947 -0.024887893 -0.0054766713 -0.015769674 -0.06455255 0.02065739 -0.0061980337
0.038450137 0.03597176 0.025991378 -0.0004583246 -0.022776738 0.009132211 -0.014347572 -0.010682909
0.0015317372 0.041574426 0.00398051 0.06553468 0.058851674 0.0305935 0.014252893 0.04819058
0.04209382 -0.0037936186 0.063901015 0.002374714 -0.025176022 -0.013337291 0.0019004303 -0.041107293
-0.019529702 -0.035455763 -0.008844434 -2.9717976e-06 0.029827323 0.025163561 0.010130998 -0.00033888503
0.023361126 0.028799957 0.013650725 0.011871162 0.0064175134 0.04356497 0.012847969 0.030539127
-0.0076379036 0.0051001552 0.048342183 0.0050361124 -0.02984731 0.01479688 0.0047364063 -0.010411755
0.014763155 -0.042533934 -0.00017950623 0.0113701755 0.03468841 -0.017489854 -0.0157688 0.011008252
-0.010257467 0.118728384 -0.0023583667 0.01780549 0.049655408 -0.053021062 0.010468163 -0.059777226
-0.02708134 0.0032801004 0.011179377 0.072331965 0.033552114 -0.001100929 0.01645476 -0.030216724
0.0026825455 0.02099259 -0.0063447393 0.001495069 0.06502669 0.018582294 -0.019067086 -0.0096290065
0.03592297 -0.02056974 -0.0016871946 0.00032191773 -0.100669146 -0.038277283 -0.012234617 -0.02097339
0.027754141 -0.008910053 -0.021460617 -0.02354874 -0.01191515 -0.025130607 -0.042599488 -0.019861707
0.0108674085 -0.062063865 -0.0004724278 0.039554987 0.029346935 -0.010223883 0.061998654 -0.015175411
0.009405026 0.021724854 0.031507496 -0.018354569 0.062367693 -0.011398492 -0.044636685 -0.014959135
0.0019314344 -0.022946807 0.03146278 -0.00663147 -0.020977018 0.03352602 0.024206907 -0.037880626
-0.0108508095 0.0028509062 0.00246712 0.001831926 -0.011581729 -0.04752958 -0.011186126 0.038128726
-0.008422106 -0.018657325 -0.028038107 0.013932938 -0.02245811 -0.020260554 0.012590111 0.0011649925
0.020611301 0.014327473 -0.027141476 -0.0013602772 0.008851514 -0.036910314 0.011409189 0.01589182
-0.030862456 0.014089987 0.0014081255 0.0075122556 0.025837487 -0.019636853 0.022431934 -0.017432598
0.018635716 0.006365296 -0.016951622 -0.016728224 0.007426258 0.05198034 -0.014352464 0.001758409
-0.044963185 0.022130769 -0.009916637 -0.010450629 0.0029904223 0.027198443 -0.008757049 -0.0011193901
-0.020602375 0.01611149 0.043648038 -0.0075141746 -0.03969085 -0.00046675175 -0.015447704 0.03291381

ntm.controller.lstm.bias_hh_l0 f4 [400]
00000000: 41f4 d7bc 4002 85bd eb11 32bd bfba 1ebd
00000010: 00c4 babb b580 863c 1457 62ba b1dd 8d3c
00000020: fc2e 763c 0132 783c ea30 873d 52a6 c13d
00000030: 4a7c 6c3d 1452 6a3d 452c 083d af71 cd3d
00000040: 37b5 eb3c 5833 093d d1e1 9a3d cf41 943d
00000050: 67d6 c23c 6377 233b 0007 503d 3138 8dbc
00000060: 22b2 dabb 4378 e83b 1a26 9dbc be3c 533b
00000070: 5d03 a033 7077 6c3d 28f8 3f3d 69ee 893d
00000080: 3f93 483c ecb5 bc3c 68a8 b4bc 3927 43bb
00000090: 4df1 513d 097e 9b3d 9448 fcbb 6600 e03c
000000a0: 004c 313d a785 d0bc c317 a9bb fe7c 85bd
000000b0: de42 f83c fc8d 3abc babf 1c3d 4883 e7bc
000000c0: d84f dc3b 1dff d83d b75b 8b3d 3f18 4c3d
000000d0: 3c9d 953d 4060 503d 909b 9fbc 7b07 ea3c
000000e0: bb85 21bc 2ccb a23b b381 903c a11d fabc
000000f0: 531b 78bc d8f7 9a3c b187 80bc da38 7a3d
00000100: 7141 24bd 61db 1fbd 8048 d5bc 827c 923d
00000110: 077c 7f3c c30b 453d be23 513d 5995 563d
00000120: c65b c53c 92b1 913d b2e1 cbbc a675 b3bb
00000130: 672f 81bc 2134 84bd b039 a93c e018 cbbb
00000140: e47d 1d3d 2057 133d dfeb d43c 494b f0b9
00000150: 4896 babc 459f 153c 1412 6bbc 5e07 2fbc
00000160: 92c4 c83a f249 2a3d f06e 823b 0c37 863d
00000170: 740e 713d 389f fa3c f784 693c 7c63 453d
00000180: 926a 2c3d 5c9e 78bb 89de 823d 17a1 1b3b
00000190: f23d cebc a784 5abc dc17 f93a 1f60 28bd
000001a0: c1fc 9fbc 103a 11bd 3fe8 10bc 186f 47b6
000001b0: 6e58 f43c d023 ce3c 7cfc 253c 61ac b1b9
000001c0: d55f bf3c e3ed eb3c 4aa7 5f3c 437f 423c
000001d0: 014a d23b 2f71 323d 4a80 523c 312d fa3c
000001e0: 6147 fabb 341f a73b 7402 463d f905 a53b
000001f0: 5982 f4bc 9d6e 723c db33 9b3b 1196 2abc
00000200: 29e1 713c 1038 2ebd d639 3cb9 f949 3a3c
00000210: 6f15 0e3d e246 8fbc 922d 81bc f55b 343c
00000220: ef0e 28bc de27 f33d d48e 1abb d2dc 913c
00000230: 7863 4b3d 9d2c 59bd a882 2b3c f7d8 74bd
00000240: b0d9 ddbc f4f6 563b b529 373c c822 943d
00000250: f16d 093d 0c4d 90ba 22cc 863c 1089 f7bc
00000260: a5cd 2f3b a7f8 ab3c 88e7 cfbb 31f6 c33a
00000270: b72c 853d e539 983c 9432 9cbc fbc2 1dbc
00000280: f723 133d df81 a8bc db24 ddba 11c7 a839
00000290: a02b cebd a4c8 1cbd b473 48bc 63d0 abbc
000002a0: a75c e33c 79fb 11bc 2dce afbc 4ae9 c0bc
000002b0: c337 43bc b4de cdbc cd7c 2ebd 05b5 a2bc
000002c0: 370d 323c ae36 7ebd 30b0 f7b9 6904 223d
000002d0: fc68 f03c 1382 27bc 4df2 7d3d 49a2 78bc
000002e0: 8a17 1a3c 52f8 b13c 010e 013d 525c 96bc
000002f0: 4475 7f3d bec0 3abc f5d4 36bd 2917 75bc
00000300: 2f28 fd3a f1fa bbbc 1edf 003d cd4c d9bb
00000310: ffd7 abbc 9452 093d 904d c63c b728 1bbd
00000320: 98c7 31bc 45d6 3a3b 68af 213b 3d1d f03a
00000330: 4bc1 3dbc 60ae 42bd 0346 37bc de2c 1c3d
00000340: dffc 09bc 3fd7 98bc 2cb0 e5bc fa46 643c
00000350: 12fa b7bc 76f9 a5bc c146 4e3c a9b2 983a
00000360: 08d9 a83c c7bd 6a3c cd57 debc 544b b2ba
00000370: f105 113c 452f 17bd 9bed 3a3c 902f 823c
00000380: 43d3 fcbc b0d9 663c da90 b83a 5e29 f63b
00000390: 23a9 d33c 77dd a0bc 2dc3 b73c cfce 8ebc
000003a0: eea9 983c f993 d03b 21de 8abc a109 89bc
000003b0: f857 f33b 56e9 543d 9926 6bbc 6a7a e63a
000003c0: 512b 38bd 964b b53c 6479 22bc 1d39 2bbc
000003d0: f6fa 433b 45cf de3c ba79 0fbc 80b8 92ba
000003e0: 50c6 a8bc 3efc 833c 49c8 323d 7739 f6bb
000003f0: df92 22bd 5cb6 f4b9 5e18 7dbc a2d0 063d
-0.026361587 -0.0649457 -0.04347412 -0.038752314 -0.0056996346 0.016418794 -0.00086341915 0.017317625
0.01502585 0.015148641 0.066011265 0.09455551 0.05773572 0.057207182 0.033245344 0.10031449
0.028772933 0.03349623 0.07562602 0.072391145 0.023783876 0.0024942986 0.050787926 -0.017238708
-0.006674067 0.0070944144 -0.019183207 0.003223225 7.4511924e-08 0.057731092 0.04686752 0.06734926
0.012242137 0.023035966 -0.022052959 -0.0029778017 0.051255513 0.07592399 -0.0076990817 0.02734394
0.04328537 -0.025454355 -0.0051603033 -0.06517981 0.030305322 -0.011386391 0.038268782 -0.028260842
0.0067233853 0.10595534 0.068046026 0.04982781 0.07305381 0.05087304 -0.019483358 0.02856802
-0.009858544 0.0049680676 0.01763997 -0.030531706 -0.015143233 0.01891701 -0.015689703 0.061089374
-0.040101472 -0.039027575 -0.026035547 0.07152654 0.015593535 0.04810692 0.051059477 0.052388523
0.024091613 0.07113947 -0.024887893 -0.0054766713 -0.015769674 -0.06455255 0.02065739 -0.0061980337
0.038450137 0.03597176 0.025991378 -0.0004583246 -0.022776738 0.009132211 -0.014347572 -0.010682909
0.0015317372 0.041574426 0.00398051 0.06553468 0.058851674 0.0305935 0.014252893 0.04819058
0.04209382 -0.0037936186 0.063901015 0.002374714 -0.025176022 -0.013337291 0.0019004303 -0.041107293
-0.019529702 -0.035455763 -0.008844434 -2.9717976e-06 0.029827323 0.025163561 0.010130998 -0.00033888503
0.023361126 0.028799957 0.013650725 0.011871162 0.0064175134 0.04356497 0.012847969 0.030539127
-0.0076379036 0.0051001552 0.048342183 0.0050361124 -0.02984731 0.01479688 0.0047364063 -0.010411755
0.014763155 -0.042533934 -0.00017950623 0.0113701755 0.03468841 -0.017489854 -0.0157688 0.011008252
-0.010257467 0.118728384 -0.0023583667 0.01780549 0.049655408 -0.053021062 0.010468163 -0.059777226
-0.02708134 0.0032801004 0.011179377 0.072331965 0.033552114 -0.001100929 0.01645476 -0.030216724
0.0026825455 0.02099259 -0.0063447393 0.001495069 0.06502669 0.018582294 -0.019067086 -0.0096290065
0.03592297 -0.02056974 -0.0016871946 0.00032191773 -0.100669146 -0.038277283 -0.012234617 -0.02097339
0.027754141 -0.008910053 -0.021460617 -0.02354874 -0.01191515 -0.025130607 -0.042599488 -0.019861707
0.0108674085 -0.062063865 -0.0004724278 0.039554987 0.029346935 -0.010223883 0.061998654 -0.015175411
0.009405026 0.021724854 0.031507496 -0.018354569 0.062367693 -0.011398492 -0.044636685 -0.014959135
0.0019314344 -0.022946807 0.03146278 -0.00663147 -0.020977018 0.03352602 0.024206907 -0.037880626
-0.0108508095 0.0028509062 0.00246712 0.001831926 -0.011581729 -0.04752958 -0.011186126 0.038128726
-0.008422106 -0.018657325 -0.028038107 0.013932938 -0.02245811 -0.020260554 0.012590111 0.0011649925
0.020611301 0.014327473 -0.027141476 -0.0013602772 0.008851514 -0.036910314 0.011409189 0.01589182
-0.030862456 0.014089987 0.0014081255 0.0075122556 0.025837487 -0.019636853 0.022431934 -0.017432598
0.018635716 0.006365296 -0.016951622 -0.016728224 0.007426258 0.05198034 -0.014352464 0.001758409
-0.044963185 0.022130769 -0.009916637 -0.010450629 0.0029904223 0.027198443 -0.008757049 -0.0011193901
-0.020602375 0.01611149 0.043648038 -0.0075141746 -0.03969085 -0.00046675175 -0.015447704 0.03291381

ntm.controller.lstm.weight_ih_l1 f4 [400, 100]
00000000: 41cf 4a3e 8868 b2be 3701 993e 8c8b 553b
00000010: 1620 843e dd79 11be e1bc 213e 476d 76be
00000020: 79ef cf3d b635 81be b3c8 18bd 692d 9ebb
00000030: ad3e 0dbd 09ef 783e eef5 3abd c8af 50bd
00000040: 4017 5e3e 2058 113c 6a80 98be c874 ffbd
00000050: ef85 91be 477b e53e 96a6 93be 7127 093e
00000060: 369c 453e 6b13 69be 292b 4ebe b70c 2c3d
00000070: 5a98 7abe e5cd e9bc 311e 483e d0a4 6ebe
00000080: dccb d4bd f925 df3d b579 14be 3e3a 01be
00000090: 93f3 f73d 670f adbe 2d0b 2c3e c6c6 2fbd
000000a0: 51e6 b63d 79d9 d63d ef99 903e b5ee c53d
000000b0: bd6c e03d 9465 86be d87c d23d 2160 0abe
000000c0: ae49 113e c138 893e c4f4 213d 7a1a 52be
000000d0: 9994 c93d 8a41 923e 5f26 bcbe 4074 aebd
000000e0: 83ae 8d3e 0e38 a13d 0c00 f53d a5ac bd3d
000000f0: 0a11 91bb be0d 753d 4bf6 7e3e c176 dcbd
00000100: 357b 9f3e fa32 0abd 1bbe bf3d 61e1 0fbe
00000110: d9c3 f33d 9ad7 36be cf63 763e 42ca 4dbe
00000120: 18ab b23e 328a 9c3a 874a 8c3e 8e59 08bd
00000130: 35ea e9bd 138c 2d3e 563d e03d d4ca 04bd
00000140: 4ac6 33be 71b9 9a3c 799e 103e 8c7b 913e
00000150: 9979 813e 2255 5c3e 16ee a83d ef3d e03d
00000160: 1897 61be b61d 463e 6307 323e 5ad1 b4bc
00000170: d33c cb3e bf13 11bd b286 6d3e d4cd 42bc
00000180: e382 85be 12fa a5bd 81ae b8be 1f51 95be
00000190: 9736 3cbd 1177 8a3e 7217 c33d e5e4 143e
000001a0: 4dd9 be3d 40ec 72be fd9a 933e 462c dd3d
000001b0: 150d 8bbe 0174 b63c 8a1d 363e e199 acbe
000001c0: 50d3 2fbe ae21 573e 365f 9a3e b81d 91be
000001d0: d2b4 80be e5ed 883d 1822 b4bd f698 81be
000001e0: dfdb f33d b8cb a03d 62de 153e 1291 c13d
000001f0: 8994 c03d d2b3 b03e 3c87 553d 33fa 27be
00000200: 7c57 2f3e ae1c ddbd 5375 983e fa88 9abe
00000210: 11ba 743d acc7 4a3a bb67 04be 985e 9abd
00000220: f10b 893e 4092 403e fd51 3d3e b0ce 7abe
00000230: 5a53 a1be cfd9 fa3d 9d7e 24be 3356 87be
00000240: 5a44 663e 421f 863e cbab 08be ec0b 9bbe
00000250: bac6 85be 34b2 28be a980 0abe ac24 b4b9
00000260: 27eb 253e b02d 41be a307 cfbd 87b2 95be
00000270: 752d d9bc b2c7 89be 7b6e a0be 2d54 c8be
00000280: e92a a93e 1d46 a63e 4416 7ebe 5429 88be
00000290: 944c 3d3d 0ef3 69bd a20d 90be a319 553d
000002a0: 4ac9 a23e 348f 6e3d f59b 83be ade2 3cbe
000002b0: 59a2 f1bc 1504 773e ef06 f4bd d919 493e
000002c0: 31f0 a4be 5291 42be 8b48 7cbe a4f9 34be
000002d0: 09fb a43e cb85 44be cc53 103e a741 64bd
000002e0: 600d 71be da70 31be 7cf9 983e 9cb4 48be
000002f0: f776 993e 197b a7bd d111 05be 9556 cdbe
00000300: e286 833e d550 fd3d 26fc 94be 1ade 9bbe
00000310: 1282 a8bd a0d2 47be c289 893e ce35 883e
00000320: 9dae 2bbe c4d4 fe3d 78b7 a7be 75e2 ae3d
00000330: 3ba3 d73d e20b a2bc 45c1 9dbe 8f3f 0d3d
00000340: 79d1 dd3d a4c8 4d3e f2fd 25bd 6e57 c73d
00000350: 901d 81b9 11bc a1be 4a65 673e 6e56 dabc
00000360: b72f 4cbd 034a abbd f286 a1bc d6e1 f33b
00000370: 8a99 24be cffb 82be 3fef 97be 4781 543e
00000380: 49fe 8f3e 5f8d b3bc bc36 303d d609 86be
00000390: 683f 60be 606f 84bc ea82 123e 2b4b e63c
000003a0: 9aa5 febb cfc2 6e3e b375 953a 23e5 45be
000003b0: 42c2 1c3e 38d2 cdbe 5338 8dbe 7c2f 553e
000003c0: cbab 9a3e 8ac3 053d 7ed6 243e 4ac3 88bb
000003d0: a049 cebe 79a7 693e 2754 8f3d 9005 0d3e
000003e0: 2c88 f43d 4fd6 473e 9839 c63d e86b be3d
000003f0: 1d4f 2fbe b2ec 233e 508f 593e f73a 6fbe
0.19805624 -0.34845376 0.2988374 0.0032584397 0.2580573 -0.14206643 0.15794708 -0.24065123
0.10153098 -0.2523629 -0.037300777 -0.0048271907 -0.0344836 0.24309935 -0.045644693 -0.050948888
0.21688557 0.008871108 -0.29785472 -0.12473446 -0.28422496 0.44820616 -0.28838032 0.13393952
0.19297871 -0.22761314 -0.20133652 0.042004313 -0.2447218 -0.028540561 0.19542767 -0.23305058
-0.103904456 0.108959146 -0.14499553 -0.12619874 0.12107005 -0.33800814 0.16801138 -0.042914174
0.08930648 0.10490698 0.28242442 0.096646704 0.1095824 -0.26249373 0.10277718 -0.13513233
0.14188263 0.26801112 0.039540067 -0.20517913 0.09842796 0.28565627 -0.36748025 -0.08518267
0.27672204 0.0787202 0.119628996 0.09261445 -0.00442708 0.05982756 0.24898641 -0.10764838
0.31148687 -0.03374002 0.093624316 -0.14050819 0.11902589 -0.17855683 0.24061511 -0.20096686
0.3489616 0.0011943041 0.2740061 -0.03328853 -0.114216246 0.16947965 0.10949199 -0.032419994
-0.1755611 0.018887253 0.14122953 0.2841457 0.25288084 0.2151685 0.08248536 0.10949313
-0.22030294 0.19347271 0.1738563 -0.022072483 0.39694843 -0.035419222 0.23195913 -0.011889894
-0.2607642 -0.08104338 -0.36070636 -0.29163453 -0.0459505 0.27043965 0.09525956 0.14540441
0.093187906 -0.23722935 0.28829184 0.1079946 -0.27158418 0.022272112 0.17784706 -0.3371115
-0.17170453 0.21008942 0.30150765 -0.28342986 -0.25137955 0.06686 -0.08795565 -0.25312012
0.119071715 0.07851356 0.14635614 0.09451498 0.09403331 0.34512192 0.052130923 -0.16404037
0.17123216 -0.10796486 0.2977701 -0.3018263 0.05974776 0.0007735442 -0.12930195 -0.075375736
0.26766923 0.1880579 0.18488307 -0.24492908 -0.31508905 0.12248575 -0.16063924 -0.26432952
0.22487012 0.26195723 -0.13346784 -0.30282533 -0.2612818 -0.16474229 -0.13525642 -0.00034359598
0.16202985 -0.18865085 -0.101088785 -0.29237768 -0.026510933 -0.26910168 -0.3133429 -0.3912672
0.3304055 0.32475367 -0.24813181 -0.2659403 0.04621561 -0.05711656 -0.281354 0.052026402
0.31794196 0.058242038 -0.25704923 -0.18445845 -0.029496359 0.24122651 -0.11915385 0.19638766
-0.32214502 -0.19000748 -0.24637048 -0.17673355 0.32222775 -0.19191663 0.14094466 -0.055726673
-0.23540258 -0.17328206 0.2987784 -0.19600147 0.29973575 -0.08177776 -0.12995078 -0.4010512
0.25688845 0.12368933 -0.29098624 -0.30442888 -0.08227934 -0.19513941 0.26862913 0.2660355
-0.16765828 0.124429256 -0.32757163 0.08539287 0.105291806 -0.019781057 -0.30811515 0.034484442
0.10830969 0.2009607 -0.040525384 0.09733473 -0.00024626823 -0.31588796 0.22597232 -0.026652541
-0.049850192 -0.08363726 -0.019717667 0.007442693 -0.16074196 -0.2558274 -0.29674718 0.2075244
0.28123692 -0.021917997 0.04302095 -0.2617938 -0.21899188 -0.016166389 0.14307752 0.028112015
-0.007771206 0.23316501 0.0011402875 -0.1932569 0.15308478 -0.40199447 -0.27582034 0.20818895
0.30209193 0.032657184 0.16097447 -0.004173671 -0.40290546 0.22817792 0.06998473 0.13771653
0.11940035 0.19515346 0.09678954 0.09297925 -0.17120023 0.16008261 0.21246076 -0.23362337

ntm.controller.lstm.weight_hh_l1 f4 [400, 100]
00000000: 1ce2 9cbe fe59 32be 886a a93e 2886 91be
00000010: a711 bd3e d06f 7dbe 33f4 38bd 5afc 183e
00000020: 2b3c 50bd 6f3e 24be f50b 6b3d d396 c4be
00000030: b812 a93d b09a 1fbe cf86 7cbc bd2a e0bd
00000040: cc95 143e 689e 573e 0ac0 883e 651e 3dbe
00000050: 0605 85be 8eb2 6dbe 4028 02bd a80c 7fbe
00000060: ae80 b23d bced 513e 37a2 90be 345c 8fbe
00000070: 3786 dabc 1a92 803e ae61 65bd f288 55be
00000080: cf8c 8f3d 226d 493e 9818 8d3e 07aa 27be
00000090: 3c21 75be e5e4 013d 7f1c 6c3e c3f0 b43e
000000a0: bd61 263e 7c89 74bd a371 373e 5663 393c
000000b0: a34f ba3e 6fb5 8abd 7747 8abe d2c2 99be
000000c0: bf98 c3be 5a97 e73d 0eb6 95bd 059c 94be
000000d0: 780d 9ebe 2283 aebd 9138 c2be ff56 14be
000000e0: 3e30 963e c2f0 50be 34f4 4f3e a8b2 55be
000000f0: 9437 c03d d830 21bc b917 93ba 3346 54be
00000100: c60b 81be 062d 6f3e 0c71 58be abe5 9e3e
00000110: 74d2 e4be 192a a93e 655a 2dbe 071f 993d
00000120: 694a 693e 3ce3 803e 112d 0d3e c195 883e
00000130: e970 423e 56fa 723d a649 403e 5411 3e3e
00000140: 281f 873e 3142 ce3e dcf5 51be 217e c9bd
00000150: 75d2 9abe bd82 9abe 16ce 783e 2a6b 53be
00000160: 319c 88bd 7c27 903e 80fc a03d d5b9 a43e
00000170: 0f59 12bd eb94 81be 6282 d0be e467 4e3e
00000180: bb56 31be e191 98be 371a b6be 534b c2be
00000190: 32d3 94be 5e9d 1e3e 2dd7 883e 3f1e a53e
000001a0: fc82 823e f151 933e 02d1 b93d ee50 863e
000001b0: abf3 98be 0b92 883e 3aec 4dbc d96f 243e
000001c0: 3ce1 87bc 502b 2e3e 93e7 743e c1a0 123e
000001d0: 0bd5 94be ab6b 963e ee34 833e 9889 823d
000001e0: 4af4 8f3e 5d17 86be fc63 9f3e dcb9 a93e
000001f0: d73e 01be 0a61 a03d fdf6 9dbe 4018 3a3d
00000200: 1af1 e13b e182 95be f2fc 903e 3c34 a43e
00000210: 2467 3fbe e481 90bd 3065 40bd 4cd5 a53d
00000220: d311 c43e 3e6c 0ebd 4de4 e0bc 209c c83d
00000230: 2824 4bbe f9c5 973e f29b 123e d581 5fbe
00000240: 4bfe a9be 1121 ba3d c3b1 faba b35c a53e
00000250: b873 90be 0df3 4a3e d8fb 0b3e 0ec8 ffbd
00000260: 795c 94bd 7f27 773d 38aa 5f3e e2ca f03d
00000270: 656e 403e 68af 6c3e 2c95 53be 3e9d a2bd
00000280: 9f4f 813d 1954 233e 5e5e ac3e 5621 b83e
00000290: 9f99 883e c99a 81be da40 4b3e c514 b13e
000002a0: 9c0c 2d3e d702 533e 41b1 d73d 3a77 a7be
000002b0: 723d fbbd 401b febd 9fce 40be 212c edbd
000002c0: 210e 88be f417 b43d 40bb bcbd 7a34 673e
000002d0: 0e9b debd 543f 75be 760d b13d e6ca 8a3d
000002e0: 9fb6 9a3e bf76 5f3e 4e11 833e 570e ed3c
000002f0: 213c 283e 646a 053d ce90 263e 525c b2be
00000300: 84ac cfbd c9b2 1a3c a469 a4bc b70c ac3e
00000310: f6fd 1d3e 10f1 913e b563 4dbe c446 ac3a
00000320: db26 153e a9b7 413e c25a d4bc 8380 8c3d
00000330: 568b 453e 94a2 a6be f931 b0be 86a6 2d3d
00000340: 213a 88be 2661 9d3e d922 623d 63f0 813e
00000350: c7a7 1e3e a3fb f0bc 9838 9b3e b525 bb3c
00000360: 4671 bdbe 59df f6bd 1c45 8bbe 4d8d 91be
00000370: eb0b 033e 9c44 e8bd 30af e2bc 3938 15be
00000380: 0505 63bd d415 953d 49d3 04bd 0865 23be
00000390: 87ad 093e e60b efbd 2888 f9bd ba3f febd
000003a0: 8df9 fe3c 6546 3c3e e79a 84be 4a9c 6ebe
000003b0: 0498 65be 22f5 3fbd 0de2 58be 1dda da3d
000003c0: 545a 413e 119a 123d c825 7cbe 6e46 953d
000003d0: ceaf 41be 9a3f 6b3b af27 843e a5de 38be
000003e0: f20d 6bbe 897f 67be e063 b43c f6a8 483e
000003f0: b196 843d b6e6 17bd 09b2 093e a97b 54be
-0.30641258 -0.17417142 0.3308909 -0.28422666 0.3692753 -0.24749684 -0.04515476 0.14940014
-0.05083863 -0.16039442 0.05738445 -0.3839632 0.082555234 -0.15586352 -0.015413 -0.10945652
0.14510268 0.21056521 0.26709014 -0.18468626 -0.25980395 -0.23212644 -0.031776667 -0.24907172
0.0871595 0.20500845 -0.2824876 -0.28000033 -0.026675327 0.25111467 -0.056001358 -0.20853022
0.07009279 0.19670537 0.27557826 -0.16373454 -0.23938459 0.03171243 0.23057745 0.35339937
0.16248222 -0.059701428 0.17914443 0.011315187 0.36388883 -0.06772887 -0.27007648 -0.3003145
-0.38202474 0.11308165 -0.07310115 -0.29025283 -0.3086965 -0.08521105 -0.37933782 -0.14486311
0.2933368 -0.20404342 0.20308 -0.20868933 0.09385601 -0.009838305 -0.001122228 -0.20729904
-0.25204295 0.23357019 -0.21136874 0.31034598 -0.44691813 0.3303993 -0.16929014 0.07476621
0.22782291 0.25173366 0.13786723 0.26676753 0.18988384 0.05932077 0.18778095 0.18561298
0.26390958 0.40284875 -0.20503944 -0.0983851 -0.3023869 -0.3017787 0.24297366 -0.20646349
-0.06670416 0.28155124 0.078606606 0.3217303 -0.035729464 -0.25308928 -0.40724474 0.20156819
-0.17318241 -0.29798797 -0.35566875 -0.37948093 -0.2906738 0.15489718 0.26726666 0.32249638
0.25490558 0.28773454 0.09073068 0.2623362 -0.29873404 0.26673922 -0.012568528 0.16058291
-0.016586892 0.1700871 0.23916464 0.14319135 -0.2906879 0.2937902 0.2562632 0.063739
0.28116065 -0.261897 0.3113097 0.33149612 -0.12621628 0.07831009 -0.308525 0.045433283
0.0068951966 -0.29201415 0.28317982 0.32071102 -0.18691689 -0.07056025 -0.0469715 0.08097324
0.3829485 -0.034771197 -0.027452612 0.097954035 -0.19838011 0.2964323 0.14317301 -0.2182687
-0.33201823 0.09088338 -0.0019126463 0.32297286 -0.28213286 0.19819279 0.1367029 -0.12489329
-0.072442 0.0603404 0.21842277 0.11757447 0.18792112 0.23113787 -0.20662373 -0.07940148
0.06314015 0.1595005 0.33665746 0.35962933 0.26679704 -0.25313404 0.19848958 0.34586158
0.16899341 0.20606552 0.105318554 -0.3270815 -0.12267579 -0.12407541 -0.1882882 -0.115806825
-0.2657328 0.08793631 -0.092154026 0.22578612 -0.10869418 -0.23949939 0.086451456 0.06776981
0.30217454 0.21822642 0.2559914 0.028937502 0.16429187 0.032572165 0.16266176 -0.3483606
-0.101403266 0.00944204 -0.020069905 0.3360345 0.1542891 0.2850423 -0.20057566 0.0013143648
0.14565603 0.18917717 -0.025922183 0.06860449 0.19291434 -0.32545912 -0.34413126 0.042395137
-0.2660685 0.3073818 0.055209015 0.25378713 0.1549369 -0.029416865 0.30316615 0.022845129
-0.37000483 -0.12054319 -0.27201164 -0.28428116 0.12797515 -0.11341211 -0.027671427 -0.14572228
-0.05542471 0.07279554 -0.03242806 -0.15956509 0.13445102 -0.11672191 -0.12184173 -0.124144986
0.031124854 0.18386228 -0.2589943 -0.23301807 -0.2242127 -0.046864636 -0.21179982 0.10686133
0.18882114 0.03579146 -0.24623787 0.07288824 -0.1891472 0.0035896064 0.25811526 -0.18053682
-0.22954538 -0.22607245 0.02202028 0.19595703 0.064740546 -0.037085257 0.13446821 -0.20750298
