results/priority-sort/priority-sort-task-1-batch-6000.model (torch_old, 876115 bytes, 49 tensors)

ntm.read0_bias f4 [1, 20]
0.008534628 0.008435046 -0.008264077 0.00018172165 0.0046713464 0.00930393 0.0023353018 0.011105952
0.0061267973 -0.011406721 -0.0012917069 -0.0018287291 -0.02607943 0.0029292086 0.01707296 -0.015079479
-0.009413523 0.0030175606 0.009871223 0.0013471204
00000000: d3d4 0b3c 2633 0a3c 0d66 07bc 898c 3e39
00000010: 1812 993b 836f 183c dd0b 193b bdf5 353c
00000020: 4dc3 c83b 41e3 3abc 7e4e a9ba f7b1 efba
00000030: 87a4 d5bc f7f7 3f3b 98dc 8b3c eb0f 77bc
00000040: 2d3b 1abc 44c2 453b e9ba 213c dc91 b03a

ntm.read1_bias f4 [1, 20]
0.0074309288 -0.0024586967 0.0061495206 0.0063787727 0.0033937113 0.0051422534 -0.0030757 -0.0018738745
-0.001625842 -0.0012667794 0.019063577 0.011108604 -0.004539704 -0.00995929 0.00015343723 -0.0067059505
0.0022206204 0.008695815 -0.0094873225 -0.0037890621
00000000: 267f f33b 1622 21bb eb81 c93b 0605 d13b
00000010: 0769 5e3b 5980 a83b af91 49bb cb9c f5ba
00000020: 341a d5ba 100a a6ba 382b 9c3c dd00 363c
00000030: ccc1 94bb 4a2c 23bc fee3 2039 97bd dbbb
00000040: d487 113b e478 0e3c b770 1bbc ea51 78bb

ntm.read2_bias f4 [1, 20]
0.008418408 -0.02165412 0.026195146 -0.014825749 0.007117094 0.0035536014 0.0053983554 0.0027502493
-0.010106821 -0.009972419 0.010024577 -0.0010381936 -0.0034792167 0.0038336124 -0.0016785387 0.0035286348
0.016281763 -0.01577581 0.018273318 -0.010903853
00000000: 5ded 093c fb63 b1bc 3497 d63c b3e7 72bc
00000010: 8336 e93b 8ae3 683b b0e4 b03b 873d 343b
00000020: 1497 25bc 5b63 23bc 203e 243c ff13 88ba
00000030: 9203 64bb 583d 7b3b 6a02 dcba ab40 673b
00000040: 5561 853c 463c 81bc edb1 953c 13a6 32bc

ntm.read3_bias f4 [1, 20]
-0.00884936 0.0021171118 -0.009916693 0.0048082955 0.00040438664 0.0034891157 0.022625888 -0.012612301
0.001597294 -0.0005343199 0.011532222 0.006451259 -0.0008236384 0.0039824215 0.005928821 -0.008201689
-0.014374395 -0.0029393584 -0.009005442 0.017612504
00000000: e8fc 10bc 3ebf 0a3b a079 22bc e88e 9d3b
00000010: db03 d439 a6a9 643b ed59 b93c d3a3 4ebc
00000020: 4b5c d13a 9a11 0cba a5f1 3c3c 1565 d33b
00000030: 70e9 57ba f97e 823b 8e46 c23b 6160 06bc
00000040: 9582 6bbc 40a2 40bb 908b 13bc 1948 903c

ntm.read4_bias f4 [1, 20]
0.001292041 0.017851794 -0.0018190525 0.0074159033 -0.0039567947 -0.008849636 -0.0064109443 0.008246496
-0.002400217 0.008319184 -0.010934709 -0.014668811 -0.011997054 -0.009604894 -0.00038494423 0.0016552132
0.005631958 -0.0022477664 -0.0169643 0.010374
00000000: b459 a93a ed3d 923c 466d eeba 1b01 f33b
00000010: 00a8 81bb 10fe 10bc e612 d2bb 501c 073c
00000020: f64c 1dbb 304d 083c 7e27 33bc 7455 70bc
00000030: 4b8f 44bc d85d 1dbc 57d2 c9b9 bdf3 d83a
00000040: 4a8c b83b 434f 13bb b7f8 8abc b6f7 293c

ntm.controller.lstm_h_bias f4 [2, 1, 100]
0.055916697 -0.057562377 -0.021404926 -0.10949591 -0.031773057 0.015024157 -0.038993068 -0.01764877
0.0471179 -0.007173314 0.023774596 -0.029663725 0.0067493627 0.0050617764 -0.06642146 0.021990674
-0.051974427 -0.019620191 0.07340071 0.05492788 -0.07119658 0.01806076 0.014559079 -0.05044444
-0.080154836 0.047209904 -0.03090328 -0.039521042 -0.0060644015 -0.0279064 -0.053794537 -0.047646753
-0.0005177208 -0.060464256 -0.103933826 -0.00855346 -0.023890128 -0.018417094 0.081987396 -0.003307257
0.045613695 -0.04306775 -0.04108742 0.051387876 -0.05382597 -0.012444125 -0.0049040187 0.06483836
0.048347577 -0.0025187095 -0.012756459 0.062995195 0.037583634 0.10922075 -0.008506124 0.019353231
0.008467069 -0.067244455 0.026148973 0.10752558 0.06341917 -0.017255133 0.045509912 0.0012486652
0.08331182 -0.035370275 -0.038950782 -0.051606715 -0.062144645 -0.049136396 -0.036363408 -0.07423667
0.0011437212 0.01991491 0.03303673 -0.052326296 -0.0008377183 -0.081773326 -0.019548256 0.019429568
0.06849525 -0.0035115962 -0.096866004 -0.036419276 -0.020037785 -0.014759217 -0.0490609 -0.067541145
0.0028188343 0.06950581 -0.0010134238 -0.007441257 0.04018262 -0.010600184 0.08937912 -0.047361683
0.08049946 0.06799132 -0.017173873 -0.023309598 0.121342435 0.020800078 0.08112534 0.001229418
-0.080713674 0.026787706 0.011792261 -0.063836895 0.046521172 -0.06319025 0.057383396 -0.036270183
0.05796575 0.08450312 -0.01617777 -0.08862697 0.081377946 0.014911787 -0.024892582 0.011058307
-0.013421377 0.04787578 0.0021822471 0.037050012 0.012407457 -0.0069424813 0.011142616 0.08276557
0.02366527 0.10937015 -0.026315983 -0.014513127 0.039416596 0.0039207987 0.10344872 -0.02073115
0.025764579 0.05513045 0.106817774 -0.041900873 0.05738477 -0.039208703 -0.073495634 0.00633572
-0.010628545 -0.015200639 0.029825114 -0.038029447 0.04568133 -0.015022073 -0.015451991 0.014771085
0.07153366 0.020833183 -0.05914209 -0.036509126 -0.13791128 -0.033492815 0.004493047 -0.08978716
0.050057504 0.06496339 0.026873266 0.0464647 -0.043858137 -0.057967823 0.03437837 -0.09337584
-0.06510006 0.017252501 0.02452528 0.107994296 -0.04960127 -0.018312545 0.05079385 -0.113189094
-0.016170597 0.049446855 -0.0008640656 -0.06466144 -0.024832847 -0.049352214 0.0046353126 -0.04324198
0.042011138 -0.10262023 -0.009255639 -0.0018059505 -0.039238676 -0.07467164 -0.020375928 -0.029965565
0.009885057 0.076012686 0.03166579 -0.11366222 0.037334997 -0.009313308 0.12261068 0.00810853
00000000: e808 653d 87c6 6bbd 6259 afbc 643f e0bd
00000010: 7724 02bd e227 763c 32b7 1fbd 2794 90bc
00000020: b3fe 403d 1f0e ebbb f1c2 c23c 5701 f3bc
00000030: c229 dd3b 42dd a53b f907 88bd c925 b43c
00000040: 23e3 54bd 86ba a0bc 1d53 963d 0ffc 603d
00000050: 83cf 91bd 29f4 933c 3489 6e3c d49e 4ebd
00000060: 3828 a4bd 2c5f 413d e028 fdbc d1e0 21bd
00000070: e3b7 c6bb f69b e4bc a957 5cbd 3e29 43bd
00000080: a8b7 07ba 5ea9 77bd 42db d4bd d023 0cbc
00000090: 3bb5 c3bc 72df 96bc 02e9 a73d 91be 58bb
000000a0: 6dd5 3a3d cf67 30bd 484b 28bd 187c 523d
000000b0: 9f78 5cbd 71e2 4bbc e4b1 a0bb f9c9 843d
000000c0: 1c08 463d ef10 25bb 7800 51bc a003 813d
000000d0: 4cf1 193d 21af df3d 455d 0bbc ab8a 9e3c
000000e0: 76b9 0a3c 76b7 89bd 5f36 d63c 5f36 dc3d
000000f0: e9e1 813d a35a 8dbc 9a68 3a3d 40aa a33a
00000100: 639f aa3d 6ce0 10bd db8a 1fbd 9061 53bd
00000110: 628b 7ebd 3f43 49bd ccf1 14bd 6509 98bd
00000120: eae8 953a 9824 a33c 8651 073d 1954 56bd
00000130: 539a 5bba c678 a7bd aa23 a0bc c22a 9f3c
00000140: 3d47 8c3d cf22 66bb af61 c6bd 612c 15bd
00000150: 4826 a4bc a5d0 71bc 15f4 48bd 0353 8abd
00000160: 31bc 383b 1059 8e3d dcd4 84ba cad5 f3bb
00000170: 8896 243d 65ac 2dbc 660c b73d 53fe 41bd
00000180: e7dc a43d 083f 8b3d 39b0 8cbc c5f3 bebc
00000190: 6282 f83d ed64 aa3c 0b25 a63d 6c24 a13a
000001a0: 364d a5bd e471 db3c 5434 413c ebbc 82bd
000001b0: fc8c 3e3d e469 81bd da0a 6b3d 0b90 14bd
000001c0: 7f6d 6d3d f90f ad3d 3e87 84bc 0f82 b5bd
000001d0: 7ba9 a63d 9150 743c 87eb cbbc e72d 353c
000001e0: 56e5 5bbc 6519 443d 0804 0f3b c1c1 173d
000001f0: a648 4b3c c17d e3bb 858f 363c ff80 a93d
00000200: abdd c13c 75fd df3d 9e94 d7bc 77c8 6dbc
00000210: 4c73 213d 0b7a 803b ecdc d33d 5fd4 a9bc
00000220: 3d10 d33c 77d0 613d 47c3 da3d 40a0 2bbd
00000230: 4b0c 6b3d 4e99 20bd e184 96bd df9b cf3b
00000240: 5923 2ebc 1a0c 79bc cc53 f43c c4c4 1bbd
00000250: 591c 3b3d 241f 76bc 592a 7dbc 6c02 723c
00000260: 3d80 923d 5aaa aa3c fa3e 72bd 988a 15bd
00000270: 9d38 0dbe c32f 09bd 693a 933b 55e2 b7bd
00000280: 1909 4d3d 870b 853d 5325 dc3c c551 3e3d
00000290: 97a4 33bd ab6f 6dbd 55d0 0c3d d53b bfbd
000002a0: 2e53 85bd 1e55 8d3c 3de9 c83c 1d2c dd3d
000002b0: b42a 4bbd 3104 96bc 360d 503d afcf e7bd
000002c0: 3378 84bc c988 4a3d 7682 62ba 386d 84bd
000002d0: 416e cbbc 8c25 4abd d2e3 973b 811e 31bd
000002e0: df13 2c3d 8e2a d2bd f7a4 17bc a5b5 ecba
000002f0: bcb8 20bd 72ed 98bd 6beb a6bc 587a f5bc
00000300: eff4 213c 8aac 9b3d fdb3 013d bdc7 e8bd
00000310: 95ec 183d d896 18bc 4f1b fb3d a4d9 043c

ntm.controller.lstm_c_bias f4 [2, 1, 100]
0.052334763 -0.011713819 -0.038351998 0.03238171 0.024018984 -0.05063968 -0.096255906 0.042112652
-0.037967127 -0.00832078 0.08647863 -0.03511676 -0.03160286 -0.024341434 0.08685854 -0.016132053
0.008565396 -0.0726215 0.004415009 -0.05098538 -0.030088967 -0.040784042 0.006559428 -0.00889916
-0.034149356 0.07036825 0.037466295 -0.006958259 -0.07053229 0.0221606 -0.09986269 -0.058037397
-0.004272155 -0.08913731 -0.024399256 -0.082986645 -0.04036681 -0.098043114 -0.027749872 -0.06394209
0.022241265 0.007145163 -0.07525135 0.017210986 0.048016917 0.007669439 0.0144885965 0.0031140312
-0.0041347547 0.00045529744 -0.0025418433 -0.0034007877 -0.0037483654 0.030009462 0.018594999 -0.026116045
0.006146965 0.016885748 -0.009719607 0.04166193 0.05772233 -0.021211332 -0.0017556726 -0.022891413
-0.016992686 -0.004458467 -0.06254496 0.062218297 -0.048653137 0.007071269 0.07018672 -0.11652044
-0.040494606 0.045806155 0.0125350375 -0.04992831 0.013301659 -0.10801295 -0.065796435 -0.09584741
-0.032738432 -0.046637647 0.015510204 -0.034295406 0.08060979 -0.0058247675 -0.013630774 0.0856478
-0.05822073 -0.006035225 0.016292412 0.015999334 0.029881302 -0.029346865 -0.064376935 -0.022737183
0.04087298 -0.0048915776 0.029310055 -0.066446714 0.0074756322 0.03234837 -0.021869902 -0.094448045
-0.0934407 -0.06527519 -0.0013323427 -0.009140001 0.05340354 0.036887683 -0.045248456 -0.05057221
0.0009101453 -0.027391199 0.032715954 0.06965663 0.088392556 0.085452385 -0.0013071027 -0.008261851
0.0138562415 -0.015266109 -0.030977499 0.0024697299 -0.12502658 0.022695202 0.055263653 0.102815084
0.024487356 -0.06731698 -0.0011404636 -0.03654011 -0.004064225 0.074310675 0.06278715 -0.1021156
0.075388715 0.07199626 0.033867646 0.018384362 -0.0058678132 0.042286973 -0.06583957 -0.060010415
-0.006863098 -0.10863893 0.02841312 -0.023439702 0.081331514 0.11266551 -0.08088457 -0.043818273
-0.0053393543 -0.044412255 -0.020673571 -0.016650325 -0.06354175 0.10027124 0.03539706 0.039986074
0.046611905 0.0096962685 -0.070980415 -0.007746169 -0.050627068 0.02535636 0.0032770492 -0.018099843
-0.008191131 0.052496877 0.024103664 -0.0072939377 -0.048217095 -0.014458311 0.008543815 0.105565086
-0.025269506 -0.029535774 -0.0017855907 0.005410864 0.07463567 -0.013173854 0.049623232 -0.06373587
-0.045314256 -0.043056615 0.021371279 -0.12418093 0.086441405 0.039843876 0.04520704 0.08425981
-0.07849763 0.0005690847 0.1126833 -0.037247326 -0.015767824 0.012263782 0.022018526 0.04213837
00000000: fa5c 563d 51eb 3fbc fc16 1dbd afa2 043d
00000010: 76c3 c43c 8e6b 4fbd d121 c5bd 517e 2c3d
00000020: 6b83 1bbd e153 08bc b51b b13d 97d6 0fbd
00000030: 0072 01bd b067 c7bc e4e2 b13d 5e27 84bc
00000040: e055 0c3c 95ba 94bd c8ab 903b 0cd6 50bd
00000050: 237d f6bc 2b0d 27bd 78f0 d63b c8cd 11bc
00000060: 32e0 0bbd 3b1d 903d 4276 193d 1b02 e4bb
00000070: 3c73 90bd 268a b53c cf84 ccbd 9fb8 6dbd
00000080: 6ffd 8bbb 9f8d b6bd f3e0 c7bc e7f4 a9bd
00000090: ab57 25bd d4ca c8bd b353 e3bc 12f4 82bd
000000a0: 5033 b63c f921 ea3b 611d 9abd 0efe 8c3c
000000b0: 63ad 443d eb4f fb3b 9461 6d3c c614 4c3b
000000c0: d67c 87bb fdb4 ee39 0e95 26bb c0df 5ebb
000000d0: 23a7 75bb 67d6 f53c 8a54 983c 51f1 d5bc
000000e0: 7b6c c93b fb53 8a3c fd3e 1fbc b3a5 2a3d
000000f0: 406e 6c3d 63c3 adbc 991e e6ba c686 bbbc
00000100: 3f34 8bbc 5518 92bb 9217 80bd 9dd8 7e3d
00000110: 8348 47bd 1bb6 e73b 0ebe 8f3d 45a2 eebd
00000120: acdd 25bd 3c9f 3b3d c25f 4d3c a181 4cbd
00000130: 34ef 593c e535 ddbd 48c0 86bd a64b c4bd
00000140: bc18 06bd 1e07 3fbd 831e 7e3c 5779 0cbd
00000150: bf16 a53d b1dd bebb 9c53 5fbc 1d68 af3d
00000160: dc78 6ebd 23c3 c5bb aa77 853c 0911 833c
00000170: a2c9 f43c d668 f0bc 0ed8 83bd 5443 babc
00000180: 6d6a 273d 8749 a0bb a41b f03c 3715 88bd
00000190: 26f6 f43b b97f 043d 8228 b3bc fa6d c1bd
000001a0: d65d bfbd 00af 85bd 01a2 aeba f1bf 15bc
000001b0: acbd 5a3d 8a17 173d 7256 39bd ce24 4fbd
000001c0: d196 6e3a 8263 e0bc 2a01 063d 23a8 8e3d
000001d0: 2807 b53d a901 af3d 1753 abba b75c 07bc
000001e0: 4a05 633c b41e 7abc 86c4 fdbc 31db 213b
000001f0: f806 00be 4aeb b93c 245c 623d b790 d23d
00000200: b599 c83c 7cdd 89bd 9c7b 95ba 15ab 15bd
00000210: 312d 85bb 3230 983d 8d96 803d fc21 d1bd
00000220: 6665 9a3d c672 933d cdb8 0a3d cd9a 963c
00000230: c946 c0bb 1b35 2d3d e5d6 86bd 7bcd 75bd
00000240: d7e3 e0bb 167e debd a2c2 e83c 9e04 c0bc
00000250: 2391 a63d 2dbd e63d cfa6 a5bd ca7a 33bd
00000260: c0f5 aebb a0e9 35bd 9f5b a9bc 4366 88bc
00000270: 2d22 82bd 025b cd3d 82fc 103d 70c8 233d
00000280: 20ec 3e3d 19dd 1e3c 2e5e 91bd 93d3 fdbb
00000290: 545e 4fbd 24b8 cf3c c3c3 563b 1f46 94bc
000002a0: 1834 06bc f706 573d 0c75 c53c fc01 efbb
000002b0: 4a7f 45bd 8de2 6cbc 5cfb 0b3c 8232 d83d
000002c0: ff01 cfbc 02f5 f1bc 7b0a eaba 9e4d b13b
000002d0: 96da 983d 26d7 57bc bb41 4b3d f487 82bd
000002e0: 719b 39bd 225c 30bd d212 af3c 9252 febd
000002f0: 3108 b13d 5533 233d 042b 393d 6890 ac3d
00000300: 5ec3 a0bd a12e 153a 81c6 e63d a790 18bd
00000310: 862b 81bc 08ee 483c 3260 b43c 4999 2c3d

ntm.controller.lstm.weight_ih_l0 f4 [400, 110]
-0.23783395 0.14207292 0.09200836 -0.19334559 -0.30340394 -0.21145126 0.11340378 0.20170134
-0.25983548 -0.070412405 -0.15780878 0.04750197 0.22898047 0.103134096 0.049719166 0.205189
-0.08898113 0.112783186 0.26312566 -0.24873675 0.06361731 -0.3095685 0.02595688 -0.3501354
0.03344393 -0.18975401 -0.14960587 -0.3418141 -0.2522219 0.002171038 0.06627625 -0.26860875
0.055855382 0.0154437125 0.18929447 -0.07389708 -0.3281281 0.32803893 -0.1906099 0.1796212
0.12842125 -0.3118261 0.08726948 0.0611174 0.2919438 0.101542555 0.22631656 0.1829977
0.20221417 -0.20173894 -0.062188067 0.13448423 0.31630152 -0.17534085 -0.32494953 -0.12399646
-0.05149826 -0.03405147 0.27199164 -0.224865 -0.3513084 -0.01304815 -0.038212635 -0.1806898
-0.22419697 -0.2915975 0.09897328 -0.069828644 0.15348034 -0.045959998 -0.22622652 0.09839853
-0.034351144 0.023691906 -0.22404495 0.30043253 0.027350318 0.054417737 0.20098883 0.24074641
-0.3567077 0.08738372 -0.13148409 -0.16665548 -0.1093548 0.19050981 0.016465595 -0.1938281
-0.25911403 -0.003301857 -0.007900898 0.32101804 0.22290595 0.03250737 0.13757747 -0.23165224
-0.09263217 0.23605257 0.3554984 0.08481301 0.012162673 -0.14541921 -0.17363182 -0.20040658
-0.03416351 -0.10753672 0.09534941 0.2915011 0.2779699 0.09471908 -0.21267235 -0.045513064
-0.21876593 -0.2928841 0.25832197 0.08501658 0.21266891 0.21919759 -0.26798004 -0.07752026
0.04243497 0.08419509 -0.15455358 -0.35431337 0.2991428 0.20057221 0.18321985 -0.20444173
0.03145933 -0.28537205 0.15540774 0.12843232 -0.29681027 0.02197211 -0.29703596 0.06285088
0.32363907 -0.29653734 -0.022986904 0.3017151 0.077973865 0.1464593 -0.25416484 -0.35286596
-0.22868057 -0.022412451 -0.21295302 0.30375534 -0.18584363 0.00561456 -0.3328981 -0.28488013
0.17929406 -0.33700302 0.0947987 0.2612204 0.03720597 0.22594896 -0.15604982 0.12785527
-0.1917047 -0.06395824 -0.01827639 0.0939283 0.21313219 0.069367036 0.09234702 -0.19816868
-0.10842212 0.16701038 -0.27627948 0.31466317 0.28465572 0.11329755 -0.12247778 -0.29259557
0.30698928 -0.24068981 -0.19024333 -0.11511425 0.22109231 0.2577774 -0.25519562 -0.35582408
-0.013506176 -0.21379219 0.10761563 -0.31559503 -0.048249695 -0.024513014 -0.2453853 0.32432136
-0.37528944 -0.33285844 -0.19591874 0.111309804 -0.07412169 0.29539064 -0.090938926 0.11868693
-0.13558306 0.023030283 0.030127823 0.09777165 0.2960747 0.1259565 0.012224021 -0.13105965
-0.2113322 0.28387755 0.17434745 0.123109184 -0.17142394 0.18582897 0.040643003 -0.08930385
-0.022365624 0.13801163 0.19493112 0.09468025 0.23517644 -0.12605734 0.16757692 0.07574464
0.1069005 0.14410453 -0.07969882 -0.15481146 -0.012626993 0.30368653 0.25841066 0.20539027
-0.24358642 -0.23429002 0.23276697 -0.22820027 -0.26620555 0.23047511 -0.11459708 0.03107144
0.08288816 -0.12147916 0.09476617 -0.19589163 -0.29382026 -0.11832042 -0.20753889 -0.07981633
0.05407883 -0.0105270315 -0.30968434 -0.03687105 -0.11632767 -0.29512188 -0.17764026 -0.06338634
00000000: be8a 73be 907b 113e e16e bc3d 63fc 45be
00000010: c357 9bbe ae86 58be 3e40 e83d cc8a 4e3e
00000020: 2809 85be 6134 90bd a098 21be 6d91 423d
00000030: db79 6a3e f837 d33d 53a6 4b3d 111d 523e
00000040: bd3b b6bd dffa e63d 68b8 863e d9b4 7ebe
00000050: cb49 823d c37f 9ebe 86a3 d43c f244 b3be
00000060: 81fc 083d e04e 42be 4832 19be 4202 afbe
00000070: 3b23 81be f947 0e3b d8bb 873d 1687 89be
00000080: 9dc8 643d a007 7d3c 69d6 413e 5a57 97bd
00000090: 6800 a8be b8f4 a73e 3e2f 43be 9fee 373e
000000a0: dc80 033e aca7 9fbe 57ba b23d 3d56 7a3d
000000b0: a879 953e 8bf5 cf3d 87bf 673e c063 3b3e
000000c0: 3b11 4f3e a794 4ebe eab8 7ebd 3cb6 093e
000000d0: 46f2 a13e 8d8c 33be c95f a6be dbf1 fdbd
000000e0: d7ef 52bd 8e79 0bbd 7d42 8b3e 0343 66be
000000f0: b2de b3be e8c7 55bc da84 1cbd bf06 39be
00000100: e493 65be 444c 95be 81b2 ca3d 5202 8fbd
00000110: f329 1d3e 8d40 3cbd eda7 67be 2b85 c93d
00000120: c9b3 0cbd 8715 c23c 0a6c 65be 4bd2 993e
00000130: c60d e03c 22e5 5e3d 04d0 4d3e 3a86 763e
00000140: 64a2 b6be 3cf6 b23d c4a3 06be bca7 2abe
00000150: 69f5 dfbd 0115 433e dbe2 863c e07a 46be
00000160: 98aa 84be f863 58bb c572 01bc 7a5c a43e
00000170: 7541 643e 7326 053d 1ce1 0c3e 3f36 6dbe
00000180: efb5 bdbd c4b7 713e e303 b63e 72b2 ad3d
00000190: f345 473c c6e8 14be 8acc 31be 6237 4dbe
000001a0: 09ef 0bbd 363c dcbd 8d46 c33d a23f 953e
000001b0: 1252 8e3e 14fc c13d c8c6 59be e86b 3abd
000001c0: 2d04 60be e8f4 95be c742 843e 2c1d ae3d
000001d0: e1c5 593e 5575 603e ae34 89be f1c2 9ebd
000001e0: 4bd0 2d3d 7a6e ac3d 4b43 1ebe 9068 b5be
000001f0: 3f29 993e cd62 4d3e fc9d 3b3e 2c59 51be
00000200: 80db 003d 491c 92be 3523 1f3e c383 033e
00000210: 84f7 97be dbfe b33c 1915 98be f6b7 803d
00000220: 05b4 a53e bed3 97be 084f bcbc 677a 9a3e
00000230: c3b0 9f3d 6df9 153e e521 82be d9aa b4be
00000240: 3d2b 6abe 519a b7bc 5b10 5abe d285 9b3e
00000250: cb4d 3ebe 58fa b73b 9f71 aabe cfdb 91be
00000260: dd98 373e a98b acbe d225 c23d aebe 853e
00000270: 4a65 183d 2a5f 673e 86cb 1fbe 7eec 023e
00000280: 3d4e 44be 8afc 82bd 5eb8 95bc 7b5d c03d
00000290: 533f 5a3e 4e10 8e3d 6f20 bd3d bbec 4abe
000002a0: 6b0c debd c504 2b3e 8174 8dbe 881b a13e
000002b0: 65be 913e 8c08 e83d a1d5 fabd 16cf 95be
000002c0: b32d 9d3e 6477 76be 26cf 42be 05c1 ebbd
000002d0: 0666 623e 66fb 833e 00a9 82be 932e b6be
000002e0: 0249 5dbc 57ec 5abe 9565 dc3d ac95 a1be
000002f0: 79a1 45bd 84cf c8bc 4946 7bbe 730d a63e
00000300: f025 c0be 6c6c aabe ec9e 48be 65f6 e33d
00000310: 1dcd 97bd 713d 973e 303e babd 2212 f33d
00000320: 49d6 0abe 01aa bc3c a0ce f63c 813c c83d
00000330: 1a97 973e befa 003e 4347 483c 8034 06be
00000340: 7867 58be 6658 913e 2388 323e ab20 fc3d
00000350: c289 2fbe f349 3e3e 4779 263d f0e4 b6bd
00000360: 1d38 b7bc ec52 0d3e 069c 473e b8e7 c13d
00000370: 18d2 703e 2d15 01be 4999 2b3e 0120 9b3d
00000380: a6ee da3d 2390 133e 2339 a3bd e586 1ebe
00000390: 72e1 4ebc cd7c 9b3e 674e 843e d451 523e
000003a0: b86e 79be b9e9 6fbe 775a 6e3e 55ad 69be
000003b0: 184c 88be ab01 6c3e e0b1 eabd 8889 fe3c
000003c0: 45c1 a93d 11ca f8bd c414 c23d d197 48be
000003d0: 9c6f 96be fa51 f2bd 1385 54be be76 a3bd
000003e0: c381 5d3d 9279 2cbc f28e 9ebe 1906 17bd
000003f0: 343d eebd 371a 97be 54e7 35be b3d0 81bd

ntm.controller.lstm.weight_hh_l0 f4 [400, 100]
-0.27637574 0.006377227 -0.20690194 0.22951949 0.23321189 0.19104257 -0.24321567 -0.06652716
-0.17702864 0.23825017 -0.26580375 -0.1342318 0.20794001 -0.21560405 0.242484 0.014507504
-0.070734024 -0.12710692 -0.278104 -0.17165716 -0.11536589 -0.1839614 -0.21908706 -0.018711692
0.32836786 0.056320686 0.24762818 0.008384896 0.30504343 -0.072376326 -0.08078761 0.2559218
0.065686904 -0.10502237 0.105945066 0.19556575 0.13108192 -0.30417043 0.2176531 -0.31487364
0.32994696 0.18535252 -0.22181207 0.31289098 0.049471132 0.324626 -0.32586345 -0.28631446
0.10104057 0.2825217 0.13446248 0.16844796 0.022628874 0.018536313 -0.16722433 -0.16496164
0.11613308 -0.095710866 -0.10990577 0.19875313 -0.07506465 -0.14593902 -0.23063508 0.37174797
0.17276661 -0.17921531 -0.18115571 0.10453206 0.26245666 -0.35476476 0.031212239 0.0006145831
0.23825595 -0.1416928 0.22407602 -0.012514318 0.06782669 0.32888302 -0.23813169 0.19267435
-0.1304401 -0.31724992 0.29971847 0.2320205 0.26941943 -0.27363974 -0.30652523 -0.07272061
0.031423584 -0.1544199 0.17410848 0.23091705 -0.33102196 0.15019655 0.124021575 0.035721768
0.019047491 0.12215729 0.09947326 -0.29463086 0.33102518 -0.11671892 -0.1800641 -0.12131789
-0.17585056 0.20162238 -0.117600635 -0.016426077 0.13110837 -0.15294908 0.13922529 0.15732685
-0.28681722 0.15502658 -0.2139872 0.16418156 -0.19279481 -0.18881696 -0.13311735 -0.31022456
0.010851278 -0.15465939 0.03744485 0.010327048 0.21575163 -0.31404856 -0.32627764 -0.19798073
-0.07142858 0.20290919 0.30825263 0.18572207 0.38243166 -0.35196313 0.25531754 0.2100945
-0.04853418 -0.03549496 -0.2783442 -0.05744983 0.16622022 -0.2463456 0.32350603 0.23081304
-0.1377079 0.04694201 -0.052538436 -0.09650458 -0.005466741 -0.18203059 0.10375233 0.0005098868
0.16531242 0.031916697 -0.15203394 -0.31405714 0.25043696 0.12863173 -0.17790325 0.13137463
0.23127335 0.043315537 -0.21870984 -0.19465525 0.2648797 0.23156962 -0.19128568 0.009947951
0.3719178 -0.18062444 -0.28066403 0.21930653 -0.109700136 -0.1683319 -0.32097682 -0.25173703
0.05285786 0.19328828 0.11248752 -0.05915727 -0.040573303 0.24800956 0.08903157 0.23107491
0.069023944 0.3039911 -0.011341011 -0.18309441 0.087552965 0.24748056 -0.090312436 0.32817194
0.039293684 0.07851216 0.09955624 0.22677065 -0.008097533 0.34947526 0.21155661 0.31667095
-0.11078351 -0.061970063 0.27934223 -0.27183443 0.099943936 -0.10179709 0.17865552 0.23561086
0.06791848 0.15034804 0.04085132 -0.22258082 -0.18253545 -0.20324601 -0.14265516 0.30207676
0.11873656 0.29844847 0.3060931 -0.2899234 -0.19562447 0.34657648 -0.1607132 -0.30604747
-0.3155707 -0.26967302 0.20808221 -0.19526288 0.2666974 0.03730302 -0.33424422 -0.24819416
0.22472073 -0.1160969 -0.037517104 -0.21207723 -0.17669234 0.33978054 0.26074463 0.3115883
0.19439258 0.18061328 0.058637872 0.022429824 -0.14294283 0.25684896 0.31619543 0.031007698
0.16315469 -0.24220274 -0.06797491 -0.11483012 -0.21012335 0.19678082 -0.084538266 0.05016983
00000000: 1f81 8dbe 0ff8 d03b 1ade 53be 2807 6b3e
00000010: 19cf 6e3e aaa0 433e 870d 79be 643f 88bd
00000020: ff46 35be daf7 733e 6e17 88be 1074 09be
00000030: 3aee 543e 4fc7 5cbe ba4d 783e e2b0 6d3c
00000040: 00dd 90bd 5128 02be a663 8ebe e5c6 2fbe
00000050: f444 ecbd 6160 3cbe 5c58 60be 4349 99bc
00000060: d51f a83e 85b0 663d 3e92 7d3e ce60 093c
00000070: a72e 9c3e 0a3a 94bd f973 a5bd 2f08 833e
00000080: db86 863d f815 d7bd baf9 d83d 6342 483e
00000090: 573a 063e 3abc 9bbe 74e0 5e3e 1e37 a1be
000000a0: cfee a83e 0dcd 3d3e b422 63be 3f33 a03e
000000b0: 3ea2 4a3d 6135 a63e 93d7 a6be cf97 92be
000000c0: 5cee ce3d afa6 903e 88b0 093e 9f7d 2c3e
000000d0: 3060 b93c 77d9 973c db3c 2bbe b4eb 28be
000000e0: 2ed7 ed3d 0f04 c4bd 4716 e1bd f185 4b3e
000000f0: 7fbb 99bd 0a71 15be 9a2b 6cbe c055 be3e
00000100: bbe9 303e 3884 37be e280 39be e814 d63d
00000110: b860 863e baa3 b5be cfb0 ff3c f91b 213a
00000120: 5ef9 733e eb17 11be 2f74 653e db08 4dbc
00000130: b8e8 8a3d 5b63 a83e cbd8 73be 6d4c 453e
00000140: 1792 05be 956e a2be b374 993e c896 6d3e
00000150: 58f1 893e 821a 8cbe e0f0 9cbe 8bee 94bd
00000160: 04b6 003d 4020 1ebe 7e49 323e 8575 6c3e
00000170: b67b a9be 20cd 193e 06ff fd3d fd50 123d
00000180: 7c09 9c3c 9a2d fa3d a3b8 cb3d dbd9 96be
00000190: 227c a93e 540a efbd b962 38be 8475 f8bd
000001a0: 2b12 34be 1976 4e3e 9ad8 f0bd fb8f 86bc
000001b0: 4641 063e af9e 1cbe 1391 0e3e 4a1a 213e
000001c0: b5d9 92be 4abf 1e3e 761f 5bbe 361f 283e
000001d0: 016c 45be 3c59 41be ea4f 08be c1d5 9ebe
000001e0: 8fc9 313c 085f 1ebe c55f 193d c732 293c
000001f0: ffed 5c3e f9ca a0be dd0d a7be 76bb 4abe
00000200: 2649 92bd 6dc7 4f3e 4ad3 9d3e ed2d 3e3e
00000210: 15ce c33e 8334 b4be fbb8 823e 0323 573e
00000220: c7cb 46bd 2a63 11bd 2283 8ebe 8350 6bbd
00000230: a235 2a3e 0542 7cbe 95a2 a53e 415a 6c3e
00000240: 4d03 0dbe 4446 403d 8b32 57bd 31a4 c5bd
00000250: 5922 b3bb 3a66 3abe 1a7c d43d eda9 053a
00000260: a947 293e 15bb 023d c9ae 1bbe 19cc a0be
00000270: 4639 803e 09b8 033e 452c 36be 1287 063e
00000280: ecd2 6c3e a26b 313d 79f5 5fbe b553 47be
00000290: 509e 873e 9620 6d3e 65e0 43be bbfc 223c
000002a0: 036c be3e 9df5 38be 32b3 8fbe e491 603e
000002b0: 77aa e0bd 335f 2cbe 1357 a4be ade3 80be
000002c0: 7c81 583d 5ded 453e db5f e63d e54e 72bd
000002d0: 3130 26bd 38f6 7d3e 2f56 b63d e79e 6c3e
000002e0: 6d5c 8d3d b9a4 9b3e a6cf 39bc 1a7d 3bbe
000002f0: f84e b33d 8b6b 7d3e baf5 b8bd 2706 a83e
00000300: 6af2 203d fcca a03d 24e4 cb3d 9136 683e
00000310: 84ab 04bc 6cee b23e 4ca2 583e b222 a23e
00000320: 77e2 e2bd 52d4 7dbd f205 8f3e e22d 8bbe
00000330: 68af cc3d fe7a d0bd 79f1 363e f943 713e
00000340: d818 8b3d d6f4 193e b753 273d 3aec 63be
00000350: 93ea 3abe b91f 50be 3214 12be cea9 9a3e
00000360: 272c f33d 3dce 983e 3cb8 9c3e d770 94be
00000370: c851 48be 7972 b13e 0092 24be 41b2 9cbe
00000380: 7c92 a1be 9512 8abe 8113 553e fef2 47be
00000390: 908c 883e 0dcb 183d 0f22 abbe 9c26 7ebe
000003a0: 311d 663e 36c4 edbd 89ab 19bd c62a 59be
000003b0: d6ee 34be b7f7 ad3e 5280 853e 8088 9f3e
000003c0: d90e 473e b0f2 383e 442e 703d c0be b73c
000003d0: 9b5f 12be b581 833e 5ee4 a13e db03 fe3c
000003e0: 0612 273e ff03 78be 6e36 8bbd 0e2c ebbd
000003f0: 932a 57be e980 493e 6622 adbd e17e 4d3d

ntm.controller.lstm.bias_ih_l0 f4 [400]
0.02490753 0.009937992 -0.0010870553 0.002721901 -0.014778395 -0.01337027 -0.0042204387 -0.011903721
-0.0018166397 -0.015598487 -0.0060211574 -0.027454332 -0.008000314 -0.0013675316 -0.023227932 0.016360639
0.020768518 0.00452303 -0.01364729 -0.01695591 -0.016347283 -0.018751113 0.0073161474 -0.0058179474
0.030145241 0.0047517247 0.011490368 0.005915648 0.012922588 -0.012668502 0.009274275 -0.0017802842
0.0035208664 0.017740095 -0.006807104 -0.007771955 -0.006553723 -0.0027799422 -0.018071132 -0.024324592
0.0031728128 0.01378279 -0.012771268 -0.012639877 0.01999183 0.005280024 -0.012066799 0.02499499
-0.0021783633 0.0060332776 -0.018029362 -0.016253 0.001721399 -0.0070765116 -0.0065854103 -0.00859323
0.0046469485 0.0013415632 -0.026576405 0.014717891 -0.010646147 0.02704034 0.00744908 -0.02155595
0.0069519617 0.011548527 -0.014078963 0.023008378 0.00805367 -0.030192992 -0.04038458 0.0118258605
-0.02229449 -0.011164108 -0.013606707 -0.004611005 -0.01492997 -0.015044237 -0.033203654 -0.018399255
-0.0092877485 -0.011817158 -0.044347696 0.0034801045 -0.0007596561 -0.01597652 0.0048541096 0.008428426
0.01232168 0.024466792 0.028527912 -0.011558242 -0.011986443 0.013606167 -0.0058672954 0.0014384084
0.010372593 -0.009914242 -0.01317533 0.026571093 0.019801658 0.026296973 0.013191746 -0.006180048
-0.010248074 0.0038470572 0.0024788177 -0.006898252 0.019656124 -0.023950431 -0.018430775 -0.01588479
-0.010001206 0.003798868 0.002406806 0.026392223 0.017896898 -0.011259112 -0.004944313 -0.00889209
-0.01602793 -0.021042744 0.027644709 0.0039618253 0.021848278 0.0070205713 0.017369475 0.022468705
0.0101531 -0.017195776 0.0187116 -0.004385525 -0.0053616464 0.0080753425 -0.0111681875 0.0019957027
-0.014763255 -0.0008364881 -0.02486217 -0.030043075 0.0116696125 0.02027203 -0.0070459964 -0.026178667
0.026334627 0.011577623 -0.008811178 0.030001227 -0.00025212357 0.011621194 -0.008608005 -0.009608926
0.009143694 -0.0012946893 0.026625771 -0.0065761805 0.00754891 -0.004183756 -0.014224885 0.014640373
-0.013958688 0.027838506 0.008952485 -0.025159715 0.013515448 0.021454362 -0.017273773 0.03271778
0.025576517 -0.011533456 -0.025417205 0.012174716 -0.021983486 -0.0054632593 -0.012735773 -0.0028068263
-0.016803037 -0.012837942 -0.023439655 0.0031832242 -0.014346821 -0.018636087 -0.050682712 0.010453764
0.0007510989 -0.020481491 0.006695811 0.018468222 0.016767152 0.030679632 0.0291885 -0.010520307
-0.03010011 0.0107092 0.011956836 -0.0073475414 0.018197212 -0.008430137 0.010630881 0.027393641
0.015194925 -0.0042731217 0.001519236 -0.00048301098 -0.014422442 0.004734941 0.0037226274 -0.0072824406
-0.010611463 -0.014685175 0.017397067 0.0053561404 0.016416159 -0.007415413 -0.0031626502 -0.009840984
-0.022009928 0.005774648 0.0053426237 -0.006987687 0.027106103 -0.026661674 0.014188943 0.00025478634
0.0066538886 0.008643564 0.012440978 -0.00026354296 -0.031432547 -0.0175536 -0.008736415 0.021090006
-0.019327346 0.0036810345 0.031597853 -0.016273426 -0.008538614 0.0074304054 -0.004713315 -0.023700463
-0.016951086 -0.0004017534 -0.011022654 -0.008155927 0.007141372 0.0056460775 0.019770268 -0.044681642
0.041190986 0.004764375 -0.018130768 0.0023709894 0.023459459 0.006694692 -0.009370934 0.011040204
00000000: e00a cc3c f6d2 223c 867b 8eba ec61 323b
00000010: 1521 72bc fa0e 5bbc 9b4b 8abb d307 43bc
00000020: 501c eeba cc90 7fbc 214d c5bb e8e7 e0bc
00000030: c013 03bc bf3e b3ba 8148 bebc bf06 863c
00000040: bd22 aa3c ed35 943b e298 5fbc 1fe7 8abc
00000050: bdea 85bc ef9b 99bc 4bbc ef3b 7ba4 bebb
00000060: 27f3 f63c 5bb4 9b3b 1942 3c3c 0dd8 c13b
00000070: 43b9 533c 8c8f 4fbc 21f3 173c 6d58 e9ba
00000080: 56be 663b ad53 913c 210e dfbb e2ab febb
00000090: 9dc0 d6bb b12f 36bb e909 94bc 5e44 c7bc
000000a0: f7ee 4f3b 36d1 613c 953e 51bc 7d17 4fbc
000000b0: e8c5 a33c 0d04 ad3b d3b3 45bc 4bc2 cc3c
000000c0: dfc2 0ebb cdb2 c53b 50b2 93bc 0325 85bc
000000d0: 91a0 e13a 15e2 e7bb 6dca d7bb 9eca 0cbc
000000e0: 6e45 983b 64d7 af3a c3b6 d9bc 4f23 713c
000000f0: 2d6d 2ebc b483 dd3c 6917 f43b 1b96 b0bc
00000100: 48cd e33b 0836 3d3c 73ab 66bc 117c bc3c
00000110: 8af3 033c 4b57 f7bc 4d6a 25bd 41c1 413c
00000120: efa2 b6bc aae9 36bc aaee 5ebc ea17 97bb
00000130: d59c 74bc 1a7c 76bc 8e00 08bd 09ba 96bc
00000140: a42b 18bc c19c 41bc eea5 35bd 7712 643b
00000150: a823 47ba 31e1 82bc 390f 9f3b 6217 0a3c
00000160: dfe0 493c 956e c83c 5eb3 e93c c85e 3dbc
00000170: c962 44bc 67ec 5e3c 7142 c0bb fa88 bc3a
00000180: cff1 293c 586f 22bc 57dd 57bc 9fab d93c
00000190: 1637 a23c c06c d73c 3122 583c 0082 cabb
000001a0: 8ae7 27bc e91e 7c3b a973 223b bb0a e2bb
000001b0: e105 a13c b233 c4bc 23fc 96bc d220 82bc
000001c0: 19dc 23bc 6ef6 783b 81bb 1d3b 8134 d83c
000001d0: 849c 923c 2378 38bc e703 a2bb 21b0 11bc
000001e0: 014d 83bc d561 acbc 2877 e23c 33d2 813b
000001f0: 29fb b23c d20c e63b 6e4a 8e3c 4a10 b83c
00000200: 3059 263c 28de 8cbc 1249 993c 73b4 8fbb
00000210: c0b0 afbb 714e 043c c6fa 36bc 56ca 023b
00000220: 94e1 71bc c447 5bba c0ab cbbc e51c f6bc
00000230: e731 3f3c 8711 a63c 1ae2 e6bb a574 d6bc
00000240: b7bb d73c 12b0 3d3c c25c 10bc 22c5 f53c
00000250: 742f 84b9 d266 3e3c 9708 0dbc c26e 1dbc
00000260: 6fcf 153c 90b2 a9ba 4a1e da3c 007d d7bb
00000270: d95c f73b e417 89bb 7e0f 69bc 2dde 6f3c
00000280: fbb2 64bc 940d e43c 72ad 123c bf1b cebc
00000290: e66f 5d3c 0fc1 af3c ba81 8dbc 1403 063d
000002a0: d885 d13c d2f6 3cbc be37 d0bc 7678 473c
000002b0: b616 b4bc 2405 b3bb b4a9 50bc bbf2 37bb
000002c0: 86a6 89bc 3b56 52bc 8504 c0bc a49d 503b
000002d0: ee0e 6bbc b5aa 98bc ad98 4fbd 4446 2b3c
000002e0: 65e5 443a cdc8 a7bc 8968 db3b ab4a 973c
000002f0: 445b 893c da53 fb3c b91c ef3c 5e5d 2cbc
00000300: 8294 f6bc a475 2f3c 9be6 433c a5c3 f0bb
00000310: 5212 953c 8f1e 0abc 262d 2e3c a168 e03c
00000320: 22f4 783c 8b05 8cbb 1a21 c73a a33c fdb9
00000330: 1b4c 6cbc 9027 9b3b 53f7 733b 8aa1 eebb
00000340: b4db 2dbc 179a 70bc 4b84 8e3c 9082 af3b
00000350: 2e7b 863c fefc f2bb 7744 4fbb 143c 21bc
00000360: 2a4e b4bc 4239 bd3b 2d11 af3b f8f8 e4bb
00000370: 9e0d de3c 9569 dabc be78 683c d894 8539
00000380: dd08 da3b bc9d 0d3c 3ed5 4b3c 232c 8ab9
00000390: 6abf 00bd 91cc 8fbc 2e23 0fbc f3c4 ac3c
000003a0: 6254 9ebc 833d 713b c06c 013d d94f 85bc
000003b0: 8be5 0bbc c27a f33b 2772 9abb 7927 c2bc
000003c0: 01dd 8abc 6ea2 d2b9 5d98 34bc 70a0 05bc
000003d0: 2c02 ea3b bb02 b93b 42f5 a13c 1904 37bd
000003e0: e1b7 283d 791e 9c3b fa86 94bc 9a62 1b3b
000003f0: 0d2e c03c 265f db3b 8c88 19bc f9e1 343c

ntm.controller.lstm.bias_hh_l0 f4 [400]
0.02490753 0.009937992 -0.0010870553 0.002721901 -0.014778395 -0.01337027 -0.0042204387 -0.011903721
-0.0018166397 -0.015598487 -0.0060211574 -0.027454332 -0.008000314 -0.0013675316 -0.023227932 0.016360639
0.020768518 0.00452303 -0.01364729 -0.01695591 -0.016347283 -0.018751113 0.0073161474 -0.0058179474
0.030145241 0.0047517247 0.011490368 0.005915648 0.012922588 -0.012668502 0.009274275 -0.0017802842
0.0035208664 0.017740095 -0.006807104 -0.007771955 -0.006553723 -0.0027799422 -0.018071132 -0.024324592
0.0031728128 0.01378279 -0.012771268 -0.012639877 0.01999183 0.005280024 -0.012066799 0.02499499
-0.0021783633 0.0060332776 -0.018029362 -0.016253 0.001721399 -0.0070765116 -0.0065854103 -0.00859323
0.0046469485 0.0013415632 -0.026576405 0.014717891 -0.010646147 0.02704034 0.00744908 -0.02155595
0.0069519617 0.011548527 -0.014078963 0.023008378 0.00805367 -0.030192992 -0.04038458 0.0118258605
-0.02229449 -0.011164108 -0.013606707 -0.004611005 -0.01492997 -0.015044237 -0.033203654 -0.018399255
-0.0092877485 -0.011817158 -0.044347696 0.0034801045 -0.0007596561 -0.01597652 0.0048541096 0.008428426
0.01232168 0.024466792 0.028527912 -0.011558242 -0.011986443 0.013606167 -0.0058672954 0.0014384084
0.010372593 -0.009914242 -0.01317533 0.026571093 0.019801658 0.026296973 0.013191746 -0.006180048
-0.010248074 0.0038470572 0.0024788177 -0.006898252 0.019656124 -0.023950431 -0.018430775 -0.01588479
-0.010001206 0.003798868 0.002406806 0.026392223 0.017896898 -0.011259112 -0.004944313 -0.00889209
-0.01602793 -0.021042744 0.027644709 0.0039618253 0.021848278 0.0070205713 0.017369475 0.022468705
0.0101531 -0.017195776 0.0187116 -0.004385525 -0.0053616464 0.0080753425 -0.0111681875 0.0019957027
-0.014763255 -0.0008364881 -0.02486217 -0.030043075 0.0116696125 0.02027203 -0.0070459964 -0.026178667
0.026334627 0.011577623 -0.008811178 0.030001227 -0.00025212357 0.011621194 -0.008608005 -0.009608926
0.009143694 -0.0012946893 0.026625771 -0.0065761805 0.00754891 -0.004183756 -0.014224885 0.014640373
-0.013958688 0.027838506 0.008952485 -0.025159715 0.013515448 0.021454362 -0.017273773 0.03271778
0.025576517 -0.011533456 -0.025417205 0.012174716 -0.021983486 -0.0054632593 -0.012735773 -0.0028068263
-0.016803037 -0.012837942 -0.023439655 0.0031832242 -0.014346821 -0.018636087 -0.050682712 0.010453764
0.0007510989 -0.020481491 0.006695811 0.018468222 0.016767152 0.030679632 0.0291885 -0.010520307
-0.03010011 0.0107092 0.011956836 -0.0073475414 0.018197212 -0.008430137 0.010630881 0.027393641
0.015194925 -0.0042731217 0.001519236 -0.00048301098 -0.014422442 0.004734941 0.0037226274 -0.0072824406
-0.010611463 -0.014685175 0.017397067 0.0053561404 0.016416159 -0.007415413 -0.0031626502 -0.009840984
-0.022009928 0.005774648 0.0053426237 -0.006987687 0.027106103 -0.026661674 0.014188943 0.00025478634
0.0066538886 0.008643564 0.012440978 -0.00026354296 -0.031432547 -0.0175536 -0.008736415 0.021090006
-0.019327346 0.0036810345 0.031597853 -0.016273426 -0.008538614 0.0074304054 -0.004713315 -0.023700463
-0.016951086 -0.0004017534 -0.011022654 -0.008155927 0.007141372 0.0056460775 0.019770268 -0.044681642
0.041190986 0.004764375 -0.018130768 0.0023709894 0.023459459 0.006694692 -0.009370934 0.011040204
00000000: e00a cc3c f6d2 223c 867b 8eba ec61 323b
00000010: 1521 72bc fa0e 5bbc 9b4b 8abb d307 43bc
00000020: 501c eeba cc90 7fbc 214d c5bb e8e7 e0bc
00000030: c013 03bc bf3e b3ba 8148 bebc bf06 863c
00000040: bd22 aa3c ed35 943b e298 5fbc 1fe7 8abc
00000050: bdea 85bc ef9b 99bc 4bbc ef3b 7ba4 bebb
00000060: 27f3 f63c 5bb4 9b3b 1942 3c3c 0dd8 c13b
00000070: 43b9 533c 8c8f 4fbc 21f3 173c 6d58 e9ba
00000080: 56be 663b ad53 913c 210e dfbb e2ab febb
00000090: 9dc0 d6bb b12f 36bb e909 94bc 5e44 c7bc
000000a0: f7ee 4f3b 36d1 613c 953e 51bc 7d17 4fbc
000000b0: e8c5 a33c 0d04 ad3b d3b3 45bc 4bc2 cc3c
000000c0: dfc2 0ebb cdb2 c53b 50b2 93bc 0325 85bc
000000d0: 91a0 e13a 15e2 e7bb 6dca d7bb 9eca 0cbc
000000e0: 6e45 983b 64d7 af3a c3b6 d9bc 4f23 713c
000000f0: 2d6d 2ebc b483 dd3c 6917 f43b 1b96 b0bc
00000100: 48cd e33b 0836 3d3c 73ab 66bc 117c bc3c
00000110: 8af3 033c 4b57 f7bc 4d6a 25bd 41c1 413c
00000120: efa2 b6bc aae9 36bc aaee 5ebc ea17 97bb
00000130: d59c 74bc 1a7c 76bc 8e00 08bd 09ba 96bc
00000140: a42b 18bc c19c 41bc eea5 35bd 7712 643b
00000150: a823 47ba 31e1 82bc 390f 9f3b 6217 0a3c
00000160: dfe0 493c 956e c83c 5eb3 e93c c85e 3dbc
00000170: c962 44bc 67ec 5e3c 7142 c0bb fa88 bc3a
00000180: cff1 293c 586f 22bc 57dd 57bc 9fab d93c
00000190: 1637 a23c c06c d73c 3122 583c 0082 cabb
000001a0: 8ae7 27bc e91e 7c3b a973 223b bb0a e2bb
000001b0: e105 a13c b233 c4bc 23fc 96bc d220 82bc
000001c0: 19dc 23bc 6ef6 783b 81bb 1d3b 8134 d83c
000001d0: 849c 923c 2378 38bc e703 a2bb 21b0 11bc
000001e0: 014d 83bc d561 acbc 2877 e23c 33d2 813b
000001f0: 29fb b23c d20c e63b 6e4a 8e3c 4a10 b83c
00000200: 3059 263c 28de 8cbc 1249 993c 73b4 8fbb
00000210: c0b0 afbb 714e 043c c6fa 36bc 56ca 023b
00000220: 94e1 71bc c447 5bba c0ab cbbc e51c f6bc
00000230: e731 3f3c 8711 a63c 1ae2 e6bb a574 d6bc
00000240: b7bb d73c 12b0 3d3c c25c 10bc 22c5 f53c
00000250: 742f 84b9 d266 3e3c 9708 0dbc c26e 1dbc
00000260: 6fcf 153c 90b2 a9ba 4a1e da3c 007d d7bb
00000270: d95c f73b e417 89bb 7e0f 69bc 2dde 6f3c
00000280: fbb2 64bc 940d e43c 72ad 123c bf1b cebc
00000290: e66f 5d3c 0fc1 af3c ba81 8dbc 1403 063d
000002a0: d885 d13c d2f6 3cbc be37 d0bc 7678 473c
000002b0: b616 b4bc 2405 b3bb b4a9 50bc bbf2 37bb
000002c0: 86a6 89bc 3b56 52bc 8504 c0bc a49d 503b
000002d0: ee0e 6bbc b5aa 98bc ad98 4fbd 4446 2b3c
000002e0: 65e5 443a cdc8 a7bc 8968 db3b ab4a 973c
000002f0: 445b 893c da53 fb3c b91c ef3c 5e5d 2cbc
00000300: 8294 f6bc a475 2f3c 9be6 433c a5c3 f0bb
00000310: 5212 953c 8f1e 0abc 262d 2e3c a168 e03c
00000320: 22f4 783c 8b05 8cbb 1a21 c73a a33c fdb9
00000330: 1b4c 6cbc 9027 9b3b 53f7 733b 8aa1 eebb
00000340: b4db 2dbc 179a 70bc 4b84 8e3c 9082 af3b
00000350: 2e7b 863c fefc f2bb 7744 4fbb 143c 21bc
00000360: 2a4e b4bc 4239 bd3b 2d11 af3b f8f8 e4bb
00000370: 9e0d de3c 9569 dabc be78 683c d894 8539
00000380: dd08 da3b bc9d 0d3c 3ed5 4b3c 232c 8ab9
00000390: 6abf 00bd 91cc 8fbc 2e23 0fbc f3c4 ac3c
000003a0: 6254 9ebc 833d 713b c06c 013d d94f 85bc
000003b0: 8be5 0bbc c27a f33b 2772 9abb 7927 c2bc
000003c0: 01dd 8abc 6ea2 d2b9 5d98 34bc 70a0 05bc
000003d0: 2c02 ea3b bb02 b93b 42f5 a13c 1904 37bd
000003e0: e1b7 283d 791e 9c3b fa86 94bc 9a62 1b3b
000003f0: 0d2e c03c 265f db3b 8c88 19bc f9e1 343c

ntm.controller.lstm.weight_ih_l1 f4 [400, 100]
-0.26375705 0.18106982 -0.20335631 -0.1713766 0.012768464 0.049864925 -0.05538373 -0.2794767
0.031330813 -0.3355471 0.24144155 0.288183 0.23033798 -0.13479987 -0.06912999 -0.08492316
-0.026487613 0.059058964 -0.0073063346 -0.07651965 0.002860979 -0.16312398 -0.10185226 -0.2520937
-0.02095407 -0.23818181 -0.18844599 -0.10509792 0.10183124 0.30019623 -0.116337806 -0.32059246
0.27358148 0.20247966 0.18539213 -0.32699037 0.082427345 -0.156962 0.34513962 0.14966473
-0.18967119 0.26506642 -0.33289963 -0.22964893 -0.14582731 -0.21276703 0.060556415 -0.11710215
-0.004090644 -0.07278037 0.23057823 -0.33210492 0.05418379 -0.21204266 -0.16101891 0.31997246
0.27626917 0.077865854 -0.14256248 -0.09450116 0.10304818 -0.2093738 0.090971276 -0.26155198
0.13432671 0.0063567506 -0.2971278 0.25780943 -0.12359537 0.2383145 0.20519803 0.31314123
-0.27324748 0.13926092 -0.0012588613 -0.02329686 0.20131506 0.21951367 0.20118478 0.06356731
0.3250047 -0.23672687 0.014895449 -0.18661223 0.24943401 -0.1736833 0.067424275 -0.08563094
0.3085889 0.21108326 -0.17472558 0.34500507 0.18907203 0.2604678 0.32425776 -0.1772702
0.10581391 0.24853715 0.18782157 0.21816382 -0.29316622 0.24221016 -0.14209951 0.19023773
-0.088184975 0.10407161 0.3678935 -0.26402816 0.34713125 0.2505526 0.12538758 0.00073852134
0.2484832 -0.061519403 0.17416513 0.21176034 -0.050629597 0.32232082 -0.032064214 0.019085133
0.28692177 -0.19209732 0.25541893 -0.26039878 0.10498738 0.08466155 -0.02716151 0.16725329
-0.3072475 0.0020595195 -0.25296423 -0.33564737 -0.29304388 -0.123076834 -0.30040613 -0.23559938
-0.27811626 0.019936606 -0.18775314 0.18052132 -0.18865187 0.0849543 -0.21008821 0.29734316
-0.0021310144 0.14943908 -0.27824032 -0.009875726 -0.1087119 0.12665145 -0.17300025 0.10427052
0.26499447 0.2898564 -0.2929051 0.14422207 0.27976224 0.2252688 -0.20557852 0.16031848
-0.0024802478 0.07326582 -0.19008425 0.11113154 -0.13076644 -0.24602954 -0.35660684 0.18560448
-0.2715082 0.20243502 -0.12151644 0.25022504 0.13278474 -0.22559276 -0.31969425 0.31852916
0.21809949 -0.32635427 -0.29836535 0.26853493 -0.05834935 0.13239935 0.32814276 -0.063703164
0.08734991 0.26848137 -0.19410233 0.02764988 -0.31148675 -0.3317542 -0.08288674 -0.15989766
-0.019564306 0.25273153 -0.028948246 -0.15000746 -0.21503292 -0.31533957 -0.057960898 0.068636484
-0.19161825 -0.21728806 0.10721946 0.0013327606 -0.19424774 0.2720135 -0.11432734 -0.05676623
-0.17287236 0.17378606 -0.27182406 0.26844415 0.106837764 -0.001476116 -0.35611352 -0.3278036
0.2742078 0.07232859 0.2764506 -0.19559734 0.15453263 -0.022952626 0.15317233 0.021004565
0.1524295 0.2062719 -0.18707158 0.31233543 -0.037749108 -0.12225456 -0.25298598 -0.2055178
-0.12864271 0.31502795 -0.15614499 0.2173599 0.07548776 -0.1467676 0.32098308 0.14299908
-0.33465555 -0.21631867 0.12723835 -0.24724099 -0.19232772 -0.009465731 -0.30565044 0.23014747
0.28852203 0.16876462 -0.28903112 0.24406156 -0.20251276 -0.085416675 -0.12388838 -0.30180585
00000000: 2a0b 87be 5e6a 393e a33c 50be 597d 2fbe
00000010: d232 513c 2a3f 4c3d 0dda 62bd 9217 8fbe
00000020: bd54 003d d4cc abbe 743c 773e b98c 933e
00000030: b8dd 6b3e fa08 0abe 0694 8dbd 32ec adbd
00000040: 8dfc d8bc d0e7 713d fa69 efbb 56b6 9cbd
00000050: 437f 3b3b f909 27be eb97 d0bd 6d12 81be
00000060: dfa7 abbc efe5 73be fcf7 40be 943d d7bd
00000070: e68c d03d 52b3 993e 8442 eebd b224 a4be
00000080: df12 8c3e d456 4f3e 6fd7 3d3e 486b a7be
00000090: abcf a83d a6ba 20be 24b6 b03e b641 193e
000000a0: 2a39 42be c9b6 873e d271 aabe 1729 6bbe
000000b0: c153 15be 9adf 59be 010a 783d 41d3 efbd
000000c0: cf0a 86bb e00d 95bd b31c 6c3e a809 aabe
000000d0: d2ef 5d3d b621 59be 24e2 24be 6ed3 a33e
000000e0: 2773 8d3e 2278 9f3d e6fb 11be d389 c1bd
000000f0: ed0a d33d 1666 56be 264f ba3d 24ea 85be
00000100: f18c 093e 4a4c d03b 2321 98be 99ff 833e
00000110: 921f fdbd b708 743e 6f1f 523e 0c54 a03e
00000120: 18e7 8bbe 6a9a 0e3e 6000 a5ba 0ed9 bebc
00000130: 8925 4e3e 31c8 603e 6203 4e3e 942f 823d
00000140: 0467 a63e 8768 72be 0b0c 743c 4717 3fbe
00000150: a16b 7f3e 09da 31be bd15 8a3d 465f afbd
00000160: 5dff 9d3e 3626 583e 43eb 32be 81a4 b03e
00000170: 199c 413e 095c 853e 1d05 a63e 5286 35be
00000180: f7b4 d83d 8680 7e3e 4c54 403e 5666 5f3e
00000190: e219 96be f105 783e 8982 11be aecd 423e
000001a0: 539a b4bd 7f23 d53d 895c bc3e b32e 87be
000001b0: 30bb b13e 6e48 803e 9a65 003e 5499 413a
000001c0: 6172 7e3e c5fb 7bbd 5858 323e b4d7 583e
000001d0: fb60 4fbd 3c07 a53e c455 03bd 6d58 9c3c
000001e0: 69e7 923e 29b5 44be 45c6 823e fd52 85be
000001f0: a003 d73d 0963 ad3d d181 debc 7244 2b3e
00000200: 8b4f 9dbe 01f9 063b 8784 81be f9d9 abbe
00000210: d909 96be b50f fcbd d5ce 99be f740 71be
00000220: 4165 8ebe 1852 a33c 5c42 40be 95da 383e
00000230: f52d 41be 85fc ad3d 5d21 57be 5d3d 983e
00000240: 7da8 0bbb 8f06 193e 8475 8ebe cccd 21bc
00000250: 58a4 debd ebb0 013e fa26 31be c88b d53d
00000260: 5bad 873e 0f68 943e a8f7 95be f3ae 133e
00000270: ff3c 8f3e ddac 663e 2d83 52be 872a 243e
00000280: a78b 22bb 640c 963d 72a5 42be ef98 e33d
00000290: a3e7 05be 2bef 7bbe 2c95 b6be 1a0f 3e3e
000002a0: 1f03 8bbe 204b 4f3e 9cdd f8bd 7f1d 803e
000002b0: b9f8 073e ca01 67be f7ae a3be 4116 a33e
000002c0: 7955 5f3e e817 a7be 58c3 98be 697d 893e
000002d0: baff 6ebd b293 073e 5402 a83e ce76 82bd
000002e0: 82e4 b23d 6476 893e c3c2 46be 0082 e23c
000002f0: 317b 9fbe b0db a9be 86c0 a9bd 36bc 23be
00000300: 5345 a0bc 0766 813e df24 edbc 8e9b 19be
00000310: 9731 5cbe 3074 a1be 6868 6dbd 4991 8c3d
00000320: 9337 44be c380 5ebe e095 db3d 06b0 ae3a
00000330: e1e8 46be 5a45 8b3e 7424 eabd b583 68bd
00000340: 7405 31be f9f4 313e 862c 8bbe 8371 893e
00000350: c2cd da3d 3c7a c1ba 8354 b6be e0d5 a7be
00000360: f764 8c3e 0321 943d ef8a 8d3e ab4a 48be
00000370: cd3d 1e3e 2507 bcbc 35d9 1c3e c411 ac3c
00000380: 7b16 1c3e f138 533e b18f 3fbe 6eea 9f3e
00000390: cf9e 1abd 9960 fabd 6187 81be 4273 52be
000003a0: eaba 03be 584b a13e 79e4 1fbe 9893 5e3e
000003b0: 5499 9a3d 3f4a 16be e557 a43e 5a6e 123e
000003c0: f957 abbe a482 5dbe c54a 023e be2c 7dbe
000003d0: 8ff1 44be 2716 1bbc 377e 9cbe c7ab 6b3e
000003e0: 29b9 933e a2d0 2c3e e3fb 93be 46eb 793e
000003f0: 815f 4fbe f0ee aebd 31b9 fdbd 4c86 9abe

ntm.controller.lstm.weight_hh_l1 f4 [400, 100]
0.22138165 0.058016635 -0.3411525 -0.010542972 0.046736486 -0.1327506 0.18218584 0.01263285
0.19730195 -0.31013003 -0.0070302673 -0.03966639 0.05230062 -0.014020682 -0.18998685 -0.33461663
-0.17872153 0.33746648 -0.08154647 -0.004419356 0.08415169 0.19457112 0.15001266 0.08823076
0.16558623 0.006958829 -0.14558502 0.2847081 0.22930136 0.083904184 0.20366657 -0.31078166
-0.057756305 0.32300204 -0.22977313 0.082907885 0.23496947 -0.116268866 0.24619514 0.086899005
0.039552644 0.3095998 0.14203848 0.30438524 -0.19473733 -0.19699411 0.16729222 -0.25825635
0.0061212466 -0.3355759 -0.24135733 0.25684154 -0.006240973 0.048903473 0.08664218 -0.26598424
-0.107341066 0.23311956 -0.2795565 0.22521023 -0.14634953 -0.17439452 -0.26025304 -0.23776709
-0.35303614 -0.014005265 0.2549774 -0.2839117 0.04164249 0.0404875 0.11037531 -0.056994
0.18818519 -0.31965834 0.1490717 -0.17914839 0.25587475 -0.0912721 0.11529092 0.043643285
0.031060679 0.17763345 0.012658817 0.038706094 0.14575383 0.21939382 -0.3278756 0.20374255
0.19293773 0.14363976 -0.32962936 -0.19165915 0.10257523 0.2578103 -0.24686483 -0.10982834
-0.29789853 -0.089186214 -0.0003504587 0.22836837 -0.13071413 -0.20325539 -0.2163314 0.3160227
0.11135207 -0.28411523 -0.19570817 -0.0067360327 -0.07924317 -0.16089343 -0.25677755 0.33761945
0.041582562 0.30887386 -0.19623655 -0.2692253 0.29820466 0.12617292 -0.14294878 0.34425098
-0.024195315 -0.026719874 0.014959797 -0.06795605 0.19549367 -0.20491692 -0.28324124 -0.2973546
-0.086627044 0.33540666 -0.011222083 0.15482107 0.15998611 0.14080933 -0.04694755 0.08068778
-0.2747725 -0.2703185 0.12994511 -0.020444294 -0.3182766 0.2561881 -0.38667083 0.1213945
-0.10208157 0.30084077 0.14247085 -0.26792923 0.11352357 0.1148273 -0.2203906 -0.3492878
0.047510833 -0.2785578 0.15675457 -0.05946378 0.21369687 0.025985286 0.23294838 0.32541725
-0.12503046 0.079503104 -0.20587501 0.0917935 0.0439514 -0.26722473 -0.255139 0.29840615
-0.1531271 0.26697668 -0.06823861 0.26825613 -0.14008047 -0.2681655 0.2092674 0.030532293
0.21062294 -0.17075461 0.2825944 0.20168422 -0.28369868 0.24969915 -0.122065276 0.19821185
-0.13071854 0.1652652 0.11167637 -0.2026605 0.17746602 0.015284855 0.096262194 -0.32971027
0.07768351 0.24341719 0.30416873 0.27733025 0.31728128 0.19758996 -0.18263459 0.32211992
0.15708914 0.27792308 -0.1535251 -0.05344589 -0.28319517 -0.25184456 0.0486838 0.23050869
0.13639621 0.17064302 0.12876108 0.21170442 -0.17514236 -0.07664509 0.078104466 -0.13991785
0.33552006 0.14389902 0.21876554 -0.14264785 -0.03558418 0.008628105 -0.3226047 0.27990764
-0.041252613 -0.28494492 -0.22160077 0.24840616 0.26657578 0.08729145 0.2956733 0.071661346
0.25671962 -0.35042763 -0.04712514 -0.034275163 -0.037310738 -0.042349502 0.004481422 -0.0060629356
-0.29615405 -0.22923353 -0.03568514 -0.03430905 0.29506972 -0.30036542 0.07305827 0.13275428
-0.29424572 0.14512044 0.07678773 0.17667209 -0.18701656 0.326951 0.14598142 0.005339815
00000000: dfb1 623e daa2 6d3d 8aab aebe 6ebc 2cbc
00000010: c26e 3f3d c6ef 07be ed8e 3a3e 03fa 4e3c
00000020: 8609 4a3e 5dc9 9ebe 285e e6bb 3979 22bd
00000030: 2d39 563d 01b7 65bc ea8b 42be df52 abbe
00000040: c702 37be 68c8 ac3e d601 a7bd 3fd0 90bb
00000050: b957 ac3d a73d 473e eb9c 193e 54b2 b43d
00000060: 708f 293e e306 e43b 3d14 15be 43c5 913e
00000070: facd 6a3e f5d5 ab3d f88d 503e c61e 9fbe
00000080: e091 6cbd 8660 a53e a649 6bbe 9ccb a93d
00000090: d69b 703e 5f1e eebd 941a 7c3e 1bf8 b13d
000000a0: f401 223d dd83 9e3e 8972 113e 62d8 9b3e
000000b0: 3969 47be d3b8 49be a74e 2b3e 2d3a 84be
000000c0: bd94 c83b 9bd0 abbe 6026 77be bc80 833e
000000d0: 1381 ccbb 024f 483d 7571 b13d 162f 88be
000000e0: a2d5 dbbd e5b6 6e3e 0822 8fbe 839d 663e
000000f0: a7dc 15be 7a94 32be e33f 85be 3779 73be
00000100: 27c1 b4be 5776 65bc 668c 823e e05c 91be
00000110: 5191 2a3d 39d6 253d 730c e23d 8a72 69bd
00000120: 9eb3 403e 42aa a3be 40a6 183e ad72 37be
00000130: 0402 833e deec babd a51d ec3d 4dc3 323d
00000140: f772 fe3c 8be5 353e ed66 4f3c 488a 1e3d
00000150: 7e40 153e c6a8 603e 50df a7be e3a1 503e
00000160: 7891 453e 4d16 133e 2ec5 a8be 4c42 44be
00000170: f612 d23d b6ff 833e 22ca 7cbe aeed e0bd
00000180: 2886 98be 43a7 b6bd c5bd b7b9 66d9 693e
00000190: edd9 05be 2e22 50be fb85 5dbe bacd a13e
000001a0: 8e0c e43d 8d77 91be b967 48be f0b9 dcbb
000001b0: 3e4a a2bd 3fc1 24be 5978 83be 75dc ac3e
000001c0: 7a52 2a3d b724 9e3e 3cf2 48be e6d7 89be
000001d0: 48ae 983e 7933 013e 2a61 12be aa41 b03e
000001e0: 4135 c6bc a3e3 dabc f019 753c 8b2c 8bbd
000001f0: 7e2f 483e bed5 51be ff04 91be dd3e 98be
00000200: 8569 b1bd 6cba ab3e d4dc 37bc 6a89 1e3e
00000210: 66d3 233e 5230 103e 134c 40bd a33f a53d
00000220: fbae 8cbe 3067 8abe 5510 053e cb7a a7bc
00000230: 27f5 a2be 162b 833e b8f9 c5be ae9d f83d
00000240: 2410 d1bd cd07 9a3e e1e3 113e 052e 89be
00000250: 0c7f e83d 932a eb3d 13ae 61be dad5 b2be
00000260: b89a 423d 219f 8ebe 4584 203e 4b90 73bd
00000270: 5ad3 5a3e 18df d43c 058a 6e3e 179d a63e
00000280: fc07 00be 86d2 a23d e6d0 52be 3bfe bb3d
00000290: 6206 343d aed1 88be 94a1 82be b1c8 983e
000002a0: 5acd 1cbe 2bb1 883e afc0 8bbd de58 893e
000002b0: 4171 0fbe fd4c 89be 314a 563e dc1e fa3c
000002c0: 8aad 573e 4cda 2ebe 37b0 903e 4f86 4e3e
000002d0: f440 91be 22b1 7f3e 5cfd f9bd 0cf8 4a3e
000002e0: 15db 05be 483b 293e 95b6 e43d 3c86 4fbe
000002f0: a7b9 353e 546d 7a3c 1d25 c53d c9cf a8be
00000300: 8818 9f3d 5b42 793e 01bc 9b3e 3bfe 8d3e
00000310: b172 a23e 0655 4a3e 9004 3bbe e7ec a43e
00000320: fadb 203e ef4b 8e3e af35 1dbe 14ea 5abd
00000330: f5fe 90be c5f1 80be aa68 473d 780a 6c3e
00000340: 73ab 0b3e 0bbd 2e3e f2d9 033e 0bc9 583e
00000350: 8558 33be 1af8 9cbd 3cf5 9f3d a046 0fbe
00000360: 49c9 ab3e 445a 133e 1304 603e 4712 12be
00000370: b8c0 11bd e55c 0d3c 712c a5be 0e50 8f3e
00000380: 80f8 28bd 4de4 91be 50eb 62be 2f5e 7e3e
00000390: 9f7c 883e dcc5 b23d 7e62 973e 2fc3 923d
000003a0: c170 833e 406b b3be 4a06 41bd 1d64 0cbd
000003b0: 25d3 18bd ac76 2dbd e4d8 923b 97ab c6bb
000003c0: 81a1 97be 32bc 6abe 952a 12bd a587 0cbd
000003d0: 6113 973e 7fc9 99be 939f 953d bdf0 073e
000003e0: 60a7 96be 749a 143e e342 9d3d 87e9 343e
000003f0: 4581 3fbe 1f66 a73e 277c 153e 9df9 ae3b
