results/priority-sort/priority-sort-task-1-batch-13000.model (torch_old, 876115 bytes, 49 tensors)

ntm.read0_bias f4 [1, 20]
0	0x3c0bd4d3	0.008534628
1	0x3c0a3326	0.008435046
2	0xbc07660d	-0.008264077
3	0x393e8c89	0.00018172165
4	0x3b991218	0.0046713464
5	0x3c186f83	0.00930393
6	0x3b190bdd	0.0023353018
7	0x3c35f5bd	0.011105952
8	0x3bc8c34d	0.0061267973
9	0xbc3ae341	-0.011406721
10	0xbaa94e7e	-0.0012917069
11	0xbaefb1f7	-0.0018287291
12	0xbcd5a487	-0.02607943
13	0x3b3ff7f7	0.0029292086
14	0x3c8bdc98	0.01707296
15	0xbc770feb	-0.015079479
16	0xbc1a3b2d	-0.009413523
17	0x3b45c244	0.0030175606
18	0x3c21bae9	0.009871223
19	0x3ab091dc	0.0013471204

ntm.read1_bias f4 [1, 20]
0	0x3bf37f26	0.0074309288
1	0xbb212216	-0.0024586967
2	0x3bc981eb	0.0061495206
3	0x3bd10506	0.0063787727
4	0x3b5e6907	0.0033937113
5	0x3ba88059	0.0051422534
6	0xbb4991af	-0.0030757
7	0xbaf59ccb	-0.0018738745
8	0xbad51a34	-0.001625842
9	0xbaa60a10	-0.0012667794
10	0x3c9c2b38	0.019063577
11	0x3c3600dd	0.011108604
12	0xbb94c1cc	-0.004539704
13	0xbc232c4a	-0.00995929
14	0x3920e3fe	0.00015343723
15	0xbbdbbd97	-0.0067059505
16	0x3b1187d4	0.0022206204
17	0x3c0e78e4	0.008695815
18	0xbc1b70b7	-0.0094873225
19	0xbb7851ea	-0.0037890621

ntm.read2_bias f4 [1, 20]
0	0x3c09ed5d	0.008418408
1	0xbcb163fb	-0.02165412
2	0x3cd69734	0.026195146
3	0xbc72e7b3	-0.014825749
4	0x3be93683	0.007117094
5	0x3b68e38a	0.0035536014
6	0x3bb0e4b0	0.0053983554
7	0x3b343d87	0.0027502493
8	0xbc259714	-0.010106821
9	0xbc23635b	-0.009972419
10	0x3c243e20	0.010024577
11	0xba8813ff	-0.0010381936
12	0xbb640392	-0.0034792167
13	0x3b7b3d58	0.0038336124
14	0xbadc026a	-0.0016785387
15	0x3b6740ab	0.0035286348
16	0x3c856155	0.016281763
17	0xbc813c46	-0.01577581
18	0x3c95b1ed	0.018273318
19	0xbc32a613	-0.010903853

ntm.read3_bias f4 [1, 20]
0	0xbc10fce8	-0.00884936
1	0x3b0abf3e	0.0021171118
2	0xbc2279a0	-0.009916693
3	0x3b9d8ee8	0.0048082955
4	0x39d403db	0.00040438664
5	0x3b64a9a6	0.0034891157
6	0x3cb959ed	0.022625888
7	0xbc4ea3d3	-0.012612301
8	0x3ad15c4b	0.001597294
9	0xba0c119a	-0.0005343199
10	0x3c3cf1a5	0.011532222
11	0x3bd36515	0.006451259
12	0xba57e970	-0.0008236384
13	0x3b827ef9	0.0039824215
14	0x3bc2468e	0.005928821
15	0xbc066061	-0.008201689
16	0xbc6b8295	-0.014374395
17	0xbb40a240	-0.0029393584
18	0xbc138b90	-0.009005442
19	0x3c904819	0.017612504

ntm.read4_bias f4 [1, 20]
0	0x3aa959b4	0.001292041
1	0x3c923ded	0.017851794
2	0xbaee6d46	-0.0018190525
3	0x3bf3011b	0.0074159033
4	0xbb81a800	-0.0039567947
5	0xbc10fe10	-0.008849636
6	0xbbd212e6	-0.0064109443
7	0x3c071c50	0.008246496
8	0xbb1d4cf6	-0.002400217
9	0x3c084d30	0.008319184
10	0xbc33277e	-0.010934709
11	0xbc705574	-0.014668811
12	0xbc448f4b	-0.011997054
13	0xbc1d5dd8	-0.009604894
14	0xb9c9d257	-0.00038494423
15	0x3ad8f3bd	0.0016552132
16	0x3bb88c4a	0.005631958
17	0xbb134f43	-0.0022477664
18	0xbc8af8b7	-0.0169643
19	0x3c29f7b6	0.010374

ntm.controller.lstm_h_bias f4 [2, 1, 100]
0	0x3d2c9d41	0.042142157
1	0xbd43d5d3	-0.04781134
2	0xbcf66312	-0.030076537
3	0xbde41f32	-0.111387625
4	0xbc934423	-0.017976826
5	0x3d559c22	0.052150853
6	0xbd41a3a2	-0.047275193
7	0xbd1a3953	-0.037652325
8	0x3d116788	0.035499126
9	0xb9239d77	-0.00015603552
10	0x3b6d7092	0.0036230427
11	0xbcf08c1c	-0.029363684
12	0x3cdac1a2	0.02670366
13	0x3c00ffd2	0.007873492
14	0xbd8ddc9e	-0.06926845
15	0x3d68245c	0.0566753
16	0xbd22b38b	-0.039722007
17	0xbba8be70	-0.005149655
18	0x3da26989	0.079302855
19	0x3d5a7e10	0.05334288
20	0xbd930404	-0.071785
21	0x3cf91658	0.030406162
22	0x3cb5b607	0.022181524
23	0xbd86ee03	-0.06588366
24	0xbd6b8c63	-0.05750693
25	0x3db1ade7	0.08675747
26	0xbd1fb572	-0.0389914
27	0xbd38c616	-0.045110784
28	0xbba66b40	-0.005078703
29	0xbc61f4da	-0.013791287
30	0xbd74f23e	-0.059801333
31	0xbdbdc030	-0.092651725
32	0xbc6ed1c5	-0.01457638
33	0xbd5c1a19	-0.053735826
34	0xbe018dee	-0.12651798
35	0xbaa81e6b	-0.0012826448
36	0xbd05dc0d	-0.03268056
37	0xbd24b3c6	-0.040210508
38	0x3db17a10	0.0866586
39	0x3c0d3efb	0.008620973
40	0x3d6cd54c	0.057820603
41	0xbd580d18	-0.052746862
42	0xbd20f82e	-0.039299183
43	0x3d1c8773	0.038215112
44	0xbd22893d	-0.039681662
45	0xbc0d7ca8	-0.008635677
46	0xbc229a84	-0.009924535
47	0x3d9a652d	0.07538829
48	0x3d3576d8	0.04430279
49	0xbbdb4226	-0.006691235
50	0xbc9251f2	-0.01786134
51	0x3dafb10a	0.085786894
52	0x3c1248f7	0.008928529
53	0x3e0d2408	0.13783276
54	0xbc96f26e	-0.018426146
55	0x3b894258	0.004188817
56	0x3c84c26e	0.016205993
57	0xbdbdbe5f	-0.09264826
58	0x3d2475ee	0.04015153
59	0x3de594ec	0.11210045
60	0x3da42460	0.080147505
61	0xbc06fb2c	-0.008238595
62	0x3d5668cd	0.05234604
63	0x3c031691	0.008000986
64	0x3d96a2cc	0.0735527
65	0xbd083c82	-0.03326083
66	0xbcafb0c0	-0.021446586
67	0xbd903b4d	-0.07042561
68	0xbda9a837	-0.082840376
69	0xbdbfecd2	-0.09371342
70	0xbce25415	-0.027627984
71	0xbddb0306	-0.10693936
72	0x3c9d8639	0.019229041
73	0xbb3a7c09	-0.0028455278
74	0x3c855dec	0.016280137
75	0xbd062c8e	-0.032757334
76	0xbd04661e	-0.03232395
77	0xbd938687	-0.072033934
78	0xbc083040	-0.008312285
79	0xbb997251	-0.004682817
80	0x3d204231	0.039125625
81	0xbd27d5be	-0.040975325
82	0xbdf9842b	-0.12183412
83	0xbd11ff21	-0.0356437
84	0xbd08398c	-0.033258006
85	0x3b0734ef	0.0020630916
86	0xbd53a822	-0.051674016
87	0xbd4c1c45	-0.049831647
88	0x3a825cee	0.0009945908
89	0x3dbecf51	0.09316886
90	0xbb776b8f	-0.003775332
91	0xbb13e39b	-0.0022566083
92	0x3d48bc50	0.049007714
93	0xbce6e81b	-0.028186848
94	0x3d85ceb7	0.06533568
95	0xbd864f5c	-0.06558105
96	0x3dafbda3	0.08581092
97	0x3d9f5621	0.077801
98	0xbccfdb24	-0.02537305
99	0xbd0776d4	-0.033072308
100	0x3e4f254c	0.20229071
101	0x3c76d891	0.015066282
102	0x3da4e039	0.080505796
103	0x3d0da434	0.034580424
104	0xbdc5a4e9	-0.09650595
105	0x3d6ce7d6	0.057838283
106	0x3d4d393e	0.05010342
107	0xbdae4ce0	-0.085107565
108	0x3d9229bf	0.07136869
109	0xbd9641ee	-0.07336794
110	0x3cc08289	0.023499744
111	0xbd7df087	-0.061996963
112	0x3db3b467	0.087746434
113	0x3da0cdab	0.07851728
114	0xbd32c5e5	-0.04364576
115	0xbd81cb16	-0.06337564
116	0x3df13d46	0.11779265
117	0xbb104bfb	-0.0022017944
118	0xbda0ebde	-0.07857488
119	0xb8fa73c1	-0.0001194249
120	0xbd076f79	-0.033065293
121	0x3d156df2	0.036481805
122	0x3c864442	0.01638997
123	0x3d0df190	0.0346542
124	0xbb719ef5	-0.0036868427
125	0xbd34e7da	-0.044166423
126	0xbc5032df	-0.012707441
127	0x3dfcf028	0.12350494
128	0x3c75f633	0.015012312
129	0x3df61435	0.12015573
130	0x3c4dc029	0.012558022
131	0x3bffaeab	0.0078028045
132	0x3d832662	0.06403805
133	0x3b8190d3	0.003954032
134	0x3ddb77a7	0.10716181
135	0xbd5b1f00	-0.05349636
136	0xbbc0dc68	-0.0058856495
137	0x3d1b36b0	0.03789395
138	0x3dd95401	0.106117256
139	0xbd50bdda	-0.050962307
140	0x3d88a609	0.06672294
141	0xbd84dbd8	-0.06487244
142	0xbd9d747b	-0.076882325
143	0xbccb6cb0	-0.0248321
144	0xbd2f5a05	-0.04281046
145	0xba3ecb47	-0.00072782155
146	0x3dab31cb	0.08359107
147	0xbc86d397	-0.016458316
148	0x3d945669	0.07243044
149	0xbc8cd7dd	-0.017192775
150	0xbc7897ec	-0.01517294
151	0x3cde6c14	0.027151145
152	0x3d901643	0.07035496
153	0xbc240318	-0.010010503
154	0xbd9ed5ce	-0.07755624
155	0xbca57117	-0.020195527
156	0xbe105f66	-0.14098892
157	0xbd26d2ae	-0.040728264
158	0x3ca7878b	0.020450374
159	0xbd865b37	-0.065603666
160	0x3d679cb2	0.05654592
161	0x3d9f381e	0.077743754
162	0x3d8a4109	0.06750686
163	0x3d90536d	0.07047162
164	0xbd47e248	-0.048799783
165	0xbd7f2a79	-0.062296364
166	0x3b4e15cd	0.00314461
167	0xbd949040	-0.07254076
168	0xbd009969	-0.031396303
169	0x3d29cdb0	0.041455925
170	0x3d630146	0.055421136
171	0x3e1ed54d	0.15511055
172	0xbdb4ae35	-0.0882229
173	0x3cc5aeab	0.02413114
174	0x3d687157	0.056748714
175	0xbe23ee70	-0.16008925
176	0x3c3cc459	0.011521422
177	0x3c8bc6bb	0.017062536
178	0xbd57e203	-0.052705776
179	0xbded6db9	-0.115931936
180	0x3a548b6f	0.00081079354
181	0xbd4ce6a9	-0.050024662
182	0xbb6329dd	-0.0034662404
183	0xbda33248	-0.07968575
184	0x3da8c94d	0.0824152
185	0xbdb09faf	-0.08624207
186	0xbd043826	-0.03228011
187	0xbd81d436	-0.06339304
188	0xbd03a7e7	-0.032142546
189	0xbdb3b5e4	-0.08774927
190	0x3c92e177	0.017929776
191	0xbd6a5cc0	-0.05721736
192	0x3cf8c98d	0.030369544
193	0x3df22247	0.11822944
194	0x3c5eef12	0.0136068035
195	0xbe0c6a7e	-0.13712499
196	0x3d33961f	0.04384434
197	0xbd20f6dd	-0.039297927
198	0x3df7ae99	0.12093849
199	0xbc577627	-0.013150728

ntm.controller.lstm_c_bias f4 [2, 1, 100]
0	0x3d2179ee	0.03942292
1	0xbba17aff	-0.0049279924
2	0xbd2e1fb1	-0.042510692
3	0xbb28d874	-0.0025763782
4	0x3cf018dd	0.02930873
5	0xbd218e18	-0.03944215
6	0xbdc72b33	-0.097250365
7	0x3d4db025	0.050216813
8	0xbd4e9c3f	-0.050441977
9	0xbcbfdd26	-0.023420881
10	0x3da80b5b	0.08205291
11	0xbd809c5b	-0.062798224
12	0xbd1c173b	-0.03810809
13	0xbd085e67	-0.033293154
14	0x3e0059cd	0.12534256
15	0xbc469084	-0.012119416
16	0x3c1a676f	0.009424075
17	0xbdae4c61	-0.08510662
18	0x3d32c540	0.043645144
19	0xbd4660aa	-0.04843203
20	0xbd100dc6	-0.035169385
21	0xbd26a4d9	-0.040684555
22	0x3bcba58e	0.006214804
23	0xbc098878	-0.008394353
24	0xbc27c4cf	-0.010239794
25	0x3d989eaa	0.07452138
26	0x3ce4b43b	0.027917972
27	0xbc266258	-0.010155283
28	0xbd88aa39	-0.066730924
29	0x3cdd19c3	0.026989823
30	0xbdb28cbe	-0.08718251
31	0xbd8f3e87	-0.06994348
32	0xbd18670d	-0.037207652
33	0xbda442a8	-0.08020526
34	0xbcdf7c7f	-0.027281044
35	0xbdaa5364	-0.08316687
36	0xbcc04a02	-0.02347279
37	0xbdf43295	-0.1192371
38	0xbc9c1f17	-0.019057794
39	0xbcf098c8	-0.029369727
40	0x3cf198c3	0.029491788
41	0xbd520433	-0.051273536
42	0xbdac442b	-0.084114395
43	0x3cc0acfb	0.023519984
44	0x3c92b325	0.017907688
45	0x3cc892c4	0.024484046
46	0x3c99aec8	0.0187601
47	0x3cad98c2	0.021191005
48	0xbc74f700	-0.0149514675
49	0x3bfc48f7	0.007699128
50	0x3bea7a62	0.0071557024
51	0xbc80c1d4	-0.015717424
52	0xbbc46dd0	-0.005994536
53	0x3c838955	0.016056696
54	0x3d6551e7	0.05598631
55	0xbcdf2c65	-0.027242849
56	0xba994ee4	-0.0011696485
57	0x3bca2920	0.0061694533
58	0xbac6e17e	-0.0015173403
59	0x3d4806c5	0.04883458
60	0x3ceffb63	0.029294675
61	0xbcc4ee3c	-0.02403938
62	0xbc156001	-0.009117127
63	0xb95da0b8	-0.00021136075
64	0x3c0d4f67	0.008624888
65	0xbae25adc	-0.001726951
66	0xbd566a0b	-0.052347224
67	0x3d813acc	0.06310043
68	0xbc73db22	-0.014883788
69	0xbbefa842	-0.007313759
70	0x3d50385a	0.05083499
71	0xbe0f9381	-0.14021112
72	0xbd61a7d0	-0.05509168
73	0x3d296a0f	0.04136091
74	0x3cd70ab6	0.026250225
75	0xbd55bc8e	-0.052181773
76	0x3bf9e64b	0.00762633
77	0xbe03f074	-0.12884694
78	0xbd5ac8ae	-0.05341404
79	0xbd6e0088	-0.058105975
80	0xbd0f0ecd	-0.034926224
81	0xbd757628	-0.059927136
82	0x3c127bd6	0.008940658
83	0xbd541352	-0.051776238
84	0x3daaa70b	0.08332642
85	0xbc891e42	-0.01673806
86	0xbc627128	-0.013820924
87	0x3da3fc2c	0.08007082
88	0xbd871564	-0.06595877
89	0xbbf103b9	-0.00735518
90	0x3b0b59b7	0.002126319
91	0x3c77c2be	0.015122114
92	0x3cee2a3d	0.029072875
93	0xbd3766e5	-0.044775862
94	0xbda047ff	-0.07826232
95	0xbd401a12	-0.046899863
96	0x3d4d16ba	0.050070502
97	0xbb047d34	-0.0020216228
98	0xbbb5baa3	-0.0055459305
99	0xbd934996	-0.0719177
100	0x3d0a543d	0.033771742
101	0x3c6da039	0.014503532
102	0xbcbeb2b3	-0.02327857
103	0xbd8ca546	-0.06867461
104	0xbdcb1195	-0.09915463
105	0xbd00bbe0	-0.03142917
106	0x3ce8008c	0.028320573
107	0x3c44c2ab	0.012009303
108	0x3dabfdb8	0.083980024
109	0x3b57fbe8	0.0032956544
110	0xbd8fffd4	-0.07031217
111	0xbd714c24	-0.058910504
112	0x3cf0b922	0.029385153
113	0xbd21dc80	-0.039516926
114	0x3cc688ca	0.024235148
115	0x3dc1195e	0.094286665
116	0x3df079ca	0.117419794
117	0x3ddf5cc1	0.10906363
118	0xbcc47b1c	-0.023984484
119	0xbd442771	-0.047889177
120	0xbc4ee7d3	-0.012628513
121	0xbd3a0be4	-0.045421496
122	0xbd0db116	-0.03459271
123	0xbcf269ac	-0.029591404
124	0xbe0c32bb	-0.13691227
125	0x3c23e66d	0.010003668
126	0x3cc91e01	0.02455044
127	0x3e15de58	0.14635599
128	0x3caa1be5	0.020765254
129	0xbd935a28	-0.0719493
130	0x3ce97633	0.028498745
131	0xbd08d0ba	-0.033402182
132	0x3c7fc34b	0.015610526
133	0x3dbbc85f	0.09169077
134	0x3d81640f	0.06317913
135	0xbdf4c8b8	-0.119523466
136	0x3d1c46b6	0.038153373
137	0x3dd1e934	0.10249558
138	0x3d205eac	0.039152786
139	0x3b2726da	0.0025505335
140	0x3cc267ea	0.02373119
141	0x3cdca96d	0.026936257
142	0xbd80079e	-0.06251453
143	0xbd8015d3	-0.06254163
144	0xbd0b8d7e	-0.034070484
145	0xbde49335	-0.1116089
146	0x3d639e4b	0.05557088
147	0x3c89f8b9	0.016842233
148	0x3dcede3e	0.10100983
149	0x3e04f3de	0.12983653
150	0xbd94940c	-0.072548
151	0xbd81c609	-0.063366
152	0x3cc7a4ac	0.024370514
153	0xbd9b804c	-0.0759283
154	0xbd35ce23	-0.04438604
155	0xbc371067	-0.011173344
156	0xbd8243c3	-0.06360581
157	0x3ddffc2a	0.10936768
158	0x3d3eb6f3	0.046561193
159	0x3d944de3	0.07241418
160	0x3c93638b	0.017991802
161	0x3cb2aed1	0.021811875
162	0xbd635767	-0.055503275
163	0x3cb23fef	0.021759002
164	0xbdd3753f	-0.10325097
165	0xbcbee08e	-0.023300435
166	0xbd033be4	-0.032039538
167	0xbcdc6a2e	-0.0269061
168	0xbd0a6d40	-0.033795595
169	0x3da43970	0.08018768
170	0x3d3e120d	0.046403933
171	0x3c517505	0.012784247
172	0xbd8a7c39	-0.06761975
173	0xba879e20	-0.0010346808
174	0x3c501011	0.012699143
175	0x3d5e6331	0.054293815
176	0x3c60adc2	0.013713302
177	0xbd76c344	-0.060244814
178	0xbbe518c2	-0.0069914768
179	0xbc983602	-0.01858044
180	0x3d4e99ed	0.050439764
181	0xbc2ea1b2	-0.010658668
182	0x3cf17aef	0.029477565
183	0xbdd92867	-0.10603409
184	0xbccd55c3	-0.025065308
185	0xbd0d0199	-0.03442535
186	0xbcc6b2b8	-0.024255142
187	0xbe14dbe8	-0.14537013
188	0x3de74310	0.11292088
189	0x3c8c7200	0.017144203
190	0x3d558e6b	0.052137773
191	0x3d984f74	0.074370295
192	0xbdd8cadc	-0.10585567
193	0x3a305e5e	0.0006727929
194	0x3dc44309	0.095830984
195	0xbd97b81c	-0.07408163
196	0xbbf5c8e1	-0.0075007533
197	0x3b84ff79	0.004058775
198	0x3c71d6f2	0.01476072
199	0x3d35bea5	0.044371266

ntm.controller.lstm.weight_ih_l0 f4 [400, 110]
0	0xbe81a29a	-0.25319368
1	0x3e178ff3	0.14801006
2	0x3d8bfbf1	0.068351634
3	0xbe554842	-0.20828345
4	0xbea147c5	-0.31500068
5	0xbe59720a	-0.21234909
6	0x3dda61f9	0.10663218
7	0x3e2b1e4a	0.16710773
8	0xbe87aa69	-0.264972
9	0xbdb1040e	-0.086433515
10	0xbe232047	-0.15930282
11	0x3d226ebd	0.03965639
12	0x3e778df3	0.24175243
13	0x3deedabe	0.116628155
14	0x3d3892ba	0.045061804
15	0x3e60d4e3	0.2195621
16	0xbd9c902c	-0.07644686
17	0x3dea6007	0.11444097
18	0x3e805e71	0.25072053
19	0xbe6e0f9b	-0.2324814
20	0x3d561b90	0.05227238
21	0xbe96feca	-0.29491264
22	0x3d23aea7	0.039961483
23	0xbeb3e508	-0.35135674
24	0x3d385254	0.04500039
25	0xbe27d1d8	-0.16388643
26	0xbe1433ae	-0.14472839
27	0xbeab7226	-0.33485526
28	0xbe8035f7	-0.25041172
29	0xbc2fc1d4	-0.010727365
30	0x3d826f98	0.06368941
31	0xbe8eb079	-0.27869013
32	0x3d83623b	0.0641522
33	0x3c6c8cff	0.014437913
34	0x3e461ed2	0.19347695
35	0xbd7756be	-0.06038546
36	0xbea15462	-0.3150969
37	0x3eae91f0	0.34095716
38	0xbe43a518	-0.19105947
39	0x3e3accec	0.18242234
40	0x3dda98e2	0.10673691
41	0xbe979639	-0.29606798
42	0x3dc17719	0.09446544
43	0x3d4712b1	0.04860181
44	0x3e99c1d0	0.3003068
45	0x3e083e6b	0.1330506
46	0x3e734043	0.23754983
47	0x3e41a30a	0.1890985
48	0x3e63cc48	0.22245896
49	0xbe526208	-0.20545208
50	0xbd939f98	-0.072081745
51	0x3e01a7c2	0.12661651
52	0x3ea403c2	0.32034117
53	0xbe26b4df	-0.16279934
54	0xbea37ef8	-0.31932807
55	0xbde37640	-0.11106539
56	0xbd286590	-0.041112483
57	0xbcb61d60	-0.022230804
58	0x3e88b6c9	0.26701954
59	0xbe683522	-0.22676519
60	0xbebe760a	-0.37199432
61	0x3a67f16c	0.00088479253
62	0xbcdc08dc	-0.026859693
63	0xbe41def3	-0.18932705
64	0xbe5dd4f2	-0.21663263
65	0xbe898aa2	-0.2686358
66	0x3dc21f14	0.09478584
67	0xbd8125f5	-0.06306068
68	0x3e21c98f	0.15799545
69	0xbd420ca9	-0.047375355
70	0xbe65c8e1	-0.2243991
71	0x3dc315b3	0.09525623
72	0xbca42234	-0.02003584
73	0x3d1a833c	0.03772281
74	0xbe6e40a3	-0.23266844
75	0x3ea0a97b	0.31379303
76	0x3d1b3c4b	0.037899297
77	0x3d726b2e	0.059184246
78	0x3e4685b2	0.19386938
79	0x3e7f2736	0.24917302
80	0xbebd322d	-0.36952344
81	0x3dc1028f	0.09424316
82	0xbdfa5ef3	-0.122251414
83	0xbe25010a	-0.16113678
84	0xbdc93fa6	-0.09826593
85	0x3e581f60	0.21105719
86	0x3ce42f2d	0.027854526
87	0xbe4059a8	-0.18784201
88	0xbe7bd6bf	-0.24593638
89	0xbc817557	-0.015803022
90	0xbc7f48f0	-0.0155813545
91	0x3e9cc1f4	0.30616724
92	0x3e6eff8d	0.23339672
93	0x3d106262	0.035250075
94	0x3e11bcba	0.1423215
95	0xbe5e1fe0	-0.21691847
96	0xbda58236	-0.080814764
97	0x3e7398b7	0.23788725
98	0x3eb5c40c	0.35501134
99	0x3d9a704e	0.07540952
100	0x3c508a53	0.012728292
101	0xbdfc79a9	-0.12327892
102	0xbe26802e	-0.16259834
103	0xbe557e04	-0.20848852
104	0xbccfede2	-0.025381986
105	0xbda3ce10	-0.07998288
106	0x3dc63be5	0.09679393
107	0x3e985648	0.29753327
108	0x3e9bdca9	0.30441788
109	0x3d98f64f	0.07468855
110	0xbe6458a0	-0.22299433
111	0xbc83ab1a	-0.016072799
112	0xbe58fbb0	-0.21189761
113	0xbe9b3c7e	-0.3031959
114	0x3e52f9dc	0.20603126
115	0x3d78ef20	0.060774922
116	0x3e2b7126	0.16742381
117	0x3e4a01f8	0.19727314
118	0xbe9dfb20	-0.30855656
119	0xbd85449d	-0.065072276
120	0x3d27be20	0.0409528
121	0x3da6385c	0.081162184
122	0xbe15a9af	-0.1461551
123	0xbebea03f	-0.37231633
124	0x3e9c996e	0.30585808
125	0x3e4ce07f	0.20007513
126	0x3e410c5d	0.18852372
127	0xbe58fb77	-0.21189676
128	0x3cf749fa	0.030186642
129	0xbe96a764	-0.29424584
130	0x3e2d8732	0.16946104
131	0x3e03ad96	0.12859187
132	0xbe9a0078	-0.30078483
133	0x3c6246f3	0.013810861
134	0xbe9b2f98	-0.3030975
135	0x3d8277e0	0.063705206
136	0x3e9a3648	0.30119538
137	0xbe96f220	-0.29481602
138	0xbd05c9f4	-0.0326633
139	0x3e9af818	0.30267406
140	0x3da0150c	0.078165144
141	0x3e1c120d	0.15241261
142	0xbe83ef08	-0.25768304
143	0xbebbd79b	-0.3668793
144	0xbe682f70	-0.22674346
145	0xbcbd7bfe	-0.023130413
146	0xbe573a29	-0.2101828
147	0x3e9b0c23	0.30282697
148	0xbe3f7324	-0.18696266
149	0xbc9e81e6	-0.01934905
150	0xbea6a5a4	-0.3254825
151	0xbe95d53f	-0.29264256
152	0x3e329d9a	0.17442933
153	0xbeaa03eb	-0.33206114
154	0x3db4e8b9	0.08833451
155	0x3e84ba4f	0.25923392
156	0x3c62df7b	0.013847227
157	0x3e64f6cf	0.22359775
158	0xbe11f2fa	-0.14252844
159	0x3dfc2874	0.12312403
160	0xbe3fdab7	-0.18735777
161	0xbd75b3db	-0.059985977
162	0xbc4db8cb	-0.012556265
163	0x3d92f43f	0.071754925
164	0x3e5653be	0.20930383
165	0x3d917d7b	0.071040116
166	0x3dc5576e	0.096358165
167	0xbe4b309a	-0.19842759
168	0xbdd10bd2	-0.10207333
169	0x3e17a19c	0.14807743
170	0xbe8b0a51	-0.27156308
171	0x3ea088c9	0.3135436
172	0x3e8ec4f6	0.27884644
173	0x3ddd8897	0.10817068
174	0xbe010be8	-0.12602198
175	0xbe99322c	-0.2992109
176	0x3e9b7487	0.3036234
177	0xbe748192	-0.23877552
178	0xbe414f98	-0.18878019
179	0xbdefcdcf	-0.11709177
180	0x3e632366	0.22181472
181	0x3e815df8	0.25267005
182	0xbe7ac910	-0.24490762
183	0xbebe7711	-0.37200215
184	0xbcb2c824	-0.02182395
185	0xbe58f697	-0.21187817
186	0x3de66296	0.112492725
187	0xbea4f112	-0.32215172
188	0xbd50fa2d	-0.051019836
189	0xbcfcd76e	-0.030864444
190	0xbe71a082	-0.23596385
191	0x3ea64469	0.32474068
192	0xbec231fd	-0.37928763
193	0xbeb1d8d2	-0.34735733
194	0xbe4bdee3	-0.19909243
195	0x3de7ebae	0.11324249
196	0xbdc7c1b7	-0.09753745
197	0x3e99452f	0.29935595
198	0xbdb7c87a	-0.08973785
199	0x3df11e08	0.11773306
200	0xbe0a9b80	-0.13535881
201	0x3cc820f5	0.024429778
202	0x3cdf38c8	0.027248755
203	0x3d9fd93c	0.07805106
204	0x3e98d16b	0.29847273
205	0x3e0219e0	0.12705183
206	0x3c8d482c	0.017246328
207	0xbe05d81f	-0.13070725
208	0xbe58c633	-0.21169357
209	0x3e878b65	0.26473537
210	0x3e46f5f6	0.19429764
211	0x3e09c698	0.13454664
212	0xbe329ecd	-0.1744339
213	0x3e3ce8b1	0.1844814
214	0x3d132e5b	0.03593288
215	0xbdd0046d	-0.10157094
216	0xbd3647ec	-0.044502184
217	0x3e109937	0.14120947
218	0x3e4d362d	0.20040198
219	0x3d9dfa4e	0.077137575
220	0x3e581f4f	0.21105693
221	0xbde65232	-0.11246146
222	0x3e288134	0.16455537
223	0x3d86482f	0.06556737
224	0x3dadab46	0.084799334
225	0x3e141a28	0.14463103
226	0xbd554894	-0.05207117
227	0xbe0f93f2	-0.1402128
228	0x3c3ce947	0.011530227
229	0x3e904052	0.28174073
230	0x3e85a98b	0.26105914
231	0x3e53a51e	0.20668456
232	0xbe82178b	-0.25408587
233	0xbe591f58	-0.21203363
234	0x3e80ab21	0.2513056
235	0xbe66f78a	-0.22555366
236	0xbe8957fc	-0.2682494
237	0x3e62c83a	0.22146693
238	0xbdda49a4	-0.10658577
239	0x3cbc17bc	0.022960536
240	0x3dab0b43	0.083517574
241	0xbdebff3b	-0.11523291
242	0x3dc372cf	0.095433824
243	0xbe411ba8	-0.18858206
244	0xbe9711a3	-0.29505643
245	0xbde2cd81	-0.11074353
246	0xbe59fbd5	-0.21287473
247	0xbdac6141	-0.08416987
248	0x3d434755	0.04767545
249	0xbc5c952e	-0.013463302
250	0xbe9d76be	-0.30754656
251	0xbd1faf82	-0.038985737
252	0xbe09ed11	-0.1346934
253	0xbe8c74c4	-0.27432835
254	0xbe28ce32	-0.16484907
255	0xbd7ffa43	-0.062494528

ntm.controller.lstm.weight_hh_l0 f4 [400, 100]
0	0xbe8ea6bb	-0.2786158
1	0x3ce3e47a	0.027818907
2	0xbe585936	-0.21127781
3	0x3e805fe4	0.2507316
4	0x3e77e530	0.24208522
5	0x3e3fdf32	0.18737486
6	0xbe7e997a	-0.24863234
7	0xbd9b8fe9	-0.07595808
8	0xbe4ab194	-0.19794303
9	0x3e645fcf	0.22302173
10	0xbe894be6	-0.26815718
11	0xbdffe2ef	-0.12494456
12	0x3e658905	0.2241555
13	0xbe4eb99f	-0.20187996
14	0x3e831468	0.25601506
15	0xbc8f9884	-0.01752878
16	0xbda71ba8	-0.08159572
17	0xbdeae1e3	-0.11468866
18	0xbe8ea10c	-0.27857244
19	0xbe26b138	-0.16278541
20	0xbdf50361	-0.11963535
21	0xbe3b13e0	-0.182693
22	0xbe47aab2	-0.19498709
23	0xbc8147ea	-0.015781362
24	0x3ead88d5	0.33893457
25	0x3daa4868	0.08314592
26	0x3e85ea82	0.26155478
27	0x3bfe4849	0.007760082
28	0x3e9ae029	0.30249146
29	0xbdb9d10b	-0.09073075
30	0xbd9a3282	-0.07529165
31	0x3e87d19d	0.2652711
32	0x3d88687a	0.06660552
33	0xbdc086ae	-0.09400688
34	0x3e1809b3	0.1484745
35	0x3e41d27c	0.1892795
36	0x3e093cdc	0.13402122
37	0xbe99903f	-0.29992864
38	0x3e33fc87	0.175768
39	0xbea77224	-0.3270427
40	0x3ea22266	0.3166687
41	0x3e6cfd14	0.23143417
42	0xbe6640a7	-0.224856
43	0x3e9861be	0.2976207
44	0x3d749588	0.059712917
45	0x3ea30827	0.31842157
46	0xbe972d25	-0.2952663
47	0xbe940fc1	-0.2891827
48	0x3dd6b546	0.10483794
49	0x3e96a805	0.29425064
50	0x3df679a9	0.120349236
51	0x3e2ff3c3	0.17182831
52	0x3c9dd3f4	0.019266106
53	0xbc880663	-0.016604608
54	0xbe296e58	-0.16545999
55	0xbe21b9f4	-0.15793592
56	0x3dddd270	0.108311534
57	0xbdb66079	-0.089051194
58	0xbdfb2530	-0.12262952
59	0x3e37a23d	0.17932983
60	0xbd8d9d16	-0.069147274
61	0xbe309cd1	-0.1724732
62	0xbe758d33	-0.23979644
63	0x3eb09e58	0.34495807
64	0x3e0d9f8d	0.13830395
65	0xbe1b543e	-0.15168855
66	0xbe453097	-0.19256817
67	0x3db682c7	0.089116625
68	0x3e9553e9	0.2916558
69	0xbec3f251	-0.3827081
70	0x3d5403cc	0.051761433
71	0x3c2fc986	0.010729199
72	0x3e6f156d	0.23348017
73	0xbe0ddcba	-0.13853732
74	0x3e63a48f	0.22230743
75	0x3a2f1510	0.0006678859
76	0x3d81592b	0.063158356
77	0x3eac49ff	0.33650205
78	0xbe626f73	-0.22112827
79	0x3e4b9a9b	0.19883196
80	0xbe16bf8b	-0.14721505
81	0xbeaf7355	-0.3426768
82	0x3eadd2a2	0.33949763
83	0x3e76a51f	0.24086426
84	0x3e91c85b	0.28473172
85	0xbe88e70c	-0.26738775
86	0xbe9ebcff	-0.31003568
87	0xbd7efff5	-0.06225582
88	0x3cdbd15f	0.026833234
89	0xbe201f64	-0.15636975
90	0x3e332280	0.1749363
91	0x3e5395a6	0.20662555
92	0xbeb16eb4	-0.34654772
93	0x3e15912b	0.14606158
94	0x3dfa9128	0.122347176
95	0x3d8784f6	0.06617157
96	0x3ce377df	0.02776712
97	0x3ddc0cf6	0.107446596
98	0x3de575e6	0.11204128
99	0xbe93cf73	-0.2886921
100	0x3ea4c5f1	0.32182267
101	0xbe0c32f5	-0.13691314
102	0xbe3e1eb4	-0.185664
103	0xbe022d29	-0.1271254
104	0xbe17bfeb	-0.14819305
105	0x3e48f118	0.1962322
106	0xbd956648	-0.07294899
107	0x3cf86f98	0.03032665
108	0x3e04427d	0.12915988
109	0xbe1fdbf1	-0.15611245
110	0x3e1034da	0.14082661
111	0x3e1acd9e	0.15117499
112	0xbea3d97f	-0.32001874
113	0x3e29f471	0.16597153
114	0xbe5e5632	-0.21712568
115	0x3e31b500	0.17354202
116	0xbe43d2d4	-0.19123393
117	0xbe373f6f	-0.17895292
118	0xbde2167e	-0.11039446
119	0xbe9a94b2	-0.3019157
120	0x3caf87ff	0.021427153
121	0xbe07cbbb	-0.13261311
122	0x3d44c58f	0.04803997
123	0x3c9be5ba	0.01903044
124	0x3e7d897a	0.24759474
125	0xbeacf717	-0.33782265
126	0xbea9a32b	-0.331323
127	0xbe5f2610	-0.21791863
128	0xbd8dcd78	-0.06923956
129	0x3e56f44e	0.20991632
130	0x3e9db4e4	0.3080207
131	0x3e36122c	0.1778037
132	0x3eccb5f3	0.39982566
133	0xbebefc9d	-0.37302104
134	0x3e8ea21a	0.2785805
135	0x3e469cf7	0.19395815
136	0xbca70908	-0.020390049
137	0xbc74cdd1	-0.014941649
138	0xbe872bb8	-0.26400542
139	0xbd3f55e9	-0.04671279
140	0x3e1d4705	0.15359123
141	0xbe78d44c	-0.24299735
142	0x3ea88d34	0.3292023
143	0x3e70fd58	0.23534143
144	0xbe0b94a1	-0.13630916
145	0x3d7d9c3a	0.061916567
146	0xbdbc072a	-0.09181054
147	0xbdddfd9f	-0.1083939
148	0x3c54ccd3	0.012988287
149	0xbe319ae8	-0.17344248
150	0x3dbeb6df	0.09312224
151	0xbc3f9ac9	-0.0116946185
152	0x3e0adfac	0.13561887
153	0x3cd1f682	0.02563024
154	0xbe1ab0e4	-0.15106541
155	0xbe9a098e	-0.30085415
156	0x3e7a52d3	0.24445657
157	0x3e1117f6	0.14169297
158	0xbe407b76	-0.18797097
159	0x3e0e0649	0.13869585
160	0x3e4ad103	0.19806294
161	0x3d8f3912	0.06993307
162	0xbe62901d	-0.22125287
163	0xbe53426b	-0.20630805
164	0x3e835e0b	0.25657687
165	0x3e6352e5	0.2219959
166	0xbe44b4f0	-0.19209647
167	0x3c19bd68	0.009383537
168	0x3ed84635	0.42241064
169	0xbe20846f	-0.1567552
170	0xbe95ddaf	-0.29270694
171	0x3e822ee0	0.25426388
172	0xbe1f4a18	-0.15555608
173	0xbe1f5d2a	-0.15562883
174	0xbead5af9	-0.3385847
175	0xbe7dbeee	-0.24779865
176	0x3d29234f	0.04129344
177	0x3e4c7816	0.19967684
178	0x3de74cb7	0.11293929
179	0xbd571055	-0.05250581
180	0xbd2378a8	-0.03990999
181	0x3e7c73b6	0.24653515
182	0x3dc9b837	0.09849589
183	0x3e5b15da	0.21395054
184	0x3d56b678	0.05242011
185	0x3e9d9f06	0.30785388
186	0x3c581679	0.013188952
187	0xbe395cec	-0.18101853
188	0x3dce18cd	0.10063324
189	0x3e7eaf6a	0.24871603
190	0xbdcfded6	-0.101499245
191	0x3e94a767	0.29033968
192	0x3d733cdd	0.059384216
193	0x3d7e762a	0.06212441
194	0x3d183574	0.037160352
195	0x3e5ef325	0.2177244
196	0x3c4f68fa	0.012659306
197	0x3ea9d216	0.33168095
198	0x3e60118e	0.21881697
199	0x3ea776f1	0.32707933
200	0xbdd86e7b	-0.105679475
201	0xbd291e83	-0.041288864
202	0x3e95191f	0.29120728
203	0xbe8e3027	-0.27771112
204	0x3dbf53a0	0.09342122
205	0xbdac90f5	-0.08426086
206	0x3e24a3ba	0.16078082
207	0x3e83ca0a	0.2574008
208	0x3d1fcf2a	0.039015926
209	0x3e266326	0.1624876
210	0x3ca5b536	0.02022801
211	0xbe79a960	-0.24381018
212	0xbe47aa98	-0.1949867
213	0xbe53a7e9	-0.20669521
214	0xbe07b040	-0.13250828
215	0x3ea08cd2	0.31357437
216	0x3dd09f59	0.10186643
217	0x3e96b467	0.2943451
218	0x3e8b5552	0.27213532
219	0xbe93c27f	-0.28859326
220	0xbe3ccd32	-0.18437651
221	0x3ea839c3	0.3285657
222	0xbe15b7fa	-0.14620963
223	0xbea631e7	-0.32459947
224	0xbea556cb	-0.3229278
225	0xbe76c043	-0.2409678
226	0x3e4ef8e4	0.20212132
227	0xbe475faf	-0.19470094
228	0x3e8a1e54	0.26976264
229	0x3d2a4766	0.041571997
230	0xbea7ad1d	-0.32749262
231	0xbe7879a5	-0.24265154
232	0x3e82d516	0.25553197
233	0xbdf1a1c9	-0.11798436
234	0xbc97440d	-0.018465066
235	0xbe4bcad2	-0.19901589
236	0xbe429aac	-0.19004315
237	0x3eb7143e	0.3575763
238	0x3e8bd789	0.27312878
239	0x3e95c7f9	0.2925413
240	0x3e5e9c47	0.21739303
241	0x3e566574	0.20937139
242	0x3d52c401	0.051456455
243	0x3cedd196	0.029030602
244	0xbe128149	-0.14307131
245	0x3e76b88e	0.2409384
246	0x3eb86831	0.36016992
247	0x3c989566	0.018625926
248	0x3e2014c4	0.15632921
249	0xbe64155c	-0.22273773
250	0xbd7be54c	-0.06149797
251	0xbde098b5	-0.109666266
252	0xbe50616c	-0.20349663
253	0x3e462416	0.19349703
254	0xbd9ed9c7	-0.077563815
255	0x3d98d246	0.074619815

ntm.controller.lstm.bias_ih_l0 f4 [400]
0	0x3caf0779	0.021365868
1	0xbc5c0819	-0.013429665
2	0xb936d694	-0.00017436809
3	0x3be39e51	0.006946363
4	0xbcb5bfe9	-0.022186236
5	0xbd185615	-0.03719147
6	0xbb3fc97c	-0.002926438
7	0xbcc81288	-0.024422899
8	0xbc115552	-0.00887044
9	0xbc8d2f23	-0.01723439
10	0xbc4cf572	-0.012509691
11	0xbd5392cf	-0.05165368
12	0x3b224051	0.0024757574
13	0xbc5c65b2	-0.01345198
14	0xbd53bc23	-0.051693093
15	0x3c9fa560	0.019488037
16	0x3d0b67ea	0.034034647
17	0xbcc7b458	-0.024377987
18	0xbc906fcf	-0.01763144
19	0xbd65db19	-0.05611715
20	0xbcf78fb0	-0.030219883
21	0xbcdf85b8	-0.027285442
22	0xbc3e8c33	-0.011630106
23	0xbc20f647	-0.009824342
24	0x3d087b5c	0.03332077
25	0xbc7aa10b	-0.015297185
26	0xba799d37	-0.0009522023
27	0xbca325fc	-0.019915573
28	0x3c7c73f8	0.0154085085
29	0xbd2438bd	-0.040093172
30	0x3c793a5e	0.01521167
31	0xbbeeb9f7	-0.0072853523
32	0x387b99a3	5.998615e-05
33	0x3af20160	0.0018463545
34	0xbc53702c	-0.012905162
35	0xbc32beb6	-0.010909727
36	0xbcaeadcc	-0.021323107
37	0xbbaa43cd	-0.0051960708
38	0xbc1a0731	-0.009401129
39	0xbd2d454c	-0.042302415
40	0x3b115596	0.0022176257
41	0x3c190cbe	0.009341417
42	0xbce5b84f	-0.028041987
43	0xbd341a90	-0.043970644
44	0x3ca034d0	0.019556433
45	0x3a602781	0.00085508084
46	0xbce65ce0	-0.028120458
47	0x3c140603	0.009034636
48	0xbcb87ccc	-0.022520445
49	0x3c257396	0.010098359
50	0xbcd01420	-0.025400221
51	0xbcf8fb95	-0.030393401
52	0xbbeb3960	-0.0071784705
53	0xbc46f517	-0.012143395
54	0xbc8e465f	-0.01736754
55	0xbc4ddff4	-0.012565602
56	0x3b36d259	0.0027896373
57	0xbc545552	-0.012959795
58	0xbd099216	-0.033586584
59	0x3c895172	0.016762469
60	0xbc12c774	-0.008958686
61	0x3cd5a8dc	0.026081495
62	0x3bb7c802	0.0056085596
63	0xbcba244c	-0.022722386
64	0x3b6d057e	0.0036166604
65	0xbb7a2b63	-0.0038172833
66	0xbcad89a5	-0.021183798
67	0x3bfd6ae8	0.0077336915
68	0x3b2d3cae	0.0026433873
69	0xbd27c04c	-0.040954873
70	0xbd57ccf6	-0.0526857
71	0x3a6bd9ab	0.00089969736
72	0xbd1213c2	-0.035663374
73	0xbccde1b6	-0.025132041
74	0xbd3a7e6b	-0.045530718
75	0xbc94a751	-0.018146189
76	0xbd80e619	-0.06293888
77	0xbce32f22	-0.027732436
78	0xbcc980d4	-0.024597563
79	0xbcd2c0fa	-0.025726784
80	0xbd22bfee	-0.03973382
81	0xbcf2e521	-0.029650273
82	0xbd61fcc4	-0.055172697
83	0xbbed48e5	-0.0072413557
84	0xbc9c8989	-0.01910855
85	0xbd0a7774	-0.033805326
86	0x3c3c6dc1	0.011500777
87	0x3bb9fc25	0.00567581
88	0xbc098787	-0.008394129
89	0x3d2b0fe7	0.041763213
90	0x3cfe9d90	0.031080991
91	0xbc175294	-0.009235997
92	0xbc9f20a8	-0.019424751
93	0x3c80e46f	0.015733926
94	0xbc896585	-0.016772041
95	0xbc510f73	-0.012760031
96	0x3b8e9c90	0.00435216
97	0xbcd290aa	-0.025703747
98	0xbcaa00a7	-0.020752264
99	0x3d1f7bff	0.03893661
100	0x3c9a8346	0.018861424
101	0x3d0c975e	0.034324042
102	0x3c4b98cc	0.012426566
103	0x3a9050f4	0.0011010454
104	0xbcba20a0	-0.022720635
105	0x3bcc3a53	0.0062325387
106	0x3c1e0c40	0.009646475
107	0xbc6b1e58	-0.014350496
108	0x3d0c43d6	0.03424438
109	0xbce914cc	-0.0284523
110	0xbb865a3a	-0.0041001113
111	0xbbc92a6c	-0.0061390903
112	0xbc2273d4	-0.009915311
113	0xbb863625	-0.00409581
114	0xbc19362a	-0.009351293
115	0x3d38fa5f	0.045160647
116	0x3c77c8b1	0.015123532
117	0xbcc199b0	-0.023632854
118	0x3b933f5e	0.004493638
119	0xbced0fe8	-0.028938249
120	0xbc952425	-0.018205712
121	0xbd12db94	-0.035853937
122	0x3d31291d	0.0432521
123	0xbb94ffe4	-0.004547106
124	0x3d3c8d38	0.046033114
125	0x3cabef95	0.020988265
126	0x3c807b3e	0.015683766
127	0xbbab1e7e	-0.005222141
128	0x3c02c1a1	0.007980735
129	0xbd00fa43	-0.03148867
130	0x3cecdf25	0.028914997
131	0xb9b43dd0	-0.0003437833
132	0xbbccd136	-0.006250526
133	0xba127093	-0.0005586233
134	0xbace781a	-0.0015752346
135	0xbabb88c7	-0.0014307731
136	0xbcb6c91b	-0.022312691
137	0xbaad6764	-0.0013229665
138	0xbb6e152e	-0.0036328542
139	0xbcf1cdee	-0.02951714
140	0x3cc67be5	0.024229
141	0x3d0b7d9f	0.03405535
142	0xbc439f3b	-0.011939819
143	0xbd5ef069	-0.05442849
144	0x3d38d24f	0.04512244
145	0x3b611bbd	0.0034348809
146	0xbca40a61	-0.02002448
147	0x3cd773fe	0.026300427
148	0xbc1b054d	-0.009461713
149	0x3cd0bb01	0.025479795
150	0xbbdf0f68	-0.0068072565
151	0xbc725fdf	-0.014793365
152	0x3c2acd01	0.010424853
153	0xbc6cf704	-0.01446319
154	0x3d0fa282	0.03506709
155	0x3c186280	0.009300828
156	0x3bbd0b10	0.005769141
157	0xbc7ba3bd	-0.0153588625
158	0xbca5ca66	-0.020238113
159	0x3cc4ba3d	0.024014587
160	0xbb8187d6	-0.0039529605
161	0x3cffa4fc	0.0312066
162	0x3c174459	0.009232604
163	0xbb06683b	-0.0020508904
164	0x3cd02a4c	0.025410794
165	0x3cc6f9ec	0.024289094
166	0xbc0d0d32	-0.008609103
167	0x3d557c6d	0.052120615
168	0x3d222fde	0.03959643
169	0xbcb4ada6	-0.022055458
170	0xbd02a532	-0.031895824
171	0x3c60aa63	0.013712498
172	0xbd2a9437	-0.041645255
173	0x3c861b0d	0.01637032
174	0xbd575134	-0.052567676
175	0xbc342ec2	-0.010997476
176	0xbd26639b	-0.040622335
177	0xbc2929f4	-0.010324944
178	0xbc7b7ac2	-0.015349092
179	0x3c8f007c	0.017456286
180	0xbd08301d	-0.03324901
181	0xbd0e4c24	-0.034740582
182	0xbd8282ea	-0.06372626
183	0xbc1faea6	-0.009746229
184	0xbcabbf3e	-0.020965215
185	0xbd2363d2	-0.039890118
186	0x3c699339	0.014256292
187	0x3cbc45cb	0.022982499
188	0x3c3a0f56	0.011356195
189	0x3d505488	0.050861865
190	0x3d029b66	0.03188648
191	0x3962711e	0.00021595179
192	0xbd0fdbe9	-0.035121832
193	0x3c6d1669	0.014470675
194	0xbae0c284	-0.0017147814
195	0x3a561780	0.0008166954
196	0x3bc7cea6	0.0060976325
197	0xbc47fb03	-0.012205842
198	0x3d005411	0.031330172
199	0x3ced0c02	0.02893639
200	0x3d1de48b	0.038548034
201	0xbbb835f4	-0.005621666
202	0x3c3d0462	0.0115366895
203	0x398345a4	0.00025038153
204	0xbcca7f72	-0.024718974
205	0xbb60b911	-0.0034289996
206	0x3b98e2eb	0.0046657226
207	0xbc3d2681	-0.011544825
208	0xbc12d870	-0.0089627355
209	0xbcbc9458	-0.023019955
210	0x3cfcb174	0.030846335
211	0x3bc7532f	0.0060829143
212	0x3c512808	0.012765892
213	0xbbf7b8b7	-0.0075598615
214	0x3c3e30a4	0.0116082765
215	0xbc9f2d29	-0.019430714
216	0xbc4db998	-0.012556456
217	0x3a0a6a45	0.00052801176
218	0x3c1922e5	0.009346698
219	0xbc5c1dd0	-0.013434842
220	0x3d2730c0	0.040817976
221	0xbd1a1e2f	-0.03762644
222	0x3c894628	0.016757086
223	0x39d7ade1	0.00041137545
224	0x3c19fff3	0.009399402
225	0x3ba4e56b	0.0050322316
226	0x3c7b3e6e	0.015334709
227	0xbb0e6b57	-0.002173146
228	0xbd5372a9	-0.05162302
229	0xbcb9ff60	-0.02270478
230	0xbb2354c3	-0.0024922348
231	0x3d05f3e2	0.032703288
232	0xbc75fb17	-0.015013478
233	0x3b030885	0.0019994092
234	0x3cda5965	0.026653955
235	0xbcee738a	-0.029107828
236	0xbc2d582a	-0.010580102
237	0xbc4f4a97	-0.012652061
238	0xbc8cb656	-0.017176788
239	0xbcfb76dd	-0.030696327
240	0xbcb00dba	-0.02149092
241	0xbc80c553	-0.015719092
242	0xbceafc52	-0.028684769
243	0xbbbaf311	-0.0057052453
244	0x3b2fd716	0.0026831082
245	0x3d0a4aca	0.03376273
246	0x3d22406a	0.03961221
247	0xbd2dc68f	-0.04242569
248	0x3d4769ef	0.04868501
249	0x3b34b0cd	0.0027571202
250	0xbce1fe01	-0.027586939
251	0xbc21f0e9	-0.009884098
252	0x3c9c782f	0.019100277
253	0x3c11a61e	0.008889703
254	0xbc7b614b	-0.015343021
255	0x3cbfde25	0.023421356

ntm.controller.lstm.bias_hh_l0 f4 [400]
0	0x3caf0779	0.021365868
1	0xbc5c0819	-0.013429665
2	0xb936d694	-0.00017436809
3	0x3be39e51	0.006946363
4	0xbcb5bfe9	-0.022186236
5	0xbd185615	-0.03719147
6	0xbb3fc97c	-0.002926438
7	0xbcc81288	-0.024422899
8	0xbc115552	-0.00887044
9	0xbc8d2f23	-0.01723439
10	0xbc4cf572	-0.012509691
11	0xbd5392cf	-0.05165368
12	0x3b224051	0.0024757574
13	0xbc5c65b2	-0.01345198
14	0xbd53bc23	-0.051693093
15	0x3c9fa560	0.019488037
16	0x3d0b67ea	0.034034647
17	0xbcc7b458	-0.024377987
18	0xbc906fcf	-0.01763144
19	0xbd65db19	-0.05611715
20	0xbcf78fb0	-0.030219883
21	0xbcdf85b8	-0.027285442
22	0xbc3e8c33	-0.011630106
23	0xbc20f647	-0.009824342
24	0x3d087b5c	0.03332077
25	0xbc7aa10b	-0.015297185
26	0xba799d37	-0.0009522023
27	0xbca325fc	-0.019915573
28	0x3c7c73f8	0.0154085085
29	0xbd2438bd	-0.040093172
30	0x3c793a5e	0.01521167
31	0xbbeeb9f7	-0.0072853523
32	0x387b99a3	5.998615e-05
33	0x3af20160	0.0018463545
34	0xbc53702c	-0.012905162
35	0xbc32beb6	-0.010909727
36	0xbcaeadcc	-0.021323107
37	0xbbaa43cd	-0.0051960708
38	0xbc1a0731	-0.009401129
39	0xbd2d454c	-0.042302415
40	0x3b115596	0.0022176257
41	0x3c190cbe	0.009341417
42	0xbce5b84f	-0.028041987
43	0xbd341a90	-0.043970644
44	0x3ca034d0	0.019556433
45	0x3a602781	0.00085508084
46	0xbce65ce0	-0.028120458
47	0x3c140603	0.009034636
48	0xbcb87ccc	-0.022520445
49	0x3c257396	0.010098359
50	0xbcd01420	-0.025400221
51	0xbcf8fb95	-0.030393401
52	0xbbeb3960	-0.0071784705
53	0xbc46f517	-0.012143395
54	0xbc8e465f	-0.01736754
55	0xbc4ddff4	-0.012565602
56	0x3b36d259	0.0027896373
57	0xbc545552	-0.012959795
58	0xbd099216	-0.033586584
59	0x3c895172	0.016762469
60	0xbc12c774	-0.008958686
61	0x3cd5a8dc	0.026081495
62	0x3bb7c802	0.0056085596
63	0xbcba244c	-0.022722386
64	0x3b6d057e	0.0036166604
65	0xbb7a2b63	-0.0038172833
66	0xbcad89a5	-0.021183798
67	0x3bfd6ae8	0.0077336915
68	0x3b2d3cae	0.0026433873
69	0xbd27c04c	-0.040954873
70	0xbd57ccf6	-0.0526857
71	0x3a6bd9ab	0.00089969736
72	0xbd1213c2	-0.035663374
73	0xbccde1b6	-0.025132041
74	0xbd3a7e6b	-0.045530718
75	0xbc94a751	-0.018146189
76	0xbd80e619	-0.06293888
77	0xbce32f22	-0.027732436
78	0xbcc980d4	-0.024597563
79	0xbcd2c0fa	-0.025726784
80	0xbd22bfee	-0.03973382
81	0xbcf2e521	-0.029650273
82	0xbd61fcc4	-0.055172697
83	0xbbed48e5	-0.0072413557
84	0xbc9c8989	-0.01910855
85	0xbd0a7774	-0.033805326
86	0x3c3c6dc1	0.011500777
87	0x3bb9fc25	0.00567581
88	0xbc098787	-0.008394129
89	0x3d2b0fe7	0.041763213
90	0x3cfe9d90	0.031080991
91	0xbc175294	-0.009235997
92	0xbc9f20a8	-0.019424751
93	0x3c80e46f	0.015733926
94	0xbc896585	-0.016772041
95	0xbc510f73	-0.012760031
96	0x3b8e9c90	0.00435216
97	0xbcd290aa	-0.025703747
98	0xbcaa00a7	-0.020752264
99	0x3d1f7bff	0.03893661
100	0x3c9a8346	0.018861424
101	0x3d0c975e	0.034324042
102	0x3c4b98cc	0.012426566
103	0x3a9050f4	0.0011010454
104	0xbcba20a0	-0.022720635
105	0x3bcc3a53	0.0062325387
106	0x3c1e0c40	0.009646475
107	0xbc6b1e58	-0.014350496
108	0x3d0c43d6	0.03424438
109	0xbce914cc	-0.0284523
110	0xbb865a3a	-0.0041001113
111	0xbbc92a6c	-0.0061390903
112	0xbc2273d4	-0.009915311
113	0xbb863625	-0.00409581
114	0xbc19362a	-0.009351293
115	0x3d38fa5f	0.045160647
116	0x3c77c8b1	0.015123532
117	0xbcc199b0	-0.023632854
118	0x3b933f5e	0.004493638
119	0xbced0fe8	-0.028938249
120	0xbc952425	-0.018205712
121	0xbd12db94	-0.035853937
122	0x3d31291d	0.0432521
123	0xbb94ffe4	-0.004547106
124	0x3d3c8d38	0.046033114
125	0x3cabef95	0.020988265
126	0x3c807b3e	0.015683766
127	0xbbab1e7e	-0.005222141
128	0x3c02c1a1	0.007980735
129	0xbd00fa43	-0.03148867
130	0x3cecdf25	0.028914997
131	0xb9b43dd0	-0.0003437833
132	0xbbccd136	-0.006250526
133	0xba127093	-0.0005586233
134	0xbace781a	-0.0015752346
135	0xbabb88c7	-0.0014307731
136	0xbcb6c91b	-0.022312691
137	0xbaad6764	-0.0013229665
138	0xbb6e152e	-0.0036328542
139	0xbcf1cdee	-0.02951714
140	0x3cc67be5	0.024229
141	0x3d0b7d9f	0.03405535
142	0xbc439f3b	-0.011939819
143	0xbd5ef069	-0.05442849
144	0x3d38d24f	0.04512244
145	0x3b611bbd	0.0034348809
146	0xbca40a61	-0.02002448
147	0x3cd773fe	0.026300427
148	0xbc1b054d	-0.009461713
149	0x3cd0bb01	0.025479795
150	0xbbdf0f68	-0.0068072565
151	0xbc725fdf	-0.014793365
152	0x3c2acd01	0.010424853
153	0xbc6cf704	-0.01446319
154	0x3d0fa282	0.03506709
155	0x3c186280	0.009300828
156	0x3bbd0b10	0.005769141
157	0xbc7ba3bd	-0.0153588625
158	0xbca5ca66	-0.020238113
159	0x3cc4ba3d	0.024014587
160	0xbb8187d6	-0.0039529605
161	0x3cffa4fc	0.0312066
162	0x3c174459	0.009232604
163	0xbb06683b	-0.0020508904
164	0x3cd02a4c	0.025410794
165	0x3cc6f9ec	0.024289094
166	0xbc0d0d32	-0.008609103
167	0x3d557c6d	0.052120615
168	0x3d222fde	0.03959643
169	0xbcb4ada6	-0.022055458
170	0xbd02a532	-0.031895824
171	0x3c60aa63	0.013712498
172	0xbd2a9437	-0.041645255
173	0x3c861b0d	0.01637032
174	0xbd575134	-0.052567676
175	0xbc342ec2	-0.010997476
176	0xbd26639b	-0.040622335
177	0xbc2929f4	-0.010324944
178	0xbc7b7ac2	-0.015349092
179	0x3c8f007c	0.017456286
180	0xbd08301d	-0.03324901
181	0xbd0e4c24	-0.034740582
182	0xbd8282ea	-0.06372626
183	0xbc1faea6	-0.009746229
184	0xbcabbf3e	-0.020965215
185	0xbd2363d2	-0.039890118
186	0x3c699339	0.014256292
187	0x3cbc45cb	0.022982499
188	0x3c3a0f56	0.011356195
189	0x3d505488	0.050861865
190	0x3d029b66	0.03188648
191	0x3962711e	0.00021595179
192	0xbd0fdbe9	-0.035121832
193	0x3c6d1669	0.014470675
194	0xbae0c284	-0.0017147814
195	0x3a561780	0.0008166954
196	0x3bc7cea6	0.0060976325
197	0xbc47fb03	-0.012205842
198	0x3d005411	0.031330172
199	0x3ced0c02	0.02893639
200	0x3d1de48b	0.038548034
201	0xbbb835f4	-0.005621666
202	0x3c3d0462	0.0115366895
203	0x398345a4	0.00025038153
204	0xbcca7f72	-0.024718974
205	0xbb60b911	-0.0034289996
206	0x3b98e2eb	0.0046657226
207	0xbc3d2681	-0.011544825
208	0xbc12d870	-0.0089627355
209	0xbcbc9458	-0.023019955
210	0x3cfcb174	0.030846335
211	0x3bc7532f	0.0060829143
212	0x3c512808	0.012765892
213	0xbbf7b8b7	-0.0075598615
214	0x3c3e30a4	0.0116082765
215	0xbc9f2d29	-0.019430714
216	0xbc4db998	-0.012556456
217	0x3a0a6a45	0.00052801176
218	0x3c1922e5	0.009346698
219	0xbc5c1dd0	-0.013434842
220	0x3d2730c0	0.040817976
221	0xbd1a1e2f	-0.03762644
222	0x3c894628	0.016757086
223	0x39d7ade1	0.00041137545
224	0x3c19fff3	0.009399402
225	0x3ba4e56b	0.0050322316
226	0x3c7b3e6e	0.015334709
227	0xbb0e6b57	-0.002173146
228	0xbd5372a9	-0.05162302
229	0xbcb9ff60	-0.02270478
230	0xbb2354c3	-0.0024922348
231	0x3d05f3e2	0.032703288
232	0xbc75fb17	-0.015013478
233	0x3b030885	0.0019994092
234	0x3cda5965	0.026653955
235	0xbcee738a	-0.029107828
236	0xbc2d582a	-0.010580102
237	0xbc4f4a97	-0.012652061
238	0xbc8cb656	-0.017176788
239	0xbcfb76dd	-0.030696327
240	0xbcb00dba	-0.02149092
241	0xbc80c553	-0.015719092
242	0xbceafc52	-0.028684769
243	0xbbbaf311	-0.0057052453
244	0x3b2fd716	0.0026831082
245	0x3d0a4aca	0.03376273
246	0x3d22406a	0.03961221
247	0xbd2dc68f	-0.04242569
248	0x3d4769ef	0.04868501
249	0x3b34b0cd	0.0027571202
250	0xbce1fe01	-0.027586939
251	0xbc21f0e9	-0.009884098
252	0x3c9c782f	0.019100277
253	0x3c11a61e	0.008889703
254	0xbc7b614b	-0.015343021
255	0x3cbfde25	0.023421356

ntm.controller.lstm.weight_ih_l1 f4 [400, 100]
0	0xbe8d5fe7	-0.2761223
1	0x3e5415b7	0.20711409
2	0xbe540937	-0.2070664
3	0xbe490a03	-0.19632725
4	0x3c9b3270	0.018944949
5	0x3daf6d7c	0.08565804
6	0xbd9a59af	-0.07536637
7	0xbe8a625e	-0.27028173
8	0x3cf0ec05	0.029409418
9	0xbe9cbc4b	-0.30612406
10	0x3e74544c	0.23860282
11	0x3e9ae0da	0.30249673
12	0x3e4d75b3	0.2006443
13	0xbdd7acd5	-0.10531012
14	0xbd1db042	-0.03849817
15	0xbd81c409	-0.06336219
16	0xbd1fce57	-0.03901514
17	0x3d39ef61	0.045394305
18	0x3be61058	0.0070209913
19	0xbd8d9b13	-0.06914344
20	0xbbec4aa0	-0.0072110444
21	0xbe36851b	-0.17824213
22	0xbdcdc018	-0.100464046
23	0xbe59b3cb	-0.21259992
24	0x3c9185e0	0.017764032
25	0xbe6ee11a	-0.23328057
26	0xbe46d4da	-0.19417134
27	0xbdec3b2f	-0.11534726
28	0x3deb7a87	0.114979796
29	0x3eab6c91	0.33481267
30	0xbe14366d	-0.14473887
31	0xbeaaa19f	-0.33326432
32	0x3e928778	0.2861898
33	0x3e5c78d7	0.21530472
34	0x3e39be67	0.18139039
35	0xbeaea3ec	-0.34109437
36	0x3d73bbac	0.05950515
37	0xbe17c114	-0.14819747
38	0x3ea93401	0.33047488
39	0x3dfaa178	0.12237829
40	0xbe7a1c9a	-0.24424973
41	0x3e8d8a8c	0.27644765
42	0xbeac228d	-0.3362011
43	0xbe5fd2de	-0.21857783
44	0xbe043eaa	-0.1291453
45	0xbe740e86	-0.23833665
46	0x3d9943ee	0.0748366
47	0xbe009d7d	-0.12560077
48	0xbc80d3b2	-0.015725944
49	0xbccd896b	-0.02508994
50	0x3e6464b2	0.22304037
51	0xbeb1e0ff	-0.3474197
52	0x3d0412e6	0.032244585
53	0xbe44498b	-0.1916868
54	0xbe28828d	-0.16456051
55	0x3eb39595	0.3507506
56	0x3e88a433	0.26687774
57	0x3d9d4c7c	0.07680604
58	0xbe21e746	-0.1581088
59	0xbd8c2e9d	-0.06844828
60	0x3db0ffc3	0.08642533
61	0xbe58172d	-0.21102591
62	0x3dc01223	0.09378459
63	0xbe91a2a1	-0.28444389
64	0x3e0a639e	0.13514563
65	0x3bbbb995	0.00572891
66	0xbea75361	-0.326808
67	0x3e921fc2	0.28539854
68	0xbdce2156	-0.10064952
69	0x3e59f09a	0.21283188
70	0x3e389cce	0.18028566
71	0x3ea1b0ca	0.31580192
72	0xbe984d19	-0.2974632
73	0x3e2887ae	0.16458008
74	0xbbf1e679	-0.007382211
75	0x3c0bede5	0.008540605
76	0x3e26f502	0.163044
77	0x3e6487ca	0.22317424
78	0x3e5a88be	0.21341226
79	0x3d4ad85e	0.04952275
80	0x3ea898e8	0.32929158
81	0xbe7a1f32	-0.24425963
82	0x3c95d8ef	0.018291919
83	0xbe34d31a	-0.17658654
84	0x3e776c40	0.24162388
85	0xbe229a50	-0.15879178
86	0x3dbee2ee	0.09320627
87	0xbd8849fd	-0.06654737
88	0x3e999003	0.29992685
89	0x3e4d3b7c	0.20042223
90	0xbe4a2205	-0.1973954
91	0x3eb50f7f	0.35363385
92	0x3e54f1c7	0.20795356
93	0x3e7a5da5	0.24449785
94	0x3e94d741	0.29070476
95	0xbdea6798	-0.1144554
96	0x3dec2eca	0.11532362
97	0x3e840c56	0.25790662
98	0x3e645855	0.22299321
99	0x3e81bc5a	0.25339013
100	0xbe9e1350	-0.3087411
101	0x3e7b1c8f	0.24522613
102	0xbe1c9c0a	-0.15293899
103	0x3e55b546	0.20869932
104	0xbdd78d28	-0.1052497
105	0x3df99b6c	0.121878475
106	0x3eb3a09b	0.3508347
107	0xbe7f313e	-0.24921128
108	0x3ea96812	0.33087212
109	0x3e8e0728	0.27739835
110	0x3db71847	0.089401774
111	0xbba18de4	-0.0049302448
112	0x3e7d8051	0.2475598
113	0xbd7360c2	-0.059418447
114	0x3e2a99b2	0.16660193
115	0x3e5d13b3	0.21589546
116	0xbd30743c	-0.0430796
117	0x3e9b4ec5	0.30333534
118	0xbd532fec	-0.051559374
119	0xbc9608c0	-0.01831472
120	0x3e82a4bb	0.25516304
121	0xbe3d8a05	-0.18509682
122	0x3e8a5e21	0.2702494
123	0xbe8e588a	-0.27801925
124	0x3dcb16f0	0.09916484
125	0x3df2b17c	0.11850259
126	0xbd32f483	-0.043690216
127	0x3e2465ad	0.16054411
128	0xbe91a051	-0.28442624
129	0x3d01a4e1	0.03165138
130	0xbe845023	-0.2584239
131	0xbeb5c9ec	-0.35505617
132	0xbe955a1b	-0.29170308
133	0xbde83a9e	-0.11339305
134	0xbe9ce8cd	-0.30646363
135	0xbe77ca7b	-0.24198334
136	0xbe9238c2	-0.28558928
137	0xbb808259	-0.0039217887
138	0xbe48478b	-0.19558541
139	0x3e47a7fa	0.19497672
140	0xbe29ab17	-0.16569172
141	0x3d54d8a4	0.051964417
142	0xbe4b870a	-0.19875732
143	0x3ea7fbbe	0.32809252
144	0xbc1bcd18	-0.009509347
145	0x3e20499b	0.15653078
146	0xbe84b0b4	-0.25916064
147	0x3c116594	0.008874316
148	0xbe03bcb0	-0.12864947
149	0x3e029813	0.12753324
150	0xbe31952c	-0.17342061
151	0x3dcf67b5	0.101272024
152	0x3e83e568	0.2576096
153	0x3e8e0b6a	0.27743083
154	0xbe92cb55	-0.28670755
155	0x3de5f73e	0.11228798
156	0x3e870214	0.26368773
157	0x3e6b4445	0.22975262
158	0xbe4b2d01	-0.19841386
159	0x3dfaa5bf	0.12238645
160	0xbd0f363e	-0.03496384
161	0x3dced853	0.10099854
162	0xbe265abc	-0.1624555
163	0x3dedf67d	0.116192795
164	0xbe1b0af0	-0.15140891
165	0xbe6c886e	-0.23098919
166	0xbec482b8	-0.3838098
167	0x3e2fdf03	0.17174916
168	0xbe939eeb	-0.28832182
169	0x3e53b3e5	0.20674093
170	0xbdac9de6	-0.08428554
171	0x3e827f50	0.25487757
172	0x3e0eca77	0.13944422
173	0xbe7855f5	-0.2425154
174	0xbea24610	-0.31694078
175	0x3ea32924	0.31867325
176	0x3e6a018a	0.2285215
177	0xbeb6a135	-0.35669866
178	0xbe8cd3ec	-0.27505434
179	0x3e85605f	0.26050088
180	0xbda03aa1	-0.078236826
181	0x3de92d17	0.11385553
182	0x3eae47db	0.34039196
183	0xbd8dc54e	-0.069223985
184	0x3d97ab54	0.07405725
185	0x3e94c359	0.29055288
186	0xbe4bc85a	-0.19900647
187	0x3cfe4cc6	0.031042468
188	0xbea392dd	-0.31947985
189	0xbe9fbd34	-0.31199038
190	0xbdc56caf	-0.096398704
191	0xbe0698c9	-0.1314422
192	0xbce59dae	-0.02802929
193	0x3e6e61be	0.23279473
194	0xba49435c	-0.0007677579
195	0xbe208c2d	-0.15678473
196	0xbe44bc33	-0.19212417
197	0xbe9d2c61	-0.3069792
198	0xbd8da01a	-0.069153026
199	0x3d2f59a4	0.042810097
200	0xbe56a913	-0.20962934
201	0xbe7fbc1c	-0.24974102
202	0x3d91a779	0.07112021
203	0x3d1a2c24	0.037639752
204	0xbe82697e	-0.2547111
205	0x3e8b5c7b	0.27218994
206	0xbe139ee5	-0.14416082
207	0xbd520b22	-0.05128015
208	0xbe2a40b2	-0.16626242
209	0x3e3d1164	0.18463665
210	0xbe582e97	-0.21111523
211	0x3e83be40	0.25731087
212	0x3e041d22	0.12901738
213	0x3c0fc2da	0.008774484
214	0xbeb7a648	-0.3586905
215	0xbe9a61aa	-0.30152637
216	0x3ea409e7	0.32038805
217	0x3d694f20	0.056960225
218	0x3e763193	0.24042349
219	0xbe8d277b	-0.27569184
220	0x3dfe6347	0.124212794
221	0xbd1b0c5d	-0.037853587
222	0x3e2ff874	0.17184621
223	0x3d1959d1	0.03743917
224	0x3e1c1436	0.15242085
225	0x3e6ba3f5	0.23011763
226	0xbe81c554	-0.25345862
227	0x3e8f2d3a	0.27964193
228	0xbc967892	-0.01836804
229	0xbd68d9d5	-0.056848366
230	0xbe8d9cb9	-0.27658632
231	0xbe8af698	-0.2714126
232	0xbde9edc4	-0.11422303
233	0x3ea816c8	0.3282988
234	0xbe1616c8	-0.14657128
235	0x3e62e6d2	0.22158363
236	0x3d9aafb7	0.07553046
237	0xbe3641b1	-0.17798497
238	0x3e9f36f6	0.3109662
239	0x3e09cd28	0.13457167
240	0xbeacb153	-0.33729038
241	0xbe896054	-0.26831305
242	0x3e3fbc84	0.18724257
243	0xbe72b9da	-0.23703709
244	0xbe5a45c8	-0.21315682
245	0x3bb14ded	0.005410901
246	0xbe8ec621	-0.27885535
247	0x3e93bf86	0.28857058
248	0x3e821584	0.2540704
249	0x3e325abc	0.17417425
250	0xbe9d675b	-0.30742916
251	0x3e5c2031	0.21496655
252	0xbe664f77	-0.22491251
253	0xbda084c4	-0.07837823
254	0xbde8b4c5	-0.11362604
255	0xbea5dcdd	-0.32395068
