results/priority-sort/priority-sort-task-1-batch-17000.model (torch_old, 876115 bytes, 49 tensors)

ntm.read0_bias f4 [1, 20]
000000 d3 d4 0b 3c 26 33 0a 3c 0d 66 07 bc 89 8c 3e 39
       0.008534628 0.008435046 -0.008264077 0.00018172165
000010 18 12 99 3b 83 6f 18 3c dd 0b 19 3b bd f5 35 3c
       0.0046713464 0.00930393 0.0023353018 0.011105952
000020 4d c3 c8 3b 41 e3 3a bc 7e 4e a9 ba f7 b1 ef ba
       0.0061267973 -0.011406721 -0.0012917069 -0.0018287291
000030 87 a4 d5 bc f7 f7 3f 3b 98 dc 8b 3c eb 0f 77 bc
       -0.02607943 0.0029292086 0.01707296 -0.015079479
000040 2d 3b 1a bc 44 c2 45 3b e9 ba 21 3c dc 91 b0 3a
       -0.009413523 0.0030175606 0.009871223 0.0013471204

ntm.read1_bias f4 [1, 20]
000000 26 7f f3 3b 16 22 21 bb eb 81 c9 3b 06 05 d1 3b
       0.0074309288 -0.0024586967 0.0061495206 0.0063787727
000010 07 69 5e 3b 59 80 a8 3b af 91 49 bb cb 9c f5 ba
       0.0033937113 0.0051422534 -0.0030757 -0.0018738745
000020 34 1a d5 ba 10 0a a6 ba 38 2b 9c 3c dd 00 36 3c
       -0.001625842 -0.0012667794 0.019063577 0.011108604
000030 cc c1 94 bb 4a 2c 23 bc fe e3 20 39 97 bd db bb
       -0.004539704 -0.00995929 0.00015343723 -0.0067059505
000040 d4 87 11 3b e4 78 0e 3c b7 70 1b bc ea 51 78 bb
       0.0022206204 0.008695815 -0.0094873225 -0.0037890621

ntm.read2_bias f4 [1, 20]
000000 5d ed 09 3c fb 63 b1 bc 34 97 d6 3c b3 e7 72 bc
       0.008418408 -0.02165412 0.026195146 -0.014825749
000010 83 36 e9 3b 8a e3 68 3b b0 e4 b0 3b 87 3d 34 3b
       0.007117094 0.0035536014 0.0053983554 0.0027502493
000020 14 97 25 bc 5b 63 23 bc 20 3e 24 3c ff 13 88 ba
       -0.010106821 -0.009972419 0.010024577 -0.0010381936
000030 92 03 64 bb 58 3d 7b 3b 6a 02 dc ba ab 40 67 3b
       -0.0034792167 0.0038336124 -0.0016785387 0.0035286348
000040 55 61 85 3c 46 3c 81 bc ed b1 95 3c 13 a6 32 bc
       0.016281763 -0.01577581 0.018273318 -0.010903853

ntm.read3_bias f4 [1, 20]
000000 e8 fc 10 bc 3e bf 0a 3b a0 79 22 bc e8 8e 9d 3b
       -0.00884936 0.0021171118 -0.009916693 0.0048082955
000010 db 03 d4 39 a6 a9 64 3b ed 59 b9 3c d3 a3 4e bc
       0.00040438664 0.0034891157 0.022625888 -0.012612301
000020 4b 5c d1 3a 9a 11 0c ba a5 f1 3c 3c 15 65 d3 3b
       0.001597294 -0.0005343199 0.011532222 0.006451259
000030 70 e9 57 ba f9 7e 82 3b 8e 46 c2 3b 61 60 06 bc
       -0.0008236384 0.0039824215 0.005928821 -0.008201689
000040 95 82 6b bc 40 a2 40 bb 90 8b 13 bc 19 48 90 3c
       -0.014374395 -0.0029393584 -0.009005442 0.017612504

ntm.read4_bias f4 [1, 20]
000000 b4 59 a9 3a ed 3d 92 3c 46 6d ee ba 1b 01 f3 3b
       0.001292041 0.017851794 -0.0018190525 0.0074159033
000010 00 a8 81 bb 10 fe 10 bc e6 12 d2 bb 50 1c 07 3c
       -0.0039567947 -0.008849636 -0.0064109443 0.008246496
000020 f6 4c 1d bb 30 4d 08 3c 7e 27 33 bc 74 55 70 bc
       -0.002400217 0.008319184 -0.010934709 -0.014668811
000030 4b 8f 44 bc d8 5d 1d bc 57 d2 c9 b9 bd f3 d8 3a
       -0.011997054 -0.009604894 -0.00038494423 0.0016552132
000040 4a 8c b8 3b 43 4f 13 bb b7 f8 8a bc b6 f7 29 3c
       0.005631958 -0.0022477664 -0.0169643 0.010374

ntm.controller.lstm_h_bias f4 [2, 1, 100]
000000 f0 90 e1 3c 8c e9 47 bd 19 0a f9 bc 01 e7 d7 bd
       0.027534932 -0.048806712 -0.030400323 -0.105421074
000010 4a e5 00 bd e7 0a 87 3d 98 45 61 bd fe 3a 3a bd
       -0.031468667 0.06593876 -0.05499801 -0.045466416
000020 a1 9a f2 3c 5a 4c aa 3a 75 42 1d bc 43 31 09 bd
       0.029614748 0.0012992725 -0.009598364 -0.033494245
000030 dd 01 0e 3d b0 ea 38 3c c5 4c a5 bd 6f 5d 7d 3d
       0.034669746 0.011286423 -0.08071283 0.061856683
000040 5a 3f 0c bd c0 cf 11 3b 3e 67 ab 3d aa a3 6a 3d
       -0.034240104 0.0022249073 0.08369301 0.05728499
000050 44 37 8b bd 78 b0 d0 3c ce 77 df 3c 49 78 96 bd
       -0.067976505 0.025474772 0.027278807 -0.07347161
000060 f6 e7 7d bd 02 24 c0 3d 31 5a 28 bd 17 d1 21 bd
       -0.061988793 0.09381868 -0.04110164 -0.039506044
000070 46 92 6a bb bb 1c 92 bc 2b d1 7e bd 79 91 bb bd
       -0.0035792752 -0.017835965 -0.062211197 -0.09158606
000080 f4 99 89 bc d3 ad 59 bd c1 86 04 be 31 eb 34 3c
       -0.016797043 -0.053144287 -0.1294203 0.011042402
000090 26 61 15 bd df 2e 0b bd 5c a5 b8 3d 5a b9 9f bc
       -0.0364696 -0.033980247 0.09015915 -0.019497562
0000a0 14 0b 55 3d 97 eb 43 bd 28 50 0c bd f9 39 e9 3c
       0.052012518 -0.047832098 -0.03425613 0.028470026
0000b0 a0 5f 2d bd b7 9e af bc a5 17 e8 bb 6d 79 9b 3d
       -0.042327523 -0.021437986 -0.007082897 0.075915195
0000c0 6a 15 25 3d f0 f6 1c bc bc 00 eb bc 4f 36 db 3d
       0.040303625 -0.009580359 -0.028686874 0.10703718
0000d0 d5 38 9b bb df 35 08 3e 8b 15 82 bc 3a 75 aa 3a
       -0.0047369995 0.133018 -0.015879413 0.0013004907
0000e0 a1 02 38 3c b0 56 d1 bd db 2f 37 3d 4c 36 df 3d
       0.0112310955 -0.102216125 0.044723373 0.10899028
0000f0 3b a5 c1 3d 73 df fe bb 4b 64 58 3d 35 86 06 3c
       0.09455343 -0.007778102 0.05283002 0.008210708
000100 91 2d 93 3d a2 89 f3 bc 67 a6 46 bc 9d cb 98 bd
       0.071864255 -0.029728714 -0.012124634 -0.07460711
000110 f7 5a ac bd 70 68 ba bd dc b6 c2 bc fe fd c8 bd
       -0.08415788 -0.09101951 -0.023768835 -0.0981407
000120 fc 53 58 3c 31 3d 69 bc d3 21 a8 3b 25 cd 13 bd
       0.013203617 -0.014235781 0.0051309853 -0.036084313
000130 f1 b8 49 bd 5c 56 92 bd 3b d6 0f bc 36 ba 43 3c
       -0.04924864 -0.07145378 -0.008779104 0.011946252
000140 c8 f2 33 3d d2 66 67 bd f4 7a 11 be c8 77 be bc
       0.043932706 -0.05649454 -0.14207059 -0.023250476
000150 58 7c 05 bd 01 7d 1a 3c 8a da 3f bd ce c7 2c bd
       -0.032589287 0.009429217 -0.046839274 -0.042182736
000160 e0 c9 51 bb e1 18 de 3d 8d 76 d6 ba 94 0b 7c bb
       -0.0032011196 0.10844589 -0.0016362235 -0.003845905
000170 fe c3 4c 3d 25 41 e7 bc 42 8a 8d 3d ce e8 83 bd
       0.0499916 -0.028229306 0.06911136 -0.06440888
000180 4c bf b5 3d 7a 0f af 3d cb 12 78 bc a5 16 0d bd
       0.088743776 0.08547874 -0.015141199 -0.034445424
000190 26 98 61 3e 10 43 d5 3c 3d 6d 99 3d b3 88 27 3d
       0.22030696 0.026032954 0.07491539 0.04090185
0001a0 4a d4 d7 bd 9d 1a 44 3d 8a fc 80 3d d4 a7 be bd
       -0.10538538 0.047876943 0.06298168 -0.093093544
0001b0 14 6a 9c 3d 92 d8 ac bd 90 14 86 3c cc 6c 7e bd
       0.0763742 -0.08439745 0.016367227 -0.062115476
0001c0 06 d4 cf 3d 39 67 9b 3d a2 b5 57 bd 69 52 94 bd
       0.10147862 0.075880475 -0.052663453 -0.07242281
0001d0 f7 d9 0a 3e 06 92 58 3b 6e ae c4 bd 97 20 0e 3c
       0.1355971 0.003304602 -0.09603582 0.008674762
0001e0 de 72 11 bd c2 83 13 3d 4f 7d d0 3c 00 d4 0c 3d
       -0.035509937 0.036014326 0.025450377 0.034381866
0001f0 a3 77 2b bc fa 53 77 bd 0d 28 bc bc 11 0c 0d 3e
       -0.010465535 -0.06038282 -0.022968316 0.13774134
000200 03 a9 87 3c 0d 92 02 3e 42 09 1b 3d 82 0b 83 3c
       0.016560083 0.12751026 0.037850626 0.015996698
000210 da 22 86 3d fa dd 31 b7 28 8b fc 3d a2 75 84 bd
       0.06549616 -1.0601705e-05 0.123312294 -0.06467749
000220 94 56 62 bc 0c c5 d5 3c 17 8c d0 3d f6 fa 44 bd
       -0.013814587 0.026094936 0.1018297 -0.048090898
000230 59 65 77 3d c4 d1 83 bd 31 74 ae bd 41 a0 37 bd
       0.060399387 -0.06436494 -0.085182555 -0.044830564
000240 a9 2a 2f bd 50 0e 78 3a 25 a4 b4 3d fb 4b 67 bc
       -0.042765293 0.0009462582 0.088203706 -0.014117236
000250 df 02 b8 3d 3c 30 ec bc 46 1a 47 bb e0 82 4f 3d
       0.089849226 -0.028831594 -0.003038065 0.05066192
000260 64 93 87 3d 2c 5f 47 bc a3 33 a3 bd fb 52 83 bb
       0.066199094 -0.012168687 -0.07968833 -0.004007695
000270 c5 36 0e be 9b a4 4d bd 54 b6 e8 3c 28 ab 8b bd
       -0.1388808 -0.050205808 0.028407253 -0.06819755
000280 33 f1 69 3d 73 88 cd 3d 22 6c a2 3d b1 34 a4 3d
       0.05711479 0.10035791 0.07930781 0.080178626
000290 1e 36 2f bd 2c 8a 6d bd 63 5a d5 3b 54 4c 81 bd
       -0.04277622 -0.0579931 0.006511019 -0.063133866
0002a0 37 82 7a bc bd bd 43 3d 2d 85 5b 3d 3c 70 3a 3e
       -0.015289835 0.04778837 0.053593803 0.18206877
0002b0 e1 05 ce bd e1 c3 2a 3d 23 4e 51 3d ac f0 2c be
       -0.10059715 0.04169071 0.051099908 -0.16888684
0002c0 d9 36 ef 3c 02 fa 6c bb ec c8 8d bd 15 ac 07 be
       0.029200958 -0.0036159758 -0.069230884 -0.13249238
0002d0 5e f5 26 3c a7 7b 59 bd f6 07 09 b9 e6 2d a1 bd
       0.010190336 -0.05309644 -0.00013068304 -0.078700826
0002e0 1b 7f c2 3d f2 10 c0 bd 82 de 3b bd 84 1f ae bd
       0.094969 -0.09378232 -0.045866497 -0.08502105
0002f0 9f 9b 09 bd 65 15 c6 bd 43 dc 04 3d 3c 4e 8a bd
       -0.033595677 -0.096720494 0.03243662 -0.06753203
000300 e5 ea 19 3d 63 df 01 3e 09 0d 2b 3b a1 b8 17 be
       0.03757753 0.12682872 0.00261003 -0.14816524
000310 c4 3b 29 3d f8 72 52 bd c6 c6 f8 3d a4 51 95 bc
       0.041316763 -0.051379174 0.12147288 -0.018227406

ntm.controller.lstm_c_bias f4 [2, 1, 100]
000000 20 27 06 3d 0e 1b 73 bc b1 5a 24 bd 3e 76 1b 3b
       0.032752156 -0.014837993 -0.040125553 0.00237216
000010 96 00 12 3d 1c 26 00 bd 03 67 cf bd 76 64 8e 3d
       0.03564509 -0.031286344 -0.1012707 0.06952755
000020 fa 5d 4b bd db 92 f5 bc e3 b1 98 3d 55 b5 94 bd
       -0.04965017 -0.029977253 0.07455804 -0.07261149
000030 84 46 15 bd 3e b2 fb bc 74 ae 03 3e 5d 93 51 bc
       -0.036444202 -0.030724641 0.12859517 -0.012791482
000040 15 85 35 3c 7f f6 b2 bd 65 72 73 3d 7d 93 3c bd
       0.0110790925 -0.08738422 0.059435267 -0.046039093
000050 b9 b2 08 bd 20 90 35 bd e0 17 86 3b c4 4a a2 bc
       -0.03337357 -0.0443269 0.0040922016 -0.019811042
000060 d0 6b f7 bb ab eb a7 3d 0c 3a d9 3c 52 ef c9 bb
       -0.007550694 0.08199247 0.026516937 -0.0061625624
000070 2f 49 8a bd 66 60 eb 3c cb 1b ac bd 95 dc 99 bd
       -0.0675224 0.02873249 -0.084037386 -0.07512776
000080 bc 81 45 bd 66 dd a7 bd 35 07 14 bd a2 d1 a3 bd
       -0.048219427 -0.08196525 -0.036139686 -0.07998969
000090 63 51 98 bc 15 b1 f7 bd 30 cf 4b bc c1 1d 0e bd
       -0.018593496 -0.120943226 -0.012439534 -0.034696344
0000a0 64 78 c6 3c 67 43 67 bd c6 56 a3 bd 12 c0 4c 3c
       0.024227329 -0.056460764 -0.07975535 0.012496965
0000b0 34 f0 d6 3b 66 f5 ea 3c 9d 00 9a 3c 0b 5f ab 3c
       0.006559396 0.028681468 0.01879912 0.020919343
0000c0 34 2e af bc 71 ce 7a ba 26 67 95 3b b8 d9 eb bc
       -0.021384336 -0.00095675053 0.0045594154 -0.02879034
0000d0 7f 98 f1 bb 3a 21 c3 3a 7c aa ad 3d 5f 0f ab bc
       -0.0073729153 0.0014887222 0.08479783 -0.020881353
0000e0 70 09 18 bc c2 f2 f5 3b ca db 30 3a 31 ee 74 3d
       -0.009279594 0.0075057456 0.00067466183 0.05979747
0000f0 2d aa c9 3c 48 2a e8 bc 5e c5 c0 bb 03 41 61 bb
       0.024617279 -0.028340474 -0.005882903 -0.0034371025
000100 e4 0e ea 3c bb 1b 06 3b fc 54 50 bd e2 1c 70 3d
       0.028571554 0.0020463306 -0.050862297 0.058621295
000110 e4 4a 4a bc 93 9f 7a bc fd 45 02 3d ed 3e 06 be
       -0.012346957 -0.0152968345 0.031805027 -0.13109942
000120 94 79 64 bd e4 67 1d 3d 0a 3e 9c 3c 07 6e 4b bd
       -0.05578001 0.038429156 0.019072551 -0.049665477
000130 57 ef e0 3b 52 a4 07 be 3b e1 4a bd 61 8d 5f bd
       0.006864469 -0.13246277 -0.049531203 -0.05457819
000140 f9 5f 16 bd 54 20 8d bd d0 33 19 3c c4 b4 5c bd
       -0.03671262 -0.06890932 0.009350732 -0.05388333
000150 fc df a9 3d 35 cc 89 bc ce ca 57 bc 10 4e 97 3d
       0.08294675 -0.016821006 -0.013170911 0.07387936
000160 4c 54 91 bd a1 65 cb 3a a3 be eb b8 cb 09 7b 3c
       -0.070961565 0.0015517959 -0.00011241182 0.015322159
000170 88 f2 ec 3c 77 0f 4f bd 62 8d 9f bd 75 d2 1a bd
       0.028924242 -0.050551858 -0.077906385 -0.037798364
000180 e7 dd 61 3d 3e 99 70 ba ff 68 c7 ba 1f b5 9f bd
       0.055143263 -0.00091781083 -0.0015213786 -0.07798218
000190 bb be 1c 3d f3 60 83 3c 23 b3 27 bd e9 66 7c bd
       0.038267832 0.01603744 -0.040942322 -0.06162158
0001a0 92 73 d4 bd 59 4a cc bc f9 b7 21 3d da f7 32 3c
       -0.10373606 -0.024937795 0.03948209 0.01092335
0001b0 76 36 c1 3d a8 d6 28 bc d2 d2 ad bd a0 2f 6f bd
       0.09434216 -0.010305084 -0.084874764 -0.058395028
0001c0 d6 41 1e 3d 7d 7b 28 bd f2 d1 55 3c 87 6d d8 3d
       0.038637005 -0.041133393 0.013050543 0.10567766
0001d0 bd 08 08 3e 0d 59 f4 3d ef f3 eb bc 41 9a 51 bd
       0.13284583 0.119310476 -0.02880284 -0.0511725
0001e0 2d a3 61 bc 4a e9 4b bd f0 84 03 bd 55 d9 11 bd
       -0.013771814 -0.04978303 -0.0321092 -0.035607655
0001f0 b3 b2 12 be 67 07 3e bb 77 63 27 3c 8e 7c 35 3e
       -0.14325981 -0.0028996111 0.010216585 0.17723295
000200 2d 48 92 3c 62 25 84 bd 25 eb 24 3d 50 02 44 bd
       0.017856682 -0.06452443 0.040263314 -0.047853768
000210 d1 73 ae 3c 1d a0 bc 3d b1 77 89 3d db f2 03 be
       0.02129546 0.09210227 0.067122824 -0.12885611
000220 92 83 ed 3c b4 f7 c0 3d ce 07 0d 3d 9e 4a 42 3b
       0.028993402 0.094222456 0.03443127 0.0029646526
000230 1d ea a5 3c 80 6d 34 3c 7c 54 8b bd a5 b2 8a bd
       0.020253235 0.011012435 -0.068032235 -0.06772355
000240 8d 61 1b bd af 6c ec bd 14 ef 8e 3d b2 2c c4 3c
       -0.03793483 -0.11544167 0.06979194 0.023947094
000250 49 ed d9 3d 80 26 ec 3d 38 b1 6b bd 82 81 7d bd
       0.10640962 0.11530781 -0.057542056 -0.061891086
000260 9c 9e 11 3d fa a1 9f bd 1c 78 51 bd 64 9d a7 ba
       0.035551652 -0.077945665 -0.051139936 -0.0012787995
000270 d9 0f 4e bd 43 f4 c9 3d 5e 9e 5b 3d 88 f9 9f 3d
       -0.050308082 0.09861042 0.053617828 0.07811266
000280 c9 da b9 3b 19 cb 20 3d de e7 54 bd 77 f3 a5 3c
       0.005671833 0.03925619 -0.05197894 0.020257695
000290 ab 7b fb bd 43 74 fe bc 92 76 12 bd d6 de bc bc
       -0.12279447 -0.031061297 -0.03575761 -0.023055475
0002a0 0e 42 07 bd e9 6e c5 3d f7 fb 32 3d 01 42 af 3c
       -0.03302198 0.09640295 0.043697324 0.021393778
0002b0 a9 65 98 bd 12 33 9d 3b 15 bd 0b 3c 9e f8 0d 3d
       -0.07441265 0.004797348 0.008528967 0.034660928
0002c0 65 42 e5 3c 47 f2 94 bd 62 91 8c bc c9 61 b5 bc
       0.027985761 -0.07272773 -0.017159168 -0.022141354
0002d0 87 e4 4f 3d 26 89 a4 bb c3 f6 e1 3c b1 6e f5 bd
       0.05075505 -0.005021232 0.027583485 -0.11984003
0002e0 78 ac 8f bc f4 aa 19 bd 6a 91 05 bd 74 4a 15 be
       -0.017538294 -0.03751655 -0.03260938 -0.14579183
0002f0 5d 13 09 3e aa 2d 83 3c f8 0c 6d 3d 97 d3 67 3d
       0.13386293 0.016012985 0.057873696 0.056598272
000300 29 53 d7 bd 8b 1d 6f 3a 5f ee b8 3d 4a 28 db bd
       -0.105139084 0.0009121529 0.09029841 -0.10701044
000310 64 4c ff bb b5 6c b3 b9 5b 42 e5 3c 26 b4 29 3d
       -0.007791089 -0.00034222534 0.027985742 0.04143157

ntm.controller.lstm.weight_ih_l0 f4 [400, 110]
000000 82 12 83 be 06 d0 0b 3e 66 b7 70 3d da 7b 63 be
       -0.25600058 0.13653573 0.058768652 -0.22215214
000010 87 28 ad be 0a 3b 62 be 47 16 c8 3d ab 61 24 3e
       -0.33819982 -0.22092834 0.09769874 0.16052882
000020 b0 f9 86 be 42 d6 b7 bd 59 28 27 be ae 9c 51 3d
       -0.2636237 -0.08976413 -0.16323985 0.051174812
000030 a2 8e 80 3e ae ca d4 3d 1e d3 29 3d 5a fd 66 3e
       0.2510882 0.103902206 0.041461103 0.22557583
000040 26 15 90 bd d9 f1 ec 3d c5 44 80 3e e8 c5 68 be
       -0.07035284 0.11569566 0.25052467 -0.22731745
000050 99 5a 82 3d d9 18 99 be 31 ee 2f 3d 57 a3 b4 be
       0.063649364 -0.2990177 0.042951766 -0.35280868
000060 5b 01 4f 3d 14 7c 1a be 71 be 0a be 0f 4c a9 be
       0.050538402 -0.15086395 -0.1354921 -0.3306584
000070 8f 26 7a be 3d 74 81 bc af c9 6d 3d 1d 58 8b be
       -0.24428771 -0.015802497 0.05805367 -0.27215663
000080 c7 c7 90 3d 55 1f df 3a 5f 3c 3f 3e 9c 00 60 bd
       0.070693545 0.0017022887 0.18675373 -0.05468808
000090 09 4a 9e be 6a 57 af 3e f7 46 44 be b4 5a 3b 3e
       -0.3091586 0.3424638 -0.19167696 0.18296319
0000a0 9b 3d f0 3d 78 5d 9a be 7f 3c c7 3d f0 0a 42 3d
       0.117305 -0.30149436 0.097283356 0.047373712
0000b0 7f 32 9b 3e aa d5 16 3e de be 79 3e e9 8b 45 3e
       0.30311963 0.14729944 0.24389216 0.19291653
0000c0 94 57 6a 3e 56 da 50 be 10 93 9e bd 75 53 02 3e
       0.22884971 -0.20395789 -0.07742894 0.12727149
0000d0 86 4d a4 3e a3 d0 34 be 21 03 a3 be 34 ac d8 bd
       0.32090396 -0.17657714 -0.31838325 -0.1057972
0000e0 fe 79 15 bd 12 76 81 bc e0 22 85 3e b6 88 64 be
       -0.036493294 -0.01580337 0.2600317 -0.22317776
0000f0 d0 93 b6 be 27 6a 0a bc df ff b7 bc 02 3f 4b be
       -0.35659647 -0.00844816 -0.022460876 -0.19848254
000100 41 45 61 be 73 83 84 be f9 ce d1 3d 49 72 77 bd
       -0.21999075 -0.25881538 0.10244555 -0.060411725
000110 9a 23 25 3e a3 f2 3b bd d3 c3 68 be 44 76 df 3d
       0.16126862 -0.045885693 -0.22730951 0.10911229
000120 5d 40 08 bc 25 fd da 3c 19 ec 72 be cb d5 a3 3e
       -0.008316127 0.026732037 -0.23722877 0.3199905
000130 e3 03 34 3d e8 c4 78 3d 65 26 46 3e 19 0a 82 3e
       0.04394902 0.06073466 0.19350584 0.2539833
000140 95 ef b9 be cc ba b3 3d 6e a9 f6 bd 7f f6 25 be
       -0.363156 0.08775863 -0.12044035 -0.16207312
000150 f8 d0 bc bd 7c ce 60 3e ee 5d 21 3d 6e 99 3b be
       -0.09219545 0.21953768 0.03939622 -0.18320248
000160 f9 f0 73 be ad cf b4 bc af 42 aa bc f6 60 9f 3e
       -0.23822393 -0.022071684 -0.02078375 0.31128663
000170 b0 e9 72 3e 3a de 9f 3c e1 ba 13 3e 00 2f 58 be
       0.23721957 0.019515146 0.14426757 -0.21111679
000180 dc 07 9a bd cb cb 79 3e 18 5b b8 3e 11 41 98 3d
       -0.0752103 0.24394147 0.36007 0.074342854
000190 be 3b be 3c 3f d5 fe bd 12 93 22 be c1 36 58 be
       0.023221847 -0.12443017 -0.15876415 -0.21114637
0001a0 2b 57 dd bc 1d af 80 bd 9c 57 d8 3d b3 fa 99 3e
       -0.027019104 -0.062834 0.10563585 0.3007408
0001b0 66 76 a0 3e c0 f2 90 3d 04 0a 6a be 20 8b 68 bc
       0.3134033 0.07077551 -0.22855383 -0.014193326
0001c0 7a a9 4f be 1e fe 9a be a9 9f 3f 3e c1 e9 24 3d
       -0.20279494 -0.30272 0.1871325 0.040261988
0001d0 94 39 16 3e 7c d1 3d 3e e2 da a6 be ad bd 40 bd
       0.14670402 0.18536943 -0.3258887 -0.04705589
0001e0 00 b2 23 3d 64 a3 8c 3d 16 14 13 be a5 b8 b9 be
       0.039964676 0.06867102 -0.14363131 -0.36273685
0001f0 3f 9f 9e 3e de b2 4c 3e ac 58 43 3e e2 fc 54 be
       0.3098087 0.19990107 0.19076794 -0.20799592
000200 d8 4d 05 3d 79 8f 96 be ea e8 2d 3e 08 34 0b 3e
       0.03254494 -0.29406336 0.16983381 0.13594067
000210 38 f0 9a be 67 b7 8a 3c cb 74 9b be a5 b9 66 3d
       -0.30261397 0.016933156 -0.30362543 0.05632939
000220 40 68 96 3e 70 a7 96 be b5 9e 29 bd e8 cf 9a 3e
       0.2937641 -0.2942462 -0.04141112 0.30236745
000230 bd e0 a0 3d a2 a7 13 3e 83 3f 81 be d4 65 b8 be
       0.078553654 0.14419416 -0.25243768 -0.3601519
000240 88 61 63 be 7c dd bb bc d4 5e 54 be 86 d3 9e 3e
       -0.22205174 -0.02293276 -0.20739299 0.31020755
000250 05 91 38 be 55 49 aa bc 87 2c a7 be a9 d3 91 be
       -0.1802407 -0.02078692 -0.3265116 -0.28481796
000260 e2 67 2f 3e 35 59 aa be 30 f0 b4 3d 7a 70 7d 3e
       0.17129472 -0.33271185 0.08834875 0.24749938
000270 f4 d6 02 3c 52 c6 66 3e ae b0 13 be 7a c2 f3 3d
       0.007985819 0.2253659 -0.14422867 0.11902328
000280 f4 a4 3e be 2f 50 85 bd 91 28 56 bb 84 f0 a0 3d
       -0.18617612 -0.065094344 -0.0032677988 0.07858375
000290 a7 9f 56 3e 57 fd 93 3d b5 b4 cc 3d 9d 10 41 be
       0.2095934 0.07226055 0.09995405 -0.18853994
0002a0 6b 6c c7 bd 53 a0 1a 3e 38 08 8b be e5 26 a6 3e
       -0.09737476 0.15100221 -0.27154708 0.3245155
0002b0 90 25 8d 3e 70 03 ec 3d 54 07 01 be db 07 9f be
       0.2756772 0.11524093 -0.12600452 -0.3106068
0002c0 d8 15 9a 3e 54 1f 72 be 9c 69 39 be a4 3a fd bd
       0.3009479 -0.23644763 -0.18106693 -0.123647004
0002d0 61 be 60 3e fb 6c 72 3e 5a d9 7a be f0 b4 b7 be
       0.21947624 0.23674385 -0.24496976 -0.35880232
0002e0 36 63 9c bc cc 3d 59 be 02 b6 ea 3d 4c c4 a3 be
       -0.019090276 -0.2121498 0.114604965 -0.319857
0002f0 65 a5 46 bd 21 38 0c bd e7 55 72 be a7 7c a7 3e
       -0.048497576 -0.034233216 -0.23665582 0.3271229
000300 0e c8 c2 be 98 aa b0 be aa 11 4e be 19 c5 dd 3d
       -0.38043255 -0.34505153 -0.20123926 0.10828609
000310 ab 2e d7 bd 39 5d 99 3e 1c 4a cb bd da fe f6 3d
       -0.10506948 0.29953936 -0.099262446 0.12060328
000320 80 c4 0e be 4d 22 b6 3c fd d8 00 3d 26 ec b6 3d
       -0.13942146 0.022233153 0.031456936 0.089317605
000330 14 0e 98 3e c1 05 03 3e 27 58 90 3c 27 0a 09 be
       0.2969824 0.12795164 0.01762016 -0.13382779
000340 07 b0 53 be 13 dc 85 3e 8e 69 44 3e 2c a3 12 3e
       -0.20672618 0.26144466 0.19180891 0.14320058
000350 45 9b 35 be 4a c3 4a 3e 62 92 12 3d 98 86 de bd
       -0.17735012 0.1980106 0.035784133 -0.108655155
000360 33 53 38 bd d0 12 13 3e 93 a1 47 3e 90 10 9e 3d
       -0.04500122 0.14362645 0.1949523 0.07718003
000370 c6 02 52 3e ce 18 ed bd 39 43 1a 3e 67 5e 6e 3d
       0.2050887 -0.11576997 0.15064706 0.058195498
000380 4e 89 9c 3d 0e 1f f9 3d 44 92 6b bd 06 1f 0f be
       0.07643376 0.12164126 -0.057512537 -0.13976678
000390 9c 62 77 3d 8b 84 90 3e 0f 39 87 3e a3 65 4f 3e
       0.060396776 0.28226122 0.2641072 0.20253615
0003a0 cd dd 80 be ee 9a 57 be a0 cb 78 3e 83 35 6a be
       -0.2516922 -0.21055195 0.24296427 -0.22871976
0003b0 b8 13 8b be bd 5c 64 3e ea 5b cd bd 95 6e dd 3c
       -0.27163482 0.22301002 -0.10027297 0.027030269
0003c0 41 1c 9a 3d 4b 0d 04 be ea e5 bb 3d e1 67 3f be
       0.0752492 -0.12895696 0.09174712 -0.1869197
0003d0 99 41 98 be 88 6f dc bd de d9 5e be 85 1b b6 bd
       -0.29737547 -0.107634604 -0.21762797 -0.08891968
0003e0 0f 6c 38 3d 11 41 5d bc 47 05 9c be 66 14 2d bd
       0.045024928 -0.013504283 -0.30472776 -0.04225578
0003f0 2c 7a 07 be ac 4d 8b be 39 83 37 be 2d 67 87 bd
       -0.13230199 -0.27207696 -0.17921151 -0.06611476

ntm.controller.lstm.weight_hh_l0 f4 [400, 100]
000000 83 02 93 be 24 fb e5 3c de 2e 60 be fa 96 8f 3e
       -0.28712854 0.028073855 -0.21892878 0.28044873
000010 78 4c 6e 3e 09 2a 45 3e 0a f3 7a be 38 ea 97 bd
       0.23271358 0.19254316 -0.24506775 -0.074177206
000020 dd 99 3f be ab 55 66 3e 03 59 84 be 2d 73 09 be
       -0.18711038 0.22493617 -0.2584916 -0.13422842
000030 40 38 7b 3e 18 b8 4a be e9 1b 80 3e 29 77 91 bc
       0.24533176 -0.19796789 0.25021294 -0.017757015
000040 61 81 8d bd 6e ac cd bd 54 e4 92 be 84 55 22 be
       -0.06909443 -0.10042654 -0.28689826 -0.15852934
000050 c5 d3 ff bd 15 d8 40 be f6 7e 51 be 80 c7 18 bd
       -0.12491564 -0.18832429 -0.20458588 -0.037299633
000060 02 ba b3 3e 72 0e dd 3d b0 ec 83 3e d2 a2 71 ba
       0.3510285 0.10793771 0.25766516 -0.00092176825
000070 d1 9e 9e 3e 47 3d bb bd c8 d7 98 bd 9d b5 86 3e
       0.30980542 -0.09142547 -0.07463032 0.26310435
000080 56 1c af 3d 84 3b b2 bd 38 fd 23 3e 36 ab 3d 3e
       0.085503265 -0.08702758 0.16014564 0.18522343
000090 b9 72 1f 3e 51 74 9f be 38 fb 14 3e c2 e3 a2 be
       0.15571107 -0.3114343 0.14548957 -0.3181439
0000a0 ef 3f a8 3e 14 5d 7c 3e 04 44 5d be ec f3 98 3e
       0.32861277 0.24644881 -0.21607977 0.29873598
0000b0 99 f8 63 3d 6b ab ab 3e 22 22 92 be 9b fe 90 be
       0.055657003 0.3352922 -0.28541666 -0.2831925
0000c0 85 8c d1 3d a9 43 99 3e 2d 35 f7 3d 72 9e 28 3e
       0.1023188 0.29934433 0.12070689 0.16466692
0000d0 c4 5a 21 3b 9a 1b d8 bc 34 e0 21 be 76 a5 42 be
       0.002462075 -0.026380349 -0.15808183 -0.19008431
0000e0 a1 48 f4 3d 33 d5 80 bd 20 0a f7 bd 0d 77 24 3e
       0.11927915 -0.062906645 -0.12062478 0.1606104
0000f0 3c cc 7f bd b9 c7 2a be 22 ae 72 be 84 09 a8 3e
       -0.062450632 -0.1667775 -0.23699239 0.3281976
000100 13 4f f4 3d 04 6c 0f be ac f6 4a be 1f 21 ab 3d
       0.11929145 -0.14006048 -0.1982066 0.08355927
000110 7d ae 92 3e 6d 65 c9 be ec 28 60 3d 4b e7 02 3d
       0.2864875 -0.39335194 0.054726526 0.03195886
000120 bd 4d 6a 3e ff 01 11 be 29 8b 63 3e 35 4c 60 3c
       0.22881217 -0.14160918 0.22221054 0.013690044
000130 c7 f5 ab 3d 5d f1 a1 3e 3b 73 51 be 96 ae 4f 3e
       0.08396488 0.31629458 -0.20454113 0.20281443
000140 5c 01 1e be 18 52 b9 be 3a 34 b1 3e 2e 64 6e 3e
       -0.15430206 -0.36195445 0.34610158 0.23280403
000150 ff c3 8a 3e ed 3b 7f be 64 e6 9b be 40 41 5f bd
       0.27102658 -0.24925204 -0.30449212 -0.054505587
000160 51 a6 b8 3c 50 a8 1c be 2e ee 28 3e 9e 48 55 3e
       0.022540243 -0.15298581 0.16497108 0.20828483
000170 d0 64 ad be 12 86 0f 3e 78 96 f9 3d ba 4b 9a 3d
       -0.33865976 0.14015988 0.12186903 0.07533975
000180 e7 9d e6 3c b5 19 d5 3d ef 0b d3 3d c7 b3 99 be
       0.028151466 0.10405294 0.103050105 -0.30019972
000190 1f f3 9e 3e 8e 22 1c be 4d 3d 46 be dc 4c 06 be
       0.31044862 -0.15247557 -0.19359322 -0.13115257
0001a0 e7 4a 10 be 1a f0 3c 3e 9f c2 7a bd 1f bd f4 3c
       -0.14091073 0.18450966 -0.06122076 0.029875336
0001b0 8d 71 04 3e 37 f0 1e be 14 7b 0d 3e ad d2 1b 3e
       0.12933941 -0.15521322 0.13816482 0.15217085
0001c0 fa 65 a4 be 69 03 2d 3e 2e f9 5d be 60 6b 33 3e
       -0.32109052 0.16895832 -0.21677086 0.17521429
0001d0 aa f2 3e be 95 4a 34 be b0 dc c3 bd 2d 8c 96 be
       -0.18647256 -0.17606576 -0.09563577 -0.2940382
0001e0 fd a8 60 3c d5 f9 fc bd 8f 90 5c 3d f8 6b 02 3d
       0.013712165 -0.12352339 0.0538488 0.03184125
0001f0 ad 12 81 3e 0a 28 b2 be df fd ac be 25 c4 62 be
       0.2520956 -0.34796172 -0.33787438 -0.22145136
000200 01 10 90 bd 96 30 61 3e 23 b0 9d 3e 86 05 2f 3e
       -0.070343025 0.2199119 0.30798444 0.17091951
000210 18 98 d0 3e a8 db bf be 50 0f 96 3e 3d 61 3b 3e
       0.40741038 -0.37472272 0.29308558 0.18298812
000220 d4 2b 39 bc 88 97 f9 bb 85 58 88 be 27 73 4b bd
       -0.011301953 -0.007616941 -0.26630035 -0.049670365
000230 4f e0 1b 3e ef 47 77 be bc db a4 3e f4 84 73 3e
       0.15222286 -0.24148534 0.32198894 0.23781186
000240 5b 93 0e be 04 20 90 3d 26 98 de bd 7f 05 df bd
       -0.13923399 0.070373565 -0.10868864 -0.1088972
000250 71 d4 f6 3c 19 83 2e be 0a 20 b3 3d 2b 83 c6 bc
       0.030130597 -0.17042197 0.08746345 -0.024232468
000260 22 28 18 3e 64 dd 05 3d a5 45 14 be 07 d0 92 be
       0.1485906 0.032681838 -0.14479692 -0.28674337
000270 7a a5 74 3e 9f c3 1c 3e 96 f5 41 be 94 83 25 3e
       0.2389125 0.15308999 -0.1894134 0.16163474
000280 cf bf 40 3e a5 06 b3 3d cf 79 5b be 68 43 59 be
       0.18823169 0.08741502 -0.21433185 -0.2121712
000290 fb 35 8c 3e 50 fb 50 3e 9b 0a 3f be 15 d0 0d 3c
       0.27384934 0.20408368 -0.1865639 0.008655568
0002a0 5e 66 d6 3e 19 74 1a be 36 47 92 be 22 15 84 3e
       0.41874975 -0.1508335 -0.28569955 0.25797373
0002b0 31 88 23 be 43 e3 15 be 58 9e ab be 0e a0 7d be
       -0.15969922 -0.14637475 -0.33519244 -0.24768087
0002c0 26 ec 0e 3d f7 dd 36 3e 8f 0c d3 3d 58 13 5d bd
       0.034893177 0.1785811 0.1030513 -0.053973526
0002d0 a8 fd 31 bd a3 dd 82 3e 5b 41 b9 3d 8e 95 48 3e
       -0.043454796 0.2555972 0.09045669 0.195883
0002e0 84 93 3b 3d cd cc a0 3e e7 e7 05 3d 82 bb 36 be
       0.04579498 0.3140625 0.032691862 -0.17844966
0002f0 b2 32 c7 3d 43 34 7e 3e e4 21 d2 bd 9f 4d 89 3e
       0.09726466 0.24824624 -0.102603704 0.26817033
000300 77 98 5b 3d b7 17 5a 3d 19 f3 da 3c 4c 98 61 3e
       0.0536122 0.053245272 0.026727246 0.22030753
000310 8b 29 05 3c b2 48 b2 3e 1f 9d 5b 3e 7b 7a a8 3e
       0.00812758 0.34821087 0.21446656 0.32905945
000320 51 97 db bd 73 74 f8 bc 75 df 94 3e 9a aa 8b be
       -0.10722221 -0.030328965 0.29076734 -0.27278596
000330 91 d0 ad 3d 59 4f a7 bd 50 67 20 3e ad 77 83 3e
       0.084870465 -0.08169431 0.1566441 0.25677243
000340 bb d2 15 3d d2 bf 2d 3e 6a 5b ed 3b 60 26 85 be
       0.03657792 0.16967705 0.0072435634 -0.2600584
000350 eb aa 40 be 67 85 56 be 5a 23 08 be 74 05 98 3e
       -0.188152 -0.20949326 -0.13294736 0.2969166
000360 52 c9 d7 3d 13 61 8e 3e c3 ec 83 3e 5f 79 9a be
       0.10536446 0.27808437 0.25766572 -0.30170724
000370 61 54 44 be 97 b9 a4 3e bb fd 0f be c3 bc b1 be
       -0.19172813 0.32172844 -0.14061634 -0.34714326
000380 6e f6 ab be 05 19 6d be 42 fc 4a 3e 9e 16 4b be
       -0.33586448 -0.23154075 0.19822791 -0.19832847
000390 f4 36 8d 3e 08 7a 46 3d 0d 1d ae be 83 2d 7c be
       0.27580988 0.04845622 -0.3400654 -0.24626736
0003a0 21 0a 8d 3e b8 a6 e2 bd 70 56 b7 bc 9b 9d 44 be
       0.2754679 -0.11066955 -0.022380084 -0.19200747
0003b0 14 ef 3a be 6f e7 b1 3e 5c ff 90 3e 24 35 95 3e
       -0.18255264 0.34746882 0.28319824 0.29142106
0003c0 09 55 6b 3e 81 99 6a 3e 12 59 77 3d ce 47 02 3d
       0.22981657 0.2291012 0.06038768 0.03180676
0003d0 e1 88 20 be 08 ad 79 3e a9 24 c0 3e 48 94 e0 3c
       -0.15677215 0.24382412 0.3752797 0.027414456
0003e0 37 e1 10 3e 13 81 60 be dc ad 6b bd 5a c1 d3 bd
       0.14148413 -0.21924238 -0.057538852 -0.10339613
0003f0 1b aa 50 be 46 e3 49 3e b3 08 93 bd 15 9b 83 3d
       -0.2037739 0.19715604 -0.071793936 0.06426064

ntm.controller.lstm.bias_ih_l0 f4 [400]
000000 b0 05 83 3c 89 0b aa bc a7 4b 49 bb 95 67 fe 3a
       0.015993923 -0.020757454 -0.0030715258 0.0019409532
000010 bd 13 b4 bc d0 a7 06 bd 2b 66 e9 bb ce 37 08 bd
       -0.021982068 -0.032874882 -0.007122775 -0.033256344
000020 f6 df 5c bc 3b 11 8b bc 06 d5 8f bc 76 d2 86 bd
       -0.013481131 -0.01697599 -0.017557632 -0.06583111
000030 01 cf 49 3c 1e 05 a5 bc 95 ca 67 bd 92 23 f5 3c
       0.01231742 -0.020144042 -0.05658968 0.029924188
000040 8e f7 24 3d 58 20 0c bd af d5 1f bd 9e 0b 92 bd
       0.04027515 -0.034210533 -0.039022144 -0.07131122
000050 60 73 3e bd df 57 05 bd 96 b5 c4 bc c7 5a b4 bc
       -0.04649675 -0.032554504 -0.024012368 -0.022015942
000060 26 c4 08 3d 41 60 ff bc 99 eb 5d bc 10 95 9b bc
       0.033390187 -0.031173827 -0.01354494 -0.018991977
000070 62 3f f1 3b 73 0f 44 bd 37 52 a3 3c 2a 51 27 bc
       0.007362292 -0.047866296 0.019936664 -0.010212222
000080 bb 03 e8 3b 41 25 3b bc c4 16 9a bc a7 93 5a bc
       0.007080523 -0.011422456 -0.018809684 -0.013340867
000090 d6 8a 08 bd 49 8f 68 bc a8 79 20 bc e5 e8 69 bc
       -0.03333553 -0.014194318 -0.00979463 -0.014276718
0000a0 d6 72 3a 3b fc 30 d6 3a 67 e3 18 bd e6 93 14 bd
       0.0028449795 0.0016341503 -0.037326243 -0.03627386
0000b0 fd 88 8d 3c 06 fa ca b9 77 9c e5 bc 7d a3 1a 3a
       0.017277235 -0.00038714724 -0.02802871 0.00058989954
0000c0 f9 26 16 bd 39 26 a9 3b b7 f7 11 bd 9e da f9 bc
       -0.03665826 0.005162027 -0.03563663 -0.030499753
0000d0 c6 26 2c bc a1 80 80 bc 8f 30 e6 bc bb a9 96 bc
       -0.010507291 -0.015686335 -0.028099326 -0.01839148
0000e0 7a e6 1d 3b c4 62 7d bc 01 89 0d bd 4f c6 b7 3c
       0.0024093674 -0.015465442 -0.034554485 0.022433428
0000f0 18 b1 40 bb 5f ab 8b 3c a3 51 43 bb 62 3e f2 bc
       -0.002940243 0.01704949 -0.0029803298 -0.029570762
000100 53 5b 69 bb 30 92 9d bc 77 20 d5 bc 74 b6 31 bc
       -0.0035607412 -0.019234747 -0.026016457 -0.010846723
000110 9b 9b ca bb fa 58 16 bd 2e 31 55 bd 9b 40 25 b8
       -0.0061831004 -0.03670595 -0.052048855 -3.9399234e-05
000120 b3 31 0f bd a0 96 e8 bc 40 64 82 bd a5 71 02 bd
       -0.034959506 -0.028392136 -0.063667774 -0.03184666
000130 06 28 83 bd 2f 5a f7 bc 79 a3 94 bc 03 69 fe bc
       -0.06404118 -0.03019437 -0.018144356 -0.031055933
000140 69 ed 22 bd 25 cd 1b bd a5 fe 81 bd 35 c5 18 bc
       -0.039777193 -0.038037438 -0.06347398 -0.009324362
000150 ea 65 d3 bc 71 eb 27 bd e1 d1 3b 3c b9 47 c4 3b
       -0.025805432 -0.04099602 0.011463613 0.0059899953
000160 77 22 8e bc db 18 1d 3d ba 53 8b 3c 48 fd 92 bc
       -0.017350418 0.038353782 0.017007697 -0.01794304
000170 5c 57 2f 3c 98 04 ff 3b b1 c4 87 bc 3c 74 e2 bc
       0.01070198 0.00778253 -0.016573282 -0.027643315
000180 1c a5 0b bb 1a ef e6 bc 8b 87 f2 bc b9 b9 27 3d
       -0.002130813 -0.028190184 -0.029605648 0.040948603
000190 a5 ea 4b 3c 37 3b 26 3d 07 dd 4d 3c 04 fd 19 3b
       0.01244608 0.040583815 0.012564904 0.0023496756
0001a0 e8 ad b3 bc df ad ad 3c 0a f0 7b 3c 94 47 87 bc
       -0.02193351 0.021201072 0.015377054 -0.016513623
0001b0 de 36 26 3d 84 6c 07 bd c2 5a fe 39 4b bb 02 bc
       0.04057967 -0.033062473 0.00048514275 -0.007979224
0001c0 a1 92 50 bc 91 1d 05 bc bd 0c 49 bb c4 3b 75 3d
       -0.012730272 -0.008124725 -0.0030677759 0.05987145
0001d0 d1 88 56 3c ad 41 83 bc 0f 03 1c 3b 43 f8 fb bc
       0.013094143 -0.016022528 0.0023805534 -0.030758029
0001e0 5b 60 fe bc c6 c0 1d bd 55 56 5c 3d 7a 23 77 bc
       -0.031051805 -0.03851392 0.05379327 -0.015084142
0001f0 09 f9 72 3d 54 26 cb 3c a3 fb b0 3c 55 f0 b3 ba
       0.05931953 0.02479855 0.021604365 -0.0013728241
000200 cd a1 9c 3a 5f c4 03 bd 8f ca 20 3d dd 6a 3c 3b
       0.0011950076 -0.032169696 0.039255675 0.002875022
000210 3c 5a 87 ba e3 ec 3b bc 70 fa a2 3b 56 b1 5a bc
       -0.0010326575 -0.011470052 0.004973702 -0.013347944
000220 d0 86 0b bd 53 e3 27 bc cb d1 4b 3a 61 e7 26 bc
       -0.034064114 -0.010247069 0.0007775097 -0.010187001
000230 35 d8 d7 3c ee a7 2a 3d 11 6c 66 bc 5d 80 2a bd
       0.026348213 0.041664056 -0.014063851 -0.041626323
000240 2e 61 67 3d 24 d8 e2 3b e6 f2 51 bc 17 35 b4 3c
       0.056489162 0.0069227386 -0.012814259 0.021997971
000250 11 66 81 bc 5e ee a2 3c ad e4 8a bc 70 4c 60 bc
       -0.01579574 0.019889053 -0.016954744 -0.013690099
000260 5a b1 d2 3c 14 62 a1 bc 02 c6 24 3d c2 4c 3e 3c
       0.025719333 -0.019700088 0.040227897 0.01161498
000270 26 db 10 bb fc 10 8e bc d6 ec 5b bc b5 40 6c 3c
       -0.002210328 -0.017342083 -0.013423165 0.014419724
000280 a1 50 6e 3c 61 0d f2 3c 01 a3 b6 3b 6f 01 3f 3c
       0.014545591 0.029547395 0.005573631 0.011658057
000290 6b ee 11 3d 2b a0 d6 3c 4d d1 64 3b af 8f 69 3d
       0.035627764 0.02619942 0.0034914792 0.057021793
0002a0 a6 c7 30 3d bb 47 37 bc bf 25 04 bd 8f 70 4d 3c
       0.04315915 -0.0111865355 -0.03226256 0.012539043
0002b0 40 23 e9 bc 15 33 ec 3c f7 06 95 bd fc 9f c1 bc
       -0.028459191 0.028832952 -0.07276719 -0.023635857
0002c0 70 06 04 bd e4 b7 83 bc fb 47 53 bc 7d 9f 00 3d
       -0.0322327 -0.016078897 -0.012895579 0.0314021
0002d0 3d fd f3 bc 25 a9 35 bd 15 09 9c bd 1e 2c 56 bc
       -0.02978384 -0.044350762 -0.0761892 -0.013072042
0002e0 33 89 a7 bc ca 79 3e bd 12 75 9b 3c 4e 4b f6 3c
       -0.020451164 -0.046502866 0.018976722 0.030065205
0002f0 40 92 a9 3b 79 f6 5e 3d 6f f0 02 3d 20 6d bb 3b
       0.005174905 0.054434273 0.031967577 0.005719796
000300 07 cc ad bb 8a 61 e3 3b f3 bb cd bb 94 50 42 3b
       -0.005303863 0.006939118 -0.006278509 0.002965008
000310 00 5f ab bb 38 e7 71 bc 4e 65 13 3d f2 98 fc 3c
       -0.0052298307 -0.0147645995 0.035985284 0.030834649
000320 62 0a 18 3d fc fc 0a bc df 99 b5 3c 35 fc 34 3c
       0.037119277 -0.008483168 0.022168098 0.011046459
000330 40 d1 e5 bc 69 51 d7 3a f6 e2 6a bb e3 1d 2e bc
       -0.02805388 0.001642746 -0.0035840846 -0.010627243
000340 b6 3b b4 bb 67 65 12 bd 42 f1 0c 3d 41 e4 4f 39
       -0.005500282 -0.035741236 0.03440977 0.0001982609
000350 b0 68 8c 3c 5f e8 37 bc 15 69 29 3c 76 ed c8 bc
       0.017139763 -0.011224835 0.010339995 -0.024527293
000360 c1 67 1d bc 3c 84 4f bc f0 a3 ed 3b 1e f2 73 bc
       -0.009607256 -0.0126658045 0.007252209 -0.014889268
000370 53 b3 3f 3d 5e ba 28 bd 2e 90 52 3c ee 34 83 bb
       0.046801876 -0.04119336 0.012851758 -0.0040041124
000380 ed f7 c8 3b b0 d2 fc 3a 61 e7 a2 3c 18 c4 b1 3b
       0.0061330707 0.0019288864 0.01988572 0.0054249875
000390 7f ca 7f bd 1f ce da bc 4e 88 dc 3a bf ec b6 3c
       -0.062448975 -0.026709614 0.001682529 0.022329686
0003a0 a1 b9 5a bc fa cc f1 3b 6a 01 da 3c 6a a4 0a bd
       -0.013349921 0.0073791714 0.026612002 -0.033848204
0003b0 2b a2 6d 3b 55 44 61 bc 6b 1c d9 bc d3 de 30 bd
       0.003625999 -0.013749202 -0.026502809 -0.04318125
0003c0 7d db ca bc ea 9a af bc 6c 1d ea bc 61 06 2f bc
       -0.024762863 -0.021436173 -0.028578483 -0.010682673
0003d0 20 b6 5f 3a 49 e9 1a 3d 51 cb 2e 3d 53 5d 3f bd
       0.00085339136 0.037820134 0.042674366 -0.04671986
0003e0 18 8e 5b 3d 41 34 ae b9 ec 5a ff bc 0e a1 9a bb
       0.053602308 -0.00033226798 -0.031171285 -0.0047189062
0003f0 13 49 d3 3c be 3c 1a 3c 1d 81 55 bc 8e 45 a7 3c
       0.02579168 0.009413896 -0.013031271 0.020418908

ntm.controller.lstm.bias_hh_l0 f4 [400]
000000 b0 05 83 3c 89 0b aa bc a7 4b 49 bb 95 67 fe 3a
       0.015993923 -0.020757454 -0.0030715258 0.0019409532
000010 bd 13 b4 bc d0 a7 06 bd 2b 66 e9 bb ce 37 08 bd
       -0.021982068 -0.032874882 -0.007122775 -0.033256344
000020 f6 df 5c bc 3b 11 8b bc 06 d5 8f bc 76 d2 86 bd
       -0.013481131 -0.01697599 -0.017557632 -0.06583111
000030 01 cf 49 3c 1e 05 a5 bc 95 ca 67 bd 92 23 f5 3c
       0.01231742 -0.020144042 -0.05658968 0.029924188
000040 8e f7 24 3d 58 20 0c bd af d5 1f bd 9e 0b 92 bd
       0.04027515 -0.034210533 -0.039022144 -0.07131122
000050 60 73 3e bd df 57 05 bd 96 b5 c4 bc c7 5a b4 bc
       -0.04649675 -0.032554504 -0.024012368 -0.022015942
000060 26 c4 08 3d 41 60 ff bc 99 eb 5d bc 10 95 9b bc
       0.033390187 -0.031173827 -0.01354494 -0.018991977
000070 62 3f f1 3b 73 0f 44 bd 37 52 a3 3c 2a 51 27 bc
       0.007362292 -0.047866296 0.019936664 -0.010212222
000080 bb 03 e8 3b 41 25 3b bc c4 16 9a bc a7 93 5a bc
       0.007080523 -0.011422456 -0.018809684 -0.013340867
000090 d6 8a 08 bd 49 8f 68 bc a8 79 20 bc e5 e8 69 bc
       -0.03333553 -0.014194318 -0.00979463 -0.014276718
0000a0 d6 72 3a 3b fc 30 d6 3a 67 e3 18 bd e6 93 14 bd
       0.0028449795 0.0016341503 -0.037326243 -0.03627386
0000b0 fd 88 8d 3c 06 fa ca b9 77 9c e5 bc 7d a3 1a 3a
       0.017277235 -0.00038714724 -0.02802871 0.00058989954
0000c0 f9 26 16 bd 39 26 a9 3b b7 f7 11 bd 9e da f9 bc
       -0.03665826 0.005162027 -0.03563663 -0.030499753
0000d0 c6 26 2c bc a1 80 80 bc 8f 30 e6 bc bb a9 96 bc
       -0.010507291 -0.015686335 -0.028099326 -0.01839148
0000e0 7a e6 1d 3b c4 62 7d bc 01 89 0d bd 4f c6 b7 3c
       0.0024093674 -0.015465442 -0.034554485 0.022433428
0000f0 18 b1 40 bb 5f ab 8b 3c a3 51 43 bb 62 3e f2 bc
       -0.002940243 0.01704949 -0.0029803298 -0.029570762
000100 53 5b 69 bb 30 92 9d bc 77 20 d5 bc 74 b6 31 bc
       -0.0035607412 -0.019234747 -0.026016457 -0.010846723
000110 9b 9b ca bb fa 58 16 bd 2e 31 55 bd 9b 40 25 b8
       -0.0061831004 -0.03670595 -0.052048855 -3.9399234e-05
000120 b3 31 0f bd a0 96 e8 bc 40 64 82 bd a5 71 02 bd
       -0.034959506 -0.028392136 -0.063667774 -0.03184666
000130 06 28 83 bd 2f 5a f7 bc 79 a3 94 bc 03 69 fe bc
       -0.06404118 -0.03019437 -0.018144356 -0.031055933
000140 69 ed 22 bd 25 cd 1b bd a5 fe 81 bd 35 c5 18 bc
       -0.039777193 -0.038037438 -0.06347398 -0.009324362
000150 ea 65 d3 bc 71 eb 27 bd e1 d1 3b 3c b9 47 c4 3b
       -0.025805432 -0.04099602 0.011463613 0.0059899953
000160 77 22 8e bc db 18 1d 3d ba 53 8b 3c 48 fd 92 bc
       -0.017350418 0.038353782 0.017007697 -0.01794304
000170 5c 57 2f 3c 98 04 ff 3b b1 c4 87 bc 3c 74 e2 bc
       0.01070198 0.00778253 -0.016573282 -0.027643315
000180 1c a5 0b bb 1a ef e6 bc 8b 87 f2 bc b9 b9 27 3d
       -0.002130813 -0.028190184 -0.029605648 0.040948603
000190 a5 ea 4b 3c 37 3b 26 3d 07 dd 4d 3c 04 fd 19 3b
       0.01244608 0.040583815 0.012564904 0.0023496756
0001a0 e8 ad b3 bc df ad ad 3c 0a f0 7b 3c 94 47 87 bc
       -0.02193351 0.021201072 0.015377054 -0.016513623
0001b0 de 36 26 3d 84 6c 07 bd c2 5a fe 39 4b bb 02 bc
       0.04057967 -0.033062473 0.00048514275 -0.007979224
0001c0 a1 92 50 bc 91 1d 05 bc bd 0c 49 bb c4 3b 75 3d
       -0.012730272 -0.008124725 -0.0030677759 0.05987145
0001d0 d1 88 56 3c ad 41 83 bc 0f 03 1c 3b 43 f8 fb bc
       0.013094143 -0.016022528 0.0023805534 -0.030758029
0001e0 5b 60 fe bc c6 c0 1d bd 55 56 5c 3d 7a 23 77 bc
       -0.031051805 -0.03851392 0.05379327 -0.015084142
0001f0 09 f9 72 3d 54 26 cb 3c a3 fb b0 3c 55 f0 b3 ba
       0.05931953 0.02479855 0.021604365 -0.0013728241
000200 cd a1 9c 3a 5f c4 03 bd 8f ca 20 3d dd 6a 3c 3b
       0.0011950076 -0.032169696 0.039255675 0.002875022
000210 3c 5a 87 ba e3 ec 3b bc 70 fa a2 3b 56 b1 5a bc
       -0.0010326575 -0.011470052 0.004973702 -0.013347944
000220 d0 86 0b bd 53 e3 27 bc cb d1 4b 3a 61 e7 26 bc
       -0.034064114 -0.010247069 0.0007775097 -0.010187001
000230 35 d8 d7 3c ee a7 2a 3d 11 6c 66 bc 5d 80 2a bd
       0.026348213 0.041664056 -0.014063851 -0.041626323
000240 2e 61 67 3d 24 d8 e2 3b e6 f2 51 bc 17 35 b4 3c
       0.056489162 0.0069227386 -0.012814259 0.021997971
000250 11 66 81 bc 5e ee a2 3c ad e4 8a bc 70 4c 60 bc
       -0.01579574 0.019889053 -0.016954744 -0.013690099
000260 5a b1 d2 3c 14 62 a1 bc 02 c6 24 3d c2 4c 3e 3c
       0.025719333 -0.019700088 0.040227897 0.01161498
000270 26 db 10 bb fc 10 8e bc d6 ec 5b bc b5 40 6c 3c
       -0.002210328 -0.017342083 -0.013423165 0.014419724
000280 a1 50 6e 3c 61 0d f2 3c 01 a3 b6 3b 6f 01 3f 3c
       0.014545591 0.029547395 0.005573631 0.011658057
000290 6b ee 11 3d 2b a0 d6 3c 4d d1 64 3b af 8f 69 3d
       0.035627764 0.02619942 0.0034914792 0.057021793
0002a0 a6 c7 30 3d bb 47 37 bc bf 25 04 bd 8f 70 4d 3c
       0.04315915 -0.0111865355 -0.03226256 0.012539043
0002b0 40 23 e9 bc 15 33 ec 3c f7 06 95 bd fc 9f c1 bc
       -0.028459191 0.028832952 -0.07276719 -0.023635857
0002c0 70 06 04 bd e4 b7 83 bc fb 47 53 bc 7d 9f 00 3d
       -0.0322327 -0.016078897 -0.012895579 0.0314021
0002d0 3d fd f3 bc 25 a9 35 bd 15 09 9c bd 1e 2c 56 bc
       -0.02978384 -0.044350762 -0.0761892 -0.013072042
0002e0 33 89 a7 bc ca 79 3e bd 12 75 9b 3c 4e 4b f6 3c
       -0.020451164 -0.046502866 0.018976722 0.030065205
0002f0 40 92 a9 3b 79 f6 5e 3d 6f f0 02 3d 20 6d bb 3b
       0.005174905 0.054434273 0.031967577 0.005719796
000300 07 cc ad bb 8a 61 e3 3b f3 bb cd bb 94 50 42 3b
       -0.005303863 0.006939118 -0.006278509 0.002965008
000310 00 5f ab bb 38 e7 71 bc 4e 65 13 3d f2 98 fc 3c
       -0.0052298307 -0.0147645995 0.035985284 0.030834649
000320 62 0a 18 3d fc fc 0a bc df 99 b5 3c 35 fc 34 3c
       0.037119277 -0.008483168 0.022168098 0.011046459
000330 40 d1 e5 bc 69 51 d7 3a f6 e2 6a bb e3 1d 2e bc
       -0.02805388 0.001642746 -0.0035840846 -0.010627243
000340 b6 3b b4 bb 67 65 12 bd 42 f1 0c 3d 41 e4 4f 39
       -0.005500282 -0.035741236 0.03440977 0.0001982609
000350 b0 68 8c 3c 5f e8 37 bc 15 69 29 3c 76 ed c8 bc
       0.017139763 -0.011224835 0.010339995 -0.024527293
000360 c1 67 1d bc 3c 84 4f bc f0 a3 ed 3b 1e f2 73 bc
       -0.009607256 -0.0126658045 0.007252209 -0.014889268
000370 53 b3 3f 3d 5e ba 28 bd 2e 90 52 3c ee 34 83 bb
       0.046801876 -0.04119336 0.012851758 -0.0040041124
000380 ed f7 c8 3b b0 d2 fc 3a 61 e7 a2 3c 18 c4 b1 3b
       0.0061330707 0.0019288864 0.01988572 0.0054249875
000390 7f ca 7f bd 1f ce da bc 4e 88 dc 3a bf ec b6 3c
       -0.062448975 -0.026709614 0.001682529 0.022329686
0003a0 a1 b9 5a bc fa cc f1 3b 6a 01 da 3c 6a a4 0a bd
       -0.013349921 0.0073791714 0.026612002 -0.033848204
0003b0 2b a2 6d 3b 55 44 61 bc 6b 1c d9 bc d3 de 30 bd
       0.003625999 -0.013749202 -0.026502809 -0.04318125
0003c0 7d db ca bc ea 9a af bc 6c 1d ea bc 61 06 2f bc
       -0.024762863 -0.021436173 -0.028578483 -0.010682673
0003d0 20 b6 5f 3a 49 e9 1a 3d 51 cb 2e 3d 53 5d 3f bd
       0.00085339136 0.037820134 0.042674366 -0.04671986
0003e0 18 8e 5b 3d 41 34 ae b9 ec 5a ff bc 0e a1 9a bb
       0.053602308 -0.00033226798 -0.031171285 -0.0047189062
0003f0 13 49 d3 3c be 3c 1a 3c 1d 81 55 bc 8e 45 a7 3c
       0.02579168 0.009413896 -0.013031271 0.020418908

ntm.controller.lstm.weight_ih_l1 f4 [400, 100]
000000 54 96 8d be e5 0a 58 3e a5 29 50 be 0d fc 45 be
       -0.27653754 0.21097906 -0.20328386 -0.19334431
000010 16 5d 0d 3d 32 45 e7 3d 89 85 88 bd 39 c5 81 be
       0.0345126 0.11292495 -0.06666095 -0.2534578
000020 9a b9 26 3c ea e8 96 be 35 5d 6d 3e 03 e6 9d 3e
       0.010176087 -0.29474574 0.23180087 0.30839548
000030 dc 18 39 3e 21 65 d0 bd 96 fb 86 bc 7b ae 62 bd
       0.1807589 -0.10175539 -0.016477387 -0.05534218
000040 b1 e3 39 bd 8f 61 32 3d 0f 70 1b 3d 2f d2 76 bd
       -0.04538316 0.04355007 0.037948664 -0.06025904
000050 69 08 bc bb 32 b1 2b be 02 de c9 bd b9 31 72 be
       -0.0057383073 -0.16766813 -0.09856798 -0.2365178
000060 62 e4 a2 3c f2 0b 65 be db e0 4b be e4 d8 ea bd
       0.019884292 -0.22367838 -0.19909994 -0.1146715
000070 0f ff fd 3d 0f 87 b1 3e d5 bd 25 be e2 99 a9 be
       0.12402164 0.34673354 -0.16185696 -0.33125216
000080 07 56 9b 3e da 94 63 3e fe 44 3d 3e 30 b8 ab be
       0.3033907 0.22224751 0.1848335 -0.3353896
000090 41 49 5e 3d 4a 1d 21 be 58 14 a1 3e 09 e7 fb 3d
       0.05426908 -0.15733829 0.31460834 0.12299926
0000a0 2c ec 7c be d7 93 85 3e 08 0b aa be 11 5a 57 be
       -0.24699467 0.26089355 -0.3321154 -0.21030451
0000b0 cc 4a 00 be 94 83 7b be 5b bb 9d 3d 51 ac 06 be
       -0.12528533 -0.24561912 0.07701751 -0.13151671
0000c0 1e b3 bf bc 65 aa 3b bc 4a f8 61 3e 8a a8 b4 be
       -0.02340084 -0.011454199 0.22067371 -0.35284835
0000d0 c4 21 e0 3c 2f 75 3f be 6e 97 36 be 02 59 bb 3e
       0.02735985 -0.18697046 -0.17831203 0.36591345
0000e0 68 ac 84 3e 34 de 7e 3d 95 99 08 be e7 aa 66 bd
       0.25912786 0.06222363 -0.13339837 -0.05631533
0000f0 1c a8 80 3d 32 c8 62 be 35 10 c6 3d e3 58 9f be
       0.06282064 -0.22146681 0.0967106 -0.31122503
000100 55 88 0e 3e 85 9c be 3c 48 94 b1 be c2 41 8f 3e
       0.13919194 0.023267994 -0.34683442 0.27979857
000110 67 a4 a0 bd 15 53 4f 3e 9a 8e 28 3e 99 46 a4 3e
       -0.07843857 0.20246537 0.16460648 0.32085112
000120 80 6e 95 be 36 e5 36 3e 72 67 dd b8 5a eb d4 3a
       -0.29185867 0.17860875 -0.000105573694 0.0016244457
000130 ec 79 2c 3e dc 4f 65 3e 9f a2 73 3e a9 a8 22 3d
       0.16843385 0.22393745 0.23792504 0.039711628
000140 06 39 a7 3e cc 01 8d be d2 a1 4c 3d fe d6 2f be
       0.32660693 -0.27540433 0.04995901 -0.17171857
000150 6f dc 5e 3e 90 98 14 be c8 96 bc 3d c3 2a 8a bd
       0.21763776 -0.14511323 0.09208447 -0.067464374
000160 a7 f3 9c 3e 44 3d 54 3e 08 c8 4a be d1 1a bf 3e
       0.30654642 0.20726496 -0.19802868 0.37325147
000170 b6 c5 7b 3e 29 51 6f 3e 95 a2 91 3e 56 19 cc bd
       0.2458714 0.23370804 0.28444353 -0.0996577
000180 d8 82 e5 3d e6 92 83 3e 33 c2 60 3e 81 c4 84 3e
       0.11206597 0.25698012 0.21949081 0.2593117
000190 6f 89 9d be b6 d8 81 3e 20 07 21 be c2 c6 44 3e
       -0.30768916 0.2536065 -0.15725374 0.19216445
0001a0 a9 68 f7 bd fb 85 0e 3e e0 c1 b1 3e 48 c0 85 be
       -0.12080509 0.13918297 0.34718227 -0.2612326
0001b0 03 ad a5 3e 55 8e 92 3e d5 01 ad 3d 21 e8 64 3a
       0.3235856 0.28624216 0.08447615 0.00087320997
0001c0 e5 26 82 3e dc 2f 6b bd 68 42 2c 3e 14 0b 59 3e
       0.254203 -0.05741869 0.16822207 0.21195632
0001d0 05 48 70 bd e8 8f 95 3e 7d 9b 6d bd 62 13 12 bd
       -0.058662433 0.29211354 -0.058009613 -0.035663016
0001e0 72 4c 86 3e e2 b3 37 be 12 3c 8d 3e 1f cb 86 be
       0.26230198 -0.17939714 0.27584893 -0.26326844
0001f0 37 d5 db 3d 37 5f dc 3d 65 1e 56 bd 39 1b 27 3e
       0.10734027 0.10760348 -0.05227508 0.16318978
000200 84 bf 90 be 96 3e 1a 3d 70 ef 88 be 5e 35 b3 be
       -0.28271115 0.037657343 -0.26745176 -0.35001653
000210 ec 36 94 be a9 a8 d1 bd 46 12 a0 be 07 b4 6a be
       -0.28948152 -0.102372475 -0.31263942 -0.22920237
000220 87 08 93 be c6 91 9f bb a0 f7 45 be a6 36 31 3e
       -0.28717443 -0.0048696725 -0.19332743 0.17306003
000230 d7 c7 21 be 27 f6 6d 3d 4b 2c 53 be 75 ed ab 3e
       -0.15798889 0.058096077 -0.20622365 0.33579603
000240 65 6e 2d 3b c1 cb 15 3e 4f 70 80 be 6d 25 13 3c
       0.0026463505 0.14628507 -0.25085685 0.008981091
000250 30 67 09 be cf 45 02 3e ad 8e 3a be 59 4e e0 3d
       -0.13418269 0.12721942 -0.18218489 0.10952444
000260 8c 50 7e 3e 66 0b 94 3e 79 e7 8a be 9d 37 d2 3d
       0.24835414 0.28914946 -0.27129725 0.10264514
000270 ca 42 7e 3e 06 88 67 3e cc 9c 44 be ce 0c d3 3d
       0.24830166 0.22610483 -0.19200438 0.10305177
000280 a3 11 1c bd 4f 55 c3 3d 3c c4 25 be a0 76 fa 3d
       -0.038102757 0.09537756 -0.16188139 0.12229657
000290 cf c3 0e be 5e ef 70 be b9 c6 c1 be c6 51 35 3e
       -0.13941883 -0.23528811 -0.37846926 0.17706975
0002a0 c9 18 8f be 31 2b 4f 3e b0 15 b9 bd b1 ac 7c 3e
       -0.27948597 0.2023132 -0.0903734 0.24675252
0002b0 41 98 18 3e b1 82 85 be d4 e7 ab be 42 91 9e 3e
       0.1490183 -0.26076272 -0.33575308 0.30970198
0002c0 80 cf 5f 3e 6f 69 ae be e6 84 8d be 30 80 73 3e
       0.21856499 -0.34064814 -0.27640456 0.23779368
0002d0 fe e8 b1 bd df 74 ce 3d e8 30 aa 3e dc c3 70 bd
       -0.08687018 0.10080885 0.33240438 -0.058780536
0002e0 d6 26 8b 3d ee 65 96 3e 80 27 55 be 79 9f fb 3c
       0.06794517 0.2937464 -0.2081585 0.03071569
0002f0 a7 a4 a5 be fe 11 a4 be 68 3a b1 bd c5 99 0e be
       -0.32352182 -0.32044977 -0.08653718 -0.13925846
000300 de 5a 1e bd 97 81 78 3e 91 90 04 3c 2c bf 2f be
       -0.038660876 0.24268185 0.008091108 -0.1716277
000310 8e 64 3c be a4 5c a2 be 71 37 70 bd 8c 32 29 3d
       -0.18397734 -0.31711304 -0.058646623 0.04130797
000320 44 03 5b be 7d cb 82 be 5b 91 67 3d 99 13 57 3d
       -0.21387964 -0.25545874 0.056535106 0.052508924
000330 ff 61 95 be aa 4e 89 3e 34 d4 1e be 8a da 60 bd
       -0.29176328 0.26817828 -0.15510637 -0.054895915
000340 64 88 1e be 0b 63 41 3e e8 2c 54 be f8 a5 7f 3e
       -0.15481716 0.18885438 -0.20720255 0.24965656
000350 99 41 11 3e 07 a1 15 3c 59 7f b8 be 23 04 94 be
       0.1418518 0.00913263 -0.3603466 -0.28909406
000360 92 26 b0 3e f4 53 4d 3d 6c 56 6a 3e 2b 0f 98 be
       0.34404427 0.050128892 0.2288453 -0.29699072
000370 be b2 e6 3d 15 58 0b bd 4b 7b 24 3e cd a9 80 3d
       0.11264561 -0.03401955 0.16062658 0.06282387
000380 99 20 18 3e 07 d2 71 3e f0 b3 8d be e8 68 8b 3e
       0.14856185 0.23615275 -0.27676344 0.27228475
000390 d2 fa fa bb 89 bf 13 bd 38 28 91 be de 61 9b be
       -0.0076592946 -0.036071334 -0.28350997 -0.30348104
0003a0 8c f6 c5 bd a3 d2 aa 3e 84 d6 18 be a6 a8 6b 3e
       -0.09666166 0.33363828 -0.14925581 0.23013553
0003b0 27 84 a4 3d 4c 27 41 be 3a 7b 9f 3e 1e f2 03 3e
       0.080330186 -0.18862647 0.31148702 0.12885329
0003c0 b2 a4 a8 be 79 82 8c be aa 8e 5c 3e c1 fc 6f be
       -0.32938153 -0.27443293 0.21538797 -0.23436262
0003d0 98 df 6b be f8 38 6f 3c 73 e4 8b be 4b 72 a1 3e
       -0.23034513 0.014600985 -0.2732273 0.3153251
0003e0 73 75 6a 3e 03 3d 2e 3e 6d b7 a2 be 53 58 57 3e
       0.22896366 0.17015462 -0.31780568 0.21029787
0003f0 35 21 6e be 39 14 a2 bd 22 58 bc bd e5 fc b1 be
       -0.23254855 -0.079140134 -0.091964975 -0.34763256
