results/priority-sort/priority-sort-task-1-batch-26000.model (torch_old, 876115 bytes, 49 tensors)

ntm.read0_bias f4 [1, 20]
00000000: d3d4 0b3c 2633 0a3c 0d66 07bc 898c 3e39
00000010: 1812 993b 836f 183c dd0b 193b bdf5 353c
00000020: 4dc3 c83b 41e3 3abc 7e4e a9ba f7b1 efba
00000030: 87a4 d5bc f7f7 3f3b 98dc 8b3c eb0f 77bc
00000040: 2d3b 1abc 44c2 453b e9ba 213c dc91 b03a
0.008534628 0.008435046 -0.008264077 0.00018172165 0.0046713464 0.00930393 0.0023353018 0.011105952
0.0061267973 -0.011406721 -0.0012917069 -0.0018287291 -0.02607943 0.0029292086 0.01707296 -0.015079479
-0.009413523 0.0030175606 0.009871223 0.0013471204

ntm.read1_bias f4 [1, 20]
00000000: 267f f33b 1622 21bb eb81 c93b 0605 d13b
00000010: 0769 5e3b 5980 a83b af91 49bb cb9c f5ba
00000020: 341a d5ba 100a a6ba 382b 9c3c dd00 363c
00000030: ccc1 94bb 4a2c 23bc fee3 2039 97bd dbbb
00000040: d487 113b e478 0e3c b770 1bbc ea51 78bb
0.0074309288 -0.0024586967 0.0061495206 0.0063787727 0.0033937113 0.0051422534 -0.0030757 -0.0018738745
-0.001625842 -0.0012667794 0.019063577 0.011108604 -0.004539704 -0.00995929 0.00015343723 -0.0067059505
0.0022206204 0.008695815 -0.0094873225 -0.0037890621

ntm.read2_bias f4 [1, 20]
00000000: 5ded 093c fb63 b1bc 3497 d63c b3e7 72bc
00000010: 8336 e93b 8ae3 683b b0e4 b03b 873d 343b
00000020: 1497 25bc 5b63 23bc 203e 243c ff13 88ba
00000030: 9203 64bb 583d 7b3b 6a02 dcba ab40 673b
00000040: 5561 853c 463c 81bc edb1 953c 13a6 32bc
0.008418408 -0.02165412 0.026195146 -0.014825749 0.007117094 0.0035536014 0.0053983554 0.0027502493
-0.010106821 -0.009972419 0.010024577 -0.0010381936 -0.0034792167 0.0038336124 -0.0016785387 0.0035286348
0.016281763 -0.01577581 0.018273318 -0.010903853

ntm.read3_bias f4 [1, 20]
00000000: e8fc 10bc 3ebf 0a3b a079 22bc e88e 9d3b
00000010: db03 d439 a6a9 643b ed59 b93c d3a3 4ebc
00000020: 4b5c d13a 9a11 0cba a5f1 3c3c 1565 d33b
00000030: 70e9 57ba f97e 823b 8e46 c23b 6160 06bc
00000040: 9582 6bbc 40a2 40bb 908b 13bc 1948 903c
-0.00884936 0.0021171118 -0.009916693 0.0048082955 0.00040438664 0.0034891157 0.022625888 -0.012612301
0.001597294 -0.0005343199 0.011532222 0.006451259 -0.0008236384 0.0039824215 0.005928821 -0.008201689
-0.014374395 -0.0029393584 -0.009005442 0.017612504

ntm.read4_bias f4 [1, 20]
00000000: b459 a93a ed3d 923c 466d eeba 1b01 f33b
00000010: 00a8 81bb 10fe 10bc e612 d2bb 501c 073c
00000020: f64c 1dbb 304d 083c 7e27 33bc 7455 70bc
00000030: 4b8f 44bc d85d 1dbc 57d2 c9b9 bdf3 d83a
00000040: 4a8c b83b 434f 13bb b7f8 8abc b6f7 293c
0.001292041 0.017851794 -0.0018190525 0.0074159033 -0.0039567947 -0.008849636 -0.0064109443 0.008246496
-0.002400217 0.008319184 -0.010934709 -0.014668811 -0.011997054 -0.009604894 -0.00038494423 0.0016552132
0.005631958 -0.0022477664 -0.0169643 0.010374

ntm.controller.lstm_h_bias f4 [2, 1, 100]
00000000: de1f 663d 4ae8 2dbd b6ae abbc caa6 e4bd
00000010: 6d2c 3cbd 4d55 b03d 26f5 96bd c0a1 6bbd
00000020: 15fc 713c e9e3 393a 669b 9abc 5604 29bd
00000030: 1db8 283d a88e 9c3c 4897 c2bd 0389 883d
00000040: 42ee 14bd 10cd c9bc 7401 c43d 4501 7c3d
00000050: 62aa 8bbd 4aee d93c 482d c23c d7d5 b5bd
00000060: 499d 92bd 11a6 d33d c65e 30bd 8be4 d5bc
00000070: 6546 67bb 6db0 afbc e182 6abd e21d 9cbd
00000080: 1185 24bd 3c70 5dbd 2c47 13be 0a66 803c
00000090: 7853 29bd 11bf 20bd 8b88 043e bb18 9e3b
000000a0: 9c0e 313d 0725 debc 8dc6 f1bc 5075 6e3c
000000b0: 00d0 16bd 73f5 bdbc b0dd 49bb aa7a 9a3d
000000c0: 7ad7 2a3d b99e 5cbc f675 fc3b 4b74 f73d
000000d0: 2cee a8bc 76ef 013e c8a6 babc 0fae 0f3b
000000e0: 2255 2d3c be2f cbbd a466 393d 5036 ea3d
000000f0: 4947 e93d 10a8 b1bc f414 563d d6cc c73c
00000100: 45f2 8d3d d1ef 32bd 7679 8ebc 5a12 a9bd
00000110: ff29 c3bd 8e8b 02be 09b9 0dbd 7b66 d5bd
00000120: a99d 0c3c 20ba ffbc 41dc a43b ebb0 14bd
00000130: c14f 82bd ed67 a1bd 3b65 473c 0fe5 c2bc
00000140: 9aba db3c 61eb 73bd 31d1 2fbe c4c9 1b3c
00000150: c369 24bd 1c3f 8a3c 8e29 19bd 6290 29bd
00000160: ae53 913c c898 ca3d eb1b 1cbb 2e6d 91bc
00000170: 0388 403d 7c14 fcbc 0405 c33d f2cb 91bd
00000180: 1ca8 bd3d 7a00 cc3d bf94 6f3c 4fc1 25bd
00000190: 3ec4 893e cd22 663d c4d7 933d d72c 7f3d
000001a0: 607a 08be 8cbd 8c3d d300 b43d 3ca0 e5bd
000001b0: 1942 9c3d b26c bbbd a6d2 7fbc da21 98bd
000001c0: 7264 ea3d dff5 8e3d 20ef 6abd f06c 9bbd
000001d0: 2cc1 203e 8343 9bbb d6bc e8bd 9a71 e53b
000001e0: 9823 9bbd 452a 1d3d 14f0 e53c fa67 833d
000001f0: 543a febc 602e 9bbd 0dab 3dbd 8b55 0e3e
00000200: 01a2 faba 4c6a 0c3e d1ab 833d ba13 bb3c
00000210: 841b a73d b1a4 61bb 75fe 0e3e c109 cdbd
00000220: f40b 2fbc 251c d23c 351b cc3d b4ae 6fbd
00000230: cf61 963d 6ca0 abbd 60eb b4bd 6246 7abd
00000240: bd61 35bd 1514 2f3a 7b1f d93d f4ec 4dbb
00000250: 4536 da3d 82e6 bfbc 2d03 d13b f224 ec3d
00000260: 6749 553d 3757 69bc 3125 98bd cc1b a23b
00000270: 4a09 0abe cadd 9abd dbe1 0d3d 2a2a b1bd
00000280: 10ad 653d 546b c13d 5728 023e f511 bd3d
00000290: 62fe 2dbd b0b4 57bd b55f 8a3b 2d9a 61bd
000002a0: e154 e73c d3b8 743d 78bc 5b3d 0e25 6f3e
000002b0: 3b9f 05be 4a1c 893d 1519 8f3d a0d3 2ebe
000002c0: 2e3d 823d 1a6c 0cbd 26c7 cebd afa3 2cbe
000002d0: 95c0 cd3c e50a 71bd 5808 653b 37fa e8bd
000002e0: 2e11 0e3e 09fc d0bd 7d04 8bbd 33b8 02be
000002f0: 8e42 d3bc da08 eabd d98c 563d fc51 9bbd
00000300: 5b79 263d 2e4f 2e3e 8cf7 d1bb 8b59 22be
00000310: f6c0 583d 4b8a a6bd 5117 f13d c0c0 d0bc
0.056182735 -0.042457856 -0.020957332 -0.11164625 -0.045940805 0.0861002 -0.07370977 -0.057527304
0.014769574 0.0007091151 -0.018872928 -0.0412639 0.04119121 0.019110993 -0.09501511 0.06666758
-0.036360033 -0.024633914 0.0957059 0.06152465 -0.06819607 0.026602883 0.023703232 -0.08878677
-0.07158906 0.10334409 -0.043059133 -0.026109954 -0.003528976 -0.021446431 -0.057253722 -0.07622887
-0.040165965 -0.054062113 -0.14382619 0.015673656 -0.041339368 -0.039244715 0.12942712 0.0048247254
0.043226823 -0.027117265 -0.029513622 0.014554337 -0.036819458 -0.023188328 -0.0030802302 0.075429276
0.0417094 -0.013465577 0.0077044917 0.12082728 -0.020621382 0.12689003 -0.022784606 0.0021923815
0.010579379 -0.099212155 0.0452639 0.114361405 0.1139055 -0.021686584 0.052266076 0.024389666
0.06930975 -0.043685738 -0.017391901 -0.082554534 -0.095294945 -0.12748548 -0.03460029 -0.10419937
0.008582511 -0.031216681 0.005031139 -0.036301535 -0.06362868 -0.078811504 0.012170131 -0.023790864
0.026822377 -0.059550647 -0.17169644 0.009508554 -0.040139925 0.016875796 -0.037393145 -0.04139746
0.017740097 0.09892422 -0.0023820351 -0.017752256 0.04700471 -0.030771486 0.09522441 -0.071189776
0.0926058 0.099610284 0.014622866 -0.040467557 0.26907533 0.056185532 0.072188884 0.062298622
-0.13327932 0.06872091 0.0878922 -0.11212203 0.076297946 -0.09151591 -0.015614187 -0.07428332
0.1144494 0.0698049 -0.057356954 -0.075891376 0.15698689 -0.0047382726 -0.113641426 0.0070020678
-0.07575148 0.03837039 0.02806858 0.06416316 -0.031033672 -0.07577205 -0.046305705 0.1389982
-0.0019121767 0.13712424 0.06429256 0.022836555 0.08159545 -0.003443044 0.13964255 -0.10011626
-0.010684002 0.025648186 0.09966127 -0.05851622 0.07342874 -0.083802074 -0.08833957 -0.06110228
-0.044282664 0.00066787127 0.106017075 -0.0031421753 0.10654882 -0.023425344 0.0063785524 0.11530484
0.052071955 -0.014241985 -0.07428969 0.0049471613 -0.13480106 -0.07561834 0.03463922 -0.0865062
0.05607325 0.09444299 0.12710701 0.09231941 -0.042478926 -0.05266255 0.004222835 -0.055078674
0.028238716 0.059746575 0.053646535 0.23353979 -0.13049023 0.06694849 0.06987206 -0.17072916
0.06359325 -0.03428278 -0.10096578 -0.16859315 0.025116244 -0.05884828 0.00349476 -0.1137585
0.13873741 -0.10204322 -0.067879654 -0.12765579 -0.025788572 -0.114274696 0.052380417 -0.07583997
0.040643077 0.17022392 -0.0064076837 -0.1585447 0.052918397 -0.08131846 0.117720254 -0.025482535

ntm.controller.lstm_c_bias f4 [2, 1, 100]
00000000: 7b91 063d 048f d4bc 1e18 55bd 7da1 f6bb
00000010: 53ce af3c 613f bebc 7874 02be 8952 a43d
00000020: 8fc8 84bd 272e 39bd 4b9f 933d 7245 aabd
00000030: fef5 0ebd 05e5 04bd c998 193e 1238 a9bc
00000040: 4bbb 463b dc44 d2bd 9a78 b13d 62ed 56bd
00000050: b703 ebbc d5b3 51bd 9dcc 1c3b b99f febc
00000060: 82c6 92bb f799 cb3d 30a8 e63c c645 57bc
00000070: fc0d 8fbd e21d d33c 8e95 a0bd edb8 a9bd
00000080: 538a 85bd 23b4 bcbd 6d10 eebc dfbd 5dbd
00000090: 4be8 babc d532 05be 4a63 65bc 49cb 1fbd
000000a0: a735 c03c c4bf 77bd 9bd8 96bd 90f6 8a3c
000000b0: ddf8 08bc 98c6 173d 211b 243d 7508 c63c
000000c0: 37b1 c3bc f417 34bb 0fb7 793c 2767 b0bc
000000d0: 8a4d 8e3c 91c8 19bd 7d73 e43d 7b51 a8bc
000000e0: d471 6abc 4e1a ec3b 627d 003c bb27 593d
000000f0: b7e0 aa3c 3193 09bd 23b5 91bb 6b0f 26bc
00000100: 52f4 203d 1757 8fbc 7b11 16bd 8cdf 7a3d
00000110: b3c2 2c3c 0556 34bd 0408 f83c 70dd fcbd
00000120: 460b 82bd c08c 373d ebc5 da3c 52bf 70bd
00000130: acd7 f53b 69b6 08be 80be 6fbd 3bf8 3bbd
00000140: fe11 12bd f9e4 88bd 12a1 d2ba c0b8 89bd
00000150: 32fb af3d 6101 46bc 1977 493c c35a 9c3d
00000160: 541d a2bd 9fa6 66bc d0da 633b e70e cb3c
00000170: b7c1 e13c e8f2 37bd 50c3 80bd 792b 24bd
00000180: 468f 6c3d 3586 f0ba 0ca4 05bd 745a a4bd
00000190: c169 713d cab9 3d3c 1b93 4bbd e95d 68bd
000001a0: 758f e2bd 1814 b5bc 4b82 913d e9f4 ad3c
000001b0: fb31 c53d 1234 00bd 4967 b4bd bf2d 87bd
000001c0: 3931 4e3d 9eca 2abd c573 35bb a582 f53d
000001d0: 6f76 113e 77ba 0c3e 9575 19bd aecc b4bd
000001e0: 0c60 09bd 6429 8dbd c830 eebc 402b 31bd
000001f0: d7ff 17be cb07 14bd ee83 dfbc a48f 5f3e
00000200: b5a9 753c 4238 8abd 0fd0 8a3d f538 2ebd
00000210: 5999 303d afcc c73d 3614 5f3d 22fd 2ebe
00000220: 0159 173d 76bc c73d 0f9e 143d 31ef efbb
00000230: 72bc f33c 7927 d3bc fc8a 93bd b142 aabd
00000240: 82de f6bc b53a f6bd 6f9d ac3d a208 563d
00000250: a98f d33d b42d fa3d 18b3 32bd 048c 44bd
00000260: 09a5 0d3d 5164 cabd ec01 6dbd 024f 4b3c
00000270: 2186 3cbd fc3c 8a3d 7473 643d d5da b63d
00000280: bba0 28bc e6e3 173d 0452 c5bc c910 093d
00000290: 3ae9 0ebe 3443 19bd 6036 13bd dee6 0abd
000002a0: daf7 f9bc c04a d43d 991a 8e3d c59e cf3c
000002b0: 6d7a bdbd b3da 8b3c 3828 c43b b307 493c
000002c0: e372 943d 5478 02be 5160 10bd 3c41 43bd
000002d0: ba13 563d 1e5c f33a b721 273d 23cb 0fbe
000002e0: 50b4 64bc 3fe4 29bd 1e31 0dbd 957f 14be
000002f0: 20fa 1b3e 9fe3 843c 80f6 8d3d 61b1 183d
00000300: 55b6 f0bd 0027 d43a 2a02 ae3d 07ce 0fbe
00000310: d5ee f93b f55e 94bb 2f41 1d3d cd55 353d
0.032853585 -0.025947101 -0.052024953 -0.007526575 0.021460688 -0.02322358 -0.12739742 0.08023555
-0.06483566 -0.04521003 0.07208117 -0.08314027 -0.034902565 -0.032444973 0.14999689 -0.02065662
0.0030324038 -0.1026704 0.08665581 -0.05247248 -0.028688295 -0.05119689 0.002392567 -0.031082021
-0.0044792304 0.09941476 0.02815637 -0.013139194 -0.06985089 0.025771085 -0.07841025 -0.08287225
-0.06520524 -0.09214046 -0.029060567 -0.054136153 -0.022815844 -0.13007672 -0.014000723 -0.039012227
0.023463083 -0.060485616 -0.07365533 0.016963273 -0.008360115 0.037054628 0.040064935 0.024173955
-0.023888214 -0.0027480097 0.0152413985 -0.021533562 0.017370958 -0.03754479 0.1115484 -0.020546665
-0.014309365 0.007205284 0.007842394 0.053016406 0.020859106 -0.03358764 -0.004446642 -0.010135512
0.039295502 -0.017497582 -0.036637764 0.061248347 0.010544467 -0.044027347 0.03027726 -0.12346923
-0.063498065 0.044811964 0.026705703 -0.058776207 0.0075025167 -0.13350834 -0.058531284 -0.045891028
-0.03566169 -0.06684298 -0.0016069731 -0.067246914 0.085928336 -0.01208529 0.0122964615 0.07634499
-0.0791575 -0.0140778115 0.0034767874 0.02478738 0.02755819 -0.044909388 -0.06287253 -0.04008052
0.057753824 -0.0018350544 -0.03262715 -0.08025065 0.058938745 0.01157994 -0.049700838 -0.056730185
-0.110625185 -0.022104308 0.071049295 0.021234946 0.09628674 -0.031299658 -0.088087626 -0.06600522
0.05033991 -0.041697137 -0.0027687412 0.11987809 0.14205335 0.13743006 -0.03746565 -0.08828102
-0.033538863 -0.0689266 -0.029075995 -0.043254137 -0.14843689 -0.036140244 -0.027284589 0.21832138
0.014994075 -0.067490116 0.06777965 -0.042534787 0.043114994 0.09755837 0.054462634 -0.1708875
0.036950115 0.09752743 0.03628355 -0.007322215 0.029752944 -0.025775658 -0.072042435 -0.083135016
-0.030135397 -0.12022916 0.084284656 0.052254327 0.103301354 0.122157484 -0.04362783 -0.04798509
0.034581218 -0.09882415 -0.05786316 0.012408974 -0.046026353 0.06749913 0.055774167 0.08928458
-0.010292227 0.037082575 -0.02408696 0.033463273 -0.13956156 -0.037417606 -0.035940528 -0.03391158
-0.030513693 0.1036582 0.06938667 0.025344262 -0.092518665 0.017072057 0.0059862398 0.012269902
0.072484754 -0.12741214 -0.035248104 -0.047669634 0.052264906 0.0018566882 0.040803637 -0.14042334
-0.0139590055 -0.041477438 -0.03447067 -0.14501794 0.15232134 0.01622182 0.06931782 0.037278537
-0.11753527 0.0016185939 0.084965065 -0.14043437 0.007627348 -0.0045279213 0.038392242 0.04427128

ntm.controller.lstm.weight_ih_l0 f4 [400, 110]
00000000: c598 8abe e5bf 033e 635e 073d 0f1c 6bbe
00000010: c72c b2be 20ac 5cbe cb18 a23d e3a4 1c3e
00000020: a56d 71be ef06 d7bd 42f1 38be 8e45 373d
00000030: ba41 893e 53d4 f73d c77c e13c 985c 723e
00000040: 4bd6 82bd 8e69 de3d 6291 6e3e 9916 5cbe
00000050: 7e97 9b3d b7c4 91be 55a1 603d 46e5 b3be
00000060: 98af 8a3d bb1b 03be 0a57 06be 676a a5be
00000070: c5af 80be 5225 30bd ba08 1d3d 7e4f 90be
00000080: 31cf 853d f573 0e3c f3d5 373e cdf3 33bd
00000090: c464 9bbe abc0 ae3e 9547 59be 8541 483e
000000a0: aee2 043e 4e14 96be 21f0 e63d a72d 6a3d
000000b0: de38 a33e a2b5 2e3e 9601 7c3e c1f7 4a3e
000000c0: c20e 6a3e 7b23 59be 6a75 bfbd a842 fc3d
000000d0: 96c6 a33e 218f 37be 78e6 a3be e31e c5bd
000000e0: a372 01bd 73a2 adbc 2934 7a3e 43d3 54be
000000f0: 7050 b7be ae69 da39 f497 e6bb d300 56be
00000100: abb7 59be d27e 7fbe 401a de3d f78e 52bd
00000110: 9c31 233e 5aae 32bd 9c42 78be 03c7 d43d
00000120: 62b9 363c 9616 2b3d af97 81be c9b1 a93e
00000130: a9d7 4b3d e723 6f3d bdf5 373e 88f5 873e
00000140: 639c b2be dbb4 d13d 5e45 e4bd 3227 20be
00000150: 9274 99bd b55d 6d3e 4ec6 333d 4ebc 33be
00000160: fecb 79be 5c6a 46bd 8601 17bd b640 983e
00000170: dea9 743e 9f9f b03c ab87 163e 6bc9 4dbe
00000180: 22fb 8fbd 432b 843e 3bd6 ab3e 3736 b53d
00000190: 0921 fa3c 4e1b e1bd 5a29 12be cca4 59be
000001a0: 2fd8 75bc cb2b 13bd cb29 e43d 9431 9d3e
000001b0: 7bca 9e3e b3f2 8c3d 235a 64be cad1 f3ba
000001c0: cab6 43be 8c98 9ebe 1ba7 333e bb80 c73c
000001d0: ba56 e93d 6613 333e 5e21 a2be 18a4 acbc
000001e0: bfe7 143d 09cf 633d d8de 05be 014b abbe
000001f0: 6ea8 9e3e 0f2d 473e c014 443e 09e2 63be
00000200: e6ce 153d 9534 a1be 5370 173e e0dc 0b3e
00000210: 4245 9cbe 2902 ad3c 567d 9fbe 4b26 213d
00000220: 2fe4 823e 4d64 97be e22f 0fbd 5866 9d3e
00000230: b7bd 973d 4c9a 083e 48ca 74be 8ce2 a9be
00000240: bdbf 64be b834 e1bc 0970 53be 86d1 973e
00000250: 4836 33be e9a8 2bbd 3403 afbe 133d 90be
00000260: 5ce6 2c3e 8827 a8be 2406 a83d 613c 643e
00000270: 4b30 e2bc 016d 643e 2b0c 0ebe 457b f53d
00000280: 787a 43be d055 8cbd 75d6 1a3c 87b2 be3d
00000290: ecaf 523e bccc 913d 1991 ce3d 1960 53be
000002a0: 000e d0bd 8ded 0e3e cca9 91be ee60 a83e
000002b0: f004 8c3e c070 d53d 192e 05be b3a5 aabe
000002c0: 12a5 8a3e 37dc 74be 532c 2cbe af69 08be
000002d0: 6502 5b3e 0912 6a3e 23c6 70be 9190 aabe
000002e0: 1fc4 aebc c5cc 5dbe 54d2 eb3d 7aa9 aabe
000002f0: 55b4 42bd c342 45bd e032 84be 4dac a53e
00000300: 609f c3be ffe5 acbe e580 55be 408f ba3d
00000310: 74d5 10be 70be 983e 032e b9bd 6d68 013e
00000320: 6274 15be 1c12 843c 657c 3c3d 454d fb3d
00000330: 213f 903e 32ff fe3d 75f0 6c3c c1f3 1ebe
00000340: 5887 4abe 7b2b 7a3e 471a 393e be76 123e
00000350: 91ad 3abe 0eab 4a3e 1dca f03c b435 0fbe
00000360: eab3 89bd 9575 123e fa38 493e c611 943d
00000370: 4d17 473e 4c12 c7bd 510e 143e 3cf0 603d
00000380: 320b 9c3d 619b d33d 9c95 3fbd 5b75 0bbe
00000390: 8561 313e e540 8c3e f141 803e 61da 483e
000003a0: d85c 84be eaf6 5fbe fa5e 803e bc14 67be
000003b0: dd50 8dbe 3b58 583e 834d e7bd 31f9 c13c
000003c0: f8a0 a33d 75a4 e9bd 9625 c73d 0b04 38be
000003d0: b618 95be b81c cabd 7a20 54be a399 bfbd
000003e0: 854f 0b3d 4403 9bbc 6dc3 a3be 1c3c 32bd
000003f0: 2646 19be 2a28 93be 6212 2cbe 1ac4 82bd
-0.2706968 0.1286617 0.033049 -0.22959922 -0.34799787 -0.21550035 0.07914885 0.15297274
-0.23576982 -0.10499369 -0.18060783 0.044744067 0.26807958 0.121010445 0.027525319 0.23668134
-0.063885294 0.10859977 0.23297647 -0.21492995 0.07597254 -0.28470394 0.05484136 -0.3513586
0.06771773 -0.12803547 -0.1311914 -0.3230774 -0.25134102 -0.04300434 0.0383384 -0.28185648
0.06533659 0.0086946385 0.17952709 -0.04393368 -0.30350316 0.3413137 -0.21218713 0.19556244
0.12977096 -0.29312366 0.1127627 0.057172444 0.31879324 0.17061475 0.2460998 0.19821073
0.22857192 -0.21204941 -0.09348567 0.12317401 0.31987447 -0.17925693 -0.3201177 -0.09625032
-0.031603467 -0.021195626 0.2443396 -0.20783715 -0.35803556 0.00041658938 -0.007037157 -0.20898752
-0.2126147 -0.24950722 0.108448505 -0.051405873 0.15936893 -0.043623306 -0.2424416 0.10389521
0.011152597 0.041769587 -0.25311038 0.33143452 0.049766216 0.05838385 0.17964835 0.26554513
-0.3488494 0.102395736 -0.11146043 -0.15639952 -0.07492937 0.23180278 0.04389029 -0.17552301
-0.24394223 -0.048441276 -0.036866687 0.2973687 0.23892924 0.021560488 0.1470019 -0.20096366
-0.07030322 0.25814256 0.33561882 0.08848231 0.03053333 -0.10991536 -0.14273587 -0.21254271
-0.0150051555 -0.035930436 0.11140784 0.30701888 0.31013855 0.06882229 -0.2230001 -0.0018601951
-0.19112697 -0.3097576 0.17544214 0.024353376 0.11393495 0.17487869 -0.31666082 -0.02107434
0.036353823 0.055617366 -0.1307329 -0.3345566 0.30987877 0.19450782 0.1914854 -0.22254194
0.036574267 -0.3148543 0.14788942 0.13658476 -0.3052159 0.021119194 -0.3115031 0.03934316
0.25564715 -0.2956871 -0.034957774 0.30742145 0.07409232 0.1334011 -0.23905289 -0.33180654
-0.22338767 -0.027490959 -0.20648207 0.2965204 -0.17501175 -0.041909132 -0.3418213 -0.28171596
0.1688475 -0.3284266 0.08204296 0.22288658 -0.027610919 0.22307207 -0.13871829 0.119864024
-0.19089687 -0.06852305 0.009450545 0.09311395 0.20574921 0.07119128 0.10086269 -0.20642127
-0.1015892 0.13957806 -0.28449857 0.3288645 0.27347517 0.10421896 -0.13005866 -0.33329543
0.27079064 -0.2391213 -0.16813783 -0.13321565 0.21387632 0.22858442 -0.23513083 -0.3331342
-0.021333752 -0.21660145 0.11514726 -0.33332425 -0.04753526 -0.048159372 -0.25820065 0.32358018
-0.3820753 -0.33769223 -0.2084995 0.09109354 -0.14143926 0.29832792 -0.09041979 0.12637492
-0.14595178 0.016121916 0.04601707 0.12270597 0.28173164 0.124510184 0.014461626 -0.15522672
-0.19778192 0.24430649 0.1807643 0.14303109 -0.18230273 0.19791815 0.02939325 -0.1398533
-0.06723769 0.14302666 0.19650641 0.072299525 0.19442482 -0.09720287 0.14458586 0.054916605
0.07619323 0.103323705 -0.046773538 -0.13618986 0.17322357 0.2739326 0.2505031 0.19614555
-0.25852084 -0.21871534 0.2507246 -0.22566503 -0.27600756 0.21127407 -0.11294081 0.023678394
0.07989687 -0.11408321 0.09723966 -0.17970292 -0.29120415 -0.09868759 -0.20715514 -0.09355476
0.034011383 -0.018922456 -0.31985036 -0.043514356 -0.14968166 -0.2874158 -0.16803887 -0.0638506

ntm.controller.lstm.weight_hh_l0 f4 [400, 100]
00000000: e697 90be 975b 303d 5c45 65be 419e 9c3e
00000010: e9fb 643e d222 3e3e d51c 80be 28c7 a8bd
00000020: b853 53be e527 653e 9c29 83be db2b 0ebe
00000030: d684 923e c3f6 4abe 79be 883e 44aa ccbc
00000040: 143b 7ebd 5666 c8bd 2fdf 97be 25e2 37be
00000050: a8f8 e7bd 193f 42be 2e4a 4fbe 5500 6fbd
00000060: 5a0e b33e 24a8 df3d f405 883e 2b37 5e3b
00000070: 7efe 9d3e 9058 e6bd 0e6a a1bd 0368 8e3e
00000080: 6a4c bb3d 2b67 cdbd 2ceb 193e 8f1d 3f3e
00000090: 0c25 1d3e c49f a0be 7e4a c73d 454b a4be
000000a0: d8ce a73e 5a50 923e f646 62be 3ec7 9e3e
000000b0: 168e 7b3d 229e b13e 4d91 8cbe 8728 95be
000000c0: 859a cc3d 5ac7 9d3e 2f1e d43d 0c14 333e
000000d0: aa2a 803b ddc2 0fbd 9588 1bbe 3b71 4cbe
000000e0: 38cc 1a3e 8a8f 7bbd 5f42 00be 5154 193e
000000f0: 0ba8 8cbd 0f34 3cbe a519 7dbe d3c1 9d3e
00000100: 3953 f43d c107 ecbd 0f69 46be 5644 983d
00000110: e8ad 9a3e eda2 d4be 5c02 803d 7a22 5f3d
00000120: 1247 6e3e 6640 0ebe 83cc 663e edfe a63c
00000130: 6c1e b93d 3bc5 a63e 37b0 3bbe 2295 5b3e
00000140: 09fb 1dbe 7276 bfbe c421 ba3e c323 7e3e
00000150: df85 913e dace 7bbe a6ae 9fbe e60b 48bd
00000160: b915 cd3c f060 2bbe 47a0 2e3e 99e3 523e
00000170: 8ee5 a8be f880 0d3e 6eef 073e 7a8c c23d
00000180: 9d33 bd3c c486 b23d d038 c43d 2ebf 9fbe
00000190: 5546 9c3e a984 27be 9c7b 48be 5e4c 17be
000001a0: 9011 05be f123 2c3e 662c cebc e78e 5f3c
000001b0: f24f e83d 28ea 21be 2073 c93d d08c 1f3e
000001c0: 84d5 a9be 810a 333e 4e92 54be 2b24 443e
000001d0: bd96 3bbe fadf 42be 0c25 9ebd c643 9dbe
000001e0: 0d56 053c bd58 e3bd 4d1d 903d e1fb 303d
000001f0: e7ef 893e 287e b8be e2a6 afbe d03c 66be
00000200: 4055 c7bd 36a4 6f3e 0355 9e3e 777d 383e
00000210: 8d89 d53e 2325 bcbe 133e a43e 235d 373e
00000220: 075a 8a3a c56e 1c3c c71c 73be 531d 77bd
00000230: c568 133e 986b 70be bfd0 a83e e48c 733e
00000240: 4e4d 16be aa2b ce3d e3e0 09be a6a0 eabd
00000250: 35e9 6e3d 8cb6 28be 3c84 a23d 29ee eabc
00000260: 33c1 223e 8b8f 6b3d 0f85 0cbe 8edb 84be
00000270: 3909 5b3e 6a61 2e3e 6555 4dbe 81ed 323e
00000280: 03ac 2f3e 381b cc3d aac6 60be 2fda 62be
00000290: 75a0 a53e a9aa 313e 95d4 2ebe ece9 9f3c
000002a0: 86ab dc3e 7bae 1bbe 99d5 96be 7950 7c3e
000002b0: 1988 4dbe 3507 16be 6656 b1be 792d 81be
000002c0: 8f0f 053d 1e84 413e f6bb ab3d 777e 7abd
000002d0: 67af 4abd 4a6c 823e 0844 993d cf9d 533e
000002e0: 5bd7 f23c 8e9a 9c3e 50de 7b3d c1bc 31be
000002f0: 75fd cf3d 9a16 793e eaf9 d2bd ca69 813e
00000300: 744f 373d d6d3 733d a086 c53a 2fd0 4f3e
00000310: 716e 943c 9a7b b13e 956c 593e b506 ac3e
00000320: fc75 d2bd d176 83bc 8725 9b3e 14f5 8dbe
00000330: 8ddf 983d 72c6 94bd b1fb 373e ce18 7c3e
00000340: 0d47 063d bd17 1e3e a673 163c fffc 80be
00000350: 17dc 32be 327d 63be a899 05be a349 9a3e
00000360: 06d8 c93d 4238 8f3e 812e 883e 6a2d a0be
00000370: dc66 41be 5662 993e 7aee 07be 6ee1 b1be
00000380: 8551 afbe 6202 68be 439c 4d3e 6ca9 39be
00000390: 5ecd 8a3e 0e15 173d 5839 9bbe 237a 79be
000003a0: a2c9 8a3e 12d2 cdbd 5443 12bd 81b3 36be
000003b0: 0553 56be 5403 b23e 0c5f 923e 50c4 873e
000003c0: 6512 733e 1147 733e c1f6 753d 2ae8 8f3c
000003d0: 72a5 28be 6678 7f3e 6fa9 be3e 21a9 c63c
000003e0: 31b6 0d3e 066a 62be 1aab 85bd a2f6 bbbd
000003f0: cf5e 5cbe bd47 483e 7563 9dbd afcb 713d
-0.2824089 0.043056097 -0.2238974 0.30589488 0.22361721 0.1856797 -0.25021997 -0.08241111
-0.20637405 0.223785 -0.25617683 -0.13883917 0.2861697 -0.19820695 0.2670782 -0.024983533
-0.06206806 -0.09785144 -0.29662463 -0.17957361 -0.11326724 -0.18969382 -0.20243141 -0.058349926
0.34971887 0.10920742 0.26567042 0.0033907394 0.30858225 -0.11247361 -0.078815565 0.2781373
0.09145434 -0.10029443 0.15031117 0.1866362 0.15346164 -0.31371891 0.09731005 -0.32088676
0.32774997 0.28576928 -0.22097382 0.31011385 0.0614148 0.34690958 -0.27454606 -0.29132482
0.0999041 0.30816156 0.103573196 0.17488116 0.003911336 -0.035097945 -0.1518882 -0.19965069
0.15116966 -0.061416186 -0.12525319 0.1497357 -0.06867989 -0.18379234 -0.24716814 0.3081194
0.11929936 -0.115249164 -0.19376014 0.07434909 0.30210805 -0.41530553 0.0625045 0.05447624
0.23269299 -0.13891754 0.22538953 0.02038523 0.09039006 0.3257235 -0.1832894 0.21443608
-0.15427794 -0.37395054 0.36353886 0.2481833 0.28422448 -0.24590626 -0.31187934 -0.048839472
0.025034772 -0.16736197 0.17053328 0.20594634 -0.32987636 0.13818729 0.13274929 0.0949945
0.0230959 0.08717111 0.095811486 -0.31200546 0.3052241 -0.163592 -0.19578403 -0.14775226
-0.12994981 0.16810586 -0.025167655 0.01364491 0.11343373 -0.1581198 0.098364115 0.1558106
-0.33170712 0.17484476 -0.20758936 0.19154422 -0.18319221 -0.19030753 -0.0772191 -0.3071577
0.008138192 -0.1110091 0.07036839 0.04320896 0.26940843 -0.3603375 -0.3430701 -0.22484136
-0.09733057 0.23402485 0.30924234 0.18016611 0.41706505 -0.36747083 0.3207861 0.17906623
0.0010555395 0.009547894 -0.23741446 -0.0603307 0.14395435 -0.23478544 0.3297176 0.23784214
-0.14677927 0.10066922 -0.13464694 -0.114564225 0.058327872 -0.16475886 0.07935378 -0.028678017
0.15894012 0.05750994 -0.13722633 -0.25948757 0.21390237 0.17029348 -0.20052107 0.17473413
0.17155461 0.09966129 -0.21950784 -0.22153543 0.32348981 0.17350258 -0.17073281 0.019520722
0.43099612 -0.15203278 -0.29459837 0.24640073 -0.20071448 -0.14651187 -0.3463623 -0.25230005
0.03248554 0.18898055 0.0838546 -0.061155763 -0.049483683 0.25473243 0.07483679 0.20665668
0.029643705 0.30586666 0.06149131 -0.1735716 0.10155765 0.24325028 -0.103015736 0.25276023
0.044753507 0.059528194 0.0015070029 0.2029426 0.018119069 0.34664613 0.21232827 0.33598867
-0.1027641 -0.016047867 0.3030207 -0.27726042 0.07464514 -0.07264413 0.17967106 0.24618837
0.032782603 0.15438743 0.009182846 -0.2519302 -0.1746677 -0.22215727 -0.13046896 0.30134305
0.09855656 0.2797261 0.2659798 -0.31284648 -0.18886894 0.29957837 -0.13274565 -0.34742302
-0.34241882 -0.22657159 0.2007914 -0.18131036 0.27109808 0.036885314 -0.30317187 -0.24362998
0.2710696 -0.10049833 -0.03570874 -0.17841913 -0.20930107 0.34768164 0.2858814 0.26516962
0.23737486 0.23757578 0.060049776 0.01756676 -0.16469362 0.24948272 0.37238643 0.024250569
0.13839032 -0.22110757 -0.06526776 -0.09177901 -0.21520542 0.19558616 -0.076849855 0.05903214

ntm.controller.lstm.bias_ih_l0 f4 [400]
00000000: 4cd1 ab3c 61dc 04bd 52a0 16bb efd3 c5ba
00000010: 0dbc 9dbc f4ed dfbc 5d22 81bc 6afa 73bd
00000020: 8c45 81bc 16ba b7bc 12a0 07bd 8fb5 a0bd
00000030: 4152 973c ab73 fdbc 6d4c afbd a76c 423d
00000040: 0f6f 643d bb52 7cbd 54c8 78bd c9b2 aabd
00000050: 3491 41bd e4cc 19bd a3d8 1ebd 5dd5 6cbb
00000060: 7513 a83c fbf0 35bd 3d96 41bc 944c cabc
00000070: 355e 783c 585d 6bbd aaf3 233c 343f febb
00000080: 0664 64bb 8ef3 a0bc 2a8f c9bc 6f13 5dbc
00000090: ae30 78bd 9c63 2fbd 192a 1dbd 4ad5 68bc
000000a0: 3957 913c 1751 8ebc 6622 18bd 3019 88bd
000000b0: 87c1 4a3c 9e15 35bb 7f8d dcbc 49fb fabb
000000c0: 5e89 30bd ac00 c83b 5e4a 4ebd 86a7 2fbd
000000d0: bbe5 66bc fb25 e8bc 4154 3bbd af48 12bd
000000e0: 61bb d3ba aaa9 f9bc 20de 1abd 35ec ce3c
000000f0: 00d1 08bb 45ed 183c dc79 8fbb c657 cabc
00000100: 70e7 bdbb e015 dcbc 7603 25bd f5cf a6bc
00000110: 41c8 e8bc 9179 90bd 52a5 edbc f8ef 72bc
00000120: 115b 4fbd 404f 25bd 5e5e 98bd da38 e8bc
00000130: 4bce a7bd 620e 02bd 6658 8cbc 18b5 fdbc
00000140: 5313 3dbd 844f 3dbd 1109 a5bd 7d23 a1bc
00000150: ceab 9abc 1c1b 57bd c38e 183b a81d e23b
00000160: 9140 edbc 2334 183d c30c f03c eccf 05bd
00000170: f095 7f3a 8b09 813b 3f97 88bc 79c6 71bd
00000180: ab20 b63b 8e07 b0bc c3f5 80bd 07f6 513d
00000190: 74ac b83c 7a96 293d 6214 a23c ce5e c53a
000001a0: 58d4 a5bc 1504 0d3d 0789 133c 2611 79bc
000001b0: 16c5 3b3d 1043 ecbc 7935 28bc 56a2 a3bb
000001c0: 0176 dabc b3e5 b1bc 2e97 aebc 0ce4 8d3d
000001d0: f0d8 343c e924 75bc 931c e23c ff18 6cbc
000001e0: 6b0f e9bc 313b 25bd 560b 9d3d 5ce7 8a3b
000001f0: 3dc8 a83d 89a5 923c 552e c73c ab36 b4bb
00000200: eab5 e33a 0f7d 26bd 4c79 3e3d 47f4 023c
00000210: 4767 0abc 19ff 2abc 354d 2dbc 5df8 0abd
00000220: 0c8b 47bd 0638 03bd 14d0 ca3c 5d1a babc
00000230: f32d e73c a629 733d a7e7 ecbb b7e0 8cbd
00000240: 121b 8a3d 7326 ac3c adb7 a0bc e2c5 a93c
00000250: cdb6 9abb 0233 003d 6500 b43a 5376 dabb
00000260: bef4 f43c 117a d5bc fab5 313d b098 3b3b
00000270: 7b18 32bc 7847 c9bc 7976 57bc 4b35 2e3c
00000280: 2b4f 9f3c 5ec3 0c3d 27fc b33b b4e9 273d
00000290: b833 5a3d 5051 223d b58a 813c a31e 803d
000002a0: 5f34 763d 6b65 ebbc b5e4 48bc a780 833c
000002b0: 9ce5 77bc 969c 1b3d 72be 9cbd 99c2 51bc
000002c0: bb40 4ebd ec9c c8bc c08b 85bc d52e 2e3d
000002d0: 1bc4 26bd 1b58 54bd 698d a7bd 333e debc
000002e0: cdef 22bc c746 61bd 4689 a43c 8abf 1d3d
000002f0: d1d1 843b 12b8 793d f382 3b3d b73b 99bb
00000300: a86a 8dbc bd46 a93b 6f78 2cbc 1dc0 4b3c
00000310: e721 d3bb 582b 12bb 363f 393d 2fd0 183d
00000320: 46d7 4a3d 983e c0b9 b0ab 923c cd0f b93c
00000330: 5ce0 2bbd bd52 cabb 8b61 dcbb 3b07 5abc
00000340: 9e77 43bb 5253 4dbd f499 f03c 80ac ef3b
00000350: 472d b23c 7bfe 6dbb 7eda 5d3c 203e 00bd
00000360: 6e83 31bc 2e30 81bc 84fb a83b a18d ecbc
00000370: 60e6 753d 8243 33bd 5123 523c bca3 b0bb
00000380: a70d ab3b dfea 9fbb 7d7f f83c 1f9a 363c
00000390: 7638 90bd 7fc7 2ebd 8a81 f23a 8928 d33c
000003a0: 754b 13bc ca0c 2ebc fe5e 103d a0e6 08bd
000003b0: 134f 633b 7fa0 cabc a8e6 38bd 34db 6cbd
000003c0: 10d2 cfbc 5621 79bc 08e5 40bd f715 a3bb
000003d0: f645 39bc 43d3 263d e56f 853d 9be0 26bd
000003e0: 6b4d 553d e6f7 e93b d347 3abd b68a f1bb
000003f0: aedc d13c 2909 5b3b 7772 42bc 4d60 b13c
0.020973824 -0.032436732 -0.0022983742 -0.0015093068 -0.019254709 -0.027335145 -0.015763456 -0.059564985
-0.015780233 -0.0224276 -0.03311164 -0.078471296 0.018471839 -0.030938944 -0.08559499 0.0474669
0.055769976 -0.061602335 -0.060737923 -0.08334882 -0.047257617 -0.037548915 -0.03878082 -0.0036137917
0.02051709 -0.04441927 -0.011815605 -0.024694718 0.015159179 -0.057462066 0.0100068245 -0.0077589992
-0.0034849658 -0.019647386 -0.024604399 -0.013493403 -0.0605933 -0.042819604 -0.038370226 -0.014211008
0.017741786 -0.017372651 -0.03714218 -0.06645429 0.012375242 -0.0027631293 -0.02692294 -0.00765935
-0.043099754 0.0061035957 -0.05036389 -0.042884372 -0.014092858 -0.028338423 -0.045734648 -0.035713848
-0.0016153866 -0.03047641 -0.03780949 0.025259117 -0.0020876527 0.009333913 -0.0043785404 -0.024700057
-0.0057954118 -0.0268659 -0.040286504 -0.020362834 -0.028415801 -0.07054437 -0.029009495 -0.014827721
-0.050623957 -0.04035878 -0.07439874 -0.028347421 -0.08193644 -0.031751998 -0.017131995 -0.030970141
-0.046161007 -0.04621841 -0.0805837 -0.019670242 -0.018880751 -0.052516088 0.0023278452 0.006900508
-0.028961452 0.037159096 0.02930296 -0.032668993 0.00097498205 0.003937905 -0.016673682 -0.05902717
0.0055580935 -0.021487977 -0.06296875 0.05126002 0.02254317 0.04140327 0.01978511 0.0015058161
-0.020242855 0.03442772 0.009004838 -0.015201842 0.045842253 -0.028840572 -0.010266655 -0.004993717
-0.026667597 -0.021715974 -0.021312322 0.06928262 0.01103805 -0.014962413 0.027601516 -0.014410256
-0.028449735 -0.040339652 0.07668178 0.004239006 0.082413174 0.017901199 0.024314085 -0.005499681
0.001737294 -0.04064661 0.046502396 0.007992811 -0.008447475 -0.010436797 -0.01057749 -0.033928264
-0.04871659 -0.03203585 0.024757423 -0.02271765 0.028220152 0.05936589 -0.0072297635 -0.068787985
0.067434445 0.021014428 -0.019618833 0.02072424 -0.0047214986 0.031298645 0.0013733028 -0.0066669374
0.029901858 -0.026059182 0.043386437 0.0028624944 -0.010870094 -0.024570212 -0.013150805 0.010632823
0.01944693 0.034366004 0.0054927054 0.04099436 0.05327198 0.039628327 0.015813211 0.062558435
0.06010854 -0.028734883 -0.012261559 0.016052557 -0.015130427 0.03799113 -0.07653512 -0.012802743
-0.0503547 -0.024488889 -0.01630199 0.04252513 -0.040714364 -0.051841836 -0.08181269 -0.027129268
-0.009944868 -0.05499914 0.020084988 0.038512744 0.0040533324 0.06096656 0.04577918 -0.004676308
-0.017262772 0.0051659034 -0.0105267605 0.01243594 -0.0064432505 -0.0022303667 0.0452263 0.037307914
0.049521707 -0.0003666773 0.017904133 0.022590542 -0.041962013 -0.006174414 -0.006725495 -0.013307388
-0.0029825936 -0.05012829 0.029370286 0.007314265 0.021750106 -0.0036315012 0.013540862 -0.031309247
-0.010834558 -0.015770044 0.005156936 -0.028876128 0.060034156 -0.043765552 0.012825803 -0.0053906124
0.0052201333 -0.0048802937 0.030334229 0.011145144 -0.07042019 -0.042670723 0.001850174 0.025776165
-0.008990158 -0.010623166 0.03524684 -0.033423066 0.0034684583 -0.024734734 -0.045141846 -0.057826236
-0.02536872 -0.015205702 -0.04709342 -0.0049769836 -0.011308184 0.04072882 0.06515483 -0.040741544
0.052075785 0.0071401475 -0.045478653 -0.007371272 0.025617924 0.0033422208 -0.011868111 0.021652365

ntm.controller.lstm.bias_hh_l0 f4 [400]
00000000: 4cd1 ab3c 61dc 04bd 52a0 16bb efd3 c5ba
00000010: 0dbc 9dbc f4ed dfbc 5d22 81bc 6afa 73bd
00000020: 8c45 81bc 16ba b7bc 12a0 07bd 8fb5 a0bd
00000030: 4152 973c ab73 fdbc 6d4c afbd a76c 423d
00000040: 0f6f 643d bb52 7cbd 54c8 78bd c9b2 aabd
00000050: 3491 41bd e4cc 19bd a3d8 1ebd 5dd5 6cbb
00000060: 7513 a83c fbf0 35bd 3d96 41bc 944c cabc
00000070: 355e 783c 585d 6bbd aaf3 233c 343f febb
00000080: 0664 64bb 8ef3 a0bc 2a8f c9bc 6f13 5dbc
00000090: ae30 78bd 9c63 2fbd 192a 1dbd 4ad5 68bc
000000a0: 3957 913c 1751 8ebc 6622 18bd 3019 88bd
000000b0: 87c1 4a3c 9e15 35bb 7f8d dcbc 49fb fabb
000000c0: 5e89 30bd ac00 c83b 5e4a 4ebd 86a7 2fbd
000000d0: bbe5 66bc fb25 e8bc 4154 3bbd af48 12bd
000000e0: 61bb d3ba aaa9 f9bc 20de 1abd 35ec ce3c
000000f0: 00d1 08bb 45ed 183c dc79 8fbb c657 cabc
00000100: 70e7 bdbb e015 dcbc 7603 25bd f5cf a6bc
00000110: 41c8 e8bc 9179 90bd 52a5 edbc f8ef 72bc
00000120: 115b 4fbd 404f 25bd 5e5e 98bd da38 e8bc
00000130: 4bce a7bd 620e 02bd 6658 8cbc 18b5 fdbc
00000140: 5313 3dbd 844f 3dbd 1109 a5bd 7d23 a1bc
00000150: ceab 9abc 1c1b 57bd c38e 183b a81d e23b
00000160: 9140 edbc 2334 183d c30c f03c eccf 05bd
00000170: f095 7f3a 8b09 813b 3f97 88bc 79c6 71bd
00000180: ab20 b63b 8e07 b0bc c3f5 80bd 07f6 513d
00000190: 74ac b83c 7a96 293d 6214 a23c ce5e c53a
000001a0: 58d4 a5bc 1504 0d3d 0789 133c 2611 79bc
000001b0: 16c5 3b3d 1043 ecbc 7935 28bc 56a2 a3bb
000001c0: 0176 dabc b3e5 b1bc 2e97 aebc 0ce4 8d3d
000001d0: f0d8 343c e924 75bc 931c e23c ff18 6cbc
000001e0: 6b0f e9bc 313b 25bd 560b 9d3d 5ce7 8a3b
000001f0: 3dc8 a83d 89a5 923c 552e c73c ab36 b4bb
00000200: eab5 e33a 0f7d 26bd 4c79 3e3d 47f4 023c
00000210: 4767 0abc 19ff 2abc 354d 2dbc 5df8 0abd
00000220: 0c8b 47bd 0638 03bd 14d0 ca3c 5d1a babc
00000230: f32d e73c a629 733d a7e7 ecbb b7e0 8cbd
00000240: 121b 8a3d 7326 ac3c adb7 a0bc e2c5 a93c
00000250: cdb6 9abb 0233 003d 6500 b43a 5376 dabb
00000260: bef4 f43c 117a d5bc fab5 313d b098 3b3b
00000270: 7b18 32bc 7847 c9bc 7976 57bc 4b35 2e3c
00000280: 2b4f 9f3c 5ec3 0c3d 27fc b33b b4e9 273d
00000290: b833 5a3d 5051 223d b58a 813c a31e 803d
000002a0: 5f34 763d 6b65 ebbc b5e4 48bc a780 833c
000002b0: 9ce5 77bc 969c 1b3d 72be 9cbd 99c2 51bc
000002c0: bb40 4ebd ec9c c8bc c08b 85bc d52e 2e3d
000002d0: 1bc4 26bd 1b58 54bd 698d a7bd 333e debc
000002e0: cdef 22bc c746 61bd 4689 a43c 8abf 1d3d
000002f0: d1d1 843b 12b8 793d f382 3b3d b73b 99bb
00000300: a86a 8dbc bd46 a93b 6f78 2cbc 1dc0 4b3c
00000310: e721 d3bb 582b 12bb 363f 393d 2fd0 183d
00000320: 46d7 4a3d 983e c0b9 b0ab 923c cd0f b93c
00000330: 5ce0 2bbd bd52 cabb 8b61 dcbb 3b07 5abc
00000340: 9e77 43bb 5253 4dbd f499 f03c 80ac ef3b
00000350: 472d b23c 7bfe 6dbb 7eda 5d3c 203e 00bd
00000360: 6e83 31bc 2e30 81bc 84fb a83b a18d ecbc
00000370: 60e6 753d 8243 33bd 5123 523c bca3 b0bb
00000380: a70d ab3b dfea 9fbb 7d7f f83c 1f9a 363c
00000390: 7638 90bd 7fc7 2ebd 8a81 f23a 8928 d33c
000003a0: 754b 13bc ca0c 2ebc fe5e 103d a0e6 08bd
000003b0: 134f 633b 7fa0 cabc a8e6 38bd 34db 6cbd
000003c0: 10d2 cfbc 5621 79bc 08e5 40bd f715 a3bb
000003d0: f645 39bc 43d3 263d e56f 853d 9be0 26bd
000003e0: 6b4d 553d e6f7 e93b d347 3abd b68a f1bb
000003f0: aedc d13c 2909 5b3b 7772 42bc 4d60 b13c
0.020973824 -0.032436732 -0.0022983742 -0.0015093068 -0.019254709 -0.027335145 -0.015763456 -0.059564985
-0.015780233 -0.0224276 -0.03311164 -0.078471296 0.018471839 -0.030938944 -0.08559499 0.0474669
0.055769976 -0.061602335 -0.060737923 -0.08334882 -0.047257617 -0.037548915 -0.03878082 -0.0036137917
0.02051709 -0.04441927 -0.011815605 -0.024694718 0.015159179 -0.057462066 0.0100068245 -0.0077589992
-0.0034849658 -0.019647386 -0.024604399 -0.013493403 -0.0605933 -0.042819604 -0.038370226 -0.014211008
0.017741786 -0.017372651 -0.03714218 -0.06645429 0.012375242 -0.0027631293 -0.02692294 -0.00765935
-0.043099754 0.0061035957 -0.05036389 -0.042884372 -0.014092858 -0.028338423 -0.045734648 -0.035713848
-0.0016153866 -0.03047641 -0.03780949 0.025259117 -0.0020876527 0.009333913 -0.0043785404 -0.024700057
-0.0057954118 -0.0268659 -0.040286504 -0.020362834 -0.028415801 -0.07054437 -0.029009495 -0.014827721
-0.050623957 -0.04035878 -0.07439874 -0.028347421 -0.08193644 -0.031751998 -0.017131995 -0.030970141
-0.046161007 -0.04621841 -0.0805837 -0.019670242 -0.018880751 -0.052516088 0.0023278452 0.006900508
-0.028961452 0.037159096 0.02930296 -0.032668993 0.00097498205 0.003937905 -0.016673682 -0.05902717
0.0055580935 -0.021487977 -0.06296875 0.05126002 0.02254317 0.04140327 0.01978511 0.0015058161
-0.020242855 0.03442772 0.009004838 -0.015201842 0.045842253 -0.028840572 -0.010266655 -0.004993717
-0.026667597 -0.021715974 -0.021312322 0.06928262 0.01103805 -0.014962413 0.027601516 -0.014410256
-0.028449735 -0.040339652 0.07668178 0.004239006 0.082413174 0.017901199 0.024314085 -0.005499681
0.001737294 -0.04064661 0.046502396 0.007992811 -0.008447475 -0.010436797 -0.01057749 -0.033928264
-0.04871659 -0.03203585 0.024757423 -0.02271765 0.028220152 0.05936589 -0.0072297635 -0.068787985
0.067434445 0.021014428 -0.019618833 0.02072424 -0.0047214986 0.031298645 0.0013733028 -0.0066669374
0.029901858 -0.026059182 0.043386437 0.0028624944 -0.010870094 -0.024570212 -0.013150805 0.010632823
0.01944693 0.034366004 0.0054927054 0.04099436 0.05327198 0.039628327 0.015813211 0.062558435
0.06010854 -0.028734883 -0.012261559 0.016052557 -0.015130427 0.03799113 -0.07653512 -0.012802743
-0.0503547 -0.024488889 -0.01630199 0.04252513 -0.040714364 -0.051841836 -0.08181269 -0.027129268
-0.009944868 -0.05499914 0.020084988 0.038512744 0.0040533324 0.06096656 0.04577918 -0.004676308
-0.017262772 0.0051659034 -0.0105267605 0.01243594 -0.0064432505 -0.0022303667 0.0452263 0.037307914
0.049521707 -0.0003666773 0.017904133 0.022590542 -0.041962013 -0.006174414 -0.006725495 -0.013307388
-0.0029825936 -0.05012829 0.029370286 0.007314265 0.021750106 -0.0036315012 0.013540862 -0.031309247
-0.010834558 -0.015770044 0.005156936 -0.028876128 0.060034156 -0.043765552 0.012825803 -0.0053906124
0.0052201333 -0.0048802937 0.030334229 0.011145144 -0.07042019 -0.042670723 0.001850174 0.025776165
-0.008990158 -0.010623166 0.03524684 -0.033423066 0.0034684583 -0.024734734 -0.045141846 -0.057826236
-0.02536872 -0.015205702 -0.04709342 -0.0049769836 -0.011308184 0.04072882 0.06515483 -0.040741544
0.052075785 0.0071401475 -0.045478653 -0.007371272 0.025617924 0.0033422208 -0.011868111 0.021652365

ntm.controller.lstm.weight_ih_l1 f4 [400, 100]
00000000: 2a7f 89be 13d2 5f3e 988a 40be 9b9c 67be
00000010: 6be8 023d 6b5b e23d 2230 40bd 2e45 79be
00000020: 02d8 fbbc d964 8fbe c687 6b3e a9bc a13e
00000030: 6d12 273e 6353 ccbd c4ec 1d3b 4b24 24bd
00000040: 711e 72bd 937c 6b3c 7cda 9e3c a1a2 c1bd
00000050: 9a1d a83b 17e7 41be 402b c2bd d2d8 8bbe
00000060: 20e9 723c 3656 4cbe 9591 3fbe 92ad e7bd
00000070: b601 ed3d c599 b73e 9317 34be 0c27 a1be
00000080: 2542 983e fcb3 673e 6e78 363e 0607 a8be
00000090: 1c14 503d 1710 32be d061 b93e 23e6 a23d
000000a0: 9a58 65be 2638 8c3e 0764 aabe a04a 43be
000000b0: 3954 f7bd be80 61be 120f 933d 7b3e 19be
000000c0: 8ad7 97bc 518d 693c 51c5 613e cccd acbe
000000d0: c0a2 203d 4c63 15be 0787 36be 65d5 c33e
000000e0: c791 903e 6a5a 4e3c 715c c6bd f2b8 4dbd
000000f0: be4c 543d c1a2 65be f0d2 b93d 8666 8cbe
00000100: e8a9 1e3e d619 c53c 7cb8 bcbe 59e9 8b3e
00000110: aa08 6fbd bee8 593e 8d96 203e ada8 843e
00000120: e963 96be 47a8 273e d48d e4bc 93d2 68bc
00000130: 6438 1c3e e252 793e e12a 833e 5f5f fd3c
00000140: 80ec ab3e 9234 9fbe c46c 283d badc 37be
00000150: b490 653e 0efb 11be 7196 db3d dc46 97bd
00000160: 63ab a23e 35be 4f3e 9eec 44be 82fd ca3e
00000170: 45d7 833e 39d5 703e c9a8 953e adad adbd
00000180: 6d07 ec3d 8217 633e a118 763e de3c 903e
00000190: 9856 99be b027 873e 4fb4 17be 7430 3b3e
000001a0: da4b f5bd 2562 193e 4c6c b63e 0a4b 84be
000001b0: 6560 a73e 175a 923e 20b7 7f3d d81d 17bb
000001c0: 816d 883e 8e78 83bd c7d6 1e3e c25a 713e
000001d0: 5fea 88bd 1af5 a03e 5e23 2fbd 3153 d8bc
000001e0: 51ab 893e a904 4cbe 41a3 8e3e dae3 8dbe
000001f0: 84df 0c3e a4d8 c83d a71a 9cbd 8061 2f3e
00000200: 42ab 8abe 7667 393d 6a75 94be 7194 aabe
00000210: b742 96be 0a84 a5bd 6d7a 9bbe ec08 61be
00000220: 2735 92be 3783 e4bc 4ff4 5abe 65b6 3c3e
00000230: 09e1 15be 3714 f63c 96be 55be 610a 8c3e
00000240: 5bda c4bb 5f5d 1e3e 5ec0 78be abe1 1f3c
00000250: 5db0 f2bd d7d5 003e ffba 2cbe 343a d93d
00000260: 8a47 7f3e d510 953e 3b8f 8ebe b7f4 aa3d
00000270: ab6c 873e bffc 653e 5564 27be 01fc b93d
00000280: 4726 46bd cc63 8c3d 38fa 2bbe f3ef d13d
00000290: 73e8 12be edd4 84be e685 c0be 30b7 303e
000002a0: e3d6 8fbe 6309 413e 89fc 9cbd d72a 7c3e
000002b0: 02cb f53d 88fb 8dbe 96a3 aebe 92ce a33e
000002c0: f887 6f3e 8170 a9be f2d3 78be 5b98 7e3e
000002d0: 2601 c8bd e31d b43d 01f9 ab3e 3fb2 8cbd
000002e0: 1b3a 5d3d 9b0b 9c3e e70d 6ebe b061 943c
000002f0: 277d a0be 61b6 9cbe 0172 85bd f3ba 31be
00000300: cbee a1bc 9bb0 7a3e 67fd 82bc f482 4abe
00000310: 1b9f 2cbe eac9 b3be 9570 53bd d382 d53c
00000320: d6fe 60be 481c 81be c2aa 0a3d fcc4 183d
00000330: 4a31 abbe ab98 8b3e d5c3 21be 3355 71bd
00000340: fdcc 1abe 9be5 403e 660f 66be 4cd1 7a3e
00000350: a0a2 1d3e 4d91 6d3c c82a b3be 0445 8cbe
00000360: 6581 b13e d45a 133d bb4d 6e3e 05cf a9be
00000370: a0fd c83d 8b5c 3dbd bd3e 263e 9826 a63d
00000380: d612 273e d46c 803e 62c8 99be eb70 833e
00000390: e4a5 023c d806 8fbc b418 9bbe 360b 9cbe
000003a0: a389 bebd e71c b43e e85e 18be 6872 743e
000003b0: f7ca 953d a0b0 3fbe 9c39 ac3e 9178 093e
000003c0: b535 a8be dab5 8ebe 9f03 703e dd6d 7fbe
000003d0: aea4 6bbe 508b ac3c 1241 8bbe 6f8d ad3e
000003e0: d63f 593e 9d7d 413e e5a3 a4be fa01 5e3e
000003f0: d012 6bbe 4c90 87bd 296a 7bbd 90a3 b8be
-0.2685483 0.2185748 -0.1880287 -0.22618334 0.031959932 0.11052593 -0.046920903 -0.24342796
-0.030742649 -0.28006628 0.23001012 0.3158925 0.16315623 -0.09976842 0.0024097422 -0.040073674
-0.059111062 0.0143729625 0.01939129 -0.09454847 0.005130482 -0.1893581 -0.094809055 -0.27313858
0.014826089 -0.19954762 -0.18707879 -0.11312403 0.11572592 0.35859504 -0.17587118 -0.31475103
0.29737964 0.22627252 0.17819378 -0.32817858 0.050800428 -0.1738895 0.36207438 0.07954051
-0.2239708 0.27386588 -0.3327944 -0.19071436 -0.12076611 -0.22021767 0.07180609 -0.1496524
-0.018535394 0.014254884 0.22047926 -0.3375076 0.03921771 -0.1458866 -0.17824946 0.38248745
0.2823622 0.012594799 -0.096856005 -0.050225206 0.051831 -0.22425367 0.09073436 -0.2742197
0.15494502 0.024060171 -0.368595 0.27326468 -0.058357872 0.2128019 0.1568243 0.2590994
-0.293731 0.16372786 -0.02789966 -0.014210361 0.15255886 0.24348024 0.25618652 0.030929266
0.33578873 -0.31094795 0.041119352 -0.17955294 0.22418481 -0.14255926 0.10722054 -0.07386562
0.31771383 0.20287402 -0.19230887 0.39646536 0.25750175 0.23518838 0.29230335 -0.08480392
0.11524854 0.22176936 0.24032833 0.28171438 -0.29948878 0.26397467 -0.14814876 0.18280202
-0.11977358 0.14978845 0.356295 -0.258385 0.3269073 0.28584358 0.0624305 -0.002305856
0.26646045 -0.06419478 0.15511619 0.23569778 -0.06685328 0.31436998 -0.04275834 -0.026406856
0.26888517 -0.19923653 0.27858928 -0.277129 0.1375714 0.09806946 -0.07622271 0.17127037
-0.27083784 0.045264684 -0.2899583 -0.33316377 -0.29347774 -0.08081825 -0.3036684 -0.2197606
-0.28556177 -0.0278946 -0.21382259 0.18428953 -0.14636625 0.030038936 -0.20873484 0.27351668
-0.0060074753 0.15465306 -0.24292132 0.009758393 -0.11850045 0.12581573 -0.16868208 0.106068045
0.24929634 0.29114404 -0.2784365 0.08347457 0.26450095 0.22459696 -0.16346867 0.09081269
-0.048376348 0.06854972 -0.1679467 0.10250845 -0.14346485 -0.259437 -0.37602156 0.1725738
-0.28093633 0.18851237 -0.07665355 0.24625717 0.12001611 -0.27730966 -0.3410918 0.31993538
0.23391712 -0.33093646 -0.242996 0.24862806 -0.09765844 0.08794763 0.33588412 -0.06869935
0.05401049 0.30477604 -0.23247491 0.018112987 -0.31345484 -0.30607894 -0.06515885 -0.17356472
-0.019767186 0.24481432 -0.015989972 -0.19776517 -0.16857569 -0.35114986 -0.05162104 0.026063358
-0.21972212 -0.2521689 0.033854254 0.037297234 -0.33436042 0.27264914 -0.1579736 -0.058919143
-0.1511726 0.18837588 -0.22466812 0.24493903 0.15394068 0.014499974 -0.34993577 -0.27396405
0.34669033 0.035975292 0.2327184 -0.33165756 0.09814 -0.046230834 0.1623487 0.0811283
0.16315779 0.2508303 -0.30035692 0.25672087 0.007974122 -0.017459318 -0.30292284 -0.30477303
-0.09303596 0.351783 -0.14879954 0.23871768 0.07314103 -0.18719721 0.33637702 0.13424899
-0.32853475 -0.27873117 0.23438881 -0.24944253 -0.23012039 0.021062523 -0.27198082 0.33896968
0.21215758 0.18895574 -0.32156292 0.21680441 -0.22956395 -0.06619319 -0.06138054 -0.36062288

ntm.controller.lstm.weight_hh_l1 f4 [400, 100]
00000000: db39 833e 1db9 a23d 2141 8dbe f911 c5bb
00000010: 1eed a03d ce71 07be e118 543e 39d6 0f3d
00000020: 8b19 403e 7e12 a1be b390 13bd de22 76bd
00000030: b765 553d 3c2e aebc 9af8 5ebe a0a7 a8be
00000040: 3d31 2dbe 1832 a23e 224f 20bd ae17 69bc
00000050: 5661 bb3d 8d6f 4e3e 1ee8 213e b383 bd3d
00000060: a565 ef3d 4722 05bd 702f 32be 7de4 5b3e
00000070: bfb3 493e 0d78 753d 1793 443e 8613 8ebe
00000080: a1ee 1abd 2224 a03e a26b 65be 1e8c c73d
00000090: acf2 373e 084a 15be 376d 683e 1c58 db3d
000000a0: 39b4 aa3c 1222 983e e321 e63d 5659 8f3e
000000b0: 8366 64be 7490 42be e0b6 0d3e 3eaa 4dbe
000000c0: 7962 603c 8755 b8be c55c 42be 3046 8f3e
000000d0: 16a3 ecbc 6926 fb3c 23f9 813d 762c 84be
000000e0: 19cf ccbd dcc1 803e 128e 86be 9819 5f3e
000000f0: 3bae 13be a103 39be 109d 7bbe ff3b 73be
00000100: c465 aabe 709d da3c bae6 863e e800 94be
00000110: adb1 203d e2a9 253d 8c05 dd3d bf18 b8bd
00000120: e0f5 343e 0081 8fbe feda 003e 91ab 47be
00000130: cab0 633e a5b3 83bd 05ef b43d 75bc 543d
00000140: 8e54 9c3d ca0c 393e 5226 693d b408 8e3c
00000150: dafc 1e3e de95 533e addc b5be f9ed 473e
00000160: 3bb0 273e 3339 113e 48c7 a1be e2a5 3bbe
00000170: ce0b eb3d 5b75 613e 6c77 87be eb25 ebbd
00000180: aaec 9abe a5cc a4bd 71ee 10bd 523e 293e
00000190: 23e5 c7bd 9bfa 2fbe 65b2 7bbe 7c4b 9b3e
000001a0: 819b f03d 3c03 8dbe 1c81 72be bfc2 083c
000001b0: 599d b7bd 41a7 32be 22ec 86be c144 a63e
000001c0: 2190 2e3c 99dc 893e 78ac 62be c18b 9ebe
000001d0: 3a1b 9c3e 790a 073e 9f4d f3bd e977 b23e
000001e0: 0872 abbc 4e77 43bc 5fb4 613d 2f72 05bd
000001f0: 8626 543e e4aa 54be bd2f 98be d011 8fbe
00000200: 8746 5abd 5c8c b43e af96 e4bc de89 5b3e
00000210: 3efa 123e b333 f13d c80c 76bd ef5a c73d
00000220: d2d3 84be 940e 7cbe f2fb e63d bf21 f1bc
00000230: 647b a5be 27c2 7d3e 3bfb ccbe fdd6 623d
00000240: 8ce3 e3bd 8f4e b23e 3d18 053e 00a1 7dbe
00000250: 024f dc3d d779 9f3d e348 6cbe 95c3 9fbe
00000260: 8fe3 703d a733 98be 58e2 2c3e 513b 84bd
00000270: 3bb9 6e3e 3169 49bb 17ba 873e bced a43e
00000280: b573 ddbd 0774 6a3d 7b99 69be e7fc 9e3d
00000290: 1800 823d affc 8ebe a4f4 69be d02d 973e
000002a0: 416b 1bbe 7472 823e 5d4a 87bd fb2c 853e
000002b0: 8349 a5bd 0301 84be 6988 3e3e 6547 023d
000002c0: fe0c 6e3e f3b6 18be cef5 a63e 501b 2f3e
000002d0: 582c 90be 17a7 773e 814e 03be ae0d 4a3e
000002e0: 8617 1fbe 1162 353e 020a e53d b9ec 67be
000002f0: 2074 063e 4b9a 443d f9e4 f23d 65c2 9cbe
00000300: 6511 d03d 119e 733e 66b6 a03e 4529 903e
00000310: ed0e 983e b802 523e 3063 f7bd ab09 a93e
00000320: 14b7 4e3e 0087 6b3e 7d6c 39be a6fb ad3c
00000330: de7c 9fbe 2f51 84be 6909 363d 66b2 a73e
00000340: 935c 433e 9dfb e33d 986b a03d faa1 7b3e
00000350: e3b9 e5bd 71c2 a6bd 0463 bd3d 108a 05be
00000360: f0fb c73e d014 173e 45b5 3c3e 0376 3fbe
00000370: ba9d 3abd 4d56 26bc d5f1 8cbe ebab 8e3e
00000380: 0294 96bc dc0a 9dbe a06d 78be 1d43 983e
00000390: 7de8 9f3e 0c70 903d 4029 a83e 1425 b03d
000003a0: 8498 8f3e 9689 a4be f3ae 29bd 2d3d 07be
000003b0: 037a 52bd 1175 c5bc 2db0 613c a02c 83bb
000003c0: ccf1 8bbe af24 84be 7066 b23d 4856 abba
000003d0: ff56 763e 04cb a8be 2c58 183e bce8 053e
000003e0: 07ab 8abe 3581 4d3e 9611 f63d 5ecc a53d
000003f0: 48ce 36be befd c03e bcf3 0f3e d2e0 e33c
0.25630078 0.07945464 -0.27588752 -0.0060141054 0.078577265 -0.13227007 0.20712616 0.035116408
0.18759744 -0.3145942 -0.036026668 -0.060091846 0.052098956 -0.02126228 -0.21774521 -0.32940388
-0.16913314 0.31678843 -0.039137967 -0.014226837 0.09149425 0.20159741 0.15811202 0.09253635
0.11689309 -0.032503393 -0.17400908 0.2147388 0.19697474 0.059928942 0.19196735 -0.2774927
-0.03782523 0.31277567 -0.2240434 0.09743522 0.17963666 -0.14579022 0.22697912 0.10710165
0.02083789 0.29713494 0.11236932 0.27997845 -0.2230473 -0.19000417 0.13839293 -0.20084473
0.013695353 -0.36002752 -0.18980701 0.27983236 -0.02888636 0.030657964 0.06346347 -0.2581517
-0.10000438 0.25147903 -0.26280266 0.21787107 -0.14421932 -0.1806779 -0.24571633 -0.23753355
-0.33280766 0.0266864 0.26347905 -0.2890694 0.039231945 0.040445216 0.107920736 -0.08989095
0.17671919 -0.28028107 0.12583539 -0.19499041 0.22235408 -0.06430749 0.08834652 0.05193754
0.07633315 0.18071285 0.05692131 0.017338134 0.15526143 0.20662639 -0.35519925 0.19524373
0.1637582 0.14181976 -0.31597352 -0.18324998 0.11476861 0.22017424 -0.264583 -0.11481842
-0.30258685 -0.08046845 -0.035383645 0.1652768 -0.09760501 -0.17185442 -0.24579771 0.30331028
0.1174841 -0.2754153 -0.23682064 0.008347212 -0.089655586 -0.17446615 -0.2635203 0.3247433
0.01065448 0.26926115 -0.22136104 -0.30966 0.30489522 0.13187589 -0.118800394 0.3485711
-0.020928398 -0.0119303 0.055103656 -0.032579597 0.2071782 -0.20768315 -0.2972392 -0.27943277
-0.053289916 0.35263336 -0.027903883 0.21439311 0.14353272 0.11777439 -0.060070783 0.09734141
-0.25942856 -0.24614936 0.112785235 -0.029435037 -0.32320702 0.24781094 -0.40035424 0.05538081
-0.111273855 0.3482556 0.12997527 -0.24768448 0.10757257 0.07786911 -0.23074679 -0.31203905
0.058810767 -0.29726908 0.16883218 -0.06456626 0.23312847 -0.0030732865 0.26509163 0.32212627
-0.10813085 0.05723956 -0.22812454 0.07763081 0.06347674 -0.27927157 -0.22847229 0.2952714
-0.15177633 0.25477946 -0.066059805 0.2601088 -0.08070662 -0.25782022 0.18606724 0.03180637
0.23247144 -0.1491354 0.3260941 0.17100263 -0.28158832 0.24184833 -0.12822916 0.19731781
-0.15536317 0.1771319 0.111835495 -0.22648896 0.13130236 0.047998708 0.11860079 -0.3061706
0.10159568 0.23790766 0.3138916 0.28156486 0.29698887 0.2050885 -0.120794654 0.3301519
0.20187026 0.23000717 -0.18107791 0.02123816 -0.31149954 -0.25843188 0.044442568 0.32753295
0.19078283 0.11131976 0.07833022 0.24573508 -0.11217096 -0.081425555 0.09247401 -0.13040948
0.390594 0.14754033 0.18428524 -0.18697362 -0.045560576 -0.010152412 -0.27528253 0.27865538
-0.018381122 -0.30672348 -0.24260569 0.29738703 0.31232062 0.07052621 0.3284397 0.08600822
0.28046048 -0.3213622 -0.04142661 -0.1320693 -0.05138589 -0.024103673 0.013774914 -0.0040031224
-0.27332914 -0.25809237 0.08710945 -0.0013071978 0.24056624 -0.3296739 0.14877385 0.13077062
-0.27083609 0.2006882 0.12015073 0.080956206 -0.17852128 0.3769359 0.14057821 0.027817164
