results/priority-sort/priority-sort-task-42-1-8-batch-80000.model (torch_old, 859809 bytes, 49 tensors)

ntm.read0_bias f4 [1, 20]
000000 f7 20 69 bb 9d 3f a3 bb d9 08 23 3c 8f db 46 3c
       -0.0035572627 -0.0049819485 0.00995084 0.012137308
000010 94 2c 36 3b 41 62 41 3a 5b 40 3c 3b b7 3b 2f bb
       0.0027797567 0.00073770067 0.0028724882 -0.0026738474
000020 52 ec 6d bb b3 0d dc 3b e4 4e 66 bc 8e d4 a5 ba
       -0.0036304188 0.0067155003 -0.014056895 -0.0012651847
000030 c2 79 7c ba d3 6c c2 bc 9c 0e e6 38 00 f9 88 bc
       -0.00096311804 -0.023733532 0.00010969976 -0.016720295
000040 44 3b 01 3b 6e 14 cd 3b d8 2a 3a 3b 8c 80 e8 bb
       0.0019719163 0.006258539 0.0028406885 -0.007095402

ntm.read1_bias f4 [1, 20]
000000 21 57 7d bc db e6 03 3c aa 56 21 bc 20 46 80 bb
       -0.015462668 0.008050646 -0.0098473225 -0.0039146096
000010 a1 a2 ca 3a 69 32 03 ba 8c b2 01 bb 35 bd 59 3c
       0.0015459844 -0.0005004765 -0.001979026 0.013289739
000020 fd 42 fc 3a 60 5d 93 3a 21 f8 00 bc bf b5 09 3a
       0.0019246038 0.0011243038 -0.007871659 0.00052532175
000030 7c 96 6c 3c 1b 2c 83 bc 3e 93 6b 3c db 3d 52 bc
       0.014440175 -0.016012242 0.014378367 -0.01283213
000040 d9 8e 90 3b 60 d2 a7 bb b0 6f f4 3c d9 87 89 bc
       0.00441156 -0.005121514 0.029838413 -0.01678841

ntm.read2_bias f4 [1, 20]
000000 a7 c9 8c bb fc f6 e4 bb 17 11 9d 3b ab 33 9d ba
       -0.0042965 -0.0069874506 0.004793297 -0.0011993548
000010 bb 27 43 3c c9 bf 95 bc a1 e1 ee bb 02 31 21 bb
       0.011911328 -0.018279927 -0.0072900807 -0.0024595861
000020 6b 63 28 bc e4 6e a9 bc f4 22 1c 3a 30 05 c2 3b
       -0.010277609 -0.02068276 0.0005956136 0.0059210286
000030 8a d0 ed 3c 12 99 14 3b 0b 2d 18 3b 3d f0 c9 3b
       0.029030103 0.0022674245 0.0023220207 0.006162672
000040 69 62 ae 3b b4 28 b9 bb eb a5 18 3c b6 90 23 3c
       0.00532179 -0.005650604 0.009316902 0.009983232

ntm.read3_bias f4 [1, 20]
000000 1c e9 48 3c d0 c2 22 bc 3e dd b1 3c ad 93 0e 3c
       0.012262609 -0.009934142 0.021711942 0.008702201
000010 4d 23 8c ba ef e8 15 bb 05 4f 6d 3a 87 56 02 bb
       -0.0010691673 -0.0022874435 0.00090526073 -0.0019888
000020 87 7d c6 3b 2f 72 43 3c 30 06 60 3c b0 93 d6 bb
       0.0060574445 0.011929079 0.01367335 -0.0065483674
000030 2e aa 03 bc 0d 91 bd ba c1 ac ae 3b 2e e1 b8 3b
       -0.0080361795 -0.0014462784 0.0053306525 0.005642078
000040 fe 3d a6 3b 4e 64 aa 3b 75 0b f1 3b 80 a2 94 bb
       0.005073308 0.0051999455 0.007356102 -0.004535973

ntm.read4_bias f4 [1, 20]
000000 27 60 e8 bb 86 7a fe bb 20 a8 28 3c 3d 88 42 b9
       -0.0070915404 -0.007766071 0.01029399 -0.00018552034
000010 c9 e8 40 bc 9b 33 66 bc bc b0 80 3b 6c ae eb bb
       -0.01177425 -0.01405039 0.0039273184 -0.0071924236
000020 30 b7 d6 bb 5c 9e 4d 3a 06 5b b4 3a d1 4d 88 bb
       -0.0065525994 0.0007843727 0.0013760037 -0.004159667
000030 40 ec 5d ba ca 10 c2 b9 58 f9 bb 3b eb 67 a6 3b
       -0.0008465685 -0.00037015072 0.005736511 0.005078306
000040 8e 6d e9 bb 5e 1f 36 bc 90 58 49 3c 30 68 c9 bc
       -0.0071236556 -0.011115877 0.012289181 -0.024585813

ntm.controller.lstm_h_bias f4 [2, 1, 100]
000000 eb 13 16 be 23 69 42 3d 93 52 3f 3d 8f 2c 1a 3d
       -0.14656036 0.047463547 0.04670961 0.03764015
000010 7c ec 6e 3d 87 e3 56 bc 35 f6 ed 3b a2 99 a3 3d
       0.058330998 -0.01311577 0.007262016 0.079882875
000020 e8 30 a8 bd 77 3a bf 3d 5b 7a 10 bd 97 5c 73 3b
       -0.08212453 0.09337323 -0.035272937 0.0037134045
000030 96 14 e2 bd ed 42 06 3e 15 26 4e bb 5c fc 5a 3d
       -0.11039083 0.13111468 -0.0031455804 0.053463325
000040 e8 e1 9b bc 51 99 34 3d 3c da 85 3d ec a3 b2 bd
       -0.019028619 0.044091526 0.065357655 -0.08722672
000050 3e 8b 21 bd 3d c6 44 bd 66 bf 88 3c e9 a3 ad bd
       -0.039439432 -0.048040617 0.016692828 -0.08478529
000060 90 d5 07 be 28 85 4e 3c 7a 90 72 bc 79 c2 ae 3c
       -0.13265061 0.012604989 -0.014804954 0.021332966
000070 44 aa a0 3c 5b e5 37 3e d8 54 a8 bd 8b 08 d2 3c
       0.019612439 0.17958586 -0.08219308 0.02563884
000080 c3 4a fb bc 0b ed 28 3d 50 91 b0 bd 41 cd 15 3d
       -0.030675298 0.041241687 -0.08621466 0.0365727
000090 83 13 cb bd 5a fd 04 bd 89 21 17 3d 13 fe 03 bd
       -0.09915831 -0.032468177 0.036897216 -0.032224726
0000a0 06 a3 1a 3d e4 41 d3 3c 96 a0 94 3c 07 e4 76 3d
       0.037753128 0.025788255 0.01814298 0.060276058
0000b0 52 89 8e bb 24 22 81 3c cb 83 48 bd dd 35 a7 3d
       -0.004349866 0.01576335 -0.048953813 0.081645705
0000c0 95 01 9f bd 62 da f1 bd be 4c 33 bc bc ee 13 bd
       -0.077639736 -0.11809231 -0.01094359 -0.036116347
0000d0 23 76 de 3c 98 68 03 3c e9 77 f1 3c 87 5c b0 3d
       0.027155941 0.008020543 0.029476123 0.08611398
0000e0 01 28 18 3d cc 58 88 3c 0e 75 5f 3d f9 3c b7 bd
       0.037147526 0.016643904 0.05455499 -0.089471765
0000f0 5d 72 92 3d 6d 6e 2d 3c 54 19 1c 3d 74 98 18 3e
       0.07150719 0.01058541 0.038110092 0.14901906
000100 f4 6f 2e bd f3 33 03 3e 53 5e b1 bb 78 61 71 3d
       -0.042587236 0.12812786 -0.0054128557 0.058930844
000110 be b7 89 bb d1 5f 16 3d 6e cb 4a bd 60 7c 05 3e
       -0.004202812 0.03671247 -0.049510412 0.13035727
000120 60 3c 1e bc 14 24 06 3e 7c 56 50 bd 9e 1e 49 3c
       -0.009657949 0.130997 -0.050863728 0.012275366
000130 2a 3e 9e bc c4 c4 0e bd 9a 3f 41 3c c9 87 e1 bc
       -0.019316752 -0.03485562 0.011794949 -0.027530568
000140 7e 52 ff 3c bb 86 ba bc bb 69 d6 3d 9e 1f 02 bd
       0.031167265 -0.022769323 0.10469385 -0.031768434
000150 c4 51 cb 3d e5 4f e3 3c ae 0a 4e 3d bb 05 c8 bd
       0.09927705 0.027748058 0.050303154 -0.09766718
000160 6f 54 bf 3d 42 0f ff 3c 78 6d 32 3d 18 8f 34 bd
       0.09342276 0.031135205 0.04356143 -0.044081777
000170 7e 7a 16 be 0d bd 54 3b e2 75 ac 3d 8a 73 64 3c
       -0.14695165 0.0032461316 0.08420922 0.013943562
000180 1a 01 fb bc c6 5b ae 3d 97 34 bc 3c b1 87 28 3d
       -0.030640174 0.08513598 0.022974296 0.04114503
000190 83 6c d3 bd 7f b3 17 3d b0 8b 09 bd 98 84 54 3c
       -0.10323431 0.037036415 -0.033580482 0.012971066
0001a0 f4 fd 6f bd 3d 58 80 bd 3b 7d 09 3d 7c a5 fa 3d
       -0.058591798 -0.0626683 0.033566695 0.12238595
0001b0 68 d2 cc 3c ec 36 7e bc 4e 1e af bc 47 b7 25 3c
       0.025002673 -0.015516024 -0.021376755 0.0101144975
0001c0 d5 9c 75 3d 51 47 6b bc 70 21 1d 3d 61 de 67 3c
       0.05996402 -0.014360265 0.038361967 0.01415214
0001d0 b0 7b f0 bb 60 c8 b3 bd 18 d3 7b bd a5 f9 c5 3d
       -0.0073389634 -0.08778453 -0.06148061 0.096667565
0001e0 1a b3 0d 3e e1 ce 77 3d d0 0d 0c b9 2d 22 c3 bd
       0.13837853 0.06050003 -0.00013356586 -0.09528003
0001f0 f6 db 5d bd ad e2 3d 3d 04 0b d0 bd 39 6b a5 bd
       -0.05416485 0.046358753 -0.10158351 -0.08077092
000200 72 5a 88 3c d4 35 3a be 56 dc 90 3d 04 ff 6a bb
       0.01664469 -0.18184596 0.07073276 -0.0035857568
000210 a1 29 ad 3d ff fa d0 3d f1 28 98 bb 1c 9d 7f 3c
       0.08455206 0.10204124 -0.0046435525 0.015601423
000220 1c 48 ab 3d 24 e2 91 3d ae f5 80 ba 4a ba 3f bd
       0.08363363 0.07123211 -0.0009838843 -0.04680852
000230 0e 89 22 3d ce 51 f6 3d f5 18 fa bc bc eb 2f ba
       0.039681487 0.12027322 -0.030529479 -0.00067108474
000240 5b 91 c6 bb a3 60 64 3d f9 b4 7f ba f0 1f 10 3d
       -0.006059808 0.055756222 -0.0009754445 0.035186708
000250 00 62 27 3d ce 7d b3 bd e3 56 b2 3d 98 36 7b bd
       0.040864944 -0.0876423 0.087079786 -0.06133136
000260 a2 b5 9e 3d d5 2e 5c ba 40 b9 cc bc 89 ce a0 3d
       0.077494875 -0.00083993125 -0.024990678 0.078518935
000270 2a c0 99 bc af b3 87 3d f7 ed 52 bc 01 26 fe 3d
       -0.018768389 0.06626069 -0.012874118 0.124095924
000280 b9 fb 6f bd ab cf 95 3d 08 18 c9 3c 1b 4b d7 bd
       -0.05858967 0.07315 0.024547592 -0.10512372
000290 cd 13 02 3d 9a df 59 3d a2 b2 bf 3d af 1e b4 3d
       0.031757165 0.05319176 0.093602434 0.08794915
0002a0 f8 26 de bd 95 68 2f bd 54 27 63 bc d5 70 12 3d
       -0.108472764 -0.042824347 -0.013864357 0.035752136
0002b0 fd a8 87 3d a9 73 b1 3c 46 f6 0a be a1 9f 3f bd
       0.06624029 0.021661596 -0.13570508 -0.046783093
0002c0 2b 07 d4 3d 29 01 b6 bd a2 d6 c4 bd 9c d1 07 3e
       0.1035293 -0.0888694 -0.096112505 0.13263553
0002d0 e6 c6 cc 3c 9a 32 ee 3d b1 d8 59 bd fa 99 08 3e
       0.024997186 0.11630745 -0.05318517 0.13339987
0002e0 7f 70 9a bd 74 24 12 be 68 50 4f bc 94 62 05 3e
       -0.07540988 -0.14271718 -0.012653448 0.13025886
0002f0 bc eb 00 be 08 3f c0 3b 60 99 f7 3d d2 b8 a6 3c
       -0.12589926 0.005866889 0.12089801 0.020351801
000300 55 41 aa 3c 6a 2e 41 bd c1 4f 1a 3d bb 83 19 bd
       0.020783106 -0.047163405 0.037673716 -0.037479144
000310 a4 6d 13 3d 26 53 16 3e 99 55 1c 3d bc 7f d9 3c
       0.035993233 0.14680156 0.03816757 0.026550166

ntm.controller.lstm_c_bias f4 [2, 1, 100]
000000 be 3c 07 be c7 b7 cb bb 40 2d d7 bb 48 fb c0 3d
       -0.13206765 -0.0062169763 -0.0065666735 0.09422928
000010 32 05 5a bc ed 43 ee bc 23 01 c5 bd cc a9 57 3d
       -0.013306903 -0.029085124 -0.096193574 0.052652165
000020 54 59 bb 3c 65 b8 10 bd 57 93 6d 3d de 58 5b 3d
       0.022869743 -0.035332102 0.058001842 0.053551547
000030 00 62 de 3c 42 00 02 3e 93 a8 a2 bd a4 ca 8a bd
       0.02714634 0.12695411 -0.07942309 -0.06776932
000040 13 86 ff 3c 70 7f 5e 3d a1 0d 1b bd 9e 2a 75 3d
       0.031191861 0.054320753 -0.037854794 0.059855096
000050 a2 da 03 3d bd f5 53 bd 41 b7 8e bd 0c 81 8d 3c
       0.032190926 -0.051748026 -0.06968547 0.017273448
000060 ac 67 3b bc 4e 93 e2 bc 68 1b 82 bd e2 a8 c1 3d
       -0.0114382915 -0.027658131 -0.063528836 0.0945604
000070 40 86 3e 3d 6e f8 1c 3d 0b d5 38 bd 2c 75 07 3d
       0.04651475 0.03832286 -0.04512505 0.03307073
000080 ae e5 d9 bc 1e 6e 69 be a1 bc 28 bd 3f 2f c6 3c
       -0.026598778 -0.22795913 -0.041195516 0.02419245
000090 90 24 3d be 88 0f 8b 3c ed 54 bd bb 28 b5 17 3d
       -0.18470979 0.01697518 -0.005777946 0.037038
0000a0 60 3b d5 bd 0e 5c 8a 3d 45 6e 33 3d 93 02 28 3e
       -0.104117155 0.06755839 0.043806333 0.16407232
0000b0 a1 04 c1 3c 09 1b 00 bd 74 43 21 3c 9e ac db 3c
       0.023561778 -0.031275783 0.009842742 0.026815709
0000c0 6b cf d8 3b 37 e6 70 bd 65 2a 2a bd 38 22 17 bd
       0.006616523 -0.0588133 -0.041544337 -0.036897868
0000d0 1a 93 1a 3e 4d 59 e3 bd 29 06 bc bc eb be 41 bd
       0.15095177 -0.11101017 -0.022952156 -0.047301214
0000e0 fe 34 b6 bd 95 d0 f1 3c bd 04 fb 3c fd b6 67 3c
       -0.08896826 0.029518405 0.030641908 0.014142749
0000f0 0b 4a e9 bd 47 8e b3 3d 82 22 20 ba ef 4d a7 bc
       -0.11391076 0.087673716 -0.00061086577 -0.020422904
000100 87 19 0c 3d ce 8f 29 bb 93 cc 14 bd 3e 14 26 3d
       0.034204032 -0.0025873068 -0.03632791 0.04054665
000110 c4 49 1f 3b 50 d9 81 3d 6f 5e c7 3d 00 a1 63 bd
       0.0024305442 0.06340277 0.09734809 -0.055573463
000120 ec 09 b7 bc c7 ac 4c 3d 4a bc 45 3c bd 29 d8 bd
       -0.022343598 0.04996946 0.012068817 -0.10554836
000130 e0 ff e3 bd 04 80 c5 bb 5d c2 de 3c 10 6f 37 bd
       -0.11132789 -0.0060272235 0.027192289 -0.04478365
000140 4e 48 a6 3b ba 9f 21 3c 21 9a b6 bd dd 4d c8 bd
       0.0050745374 0.009864742 -0.089161165 -0.09780476
000150 3b a0 6d 3d 7c 7c 3c ba d0 73 a0 3d 02 e9 00 3d
       0.058014136 -0.00071901805 0.078345895 0.031472214
000160 fd b8 5d bd cd 54 cd bd cc 8c 98 3d 84 ce a5 3d
       -0.054131497 -0.1002594 0.0744873 0.0809603
000170 71 64 83 bd cf 4c ca bd 71 8b 51 3d 5f 2c ea bd
       -0.06415642 -0.09877931 0.051158372 -0.11434244
000180 0d 59 11 bd ba b8 5f bd 93 1f fb 3d e2 19 56 bc
       -0.035485316 -0.05461953 0.12261882 -0.013067694
000190 60 58 42 bd de 3c b5 3c a1 e8 84 bd 72 d3 80 bd
       -0.047447562 0.02212375 -0.06489683 -0.0629033
0001a0 3e 16 7c bd 14 a3 c0 bd 7a fc 69 3d 75 07 ff 3b
       -0.06154465 -0.09406105 0.057125546 0.0077828714
0001b0 18 33 75 bc cd cc 56 3d 1b 72 ff 3c 7a 5a 05 be
       -0.014965795 0.052441407 0.03118234 -0.13022795
0001c0 2a df a7 3d 4a 3a e9 bc 2f 49 3f 3d 98 a6 01 3c
       0.08196862 -0.028470177 0.046700653 0.007913254
0001d0 cb 35 ef 3d 63 18 8b 3c ca 42 8c 3b d9 ce 33 bd
       0.11680182 0.016979402 0.004280423 -0.043898437
0001e0 47 bc 17 3e b3 45 cc bc 73 e6 74 bc b5 6f 81 3d
       0.14817916 -0.024935579 -0.0149475215 0.063201346
0001f0 0f af 32 3d 1c f4 f5 bc f1 83 06 bd 7d 25 c4 3d
       0.04362398 -0.030023627 -0.032840673 0.09577463
000200 fc 0e 5e bd c3 b4 20 3c d2 e5 63 3c b8 ff cd 3c
       -0.05421351 0.009808722 0.013909774 0.02514635
000210 65 d1 4e 3d 9f 9f b0 3d a7 83 84 3c 35 79 97 bc
       0.050492663 0.08624195 0.016176058 -0.018490413
000220 35 80 35 bd 2e 38 e0 bd 33 a0 2c 3e 8d 9b 9b bd
       -0.04431172 -0.109482154 0.16857986 -0.07598028
000230 f3 97 55 3c 80 a0 e5 3c 24 b3 72 bd 86 10 02 3e
       0.013036716 0.028030634 -0.059252873 0.12701616
000240 4e 99 ef 3d 1d 86 b4 3d 3f 72 a8 3d 0c 0d 56 bd
       0.116991624 0.088146426 0.08224916 -0.052258536
000250 0d 1b 06 3e fd 51 9c bd ca b5 49 3c 93 23 af bd
       0.13096257 -0.076328255 0.012311408 -0.08551707
000260 cf 1a f2 3d 5d 2c db bd 53 67 19 bc 45 6b ab 3d
       0.118215196 -0.10701821 -0.009363013 0.083700694
000270 75 dd b2 3d 3a 50 1f 3d 73 2f cf 3b 58 1b 2e bd
       0.08733646 0.03889487 0.006322795 -0.042506546
000280 5e 1a 63 3d 13 a5 d7 bd ad cc 1e bd 7c 8c 14 ba
       0.055445068 -0.10529532 -0.038769413 -0.0005666686
000290 3f 72 e3 3c a3 e4 8b bc 6f de b1 3c de 8d a2 bc
       0.027764438 -0.017076796 0.02171251 -0.019843038
0002a0 7a a1 37 bc 8a 18 d9 bd 6e eb a6 3b d6 a7 94 bd
       -0.011207933 -0.106003836 0.0050939834 -0.07258575
0002b0 b0 5c b0 3d 8d 4b ab bd a0 4d 97 3b d2 c5 a3 bd
       0.08611429 -0.083640195 0.004617408 -0.079967156
0002c0 37 6f 74 3d 58 5d 7f 3d 5f a8 ec 3d 3c c1 8d 3d
       0.059676375 0.06234488 0.11555552 0.06921622
0002d0 5c 68 ac 3d fe 31 91 3c 2e 2b ab bb c6 29 2e bd
       0.084183425 0.017724033 -0.0052236533 -0.042520307
0002e0 e8 af 49 bb 01 c7 f3 3c e4 8d 0b 3d 8a e4 f0 3b
       -0.0030775014 0.029757978 0.034070864 0.0073514627
0002f0 7d 23 30 3c 1f 99 1a be 7e 99 0e 3d 3e dd ae bb
       0.010750649 -0.15097474 0.03481435 -0.0053364327
000300 ee 52 93 bd 10 c6 26 3c e4 7b b0 3c 84 7a a4 bd
       -0.07193552 0.010179058 0.02154345 -0.080311805
000310 70 d3 b3 bc 40 82 16 3c 2f 98 6a bd 7a d5 70 bc
       -0.021951407 0.009186327 -0.05727404 -0.014699334

ntm.controller.lstm.weight_ih_l0 f4 [400, 103]
000000 c9 9f 94 be 99 4b b8 3e e6 69 28 3e 28 46 fd 3d
       -0.29028156 0.35995176 0.16446647 0.12366897
000010 b0 28 a7 3e c2 ef 1d 3d a2 8a 88 3b 54 10 73 3e
       0.3264823 0.03855873 0.004166917 0.23736697
000020 07 e9 95 3e a8 2c ca bd 26 f5 d3 3e a6 ad b7 bd
       0.29279348 -0.09871799 0.4139797 -0.08968668
000030 14 a7 87 3e 50 df 21 bd 5a 12 e0 3d 0e 0b 08 be
       0.26494658 -0.039519608 0.10941 -0.13285467
000040 9c 7f 40 be c7 01 fd 3d 1a 9b 7a 3e 80 b5 9a 3d
       -0.18798679 0.123538546 0.24473229 0.0755415
000050 b8 d2 66 3e 89 b5 ba 3e 83 76 a2 3d f2 1a 57 3e
       0.2254132 0.36466625 0.079327606 0.21006373
000060 77 ea 61 be d7 86 8c be 47 c9 68 bd 6e a3 95 be
       -0.22062097 -0.27446625 -0.056832578 -0.2922625
000070 e3 8a 29 3d 9c 62 04 be 52 7e c7 bd ef e5 28 be
       0.04139222 -0.12928241 -0.097408906 -0.16493963
000080 ee fb ae 3e fb 11 e2 3e 60 d1 b8 be eb a3 44 be
       0.34176582 0.44154343 -0.3609724 -0.19203155
000090 4f da 0b be c2 d7 8c be 53 57 74 3e 7c f9 d0 3d
       -0.13657497 -0.2750836 0.23861437 0.10203835
0000a0 34 46 33 3e a5 c0 b0 bd 87 15 ab 3b 58 be db 3e
       0.17507249 -0.08630494 0.005221072 0.42918658
0000b0 e9 5b 18 be 99 09 3f 3e 3b 3a b7 be 6e 7f e2 bd
       -0.14878811 0.18656005 -0.35786614 -0.110594615
0000c0 97 20 ba bd ef 38 d0 bd 5d 77 76 3e d2 e5 3d 3e
       -0.09088247 -0.10167109 0.24068971 0.185447
0000d0 c2 d3 8f be 20 92 26 3e ef ad 13 3e 0b ec 6f 3e
       -0.28091246 0.1626668 0.14421819 0.23429887
0000e0 e0 4a 36 3d 26 38 44 3e b3 c5 91 3e 2b 7f 96 3e
       0.044505 0.19162044 0.28471145 0.29393896
0000f0 b6 86 1e be 0d 6f 95 bd 91 e6 83 be f1 f2 7c be
       -0.15481076 -0.07296572 -0.25761846 -0.2470205
000100 80 36 4a 3e e6 35 76 be a7 76 8f 3e 19 49 37 3e
       0.19747353 -0.24043998 0.28020212 0.17898978
000110 b2 19 c1 3e 3d 90 ca 3d a0 38 3b 3e cc 6a 28 3e
       0.37714916 0.098907925 0.1828332 0.1644699
000120 69 e6 46 3e 3f 78 99 be 78 84 52 3d 9b 95 61 bd
       0.19423832 -0.29974553 0.051395863 -0.055074316
000130 6a 82 7b be 67 37 a2 bd 19 3b 79 be ef 19 41 bd
       -0.24561468 -0.079207234 -0.2433895 -0.047143873
000140 5d 41 6e 3c 09 4b 57 be 23 45 8e 3e cd 29 04 be
       0.014541951 -0.21024717 0.27787122 -0.1290657
000150 16 9a 94 3a 76 29 c6 3d 66 05 3f 3e 3b b0 a7 3d
       0.0011337425 0.09675877 0.18654403 0.0818791
000160 01 d4 91 3d f7 6e de 3d 86 74 3d 3e d8 cc 1c 3d
       0.07120515 0.108610086 0.18501481 0.03828129
000170 df a0 8e 3d 71 27 0a be ec f5 c5 3b 6e 54 1b bd
       0.069642775 -0.13491608 0.006041279 -0.037922315
000180 86 81 1c be e1 9f 4b 3e 27 3a 5c 3e 6e fb db 3e
       -0.15283784 0.19885208 0.21506558 0.42965263
000190 58 32 2b 3e 92 28 43 bd c2 49 ad 3e 93 34 e8 bd
       0.16718423 -0.047646113 0.33845335 -0.11338153
0001a0 62 d7 47 3e 3f 50 96 3e 26 68 9b bd 1d 55 84 be
       0.19515756 0.29358098 -0.07588224 -0.25846186
0001b0 8a 7b 72 be 5c 79 d2 bd 91 66 21 3e ba 7b df bd
       -0.23679939 -0.10277054 0.15761782 -0.10912271
0001c0 55 0d a6 3e 4a 02 b0 3e b7 70 7d bd 03 8b 56 be
       0.32432047 0.34376746 -0.06187507 -0.20951466
0001d0 0b 26 81 bd 28 35 87 be 6e d7 dc bd 6b 4e fb bd
       -0.06306084 -0.26407743 -0.107832775 -0.122708164
0001e0 a4 1c 0f be c4 43 c7 3e 33 53 8e 3e db 00 8b be
       -0.1397577 0.3891889 0.2779785 -0.2714909
0001f0 a5 d2 1f be 64 38 15 be f0 35 f7 bd f5 dc 3c be
       -0.15607698 -0.14572293 -0.12070835 -0.18443663
000200 bf 19 0d be ed 56 09 be b2 7e 89 3d 99 b9 b2 be
       -0.13779353 -0.13412066 0.06713618 -0.34907225
000210 89 ec ab bc 72 91 64 be e9 fd b8 3c 07 6f 22 3e
       -0.020986812 -0.22321108 0.022582011 0.15862666
000220 7a 42 ac be fd 0d 22 3c 2f c7 fe bd 63 a3 c2 be
       -0.33644468 0.00989103 -0.12440335 -0.3801528
000230 3e 16 a0 3e 9d cf 59 3e 00 de 75 be 53 9c 13 3e
       0.3126697 0.21270604 -0.24010468 0.14415102
000240 db 09 b2 bd c1 fd 84 3e fd 0b c7 bb 25 d5 9e 3d
       -0.08693286 0.2597485 -0.006074427 0.07755498
000250 af be 42 3d b8 5a e8 3d 08 81 18 3d 29 7c f6 b9
       0.04754513 0.11345428 0.03723243 -0.00047013283
000260 08 b2 84 3e b8 69 68 be 9f 5a c8 bc b5 90 02 3e
       0.25917077 -0.22696579 -0.024457274 0.12750514
000270 a4 e6 3a bd 2b d2 cf be 6a e4 03 3d dd 4b 8c bc
       -0.045630112 -0.40590033 0.032200254 -0.017126018
000280 bd 06 da bd 1c fe 29 3e c5 0f 19 3e a5 2f 8e be
       -0.106458165 0.16600841 0.14947422 -0.27770725
000290 56 96 af 3e 0f 47 9a 3e c3 f2 fd 3d bb c0 c8 be
       0.34294385 0.30132338 0.12399819 -0.39209542
0002a0 c6 9b f4 3d 78 6a fc 3b c1 ae 5f be f8 33 1e bc
       0.11943774 0.0077031218 -0.21844007 -0.009655945
0002b0 43 8d 83 3e 0a d3 97 3e dd 0d 21 be a9 6b 00 bd
       0.25693712 0.29653198 -0.15727945 -0.031352673
0002c0 f9 7d 66 be 51 b7 9d be f3 4a 67 3d 71 a6 b5 be
       -0.22508992 -0.30803922 0.05646796 -0.35478547
0002d0 a8 4c 42 bc 2d da 8a 3e 9a 3b a2 3e 32 ac 48 3e
       -0.011859097 0.2711958 0.31686097 0.19596937
0002e0 3f 13 bd 3c 96 d8 6d 3e 7b 4e 30 be 75 55 90 be
       0.023080466 0.23227152 -0.17217438 -0.281902
0002f0 e9 87 a5 3e 12 09 a3 be 84 2a 18 be ed 7d cb be
       0.32330254 -0.31842858 -0.14859968 -0.3974451
000300 a4 e8 96 be 8b a7 9a 3e cf 34 2c 3e d8 a3 98 be
       -0.29474366 0.3020595 0.1681702 -0.29812503
000310 88 df 81 be 84 51 7c 3e 3a 1c 1a 3d 34 f1 b2 be
       -0.25365853 0.2464047 0.037624575 -0.34949648
000320 f5 f1 c0 be f6 9e 4f be 34 3a bf 3e f6 a1 0c be
       -0.376846 -0.20275483 0.37349093 -0.13733658
000330 ae d6 66 ba d6 3d ac bd 9c a6 d8 be 6f 2a 70 3f
       -0.00088057935 -0.08410232 -0.42314613 0.9381475
000340 8f 5b 53 3e 19 12 e1 3c aa 77 7b be d6 18 75 3e
       0.20640396 0.02747445 -0.24557367 0.23935255
000350 b0 0c df be 68 82 83 3e 4a 9a 51 be 06 4c 6b 3e
       -0.43564367 0.2568543 -0.20469013 0.2297822
000360 52 fe 98 3e 0e 4f 3f 3d 42 54 4a 3e fc 49 2d be
       0.2988153 0.04670625 0.19758704 -0.16922754
000370 d5 36 bb 3c 42 03 88 bb ae b9 cd bd 3a bf aa be
       0.022853294 -0.004150779 -0.10045181 -0.3334902
000380 ae dc 72 be b7 51 77 be a3 66 aa be 5a fe 20 be
       -0.23716995 -0.24152265 -0.3328143 -0.15722027
000390 0b 8c 7e be c4 2e 85 3e 55 79 21 be aa a3 f7 bc
       -0.2485811 0.26012242 -0.15768941 -0.030229408
0003a0 c3 9e ce 3d 57 2d 1c be b9 0a a3 bb 67 a9 8f 3e
       0.10088875 -0.15251671 -0.0049756435 0.2805893
0003b0 25 f4 3e be e7 e7 95 3d 1f 86 cd be 13 99 8d 3e
       -0.18647821 0.073196225 -0.4014139 0.2765585
0003c0 bc 48 8a be 81 15 52 be d6 c4 67 3e 87 9a 2d be
       -0.27008617 -0.20516016 0.2263368 -0.16953479
0003d0 fd f7 20 3e 71 b2 a4 be 3f bf 73 be 04 75 08 bb
       0.157196 -0.3216739 -0.23803423 -0.00208217
0003e0 ab ec bb 3e fb 42 cc be bd ce ac bd e8 30 5f 3e
       0.36704 -0.39894852 -0.0843787 0.21796
0003f0 ee 6f 39 bd 92 f7 32 bc 3c a1 4c 3e 83 36 b1 3e
       -0.04527276 -0.010923283 0.19983381 0.34611902

ntm.controller.lstm.weight_hh_l0 f4 [400, 100]
000000 b4 89 b1 bd 5c 10 99 3d 31 3d 01 bd 5f 7e b6 bd
       -0.08668843 0.074738234 -0.031552497 -0.08910822
000010 6f ea 1f 3c 33 00 01 3e d1 a7 73 be 0c 6d 1e 3e
       0.009760483 0.12597732 -0.23794486 0.15471286
000020 d8 bc 93 3e 05 af 92 3e a5 3d 68 be 69 3f 1f be
       0.28855014 0.28649154 -0.22679766 -0.15551533
000030 a2 b3 8f be a1 6d 24 3d 26 1c 81 3e bb 62 95 bd
       -0.28066736 0.040143613 0.25216788 -0.07294222
000040 ae 80 c1 3e 19 db 93 bd 38 dc 4c be e6 37 9f 3e
       0.37793487 -0.07219524 -0.20005882 0.31097335
000050 dc e2 cf bd c1 b9 25 be b4 fa 7f bd 2b 61 50 be
       -0.10150692 -0.1618414 -0.06249495 -0.20349567
000060 a8 fe 31 be ba 3d 81 be ed 86 6e be c0 12 8f be
       -0.173823 -0.25242406 -0.23293658 -0.27943993
000070 d9 b9 32 3e f4 91 91 be 1b d1 6b be 9c c6 a5 3e
       0.17453708 -0.28431666 -0.23028986 0.3237809
000080 25 a3 42 bd b0 2f a8 3a aa 84 97 3e a0 4c e1 3d
       -0.047518868 0.0012831595 0.29593402 0.11000943
000090 7b db 29 be 54 3c 50 3e 8b 1c d5 bd a0 73 9a be
       -0.16587631 0.20335513 -0.10405835 -0.3016634
0000a0 cf 33 04 be 96 bc f3 bc 7b 3a 32 3e bd 07 51 bc
       -0.12910388 -0.02975301 0.17405121 -0.012758193
0000b0 d9 07 f3 bc 60 b2 5e 3e 7a fa ff 3d b0 b7 05 3e
       -0.029666828 0.21747732 0.124989465 0.13058352
0000c0 f8 7a b1 3d 05 c7 20 3e ec 8d bd bd 81 de 91 3d
       0.086660326 0.1570092 -0.09255585 0.071225174
0000d0 82 22 0d 3e a8 e4 7b 3e fc eb 41 3e bb 78 e8 be
       0.13782695 0.24598944 0.18937677 -0.4540461
0000e0 08 0a c8 be 4b 78 56 3d 1b c2 29 3e e7 be 27 be
       -0.39070153 0.052360814 0.16577952 -0.16381417
0000f0 61 16 55 3e ed c1 48 be f6 0f 0b be 88 5f 6b 3e
       0.20809318 -0.19605227 -0.13580307 0.22985661
000100 36 fb 06 3f 32 a1 f5 3d 1c 20 ce be b5 c6 4c 3d
       0.5272707 0.11993636 -0.40258873 0.04999419
000110 3e cb c5 3d 2d d4 d3 bd 0b 9a bc be b7 ee 48 be
       0.09657906 -0.10343204 -0.36836275 -0.19622312
000120 3f cb 81 3e f1 ae b4 bd 4e 67 67 3e a9 3e 3d be
       0.25350377 -0.0882243 0.22598001 -0.18480934
000130 b9 29 19 bd 59 76 63 be 0b 2a 65 3e ff e2 89 3e
       -0.037393305 -0.22213115 0.2237932 0.26930997
000140 40 d8 22 3e 3a 31 81 be a2 94 9f bc e3 7d a3 be
       0.15902805 -0.2523287 -0.019480053 -0.3193198
000150 96 cd 6a 3e bd ad ef be 73 ba 84 bd b4 7d 82 3e
       0.22929987 -0.4681224 -0.06480875 0.2548653
000160 34 ae fa 3d de 75 13 3e 10 95 43 3e ba 1e 36 3d
       0.12240258 0.14400432 0.19099832 0.044462897
000170 f0 e8 a5 3e 42 0b 9b bd d1 63 b6 3e 63 71 79 3d
       0.3240428 -0.07570507 0.3562303 0.06089915
000180 93 bb 53 bd 07 91 a0 3e 6b 9a 48 3e c9 3a 85 bd
       -0.051692557 0.31360647 0.19590156 -0.06505353
000190 24 c7 c0 bc 16 f0 4b 3e d2 b6 25 be 8b a5 31 3e
       -0.023532458 0.19915804 -0.16183022 0.17348306
0001a0 65 2e a8 be b9 2a ad bd c6 03 2a be ae 0c 34 be
       -0.32847896 -0.08455414 -0.16603002 -0.17582962
0001b0 cc 08 e3 bc 17 13 14 3e d7 32 46 be 03 2a 0f be
       -0.027714156 0.14460407 -0.19355331 -0.1398087
0001c0 e1 c1 c1 3c ae 19 81 bc 70 25 ae be cd 89 a6 be
       0.023652019 -0.015759315 -0.34012938 -0.3252701
0001d0 dc d7 57 3d b9 6e d6 3d e7 79 25 3e df 71 93 bc
       0.052696094 0.104703374 0.16159783 -0.017998634
0001e0 aa 7b 48 bd f2 e0 42 be 13 c9 03 be 28 a2 98 bd
       -0.04894606 -0.19031122 -0.12869672 -0.07452804
0001f0 63 62 12 3d 9a ac 89 3c bc 33 4d 3e 4a 10 e5 bc
       0.03573836 0.016805936 0.20039266 -0.027961869
000200 d0 ff 85 be 7c 8a 72 3e 07 6c 55 be 87 a5 47 3e
       -0.26171732 0.2368564 -0.2084199 0.19496737
000210 c5 f4 92 3e b8 7e a8 bd b5 ad 92 be 02 9e e5 bd
       0.2870237 -0.08227295 -0.28648153 -0.11211778
000220 75 fd c5 bd 7d 4f 86 bd fc 35 5e be d4 c1 b2 3e
       -0.09667484 -0.0655813 -0.21700281 0.34913504
000230 d4 7c 24 3e b2 21 86 be dc c5 01 bd 8a 38 02 3e
       0.16063243 -0.26197582 -0.031682834 0.1271688
000240 bf cd 98 3e 8c 18 f4 3d 82 10 19 3e 43 d2 4e 3d
       0.29844472 0.119187444 0.14947703 0.05049349
000250 68 18 b8 be e8 17 a1 bd 2e e5 79 bb 2e a2 e9 3d
       -0.3595612 -0.07865888 -0.0038130987 0.114078864
000260 1b 30 f2 bd 48 fd 82 3d 7b ad 51 3e 17 33 79 be
       -0.11825582 0.06395966 0.20476334 -0.24335895
000270 ca c5 ed 3d cd 91 7f 3e c2 30 79 bd a0 90 9f 3d
       0.11609991 0.24957962 -0.060837515 0.07791257
000280 70 d9 44 bd 56 83 a9 3c b6 58 94 bd 5f 0e 27 be
       -0.048058927 0.020692509 -0.07243483 -0.16314076
000290 f4 c8 11 bd 17 cb 94 3e a7 76 ec bc f3 3d a8 3d
       -0.035592034 0.29061195 -0.028865172 0.08214941
0002a0 12 fa d3 3e 33 ab 37 be af 97 ff 3d 16 e8 fd bc
       0.41401726 -0.17936401 0.12480103 -0.030994456
0002b0 56 ca 18 3e 25 0a 34 be 5a 6a 06 3e 86 b5 a5 3e
       0.14920935 -0.17581995 0.13126507 0.32365054
0002c0 ee aa d4 3a f8 18 91 3e 18 f1 c7 be bd 29 20 3e
       0.0016225257 0.28339362 -0.39051127 0.15640922
0002d0 24 2e 78 bd c8 8a 79 be ef ad e6 bb a0 4f 2c 3e
       -0.060590878 -0.24369347 -0.0070397775 0.1682725
0002e0 bf 36 6c be 5a 18 88 3d fc 7a c9 bd 67 88 ce 3c
       -0.23067759 0.0664527 -0.098379105 0.025211526
0002f0 81 7e 04 be d1 87 7f 3e d4 5b 6a be 70 9a 24 3c
       -0.12938882 0.24954154 -0.22886592 0.010046586
000300 6c 68 0d be 52 a7 73 be ce a9 f0 3d 33 cc 2b 3e
       -0.13809365 -0.23794296 0.11751138 0.16777115
000310 8d b6 27 be 49 08 11 be ec 39 54 be 85 4a a2 be
       -0.16378231 -0.14163317 -0.2072522 -0.3169748
000320 84 a9 d8 3e ca 5c 8c be 49 9d 95 be 77 3e f2 bd
       0.4231683 -0.27414542 -0.29221562 -0.118283205
000330 1d 20 58 be 4f 58 1f 3e e3 73 58 be c9 f2 35 be
       -0.21106 0.15561031 -0.21137957 -0.17768396
000340 71 04 80 be e6 24 60 3e 70 43 06 be 07 76 f1 3e
       -0.2500339 0.21889076 -0.13111663 0.4716036
000350 16 e8 48 be ef 54 95 bd 0e c4 07 3f 9d 53 8e be
       -0.19619784 -0.072915904 0.5303353 -0.27798167
000360 24 4b 05 bd 4c a1 88 be 74 2d 8c 3e b7 f0 9d 3e
       -0.032542363 -0.2668556 0.27378428 0.30847713
000370 6b 5f 85 3e a2 ab 98 3e 85 38 25 bc 2e 45 17 be
       0.2604936 0.29818445 -0.010084276 -0.14772484
000380 0b 45 65 bd f5 a9 cd 3d 2f 5f a2 3e e5 4d a6 be
       -0.055974048 0.10042182 0.31713244 -0.32481304
000390 de eb 31 3d d1 98 30 be d6 04 40 3e 4e 45 d2 be
       0.04343783 -0.17245795 0.18751845 -0.410685
0003a0 55 3a dd be c7 8c 9a bd 06 fa 5e be 7e ef 16 3e
       -0.43208566 -0.075463824 -0.21775064 0.14739797
0003b0 c1 aa 92 be c2 7b f6 3d f9 52 80 3e a3 4b da 3d
       -0.286459 0.12035324 0.25063303 0.10658958
0003c0 1d 35 83 be 34 f5 52 3e ae 63 e2 3e 80 85 ae be
       -0.2562646 0.2060135 0.44216675 -0.34086227
0003d0 cc ca 5c bd cc 3e 5e bd f1 cf b4 3e aa 3b 72 3d
       -0.05390434 -0.054259107 0.35314897 0.05913893
0003e0 b5 6f bb bd 3c 24 34 3e 6c 4f fa bb 0a 74 80 3e
       -0.09152166 0.17591947 -0.0076388624 0.2508853
0003f0 98 b4 25 3d f7 2c 87 bc 2d c8 e5 3d 52 8f 8a bd
       0.04045543 -0.016500933 0.11219821 -0.067656174

ntm.controller.lstm.bias_ih_l0 f4 [400]
000000 8d 06 92 3d bc 57 91 bd a6 42 23 bd f9 c9 90 bd
       0.07130156 -0.07096812 -0.039858483 -0.07069773
000010 23 f4 2a bd 6a 59 ad 3d af 6e 81 bd 5c 49 24 bd
       -0.041736733 0.0846432 -0.06319939 -0.040109023
000020 80 a0 af bd c7 b8 c4 bc 69 6e 19 3d bc 4b b3 bb
       -0.08575535 -0.02401389 0.03745881 -0.0054716747
000030 7e 9a d4 bb 0a 0c 64 3c 2e 3b de 3d 82 13 89 bd
       -0.0064881435 0.013918886 0.108511314 -0.06693174
000040 6e ec 8a bd 14 df cd 3a 7e 6d fc bd 35 bb 3a be
       -0.06783377 0.0015706741 -0.123255715 -0.18235476
000050 82 ff 1b be c3 7d b8 bd ff 20 8c bd a2 38 a6 bd
       -0.15234187 -0.09008362 -0.06842231 -0.081162706
000060 18 c2 99 bd 31 96 fc bc 3a e7 98 bd 68 68 bc bc
       -0.075077236 -0.030833336 -0.07465978 -0.022999004
000070 77 9b 8c bd 7c ea 28 be 5b 20 9b bd d1 67 36 be
       -0.0686559 -0.16495699 -0.07574531 -0.1781304
000080 77 cc d2 bd 80 59 14 be 6d b3 b3 bd 8a c1 a6 bd
       -0.10292905 -0.14487267 -0.08774457 -0.081423834
000090 31 f3 6f bd d4 05 c8 bd 08 26 3f bd a6 28 81 bd
       -0.058581535 -0.097667366 -0.04666713 -0.06306581
0000a0 0d fa 86 bd 6b 07 ce bc ab de c3 3c 49 c1 56 bd
       -0.06590662 -0.025150022 0.023909887 -0.052430425
0000b0 c3 81 b0 bd e2 27 63 bd 83 4f fb bc 99 44 2b be
       -0.086185 -0.055457957 -0.030677563 -0.16725387
0000c0 82 1f d9 bd 6d c3 07 be 89 7f 17 3a 68 f7 e7 bd
       -0.10601713 -0.13258143 0.0005779197 -0.11326486
0000d0 3c 61 9c bd c9 c0 be bc 74 8f 19 be e7 f8 99 be
       -0.076357335 -0.023285287 -0.1499613 -0.3007271
0000e0 58 f7 82 bc 43 ab 3e 3d 71 b6 aa 3c 22 54 52 bb
       -0.015987083 0.046550047 0.020838948 -0.0032093604
0000f0 a0 ec 40 bb f9 ff 31 bd 37 44 f2 bd c4 ca df 3c
       -0.0029437914 -0.043457005 -0.11829417 0.027318366
000100 ba e8 95 3b 13 3b 90 bc 65 62 1d be 04 7b 1e bd
       0.0045748623 -0.017606294 -0.15369566 -0.038691536
000110 bc 16 38 bd 42 1f fa bc 77 fa f2 bd e2 1a f8 3c
       -0.044943556 -0.030532483 -0.11864179 0.030286256
000120 03 87 03 3e 1e 52 76 bd 09 26 86 bc 22 1a 85 bd
       0.12844472 -0.060136907 -0.016375558 -0.06499125
000130 bf 88 81 bd 27 1d d2 bc 01 91 cd bd d3 e1 be bd
       -0.0632491 -0.025648667 -0.10037423 -0.09320416
000140 21 94 5f bb d7 eb 08 bd 3d 90 94 3e 9e 40 c9 bd
       -0.0034115391 -0.03342804 0.29016295 -0.09826778
000150 1e 03 fc bd 9f 90 08 be 1c 52 76 3d 64 d5 05 bd
       -0.12305282 -0.13336419 0.0601369 -0.03267421
000160 c3 f2 26 be ff 25 43 bd c6 20 cf 3b 7a 74 8b bd
       -0.16303544 -0.047643658 0.0063210456 -0.068093255
000170 0f 78 fa bd d0 30 8a bd 0a e9 6d bd 19 ec 82 bd
       -0.122299306 -0.067475915 -0.05808357 -0.06392688
000180 84 3b da bd a2 e0 d0 bd f5 c0 cf bb ab b5 27 bd
       -0.10655883 -0.10199095 -0.006340141 -0.040944736
000190 77 26 0b bd dd 55 77 bc 4d 79 94 bc 79 87 b7 bc
       -0.03397223 -0.015096155 -0.018124247 -0.022403466
0001a0 18 84 25 bd 2f 8c 65 3d 81 75 5e 3c 46 4f 83 bd
       -0.040409178 0.056041893 0.01357782 -0.064116046
0001b0 52 65 19 3d 66 62 bc 3d 61 aa 74 3d 9f e0 11 be
       0.037450142 0.091984555 0.0597328 -0.14245842
0001c0 85 db 19 3e bf 98 e6 bd 36 a6 38 3d f4 d5 24 3d
       0.15025146 -0.11259603 0.045080386 0.040243104
0001d0 0b 87 cf bd a0 6a 24 3d e1 f4 a7 3d da b3 79 bd
       -0.10133179 0.040140748 0.08201004 -0.060962535
0001e0 ee 97 42 bd a8 a7 c5 bd 37 d9 ba bd f2 d5 fa bd
       -0.047508173 -0.096511185 -0.09123462 -0.12247838
0001f0 d8 d5 89 3b 27 7b e1 bd 19 9e 31 3c 34 2d aa 3d
       0.0042064004 -0.110098176 0.010840916 0.08309403
000200 17 f0 1a 3d 2d 79 96 bd 6a 36 12 bd a9 3c e8 bd
       0.037826624 -0.07347331 -0.035696425 -0.11339695
000210 77 37 e8 bc e1 bb b0 3a 30 8c 86 bd 37 9b 20 3d
       -0.02834676 0.0013483727 -0.065697074 0.039210524
000220 8e cd c9 bc 3b f8 17 bd db e3 cd bd 4c dc a5 3b
       -0.024634149 -0.037101965 -0.100532256 0.005061662
000230 25 83 ef bc a5 25 72 bd 1e e4 2e be 9d c3 98 3c
       -0.02923734 -0.059117932 -0.17079207 0.018647963
000240 50 6d 1b 3d f8 bc 04 3d 3c a5 a0 bb e5 47 be bd
       0.037946045 0.032406777 -0.00490251 -0.092910565
000250 3c 02 51 3d f0 75 b0 3b 30 4c 87 bd 41 6a 06 bd
       0.05102752 0.005385153 -0.066063285 -0.032816175
000260 e0 3f c6 bd 19 65 a2 3c 9a 95 0f bc ab 40 25 3b
       -0.09680152 0.019823598 -0.008763695 0.0025215547
000270 65 4d a0 3b 45 1a 24 be c0 f6 b7 bc a3 90 f9 3d
       0.0048920386 -0.16025646 -0.022456527 0.121857904
000280 83 26 81 bd 91 85 72 3a fc 6c 06 3c 8b bd a6 bc
       -0.06306174 0.00092514703 0.008204695 -0.020354053
000290 46 bd 89 ba 9b 2c b3 3d 41 ce 46 be 97 05 9b bd
       -0.0010508678 0.08748742 -0.19414617 -0.075694256
0002a0 c8 f8 55 bc 3f b4 92 3c f2 52 0c be 2b ec 1b bd
       -0.013059802 0.017908214 -0.13703516 -0.038067024
0002b0 c2 ec 35 bd b8 22 20 bc 4c bf 0e 3d 54 b1 a5 3c
       -0.044415243 -0.009773903 0.034850404 0.020226158
0002c0 74 8b 03 bc e8 be 14 3e 25 4f a8 bd b9 12 75 be
       -0.008028854 0.1452595 -0.082182206 -0.23932923
0002d0 63 c9 9a bc 1b 67 d8 bc 51 dd 2d 3c 35 d3 70 3c
       -0.018894857 -0.026416352 0.010611848 0.014698793
0002e0 3a f9 03 bd 5d 6a 46 be 5a 73 33 bd be c4 ff 3d
       -0.032220103 -0.19376512 -0.04381118 0.124886975
0002f0 40 b7 79 bd 55 0b 92 bd bc 83 97 bd 22 44 e2 3b
       -0.060965776 -0.07131068 -0.07398173 0.0069050947
000300 9d 06 5c bc 52 74 90 3d 97 18 91 bd 38 66 da bd
       -0.013429311 0.07053436 -0.07084768 -0.10664028
000310 94 a3 cf bd db 75 81 bd b7 4a cd 3c 08 f7 cb bd
       -0.10138622 -0.06321307 0.02506004 -0.09959227
000320 7e 01 cd bb e9 c8 fe 3c 0b 56 84 3c 29 2b 48 bb
       -0.0062562814 0.03110166 0.01615431 -0.0030543304
000330 2c f1 36 3d a8 b4 81 bd 98 36 23 3d 3d b5 a8 3c
       0.044663593 -0.063332856 0.039846987 0.020594234
000340 53 0d 87 3c f8 d1 0c bd 51 7f b9 3c 81 63 ae ba
       0.016485846 -0.03437993 0.022643717 -0.0013304801
000350 1f 3a 3b 3c 12 19 02 bd da ab 12 3c bb a5 6b 3c
       0.011427431 -0.03176219 0.008952105 0.014382775
000360 35 fa 6a bd 7d 44 e2 3c 22 9c 92 3c 50 31 ba 3c
       -0.057367522 0.027620548 0.017896716 0.022728592
000370 df 59 75 bd a2 6d a1 3c 10 a1 b6 bc 07 2f a0 3d
       -0.05990016 0.019705597 -0.022293597 0.0782147
000380 2f c2 34 bc b4 f9 86 3d ff c0 c9 bc 31 1f 7f 3d
       -0.011032625 0.06590596 -0.02462816 0.062285606
000390 50 fd 3a 3c 98 24 ba 3b ad 28 b6 bb f1 31 7f 3d
       0.0114129335 0.005680632 -0.005559048 0.062303487
0003a0 48 cc 20 3b 44 e1 0f 3c 05 19 a6 3c 6a 73 0e bc
       0.0024535824 0.008781735 0.020275602 -0.008694509
0003b0 53 e5 eb bc 2a 78 d0 3c 25 41 5d bc 83 d1 24 3c
       -0.028795874 0.025447924 -0.013504301 0.010059717
0003c0 2f e0 29 3d 23 9e bb 3b 3f 43 2d bd 36 5a e8 3b
       0.041473564 0.0057256385 -0.04230046 0.007090832
0003d0 83 16 86 3a c3 d6 4f bc 80 b8 1f 3c f2 b2 a8 bc
       0.0010230098 -0.0126854805 0.009748578 -0.02059314
0003e0 93 25 13 3d 62 4d cf bc a3 cb 8d 3d e4 e8 90 bd
       0.035924505 -0.025305454 0.06923606 -0.0707567
0003f0 af 97 14 3d 82 7d a6 bc dc e0 35 3c b4 39 67 bd
       0.03627747 -0.020323519 0.011100974 -0.056451514

ntm.controller.lstm.bias_hh_l0 f4 [400]
000000 8d 06 92 3d bc 57 91 bd a6 42 23 bd f9 c9 90 bd
       0.07130156 -0.07096812 -0.039858483 -0.07069773
000010 23 f4 2a bd 6a 59 ad 3d af 6e 81 bd 5c 49 24 bd
       -0.041736733 0.0846432 -0.06319939 -0.040109023
000020 80 a0 af bd c7 b8 c4 bc 69 6e 19 3d bc 4b b3 bb
       -0.08575535 -0.02401389 0.03745881 -0.0054716747
000030 7e 9a d4 bb 0a 0c 64 3c 2e 3b de 3d 82 13 89 bd
       -0.0064881435 0.013918886 0.108511314 -0.06693174
000040 6e ec 8a bd 14 df cd 3a 7e 6d fc bd 35 bb 3a be
       -0.06783377 0.0015706741 -0.123255715 -0.18235476
000050 82 ff 1b be c3 7d b8 bd ff 20 8c bd a2 38 a6 bd
       -0.15234187 -0.09008362 -0.06842231 -0.081162706
000060 18 c2 99 bd 31 96 fc bc 3a e7 98 bd 68 68 bc bc
       -0.075077236 -0.030833336 -0.07465978 -0.022999004
000070 77 9b 8c bd 7c ea 28 be 5b 20 9b bd d1 67 36 be
       -0.0686559 -0.16495699 -0.07574531 -0.1781304
000080 77 cc d2 bd 80 59 14 be 6d b3 b3 bd 8a c1 a6 bd
       -0.10292905 -0.14487267 -0.08774457 -0.081423834
000090 31 f3 6f bd d4 05 c8 bd 08 26 3f bd a6 28 81 bd
       -0.058581535 -0.097667366 -0.04666713 -0.06306581
0000a0 0d fa 86 bd 6b 07 ce bc ab de c3 3c 49 c1 56 bd
       -0.06590662 -0.025150022 0.023909887 -0.052430425
0000b0 c3 81 b0 bd e2 27 63 bd 83 4f fb bc 99 44 2b be
       -0.086185 -0.055457957 -0.030677563 -0.16725387
0000c0 82 1f d9 bd 6d c3 07 be 89 7f 17 3a 68 f7 e7 bd
       -0.10601713 -0.13258143 0.0005779197 -0.11326486
0000d0 3c 61 9c bd c9 c0 be bc 74 8f 19 be e7 f8 99 be
       -0.076357335 -0.023285287 -0.1499613 -0.3007271
0000e0 58 f7 82 bc 43 ab 3e 3d 71 b6 aa 3c 22 54 52 bb
       -0.015987083 0.046550047 0.020838948 -0.0032093604
0000f0 a0 ec 40 bb f9 ff 31 bd 37 44 f2 bd c4 ca df 3c
       -0.0029437914 -0.043457005 -0.11829417 0.027318366
000100 ba e8 95 3b 13 3b 90 bc 65 62 1d be 04 7b 1e bd
       0.0045748623 -0.017606294 -0.15369566 -0.038691536
000110 bc 16 38 bd 42 1f fa bc 77 fa f2 bd e2 1a f8 3c
       -0.044943556 -0.030532483 -0.11864179 0.030286256
000120 03 87 03 3e 1e 52 76 bd 09 26 86 bc 22 1a 85 bd
       0.12844472 -0.060136907 -0.016375558 -0.06499125
000130 bf 88 81 bd 27 1d d2 bc 01 91 cd bd d3 e1 be bd
       -0.0632491 -0.025648667 -0.10037423 -0.09320416
000140 21 94 5f bb d7 eb 08 bd 3d 90 94 3e 9e 40 c9 bd
       -0.0034115391 -0.03342804 0.29016295 -0.09826778
000150 1e 03 fc bd 9f 90 08 be 1c 52 76 3d 64 d5 05 bd
       -0.12305282 -0.13336419 0.0601369 -0.03267421
000160 c3 f2 26 be ff 25 43 bd c6 20 cf 3b 7a 74 8b bd
       -0.16303544 -0.047643658 0.0063210456 -0.068093255
000170 0f 78 fa bd d0 30 8a bd 0a e9 6d bd 19 ec 82 bd
       -0.122299306 -0.067475915 -0.05808357 -0.06392688
000180 84 3b da bd a2 e0 d0 bd f5 c0 cf bb ab b5 27 bd
       -0.10655883 -0.10199095 -0.006340141 -0.040944736
000190 77 26 0b bd dd 55 77 bc 4d 79 94 bc 79 87 b7 bc
       -0.03397223 -0.015096155 -0.018124247 -0.022403466
0001a0 18 84 25 bd 2f 8c 65 3d 81 75 5e 3c 46 4f 83 bd
       -0.040409178 0.056041893 0.01357782 -0.064116046
0001b0 52 65 19 3d 66 62 bc 3d 61 aa 74 3d 9f e0 11 be
       0.037450142 0.091984555 0.0597328 -0.14245842
0001c0 85 db 19 3e bf 98 e6 bd 36 a6 38 3d f4 d5 24 3d
       0.15025146 -0.11259603 0.045080386 0.040243104
0001d0 0b 87 cf bd a0 6a 24 3d e1 f4 a7 3d da b3 79 bd
       -0.10133179 0.040140748 0.08201004 -0.060962535
0001e0 ee 97 42 bd a8 a7 c5 bd 37 d9 ba bd f2 d5 fa bd
       -0.047508173 -0.096511185 -0.09123462 -0.12247838
0001f0 d8 d5 89 3b 27 7b e1 bd 19 9e 31 3c 34 2d aa 3d
       0.0042064004 -0.110098176 0.010840916 0.08309403
000200 17 f0 1a 3d 2d 79 96 bd 6a 36 12 bd a9 3c e8 bd
       0.037826624 -0.07347331 -0.035696425 -0.11339695
000210 77 37 e8 bc e1 bb b0 3a 30 8c 86 bd 37 9b 20 3d
       -0.02834676 0.0013483727 -0.065697074 0.039210524
000220 8e cd c9 bc 3b f8 17 bd db e3 cd bd 4c dc a5 3b
       -0.024634149 -0.037101965 -0.100532256 0.005061662
000230 25 83 ef bc a5 25 72 bd 1e e4 2e be 9d c3 98 3c
       -0.02923734 -0.059117932 -0.17079207 0.018647963
000240 50 6d 1b 3d f8 bc 04 3d 3c a5 a0 bb e5 47 be bd
       0.037946045 0.032406777 -0.00490251 -0.092910565
000250 3c 02 51 3d f0 75 b0 3b 30 4c 87 bd 41 6a 06 bd
       0.05102752 0.005385153 -0.066063285 -0.032816175
000260 e0 3f c6 bd 19 65 a2 3c 9a 95 0f bc ab 40 25 3b
       -0.09680152 0.019823598 -0.008763695 0.0025215547
000270 65 4d a0 3b 45 1a 24 be c0 f6 b7 bc a3 90 f9 3d
       0.0048920386 -0.16025646 -0.022456527 0.121857904
000280 83 26 81 bd 91 85 72 3a fc 6c 06 3c 8b bd a6 bc
       -0.06306174 0.00092514703 0.008204695 -0.020354053
000290 46 bd 89 ba 9b 2c b3 3d 41 ce 46 be 97 05 9b bd
       -0.0010508678 0.08748742 -0.19414617 -0.075694256
0002a0 c8 f8 55 bc 3f b4 92 3c f2 52 0c be 2b ec 1b bd
       -0.013059802 0.017908214 -0.13703516 -0.038067024
0002b0 c2 ec 35 bd b8 22 20 bc 4c bf 0e 3d 54 b1 a5 3c
       -0.044415243 -0.009773903 0.034850404 0.020226158
0002c0 74 8b 03 bc e8 be 14 3e 25 4f a8 bd b9 12 75 be
       -0.008028854 0.1452595 -0.082182206 -0.23932923
0002d0 63 c9 9a bc 1b 67 d8 bc 51 dd 2d 3c 35 d3 70 3c
       -0.018894857 -0.026416352 0.010611848 0.014698793
0002e0 3a f9 03 bd 5d 6a 46 be 5a 73 33 bd be c4 ff 3d
       -0.032220103 -0.19376512 -0.04381118 0.124886975
0002f0 40 b7 79 bd 55 0b 92 bd bc 83 97 bd 22 44 e2 3b
       -0.060965776 -0.07131068 -0.07398173 0.0069050947
000300 9d 06 5c bc 52 74 90 3d 97 18 91 bd 38 66 da bd
       -0.013429311 0.07053436 -0.07084768 -0.10664028
000310 94 a3 cf bd db 75 81 bd b7 4a cd 3c 08 f7 cb bd
       -0.10138622 -0.06321307 0.02506004 -0.09959227
000320 7e 01 cd bb e9 c8 fe 3c 0b 56 84 3c 29 2b 48 bb
       -0.0062562814 0.03110166 0.01615431 -0.0030543304
000330 2c f1 36 3d a8 b4 81 bd 98 36 23 3d 3d b5 a8 3c
       0.044663593 -0.063332856 0.039846987 0.020594234
000340 53 0d 87 3c f8 d1 0c bd 51 7f b9 3c 81 63 ae ba
       0.016485846 -0.03437993 0.022643717 -0.0013304801
000350 1f 3a 3b 3c 12 19 02 bd da ab 12 3c bb a5 6b 3c
       0.011427431 -0.03176219 0.008952105 0.014382775
000360 35 fa 6a bd 7d 44 e2 3c 22 9c 92 3c 50 31 ba 3c
       -0.057367522 0.027620548 0.017896716 0.022728592
000370 df 59 75 bd a2 6d a1 3c 10 a1 b6 bc 07 2f a0 3d
       -0.05990016 0.019705597 -0.022293597 0.0782147
000380 2f c2 34 bc b4 f9 86 3d ff c0 c9 bc 31 1f 7f 3d
       -0.011032625 0.06590596 -0.02462816 0.062285606
000390 50 fd 3a 3c 98 24 ba 3b ad 28 b6 bb f1 31 7f 3d
       0.0114129335 0.005680632 -0.005559048 0.062303487
0003a0 48 cc 20 3b 44 e1 0f 3c 05 19 a6 3c 6a 73 0e bc
       0.0024535824 0.008781735 0.020275602 -0.008694509
0003b0 53 e5 eb bc 2a 78 d0 3c 25 41 5d bc 83 d1 24 3c
       -0.028795874 0.025447924 -0.013504301 0.010059717
0003c0 2f e0 29 3d 23 9e bb 3b 3f 43 2d bd 36 5a e8 3b
       0.041473564 0.0057256385 -0.04230046 0.007090832
0003d0 83 16 86 3a c3 d6 4f bc 80 b8 1f 3c f2 b2 a8 bc
       0.0010230098 -0.0126854805 0.009748578 -0.02059314
0003e0 93 25 13 3d 62 4d cf bc a3 cb 8d 3d e4 e8 90 bd
       0.035924505 -0.025305454 0.06923606 -0.0707567
0003f0 af 97 14 3d 82 7d a6 bc dc e0 35 3c b4 39 67 bd
       0.03627747 -0.020323519 0.011100974 -0.056451514

ntm.controller.lstm.weight_ih_l1 f4 [400, 100]
000000 8b e0 8e be d5 69 9d 3e 0a 41 4c bd 46 82 07 bd
       -0.27905688 0.30744806 -0.049866714 -0.033083223
000010 7f e4 ad be 51 7b 86 be 86 be c0 be 26 64 43 be
       -0.3396339 -0.26265958 -0.37645358 -0.19081172
000020 68 48 2c 3d 15 e7 3f 3e fe f8 64 3e 1f 11 cd 3e
       0.04206124 0.18740495 0.22360608 0.40052125
000030 21 28 d0 3c 04 74 62 3e 5f b1 63 3e e9 28 8e 3e
       0.02540976 0.22114569 0.2223563 0.27765587
000040 1c 03 50 be a1 40 cd 3e 60 3a a3 3e b2 47 7e be
       -0.20313686 0.4008837 0.31880474 -0.24832037
000050 18 9d 32 be d9 0c 5e bd b5 1f 89 3e 6a f0 52 bd
       -0.17442739 -0.05421147 0.26782003 -0.051498808
000060 9e b4 74 be 44 9a 7e 3e f1 18 5a be 9f c3 19 3e
       -0.23897025 0.24863535 -0.21298577 0.1501603
000070 6e 4d 3a bc 36 98 8e 3e 33 81 52 be ff d4 56 be
       -0.011371 0.27850503 -0.20557098 -0.20979689
000080 3e d0 a1 be a7 0a 07 3e 12 a4 01 3e 21 0d 0c bd
       -0.3160419 0.13187657 0.12660244 -0.03419221
000090 b6 2f ab be 2f ef 81 3e f6 73 9d bd 77 64 0b 3e
       -0.33434838 0.25377795 -0.076881334 0.13612543
0000a0 48 5b 3b 3e 60 9a de bd d4 eb 7a 3e 61 04 a2 be
       0.1829654 -0.108692884 0.24504024 -0.31643966
0000b0 49 1f 67 3e 39 20 a1 3e f0 a6 45 be 7a a2 98 be
       0.22570528 0.31469896 -0.19301963 -0.2981146
0000c0 8b 44 92 3d 61 db 22 be 3b 68 05 3e 94 fe 86 bd
       0.0714198 -0.15903999 0.13028042 -0.06591526
0000d0 fd 92 c9 be 0e a4 18 3e dd 10 44 be a4 68 13 be
       -0.39369956 0.14906332 -0.19147058 -0.14395386
0000e0 c4 56 94 be a1 b0 a9 3e 77 55 93 3e 6c 6c a0 3e
       -0.28972447 0.3314257 0.28776142 0.3133272
0000f0 65 1f b3 be 0a 9f 0d 3e 2f 15 78 3e 35 f0 5f 3e
       -0.3498489 0.138302 0.24226831 0.21868975
000100 ca e6 11 be 92 09 05 3e 05 4c a8 be b6 c8 1e 3e
       -0.14248195 0.12991932 -0.32870498 0.15506253
000110 b6 c7 b9 be d3 53 26 bd 6a a1 6f be ab 5b 45 bd
       -0.3628518 -0.040607285 -0.23401418 -0.048183125
000120 0e 4f ff 3c c4 b1 f4 bd da 6a a4 be 9b 0a 89 be
       0.031165626 -0.119479686 -0.3211277 -0.26765904
000130 b1 5d 09 be d9 77 45 be 7b 5e 11 3e e6 c8 05 3d
       -0.13414647 -0.19284 0.14196198 0.032662295
000140 03 ca 63 be 8a 49 20 3e ac 68 f9 3d cf 2d a3 3e
       -0.2224503 0.15653053 0.12178168 0.31870887
000150 6a 86 90 bd 8d 6d 29 be 1e d6 96 3e 50 c5 e8 bb
       -0.070568874 -0.16545697 0.29460233 -0.0071035996
000160 7f 2f 7b be f7 7c d1 be fb 76 5b be 9c 6e 2e 3e
       -0.24529837 -0.40915653 -0.21432106 0.17034382
000170 02 b5 0d 3d fe 96 63 3c 9d a1 c1 3e 7a 46 ce be
       0.03459645 0.01389098 0.37818614 -0.40288144
000180 67 f5 45 3e 83 5d dd bd c2 7c f4 bd 35 d3 1d 3e
       0.19331895 -0.108088516 -0.11937858 0.154126
000190 85 5f b9 bc ce d6 a6 3e 5e e1 51 be fb 0e 03 be
       -0.022628555 0.32585758 -0.20496127 -0.12798683
0001a0 61 4f d6 3e 01 e5 b2 be e6 76 d8 bd 34 81 a2 3e
       0.41857436 -0.3494034 -0.10569553 0.317392
0001b0 c6 26 2d 3e 31 e5 06 be fc ec ac be 59 71 89 be
       0.16909322 -0.13173367 -0.33774555 -0.2684429
0001c0 35 b3 99 be df 36 e0 bd 14 13 ee 3d b2 9a 45 3e
       -0.30019537 -0.10947966 0.116247326 0.19297293
0001d0 de 9b 19 3e f1 b7 6c 3c c7 d1 af bd 19 c0 45 3e
       0.15000865 0.014448152 -0.08584934 0.1931156
0001e0 5d 51 9d 3e e8 49 4c 3e fe 64 30 3e 89 b2 46 be
       0.30726138 0.19950068 0.17226025 -0.19404043
0001f0 4d b1 13 be 69 b1 c8 3e b5 5a bf 3e ab 40 92 3c
       -0.14423104 0.39197853 0.3737389 0.017853102
000200 20 6a 28 be fa db 99 3d 03 d9 6f be 70 fd 67 3e
       -0.16446733 0.0751266 -0.23422627 0.22655272
000210 09 45 93 3e f3 91 96 be 23 6e a4 bb f4 e1 17 3e
       0.28763607 -0.29408225 -0.005018012 0.14832288
000220 27 5c 09 be f9 09 d7 3d 33 e8 9d 3d 49 df c2 3e
       -0.1341406 0.10499949 0.07710304 0.38060978
000230 2f 7f 66 be aa 04 35 be 9c 26 23 be 07 86 71 3e
       -0.22509454 -0.1767756 -0.15932697 0.23586284
000240 05 0c 2e be 2b c4 0b be 65 74 48 3e 85 2d 43 3e
       -0.16996773 -0.13649051 0.19575651 0.19060333
000250 d9 09 93 3e e7 59 14 3e 16 9b d1 bd fb bc 81 3e
       0.2871845 0.1448742 -0.102346584 0.25339493
000260 e4 78 76 3c 4d 9b 1b be 30 75 1e 3e 01 8b 1d 3e
       0.015043471 -0.15195961 0.15474391 0.15385057
000270 0a 12 0f 3e c3 c8 2a 3e e7 af d2 3d e6 ab d5 3d
       0.13971725 0.16678147 0.10287457 0.10433178
000280 f2 15 2b 3e 00 25 b4 bd 6d e5 82 3c 27 2a 5c 3e
       0.1670759 -0.0879612 0.01597854 0.21500455
000290 47 d5 82 3e e8 e2 b2 be b1 db 0a 3e 0f 32 a9 be
       0.25553343 -0.3493874 0.13560368 -0.33046004
0002a0 d3 ec e3 bd b0 b9 81 be 0b 71 0b be 7f c3 0f 3e
       -0.11129155 -0.2533698 -0.13617341 0.1403942
0002b0 77 61 b9 be 03 ae b8 be b8 12 57 bb d2 74 d8 be
       -0.36207172 -0.3607026 -0.0032817554 -0.42276627
0002c0 96 0c 83 be 7c bb a3 3e 02 88 75 be e4 43 6a 3e
       -0.2559554 0.31978977 -0.23977664 0.2287746
0002d0 23 ea 93 be 78 2a 96 3e fa 55 99 be 05 dc 50 be
       -0.2888957 0.29329276 -0.29948407 -0.20396431
0002e0 65 d3 c2 bc fc 72 97 be fa 2c 29 3e c6 7b 43 3e
       -0.023782441 -0.29579914 0.16521063 0.19090185
0002f0 83 d7 38 3d 8f d7 8d 3c da c9 84 3e 30 67 8a 3e
       0.045127403 0.0173147 0.2593525 0.2703185
000300 f2 20 ac 3e 3f 93 42 bd f8 26 77 3e e9 65 26 be
       0.33618885 -0.047503706 0.24135959 -0.16249813
000310 62 22 83 bc 6b e7 60 be 2b f3 32 be ad bf e6 bd
       -0.016007606 -0.21963279 -0.17475574 -0.11267028
000320 2d c2 bc bd 19 72 18 be 09 1a 92 3e e2 2a 00 3f
       -0.092167236 -0.14887275 0.28535488 0.50065434
000330 60 18 1a 3e 67 15 bf be 28 cc 0c bd 85 cb ad be
       0.15048361 -0.37321016 -0.034374386 -0.33944336
000340 13 8c 6b bd 53 8a 1c be a3 26 85 3e 64 ad da be
       -0.057506632 -0.15287142 0.2600604 -0.42710412
000350 8f 99 26 be 6d 14 84 be f8 b1 a2 be 39 74 85 be
       -0.16269515 -0.25796834 -0.31776404 -0.26065233
000360 0d d1 d9 bd 22 6f d3 3e 42 ea ba 3d ec 3e 25 bd
       -0.106355764 0.41295725 0.091267124 -0.04034321
000370 4f ef d2 bd 8c 3a 1f 3d 92 a5 8c be cb e1 fe 3d
       -0.10299551 0.038874194 -0.2747007 0.1244541
000380 1a af 14 be ba 41 4a 3f 30 ac 44 3b 18 52 bf 3e
       -0.14519921 0.7900654 0.0030009858 0.3736732
000390 70 f2 c6 bc 07 ac 02 3f 8d 1c 39 3d 12 cd c9 3d
       -0.024285525 0.5104374 0.045193244 0.09853567
0003a0 41 90 99 3a f6 68 ec bd d6 9d c3 bc 13 f6 cd 3d
       0.0011715965 -0.11543457 -0.023878973 0.100567006
0003b0 56 85 89 3e 05 fa f9 3d f2 31 4d bd 95 e1 5d 3e
       0.2685954 0.122058906 -0.05009646 0.21668084
0003c0 fa d5 0a be 11 50 3c be dc cb 42 be 42 b7 89 3d
       -0.13558188 -0.18389918 -0.19023079 0.06724407
0003d0 50 4d 18 be df fc c5 bd 27 b5 35 be 02 25 d8 bd
       -0.14873242 -0.09667372 -0.17744885 -0.10553934
0003e0 b2 5a 6f bd a0 2c 9a bd e6 26 82 3e 01 a6 1f be
       -0.058436103 -0.07528043 0.25420302 -0.15590669
0003f0 82 47 11 be 21 3f 5d 3e 51 59 86 3b 0b a2 d0 be
       -0.14187434 0.21606113 0.004100003 -0.4074863
