results/priority-sort/priority-sort-task-1-batch-29000.model (torch_old, 876115 bytes, 49 tensors)

ntm.read0_bias f4 [1, 20]
0	0x3c0bd4d3	0.008534628
1	0x3c0a3326	0.008435046
2	0xbc07660d	-0.008264077
3	0x393e8c89	0.00018172165
4	0x3b991218	0.0046713464
5	0x3c186f83	0.00930393
6	0x3b190bdd	0.0023353018
7	0x3c35f5bd	0.011105952
8	0x3bc8c34d	0.0061267973
9	0xbc3ae341	-0.011406721
10	0xbaa94e7e	-0.0012917069
11	0xbaefb1f7	-0.0018287291
12	0xbcd5a487	-0.02607943
13	0x3b3ff7f7	0.0029292086
14	0x3c8bdc98	0.01707296
15	0xbc770feb	-0.015079479
16	0xbc1a3b2d	-0.009413523
17	0x3b45c244	0.0030175606
18	0x3c21bae9	0.009871223
19	0x3ab091dc	0.0013471204

ntm.read1_bias f4 [1, 20]
0	0x3bf37f26	0.0074309288
1	0xbb212216	-0.0024586967
2	0x3bc981eb	0.0061495206
3	0x3bd10506	0.0063787727
4	0x3b5e6907	0.0033937113
5	0x3ba88059	0.0051422534
6	0xbb4991af	-0.0030757
7	0xbaf59ccb	-0.0018738745
8	0xbad51a34	-0.001625842
9	0xbaa60a10	-0.0012667794
10	0x3c9c2b38	0.019063577
11	0x3c3600dd	0.011108604
12	0xbb94c1cc	-0.004539704
13	0xbc232c4a	-0.00995929
14	0x3920e3fe	0.00015343723
15	0xbbdbbd97	-0.0067059505
16	0x3b1187d4	0.0022206204
17	0x3c0e78e4	0.008695815
18	0xbc1b70b7	-0.0094873225
19	0xbb7851ea	-0.0037890621

ntm.read2_bias f4 [1, 20]
0	0x3c09ed5d	0.008418408
1	0xbcb163fb	-0.02165412
2	0x3cd69734	0.026195146
3	0xbc72e7b3	-0.014825749
4	0x3be93683	0.007117094
5	0x3b68e38a	0.0035536014
6	0x3bb0e4b0	0.0053983554
7	0x3b343d87	0.0027502493
8	0xbc259714	-0.010106821
9	0xbc23635b	-0.009972419
10	0x3c243e20	0.010024577
11	0xba8813ff	-0.0010381936
12	0xbb640392	-0.0034792167
13	0x3b7b3d58	0.0038336124
14	0xbadc026a	-0.0016785387
15	0x3b6740ab	0.0035286348
16	0x3c856155	0.016281763
17	0xbc813c46	-0.01577581
18	0x3c95b1ed	0.018273318
19	0xbc32a613	-0.010903853

ntm.read3_bias f4 [1, 20]
0	0xbc10fce8	-0.00884936
1	0x3b0abf3e	0.0021171118
2	0xbc2279a0	-0.009916693
3	0x3b9d8ee8	0.0048082955
4	0x39d403db	0.00040438664
5	0x3b64a9a6	0.0034891157
6	0x3cb959ed	0.022625888
7	0xbc4ea3d3	-0.012612301
8	0x3ad15c4b	0.001597294
9	0xba0c119a	-0.0005343199
10	0x3c3cf1a5	0.011532222
11	0x3bd36515	0.006451259
12	0xba57e970	-0.0008236384
13	0x3b827ef9	0.0039824215
14	0x3bc2468e	0.005928821
15	0xbc066061	-0.008201689
16	0xbc6b8295	-0.014374395
17	0xbb40a240	-0.0029393584
18	0xbc138b90	-0.009005442
19	0x3c904819	0.017612504

ntm.read4_bias f4 [1, 20]
0	0x3aa959b4	0.001292041
1	0x3c923ded	0.017851794
2	0xbaee6d46	-0.0018190525
3	0x3bf3011b	0.0074159033
4	0xbb81a800	-0.0039567947
5	0xbc10fe10	-0.008849636
6	0xbbd212e6	-0.0064109443
7	0x3c071c50	0.008246496
8	0xbb1d4cf6	-0.002400217
9	0x3c084d30	0.008319184
10	0xbc33277e	-0.010934709
11	0xbc705574	-0.014668811
12	0xbc448f4b	-0.011997054
13	0xbc1d5dd8	-0.009604894
14	0xb9c9d257	-0.00038494423
15	0x3ad8f3bd	0.0016552132
16	0x3bb88c4a	0.005631958
17	0xbb134f43	-0.0022477664
18	0xbc8af8b7	-0.0169643
19	0x3c29f7b6	0.010374

ntm.controller.lstm_h_bias f4 [2, 1, 100]
0	0x3d7ac4cf	0.061222848
1	0xbd466e02	-0.048444755
2	0xbc898010	-0.016784698
3	0xbdf86f8a	-0.121306494
4	0xbd4c0274	-0.049807027
5	0x3db41e6e	0.087948665
6	0xbd90347b	-0.0704126
7	0xbd75c931	-0.060006324
8	0x3c3bcdf8	0.011462681
9	0xb9f1b646	-0.00046102906
10	0xbceb8df5	-0.028754214
11	0xbd144464	-0.036198035
12	0x3d7ce9a8	0.06174627
13	0x3c948a67	0.018132402
14	0xbdc01627	-0.09379225
15	0x3d7a4182	0.06109763
16	0xbcfd56a7	-0.030925108
17	0xbccc6d0b	-0.02495434
18	0x3de6d2be	0.11270665
19	0x3d7352a1	0.059404973
20	0xbd8645f5	-0.06556312
21	0x3cb77eec	0.022399388
22	0x3ce2bf01	0.027678968
23	0xbdd06c32	-0.101768866
24	0xbd90319b	-0.070407115
25	0x3dce299b	0.10066529
26	0xbd3837a2	-0.04497493
27	0xbd087482	-0.033314236
28	0xbc1e1f55	-0.009651025
29	0xbccf7200	-0.025322914
30	0xbd64eee9	-0.055891905
31	0xbda154e1	-0.078775175
32	0xbd1439ab	-0.03618781
33	0xbd626e52	-0.05528099
34	0xbe26fcb7	-0.1630734
35	0x3c6d8234	0.014496375
36	0xbd45acdc	-0.048260555
37	0xbd282200	-0.04104805
38	0x3e24673c	0.16055006
39	0x3ab76447	0.0013991677
40	0x3d2ef980	0.04271841
41	0xbd11440b	-0.03546528
42	0xbce0df71	-0.027450295
43	0x3c52cb26	0.012865817
44	0xbd197379	-0.03746364
45	0xbc55afc3	-0.013042393
46	0x3b524807	0.0032086389
47	0x3d8feeac	0.07027945
48	0x3d3a6092	0.045502253
49	0xbc4ec53d	-0.012620267
50	0x3d10ce28	0.035352856
51	0x3dc764e9	0.09736044
52	0xbd134c6b	-0.03596155
53	0x3e03857f	0.12843893
54	0xbc4fa754	-0.0126741715
55	0x3b059c03	0.002038718
56	0x3bb2d19d	0.0054571168
57	0xbdc290ee	-0.095002994
58	0x3d538981	0.051644806
59	0x3de7a0b5	0.11309949
60	0x3de6f90c	0.11277971
61	0xbcc35d94	-0.023848332
62	0x3d4a68ac	0.04941623
63	0x3c8f3b84	0.017484434
64	0x3d9557b3	0.07292118
65	0xbd5e2d2b	-0.054242294
66	0xbc92ee41	-0.017935874
67	0xbdb2fedc	-0.08740017
68	0xbddd0e71	-0.1079377
69	0xbe0e51aa	-0.1389834
70	0xbd16895a	-0.036752082
71	0xbdb3882e	-0.087662086
72	0x3bb7cfe8	0.005609501
73	0xbd0dc2f7	-0.03460976
74	0x3c4354e9	0.0119221
75	0xbcf82e59	-0.030295538
76	0xbd9d3869	-0.07676775
77	0xbdc12f79	-0.09432883
78	0x3c5ef727	0.01360873
79	0xbd13096a	-0.03589765
80	0x3cdc452c	0.026888452
81	0xbd92bae6	-0.07164554
82	0xbe2b9a1d	-0.16758008
83	0xbc063bd6	-0.008192977
84	0xbd33ac89	-0.043865714
85	0x3ccb819e	0.02484208
86	0xbd248e19	-0.040174577
87	0xbd36f6e2	-0.04466904
88	0x3cc594f6	0.024118882
89	0x3dd668f8	0.1046924
90	0xbb026a6e	-0.0019899863
91	0xbcd9cc02	-0.026586536
92	0x3d3033b9	0.043018077
93	0xbcf6352b	-0.03005465
94	0x3dcf23fb	0.101142846
95	0xbd89602d	-0.06707797
96	0x3db860b1	0.090028174
97	0x3dcb4567	0.09925347
98	0x3ce9eb77	0.028554661
99	0xbd1d270b	-0.038367312
100	0x3e8bb50b	0.27286562
101	0x3d8ca87f	0.068680756
102	0x3d9073df	0.07053351
103	0x3d976b3d	0.07393501
104	0xbe09aed6	-0.13445601
105	0x3d8d03e0	0.06885505
106	0x3dde54c9	0.10856015
107	0xbdf9433b	-0.12171026
108	0x3da609f4	0.08107367
109	0xbdba0fd0	-0.09085047
110	0xbc9bedd4	-0.019034304
111	0xbd942ed8	-0.07235497
112	0x3e067c97	0.13133465
113	0x3daceca4	0.08443573
114	0xbd44cf1c	-0.048049077
115	0xbd9e4228	-0.07727462
116	0x3e2fb317	0.17158161
117	0xba84c7de	-0.0010130366
118	0xbdf45404	-0.11930087
119	0x3bbc44a8	0.005745489
120	0xbdb73ec8	-0.089475214
121	0x3d45261c	0.048132047
122	0x3d1af299	0.037829015
123	0x3d893869	0.067002125
124	0xbd005183	-0.031327736
125	0xbdb3b733	-0.08775177
126	0xbd5d071f	-0.05396187
127	0x3e13c92b	0.14432208
128	0xba62701f	-0.0008637923
129	0x3e124d19	0.14287223
130	0x3d8e8977	0.06959813
131	0x3cf458ec	0.029827558
132	0x3daa3d39	0.083124585
133	0xbbbf3e19	-0.00583626
134	0x3e270ab7	0.16312681
135	0xbde9e276	-0.11420147
136	0xbc874d52	-0.016516361
137	0x3d059e79	0.032621834
138	0x3dcb9dd6	0.09942214
139	0xbd6b7293	-0.057482313
140	0x3d8e5250	0.069492936
141	0xbdb5835d	-0.08862946
142	0xbdbc7057	-0.092011146
143	0xbd9dfcb1	-0.07714213
144	0xbd01b81b	-0.031669717
145	0x3bfadba9	0.00765558
146	0x3de973fd	0.11399076
147	0xbb13e45b	-0.002256653
148	0x3dfb1b4f	0.12261068
149	0xbcdc7bd6	-0.026914518
150	0x3bbfa3f6	0.005848403
151	0x3e096282	0.13416484
152	0x3d696390	0.056979716
153	0xbca6d8e0	-0.020367086
154	0xbd8795dc	-0.0662038
155	0x3c696ffc	0.014247891
156	0xbe0af89d	-0.13571401
157	0xbdae8c07	-0.08522802
158	0x3d138612	0.03601653
159	0xbda97231	-0.082737334
160	0x3d75c576	0.060002767
161	0x3dbfa4b7	0.09357589
162	0x3e058884	0.13040358
163	0x3dc61c96	0.09673421
164	0xbd1014b8	-0.03517601
165	0xbd60b788	-0.05486253
166	0x3c258bfc	0.010104176
167	0xbd03eedb	-0.032210212
168	0x3cd294fb	0.025705805
169	0x3d742169	0.059602175
170	0x3d500a91	0.050791327
171	0x3e708448	0.23487961
172	0xbe10bab3	-0.1413372
173	0x3d972f0e	0.07382022
174	0x3da9af22	0.08285357
175	0xbe28f633	-0.16500168
176	0x3d9bbf3b	0.07604834
177	0xbd2dcaa5	-0.042429585
178	0xbdd69ac1	-0.10478736
179	0xbe37ad8d	-0.17937298
180	0x3d1070c9	0.03526381
181	0xbd87d0c2	-0.06631614
182	0xba6d8194	-0.0009060141
183	0xbdfbf0c5	-0.123017825
184	0x3e2025e5	0.15639456
185	0xbde082de	-0.10962461
186	0xbd81e74b	-0.06342944
187	0xbe138c24	-0.14408928
188	0xbce26070	-0.027633876
189	0xbdf37a9a	-0.11888619
190	0x3d587432	0.052845187
191	0xbda80592	-0.082041875
192	0x3d367c89	0.04455236
193	0x3e3cec2e	0.1844947
194	0xbc66660e	-0.014062418
195	0xbe28f896	-0.16501078
196	0x3d88341a	0.066505626
197	0xbde70c55	-0.11281649
198	0x3e00ab21	0.1256528
199	0xbce0e4a8	-0.027452782

ntm.controller.lstm_c_bias f4 [2, 1, 100]
0	0x3d0268a2	0.031838067
1	0xbd237ff0	-0.039916933
2	0xbd1f3833	-0.038871955
3	0xbc88b709	-0.01668884
4	0x3c8d4d58	0.017248794
5	0xbcebd6a3	-0.02878887
6	0xbdfbf2f0	-0.12302196
7	0x3de23c02	0.11046602
8	0xbd970bf5	-0.073753275
9	0xbd572f64	-0.05253543
10	0x3d890e64	0.06692198
11	0xbdb44553	-0.08802285
12	0xbd045fc3	-0.032317888
13	0xbd07f65d	-0.033193935
14	0x3e178800	0.14797974
15	0xbcd26cdb	-0.025686672
16	0x3b1d6d38	0.0024021398
17	0xbdc51c47	-0.09624534
18	0x3db3b557	0.08774822
19	0xbd4f54a9	-0.050617848
20	0xbccb3b1a	-0.024808455
21	0xbd64359f	-0.0557152
22	0x3c2b9732	0.0104730595
23	0xbd10f8e4	-0.03539361
24	0xbbe2c52b	-0.006920477
25	0x3de7cff5	0.113189615
26	0x3cef60c7	0.029220952
27	0xbca50c45	-0.020147452
28	0xbd95e750	-0.0731951
29	0x3c9f1e76	0.019423705
30	0xbd94869c	-0.07252237
31	0xbda6367c	-0.08115861
32	0xbd8dea24	-0.069294244
33	0xbdbf00dc	-0.09326336
34	0xbd276c9f	-0.040875074
35	0xbd852818	-0.06501788
36	0xbc82c490	-0.015962869
37	0xbe0544a8	-0.13014472
38	0xbb1effc4	-0.0024261335
39	0xbd46c23d	-0.048525084
40	0x3caebf3f	0.021331428
41	0xbd751ff2	-0.05984492
42	0xbd975e38	-0.07391018
43	0x3ce2753a	0.027643789
44	0xbca11fe9	-0.019668536
45	0x3d3b5eab	0.04574458
46	0x3d16ce99	0.03681812
47	0x3cc81458	0.024423763
48	0xbcc78f87	-0.024360431
49	0xbbb8e74b	-0.0056428066
50	0x3c5fdbff	0.013663291
51	0xbd047b3b	-0.032344084
52	0x3cc6aebc	0.024253242
53	0xbd01f906	-0.031731628
54	0x3de4a324	0.11163929
55	0xbc448ccd	-0.01199646
56	0xbcad084f	-0.021122126
57	0x3c072681	0.008248926
58	0x3c3fb09c	0.011699822
59	0x3d66c9f2	0.056344934
60	0x3ccaa7d9	0.02473824
61	0xbd21fa9f	-0.03954565
62	0xbc142919	-0.009043002
63	0xbc68495c	-0.0141776465
64	0x3d3288f1	0.04358763
65	0xbd03d174	-0.032182172
66	0xbd1eef05	-0.038802166
67	0x3d698b84	0.057017818
68	0x3bdc1b2d	0.006717107
69	0xbcf6c6ac	-0.030124031
70	0x3d095e19	0.033537004
71	0xbddfa857	-0.1092078
72	0xbd70c734	-0.058783725
73	0x3d56916d	0.052384783
74	0x3ccc8601	0.024966242
75	0xbd523585	-0.05132057
76	0x3c4a0f10	0.012332693
77	0xbe10b8f3	-0.14133053
78	0xbd65c126	-0.056092404
79	0xbd1b02a9	-0.037844334
80	0xbcf8b164	-0.030358024
81	0xbd939375	-0.072058596
82	0x3b5a5ca9	0.003331939
83	0xbdad4379	-0.08460135
84	0x3dbc3ce1	0.09191299
85	0xbc32f9e9	-0.010923841
86	0x3b987c90	0.004653521
87	0x3da3b350	0.079931855
88	0xbda4f75b	-0.08054992
89	0xbc99b726	-0.01876409
90	0x3bc0c6bf	0.0058830674
91	0x3c767480	0.015042424
92	0x3c9baf19	0.019004392
93	0xbd391c8c	-0.04519324
94	0xbd73a67d	-0.059484947
95	0xbd13372c	-0.035941288
96	0x3d70fe5f	0.058836337
97	0x3bab6dd1	0.005231597
98	0xbccfa762	-0.025348369
99	0xbda4e149	-0.08050782
100	0x3d7a6639	0.061132643
101	0x3cacae44	0.02107919
102	0xbd5222d7	-0.051302757
103	0xbd63ab93	-0.055583548
104	0xbdef75fd	-0.11692426
105	0xbcba4995	-0.022740165
106	0x3db0416a	0.08606227
107	0x3c0f6349	0.008751699
108	0x3dd24232	0.10266532
109	0xbd1b4d90	-0.037915766
110	0xbdb54f59	-0.08853025
111	0xbd81cfd0	-0.06338465
112	0x3d4cc370	0.04999107
113	0xbd2ac2c9	-0.041689668
114	0xbbc18f7f	-0.0059069986
115	0x3e04fc50	0.12986875
116	0x3e1a8353	0.15089159
117	0x3e19b9fe	0.15012357
118	0xbd2df57b	-0.042470437
119	0xbdcb4d86	-0.09926896
120	0xbd1ef8f5	-0.038811643
121	0xbd928fb2	-0.07156314
122	0xbcc8140a	-0.024423618
123	0xbd4e6833	-0.05039234
124	0xbe1d3ace	-0.15354463
125	0xbd1c9fc3	-0.0382383
126	0xbd0b21f0	-0.033967912
127	0x3e70554e	0.23470041
128	0x3c7a1e1a	0.015265966
129	0xbd8640a9	-0.06555302
130	0x3d8fde09	0.07024772
131	0xbcfe38f8	-0.031033024
132	0x3d3692d3	0.044573616
133	0x3dcf6419	0.10126514
134	0x3d86927b	0.06570908
135	0xbe399508	-0.18123257
136	0x3cc2877a	0.02374624
137	0x3dc64f00	0.09683037
138	0x3d18077e	0.03711652
139	0xbc49e922	-0.01232365
140	0x3c45cdd9	0.012073004
141	0xbd2239ce	-0.039605908
142	0xbd935c05	-0.07195286
143	0xbdc14694	-0.0943729
144	0xbc790f12	-0.015201347
145	0xbde55321	-0.11197496
146	0x3dbf788f	0.093491666
147	0x3d791d41	0.060818914
148	0x3de16a9d	0.11006663
149	0x3ddd8d46	0.108179614
150	0xbd1c5b19	-0.038172815
151	0xbd341be9	-0.04397193
152	0x3d2370dd	0.039902557
153	0xbde36bc9	-0.11104543
154	0xbd75c383	-0.060000908
155	0x3c8fd315	0.017556706
156	0xbd3d421e	-0.046205632
157	0x3d640b78	0.055675
158	0x3d7796ff	0.060446735
159	0x3dc74f88	0.09731966
160	0xbc5106e3	-0.01275799
161	0x3d198bbc	0.037486777
162	0xbc9b7be1	-0.018979969
163	0x3d202797	0.039100256
164	0xbe088042	-0.13330176
165	0xbd1cebee	-0.038310938
166	0xbd04158b	-0.032247107
167	0xbcb382d2	-0.021912966
168	0xbd0d8a02	-0.034555443
169	0x3dd8c7bc	0.10584971
170	0x3d9812a6	0.07425432
171	0x3cc58589	0.024111526
172	0xbdc79bca	-0.09746511
173	0x3c9f5925	0.019451687
174	0xba0b1f93	-0.0005307134
175	0x3c5d2104	0.013496641
176	0x3dc52d4d	0.09627781
177	0xbe0b1554	-0.13582355
178	0xbd39d0f9	-0.045365307
179	0xbd76d829	-0.06026474
180	0x3d4a7fda	0.049438335
181	0x3c2c05d3	0.0104994355
182	0x3d3ac07f	0.045593735
183	0xbe0d7dfe	-0.13817593
184	0xbbbc97e7	-0.005755413
185	0xbd5e15a5	-0.05421986
186	0xbd17998d	-0.03701167
187	0xbe16ba50	-0.1471951
188	0x3e1d9389	0.15388311
189	0x3be9c4de	0.007134064
190	0x3d817d73	0.06322756
191	0x3cfaa762	0.030597392
192	0xbde4637c	-0.11151788
193	0x3b80d164	0.0039312113
194	0x3da8d8df	0.0824449
195	0xbe1c9612	-0.15291622
196	0x3c97ac70	0.018514842
197	0xbc3d7b48	-0.011565037
198	0x3d62aa7d	0.05533837
199	0x3d2afe31	0.041746322

ntm.controller.lstm.weight_ih_l0 f4 [400, 110]
0	0xbe904126	-0.28174704
1	0x3df3d17b	0.119051896
2	0x3cca375f	0.024684606
3	0xbe701709	-0.23446287
4	0xbeb71020	-0.3575449
5	0xbe674c92	-0.22587803
6	0x3d99ceaf	0.07510125
7	0x3e154201	0.1457596
8	0xbe64eb85	-0.22355469
9	0xbdcf6eab	-0.1012853
10	0xbe3ec605	-0.18630226
11	0x3d47324a	0.048631944
12	0x3e8a86dc	0.27056015
13	0x3e05f6dc	0.1308245
14	0x3cec665d	0.028857404
15	0x3e720b07	0.23637019
16	0xbd87fe71	-0.06640328
17	0x3dd881e0	0.10571647
18	0x3e6888b0	0.22708392
19	0xbe5ce910	-0.21573281
20	0x3d9f6cda	0.07784434
21	0xbe91e7e5	-0.28497234
22	0x3d6e24e7	0.05814066
23	0xbeb16c35	-0.34652868
24	0x3d91afc8	0.07113606
25	0xbdf87fd3	-0.121337555
26	0xbe0df5e3	-0.1386333
27	0xbea78f53	-0.32726535
28	0xbe7cef2e	-0.24700615
29	0xbd4a828d	-0.04944091
30	0x3d192bb7	0.037395205
31	0xbe900fbb	-0.28137
32	0x3d887ba4	0.066642076
33	0x3c92e798	0.017932698
34	0x3e3ac478	0.1823901
35	0xbd35d5b9	-0.044393275
36	0xbe9c8826	-0.30572623
37	0x3eb0d21d	0.34535304
38	0xbe5f352d	-0.21797629
39	0x3e467712	0.19381359
40	0x3e0273eb	0.12739532
41	0xbe9678b8	-0.29388976
42	0x3dedb2b8	0.116063535
43	0x3d48c342	0.049014337
44	0x3ea70e26	0.32627982
45	0x3e348f5f	0.17632817
46	0x3e762bb2	0.24040106
47	0x3e493c00	0.19651794
48	0x3e6fec56	0.23429999
49	0xbe5e61b3	-0.21716957
50	0xbdc8f75d	-0.09812806
51	0x3e058c6c	0.13041848
52	0x3ea41137	0.32044384
53	0xbe2d140d	-0.1690218
54	0xbea1bdd7	-0.3159015
55	0xbdc59aa6	-0.096486375
56	0xbd0c7328	-0.03428951
57	0xbcab9c81	-0.02094865
58	0x3e745f08	0.23864377
59	0xbe59f99d	-0.21286626
60	0xbeb6c473	-0.35696754
61	0x3a8b337e	0.0010620204
62	0xbb88eb56	-0.004178445
63	0xbe5b4af5	-0.21415313
64	0xbe522038	-0.20520103
65	0xbe7f089d	-0.2490563
66	0x3dd08038	0.10180706
67	0xbd60817d	-0.05481099
68	0x3e2826f8	0.16421115
69	0xbd4ce681	-0.050024513
70	0xbe7cd594	-0.24690849
71	0x3ddeae0e	0.10873042
72	0x3c81d847	0.0158502
73	0x3d4d250f	0.05008417
74	0xbe80ead5	-0.25179163
75	0x3ea9bd47	0.3315222
76	0x3d411420	0.047138333
77	0x3d662760	0.056189895
78	0x3e32ab95	0.17448266
79	0x3e87754f	0.26456687
80	0xbeb15fda	-0.3464344
81	0x3dd1a66f	0.10236823
82	0xbddf205f	-0.10894846
83	0xbe1afdf4	-0.15135938
84	0xbd915b85	-0.07097534
85	0x3e72369b	0.23653643
86	0x3d1450ee	0.036209993
87	0xbe379dc2	-0.17931274
88	0xbe73e513	-0.23817854
89	0xbd659495	-0.056049902
90	0xbd277eb3	-0.040892314
91	0x3e970279	0.29494074
92	0x3e785f69	0.24255146
93	0x3ce19013	0.02753452
94	0x3e1b8747	0.15188323
95	0xbe4e3694	-0.20138007
96	0xbd9371af	-0.07199418
97	0x3e85c768	0.26128697
98	0x3ea98e8e	0.33116573
99	0x3dadec82	0.08492376
100	0x3d128e71	0.035780374
101	0xbdcf0396	-0.10108106
102	0xbe0ddf3e	-0.13854691
103	0xbe585446	-0.21125898
104	0xbc218a75	-0.009859671
105	0xbcf894f8	-0.030344471
106	0x3dd82a9f	0.10555004
107	0x3e9b2baf	0.30306765
108	0x3ea3312c	0.31873453
109	0x3d799604	0.06093408
110	0xbe6307bd	-0.2217092
111	0x3ab73615	0.001397791
112	0xbe45a799	-0.19302215
113	0xbe9f034c	-0.31057203
114	0x3e2c6d6c	0.16838616
115	0x3cdf8e4f	0.027289538
116	0x3dee5d64	0.116389066
117	0x3e299073	0.16559009
118	0xbea7659f	-0.32694718
119	0xbc5ed535	-0.013600637
120	0x3d286993	0.04111631
121	0x3d36677c	0.044532284
122	0xbe153b9b	-0.14573519
123	0xbea9b353	-0.33144626
124	0x3e9abe57	0.30223343
125	0x3e454593	0.19264822
126	0x3e4252f3	0.18976955
127	0xbe67ddd4	-0.22643214
128	0x3d26af8b	0.040694755
129	0xbea63be3	-0.32467565
130	0x3e176a7f	0.14786719
131	0x3e0cdfbc	0.13757223
132	0xbe9ddd73	-0.30833015
133	0x3c8602e6	0.016358804
134	0xbea1a48c	-0.31570852
135	0x3d1d39b4	0.038385108
136	0x3e84a81f	0.25909516
137	0xbe985e39	-0.29759386
138	0xbd15f36b	-0.036609095
139	0x3e9d296f	0.30695674
140	0x3da3930b	0.079870306
141	0x3dfe0c76	0.124047205
142	0xbe80cc23	-0.25155744
143	0xbea97d77	-0.33103535
144	0xbe698ba9	-0.22807182
145	0xbcf06158	-0.029343292
146	0xbe54cd2e	-0.20781395
147	0x3e966ebe	0.29381365
148	0xbe2f4e93	-0.17119817
149	0xbd3bb4a3	-0.045826565
150	0xbeafbc5b	-0.3432339
151	0xbe8f553a	-0.2799471
152	0x3e291b37	0.16514288
153	0xbea9490e	-0.3306355
154	0x3da061be	0.07831143
155	0x3e60c33a	0.21949473
156	0xbcd1836d	-0.025575364
157	0x3e6431e1	0.22284652
158	0xbe0d55df	-0.13802288
159	0x3df1c17d	0.11804483
160	0xbe3f489a	-0.18680039
161	0xbd9c403a	-0.07629438
162	0xbb6204a5	-0.0034487632
163	0x3dc7c667	0.09754639
164	0x3e51c49f	0.20485161
165	0x3d8d97da	0.06913729
166	0x3dcce3f5	0.10004417
167	0xbe52f17b	-0.2059993
168	0xbdc4d4c9	-0.09610898
169	0x3e0aa727	0.13540326
170	0xbe94c246	-0.2905447
171	0x3ea79790	0.3273282
172	0x3e8a4c02	0.27011114
173	0x3de69820	0.11259484
174	0xbe0915c7	-0.13387214
175	0xbeaa3467	-0.33243105
176	0x3e8b1e0d	0.27171364
177	0xbe73a0bc	-0.23791784
178	0xbe2e6a5b	-0.17032759
179	0xbe07148d	-0.13191433
180	0x3e5fd22e	0.21857521
181	0x3e61f746	0.22066984
182	0xbe808ebd	-0.251089
183	0xbea95aad	-0.33076993
184	0xbd049c3f	-0.03237557
185	0xbe5fc14d	-0.21851082
186	0x3de82a36	0.11336176
187	0xbeabbaf7	-0.3354108
188	0xbd3a25c6	-0.04544618
189	0xbd711367	-0.058856394
190	0xbe845b9b	-0.2585114
191	0x3ea6eabf	0.32600972
192	0xbec53cd8	-0.38522983
193	0xbeaf9491	-0.34293035
194	0xbe597952	-0.21237686
195	0x3db6c0c5	0.089234866
196	0xbe0c78e7	-0.13717996
197	0x3e97cc40	0.29648018
198	0xbdb9b018	-0.0906679
199	0x3e025242	0.12726691
200	0xbe131413	-0.14363126
201	0x3b9d6b9b	0.0048040873
202	0x3d11df5b	0.0356134
203	0x3df51017	0.119659595
204	0x3e8de540	0.27713966
205	0x3dfabd54	0.12243143
206	0x3c5469e2	0.012964698
207	0xbe1f7afb	-0.15574257
208	0xbe4575de	-0.19283244
209	0x3e730f3a	0.23736277
210	0x3e3072a1	0.17231227
211	0x3e0a12b3	0.13483696
212	0xbe3bec77	-0.18351923
213	0x3e4e1bc8	0.20127785
214	0x3cd01c71	0.025404187
215	0xbe11dc87	-0.14244281
216	0xbd7f747d	-0.06236695
217	0x3e0f22d5	0.13978131
218	0x3e4f1187	0.2022153
219	0x3d91673f	0.07099771
220	0x3e34f674	0.1767214
221	0xbdc462da	-0.09589167
222	0x3e0b115f	0.13580845
223	0x3d498a09	0.049203906
224	0x3d90e12d	0.07074199
225	0x3db7ba14	0.089710385
226	0xbd664f29	-0.056227837
227	0xbe1344ff	-0.14381789
228	0x3e4c1215	0.19928773
229	0x3e8cee8f	0.27525756
230	0x3e7e7ece	0.2485306
231	0x3e4aa055	0.19787724
232	0xbe82d1e2	-0.25550753
233	0xbe579792	-0.21053913
234	0x3e839175	0.25696912
235	0xbe63ba92	-0.2223914
236	0xbe8cc70b	-0.27495608
237	0x3e584590	0.21120286
238	0xbdd9478c	-0.106093496
239	0x3d1bce0d	0.038038302
240	0x3db4933f	0.088171475
241	0xbdf717cd	-0.120650865
242	0x3dcd6a43	0.100300334
243	0xbe424eb4	-0.18975335
244	0xbe95acd1	-0.2923341
245	0xbdd4724e	-0.103733644
246	0xbe5ba1e0	-0.21448469
247	0xbdc6f387	-0.09714418
248	0x3d1f1598	0.038838953
249	0xbcb92bd3	-0.022603905
250	0xbea54f99	-0.3228729
251	0xbd385e2c	-0.045011684
252	0xbe129975	-0.14316352
253	0xbe8ea129	-0.2785733
254	0xbe24e565	-0.16103132
255	0xbd7a4ea5	-0.061110158

ntm.controller.lstm.weight_hh_l0 f4 [400, 100]
0	0xbe8fb9a8	-0.28071332
1	0x3d52ec2a	0.051494755
2	0xbe624fe6	-0.22100791
3	0x3e9e4435	0.30911413
4	0x3e70646f	0.23475812
5	0x3e400fe4	0.18756062
6	0xbe7a4d29	-0.24443497
7	0xbd954001	-0.072875984
8	0xbe602702	-0.2188988
9	0x3e639d2a	0.22227922
10	0xbe86e0ae	-0.26343292
11	0xbe1bf7d3	-0.15231256
12	0x3e8f6d9c	0.28013313
13	0xbe4cfb76	-0.200178
14	0x3e911e26	0.28343314
15	0xbc8a4e0e	-0.016882923
16	0xbd746346	-0.059664987
17	0xbdd753f5	-0.105140604
18	0xbe958342	-0.29201704
19	0xbe37c6b0	-0.17946887
20	0xbddf2154	-0.10895029
21	0xbe3a3edb	-0.1818804
22	0xbe462c1f	-0.19352768
23	0xbd9767fd	-0.07392881
24	0x3eb77a93	0.35835704
25	0x3df7cc2f	0.12099492
26	0x3e85d30f	0.26137587
27	0x3be98e2f	0.0071275453
28	0x3e9f75c8	0.31144547
29	0xbdda7ce6	-0.10668354
30	0xbda1acfa	-0.07894321
31	0x3e90010d	0.28125802
32	0x3dc0d2c4	0.094152
33	0xbdb9422d	-0.09045825
34	0x3e24be76	0.1608828
35	0x3e49836e	0.19679043
36	0x3e18dc55	0.149278
37	0xbea8039b	-0.3281525
38	0x3db514bc	0.088418454
39	0xbea74bf1	-0.32675126
40	0x3ea8e8a9	0.32990006
41	0x3e93f705	0.28899398
42	0xbe608be2	-0.21928361
43	0x3ea23179	0.3167837
44	0x3d6c49f1	0.057687704
45	0x3eb5356a	0.35392314
46	0xbe8dc919	-0.27692488
47	0xbe95afe5	-0.2923576
48	0x3dc62aa2	0.096761
49	0x3ea14ddb	0.31504712
50	0x3dd780f6	0.10522644
51	0x3e2893e0	0.1646266
52	0xbb73ef77	-0.003722159
53	0xbd315068	-0.043289572
54	0xbe153344	-0.14570338
55	0xbe4bdc47	-0.19908248
56	0x3e136d09	0.14397062
57	0xbd3c5bb1	-0.04598588
58	0xbdeda3f5	-0.11603538
59	0x3e1d0ba6	0.15336475
60	0xbdb3591a	-0.08757229
61	0xbe417c3b	-0.18895046
62	0xbe7fa39e	-0.24964759
63	0x3e9c5e19	0.3054054
64	0x3df23ae9	0.118276425
65	0xbdf15af4	-0.11784926
66	0xbe4bfd0f	-0.19920753
67	0x3d8671e6	0.06564693
68	0x3e9dd737	0.30828258
69	0xbed3bfb0	-0.41357183
70	0x3d927e87	0.071530394
71	0x3d624154	0.055238083
72	0x3e5d4b82	0.21610835
73	0xbe11a832	-0.14224318
74	0x3e6a6e4e	0.2289364
75	0x3c893c72	0.016752455
76	0x3dc9d279	0.098545976
77	0x3eabb35d	0.3353528
78	0xbe32a8b2	-0.17447165
79	0x3e65b3c0	0.2243185
80	0xbe27fd52	-0.16405228
81	0xbec09279	-0.3761175
82	0x3ebfa5de	0.37431234
83	0x3e802e08	0.2503512
84	0x3e8edec4	0.27904332
85	0xbe7640c4	-0.24048144
86	0xbe9e8146	-0.30958003
87	0xbd3456b5	-0.044028003
88	0x3cbc25c4	0.022967227
89	0xbe284a5a	-0.16434613
90	0x3e316400	0.17323303
91	0x3e540369	0.20704426
92	0xbea703c4	-0.3262006
93	0x3e0de899	0.1385826
94	0x3e16c96e	0.14725277
95	0x3dd28947	0.1028009
96	0x3ce11d9b	0.027479937
97	0x3da34684	0.07972434
98	0x3dc49589	0.09598834
99	0xbea302d1	-0.31838086
100	0x3e9ee60b	0.31034884
101	0xbe34d6f3	-0.17660122
102	0xbe4a6194	-0.19763786
103	0xbe15d72a	-0.1463286
104	0xbe00e586	-0.12587556
105	0x3e2dff82	0.16992
106	0xbd23616c	-0.03988783
107	0x3c8da579	0.017290818
108	0x3df27725	0.11839131
109	0xbe257b57	-0.16160332
110	0x3dd3fe18	0.10351199
111	0x3e1bc088	0.15210164
112	0xbeab4687	-0.33452246
113	0x3e30cf79	0.17266645
114	0xbe561b95	-0.20908959
115	0x3e4a2c13	0.19743375
116	0xbe3a324a	-0.18183246
117	0xbe3d62fe	-0.18494794
118	0xbda6de3e	-0.08147858
119	0xbe9e82d6	-0.30959195
120	0x3b9277c6	0.0044698445
121	0xbdcaeee2	-0.099088445
122	0x3d95ac25	0.073082246
123	0x3d3c9535	0.046040732
124	0x3e8d45ab	0.27592215
125	0xbeb80242	-0.35939223
126	0xbeb287b8	-0.3486917
127	0xbe613673	-0.21993427
128	0xbdb90c00	-0.09035492
129	0x3e67c446	0.22633466
130	0x3e9d6015	0.30737367
131	0x3e2cf58e	0.16890547
132	0x3ed65b92	0.41866738
133	0xbebed440	-0.3727131
134	0x3eac738c	0.33681905
135	0x3e3a8821	0.18215992
136	0x3c101c57	0.008795819
137	0x3b59bec3	0.0033225275
138	0xbe724fd6	-0.23663267
139	0xbd65f62e	-0.05614298
140	0x3e1496e3	0.14510684
141	0xbe729941	-0.23691274
142	0x3ea9e1d6	0.33180112
143	0x3e71df94	0.23620445
144	0xbe1a3c4b	-0.15062062
145	0x3dd5b9fb	0.104358636
146	0xbe166870	-0.14688277
147	0xbde2452f	-0.11048352
148	0x3d827292	0.06369509
149	0xbe31d409	-0.17366041
150	0x3daac07b	0.08337494
151	0xbcbf46f3	-0.02334926
152	0x3e116a1b	0.14200632
153	0x3d73e78f	0.059547003
154	0xbe07c477	-0.13258539
155	0xbe8029be	-0.25031847
156	0x3e54ff74	0.20800573
157	0x3e3c3702	0.18380359
158	0xbe4b96db	-0.19881766
159	0x3e31398f	0.17307113
160	0x3e2bab9e	0.16764686
161	0x3dd495e1	0.1038015
162	0xbe50643d	-0.20350738
163	0xbe649788	-0.2232343
164	0x3ea5b0b1	0.32361367
165	0x3e31fb24	0.17380959
166	0xbe33ceda	-0.17559376
167	0x3cd9ced6	0.026587885
168	0x3ee3b87a	0.44476682
169	0xbe1adc4a	-0.15123096
170	0xbe975546	-0.29557246
171	0x3e847644	0.2587148
172	0xbe54d653	-0.20784883
173	0xbe16750b	-0.14693086
174	0xbeb67f30	-0.3564391
175	0xbe8128ef	-0.25226542
176	0x3d1aa37d	0.03775357
177	0x3e40f67e	0.1884403
178	0x3da38607	0.07984548
179	0xbd808a4a	-0.062763765
180	0xbd487c40	-0.04894662
181	0x3e84b783	0.25921258
182	0x3d9ca8e3	0.076494
183	0x3e44ed82	0.19231227
184	0x3d1b6e44	0.037946954
185	0x3e9b7ebd	0.3037013
186	0x3d876dc5	0.06612734
187	0xbe30e27e	-0.172739
188	0x3dd5ac07	0.10433202
189	0x3e77beee	0.24193928
190	0xbddd3a65	-0.108021535
191	0x3e6baa2a	0.23014131
192	0x3cad780e	0.02117541
193	0x3d748e89	0.059706245
194	0xbc3b99ed	-0.011450273
195	0x3e4b04d9	0.19826068
196	0x3cb56961	0.022144975
197	0x3ead629e	0.338643
198	0x3e582b1c	0.21110195
199	0x3eaad8b9	0.3336847
200	0xbdddcf48	-0.108305514
201	0xbbdb3529	-0.006689687
202	0x3e9a82e4	0.30177987
203	0xbe8ae12f	-0.27124926
204	0x3d8f8971	0.07008637
205	0xbdaaab7b	-0.083334886
206	0x3e3a22af	0.18177293
207	0x3e7c1bb1	0.24619938
208	0x3cc95ea6	0.024581265
209	0x3e23d570	0.15999389
210	0xbbe7f9a3	-0.0070793196
211	0xbe864755	-0.26226297
212	0xbe3a0711	-0.18166758
213	0xbe611bc3	-0.21983247
214	0xbe0553ff	-0.13020323
215	0x3e96fe5d	0.2949094
216	0x3ddbbf38	0.107298315
217	0x3e8d726b	0.27626356
218	0x3e85dc95	0.26144853
219	0xbea14c03	-0.31503305
220	0xbe42d420	-0.19026232
221	0x3e9e36e6	0.3090126
222	0xbdf7953f	-0.12089013
223	0xbeb6077a	-0.3555258
224	0xbeb33cfd	-0.35007468
225	0xbe6bdf30	-0.23034358
226	0x3e49b35b	0.19697325
227	0xbe3de1c1	-0.1854315
228	0x3e90957c	0.28239048
229	0x3d36f480	0.044666767
230	0xbe96dd03	-0.29465494
231	0xbe7fc910	-0.24979043
232	0x3e891561	0.26774123
233	0xbdd239f1	-0.10264958
234	0xbd02cdf5	-0.031934697
235	0xbe332399	-0.17494048
236	0xbe529f3d	-0.20568557
237	0x3eb09fde	0.3449697
238	0x3e96dbd8	0.29464602
239	0x3e89db1f	0.2692499
240	0x3e75bb04	0.23997122
241	0x3e8083f1	0.25100663
242	0x3d91adb5	0.0711321
243	0x3cb4abb3	0.022054529
244	0xbe324063	-0.17407374
245	0x3e7c4b19	0.24638022
246	0x3ebfac83	0.37436303
247	0x3d0ab2c7	0.0338619
248	0x3e07645f	0.13221882
249	0xbe539ee0	-0.20666075
250	0xbd8515fb	-0.06498333
251	0xbdbe1a92	-0.09282412
252	0xbe5d41fd	-0.21607204
253	0x3e3cedcb	0.18450086
254	0xbd8eabcf	-0.06966364
255	0x3d591980	0.053002834

ntm.controller.lstm.bias_ih_l0 f4 [400]
0	0x3c94be26	0.018157076
1	0xbd03dd36	-0.032193385
2	0xbc434fa5	-0.011920844
3	0xbab46d78	-0.0013765534
4	0xbc875673	-0.016520714
5	0xbd03beac	-0.03216426
6	0xbc7fa70a	-0.01560379
7	0xbd6d0300	-0.05786419
8	0xbcc2560c	-0.023722671
9	0xbcda8de9	-0.026678996
10	0xbd346196	-0.044038378
11	0xbdd0c284	-0.10193351
12	0x3c937912	0.018002067
13	0xbd09f5c6	-0.033681653
14	0xbdbf2e74	-0.09335032
15	0x3d35788a	0.044304408
16	0x3d25ebdc	0.040508136
17	0xbd930cc9	-0.07180173
18	0xbd97f970	-0.07420623
19	0xbdc612b5	-0.09671537
20	0xbd43a02b	-0.04776017
21	0xbd2f0f4b	-0.042739194
22	0xbd4e27bc	-0.050330862
23	0x3b189eec	0.0023288084
24	0x3c48f5c5	0.012265627
25	0xbd837edf	-0.06420683
26	0xbc8c09bc	-0.017094485
27	0xbcf52062	-0.029922668
28	0x3c7a8ec8	0.015292831
29	0xbd7ff7e4	-0.062492266
30	0xb9b8877c	-0.0003519616
31	0xbc296618	-0.010339282
32	0xbc728c98	-0.014804028
33	0xbc5cbb5b	-0.013472403
34	0xbcb8a168	-0.022537902
35	0xbc5811c8	-0.013187833
36	0xbda4feac	-0.08056387
37	0xbd38be20	-0.045103192
38	0xbd352ba7	-0.044231083
39	0xbcbc10a3	-0.022957152
40	0x3c80af84	0.015708692
41	0xbc99cd6d	-0.018774712
42	0xbd326bcf	-0.043559846
43	0xbd8673d9	-0.06565065
44	0x3be258d7	0.006907563
45	0xbbbdc572	-0.0057913596
46	0xbd1ccd85	-0.038281936
47	0xbc2a5a69	-0.010397532
48	0xbd2b1c9d	-0.041775335
49	0x3add6d42	0.0016893523
50	0xbd7e3038	-0.062057704
51	0xbd379e2a	-0.04482857
52	0xbcd21697	-0.025645537
53	0xbd4d5ca9	-0.050137196
54	0xbd366c23	-0.04453672
55	0xbd295ac4	-0.041346326
56	0xbc2118a0	-0.009832531
57	0xbce3413f	-0.027741073
58	0xbd4847a4	-0.048896447
59	0x3c53ce47	0.012927598
60	0xbc9c9bf6	-0.019117337
61	0x3c27b749	0.01023657
62	0xbbcac9d9	-0.006188613
63	0xbd278f87	-0.040908363
64	0xbc1212de	-0.008915631
65	0xbcc85ab7	-0.024457319
66	0xbd334f87	-0.043777015
67	0xbd041ae7	-0.03225222
68	0xbd3056dc	-0.043051586
69	0xbd92c6b5	-0.071668066
70	0xbd1431e8	-0.036180407
71	0xbc9a402a	-0.018829424
72	0xbd4c3bab	-0.04986159
73	0xbd47f8bd	-0.0488212
74	0xbda16ae7	-0.07881718
75	0xbce9d683	-0.02854467
76	0xbdd2a54d	-0.10285435
77	0xbd1bd9f8	-0.038049668
78	0xbc72248d	-0.014779222
79	0xbd088d04	-0.033337608
80	0xbd2a61ec	-0.04159729
81	0xbd650cfc	-0.055920586
82	0xbda2c496	-0.07947652
83	0xbcabd2ab	-0.020974478
84	0xbc6b854c	-0.014375042
85	0xbd782c5b	-0.060589176
86	0xbb83efab	-0.0040263734
87	0x3bff1227	0.0077841463
88	0xbd04e93b	-0.03244899
89	0x3d264607	0.040594127
90	0x3cf09ae8	0.02937074
91	0xbcea4eda	-0.028602052
92	0xbb5efe6c	-0.003402616
93	0x3aa5a263	0.0012636896
94	0xbc2cdc0c	-0.01055051
95	0xbd825ce2	-0.06365372
96	0x3a9e3fad	0.001207342
97	0xbcc17a12	-0.023617778
98	0xbd89e054	-0.0673224
99	0x3d384b2e	0.044993572
100	0x3cd23764	0.025661178
101	0x3d404424	0.046939984
102	0x3c8ebebf	0.01742494
103	0xba9b1371	-0.0011831356
104	0xbc92b526	-0.017908644
105	0x3cc914cd	0.024546051
106	0x3c1f597c	0.009725925
107	0xbc180b9e	-0.0092801135
108	0x3d3dec0f	0.0463677
109	0xbce42ba5	-0.027852843
110	0xbc9569a2	-0.018238846
111	0xbc00b8cc	-0.007856559
112	0xbcec8500	-0.028872013
113	0xbcbc6bd0	-0.023000628
114	0xbce83cff	-0.028349398
115	0x3d8abbfe	0.06774138
116	0x3c3b833c	0.011444863
117	0xbc6a2025	-0.01428989
118	0x3cecfaa2	0.028928105
119	0xbc8b426e	-0.01699945
120	0xbcf9c3a5	-0.030488798
121	0xbd2e4920	-0.042550206
122	0x3da7c748	0.08192307
123	0x3b8480fb	0.004043696
124	0x3dbc6bba	0.09200235
125	0x3c5508fd	0.013002631
126	0x3cbc30d0	0.022972494
127	0xbc291089	-0.010318884
128	0x3b6fcd7e	0.0036590989
129	0xbd391a66	-0.04519119
130	0x3d5ad499	0.053425405
131	0x3c339b5e	0.010962335
132	0xbc91293b	-0.017719856
133	0xbbc4d1c4	-0.0060064513
134	0xbc10cf33	-0.008838463
135	0xbd1ee5e0	-0.038793445
136	0xbd8198c9	-0.063279696
137	0xbd0d8823	-0.03455366
138	0x3d177f45	0.036986608
139	0xbcf23e1b	-0.02957063
140	0x3cf32a3c	0.029683225
141	0x3d8a7254	0.067600876
142	0xbc26b022	-0.010173829
143	0xbd7beff2	-0.061508127
144	0x3d84b24b	0.06479319
145	0x3cb8d22a	0.022561152
146	0xbd09c286	-0.033632778
147	0x3c96b847	0.018398417
148	0xbbdbb192	-0.0067045176
149	0x3d0c7d93	0.034299444
150	0xbbcde9c4	-0.0062839705
151	0xbc593922	-0.01325825
152	0x3cf1ac0f	0.02950099
153	0xbd272ce1	-0.040814284
154	0x3d3ec25d	0.046572078
155	0x3b164b32	0.0022933003
156	0xbc688046	-0.014190739
157	0xbc83bc2d	-0.01608094
158	0xbc90d69d	-0.01768046
159	0xbc3d7dfa	-0.01156568
160	0x3c0a8071	0.008453474
161	0x3d089679	0.033346627
162	0x3baadb53	0.0052141338
163	0x3d0eccf5	0.03486343
164	0x3d803fee	0.062621936
165	0x3d3eb9dc	0.046563968
166	0x3ce2b4a7	0.027674032
167	0x3d84d835	0.06486551
168	0x3d76cb4a	0.060252465
169	0xbd26ab66	-0.040690802
170	0xbc965111	-0.018349202
171	0x3cb1887a	0.021671522
172	0xbc179e8d	-0.00925411
173	0x3d2099b3	0.03920908
174	0xbdafb694	-0.08579746
175	0xbc4fe8a5	-0.012689744
176	0xbd922e68	-0.071377575
177	0xbce0767b	-0.027400246
178	0xbcab8b58	-0.020940468
179	0x3d437196	0.047715746
180	0xbce78934	-0.028263666
181	0xbd50a33d	-0.050936926
182	0xbd9217cd	-0.07133446
183	0xbd109ccc	-0.035305783
184	0xbb90152c	-0.004397055
185	0xbd54faa9	-0.05199686
186	0x3ca25f3c	0.019820802
187	0x3d22344f	0.039600667
188	0x3b9a7f5a	0.0047148885
189	0x3d8601b9	0.06543297
190	0x3d56d021	0.05244458
191	0xbc2351eb	-0.009968261
192	0xbc8816ab	-0.016612371
193	0x3b46856e	0.0030291933
194	0xbc2bf7c0	-0.01049608
195	0x3cac27bd	0.021015042
196	0xbcd5d887	-0.026104225
197	0xbace7180	-0.0015750378
198	0x3d4f17b1	0.050559703
199	0x3d22ebed	0.039775778
200	0x3d795811	0.060875002
201	0x3b4dfc56	0.0031430922
202	0x3c93aaf9	0.018025862
203	0x3cafc527	0.021456314
204	0xbd4eedd2	-0.050519772
205	0xbc23e7a9	-0.010003963
206	0xbb7e3fdf	-0.0038795394
207	0xbc1e3341	-0.009655775
208	0xbac97ba0	-0.0015371926
209	0xbd6a69ff	-0.057229992
210	0x3d13eaf6	0.036112748
211	0x3b9f096d	0.0048534186
212	0x3ccc5278	0.024941668
213	0xbb88be42	-0.004173071
214	0x3c49e924	0.012323651
215	0xbd0eaf67	-0.034835245
216	0xbbcaa5b8	-0.006184306
217	0xbcb946b3	-0.02261672
218	0x3b0cdbf5	0.002149341
219	0xbce78cb2	-0.028265331
220	0x3d8c3b7e	0.06847285
221	0xbd4ea394	-0.05044897
222	0x3c72d3c8	0.014821
223	0xbc0bf0a8	-0.008541264
224	0x3bca240a	0.006168847
225	0xbb2695e4	-0.0025418932
226	0x3ceac4b6	0.028658252
227	0x3c895359	0.016763376
228	0xbd9187d7	-0.071059875
229	0xbd445590	-0.04793316
230	0x3bd5606c	0.0065117385
231	0x3cd0c769	0.025485711
232	0xbb98c45b	-0.0046620793
233	0xbc4a094a	-0.012331316
234	0x3cdedd37	0.027205093
235	0xbd1fb120	-0.03898728
236	0x3c74f30a	0.014950523
237	0xbcccdf2b	-0.025008759
238	0xbd3293c8	-0.043597966
239	0xbd8394db	-0.06424876
240	0xbccb2bc0	-0.024801135
241	0xbc7c0a40	-0.015383303
242	0xbd27baeb	-0.040949743
243	0xbc120d54	-0.0089143105
244	0xbbd4aba3	-0.0064901873
245	0x3d37b6f1	0.0448522
246	0x3d846ec9	0.06466443
247	0xbcf92b40	-0.030416131
248	0x3d3a013c	0.045411333
249	0x3bc08e4a	0.005876337
250	0xbd3a3add	-0.045466293
251	0xbc0bab8e	-0.008524789
252	0x3cda131e	0.026620444
253	0x3c378865	0.011201953
254	0xbc2c6889	-0.01052297
255	0x3cad89d3	0.021183884

ntm.controller.lstm.bias_hh_l0 f4 [400]
0	0x3c94be26	0.018157076
1	0xbd03dd36	-0.032193385
2	0xbc434fa5	-0.011920844
3	0xbab46d78	-0.0013765534
4	0xbc875673	-0.016520714
5	0xbd03beac	-0.03216426
6	0xbc7fa70a	-0.01560379
7	0xbd6d0300	-0.05786419
8	0xbcc2560c	-0.023722671
9	0xbcda8de9	-0.026678996
10	0xbd346196	-0.044038378
11	0xbdd0c284	-0.10193351
12	0x3c937912	0.018002067
13	0xbd09f5c6	-0.033681653
14	0xbdbf2e74	-0.09335032
15	0x3d35788a	0.044304408
16	0x3d25ebdc	0.040508136
17	0xbd930cc9	-0.07180173
18	0xbd97f970	-0.07420623
19	0xbdc612b5	-0.09671537
20	0xbd43a02b	-0.04776017
21	0xbd2f0f4b	-0.042739194
22	0xbd4e27bc	-0.050330862
23	0x3b189eec	0.0023288084
24	0x3c48f5c5	0.012265627
25	0xbd837edf	-0.06420683
26	0xbc8c09bc	-0.017094485
27	0xbcf52062	-0.029922668
28	0x3c7a8ec8	0.015292831
29	0xbd7ff7e4	-0.062492266
30	0xb9b8877c	-0.0003519616
31	0xbc296618	-0.010339282
32	0xbc728c98	-0.014804028
33	0xbc5cbb5b	-0.013472403
34	0xbcb8a168	-0.022537902
35	0xbc5811c8	-0.013187833
36	0xbda4feac	-0.08056387
37	0xbd38be20	-0.045103192
38	0xbd352ba7	-0.044231083
39	0xbcbc10a3	-0.022957152
40	0x3c80af84	0.015708692
41	0xbc99cd6d	-0.018774712
42	0xbd326bcf	-0.043559846
43	0xbd8673d9	-0.06565065
44	0x3be258d7	0.006907563
45	0xbbbdc572	-0.0057913596
46	0xbd1ccd85	-0.038281936
47	0xbc2a5a69	-0.010397532
48	0xbd2b1c9d	-0.041775335
49	0x3add6d42	0.0016893523
50	0xbd7e3038	-0.062057704
51	0xbd379e2a	-0.04482857
52	0xbcd21697	-0.025645537
53	0xbd4d5ca9	-0.050137196
54	0xbd366c23	-0.04453672
55	0xbd295ac4	-0.041346326
56	0xbc2118a0	-0.009832531
57	0xbce3413f	-0.027741073
58	0xbd4847a4	-0.048896447
59	0x3c53ce47	0.012927598
60	0xbc9c9bf6	-0.019117337
61	0x3c27b749	0.01023657
62	0xbbcac9d9	-0.006188613
63	0xbd278f87	-0.040908363
64	0xbc1212de	-0.008915631
65	0xbcc85ab7	-0.024457319
66	0xbd334f87	-0.043777015
67	0xbd041ae7	-0.03225222
68	0xbd3056dc	-0.043051586
69	0xbd92c6b5	-0.071668066
70	0xbd1431e8	-0.036180407
71	0xbc9a402a	-0.018829424
72	0xbd4c3bab	-0.04986159
73	0xbd47f8bd	-0.0488212
74	0xbda16ae7	-0.07881718
75	0xbce9d683	-0.02854467
76	0xbdd2a54d	-0.10285435
77	0xbd1bd9f8	-0.038049668
78	0xbc72248d	-0.014779222
79	0xbd088d04	-0.033337608
80	0xbd2a61ec	-0.04159729
81	0xbd650cfc	-0.055920586
82	0xbda2c496	-0.07947652
83	0xbcabd2ab	-0.020974478
84	0xbc6b854c	-0.014375042
85	0xbd782c5b	-0.060589176
86	0xbb83efab	-0.0040263734
87	0x3bff1227	0.0077841463
88	0xbd04e93b	-0.03244899
89	0x3d264607	0.040594127
90	0x3cf09ae8	0.02937074
91	0xbcea4eda	-0.028602052
92	0xbb5efe6c	-0.003402616
93	0x3aa5a263	0.0012636896
94	0xbc2cdc0c	-0.01055051
95	0xbd825ce2	-0.06365372
96	0x3a9e3fad	0.001207342
97	0xbcc17a12	-0.023617778
98	0xbd89e054	-0.0673224
99	0x3d384b2e	0.044993572
100	0x3cd23764	0.025661178
101	0x3d404424	0.046939984
102	0x3c8ebebf	0.01742494
103	0xba9b1371	-0.0011831356
104	0xbc92b526	-0.017908644
105	0x3cc914cd	0.024546051
106	0x3c1f597c	0.009725925
107	0xbc180b9e	-0.0092801135
108	0x3d3dec0f	0.0463677
109	0xbce42ba5	-0.027852843
110	0xbc9569a2	-0.018238846
111	0xbc00b8cc	-0.007856559
112	0xbcec8500	-0.028872013
113	0xbcbc6bd0	-0.023000628
114	0xbce83cff	-0.028349398
115	0x3d8abbfe	0.06774138
116	0x3c3b833c	0.011444863
117	0xbc6a2025	-0.01428989
118	0x3cecfaa2	0.028928105
119	0xbc8b426e	-0.01699945
120	0xbcf9c3a5	-0.030488798
121	0xbd2e4920	-0.042550206
122	0x3da7c748	0.08192307
123	0x3b8480fb	0.004043696
124	0x3dbc6bba	0.09200235
125	0x3c5508fd	0.013002631
126	0x3cbc30d0	0.022972494
127	0xbc291089	-0.010318884
128	0x3b6fcd7e	0.0036590989
129	0xbd391a66	-0.04519119
130	0x3d5ad499	0.053425405
131	0x3c339b5e	0.010962335
132	0xbc91293b	-0.017719856
133	0xbbc4d1c4	-0.0060064513
134	0xbc10cf33	-0.008838463
135	0xbd1ee5e0	-0.038793445
136	0xbd8198c9	-0.063279696
137	0xbd0d8823	-0.03455366
138	0x3d177f45	0.036986608
139	0xbcf23e1b	-0.02957063
140	0x3cf32a3c	0.029683225
141	0x3d8a7254	0.067600876
142	0xbc26b022	-0.010173829
143	0xbd7beff2	-0.061508127
144	0x3d84b24b	0.06479319
145	0x3cb8d22a	0.022561152
146	0xbd09c286	-0.033632778
147	0x3c96b847	0.018398417
148	0xbbdbb192	-0.0067045176
149	0x3d0c7d93	0.034299444
150	0xbbcde9c4	-0.0062839705
151	0xbc593922	-0.01325825
152	0x3cf1ac0f	0.02950099
153	0xbd272ce1	-0.040814284
154	0x3d3ec25d	0.046572078
155	0x3b164b32	0.0022933003
156	0xbc688046	-0.014190739
157	0xbc83bc2d	-0.01608094
158	0xbc90d69d	-0.01768046
159	0xbc3d7dfa	-0.01156568
160	0x3c0a8071	0.008453474
161	0x3d089679	0.033346627
162	0x3baadb53	0.0052141338
163	0x3d0eccf5	0.03486343
164	0x3d803fee	0.062621936
165	0x3d3eb9dc	0.046563968
166	0x3ce2b4a7	0.027674032
167	0x3d84d835	0.06486551
168	0x3d76cb4a	0.060252465
169	0xbd26ab66	-0.040690802
170	0xbc965111	-0.018349202
171	0x3cb1887a	0.021671522
172	0xbc179e8d	-0.00925411
173	0x3d2099b3	0.03920908
174	0xbdafb694	-0.08579746
175	0xbc4fe8a5	-0.012689744
176	0xbd922e68	-0.071377575
177	0xbce0767b	-0.027400246
178	0xbcab8b58	-0.020940468
179	0x3d437196	0.047715746
180	0xbce78934	-0.028263666
181	0xbd50a33d	-0.050936926
182	0xbd9217cd	-0.07133446
183	0xbd109ccc	-0.035305783
184	0xbb90152c	-0.004397055
185	0xbd54faa9	-0.05199686
186	0x3ca25f3c	0.019820802
187	0x3d22344f	0.039600667
188	0x3b9a7f5a	0.0047148885
189	0x3d8601b9	0.06543297
190	0x3d56d021	0.05244458
191	0xbc2351eb	-0.009968261
192	0xbc8816ab	-0.016612371
193	0x3b46856e	0.0030291933
194	0xbc2bf7c0	-0.01049608
195	0x3cac27bd	0.021015042
196	0xbcd5d887	-0.026104225
197	0xbace7180	-0.0015750378
198	0x3d4f17b1	0.050559703
199	0x3d22ebed	0.039775778
200	0x3d795811	0.060875002
201	0x3b4dfc56	0.0031430922
202	0x3c93aaf9	0.018025862
203	0x3cafc527	0.021456314
204	0xbd4eedd2	-0.050519772
205	0xbc23e7a9	-0.010003963
206	0xbb7e3fdf	-0.0038795394
207	0xbc1e3341	-0.009655775
208	0xbac97ba0	-0.0015371926
209	0xbd6a69ff	-0.057229992
210	0x3d13eaf6	0.036112748
211	0x3b9f096d	0.0048534186
212	0x3ccc5278	0.024941668
213	0xbb88be42	-0.004173071
214	0x3c49e924	0.012323651
215	0xbd0eaf67	-0.034835245
216	0xbbcaa5b8	-0.006184306
217	0xbcb946b3	-0.02261672
218	0x3b0cdbf5	0.002149341
219	0xbce78cb2	-0.028265331
220	0x3d8c3b7e	0.06847285
221	0xbd4ea394	-0.05044897
222	0x3c72d3c8	0.014821
223	0xbc0bf0a8	-0.008541264
224	0x3bca240a	0.006168847
225	0xbb2695e4	-0.0025418932
226	0x3ceac4b6	0.028658252
227	0x3c895359	0.016763376
228	0xbd9187d7	-0.071059875
229	0xbd445590	-0.04793316
230	0x3bd5606c	0.0065117385
231	0x3cd0c769	0.025485711
232	0xbb98c45b	-0.0046620793
233	0xbc4a094a	-0.012331316
234	0x3cdedd37	0.027205093
235	0xbd1fb120	-0.03898728
236	0x3c74f30a	0.014950523
237	0xbcccdf2b	-0.025008759
238	0xbd3293c8	-0.043597966
239	0xbd8394db	-0.06424876
240	0xbccb2bc0	-0.024801135
241	0xbc7c0a40	-0.015383303
242	0xbd27baeb	-0.040949743
243	0xbc120d54	-0.0089143105
244	0xbbd4aba3	-0.0064901873
245	0x3d37b6f1	0.0448522
246	0x3d846ec9	0.06466443
247	0xbcf92b40	-0.030416131
248	0x3d3a013c	0.045411333
249	0x3bc08e4a	0.005876337
250	0xbd3a3add	-0.045466293
251	0xbc0bab8e	-0.008524789
252	0x3cda131e	0.026620444
253	0x3c378865	0.011201953
254	0xbc2c6889	-0.01052297
255	0x3cad89d3	0.021183884

ntm.controller.lstm.weight_ih_l1 f4 [400, 100]
0	0xbe85b2f3	-0.2611309
1	0x3e5df8f7	0.21677004
2	0xbe382ba4	-0.17985398
3	0xbe72ca07	-0.2370988
4	0x3d22250e	0.03958612
5	0x3deeb181	0.1165495
6	0xbd301302	-0.042986877
7	0xbe820cf4	-0.25400507
8	0xbd0699a8	-0.03286138
9	0xbe9308a1	-0.2871752
10	0x3e639683	0.22225384
11	0x3e9d0683	0.3066903
12	0x3e2dbf27	0.1696745
13	0xbde910bc	-0.11380145
14	0x3baa4801	0.005196572
15	0xbd315e2f	-0.04330271
16	0xbd78058f	-0.060552176
17	0x3c936f4a	0.017997403
18	0x3cf16c87	0.029470695
19	0xbda7b91b	-0.08189603
20	0x3c2f490c	0.010698568
21	0xbe3444b5	-0.17604335
22	0xbdda5642	-0.106609836
23	0xbe8cea96	-0.27522725
24	0xbb8dc7b9	-0.0043267873
25	0xbe595cc7	-0.21226798
26	0xbe3694de	-0.17830226
27	0xbdce9cb7	-0.10088485
28	0x3ddf54dc	0.109048575
29	0x3eb5ce2f	0.35508868
30	0xbe20c4e6	-0.15700111
31	0xbe9d5c19	-0.30734327
32	0x3ea17ec8	0.3154204
33	0x3e645562	0.22298196
34	0x3e2c7dc3	0.1684485
35	0xbea24165	-0.31690517
36	0x3d137ae7	0.03600588
37	0xbe2b6875	-0.16739066
38	0x3eb8848a	0.3603862
39	0x3dba1c87	0.090874724
40	0xbe58f732	-0.21188048
41	0x3e9134de	0.28360647
42	0xbeace75b	-0.3377026
43	0xbe4dd87e	-0.20102116
44	0xbdf7f9fa	-0.12108226
45	0xbe5e6e30	-0.2172172
46	0x3d8f800c	0.07006845
47	0xbe1c326a	-0.15253606
48	0xbc56318c	-0.013073336
49	0x3b8c9a6b	0.004290869
50	0x3e748828	0.23880064
51	0xbeabeb49	-0.33577946
52	0x3d1af6cd	0.037833024
53	0xbe1ad9be	-0.15122125
54	0xbe35feb1	-0.17772938
55	0x3eb8c0f6	0.36084718
56	0x3e9849eb	0.29743895
57	0x39303f4f	0.00016808252
58	0xbdbe2ce9	-0.0928591
59	0xbd1342b9	-0.035952304
60	0x3d373ff7	0.044738736
61	0xbe6a0897	-0.2285484
62	0x3db15635	0.08659021
63	0xbe895e44	-0.2682973
64	0x3e1d946b	0.15388648
65	0x3d10b8dd	0.03533255
66	0xbeb73328	-0.35781217
67	0x3e81927d	0.25307074
68	0xbd692e7d	-0.0569291
69	0x3e60f2cc	0.2196762
70	0x3e26fc30	0.1630714
71	0x3e816418	0.25271678
72	0xbe92e36b	-0.2868913
73	0x3e2b8aab	0.16752116
74	0xbc613deb	-0.013747673
75	0xbcc1d467	-0.023660852
76	0x3e339d0a	0.17540374
77	0x3e7e8075	0.2485369
78	0x3e7ad6a0	0.24495935
79	0x3cfc39d3	0.030789291
80	0x3ea972f6	0.3309552
81	0xbe9a7ed3	-0.30174884
82	0x3cd83c54	0.026395954
83	0xbe314a41	-0.17313482
84	0x3e674dab	0.22588222
85	0xbe151959	-0.1456045
86	0x3dd7147b	0.10501953
87	0xbdae70c0	-0.08517599
88	0x3ea7937e	0.32729715
89	0x3e5226da	0.20522633
90	0xbe39a264	-0.18128353
91	0x3ecfd6bb	0.40593514
92	0x3e8c67f9	0.27423075
93	0x3e7c7fd3	0.24658136
94	0x3e95b0de	0.292365
95	0xbdca9c55	-0.09893099
96	0x3de22f60	0.11044192
97	0x3e61eb4a	0.22062412
98	0x3e616f74	0.22015172
99	0x3e916766	0.283992
100	0xbe90f232	-0.2830978
101	0x3e99d6bb	0.3004664
102	0xbe091b69	-0.13389362
103	0x3e391d3f	0.18077563
104	0xbdf370ce	-0.1188675
105	0x3e191727	0.14950238
106	0x3eb88d21	0.36045173
107	0xbe80d7a4	-0.2516452
108	0x3e9e515c	0.30921447
109	0x3e8db651	0.2767816
110	0x3d274a5f	0.04084241
111	0xba59f4e1	-0.0008314383
112	0x3e845f2a	0.25853854
113	0xbd8b2574	-0.06794253
114	0x3e369060	0.17828512
115	0x3e7a5e45	0.24450023
116	0xbd93fbf8	-0.072257936
117	0x3ea69e57	0.3254268
118	0xbd01d008	-0.031692535
119	0xbce05375	-0.027383545
120	0x3e93c010	0.2885747
121	0xbe59addb	-0.21257727
122	0x3e987a39	0.29780748
123	0xbe8c40b4	-0.27393115
124	0x3e1668b9	0.14688386
125	0x3dcf4eb5	0.10122434
126	0xbd8643ee	-0.06555925
127	0x3e4ee5dc	0.20204872
128	0xbe8fc69b	-0.2808121
129	0x3d290f89	0.04127458
130	0xbe9c0bbb	-0.304777
131	0xbea1937c	-0.31557834
132	0xbe9742e3	-0.29543218
133	0xbd7290a9	-0.05921999
134	0xbe9c7b42	-0.30562788
135	0xbe4b73a7	-0.19868337
136	0xbe97bbc4	-0.2963544
137	0xbc273bc9	-0.010207125
138	0xbe5ac2df	-0.213634
139	0x3e306e34	0.17229539
140	0xbe0bc211	-0.13648249
141	0x3cd5a233	0.02607832
142	0xbe66795d	-0.22507234
143	0x3e987495	0.29776445
144	0x3bea237e	0.0071453443
145	0x3e230e5c	0.15923446
146	0xbe7cf99b	-0.24704592
147	0xbc3fc860	-0.011705488
148	0xbdd19cca	-0.10234983
149	0x3e0cbecd	0.1374466
150	0xbe31cf19	-0.17364158
151	0x3df6c812	0.12049879
152	0x3e763349	0.24043001
153	0x3e90b17c	0.2826041
154	0xbe8b7a71	-0.27241853
155	0x3db0e1b4	0.086367995
156	0x3e984bac	0.29745233
157	0x3e5f8114	0.21826583
158	0xbe237609	-0.15962996
159	0x3de038b4	0.10948315
160	0xbd648f8d	-0.055800963
161	0x3d796d6e	0.060895376
162	0xbe4027ae	-0.18765137
163	0x3dc234f0	0.09482753
164	0xbe1984dc	-0.14992088
165	0xbe8cb76b	-0.27483687
166	0xbebd8205	-0.3701326
167	0x3e33730d	0.17524357
168	0xbe878332	-0.26467282
169	0x3e3b6c6d	0.1830308
170	0xbd98a3d4	-0.07453123
171	0x3e648f85	0.22320373
172	0x3dc6e022	0.09710719
173	0xbe995c3e	-0.29953188
174	0xbeb3fc34	-0.35153353
175	0x3ea14a3d	0.31501952
176	0x3e680677	0.22658716
177	0xbea0ca1e	-0.31404203
178	0xbe78829c	-0.24268574
179	0x3e615948	0.22006714
180	0xbde2a396	-0.11066358
181	0x3d9f2f67	0.07772713
182	0x3eb0e4dc	0.34549606
183	0xbd3e6ba6	-0.04648938
184	0x3d814297	0.06311529
185	0x3e9bf23c	0.30458248
186	0xbe6ed49c	-0.23323292
187	0x3b83e511	0.0040251096
188	0xbe924576	-0.2856862
189	0xbe9acd39	-0.30234697
190	0xbd219657	-0.039450016
191	0xbe385e41	-0.18004705
192	0xbb2da79a	-0.0026497603
193	0x3e83d256	0.2574641
194	0xbc7934a7	-0.015210307
195	0xbe3c37de	-0.18380687
196	0xbe29750f	-0.1654856
197	0xbebd4042	-0.36963087
198	0xbd023d74	-0.031796888
199	0x3ccd5870	0.025066584
200	0xbe641170	-0.22272277
201	0xbe7fa303	-0.24964528
202	0x3ccff97f	0.025387524
203	0x3d242ceb	0.0400819
204	0xbeb2ac96	-0.34897298
205	0x3e834548	0.25638795
206	0xbe2d9a38	-0.16953361
207	0xbd83aa4c	-0.06428966
208	0xbe21a369	-0.15784992
209	0x3e44fc99	0.19236983
210	0xbe6d99d7	-0.23203216
211	0x3e7b8889	0.24563803
212	0x3e24b40d	0.16084309
213	0x3cb7abfd	0.022420878
214	0xbeadcc72	-0.33945042
215	0xbe8a4299	-0.27003935
216	0x3eb1dc83	0.3473855
217	0x3d03b15e	0.032151572
218	0x3e766064	0.24060208
219	0xbeb21836	-0.34784096
220	0x3db557ff	0.088546745
221	0xbd49d520	-0.049275517
222	0x3e2f01e8	0.17090571
223	0x3da425e1	0.08015037
224	0x3e2fa418	0.1715244
225	0x3e824067	0.2543976
226	0xbe9d4694	-0.3071791
227	0x3e83a200	0.25709534
228	0x3caded96	0.021231454
229	0xbb46ff96	-0.0030364743
230	0xbe9c0942	-0.30475813
231	0xbe977961	-0.29584792
232	0xbdc9cb33	-0.0985321
233	0x3eb95773	0.3619953
234	0xbe0b38c9	-0.1359588
235	0x3e74dd1e	0.23912475
236	0x3d83d823	0.06437709
237	0xbe4c72df	-0.19965695
238	0x3eaeda16	0.3415076
239	0x3e095c03	0.13414006
240	0xbea82614	-0.3284155
241	0xbe91633d	-0.28396025
242	0x3e7ae462	0.24501184
243	0xbe78e22e	-0.2430503
244	0xbe60caf6	-0.21952423
245	0x3c8abd45	0.016935954
246	0xbe873203	-0.26405343
247	0x3eb0b718	0.3451469
248	0x3e541157	0.2070974
249	0x3e4d8800	0.20071411
250	0xbea6c6e6	-0.32573622
251	0x3e5bd574	0.21468145
252	0xbe785408	-0.24250805
253	0xbd742747	-0.05960777
254	0xbd58767c	-0.05284737
255	0xbeb81389	-0.35952404
