results/priority-sort/priority-sort-task-1-batch-30000.model (torch_old, 876115 bytes, 49 tensors)

ntm.read0_bias f4 [1, 20]
0.008534628 0.008435046 -0.008264077 0.00018172165 0.0046713464 0.00930393 0.0023353018 0.011105952
0.0061267973 -0.011406721 -0.0012917069 -0.0018287291 -0.02607943 0.0029292086 0.01707296 -0.015079479
-0.009413523 0.0030175606 0.009871223 0.0013471204
00000000: d3d4 0b3c 2633 0a3c 0d66 07bc 898c 3e39
00000010: 1812 993b 836f 183c dd0b 193b bdf5 353c
00000020: 4dc3 c83b 41e3 3abc 7e4e a9ba f7b1 efba
00000030: 87a4 d5bc f7f7 3f3b 98dc 8b3c eb0f 77bc
00000040: 2d3b 1abc 44c2 453b e9ba 213c dc91 b03a

ntm.read1_bias f4 [1, 20]
0.0074309288 -0.0024586967 0.0061495206 0.0063787727 0.0033937113 0.0051422534 -0.0030757 -0.0018738745
-0.001625842 -0.0012667794 0.019063577 0.011108604 -0.004539704 -0.00995929 0.00015343723 -0.0067059505
0.0022206204 0.008695815 -0.0094873225 -0.0037890621
00000000: 267f f33b 1622 21bb eb81 c93b 0605 d13b
00000010: 0769 5e3b 5980 a83b af91 49bb cb9c f5ba
00000020: 341a d5ba 100a a6ba 382b 9c3c dd00 363c
00000030: ccc1 94bb 4a2c 23bc fee3 2039 97bd dbbb
00000040: d487 113b e478 0e3c b770 1bbc ea51 78bb

ntm.read2_bias f4 [1, 20]
0.008418408 -0.02165412 0.026195146 -0.014825749 0.007117094 0.0035536014 0.0053983554 0.0027502493
-0.010106821 -0.009972419 0.010024577 -0.0010381936 -0.0034792167 0.0038336124 -0.0016785387 0.0035286348
0.016281763 -0.01577581 0.018273318 -0.010903853
00000000: 5ded 093c fb63 b1bc 3497 d63c b3e7 72bc
00000010: 8336 e93b 8ae3 683b b0e4 b03b 873d 343b
00000020: 1497 25bc 5b63 23bc 203e 243c ff13 88ba
00000030: 9203 64bb 583d 7b3b 6a02 dcba ab40 673b
00000040: 5561 853c 463c 81bc edb1 953c 13a6 32bc

ntm.read3_bias f4 [1, 20]
-0.00884936 0.0021171118 -0.009916693 0.0048082955 0.00040438664 0.0034891157 0.022625888 -0.012612301
0.001597294 -0.0005343199 0.011532222 0.006451259 -0.0008236384 0.0039824215 0.005928821 -0.008201689
-0.014374395 -0.0029393584 -0.009005442 0.017612504
00000000: e8fc 10bc 3ebf 0a3b a079 22bc e88e 9d3b
00000010: db03 d439 a6a9 643b ed59 b93c d3a3 4ebc
00000020: 4b5c d13a 9a11 0cba a5f1 3c3c 1565 d33b
00000030: 70e9 57ba f97e 823b 8e46 c23b 6160 06bc
00000040: 9582 6bbc 40a2 40bb 908b 13bc 1948 903c

ntm.read4_bias f4 [1, 20]
0.001292041 0.017851794 -0.0018190525 0.0074159033 -0.0039567947 -0.008849636 -0.0064109443 0.008246496
-0.002400217 0.008319184 -0.010934709 -0.014668811 -0.011997054 -0.009604894 -0.00038494423 0.0016552132
0.005631958 -0.0022477664 -0.0169643 0.010374
00000000: b459 a93a ed3d 923c 466d eeba 1b01 f33b
00000010: 00a8 81bb 10fe 10bc e612 d2bb 501c 073c
00000020: f64c 1dbb 304d 083c 7e27 33bc 7455 70bc
00000030: 4b8f 44bc d85d 1dbc 57d2 c9b9 bdf3 d83a
00000040: 4a8c b83b 434f 13bb b7f8 8abc b6f7 293c

ntm.controller.lstm_h_bias f4 [2, 1, 100]
0.05397709 -0.050656166 -0.020263257 -0.11330082 -0.051627617 0.08665353 -0.07643432 -0.059678398
0.007939099 0.0044088163 -0.034230266 -0.036624417 0.045754794 0.024510289 -0.09536295 0.0637907
-0.026057322 -0.023906797 0.112438045 0.064250834 -0.06812277 0.028268559 0.035650972 -0.094992295
-0.07311066 0.0987759 -0.047762282 -0.03625901 -0.0061038984 -0.02241037 -0.059698306 -0.080941595
-0.039076637 -0.050439827 -0.16521646 0.013039046 -0.049904853 -0.041681487 0.16158453 0.0051610703
0.044761274 -0.030927544 -0.027244164 0.007848419 -0.038507175 -0.017314684 -0.0018937193 0.07742983
0.03722801 -0.009072563 0.031805865 0.09637879 -0.031832926 0.12583145 -0.013356869 7.202993e-06
0.012483487 -0.098222576 0.05931575 0.10532865 0.10666544 -0.020848585 0.052601673 0.013519999
0.069917604 -0.04813473 -0.007986818 -0.08940932 -0.10373862 -0.13218345 -0.03824924 -0.09475915
0.010394198 -0.032910224 0.016105441 -0.03218572 -0.074718535 -0.102826424 0.02332544 -0.03500182
0.026740381 -0.07315796 -0.16664517 -0.005492357 -0.043667436 0.02553301 -0.037731152 -0.036967788
0.024147667 0.108413644 -0.0069851815 -0.021323944 0.050505895 -0.03425753 0.10029702 -0.06745636
0.09279056 0.105796784 0.033723075 -0.043060414 0.28049237 0.06608968 0.06963048 0.08238605
-0.13112436 0.06644843 0.1055545 -0.12206625 0.0844489 -0.09197121 -0.023351496 -0.070829086
0.13258307 0.08721925 -0.04733557 -0.080451004 0.16954257 -0.0015424779 -0.12211735 0.007830791
-0.08355502 0.048384883 0.041234344 0.064069904 -0.031619392 -0.089543484 -0.053101823 0.14385858
-0.0020728286 0.14770594 0.07122383 0.034408092 0.07818984 -0.009411037 0.16302535 -0.11404752
-0.012795063 0.02271011 0.09519922 -0.06441231 0.07583512 -0.08599646 -0.094617724 -0.07648933
-0.029421799 0.007342573 0.11052926 -0.0065401588 0.121774726 -0.027124511 0.0062997756 0.13509396
0.058815237 -0.022635525 -0.06859254 0.009385134 -0.13099702 -0.08920538 0.03867889 -0.09126568
0.06370749 0.099474356 0.13014406 0.09827757 -0.03121592 -0.05193427 0.0140749775 -0.028127084
0.031387463 0.066487096 0.057985615 0.23601092 -0.14252292 0.07865299 0.08421897 -0.1648523
0.07851848 -0.038015645 -0.104809865 -0.18164037 0.042688277 -0.06883622 -0.00072987395 -0.12709107
0.16077463 -0.107412055 -0.069411635 -0.14121404 -0.032258935 -0.11571148 0.0635285 -0.086398445
0.04945433 0.1895149 -0.015105571 -0.17094941 0.070759125 -0.11841119 0.12475612 -0.030552084
00000000: 1517 5d3d d77c 4fbd 21ff a5bc 430a e8bd
00000010: 7b77 53bd 6877 b13d 9989 9cbd 5671 74bd
00000020: ff12 023c d577 903b 0935 0cbd 7c03 16bd
00000030: 6169 3b3d cdc9 c83c a64d c3bd b3a4 823d
00000040: 2a76 d5bc 30d8 c3bc eb45 e63d f195 833d
00000050: f383 8bbd 7793 e73c c106 123d 528b c2bd
00000060: 0bbb 95bd 054b ca3d 62a2 43bd 5484 14bd
00000070: 3603 c8bb f495 b7bc 3686 74bd b5c4 a5bd
00000080: d30e 20bd fe99 4ebd 812e 29be b9a1 553c
00000090: 0869 4cbd 35ba 2abd 6a76 253e 321e a93b
000000a0: 9957 373d c35b fdbc 272f dfbc a896 003c
000000b0: b3b9 1dbd 86d7 8dbc ad36 f8ba 8893 9e3d
000000c0: 667c 183d 16a5 14bc de46 023d 3e62 c53d
000000d0: 3e63 02bd f6d9 003e c5d6 5abc 3db1 f136
000000e0: 8a87 4c3c eb28 c9bd 12f5 723d 8cb6 d73d
000000f0: 6973 da3d a7ca aabc da74 573d fc82 5d3c
00000100: f630 8f3d ec28 45bd 25db 02bc 3c1c b7bd
00000110: ea74 d4bd 195b 07be 3cab 1cbd 1611 c2bd
00000120: 6d4c 2a3c dfcc 06bd 8fef 833c 2cd5 03bd
00000130: 0806 99bd a996 d2bd fe14 bf3c 125e 0fbd
00000140: a50e db3c d7d3 95bd 08a5 2abe 3bf9 b3bb
00000150: a0dc 32bd 9a2a d13c fb8b 1abd 896b 17bd
00000160: 54d1 c53c f907 de3d f3e3 e4bb 8daf aebc
00000170: 45df 4e3d a051 0cbd 8668 cd3d 8f26 8abd
00000180: fa08 be3d fcab d83d 3521 0a3d 1e60 30bd
00000190: b29c 8f3e 075a 873d 6d9a 8e3d 04ba a83d
000001a0: 7745 06be 1d16 883d f52c d83d dffd f9bd
000001b0: 8bf3 ac3d 675b bcbd a34b bfbc d70e 91bd
000001c0: dbc3 073e 02a0 b23d f1e2 41bd 7fc3 a4bd
000001d0: 919c 2d3e f82c caba a918 fabd b84c 003c
000001e0: e51e abbd 3a2f 463d 58e5 283d 1537 833d
000001f0: 5683 01bd 9362 b7bd 4c81 59bd aa4f 133e
00000200: 4bd8 07bb 3a40 173e cddd 913d 80ef 0c3d
00000210: ff21 a03d c030 1abc 1ef0 263e bf91 e9bd
00000220: 62a2 51bc 8d0a ba3c cff7 c23d 9aea 83bd
00000230: 724f 9b3d e91e b0bd f0c6 c1bd 70a6 9cbd
00000240: fc05 f1bc f799 f03b 2a5d e23d d44e d6bb
00000250: 0765 f93d 3934 debc 596e ce3b 1256 0a3e
00000260: 3fe8 703d 236e b9bc 3f7a 8cbd 1bc4 193c
00000270: 1524 06be 4fb1 b6bd c16d 1e3d 80e9 babd
00000280: 1379 823d 36b9 cb3d 7c44 053e c045 c93d
00000290: 87b8 ffbc 07b9 54bd bc9a 663c c56a e6bc
000002a0: 2490 003d 632a 883d 5382 6d3d d9ac 713e
000002b0: 87f1 11be d214 a13d ff7a ac3d 0bcf 28be
000002c0: 4cce a03d 4bb6 1bbd 8ea6 d6bd efff 39be
000002d0: e7d9 2e3d 01fa 8cbd 0355 3fba 2924 02be
000002e0: 1ba2 243e dafa dbbd b027 8ebd 6a9a 10be
000002f0: f221 04bd 24fa ecbd 3b1b 823d abf1 b0bd
00000300: a090 4a3d 3210 423e 5b7d 77bc 5d0d 2fbe
00000310: 29ea 903d 9181 f2bd 2380 ff3d 5d48 fabc

ntm.controller.lstm_c_bias f4 [2, 1, 100]
0.029618852 -0.038782734 -0.0419608 -0.00892937 0.017667804 -0.019435951 -0.1325113 0.11358236
-0.07334804 -0.048395034 0.065676324 -0.08962667 -0.035269998 -0.025561571 0.14935753 -0.024510384
0.01142375 -0.09971844 0.09291391 -0.04644164 -0.03076056 -0.04956369 0.009418239 -0.029518185
-0.005549348 0.10807269 0.024541883 -0.018393653 -0.06875677 0.023569614 -0.07840387 -0.08261578
-0.07359223 -0.08665664 -0.037357364 -0.06568589 -0.018495876 -0.13157931 -0.0005070714 -0.045759745
0.023391834 -0.059252705 -0.07548277 0.02923737 -0.018493446 0.046698112 0.03130417 0.026826365
-0.030942496 -0.001930203 0.011845818 -0.031064562 0.024586936 -0.03060503 0.11031365 -0.01632454
-0.022413524 0.005481559 0.015806986 0.058424395 0.016805284 -0.037935983 -0.007456312 -0.013129412
0.046214674 -0.03256774 -0.03935182 0.054354955 0.0090009775 -0.03478544 0.029593492 -0.10511861
-0.053422954 0.0465157 0.033562034 -0.049378626 0.009006894 -0.13959375 -0.06024995 -0.046192322
-0.028131604 -0.076578006 0.00042767907 -0.08487369 0.08366436 -0.0033070405 0.0060128365 0.0829882
-0.08130104 -0.012720246 0.00056784594 0.023137623 0.028742699 -0.050225217 -0.05690922 -0.035876516
0.06357602 0.011563312 -0.021726795 -0.084483266 0.062181063 0.020938808 -0.054550916 -0.04967516
-0.116403766 -0.022362033 0.09055518 0.0044888947 0.10692154 -0.040744103 -0.094909266 -0.06504493
0.047840457 -0.037344094 -0.011198024 0.13182303 0.15017778 0.14394143 -0.037828516 -0.09848027
-0.033995397 -0.07449139 -0.020594152 -0.05056199 -0.14775328 -0.044400454 -0.03326858 0.25027472
0.013156141 -0.06436614 0.0720029 -0.035006568 0.039000865 0.09801534 0.064342864 -0.17873032
0.023078438 0.09444039 0.033674046 -0.005177787 0.020929586 -0.044593647 -0.07443467 -0.09850635
-0.015085184 -0.11481779 0.09542761 0.057395853 0.11390818 0.113083676 -0.03803843 -0.03585739
0.04056424 -0.11442045 -0.06074474 0.019441213 -0.050910834 0.05312414 0.059609506 0.094940014
-0.010104879 0.037144184 -0.01973345 0.04150692 -0.13321316 -0.04189435 -0.034775347 -0.023479128
-0.034835525 0.11199965 0.07630256 0.025624342 -0.102382034 0.02047848 -0.0036543484 0.010992259
0.09685413 -0.136293 -0.043370765 -0.06930359 0.057742532 0.0121669285 0.046179116 -0.14220586
0.00029543572 -0.043018088 -0.043843254 -0.15012248 0.1566056 0.009807191 0.06472576 0.031444285
-0.10617701 0.009791748 0.07721646 -0.15398915 0.022767106 -0.018047828 0.05202799 0.038209487
00000000: 3ca3 f23c a5da 1ebd 16df 2bbd 7e4c 12bc
00000010: 12bc 903c 2538 9fbc 0bb1 07be de9d e83d
00000020: 7f37 96bd df39 46bd 4f81 863d 308e b7bd
00000030: 4677 10bd 8066 d1bc 2ef1 183e 00ca c8bc
00000040: ae2a 3b3c 2e39 ccbd a649 be3d 9739 3ebd
00000050: 92fd fbbc 4c03 4bbd f54e 1a3c 1fd0 f1bc
00000060: 4ed7 b5bb 3755 dd3d 0f0c c93c 49ae 96bc
00000070: 59d0 8cbd 1015 c13c 3592 a0bd 7632 a9bd
00000080: 86b7 96bd 0979 b1bd 0904 19bd 5386 86bd
00000090: aa84 97bc babc 06be fcec 04ba 926e 3bbd
000000a0: 3ba0 bf3c f7b2 72bd b696 9abd 3583 ef3c
000000b0: 917f 97bc 8546 3f3d cd38 003d f7c2 db3c
000000c0: 1e7b fdbc defe fcba f614 423c 1c7b febc
000000d0: 8b6a c93c 66b7 fabc 1fec e13d 0bbb 85bc
000000e0: 919c b7bc a69e b33b a77d 813c 6b4e 6f3d
000000f0: 3cab 893c c362 1bbd 1454 f4bb bf1c 57bc
00000100: 994b 3d3d c065 05bd 602f 21bd 4da3 5e3d
00000110: d678 133c 2d7b 0ebd 0d6e f23c 6d48 d7bd
00000120: 07d2 5abd 3f87 3e3d 5878 093d 3e41 4abd
00000130: a791 133c aaf1 0ebe a7c8 76bd 2934 3dbd
00000140: 4074 e6bc eed4 9cbd 1d3a e039 42d2 adbd
00000150: 3858 ab3d efba 58bb 5407 c53b b8f5 a93d
00000160: 2981 a6bd 9468 50bc 7fdb 143a 1d8b bd3c
00000170: cf75 eb3c f5b8 4dbd a419 69bd 41f3 12bd
00000180: 2534 823d 0c74 3d3c 64fc b1bc 9005 adbd
00000190: 92b1 7e3d dd87 ab3c c870 5fbd 2e78 4bbd
000001a0: 1965 eebd 9530 b7bc ff74 b93d 9417 933b
000001b0: aef9 da3d 4ae3 26bd ca5f c2bd 4736 85bd
000001c0: 5bf4 433d 1ff6 18bd eb77 37bc 9efc 063e
000001d0: 34c8 193e 6265 133e 13f2 1abd 06b0 c9bd
000001e0: c23e 0bbd f18e 98bd 11b5 a8bc 171a 4fbd
000001f0: a34c 17be 40dd 35bd a244 08bd 0224 803e
00000200: db8c 573c 65d2 83bd 4276 933d 0c63 0fbd
00000210: 5fbf 1f3d 44bc c83d 31c6 833d 1505 37be
00000220: fe0e bd3c f769 c13d cced 093d 6daa a9bb
00000230: 8674 ab3c d4a7 36bd 3471 98bd b2bd c9bd
00000240: d927 77bc 9725 ebbd 8d6f c33d ea17 6b3d
00000250: b148 e93d 6a98 e73d 2fce 1bbd 33df 12bd
00000260: b026 263d 4555 eabd 7acf 78bd 2e43 9f3c
00000270: e187 50bd b398 593d 1929 743d e96f c23d
00000280: ef8e 25bc 8024 183d 0ba8 a1bc 2903 2a3d
00000290: 0869 08be 6999 2bbd 9870 0ebd 4d57 c0bc
000002a0: b2af 0ebd 1360 e53d 8444 9c3d 24ea d13c
000002b0: acad d1bd 7cc2 a73c cb7d 6fbb e018 343c
000002c0: 755b c63d 6490 0bbe 8ba5 31bd 0aef 8dbd
000002d0: 6f83 6c3d cc57 473c 5026 3d3d 6a9e 11be
000002e0: b6e4 9a39 bc33 30bd fc94 33bd b5b9 19be
000002f0: 385d 203e 57ae 203c f08e 843d b9cb 003d
00000300: 5573 d9bd 916d 203c aa23 9e3d 55af 1dbe
00000310: 1582 ba3c 0ad9 93bc 4d1b 553d 8d81 1c3d

ntm.controller.lstm.weight_ih_l0 f4 [400, 110]
-0.28670013 0.114236735 0.016430773 -0.23901917 -0.36217862 -0.230332 0.068579726 0.14046948
-0.21340908 -0.10772237 -0.1871 0.046676666 0.27317148 0.1263565 0.026008844 0.2389943
-0.061990827 0.10628832 0.22742379 -0.21682063 0.078434296 -0.2820718 0.051010918 -0.35332823
0.07328583 -0.11811694 -0.14591472 -0.32775217 -0.24444519 -0.051136706 0.036030896 -0.28164026
0.07049072 0.00903955 0.18287486 -0.0427098 -0.3010688 0.35082477 -0.21807213 0.19245744
0.12522553 -0.2916196 0.1085845 0.042232957 0.3248106 0.1806364 0.2354279 0.19711983
0.23803493 -0.21515986 -0.102266505 0.13126919 0.32260117 -0.17915493 -0.31262943 -0.09396488
-0.029808434 -0.013429137 0.23413256 -0.21921647 -0.35918328 0.003212347 -0.009067464 -0.22081143
-0.21101198 -0.24273014 0.09463692 -0.05525862 0.16893783 -0.048614334 -0.24885628 0.10645288
0.0190019 0.044835124 -0.25505432 0.33416665 0.051732466 0.054162476 0.1757872 0.26256764
-0.34439555 0.10536484 -0.11574189 -0.15858793 -0.06898886 0.23703489 0.029789703 -0.17968771
-0.23488651 -0.05792539 -0.042138193 0.29188916 0.24394153 0.01838896 0.15189818 -0.19987638
-0.06704032 0.26608667 0.33130458 0.08300276 0.03098249 -0.099802986 -0.14448497 -0.21574631
-0.015380723 -0.02547488 0.09911766 0.3026187 0.3241215 0.062298667 -0.22423735 -0.007787005
-0.19026183 -0.31842315 0.16878155 0.024224006 0.10872964 0.16750745 -0.33120513 -0.012845662
0.04127171 0.047872752 -0.15071942 -0.32916513 0.30526364 0.18827291 0.18595473 -0.22283092
0.04069255 -0.32843614 0.14917356 0.13162133 -0.3063016 0.023348857 -0.3183957 0.03651148
0.26310825 -0.30148476 -0.034088127 0.3045148 0.08204433 0.1279077 -0.25631604 -0.3266419
-0.22808138 -0.0335187 -0.21167156 0.29575795 -0.17055638 -0.047247633 -0.3407969 -0.28159928
0.1672966 -0.32311925 0.07753026 0.21929583 -0.021585591 0.21849534 -0.1356458 0.11472623
-0.181112 -0.073161654 -0.0054991343 0.0990267 0.20283695 0.065747745 0.09673665 -0.2037353
-0.09364261 0.13662961 -0.28549543 0.32696274 0.27189237 0.122075185 -0.13279091 -0.33936372
0.27655527 -0.24134117 -0.16544276 -0.13349569 0.21926118 0.22428416 -0.2557419 -0.3287565
-0.029764608 -0.22249487 0.10984079 -0.33284387 -0.04492511 -0.06350717 -0.25692913 0.3194314
-0.38318536 -0.33735305 -0.21444607 0.08677893 -0.13303913 0.29266247 -0.087722056 0.124822296
-0.14482951 0.0091222115 0.02991394 0.12081814 0.27641013 0.118508 0.009972074 -0.15268973
-0.19172658 0.23453723 0.17033206 0.13469666 -0.18061848 0.21342567 0.025788555 -0.13896373
-0.057957295 0.13470992 0.20407914 0.06766073 0.17394617 -0.10363399 0.13229667 0.04598407
0.063744344 0.08497748 -0.058744017 -0.14985101 0.20757677 0.27557534 0.25109643 0.19898233
-0.24991283 -0.21226464 0.25687236 -0.2197587 -0.27180892 0.21318045 -0.103477195 0.041910063
0.08621937 -0.12693368 0.10039823 -0.19184488 -0.29197803 -0.10535985 -0.22096846 -0.09634713
0.035216827 -0.020241233 -0.325582 -0.04429713 -0.13882531 -0.28002554 -0.15874791 -0.059644375
00000000: 5cca 92be f3f4 e93d d499 863c 71c1 74be
00000010: 7a6f b9be 27dc 6bbe 8773 8c3d 3bd7 0f3e
00000020: e987 5abe 8c9d dcbd 2497 3fbe 0830 3f3d
00000030: 22dd 8b3e 9963 013e 8010 d53c ecba 743e
00000040: 18ea 7dbd b1ad d93d c8e1 683e 3a06 5ebe
00000050: 29a2 a03d b76b 90be d3f0 503d 70e7 b4be
00000060: e216 963d 4be7 f1bd ab6a 15be 22cf a7be
00000070: d74f 7abe b974 51bd 2295 133d 2733 90be
00000080: 705d 903d 9f1a 143c 8c43 3b3e 79f0 2ebd
00000090: b125 9abe 4e9f b33e 4d4e 5fbe 9013 453e
000000a0: 1f3b 003e 2a4f 95be 8d61 de3d 77fc 2c3d
000000b0: 934d a63e c0f8 383e 0314 713e c8d9 493e
000000c0: 6ebf 733e de52 5cbe 1a71 d1bd 6e6b 063e
000000d0: fb2b a53e 6474 37be f710 a0be a970 c0bd
000000e0: d130 f4bc e205 5cbc 72c0 6f3e 487a 60be
000000f0: dfe6 b7be 3d86 523b b38f 14bc 641c 62be
00000100: 8613 58be 408e 78be 00d1 c13d dd56 62bd
00000110: 0afe 2c3e d31f 47bd 2ed4 7ebe f803 da3d
00000120: dfa9 9b3c 09a5 373d 7b96 82be e417 ab3e
00000130: 6ce5 533d 79d9 5d3d 8f01 343e 446f 863e
00000140: 9d54 b0be 85c9 d73d 160a edbd e064 22be
00000150: 084a 8dbd 46b9 723e 8909 f43c 0e00 38be
00000160: 1786 70be 2c43 6dbd 1999 2cbd 7f72 953e
00000170: cfcb 793e 72a4 963c 328b 1b3e 65ac 4cbe
00000180: 6f4c 89bd 833c 883e c1a0 a93e 5afd a93d
00000190: fece fd3c 8265 ccbd def3 13be 9aec 5cbe
000001a0: 6eff 7bbc b2b0 d0bc 33fe ca3d d7f0 9a3e
000001b0: 41f3 a53e e32c 7f3d 7a9e 65be 222a ffbb
000001c0: ffd3 42be 5c08 a3be 12d5 2c3e 6c71 c63c
000001d0: a5ad de3d 1387 2b3e b893 a9be 9d76 52bc
000001e0: 860c 293d 3816 443d 3156 1abe 5588 a8be
000001f0: 844b 9c3e 9dca 403e eb6a 3e3e ca2d 64be
00000200: 3bad 263d c828 a8be f4c0 183e bec7 063e
00000210: 90d3 9cbe 1a46 bf3c c304 a3be 108d 153d
00000220: 20b6 863e 365c 9abe fe9f 0bbd 5de9 9b3e
00000230: dc06 a83d 3cfa 023e db3b 83be 9b3d a7be
00000240: 2a8e 69be e84a 09bd 6ec0 58be 966d 973e
00000250: 55a6 2ebe bc86 41bd ee7c aebe c82d 90be
00000260: cd4f 2b3e e36f a5be 2fc8 9e3d 168f 603e
00000270: 44d4 b0bc 3ebd 5f3e bce6 0abe 96f5 ea3d
00000280: 6d75 39be c7d5 95bd 1532 b4bb 83ce ca3d
00000290: 7db4 4f3e c1a6 863d dd1d c63d fd9f 50be
000002a0: b2c7 bfbd a2e8 0b3e 752c 92be a967 a73e
000002b0: 7a35 8b3e 8e02 fa3d 57fa 07be 15c1 adbe
000002c0: a798 8d3e 2422 77be d469 29be 18b3 08be
000002d0: 0186 603e bfaa 653e 9af0 82be c652 a8be
000002e0: e8d4 f3bc b2d5 63be 35f4 e03d 836a aabe
000002f0: 6403 38bd 0c10 82bd 378c 83be 838c a33e
00000300: df30 c4be 8ab9 acbe c097 5bbe 27b9 b13d
00000310: 693b 08be dbd7 953e 9fa7 b3bd d5a2 ff3d
00000320: 304e 14be 5475 153c 140e f53c 806f f73d
00000330: a185 8d3e 53b4 f23d e961 233c b25a 1cbe
00000340: f953 44be 872a 703e 876b 2e3e eced 093e
00000350: 0df4 38be 428c 5a3e 8542 d33c 824c 0ebe
00000360: a164 6dbd 66f1 093e 1ffa 503e b591 8a3d
00000370: f21e 323e 0f3e d4bd c778 073e cb59 3c3d
00000380: 658c 823d ac08 ae3d 919d 70bd 8b72 19be
00000390: 018f 543e 3618 8d3e b68f 803e 06c2 4b3e
000003a0: 26e9 7fbe e75b 59be c684 833e 6d08 61be
000003b0: 8a2a 8bbe fa4b 5a3e daeb d3bd e3a9 2b3d
000003c0: c893 b03d e7fa 01be 969d cd3d fc72 44be
000003d0: 257e 95be e8c6 d7bd 8e45 62be a551 c5bd
000003e0: 853f 103d f1d0 a5bc afb2 a6be e870 35bd
000003f0: 3928 0ebe 825f 8fbe d08e 22be a94d 74bd

ntm.controller.lstm.weight_hh_l0 f4 [400, 100]
-0.2865598 0.048803974 -0.22660962 0.31228608 0.23366632 0.19048259 -0.23977636 -0.076879635
-0.22732604 0.225726 -0.2679487 -0.15526201 0.2840647 -0.19643414 0.28092316 -0.010314074
-0.05326131 -0.100758 -0.28595963 -0.18417008 -0.11396285 -0.17033257 -0.18799278 -0.07018774
0.35840923 0.12481748 0.25633967 0.0039906953 0.31655115 -0.10333621 -0.082601115 0.27441657
0.09972194 -0.08332235 0.15028052 0.1925943 0.14862055 -0.3271622 0.07886964 -0.32884556
0.3307568 0.3046432 -0.21356167 0.32341596 0.05313622 0.3656371 -0.28642583 -0.28567025
0.0907951 0.3147778 0.09908859 0.16135019 -0.012667304 -0.040738463 -0.14120825 -0.20216867
0.14657947 -0.049940217 -0.12254459 0.15767512 -0.10231875 -0.18081304 -0.24548315 0.30439752
0.11958562 -0.11434648 -0.20063943 0.05534767 0.31985742 -0.42166612 0.06797676 0.05551023
0.21269868 -0.13971694 0.22805576 0.025890304 0.09051348 0.33894277 -0.16947415 0.22070028
-0.16944304 -0.38075235 0.36250412 0.24697506 0.26994306 -0.23251918 -0.30403808 -0.038793456
0.017668176 -0.16314693 0.16884819 0.20348068 -0.3231395 0.13627844 0.15000634 0.1049619
0.035939258 0.08445317 0.09796033 -0.32206643 0.31447762 -0.17519538 -0.19577415 -0.14470354
-0.13322555 0.16670525 -0.03802952 0.018848583 0.116822824 -0.16713795 0.106127694 0.15489429
-0.32736954 0.1668178 -0.20795089 0.20097317 -0.18224932 -0.1824532 -0.08191079 -0.3114716
0.0007620526 -0.10425565 0.07530853 0.036104687 0.2721843 -0.35771492 -0.34716588 -0.21577223
-0.09012055 0.22645815 0.3068119 0.17420678 0.41854233 -0.37322307 0.3364479 0.18444142
0.013307009 -0.0013799738 -0.23652273 -0.05494592 0.14487502 -0.23901226 0.33047822 0.2353056
-0.14862122 0.10905139 -0.14200848 -0.11210327 0.06590672 -0.1724637 0.084911585 -0.019133791
0.13968691 0.060649343 -0.13163386 -0.25160173 0.20819366 0.18146385 -0.19896974 0.16683732
0.17142119 0.103855185 -0.20684823 -0.22375794 0.32876828 0.17238988 -0.17721848 0.029099915
0.4434017 -0.15409891 -0.29315028 0.25742418 -0.20510422 -0.14973064 -0.3557032 -0.2574975
0.037936866 0.1854375 0.084896736 -0.05989294 -0.046603218 0.25830758 0.07862086 0.19277476
0.0365114 0.29808939 0.06881173 -0.17315309 0.10600803 0.24207884 -0.10755934 0.22984149
0.025752211 0.062413286 -0.012182672 0.19572999 0.019740203 0.3384206 0.2094289 0.33446452
-0.11290211 -0.00729483 0.2975136 -0.266904 0.062222496 -0.07291307 0.18756089 0.24764779
0.017618826 0.16423605 -0.0069972365 -0.26328078 -0.18570085 -0.21620136 -0.13758926 0.29918253
0.113853104 0.27125084 0.25382304 -0.3216336 -0.19393566 0.3051751 -0.11595006 -0.35779992
-0.34524184 -0.23006621 0.18940762 -0.19024706 0.28822216 0.05083387 -0.29287714 -0.2513915
0.27216718 -0.0943694 -0.038981434 -0.17767574 -0.20251009 0.34092638 0.29619315 0.2650182
0.23910594 0.24797893 0.076485954 0.029841442 -0.17834067 0.24512039 0.3799242 0.038131647
0.12633076 -0.20926215 -0.06820562 -0.09285724 -0.22653037 0.18496855 -0.06591041 0.04922565
00000000: f7b7 92be ade6 473d 5a0c 68be f6e3 9f3e
00000010: 3946 6f3e de0d 433e ef87 75be 1273 9dbd
00000020: 28c8 68be b724 673e 9230 89be 01fd 1ebe
00000030: ee70 913e 0826 49be 29d5 8f3e 5dfc 28bc
00000040: 8828 5abd 365a cebd 4d69 92be 1597 3cbe
00000050: 5b65 e9bd a96b 2ebe 2e81 40be 97be 8fbd
00000060: 6a81 b73e 4fa0 ff3d f43e 833e 61c4 823b
00000070: fe12 a23e efa1 d3bd c62a a9bd 5480 8c3e
00000080: 043b cc3d e9a4 aabd 23e3 193e 7137 453e
00000090: fc2f 183e ce81 a7be 6886 a13d 725e a8be
000000a0: f558 a93e 32fa 9b3e e9af 5abe c796 a53e
000000b0: 5da5 593d c934 bb3e 68a6 92be 5f43 92be
000000c0: c8f2 b93d 8e2a a13e f5ee ca3d fc38 253e
000000d0: 868a 4fbc 60dd 26bd e598 10be 4e05 4fbe
000000e0: ee18 163e 1d8e 4cbd a8f8 fabd 9675 213e
000000f0: 7e8c d1bd 0e27 39be ef5f 7bbe fed9 9b3e
00000100: 4ee9 f43d 7d2e eabd 6c74 4dbe 3db4 623d
00000110: 5ac4 a33e 9fe4 d7be 6637 8b3d b25e 633d
00000120: afcd 593e f511 0fbe 7387 693e e717 d43c
00000130: 225f b93d e889 ad3e a28a 2dbe 41ff 613e
00000140: 7a82 2dbe f9f1 c2be 249a b93e 08e7 7c3e
00000150: fa35 8a3e 8219 6ebe e1aa 9bbe e3e5 1ebd
00000160: dabc 903c fd0f 27be 8ae6 2c3e 3d5d 503e
00000170: 8a72 a5be 938c 0b3e 439b 193e 44f6 d63d
00000180: 0b35 133d c9f5 ac3d 6d9f c83d e4e5 a4be
00000190: 3603 a13e 6b66 33be 0579 48be 2a2d 14be
000001a0: 476c 08be c8b4 2a3e d8c4 1bbd 5868 9a3c
000001b0: ce40 ef3d 3626 2bbe 7a59 d93d 9c9c 1e3e
000001c0: fb9c a7be 49d2 2a3e 14f1 54be e9cb 4d3e
000001d0: 919f 3abe 03d5 3abe d8c0 a7bd 3579 9fbe
000001e0: 7cc4 473a fc83 d5bd 5c3b 9a3d 82e2 133d
000001f0: be5b 8b3e 6926 b7be babf b1be 65f3 5cbe
00000200: 1f91 b8bd a5e4 673e 7316 9d3e 4363 323e
00000210: 2e4b d63e 1817 bfbe e642 ac3e 36de 3c3e
00000220: a405 5a3c 3de0 b4ba 0433 72be f90e 61bd
00000230: 1e5a 143e a1bf 74be 7134 a93e f4f3 703e
00000240: 2930 18be 5656 df3d ac6a 11be 6696 e5bd
00000250: 1afa 863d 539a 30be 20e6 ad3d 78be 9cbc
00000260: 160a 0f3e 726b 783d 07cb 06be f1d1 80be
00000270: b830 553e a9d1 393e b9be 4bbe 67d7 2a3e
00000280: 0989 2f3e 07b2 d43d 06d0 53be cd20 65be
00000290: 5154 a83e f986 303e c378 35be f262 ee3c
000002a0: 8c05 e33e 1bcc 1dbe cb17 96be 1acd 833e
000002b0: d706 52be fd52 19be bb1e b6be b6d6 83be
000002c0: b063 1b3d 54e3 3d3e 57de ad3d 4d52 75bd
000002d0: 04e3 3ebd e440 843e f903 a13d bf66 453e
000002e0: fa8c 153d 2c9f 983e 2aed 8c3d 0b4f 31be
000002f0: bd1a d93d 84e3 773e 1248 dcbd 915b 6b3e
00000300: 4df6 d23c 13a5 7f3d d499 47bc 716d 483e
00000310: 35b6 a13c 7745 ad3e 8874 563e ef3e ab3e
00000320: 3939 e7bd 7809 efbb b453 983e a4a7 88be
00000330: 04dd 7e3d 7353 95bd f60f 403e 6297 7d3e
00000340: 5b55 903c 7f2d 283e 1349 e5bb bdcc 86be
00000350: 5d28 3ebe e463 5dbe 33e4 0cbe 742e 993e
00000360: d12b e93d 64e1 8a3e 18f5 813e 29ad a4be
00000370: 1297 46be e93f 9c3e 3a77 edbd 8d31 b7be
00000380: 8ac3 b0be 7a96 6bbe 12f4 413e 20d0 42be
00000390: db91 933e 2d37 503d fef3 95be 63b6 80be
000003a0: 7f59 8b3e be44 c1bd ffaa 1fbd a1f0 35be
000003b0: ce5e 4fbe e78d ae3e a1a6 973e 77b0 873e
000003c0: 30d8 743e 30ee 7d3e aba4 9c3d 0a76 f43c
000003d0: f09e 36be d700 7b3e 6d85 c23e ee2f 1c3d
000003e0: da5c 013e d148 56be 63af 8bbd f02b bebd
000003f0: 94f7 67be 6568 3d3e 09fc 86bd d6a0 493d

ntm.controller.lstm.bias_ih_l0 f4 [400]
0.012910719 -0.031728342 -0.01631757 -0.0023365214 -0.016518679 -0.036621384 -0.0122362925 -0.06411151
-0.01944795 -0.023285467 -0.055553377 -0.10199669 0.019174721 -0.036061883 -0.09831853 0.04641756
0.043294102 -0.0778713 -0.07139554 -0.09693657 -0.05286019 -0.03725293 -0.045829933 -0.0027623216
0.0028027236 -0.0656835 -0.015598034 -0.028509213 0.009445616 -0.06551539 0.0036612365 -0.013429929
-0.023997836 -0.0226353 -0.020388952 -0.017222209 -0.07517796 -0.04500096 -0.04586143 -0.01906247
0.01791845 -0.030921264 -0.04319321 -0.07367242 0.0056776735 -0.0040830337 -0.033546124 -0.010974109
-0.042227536 -0.0029225603 -0.06293476 -0.04090817 -0.032485906 -0.04247193 -0.047731016 -0.046971373
-0.0069459607 -0.028932251 -0.046749685 0.010494277 -0.017062511 0.004748304 -0.009621025 -0.033368308
-0.011341239 -0.02662369 -0.047336873 -0.03487724 -0.044839002 -0.07623853 -0.031715002 -0.017101027
-0.052301355 -0.05018273 -0.083575256 -0.03233489 -0.10426615 -0.029000377 -0.015914738 -0.034517393
-0.0332268 -0.050145537 -0.082145125 -0.026247254 -0.018154267 -0.07061211 -0.0014717922 0.006715243
-0.03294167 0.03990845 0.022383329 -0.024054421 0.0049030827 0.008152582 -0.01545514 -0.068206884
-0.00494591 -0.033500906 -0.06876116 0.03851295 0.019598784 0.04903433 0.013718894 -0.0010332587
-0.010147423 0.022875836 0.013945523 -0.008709426 0.052587006 -0.023831924 -0.020800041 -0.005993086
-0.029707571 -0.028421339 -0.03077661 0.07362591 0.0100302 -0.013718997 0.038194247 -0.019105507
-0.033777654 -0.0398314 0.08572077 0.0021057124 0.08786408 0.0077687176 0.02202307 -0.007851539
-0.000641774 -0.049051244 0.058349226 0.008083839 -0.02564642 -0.006518665 -0.008420538 -0.04353444
-0.056445543 -0.032278318 0.037310436 -0.028907048 0.0316616 0.06552735 -0.010041285 -0.06568928
0.06284601 0.028142974 -0.033321247 0.017261384 -0.0064048017 0.033144135 -0.0014321476 -0.009383766
0.028355444 -0.035781685 0.049268607 -0.001598298 -0.007836315 -0.01475471 -0.01415729 -0.01069773
0.016454669 0.033223744 0.0030891583 0.048670866 0.06632438 0.04903678 0.027339473 0.06439823
0.05969474 -0.048071153 -0.012586086 0.021625683 -0.010440653 0.038500577 -0.08846491 -0.015808346
-0.06503351 -0.023053546 -0.024646953 0.0469939 -0.025725747 -0.043665368 -0.07806415 -0.038839452
-0.0069383443 -0.0585436 0.022361318 0.039519195 0.004791942 0.06187543 0.050162796 -0.0035883132
-0.0066262954 0.007820105 -0.016646653 0.018359393 -0.027114796 -0.010490244 0.05147307 0.040086344
0.05386562 0.0028476904 0.017874239 0.022199735 -0.04813565 -0.010162094 -0.008845655 -0.007002137
-0.0037675651 -0.053455655 0.029317018 0.0035122333 0.020835672 0.0024571582 0.014249166 -0.034677617
-0.0029393388 -0.019962128 0.0020607507 -0.02891419 0.062347922 -0.04623875 0.012441181 -0.014353612
0.005707364 -0.006035998 0.028226886 0.018390384 -0.06777705 -0.045963053 0.0063520363 0.025498746
-0.003751252 -0.008593214 0.028436055 -0.043887205 0.010151747 -0.027169013 -0.037964087 -0.0632345
-0.02568825 -0.015681185 -0.039604582 -0.003925664 -0.011030232 0.043528643 0.0617638 -0.029354624
0.043685168 0.0031358502 -0.046988964 -0.004594722 0.027448243 0.0014724255 -0.010626762 0.019719679
00000000: 7b87 533c 94f5 01bd 6dac 85bc 5320 19bb
00000010: 2e52 87bc 4e00 16bd bb7a 48bc e54c 83bd
00000020: 4f51 9fbc 2ac1 bebc f08b 63bd a4e3 d0bd
00000030: 4e14 9d3c a0b5 13bd 3a5b c9bd 5720 3e3d
00000040: 2855 313d fd7a 9fbd d337 92bd ae86 c6bd
00000050: ed83 58bd 8796 18bd 2bb8 3bbd 1108 35bb
00000060: e6ad 373b 1285 86bd e58e 7fbc 278c e9bc
00000070: c9c1 1a3c ef2c 86bd 5bf1 6f3b 3409 5cbc
00000080: 1c97 c4bc aa6d b9bc bb06 a7bc 9715 8dbc
00000090: e7f6 99bd ed52 38bd 32d9 3bbd e628 9cbc
000000a0: b7c9 923c 974e fdbc 5deb 30bd 91e1 96bd
000000b0: c70b ba3b f8ca 85bb a967 09bd c0cc 33bc
000000c0: c8f6 2cbd 6d88 3fbb f0e3 80bd 538f 27bd
000000d0: f10f 05bd 0cf7 2dbd 9981 43bd 0e65 40bd
000000e0: f19a e3bb 5403 edbc 997c 3fbd 30f0 2b3c
000000f0: aec6 8bbc a997 9b3b 81a1 1dbc 35ad 08bd
00000100: 9bd0 39bc ed19 dabc 4fe4 41bd 70db 0ebd
00000110: 1aa9 37bd f222 9cbd 97e7 01bd 7417 8cbc
00000120: f239 56bd 688c 4dbd 8129 abbd 9771 04bd
00000130: 7e89 d5bd 3392 edbc a05f 82bc 1c62 0dbd
00000140: d318 08bd 6865 4dbd b43b a8bd 7b04 d7bc
00000150: 42b8 94bc 159d 90bd 27e9 c0ba 8b0b dc3b
00000160: d8ed 06bd 0b77 233d 3e5d b73c c70d c5bc
00000170: 0aaa a03b 6892 053c 8e37 7dbc 0db0 8bbd
00000180: 4d11 a2bb 3f38 09bd a7d2 8cbd c1bf 1d3d
00000190: a18d a03c 39d8 483d 36c5 603c 696e 87ba
000001a0: 6041 26bc 1b66 bb3c c37b 643c fbb1 0ebc
000001b0: 7965 573d 2b3b c3bc d964 aabc a661 c4bb
000001c0: 4b5d f3bc ded3 e8bc 3b1f fcbc 2ec9 963d
000001d0: b555 243c a5c5 60bc 9271 1c3d 2783 9cbc
000001e0: 705a 0abd 4026 23bd 5f8e af3d feff 093b
000001f0: 15f2 b33d ba90 fe3b ba69 b43c bea3 00bc
00000200: b93c 28ba f5e9 48bd 99ff 6e3d 1472 043c
00000210: 7118 d2bc 869a d5bb 4cf6 09bc 2b51 32bd
00000220: 7133 67bd 4536 04bd d4d2 183d 79ce ecbc
00000230: 98af 013d 3433 863d 3484 24bc 1a88 86bd
00000240: 69b5 803d 188c e63c dc7b 08bd bf67 8d3c
00000250: 5fdf d1bb 25c2 073d e6b6 bbba 5ebe 19bc
00000260: ad49 e83c d18f 12bd e1cd 493d fb7d d1ba
00000270: e363 00bc bdbd 71bc faf3 67bc 8845 2fbc
00000280: f1cb 863c 9f15 083d 7a73 4a3b 1a5b 473d
00000290: 14d5 873d cada 483d 08f7 df3c 38e3 833d
000002a0: 7982 743d 42e6 44bd df35 4ebc 5828 b13c
000002b0: 460f 2bbc c8b2 1d3d 172d b5bd 8180 81bc
000002c0: 4a30 85bd cada bcbc 68e8 c9bc ad7c 403d
000002d0: cdbe d2bc 75da 32bd 19e0 9fbd 1e16 1fbd
000002e0: 0d5b e3bb 6acb 6fbd 152f b73c e1de 213d
000002f0: b905 9d3b 1771 7d3d 8177 4d3d e829 6bbb
00000300: 6521 d9bb e61f 003c 905e 88bc 7066 963c
00000310: d91f debc 46df 2bbc 6dd5 523d 9431 243d
00000320: 32a2 5c3d 51a0 3a3b ff6c 923c 38dc b53c
00000330: e329 45bd e97e 26bc 5eed 10bc 2f72 e5bb
00000340: 41e9 76bb 51f4 5abd 3e2a f03c 7f2d 663b
00000350: 92af aa3c 4608 213b 5575 693c 1e0a 0ebd
00000360: eca1 40bb 9e87 a3bc a90d 073b 74dd ecbc
00000370: 8960 7f3d d864 3dbd 18d6 4b3c 6a2b 6bbc
00000380: d704 bb3b 9fc9 c5bb 123c e73c 6ea7 963c
00000390: b2ce 8abd c143 3cbd be24 d03b bfe2 d03c
000003a0: 91d7 75bb 8dca 0cbc bbf2 e83c 12c3 33bd
000003b0: 8353 263c 8d91 debc 3b80 1bbd 1781 81bd
000003c0: 2a70 d2bc d475 80bc 6a38 22bd dba2 80bb
000003d0: 25b8 34bc 174b 323d 0afc 7c3d 1c79 f0bc
000003e0: 38ef 323d d682 4d3b 8077 40bd 528f 96bb
000003f0: 23db e03c 67fe c03a df1b 2ebc 2a8b a13c

ntm.controller.lstm.bias_hh_l0 f4 [400]
0.012910719 -0.031728342 -0.01631757 -0.0023365214 -0.016518679 -0.036621384 -0.0122362925 -0.06411151
-0.01944795 -0.023285467 -0.055553377 -0.10199669 0.019174721 -0.036061883 -0.09831853 0.04641756
0.043294102 -0.0778713 -0.07139554 -0.09693657 -0.05286019 -0.03725293 -0.045829933 -0.0027623216
0.0028027236 -0.0656835 -0.015598034 -0.028509213 0.009445616 -0.06551539 0.0036612365 -0.013429929
-0.023997836 -0.0226353 -0.020388952 -0.017222209 -0.07517796 -0.04500096 -0.04586143 -0.01906247
0.01791845 -0.030921264 -0.04319321 -0.07367242 0.0056776735 -0.0040830337 -0.033546124 -0.010974109
-0.042227536 -0.0029225603 -0.06293476 -0.04090817 -0.032485906 -0.04247193 -0.047731016 -0.046971373
-0.0069459607 -0.028932251 -0.046749685 0.010494277 -0.017062511 0.004748304 -0.009621025 -0.033368308
-0.011341239 -0.02662369 -0.047336873 -0.03487724 -0.044839002 -0.07623853 -0.031715002 -0.017101027
-0.052301355 -0.05018273 -0.083575256 -0.03233489 -0.10426615 -0.029000377 -0.015914738 -0.034517393
-0.0332268 -0.050145537 -0.082145125 -0.026247254 -0.018154267 -0.07061211 -0.0014717922 0.006715243
-0.03294167 0.03990845 0.022383329 -0.024054421 0.0049030827 0.008152582 -0.01545514 -0.068206884
-0.00494591 -0.033500906 -0.06876116 0.03851295 0.019598784 0.04903433 0.013718894 -0.0010332587
-0.010147423 0.022875836 0.013945523 -0.008709426 0.052587006 -0.023831924 -0.020800041 -0.005993086
-0.029707571 -0.028421339 -0.03077661 0.07362591 0.0100302 -0.013718997 0.038194247 -0.019105507
-0.033777654 -0.0398314 0.08572077 0.0021057124 0.08786408 0.0077687176 0.02202307 -0.007851539
-0.000641774 -0.049051244 0.058349226 0.008083839 -0.02564642 -0.006518665 -0.008420538 -0.04353444
-0.056445543 -0.032278318 0.037310436 -0.028907048 0.0316616 0.06552735 -0.010041285 -0.06568928
0.06284601 0.028142974 -0.033321247 0.017261384 -0.0064048017 0.033144135 -0.0014321476 -0.009383766
0.028355444 -0.035781685 0.049268607 -0.001598298 -0.007836315 -0.01475471 -0.01415729 -0.01069773
0.016454669 0.033223744 0.0030891583 0.048670866 0.06632438 0.04903678 0.027339473 0.06439823
0.05969474 -0.048071153 -0.012586086 0.021625683 -0.010440653 0.038500577 -0.08846491 -0.015808346
-0.06503351 -0.023053546 -0.024646953 0.0469939 -0.025725747 -0.043665368 -0.07806415 -0.038839452
-0.0069383443 -0.0585436 0.022361318 0.039519195 0.004791942 0.06187543 0.050162796 -0.0035883132
-0.0066262954 0.007820105 -0.016646653 0.018359393 -0.027114796 -0.010490244 0.05147307 0.040086344
0.05386562 0.0028476904 0.017874239 0.022199735 -0.04813565 -0.010162094 -0.008845655 -0.007002137
-0.0037675651 -0.053455655 0.029317018 0.0035122333 0.020835672 0.0024571582 0.014249166 -0.034677617
-0.0029393388 -0.019962128 0.0020607507 -0.02891419 0.062347922 -0.04623875 0.012441181 -0.014353612
0.005707364 -0.006035998 0.028226886 0.018390384 -0.06777705 -0.045963053 0.0063520363 0.025498746
-0.003751252 -0.008593214 0.028436055 -0.043887205 0.010151747 -0.027169013 -0.037964087 -0.0632345
-0.02568825 -0.015681185 -0.039604582 -0.003925664 -0.011030232 0.043528643 0.0617638 -0.029354624
0.043685168 0.0031358502 -0.046988964 -0.004594722 0.027448243 0.0014724255 -0.010626762 0.019719679
00000000: 7b87 533c 94f5 01bd 6dac 85bc 5320 19bb
00000010: 2e52 87bc 4e00 16bd bb7a 48bc e54c 83bd
00000020: 4f51 9fbc 2ac1 bebc f08b 63bd a4e3 d0bd
00000030: 4e14 9d3c a0b5 13bd 3a5b c9bd 5720 3e3d
00000040: 2855 313d fd7a 9fbd d337 92bd ae86 c6bd
00000050: ed83 58bd 8796 18bd 2bb8 3bbd 1108 35bb
00000060: e6ad 373b 1285 86bd e58e 7fbc 278c e9bc
00000070: c9c1 1a3c ef2c 86bd 5bf1 6f3b 3409 5cbc
00000080: 1c97 c4bc aa6d b9bc bb06 a7bc 9715 8dbc
00000090: e7f6 99bd ed52 38bd 32d9 3bbd e628 9cbc
000000a0: b7c9 923c 974e fdbc 5deb 30bd 91e1 96bd
000000b0: c70b ba3b f8ca 85bb a967 09bd c0cc 33bc
000000c0: c8f6 2cbd 6d88 3fbb f0e3 80bd 538f 27bd
000000d0: f10f 05bd 0cf7 2dbd 9981 43bd 0e65 40bd
000000e0: f19a e3bb 5403 edbc 997c 3fbd 30f0 2b3c
000000f0: aec6 8bbc a997 9b3b 81a1 1dbc 35ad 08bd
00000100: 9bd0 39bc ed19 dabc 4fe4 41bd 70db 0ebd
00000110: 1aa9 37bd f222 9cbd 97e7 01bd 7417 8cbc
00000120: f239 56bd 688c 4dbd 8129 abbd 9771 04bd
00000130: 7e89 d5bd 3392 edbc a05f 82bc 1c62 0dbd
00000140: d318 08bd 6865 4dbd b43b a8bd 7b04 d7bc
00000150: 42b8 94bc 159d 90bd 27e9 c0ba 8b0b dc3b
00000160: d8ed 06bd 0b77 233d 3e5d b73c c70d c5bc
00000170: 0aaa a03b 6892 053c 8e37 7dbc 0db0 8bbd
00000180: 4d11 a2bb 3f38 09bd a7d2 8cbd c1bf 1d3d
00000190: a18d a03c 39d8 483d 36c5 603c 696e 87ba
000001a0: 6041 26bc 1b66 bb3c c37b 643c fbb1 0ebc
000001b0: 7965 573d 2b3b c3bc d964 aabc a661 c4bb
000001c0: 4b5d f3bc ded3 e8bc 3b1f fcbc 2ec9 963d
000001d0: b555 243c a5c5 60bc 9271 1c3d 2783 9cbc
000001e0: 705a 0abd 4026 23bd 5f8e af3d feff 093b
000001f0: 15f2 b33d ba90 fe3b ba69 b43c bea3 00bc
00000200: b93c 28ba f5e9 48bd 99ff 6e3d 1472 043c
00000210: 7118 d2bc 869a d5bb 4cf6 09bc 2b51 32bd
00000220: 7133 67bd 4536 04bd d4d2 183d 79ce ecbc
00000230: 98af 013d 3433 863d 3484 24bc 1a88 86bd
00000240: 69b5 803d 188c e63c dc7b 08bd bf67 8d3c
00000250: 5fdf d1bb 25c2 073d e6b6 bbba 5ebe 19bc
00000260: ad49 e83c d18f 12bd e1cd 493d fb7d d1ba
00000270: e363 00bc bdbd 71bc faf3 67bc 8845 2fbc
00000280: f1cb 863c 9f15 083d 7a73 4a3b 1a5b 473d
00000290: 14d5 873d cada 483d 08f7 df3c 38e3 833d
000002a0: 7982 743d 42e6 44bd df35 4ebc 5828 b13c
000002b0: 460f 2bbc c8b2 1d3d 172d b5bd 8180 81bc
000002c0: 4a30 85bd cada bcbc 68e8 c9bc ad7c 403d
000002d0: cdbe d2bc 75da 32bd 19e0 9fbd 1e16 1fbd
000002e0: 0d5b e3bb 6acb 6fbd 152f b73c e1de 213d
000002f0: b905 9d3b 1771 7d3d 8177 4d3d e829 6bbb
00000300: 6521 d9bb e61f 003c 905e 88bc 7066 963c
00000310: d91f debc 46df 2bbc 6dd5 523d 9431 243d
00000320: 32a2 5c3d 51a0 3a3b ff6c 923c 38dc b53c
00000330: e329 45bd e97e 26bc 5eed 10bc 2f72 e5bb
00000340: 41e9 76bb 51f4 5abd 3e2a f03c 7f2d 663b
00000350: 92af aa3c 4608 213b 5575 693c 1e0a 0ebd
00000360: eca1 40bb 9e87 a3bc a90d 073b 74dd ecbc
00000370: 8960 7f3d d864 3dbd 18d6 4b3c 6a2b 6bbc
00000380: d704 bb3b 9fc9 c5bb 123c e73c 6ea7 963c
00000390: b2ce 8abd c143 3cbd be24 d03b bfe2 d03c
000003a0: 91d7 75bb 8dca 0cbc bbf2 e83c 12c3 33bd
000003b0: 8353 263c 8d91 debc 3b80 1bbd 1781 81bd
000003c0: 2a70 d2bc d475 80bc 6a38 22bd dba2 80bb
000003d0: 25b8 34bc 174b 323d 0afc 7c3d 1c79 f0bc
000003e0: 38ef 323d d682 4d3b 8077 40bd 528f 96bb
000003f0: 23db e03c 67fe c03a df1b 2ebc 2a8b a13c

ntm.controller.lstm.weight_ih_l1 f4 [400, 100]
-0.2553604 0.22026479 -0.17566484 -0.23325168 0.026856888 0.11904929 -0.03730704 -0.25642136
-0.035423752 -0.29100466 0.2136441 0.30984384 0.16765106 -0.11477065 0.013181443 -0.04119244
-0.059292283 0.0057051457 0.02309355 -0.08767634 0.018278386 -0.18464829 -0.10426219 -0.28097558
-0.009714758 -0.20891778 -0.17830692 -0.09327382 0.106728815 0.35413924 -0.1543291 -0.29799375
0.31922847 0.22678342 0.16278 -0.3058152 0.031017313 -0.16512659 0.36666903 0.08784401
-0.21165898 0.28919864 -0.34362546 -0.19704214 -0.121159226 -0.21677403 0.08099885 -0.15558974
-0.011576897 0.009630635 0.23777728 -0.3272407 0.038263854 -0.14421539 -0.1747078 0.35201374
0.29689297 -0.003176594 -0.09390466 -0.031442918 0.03714532 -0.2266906 0.08339617 -0.26396543
0.15184098 0.039376747 -0.35468882 0.25906283 -0.05621691 0.2190729 0.1646082 0.24417812
-0.28766394 0.15906909 -0.018006938 -0.029981244 0.17377235 0.25426933 0.24386218 0.022216642
0.32597005 -0.29592037 0.036971416 -0.16632864 0.2273711 -0.1451195 0.106458 -0.08668875
0.3341629 0.20836967 -0.17407297 0.4108841 0.2815734 0.25385892 0.29584444 -0.09532731
0.116628624 0.220682 0.21371119 0.28110087 -0.27995917 0.30288336 -0.12880091 0.16659978
-0.11594055 0.14597341 0.36059794 -0.24981664 0.31468847 0.27674583 0.03823394 -0.0021478727
0.2600859 -0.07097333 0.17704996 0.24630275 -0.07833774 0.32800886 -0.027443036 -0.024664283
0.28948933 -0.20960861 0.29882398 -0.2744615 0.14388436 0.099710725 -0.06328549 0.20565912
-0.28342575 0.040517054 -0.30501202 -0.31207696 -0.29255247 -0.05143483 -0.3108873 -0.19599667
-0.3013323 -0.008273925 -0.212057 0.18026237 -0.14011362 0.028636865 -0.22959995 0.2817923
0.0097247325 0.15550241 -0.24295668 -0.014648625 -0.093748525 0.13413487 -0.16999689 0.12227441
0.23352186 0.28240693 -0.2734793 0.08273767 0.29122996 0.21893844 -0.16216493 0.12179971
-0.06598745 0.05514649 -0.19399522 0.08934846 -0.14068004 -0.2790289 -0.36096007 0.17416324
-0.27142745 0.19360715 -0.0744983 0.21855143 0.09724956 -0.2994576 -0.35487056 0.32078272
0.23525952 -0.3106931 -0.2528945 0.21761388 -0.11220876 0.08379594 0.3496013 -0.040702906
0.065044016 0.30461928 -0.24167098 -0.0015242879 -0.2838669 -0.3027634 -0.034481406 -0.18584542
-0.0046657976 0.26182634 -0.011630512 -0.19177856 -0.16296649 -0.37291673 -0.036600478 0.026102113
-0.22245029 -0.24220553 0.0214812 0.030878594 -0.35247993 0.2573637 -0.17263462 -0.05903836
-0.16054876 0.1967511 -0.23495452 0.24302673 0.16999088 0.025634557 -0.33613726 -0.2610753
0.34766105 0.03297825 0.24207185 -0.35506088 0.08586483 -0.056765135 0.17340657 0.078117505
0.1748089 0.25319555 -0.30643445 0.25530845 0.026333438 0.0046762275 -0.3059383 -0.2879061
-0.10334271 0.36670724 -0.13909048 0.24224046 0.058835264 -0.1948545 0.34475672 0.12895295
-0.32694054 -0.2809987 0.23843992 -0.24043976 -0.2177377 0.009973428 -0.254091 0.34155917
0.20322406 0.20996137 -0.3266864 0.21623103 -0.24613574 -0.06022971 -0.04419142 -0.35889763
00000000: 99be 82be 188d 613e 7ce1 33be 87d9 6ebe
00000010: fa02 dc3c 1dd0 f33d 44cf 18bd a949 83be
00000020: 7f18 11bd 90fe 94be 85c5 5a3e daa3 9e3e
00000030: b8ac 2b3e e00c ebbd fbf6 573c 67b9 28bd
00000040: 77dc 72bd 3bf2 ba3b af2e bd3c a78f b3bd
00000050: 8ebc 953c 7114 3dbe 6a87 d5bd 08dc 8fbe
00000060: a62a 1fbc 8bee 55be 1796 36be 5806 bfbd
00000070: a394 da3d bd51 b53e 7308 1ebe a392 98be
00000080: ea71 a33e ea39 683e cdaf 263e cf93 9cbe
00000090: 0518 fe3c f216 29be 0bbc bb3e 8fe7 b33d
000000a0: 22bd 58be d811 943e adef afbe 6ac5 49be
000000b0: 5422 f8bd 03fa 5dbe bae2 a53d eb52 1fbe
000000c0: 07ad 3dbc d0c9 1d3c e37b 733e 188c a7be
000000d0: 8fba 1c3d 33ad 13be 9ae6 32be 253b b43e
000000e0: 5b02 983e 672e 50bb 1651 c0bd 4aca 00bd
000000f0: b125 183d 9521 68be 9ccb aa3d 7a26 87be
00000100: 347c 1b3e 8349 213d c699 b5be e2a3 843e
00000110: b443 66bd a554 603e 0d8f 283e d409 7a3e
00000120: b048 93be 02e3 223e 4983 93bc 3a9b f5bc
00000130: 61f1 313e 972f 823e 02b7 793e adff b53c
00000140: 8ce5 a63e e082 97be 576f 173d 0e52 2abe
00000150: f8d3 683e 359a 14be a706 da3d df89 b1bd
00000160: 6617 ab3e dc5e 553e 2f40 32be 675f d23e
00000170: 642a 903e ccf9 813e ec78 973e f73a c3bd
00000180: fdda ee3d 76fa 613e 1bd7 5a3e 74ec 8f3e
00000190: cf56 8fbe 8713 9b3e 63e4 03be 2299 2a3e
000001a0: 3d72 edbd 0e7a 153e 4ba0 b83e efcf 7fbe
000001b0: d91e a13e a1b1 8d3e 319b 1c3d 53c3 0cbb
000001c0: fb29 853e 775a 91bd 964c 353e ca36 7c3e
000001d0: 896f a0bd c7f0 a73e 38d0 e0bc c00c cabc
000001e0: f237 943e a4a3 56be 75ff 983e 3886 8cbe
000001f0: 6c56 133e 2335 cc3d d39b 81bd 4e98 523e
00000200: 2e1d 91be 36f5 253d 892a 9cbe 8dc8 9fbe
00000210: 70c9 95be 54ad 52bd 9f2c 9fbe 5ab3 48be
00000220: 3a48 9abe 5b8f 07bc 7825 59be b396 383e
00000230: f279 0fbe dc97 ea3c 401c 6bbe 1547 903e
00000240: 7c54 1f3c 063c 1f3e a3c9 78be c900 70bc
00000250: 3aff bfbd a75a 093e aa13 2ebe 026b fa3d
00000260: 5b20 6f3e a497 903e 7b05 8cbe 5e72 a93d
00000270: 181c 953e 6631 603e 900e 26be 2072 f93d
00000280: 6e24 87bd 49e1 613d afa6 46be 53fc b63d
00000290: 6e0e 10be e0dc 8ebe c2cf b8be d957 323e
000002a0: 8af8 8abe f440 463e 9192 98bd f2cb 5f3e
000002b0: c72a c73d 8252 99be 98b1 b5be a23d a43e
000002c0: dfe7 703e 2a13 9fbe 637b 81be 2cd6 5e3e
000002d0: b5cd e5bd 359d ab3d f1fe b23e 17b8 26bd
000002e0: cc35 853d 0ff7 9b3e 9978 77be 9dca c7ba
000002f0: 0157 91be ce03 9bbe 603c 0dbd 434e 3ebe
00000300: 8ce3 98bb 1a0e 863e e78d 3ebc 9961 44be
00000310: b0e0 26be f1ee bebe 62ea 15bd 19d4 d53c
00000320: 02ca 63be ba04 78be 57f9 af3c 1bf5 fc3c
00000330: 4078 b4be 2dc5 833e 21c7 30be 35d2 71bd
00000340: e566 24be 1f79 493e eb97 70be 00dc 783e
00000350: 1712 2e3e 90ff d13c 2f1a acbe a9ab 85be
00000360: a100 b23e 3414 073d afe1 773e 8aca b5be
00000370: e6d9 af3d 8f82 68bd 7e91 313e 12fc 9f3d
00000380: 1b01 333e d9a2 813e fae4 9cbe cab7 823e
00000390: 39b9 d73c 0a3b 993b f2a3 9cbe 6e68 93be
000003a0: 58a5 d3bd 0dc1 bb3e bc6d 0ebe e20d 783e
000003b0: 3ffd 703d f087 47be f483 b03e 3e0c 043e
000003c0: c064 a7be 10df 8fbe 9829 743e d735 76be
000003d0: a2f6 5ebe 9767 233c 3718 82be d8e0 ae3e
000003e0: f819 503e 1d00 573e 7143 a7be ab6b 5d3e
000003f0: 020b 7cbe 6eb3 76bd 1002 35bd 6ec1 b7be

ntm.controller.lstm.weight_hh_l1 f4 [400, 100]
0.2499457 0.06720514 -0.275046 -0.017520824 0.08830838 -0.11749843 0.17702906 0.041920017
0.17511685 -0.30322686 -0.022673456 -0.06246589 0.043607544 -0.024215542 -0.2148001 -0.33640993
-0.18760946 0.3019466 -0.042241022 -0.02096571 0.10385632 0.20619516 0.1484598 0.10216705
0.116889775 -0.042563576 -0.16514446 0.20717159 0.19549471 0.051567636 0.19210196 -0.2761243
-0.057991818 0.3146545 -0.23739073 0.10273591 0.19354226 -0.15121934 0.22322617 0.08410098
-0.012655932 0.32027078 0.1115871 0.28577211 -0.21715131 -0.17981417 0.118335076 -0.2036601
0.00070487265 -0.3487747 -0.18893969 0.2660691 -0.040328633 0.019276517 0.07902927 -0.27235824
-0.13367267 0.2526792 -0.26948288 0.20431894 -0.1363813 -0.18631476 -0.20351598 -0.24181683
-0.32849303 0.052154128 0.27521932 -0.29623285 0.051099002 0.027671183 0.10460618 -0.08679753
0.17773634 -0.28654397 0.12749824 -0.18607746 0.20538698 -0.0535072 0.113696896 0.067220874
0.07766061 0.17606921 0.057553217 0.030732835 0.13559899 0.2091154 -0.34469867 0.19845323
0.16712317 0.13155878 -0.30799654 -0.16410862 0.118894234 0.20764554 -0.2472435 -0.10991524
-0.3132162 -0.063371435 -0.05323456 0.15563081 -0.09721196 -0.16668895 -0.24846256 0.27949592
0.14925459 -0.25754294 -0.26575628 0.023305949 -0.13290523 -0.14989449 -0.25280195 0.30119392
-0.0063685654 0.24553135 -0.21764891 -0.32435474 0.29283 0.11214008 -0.13030154 0.33298376
-0.004783914 -0.0021451777 0.045533728 -0.008202018 0.19449747 -0.21116112 -0.28881124 -0.29756728
-0.065694146 0.3514656 -0.051080648 0.23236772 0.12317954 0.11499728 -0.06392217 0.1373259
-0.24694 -0.2510994 0.1130608 -0.042030394 -0.33107406 0.25668287 -0.41051173 0.04639919
-0.103523016 0.36372644 0.1147668 -0.24420702 0.07410103 0.07078915 -0.23239444 -0.29320288
0.04049131 -0.29924223 0.16487299 -0.097576275 0.2402911 -9.165117e-05 0.25313944 0.29593518
-0.099854626 0.033125594 -0.21778531 0.06302584 0.053001292 -0.2605355 -0.22172983 0.281319
-0.15003291 0.25239924 -0.0841272 0.2786513 -0.05521258 -0.24431507 0.19259688 0.0422638
0.22139534 -0.12545826 0.32722494 0.1991157 -0.27211404 0.23374255 -0.11883208 0.22730538
-0.18440588 0.19073345 0.1212767 -0.24613938 0.11308916 0.04318836 0.14240283 -0.2762639
0.111068964 0.23773143 0.3392465 0.29495636 0.2805195 0.23820724 -0.10045555 0.32224
0.20721923 0.22985551 -0.1769757 0.024198743 -0.30348706 -0.26314697 0.04854481 0.31513453
0.18898903 0.1063129 0.060553204 0.25626835 -0.12587379 -0.08850542 0.11384893 -0.13137065
0.3987659 0.15580444 0.18489836 -0.20372772 -0.047991883 -0.021566095 -0.2742282 0.28648642
-0.03714238 -0.31325662 -0.25741833 0.2977485 0.32875878 0.058667317 0.32248423 0.08386219
0.2824344 -0.31059125 -0.036530726 -0.1292995 -0.05880512 -0.030806597 0.02550271 0.0010520378
-0.27757162 -0.2671088 0.09982094 0.016139194 0.24074444 -0.34227026 0.16585016 0.14129004
-0.27920878 0.19605274 0.11432099 0.09010141 -0.1658768 0.38234207 0.12699951 0.017111488
00000000: c4f1 7f3e d9a2 893d d4d2 8cbe d587 8fbc
00000010: 06db b43d 04a3 f0bd 1b47 353e 53b4 2b3d
00000020: d551 333e 8d40 9bbe afbd b9bc 3cdc 7fbd
00000030: d39d 323d ac5f c6bc 8ff4 5bbe ec3d acbe
00000040: b21c 40be bf98 9a3e ec04 2dbd 48c0 abbc
00000050: 9fb2 d43d d324 533e d905 183e f53c d13d
00000060: e863 ef3d 2557 2ebd a11b 29be ca24 543e
00000070: c42f 483e 9638 533d 60b6 443e 2a60 8dbe
00000080: d488 6dbd 651a a13e 8e16 73be 3467 d23d
00000090: f12f 463e 3ed9 1abe 6795 643e 223d ac3d
000000a0: d45a 4fbc 88fa a33e c787 e43d b950 923e
000000b0: ea5c 5ebe 3521 38be a959 f23d 468c 50be
000000c0: 34c7 383a 9992 b2be 6879 41be 363a 883e
000000d0: a32f 25bd c9e9 9d3c 19da a13d 8a72 8bbe
000000e0: 7de1 08be 2b5f 813e a9f9 89be fc38 513e
000000f0: 8aa7 0bbe 4cc9 3ebe 7e66 50be d59e 77be
00000100: 3d30 a8be 919f 553d 8ce9 8c3e d5ab 97be
00000110: 304d 513d adae e23c c43b d63d e7c2 b1bd
00000120: 8400 363e e4b5 92be e68e 023e 178b 3ebe
00000130: f750 523e 5e2a 5bbd ebd9 e83d 19ab 893d
00000140: 870c 9f3d 7d4b 343e ecbc 6b3d 6dc3 fb3c
00000150: 76da 0a3e 5922 563e 587c b0be 5337 4b3e
00000160: 5622 2b3e 58b7 063e b9b1 9dbe 170c 28be
00000170: d27e f33d 08a1 543e 662d 7dbe 3e1b e1bd
00000180: e05d a0be e2c8 81bd 7b0c 5abd af5d 1f3e
00000190: 1017 c7bd 82b0 2abe f86c 7ebe 171a 8f3e
000001a0: 32d6 183e abdc 83be 3511 88be 1eec be3c
000001b0: 4f18 08be f17d 19be 426f 81be 1736 9a3e
000001c0: 66af d0bb 926c 7b3e 5bdf 5ebe d311 a6be
000001d0: d0ed 953e b3a9 e53d c46d 05be d97c aa3e
000001e0: 61c2 9cbb 1c96 0cbb 9381 3a3d c261 06bc
000001f0: 582a 473e 9f3a 58be 11df 93be bd5a 98be
00000200: a78a 86bd 4df3 b33e f139 51bd cef1 6d3e
00000210: 8e45 fc3d b283 eb3d a0e9 82bd 299f 0c3e
00000220: d7dd 7cbe 1a90 80be 6c8c e73d 1028 2cbd
00000230: 8a82 a9be f06b 833e 982e d2be 140d 3e3d
00000240: e003 d4bd 5a3a ba3e db0a eb3d 6811 7abe
00000250: 48c2 973d e7f9 903d cff8 6dbe b01e 96be
00000260: 37da 253d 4736 99be 77d4 283e 12d6 c7bd
00000270: df0e 763e d934 c0b8 7e9b 813e d184 973e
00000280: 9580 ccbd b4ae 073d 1d03 5fbe b113 813d
00000290: e217 593d e964 85be 250d 63be 0b09 903e
000002a0: 3aa2 19be 793a 813e e24a acbd 62ab 8e3e
000002b0: 9626 62bd bb2d 7abe 1e38 453e ce1c 2d3d
000002c0: 76b5 623e 2178 00be 078a a73e fce4 4b3e
000002d0: 8852 8bbe 355a 6f3e 3c5e f3bd bec2 683e
000002e0: e5d4 3cbe a14f 433e eb5f f83d f60b 7cbe
000002f0: 4a9b e73d 47e6 303d 0cd2 113e 7672 8dbe
00000300: 2078 e33d de6f 733e b8b1 ad3e 8504 973e
00000310: 40a0 8f3e 99ec 733e a4bb cdbd a4fc a43e
00000320: 4731 543e 3e5f 6b3e 1e39 35be 713c c63c
00000330: a862 9bbe 33bb 86be ecd6 463d 5059 a13e
00000340: 5786 413e 94ba d93d a306 783d 9b35 833e
00000350: 0fe5 00be 5442 b5bd a129 e93d 0786 06be
00000360: 0b2b cc3e 338b 1f3e ff55 3d3e 009e 50be
00000370: 2393 44bd 61ab b0bc a367 8cbe 59ae 923e
00000380: 9c22 18bd 2c63 a0be 56cc 83be 7e72 983e
00000390: 1253 a83e 244d 703d a71c a53e f1bf ab3d
000003a0: 3e9b 903e d105 9fbe 3ea1 15bd 1767 04be
000003b0: a3dd 70bd 1e5e fcbc 0feb d03c 88e4 893a
000003c0: de1d 8ebe 7cc2 88be ec6e cc3d 5836 843c
000003d0: b685 763e 0c3e afbe a0d4 293e 56ae 103e
000003e0: 74f4 8ebe 0dc2 483e 2021 ea3d 1787 b83d
000003f0: 9cdb 29be 57c2 c33e 290c 023e 642d 8c3c
