results/priority-sort/priority-sort-task-10-batch-35000.model (torch_old, 859287 bytes, 49 tensors)

ntm.read0_bias f4 [1, 20]
00000000: d0ac 633c a705 3e3a b2b0 ffba db2e 603c
00000010: 3e18 de3a 58c9 413c d1cc 84bb 0508 95bb
00000020: 6540 f13b 7cc1 c13b ac38 7dbc 99df 6c3c
00000030: 46c6 cabb 55ca d63c bb9f 11bb 3872 d2bb
00000040: 2c13 ffbb d4ca 0d3c c2a8 8e3c 8d78 9a3b
0.013896182 0.0007248767 -0.0019507615 0.013683046 0.0016944481 0.011827789 -0.0040527363 -0.004548075
0.0073624128 0.0059129577 -0.015455406 0.014457607 -0.006188187 0.026219526 -0.002222045 -0.0064223073
-0.007784268 0.008654315 0.017414454 0.004714078

ntm.read1_bias f4 [1, 20]
00000000: c79c ddbb 6d29 9639 8147 b13b 4bd3 85bb
00000010: ab9b ba3b 74cb 42bb 97fe 3c3b 8b16 83bc
00000020: e6b9 96bc 02bc 1c3c 19aa 0a3c 646f 2cbc
00000030: 84ed 8939 30ea 723c 0bee 5c3b 8bb9 ee3b
00000040: 660a 003c dbbc e63b 7d4b eabb c578 39bc
-0.006763074 0.00028641094 0.0054101353 -0.004084026 0.0056948266 -0.0029723318 0.002883827 -0.01600196
-0.01839919 0.009566309 0.008463406 -0.0105246045 0.0002630764 0.014826342 0.003371122 0.007285302
0.007814979 0.0070415563 -0.007150112 -0.011320298

ntm.read2_bias f4 [1, 20]
00000000: 807e 4fbc e55a 843a a745 8a3b b42f 32bc
00000010: cdf9 98bb 5445 44bc 6604 fc3b f91d 09b8
00000020: bbd4 663b e9cb 523c 83cb ed3b 2a42 d0bb
00000030: d6ca 9c3b 861f 323c 3711 4abc 617d 1c3c
00000040: 756c d6bb 1a47 813b 8661 2dbb e251 95bb
-0.012664437 0.001009789 0.004219729 -0.010875631 -0.0046684504 -0.01197942 0.007690954 -3.269126e-05
0.0035222012 0.012865999 0.0072569265 -0.0063555436 0.004784922 0.010871774 -0.012333206 0.009551377
-0.006543691 0.0039452435 -0.0026455834 -0.0045568803

ntm.read3_bias f4 [1, 20]
00000000: 836d 6b3c f3a3 38bc 4512 58bc dbe3 8c3a
00000010: f917 3e3c 0419 9bbb c217 fd39 988c e2bb
00000020: 020e d4bb 18aa 0dbc 69be 76ba b684 98bb
00000030: cac5 e7bb 0bc9 aa3b 0104 bfba b196 99ba
00000040: 9405 07bc 668d ffbb 5607 04bc dee3 d4bb
0.014369371 -0.011269557 -0.01318795 0.0010749059 0.011602395 -0.0047332067 0.0004827362 -0.0069137327
-0.0064713964 -0.008646511 -0.00094125286 -0.0046544923 -0.007073139 0.0052119545 -0.0014573337 -0.0011717883
-0.008241076 -0.0077988384 -0.00805839 -0.0064968904

ntm.read4_bias f4 [1, 20]
00000000: 2eb2 d0bb b338 583a d41f 843a 39cb 02bb
00000010: 276b 2c3c 403b 33bc aae8 95bc a6b4 983a
00000020: bed7 fb3b ac75 953c c555 ee3a 573a a63a
00000030: c4d4 2a3c 702e 113b 993e 80bc 9929 ae3a
00000040: 168f 8cbb b047 2b3c 4cb9 023c cd50 823a
-0.006368897 0.0008248195 0.0010080286 -0.0019957556 0.010523594 -0.010939419 -0.01829942 0.0011650517
0.0076856306 0.018244587 0.001818352 0.0012682182 0.010426704 0.0022152923 -0.015654849 0.0013287544
-0.004289518 0.010454103 0.0079787485 0.0009942293

ntm.controller.lstm_h_bias f4 [2, 1, 100]
00000000: 58c1 40bd 759c b5bd d816 743d 17bf ad3d
00000010: bbd9 c6bc 715d f13c 3792 b9bd cc05 95bd
00000020: cdda 153d 4670 5ebd 0961 513d 9470 bf3b
00000030: f3bf 183d 87d9 d5bd 2cfc f8bc 8f51 fabc
00000040: 0f94 6bbd 92e6 afbc 4bf9 ba3c 1f68 19bd
00000050: c561 b8bc ae1e 1cbd b156 f5bc 798e babb
00000060: 4d5a ed3c f803 09bd c339 a7bd 9d0d c33b
00000070: ba64 5f3d da60 20bd 27bd 853c 2b2c e03d
00000080: 7f10 99bd c3b5 06bd 5c8f 4cbc e919 843d
00000090: 45d3 9f3d 9b57 5ebc 97cf c8bb 7e54 f33b
000000a0: 2cc0 893c 1c2c e73c 3a06 ab3c 96e4 b1bb
000000b0: 68d4 a83c c5f3 3fbd 5730 d6bd d075 46bd
000000c0: 4e5d 163e 8cef 49bd 1994 e8bd 6f25 28bd
000000d0: 5fae 07bd 123f ce38 3a27 f43c d011 4dbd
000000e0: 015d 0e3e 3498 9b3d cd98 2ebd a7d8 c13c
000000f0: a562 093d 9e62 293d 0b96 cdbb c280 6e3c
00000100: cef8 b73d 4085 cb3d 3b49 513d 1a5f bd3d
00000110: c2be 5b3c f71a 7b3d cc93 2cbd da4c 413d
00000120: 5fb4 46bd d264 423d b971 4fbc 8e8c b6bd
00000130: 9a9e 223d 8df6 8abd 870b 923c 4187 4c3c
00000140: e4a2 36bc 27d7 013c 0ddb debc 78d6 a83d
00000150: a313 66bd c8b8 ec3d 8be1 2d3e 0d2f 8e3c
00000160: 362b 28be 229d a7bc fd72 24bd 5552 d73c
00000170: 645b 5dbd 7ff2 4bbd 8e4e debd 4441 c4bd
00000180: cdd3 78bc f42a 2abe 98d2 cdbd 5957 9ebd
00000190: ffc1 9cbc 8a39 28bd 30d1 953c 7a3e b9bb
000001a0: 3db4 09bd 17d7 a0bc 884b 953d ed93 e4bd
000001b0: ea33 79b9 5e65 91bd e0ea 2d3d 45a5 92bd
000001c0: 7aea ce3d 5da8 9fbd 2651 84bd 05bc b1bb
000001d0: b34d d0bd 3721 163b 4128 7d3c 870a 1dbd
000001e0: 4d60 753c 5ff5 6abd 4f60 df3d 3598 8ebd
000001f0: bdda 703c ea7a d23b ab5c 7e3d d7bd a5bd
00000200: 627d 2abd b95a 593d 253b b8bc d131 85bd
00000210: 28d0 2dbd d93c 403d c929 813d 1006 25bd
00000220: 5258 c93c e149 083b bb21 873d b2d9 b93c
00000230: f703 1cbd 41c8 0ebd be8a c63d 913e a2bd
00000240: 6c71 b1bd 651e 8a3d 7013 443b af96 203c
00000250: fdf2 223d b061 cc3c 43fb 6a3d 54fb b43b
00000260: 9a5b 593d 2581 503d 6fbc 543c 55cf ff3d
00000270: d917 38bd bdeb 75bd 1c8d 753d 7fbf b6bc
00000280: 0e93 16bc 8688 92bd c66e 0b3e ef23 5ebc
00000290: d836 a53d 6e2f 90bd 9061 9c3d 78f0 5b3d
000002a0: d48a 69bc 99d6 e53c 4db4 fbbc 6ee2 6f3d
000002b0: 5e36 a0bc 1a30 b93c dead 65bd 4ee4 0dbc
000002c0: 3336 babc 65e1 133e af46 303d 34f1 9e3c
000002d0: 2341 023d e307 7f3d 01bf 233d ec0d 90bd
000002e0: fc9c 433d 9f0f a1bd 33d1 57bd bafc d33c
000002f0: 990b bc3c 0fc7 be3c 76dd 613c e97b 763c
00000300: abf3 8ebb 7da6 f53d 6df6 50bd 4475 a43c
00000310: e431 1fbd b381 ae3d f194 ee3c a250 b9bd
-0.047059387 -0.088677324 0.059592098 0.08483713 -0.024273744 0.029463502 -0.090610914 -0.07276496
0.036585618 -0.05430629 0.05111793 0.005842278 0.037292432 -0.10441881 -0.030393682 -0.030556468
-0.057514247 -0.02147225 0.02282395 -0.037452813 -0.022507558 -0.038115196 -0.029948564 -0.0056932536
0.028973723 -0.03345105 -0.08165314 0.0059525506 0.05453942 -0.039154865 0.016325546 0.10945924
-0.074738495 -0.032888185 -0.012485351 0.064502545 0.07803968 -0.013570691 -0.0061282623 0.0074258437
0.016815268 0.028219275 0.020876992 -0.005428861 0.020609096 -0.046863336 -0.10458439 -0.0484522
0.1468403 -0.049300715 -0.113563724 -0.041051324 -0.033125278 9.834593e-05 0.029803861 -0.050065815
0.13902666 0.0759739 -0.04262619 0.023662878 0.03354134 0.041353814 -0.00627399 0.014557065
0.089830026 0.09937525 0.05109523 0.09246655 0.013412179 0.061305013 -0.042133138 0.047192432
-0.04851186 0.04745943 -0.012661391 -0.089135274 0.039702035 -0.06785307 0.017827762 0.012483419
-0.011147235 0.0079248315 -0.02720406 0.08244032 -0.05617107 0.11558682 0.16980569 0.01735642
-0.16422734 -0.020460669 -0.040148724 0.026284376 -0.054042235 -0.04979181 -0.10854827 -0.09582761
-0.015187216 -0.16617948 -0.10049933 -0.07731504 -0.019135473 -0.0410705 0.018288225 -0.0056531997
-0.033619154 -0.019633813 0.07289797 -0.11161027 -0.0002376583 -0.070994124 0.042460322 -0.07160429
0.101033166 -0.077957846 -0.0646079 -0.005424025 -0.1017107 0.0022907981 0.015451492 -0.038340118
0.014976573 -0.05736291 0.10907041 -0.06962625 0.014700589 0.006423344 0.062100094 -0.0809285
-0.04162348 0.053065035 -0.02248914 -0.06503642 -0.04243484 0.04693303 0.06306798 -0.040288985
0.024578247 0.0020795988 0.065982305 0.022686813 -0.03808972 -0.034858946 0.09694432 -0.0792209
-0.08664212 0.067440785 0.0029918812 0.009801551 0.039782513 0.024948925 0.057368528 0.0055231247
0.053065874 0.05090441 0.012984379 0.12490717 -0.044944618 -0.06003927 0.059949026 -0.02230811
-0.009190334 -0.07154946 0.13616475 -0.013558372 0.08067101 -0.070402965 0.07635796 0.053696126
-0.014254291 0.02805643 -0.030725623 0.05856555 -0.019557174 0.022605944 -0.056074016 -0.008660389
-0.022730922 0.1444145 0.04303616 0.019402124 0.0318004 0.06226338 0.039977077 -0.070339054
0.047757134 -0.078643076 -0.052689742 0.025877345 0.022954749 0.023288278 0.013785711 0.015044191
-0.0043625436 0.11994646 -0.05101626 0.020075448 -0.03886594 0.08520832 0.029123755 -0.090485826

ntm.controller.lstm_c_bias f4 [2, 1, 100]
00000000: 021e 713b bb76 03be 7fdb 073e 36a7 993b
00000010: 4ad6 c73d 93f6 d1bc 73ab 07bd 8042 9f3c
00000020: e409 c2bd 4beb 6d3d 7206 3f3d 419b 5cbd
00000030: 613a 02bc 291d c63a af63 fb39 37ab 8f3c
00000040: 23a4 a1bc 2e86 143d c85c e6bc 0a38 f1bc
00000050: ea8a 5fbd 85ae adbd eb2e 3f3e 8705 c1bd
00000060: 6fc4 cf3c ae92 803d ccd3 a43c 96ef 993d
00000070: d9df 893d c35a 5bbd c79a 5dbd b638 13bd
00000080: afaa e63d 40c6 8c3d aa29 983d 3e86 debc
00000090: 18ae 693d 5ca7 a43d 7a27 653d 9cb1 543b
000000a0: 3d9e 823c 6be3 49bb 1eba 653d c872 9abc
000000b0: c15b 4c3c fd2d 6dbd 3666 343d c3fe 24bd
000000c0: 9b23 6e3d caf5 33bd 9227 dd3c d0d5 ffbb
000000d0: 4456 d3bd 5336 60bb b280 22bd e17a 70bc
000000e0: 535a 97bd 1031 9cbd dc22 563c 7547 d9bc
000000f0: f967 2abe 4f66 b63d d98d 73bb 26e7 8bbc
00000100: c966 463c 8cee 8e3d c810 063d 24ac 14bd
00000110: 0193 ca3c ae1d d1bd d68c 903c 3e02 e6bd
00000120: cfaf 1d3d 8808 f8bc dae2 bc3d 21fa 0fbc
00000130: 284e bf3c 6474 64bd bb24 debd 41ab 57bd
00000140: b80a 3d3d 4493 223d f81c d33d bb59 d3bd
00000150: e3df 603c cac9 b63d 1576 d0bd 7bd6 2fbd
00000160: eda9 8bbd 6220 c8bd fa64 e73a ead8 3abc
00000170: abc1 a5bd 5333 313b 9cd9 943d 82ff 843d
00000180: 9204 2a3d 2cd3 b6bc 19ec 98bc 237b 40bc
00000190: 418d 09be 1c75 8d3c 8561 4abc 344a 7c3b
000001a0: 5081 e6bc 3efd d83c bf9f b43d 9756 18bc
000001b0: 2289 0e3c 6f2f 9bbd b3fb c33c e571 40bc
000001c0: 5ea2 2b3d ecf6 1e3d f65d 48bb ebd6 a43c
000001d0: df77 9cbc 82ef 3f3c af49 fcbd dbfc aabd
000001e0: 85b0 74bd ce20 46bd bcf1 7bbc 3f7b 30bc
000001f0: 5318 a2bc a46b 72bc 3823 06be 9d25 0a3d
00000200: e5b4 c2bd fc42 2a3d bd0b fa3c 4668 593d
00000210: 15b5 08bd 050a 1fbb 2e1a 70bd 996f 053d
00000220: 2301 bf3d 73ee 5d3d dd98 50be 63d8 653d
00000230: a196 513e fe39 0cbd 0acd 193d 29f0 38bd
00000240: 45da e7bd 4af2 d7bd 4134 2fbe adcf 27bd
00000250: b500 c43c 2f57 06be 156d 073d a95f 0fbd
00000260: c67e ffbc e96a 843d fbff f3bc ade5 16bc
00000270: 406f 91bd 8cb7 b93d 48a2 163d 6591 41bd
00000280: c0a8 ca39 2e03 f73d 0119 0e3d c82f 023d
00000290: bf1f b53d 36c7 98bd 556b b53b 8bfc 733d
000002a0: 7c10 b43d 720e f1bd 2d2c 94bd 5892 513c
000002b0: 2af4 443d 1b27 323b dee1 b3bd 481b aabd
000002c0: 50d7 14be 1cb6 343d d99a fcbc c1dd fb3d
000002d0: 03d4 00bd e540 3fbd af72 93bc cd56 5abd
000002e0: 2111 aebd d3bb 89bd d324 27be 70c5 c8bc
000002f0: b47d c4bc 996e dcbc b782 60bd c072 cabc
00000300: ce02 a6bd eeaf c33b 84b4 08bd ce0d bc3c
00000310: 3c80 6cbd 7e0e 883c cb15 3f3d 2525 933d
0.0036791568 -0.12838261 0.13267325 0.0046891226 0.09757669 -0.025630271 -0.03312249 0.01944089
-0.09474543 0.05808572 0.046637006 -0.053859 -0.007948489 0.0015114892 0.0004794872 0.017537696
-0.019731587 0.036260776 -0.028120413 -0.029445667 -0.05457584 -0.084805526 0.18670242 -0.094248824
0.025362222 0.06277977 0.020120524 0.075164005 0.06732149 -0.053553354 -0.054102685 -0.035942756
0.11263024 0.06873751 0.07429822 -0.027163621 0.057050794 0.08039734 0.05594585 0.0032454496
0.015944595 -0.0030805718 0.0560857 -0.01885356 0.012473048 -0.057905186 0.04404279 -0.040282022
0.058139425 -0.043935575 0.026996408 -0.007807471 -0.10319188 -0.0034212067 -0.039673515 -0.014677734
-0.07390275 -0.076265454 0.013069835 -0.026523331 -0.16641225 0.089062326 -0.0037163405 -0.017077994
0.012109467 0.06979093 0.032730848 -0.03629698 0.0247283 -0.10210739 0.01764528 -0.112308964
0.038497742 -0.030277506 0.09222956 -0.008787663 0.023352697 -0.05577506 -0.108468495 -0.052653555
0.0461528 0.039691225 0.1030826 -0.10319849 0.013725254 0.08925207 -0.10178772 -0.042929154
-0.0681952 -0.097718015 0.0017653995 -0.011404255 -0.0809358 0.0027038648 0.07268068 0.06494047
0.041508265 -0.022317491 -0.018667268 -0.011748108 -0.1343279 0.017267756 -0.012352352 0.0038496377
-0.028137833 0.026487943 0.08819532 -0.009297988 0.008699687 -0.075774066 0.02392373 -0.011745905
0.041902892 0.0388097 -0.0030573583 0.020122012 -0.019100128 0.011714818 -0.123187415 -0.083490096
-0.059738655 -0.04837113 -0.015377458 -0.010771572 -0.01978699 -0.014796171 -0.13099372 0.033727277
-0.09507159 0.041567788 0.030523175 0.05307796 -0.03337582 -0.0024267447 -0.058618717 0.03257713
0.09326389 0.05418248 -0.20370813 0.056114566 0.20467617 -0.034234993 0.037549056 -0.04515091
-0.113209285 -0.1054426 -0.17109777 -0.04096954 0.023926118 -0.13119195 0.033063013 -0.035003338
-0.03118838 0.06465704 -0.029785147 -0.009210032 -0.071012974 0.09068212 0.036775857 -0.0472578
0.0003865417 0.12061153 0.034691814 0.03178385 0.08843946 -0.074598715 0.0055364766 0.059567016
0.08792207 -0.11770333 -0.07234988 0.012791239 0.048084415 0.0027183953 -0.08783315 -0.08305985
-0.1453526 0.044118986 -0.030835556 0.122981556 -0.03145219 -0.046692748 -0.017999021 -0.053305436
-0.08499361 -0.06725278 -0.16322641 -0.024508208 -0.023985721 -0.026908206 -0.05481216 -0.02471292
-0.08106004 0.0059719 -0.033375278 0.022955801 -0.05773948 0.016608473 0.046651643 0.07184819

ntm.controller.lstm.weight_ih_l0 f4 [400, 103]
00000000: 108a 0bbd 6560 9dbe e799 33bd 254f 9f3e
00000010: 4b66 aabe e50b 893e 3109 693e 2c07 c2be
00000020: bf85 24be 46c6 273c d169 5fbe 3b64 bf3c
00000030: 073e 17be 4deb 51be 68ff 13be 9d95 86be
00000040: 77cd 813e 8a95 3c3e 0bca bf3d f51c 193e
00000050: 504a 9fbe 10f3 ae3e 70b7 b9be 634f 8b3e
00000060: 2631 afbe ab9d 993d 2f2e 143d c031 7c3e
00000070: 94aa 99be 7e20 60be e247 2abe 7169 533d
00000080: afbc 79be 6b12 043e 9594 9d3e d11a 343d
00000090: 9d5f 3a3e 826e b9be 5de6 8e3e 28f2 adbe
000000a0: 70e1 7a3e 4b7d c03e ae20 0cbd 45e1 da3e
000000b0: 1c96 9ebc 839b 093e 1a5c b63e 30c5 f6bc
000000c0: 949c d53c c6e6 2dbd acb9 e7bd ea07 a4be
000000d0: 1619 b33e e6af 62be ba79 443e 6be0 45be
000000e0: ad1f 5a3e ee1c 813e fffa 8bbe 23b0 f1bc
000000f0: 1051 a13c 171c 55bd 1cbb debd c5cf 72bd
00000100: 2e7f 803e 5cf5 8c3e 321d 853e 5497 c1be
00000110: 7cfa 65be b1a5 f1bc 8ae0 023e 037c 80be
00000120: 9a72 ce3e f6fc 6a3e 98ba cfbe 3950 b53e
00000130: 63c9 8b3e 4393 98be ebec 8cbe d857 f7be
00000140: e747 88be e4fd cdbd 9bbf 3e3e bcb4 993e
00000150: 6a51 34be 431e 58be 2148 cb3e 8024 12be
00000160: 345e f2bd 5adf 5abe c45b 0dbe bfb5 b93d
00000170: fcdf 733e 7aae a9be 91d3 163d fb31 1c3e
00000180: 3f30 bbbd 82d5 863b a7cb 41be 418c a7be
00000190: 71f5 8f3d 9ac9 b53e 1d5b 32be 0d7b 763e
000001a0: a66b e23e 4053 fabd cc25 893e c08c 37bc
000001b0: 1db7 803e 265d d6bc d315 dd3d 21ee aebd
000001c0: 7e07 93be 4e1d b73e 6752 c63e e99e aebd
000001d0: e777 8ebe 9125 763e fb10 fabd 08a5 4bbd
000001e0: 9352 febd ce65 9bbe da4c d03e 4fc9 5dbe
000001f0: cc36 2c3e d9c8 b13e 0b09 91be 1d2e 603e
00000200: 27d4 1c3e 1ac6 493d 1a61 673e ee15 cd3e
00000210: 2760 88be 7d0f 673e 0631 9fbd efd3 90be
00000220: 33fa 26be 70a7 983e 18d6 a2bd 3bcc 4fbe
00000230: b958 743d b3e6 a4be 5b2c a23e b51b 733e
00000240: 94d4 f1bd 75e5 c53e 20c9 893c 12fa 6abd
00000250: 6e38 e6be 6664 5e3e 02e2 833d 3b24 2d3d
00000260: eba4 763e 4487 bd3e a8b6 8e3e f73c 84bc
00000270: 5ac9 35be b5ad ce3c af7e 5dbe 3c9d 72be
00000280: 8a7d 453d c10a 7c3e 82ce 853e 6ae2 22be
00000290: d568 313d b21d 18bd 566e c2be 660a 6e3e
000002a0: 3b48 5ebe 7486 5d3d 10e1 173d a6b5 f63d
000002b0: 7687 883e b105 e23d 9d85 25be 6f7d 843d
000002c0: cbd4 99be 6734 de3c 9db7 8e3e cec1 8f3d
000002d0: e85d 873e 608e a73e 7482 5abe 51ba 5c3e
000002e0: 7068 a3be 1943 093e 57a3 443e ae59 2b3e
000002f0: 6e01 e3be 451d fe3d b9e2 8e3e 11d0 d83e
00000300: 09be 453e 0aa3 633e 2b8c c2bd 8bc5 66be
00000310: 7195 66be 5bf5 5c3e 8452 95be 81ae 9e3e
00000320: c6d6 913e 5677 49be 1f39 dabd 880e dcbd
00000330: 112c ab3e 4094 b73e 6f49 bbbe c03f 803e
00000340: 6782 b23d c2ce 4b3e 1613 8abd 6cd5 6f3e
00000350: 7e02 02be 897d 943e 23ae 18ba 4d1d 58be
00000360: b4f4 4cba 56f4 023d 338e 7fbe 64d3 10be
00000370: ce8b 9fbe 6496 643e 2241 913e 3823 cb3d
00000380: 1774 a73c c046 51be 5e98 27be 730e adbd
00000390: db12 3dbd afdf 4c3e 82c2 963e b0d6 85be
000003a0: 05e7 90be f2ba 853e 678f 47be 7ff3 ab3e
000003b0: b573 78be 5944 ef3d 9eba ffbd e2e8 16be
000003c0: 8afd 28be e6c8 63be 95f8 bdbe 2059 a83d
000003d0: d9a5 a6be 82bb 243e 9593 0abd 1a10 b03e
000003e0: eef1 bc3e 4fbd 103d a46e c1be 769c cebd
000003f0: 6bd1 ec3d 98e7 15bd b23a cfbb 2d18 4c3d
-0.034067214 -0.30737606 -0.043847945 0.3111507 -0.33281168 0.26766887 0.22757412 -0.37896097
-0.16066645 0.010240143 -0.2181771 0.023363223 -0.14769755 -0.20499916 -0.14452899 -0.2628602
0.2535207 0.1841642 0.093647085 0.14952452 -0.31111383 0.34169817 -0.36272764 0.27209005
-0.34217185 0.07500776 0.036176857 0.24628353 -0.30012953 -0.21887395 -0.16628984 0.05161423
-0.24388383 0.12897651 0.30777422 0.043970887 0.18200536 -0.36217123 0.27910128 -0.33973813
0.2450006 0.3759559 -0.034210853 0.42749992 -0.019358687 0.1343823 0.35617143 -0.030123323
0.026075639 -0.04245641 -0.11314711 -0.32037288 0.34980077 -0.22137412 0.1918706 -0.1932389
0.21301146 0.25217384 -0.27339932 -0.029502934 0.019691974 -0.05202874 -0.10875532 -0.059280176
0.2509703 0.27530944 0.25998837 -0.37810767 -0.22458833 -0.029497953 0.12780967 -0.25094613
0.4032181 0.2294806 -0.40572047 0.35412768 0.27302083 -0.29799852 -0.27524504 -0.48309207
-0.26617357 -0.100581914 0.18627779 0.30020702 -0.17609182 -0.21105294 0.39703467 -0.14271736
-0.11834374 -0.21374264 -0.13804537 0.090678684 0.23815912 -0.33140928 0.03682286 0.15253441
-0.091400616 0.0041148076 -0.18925343 -0.32724193 0.07029236 0.35505372 -0.1741757 0.24070378
0.44222754 -0.1222291 0.2678665 -0.011202991 0.25139704 -0.026167464 0.10795178 -0.08541513
-0.28716654 0.35764545 0.38734743 -0.085264035 -0.27825853 0.24037768 -0.1221027 -0.049717933
-0.124180935 -0.30351108 0.40683633 -0.21658824 0.16817778 0.34723547 -0.28327212 0.21892591
0.15315305 0.04926119 0.22595635 0.40055794 -0.26635858 0.22564502 -0.07773022 -0.28286693
-0.16306381 0.29815245 -0.079509914 -0.20292751 0.059654925 -0.3220726 0.31674466 0.23741038
-0.11808124 0.38651624 0.016819537 -0.057367392 -0.44964927 0.21717986 0.06439592 0.04227088
0.24086349 0.37017262 0.2787373 -0.016142352 -0.17752591 0.025229314 -0.21630357 -0.23692793
0.048215427 0.24613477 0.26134115 -0.15906683 0.043312866 -0.037137695 -0.37974805 0.23246154
-0.21707241 0.054083303 0.03707987 0.120463654 0.26665848 0.11036242 -0.1616425 0.06469237
-0.3004516 0.027124597 0.2787446 0.07019387 0.26438832 0.3272581 -0.21338826 0.21555449
-0.31915617 0.13404502 0.19202934 0.16733429 -0.44337028 0.124079265 0.2790735 0.42346242
0.19310774 0.22230163 -0.09499391 -0.22536294 -0.22517945 0.2157797 -0.29164517 0.3099251
0.28484172 -0.1967443 -0.10655426 -0.10744959 0.33432057 0.35855293 -0.36579463 0.25048637
0.087162785 0.1990309 -0.067419216 0.23421258 -0.12696263 0.29002026 -0.0005824288 -0.21104927
-0.0007818446 0.0319713 -0.24956588 -0.14143139 -0.3116135 0.22322994 0.28370005 0.09918827
0.020441098 -0.20437145 -0.16366717 -0.084500216 -0.04616056 0.20007204 0.29445273 -0.26140356
-0.28301254 0.2611919 -0.19488297 0.3358421 -0.24262889 0.11682958 -0.12486766 -0.14737275
-0.16502967 -0.22244605 -0.37103716 0.08220124 -0.32548407 0.16087154 -0.03383215 0.34387285
0.36903328 0.03533679 -0.37779725 -0.10088436 0.11563381 -0.036597818 -0.0063241357 0.049827743

ntm.controller.lstm.weight_hh_l0 f4 [400, 100]
00000000: f594 5c3e 8040 1b3e 2c5f 8abe 45bb 983c
00000010: 1e5f 24be 9b97 19be eb64 1abe d3f0 c33e
00000020: 9740 8e3e e475 6fbe 4faa c83d 29c0 04be
00000030: 29f6 9b3e 0209 26be 77e7 a5bd 937e 8c3e
00000040: 2b68 503e 41f7 88bd 0b9c 813e 3aa9 913e
00000050: 5749 ae3e 0432 92be a77b 3d3e 0136 b93e
00000060: 445a d93c e4f0 593e f010 6dbe a357 2a3d
00000070: aa87 55bc bc27 54be b565 05bc 2b3b 9f3e
00000080: 90ce 3b3d 45a8 913e bb3b 8bbe e666 afbe
00000090: e2a3 69be c78b a63e 5da2 0a3e 1967 88be
000000a0: f2cd 803e b5f8 333e ff8a 4abe 80fc 7c3d
000000b0: 9eb4 91be 660b d9bd db97 813e 2971 a5be
000000c0: df04 80bd 8a51 2abe 5d99 90be dd7e 8ebe
000000d0: 00ff a23e a51e 8a3e 958b 903e 9050 c0bd
000000e0: 2828 86be ed70 9e3e 3b16 8fbe 9fa1 a33e
000000f0: 3acd f33d 5075 5b3e bfb4 adbe ce18 a63d
00000100: 1484 4a3d 00b2 983c 51be 6fbe 6062 4f3d
00000110: 9934 623e bde0 12be 443a b3be d9ff 8fbe
00000120: cfd4 42be 027c ac3e bc11 1dbe 149d 323e
00000130: fe96 5c3e 3569 23be ee83 8b3e 0eda 773e
00000140: ed9c ef3c 0077 c3bd 5eb1 19be d2fb 42be
00000150: 04fd 153e af94 cc3c fe68 1b3e 42f4 e03d
00000160: 74b5 bb3e 588d 0d3e 854a 913c 71bf 7c3e
00000170: de96 0a3c 9fa2 393d 26da 8a3e cab1 a2be
00000180: d060 213e 2770 b03e edaa 19be 31b9 78bd
00000190: 723d 32bd 9b4c 3a3d e64d c53c a6d4 1dbe
000001a0: 0dec 1bbe 4e3b a03e 28fa aa3e 36d1 a63e
000001b0: 0bf5 0a3f 35ed a3bd 4ae2 7abe 82cd 8e3c
000001c0: f258 39be af4c 163e 1d91 39be e152 b43e
000001d0: 2587 623e 862a d0be 8d30 8dbd ff03 bf3e
000001e0: 50ea d43e e9f9 703e 6ebc 96be cc94 1abd
000001f0: 6eda ef3d c477 3ebe 7873 4fbe 5102 a0bd
00000200: def6 3cbe 6abf 6a3e dc48 d3bd 59fc 90be
00000210: e655 ad3e 59fe cf3d 072f 8e3e 10be 1dbe
00000220: 0985 45bd 7622 873e 16bb 683e f187 b5bd
00000230: 8482 773d ee73 a03e 0dcf 833e 3062 813e
00000240: 347f bd3e ceb6 5d3e df89 9a3e dde2 b53e
00000250: 7e91 c8bc adfc 093e b9ce 7d3e e5cf 01be
00000260: 8074 3c3e 2206 e13e 4ebc 703e 215f 913d
00000270: e74b e5be a8f8 833e 59b0 2b3e c928 afbc
00000280: cbaa 99be dd3a 94bd 85b7 a83e 8a4d af3e
00000290: aad3 d2bc 7fa6 1abe 8e77 a43e 85a6 9b3e
000002a0: b521 a7be 6689 843e 12fd d23d 56e4 e7bd
000002b0: 1e50 80be 1708 ecbe 5478 933d 7ecc 973e
000002c0: 80b2 34be 3565 8cbc e200 3ebe fffe 903e
000002d0: d0cd e4bd d115 823a 7c38 6c3e 11ff 873e
000002e0: f72c d93c 494f 76be 43e0 dabd 655d 2dbe
000002f0: c59b d23e 49d0 863e 83b7 1b3d 35d2 f93d
00000300: 7c28 233e e8e4 7a3e fabb 973d 257c 863e
00000310: dee1 9c3e 3331 c13e 26a1 8a3e dd9d 5f3d
00000320: c6bb 293e 2a08 463e 1a1f 963d b124 1bbe
00000330: ac61 863e a023 693e 0f3a 003e c226 303e
00000340: d3c6 69be dda3 ba3e 9f60 d9be 9498 383d
00000350: 976b 9d3e bbca f63e d6b4 e63c 510a 40be
00000360: a43c b0bc 941e 89be ad94 8e3e 6f1d 2dbe
00000370: 65a6 843e d1e0 8c3e 5468 afbe 559d a7bd
00000380: 09fb b63e 797c 9c3e d529 97bd 943b 1fbe
00000390: aae9 a8be 16f7 35be 207a dc3d 2ce0 1d3d
000003a0: 1d51 84be 1ee7 5abe de26 9a3e 0b1f 9dbe
000003b0: 001c b23d 8415 9fbe 20be 57bd 49c9 8e3d
000003c0: c38f a73e 2f58 fdbc 4b78 173e d15d 99be
000003d0: 61d8 c6be e1ab 99bd 9a4f a63e fba1 73be
000003e0: bcaa 053e 04a3 40be cf5b 0abe 7525 04bd
000003f0: dfad a5be c436 91be 7d97 80be c5cb 95be
0.21541198 0.15161324 -0.27025735 0.018643985 -0.1605191 -0.14999239 -0.1507756 0.38269672
0.27783653 -0.23384815 0.09798109 -0.12963928 0.30461243 -0.16214374 -0.08100789 0.27440318
0.20352237 -0.06687785 0.25314364 0.28449422 0.3404033 -0.28553784 0.18504201 0.36174014
0.0265323 0.21283299 -0.23150992 0.041587483 -0.013032833 -0.20718282 -0.008141925 0.3109983
0.04585129 0.28448692 -0.27194008 -0.34258193 -0.22816423 0.32528517 0.13538499 -0.26641157
0.25157124 0.17575343 -0.19779585 0.06176424 -0.28458112 -0.10597877 0.2531117 -0.32312897
-0.06250929 -0.16632667 -0.28242007 -0.27831164 0.31835175 0.26976505 0.28231493 -0.09390366
-0.26202512 0.3094553 -0.27946648 0.31959245 0.11904378 0.2143147 -0.3392696 0.081102
0.049442366 0.018639565 -0.23412444 0.050630927 0.22090377 -0.14343543 -0.3500539 -0.28124884
-0.19026493 0.3368836 -0.15338796 0.17442733 0.21541974 -0.15958102 0.27249092 0.24204275
0.029249633 -0.09544182 -0.15009066 -0.19041374 0.14647299 0.024973242 0.1517677 0.109840885
0.36661875 0.1382345 0.017735729 0.24682404 0.008458821 0.045321103 0.2711956 -0.31776267
0.15759587 0.34460565 -0.1500661 -0.060723487 -0.04351563 0.045483213 0.024084996 -0.1541315
-0.15226765 0.31295246 0.3339398 0.3258149 0.54280156 -0.08004228 -0.24500385 0.017431978
-0.18100336 0.1467769 -0.18121763 0.35219482 0.22121866 -0.40657443 -0.06894026 0.37307736
0.41585016 0.23532833 -0.29440635 -0.03773956 0.11711584 -0.18600374 -0.20258892 -0.07812942
-0.18453547 0.22924581 -0.10316631 -0.28317526 0.33854598 0.10155935 0.27770254 -0.15404534
-0.048222575 0.2639348 0.22727618 -0.088638194 0.060427204 0.31338447 0.25743905 0.25270224
0.3701111 0.21651766 0.30183312 0.35524645 -0.024483439 0.13475294 0.2478589 -0.12676962
0.18403816 0.4394999 0.23509333 0.070982225 -0.4478447 0.25775647 0.1676649 -0.021381753
-0.30013117 -0.0723779 0.32952514 0.34238845 -0.025735695 -0.15102576 0.32122463 0.30400482
-0.32642904 0.25886077 0.103021756 -0.113228485 -0.25061125 -0.46099922 0.07200685 0.29648203
-0.17646217 -0.017138103 -0.18555024 0.28319547 -0.11172068 0.0009924715 0.23068422 0.26561788
0.026510699 -0.24053682 -0.10687306 -0.16930158 0.41134468 0.26330784 0.038016807 0.12198297
0.15933412 0.24501383 0.074089006 0.2626659 0.30641073 0.3773285 0.27076072 0.05459391
0.16575536 0.19339052 0.07330151 -0.15150715 0.26246393 0.22767496 0.12522148 0.17202285
-0.22829752 0.36453143 -0.4245653 0.045067385 0.30746147 0.48201546 0.028162401 -0.18753935
-0.02151329 -0.26781142 0.27847806 -0.1690576 0.259082 0.2751527 -0.34259284 -0.081843056
0.357384 0.30563715 -0.07381026 -0.15550071 -0.32990772 -0.17770037 0.10765481 0.038543865
-0.25843135 -0.21377227 0.30107778 -0.30687746 0.08696747 -0.31071103 -0.05267155 0.06971986
0.3272687 -0.030925838 0.14791982 -0.2995439 -0.3883696 -0.075034864 0.32482606 -0.2379226
0.13053411 -0.18812186 -0.13511585 -0.032262284 -0.32359216 -0.28362095 -0.25115576 -0.29257026

ntm.controller.lstm.bias_ih_l0 f4 [400]
00000000: 3b9f e7bc fb54 21bd a3d2 eebc e15b 08bd
00000010: c883 d0bc 419c 4b3d 38a0 8a39 e216 0a3d
00000020: 06d1 343d 4701 073d 748c a33d ed9f 913d
00000030: 79f6 993d 2571 523d 4cf3 133d c674 523e
00000040: 9d74 d53c 2010 2e3d 98b5 913d dbce a63d
00000050: 9893 013d a6c7 16bd 1cb4 ad3d 19f8 79bc
00000060: 4c0c d9bc a694 863b ce7b 45bc ff8d ab3d
00000070: 632a fdbc dc07 d93d 80bc 913d 387a b63d
00000080: ff00 153d 9c28 793d 1247 1ebd cae3 c2bb
00000090: 9ee0 ac3d d323 0e3d e823 9dba 5fb6 963d
000000a0: c70c 323d e8fc e8bc 6830 933b 0771 74bd
000000b0: bb9b 8e3d bbd7 133c 70e9 0e3d 8e4b d9bc
000000c0: 5146 d33c f781 533e f591 b03d 1242 9e3d
000000d0: 61b3 d13d 2349 a43d 5a64 5dbb 187e a33d
000000e0: 08ff 3fbc bd96 eebc d4f1 6c3d e769 b9bc
000000f0: b6c3 0ebc 4a1c 7f3c 5e43 e8bc 19cf 823d
00000100: f48a fcbc eb42 b6bc acab 87bd b5a2 ff3d
00000110: 3350 d43c 1b1c c83d 8bcc e33d 427f b53d
00000120: b0c5 383d 9be6 da3d 8757 4e39 2af3 243c
00000130: d186 15bc bb0c d6bc 02c9 2c3b a36c 59bd
00000140: afda 523d 474b ce3d a937 073d d89f 3fbc
00000150: 29ec 51bc b1ac 793c 43a0 13bd c629 12bc
00000160: cc41 b4bc a99a 043e e81e 7d3c 0f71 1b3e
00000170: c288 c83d 1894 ac3d 3024 3e3d 52bc 7c3d
00000180: b896 5f3d 8810 9bbc b0be 9b3d 6c41 b0ba
00000190: 2d39 31bd 197a d8bc c9e7 31bc 9558 29bd
000001a0: 64df 0ebd e85f 46bd 4e65 f2bc 3b4f 63bd
000001b0: 2dd4 f33c ff00 153d c722 37bb a04f 43bc
000001c0: 1e53 483c 15f8 063d 4a83 063d 409e 96bc
000001d0: 14d2 0ebc 9c7d 5d3d cb9d d33c abd5 0d3d
000001e0: 797b 0bbc 8895 d6bc d06f b73c ab6c 463c
000001f0: 62b9 e6bc 58e1 8e3c 4500 b83c f136 4bbd
00000200: 5a6c a4bb 772e 58bd ee92 f0bb 6446 543b
00000210: 9c0e b13c a79b c5bc bd2f 4cbd 0ebf cbbb
00000220: a196 9ebc 97fb ef3d 182c 09bb fe95 873b
00000230: 5d79 4d3d 411d d0bd 59e7 5eb8 8e90 99bd
00000240: 3ded 09bd e8f1 8ebb d3f9 893c df29 7c3d
00000250: 01eb 8b3d a22a 7cba 12dc 2b3c 80d3 5cbd
00000260: 680d c63b fb74 27bc 51bc 11ba 3809 c53b
00000270: 4e9a 9c3d 2ccd 3db9 22b4 19bd dd81 c53c
00000280: 0e2e 5d3d 9897 3ebd 663f b2bc 1737 03bd
00000290: 0dd7 07be 5895 84bd 97d0 ecbc 47e1 7c3c
000002a0: 0a7c 113c 7f4e d2bb b7d7 d1bc 9ad6 c1bc
000002b0: 111b f8bb 4c40 f3bc 3aeb 7ebd bd69 93bc
000002c0: f345 f83c 8e23 9bbd 71e6 a3bc fc1b 143c
000002d0: a1fa 473d e586 4bbc 5424 963d 6774 37bd
000002e0: 515c c03b d795 1e3d 5652 e03c afb1 80bc
000002f0: f364 ec3c 7b4d 12bd b06a c5bd 1e68 81bc
00000300: 1ffa ecbc 16c0 a7bd 7405 b13c 0a47 debb
00000310: 3764 81bd caba f13c ae8f 783a 70f0 a2bd
00000320: 62e7 aabc 9404 9db9 6eb9 b43b 047a 133d
00000330: 9f5c a9bc 2453 a0bd c2b9 19bc 48bd 513d
00000340: b64c 99bc c552 14bc b409 0abd 12a0 833c
00000350: 30d3 18bd 6cb2 17bc e03d 35bc 4bf4 3cbb
00000360: d7f9 163d 5e28 7e3c e081 18bc fa02 b03a
00000370: 821b 623c af5e ccbc 1a95 8c3c 6fa0 983c
00000380: fa2e 28bd e43f e23a e217 733c 6c42 333c
00000390: 3c48 093d 60c4 19bc a34e 9e3b 8fbb 9fbc
000003a0: 41e7 a3bb cade 973c f187 c5bc 4a43 34bb
000003b0: b432 c1b9 0825 253d 5269 31bd 4e0b a2ba
000003c0: 72df 69bd 4736 dd3c 87e7 60bc e675 30bb
000003d0: f5a9 19bc a85c 4c3d df1a 81bc 0ea3 493c
000003e0: 6a20 2ebc 1970 db3a 6c77 083d e189 e6ba
000003f0: 12ff 27bd a075 913b ef31 94bc 4bc3 593d
-0.02827417 -0.039387684 -0.029153174 -0.033290748 -0.025453463 0.049709562 0.00026440783 0.03371323
0.044144653 0.032960203 0.07985774 0.071105815 0.07517714 0.051377434 0.036120698 0.20552358
0.026056582 0.042495847 0.071147144 0.08144923 0.031634897 -0.036811493 0.08481619 -0.015256905
-0.026495121 0.0041070757 -0.012053443 0.08376693 -0.030904 0.10597202 0.07116032 0.0891003
0.036377903 0.060829744 -0.038641997 -0.0059475647 0.0844128 0.034702133 -0.001198885 0.07359003
0.043469217 -0.028440908 0.0044918545 -0.059678104 0.06963297 0.009023602 0.034890592 -0.026525285
0.025790365 0.20655046 0.08621589 0.07727446 0.10239292 0.08021762 -0.0033781738 0.07983035
-0.011718519 -0.029124612 0.057847813 -0.022633506 -0.008713653 0.0155707095 -0.028352436 0.06387157
-0.030827977 -0.022248706 -0.06624541 0.12482206 0.025917148 0.09770986 0.11122998 0.08862163
0.045110404 0.10688516 0.00019678297 0.01006774 -0.009126381 -0.026129117 0.0026364927 -0.05308212
0.051478084 0.10072952 0.033012066 -0.011695825 -0.012812653 0.015238927 -0.03604151 -0.008921092
-0.02200403 0.12949623 0.015449263 0.15179847 0.097917095 0.08426684 0.04642123 0.061703034
0.054587096 -0.018928781 0.0760473 -0.0013447232 -0.043267418 -0.026425408 -0.010858485 -0.041344244
-0.03488101 -0.048431307 -0.029589321 -0.055495482 0.02976426 0.036377903 -0.0027944313 -0.01192084
0.012226848 0.032951433 0.03284005 -0.018386006 -0.008717079 0.05407487 0.025832077 0.034627598
-0.008513325 -0.026194349 0.022392184 0.012110869 -0.02816457 0.017441437 0.022461066 -0.049612943
-0.0050177993 -0.052778687 -0.007341734 0.003239059 0.021613412 -0.024122072 -0.049850214 -0.006217844
-0.019358935 0.11717909 -0.0020930823 0.0041377535 0.05016457 -0.1016183 -5.3144384e-05 -0.07498275
-0.033673514 -0.0043623336 0.016842758 0.06156337 0.06831933 -0.000961939 0.010489481 -0.05391264
0.0060440786 -0.010220761 -0.00055593724 0.006013062 0.07646619 -0.00018100877 -0.037525304 0.024109775
0.053999 -0.04653129 -0.021758746 -0.03203496 -0.13265629 -0.064737976 -0.028908057 0.01543457
0.008879671 -0.006418049 -0.025615556 -0.0236619 -0.007571586 -0.029693745 -0.06223605 -0.017994756
0.030306792 -0.07575141 -0.020007344 0.009039875 0.048823003 -0.012422298 0.07331148 -0.044788744
0.00587038 0.038717117 0.02738301 -0.015709726 0.02885673 -0.035718422 -0.0963949 -0.015796717
-0.02892786 -0.08190934 0.021609046 -0.006783371 -0.063179426 0.029508013 0.0009481859 -0.07956016
-0.020862285 -0.00029948785 0.005515269 0.036005035 -0.020674048 -0.07828358 -0.009382667 0.051205903
-0.018713336 -0.009052937 -0.03370066 0.016067538 -0.03731078 -0.009258848 -0.011062115 -0.0028832133
0.03685936 0.015512554 -0.009308308 0.0013428621 0.013800504 -0.024947492 0.01716094 0.018631188
-0.041060425 0.0017261473 0.014837237 0.010941129 0.033516154 -0.009385198 0.0048311516 -0.019498615
-0.005001933 0.018538851 -0.024112673 -0.0027505928 -0.00036849605 0.04031852 -0.043313332 -0.0012362988
-0.05709786 0.02700342 -0.013727075 -0.0026925742 -0.0093789 0.04989305 -0.015759883 0.012306942
-0.010627845 0.0016741782 0.033317015 -0.0017588699 -0.04101474 0.004439071 -0.018090216 0.05316476

ntm.controller.lstm.bias_hh_l0 f4 [400]
00000000: 3b9f e7bc fb54 21bd a3d2 eebc e15b 08bd
00000010: c883 d0bc 419c 4b3d 38a0 8a39 e216 0a3d
00000020: 06d1 343d 4701 073d 748c a33d ed9f 913d
00000030: 79f6 993d 2571 523d 4cf3 133d c674 523e
00000040: 9d74 d53c 2010 2e3d 98b5 913d dbce a63d
00000050: 9893 013d a6c7 16bd 1cb4 ad3d 19f8 79bc
00000060: 4c0c d9bc a694 863b ce7b 45bc ff8d ab3d
00000070: 632a fdbc dc07 d93d 80bc 913d 387a b63d
00000080: ff00 153d 9c28 793d 1247 1ebd cae3 c2bb
00000090: 9ee0 ac3d d323 0e3d e823 9dba 5fb6 963d
000000a0: c70c 323d e8fc e8bc 6830 933b 0771 74bd
000000b0: bb9b 8e3d bbd7 133c 70e9 0e3d 8e4b d9bc
000000c0: 5146 d33c f781 533e f591 b03d 1242 9e3d
000000d0: 61b3 d13d 2349 a43d 5a64 5dbb 187e a33d
000000e0: 08ff 3fbc bd96 eebc d4f1 6c3d e769 b9bc
000000f0: b6c3 0ebc 4a1c 7f3c 5e43 e8bc 19cf 823d
00000100: f48a fcbc eb42 b6bc acab 87bd b5a2 ff3d
00000110: 3350 d43c 1b1c c83d 8bcc e33d 427f b53d
00000120: b0c5 383d 9be6 da3d 8757 4e39 2af3 243c
00000130: d186 15bc bb0c d6bc 02c9 2c3b a36c 59bd
00000140: afda 523d 474b ce3d a937 073d d89f 3fbc
00000150: 29ec 51bc b1ac 793c 43a0 13bd c629 12bc
00000160: cc41 b4bc a99a 043e e81e 7d3c 0f71 1b3e
00000170: c288 c83d 1894 ac3d 3024 3e3d 52bc 7c3d
00000180: b896 5f3d 8810 9bbc b0be 9b3d 6c41 b0ba
00000190: 2d39 31bd 197a d8bc c9e7 31bc 9558 29bd
000001a0: 64df 0ebd e85f 46bd 4e65 f2bc 3b4f 63bd
000001b0: 2dd4 f33c ff00 153d c722 37bb a04f 43bc
000001c0: 1e53 483c 15f8 063d 4a83 063d 409e 96bc
000001d0: 14d2 0ebc 9c7d 5d3d cb9d d33c abd5 0d3d
000001e0: 797b 0bbc 8895 d6bc d06f b73c ab6c 463c
000001f0: 62b9 e6bc 58e1 8e3c 4500 b83c f136 4bbd
00000200: 5a6c a4bb 772e 58bd ee92 f0bb 6446 543b
00000210: 9c0e b13c a79b c5bc bd2f 4cbd 0ebf cbbb
00000220: a196 9ebc 97fb ef3d 182c 09bb fe95 873b
00000230: 5d79 4d3d 411d d0bd 59e7 5eb8 8e90 99bd
00000240: 3ded 09bd e8f1 8ebb d3f9 893c df29 7c3d
00000250: 01eb 8b3d a22a 7cba 12dc 2b3c 80d3 5cbd
00000260: 680d c63b fb74 27bc 51bc 11ba 3809 c53b
00000270: 4e9a 9c3d 2ccd 3db9 22b4 19bd dd81 c53c
00000280: 0e2e 5d3d 9897 3ebd 663f b2bc 1737 03bd
00000290: 0dd7 07be 5895 84bd 97d0 ecbc 47e1 7c3c
000002a0: 0a7c 113c 7f4e d2bb b7d7 d1bc 9ad6 c1bc
000002b0: 111b f8bb 4c40 f3bc 3aeb 7ebd bd69 93bc
000002c0: f345 f83c 8e23 9bbd 71e6 a3bc fc1b 143c
000002d0: a1fa 473d e586 4bbc 5424 963d 6774 37bd
000002e0: 515c c03b d795 1e3d 5652 e03c afb1 80bc
000002f0: f364 ec3c 7b4d 12bd b06a c5bd 1e68 81bc
00000300: 1ffa ecbc 16c0 a7bd 7405 b13c 0a47 debb
00000310: 3764 81bd caba f13c ae8f 783a 70f0 a2bd
00000320: 62e7 aabc 9404 9db9 6eb9 b43b 047a 133d
00000330: 9f5c a9bc 2453 a0bd c2b9 19bc 48bd 513d
00000340: b64c 99bc c552 14bc b409 0abd 12a0 833c
00000350: 30d3 18bd 6cb2 17bc e03d 35bc 4bf4 3cbb
00000360: d7f9 163d 5e28 7e3c e081 18bc fa02 b03a
00000370: 821b 623c af5e ccbc 1a95 8c3c 6fa0 983c
00000380: fa2e 28bd e43f e23a e217 733c 6c42 333c
00000390: 3c48 093d 60c4 19bc a34e 9e3b 8fbb 9fbc
000003a0: 41e7 a3bb cade 973c f187 c5bc 4a43 34bb
000003b0: b432 c1b9 0825 253d 5269 31bd 4e0b a2ba
000003c0: 72df 69bd 4736 dd3c 87e7 60bc e675 30bb
000003d0: f5a9 19bc a85c 4c3d df1a 81bc 0ea3 493c
000003e0: 6a20 2ebc 1970 db3a 6c77 083d e189 e6ba
000003f0: 12ff 27bd a075 913b ef31 94bc 4bc3 593d
-0.02827417 -0.039387684 -0.029153174 -0.033290748 -0.025453463 0.049709562 0.00026440783 0.03371323
0.044144653 0.032960203 0.07985774 0.071105815 0.07517714 0.051377434 0.036120698 0.20552358
0.026056582 0.042495847 0.071147144 0.08144923 0.031634897 -0.036811493 0.08481619 -0.015256905
-0.026495121 0.0041070757 -0.012053443 0.08376693 -0.030904 0.10597202 0.07116032 0.0891003
0.036377903 0.060829744 -0.038641997 -0.0059475647 0.0844128 0.034702133 -0.001198885 0.07359003
0.043469217 -0.028440908 0.0044918545 -0.059678104 0.06963297 0.009023602 0.034890592 -0.026525285
0.025790365 0.20655046 0.08621589 0.07727446 0.10239292 0.08021762 -0.0033781738 0.07983035
-0.011718519 -0.029124612 0.057847813 -0.022633506 -0.008713653 0.0155707095 -0.028352436 0.06387157
-0.030827977 -0.022248706 -0.06624541 0.12482206 0.025917148 0.09770986 0.11122998 0.08862163
0.045110404 0.10688516 0.00019678297 0.01006774 -0.009126381 -0.026129117 0.0026364927 -0.05308212
0.051478084 0.10072952 0.033012066 -0.011695825 -0.012812653 0.015238927 -0.03604151 -0.008921092
-0.02200403 0.12949623 0.015449263 0.15179847 0.097917095 0.08426684 0.04642123 0.061703034
0.054587096 -0.018928781 0.0760473 -0.0013447232 -0.043267418 -0.026425408 -0.010858485 -0.041344244
-0.03488101 -0.048431307 -0.029589321 -0.055495482 0.02976426 0.036377903 -0.0027944313 -0.01192084
0.012226848 0.032951433 0.03284005 -0.018386006 -0.008717079 0.05407487 0.025832077 0.034627598
-0.008513325 -0.026194349 0.022392184 0.012110869 -0.02816457 0.017441437 0.022461066 -0.049612943
-0.0050177993 -0.052778687 -0.007341734 0.003239059 0.021613412 -0.024122072 -0.049850214 -0.006217844
-0.019358935 0.11717909 -0.0020930823 0.0041377535 0.05016457 -0.1016183 -5.3144384e-05 -0.07498275
-0.033673514 -0.0043623336 0.016842758 0.06156337 0.06831933 -0.000961939 0.010489481 -0.05391264
0.0060440786 -0.010220761 -0.00055593724 0.006013062 0.07646619 -0.00018100877 -0.037525304 0.024109775
0.053999 -0.04653129 -0.021758746 -0.03203496 -0.13265629 -0.064737976 -0.028908057 0.01543457
0.008879671 -0.006418049 -0.025615556 -0.0236619 -0.007571586 -0.029693745 -0.06223605 -0.017994756
0.030306792 -0.07575141 -0.020007344 0.009039875 0.048823003 -0.012422298 0.07331148 -0.044788744
0.00587038 0.038717117 0.02738301 -0.015709726 0.02885673 -0.035718422 -0.0963949 -0.015796717
-0.02892786 -0.08190934 0.021609046 -0.006783371 -0.063179426 0.029508013 0.0009481859 -0.07956016
-0.020862285 -0.00029948785 0.005515269 0.036005035 -0.020674048 -0.07828358 -0.009382667 0.051205903
-0.018713336 -0.009052937 -0.03370066 0.016067538 -0.03731078 -0.009258848 -0.011062115 -0.0028832133
0.03685936 0.015512554 -0.009308308 0.0013428621 0.013800504 -0.024947492 0.01716094 0.018631188
-0.041060425 0.0017261473 0.014837237 0.010941129 0.033516154 -0.009385198 0.0048311516 -0.019498615
-0.005001933 0.018538851 -0.024112673 -0.0027505928 -0.00036849605 0.04031852 -0.043313332 -0.0012362988
-0.05709786 0.02700342 -0.013727075 -0.0026925742 -0.0093789 0.04989305 -0.015759883 0.012306942
-0.010627845 0.0016741782 0.033317015 -0.0017588699 -0.04101474 0.004439071 -0.018090216 0.05316476

ntm.controller.lstm.weight_ih_l1 f4 [400, 100]
00000000: 54bd 5b3e 7dda d1be 8515 9f3e fe36 b6bc
00000010: 7e35 803e d06e 40be 6ed8 1b3e 3bc6 5cbe
00000020: 881f e73d 4208 87be ece0 63bc cf63 98bc
00000030: b987 02bd 4d70 913e 6d40 3dbd 5ab3 90bd
00000040: 461d 6b3e c8cc 9a3c 9266 9abe 3e03 16be
00000050: bad9 8bbe 29de e83e 2a2c 8ebe 3071 f83d
00000060: 3905 593e 1e46 67be c17a 47be d02e 753c
00000070: f28a 7fbe da21 77bd 3e27 2b3e 8c71 78be
00000080: 64a9 d6bd b8c0 f33d 6925 98bd d083 e3bd
00000090: 9969 cc3d ff57 a7be 1d08 243e 5171 c6bc
000000a0: f062 d03d fc94 153e 3080 913e 9107 a33d
000000b0: e0c3 093e 3229 82be 48bb d23d db72 19be
000000c0: 368e 1a3e 2de8 873e e947 443d c624 8bbe
000000d0: 4225 b73d 7d1d 873e 6d7f b6be cdd2 78bd
000000e0: 0a9f 913e 95e5 423d b199 e13d 9375 d53d
000000f0: fb8f b639 24dd 133d 8bb8 603e ae22 c5bd
00000100: 6551 993e 1400 bdbc e44b ae3d 4881 26be
00000110: db71 003e a9e4 37be 341a 7d3e 1854 62be
00000120: eb97 b83e 97b5 c4bc 6638 863e 1ecf 03bd
00000130: 2480 e2bd 2b46 3f3e 231d b43d 8f98 82bd
00000140: 84cb 2fbe c499 e63d 87fb 053e b6fe 993e
00000150: 9ba0 743e 0b4c 653e 9474 a13d 4337 fb3d
00000160: c39d 6cbe e39c 0e3e 28a6 233e 5aa4 c7bd
00000170: a424 c03e a4ab b5bd 142f 603e ea85 49bd
00000180: 2f50 86be 4f84 39bd 7046 b6be 1d9c aabe
00000190: 631b d7bc b2c6 823e 162b bd3d 4056 f53d
000001a0: acf8 8e3d 9469 81be 7fbf 883e 3bbc 0b3e
000001b0: cce6 8bbe 0031 89bc 478e 333e 2c39 a3be
000001c0: db84 33be 85a6 713e d78a 9e3e 1abc 90be
000001d0: a046 63be 7a82 9a3d 01ef c8bd d597 72be
000001e0: 550a 173e 40c4 d23d 6ad3 ba3d dc23 e13d
000001f0: eb0b a73d d3f3 b03e 8756 0f3d edad 5bbe
00000200: 501f 3f3e 16b6 d9bd 0e14 9e3e 209a adbe
00000210: de18 0e3d dc71 68bc 7ae3 03be 9b86 99bd
00000220: a91a 7e3e 5546 363e 7720 3e3e faa6 5cbe
00000230: da3d a4be 5bbc d73d e59a 1fbe 0792 9cbe
00000240: 3765 803e e14d 913e 38a2 07be a495 90be
00000250: 6447 8dbe 0dac 18be 6aa2 dfbd 8741 89bd
00000260: d1ca 0a3e 6843 50be 88fc a1bd b772 92be
00000270: 6e17 20bb f94d 8bbe 8b64 9cbe a702 bebe
00000280: e112 b53e 8f79 8c3e e7bd 73be bf30 6abe
00000290: c503 793d 3a57 0abd 2fb0 87be d897 af3d
000002a0: 7de9 9c3e 9b81 983d 69c6 90be a33b 3dbe
000002b0: 0079 0ebd 2622 6c3e 5e9f dbbd 3cd6 3f3e
000002c0: 8082 a1be f952 26be 62da 86be d20a 47be
000002d0: fe12 bb3e b059 29be 93cc ea3d 63fc 90bc
000002e0: 37eb 55be d9d7 48be bafc 9f3e ee84 5bbe
000002f0: 278d a33e cb86 f4bd 2ed8 00be 1b78 dcbe
00000300: 947a 893e 47da c83d 7d9b 8dbe 4433 a9be
00000310: d00a 92bd 418a 21be 13c7 823e 188e 943e
00000320: 9a9a 2abe 3753 1b3e 7db2 afbe 1990 0c3e
00000330: 25d5 333e 3e4d 59bc 5a2d 95be 0e77 dc3d
00000340: 3c86 293e e5e6 253e bbdc 7bbd f3af e33d
00000350: 3d6a 86bc dfd8 c4be 55d7 483e cc6d 573c
00000360: 6b2f 67bd bff7 1cbe 228f a5bc a7c9 f03b
00000370: 1729 06be a510 96be c2fc 91be e6ed 223e
00000380: 8958 ab3e 5475 a1bd ecc6 be3d fc12 8ebe
00000390: 4fe0 77be fe8c abbc 6c0d 893d e32a 4e3d
000003a0: ae40 acbc 0fdb 8a3e e2f8 2e3d 8bad 47be
000003b0: f17e 243e 5c7e c2be 9520 a9be ef20 483e
000003c0: 32cb a33e 7230 343d 8ccf 323e 7930 54bd
000003d0: d69a 06bf fc13 873e 8019 1bbc 6bd6 e33d
000003e0: eaa0 af3d 3a95 1a3e 14e4 493d bed0 983d
000003f0: 7ed2 83be 7dbd db3d ac39 333e a56a 25be
0.21458942 -0.40987006 0.31071106 -0.02224302 0.2504081 -0.18792272 0.1521928 -0.21559994
0.11285311 -0.26373488 -0.013908606 -0.01860228 -0.031867716 0.2840599 -0.04620402 -0.070654586
0.22960386 0.018896475 -0.3015638 -0.14649674 -0.2731455 0.45481995 -0.2776807 0.12130964
0.21193399 -0.22585341 -0.1948042 0.014964774 -0.24955347 -0.060335018 0.16714188 -0.24262065
-0.104815274 0.119019926 -0.074290104 -0.111091256 0.09981079 -0.32684323 0.1601872 -0.024223955
0.10175121 0.14607614 0.28418112 0.079604276 0.13453627 -0.25422055 0.10289627 -0.1498522
0.15093312 0.26544324 0.04792014 -0.27176493 0.08942653 0.26389685 -0.35644093 -0.06074791
0.2844165 0.047582228 0.110156424 0.10422816 0.0003482102 0.036099568 0.21945398 -0.09625755
0.29944912 -0.023071326 0.08510569 -0.16260254 0.12543432 -0.1795832 0.24717027 -0.22102392
0.36053404 -0.02401237 0.26214904 -0.032179944 -0.11059597 0.1867911 0.0879462 -0.063767545
-0.17167479 0.11259797 0.13084231 0.30077142 0.23889391 0.2239229 0.07883564 0.122664
-0.23107056 0.13927035 0.15981352 -0.097481444 0.37527955 -0.088706285 0.21892959 -0.049199976
-0.2623305 -0.045292195 -0.35600615 -0.3332223 -0.026258176 0.25542217 0.092367336 0.119793415
0.06981024 -0.25275862 0.267086 0.13646023 -0.27324522 -0.016746998 0.17534743 -0.31879556
-0.17531149 0.23598678 0.309653 -0.2826851 -0.2219491 0.07544418 -0.098112114 -0.23690732
0.14750035 0.10291338 0.09122355 0.10993168 0.0815657 0.34561023 0.03499463 -0.21453066
0.18664289 -0.10630433 0.30874676 -0.3390665 0.034691684 -0.014187302 -0.12879744 -0.07496377
0.24814858 0.17800267 0.18567072 -0.21548072 -0.3207844 0.10533973 -0.15586431 -0.3058016
0.2507722 0.2837973 -0.13245475 -0.28239167 -0.2759353 -0.14909382 -0.1091965 -0.067019515
0.13553931 -0.20338213 -0.07909495 -0.28603145 -0.0024428028 -0.27207926 -0.30545458 -0.371114
0.35365966 0.27436492 -0.23802911 -0.22870158 0.06079461 -0.033774592 -0.26501605 0.08573884
0.30646887 0.07446595 -0.28276375 -0.18479781 -0.034783363 0.23059902 -0.10723756 0.18734068
-0.31544876 -0.16242589 -0.26338488 -0.19437721 0.36537927 -0.1653812 0.11464801 -0.017698472
-0.20890509 -0.1961359 0.31247503 -0.21437427 0.31943628 -0.11939772 -0.12582466 -0.43060383
0.26851332 0.09807258 -0.2765769 -0.33046925 -0.071309686 -0.15775396 0.25542507 0.2901466
-0.16660538 0.15168463 -0.34315863 0.13726844 0.17561777 -0.013263045 -0.29136163 0.107648954
0.16555113 0.1620136 -0.0614898 0.11117544 -0.01640808 -0.3844671 0.19613393 0.013148736
-0.056441706 -0.15328883 -0.020209853 0.0073482576 -0.13101612 -0.29309574 -0.2851315 0.15911064
0.33465984 -0.07883707 0.09315285 -0.2774886 -0.2420666 -0.020941254 0.06692013 0.05033387
-0.021026935 0.27120253 0.042717822 -0.19499795 0.1606405 -0.3798703 -0.3303267 0.19543813
0.31990963 0.043991514 0.17461985 -0.05180404 -0.5258001 0.26382434 -0.009466529 0.11124881
0.08575614 0.15095988 0.049289778 0.074616894 -0.2574653 0.107295014 0.17502469 -0.16153963

ntm.controller.lstm.weight_hh_l1 f4 [400, 100]
00000000: cc25 9cbe 1bbf 1fbe 7542 a63e e791 83be
00000010: 1f41 b93e 37ef 6fbe 2f6e f5bc 3d6b 123e
00000020: 2285 2ebd 2599 05be 0c6a 333d 2c77 c7be
00000030: 74a6 8e3d 10c0 24be 0d30 9fbc 476c efbd
00000040: b579 413e bc1e 6b3e eb40 863e 1587 17be
00000050: 4c01 53be 75bc 73be b93d 22bd 5927 77be
00000060: 7da4 a13d e50e 503e 806f 87be 6912 90be
00000070: 3bc4 ddbc 68f4 843e 8bc6 88bc 674f 58be
00000080: f82c 6d3d 7906 423e 6563 8f3e 33df 14be
00000090: ad06 77be e616 cf38 689b 833e 0056 bb3e
000000a0: 5021 183e 8be6 5abd 3259 343e 2974 7d3c
000000b0: 3b1d c23e f150 5ebd cfca 8dbe 5b88 99be
000000c0: d8d4 d3be 6a78 053e 7297 8cbd 63ec 8abe
000000d0: 591c 9ebe 02d5 d5bd dc9c c2be e262 cebd
000000e0: 253c 903e 319f 6abe 1f8c 523e 47c8 5bbe
000000f0: 3b44 d93d b5eb 9d3b 5ff9 49ba cbbe 53be
00000100: 1076 8cbe 5689 7a3e 341a 4abe d784 a83e
00000110: c437 f5be 638b a43e df81 36be e154 243d
00000120: 05fd 5f3e 5197 893e ee51 073e db90 8f3e
00000130: 888e 373e e9c4 863d 701e 2e3e 6b7a 363e
00000140: 8456 893e 5607 cf3e c663 42be 9b90 e0bd
00000150: 1437 91be 6916 afbe 4656 6a3e 7725 2abe
00000160: b957 aabd 76b6 903e 7307 f83d fa01 a23e
00000170: 5b3e 42bd 77b0 8dbe fa6e dbbe 3dc4 523e
00000180: d757 19be 0739 8dbe 236b acbe be90 dbbe
00000190: d609 a1be b219 233e 4c00 923e 8338 a93e
000001a0: fd91 833e 55a5 863e 8c36 a23d bb6f 703e
000001b0: 0663 93be d528 683e d829 63bd 6601 233e
000001c0: cdd8 18bd 7a72 373e 17fe 843e 9286 293e
000001d0: bde9 9bbe 6fe6 a73e 47ee 833e 8f44 b23d
000001e0: 9b48 8f3e 46f8 7abe 1fcb a33e 0b05 b13e
000001f0: d0dd e4bd 4b1c 6c3d 5765 98be 118e 463d
00000200: 40d0 f33c 6235 94be 9608 9a3e 332e b03e
00000210: c740 36be 7d55 6abd ab0b a2bb 0758 9e3d
00000220: 5ba8 b93e 7d05 60bd 291d 08bc fc16 f93d
00000230: 929a 60be 0e04 933e 1903 023e 009c 80be
00000240: 26cc a5be 1235 fc3d 4eb6 713c a3ee 9e3e
00000250: 35c0 9cbe 755d 603e c346 fe3d 461b ebbd
00000260: 23a0 afbd bd20 653d d3bc 403e ce22 2a3e
00000270: 4228 1d3e 18b9 633e 2822 35be cd7f 9abd
00000280: 084c 543d 4e06 2c3e 2d54 b63e 2b48 c53e
00000290: 831b 733e c8f6 62be c09e 6b3e b395 ce3e
000002a0: 33b5 253e e2dc 6b3e 72a1 0b3e 0683 bfbe
000002b0: a852 13be bf0d 04be 8564 13be 9c00 06be
000002c0: 7b27 89be 68cf a63d 680f efbd 91f4 673e
000002d0: ddd2 d9bd 12aa 5dbe c6c3 bc3d fe92 9e3d
000002e0: 2f0e 9c3e b488 543e 72e6 893e e483 183d
000002f0: 39b7 063e a6a1 f73b 7c53 4e3e b732 c0be
00000300: 355b e6bd bc6b 8dbc 425d 743b c809 a33e
00000310: b554 133e 7d72 993e c57d 48be 9f09 17bd
00000320: a44f 393e 4de5 4d3e 2e13 a9bd 30e1 b73c
00000330: 92e7 553e cb8c a1be 1d44 91be 4301 0c3d
00000340: 9f46 82be bc56 9a3e 83c9 8f3c 690b 963e
00000350: 93f7 5a3e add0 e3bd 1e29 923e 7d11 d63b
00000360: 96ca 9ebe 46ed 0bbe cff2 87be a28b a5be
00000370: dcf3 053e 4b79 d4bd 5138 93bd ee79 f6bd
00000380: 9d2d a8bd 0723 733d 1700 cfbc 1e2f 3cbe
00000390: 803d d93d 9f7b f5bd e3f8 b6bd ff88 0abe
000003a0: 0d85 e33c 4dc1 4d3e 2c36 82be 2156 59be
000003b0: 467c 72be e55d 35bd 2013 48be 8b50 c33d
000003c0: bbda 443e 51b3 d33d 9db5 5bbe ee76 e03d
000003d0: 1529 39be 21a6 c7bb 602b 603e b7d1 3fbe
000003e0: 6e35 8ebe 3f14 3ebe 40dd 1b3d cea6 3f3e
000003f0: 154b 9d3d 1481 20bd 9e4b 053e 0f00 81be
-0.30497587 -0.15600245 0.32472578 -0.25697252 0.36182496 -0.23431097 -0.029959766 0.1429872
-0.042607434 -0.13046701 0.043802306 -0.38958108 0.06965342 -0.16088891 -0.019432092 -0.11690574
0.18894084 0.22960943 0.26221403 -0.14797623 -0.20605963 -0.2380236 -0.039609645 -0.24136104
0.07892702 0.20318182 -0.26452255 -0.28139046 -0.027071109 0.25967717 -0.016696235 -0.2112404
0.057904214 0.18947782 0.2800552 -0.14538269 -0.2412364 9.874794e-05 0.25704503 0.3658905
0.14856458 -0.05344252 0.1761215 0.015469589 0.37912926 -0.05427641 -0.27693793 -0.29986843
-0.41373324 0.13034216 -0.068648234 -0.27133474 -0.30881003 -0.10441019 -0.380103 -0.10077454
0.28170887 -0.22912289 0.20561264 -0.21463118 0.10608717 0.0048193582 -0.00077047007 -0.2067825
-0.27433825 0.24466452 -0.19736558 0.3291385 -0.47894108 0.32137594 -0.1782298 0.04012001
0.21873863 0.26873258 0.13214847 0.28040203 0.17925465 0.065805264 0.17003798 0.17820136
0.2682382 0.40435284 -0.18983373 -0.10965081 -0.28362334 -0.34196785 0.22884473 -0.16615854
-0.08317513 0.28264207 0.12110796 0.31642133 -0.047422748 -0.27673694 -0.42858106 0.20582671
-0.14974914 -0.2758257 -0.3367549 -0.42883867 -0.31452817 0.1592777 0.28515851 0.33050928
0.25697318 0.26298013 0.0792056 0.23480122 -0.28786486 0.22671826 -0.055459827 0.15918502
-0.037316132 0.17914763 0.25975105 0.16555241 -0.30451766 0.32792994 0.2576773 0.08704483
0.2798508 -0.24508771 0.31990907 0.3457416 -0.1117512 0.05764417 -0.29764816 0.04847533
0.029762387 -0.28946978 0.30084676 0.34410247 -0.17798148 -0.057210434 -0.0049452386 0.07731634
0.36261258 -0.054692734 -0.008307734 0.12162587 -0.21933964 0.2871403 0.12696494 -0.2511902
-0.32382315 0.1231481 0.0147529375 0.3104144 -0.30615392 0.21910651 0.124158405 -0.11479811
-0.085754655 0.055939425 0.1882203 0.1661484 0.15347388 0.22238576 -0.17688811 -0.07543907
0.05183032 0.1679928 0.35611096 0.38531622 0.23740964 -0.22164452 0.23009777 0.40348586
0.16182403 0.23033479 0.13635805 -0.3740465 -0.14387 -0.12895869 -0.14393814 -0.1308617
-0.26787934 0.08145028 -0.116728604 0.22651888 -0.10635922 -0.21646908 0.09217028 0.0774288
0.3047957 0.20755273 0.26933628 0.037235156 0.13155831 0.007557112 0.20149034 -0.37538692
-0.11247865 -0.017263286 0.0037287031 0.318434 0.14387782 0.2997016 -0.19579227 -0.03687441
0.18096787 0.20107003 -0.08255611 0.022446245 0.20889118 -0.3155273 -0.2837228 0.03418089
-0.25444505 0.30144298 0.017552143 0.2930558 0.21383505 -0.11123786 0.28546995 0.0065328465
-0.31013936 -0.13664731 -0.26552436 -0.32333094 0.13081306 -0.10374697 -0.07188476 -0.12034975
-0.08211825 0.059359577 -0.025268598 -0.18377349 0.10607433 -0.119864695 -0.0893419 -0.13528822
0.027773404 0.2009327 -0.25431955 -0.21224262 -0.23680219 -0.044278998 -0.19538546 0.09536847
0.19224064 0.10336936 -0.21455999 0.10960184 -0.18082078 -0.006092802 0.21891546 -0.18732344
-0.2777514 -0.18562411 0.038052797 0.18715975 0.076803364 -0.0391856 0.13017127 -0.25195357
