results/priority-sort/priority-sort-task-1-batch-32000.model (torch_old, 876115 bytes, 49 tensors)

ntm.read0_bias f4 [1, 20]
000000 d3 d4 0b 3c 26 33 0a 3c 0d 66 07 bc 89 8c 3e 39
       0.008534628 0.008435046 -0.008264077 0.00018172165
000010 18 12 99 3b 83 6f 18 3c dd 0b 19 3b bd f5 35 3c
       0.0046713464 0.00930393 0.0023353018 0.011105952
000020 4d c3 c8 3b 41 e3 3a bc 7e 4e a9 ba f7 b1 ef ba
       0.0061267973 -0.011406721 -0.0012917069 -0.0018287291
000030 87 a4 d5 bc f7 f7 3f 3b 98 dc 8b 3c eb 0f 77 bc
       -0.02607943 0.0029292086 0.01707296 -0.015079479
000040 2d 3b 1a bc 44 c2 45 3b e9 ba 21 3c dc 91 b0 3a
       -0.009413523 0.0030175606 0.009871223 0.0013471204

ntm.read1_bias f4 [1, 20]
000000 26 7f f3 3b 16 22 21 bb eb 81 c9 3b 06 05 d1 3b
       0.0074309288 -0.0024586967 0.0061495206 0.0063787727
000010 07 69 5e 3b 59 80 a8 3b af 91 49 bb cb 9c f5 ba
       0.0033937113 0.0051422534 -0.0030757 -0.0018738745
000020 34 1a d5 ba 10 0a a6 ba 38 2b 9c 3c dd 00 36 3c
       -0.001625842 -0.0012667794 0.019063577 0.011108604
000030 cc c1 94 bb 4a 2c 23 bc fe e3 20 39 97 bd db bb
       -0.004539704 -0.00995929 0.00015343723 -0.0067059505
000040 d4 87 11 3b e4 78 0e 3c b7 70 1b bc ea 51 78 bb
       0.0022206204 0.008695815 -0.0094873225 -0.0037890621

ntm.read2_bias f4 [1, 20]
000000 5d ed 09 3c fb 63 b1 bc 34 97 d6 3c b3 e7 72 bc
       0.008418408 -0.02165412 0.026195146 -0.014825749
000010 83 36 e9 3b 8a e3 68 3b b0 e4 b0 3b 87 3d 34 3b
       0.007117094 0.0035536014 0.0053983554 0.0027502493
000020 14 97 25 bc 5b 63 23 bc 20 3e 24 3c ff 13 88 ba
       -0.010106821 -0.009972419 0.010024577 -0.0010381936
000030 92 03 64 bb 58 3d 7b 3b 6a 02 dc ba ab 40 67 3b
       -0.0034792167 0.0038336124 -0.0016785387 0.0035286348
000040 55 61 85 3c 46 3c 81 bc ed b1 95 3c 13 a6 32 bc
       0.016281763 -0.01577581 0.018273318 -0.010903853

ntm.read3_bias f4 [1, 20]
000000 e8 fc 10 bc 3e bf 0a 3b a0 79 22 bc e8 8e 9d 3b
       -0.00884936 0.0021171118 -0.009916693 0.0048082955
000010 db 03 d4 39 a6 a9 64 3b ed 59 b9 3c d3 a3 4e bc
       0.00040438664 0.0034891157 0.022625888 -0.012612301
000020 4b 5c d1 3a 9a 11 0c ba a5 f1 3c 3c 15 65 d3 3b
       0.001597294 -0.0005343199 0.011532222 0.006451259
000030 70 e9 57 ba f9 7e 82 3b 8e 46 c2 3b 61 60 06 bc
       -0.0008236384 0.0039824215 0.005928821 -0.008201689
000040 95 82 6b bc 40 a2 40 bb 90 8b 13 bc 19 48 90 3c
       -0.014374395 -0.0029393584 -0.009005442 0.017612504

ntm.read4_bias f4 [1, 20]
000000 b4 59 a9 3a ed 3d 92 3c 46 6d ee ba 1b 01 f3 3b
       0.001292041 0.017851794 -0.0018190525 0.0074159033
000010 00 a8 81 bb 10 fe 10 bc e6 12 d2 bb 50 1c 07 3c
       -0.0039567947 -0.008849636 -0.0064109443 0.008246496
000020 f6 4c 1d bb 30 4d 08 3c 7e 27 33 bc 74 55 70 bc
       -0.002400217 0.008319184 -0.010934709 -0.014668811
000030 4b 8f 44 bc d8 5d 1d bc 57 d2 c9 b9 bd f3 d8 3a
       -0.011997054 -0.009604894 -0.00038494423 0.0016552132
000040 4a 8c b8 3b 43 4f 13 bb b7 f8 8a bc b6 f7 29 3c
       0.005631958 -0.0022477664 -0.0169643 0.010374

ntm.controller.lstm_h_bias f4 [2, 1, 100]
000000 a5 f0 67 3d 3b 1c 42 bd b7 c3 7b bc ab f7 e2 bd
       0.05662598 -0.047390204 -0.015366486 -0.11082395
000010 73 db 5f bd f7 52 ae 3d e9 37 a1 bd 32 0c 77 bd
       -0.054652642 0.08511918 -0.07871992 -0.060314365
000020 bd 65 6e 3b 0b 39 81 3b 55 38 11 bd bc cc 1b bd
       0.0036376559 0.0039435676 -0.035454113 -0.038037047
000030 96 9f 2a 3d 49 f8 de 3c 51 da b9 bd cd 5d 71 3d
       0.0416561 0.027218001 -0.09074844 0.058927346
000040 84 f1 f3 bc c5 86 98 bc 86 ca dd 3d a2 5b 90 3d
       -0.02977825 -0.01861895 0.10829644 0.070487276
000050 c5 f0 82 bd 68 3b d6 3c bb 99 18 3d 5f 4b ba bd
       -0.063935794 0.026151374 0.037255984 -0.09096407
000060 7d 5f 86 bd d6 e6 c4 3d 40 40 46 bd 6a c5 11 bd
       -0.06561182 0.09614341 -0.048401117 -0.03558866
000070 e2 c5 c5 bb d3 c5 d4 bc 13 6f 73 bd 39 a2 ab bd
       -0.0060355524 -0.025973236 -0.0594321 -0.08380551
000080 ad de 3b bd 51 d2 3e bd e4 47 1d be 25 53 b7 3c
       -0.045866657 -0.046587292 -0.15359455 0.022378514
000090 bd 04 4f bd 35 0c 1a bd 12 dc 23 3e b2 40 de 3b
       -0.05054163 -0.037609298 0.16001919 0.0067826146
0000a0 c0 b6 38 3d a3 a0 e4 bc 8d 24 e5 bc bb fe 17 3c
       0.04509616 -0.027908629 -0.02797153 0.009277041
0000b0 3a 54 04 bd 23 f3 0c bc 0b d3 ad ba 7a dc 9a 3d
       -0.032306887 -0.00860289 -0.0013261748 0.07561584
0000c0 c9 36 10 3d 6d 25 0f bc 9a 7e e6 3c e4 37 d2 3d
       0.035208497 -0.00873695 0.02813654 0.102645665
0000d0 94 c1 fa bc 5c 7b f3 3d 89 c2 02 bc fc b0 86 b9
       -0.030609883 0.11888763 -0.007980951 -0.00025690335
0000e0 ca 2c b2 3c 78 48 d2 bd 50 92 78 3d 36 a7 d4 3d
       0.021749873 -0.102677286 0.06068641 0.103834555
0000f0 d4 28 ce 3d d7 01 84 bc a4 91 51 3d 20 16 77 3c
       0.10066381 -0.016114159 0.051164284 0.015080959
000100 d7 02 8a 3d 40 87 39 bd a4 02 8c 3b b3 e7 b9 bd
       0.06738823 -0.045295 0.0042727757 -0.09077396
000110 eb 33 dd bd a2 fa ff bd a6 35 0a bd 29 d8 bf bd
       -0.10800918 -0.12498976 -0.03374257 -0.09367401
000120 22 b1 96 3c 35 02 fc bc 67 f4 a5 3c a7 fe 21 bd
       0.01839501 -0.030762771 0.020258142 -0.039549496
000130 48 d4 a9 bd 89 db d4 bd 6f e3 58 3c 3d 14 fd bc
       -0.082924426 -0.103934355 0.013237818 -0.03089344
000140 e0 d4 15 3d f7 64 95 bd e2 9d 1e be af 0b 4b b9
       0.036579967 -0.07294648 -0.15489915 -0.00019363941
000150 d7 20 23 bd 67 77 f6 3c 02 55 34 bd e0 74 f3 bc
       -0.03982624 0.030086232 -0.044026382 -0.029718816
000160 2b 4c af 3c 71 b1 d4 3d bd c0 76 bb d6 82 36 bc
       0.021398624 0.10385407 -0.0037651502 -0.011139592
000170 5c 61 65 3d ec a7 13 bd a6 60 c8 3d 23 7a 88 bd
       0.056001052 -0.036048815 0.09784059 -0.06663921
000180 f7 46 b8 3d 3e 87 d9 3d 70 73 fa 3c 8b 26 33 bd
       0.089979105 0.106214985 0.030572623 -0.04373793
000190 25 d9 8e 3e 48 4c 83 3d 0c 24 8f 3d a3 0d ba 3d
       0.27900043 0.06411034 0.06989297 0.09084632
0001a0 eb 35 08 be ce fa 82 3d 8f 7c d7 3d bf 64 f2 bd
       -0.13301818 0.063954934 0.105218045 -0.11835622
0001b0 87 20 a5 3d 4d 08 cd bd 8f c9 b9 bc e8 a1 9c bd
       0.08062845 -0.10011349 -0.022679118 -0.07648069
0001c0 85 4f 03 3e 25 97 a4 3d 34 a1 50 bd 2a d8 ad bd
       0.12823303 0.08036641 -0.050934985 -0.08488496
0001d0 8b 83 24 3e 7d 03 23 bc 2f 48 f3 bd 33 c4 8b 3c
       0.16065805 -0.009949562 -0.11879002 0.017061329
0001e0 2f 52 ac bd 17 30 5f 3d ed c6 22 3d f8 34 70 3d
       -0.08414113 0.05448922 0.03974049 0.058644265
0001f0 32 9e f5 bc 63 de c6 bd 86 30 53 bd 17 a5 12 3e
       -0.02998266 -0.09710386 -0.051559947 0.1432079
000200 1d b8 2d bb f9 5e 1c 3e b3 8d 9d 3d 4b 87 1e 3d
       -0.0026507445 0.15270604 0.076930426 0.038703244
000210 43 8a 9f 3d 90 80 40 bc 26 55 1f 3e d6 b3 d3 bd
       0.07790043 -0.011749402 0.15559825 -0.10337035
000220 bf 6e 01 bb b1 de 11 3c 5a 7e b9 3d 39 10 95 bd
       -0.0019749848 0.008903191 0.09057303 -0.07278485
000230 5c da 9d 3d e4 1c ae bd 6c 09 c9 bd 50 90 99 bd
       0.07707664 -0.08501604 -0.0981625 -0.074982285
000240 76 b1 a4 bc b7 f7 52 3c e8 52 d8 3d 11 97 82 bb
       -0.020104151 0.012876443 0.10562688 -0.0039852937
000250 d5 85 f1 3d 32 38 bd bc 29 4a 38 3c 31 58 09 3e
       0.117931046 -0.023098085 0.01124815 0.13412549
000260 0b bb 7d 3d 1b 7a cf bc d1 7d 83 bd be cb c3 ba
       0.061945956 -0.02532678 -0.06420482 -0.0014938039
000270 73 15 06 be b1 5f b1 bd ee 27 25 3d c4 e4 ce bd
       -0.1309412 -0.0866083 0.040321283 -0.10102227
000280 28 48 87 3d 72 ce dd 3d 9a 4a 0a 3e 7d 39 c8 3d
       0.066055596 0.10830392 0.1350502 0.0977659
000290 3e 07 fa bc 67 57 63 bd 48 ab 75 3c e4 dc ad bc
       -0.030521031 -0.055503275 0.01499445 -0.021223493
0002a0 24 3c 2b 3d d1 9b 79 3d 69 67 6e 3d 1c 67 77 3e
       0.0418054 0.060939614 0.05820409 0.24160427
0002b0 bf 1b 14 be 52 e0 9e 3d 72 84 9c 3d e5 bb 25 be
       -0.1446371 0.077576295 0.076424494 -0.16184957
0002c0 fd 07 a0 3d 4c 54 1e bd 4c 2b d1 bd b7 99 26 be
       0.07814024 -0.03865461 -0.10213336 -0.16269575
0002d0 9b aa 42 3d b5 10 88 bd 20 6d 66 bb 8b 9c f9 bd
       0.047525983 -0.066438116 -0.0035160258 -0.12188061
0002e0 84 e0 22 3e 33 6a cd bd 76 3a ab bd 9a b4 0a be
       0.15905958 -0.100300215 -0.0836076 -0.13545457
0002f0 66 b1 0f bd 0f 9d e5 bd 07 c4 9a 3d 84 52 a1 bd
       -0.03508129 -0.11211597 0.075569205 -0.07877067
000300 4e b7 4e 3d 57 ec 45 3e 3c 2d 76 bc e6 37 31 be
       0.05046778 0.19328438 -0.015025433 -0.1730648
000310 9b 25 93 3d 1e 9d f0 bd b6 50 fe 3d 45 bf 04 bd
       0.07184907 -0.11748718 0.12417738 -0.03240897

ntm.controller.lstm_c_bias f4 [2, 1, 100]
000000 a6 2f 10 3d 93 df 1c bd 9e d3 17 bd 4c b5 b1 bb
       0.03520169 -0.038299154 -0.03706705 -0.0054232236
000010 ff b8 8b 3c 8a 69 88 bc a3 6e 0e be ba fe 02 3e
       0.017055986 -0.016651887 -0.13909392 0.12792483
000020 74 ef 91 bd 26 57 3e bd 00 a5 6e 3d 75 ec bb bd
       -0.0712575 -0.04646983 0.058262825 -0.0917596
000030 11 6f 0b bd 00 d4 bf bc 81 8a 19 3e 2f 79 bc bc
       -0.034041468 -0.02341652 0.14994241 -0.023007004
000040 27 5c 74 3c 72 c1 c8 bd c6 c2 c7 3d 1f 59 31 bd
       0.014914549 -0.09802522 0.09753947 -0.043297883
000050 45 2e 07 bd 76 ca 3d bd 37 0c 53 3c 74 1a b7 bc
       -0.03300311 -0.04633566 0.01288133 -0.022351481
000060 12 39 5e bb 57 09 d3 3d a9 56 ae 3c 80 a5 34 bc
       -0.0033908528 0.10304516 0.021281557 -0.011025786
000070 fd f1 89 bd 8c f8 cd 3c f2 5b a1 bd 70 81 a6 bd
       -0.06735609 0.02514293 -0.07878865 -0.08130157
000080 42 e5 93 bd 80 52 a6 bd 39 81 0b bd e1 be 6e bd
       -0.07221462 -0.081212044 -0.034058783 -0.058287505
000090 19 f6 b9 bc ca 18 02 be e4 85 38 bb c4 71 64 bd
       -0.022700356 -0.12704769 -0.0028155977 -0.055772558
0000a0 d4 ee c3 3c 87 a8 7d bd f1 54 9c bd 0b 4c ca 3c
       0.023917593 -0.0619283 -0.07633389 0.024694463
0000b0 9d 3d da bc 6d 12 64 3d 9a 56 00 3d 7b 59 d2 3c
       -0.026640708 0.055681635 0.03133259 0.025677433
0000c0 a2 ad 0c bd 65 fb 91 b9 ca a2 00 3c de ce 16 bd
       -0.034345277 -0.0002784386 0.007851312 -0.036818378
0000d0 bf 8f c9 3c 2b 52 d6 bc e4 1c ef 3d 12 ac c1 bc
       0.024604676 -0.026162228 0.11675432 -0.02364162
0000e0 bf 79 28 bc 25 18 62 3b 43 43 56 3c 2b 5c 47 3d
       -0.010282933 0.0034499255 0.01307756 0.048671883
0000f0 ad c2 85 3c 0a ca 0d bd e0 19 f9 bb 08 37 1e bc
       0.01632818 -0.034616508 -0.0076019615 -0.009656675
000100 2a f4 5c 3d 9b 99 1c bd 83 f4 04 bd 4b 29 5e 3d
       0.05394379 -0.038232427 -0.032459747 0.0542386
000110 ac a0 7d 3c 9a 67 24 bd 4f 2c 0c 3d 31 9a d7 bd
       0.015480202 -0.040137865 0.034221943 -0.105274566
000120 07 fe 50 bd 7f f5 1a 3d 94 3c 25 3d 17 69 57 bd
       -0.05102351 0.03783178 0.040340975 -0.052590456
000130 25 fb 40 3b f5 85 06 be f0 61 97 bd 29 67 74 bd
       0.0029446569 -0.13137038 -0.07391727 -0.059668694
000140 60 db ff bc ac 4b 95 bd 22 4c 2f bc 2e 14 b7 bd
       -0.031232536 -0.07289824 -0.010699304 -0.08939396
000150 6c f2 a6 3d ae 71 8f bb 34 79 7d 3c 24 ed af 3d
       0.08151707 -0.0043775653 0.015470792 0.08590153
000160 cd f5 b1 bd 87 f7 1d bc c3 7e 14 ba 61 b2 d7 3c
       -0.08689461 -0.009641535 -0.0005664641 0.026330175
000170 a1 76 f9 3c fe 33 5b bd 86 ed 78 bd 38 93 e4 bc
       0.030452074 -0.05351638 -0.060773395 -0.02790223
000180 aa 5c 89 3d 3a ce 69 3c 74 95 d4 bc b0 3a b0 bd
       0.067071274 0.01427036 -0.025950171 -0.08604944
000190 20 ef 63 3d 10 d9 60 3c fb 2c 60 bd 70 51 3e bd
       0.05564797 0.013723627 -0.054730397 -0.046464384
0001a0 3d 3f f9 bd db 1a a2 bc 1f e6 b9 3d 40 f2 11 3c
       -0.12170265 -0.019788196 0.09077095 0.008907855
0001b0 84 aa df 3d 5e fd 22 bd 8e 30 c9 bd 1b 66 90 bd
       0.10921195 -0.03979241 -0.09823714 -0.07050725
0001c0 be 9f 3d 3d 47 be 33 bd 48 7f 2e bc 6d 7b 0e 3e
       0.04629492 -0.043882634 -0.010650463 0.1391427
0001d0 bd 86 18 3e 37 96 0f 3e b0 06 26 bd 53 53 ca bd
       0.14895149 0.14022146 -0.04053372 -0.09879174
0001e0 a9 f2 e4 bc fd ff 91 bd d8 7c 9c bc 64 e6 28 bd
       -0.02794774 -0.07128904 -0.019102499 -0.041235343
0001f0 44 4f 11 be 76 99 45 bd 8e 78 1c bd ff 42 80 3e
       -0.14190394 -0.048242055 -0.038200907 0.25051114
000200 cd 09 bb 3b 73 f0 82 bd 46 2a 92 3d a1 f2 1b bd
       0.0057079555 -0.06393518 0.07136969 -0.038073186
000210 16 0a 0f 3d 6a 6a c3 3d cc 3f 8a 3d 96 b4 2c be
       0.034921728 0.09541781 0.067504495 -0.16865763
000220 11 a5 02 3d 7f cb bb 3d b6 9f e5 3c d5 64 c0 bb
       0.0318957 0.09169673 0.028030258 -0.005871395
000230 5d fc ff 3c b7 5c 25 bd 8c c1 98 bd e5 1b d0 bd
       0.031248266 -0.040371623 -0.07458791 -0.101615705
000240 4e 71 b3 bc 43 43 e1 bd 91 27 b9 3d 94 fb 5e 3d
       -0.021904614 -0.10999157 0.0904075 0.054439142
000250 fc 42 e9 3d 2f 98 e1 3d 85 6b 3f bd 12 1d fc bc
       0.113897294 0.11015355 -0.046733398 -0.03077558
000260 bb 34 32 3d 49 64 e8 bd b0 7a 89 bd b8 65 d0 3c
       0.04350732 -0.11347253 -0.06712854 0.025439128
000270 b3 76 54 bd df 91 75 3d 38 0b 6d 3d b7 a1 b8 3d
       -0.051871013 0.059953567 0.057872027 0.0901522
000280 4c 39 d9 bb 17 d8 0d 3d b6 55 e8 bc ff b3 2a 3d
       -0.006629145 0.034629907 -0.028361183 0.041675564
000290 1f 99 05 be b8 f9 01 bd 8f da 05 bd 0b ff bb bc
       -0.13046692 -0.03173229 -0.032679137 -0.022948762
0002a0 ae 88 ec bc 7b c9 dd 3d 5a 49 8e 3d 27 56 e7 3c
       -0.028873768 0.10829445 0.069475845 0.028239323
0002b0 b2 1b d5 bd fe 79 05 3d a6 22 93 3b e9 aa 4a 3c
       -0.10405673 0.032587044 0.0044902144 0.01236985
0002c0 52 43 a9 3d 35 44 11 be 96 b8 25 bd 4a 12 8d bd
       0.082647935 -0.14186175 -0.040459238 -0.06888254
0002d0 ec de 84 3d 91 38 56 3c 7d 9c 42 3d 65 9f 1d be
       0.064878315 0.01307501 0.04751252 -0.15392835
0002e0 2b 0d 84 3b 61 39 40 bd 9d e7 4c bd 3c 42 1c be
       0.00402989 -0.04692972 -0.05002557 -0.15259641
0002f0 fd 10 2c 3e f5 ae 24 3c e0 cd 84 3d 72 31 13 3d
       0.16803356 0.010051479 0.0648458 0.035935827
000300 b5 a7 da bd bc 2d 53 3c e4 1d 96 3d 04 15 16 be
       -0.10676519 0.012889322 0.0732992 -0.14656454
000310 11 fb ce 3c 7f 50 b1 bc bf de 4c 3d 6e 7e 13 3d
       0.025266202 -0.021644829 0.050017115 0.036009245

ntm.controller.lstm.weight_ih_l0 f4 [400, 110]
000000 8b 6d 94 be 81 ca eb 3d 2c 6f 97 3c 94 16 71 be
       -0.28989825 0.11513234 0.018485628 -0.23543769
000010 f4 6a b6 be b8 93 61 be 2f c3 94 3d 25 21 15 3e
       -0.35628474 -0.22029006 0.07263791 0.14563425
000020 bf a3 51 be 5f 07 d4 bd 63 26 41 be 07 12 55 3d
       -0.2047262 -0.103529684 -0.188623 0.052019145
000030 80 00 8e 3e 34 f4 f4 3d 30 58 e5 3c b1 16 78 3e
       0.27734756 0.119606405 0.027996153 0.24227406
000040 a2 37 77 bd 36 2e d7 3d 54 9a 69 3e 66 3b 59 be
       -0.06035579 0.10506861 0.22812778 -0.21214065
000050 19 d2 a9 3d cd 28 8c be e8 49 4b 3d e6 9f b4 be
       0.08292026 -0.2737488 0.04963103 -0.35278243
000060 c6 96 99 3d 07 bd e7 bd cc 62 12 be 6b a2 a6 be
       0.07499461 -0.11315351 -0.142955 -0.3254579
000070 94 3f 76 be 50 91 47 bd a3 be e2 3c 97 57 8d be
       -0.2404769 -0.048722565 0.027678793 -0.27605888
000080 f0 dc 92 3d 0b ac 7c 3b 0b 2e 3e 3e c8 70 21 bd
       0.07171047 0.0038554694 0.18572251 -0.039414197
000090 76 af 99 be 2f ad b0 3e 9c 6a 63 be e0 7d 46 3e
       -0.3001668 0.3450713 -0.22208637 0.19383955
0000a0 3b 8f 08 3e 79 eb 91 be 58 29 e1 3d d7 48 33 3d
       0.13335888 -0.28499964 0.10994214 0.043770637
0000b0 3e f4 a5 3e bf d6 3e 3e 55 61 6f 3e 91 0c 4b 3e
       0.32412905 0.18636607 0.23376973 0.19829012
0000c0 73 10 77 3e bc 67 57 be b5 b1 d7 bd c4 8b 08 3e
       0.24127369 -0.21035665 -0.10531942 0.13334566
0000d0 42 f0 a6 3e b1 3f 3c be 2d 73 9e be 7a 52 b8 bd
       0.32605177 -0.18383671 -0.30947247 -0.09000106
0000e0 97 3b ec bc c6 8d 87 bc c9 0a 69 3e 5a f9 60 be
       -0.028837008 -0.016547095 0.2275802 -0.2197012
0000f0 37 da b4 be 6b 01 27 3c ed 0d a0 bb 85 8d 67 be
       -0.35322735 0.010193209 -0.0048844726 -0.22612579
000100 91 f1 56 be b2 e0 73 be 85 9f c3 3d 7f be 55 bd
       -0.20990588 -0.23816183 0.0955191 -0.052183624
000110 d4 74 37 3e 2f 0a 2e bd 46 b1 7d be 7c b8 e6 3d
       0.1791566 -0.04249018 -0.24774656 0.11265656
000120 d1 67 c3 3c 4e 6b 1f 3d d9 d1 81 be ce ee ac 3e
       0.023853214 0.038920693 -0.25355414 0.33775944
000130 42 82 5b 3d e9 8c 68 3d ab 61 36 3e c8 1f 89 3e
       0.05359102 0.056775007 0.17810695 0.2678206
000140 8f bd ad be 26 c7 e7 3d e4 5b ee bd 2e c9 21 be
       -0.33933684 0.113172814 -0.116386205 -0.157994
000150 92 7e 88 bd 4c c8 76 3e 1e 8a fd 3c b9 0f 35 be
       -0.06664766 0.24099845 0.030949648 -0.17681779
000160 9b 69 6b be 1e 94 66 bd 33 01 2e bd 5c 6e 96 3e
       -0.22989504 -0.0562936 -0.042481612 0.29381073
000170 e5 32 79 3e 8c 0f 6c 3c c8 84 1f 3e 0e 6a 49 be
       0.24335821 0.014408004 0.15577996 -0.19669363
000180 cd 89 86 bd c5 9c 86 3e 53 88 a9 3e 37 8a b3 3d
       -0.06569252 0.2629148 0.3311182 0.08766597
000190 a3 0e 19 3d d5 0c c1 bd 2d dd 13 be b5 59 64 be
       0.037367474 -0.09426276 -0.1443984 -0.22299846
0001a0 b3 a8 75 bc 66 ca 9a bc 8d db c6 3d b0 4f 9c 3e
       -0.014993834 -0.01889534 0.09709845 0.30529547
0001b0 3d 24 a8 3e c8 be 8a 3d d7 52 60 be db 98 1f bc
       0.32840148 0.0677467 -0.21906601 -0.009741033
0001c0 54 55 49 be b6 9a a1 be d8 9b 23 3e 60 92 e3 3c
       -0.19661456 -0.31563348 0.15977418 0.027779758
0001d0 cf b1 da 3d e4 3a 2e 3e c5 da a3 be 54 26 d4 bb
       0.106784455 0.17014652 -0.32002845 -0.0064742956
0001e0 dd 63 38 3d dd e0 6e 3d c7 d5 19 be ad 13 a8 be
       0.045017112 0.058319915 -0.15022956 -0.3282751
0001f0 54 a7 9b 3e 25 92 3b 3e 46 5d 3a 3e ef bb 65 be
       0.304011 0.18317468 0.18199643 -0.22434972
000200 29 81 1a 3d 7c 8c ab be 5a 7f 17 3e a9 97 00 3e
       0.037720833 -0.3350562 0.14794675 0.12557854
000210 42 f6 9f be c4 e6 a4 3c a0 0d a5 be 8b b2 1a 3d
       -0.31242567 0.020129569 -0.32236958 0.037767928
000220 b6 e0 81 3e bd 1d 9c be 1b 2f ee bc 89 ab 9b 3e
       0.25366753 -0.30491439 -0.029075196 0.30404308
000230 23 2e ae 3d 2f ba 0d 3e 60 de 80 be 26 ae a2 be
       0.08504894 0.13840555 -0.2516966 -0.3177349
000240 36 9b 6f be 91 b0 1e bd d6 a0 5c be 91 02 97 3e
       -0.23399052 -0.038742606 -0.21545729 0.29494146
000250 49 55 2f be a4 cb 3c bd 50 16 af be e1 3b 92 be
       -0.17122377 -0.046092644 -0.3419671 -0.2856131
000260 92 bb 25 3e b1 f0 a1 be 45 a4 9a 3d 3d af 61 3e
       0.16184834 -0.31628945 0.07550863 0.22039504
000270 e7 61 ff bc 56 22 5b 3e 42 13 07 be 97 00 dd 3d
       -0.031174613 0.21399817 -0.1319094 0.10791128
000280 5b aa 36 be eb e8 6c bd a8 aa 82 ba 21 7c d0 3d
       -0.17838423 -0.057839315 -0.0009969072 0.10179926
000290 9f 01 50 3e 7f c4 73 3d a9 a5 bb 3d 98 0e 4d be
       0.20313118 0.059513565 0.091624565 -0.20025098
0002a0 63 45 c4 bd 43 af 09 3e 33 d4 8f be e2 ff a3 3e
       -0.09583547 0.13445763 -0.28091583 0.3203116
0002b0 59 60 87 3e 81 d9 f4 3d cb 54 09 be f4 f1 ad be
       0.26440695 0.11955548 -0.13411252 -0.33973658
0002c0 14 ae 88 3e 67 32 7b be 3f 41 29 be 57 b8 0e be
       0.2669531 -0.24530946 -0.16528796 -0.13937508
0002d0 62 4f 62 3e 10 d8 71 3e 59 82 83 be 9c 2f aa be
       0.22100595 0.23617578 -0.25685385 -0.33239448
0002e0 50 19 dd bc 49 db 69 be 59 7f d8 3d 79 ea aa be
       -0.026989609 -0.22837557 0.10571165 -0.33382013
0002f0 e0 80 46 bd e5 a3 85 bd ea 9e 84 be 80 f6 a0 3e
       -0.04846275 -0.06525401 -0.25902492 0.31438065
000300 03 97 c7 be 72 e8 ae be 46 ac 61 be 04 51 b6 3d
       -0.389824 -0.34161717 -0.22038373 0.08902171
000310 dc 6e 13 be f1 85 93 3e 70 ec a6 bd 33 2c 00 3e
       -0.14397758 0.28813127 -0.081505656 0.1251686
000320 9a 82 14 be 55 47 8d 3c a1 5b 09 3d 1b fd 00 3e
       -0.14502946 0.017245928 0.03353465 0.12596552
000330 75 b6 8a 3e c6 e8 e7 3d 1c de a8 3b 1c 3c 1c be
       0.2709233 0.11323695 0.0051534306 -0.15257305
000340 88 e0 4a be d4 8b 6d 3e 30 3a 2b 3e 0f 74 fe 3d
       -0.19812214 0.23197871 0.16721416 0.1242448
000350 56 2e 3d be b0 e9 5b 3e 63 3d b7 3c fb a6 10 be
       -0.18474707 0.21475863 0.022368139 -0.14126198
000360 e4 ce 87 bd fd 61 06 3e 2d 64 53 3e 50 50 7d 3d
       -0.06631258 0.13123317 0.20643683 0.06184417
000370 c6 d9 28 3e 31 0a d1 bd 41 b0 ff 3d 40 a8 32 3d
       0.16489324 -0.10207022 0.1248479 0.043617487
000380 88 76 85 3d 31 2e b1 3d 3f fc 69 bd 6e d1 17 be
       0.06516749 0.086513884 -0.057125326 -0.14825985
000390 cb c2 6b 3e 99 91 8a 3e fa 9c 7c 3e 4b a3 4c 3e
       0.23023526 0.27064207 0.24669257 0.19984166
0003a0 b1 a7 7c be 50 1c 60 be f4 27 7e 3e 37 79 62 be
       -0.24673344 -0.218858 0.24819928 -0.22116552
0003b0 d2 82 8a be 65 0c 5f 3e d6 65 cc bd 20 7b 2d 3d
       -0.27052933 0.21782072 -0.09980361 0.04235375
0003c0 dc 7f 9e 3d 80 8e e9 bd 1a 4a bc 3d 2e e4 40 be
       0.07739231 -0.11404133 0.09193821 -0.18837044
0003d0 7a 94 95 be 2a 2e b5 bd 14 a7 59 be 97 40 cd bd
       -0.2921484 -0.08846696 -0.21255141 -0.10022085
0003e0 fb 2a 13 3d ad 3a 7c bc 9e dc a8 be d2 e8 2f bd
       0.03592966 -0.015394849 -0.32980818 -0.042946644
0003f0 76 ea 08 be 16 f9 91 be d9 78 25 be 00 9b 79 bd
       -0.1337069 -0.2851035 -0.16159381 -0.060938835

ntm.controller.lstm.weight_hh_l0 f4 [400, 100]
000000 b6 07 92 be fc bf 69 3d 63 71 66 be 22 16 9f 3e
       -0.28521508 0.057067856 -0.22504191 0.31071573
000010 c8 55 6b 3e 47 cf 47 3e 1d cd 7e be 3a 63 a7 bd
       0.22981942 0.19512664 -0.24882932 -0.08173223
000020 d7 14 71 be c1 68 64 3e 9b eb 86 be b6 85 1a be
       -0.23543106 0.22305585 -0.26351628 -0.15090069
000030 f6 0c 94 3e e2 29 49 be cf 7c 8f 3e 2d 3c 80 bb
       0.28916138 -0.19644883 0.2802491 -0.0039134235
000040 52 c5 72 bd 17 dc d1 bd 4b 22 93 be bc fe 32 be
       -0.05927021 -0.10247057 -0.287371 -0.17479986
000050 a3 31 e9 bd 61 4c 30 be 19 73 36 be 89 76 9e bd
       -0.113864206 -0.17216636 -0.17817344 -0.077374525
000060 4d 42 ba 3e a5 d1 00 3e 4c 75 84 3e aa 95 b3 3b
       0.36378708 0.12579973 0.2587074 0.005480488
000070 07 87 a0 3e 69 a1 e5 bd b8 c3 ad bd 6d 39 8f 3e
       0.31353018 -0.11212427 -0.08484596 0.279735
000080 cf 5c c8 3d 47 53 b1 bd ee c5 17 3e c6 f3 3f 3e
       0.09783327 -0.08658462 0.14821598 0.18745336
000090 4a 93 1b 3e cb 0f a9 be 9f e8 9e 3d e0 fe aa be
       0.15192905 -0.33019862 0.07759213 -0.3339758
0000a0 43 58 ab 3e 85 95 9d 3e 91 65 60 be 13 1d a8 3e
       0.33465776 0.30778137 -0.21913745 0.32834682
0000b0 55 cf 70 3d 08 5a ba 3e e8 a5 91 be ac bc 95 be
       0.058791477 0.36396813 -0.2844689 -0.29245508
0000c0 bc 8e c3 3d fa e0 a3 3e ad f6 c9 3d 2c e1 27 3e
       0.09548709 0.3200758 0.09861503 0.1639449
0000d0 b0 ae bc bb 66 4a 01 bd c4 cb 15 be e1 c9 45 be
       -0.005758129 -0.031565093 -0.14628512 -0.19315292
0000e0 1f 74 13 3e e8 5d 4d bd fc 21 f3 bd eb 64 1f 3e
       0.14399765 -0.050138384 -0.118717164 0.15565841
0000f0 97 24 d0 bd 72 d8 40 be 60 57 80 be 27 31 98 3e
       -0.10163229 -0.18832567 -0.25066662 0.29725
000100 c8 1c 00 3e cf 36 ec bd cc 8f 4f be 32 28 58 3d
       0.12510979 -0.115338914 -0.20269698 0.05277271
000110 6f 33 a3 3e f9 8f df be 68 e6 8a 3d 63 c8 61 3d
       0.31875178 -0.4366453 0.06782228 0.055122744
000120 ce 85 5e 3e cc 5f 0e be 77 a3 60 3e e8 dc dd 3c
       0.2173073 -0.13903731 0.21937357 0.027082875
000130 e5 25 b1 3d 02 dc ab 3e f6 e3 2a be 91 48 66 3e
       0.08649806 0.3356629 -0.16688523 0.2248862
000140 ff ad 27 be 72 06 c7 be 46 dc b8 3e 4a c3 7f 3e
       -0.16374968 -0.38872105 0.36105555 0.2497684
000150 c6 45 8c 3e 84 51 6b be 02 e6 9c be 83 33 16 bd
       0.27396983 -0.22980314 -0.30644232 -0.03667022
000160 db 8f 9a 3c 56 25 25 be d4 9d 31 3e 94 af 4e 3e
       0.018867424 -0.16127524 0.17345363 0.20184165
000170 50 a3 a4 be 26 88 09 3e 8c 27 18 3e 3c 14 e0 3d
       -0.32155848 0.13430843 0.14858836 0.109413594
000180 29 89 01 3d 53 66 96 3d b8 cb c6 3d de 07 a5 be
       0.031624947 0.073437355 0.09706825 -0.32232565
000190 bf 15 a5 3e fc 3c 3d be 96 ec 4d be f6 b8 15 be
       0.32243153 -0.18480295 -0.20109782 -0.14621338
0001a0 d9 fa f5 bd b0 e5 21 3e 58 e3 05 bd bd 6d 98 3c
       -0.12010736 0.15810275 -0.032687515 0.018607015
0001b0 25 c6 e3 3d 78 b3 31 be f4 a9 d7 3d 36 15 1e 3e
       0.111217774 -0.17353618 0.10530463 0.15437779
0001c0 bf 70 a5 be ff 15 2b 3e bf 1b 4e be 69 9f 43 3e
       -0.3231258 0.1670761 -0.20127772 0.19103779
0001d0 f1 8d 3a be 20 95 3e be ae 35 84 bd 9a dd 9a be
       -0.18218209 -0.18611574 -0.06455551 -0.30247194
0001e0 f0 8b dd ba a4 b5 d4 bd 25 d5 95 3d fe a2 13 3d
       -0.0016902667 -0.10386208 0.07316045 0.036044113
0001f0 f9 bf 86 3e ee 07 ba be d0 d2 af be b7 05 5d be
       0.2631834 -0.36334175 -0.34340525 -0.21584211
000200 82 39 c4 bd 51 40 6e 3e e1 ba 9b 3e e3 83 34 3e
       -0.09581281 0.23266722 0.30416015 0.17628436
000210 54 d5 d5 3e c4 b7 c6 be ce b2 ac 3e bb d1 3e 3e
       0.4176432 -0.38812077 0.33730167 0.18634693
000220 0d a4 b4 3c 3a 0d af 3b c4 97 7b be 0d dd 50 bd
       0.022050882 0.005342153 -0.24569613 -0.05099206
000230 b2 9a 11 3e 68 c1 76 be 89 dc aa 3e e8 fb 64 3e
       0.14219168 -0.24097216 0.3337138 0.2236172
000240 98 da 14 be d6 16 df 3d c5 95 12 be 1a 24 ea bd
       -0.14536512 0.108930275 -0.14314945 -0.11432667
000250 49 c1 a4 3d cf 28 3a be 7a 1d ab 3d c9 03 b7 bc
       0.08044679 -0.1817963 0.083552316 -0.022340672
000260 44 58 0d 3e 27 8c 5f 3d 71 1e 0c be d0 57 84 be
       0.13803202 0.05457702 -0.13683487 -0.25848246
000270 90 62 54 3e 4f 2a 38 3e 36 da 4c be 56 03 26 3e
       0.20740724 0.1798489 -0.20005116 0.1621221
000280 8d 7e 34 3e 19 71 d0 3d ff 36 61 be 57 6e 61 be
       0.176264 0.10177822 -0.21993636 -0.22014748
000290 a6 44 a9 3e ca 3a 2d 3e c7 4f 36 be 11 dd b4 3c
       0.33060187 0.16916957 -0.1780387 0.022078069
0002a0 66 a2 df 3e 6a 39 1e be 5e c8 94 be f7 14 83 3e
       0.43678588 -0.15451589 -0.29059118 0.25601932
0002b0 23 0a 44 be 12 cc 26 be 31 6c b7 be cc 9b 83 be
       -0.19144492 -0.16288784 -0.3582473 -0.257048
0002c0 3a 93 40 3d 52 31 33 3e ed c6 b4 3d bb d7 5f bd
       0.047015406 0.17499283 0.088270046 -0.054649096
0002d0 dd a1 37 bd 64 59 84 3e 37 cf b9 3d 78 39 48 3e
       -0.0448321 0.2584945 0.09072726 0.19553173
0002e0 64 b7 32 3d fd 18 94 3e 09 ef 7d 3d 4c b3 33 be
       0.043631926 0.28925315 0.06199554 -0.17548865
0002f0 b9 91 e4 3d 80 b2 79 3e e2 3d da bd fe 8e 68 3e
       0.11160607 0.24384499 -0.106563345 0.22710797
000300 91 05 af 3c a3 95 8d 3d c5 4f fc bb 7b 92 3d 3e
       0.021364959 0.069133066 -0.007699939 0.18512909
000310 89 0c a9 3c ec 71 a7 3e 1d 35 57 3e 4c ef ab 3e
       0.02063586 0.32704103 0.21016355 0.33581007
000320 ae 99 eb bd 61 fe aa 3b fb 2e 98 3e 02 4e 85 be
       -0.115039214 0.0052183126 0.29723343 -0.26036078
000330 9e 2f 76 3d 43 cb 91 bd eb 75 44 3e 87 65 7a 3e
       0.060104005 -0.07118847 0.19185607 0.24452792
000340 0e 70 0a 3c e0 cb 2d 3e 34 4f 83 bc 5c c3 88 be
       0.0084495675 0.16972303 -0.016028978 -0.26711547
000350 a7 60 3f be d6 6f 5e be 1b 58 0a be 1d 70 9a 3e
       -0.18689214 -0.2172235 -0.13510172 0.3016366
000360 35 e2 f6 3d 32 6c 89 3e 96 d7 78 3e 3f 06 a7 be
       0.12054864 0.2684036 0.2430099 -0.32621953
000370 3e 5a 4a be eb 05 9c 3e eb a0 d9 bd e4 fd bb be
       -0.19760987 0.30473265 -0.10626396 -0.3671714
000380 e7 96 b2 be e7 29 60 be ff 3f 3a 3e 14 8b 3e be
       -0.34880754 -0.21890984 0.18188475 -0.18607742
000390 c1 a4 96 3e fe 2e 46 3d d8 c6 92 be ce 5c 81 be
       0.29422572 0.04838466 -0.2866733 -0.25266117
0003a0 01 e2 8a 3e 2b df 9d bd ec c7 1a bd 75 a9 32 be
       0.27125552 -0.077085815 -0.037788317 -0.17447455
0003b0 d4 fa 56 be da ed aa 3e 76 55 8f 3e 84 ef 7f 3e
       -0.20994121 0.3338459 0.2799489 0.24993712
0003c0 48 d6 7e 3e 8a 63 85 3e 32 8c a8 3d a4 cd 2a 3d
       0.2488643 0.26052505 0.08229865 0.04170002
0003d0 b9 bf 39 be 66 46 80 3e 9a 30 c2 3e cf b8 2b 3d
       -0.18139543 0.2505371 0.37927705 0.041924294
0003e0 74 1d e9 3d 61 44 50 be 64 2b 8b bd e7 96 b0 bd
       0.11382571 -0.20338584 -0.067953855 -0.08622532
0003f0 e5 73 6b be 49 91 3b 3e 7a 80 7a bd fe c2 35 3d
       -0.22993429 0.1831714 -0.06115768 0.044375412

ntm.controller.lstm.bias_ih_l0 f4 [400]
000000 91 49 86 3c 44 48 cd bc 10 b6 ad bc 5f 64 20 ba
       0.016392501 -0.025058873 -0.021204978 -0.0006118472
000010 1c ed 31 bc fd 2b 0a bd eb 74 c5 bc a9 4f 8e bd
       -0.010859754 -0.033733357 -0.024103602 -0.06948788
000020 32 2b f2 bc ca ae ab bc c1 16 80 bd 97 22 cc bd
       -0.029561613 -0.02095737 -0.0625434 -0.09967535
000030 f0 87 01 3d d3 b4 12 bd 3d d1 cb bd 19 9d 49 3d
       0.03162378 -0.03581698 -0.099520184 0.049222086
000040 58 7e 4a 3d a3 73 ba bd b6 be aa bd 91 71 ca bd
       0.049436897 -0.09104087 -0.083371565 -0.09884942
000050 1c 65 58 bd 5d 83 14 bd 51 41 31 bd 32 7a 0d bc
       -0.0528308 -0.03625809 -0.04327518 -0.008635091
000060 b8 c4 03 bb a7 ac 95 bd df f3 0a bc 2f 36 e2 bc
       -0.0020106267 -0.073083214 -0.008480995 -0.027613727
000070 b1 13 27 3c e5 35 8d bd a3 31 04 3b ca d6 8b bc
       0.010197566 -0.06895045 0.0020171187 -0.017070193
000080 7c 24 f5 bc 6d 99 b5 bc 4c ba b0 bc e1 9b af bc
       -0.029924624 -0.022167886 -0.021573208 -0.021436634
000090 99 30 ac bd ef 57 66 bd 4d 8e 43 bd 53 23 b6 bc
       -0.08407707 -0.056236204 -0.04774313 -0.02223364
0000a0 63 1c a5 3c ca ee 21 bd 2c 97 39 bd 0d 34 96 bd
       0.020155137 -0.039534368 -0.045310184 -0.07334147
0000b0 3b 6b d5 3b 37 42 f3 bb 8e be 0d bd 39 9d 19 bb
       0.006513027 -0.007423665 -0.034605555 -0.002343966
0000c0 67 c7 5f bd d8 ab 83 3b 7b fb 89 bd d1 dc 3f bd
       -0.054633524 0.004018288 -0.06737419 -0.046841446
0000d0 98 58 33 bd d2 34 3d bd 65 18 51 bd 54 c1 57 bd
       -0.04378566 -0.04619295 -0.051048655 -0.052674606
0000e0 4d 60 25 3b e3 54 f5 bc 1f 37 3d bd 88 67 3f 3c
       0.0025234402 -0.029947704 -0.046195146 0.011682399
0000f0 74 42 59 bc 68 cf 64 3b 6d e0 e3 bb 11 05 1e bd
       -0.013260473 0.0034913663 -0.006954244 -0.03857905
000100 f8 85 21 bc e3 2c ea bc 41 d9 6b bd fd 69 05 bd
       -0.009858601 -0.028585857 -0.057580236 -0.03257178
000110 60 98 4a bd 83 b5 a4 bd 4a a6 0e bd 28 b9 d8 bc
       -0.049461722 -0.08042433 -0.034826554 -0.026455477
000120 54 f4 55 bd 09 ed 79 bd 08 5a a7 bd 67 ef ec bc
       -0.052234963 -0.06101707 -0.08171469 -0.02892275
000130 6a db fb bd 27 93 dc bc f7 63 2e bc ff 1b fc bc
       -0.12297709 -0.026925636 -0.010643951 -0.030775068
000140 3d af 1b bd b7 52 4b bd da 8e 99 bd c4 95 e1 bc
       -0.038008917 -0.04963943 -0.0749795 -0.027537234
000150 28 a5 b0 bc 0b 3a 91 bd 49 c4 85 ba 34 88 d1 3b
       -0.021563128 -0.07091149 -0.0010205592 0.0063944105
000160 4b 08 16 bd 03 97 25 3d 31 b3 9a 3c ea a2 c1 bc
       -0.036629003 0.04042722 0.018884273 -0.023637254
000170 ed 6b 2a 3c e9 e0 13 3c e4 3c 92 bc 0a 4e 92 bd
       0.010401708 0.009025791 -0.0178513 -0.07143791
000180 9b e7 b0 bb 59 65 0e bd 11 d1 9c bd 5f 24 51 3d
       -0.0053987033 -0.03476462 -0.07657064 0.051060077
000190 78 a2 ba 3c 71 69 5a 3d 76 bd 14 3c 7c f3 aa 3a
       0.02278255 0.053323213 0.009078374 0.0013042535
0001a0 b8 ee e0 bb 71 bb cb 3c 71 11 64 3c 8e 0e e3 bb
       -0.006864395 0.024869652 0.013920174 -0.0069292253
0001b0 ab d7 46 3d 0c b4 90 bc 41 63 3a bc 31 3b 52 bb
       0.04854552 -0.017663978 -0.011376203 -0.0032078738
0001c0 c5 1b e4 bc f5 f2 aa bc 94 01 e4 bc 54 75 9d 3d
       -0.027845273 -0.020867804 -0.027832784 0.07688394
0001d0 2a 85 1a 3c 6c 00 0c bc 47 7d 19 3d b9 0f cb bc
       0.009431163 -0.008545022 0.03747299 -0.02478777
0001e0 8a f7 10 bd e8 b7 30 bd d3 9a c2 3d 3c 97 08 3b
       -0.03539232 -0.043144137 0.095021866 0.0020842096
0001f0 71 84 c1 3d c7 4b 62 3c 47 ee d7 3c a5 c7 32 bc
       0.09449089 0.013812012 0.026358737 -0.010911857
000200 cb 4d e3 b8 d4 13 59 bd 2d 63 64 3d 0f 9d a0 3b
       -0.000108386936 -0.052997425 0.055758644 0.0049015353
000210 37 df f9 bc bf 2c c4 bb 7b ce 40 bc c0 ae 4c bd
       -0.030501945 -0.0059867795 -0.011767979 -0.049971342
000220 19 f4 7b bd 7f ce 11 bd 2a 4f 15 3d 4f b3 04 bd
       -0.061512087 -0.03559732 0.03645245 -0.032397565
000230 92 78 04 3d 19 cc 82 3d bb 24 50 bc 5a 1c 86 bd
       0.032341547 0.06386585 -0.01270407 -0.065483764
000240 d7 f2 90 3d 3b 60 e4 3c 55 ae 12 bd 1d e5 a6 3c
       0.07077568 0.027877918 -0.035810787 0.020372922
000250 7e 62 34 bc 1d b7 17 3d cc ea f1 bb 1f 52 1a bc
       -0.0110098105 0.037039865 -0.0073827263 -0.009418993
000260 95 21 b1 3c 10 70 37 bd ca c7 4e 3d 4a 59 23 bc
       0.021622458 -0.044784606 0.050483502 -0.009970019
000270 12 56 31 bc 65 f0 38 bc b6 75 62 bc e9 e0 c4 bb
       -0.010823743 -0.011287783 -0.01382201 -0.0060082567
000280 00 f9 b2 3c 18 bd f1 3c 7b d0 b8 3b 57 0e 42 3d
       0.021847248 0.029509112 0.005640087 0.047376957
000290 7e 4a 8b 3d 6b 10 40 3d 5c 80 f5 3c fa 49 8d 3d
       0.06801318 0.046890657 0.029968433 0.068988755
0002a0 fd 52 82 3d 89 64 1b bd 14 01 6c bc 8f b8 9b 3c
       0.06363485 -0.037937675 -0.014404554 0.019008903
0002b0 2e 5e 6a bc d9 e2 1c 3d 37 6e c4 bd 9e 41 66 bc
       -0.014304681 0.038302276 -0.09591334 -0.01405373
0002c0 55 c8 96 bd 9f 59 28 bd 0e 63 be bc 7a 94 44 3d
       -0.07362429 -0.041101094 -0.023240592 0.04799316
0002d0 92 89 09 bd a7 54 26 bd 52 43 93 bd 54 76 34 bd
       -0.033578463 -0.040608075 -0.07190575 -0.04405816
0002e0 e1 25 50 bb 8c 77 73 bd c0 a1 d1 3c 08 dd 2d 3d
       -0.003176086 -0.05944018 0.025589824 0.04244712
0002f0 44 a5 c0 3b 9a ac 89 3d 44 ae 53 3d 94 4f 31 3b
       0.005879076 0.06722374 0.051679865 0.002705549
000300 59 80 16 bc 65 66 1d 3c 96 8f cb bc ad 41 c8 3c
       -0.009185874 0.009606932 -0.02484874 0.02444538
000310 d4 91 28 bd a2 2c 23 bc f6 05 56 3d e0 59 2e 3d
       -0.041154698 -0.009959372 0.05225178 0.04256618
000320 7e e5 78 3d d1 b8 bc 3b 31 a5 63 3c c4 10 ad 3c
       0.060765736 0.0057593365 0.013894365 0.021126159
000330 71 9b 40 bd c1 e8 03 bc f4 b7 0b bc a5 2f f2 bb
       -0.04702324 -0.008051098 -0.008527745 -0.0073909336
000340 71 0e 4f bb 5a 15 67 bd 9d aa 10 3d a4 c0 5d 3c
       -0.00315943 -0.056416847 0.03531896 0.013534699
000350 37 61 98 3c a8 cf 7b 3b bb 57 37 3c 73 4f 08 bd
       0.018601043 0.0038423333 0.01119035 -0.033278894
000360 03 35 0b 3b db ea b7 bc 97 9e 05 3b 82 50 18 bd
       0.0021241314 -0.022450855 0.0020388716 -0.037186153
000370 d7 cc 84 3d 97 8f 40 bd 16 b5 44 3c 7f a8 02 bc
       0.064843826 -0.047011938 0.012006065 -0.007974743
000380 9e 05 f0 3b dc ec e1 bb 09 f0 a6 3c 08 a1 ab 3c
       0.0073248884 -0.006894691 0.02037813 0.02095081
000390 9f cd 88 bd 13 e8 31 bd 12 c1 d2 3b e8 e2 e8 3c
       -0.06679844 -0.043434214 0.006431707 0.02842851
0003a0 79 40 d5 bb 42 67 92 bb 47 24 27 3d 22 e3 43 bd
       -0.00650793 -0.0044678757 0.04080608 -0.047824033
0003b0 9e 96 2b 3c 62 95 ca bc 20 ee 35 bd ca ba 8c bd
       0.010472922 -0.024729434 -0.044416547 -0.06871565
0003c0 75 a2 c8 bc 57 5f 99 bc 75 cc 29 bd b6 e1 33 bb
       -0.024491528 -0.01872222 -0.04145475 -0.0027447767
0003d0 0c 27 84 bb 52 33 33 3d 39 c5 5a 3d 84 98 06 bd
       -0.004032975 0.043750115 0.053410742 -0.032860294
0003e0 02 63 21 3d 06 96 ce 3b 56 09 51 bd 43 cf 05 bb
       0.03940106 0.0063045053 -0.051034294 -0.0020417727
0003f0 25 a0 d2 3c 2d c3 98 3b 0f ee f7 bb b2 33 a8 3c
       0.025711128 0.0046619386 -0.0075662206 0.020532463

ntm.controller.lstm.bias_hh_l0 f4 [400]
000000 91 49 86 3c 44 48 cd bc 10 b6 ad bc 5f 64 20 ba
       0.016392501 -0.025058873 -0.021204978 -0.0006118472
000010 1c ed 31 bc fd 2b 0a bd eb 74 c5 bc a9 4f 8e bd
       -0.010859754 -0.033733357 -0.024103602 -0.06948788
000020 32 2b f2 bc ca ae ab bc c1 16 80 bd 97 22 cc bd
       -0.029561613 -0.02095737 -0.0625434 -0.09967535
000030 f0 87 01 3d d3 b4 12 bd 3d d1 cb bd 19 9d 49 3d
       0.03162378 -0.03581698 -0.099520184 0.049222086
000040 58 7e 4a 3d a3 73 ba bd b6 be aa bd 91 71 ca bd
       0.049436897 -0.09104087 -0.083371565 -0.09884942
000050 1c 65 58 bd 5d 83 14 bd 51 41 31 bd 32 7a 0d bc
       -0.0528308 -0.03625809 -0.04327518 -0.008635091
000060 b8 c4 03 bb a7 ac 95 bd df f3 0a bc 2f 36 e2 bc
       -0.0020106267 -0.073083214 -0.008480995 -0.027613727
000070 b1 13 27 3c e5 35 8d bd a3 31 04 3b ca d6 8b bc
       0.010197566 -0.06895045 0.0020171187 -0.017070193
000080 7c 24 f5 bc 6d 99 b5 bc 4c ba b0 bc e1 9b af bc
       -0.029924624 -0.022167886 -0.021573208 -0.021436634
000090 99 30 ac bd ef 57 66 bd 4d 8e 43 bd 53 23 b6 bc
       -0.08407707 -0.056236204 -0.04774313 -0.02223364
0000a0 63 1c a5 3c ca ee 21 bd 2c 97 39 bd 0d 34 96 bd
       0.020155137 -0.039534368 -0.045310184 -0.07334147
0000b0 3b 6b d5 3b 37 42 f3 bb 8e be 0d bd 39 9d 19 bb
       0.006513027 -0.007423665 -0.034605555 -0.002343966
0000c0 67 c7 5f bd d8 ab 83 3b 7b fb 89 bd d1 dc 3f bd
       -0.054633524 0.004018288 -0.06737419 -0.046841446
0000d0 98 58 33 bd d2 34 3d bd 65 18 51 bd 54 c1 57 bd
       -0.04378566 -0.04619295 -0.051048655 -0.052674606
0000e0 4d 60 25 3b e3 54 f5 bc 1f 37 3d bd 88 67 3f 3c
       0.0025234402 -0.029947704 -0.046195146 0.011682399
0000f0 74 42 59 bc 68 cf 64 3b 6d e0 e3 bb 11 05 1e bd
       -0.013260473 0.0034913663 -0.006954244 -0.03857905
000100 f8 85 21 bc e3 2c ea bc 41 d9 6b bd fd 69 05 bd
       -0.009858601 -0.028585857 -0.057580236 -0.03257178
000110 60 98 4a bd 83 b5 a4 bd 4a a6 0e bd 28 b9 d8 bc
       -0.049461722 -0.08042433 -0.034826554 -0.026455477
000120 54 f4 55 bd 09 ed 79 bd 08 5a a7 bd 67 ef ec bc
       -0.052234963 -0.06101707 -0.08171469 -0.02892275
000130 6a db fb bd 27 93 dc bc f7 63 2e bc ff 1b fc bc
       -0.12297709 -0.026925636 -0.010643951 -0.030775068
000140 3d af 1b bd b7 52 4b bd da 8e 99 bd c4 95 e1 bc
       -0.038008917 -0.04963943 -0.0749795 -0.027537234
000150 28 a5 b0 bc 0b 3a 91 bd 49 c4 85 ba 34 88 d1 3b
       -0.021563128 -0.07091149 -0.0010205592 0.0063944105
000160 4b 08 16 bd 03 97 25 3d 31 b3 9a 3c ea a2 c1 bc
       -0.036629003 0.04042722 0.018884273 -0.023637254
000170 ed 6b 2a 3c e9 e0 13 3c e4 3c 92 bc 0a 4e 92 bd
       0.010401708 0.009025791 -0.0178513 -0.07143791
000180 9b e7 b0 bb 59 65 0e bd 11 d1 9c bd 5f 24 51 3d
       -0.0053987033 -0.03476462 -0.07657064 0.051060077
000190 78 a2 ba 3c 71 69 5a 3d 76 bd 14 3c 7c f3 aa 3a
       0.02278255 0.053323213 0.009078374 0.0013042535
0001a0 b8 ee e0 bb 71 bb cb 3c 71 11 64 3c 8e 0e e3 bb
       -0.006864395 0.024869652 0.013920174 -0.0069292253
0001b0 ab d7 46 3d 0c b4 90 bc 41 63 3a bc 31 3b 52 bb
       0.04854552 -0.017663978 -0.011376203 -0.0032078738
0001c0 c5 1b e4 bc f5 f2 aa bc 94 01 e4 bc 54 75 9d 3d
       -0.027845273 -0.020867804 -0.027832784 0.07688394
0001d0 2a 85 1a 3c 6c 00 0c bc 47 7d 19 3d b9 0f cb bc
       0.009431163 -0.008545022 0.03747299 -0.02478777
0001e0 8a f7 10 bd e8 b7 30 bd d3 9a c2 3d 3c 97 08 3b
       -0.03539232 -0.043144137 0.095021866 0.0020842096
0001f0 71 84 c1 3d c7 4b 62 3c 47 ee d7 3c a5 c7 32 bc
       0.09449089 0.013812012 0.026358737 -0.010911857
000200 cb 4d e3 b8 d4 13 59 bd 2d 63 64 3d 0f 9d a0 3b
       -0.000108386936 -0.052997425 0.055758644 0.0049015353
000210 37 df f9 bc bf 2c c4 bb 7b ce 40 bc c0 ae 4c bd
       -0.030501945 -0.0059867795 -0.011767979 -0.049971342
000220 19 f4 7b bd 7f ce 11 bd 2a 4f 15 3d 4f b3 04 bd
       -0.061512087 -0.03559732 0.03645245 -0.032397565
000230 92 78 04 3d 19 cc 82 3d bb 24 50 bc 5a 1c 86 bd
       0.032341547 0.06386585 -0.01270407 -0.065483764
000240 d7 f2 90 3d 3b 60 e4 3c 55 ae 12 bd 1d e5 a6 3c
       0.07077568 0.027877918 -0.035810787 0.020372922
000250 7e 62 34 bc 1d b7 17 3d cc ea f1 bb 1f 52 1a bc
       -0.0110098105 0.037039865 -0.0073827263 -0.009418993
000260 95 21 b1 3c 10 70 37 bd ca c7 4e 3d 4a 59 23 bc
       0.021622458 -0.044784606 0.050483502 -0.009970019
000270 12 56 31 bc 65 f0 38 bc b6 75 62 bc e9 e0 c4 bb
       -0.010823743 -0.011287783 -0.01382201 -0.0060082567
000280 00 f9 b2 3c 18 bd f1 3c 7b d0 b8 3b 57 0e 42 3d
       0.021847248 0.029509112 0.005640087 0.047376957
000290 7e 4a 8b 3d 6b 10 40 3d 5c 80 f5 3c fa 49 8d 3d
       0.06801318 0.046890657 0.029968433 0.068988755
0002a0 fd 52 82 3d 89 64 1b bd 14 01 6c bc 8f b8 9b 3c
       0.06363485 -0.037937675 -0.014404554 0.019008903
0002b0 2e 5e 6a bc d9 e2 1c 3d 37 6e c4 bd 9e 41 66 bc
       -0.014304681 0.038302276 -0.09591334 -0.01405373
0002c0 55 c8 96 bd 9f 59 28 bd 0e 63 be bc 7a 94 44 3d
       -0.07362429 -0.041101094 -0.023240592 0.04799316
0002d0 92 89 09 bd a7 54 26 bd 52 43 93 bd 54 76 34 bd
       -0.033578463 -0.040608075 -0.07190575 -0.04405816
0002e0 e1 25 50 bb 8c 77 73 bd c0 a1 d1 3c 08 dd 2d 3d
       -0.003176086 -0.05944018 0.025589824 0.04244712
0002f0 44 a5 c0 3b 9a ac 89 3d 44 ae 53 3d 94 4f 31 3b
       0.005879076 0.06722374 0.051679865 0.002705549
000300 59 80 16 bc 65 66 1d 3c 96 8f cb bc ad 41 c8 3c
       -0.009185874 0.009606932 -0.02484874 0.02444538
000310 d4 91 28 bd a2 2c 23 bc f6 05 56 3d e0 59 2e 3d
       -0.041154698 -0.009959372 0.05225178 0.04256618
000320 7e e5 78 3d d1 b8 bc 3b 31 a5 63 3c c4 10 ad 3c
       0.060765736 0.0057593365 0.013894365 0.021126159
000330 71 9b 40 bd c1 e8 03 bc f4 b7 0b bc a5 2f f2 bb
       -0.04702324 -0.008051098 -0.008527745 -0.0073909336
000340 71 0e 4f bb 5a 15 67 bd 9d aa 10 3d a4 c0 5d 3c
       -0.00315943 -0.056416847 0.03531896 0.013534699
000350 37 61 98 3c a8 cf 7b 3b bb 57 37 3c 73 4f 08 bd
       0.018601043 0.0038423333 0.01119035 -0.033278894
000360 03 35 0b 3b db ea b7 bc 97 9e 05 3b 82 50 18 bd
       0.0021241314 -0.022450855 0.0020388716 -0.037186153
000370 d7 cc 84 3d 97 8f 40 bd 16 b5 44 3c 7f a8 02 bc
       0.064843826 -0.047011938 0.012006065 -0.007974743
000380 9e 05 f0 3b dc ec e1 bb 09 f0 a6 3c 08 a1 ab 3c
       0.0073248884 -0.006894691 0.02037813 0.02095081
000390 9f cd 88 bd 13 e8 31 bd 12 c1 d2 3b e8 e2 e8 3c
       -0.06679844 -0.043434214 0.006431707 0.02842851
0003a0 79 40 d5 bb 42 67 92 bb 47 24 27 3d 22 e3 43 bd
       -0.00650793 -0.0044678757 0.04080608 -0.047824033
0003b0 9e 96 2b 3c 62 95 ca bc 20 ee 35 bd ca ba 8c bd
       0.010472922 -0.024729434 -0.044416547 -0.06871565
0003c0 75 a2 c8 bc 57 5f 99 bc 75 cc 29 bd b6 e1 33 bb
       -0.024491528 -0.01872222 -0.04145475 -0.0027447767
0003d0 0c 27 84 bb 52 33 33 3d 39 c5 5a 3d 84 98 06 bd
       -0.004032975 0.043750115 0.053410742 -0.032860294
0003e0 02 63 21 3d 06 96 ce 3b 56 09 51 bd 43 cf 05 bb
       0.03940106 0.0063045053 -0.051034294 -0.0020417727
0003f0 25 a0 d2 3c 2d c3 98 3b 0f ee f7 bb b2 33 a8 3c
       0.025711128 0.0046619386 -0.0075662206 0.020532463

ntm.controller.lstm.weight_ih_l1 f4 [400, 100]
000000 35 e4 8b be 77 4d 50 3e d5 d8 49 be fb 7b 56 be
       -0.27322546 0.2034205 -0.19711621 -0.20945732
000010 b4 b1 91 3c 5e 64 00 3e bd 94 26 bd a9 07 86 be
       0.01778493 0.12538287 -0.04066919 -0.2617772
000020 06 28 04 bd 30 60 8d be 90 ed 5a 3e 48 01 99 3e
       -0.03226473 -0.27612448 0.21379685 0.2988379
000030 65 79 2d 3e 46 83 d5 bd 46 fc 9e 3c 09 bd 2a bd
       0.1694084 -0.10425429 0.019407403 -0.041684184
000040 78 93 25 bd 8f 43 cc b9 38 41 96 3b 7a c2 9e bd
       -0.04042384 -0.00038960247 0.0045854114 -0.07751937
000050 32 fa 8d ba 67 be 3a be 73 f5 e6 bd 6f 6a 91 be
       -0.001083201 -0.18236695 -0.112772845 -0.28401515
000060 7b cc 55 bc 1f f0 57 be a4 a7 4a be ad 37 eb bd
       -0.01304924 -0.21087693 -0.19790512 -0.11485229
000070 ed 4c fd 3d 1b f0 bc 3e 74 23 1c be e5 ca a2 be
       0.12368188 0.36901936 -0.152479 -0.3179542
000080 d5 31 ab 3e 91 7e 5b 3e c2 20 31 3e f3 c4 a5 be
       0.33436456 0.21435 0.17297652 -0.32376823
000090 ab 43 42 3d 4d c7 38 be 44 14 b1 3e ef fd a9 3d
       0.047427814 -0.18044777 0.34585774 0.08300387
0000a0 99 2e 5c be 5f 0e 96 3e 16 f0 a6 be d4 b3 48 be
       -0.2150215 0.2930784 -0.32605046 -0.19599849
0000b0 c0 c8 06 be 44 a6 55 be 8d 28 96 3d be 81 0e be
       -0.13162518 -0.20864207 0.07331953 -0.1391668
0000c0 da 2b d8 bc 8f b5 c4 3b 32 4b 6b 3e d3 d6 aa be
       -0.026388098 0.006003089 0.22977903 -0.33367023
0000d0 6b 0e de 3c e5 38 10 be 3e 99 34 be 36 1e b5 3e
       0.027106484 -0.14084204 -0.17636582 0.35374612
0000e0 b9 8d 9c 3e 33 2a 2c 3c 87 b3 bf bd 80 8e 0d bd
       0.30576876 0.010508108 -0.09360414 -0.034559727
0000f0 78 ca f9 3c c1 05 58 be 54 8c d5 3d 59 0c 8c be
       0.030492052 -0.21095945 0.10427156 -0.2735317
000100 bb e3 0d 3e 82 ed 7a 3d 66 b6 b2 be 8d 5b 82 3e
       0.13856404 0.06126166 -0.34904784 0.25460473
000110 a1 42 56 bd 49 07 64 3e df ec 25 3e 00 f9 85 3e
       -0.052309636 0.22268404 0.1620364 0.26166534
000120 8a 43 94 be 02 31 27 3e 63 c7 b0 bc a0 73 88 bc
       -0.28957778 0.16327289 -0.02157945 -0.016656697
000130 5a 53 28 3e b8 cd 78 3e 84 2a 82 3e 8d 47 cb 3c
       0.16438046 0.24297225 0.25423062 0.024814392
000140 8e 9d a5 3e e0 54 99 be 64 f3 f2 3c c3 d0 34 be
       0.32346767 -0.29947567 0.029657073 -0.17657761
000150 49 67 5b 3e 52 43 13 be b6 ef ed 3d 94 02 9f bd
       0.21426119 -0.1438115 0.11617987 -0.077641636
000160 1a 10 a7 3e 12 16 64 3e 94 96 46 be df 07 d2 3e
       0.32629472 0.22274044 -0.19393378 0.4102163
000170 0a 6b 90 3e 67 b9 75 3e 62 0d 97 3e 8b 02 b5 bd
       0.28206664 0.23996507 0.29502398 -0.08838376
000180 8e 16 ef 3d db a4 6c 3e 2d 67 59 3e 4c 3d 8c 3e
       0.11674224 0.23109762 0.21230765 0.27390516
000190 1e a0 91 be dc f4 9f 3e d9 af 06 be 9d 94 29 3e
       -0.28442472 0.312415 -0.13153018 0.16560598
0001a0 65 4c 06 be 37 68 16 3e 84 8c b9 3e d2 fc 75 be
       -0.1311508 0.14688192 0.36240017 -0.24022225
0001b0 25 c8 9c 3e 2c be 94 3e e6 58 d3 3c 20 4e 1d bc
       0.30621448 0.2905134 0.025799226 -0.009601146
0001c0 4d 81 7b 3e d6 0c 8d bd 1a 71 32 3e 68 a2 80 3e
       0.24561043 -0.06887214 0.17425957 0.25123906
0001d0 2e 4f a8 bd 55 e0 a8 3e b6 95 d5 bc d0 c1 d0 bc
       -0.08218227 0.32983652 -0.026072364 -0.025483042
0001e0 c7 ed 90 3e 51 9c 50 be f2 1b 9b 3e 0f 00 8c be
       0.2830641 -0.2037213 0.30294758 -0.27343795
0001f0 25 25 08 3e cc 84 c6 3d b7 b6 82 bd 3f a3 4e 3e
       0.1329542 0.09693298 -0.06382506 0.20179461
000200 5f 57 8f be 9f 1c 5c 3d b5 ac 9e be 37 37 9e be
       -0.27996346 0.053738233 -0.3099114 -0.309015
000210 14 5a 99 be a1 6f 35 bd 9d c9 a1 be 53 bb 44 be
       -0.29951537 -0.04429591 -0.3159913 -0.19212084
000220 a2 21 9b be b5 be 26 bc 4c b0 54 be f4 fd 47 3e
       -0.30299097 -0.010177304 -0.20770377 0.19530469
000230 c0 51 11 be de 76 fa 3c 96 d1 6b be ad 23 97 3e
       -0.14191341 0.030574258 -0.2302917 0.29519406
000240 9b cd d5 3b 87 c4 10 3e 45 59 76 be fa f2 34 bc
       0.006524754 0.14137469 -0.24057491 -0.011044258
000250 0b 5b d9 bd 3b 32 12 3e 90 af 27 be 26 f1 d0 3d
       -0.10613068 0.14276974 -0.16375566 0.102022454
000260 8d cf 76 3e a9 89 8b 3e 3c 2a 8b be 96 60 95 3d
       0.24102612 0.27253464 -0.2718066 0.07293813
000270 39 98 96 3e 11 86 57 3e 23 7a 2a be 90 53 f2 3d
       0.29413012 0.21047236 -0.16648154 0.118323445
000280 09 ff 89 bd cd 32 42 3d f3 5d 45 be d8 e1 b7 3d
       -0.06738097 0.04741173 -0.1927412 0.08978623
000290 a7 46 21 be ed dd 8a be bf 60 b6 be 54 6e 23 3e
       -0.15749608 -0.2712244 -0.35620686 0.15960056
0002a0 f3 57 90 be a5 7c 3d 3e e7 bb 98 bd 96 53 60 3e
       -0.281921 0.1850458 -0.074577145 0.21906886
0002b0 a6 c6 c9 3d 40 0b 98 be 96 9d b9 be 6b 4e a5 3e
       0.09852342 -0.29696083 -0.3625304 0.3228639
0002c0 49 36 7d 3e 87 45 9d be d3 86 84 be b1 ea 51 3e
       0.2472774 -0.30717108 -0.25884113 0.20499684
0002d0 48 c9 f3 bd 76 ef 8f 3d ff 2d b0 3e 02 4f 24 bd
       -0.11903626 0.070280954 0.34410092 -0.04011441
0002e0 de d8 88 3d 63 f4 9d 3e 91 80 7d be 49 02 c8 ba
       0.06681989 0.30850515 -0.24756075 -0.001525947
0002f0 59 f4 90 be 4f 86 9c be 85 52 f2 bc d1 28 31 be
       -0.28311422 -0.3057122 -0.029580364 -0.17300726
000300 ca a4 11 3c 2b b8 84 3e 7c ea 68 bc 35 54 3b be
       0.008889386 0.2592176 -0.014216062 -0.18293841
000310 c4 b8 23 be 59 cc bc be d4 e6 05 bd e1 1d be 3c
       -0.15988451 -0.36874655 -0.032690838 0.023207607
000320 e3 ea 66 be c4 70 7a be ed 26 9b 3c e2 ba 15 3d
       -0.2255054 -0.24457079 0.01893946 0.03655518
000330 39 45 bc be b9 5a 89 3e b1 76 29 be 1c 23 65 bd
       -0.36771563 0.26827028 -0.16549183 -0.055941686
000340 4d b3 1e be ca 88 4b 3e 3c c5 6d be 03 55 77 3e
       -0.15498085 0.198764 -0.2321977 0.24153523
000350 06 f2 35 3e 4b 02 dd 3c c1 49 b1 be af ae 81 be
       0.17768106 0.026978632 -0.34626582 -0.25328586
000360 c8 a4 b4 3e 35 ef 00 3d 7e a9 70 3e f9 8b b8 be
       0.35281968 0.031478126 0.23502156 -0.3604429
000370 16 ae a3 3d e1 d3 81 bd e2 a3 24 3e 92 08 93 3d
       0.07992189 -0.06339241 0.16078141 0.07179369
000380 17 68 34 3e 9e c8 81 3e ed 4f 9f be d7 8b 7f 3e
       0.17617832 0.2534837 -0.31115666 0.24955688
000390 e0 1c 06 3d f9 47 4c 3c 5e e3 9d be cb 5e 97 be
       0.03274238 0.0124683315 -0.3083753 -0.2956451
0003a0 b0 31 d3 bd 18 7d bb 3e c8 12 19 be 6b b0 77 3e
       -0.103122115 0.36618876 -0.1494857 0.24188392
0003b0 35 07 82 3d 2a 83 44 be 0e 37 ac 3e 57 91 0c 3e
       0.06349031 -0.1919066 0.33635753 0.13727318
0003c0 51 62 a8 be 31 91 8e be b5 19 7b 3e 9c 65 77 be
       -0.3288751 -0.27845147 0.24521525 -0.24159855
0003d0 ff 9b 60 be 06 8c 13 3c 43 bb 7e be 6e 7c af 3e
       -0.21934508 0.009005552 -0.24876122 0.3427462
0003e0 20 3d 45 3e 47 f4 5a 3e 14 2d a8 be 60 65 52 3e
       0.19261599 0.21382247 -0.32846892 0.20546484
0003f0 08 1d 82 be 45 ae 8f bd 57 90 3a bd 2d 1e be be
       -0.25412774 -0.07015661 -0.04554781 -0.37132397
