results/priority-sort/priority-sort-task-1-batch-21000.model (torch_old, 876115 bytes, 49 tensors)

ntm.read0_bias f4 [1, 20]
0	0x3c0bd4d3	0.008534628
1	0x3c0a3326	0.008435046
2	0xbc07660d	-0.008264077
3	0x393e8c89	0.00018172165
4	0x3b991218	0.0046713464
5	0x3c186f83	0.00930393
6	0x3b190bdd	0.0023353018
7	0x3c35f5bd	0.011105952
8	0x3bc8c34d	0.0061267973
9	0xbc3ae341	-0.011406721
10	0xbaa94e7e	-0.0012917069
11	0xbaefb1f7	-0.0018287291
12	0xbcd5a487	-0.02607943
13	0x3b3ff7f7	0.0029292086
14	0x3c8bdc98	0.01707296
15	0xbc770feb	-0.015079479
16	0xbc1a3b2d	-0.009413523
17	0x3b45c244	0.0030175606
18	0x3c21bae9	0.009871223
19	0x3ab091dc	0.0013471204

ntm.read1_bias f4 [1, 20]
0	0x3bf37f26	0.0074309288
1	0xbb212216	-0.0024586967
2	0x3bc981eb	0.0061495206
3	0x3bd10506	0.0063787727
4	0x3b5e6907	0.0033937113
5	0x3ba88059	0.0051422534
6	0xbb4991af	-0.0030757
7	0xbaf59ccb	-0.0018738745
8	0xbad51a34	-0.001625842
9	0xbaa60a10	-0.0012667794
10	0x3c9c2b38	0.019063577
11	0x3c3600dd	0.011108604
12	0xbb94c1cc	-0.004539704
13	0xbc232c4a	-0.00995929
14	0x3920e3fe	0.00015343723
15	0xbbdbbd97	-0.0067059505
16	0x3b1187d4	0.0022206204
17	0x3c0e78e4	0.008695815
18	0xbc1b70b7	-0.0094873225
19	0xbb7851ea	-0.0037890621

ntm.read2_bias f4 [1, 20]
0	0x3c09ed5d	0.008418408
1	0xbcb163fb	-0.02165412
2	0x3cd69734	0.026195146
3	0xbc72e7b3	-0.014825749
4	0x3be93683	0.007117094
5	0x3b68e38a	0.0035536014
6	0x3bb0e4b0	0.0053983554
7	0x3b343d87	0.0027502493
8	0xbc259714	-0.010106821
9	0xbc23635b	-0.009972419
10	0x3c243e20	0.010024577
11	0xba8813ff	-0.0010381936
12	0xbb640392	-0.0034792167
13	0x3b7b3d58	0.0038336124
14	0xbadc026a	-0.0016785387
15	0x3b6740ab	0.0035286348
16	0x3c856155	0.016281763
17	0xbc813c46	-0.01577581
18	0x3c95b1ed	0.018273318
19	0xbc32a613	-0.010903853

ntm.read3_bias f4 [1, 20]
0	0xbc10fce8	-0.00884936
1	0x3b0abf3e	0.0021171118
2	0xbc2279a0	-0.009916693
3	0x3b9d8ee8	0.0048082955
4	0x39d403db	0.00040438664
5	0x3b64a9a6	0.0034891157
6	0x3cb959ed	0.022625888
7	0xbc4ea3d3	-0.012612301
8	0x3ad15c4b	0.001597294
9	0xba0c119a	-0.0005343199
10	0x3c3cf1a5	0.011532222
11	0x3bd36515	0.006451259
12	0xba57e970	-0.0008236384
13	0x3b827ef9	0.0039824215
14	0x3bc2468e	0.005928821
15	0xbc066061	-0.008201689
16	0xbc6b8295	-0.014374395
17	0xbb40a240	-0.0029393584
18	0xbc138b90	-0.009005442
19	0x3c904819	0.017612504

ntm.read4_bias f4 [1, 20]
0	0x3aa959b4	0.001292041
1	0x3c923ded	0.017851794
2	0xbaee6d46	-0.0018190525
3	0x3bf3011b	0.0074159033
4	0xbb81a800	-0.0039567947
5	0xbc10fe10	-0.008849636
6	0xbbd212e6	-0.0064109443
7	0x3c071c50	0.008246496
8	0xbb1d4cf6	-0.002400217
9	0x3c084d30	0.008319184
10	0xbc33277e	-0.010934709
11	0xbc705574	-0.014668811
12	0xbc448f4b	-0.011997054
13	0xbc1d5dd8	-0.009604894
14	0xb9c9d257	-0.00038494423
15	0x3ad8f3bd	0.0016552132
16	0x3bb88c4a	0.005631958
17	0xbb134f43	-0.0022477664
18	0xbc8af8b7	-0.0169643
19	0x3c29f7b6	0.010374

ntm.controller.lstm_h_bias f4 [2, 1, 100]
0	0x3d065895	0.032799322
1	0xbd24702f	-0.04014605
2	0xbce184af	-0.027529089
3	0xbdd230b1	-0.102631934
4	0xbd104833	-0.035225105
5	0x3d9cca1f	0.07655739
6	0xbd9244b5	-0.07142011
7	0xbd4e0033	-0.05029316
8	0x3cb039bd	0.021511907
9	0x3b6d9e8b	0.003625783
10	0xbc91479b	-0.01773434
11	0xbd16f4fa	-0.03685472
12	0x3d22db57	0.03975996
13	0x3cb4ddf5	0.022078494
14	0xbdca9bcf	-0.098929994
15	0x3d8d0675	0.06885997
16	0xbd0a5824	-0.033775464
17	0xbc6f6b98	-0.014613055
18	0x3da9508f	0.082673185
19	0x3d8d3fd7	0.06896942
20	0xbd8fefa6	-0.07028131
21	0x3cd5c69e	0.026095685
22	0x3d06c788	0.03290513
23	0xbda9e717	-0.0829603
24	0xbd87a142	-0.06622554
25	0x3dc8197f	0.09770488
26	0xbd3e43f7	-0.046451535
27	0xbd00a22e	-0.031404667
28	0xbb53ed5b	-0.003233752
29	0xbc9afba8	-0.018918827
30	0xbd837aff	-0.06419944
31	0xbdad23d7	-0.084541015
32	0xbc91e9e2	-0.01781172
33	0xbd5107cc	-0.051032826
34	0xbe0ac9bb	-0.13553517
35	0x3ce4c44c	0.027925633
36	0xbd248f44	-0.04017569
37	0xbd1ce6a9	-0.038305912
38	0x3de435a3	0.11143043
39	0xbc4cd110	-0.012501016
40	0x3d45a0a9	0.04824892
41	0xbd0d94fd	-0.034565914
42	0xbcec99ff	-0.028882025
43	0x3c7ea9ba	0.015543396
44	0xbd0ae093	-0.033905577
45	0xbcf6ab5c	-0.030111007
46	0x3a9c2ee7	0.0011915833
47	0x3d962487	0.07331186
48	0x3d22e8bf	0.039772745
49	0xbc1822b8	-0.009285621
50	0xbc6fcc9b	-0.014636184
51	0x3dd07083	0.1017771
52	0xbc593077	-0.013256184
53	0x3e0d7013	0.13812284
54	0xbcc57791	-0.024104865
55	0xba94573a	-0.00113175
56	0x3c454999	0.012041473
57	0xbdc696ef	-0.09696757
58	0x3d3bf2d3	0.045885872
59	0x3ddc5844	0.10759023
60	0x3dc42252	0.095768586
61	0xbc57b4a8	-0.01316563
62	0x3d5a0ceb	0.053234976
63	0x3c0225d0	0.0079435855
64	0x3d819b22	0.06328417
65	0xbd1a740d	-0.03770833
66	0xbb8b254a	-0.0042463886
67	0xbdab3b40	-0.083609104
68	0xbdbf1c29	-0.09331543
69	0xbde4927e	-0.11160754
70	0xbcca5718	-0.024699733
71	0xbdc8be84	-0.09801963
72	0x3c921dbd	0.017836446
73	0xbcef2bbd	-0.02919566
74	0x3c3339d4	0.01093908
75	0xbd35fba1	-0.044429425
76	0xbd8274fa	-0.06369968
77	0xbda8ca3c	-0.08241698
78	0xbb1a46bd	-0.0023540698
79	0xbc89a848	-0.016803876
80	0x3ce607a7	0.02807982
81	0xbd4fbd06	-0.050717376
82	0xbe277840	-0.16354465
83	0xbc98ad37	-0.018637283
84	0xbcfecac6	-0.03110255
85	0x3cb7e5bb	0.022448411
86	0xbd33d4c3	-0.043904077
87	0xbd113a39	-0.035455916
88	0x3a7b31a9	0.000958229
89	0x3ddccdec	0.10781464
90	0xbbb0fa6e	-0.0054009473
91	0xbc0ba95e	-0.008524267
92	0x3d49eb4e	0.04929667
93	0xbd049f7f	-0.03237867
94	0x3db4980c	0.08818063
95	0xbd873246	-0.06601386
96	0x3dbd32f8	0.09238237
97	0x3dc3e1b2	0.09564532
98	0x3b74cc8c	0.0037353365
99	0xbd18f86e	-0.037346296
100	0x3e78a772	0.24282625
101	0x3d33fd6d	0.043942858
102	0x3d9de740	0.07710123
103	0x3d64d9ac	0.05587165
104	0xbdfa5fae	-0.12225281
105	0x3d6932ec	0.05693333
106	0x3da08f1e	0.078397974
107	0xbdd99fa2	-0.10626151
108	0x3d9cabcc	0.07649955
109	0xbdb78e89	-0.08962733
110	0xb9da7827	-0.0004166972
111	0xbd81c3e3	-0.063361906
112	0x3de52a78	0.11189741
113	0x3d9211e9	0.07132322
114	0xbd50fe9d	-0.05102407
115	0xbda85dd6	-0.08221023
116	0x3e1a7299	0.15082778
117	0xbaae59a2	-0.0013301859
118	0xbddf224a	-0.10895212
119	0x3c203340	0.009777844
120	0xbd698ae5	-0.057017226
121	0x3d1a0382	0.037601
122	0x3cf8da0b	0.030377408
123	0x3d42f3c2	0.047595747
124	0xbc9632f8	-0.01833485
125	0xbd90edfd	-0.07076643
126	0xbd12109d	-0.035660375
127	0x3e12f514	0.14351302
128	0x3bd9cdb9	0.0066468385
129	0x3e095ec7	0.13415061
130	0x3d630e36	0.055433474
131	0x3c88672a	0.016650755
132	0x3d9e9479	0.07743163
133	0xbb2102cf	-0.0024568324
134	0x3e13a5bc	0.14418691
135	0xbdb221fb	-0.086978875
136	0xbca342fd	-0.019929403
137	0x3cdc14ca	0.026865382
138	0x3dc7cca8	0.09755832
139	0xbd5297de	-0.051414363
140	0x3d8dac83	0.069176696
141	0xbda5b411	-0.080909856
142	0xbdb565c9	-0.088573046
143	0xbd7e0665	-0.062017817
144	0xbd240248	-0.040041238
145	0xbb2c2e0a	-0.0026272559
146	0x3dca1359	0.098669715
147	0xbc117502	-0.0088779945
148	0x3dd03436	0.101662084
149	0xbcea7774	-0.028621413
150	0x3b803d58	0.0039135627
151	0x3da97d98	0.08275908
152	0x3d86d178	0.06582922
153	0xbce53272	-0.027978156
154	0xbda0b30a	-0.07846649
155	0x3bdab59d	0.006674482
156	0xbe0bf00c	-0.1366579
157	0xbd814e47	-0.06313758
158	0x3d0612ba	0.032732703
159	0xbdae1a00	-0.08501053
160	0x3d777a2a	0.06041924
161	0x3dd4696c	0.1037167
162	0x3dda1097	0.106476955
163	0x3db4d381	0.08829404
164	0xbd2847b6	-0.041084014
165	0xbd5b3ff9	-0.053527806
166	0x3bda3041	0.0066585843
167	0xbd5ef8d8	-0.054436535
168	0x3af1781c	0.0018422636
169	0x3d7096b2	0.058737464
170	0x3d6a66e0	0.057227015
171	0x3e546a81	0.20743753
172	0xbdf6a6c4	-0.12043527
173	0x3d706436	0.05868932
174	0x3d821f5b	0.06353637
175	0xbe30e31e	-0.17274138
176	0x3d5e65fe	0.054296486
177	0xbca856d9	-0.020549225
178	0xbdaaedc9	-0.08346135
179	0xbe220d42	-0.1582537
180	0x3cb1c66d	0.021701062
181	0xbd6f80ee	-0.058472566
182	0xbb1870a5	-0.00232605
183	0xbdbd8a84	-0.092549354
184	0x3de14364	0.10999182
185	0xbdc68768	-0.096937954
186	0xbd803287	-0.06259637
187	0xbdefa27a	-0.11700912
188	0xbd0c2da7	-0.034223225
189	0xbdc9f34d	-0.09860859
190	0x3d4fd656	0.050741516
191	0xbd8f227e	-0.06989001
192	0x3d38ca38	0.045114726
193	0x3e132795	0.14370568
194	0xbbaede84	-0.0053365845
195	0xbe1b6d3b	-0.15178387
196	0x3d60ec3a	0.054912783
197	0xbd8b57f2	-0.068038836
198	0x3df5a69a	0.11994667
199	0xbcbb3961	-0.022854509

ntm.controller.lstm_c_bias f4 [2, 1, 100]
0	0x3d093ea4	0.033507004
1	0xbc4eca84	-0.012621526
2	0xbd30d67e	-0.043173306
3	0xbb87bc82	-0.004142345
4	0x3cf9ea7e	0.030507322
5	0xbcb09a9b	-0.021558097
6	0xbdf8c5ea	-0.12147124
7	0x3da0a42f	0.078438155
8	0xbd63add5	-0.0555857
9	0xbd1c1618	-0.038107008
10	0x3d894784	0.06703094
11	0xbda0b72b	-0.078474365
12	0xbd10e301	-0.035372738
13	0xbcc78eba	-0.02436005
14	0x3e15a360	0.14613104
15	0xbc78eb94	-0.015192885
16	0x3c24e03e	0.010063229
17	0xbdc629ed	-0.096759655
18	0x3da2da11	0.07951749
19	0xbd3e92e4	-0.046526805
20	0xbcf10491	-0.029421123
21	0xbd46ab8b	-0.04850344
22	0xb8cbecec	-9.7239244e-05
23	0xbcd9c2e9	-0.026582198
24	0xba74d560	-0.00093396567
25	0x3db062d2	0.086125985
26	0x3ca9e25e	0.020737823
27	0xbb8cf5e1	-0.004301772
28	0xbd857f87	-0.065184645
29	0x3d010099	0.03149471
30	0xbdad7c10	-0.08470929
31	0xbda605e3	-0.081065916
32	0xbd76729c	-0.060167894
33	0xbdac2e33	-0.08407249
34	0xbd004f45	-0.031325597
35	0xbd74ccf7	-0.059765782
36	0xbccd54f4	-0.025064923
37	0xbe02b830	-0.12765574
38	0xbb4ba98f	-0.0031076407
39	0xbd0527e9	-0.032508764
40	0x3cb923e8	0.02260013
41	0xbd78fc57	-0.060787525
42	0xbd9fb6f5	-0.07798568
43	0x3c80fd70	0.015745848
44	0xbb68333b	-0.0035430926
45	0x3d018d6f	0.031629022
46	0x3c9ef6fe	0.019404884
47	0x3c96a6a8	0.018390015
48	0xbcc73ca5	-0.02432091
49	0x3c2dd30b	0.010609399
50	0x3c4c8a19	0.012484097
51	0xbd3f6809	-0.046730075
52	0x3c0ef666	0.008725738
53	0xbcf515f7	-0.0299177
54	0x3dc897e4	0.09794596
55	0xbc92ca90	-0.017918855
56	0xbc13dd55	-0.009024938
57	0x3bca37e4	0.0061712135
58	0x3c1e0090	0.009643689
59	0x3d87e599	0.06635589
60	0x3ca4bc2e	0.020109262
61	0xbce693df	-0.028146682
62	0xbc2c1a94	-0.010504384
63	0xbba2c76e	-0.0049676215
64	0x3d16b217	0.036790933
65	0xbc1a3e68	-0.009414293
66	0xbd35fd13	-0.044430804
67	0x3d6a2b56	0.057170235
68	0xbc7e6876	-0.015527835
69	0xbcc24adb	-0.023717334
70	0x3ce28eae	0.027655926
71	0xbdf0a4aa	-0.11750157
72	0xbd4cc751	-0.04999477
73	0x3d0f3df3	0.03497119
74	0x3cdce16a	0.026962955
75	0xbd54e3b8	-0.051974982
76	0xbb2be13e	-0.0026226784
77	0xbe04e2ce	-0.12977144
78	0xbd6f91b3	-0.05848856
79	0xbd71ce94	-0.0590349
80	0xbd17d5f7	-0.037069287
81	0xbd8648da	-0.06556864
82	0x3b058ace	0.0020376923
83	0xbd847692	-0.06467928
84	0x3da45cd4	0.08025518
85	0xbc5a7de3	-0.013335678
86	0xbc3c277c	-0.011484023
87	0x3d9dce6f	0.0770539
88	0xbda39f11	-0.07989324
89	0xbb1fcc66	-0.0024383306
90	0x3b11a2b5	0.0022222225
91	0x3caaf8a5	0.020870516
92	0x3cc758a1	0.024334254
93	0xbd5b4261	-0.0535301
94	0xbd9f1244	-0.07767156
95	0xbd1d6964	-0.038430586
96	0x3d72daac	0.059290573
97	0x3afb3bf5	0.0019167649
98	0xbcc1ae5f	-0.023642717
99	0xbda60300	-0.08106041
100	0x3d5d14ad	0.053974796
101	0x3c8582e0	0.016297758
102	0xbd2eb63d	-0.042654265
103	0xbd616765	-0.055030245
104	0xbde1a7be	-0.110183224
105	0xbcc11b8a	-0.023572702
106	0x3d774804	0.060371414
107	0x3c9a7197	0.018852992
108	0x3dc8eab3	0.0981039
109	0xbca060b8	-0.01957737
110	0xbdbf59b6	-0.09343283
111	0xbd8acfb5	-0.06777898
112	0x3d38536f	0.045001443
113	0xbd48beb0	-0.04900998
114	0x3af44cda	0.0018638626
115	0x3df78d2f	0.120874755
116	0x3e10ae91	0.14129092
117	0x3e016150	0.12634778
118	0xbd1d1e6b	-0.038359087
119	0xbd94ecd9	-0.072717376
120	0xbcde27ce	-0.02711859
121	0xbd516244	-0.051119104
122	0xbcebbedc	-0.028777532
123	0xbd4f8f41	-0.050673727
124	0xbe144529	-0.14479508
125	0xbcf6bceb	-0.03011938
126	0xbc034d31	-0.008014009
127	0x3e4e25d6	0.20131621
128	0x3c85ed47	0.016348494
129	0xbd8113b0	-0.06302583
130	0x3d5f5b65	0.05453052
131	0xbd72a621	-0.059240464
132	0x3cd7b98e	0.026333597
133	0x3dc1c532	0.0946144
134	0x3d84813d	0.06469963
135	0xbe18f5f5	-0.14937575
136	0x3cfba1b5	0.030716756
137	0x3dbdd48c	0.09269056
138	0x3d19bbe9	0.03753272
139	0x3bc669b6	0.006055082
140	0x3c9fa6a4	0.01948864
141	0xbc877406	-0.016534816
142	0xbd91e6f0	-0.07124126
143	0xbdaa8058	-0.08325261
144	0xbd1edf6f	-0.0387873
145	0xbdf5636a	-0.11981852
146	0x3db7098a	0.08937366
147	0x3d099947	0.033593442
148	0x3ddd347a	0.10801025
149	0x3de59205	0.11209492
150	0xbd3a12c4	-0.045428053
151	0xbd428d81	-0.04749823
152	0x3d06f473	0.03294797
153	0xbdb614eb	-0.088907085
154	0xbd726a72	-0.059183545
155	0x3bc5a7f1	0.006031983
156	0xbd7fe71a	-0.062476255
157	0x3daf5dd0	0.08562815
158	0x3d67f2bc	0.056627974
159	0x3dae04c3	0.08497002
160	0xbb0b4e00	-0.0021256208
161	0x3d318c95	0.04334696
162	0xbd25dc8c	-0.040493533
163	0x3d0bac67	0.034099963
164	0xbe0ab5b0	-0.13545871
165	0xbd1b7f77	-0.037963357
166	0xbd112814	-0.035438612
167	0xbcd6b456	-0.026209038
168	0xbd1a986e	-0.037743025
169	0x3dce5d32	0.10076369
170	0x3d5ff757	0.05467924
171	0x3ce33120	0.027733386
172	0xbdb1b71c	-0.086775035
173	0x3c21ec52	0.009883003
174	0x3c40ae16	0.011760255
175	0x3caaa65a	0.020831276
176	0x3d6c369d	0.05766927
177	0xbdd463ab	-0.10370573
178	0xbcd1ddc2	-0.025618438
179	0xbd175c58	-0.0369533
180	0x3d607b6c	0.054805204
181	0xba634b64	-0.0008670597
182	0x3cfd4c6b	0.030920228
183	0xbe0a5fae	-0.13513061
184	0xbc5878d3	-0.0132124005
185	0xbd2c5799	-0.042075727
186	0xbd333898	-0.043755144
187	0xbe19f79b	-0.1503586
188	0x3e0a725b	0.13520186
189	0x3c4ffdf7	0.012694827
190	0x3d80c693	0.06287875
191	0x3d48ac7a	0.04899261
192	0xbdddba77	-0.10826581
193	0xba420ccc	-0.00074024196
194	0x3dae27c8	0.085036814
195	0xbe0ac493	-0.1355155
196	0x3ac78608	0.001522244
197	0xbba76b4f	-0.0051092277
198	0x3d146835	0.036232192
199	0x3d28b4e5	0.04118814

ntm.controller.lstm.weight_ih_l0 f4 [400, 110]
0	0xbe86dad6	-0.26338834
1	0x3e020edc	0.12700981
2	0x3d1f46fc	0.038886055
3	0xbe62a38a	-0.22132698
4	0xbeb00992	-0.34382302
5	0xbe5bfd83	-0.21483426
6	0x3db609c6	0.08888583
7	0x3e21f195	0.15814812
8	0xbe7fd603	-0.24983983
9	0xbdd4cab6	-0.103902265
10	0xbe2dee86	-0.1698552
11	0x3d44b554	0.04802449
12	0x3e831d83	0.25608453
13	0x3dea23d6	0.114326164
14	0x3d37ae6f	0.044844087
15	0x3e6a2f47	0.22869597
16	0xbd8cef98	-0.068816364
17	0x3dc70969	0.09718592
18	0x3e75338c	0.23945445
19	0xbe5e54c1	-0.21712019
20	0x3d935661	0.0719421
21	0xbe9616ce	-0.29314274
22	0x3d3bd620	0.045858502
23	0xbeb74776	-0.35796708
24	0x3d69e8fc	0.057106957
25	0xbe13e7f0	-0.14443946
26	0xbe04094b	-0.1289417
27	0xbea7d333	-0.3277832
28	0xbe80258f	-0.25028655
29	0xbc8ef2f0	-0.017449826
30	0x3d3baeb8	0.04582092
31	0xbe8e5076	-0.27795762
32	0x3d8c2170	0.06842315
33	0x3c32cce5	0.0109131085
34	0x3e43166c	0.19051522
35	0xbd5356f0	-0.051596582
36	0xbe9dafdd	-0.30798236
37	0x3ea7e99f	0.32795426
38	0xbe51021d	-0.20410962
39	0x3e47ac27	0.19499265
40	0x3e06a9f0	0.13150764
41	0xbe97fbdb	-0.29684338
42	0x3dd0deeb	0.10198768
43	0x3d35c336	0.04437562
44	0x3e9e94d0	0.3097291
45	0x3e1748ad	0.14773817
46	0x3e80b3c7	0.2513716
47	0x3e4727d2	0.19448784
48	0x3e666c44	0.22502238
49	0xbe4d624d	-0.2005703
50	0xbdad39ed	-0.08458314
51	0x3dfc218e	0.123110875
52	0x3ea4050e	0.32035106
53	0xbe29f91c	-0.16598934
54	0xbea29a9d	-0.31758586
55	0xbdd30be9	-0.10305006
56	0xbd10f58f	-0.035390433
57	0xbcf338e1	-0.029690208
58	0x3e811bbb	0.2521647
59	0xbe53c435	-0.20680316
60	0xbeb34e8b	-0.3502086
61	0xbb31e3ec	-0.0027143909
62	0xbc8cb88c	-0.017177843
63	0xbe53d69b	-0.20687334
64	0xbe5ac4a3	-0.21364073
65	0xbe848916	-0.25885838
66	0x3de34dcb	0.11098822
67	0xbd699321	-0.05702508
68	0x3e1bcfd5	0.15216
69	0xbd3120e5	-0.04324426
70	0xbe6e997d	-0.23300739
71	0x3dd5da61	0.10442043
72	0xbb1563bc	-0.0022795042
73	0x3d106dc7	0.03526094
74	0xbe70b015	-0.2350467
75	0x3ea55e9c	0.32298744
76	0x3d3860c2	0.04501415
77	0x3d3dbb1d	0.046321023
78	0x3e3c3e24	0.1838308
79	0x3e865533	0.26236877
80	0xbeb622c6	-0.35573405
81	0x3dbe5ea8	0.09295398
82	0xbdf3c426	-0.11902647
83	0xbe2a2341	-0.16615011
84	0xbdb029c3	-0.086017154
85	0x3e67a355	0.226209
86	0x3d3e58c5	0.046471376
87	0xbe38b1da	-0.18036595
88	0xbe769702	-0.24081042
89	0xbcc6e003	-0.024276739
90	0xbce6a93e	-0.028156873
91	0x3e9d297f	0.30695722
92	0x3e761bf9	0.24034108
93	0x3cbcd712	0.023051772
94	0x3e1c033d	0.1523561
95	0xbe54ee95	-0.20794137
96	0xbd991994	-0.07475582
97	0x3e6a6586	0.2289029
98	0x3eb0f205	0.34559646
99	0x3db4c6e1	0.08826996
100	0x3d075ca2	0.033047326
101	0xbdf7b2bb	-0.12094637
102	0xbe1ec513	-0.15504865
103	0xbe5d6d4e	-0.21623728
104	0xbca1fc82	-0.019773725
105	0xbd66e327	-0.056368973
106	0x3de6a510	0.11261952
107	0x3e9b36b5	0.30315176
108	0x3e9f6bfc	0.31137073
109	0x3d8b0608	0.0678826
110	0xbe6d4c7c	-0.23173708
111	0xbb8d4efb	-0.0043123937
112	0xbe3f61b8	-0.1868962
113	0xbe9c0571	-0.304729
114	0x3e3cf145	0.18451412
115	0x3ce739d7	0.028225822
116	0x3e0283ce	0.12745592
117	0x3e3589ea	0.17728391
118	0xbe9fc791	-0.31206945
119	0xbd1126c5	-0.035437364
120	0x3d2d658b	0.042333167
121	0x3d791c0f	0.060817774
122	0xbe06de63	-0.13170771
123	0xbeaeffd8	-0.34179568
124	0x3e965655	0.2936274
125	0x3e4a0a98	0.19730604
126	0x3e452341	0.1925173
127	0xbe4bc545	-0.19899471
128	0x3d2ef380	0.04271269
129	0xbe9e2348	-0.30886292
130	0x3e23859e	0.1596894
131	0x3e0f803e	0.14013764
132	0xbe9bcce7	-0.30429766
133	0x3cd0f704	0.025508411
134	0xbe9de4a2	-0.30838495
135	0x3d6e6635	0.05820294
136	0x3e8f8883	0.28033838
137	0xbe9784ff	-0.29593655
138	0xbd11369c	-0.03545247
139	0x3e9b60e0	0.30347347
140	0x3da182aa	0.0788625
141	0x3e0fb673	0.14034443
142	0xbe75d09a	-0.24005356
143	0xbead298c	-0.3382076
144	0xbe751d57	-0.23936974
145	0xbcca0a60	-0.02466315
146	0xbe5280a4	-0.20556885
147	0x3ea3f70e	0.32024425
148	0xbe2eef07	-0.17083369
149	0xbd095154	-0.033524826
150	0xbea99283	-0.33119592
151	0xbe8fbe3f	-0.28074834
152	0x3e2e4722	0.17019323
153	0xbea3e4db	-0.3201054
154	0x3dad1081	0.084504135
155	0x3e7accae	0.24492142
156	0xbbb0c0e2	-0.005394087
157	0x3e64c6ae	0.22341415
158	0xbe0e124c	-0.13874167
159	0x3decfbf2	0.11571492
160	0xbe4128db	-0.18863241
161	0xbd8c10aa	-0.06839116
162	0x3ba9b5b7	0.005179133
163	0x3db9db1d	0.09074996
164	0x3e49912b	0.19684283
165	0x3d93204a	0.07183893
166	0x3dce88fb	0.10084721
167	0xbe35eae2	-0.17765382
168	0xbdbfe82d	-0.09370456
169	0x3e0fa5df	0.14028119
170	0xbe8e13af	-0.27749392
171	0x3ea80850	0.32818842
172	0x3e8d189c	0.27557838
173	0x3de911ab	0.11380323
174	0xbe070da3	-0.13188796
175	0xbea072d8	-0.3133762
176	0x3e95607e	0.2917518
177	0xbe7540e9	-0.23950543
178	0xbe3085d7	-0.17238556
179	0xbe052640	-0.13002872
180	0x3e631aef	0.22178243
181	0x3e6c2207	0.23059855
182	0xbe6f8ff9	-0.23394765
183	0xbead28ef	-0.33820292
184	0xbd0b57d0	-0.03401929
185	0xbe5ba87f	-0.21450995
186	0x3deeb925	0.11656407
187	0xbe9f09c1	-0.3106213
188	0xbd239ff1	-0.039947454
189	0xbd38dcf8	-0.045132607
190	0xbe7cf4d8	-0.24702775
191	0x3ea8e13e	0.32984346
192	0xbec333dd	-0.38125506
193	0xbeab398f	-0.3344235
194	0xbe526df0	-0.2054975
195	0x3ddb5bc7	0.107108645
196	0xbdf1955c	-0.11796066
197	0x3e987c40	0.29782295
198	0xbdc0c32d	-0.09412227
199	0x3dfa0654	0.12208238
200	0xbe0ed45d	-0.13948198
201	0x3c7d0e7b	0.015445347
202	0x3d2cb464	0.04216422
203	0x3de5c93e	0.112200245
204	0x3e913f5a	0.28368646
205	0x3e01799a	0.12644044
206	0x3c94a516	0.018145125
207	0xbe00d2bc	-0.12580389
208	0xbe45facf	-0.19333957
209	0x3e7d733b	0.24750988
210	0x3e3c07e6	0.18362388
211	0x3e1635f7	0.14669023
212	0xbe389da5	-0.18028887
213	0x3e5012d4	0.20319682
214	0x3cf54cd7	0.029943867
215	0xbde2c260	-0.1107223
216	0xbd4c7b90	-0.049922526
217	0x3e11b2c8	0.14228356
218	0x3e4ae3de	0.19813487
219	0x3d9c353e	0.07627343
220	0x3e4d6b31	0.20060422
221	0xbdea8042	-0.114502445
222	0x3e0f2fdb	0.13983099
223	0x3d69810c	0.057007834
224	0x3d85e62f	0.06538045
225	0x3dd4525d	0.10367272
226	0xbd7328e6	-0.059365176
227	0xbe0f3ca9	-0.13987984
228	0x3dfff797	0.12498396
229	0x3e8c26c5	0.2737333
230	0x3e8389c3	0.2569104
231	0x3e45fda6	0.1933504
232	0xbe7c1bf0	-0.24620032
233	0xbe5195f2	-0.20467356
234	0x3e80934e	0.25112385
235	0xbe64b734	-0.22335511
236	0xbe896e22	-0.26841837
237	0x3e564886	0.20926103
238	0xbdcd2f59	-0.100187965
239	0x3cff2d29	0.031149464
240	0x3d97f64b	0.074200235
241	0xbdfacedd	-0.12246487
242	0x3dc389ec	0.09547791
243	0xbe429d17	-0.19005238
244	0xbe95f573	-0.29288825
245	0xbdd77f93	-0.1052238
246	0xbe5edc9e	-0.21763846
247	0xbdb1ed37	-0.08687823
248	0x3d222129	0.039582405
249	0xbc695ce8	-0.014243342
250	0xbea04066	-0.31299132
251	0xbd51ef3f	-0.051253553
252	0xbe07eda2	-0.13274243
253	0xbe89e33f	-0.26931188
254	0xbe2821eb	-0.16419189
255	0xbd7ae41e	-0.061252706

ntm.controller.lstm.weight_hh_l0 f4 [400, 100]
0	0xbe9209b3	-0.28523025
1	0x3d126d03	0.035748493
2	0xbe634f8a	-0.2219831
3	0x3e9b781d	0.30365077
4	0x3e647836	0.22311482
5	0x3e443f48	0.19164765
6	0xbe7be001	-0.2459717
7	0xbda4ceab	-0.08047231
8	0xbe42c4d8	-0.19020402
9	0x3e656ed9	0.22405566
10	0xbe864181	-0.2622185
11	0xbe0d2440	-0.1378336
12	0x3e855b1a	0.26046067
13	0xbe4bc681	-0.19899942
14	0x3e8059e8	0.25068593
15	0xbd0464ee	-0.032322817
16	0xbd8556d4	-0.06510702
17	0xbdc86f0e	-0.09786807
18	0xbe9b5afe	-0.3034286
19	0xbe2d0e49	-0.1689998
20	0xbdf57be1	-0.11986519
21	0xbe39b8f4	-0.1813696
22	0xbe5bb8bf	-0.21457194
23	0xbd34d1a9	-0.04414526
24	0x3ead1272	0.33803135
25	0x3dd5be3c	0.10436675
26	0x3e85029b	0.2597855
27	0x3ba94091	0.0051651676
28	0x3e9e26a2	0.3088885
29	0xbdd7725e	-0.10519861
30	0xbd920fe0	-0.07131934
31	0x3e89ef73	0.26940498
32	0x3dae3ed5	0.08508078
33	0xbdafb167	-0.08578759
34	0x3e298c68	0.16557467
35	0x3e41680b	0.18887345
36	0x3e16103b	0.14654629
37	0xbe9f7fb3	-0.31152114
38	0x3e020cc9	0.1270019
39	0xbea37745	-0.31926933
40	0x3ea800bd	0.32813063
41	0x3e889e66	0.26683348
42	0xbe62a597	-0.2213348
43	0x3e9a98fe	0.3019485
44	0x3d7fd6e0	0.06246078
45	0x3ea86f92	0.3289762
46	0xbe90638c	-0.28200948
47	0xbe92b9ea	-0.28657466
48	0x3dced183	0.10098555
49	0x3e99e2f3	0.3005596
50	0x3ded30c5	0.11581568
51	0x3e27d702	0.16390613
52	0x3bf34b0b	0.0074247173
53	0xbcf67d1f	-0.03008896
54	0xbe1e573d	-0.15462966
55	0xbe508f2c	-0.20367116
56	0x3e029b78	0.12754619
57	0xbd897aba	-0.06712861
58	0xbdfad082	-0.12246801
59	0x3e20cd5b	0.15703337
60	0xbd89896b	-0.067156635
61	0xbe35d23e	-0.17755982
62	0xbe78b7b5	-0.24288829
63	0x3ea177eb	0.31536803
64	0x3df81718	0.1211378
65	0xbe040374	-0.12891942
66	0xbe44e847	-0.19229232
67	0x3db0550c	0.086099714
68	0x3e95b097	0.2923629
69	0xbeca49c6	-0.3950941
70	0x3d86374f	0.06553518
71	0x3d34c973	0.04413743
72	0x3e6ec5c6	0.23317632
73	0xbe11b32a	-0.14228502
74	0x3e69d7ae	0.22836182
75	0x3c9a2f34	0.018821336
76	0x3dca6b21	0.098837145
77	0x3ea67084	0.32507718
78	0xbe48b9c3	-0.19602112
79	0x3e4b13cb	0.19831769
80	0xbe2a918f	-0.16657089
81	0xbeb9ed6a	-0.36313945
82	0x3eb91615	0.3614966
83	0x3e7e08ae	0.24807999
84	0x3e908580	0.28226852
85	0xbe818ed2	-0.25304276
86	0xbe9d6378	-0.3073995
87	0xbd4f74af	-0.050648388
88	0x3cd3d531	0.025858494
89	0xbe26e414	-0.16297942
90	0x3e2e6e58	0.1703428
91	0x3e5bec85	0.21476944
92	0xbeaa4201	-0.33253482
93	0x3e15891d	0.14603086
94	0x3e0a626c	0.13514107
95	0x3db43f25	0.08801106
96	0x3cc7f393	0.024408137
97	0x3dd284b2	0.10279216
98	0x3dc8057f	0.09766673
99	0xbe9f6b62	-0.31136614
100	0x3e9be157	0.30445358
101	0xbe2175e0	-0.15767622
102	0xbe4aad2a	-0.1979262
103	0xbe11fb64	-0.14256054
104	0xbe106f44	-0.14104944
105	0x3e43d27f	0.19123267
106	0xbd40239b	-0.046908956
107	0x3cfd03b9	0.030885564
108	0x3df220e9	0.11822683
109	0xbe202067	-0.1563736
110	0x3def747a	0.11692138
111	0x3e1f5624	0.15560204
112	0xbea6a1a0	-0.32545185
113	0x3e305d0b	0.17222993
114	0xbe5e33f4	-0.21699506
115	0x3e48112d	0.19537802
116	0xbe3bcbf5	-0.18339522
117	0xbe3fc9d2	-0.18729332
118	0xbda23594	-0.079203755
119	0xbe9e4056	-0.3090846
120	0x3c32607c	0.0108872615
121	0xbdfc6e48	-0.12325722
122	0x3d85dd7b	0.06536385
123	0x3cf3fc7f	0.029783485
124	0x3e8fd71e	0.2809381
125	0xbeae4a6b	-0.3404115
126	0xbeb1455a	-0.34623224
127	0xbe6eb5b6	-0.23311505
128	0xbda4dfa0	-0.080504656
129	0x3e63ed4e	0.22258493
130	0x3e9e18bb	0.30878243
131	0x3e31e2b4	0.17371637
132	0x3ed32543	0.41239366
133	0xbebd15e2	-0.36930758
134	0x3e9e8013	0.30957088
135	0x3e36320c	0.17792529
136	0x3bd25cee	0.0064197695
137	0x3c705916	0.014669677
138	0xbe856fc4	-0.26061833
139	0xbd51883d	-0.051155318
140	0x3e1b8084	0.15185744
141	0xbe72963a	-0.2369012
142	0x3ea9bf5c	0.33153808
143	0x3e7111f5	0.23542006
144	0xbe1405f8	-0.14455402
145	0x3dabc258	0.083866775
146	0xbdf1bd52	-0.11803688
147	0xbde640b3	-0.11242809
148	0x3d0d1a9c	0.034449205
149	0xbe2b053b	-0.16701214
150	0x3da8139f	0.082068674
151	0xbc9ea41c	-0.019365363
152	0x3e1b295a	0.15152493
153	0x3d41bf3a	0.04730151
154	0xbe0f1f13	-0.13976698
155	0xbe880e05	-0.26573196
156	0x3e6cec84	0.23137099
157	0x3e200d1c	0.15630001
158	0xbe417e94	-0.18895942
159	0x3e233b6c	0.15940636
160	0x3e3264b5	0.17421229
161	0x3dc4df89	0.096129484
162	0xbe597015	-0.21234162
163	0xbe5ff8aa	-0.21872202
164	0x3e9ab2a1	0.30214408
165	0x3e530e60	0.20610952
166	0xbe3a58fd	-0.18198009
167	0x3c905c8a	0.017622251
168	0x3edb9cde	0.42893118
169	0xbe1ab821	-0.15109302
170	0xbe97ec67	-0.29672548
171	0x3e7b7b68	0.24558794
172	0xbe38336d	-0.17988367
173	0xbe13f75f	-0.14449833
174	0xbeadaa20	-0.33918858
175	0xbe829cd3	-0.25510272
176	0x3caddfce	0.021224882
177	0x3e3f1db7	0.18663679
178	0x3dcdd716	0.1005079
179	0xbd4982ca	-0.049196996
180	0xbd1586e8	-0.03650561
181	0x3e8378d8	0.25678134
182	0x3d94e493	0.072701596
183	0x3e4b4e8c	0.19854182
184	0x3cf00eb5	0.029303888
185	0x3ea1319f	0.3148317
186	0x3d47e9fa	0.04880712
187	0xbe328082	-0.17431834
188	0x3dbe00c2	0.09277488
189	0x3e7b1ad0	0.24521947
190	0xbddbff3c	-0.107420415
191	0x3e85c04e	0.2612328
192	0x3d627e6e	0.055296354
193	0x3d48abde	0.04899203
194	0x3b309ce0	0.0026948974
195	0x3e61cd04	0.22050864
196	0x3c6507bc	0.013978895
197	0x3ead0887	0.33795568
198	0x3e6493e0	0.22322035
199	0x3eaa8b9e	0.33309644
200	0xbddd7fe8	-0.10815412
201	0xbc98de54	-0.018660702
202	0x3e955f20	0.29174137
203	0xbe8fc4f7	-0.2807996
204	0x3d9e4f9e	0.077300295
205	0xbda89d76	-0.08233158
206	0x3e360e2e	0.17778847
207	0x3e811be0	0.2521658
208	0x3cf54e21	0.029944481
209	0x3e2ea11f	0.1705365
210	0x39bbd433	0.0003582552
211	0xbe81c0c5	-0.25342384
212	0xbe332f5c	-0.17498535
213	0xbe55bf18	-0.20873678
214	0xbe09ed5e	-0.13469455
215	0x3e9a2229	0.30104187
216	0x3dcada56	0.099049255
217	0x3e8c9cf5	0.274635
218	0x3e88fd2b	0.26755652
219	0xbe9bfb1d	-0.30465022
220	0xbe472825	-0.19448908
221	0x3e9aa161	0.30201247
222	0xbe097f88	-0.13427556
223	0xbeaeffd1	-0.34179547
224	0xbead709d	-0.3387498
225	0xbe650be5	-0.22367819
226	0x3e51401a	0.20434609
227	0xbe48031b	-0.19532435
228	0x3e8baccd	0.27280274
229	0x3d2b6840	0.041847467
230	0xbea82fd6	-0.32848996
231	0xbe7cac6f	-0.24675153
232	0x3e8c4c5e	0.27402014
233	0xbdd03ebb	-0.10168215
234	0xbca154d0	-0.019693762
235	0xbe410b72	-0.18852022
236	0xbe4530ff	-0.19256972
237	0x3eb86398	0.36013484
238	0x3e91a294	0.2844435
239	0x3e915106	0.28382128
240	0x3e68c953	0.22733049
241	0x3e7d6e63	0.2474914
242	0x3d762b48	0.06009987
243	0x3c7852e0	0.015156478
244	0xbe2814df	-0.16414212
245	0x3e7c0355	0.24610646
246	0x3ec4cdc1	0.38438228
247	0x3cd1fd1e	0.025633391
248	0x3e0e61ee	0.13904545
249	0xbe5d3274	-0.21601278
250	0xbd8d5bff	-0.069023125
251	0xbdd7cb22	-0.105367914
252	0xbe5bb03d	-0.21453948
253	0x3e42e053	0.19030885
254	0xbd95549c	-0.072915286
255	0x3d8592be	0.065221295

ntm.controller.lstm.bias_ih_l0 f4 [400]
0	0x3c8ea15f	0.017410932
1	0xbcfef8d4	-0.03112451
2	0xbbacbc65	-0.005271482
3	0x3b6c287d	0.0036034875
4	0xbc5a10fe	-0.013309715
5	0xbcc5cd1c	-0.024145655
6	0xbc78e54a	-0.0151913855
7	0xbd3029a2	-0.043008454
8	0xbcac2168	-0.021012023
9	0xbc56f7e1	-0.013120622
10	0xbccda266	-0.025101852
11	0xbda4a1af	-0.08038651
12	0x3c88a307	0.0166793
13	0xbcde565d	-0.02714079
14	0xbd8be485	-0.06830696
15	0x3d25c897	0.0404745
16	0x3d22b190	0.039720118
17	0xbd1ebcdb	-0.038754325
18	0xbd69ec23	-0.057109963
19	0xbd9bb414	-0.076027066
20	0xbd3b5428	-0.045734555
21	0xbd006215	-0.03134354
22	0xbce07fc7	-0.027404679
23	0xbbf434f0	-0.0074525997
24	0x3cec7218	0.028862998
25	0xbd2736fa	-0.040823914
26	0xbc81dbb9	-0.015851842
27	0xbcc07a64	-0.02349586
28	0x3c1bba32	0.009504842
29	0xbd4e7233	-0.050401878
30	0x3c79627d	0.015221235
31	0xbbde1888	-0.0067778267
32	0x3ba477ca	0.005019163
33	0xbcb03b4e	-0.021512654
34	0xbcd5ec55	-0.026113668
35	0xbc56e621	-0.01311639
36	0xbd3adc2b	-0.045620125
37	0xbc7f2939	-0.015573793
38	0xbc99dfc4	-0.018783458
39	0xbc933501	-0.01796961
40	0x3becf29a	0.007231069
41	0xbc06b424	-0.00822166
42	0xbd16aec7	-0.036787774
43	0xbd75f3d3	-0.060046982
44	0x3c0e813a	0.008697802
45	0xbb83b1ed	-0.004019013
46	0xbd02bf9a	-0.031921007
47	0xbb2f45d4	-0.0026744502
48	0xbd13fb23	-0.036128175
49	0x3b1f13c3	0.0024273254
50	0xbd34eb9f	-0.04417002
51	0xbd1c2215	-0.03811844
52	0xbbfa92b0	-0.007646881
53	0xbcc6f584	-0.024286993
54	0xbd2ce21c	-0.042207822
55	0xbcc1dfb0	-0.023666233
56	0xbc5ba6b5	-0.013406445
57	0xbc92f48e	-0.017938878
58	0xbd291b5e	-0.041285865
59	0x3c9d6cd7	0.019216938
60	0xbc015158	-0.007892929
61	0x3c2d0952	0.010561304
62	0xbb6beff5	-0.003600118
63	0xbcf430f0	-0.029808491
64	0xb7e5616a	-2.734429e-05
65	0xbc9e79d8	-0.019345209
66	0xbcd7416b	-0.02627631
67	0xbc65d32d	-0.014027399
68	0xbca2d117	-0.019875092
69	0xbd60b823	-0.054863106
70	0xbd1cf48f	-0.038319167
71	0xbc0b7c9e	-0.008513598
72	0xbd5909d8	-0.052987903
73	0xbd1f0f83	-0.038833153
74	0xbd980c3c	-0.074242085
75	0xbd04cfd6	-0.03242477
76	0xbd9c2eea	-0.07626136
77	0xbd23fe8d	-0.04003768
78	0xbc6db8f6	-0.01450943
79	0xbcee7faf	-0.029113619
80	0xbd24c79c	-0.040229425
81	0xbd3d059a	-0.04614792
82	0xbd9fa48a	-0.07795055
83	0xbc8a561c	-0.016886763
84	0xbcbd36f2	-0.023097489
85	0xbd2fa840	-0.042885065
86	0x3b8a71be	0.004224985
87	0x3b696a7c	0.0035616448
88	0xbcde409e	-0.027130421
89	0x3d10dd6e	0.03536742
90	0x3c8a12c1	0.016854646
91	0xbc9bbfdd	-0.019012386
92	0x3a255fb0	0.0006308509
93	0x3c243df0	0.010024533
94	0xbc5a6c55	-0.013331492
95	0xbd3c4532	-0.045964427
96	0x3b432e40	0.0029782206
97	0xbce10766	-0.027469348
98	0xbd27025a	-0.040773727
99	0x3d2977f7	0.041374173
100	0x3c822941	0.015888812
101	0x3d279de4	0.04092206
102	0x3c1a891a	0.009432102
103	0x3b884863	0.00415902
104	0xbc74ec2a	-0.014948884
105	0x3d04b413	0.032398295
106	0x3c2abb49	0.010420629
107	0xbc80fc37	-0.015745265
108	0x3d2d3237	0.042284217
109	0xbccac3c3	-0.02475155
110	0xbc173bf0	-0.009230599
111	0xbc13860e	-0.009004129
112	0xbc2c8b44	-0.01053125
113	0xbc624c96	-0.013812205
114	0xbbf37d38	-0.0074306987
115	0x3d703d90	0.05865246
116	0x3c3fb334	0.01170044
117	0xbc2754ac	-0.010213058
118	0x3c0c2d3f	0.008555709
119	0xbca54eee	-0.020179238
120	0xbcfa45f2	-0.03055093
121	0xbd1dc2f1	-0.03851599
122	0x3d811b05	0.06303982
123	0x3b3f40b3	0.002918285
124	0x3d9255eb	0.07145294
125	0x3ca49223	0.020089215
126	0x3cbf7dab	0.023375353
127	0xbbbc762f	-0.0057513933
128	0x3ac969d3	0.0015366621
129	0xbd0a083a	-0.03369925
130	0x3d24d6f4	0.040244058
131	0x3c15751b	0.009122158
132	0xbbb3450b	-0.005470877
133	0xbc0ec839	-0.008714729
134	0xbc1948a9	-0.009355702
135	0xbc943764	-0.018092819
136	0xbd3ee5b2	-0.046605773
137	0xbbf7725a	-0.0075514736
138	0x3c847e92	0.016173635
139	0xbc05ba33	-0.008162069
140	0x3cbd7db6	0.023131233
141	0x3d6bca02	0.057565697
142	0xbc0e19fc	-0.008673187
143	0xbd87150b	-0.065958105
144	0x3d88958c	0.06669149
145	0x3c289837	0.010290197
146	0xbc77c44b	-0.0151224835
147	0x3cbae0bf	0.022812245
148	0xbba26c66	-0.0049567698
149	0x3cd9bab9	0.026578294
150	0xbc2b9891	-0.010473386
151	0xbc772a80	-0.015085816
152	0x3ccdd3ea	0.025125463
153	0xbcacd2fe	-0.021096703
154	0x3d1fcc76	0.03901335
155	0x3c6e9c8a	0.014563689
156	0xbc746707	-0.014917142
157	0xbcafe2b7	-0.02147041
158	0xbc68bf91	-0.014205829
159	0x3c64e1b6	0.013969829
160	0x3c996055	0.018722693
161	0x3d0d42a7	0.034487393
162	0x3baef55e	0.0053393086
163	0x3d190467	0.037357714
164	0x3d3fbfa0	0.046813607
165	0x3d0222ae	0.031771354
166	0x3bbddff6	0.0057945205
167	0x3d82af2f	0.0638107
168	0x3d26c8f6	0.040718995
169	0xbce07095	-0.027397433
170	0xbccd4288	-0.025056139
171	0x3bc99d77	0.0061528045
172	0xbcc024a4	-0.023454972
173	0x3cf0562a	0.029337961
174	0xbda8d91f	-0.082445376
175	0xbca035ff	-0.019556997
176	0xbd34eb5d	-0.044169772
177	0xbca75ca3	-0.020429915
178	0xbc81f29c	-0.015862755
179	0x3d436dac	0.047712013
180	0xbcc18d19	-0.02362685
181	0xbd63b3a4	-0.05559124
182	0xbda39ce2	-0.079889074
183	0xbcf1ed20	-0.029532015
184	0xbca52985	-0.0201614
185	0xbd485506	-0.04890921
186	0x3c81bda4	0.015837498
187	0x3cf5c084	0.029999025
188	0x3b80f06a	0.0039349096
189	0x3d7bf7e2	0.061515696
190	0x3d13acec	0.036053583
191	0x3b444182	0.0029946272
192	0xbc60c436	-0.013718655
193	0x3c2e503b	0.010639246
194	0xbbe8a097	-0.007099222
195	0x3b7e0ded	0.0038765625
196	0xb98a7880	-0.0002641119
197	0xbc11b8da	-0.00889417
198	0x3d2dc853	0.042427372
199	0x3d1394fa	0.036030747
200	0x3d3c4f9d	0.045974363
201	0xbbce4eed	-0.00629603
202	0x3cb2f0a1	0.021843256
203	0x3c600e1b	0.013675238
204	0xbd19240e	-0.0373879
205	0xbb13d963	-0.0022559993
206	0xbbd7803f	-0.0065765674
207	0xbc5b0153	-0.013367015
208	0xbb733f7a	-0.0037116692
209	0xbd308f89	-0.043105636
210	0x3d1cce9c	0.038282976
211	0x3b314618	0.0027049836
212	0x3c79c1b6	0.015243938
213	0xbc87e987	-0.016590847
214	0x3c90f839	0.017696487
215	0xbce43357	-0.027856512
216	0xbb7538a7	-0.00374178
217	0xbc5f03ae	-0.013611717
218	0x3c0354c2	0.008015813
219	0xbc93ea8d	-0.018056178
220	0x3d7410a6	0.05958619
221	0xbd32c04f	-0.04364043
222	0x3c659a22	0.014013799
223	0xbb9f58f2	-0.004862898
224	0x3bd14317	0.0063861716
225	0xbb45bd13	-0.0030172511
226	0x3cb43c29	0.022001343
227	0x3c2653dd	0.0101518305
228	0xbd821010	-0.0635072
229	0xbca2d967	-0.019879056
230	0x3b5ed53c	0.003400161
231	0x3cedac6f	0.029012887
232	0xbc69cc46	-0.014269894
233	0xbab2a106	-0.0013628311
234	0x3cfaaa9b	0.03059893
235	0xbcee1c11	-0.029066117
236	0x3c22ff87	0.009948618
237	0xbc9e887a	-0.019352186
238	0xbd043220	-0.032274365
239	0xbd563086	-0.05229237
240	0xbcdb7432	-0.026788805
241	0xbcc49f32	-0.024001691
242	0xbd311e7b	-0.04324196
243	0xbbc9ca6e	-0.0061581647
244	0xbbe5a36b	-0.0070080063
245	0x3d251063	0.04029883
246	0x3d58d9ee	0.05294221
247	0xbd3a4183	-0.045472633
248	0x3d6d374c	0.057914063
249	0x3b96d7fd	0.0046033845
250	0xbd0ec61f	-0.03485691
251	0xbc0fff3c	-0.00878888
252	0x3caee5c5	0.021349797
253	0x3c0b8090	0.008514538
254	0xbc849476	-0.016184073
255	0x3cb92a21	0.022603096

ntm.controller.lstm.bias_hh_l0 f4 [400]
0	0x3c8ea15f	0.017410932
1	0xbcfef8d4	-0.03112451
2	0xbbacbc65	-0.005271482
3	0x3b6c287d	0.0036034875
4	0xbc5a10fe	-0.013309715
5	0xbcc5cd1c	-0.024145655
6	0xbc78e54a	-0.0151913855
7	0xbd3029a2	-0.043008454
8	0xbcac2168	-0.021012023
9	0xbc56f7e1	-0.013120622
10	0xbccda266	-0.025101852
11	0xbda4a1af	-0.08038651
12	0x3c88a307	0.0166793
13	0xbcde565d	-0.02714079
14	0xbd8be485	-0.06830696
15	0x3d25c897	0.0404745
16	0x3d22b190	0.039720118
17	0xbd1ebcdb	-0.038754325
18	0xbd69ec23	-0.057109963
19	0xbd9bb414	-0.076027066
20	0xbd3b5428	-0.045734555
21	0xbd006215	-0.03134354
22	0xbce07fc7	-0.027404679
23	0xbbf434f0	-0.0074525997
24	0x3cec7218	0.028862998
25	0xbd2736fa	-0.040823914
26	0xbc81dbb9	-0.015851842
27	0xbcc07a64	-0.02349586
28	0x3c1bba32	0.009504842
29	0xbd4e7233	-0.050401878
30	0x3c79627d	0.015221235
31	0xbbde1888	-0.0067778267
32	0x3ba477ca	0.005019163
33	0xbcb03b4e	-0.021512654
34	0xbcd5ec55	-0.026113668
35	0xbc56e621	-0.01311639
36	0xbd3adc2b	-0.045620125
37	0xbc7f2939	-0.015573793
38	0xbc99dfc4	-0.018783458
39	0xbc933501	-0.01796961
40	0x3becf29a	0.007231069
41	0xbc06b424	-0.00822166
42	0xbd16aec7	-0.036787774
43	0xbd75f3d3	-0.060046982
44	0x3c0e813a	0.008697802
45	0xbb83b1ed	-0.004019013
46	0xbd02bf9a	-0.031921007
47	0xbb2f45d4	-0.0026744502
48	0xbd13fb23	-0.036128175
49	0x3b1f13c3	0.0024273254
50	0xbd34eb9f	-0.04417002
51	0xbd1c2215	-0.03811844
52	0xbbfa92b0	-0.007646881
53	0xbcc6f584	-0.024286993
54	0xbd2ce21c	-0.042207822
55	0xbcc1dfb0	-0.023666233
56	0xbc5ba6b5	-0.013406445
57	0xbc92f48e	-0.017938878
58	0xbd291b5e	-0.041285865
59	0x3c9d6cd7	0.019216938
60	0xbc015158	-0.007892929
61	0x3c2d0952	0.010561304
62	0xbb6beff5	-0.003600118
63	0xbcf430f0	-0.029808491
64	0xb7e5616a	-2.734429e-05
65	0xbc9e79d8	-0.019345209
66	0xbcd7416b	-0.02627631
67	0xbc65d32d	-0.014027399
68	0xbca2d117	-0.019875092
69	0xbd60b823	-0.054863106
70	0xbd1cf48f	-0.038319167
71	0xbc0b7c9e	-0.008513598
72	0xbd5909d8	-0.052987903
73	0xbd1f0f83	-0.038833153
74	0xbd980c3c	-0.074242085
75	0xbd04cfd6	-0.03242477
76	0xbd9c2eea	-0.07626136
77	0xbd23fe8d	-0.04003768
78	0xbc6db8f6	-0.01450943
79	0xbcee7faf	-0.029113619
80	0xbd24c79c	-0.040229425
81	0xbd3d059a	-0.04614792
82	0xbd9fa48a	-0.07795055
83	0xbc8a561c	-0.016886763
84	0xbcbd36f2	-0.023097489
85	0xbd2fa840	-0.042885065
86	0x3b8a71be	0.004224985
87	0x3b696a7c	0.0035616448
88	0xbcde409e	-0.027130421
89	0x3d10dd6e	0.03536742
90	0x3c8a12c1	0.016854646
91	0xbc9bbfdd	-0.019012386
92	0x3a255fb0	0.0006308509
93	0x3c243df0	0.010024533
94	0xbc5a6c55	-0.013331492
95	0xbd3c4532	-0.045964427
96	0x3b432e40	0.0029782206
97	0xbce10766	-0.027469348
98	0xbd27025a	-0.040773727
99	0x3d2977f7	0.041374173
100	0x3c822941	0.015888812
101	0x3d279de4	0.04092206
102	0x3c1a891a	0.009432102
103	0x3b884863	0.00415902
104	0xbc74ec2a	-0.014948884
105	0x3d04b413	0.032398295
106	0x3c2abb49	0.010420629
107	0xbc80fc37	-0.015745265
108	0x3d2d3237	0.042284217
109	0xbccac3c3	-0.02475155
110	0xbc173bf0	-0.009230599
111	0xbc13860e	-0.009004129
112	0xbc2c8b44	-0.01053125
113	0xbc624c96	-0.013812205
114	0xbbf37d38	-0.0074306987
115	0x3d703d90	0.05865246
116	0x3c3fb334	0.01170044
117	0xbc2754ac	-0.010213058
118	0x3c0c2d3f	0.008555709
119	0xbca54eee	-0.020179238
120	0xbcfa45f2	-0.03055093
121	0xbd1dc2f1	-0.03851599
122	0x3d811b05	0.06303982
123	0x3b3f40b3	0.002918285
124	0x3d9255eb	0.07145294
125	0x3ca49223	0.020089215
126	0x3cbf7dab	0.023375353
127	0xbbbc762f	-0.0057513933
128	0x3ac969d3	0.0015366621
129	0xbd0a083a	-0.03369925
130	0x3d24d6f4	0.040244058
131	0x3c15751b	0.009122158
132	0xbbb3450b	-0.005470877
133	0xbc0ec839	-0.008714729
134	0xbc1948a9	-0.009355702
135	0xbc943764	-0.018092819
136	0xbd3ee5b2	-0.046605773
137	0xbbf7725a	-0.0075514736
138	0x3c847e92	0.016173635
139	0xbc05ba33	-0.008162069
140	0x3cbd7db6	0.023131233
141	0x3d6bca02	0.057565697
142	0xbc0e19fc	-0.008673187
143	0xbd87150b	-0.065958105
144	0x3d88958c	0.06669149
145	0x3c289837	0.010290197
146	0xbc77c44b	-0.0151224835
147	0x3cbae0bf	0.022812245
148	0xbba26c66	-0.0049567698
149	0x3cd9bab9	0.026578294
150	0xbc2b9891	-0.010473386
151	0xbc772a80	-0.015085816
152	0x3ccdd3ea	0.025125463
153	0xbcacd2fe	-0.021096703
154	0x3d1fcc76	0.03901335
155	0x3c6e9c8a	0.014563689
156	0xbc746707	-0.014917142
157	0xbcafe2b7	-0.02147041
158	0xbc68bf91	-0.014205829
159	0x3c64e1b6	0.013969829
160	0x3c996055	0.018722693
161	0x3d0d42a7	0.034487393
162	0x3baef55e	0.0053393086
163	0x3d190467	0.037357714
164	0x3d3fbfa0	0.046813607
165	0x3d0222ae	0.031771354
166	0x3bbddff6	0.0057945205
167	0x3d82af2f	0.0638107
168	0x3d26c8f6	0.040718995
169	0xbce07095	-0.027397433
170	0xbccd4288	-0.025056139
171	0x3bc99d77	0.0061528045
172	0xbcc024a4	-0.023454972
173	0x3cf0562a	0.029337961
174	0xbda8d91f	-0.082445376
175	0xbca035ff	-0.019556997
176	0xbd34eb5d	-0.044169772
177	0xbca75ca3	-0.020429915
178	0xbc81f29c	-0.015862755
179	0x3d436dac	0.047712013
180	0xbcc18d19	-0.02362685
181	0xbd63b3a4	-0.05559124
182	0xbda39ce2	-0.079889074
183	0xbcf1ed20	-0.029532015
184	0xbca52985	-0.0201614
185	0xbd485506	-0.04890921
186	0x3c81bda4	0.015837498
187	0x3cf5c084	0.029999025
188	0x3b80f06a	0.0039349096
189	0x3d7bf7e2	0.061515696
190	0x3d13acec	0.036053583
191	0x3b444182	0.0029946272
192	0xbc60c436	-0.013718655
193	0x3c2e503b	0.010639246
194	0xbbe8a097	-0.007099222
195	0x3b7e0ded	0.0038765625
196	0xb98a7880	-0.0002641119
197	0xbc11b8da	-0.00889417
198	0x3d2dc853	0.042427372
199	0x3d1394fa	0.036030747
200	0x3d3c4f9d	0.045974363
201	0xbbce4eed	-0.00629603
202	0x3cb2f0a1	0.021843256
203	0x3c600e1b	0.013675238
204	0xbd19240e	-0.0373879
205	0xbb13d963	-0.0022559993
206	0xbbd7803f	-0.0065765674
207	0xbc5b0153	-0.013367015
208	0xbb733f7a	-0.0037116692
209	0xbd308f89	-0.043105636
210	0x3d1cce9c	0.038282976
211	0x3b314618	0.0027049836
212	0x3c79c1b6	0.015243938
213	0xbc87e987	-0.016590847
214	0x3c90f839	0.017696487
215	0xbce43357	-0.027856512
216	0xbb7538a7	-0.00374178
217	0xbc5f03ae	-0.013611717
218	0x3c0354c2	0.008015813
219	0xbc93ea8d	-0.018056178
220	0x3d7410a6	0.05958619
221	0xbd32c04f	-0.04364043
222	0x3c659a22	0.014013799
223	0xbb9f58f2	-0.004862898
224	0x3bd14317	0.0063861716
225	0xbb45bd13	-0.0030172511
226	0x3cb43c29	0.022001343
227	0x3c2653dd	0.0101518305
228	0xbd821010	-0.0635072
229	0xbca2d967	-0.019879056
230	0x3b5ed53c	0.003400161
231	0x3cedac6f	0.029012887
232	0xbc69cc46	-0.014269894
233	0xbab2a106	-0.0013628311
234	0x3cfaaa9b	0.03059893
235	0xbcee1c11	-0.029066117
236	0x3c22ff87	0.009948618
237	0xbc9e887a	-0.019352186
238	0xbd043220	-0.032274365
239	0xbd563086	-0.05229237
240	0xbcdb7432	-0.026788805
241	0xbcc49f32	-0.024001691
242	0xbd311e7b	-0.04324196
243	0xbbc9ca6e	-0.0061581647
244	0xbbe5a36b	-0.0070080063
245	0x3d251063	0.04029883
246	0x3d58d9ee	0.05294221
247	0xbd3a4183	-0.045472633
248	0x3d6d374c	0.057914063
249	0x3b96d7fd	0.0046033845
250	0xbd0ec61f	-0.03485691
251	0xbc0fff3c	-0.00878888
252	0x3caee5c5	0.021349797
253	0x3c0b8090	0.008514538
254	0xbc849476	-0.016184073
255	0x3cb92a21	0.022603096

ntm.controller.lstm.weight_ih_l1 f4 [400, 100]
0	0xbe8ef9a0	-0.27924824
1	0x3e55027e	0.20801732
2	0xbe596f4c	-0.21233863
3	0xbe559331	-0.2085693
4	0x3d25f742	0.040519007
5	0x3dcec906	0.10096936
6	0xbd97c045	-0.074097194
7	0xbe88929e	-0.2667436
8	0xbc3a0bf9	-0.011355394
9	0xbe90b75e	-0.28264898
10	0x3e7192e2	0.23591188
11	0x3e9ed8c1	0.31024745
12	0x3e49cc30	0.19706798
13	0xbdac7d2a	-0.08422311
14	0x3bba4a7d	0.005685149
15	0xbd3fb308	-0.046801597
16	0xbd55a903	-0.052163135
17	0x3cad6fb1	0.021171423
18	0x3d2efaed	0.04271977
19	0xbd85caeb	-0.06532844
20	0xbb5d031b	-0.0033723775
21	0xbe3d1c01	-0.18467714
22	0xbdd34484	-0.10315803
23	0xbe803a31	-0.25044397
24	0x3d140ff9	0.036148045
25	0xbe5f98c8	-0.21835625
26	0xbe43c450	-0.19117856
27	0xbdfbcaf5	-0.1229457
28	0x3dff0e93	0.12453952
29	0x3eb5f40c	0.35537755
30	0xbe3509f1	-0.17679574
31	0xbea8a020	-0.32934666
32	0x3e9a22e5	0.30104747
33	0x3e69ec66	0.22844085
34	0x3e3b02f0	0.1826284
35	0xbead1aa6	-0.33809394
36	0x3d6a9230	0.05726832
37	0xbe39bb27	-0.18137799
38	0x3eaa66ae	0.33281463
39	0x3dcf3a12	0.10118498
40	0xbe73ae37	-0.23796926
41	0x3e842280	0.2580757
42	0xbea56f91	-0.3231168
43	0xbe5b5006	-0.21417245
44	0xbdff4768	-0.124647915
45	0xbe77095a	-0.24124661
46	0x3daf2acd	0.085530855
47	0xbe09b28b	-0.13447015
48	0xbcce5585	-0.025187263
49	0x3a870c30	0.0010303315
50	0x3e5975ad	0.21236296
51	0xbeb0cf97	-0.34533378
52	0x3cca6ee0	0.024711072
53	0xbe12a552	-0.14320877
54	0xbe407ca8	-0.18797553
55	0x3ec7131a	0.3888176
56	0x3e87ee95	0.2654921
57	0x3d5b889e	0.053597085
58	0xbdf54238	-0.11975521
59	0xbd630bc3	-0.05543114
60	0x3d8c1941	0.06840754
61	0xbe63a6a9	-0.22231545
62	0x3dc67426	0.09690122
63	0xbe9c83c8	-0.3056929
64	0x3e30daba	0.17270938
65	0x3cdaa325	0.026689121
66	0xbeb69515	-0.35660616
67	0x3e90f78b	0.2831386
68	0xbd80861f	-0.062755816
69	0x3e42a223	0.19007163
70	0x3e1e2a0f	0.15445732
71	0x3e97e1f5	0.2966458
72	0xbe9b6656	-0.30351514
73	0x3e390472	0.18068102
74	0xbbb813b1	-0.005617582
75	0x3ca42881	0.020038845
76	0x3e214c4d	0.15751763
77	0x3e7ac96e	0.24490902
78	0x3e8602f5	0.2617413
79	0x3cf47f88	0.029845968
80	0x3ea49ebf	0.32152364
81	0xbe978119	-0.2959068
82	0x3cfbbb83	0.030729061
83	0xbe329e14	-0.17443115
84	0x3e5c5a1d	0.2151875
85	0xbe1504e5	-0.14552648
86	0x3dd71633	0.10502281
87	0xbd8057e2	-0.06266762
88	0x3e9dd48a	0.30826217
89	0x3e4ff788	0.2030927
90	0xbe4f748e	-0.20259306
91	0x3eb131d3	0.34608325
92	0x3e815dd4	0.25266898
93	0x3e6b016c	0.22949761
94	0x3e880c27	0.26571772
95	0xbdcc3278	-0.09970564
96	0x3ddfda52	0.10930313
97	0x3e6a0acf	0.22855686
98	0x3e5e5b14	0.21714431
99	0x3e8eef82	0.27917105
100	0xbe9bc8d0	-0.30426645
101	0x3e885b1f	0.2663202
102	0xbe1ea3f2	-0.15492228
103	0x3e3a244f	0.18177913
104	0xbe04d77d	-0.12972827
105	0x3e21f4c0	0.15816021
106	0x3eaeb6db	0.34123883
107	0xbe80f888	-0.25189614
108	0x3ea15c91	0.31515935
109	0x3e97684e	0.29571766
110	0x3d62f9ea	0.055414118
111	0xbad27b59	-0.0016058489
112	0x3e83517e	0.2564811
113	0xbd68b3a9	-0.056811962
114	0x3e281d74	0.16417485
115	0x3e661068	0.22467196
116	0xbd738f01	-0.05946255
117	0x3e96b240	0.2943287
118	0xbd30a53d	-0.043126334
119	0xbc94ad4c	-0.01814904
120	0x3e847249	0.25868443
121	0xbe340cfc	-0.17583078
122	0x3e944e48	0.28965974
123	0xbe8cebf0	-0.27523756
124	0x3dfa865f	0.122326605
125	0x3de39aad	0.111134864
126	0xbd8b4ed5	-0.068021454
127	0x3e2e751b	0.1703686
128	0xbe86f4d8	-0.26358676
129	0x3d4e6ee7	0.050398733
130	0xbe8f10a3	-0.2794238
131	0xbeaf0f43	-0.3419133
132	0xbe93892d	-0.28815594
133	0xbdb82812	-0.08992018
134	0xbea1942c	-0.3155836
135	0xbe5ea32a	-0.2174193
136	0xbe98fe54	-0.29881537
137	0xbc729d70	-0.014808044
138	0xbe4681f5	-0.19385512
139	0x3e33c5f1	0.17555977
140	0xbe1e5636	-0.15462574
141	0x3d4eb4c9	0.05046538
142	0xbe548dfb	-0.20757286
143	0x3ea2190c	0.31659734
144	0x390c2e53	0.00013368698
145	0x3e0a414e	0.13501474
146	0xbe76237b	-0.24036972
147	0x3c861044	0.016365178
148	0xbe09863a	-0.1343011
149	0x3e0f60ca	0.14001766
150	0xbe3c2de0	-0.18376875
151	0x3dd76472	0.10517205
152	0x3e7769a1	0.24161388
153	0x3e9757b9	0.29559115
154	0xbe881f48	-0.26586366
155	0x3db3d291	0.08780397
156	0x3e77bc25	0.24192865
157	0x3e699937	0.22812353
158	0xbe3ab49a	-0.18232957
159	0x3de0d015	0.109771885
160	0xbd4e6ab6	-0.050394736
161	0x3d9b6aef	0.07588755
162	0xbe27a16e	-0.16370174
163	0x3dd5d107	0.104402594
164	0xbe0eed58	-0.13957727
165	0xbe79bb99	-0.24387969
166	0xbec282e8	-0.379905
167	0x3e332356	0.17493948
168	0xbe8c48a2	-0.27399164
169	0x3e4a7647	0.19771682
170	0xbdb00b0d	-0.08595858
171	0x3e73bf36	0.2380341
172	0x3e114330	0.14185786
173	0xbe8a44cf	-0.27005622
174	0xbeaafffc	-0.33398426
175	0x3ea83329	0.32851532
176	0x3e696f6e	0.22796413
177	0xbeab0708	-0.33403802
178	0xbe825108	-0.25452447
179	0x3e71baab	0.23606364
180	0xbdcbed00	-0.099573135
181	0x3dc3fe2e	0.09569965
182	0x3ea77f52	0.32714325
183	0xbd54be4a	-0.051939286
184	0x3d8c9fb3	0.06866398
185	0x3e9f4467	0.31106874
186	0xbe6aa32b	-0.22913806
187	0x3cd586ff	0.026065348
188	0xbea3fa58	-0.32026935
189	0xbe9e55e4	-0.30924904
190	0xbd94e16f	-0.072695605
191	0xbe1e979e	-0.15487525
192	0xbcf969be	-0.03044593
193	0x3e80b253	0.2513605
194	0x3c35ca0e	0.011095537
195	0xbe311450	-0.17292905
196	0xbe2b22a7	-0.16712438
197	0xbea63070	-0.3245883
198	0xbd5a31e4	-0.053270236
199	0x3cd39f03	0.025832659
200	0xbe5d4ed9	-0.21612109
201	0xbe802e89	-0.25035504
202	0x3d44cf7d	0.04804944
203	0x3d2f8745	0.042853612
204	0xbe9ab9fa	-0.30220014
205	0x3e8b5b33	0.27218017
206	0xbe1f4a76	-0.15555748
207	0xbd77b8ca	-0.060478963
208	0xbe1aba31	-0.15110089
209	0x3e3d0cd0	0.18461919
210	0xbe598877	-0.21243463
211	0x3e81eb61	0.25374892
212	0x3e191c98	0.14952314
213	0x3c17df4d	0.009269548
214	0xbeb669ce	-0.35627598
215	0xbe8f50ac	-0.27991235
216	0x3eb01ab2	0.34395367
217	0x3d5363aa	0.05160872
218	0x3e7051a7	0.23468648
219	0xbea40db8	-0.32041717
220	0x3de0b21e	0.10971473
221	0xbd2b802d	-0.041870285
222	0x3e222bf3	0.15837078
223	0x3d923469	0.07138903
224	0x3e27ee16	0.16399416
225	0x3e6ae35e	0.22938296
226	0xbe8f2cfe	-0.27964014
227	0x3e877755	0.2645823
228	0xbc028153	-0.007965404
229	0xbd12381b	-0.035698038
230	0xbe956ee1	-0.29186156
231	0xbe9b6ee0	-0.30358028
232	0xbdc8f4f4	-0.09812346
233	0x3eb06785	0.3445398
234	0xbe1ec513	-0.15504865
235	0x3e696a4b	0.22794454
236	0x3da768ce	0.08174287
237	0xbe3908f2	-0.18069819
238	0x3ea7b12b	0.32752356
239	0x3dff289a	0.12458916
240	0xbea54a87	-0.32283422
241	0xbe8ba8b7	-0.27277157
242	0x3e633f0f	0.22192024
243	0xbe7e60d8	-0.2484163
244	0xbe70072d	-0.23440237
245	0x3c6804cd	0.014161301
246	0xbe8c2763	-0.273738
247	0x3ea731aa	0.32655078
248	0x3e64ac5a	0.22331372
249	0x3e388522	0.18019536
250	0xbea40892	-0.3203779
251	0x3e60ab7f	0.2194042
252	0xbe6884e0	-0.22706938
253	0xbd8b7bf4	-0.068107516
254	0xbdaaec45	-0.08345846
255	0xbeb21791	-0.34783605
