results/priority-sort/priority-sort-task-1-batch-1000.model (torch_old, 876115 bytes, 49 tensors)

ntm.read0_bias f4 [1, 20]
00000000: d3d4 0b3c 2633 0a3c 0d66 07bc 898c 3e39
00000010: 1812 993b 836f 183c dd0b 193b bdf5 353c
00000020: 4dc3 c83b 41e3 3abc 7e4e a9ba f7b1 efba
00000030: 87a4 d5bc f7f7 3f3b 98dc 8b3c eb0f 77bc
00000040: 2d3b 1abc 44c2 453b e9ba 213c dc91 b03a
0.008534628 0.008435046 -0.008264077 0.00018172165 0.0046713464 0.00930393 0.0023353018 0.011105952
0.0061267973 -0.011406721 -0.0012917069 -0.0018287291 -0.02607943 0.0029292086 0.01707296 -0.015079479
-0.009413523 0.0030175606 0.009871223 0.0013471204

ntm.read1_bias f4 [1, 20]
00000000: 267f f33b 1622 21bb eb81 c93b 0605 d13b
00000010: 0769 5e3b 5980 a83b af91 49bb cb9c f5ba
00000020: 341a d5ba 100a a6ba 382b 9c3c dd00 363c
00000030: ccc1 94bb 4a2c 23bc fee3 2039 97bd dbbb
00000040: d487 113b e478 0e3c b770 1bbc ea51 78bb
0.0074309288 -0.0024586967 0.0061495206 0.0063787727 0.0033937113 0.0051422534 -0.0030757 -0.0018738745
-0.001625842 -0.0012667794 0.019063577 0.011108604 -0.004539704 -0.00995929 0.00015343723 -0.0067059505
0.0022206204 0.008695815 -0.0094873225 -0.0037890621

ntm.read2_bias f4 [1, 20]
00000000: 5ded 093c fb63 b1bc 3497 d63c b3e7 72bc
00000010: 8336 e93b 8ae3 683b b0e4 b03b 873d 343b
00000020: 1497 25bc 5b63 23bc 203e 243c ff13 88ba
00000030: 9203 64bb 583d 7b3b 6a02 dcba ab40 673b
00000040: 5561 853c 463c 81bc edb1 953c 13a6 32bc
0.008418408 -0.02165412 0.026195146 -0.014825749 0.007117094 0.0035536014 0.0053983554 0.0027502493
-0.010106821 -0.009972419 0.010024577 -0.0010381936 -0.0034792167 0.0038336124 -0.0016785387 0.0035286348
0.016281763 -0.01577581 0.018273318 -0.010903853

ntm.read3_bias f4 [1, 20]
00000000: e8fc 10bc 3ebf 0a3b a079 22bc e88e 9d3b
00000010: db03 d439 a6a9 643b ed59 b93c d3a3 4ebc
00000020: 4b5c d13a 9a11 0cba a5f1 3c3c 1565 d33b
00000030: 70e9 57ba f97e 823b 8e46 c23b 6160 06bc
00000040: 9582 6bbc 40a2 40bb 908b 13bc 1948 903c
-0.00884936 0.0021171118 -0.009916693 0.0048082955 0.00040438664 0.0034891157 0.022625888 -0.012612301
0.001597294 -0.0005343199 0.011532222 0.006451259 -0.0008236384 0.0039824215 0.005928821 -0.008201689
-0.014374395 -0.0029393584 -0.009005442 0.017612504

ntm.read4_bias f4 [1, 20]
00000000: b459 a93a ed3d 923c 466d eeba 1b01 f33b
00000010: 00a8 81bb 10fe 10bc e612 d2bb 501c 073c
00000020: f64c 1dbb 304d 083c 7e27 33bc 7455 70bc
00000030: 4b8f 44bc d85d 1dbc 57d2 c9b9 bdf3 d83a
00000040: 4a8c b83b 434f 13bb b7f8 8abc b6f7 293c
0.001292041 0.017851794 -0.0018190525 0.0074159033 -0.0039567947 -0.008849636 -0.0064109443 0.008246496
-0.002400217 0.008319184 -0.010934709 -0.014668811 -0.011997054 -0.009604894 -0.00038494423 0.0016552132
0.005631958 -0.0022477664 -0.0169643 0.010374

ntm.controller.lstm_h_bias f4 [2, 1, 100]
00000000: 836c 7f3d 9a31 62bd 5916 84bc ce26 dbbd
00000010: 019f e5bc c257 f53b 1a0d 06bd 90ed bbbb
00000020: 7d0c 0e3d 8134 65bc 543c e73c f12f 48bc
00000030: d7b8 78bb 6fc4 083b cad0 7abd 0864 f83b
00000040: d2bf 67bd 898f eabb f56a 8d3d be6b 3f3d
00000050: d113 90bd 320d 2c3c bc27 b33c 6911 13bd
00000060: 1eee bdbd c7e7 213d 52c2 08bd 753d 09bd
00000070: 70e9 5fbc 7a78 e6bc 799b 74bd 8cee 3ebd
00000080: 3860 1c3b 9411 6fbd 0add a4bd 7c95 12bd
00000090: eef9 06bd 530e df3a 1ecf 7a3d 681c 0c3c
000000a0: 9263 223d 4547 ffbc 3f98 61bd e455 703d
000000b0: cdd5 36bd 9868 8cbc 8aa3 b3bc 54d7 803d
000000c0: 36dc 573d 26e9 27bb 795d d1bb 01b4 8d3d
000000d0: 021d 483d 5fd1 d13d 0284 4abb 638d db3c
000000e0: e181 af3c a1d4 6dbd 75f4 2e3c fdf0 da3d
000000f0: 2076 813d 23aa 9dbc 49bc 193d acbf 493c
00000100: 17cc b93d 8fd7 1abd a8e1 b6bc bf18 1ebd
00000110: 0739 4dbd e252 41bd ac5b 5dbd 14c7 bebd
00000120: 4cad b13b 35c6 b83c cf9c 163d 5a02 47bd
00000130: c6f1 a5bb 5db6 afbd d706 f5bc 7e61 ca3c
00000140: a0a2 943d a843 3cbc 838f 9abd 1256 10bd
00000150: 1a58 e4bb 6c2e 0abd 2827 63bd 0df7 96bd
00000160: ad10 c9ba 599c 983d 7715 50bb f011 3ebb
00000170: 30bc 233d 731e 21bc 3f5a 9b3d 6928 7fbd
00000180: 7938 973d 7f6c ac3d 146a d9bc 5a3b 73bc
00000190: f86b bd3d bffd 083c 582d 8c3d d2a0 91bb
000001a0: 6659 79bd 1367 473c 4cae 82bc 5a21 5fbd
000001b0: 9ddc 353d 1d87 42bd 7d0c 813d 7fe9 3dbd
000001c0: 9bd2 e73c fa3b 9b3d 17ce dbbc f514 afbd
000001d0: 2513 7b3d 68aa 8f3c 8f51 4c3b 53ce c73c
000001e0: bc82 50bb 31b8 703d ed67 adbb 16d0 433d
000001f0: 2683 8a3c 3d9c ef3b b9e4 cb3c a286 7b3d
00000200: 02f6 d63c 0d43 b53d 1cb3 5dbd 9921 a3bc
00000210: 4420 b63c 28c2 63bc 3707 d23d 25f8 c9bb
00000220: 7adc ec3c 89d7 773d 7754 ce3d a43e 28bd
00000230: 1180 863d 47e9 9dbc b9c5 58bd ca4c 583c
00000240: 5a81 bc38 18b2 35bc 5283 a23c 81a9 70bd
00000250: 285e e93c 5aad 13bc da54 14bd 7eb4 c53c
00000260: 3853 8b3d 1e96 dd3c 2eb8 66bd 13ca 43bd
00000270: 5db1 02be edf0 d8bc f7ff c7bb 1de2 d2bd
00000280: c249 273d 2784 5c3d 65dc ab3c 0e2e 313d
00000290: b0fc 03bc f742 82bd 72a2 2e3d f609 bfbd
000002a0: f1c6 84bd 142b 833c 5176 5b3c 2a64 bf3d
000002b0: 7213 07bd ad53 d7bc e66f 293d c203 bdbd
000002c0: 38f3 ffbc c567 853d 7f13 493c cb66 48bd
000002d0: f96d 03bd 285a 51bd 7788 5d3c 2ffe 15bd
000002e0: 9824 0f3d 36da dcbd 1f41 573c abcb 463c
000002f0: 2ba6 82bd 1086 7dbd edb5 fbbc 6a15 a5bc
00000300: 8350 903c adda c63d 55d9 2d3d fe24 c7bd
00000310: 8510 da3c d2be f73b f8c6 f53d 2694 233c
0.062359344 -0.055223085 -0.016123937 -0.10700761 -0.02802992 0.007487268 -0.03272734 -0.0057351068
0.03467988 -0.013989569 0.028227009 -0.012218461 -0.003795197 0.0020869037 -0.061234273 0.007580284
-0.05657942 -0.007158224 0.06905166 0.04673361 -0.0703503 0.010501193 0.021869533 -0.035905275
-0.09273933 0.03952768 -0.033388443 -0.033505876 -0.013666496 -0.02813362 -0.059718583 -0.046614215
0.0023861062 -0.058366373 -0.08049972 -0.03578709 -0.032953195 0.0017017819 0.06123268 0.008551694
0.03964574 -0.031161914 -0.055076834 0.05867566 -0.04463749 -0.017139718 -0.021928567 0.062910706
0.052700244 -0.0025621145 -0.0063893166 0.06919099 0.04885579 0.102450125 -0.0030901437 0.026800817
0.021424236 -0.058064107 0.0106784 0.10690496 0.06321359 -0.019246167 0.03753308 0.012313765
0.0907213 -0.03780323 -0.022324398 -0.03859782 -0.050103214 -0.047198184 -0.054042503 -0.09315315
0.00542227 0.02255545 0.036770638 -0.048586227 -0.005064222 -0.08579705 -0.029910488 0.024704691
0.07257581 -0.01149074 -0.07546904 -0.035238333 -0.0069685103 -0.033735678 -0.055457264 -0.0737134
-0.0015340053 0.07451696 -0.0031751075 -0.002900239 0.03997439 -0.00983392 0.075855725 -0.062294398
0.07383818 0.084191315 -0.02653984 -0.0148456935 0.09249109 0.008361279 0.06844586 -0.00444422
-0.060876273 0.012170571 -0.015952252 -0.054475166 0.044399846 -0.047492135 0.0630121 -0.046365257
0.028298667 0.07579799 -0.02683167 -0.08548919 0.061297555 0.01753731 0.0031176542 0.024390375
-0.0031816205 0.05876941 -0.00529193 0.047805868 0.01690824 0.007312326 0.024889337 0.061407693
0.026240353 0.088506795 -0.05412589 -0.019913482 0.022232182 -0.013901271 0.10255282 -0.0061636143
0.028913725 0.060508285 0.10074704 -0.041075364 0.065673955 -0.019276274 -0.052922938 0.013201902
8.988632e-05 -0.011089824 0.019838009 -0.0587554 0.02848728 -0.009013498 -0.036213733 0.024133917
0.06802982 0.02704912 -0.05632799 -0.047800135 -0.12762971 -0.02648207 -0.0061035114 -0.10297034
0.040841825 0.053836968 0.020979116 0.04325681 -0.008055851 -0.06360429 0.04263539 -0.09328072
-0.064832576 0.016011752 0.013394908 0.09345277 -0.03297753 -0.026285017 0.04136648 -0.09229232
-0.031243905 0.06513933 0.012272715 -0.048926156 -0.0320873 -0.05111137 0.013521305 -0.03661936
0.034947008 -0.10783808 0.013138085 0.012133519 -0.0637935 -0.06189543 -0.030726397 -0.020151813
0.017616516 0.09709678 0.042443592 -0.097238526 0.026619205 0.0075605894 0.12000841 0.009984052

ntm.controller.lstm_c_bias f4 [2, 1, 100]
00000000: c5b4 863d fbc7 f63b 78f7 12bd 8b25 403d
00000010: 8c4b d73c a54d 7cbd ba39 b9bd a8fa 673d
00000020: cc29 28bd 1ff5 773b 3052 9a3d af8b aabc
00000030: f8e7 ddbc 111e d0bc 5707 9b3d 88a8 c1bc
00000040: a7c1 263c 3185 84bd bd3b da3b b3d5 67bd
00000050: ac98 c8bc 48eb 11bd cb52 32bc d0bb 4bbb
00000060: 4e3f 1dbd 481f 7e3d 6123 403d d6c1 c33b
00000070: d393 6dbd 7205 f93c 9b9a cebd 2e11 37bd
00000080: 8694 83bc bb2f d1bd 881b 18bd d7fa 75bd
00000090: 2731 71bd 4010 afbd 0a26 28bd 0a2b 8cbd
000000a0: 946c bc3c 57e2 b43c 6fe7 78bd ec63 aa3c
000000b0: 98fb 7a3d 8061 753b 4e3c 6bbc fd6a cdb9
000000c0: 93b7 41bc 0e50 aebc db48 b3bb 7fb4 d7bb
000000d0: f88e d9bc 2e64 453d 77ea 063d ce6f 09bd
000000e0: 206d 7d3c 2406 b13c 116f 6c3c 7d66 f73c
000000f0: 664f 923d d34d a0bc 4b1a 3abc cf1d e1bc
00000100: 1f22 c9bc cd76 1fbc 18ef 8fbd 13c2 573d
00000110: 381d 98bd 2c5e 8d3c 1f11 633d 69b7 eabd
00000120: 298f 57bd f49f 1d3d e15a 47bb 598f 06bd
00000130: 45f4 19bc d39d b4bd 5a00 86bd 7d35 d4bd
00000140: 3405 d2bc 846f 28bd b24d 3e3c 8a96 a9bc
00000150: 4c4e 973d 0ef8 083c e1ee d9bc 7d05 903d
00000160: 0277 48bd 6219 bc3c a28b 5a3c 53c3 3e3c
00000170: f29f df3c 32fa 65bc 8113 76bd 5a57 05bc
00000180: 0d04 163d 743d c43b 0c1c 403d c534 85bd
00000190: c68f a53b 859d 103d d035 aebc af78 cabd
000001a0: dd90 9bbd e55d 8fbd 727a dfbb 4d4a 0cbc
000001b0: 2632 103d 5900 3c3d 979c 2ebd fe53 49bd
000001c0: 37cc 47bc 7799 63bc 60a3 873c c087 333d
000001d0: 8983 963d 3875 a03d 98b0 283c 442b 4538
000001e0: 67ed bd3c 9e12 35bb c091 fdbc db78 fb3c
000001f0: 5401 fcbd ceef c73c 70db 8a3d b2b5 be3d
00000200: d174 e83c 2eb5 0bbd a823 c1bb 1037 babc
00000210: 87d8 d53a 490e 4c3d 55e2 363d 1241 b5bd
00000220: c32f 923d 6ffe 7b3d 4dbc 903c e92b aa3c
00000230: 409d 49bc 240a 823d f405 94bd 5c0b 78bd
00000240: d09f 213c 5195 d4bd f59c f23c 3d7c debc
00000250: 7040 963d 6ff6 f73d 7afb c4bd f332 2abd
00000260: e0f1 92bb 0bc0 f0bc daa4 9ebc 91b6 dfbc
00000270: 3e51 31bd 66ba eb3d baa3 c83c 4733 073d
00000280: ae68 513d 42ec 5cbc 5a2a 94bd 6487 4dbc
00000290: fef9 f8bc 87dc 133d ff06 c23c 424e 19bc
000002a0: b2f3 8e3a ff22 373d 5f30 983c f2c7 bf3b
000002b0: 64e4 3fbd 571b 0bbc fbae b03c 06f5 e83d
000002c0: 49d7 efbc 7ee6 b5bc 55fd b0bb d236 c2ba
000002d0: 16d4 b23d a14c 10bd ea7e 4c3d fda5 37bd
000002e0: 41a2 4cbd 78e6 4cbd 5f94 153c e4ea d4bd
000002f0: 9859 863d 7be4 603d bced 103d 53a9 af3d
00000300: c9f3 33bd a5b9 963b e1aa fb3d 114a 05bd
00000310: d009 b8bc 98cc e83c 833c 413c d39c f73c
0.06577448 0.0075311637 -0.035880536 0.046910804 0.02628114 -0.061597485 -0.090442136 0.05663553
-0.041055486 0.0037835313 0.07535207 -0.02081856 -0.02708815 -0.025404962 0.07569759 -0.023639932
0.010178006 -0.06470717 0.0066599534 -0.056600284 -0.024486862 -0.035624772 -0.010883997 -0.0031087287
-0.03839045 0.06204155 0.04690874 0.005974035 -0.058002304 0.030398104 -0.100880824 -0.04469412
-0.016062032 -0.10214182 -0.03713563 -0.060053673 -0.058884766 -0.08548021 -0.041051902 -0.068441465
0.023000993 0.022080583 -0.060767587 0.0207996 0.061275095 0.0037442148 -0.0143576395 -0.0003918036
-0.011823553 -0.021278407 -0.0054713315 -0.006582796 -0.02655743 0.048191242 0.032938447 -0.03355389
0.015467912 0.021609373 0.014430777 0.030200237 0.0714405 -0.01956836 -0.011358808 -0.027480034
-0.024552403 -0.009732914 -0.070280254 0.052675318 -0.07427448 0.017256819 0.05543625 -0.11460764
-0.052626763 0.03848262 -0.0030419158 -0.03285155 -0.009396617 -0.08819165 -0.06543036 -0.103617646
-0.025637247 -0.041121975 0.011615204 -0.020701665 0.07387981 0.008359922 -0.026603164 0.07032297
-0.04894162 0.022961322 0.013338955 0.011643249 0.027297948 -0.014036702 -0.060077194 -0.008138502
0.036624957 0.005988771 0.046901748 -0.065042056 0.0050525395 0.035306472 -0.021265894 -0.098863
-0.0759599 -0.07000331 -0.0068200165 -0.008562637 0.035204075 0.04589877 -0.042629804 -0.049152367
-0.012194685 -0.013891569 0.016557395 0.043830633 0.07349307 0.07834858 0.0102960095 4.7008754e-05
0.023184491 -0.0027629505 -0.030953288 0.030697277 -0.12304941 0.02440634 0.06780136 0.093119994
0.028376015 -0.034108333 -0.005894143 -0.022731334 0.001631514 0.04981831 0.04464944 -0.08850302
0.07138016 0.061521944 0.017667914 0.020772891 -0.012305558 0.063495904 -0.07227698 -0.06055771
0.009864762 -0.10380042 0.029615859 -0.02715885 0.07336509 0.1210755 -0.09618278 -0.041552495
-0.0044844 -0.029388448 -0.019365717 -0.027308734 -0.04329037 0.11510162 0.024492133 0.033007886
0.05112522 -0.013484063 -0.072346404 -0.012544487 -0.030392643 0.036098983 0.023684977 -0.009357037
0.0010906367 0.04471111 0.018577753 0.0058526928 -0.04684867 -0.008490405 0.021567812 0.113748595
-0.02927746 -0.022204634 -0.0054012933 -0.0014817363 0.087318584 -0.03522933 0.049925722 -0.044836033
-0.049959425 -0.05002448 0.009129613 -0.10396364 0.065600574 0.054905396 0.03538297 0.08577218
-0.043933664 0.0045997673 0.12288452 -0.03254134 -0.022465616 0.02841787 0.011794212 0.030226147

ntm.controller.lstm.weight_ih_l0 f4 [400, 110]
00000000: 8298 71be 81e7 063e 7241 a73d cce3 47be
00000010: 1c02 98be f304 52be d856 f93d 481c 5f3e
00000020: c9ad 88be f410 7ebd 4074 2cbe cfd9 223d
00000030: 142d 613e 06cb 0a3e 44b8 9b3d e86d 583e
00000040: 398f a4bd 4b65 f23d 5f55 7c3e 8d1b 87be
00000050: 1f19 a53d f811 98be 7f25 043d 6a82 a9be
00000060: f0e2 1f3d 8a34 6bbe b4ff 12be 6940 a9be
00000070: 67bf 75be e612 9fbb d082 353d ea1b 8fbe
00000080: 37ca 2f3d 9d4f 4c3d 6f66 5d3e 0515 8fbd
00000090: 12d4 a3be 5c32 a83e 53c1 52be 4b26 333e
000000a0: 5625 163e 34a9 97be 8177 bf3d 4e2e 8f3d
000000b0: 7222 963e 37ed 833d b0e0 733e a7cc 493e
000000c0: a6f4 573e 18bf 54be 1143 8ebd f2f2 013e
000000d0: 33e2 a23e 68bc 27be 4d9b 9dbe 86d7 f2bd
000000e0: 5aa6 33bd 7746 00bd 250b 873e 03e8 6cbe
000000f0: 09d1 a9be 0a18 873c 4a25 ffbc d90a 24be
00000100: d8b0 5fbe 5612 aabe 970d ea3d 029a 50bd
00000110: d3db 293e a3d2 77bd dad5 78be 0b57 b33d
00000120: 159e 22bd fd20 743d 4fbc 46be 5083 9c3e
00000130: b561 133d 409c 5a3d 1bfd 3b3e 524c 703e
00000140: a97d aebe ac1d dc3d b222 fcbd 348f 17be
00000150: 781d d6bd 0aea 233e 0d23 773c c11a 38be
00000160: e4cd 81be ce4f 2bbc b012 53bc 7cf4 9f3e
00000170: fedb 5f3e 80a1 6f3d 350c 1f3e 120e 69be
00000180: f880 b0bd f48b 7b3e 07f4 b13e 5ff8 c03d
00000190: daed 9c3c 4bba 02be 1b56 2ebe 5ad7 49be
000001a0: 548f 03bd 004d 1cbe 69b6 ea3d 2794 9d3e
000001b0: 49e7 903e c267 b13d b6cf 42be 771a 35bd
000001c0: 5a17 63be 4be6 89be cb06 933e 7bf9 a33d
000001d0: f08b 743e ab7e 6d3e 7d3c 5bbe 0728 bdbd
000001e0: 4d07 5d3d 3dd4 ab3d 3c1c 1abe 12fe a3be
000001f0: 61b0 923e 2efe 453e f2b0 363e 26ec 4fbe
00000200: 992c fa3c 4f66 8bbe d041 163e c7aa 1a3e
00000210: c488 97be 588f 1e3d 4aa7 98be 245c 5c3d
00000220: f8f9 9f3e 02e3 96be 09c0 18bd c965 983e
00000230: 105b b23d b928 193e 7fdc 6dbe 5d95 a8be
00000240: e184 75be 1f26 dbbc 5eb0 5abe 46bd 9e3e
00000250: bd24 3ebe e793 a33b 8248 aebe 8022 8dbe
00000260: 2291 3e3e f44e a7be 4521 d13d 95f2 7f3e
00000270: 399d 963c 029b 6d3e 98de 25be 5903 f13d
00000280: 7ada 40be 0c13 7ebd 8db8 92bc b7f6 003e
00000290: d7a1 4b3e fca5 803d 1519 af3d 56ae 43be
000002a0: 7eb8 e4bd 32a1 3c3e a75c 91be 2e10 a83e
000002b0: 4178 913e 9a2e fe3d 4d1e 00be 1384 9bbe
000002c0: 4abf 953e 4b96 71be 7922 47be e698 f1bd
000002d0: da6c 6d3e 2191 843e 3b8c 82be 552d a6be
000002e0: b5b6 5fbc 25b1 62be 5fa8 cc3d 1b4c 9fbe
000002f0: 94c4 52bd 4437 ffbc e4d5 84be 81da ac3e
00000300: 3905 c1be 9ec2 a6be 0e31 4dbe fc89 d43d
00000310: a66d 92bd 9559 963e 44ca c7bd d1ff f53d
00000320: a6bf 09be 8787 bd3c d62e a83c bd59 f83d
00000330: 4a44 963e 686d f03d 390b b33b 028e 07be
00000340: e973 5dbe 2bd8 8d3e a407 293e e3b8 093e
00000350: 407f 32be 22bc 493e 893a 1c3d 72c0 c0bd
00000360: f4dc dbbc d977 083e 4073 3a3e 1f18 c83d
00000370: 42af 813e 5b95 00be b1b8 333e de72 a93d
00000380: 042c fc3d 9174 153e 8bcc 98bd 7e5b 15be
00000390: e1eb 57bd 1c0c a13e 6b55 853e fe8b 473e
000003a0: 6ccd 74be c488 57be 9b13 713e b590 60be
000003b0: 80ca 81be 0f44 753e c0f8 0abe 4770 083d
000003c0: 19dd e03d 562d e1bd 0a87 d63d ceac 2ebe
000003d0: 2d2b 90be ed47 17be 5bc3 3ebe bb9c 7fbd
000003e0: 4464 783d 5315 cebc ef26 a2be fedd 45bd
000003f0: 92c5 e2bd 5ef7 89be f33b 37be 14ea 5ebd
-0.23593333 0.13174249 0.081667796 -0.19520491 -0.2968911 -0.205097 0.12174767 0.21788132
-0.26695088 -0.062027887 -0.16841221 0.0397585 0.21989852 0.1355401 0.07603505 0.21135676
-0.0803513 0.11835726 0.24641941 -0.26388207 0.08061432 -0.2970121 0.03226232 -0.3310731
0.039034784 -0.22969261 -0.14355356 -0.33056954 -0.23998795 -0.004854548 0.044314206 -0.27950984
0.042917456 0.049880613 0.21621107 -0.06986431 -0.31997734 0.3285092 -0.2058156 0.17495076
0.1466268 -0.2962128 0.093489654 0.06991254 0.29323155 0.064417295 0.2381618 0.19706975
0.2108942 -0.20776021 -0.06946386 0.12690333 0.318132 -0.16380465 -0.30782548 -0.11857514
-0.043859817 -0.0313172 0.2637569 -0.2313538 -0.33167294 0.016490955 -0.03114571 -0.16019763
-0.21844804 -0.33217114 0.11428373 -0.050928123 0.16587763 -0.060503613 -0.24300328 0.087568365
-0.03970154 0.059601773 -0.19407772 0.30568933 0.035981853 0.053371668 0.18358271 0.23466614
-0.34080246 0.10747847 -0.12311305 -0.14800721 -0.104548395 0.16007248 0.01508404 -0.17978956
-0.25352395 -0.010456039 -0.012882873 0.31241214 0.21861264 0.058503628 0.15532 -0.22759274
-0.08618349 0.24565107 0.3475649 0.09422373 0.019156385 -0.12766378 -0.17025034 -0.19711056
-0.03211911 -0.15263748 0.11460573 0.30777094 0.28301457 0.08662368 -0.19024548 -0.044214692
-0.22176877 -0.26933512 0.2871612 0.08006569 0.23881507 0.23192851 -0.21409793 -0.0923615
0.05396204 0.083900906 -0.15049833 -0.32029778 0.2865019 0.19335243 0.17840937 -0.20304927
0.030538844 -0.27226493 0.14673543 0.15104209 -0.2959653 0.038710922 -0.2981513 0.05379881
0.312454 -0.29470068 -0.037292514 0.29765156 0.08708775 0.1495694 -0.23228644 -0.32926455
-0.2397647 -0.026751576 -0.21356341 0.3100378 -0.18568702 0.0049919966 -0.34039694 -0.27565384
0.18610051 -0.32677424 0.10211424 0.24994881 0.018385516 0.23203662 -0.16198194 0.11768217
-0.18833342 -0.062029883 -0.017910266 0.12594114 0.19885956 0.06281659 0.08549706 -0.19109473
-0.111680016 0.18420866 -0.28391 0.32824844 0.2841206 0.12411232 -0.12511559 -0.30374202
0.29247504 -0.23592488 -0.19446744 -0.11796741 0.23186055 0.25891975 -0.25497612 -0.3245646
-0.013654401 -0.22137888 0.09993052 -0.3111275 -0.051457003 -0.031154282 -0.25944436 0.33760455
-0.37699297 -0.32570356 -0.20038244 0.10377881 -0.0714982 0.2936522 -0.09755376 0.12011684
-0.13452014 0.023135914 0.020530146 0.12126491 0.29348975 0.117396176 0.0054639843 -0.13237765
-0.21626247 0.27703986 0.16506821 0.13449435 -0.17431355 0.19700673 0.03814176 -0.09411706
-0.026838757 0.13326968 0.18208027 0.09770226 0.25329024 -0.12556975 0.17550923 0.08273862
0.12313083 0.14595248 -0.074608885 -0.14585683 -0.052715186 0.3145455 0.2604173 0.19486997
-0.23906487 -0.21048266 0.23542635 -0.21930201 -0.25349808 0.23951744 -0.13571453 0.0333102
0.10979671 -0.10994975 0.104749754 -0.17058107 -0.2815794 -0.14773531 -0.1862921 -0.06240533
0.060642496 -0.025156653 -0.3167033 -0.04830741 -0.1107284 -0.2694654 -0.17893963 -0.054422453

ntm.controller.lstm.weight_hh_l0 f4 [400, 100]
00000000: c1cc 8fbe b9e6 04bb ad21 61be 82f7 753e
00000010: a7a6 6f3e 3e8b 4a3e dd85 8ebe d731 a1bd
00000020: f0e4 38be 8e07 853e 83eb 78be 660a 0dbe
00000030: fa36 463e dee4 4fbe 7cd0 733e 1ded 61bc
00000040: 1631 7dbd 9208 fdbd c19d 90be 9eb1 2fbe
00000050: b482 00be 4f9c 38be f55f 75be 1888 c6bc
00000060: 3ecc a63e c0ff 3f3d fa2d 6d3e 73f8 ca3a
00000070: 378d a03e d239 8dbd 311f 53bd d350 793e
00000080: 56d9 403d f511 f2bd 2e73 c53d dae4 353e
00000090: 9e93 fa3d e268 9fbe 97cc 683e 1641 9dbe
000000a0: 4203 ab3e fb6d 253e 355c 64be 897e ae3e
000000b0: 9fe0 4d3d bed6 9d3e 5a14 abbe e64a 90be
000000c0: fd48 c43d 2293 8d3e 44be 113e 15ce 293e
000000d0: 1859 383d 1ebe fb3c bc51 3fbe 821c 1fbe
000000e0: 04ed aa3d f21e b5bd d518 d9bd 0763 513e
000000f0: 8397 47bd f158 0dbe 9936 60be 44e8 b73e
00000100: a4e8 3a3e 0cb5 2dbe 58ee 3ebe 9533 cf3d
00000110: ec50 813e 7c93 aabe 4cdb 833c ba4a 053c
00000120: 6845 7f3e 8816 14be 03d8 593e 2c76 163c
00000130: 22a9 7d3d d38d a23e adb5 81be bc67 533e
00000140: 7e5c d5bd c274 a3be 208a 983e d154 733e
00000150: 53c3 8e3e ea69 89be c1f3 a4be 3edc 9ebd
00000160: a579 ba3c 9864 febd d630 2a3e 52a6 523e
00000170: c40a aabe e50e 0a3e 222d f93d adbc e73c
00000180: 413d d53c 43f3 0c3e bc91 d23d eb81 97be
00000190: ae54 ae3e a202 f2bd d0c3 29be 28b8 e7bd
000001a0: 4083 2ebe 56f6 513e 0072 efbd b26b d2bc
000001b0: 8a90 0b3e fc97 27be ad0d 1b3e 6266 283e
000001c0: a8ce 90be 6439 153e 3acd 60be ed43 303e
000001d0: 2f0a 4abe b0d7 43be 8877 04be bbc5 a1be
000001e0: cb45 583c 70b8 16be cfc8 1d3d 8ec9 4b3c
000001f0: ce9a 4f3e d4a4 92be 4458 a1be 0781 3ebe
00000200: f50b b3bd 5244 4b3e 6f22 a63e 2e7c 3e3e
00000210: 4dad b43e b470 b6be e11c 903e df04 5e3e
00000220: 65ed 70bd 069c f1bc db63 90be 9611 3bbd
00000230: 9e70 1f3e a51f 78be c1d2 a23e 0497 613e
00000240: 90b1 0ebe fdfa 2f3d 5cc4 2fbd 7145 c3bd
00000250: e476 09ba b4de 44be f13e f83d 8e4c d7bb
00000260: 6314 463e f831 233d 4d95 37be 828c a5be
00000270: 9eef 753e 74cc f33d 3eed 38be 5a3c 223e
00000280: ac82 623e 8cd3 163d 862d 67be a9a3 2dbe
00000290: 5469 8e3e e959 6a3e 38b9 52be adeb 1c3c
000002a0: 9324 b63e fde0 32be 72ed 7fbe 22e7 543e
000002b0: ec99 e8bd 117c 33be b354 a0be 672f 8cbe
000002c0: f993 783d b279 4f3e f70d a93d 99a1 7dbd
000002d0: b8aa 16bd 9d0f 8b3e 34c8 cc3d ace5 6b3e
000002e0: 7704 9a3d bac4 9e3e 49d7 3abc 5af7 34be
000002f0: 0b3b ae3d 5470 803e bf3c a0bd 5a80 ab3e
00000300: 0886 8c3c c81c c83d c54b 013e 84be 613e
00000310: 818c 1abc f06b b73e bf06 583e f707 a13e
00000320: 43b3 edbd b09a 95bd db7b 8c3e afc6 8ebe
00000330: 5ec7 e13d dda2 9fbd e469 333e e548 643e
00000340: 9ced ab3d f07e 1d3e e8ca 733d 7c10 4cbe
00000350: 05aa 43be 6b30 46be 5748 12be 6fcd 993e
00000360: 5ffb ef3d 25f4 963e 64d7 a43e e75b 8abe
00000370: d037 4cbe c613 af3e 8da9 31be 243f a1be
00000380: d8ac 9bbe 5287 95be 1579 563e 1959 50be
00000390: 13a2 8a3e 4a60 c53c 08fa a7be 3dcb 84be
000003a0: 887f 523e 45e2 04be 3b29 1ebd 29ba 64be
000003b0: 9161 3cbe 3f32 aa3e 0c42 8b3e 4d91 9e3e
000003c0: 3a8e 293e f667 163e 75a1 743d bf1e 3d3d
000003d0: b08f 13be 8e2b 7f3e 755a 9f3e 84c3 133d
000003e0: 593f 233e 6ef9 72be 81b0 85bd 09ee f5bd
000003f0: e01f 4bbe 3710 553e 5d30 c9bd f4d0 713d
-0.28085902 -0.0020279123 -0.21985503 0.24020198 0.23403417 0.19779679 -0.27836505 -0.07870834
-0.18056083 0.25982326 -0.2430859 -0.13773498 0.1935691 -0.2030215 0.23809999 -0.013789442
-0.06181439 -0.1235515 -0.28245357 -0.171576 -0.1254986 -0.18028377 -0.23962386 -0.024234816
0.325777 0.04687476 0.2316207 0.0015485421 0.31357738 -0.06895794 -0.05154342 0.24347238
0.047082268 -0.11819831 0.096411094 0.17763081 0.12235187 -0.31134707 0.22734295 -0.3071372
0.33400923 0.16155235 -0.22300799 0.34080914 0.050263043 0.30827898 -0.33413965 -0.28182143
0.09584234 0.27651316 0.14232737 0.1658252 0.04500684 0.030730303 -0.18683523 -0.15538219
0.083459884 -0.08843793 -0.106004395 0.20447932 -0.048728477 -0.1380346 -0.21895827 0.35919392
0.18252808 -0.16963595 -0.18645608 0.1011726 0.2525705 -0.33315647 0.01609578 0.008135492
0.2492882 -0.1446172 0.21273808 0.009183448 0.061928876 0.31748828 -0.2533392 0.2064504
-0.10418032 -0.31925017 0.2979288 0.23762824 0.27883396 -0.2683862 -0.3221722 -0.077568516
0.022763083 -0.124215305 0.16620192 0.20571259 -0.3321134 0.13482244 0.121668115 0.02828821
0.026030185 0.13764672 0.10281703 -0.29591307 0.3404898 -0.118169084 -0.16578603 -0.11314422
-0.17042255 0.20504126 -0.11691666 -0.025686119 0.13629356 -0.16366571 0.15141936 0.16445306
-0.28282666 0.14572674 -0.21953288 0.17213412 -0.19730447 -0.19125247 -0.12936223 -0.3159617
0.013200234 -0.14718795 0.038521584 0.012438191 0.20273897 -0.2864138 -0.31512654 -0.18603908
-0.08742515 0.19850281 0.32448146 0.18602058 0.35288468 -0.3563286 0.28147033 0.21681546
-0.058820147 -0.029493343 -0.28201184 -0.045671068 0.15570304 -0.24230821 0.31801417 0.22030264
-0.13934922 0.04296397 -0.042911872 -0.09534729 -0.00052438513 -0.1922558 0.1212138 -0.0065704053
0.19343714 0.039842576 -0.17928047 -0.3233376 0.24017188 0.11904231 -0.1805925 0.15843335
0.2212016 0.03682284 -0.2257596 -0.16956963 0.27814734 0.2288586 -0.20578468 0.009577674
0.3557478 -0.17468639 -0.24992922 0.20791295 -0.11357483 -0.17527796 -0.3131462 -0.27379915
0.060687993 0.20261267 0.08254617 -0.06192169 -0.036783904 0.2716035 0.09999123 0.23036832
0.07520383 0.31009465 -0.011403867 -0.17672482 0.08507355 0.250857 -0.078240864 0.33496362
0.017153755 0.097711146 0.1262656 0.22045332 -0.009432913 0.35824537 0.21096323 0.3145139
-0.11606457 -0.07304895 0.27438244 -0.2788596 0.110243544 -0.077947356 0.17520863 0.22293432
0.0839493 0.15380454 0.05951968 -0.19928163 -0.19107826 -0.19354407 -0.14285408 0.30039546
0.11717867 0.29483142 0.3219558 -0.2702324 -0.19943166 0.34194773 -0.17349835 -0.31493485
-0.30405307 -0.29204804 0.20944627 -0.20346488 0.27076778 0.024093766 -0.32807946 -0.25936309
0.20556462 -0.1297694 -0.03861354 -0.2233664 -0.18396594 0.3324146 0.27198827 0.3097023
0.16558161 0.14688095 0.05972429 0.0461719 -0.14410281 0.24918959 0.311237 0.03607513
0.15942134 -0.23727962 -0.06527806 -0.12008292 -0.19836378 0.20806967 -0.09823678 0.059037164

ntm.controller.lstm.bias_ih_l0 f4 [400]
00000000: f6be 653c 098c aa3c a744 f13b 0a08 d7bb
00000010: a38b cebb d152 543a 3090 703b 4b88 cb3b
00000020: 2fcf 9dba dd14 edba e6a0 933a 1645 d3b9
00000030: 041f 0cbc 6a21 f63b 892d 993b 669f bc39
00000040: 7134 5e3c 44fa c3bb a3ad 1ebc 1c11 d3bc
00000050: 77a5 97bb 2683 01bc c82e 81bb 3b3a 623b
00000060: 30f3 ff3b 5b3e a7bb 43c2 803c a676 cc3b
00000070: cbf0 3d3c f73e 0e3c 7522 953c 744e cdbb
00000080: 7e3d 943b 4bb4 7a3c 2168 12ba 7ee1 bdbb
00000090: cdca 95bb a868 d33a e359 86bc 8f2a 85bb
000000a0: 2173 3f3c a869 5abb fcb2 2fbc 5ebd 8d3b
000000b0: 35d6 993c c996 3739 6329 313a 8e56 2d3c
000000c0: 45e1 813a 2cc9 db3b 98b7 e8ba d7cc 2d36
000000d0: 0d3f 213b 493c bbbb 7867 1f3b b68d bdbb
000000e0: e3be 1d3c f47c 05ba 5bff 92bc b780 303c
000000f0: 95cb dcbb f759 733c ca01 2e3c bdaf fcba
00000100: ad79 a23a f9cf a33c ce7b 3a3b 2cbc 6b3c
00000110: ef9b 6dbb ceed 21bc 2596 acbc 09ff 34bb
00000120: ba51 0fbc 3992 8aba 3b99 d73a 5cfa e0bb
00000130: 9062 5abc 0d8c 0cbc cce0 1bbc 5491 58b9
00000140: 9658 aabb d20a 02bc ba04 8dbc 3804 deba
00000150: 7644 463c 5642 c6bb 8d21 263c afad 853c
00000160: f53b f63b 674b 7b3c c56a 673c 8a2f e4bb
00000170: 3794 863b 6470 533b 0844 9fbc 1b3d 3938
00000180: 6764 3e3c 2645 9abb f9b8 0cbb 694a 9b3c
00000190: 2af6 5c3c ea4d 9d3c 4a3f 383c d059 22bc
000001a0: 5031 9fbb bd3e 0e3c e270 293b af66 89bb
000001b0: 0674 153c 1f7d 97b9 d3d8 c13b 0d16 8bbb
000001c0: 9757 acbb d488 283c 85df fb3a efd7 03bb
000001d0: 7b2a 653c c4b7 f1bb f6da edbb d7af d7bc
000001e0: 696a 04bc 716e 7abb af35 033c 53bb debb
000001f0: 84c2 6c3b 32a0 85bb 00b4 773c f2c6 0f3c
00000200: 3afc 103c f3f4 a13b 9d1c 233c cd61 18bc
00000210: a270 ea3a 8546 8c3c 924b 8bba 7707 163b
00000220: b2eb 25bc 1faf aeb9 f9ef 53bc b80a edbb
00000230: fbcc 243c 2d99 97bb f131 13bc 12b4 413b
00000240: 258a 873c 00e5 d33a e3ce d83a 8a49 453c
00000250: 87c2 c3ba e126 f63b 3ec0 8e3a d203 ee3a
00000260: b532 263c ee8c 29bb 5049 923b 3b46 4fbc
00000270: f6bb 033c e6a0 1bbb 39cd 87bc 57fa 2d3c
00000280: 1420 dfbb f172 693c b7d7 1c3c e2d6 43ba
00000290: 5dec 4a3b 4550 823c a6fd 45ba 476f a33c
000002a0: 19d6 8a3a bac3 1bbc 9fbd 97bc 0956 49bb
000002b0: 6950 47bc bf55 683b ef2f 5b3b 0636 e2bb
000002c0: 9b1a 3cbc 6472 debb ed94 2fbc 9ab4 88bb
000002d0: a100 2bbb b9ea 82bc f19e 9fbc b476 833b
000002e0: 9fe7 7c3c 1923 fabb 6080 d43b a5c1 a23c
000002f0: a982 2d3c 6238 3f3c 4e35 443c f436 50bc
00000300: 1534 a9bb 2187 843a 9488 6dbc 9882 183a
00000310: 127c 8b3c 6735 d2ba 4e87 64ba c404 883c
00000320: 66cb 373c d221 e0bb 1a80 86ba 7149 94b7
00000330: 7c50 49bc 5410 80bb 47a6 f43b bb2a e33b
00000340: 89f6 82bb 117e 06bc cd2e 12bc 5393 303c
00000350: 37ef a03b 32d4 51bc 6c67 b8ba 1c57 8fbb
00000360: 914d aabc 4c24 f33b 47f3 353b b274 20bc
00000370: 0024 943b ad68 22bc 3946 123c 1601 493a
00000380: 186d 233a 10ba da3b 1378 5a3c 963d 103c
00000390: 2952 b0bc d3e0 97bc fc7e cdba 1a83 3cbb
000003a0: bb1a 90bc 447d 59bc 8280 2a3c 1cf1 16bc
000003b0: 7621 49bb 052c 953b 373f 53bb a598 d4ba
000003c0: 3b0c 8dbb dea8 c23b d5f5 4a3b 2c6a 08bc
000003d0: 2d69 593c aeb4 563b 71fa d43b 7ea4 6fbc
000003e0: dd40 843c 4b11 bebb 3956 cdbb 41a4 da3b
000003f0: 8eb9 573c 30c4 b83b 7ad5 21b9 027e 8c3b
0.014022579 0.020818727 0.0073629203 -0.0065622376 -0.006303267 0.0008099499 0.0036707036 0.0062113157
-0.0012039895 -0.0018087883 0.0011263161 -0.0004029653 -0.008552317 0.0075113075 0.0046746177 0.00035976915
0.013562308 -0.0059807617 -0.009684953 -0.025764994 -0.0046278792 -0.007904803 -0.0039423443 0.0034519571
0.0078109726 -0.005103869 0.015717631 0.00623973 0.011593054 0.008682004 0.018204907 -0.006265456
0.004523932 0.015301774 -0.00055849744 -0.005794703 -0.004571295 0.0016129212 -0.016400283 -0.0040639113
0.011685164 -0.0033327136 -0.010723826 0.004325553 0.0187789 0.00017508412 0.0006758181 0.010579718
0.0009909054 0.006707331 -0.001775491 2.5898241e-06 0.0024604232 -0.0057139737 0.0024323147 -0.0057847155
0.0096280305 -0.0005092167 -0.017944029 0.0107728755 -0.006738136 0.014852992 0.010620544 -0.0019278448
0.0012395881 0.01999663 0.002845514 0.014388125 -0.0036256274 -0.009883357 -0.021067688 -0.0027617833
-0.0087475125 -0.0010572142 0.0016448864 -0.0068657827 -0.013329163 -0.008578313 -0.009514045 -0.00020653504
-0.0051985485 -0.00793715 -0.017214168 -0.0016938513 0.012101283 -0.0060503883 0.010139835 0.01631817
0.0075144717 0.015337802 0.014124577 -0.006963675 0.004107024 0.0032263035 -0.01944162 4.4164346e-05
0.0116206175 -0.00470795 -0.0021472557 0.01895638 0.013486424 0.019202191 0.011245558 -0.009909108
-0.0048581734 0.00868195 0.0025854637 -0.004193149 0.0091219 -0.00028894187 0.00591574 -0.004244572
-0.005259465 0.010286529 0.0019216394 -0.002011772 0.013987179 -0.007376643 -0.007258768 -0.026328964
-0.008082011 -0.00382128 0.008008405 -0.006797233 0.0036126683 -0.0040779347 0.015118599 0.00877546
0.008849198 0.0049425303 0.009955552 -0.009300661 0.001788635 0.01712347 -0.001062738 0.0022892633
-0.010126995 -0.00033318342 -0.012935632 -0.007233944 0.010058637 -0.0046264143 -0.008984075 0.0029556793
0.016545365 0.001616627 0.0016541149 0.012041459 -0.0014935293 0.007511959 0.0010891033 0.0018159098
0.010143925 -0.0025871354 0.004464306 -0.012651022 0.008040419 -0.0023747026 -0.01657735 0.010618768
-0.006809244 0.014248596 0.009572915 -0.00074706797 0.0030963637 0.015907416 -0.000755275 0.019950522
0.001059237 -0.009507114 -0.018523036 -0.0030721447 -0.012165167 0.00354515 0.0033445319 -0.0069034128
-0.011480953 -0.006788539 -0.010716659 -0.00417192 -0.0026092904 -0.015981065 -0.019484969 0.0040119532
0.015436082 -0.0076335785 0.00648503 0.019867728 0.010590234 0.011671158 0.011975599 -0.012708414
-0.0051636794 0.0010111072 -0.014497895 0.00058178 0.017026935 -0.0016037644 -0.0008717672 0.016603835
0.011217928 -0.006839969 -0.0010261566 -1.7677174e-05 -0.012287255 -0.0039081965 0.007466111 0.006932584
-0.0039966744 -0.0082087675 -0.008922291 0.010777312 0.004911329 -0.012806939 -0.0014068908 -0.004374398
-0.02078894 0.0074200984 0.0027763413 -0.009793447 0.004520893 -0.009912652 0.008927875 0.00076677033
0.0006234213 0.0066750124 0.013334292 0.008803746 -0.021523552 -0.018539822 -0.0015678103 -0.0028764666
-0.017590871 -0.013274495 0.010406615 -0.009212758 -0.003069011 0.0045523667 -0.0032233724 -0.0016219808
-0.0043044365 0.0059405407 0.0030969281 -0.008326095 0.013269705 0.0032761502 0.0064995815 -0.01462662
0.01614421 -0.0058004013 -0.006266382 0.0066724126 0.013166798 0.0056386217 -0.00015433683 0.0042874822

ntm.controller.lstm.bias_hh_l0 f4 [400]
00000000: f6be 653c 098c aa3c a744 f13b 0a08 d7bb
00000010: a38b cebb d152 543a 3090 703b 4b88 cb3b
00000020: 2fcf 9dba dd14 edba e6a0 933a 1645 d3b9
00000030: 041f 0cbc 6a21 f63b 892d 993b 669f bc39
00000040: 7134 5e3c 44fa c3bb a3ad 1ebc 1c11 d3bc
00000050: 77a5 97bb 2683 01bc c82e 81bb 3b3a 623b
00000060: 30f3 ff3b 5b3e a7bb 43c2 803c a676 cc3b
00000070: cbf0 3d3c f73e 0e3c 7522 953c 744e cdbb
00000080: 7e3d 943b 4bb4 7a3c 2168 12ba 7ee1 bdbb
00000090: cdca 95bb a868 d33a e359 86bc 8f2a 85bb
000000a0: 2173 3f3c a869 5abb fcb2 2fbc 5ebd 8d3b
000000b0: 35d6 993c c996 3739 6329 313a 8e56 2d3c
000000c0: 45e1 813a 2cc9 db3b 98b7 e8ba d7cc 2d36
000000d0: 0d3f 213b 493c bbbb 7867 1f3b b68d bdbb
000000e0: e3be 1d3c f47c 05ba 5bff 92bc b780 303c
000000f0: 95cb dcbb f759 733c ca01 2e3c bdaf fcba
00000100: ad79 a23a f9cf a33c ce7b 3a3b 2cbc 6b3c
00000110: ef9b 6dbb ceed 21bc 2596 acbc 09ff 34bb
00000120: ba51 0fbc 3992 8aba 3b99 d73a 5cfa e0bb
00000130: 9062 5abc 0d8c 0cbc cce0 1bbc 5491 58b9
00000140: 9658 aabb d20a 02bc ba04 8dbc 3804 deba
00000150: 7644 463c 5642 c6bb 8d21 263c afad 853c
00000160: f53b f63b 674b 7b3c c56a 673c 8a2f e4bb
00000170: 3794 863b 6470 533b 0844 9fbc 1b3d 3938
00000180: 6764 3e3c 2645 9abb f9b8 0cbb 694a 9b3c
00000190: 2af6 5c3c ea4d 9d3c 4a3f 383c d059 22bc
000001a0: 5031 9fbb bd3e 0e3c e270 293b af66 89bb
000001b0: 0674 153c 1f7d 97b9 d3d8 c13b 0d16 8bbb
000001c0: 9757 acbb d488 283c 85df fb3a efd7 03bb
000001d0: 7b2a 653c c4b7 f1bb f6da edbb d7af d7bc
000001e0: 696a 04bc 716e 7abb af35 033c 53bb debb
000001f0: 84c2 6c3b 32a0 85bb 00b4 773c f2c6 0f3c
00000200: 3afc 103c f3f4 a13b 9d1c 233c cd61 18bc
00000210: a270 ea3a 8546 8c3c 924b 8bba 7707 163b
00000220: b2eb 25bc 1faf aeb9 f9ef 53bc b80a edbb
00000230: fbcc 243c 2d99 97bb f131 13bc 12b4 413b
00000240: 258a 873c 00e5 d33a e3ce d83a 8a49 453c
00000250: 87c2 c3ba e126 f63b 3ec0 8e3a d203 ee3a
00000260: b532 263c ee8c 29bb 5049 923b 3b46 4fbc
00000270: f6bb 033c e6a0 1bbb 39cd 87bc 57fa 2d3c
00000280: 1420 dfbb f172 693c b7d7 1c3c e2d6 43ba
00000290: 5dec 4a3b 4550 823c a6fd 45ba 476f a33c
000002a0: 19d6 8a3a bac3 1bbc 9fbd 97bc 0956 49bb
000002b0: 6950 47bc bf55 683b ef2f 5b3b 0636 e2bb
000002c0: 9b1a 3cbc 6472 debb ed94 2fbc 9ab4 88bb
000002d0: a100 2bbb b9ea 82bc f19e 9fbc b476 833b
000002e0: 9fe7 7c3c 1923 fabb 6080 d43b a5c1 a23c
000002f0: a982 2d3c 6238 3f3c 4e35 443c f436 50bc
00000300: 1534 a9bb 2187 843a 9488 6dbc 9882 183a
00000310: 127c 8b3c 6735 d2ba 4e87 64ba c404 883c
00000320: 66cb 373c d221 e0bb 1a80 86ba 7149 94b7
00000330: 7c50 49bc 5410 80bb 47a6 f43b bb2a e33b
00000340: 89f6 82bb 117e 06bc cd2e 12bc 5393 303c
00000350: 37ef a03b 32d4 51bc 6c67 b8ba 1c57 8fbb
00000360: 914d aabc 4c24 f33b 47f3 353b b274 20bc
00000370: 0024 943b ad68 22bc 3946 123c 1601 493a
00000380: 186d 233a 10ba da3b 1378 5a3c 963d 103c
00000390: 2952 b0bc d3e0 97bc fc7e cdba 1a83 3cbb
000003a0: bb1a 90bc 447d 59bc 8280 2a3c 1cf1 16bc
000003b0: 7621 49bb 052c 953b 373f 53bb a598 d4ba
000003c0: 3b0c 8dbb dea8 c23b d5f5 4a3b 2c6a 08bc
000003d0: 2d69 593c aeb4 563b 71fa d43b 7ea4 6fbc
000003e0: dd40 843c 4b11 bebb 3956 cdbb 41a4 da3b
000003f0: 8eb9 573c 30c4 b83b 7ad5 21b9 027e 8c3b
0.014022579 0.020818727 0.0073629203 -0.0065622376 -0.006303267 0.0008099499 0.0036707036 0.0062113157
-0.0012039895 -0.0018087883 0.0011263161 -0.0004029653 -0.008552317 0.0075113075 0.0046746177 0.00035976915
0.013562308 -0.0059807617 -0.009684953 -0.025764994 -0.0046278792 -0.007904803 -0.0039423443 0.0034519571
0.0078109726 -0.005103869 0.015717631 0.00623973 0.011593054 0.008682004 0.018204907 -0.006265456
0.004523932 0.015301774 -0.00055849744 -0.005794703 -0.004571295 0.0016129212 -0.016400283 -0.0040639113
0.011685164 -0.0033327136 -0.010723826 0.004325553 0.0187789 0.00017508412 0.0006758181 0.010579718
0.0009909054 0.006707331 -0.001775491 2.5898241e-06 0.0024604232 -0.0057139737 0.0024323147 -0.0057847155
0.0096280305 -0.0005092167 -0.017944029 0.0107728755 -0.006738136 0.014852992 0.010620544 -0.0019278448
0.0012395881 0.01999663 0.002845514 0.014388125 -0.0036256274 -0.009883357 -0.021067688 -0.0027617833
-0.0087475125 -0.0010572142 0.0016448864 -0.0068657827 -0.013329163 -0.008578313 -0.009514045 -0.00020653504
-0.0051985485 -0.00793715 -0.017214168 -0.0016938513 0.012101283 -0.0060503883 0.010139835 0.01631817
0.0075144717 0.015337802 0.014124577 -0.006963675 0.004107024 0.0032263035 -0.01944162 4.4164346e-05
0.0116206175 -0.00470795 -0.0021472557 0.01895638 0.013486424 0.019202191 0.011245558 -0.009909108
-0.0048581734 0.00868195 0.0025854637 -0.004193149 0.0091219 -0.00028894187 0.00591574 -0.004244572
-0.005259465 0.010286529 0.0019216394 -0.002011772 0.013987179 -0.007376643 -0.007258768 -0.026328964
-0.008082011 -0.00382128 0.008008405 -0.006797233 0.0036126683 -0.0040779347 0.015118599 0.00877546
0.008849198 0.0049425303 0.009955552 -0.009300661 0.001788635 0.01712347 -0.001062738 0.0022892633
-0.010126995 -0.00033318342 -0.012935632 -0.007233944 0.010058637 -0.0046264143 -0.008984075 0.0029556793
0.016545365 0.001616627 0.0016541149 0.012041459 -0.0014935293 0.007511959 0.0010891033 0.0018159098
0.010143925 -0.0025871354 0.004464306 -0.012651022 0.008040419 -0.0023747026 -0.01657735 0.010618768
-0.006809244 0.014248596 0.009572915 -0.00074706797 0.0030963637 0.015907416 -0.000755275 0.019950522
0.001059237 -0.009507114 -0.018523036 -0.0030721447 -0.012165167 0.00354515 0.0033445319 -0.0069034128
-0.011480953 -0.006788539 -0.010716659 -0.00417192 -0.0026092904 -0.015981065 -0.019484969 0.0040119532
0.015436082 -0.0076335785 0.00648503 0.019867728 0.010590234 0.011671158 0.011975599 -0.012708414
-0.0051636794 0.0010111072 -0.014497895 0.00058178 0.017026935 -0.0016037644 -0.0008717672 0.016603835
0.011217928 -0.006839969 -0.0010261566 -1.7677174e-05 -0.012287255 -0.0039081965 0.007466111 0.006932584
-0.0039966744 -0.0082087675 -0.008922291 0.010777312 0.004911329 -0.012806939 -0.0014068908 -0.004374398
-0.02078894 0.0074200984 0.0027763413 -0.009793447 0.004520893 -0.009912652 0.008927875 0.00076677033
0.0006234213 0.0066750124 0.013334292 0.008803746 -0.021523552 -0.018539822 -0.0015678103 -0.0028764666
-0.017590871 -0.013274495 0.010406615 -0.009212758 -0.003069011 0.0045523667 -0.0032233724 -0.0016219808
-0.0043044365 0.0059405407 0.0030969281 -0.008326095 0.013269705 0.0032761502 0.0064995815 -0.01462662
0.01614421 -0.0058004013 -0.006266382 0.0066724126 0.013166798 0.0056386217 -0.00015433683 0.0042874822

ntm.controller.lstm.weight_ih_l1 f4 [400, 100]
00000000: 33fd 8ebe ba1e 2e3e fe82 5cbe 79e0 3fbe
00000010: e745 643c b2a8 643d 1b8e 88bd 9e62 93be
00000020: 9c9c 4f3b 3bb5 a9be 7e50 763e 4d10 963e
00000030: 0c81 643e bbe6 e4bd ad90 7abd 5ab4 8ebd
00000040: 25c7 98bc 008a 4b3d c131 833c 03e6 c9bd
00000050: 53a3 28bc f7e1 11be afcd 9abd 478d 72be
00000060: 1908 91bc 2611 78be 59b6 3ebe 8ac5 fdbd
00000070: 2807 e63d c301 973e 8718 f4bd b236 a8be
00000080: cb17 863e 0826 4d3e ece8 3d3e 3682 abbe
00000090: a9f9 903d 6165 2fbe 3c28 a63e f8ad 163e
000000a0: 9256 54be 03d7 893e dc47 a6be c18e 69be
000000b0: 0c1a 11be 4813 56be 8f26 583d f7c6 e1bd
000000c0: 08b8 77bc 40ad 6bbd df30 583e 04b1 aebe
000000d0: 80fb 783d aef2 37be 33a4 31be 4476 a53e
000000e0: 2cb5 7d3e c685 a03d 50db 31be 5e7d aebd
000000f0: 2602 c53d 6b06 59be 7b67 c43d c124 8bbe
00000100: 7d66 213e 2799 ecbb e8fe 98be f0b9 8a3e
00000110: eec3 d9bd 84b3 6d3e 6d47 443e 1494 a33e
00000120: 6946 86be 37a6 153e 2a08 8d3c 06e4 5bbc
00000130: 5794 343e 0870 593e 9992 603e 3ac8 833d
00000140: 926b 9d3e c369 73be c74d 853c 4de8 38be
00000150: 254d 7e3e a5b2 35be 0548 873d 3763 88bd
00000160: 787b 9b3e 2854 603e 4608 35be f24b a33e
00000170: a543 423e 2a26 733e 17ec aa3e c316 2fbe
00000180: c85c c53d 3923 823e 2ecd 373e a20f 5d3e
00000190: 8ecb 94be 2000 873e 0487 07be af8c 1e3e
000001a0: c48d 8ebd a1ce df3d d5e9 b83e 2b00 88be
000001b0: 61bc a03e 6b31 7a3e eefd e53d c17a 9a3b
000001c0: b6fd 753e dc6f 66bd f1c7 493e aae4 683e
000001d0: 4ef1 8fbd 8f54 a83e 7819 2bbc ec53 a33b
000001e0: c7e2 9a3e 6f46 52be d817 903e 84eb 6cbe
000001f0: 7043 033e 4db8 7c3d 7a88 96bc 4d73 263e
00000200: b87f 9ebe a98d 063c 8e35 92be 96b5 a7be
00000210: f66e 9dbe 99e4 ecbd dcbd 91be 62d8 52be
00000220: 5079 97be 00b1 e13c 234b 3ebe 4ea7 423e
00000230: 2912 57be cd31 ac3d ff3a 63be d59a 9a3e
00000240: bcbc 0f3c ecf8 073e 166f 84be 605c 77bc
00000250: e343 cabd 6fda 093e a040 38be 4368 d93d
00000260: 41cc 7d3e bce4 993e 499a 8fbe a6d3 243e
00000270: 40d3 9b3e 4820 613e 44a8 63be 08ef 233e
00000280: 600d 9cbc a33f 983d 5dbc 4fbe 5cb4 f33d
00000290: f028 bbbd d635 84be 7d3f b3be be34 633e
000002a0: e93a 88be c364 4c3e 6d30 02be 30e3 793e
000002b0: 25cf f03d cc01 76be eebe a0be 0401 a33e
000002c0: 2399 483e 2f4e a5be fe4e 9abe 4b3d 7a3e
000002d0: f792 8ebd a950 0b3e 58f0 9c3e e8d9 00bd
000002e0: e57a 993d e050 8e3e c8e3 57be f4c1 263d
000002f0: ede4 9abe af93 b3be 79fa 90bd a035 2dbe
00000300: 0247 47bc 759b 823e 3bad 45bd 53ad 0fbe
00000310: 502e 6ebe 4d7a a7be 4388 3dbd 4ef3 c73d
00000320: 2273 33be 2881 51be f9c5 0f3e 3afd 23bd
00000330: 6b63 30be 0101 8b3e 1cde c6bd de2a 71bd
00000340: 0e1b 35be a9d6 1e3e 2a77 97be 31bd 963e
00000350: 3a44 c13d c8de 3abc 2540 b9be e4a0 a1be
00000360: 9375 7d3e c180 913d 5fdf 9b3e c6dc 40be
00000370: 91c4 2b3e fa62 21bd 7383 263e 1ca9 2d3d
00000380: c705 263e 496e 7c3e d2a7 26be fbd2 a63e
00000390: 4788 53bd 59bc 15be 0903 92be 9d33 41be
000003a0: 37af 0dbe 5830 a93e 4d62 22be ee58 653e
000003b0: ae30 923d 1126 02be 148b a93e 0efa 1a3e
000003c0: be84 abbe 49f0 28be c76d d03d f7b5 8abe
000003d0: 172f 39be 0a63 cdbc bc8e 9abe a84a 583e
000003e0: 2851 9b3e 3734 2c3e 83f9 93be da49 813e
000003f0: 600d 5bbe 823d cabd 692e 07be eb5f 92be
-0.2792755 0.17003909 -0.21534345 -0.18737973 0.013932682 0.055824943 -0.066677295 -0.28786176
0.003167904 -0.3314608 0.24054143 0.29309312 0.22314852 -0.11176821 -0.06117313 -0.06967993
-0.018649647 0.049692154 0.016014935 -0.098583244 -0.010292846 -0.14246355 -0.07558762 -0.23686706
-0.017704057 -0.24225292 -0.18624248 -0.12391193 0.11231834 0.29493532 -0.11918741 -0.3285423
0.26190028 0.20034039 0.18545884 -0.3349778 0.07078869 -0.17128517 0.3245257 0.14714801
-0.20736149 0.26921853 -0.324767 -0.22808363 -0.14170092 -0.20905793 0.052771147 -0.11024278
-0.01511956 -0.05753827 0.21112393 -0.34119427 0.060786724 -0.17963669 -0.17347793 0.32316792
0.24776143 0.07838015 -0.17368817 -0.08520006 0.096195504 -0.21193855 0.0959005 -0.27176479
0.15761752 -0.0072204056 -0.29881978 0.27094984 -0.10633074 0.23213011 0.19167872 0.31948912
-0.26225594 0.14614187 0.017215807 -0.013421064 0.17634712 0.21234143 0.21930923 0.064346746
0.30746132 -0.23770814 0.016272439 -0.18057366 0.24834116 -0.17743929 0.066055335 -0.06659549
0.30367637 0.21907103 -0.17678937 0.3189388 0.18971117 0.23745027 0.33383247 -0.17098527
0.09636837 0.25417498 0.17949364 0.21587995 -0.2906155 0.26367283 -0.13235098 0.15483354
-0.069606334 0.10928083 0.361159 -0.26562628 0.31393722 0.24432914 0.11230074 0.0047143404
0.24022564 -0.05625902 0.19705178 0.22743478 -0.07028447 0.32877013 -0.010443084 0.0049843695
0.30251142 -0.20534681 0.2814319 -0.23136717 0.12818694 0.0616992 -0.018375624 0.16254921
-0.30956817 0.008212485 -0.28556484 -0.32755727 -0.3074872 -0.11567039 -0.28465164 -0.20590356
-0.29584742 0.02755022 -0.1858335 0.19009134 -0.21003021 0.08407936 -0.22190474 0.30196252
0.008773025 0.1327855 -0.25866002 -0.0150977075 -0.098762296 0.13462232 -0.17993402 0.106155895
0.24784948 0.30057323 -0.28047398 0.16096362 0.30434608 0.2198497 -0.22232157 0.16009152
-0.019049346 0.07434013 -0.20286699 0.11899635 -0.091386676 -0.25822324 -0.35009375 0.22188088
-0.26607445 0.19960313 -0.12713785 0.24403071 0.1175826 -0.24024123 -0.31395668 0.31836712
0.19589667 -0.32286212 -0.3013839 0.24437444 -0.06961625 0.13604988 0.30652118 -0.03145781
0.074941434 0.27796078 -0.21082985 0.040712312 -0.30252782 -0.3507361 -0.07079024 -0.16914988
-0.012162926 0.2550923 -0.04826091 -0.14030962 -0.23259854 -0.32710496 -0.046272527 0.097632036
-0.17524388 -0.20459425 0.14040364 -0.040036418 -0.17225425 0.27149203 -0.09710333 -0.058878772
-0.17686102 0.15511574 -0.29583102 0.29441217 0.09436841 -0.011405654 -0.3618175 -0.31568062
0.24751882 0.07104636 0.30443856 -0.18834218 0.16774203 -0.039401032 0.16261081 0.042397603
0.16213141 0.24651445 -0.16274956 0.3258284 -0.051643636 -0.1462263 -0.2851794 -0.18867345
-0.1383637 0.33044696 -0.15857811 0.22397205 0.07138191 -0.12709834 0.3311392 0.15134451
-0.33499712 -0.16497912 0.10177188 -0.27091953 -0.1808437 -0.02507164 -0.30187023 0.21122229
0.30335355 0.16816793 -0.289013 0.25251657 -0.21391821 -0.09875013 -0.13201298 -0.28588805

ntm.controller.lstm.weight_hh_l1 f4 [400, 100]
00000000: 485d 5e3e a9f5 3c3d f8f2 aabe 2564 533b
00000010: e4ff 443d e612 15be 706c 3f3e 2eb5 0c3d
00000020: f5d2 553e 44bb a6be d227 a2bc 1345 cfbc
00000030: c31d 833d c270 9bbb 18be 38be fd40 a6be
00000040: 1bce 23be 8471 ad3e 4c73 97bd 6049 cbbb
00000050: 2dab 923d 1607 403e cfa6 203e dfcc bd3d
00000060: 4888 193e c7fc 90bc 0290 21be 8f63 903e
00000070: 3701 803e 7da7 963d 2e5b 4b3e 9e5f a2be
00000080: 9e7b 3fbd 23dd a83e fd1e 66be 3858 ab3d
00000090: 16e3 713e 951b 05be b40f 7f3e 7b34 d33d
000000a0: d71b 4f3d bc89 943e a9b5 023e 30d7 9a3e
000000b0: 3981 50be 5883 5cbe 803f 333e 8bd9 7bbe
000000c0: 47c9 a13c 2048 acbe d2fe 6abe e79c 833e
000000d0: eb93 a3b9 de07 8c3d 1743 a13d d79d 80be
000000e0: dc70 debd c8a1 623e 4d57 8bbe a478 6b3e
000000f0: 4bd1 1cbe 5f4a 2bbe 8f00 8abe 3907 76be
00000100: ea1b a7be 43dc a5bc f800 813e 7562 96be
00000110: 0e22 f83c 4c68 883d 6bd3 e93d 91ed 95bd
00000120: b518 343e 0918 9bbe bea0 0c3e 6330 44be
00000130: 48a5 803e 18ff bcbd e28a e23d 4dd5 2a3d
00000140: 1b68 803c 1f95 403e 3957 973b 14e6 463c
00000150: 1689 213e 6381 523e 6f84 a3be 5b5f 493e
00000160: 5ab0 4d3e b3f4 283e 3c22 aabe 91f4 48be
00000170: 7296 ca3d 67f3 823e 0178 85be fecf f1bd
00000180: 6e85 91be ccc4 d8bd ed47 aabb abb3 623e
00000190: c92b f0bd 3c83 51be 3b84 57be 0980 9d3e
000001a0: 6803 053e db5c 88be 9bc4 5fbe 8937 2cbc
000001b0: 90ea c8bd 9b65 16be 0ee6 84be 5194 a23e
000001c0: db68 ef3c cd1a a13e ada5 41be 7114 8cbe
000001d0: a234 993e c3cc ff3d d05a 32be fbb4 a53e
000001e0: 8a67 8bbb 763f 66bd 5d85 543b c3de 24bd
000001f0: eef4 533e e387 6abe bf57 97be 5f97 a1be
00000200: 88dd aebd 8e78 9e3e e77a 9fbc 3b2a 333e
00000210: a935 0e3e b5a3 363e 7319 70bd a316 e83d
00000220: 9c30 90be 3a75 81be 6129 2d3e 8975 03bd
00000230: 181f aabe 03fa 803e f3ac acbe 090a 173e
00000240: dc6c 00be 8983 993e 72e5 0c3e 9367 8abe
00000250: 4584 bd3d 905d 1d3e a0e5 60be f643 a6be
00000260: 3345 4a3d 810e 76be 2ab6 083e e463 96bd
00000270: 6e16 643e f723 2e3d 914f 553e e177 a13e
00000280: e17b 04be b2fa 9c3d 4fca 21be 0c9f e43d
00000290: 7f32 583d cd93 86be 6a55 8abe d8cb 933e
000002a0: eb4b 10be 9303 913e 7501 71bd 8628 923e
000002b0: 966e 1abe 1a5b 8cbe 1d8c 573e 327e c13c
000002c0: cedc 543e b1cb 17be 359f 8c3e 12a1 623e
000002d0: 7594 97be 296f 803e 8e9a 02be 0e72 533e
000002e0: 89a3 2abe fd82 323e 8f84 d53d a953 3dbe
000002f0: e620 493e f0f1 4b3c 613b e53d 4f21 9fbe
00000300: 41c2 983d bf3b 673e 74fa a53e 61f1 8d3e
00000310: a810 9e3e 1217 643e c838 35be f716 9a3e
00000320: c342 163e a295 983e 9f67 29be 6ab1 94bd
00000330: 9bc9 8cbe 0155 7abe 8eed 213d e21e 643e
00000340: 0652 fa3d 7f80 3e3e bf5a 163e 4829 563e
00000350: 3985 46be 8010 c8bd 0a66 633d 0db0 1fbe
00000360: 3c3e a43e 5dc9 0b3e e495 633e 6729 18be
00000370: ba6f ebbc 8789 8b3c 5fcc 9cbe 9bc9 933e
00000380: 8577 bcbc f813 95be 73c6 58be 5f94 5e3e
00000390: b097 823e 9689 a13d c279 913e 7648 8b3d
000003a0: b6b9 833e 9715 b3be 3efe 39bd 7abd 91bc
000003b0: 3946 03bd 26ae 26bd 232a fd3b 69ac acbc
000003c0: 9c19 a1be b920 5ebe 106f edbc 6f2e 46bd
000003d0: 6a47 a23e 5776 8fbe d63f 653d 5acf 073e
000003e0: 8f66 9cbe 8f59 113e 0064 693d 4b45 3c3e
000003f0: 50c9 43be 6443 aa3e e776 0f3e 517e f0bb
0.21715271 0.046132717 -0.33388495 0.0032255736 0.0480956 -0.1455799 0.1869371 0.034352474
0.20881255 -0.32564747 -0.019794378 -0.025301492 0.06402161 -0.0047436664 -0.18041265 -0.32471457
-0.15996592 0.33875668 -0.07395038 -0.0062038153 0.071615554 0.18752703 0.15688632 0.09267592
0.14993393 -0.017698659 -0.15777591 0.28200957 0.25000927 0.073561646 0.19859001 -0.31713575
-0.04674875 0.32981214 -0.22472759 0.08366436 0.23621783 -0.12998803 0.24908334 0.10312744
0.05056366 0.29011333 0.1276461 0.302423 -0.20361795 -0.21534479 0.17504692 -0.24594705
0.019749297 -0.33648777 -0.22948769 0.25705644 -0.0003119999 0.06837438 0.078741245 -0.25120422
-0.1086137 0.22132027 -0.27215043 0.2299524 -0.15314214 -0.16727589 -0.2695355 -0.24026193
-0.32638484 -0.02024663 0.25196052 -0.29371992 0.030289676 0.06660518 0.11417278 -0.07320703
0.1758755 -0.30291775 0.13733193 -0.19159083 0.251261 -0.09228343 0.11061646 0.041707326
0.015674641 0.18806885 0.004618552 0.012139816 0.1577495 0.2055717 -0.31936976 0.19665281
0.20086804 0.16499595 -0.33229244 -0.19624545 0.098919764 0.25576326 -0.26068118 -0.118072495
-0.2842211 -0.10584411 -0.0051965625 0.2213885 -0.11727101 -0.20460218 -0.21046536 0.30761746
0.1298958 -0.26633343 -0.21852343 -0.0105112875 -0.09810364 -0.14687197 -0.25956768 0.3175378
0.029224804 0.3146576 -0.18910857 -0.27359346 0.29922968 0.12490227 -0.17417455 0.3236464
-0.004254286 -0.056212865 0.0032428124 -0.040251505 0.20698902 -0.22903399 -0.29559132 -0.315608
-0.085383475 0.3095135 -0.019467784 0.17496578 0.13887657 0.17835887 -0.05861802 0.113324426
-0.28162086 -0.2528475 0.16910316 -0.032094512 -0.33226848 0.25190744 -0.337257 0.14749922
-0.12541527 0.29983166 0.13759401 -0.27032146 0.09253744 0.15367723 -0.21962595 -0.32473725
0.0493824 -0.2402897 0.1335074 -0.073432714 0.22274181 0.042514767 0.20831133 0.31536773
-0.12937881 0.07665004 -0.15799831 0.11163148 0.05278253 -0.26284638 -0.2701829 0.28866458
-0.1409146 0.2832304 -0.05883928 0.28546542 -0.15081248 -0.27413255 0.21049543 0.023619745
0.20787355 -0.14823796 0.27465215 0.22131756 -0.2960545 0.25084808 -0.1275427 0.20648977
-0.16663946 0.1743278 0.10425674 -0.18488945 0.19641456 0.012447819 0.11192966 -0.310801
0.07458926 0.22581385 0.32417643 0.2772322 0.30872083 0.22274426 -0.17697442 0.30095646
0.14673905 0.2980166 -0.16543435 -0.072604015 -0.27497563 -0.24446489 0.03953319 0.22277406
0.12222676 0.18603705 0.14683054 0.20914185 -0.19386758 -0.09768772 0.055517234 -0.15594502
0.3207873 0.13651033 0.22225147 -0.14859544 -0.028739799 0.017033352 -0.30624673 0.2886475
-0.02300621 -0.29116797 -0.21169452 0.21736287 0.25506353 0.078875706 0.28413206 0.0680093
0.25727624 -0.3497741 -0.04540848 -0.017790545 -0.03204939 -0.040693425 0.0077259704 -0.021078305
-0.3146485 -0.2169217 -0.028983623 -0.048384126 0.3169511 -0.28019974 0.05596908 0.13262692
-0.30546996 0.1419432 0.056980133 0.18385808 -0.19119763 0.3325454 0.14010201 -0.007339277
