results/priority-sort/priority-sort-task-1-batch-16000.model (torch_old, 876115 bytes, 49 tensors)

ntm.read0_bias f4 [1, 20]
000000 d3 d4 0b 3c 26 33 0a 3c 0d 66 07 bc 89 8c 3e 39
       0.008534628 0.008435046 -0.008264077 0.00018172165
000010 18 12 99 3b 83 6f 18 3c dd 0b 19 3b bd f5 35 3c
       0.0046713464 0.00930393 0.0023353018 0.011105952
000020 4d c3 c8 3b 41 e3 3a bc 7e 4e a9 ba f7 b1 ef ba
       0.0061267973 -0.011406721 -0.0012917069 -0.0018287291
000030 87 a4 d5 bc f7 f7 3f 3b 98 dc 8b 3c eb 0f 77 bc
       -0.02607943 0.0029292086 0.01707296 -0.015079479
000040 2d 3b 1a bc 44 c2 45 3b e9 ba 21 3c dc 91 b0 3a
       -0.009413523 0.0030175606 0.009871223 0.0013471204

ntm.read1_bias f4 [1, 20]
000000 26 7f f3 3b 16 22 21 bb eb 81 c9 3b 06 05 d1 3b
       0.0074309288 -0.0024586967 0.0061495206 0.0063787727
000010 07 69 5e 3b 59 80 a8 3b af 91 49 bb cb 9c f5 ba
       0.0033937113 0.0051422534 -0.0030757 -0.0018738745
000020 34 1a d5 ba 10 0a a6 ba 38 2b 9c 3c dd 00 36 3c
       -0.001625842 -0.0012667794 0.019063577 0.011108604
000030 cc c1 94 bb 4a 2c 23 bc fe e3 20 39 97 bd db bb
       -0.004539704 -0.00995929 0.00015343723 -0.0067059505
000040 d4 87 11 3b e4 78 0e 3c b7 70 1b bc ea 51 78 bb
       0.0022206204 0.008695815 -0.0094873225 -0.0037890621

ntm.read2_bias f4 [1, 20]
000000 5d ed 09 3c fb 63 b1 bc 34 97 d6 3c b3 e7 72 bc
       0.008418408 -0.02165412 0.026195146 -0.014825749
000010 83 36 e9 3b 8a e3 68 3b b0 e4 b0 3b 87 3d 34 3b
       0.007117094 0.0035536014 0.0053983554 0.0027502493
000020 14 97 25 bc 5b 63 23 bc 20 3e 24 3c ff 13 88 ba
       -0.010106821 -0.009972419 0.010024577 -0.0010381936
000030 92 03 64 bb 58 3d 7b 3b 6a 02 dc ba ab 40 67 3b
       -0.0034792167 0.0038336124 -0.0016785387 0.0035286348
000040 55 61 85 3c 46 3c 81 bc ed b1 95 3c 13 a6 32 bc
       0.016281763 -0.01577581 0.018273318 -0.010903853

ntm.read3_bias f4 [1, 20]
000000 e8 fc 10 bc 3e bf 0a 3b a0 79 22 bc e8 8e 9d 3b
       -0.00884936 0.0021171118 -0.009916693 0.0048082955
000010 db 03 d4 39 a6 a9 64 3b ed 59 b9 3c d3 a3 4e bc
       0.00040438664 0.0034891157 0.022625888 -0.012612301
000020 4b 5c d1 3a 9a 11 0c ba a5 f1 3c 3c 15 65 d3 3b
       0.001597294 -0.0005343199 0.011532222 0.006451259
000030 70 e9 57 ba f9 7e 82 3b 8e 46 c2 3b 61 60 06 bc
       -0.0008236384 0.0039824215 0.005928821 -0.008201689
000040 95 82 6b bc 40 a2 40 bb 90 8b 13 bc 19 48 90 3c
       -0.014374395 -0.0029393584 -0.009005442 0.017612504

ntm.read4_bias f4 [1, 20]
000000 b4 59 a9 3a ed 3d 92 3c 46 6d ee ba 1b 01 f3 3b
       0.001292041 0.017851794 -0.0018190525 0.0074159033
000010 00 a8 81 bb 10 fe 10 bc e6 12 d2 bb 50 1c 07 3c
       -0.0039567947 -0.008849636 -0.0064109443 0.008246496
000020 f6 4c 1d bb 30 4d 08 3c 7e 27 33 bc 74 55 70 bc
       -0.002400217 0.008319184 -0.010934709 -0.014668811
000030 4b 8f 44 bc d8 5d 1d bc 57 d2 c9 b9 bd f3 d8 3a
       -0.011997054 -0.009604894 -0.00038494423 0.0016552132
000040 4a 8c b8 3b 43 4f 13 bb b7 f8 8a bc b6 f7 29 3c
       0.005631958 -0.0022477664 -0.0169643 0.010374

ntm.controller.lstm_h_bias f4 [2, 1, 100]
000000 f1 7d cc 3c fc e5 5a bd 94 7c f8 bc a0 c3 da bd
       0.024962397 -0.053441986 -0.030332841 -0.10681844
000010 4f 6d e5 bc ee 95 79 3d 43 27 52 bd a7 29 2f bd
       -0.028006224 0.060934 -0.051306974 -0.042764332
000020 16 be 05 3d bb 2c 31 b9 4c 7f 6d bb b0 9d 05 bd
       0.032651983 -0.00016896699 -0.0036239205 -0.032621086
000030 ae d9 02 3d c0 bd 38 3c a8 bf 95 bd f6 be 77 3d
       0.031945877 0.011275709 -0.07311946 0.06048485
000040 1b 87 fd bc 03 8b 3b 3b 1f 28 9e 3d 27 fc 59 3d
       -0.030948212 0.0028616793 0.07722496 0.053218987
000050 6d 0f 88 bd 12 f5 c0 3c ed b1 df 3c 6a 34 96 bd
       -0.06643567 0.023554359 0.027306521 -0.07334216
000060 30 f1 82 bd 0e 25 ba 3d e0 40 1d bd f8 c0 2a bd
       -0.06393659 0.09089099 -0.038391948 -0.041687936
000070 4a c7 b4 bb cf 3a 84 bc e1 0e 73 bd 23 4a c0 bd
       -0.005516921 -0.016141323 -0.05934036 -0.093891405
000080 d1 6a 4e bc bd 9f 61 bd 51 c3 fd bd 68 5c 97 3b
       -0.012598709 -0.05508398 -0.12390769 0.00461917
000090 19 4e 02 bd d9 f5 13 bd c6 7c bb 3d 11 27 6c bc
       -0.03181276 -0.03612313 0.09154658 -0.014413611
0000a0 4d 18 59 3d ec ee 43 bd 38 c2 17 bd cf 43 d5 3c
       0.05300169 -0.047835276 -0.037050456 0.02603331
0000b0 df 9b 35 bd b2 b2 4e bc 7b 18 55 bc 65 8b 9c 3d
       -0.044338103 -0.0126158465 -0.013006325 0.07643775
0000c0 34 77 30 3d cc 7b 06 bc 73 b4 bd bc 55 3f c9 3d
       0.04308243 -0.008208226 -0.023157334 0.09826533
0000d0 0b 29 67 b9 6d 52 09 3e 51 a6 93 bc a8 51 b2 3b
       -0.00022045166 0.13410349 -0.018023642 0.005441863
0000e0 1e 88 5a 3c ac 3a ce bd 4b fd 37 3d af a3 eb 3d
       0.013338117 -0.100697845 0.044919293 0.115058295
0000f0 28 35 bc 3d aa 3e dd bb db a8 51 3d 8a 0d ef 3b
       0.09189826 -0.006751855 0.051186424 0.007295315
000100 c7 23 98 3d 81 21 03 bd 05 4d 42 bc 73 ed 9a bd
       0.07428699 -0.032014374 -0.011859183 -0.07564821
000110 a4 14 a7 bd 01 40 bc bd f9 dc c2 bc b2 12 c9 bd
       -0.08158234 -0.09191895 -0.023787009 -0.09818019
000120 70 53 96 3c 3e 91 0f bc 1a d0 05 3c ef 1e ec bc
       0.018350333 -0.008762656 0.008167291 -0.028823344
000130 b0 0c 32 bd 75 ec 93 bd e0 9b 28 bc 28 77 47 3c
       -0.04346913 -0.07222835 -0.01029107 0.012174405
000140 61 35 4b 3d 46 33 4d bd 3c b5 0f be ea ea d3 bc
       0.049611453 -0.050097726 -0.14033979 -0.025868852
000150 25 63 07 bd f5 c8 c8 3b 60 10 50 bd 1c ad 3b bd
       -0.033053536 0.0061274716 -0.050796866 -0.045819387
000160 20 42 6d bb 98 54 e3 3d dd c1 8c ba 76 fb 1b bb
       -0.0036202744 0.11100119 -0.0010738928 -0.0023801005
000170 8b 77 46 3d b7 1d d3 bc 38 76 81 3d 70 76 89 bd
       0.04845385 -0.025771005 0.063213766 -0.06712043
000180 ce 77 b4 3d 5d 56 a8 3d 9b 49 a6 bc 7a f7 04 bd
       0.088119134 0.082195975 -0.02029877 -0.032462575
000190 d7 fc 5d 3e 12 6f c2 3c 4a c8 98 3d a8 08 18 3d
       0.21678482 0.023734603 0.07460077 0.03711763
0001a0 cf 08 cc bd 73 5c 62 3d ae 6c 68 3d 6a 96 b6 bd
       -0.099626176 0.055263948 0.05674427 -0.08915408
0001b0 bc 53 9b 3d 69 b0 a2 bd 2d bc b0 3c b0 ad 83 bd
       0.075843304 -0.07943804 0.021574104 -0.06429613
0001c0 3c fd c8 3d be 8c 9c 3d c4 f2 41 bd 05 25 7e bd
       0.098139256 0.07644032 -0.04735066 -0.062047023
0001d0 ed 66 03 3e f2 4d 83 3a f9 2c bc bd bb 84 32 3c
       0.12832232 0.0010017736 -0.09188265 0.010895903
0001e0 62 7a 05 bd c0 96 22 3d e3 24 be 3c 16 5a 14 3d
       -0.032587416 0.039694548 0.023210948 0.036218725
0001f0 6d 1a 1e bc cf da 7e bd 30 d6 93 bc 9c 91 09 3e
       -0.009649855 -0.06222039 -0.018046468 0.13434452
000200 ed fe 76 3c a3 10 00 3e 78 09 b5 3c d7 b3 4b 3c
       0.0150754275 0.12506346 0.022099242 0.012433014
000210 ed 31 84 3d f7 38 47 3b 67 ee f7 3d 6f 69 84 bd
       0.06454835 0.0030398944 0.121060185 -0.06465422
000220 28 95 9d bc e0 4a 06 3d 19 82 d8 3d 87 93 4f bd
       -0.019236162 0.03278625 0.10571689 -0.050677802
000230 27 63 72 3d 8a 7a 86 bd 7c 6b ab bd 5a b4 1f bd
       0.05917659 -0.06566341 -0.083701104 -0.038990356
000240 74 2f 18 bd cb 4f 92 3a 4b 4b b9 3d 44 fb 78 bc
       -0.03715463 0.0011162696 0.09047564 -0.015196625
000250 bb a3 ac 3d 85 4a e0 bc e5 42 b8 bb 0f e4 39 3d
       0.084296666 -0.027379284 -0.005623209 0.04538351
000260 14 f7 82 3d be 2e 01 bc ff 3e 99 bd 59 fe fb bb
       0.06394783 -0.007884679 -0.07482719 -0.0076902327
000270 cb 63 10 be 55 39 3e bd 5d 9a d3 3c a1 4c 89 bd
       -0.14100568 -0.046441395 0.025830442 -0.06704069
000280 fd fa 6f 3d 1e 0c c1 3d 9a c3 93 3d 3f 02 9d 3d
       0.05858897 0.09426139 0.072150424 0.07666444
000290 fa 94 31 bd 95 32 4f bd 66 a7 f6 3b d9 a7 84 bd
       -0.043354966 -0.05058535 0.0075272797 -0.06477327
0002a0 a5 d9 86 bc 55 eb 45 3d d3 fc 57 3d 92 db 31 3e
       -0.016461203 0.048320133 0.052731346 0.17368916
0002b0 9c 8f c0 bd 58 ae 20 3d e8 c4 5a 3d c7 9b 29 be
       -0.09402391 0.039228767 0.05341044 -0.1656333
0002c0 36 99 cc 3c a7 30 06 3a cc a8 88 bd ba 2d 06 be
       0.0249754 0.0005118944 -0.066728204 -0.13103381
0002d0 dd 46 fb 3b e2 7b 5f bd a1 44 1f 3a 41 1d a4 bd
       0.0076683597 -0.054561503 0.0006075595 -0.08013392
0002e0 57 4b c5 3d af a6 b5 bd 7c b4 27 bd 0d f6 9d bd
       0.096335106 -0.08869683 -0.040943608 -0.07712946
0002f0 5e af 08 bd e4 13 c0 bd 30 e4 fa 3c 5d 55 89 bd
       -0.03337037 -0.09378794 0.030626386 -0.06705735
000300 2f 93 15 3d a7 4c f8 3d 3c 33 ea 3b 4e b6 12 be
       0.03651732 0.12123995 0.007147221 -0.14327356
000310 05 42 28 3d 95 f4 52 bd cb 49 f0 3d c9 64 82 bc
       0.041078586 -0.051502783 0.11732825 -0.015917199

ntm.controller.lstm_c_bias f4 [2, 1, 100]
000000 a2 23 0f 3d 36 a2 84 bc 84 1a 2e bd e0 5f 48 3b
       0.03494609 -0.01619063 -0.042505756 0.0030574724
000010 db ff 02 3d 83 1d 15 bd 8a db ce bd 08 e0 82 3d
       0.031982284 -0.036405098 -0.101004675 0.06390387
000020 98 9a 51 bd f3 5d 01 bd 1e ca a4 3d 87 b6 90 bd
       -0.051172823 -0.031583738 0.08046363 -0.07066064
000030 b9 8b 17 bd 9c c8 0b bd 84 42 04 3e d1 e8 88 bc
       -0.036998484 -0.034126863 0.12915999 -0.016712578
000040 63 89 3b 3c cd 39 af bd e3 96 63 3d fc c1 44 bd
       0.01144633 -0.085559465 0.05556382 -0.04803656
000050 13 7c 0a bd 5c 3c 2f bd c6 32 93 3b 70 e5 7b bc
       -0.033809733 -0.042782173 0.0044921366 -0.015374526
000060 c6 6e 36 bc 0e 30 9d 3d b9 71 e8 3c 27 c2 0f bc
       -0.011134809 0.07675181 0.02837454 -0.008774317
000070 1b 14 8c bd e2 39 f6 3c 0c 8d a9 bd 83 3e 9a bd
       -0.06839772 0.030056898 -0.08278856 -0.075314544
000080 d0 41 29 bd ae 25 ab bd 3e be 0c bd 5e d9 a3 bd
       -0.04132253 -0.08356796 -0.034361117 -0.08000444
000090 1b fc 95 bc 63 e2 f2 bd a3 96 86 bc 60 8d 11 bd
       -0.01830869 -0.11859586 -0.016429251 -0.035535216
0000a0 8a 08 bd 3c 35 d1 53 bd aa 4a a1 bd 34 dd 3b 3c
       0.02307536 -0.051713187 -0.07875569 0.011466313
0000b0 38 57 39 3c b8 c6 d3 3c fa 3f 62 3c fd c7 b8 3c
       0.0113122985 0.025851592 0.0138091985 0.0225563
0000c0 1a 12 9a bc bf 38 2e 3b ae 1b 12 3c a1 ef c2 bc
       -0.01880746 0.0026584116 0.008917732 -0.023795905
0000d0 4c 9d d7 bb 20 de 29 3c 02 e5 93 3d ef 18 91 bc
       -0.0065800305 0.0103679 0.07221414 -0.017712085
0000e0 4d 16 28 bc 4a 35 b6 3b 7c 0c 29 ba 17 38 78 3d
       -0.010259223 0.005560552 -0.00064486987 0.060600366
0000f0 df b9 b8 3c 68 f4 de bc 8e ea f0 bb 43 8a 91 3b
       0.022549568 -0.027216151 -0.00735218 0.004441531
000100 10 70 c4 3c 6f ac 80 3b da ff 53 bd 29 5c 71 3d
       0.023979217 0.0039268057 -0.05175767 0.05892578
000110 67 c3 55 bc 15 3e 63 bc da 63 0c 3d ab b4 06 be
       -0.013047076 -0.013869782 0.034274913 -0.13154857
000120 ca 58 5c bd 8b 99 40 3d 77 93 c8 3c 82 9c 46 bd
       -0.053795613 0.04702143 0.02448438 -0.0484891
000130 ac 53 3e 3c 69 6e 08 be b6 8d 4b bd ce 40 60 bd
       0.011616629 -0.13323368 -0.049695693 -0.054749303
000140 b0 73 02 bd ff 5a 86 bd b8 92 66 3c 12 03 55 bd
       -0.03184861 -0.06560325 0.014073066 -0.05200488
000150 ec 40 af 3d ac ab 85 bc 21 72 06 bc 47 94 91 3d
       0.08557305 -0.016317211 -0.008205921 0.0710836
000160 24 c6 8c bd d1 5c 2f bb 3b 6e 5c 3b 75 d8 69 3c
       -0.0687373 -0.0026758204 0.0033635038 0.014272799
000170 bf 46 fc 3c b2 d3 3b bd 24 c4 95 bd f8 f9 1d bd
       0.030795453 -0.045856185 -0.073128015 -0.038568467
000180 0b 0c 51 3d df ad 9b bb 39 b8 a9 bb d6 49 9a bd
       0.051036876 -0.0047509517 -0.0051794318 -0.07533614
000190 c9 18 12 3d e7 9f 91 3c 92 ec 23 bd 2c b3 86 bd
       0.03566817 0.017776443 -0.040020533 -0.06577143
0001a0 70 d6 cf bd b2 69 e4 bc 06 21 12 3d 29 9f 02 3c
       -0.101483226 -0.02788243 0.035676025 0.007972517
0001b0 b8 35 bc 3d d1 ef cc bb 30 d0 a3 bd 14 f5 67 bd
       0.091899335 -0.0062541743 -0.07998693 -0.05663021
0001c0 95 60 23 3d 36 6a 25 bd 05 1a 85 3c 66 99 cb 3d
       0.03988703 -0.040384494 0.016247759 0.09941368
0001d0 a6 0d 01 3e 00 46 f5 3d 24 9b d7 bc 65 b5 40 bd
       0.12602863 0.11976242 -0.026319094 -0.04704799
0001e0 f3 fb 84 bc e4 3b 46 bd 88 c1 08 bd ec bd 04 bd
       -0.01623342 -0.04839696 -0.03338769 -0.032407686
0001f0 89 62 0f be c2 60 45 3b 80 d1 0f 3c d9 19 2e 3e
       -0.14002432 0.0030117487 0.008777976 0.17002048
000200 b1 f2 88 3c 39 e1 8b bd fa d4 15 3d e9 b6 2a bd
       0.016717287 -0.06830067 0.036580063 -0.041678343
000210 e2 15 a0 3c e7 18 b8 3d f2 5a 92 3d ac 88 00 be
       0.019541685 0.08989125 0.07146253 -0.12552136
000220 40 78 e5 3c 6f 4d c6 3d 9e 47 17 3d d9 85 bc b9
       0.028011441 0.09682738 0.036933534 -0.0003595788
000230 f8 df bf 3c dd eb 2b 3c e7 66 8b bd b9 43 85 bd
       0.023422226 0.010493246 -0.068067364 -0.06507058
000240 60 59 0b bd 3f 5c ee bd ec 5e 88 3d f2 61 be 3c
       -0.03402078 -0.11638688 0.0665873 0.023240063
000250 bc 27 d2 3d 12 a5 f2 3d 41 ec 7c bd 72 88 72 bd
       0.10261485 0.11847891 -0.061748747 -0.059212156
000260 3b b6 01 3d 66 7f 98 bd fa 5c 3f bd ef d4 c5 bb
       0.03166793 -0.07446174 -0.04671953 -0.0060373466
000270 49 c2 57 bd 6b 26 d5 3d 98 31 53 3d 78 96 a1 3d
       -0.05267552 0.10407718 0.05156097 0.07890028
000280 5f d5 46 3c 7c cf fc 3c 78 b6 59 bd 36 1a a9 3c
       0.012135833 0.030860655 -0.05315253 0.020642381
000290 61 f4 f1 bd 07 cf f0 bc 42 c1 1a bd 18 61 c0 bc
       -0.1181419 -0.029395593 -0.03778196 -0.023483798
0002a0 bb c6 0f bd f8 1a bc 3d c4 22 36 3d d2 f8 88 3c
       -0.035101634 0.091848314 0.04446675 0.01672021
0002b0 0a da 92 bd 8a 12 a8 3b 35 9c dd 3b 0e 44 20 3d
       -0.07170494 0.005129163 0.006763006 0.039127402
0002c0 57 55 cc 3c 68 96 8d bd 81 4a 86 bc 8a e9 b6 bc
       0.024943037 -0.06913453 -0.016392948 -0.022328157
0002d0 e0 29 4f 3d c1 6e 09 bc 08 98 dd 3c ab a0 ee bd
       0.050577044 -0.008388222 0.027050033 -0.11651739
0002e0 3b b4 7f bc eb 97 19 bd 93 5d f1 bc ed b2 15 be
       -0.015606935 -0.037498396 -0.029463565 -0.14619036
0002f0 08 b5 00 3e fe 49 79 3c 7a 83 69 3d 64 db 58 3d
       0.12569058 0.015215395 0.05701015 0.052943602
000300 16 cd da bd 75 17 23 bb a9 cf bd 3d d9 38 c6 bd
       -0.10683648 -0.0024885808 0.09268124 -0.096788116
000310 61 c5 18 bb 5d 05 05 3a a2 98 d6 3c 28 69 32 3d
       -0.0023311006 0.00050743466 0.026195828 0.043557316

ntm.controller.lstm.weight_ih_l0 f4 [400, 110]
000000 ed 7f 80 be f1 03 17 3e 32 43 87 3d 40 4b 5d be
       -0.250976 0.14747597 0.06604613 -0.21610737
000010 77 96 a6 be dc 35 5a be 28 f4 d9 3d 8f 05 2e 3e
       -0.3253667 -0.21309608 0.10642272 0.16994308
000020 6c b4 88 be 85 70 b2 bd b1 44 25 be a1 57 4b 3d
       -0.2670015 -0.08712868 -0.16139485 0.049644116
000030 fa f9 7a 3e 08 12 de 3d 5b 47 2e 3d 53 bf 64 3e
       0.24509421 0.10843283 0.04254852 0.2233861
000040 7e d5 95 bd ca fa e6 3d ff 3f 7a 3e 6b de 6a be
       -0.07316111 0.11278303 0.24438475 -0.22936408
000050 c6 c4 64 3d cf 10 9b be 68 57 34 3d 84 01 af be
       0.05585172 -0.3028626 0.04402867 -0.34180844
000060 8e 04 4d 3d b2 50 1d be 09 18 14 be 23 db a9 be
       0.05005317 -0.15362814 -0.14462294 -0.33175
000070 7b 1d 7c be 5b ca 82 bc 05 59 80 3d 04 d9 8c be
       -0.24620621 -0.015965631 0.06266979 -0.2750932
000080 a1 93 8b 3d 68 c6 b0 3b 44 ff 42 3e f6 e3 68 bd
       0.06815267 0.0053947456 0.19042689 -0.056858025
000090 de a2 9f be c6 7b af 3e b5 2e 47 be b2 e3 3b 3e
       -0.31178945 0.3427412 -0.19451411 0.18348578
0000a0 ff 63 dd 3d d1 72 9b be 81 47 c5 3d fb 2f 3f 3d
       0.10810088 -0.30361035 0.09632779 0.046676617
0000b0 e8 d4 9b 3e c6 13 13 3e 68 99 73 3e 33 83 45 3e
       0.30435872 0.14363012 0.23788989 0.1928833
0000c0 69 a9 6a 3e 90 75 4f be 3a ff 9a bd 83 0a 02 3e
       0.22916187 -0.2025969 -0.07568212 0.12699322
0000d0 8d 1a a2 3e d1 1d 30 be 8a 82 a1 be fc ff dc bd
       0.31660882 -0.17198874 -0.31544906 -0.10791013
0000e0 a8 3c 1e bd 9b 9a 95 bc 3b 65 84 3e 01 68 64 be
       -0.038632065 -0.018262198 0.25858483 -0.223053
0000f0 13 c1 ba be 47 a6 4f bc ae 5e b4 bc 20 da 43 be
       -0.3647543 -0.012673921 -0.022017803 -0.19126177
000100 91 0b 5e be 31 f9 85 be c8 3d be 3d 8a 92 77 bd
       -0.216841 -0.2616668 0.092891276 -0.060442485
000110 53 ad 23 3e 91 ef 42 bd cc 0b 67 be 15 9d db 3d
       0.15984087 -0.04759175 -0.22563094 0.107233204
000120 c6 28 79 bc 6c 49 fa 3c 87 d3 72 be 93 b4 a2 3e
       -0.015207475 0.030552588 -0.23713504 0.31778392
000130 50 d1 27 3d 84 41 68 3d e1 84 3e 3e 84 fa 81 3e
       0.0409711 0.056703106 0.18605377 0.2538644
000140 1e 2a bd be 2d de af 3d 59 38 f4 bd fd 77 1b be
       -0.36946195 0.085872985 -0.1192481 -0.1518249
000150 24 29 be bd 41 16 5f 3e 6f 02 f4 3c 12 ea 3c be
       -0.09285191 0.21785833 0.029786317 -0.18448666
000160 aa a8 76 be 8a 5d b7 bc 5d 77 98 bc 74 82 9e 3e
       -0.24087778 -0.02238347 -0.018611604 0.30958903
000170 c7 8d 6d 3e 5b a0 cf 3c f9 3f 15 3e e9 0f 5a be
       0.23198615 0.025345018 0.14575185 -0.21295132
000180 2e 17 a0 bd 7a 28 75 3e d2 9e b4 3e bf 1e 9a 3d
       -0.07816921 0.23941222 0.3527742 0.075253956
000190 10 08 89 3c 03 c5 05 be 69 4b 21 be f2 3c 50 be
       0.016727477 -0.13063435 -0.15751423 -0.20335749
0001a0 1c 43 c6 bc 05 df 89 bd f6 5f c5 3d 1b d2 99 3e
       -0.024201922 -0.06731991 0.09637444 0.3004311
0001b0 55 c1 9f 3e 10 95 8d 3d bf 6d 66 be e1 ce 86 bc
       0.31202188 0.06913197 -0.22502802 -0.01645607
0001c0 14 74 53 be 95 a6 9a be eb 8f 44 3e c8 76 38 3d
       -0.20649749 -0.30205217 0.19195525 0.045035154
0001d0 3b 11 19 3e 51 04 45 3e 1d f7 a3 be a5 86 55 bd
       0.14947979 0.19239928 -0.3202447 -0.05213036
0001e0 97 34 28 3d 48 dd 91 3d 65 58 11 be 28 72 ba be
       0.04106578 0.07122284 -0.14193876 -0.3641522
0001f0 9f a6 a0 3e 4c 7a 4b 3e 7a 55 41 3e 46 45 58 be
       0.31377122 0.19870871 0.18880263 -0.21120176
000200 46 bf 09 3d a8 23 96 be d9 58 34 3e 59 9e 0e 3e
       0.03362968 -0.2932408 0.17612018 0.13927592
000210 1c ed 9b be 9a b5 0e 3c 68 67 9c be f3 91 5e 3d
       -0.30454338 0.008710289 -0.30547643 0.054338407
000220 1b e8 95 3e af ae 97 be 91 cf 1c bd a4 65 9a 3e
       0.29278645 -0.2962546 -0.03828389 0.3015567
000230 75 82 a1 3d d5 b1 17 3e 65 a9 81 be 84 af b8 be
       0.07886211 0.14813931 -0.2532455 -0.36071408
000240 5e 2b 61 be bf 7a c7 bc d5 90 56 be ba 19 9c 3e
       -0.219892 -0.024350522 -0.20953687 0.30488378
000250 5e 14 3a be 9f 31 a5 bc 86 78 a3 be ce 83 90 be
       -0.18171832 -0.020165263 -0.3192789 -0.2822556
000260 2b 8d 2e 3e 73 34 ac be 21 aa b0 3d 9b bd 7b 3e
       0.17046039 -0.33633766 0.086261995 0.24584047
000270 90 6e c7 3b bb d6 63 3e aa 97 12 be e7 34 ee 3d
       0.006086178 0.22249882 -0.14315668 0.11631184
000280 31 dc 3e be 79 88 7c bd ef d1 c0 bb 89 7a 9c 3d
       -0.18638684 -0.061653588 -0.005884401 0.07640559
000290 b3 a6 59 3e 13 48 90 3d 69 16 c7 3d a4 08 47 be
       0.21254997 0.07044997 0.09721071 -0.1943689
0002a0 f3 f8 cb bd 21 0a 17 3e d6 9b 86 be 7a d4 a6 3e
       -0.09959593 0.14749958 -0.26290768 0.32583982
0002b0 97 f9 8c 3e 03 23 e6 3d 11 41 03 be f9 e6 9f be
       0.27534172 0.11237147 -0.1281779 -0.31230906
0002c0 7a 08 99 3e 45 a3 75 be ac 72 38 be 87 00 01 be
       0.2988928 -0.23988064 -0.18012494 -0.12597857
0002d0 ec ce 61 3e 7b 80 74 3e 4e 7d 78 be a0 0c b9 be
       0.2205159 0.23877136 -0.2426655 -0.36142445
0002e0 03 ce 8c bc ad 51 5a be 58 df e6 3d 4f 43 a5 be
       -0.017188078 -0.2132022 0.11273068 -0.32277915
0002f0 af e5 41 bd e8 1f 08 bd 4d 31 6c be 06 7b a9 3e
       -0.047338184 -0.033233553 -0.23065682 0.33101672
000300 47 d8 c3 be a6 a7 b4 be 89 a5 4f be 90 09 dc 3d
       -0.38250944 -0.35284156 -0.2027799 0.107440114
000310 b3 7f d8 bd 70 63 98 3e 95 b9 c5 bd a9 5b f5 3d
       -0.10571232 0.29763365 -0.096545376 0.119803734
000320 ab 2d 0c be d3 56 ca 3c 1e 11 04 3d f3 eb b3 3d
       -0.13689296 0.024699604 0.032242887 0.08785238
000330 87 9b 99 3e f3 26 01 3e cc 9f 83 3c 02 f6 08 be
       0.3000147 0.12612514 0.016067408 -0.13375095
000340 72 95 53 be 9c 78 85 3e 4e 24 49 3e 07 18 13 3e
       -0.20662478 0.2606858 0.19642755 0.14364634
000350 c7 78 37 be 7b bf 40 3e 3f 04 0c 3d 31 49 dd bd
       -0.17917167 0.18823044 0.034183737 -0.10804976
000360 d4 53 37 bd 14 82 10 3e e1 5f 4b 3e 82 9e 96 3d
       -0.04475768 0.14112121 0.19860794 0.07354452
000370 69 e0 4b 3e ef 53 f2 bd 2b 0c 1c 3e 53 65 51 3d
       0.19909824 -0.11832415 0.15239017 0.05112202
000380 ec 25 9a 3d 41 90 fe 3d f5 61 83 bd d2 60 14 be
       0.07526764 0.12429858 -0.06415168 -0.14490059
000390 81 38 60 3d b7 11 93 3e d6 ec 86 3e 70 35 4f 3e
       0.054741386 0.28724453 0.26352566 0.20235229
0003a0 f6 8b 81 be 11 65 55 be a9 90 75 3e a5 2e 6a be
       -0.25302094 -0.20839335 0.23980965 -0.22869356
0003b0 97 be 8a be d4 11 62 3e e6 ea ce bd 40 10 b8 3c
       -0.27098534 0.22077113 -0.10103397 0.022468686
0003c0 b6 4e 8e 3d 8d a5 00 be d1 59 bc 3d dd 08 38 be
       0.06948607 -0.12563153 0.091968186 -0.17972131
0003d0 7c df 98 be a9 b1 d3 bd e8 10 5a be 3f a5 b5 bd
       -0.29858005 -0.1033662 -0.21295512 -0.08869409
0003e0 0b 05 3e 3d b3 82 24 bc d7 26 9c be fa 3e 30 bd
       0.046391528 -0.010040927 -0.30498382 -0.04302881
0003f0 1d 38 0a be f2 50 8b be c1 97 37 be 7d e9 86 bd
       -0.13497968 -0.27210194 -0.17928983 -0.06587503

ntm.controller.lstm.weight_hh_l0 f4 [400, 100]
000000 ae bf 8f be 16 6c fa 3c 04 80 5b be c4 13 89 3e
       -0.28075927 0.030569118 -0.21435553 0.26772892
000010 18 ba 7a 3e ee c2 3c 3e 24 20 7c be ac 69 9c bd
       0.24485052 0.18433735 -0.24621636 -0.07637343
000020 0c 28 42 be 08 57 63 3e ee 5e 85 be 22 6b 01 be
       -0.18960589 0.22201169 -0.26048988 -0.12638524
000030 5e 0b 74 3e f0 cb 4b be 99 0e 85 3e 38 52 a1 bc
       0.23832461 -0.19902015 0.259877 -0.019692525
000040 e4 40 9d bd 65 e5 dd bd 62 61 8e be c6 d5 1d be
       -0.076783925 -0.10834769 -0.27808672 -0.1541358
000050 1c 7e ef bd 14 f4 3d be 31 21 47 be 0f 7f c9 bc
       -0.11693975 -0.1855014 -0.19446255 -0.02459672
000060 71 cf b1 3e 80 d6 cc 3d 92 4c 88 3e 61 3f 97 3b
       0.34728578 0.1000185 0.2662092 0.0046157097
000070 8b 98 9b 3e 97 d2 c1 bd 59 f4 a6 bd 80 bb 88 3e
       0.3038982 -0.09463995 -0.08152074 0.2670555
000080 9b 34 a5 3d 6c c5 b5 bd 4f c2 25 3e 8f a5 3e 3e
       0.08066674 -0.08875546 0.16187404 0.18617843
000090 e5 77 15 3e 59 31 9d be f6 54 1e 3e f0 e1 a1 be
       0.14596517 -0.30701712 0.15462098 -0.3161769
0000a0 60 75 a3 3e 3e 6a 73 3e 55 41 64 be 5e 32 96 3e
       0.31925488 0.23770997 -0.22290547 0.29335302
0000b0 4c d3 72 3d 50 c5 a8 3e cc f2 93 be dd 9b 93 be
       0.05928354 0.32963037 -0.28896177 -0.28829852
0000c0 22 a6 e1 3d b3 6c 97 3e bc ea f6 3d 21 62 2f 3e
       0.110180154 0.29575118 0.12056491 0.17127277
0000d0 cf ca 93 3b 83 6e d0 bc d8 b2 2a be f2 b7 39 be
       0.0045102607 -0.025443321 -0.16669786 -0.18136576
0000e0 e8 ed ee 3d 41 4e 97 bd 25 46 fb bd bc 4a 30 3e
       0.11666471 -0.073879726 -0.122692384 0.17216009
0000f0 e3 12 80 bd 2d 26 2f be 55 ad 78 be 77 ee ad 3e
       -0.06253602 -0.17104407 -0.24284871 0.33970997
000100 62 4f 04 3e d4 11 1e be 18 0e 48 be c6 8b b7 3d
       0.12920907 -0.15436488 -0.19536626 0.089622065
000110 4b 68 95 3e f1 9f c6 be a6 1a 69 3d 5c f7 c8 3c
       0.29181132 -0.387939 0.05691018 0.024532013
000120 a8 8c 67 3e 74 b8 10 be 63 59 65 3e 7b 6b 3d 3c
       0.2261225 -0.14132863 0.2239738 0.01156127
000130 30 e3 af 3d db 1b a8 3e b9 3c 5b be 26 79 4c 3e
       0.085882545 0.32833752 -0.21409883 0.1996809
000140 73 c3 1a be 5e dc b5 be e9 48 ae 3e 58 40 72 3e
       -0.1511362 -0.3551969 0.3404 0.23657358
000150 aa ca 8f 3e fa 58 83 be 54 b9 9d be 5e a0 74 bd
       0.28084308 -0.2565382 -0.30805457 -0.05972325
000160 5c 30 df 3c e0 49 20 be 87 9c 2d 3e 4e 71 50 3e
       0.02724474 -0.15653181 0.16954242 0.20355722
000170 82 7f ad be 18 c1 12 3e 2f 88 f9 3d 06 9b 8d 3d
       -0.33886343 0.14331472 0.12184178 0.06914334
000180 ec 8a bd 3c 96 a9 c6 3d c5 a6 d3 3d cb 73 95 be
       0.023137532 0.09700315 0.10334543 -0.29189906
000190 90 40 a0 3e a0 10 16 be 09 e5 44 be 7f b1 05 be
       0.31299257 -0.1465478 -0.19227995 -0.1305599
0001a0 f5 90 0f be ff 62 38 3e 2c 07 68 bd 45 92 c7 3c
       -0.1402014 0.18006514 -0.056647465 0.024361739
0001b0 e0 d9 02 3e de e1 20 be db 7a 09 3e 9b 5b 1b 3e
       0.12778425 -0.15711161 0.13425772 0.15171663
0001c0 9d 75 a1 be 79 1c 2b 3e 75 94 60 be 05 0a 30 3e
       -0.31535044 0.1671008 -0.21931632 0.17191322
0001d0 39 b3 40 be 76 44 31 be d8 63 c5 bd 34 51 98 be
       -0.18818368 -0.17311272 -0.09638184 -0.29749453
0001e0 54 14 3c 3c 33 5f 02 be e7 fb 51 3d 61 b1 f2 3c
       0.011479456 -0.12731628 0.051265623 0.029625596
0001f0 46 13 7d 3e 8f 7e ae be 34 4f ab be 81 8f 5e be
       0.24714383 -0.34080932 -0.33458865 -0.2173443
000200 72 20 98 bd e1 39 5f 3e 94 ba 9e 3e 28 55 35 3e
       -0.074280635 0.21799423 0.31001723 0.17708266
000210 93 a6 ce 3e 2c 03 bd be 59 ef 92 3e 0c e9 3e 3e
       0.4036146 -0.36916482 0.28698233 0.18643588
000220 40 07 72 bc c8 cf 54 b9 b9 72 88 be 6a 05 48 bd
       -0.014772236 -0.000202953 -0.26650026 -0.04883329
000230 a7 a5 1e 3e cf c1 72 be aa 87 a3 3e 2f e4 73 3e
       0.15492879 -0.23706745 0.3193944 0.23817514
000240 72 df 0b be 40 a1 8e 3d 71 31 d8 bd aa fb d9 bd
       -0.13659456 0.0696435 -0.10556305 -0.10643704
000250 de 6b bb 3c 56 52 2d be 63 1e b3 3d 45 3e c5 bc
       0.022878584 -0.1692594 0.0874603 -0.024077544
000260 ef 12 17 3e 6d 91 f3 3c 5c 1e 14 be 1d ad 95 be
       0.14753316 0.02973243 -0.14464706 -0.29233637
000270 09 f4 7a 3e 01 e5 14 3e ad 0b 40 be 1b 08 22 3e
       0.24507155 0.14540483 -0.18754454 0.15823404
000280 48 13 45 3e 30 a6 ad 3d 8f 70 61 be 69 5f 57 be
       0.19245636 0.084789634 -0.22015594 -0.2103249
000290 5d 01 8e 3e 4e 33 56 3e 41 1f 3a be a0 c4 9b 3b
       0.27735415 0.20918009 -0.18175985 0.004753664
0002a0 9b a2 d7 3e bc f1 1f be d6 ac 91 be bc b1 7e 3e
       0.42116246 -0.15619558 -0.28452176 0.24872488
0002b0 79 93 1e be b1 9d 13 be a2 5d ab be 11 80 80 be
       -0.15485944 -0.14415623 -0.33469874 -0.25097707
0002c0 dc be 05 3d 5a 3d 39 3e 15 6a d4 3d b9 b1 50 bd
       0.03265272 0.1808981 0.10371796 -0.05095074
0002d0 ff 98 25 bd d6 16 82 3e 22 d7 b4 3d 85 43 4f 3e
       -0.04042911 0.25408047 0.08830096 0.202406
0002e0 a7 93 32 3d 50 fc a1 3e 76 be 0f 3d 66 d0 37 be
       0.043597843 0.31637812 0.035093747 -0.17950591
0002f0 25 50 c1 3d 50 46 7f 3e a1 a7 cc bd ed 9c 8b 3e
       0.094391145 0.24929166 -0.0999291 0.27268162
000300 89 fa 5c 3d bb 3e 72 3d 8c eb 0e 3d 3e 0a 66 3e
       0.053949866 0.059141856 0.034892604 0.22464845
000310 f4 4e 0c 3c db 16 b8 3e ce a9 5c 3e a8 b7 a7 3e
       0.008563746 0.35954937 0.2154915 0.32757306
000320 86 2f e0 bd 15 00 11 bd 9f cd 93 3e 6e 36 8c be
       -0.109465644 -0.03540047 0.28867814 -0.27385277
000330 2c 69 ae 3d b8 19 bd bd 81 e8 21 3e 16 86 85 3e
       0.08516154 -0.09233421 0.1581135 0.26078862
000340 15 d4 17 3d 77 92 2c 3e 18 54 e4 3b 4e 17 84 be
       0.03706749 0.16852747 0.0069680326 -0.2579903
000350 a9 40 42 be 8d ec 54 be 29 7b 09 be 7f e8 96 3e
       -0.18969978 -0.20793362 -0.13425888 0.29474255
000360 80 c5 df 3d a2 be 92 3e 87 fc 86 3e c1 20 99 be
       0.10926342 0.28661066 0.26364538 -0.29907802
000370 89 e2 42 be 5b 96 a5 3e 8b 85 10 be 69 1a ad be
       -0.19031729 0.32341275 -0.14113443 -0.33809212
000380 18 eb a9 be e6 ea 70 be 49 c0 48 3e bb c9 4a be
       -0.33187175 -0.23527107 0.19604601 -0.19803517
000390 d5 17 8e 3e ac 3c 4c 3d 2f 62 ab be 20 8f 7c be
       0.27752557 0.04986255 -0.33473346 -0.24663973
0003a0 d2 fa 8a 3e 8a 5a e6 bd 43 a3 a4 bc 73 5a 47 be
       0.27144486 -0.11247738 -0.02009738 -0.19468097
0003b0 8f 7c 3c be 77 f0 b3 3e ed 3e 8f 3e d0 28 95 3e
       -0.1840689 0.35144398 0.27977696 0.291327
0003c0 19 ae 6a 3e 00 68 66 3e 60 4c 77 3d 4e 0c bc 3c
       0.22917975 0.2250061 0.06037557 0.022955086
0003d0 2e 36 20 be 65 15 7c 3e f8 8c ba 3e 1e c1 ed 3c
       -0.15645668 0.24617536 0.36435676 0.02902275
0003e0 f2 42 13 3e a5 1e 62 be b1 ee 7d bd ca b7 db bd
       0.14381006 -0.22082002 -0.061995212 -0.10728414
0003f0 91 da 50 be 96 06 48 3e 0c e9 90 bd 89 11 77 3d
       -0.20395876 0.19533762 -0.070757 0.060319457

ntm.controller.lstm.bias_ih_l0 f4 [400]
000000 be a3 bb 3c d5 e4 9b bc bc 88 dc bb 91 85 cf 3b
       0.022905227 -0.019030014 -0.006730167 0.006333061
000010 3e 69 a4 bc 43 43 fe bc 37 e3 02 bc 81 dc 04 bd
       -0.020069715 -0.031037932 -0.007988743 -0.03243685
000020 ab 22 65 bc 6c 9a 68 bc 2b 44 82 bc 35 90 84 bd
       -0.013985316 -0.014196973 -0.015901646 -0.06472818
000030 51 95 68 3c fd 44 a3 bc ec c4 5c bd 57 10 d4 3c
       0.014195756 -0.019930357 -0.053898737 0.025886698
000040 d2 c0 12 3d 40 03 fe bc 8f be 1b bd d3 11 97 bd
       0.03582842 -0.03100741 -0.038023528 -0.073764466
000050 e5 a2 1f bd ca 2a ec bc e0 1d bc bc c8 58 31 bc
       -0.038973708 -0.028828997 -0.022963464 -0.01082439
000060 39 e0 26 3d 50 8a dd bc e4 91 15 bc cb fc 8c bc
       0.04074118 -0.027043492 -0.009129021 -0.017210385
000070 29 57 07 3c 8a b6 45 bd fd ac b4 3c b7 fa 3b bb
       0.008260527 -0.048269786 0.022055143 -0.0028683373
000080 00 cb 49 3c 81 12 22 bc 0a 24 a8 bc f7 99 42 bc
       0.012316465 -0.009892107 -0.020524997 -0.011877528
000090 e1 f2 c1 bc f7 37 1c bc 4a a6 77 bc cc 9a 8c bc
       -0.023675384 -0.009534827 -0.01511533 -0.017163657
0000a0 9c 7b 14 3b 0f 6d 17 3a 0b 4d 13 bd a8 d1 2d bd
       0.0022656685 0.0005776444 -0.035962146 -0.042436272
0000b0 5b 89 a2 3c 3d 77 31 ba cd 24 f5 bc c5 ee 8a 3b
       0.019840887 -0.0006769782 -0.029924775 0.0042398893
0000c0 3a 90 07 bd 22 d8 c2 3b 8b 55 04 bd d9 eb 03 bd
       -0.03309653 0.005946175 -0.032308143 -0.032207344
0000d0 c4 bb 3c bc d3 d2 a3 bc f3 88 b9 bc ca 83 84 bc
       -0.011519376 -0.01999799 -0.02264831 -0.016176123
0000e0 10 ba 98 bb f0 67 5e bc 32 c5 f0 bc 4c dd 8f 3c
       -0.0046608523 -0.013574585 -0.029390905 0.017561577
0000f0 93 f7 0b bc 86 26 a1 3c ce af ec ba 7a cd c6 bc
       -0.008542913 0.01967169 -0.0018057765 -0.0242679
000100 af 99 2d bb 92 e7 7a bc ba bd bf bc a9 7a 04 ba
       -0.0026489308 -0.015314 -0.023405898 -0.0005053678
000110 91 d6 44 bb 47 79 28 bd 7b 68 58 bd 36 af e8 bb
       -0.0030035118 -0.041131284 -0.052834015 -0.007100965
000120 85 ac 1e bd 34 91 fa bc 73 ab 7f bd 32 60 f3 bc
       -0.038738746 -0.030586816 -0.062419366 -0.029708955
000130 3f ae 74 bd 91 08 ff bc 92 21 97 bc d2 84 e5 bc
       -0.059736487 -0.031132014 -0.018448625 -0.028017435
000140 3b 44 1a bd 88 f2 2d bd 42 60 72 bd 37 3e 19 bc
       -0.037662726 -0.042467624 -0.05917383 -0.009353212
000150 ed c6 d0 bc 2a 4d 1d bd 35 24 f9 3b 3b 93 d9 3b
       -0.02548548 -0.038403668 0.007603193 0.0066398657
000160 30 c4 8e bc 25 70 1a 3d e5 9b 81 3c 4c 00 5a bc
       -0.017427534 0.037704606 0.015821407 -0.013305735
000170 6e 52 eb 3b 7f 3c 4d 3c 56 71 9b bc 47 96 c1 bc
       0.0071814572 0.01252663 -0.018974941 -0.023631228
000180 c5 ad e0 3a d0 e2 df bc 3d 51 04 bd 90 0d 1c 3d
       0.0017141631 -0.027329832 -0.032304037 0.03809887
000190 09 c5 91 3c 52 4c 20 3d 32 3c 1f 3c cc d6 dd 3b
       0.017794149 0.039135285 0.0097189415 0.0067699905
0001a0 03 72 ac bc 50 b2 b9 3c 6b d0 30 3c 57 17 8a bc
       -0.021050459 0.022668034 0.010791878 -0.016856832
0001b0 f6 7c 14 3d ba ea fa bc 8c 1f ce 3a 40 32 31 bc
       0.036251985 -0.030629504 0.0015725954 -0.010815203
0001c0 81 71 a4 bb cb 13 37 bc 4a d3 fc bb b6 b3 60 3d
       -0.0050184135 -0.011174153 -0.0077156173 0.054858886
0001d0 f4 7b 6a 3c 95 39 8d bc 20 60 9e b8 6e 63 11 bd
       0.014311779 -0.017239371 -7.551932e-05 -0.035495214
0001e0 d6 00 cf bc 7c 0f 0a bd db 38 49 3d 48 98 d3 bb
       -0.025268953 -0.033706173 0.049126487 -0.0064573623
0001f0 7c b0 80 3d f4 59 a2 3c 4a f0 b7 3c 59 fa 42 3a
       0.06283662 0.019818284 0.022453446 0.00074378174
000200 7c 08 b1 3a 53 33 0c bd 3b 23 1a 3d 55 d1 7c 3b
       0.0013506557 -0.034228634 0.037631255 0.003857692
000210 64 db c9 3a 86 f0 14 bc e6 f7 9f 3b 39 97 18 bc
       0.0015400467 -0.009090548 0.0048818467 -0.009313398
000220 88 8b be bc 05 bc bf bb 4d 42 1c bb 7f b1 3b bc
       -0.023259893 -0.005851271 -0.002384323 -0.011455893
000230 7a c2 c9 3c 90 83 21 3d 9e a0 79 bc 6f 66 4a bd
       0.024628866 0.03943211 -0.015236048 -0.049414095
000240 c3 53 5f 3d 8f 86 c1 3b e0 c3 88 bc 75 fe c6 3c
       0.05452324 0.005905933 -0.016694963 0.024291256
000250 55 1f 66 bc 5e 72 a2 3c b9 30 36 bc ad 11 77 bc
       -0.014045556 0.019829925 -0.011120015 -0.015079898
000260 d3 6d b0 3c 37 91 b4 bc 72 5b 24 3d 5c 62 46 3c
       0.021536743 -0.0220419 0.04012627 0.012108412
000270 7c 4c 6e bb dc 6e 82 bc d8 01 89 bc ea 4a 44 3c
       -0.0036361506 -0.015922002 -0.016724512 0.0119807515
000280 7d 71 0f 3c b7 6f e4 3c d3 52 bf 3b f2 ef 27 3c
       0.008755085 0.027885301 0.005838731 0.0102500785
000290 2a 61 06 3d bd 64 dc 3c c0 ce 47 3c 73 c4 79 3d
       0.032807507 0.026903505 0.012195289 0.060978364
0002a0 5e 9d 37 3d 95 8a 97 bc d6 92 03 bd 53 b6 00 3c
       0.04482781 -0.018498698 -0.032122456 0.0078559695
0002b0 bd d7 25 bd b7 dd fa 3c 29 78 8a bd 75 b3 b5 bc
       -0.040488947 0.0306233 -0.067612 -0.022180298
0002c0 16 23 f9 bc b1 00 8c bc ca dc 6e bc b4 5b 06 3d
       -0.030412238 -0.017090173 -0.014579007 0.0328023
0002d0 f2 ae d7 bc 99 e4 40 bd 0b f3 93 bd 90 e3 6e bc
       -0.026328538 -0.047093008 -0.07224091 -0.014580622
0002e0 b1 fd b8 bc ca 35 32 bd f0 73 48 3c 96 21 e8 3c
       -0.022581907 -0.04350833 0.012234673 0.028336328
0002f0 92 6e 9a 3b cf 2f 56 3d cd 25 f1 3c 9b 1f d9 ba
       0.004712888 0.052291688 0.02943697 -0.0016565205
000300 dc f3 1c bb ed fe 02 3c 90 e3 4c bc 4a d7 a9 3b
       -0.0023949062 0.007995349 -0.012505427 0.005183135
000310 7a a1 55 bb c4 06 5c bc 69 26 05 3d ac 6e f0 3c
       -0.0032597468 -0.013429347 0.032507334 0.029349647
000320 a7 c7 16 3d 4f b3 00 bc 54 2c 5e 3c 75 5f 37 3c
       0.036811497 -0.0078552505 0.013560373 0.011192192
000330 33 05 df bc e2 11 3f bb 71 89 95 ba b9 31 6d bc
       -0.027224159 -0.0029154946 -0.0011408759 -0.014477187
000340 b7 58 89 bb fb b3 f9 bc 5e fc 14 3d 0f 2a 76 3b
       -0.004191484 -0.03048133 0.03637349 0.003756169
000350 e6 bf 5a 3c 7f f5 52 bc bf 7e 18 3c 97 23 d6 bc
       0.013351416 -0.012875914 0.009307562 -0.026140017
000360 ac a7 f9 bb 77 e7 b7 ba 3d 5b ee 3b e8 cf 55 bc
       -0.007618865 -0.0014030774 0.00727406 -0.013050057
000370 cc e6 44 3d c3 cb 19 bd f8 7c 75 3c b4 f5 a9 3a
       0.048071668 -0.037547838 0.014983408 0.0012966902
000380 04 31 04 3c cf 21 52 3b b3 47 ad 3c 16 b6 a8 3b
       0.008068327 0.0032063609 0.021152353 0.0051486595
000390 b4 de 60 bd 66 69 d0 bc cd cc ae 38 bd 78 d1 3c
       -0.054899886 -0.025440883 8.335114e-05 0.025570268
0003a0 96 77 56 bc c8 4b 51 3b 4b be dd 3c 9b 76 e2 bc
       -0.013090035 0.0031936038 0.027068278 -0.027644446
0003b0 f6 16 f0 bb 9d a7 37 bc 67 cd dc bc 46 6b 25 bd
       -0.007326956 -0.011209396 -0.026953412 -0.040385507
0003c0 d0 5a d7 bc e7 d1 ac bc d3 7a cd bc d8 d8 e7 bb
       -0.02628842 -0.021096183 -0.025082981 -0.0070754103
0003d0 77 c1 98 3b 7a 18 11 3d 29 22 30 3d da e2 50 bd
       0.0046617347 0.035423733 0.043001328 -0.050997593
0003e0 09 5d 5a 3d 60 65 31 3b 9f 1e f7 bc e7 5c 09 bc
       0.05331138 0.002706848 -0.030165968 -0.008383966
0003f0 64 7e ce 3c 4a 7a 33 3c 1d 8d 77 bc ee 9f a9 3c
       0.025206752 0.010954449 -0.015109328 0.020706143

ntm.controller.lstm.bias_hh_l0 f4 [400]
000000 be a3 bb 3c d5 e4 9b bc bc 88 dc bb 91 85 cf 3b
       0.022905227 -0.019030014 -0.006730167 0.006333061
000010 3e 69 a4 bc 43 43 fe bc 37 e3 02 bc 81 dc 04 bd
       -0.020069715 -0.031037932 -0.007988743 -0.03243685
000020 ab 22 65 bc 6c 9a 68 bc 2b 44 82 bc 35 90 84 bd
       -0.013985316 -0.014196973 -0.015901646 -0.06472818
000030 51 95 68 3c fd 44 a3 bc ec c4 5c bd 57 10 d4 3c
       0.014195756 -0.019930357 -0.053898737 0.025886698
000040 d2 c0 12 3d 40 03 fe bc 8f be 1b bd d3 11 97 bd
       0.03582842 -0.03100741 -0.038023528 -0.073764466
000050 e5 a2 1f bd ca 2a ec bc e0 1d bc bc c8 58 31 bc
       -0.038973708 -0.028828997 -0.022963464 -0.01082439
000060 39 e0 26 3d 50 8a dd bc e4 91 15 bc cb fc 8c bc
       0.04074118 -0.027043492 -0.009129021 -0.017210385
000070 29 57 07 3c 8a b6 45 bd fd ac b4 3c b7 fa 3b bb
       0.008260527 -0.048269786 0.022055143 -0.0028683373
000080 00 cb 49 3c 81 12 22 bc 0a 24 a8 bc f7 99 42 bc
       0.012316465 -0.009892107 -0.020524997 -0.011877528
000090 e1 f2 c1 bc f7 37 1c bc 4a a6 77 bc cc 9a 8c bc
       -0.023675384 -0.009534827 -0.01511533 -0.017163657
0000a0 9c 7b 14 3b 0f 6d 17 3a 0b 4d 13 bd a8 d1 2d bd
       0.0022656685 0.0005776444 -0.035962146 -0.042436272
0000b0 5b 89 a2 3c 3d 77 31 ba cd 24 f5 bc c5 ee 8a 3b
       0.019840887 -0.0006769782 -0.029924775 0.0042398893
0000c0 3a 90 07 bd 22 d8 c2 3b 8b 55 04 bd d9 eb 03 bd
       -0.03309653 0.005946175 -0.032308143 -0.032207344
0000d0 c4 bb 3c bc d3 d2 a3 bc f3 88 b9 bc ca 83 84 bc
       -0.011519376 -0.01999799 -0.02264831 -0.016176123
0000e0 10 ba 98 bb f0 67 5e bc 32 c5 f0 bc 4c dd 8f 3c
       -0.0046608523 -0.013574585 -0.029390905 0.017561577
0000f0 93 f7 0b bc 86 26 a1 3c ce af ec ba 7a cd c6 bc
       -0.008542913 0.01967169 -0.0018057765 -0.0242679
000100 af 99 2d bb 92 e7 7a bc ba bd bf bc a9 7a 04 ba
       -0.0026489308 -0.015314 -0.023405898 -0.0005053678
000110 91 d6 44 bb 47 79 28 bd 7b 68 58 bd 36 af e8 bb
       -0.0030035118 -0.041131284 -0.052834015 -0.007100965
000120 85 ac 1e bd 34 91 fa bc 73 ab 7f bd 32 60 f3 bc
       -0.038738746 -0.030586816 -0.062419366 -0.029708955
000130 3f ae 74 bd 91 08 ff bc 92 21 97 bc d2 84 e5 bc
       -0.059736487 -0.031132014 -0.018448625 -0.028017435
000140 3b 44 1a bd 88 f2 2d bd 42 60 72 bd 37 3e 19 bc
       -0.037662726 -0.042467624 -0.05917383 -0.009353212
000150 ed c6 d0 bc 2a 4d 1d bd 35 24 f9 3b 3b 93 d9 3b
       -0.02548548 -0.038403668 0.007603193 0.0066398657
000160 30 c4 8e bc 25 70 1a 3d e5 9b 81 3c 4c 00 5a bc
       -0.017427534 0.037704606 0.015821407 -0.013305735
000170 6e 52 eb 3b 7f 3c 4d 3c 56 71 9b bc 47 96 c1 bc
       0.0071814572 0.01252663 -0.018974941 -0.023631228
000180 c5 ad e0 3a d0 e2 df bc 3d 51 04 bd 90 0d 1c 3d
       0.0017141631 -0.027329832 -0.032304037 0.03809887
000190 09 c5 91 3c 52 4c 20 3d 32 3c 1f 3c cc d6 dd 3b
       0.017794149 0.039135285 0.0097189415 0.0067699905
0001a0 03 72 ac bc 50 b2 b9 3c 6b d0 30 3c 57 17 8a bc
       -0.021050459 0.022668034 0.010791878 -0.016856832
0001b0 f6 7c 14 3d ba ea fa bc 8c 1f ce 3a 40 32 31 bc
       0.036251985 -0.030629504 0.0015725954 -0.010815203
0001c0 81 71 a4 bb cb 13 37 bc 4a d3 fc bb b6 b3 60 3d
       -0.0050184135 -0.011174153 -0.0077156173 0.054858886
0001d0 f4 7b 6a 3c 95 39 8d bc 20 60 9e b8 6e 63 11 bd
       0.014311779 -0.017239371 -7.551932e-05 -0.035495214
0001e0 d6 00 cf bc 7c 0f 0a bd db 38 49 3d 48 98 d3 bb
       -0.025268953 -0.033706173 0.049126487 -0.0064573623
0001f0 7c b0 80 3d f4 59 a2 3c 4a f0 b7 3c 59 fa 42 3a
       0.06283662 0.019818284 0.022453446 0.00074378174
000200 7c 08 b1 3a 53 33 0c bd 3b 23 1a 3d 55 d1 7c 3b
       0.0013506557 -0.034228634 0.037631255 0.003857692
000210 64 db c9 3a 86 f0 14 bc e6 f7 9f 3b 39 97 18 bc
       0.0015400467 -0.009090548 0.0048818467 -0.009313398
000220 88 8b be bc 05 bc bf bb 4d 42 1c bb 7f b1 3b bc
       -0.023259893 -0.005851271 -0.002384323 -0.011455893
000230 7a c2 c9 3c 90 83 21 3d 9e a0 79 bc 6f 66 4a bd
       0.024628866 0.03943211 -0.015236048 -0.049414095
000240 c3 53 5f 3d 8f 86 c1 3b e0 c3 88 bc 75 fe c6 3c
       0.05452324 0.005905933 -0.016694963 0.024291256
000250 55 1f 66 bc 5e 72 a2 3c b9 30 36 bc ad 11 77 bc
       -0.014045556 0.019829925 -0.011120015 -0.015079898
000260 d3 6d b0 3c 37 91 b4 bc 72 5b 24 3d 5c 62 46 3c
       0.021536743 -0.0220419 0.04012627 0.012108412
000270 7c 4c 6e bb dc 6e 82 bc d8 01 89 bc ea 4a 44 3c
       -0.0036361506 -0.015922002 -0.016724512 0.0119807515
000280 7d 71 0f 3c b7 6f e4 3c d3 52 bf 3b f2 ef 27 3c
       0.008755085 0.027885301 0.005838731 0.0102500785
000290 2a 61 06 3d bd 64 dc 3c c0 ce 47 3c 73 c4 79 3d
       0.032807507 0.026903505 0.012195289 0.060978364
0002a0 5e 9d 37 3d 95 8a 97 bc d6 92 03 bd 53 b6 00 3c
       0.04482781 -0.018498698 -0.032122456 0.0078559695
0002b0 bd d7 25 bd b7 dd fa 3c 29 78 8a bd 75 b3 b5 bc
       -0.040488947 0.0306233 -0.067612 -0.022180298
0002c0 16 23 f9 bc b1 00 8c bc ca dc 6e bc b4 5b 06 3d
       -0.030412238 -0.017090173 -0.014579007 0.0328023
0002d0 f2 ae d7 bc 99 e4 40 bd 0b f3 93 bd 90 e3 6e bc
       -0.026328538 -0.047093008 -0.07224091 -0.014580622
0002e0 b1 fd b8 bc ca 35 32 bd f0 73 48 3c 96 21 e8 3c
       -0.022581907 -0.04350833 0.012234673 0.028336328
0002f0 92 6e 9a 3b cf 2f 56 3d cd 25 f1 3c 9b 1f d9 ba
       0.004712888 0.052291688 0.02943697 -0.0016565205
000300 dc f3 1c bb ed fe 02 3c 90 e3 4c bc 4a d7 a9 3b
       -0.0023949062 0.007995349 -0.012505427 0.005183135
000310 7a a1 55 bb c4 06 5c bc 69 26 05 3d ac 6e f0 3c
       -0.0032597468 -0.013429347 0.032507334 0.029349647
000320 a7 c7 16 3d 4f b3 00 bc 54 2c 5e 3c 75 5f 37 3c
       0.036811497 -0.0078552505 0.013560373 0.011192192
000330 33 05 df bc e2 11 3f bb 71 89 95 ba b9 31 6d bc
       -0.027224159 -0.0029154946 -0.0011408759 -0.014477187
000340 b7 58 89 bb fb b3 f9 bc 5e fc 14 3d 0f 2a 76 3b
       -0.004191484 -0.03048133 0.03637349 0.003756169
000350 e6 bf 5a 3c 7f f5 52 bc bf 7e 18 3c 97 23 d6 bc
       0.013351416 -0.012875914 0.009307562 -0.026140017
000360 ac a7 f9 bb 77 e7 b7 ba 3d 5b ee 3b e8 cf 55 bc
       -0.007618865 -0.0014030774 0.00727406 -0.013050057
000370 cc e6 44 3d c3 cb 19 bd f8 7c 75 3c b4 f5 a9 3a
       0.048071668 -0.037547838 0.014983408 0.0012966902
000380 04 31 04 3c cf 21 52 3b b3 47 ad 3c 16 b6 a8 3b
       0.008068327 0.0032063609 0.021152353 0.0051486595
000390 b4 de 60 bd 66 69 d0 bc cd cc ae 38 bd 78 d1 3c
       -0.054899886 -0.025440883 8.335114e-05 0.025570268
0003a0 96 77 56 bc c8 4b 51 3b 4b be dd 3c 9b 76 e2 bc
       -0.013090035 0.0031936038 0.027068278 -0.027644446
0003b0 f6 16 f0 bb 9d a7 37 bc 67 cd dc bc 46 6b 25 bd
       -0.007326956 -0.011209396 -0.026953412 -0.040385507
0003c0 d0 5a d7 bc e7 d1 ac bc d3 7a cd bc d8 d8 e7 bb
       -0.02628842 -0.021096183 -0.025082981 -0.0070754103
0003d0 77 c1 98 3b 7a 18 11 3d 29 22 30 3d da e2 50 bd
       0.0046617347 0.035423733 0.043001328 -0.050997593
0003e0 09 5d 5a 3d 60 65 31 3b 9f 1e f7 bc e7 5c 09 bc
       0.05331138 0.002706848 -0.030165968 -0.008383966
0003f0 64 7e ce 3c 4a 7a 33 3c 1d 8d 77 bc ee 9f a9 3c
       0.025206752 0.010954449 -0.015109328 0.020706143

ntm.controller.lstm.weight_ih_l1 f4 [400, 100]
000000 33 96 8e be ad ad 55 3e 18 53 50 be 44 0d 47 be
       -0.27848968 0.20867033 -0.20344198 -0.19438654
000010 3e 37 0a 3d 43 bf d5 3d 53 79 7b bd 12 e5 86 be
       0.03374409 0.10436871 -0.061395 -0.26346642
000020 4e 53 86 3c d8 ca 96 be 61 46 73 3e 6d 4d 9b 3e
       0.016397145 -0.29451632 0.23757316 0.3033251
000030 c9 80 3d 3e e0 b9 d5 bd 67 04 c1 bc 99 5a 7c bd
       0.18506159 -0.104358435 -0.02356167 -0.06160984
000040 9b 73 38 bd ca 07 3b 3d 67 be b8 3c d8 25 80 bd
       -0.045032125 0.045661725 0.022551728 -0.06257218
000050 99 64 c7 bb 5a 03 27 be cb e8 d0 bd 92 ea 73 be
       -0.00608499 -0.16309872 -0.10200652 -0.2381995
000060 dc 03 83 3c 67 8a 63 be ff d9 4b be ce 9c f0 bd
       0.015993051 -0.22220765 -0.19907378 -0.11748658
000070 03 72 fe 3d ff a9 b1 3e ce d1 22 be 46 fd a9 be
       0.1242409 0.3470001 -0.15900347 -0.33201045
000080 bf 6a 9a 3e 6b 18 62 3e 75 19 3e 3e 5e e1 ab be
       0.30159566 0.22079627 0.18564399 -0.3357038
000090 56 df 77 3d d8 5a 1f be 24 d9 a4 3e 46 36 f6 3d
       0.060515724 -0.15561998 0.32196915 0.120220706
0000a0 39 4c 7a be 38 45 88 3e ab a6 aa be 27 4a 56 be
       -0.24443139 0.2661531 -0.33330283 -0.20926724
0000b0 f6 35 04 be a4 07 76 be 92 9a 9f 3d d9 15 03 be
       -0.1291121 -0.24026352 0.07793154 -0.12801303
0000c0 7e b1 cb bc 8a bd 85 bc c1 8e 67 3e 29 c0 b7 be
       -0.024864908 -0.01632573 0.2261305 -0.35888794
0000d0 d3 b5 f9 3c 25 41 49 be e7 d4 34 be 7c 61 ba 3e
       0.030482208 -0.19653757 -0.17659341 0.364025
0000e0 de 22 88 3e c4 13 85 3d 73 af 08 be e6 ba 5b bd
       0.26589102 0.064979106 -0.13348179 -0.053645037
0000f0 91 64 83 3d 1b b4 5e be bb f6 ca 3d fd 88 98 be
       0.06415666 -0.21748392 0.09910341 -0.29792014
000100 0a 67 03 3e fd dd e1 3c c8 4f ae be 8c 41 8b 3e
       0.12832275 0.027571673 -0.34045243 0.27198446
000110 78 3f a7 bd 72 37 53 3e 7f 0b 2e 3e 60 95 a2 3e
       -0.081664026 0.2062662 0.16996573 0.3175459
000120 92 cb 93 be ec fd 33 3e f0 42 d0 bb 0a ab 9d bb
       -0.2886625 0.17577332 -0.006355636 -0.004811649
000130 e7 22 31 3e 0d e2 63 3e ae 0a 6a 3e 69 f2 29 3d
       0.1729847 0.222542 0.22855636 0.041490946
000140 06 29 aa 3e 0c f1 86 be 69 8f 4b 3d c6 05 33 be
       0.33234423 -0.2635578 0.049697313 -0.17482671
000150 f5 b2 67 3e 46 f2 1c be 31 aa bb 3d fe fb 87 bd
       0.2262686 -0.15326795 0.09163321 -0.066398606
000160 7e 68 9b 3e c5 0b 4f 3e af 49 4b be d4 28 c5 3e
       0.3035316 0.20219333 -0.19852327 0.38507712
000170 55 dc 7a 3e c6 ee 71 3e 1b 86 90 3e 26 08 d4 bd
       0.24498112 0.23626241 0.28227314 -0.10353117
000180 de 6d e3 3d 44 9a 85 3e 2b 92 59 3e 5d 63 83 3e
       0.1110494 0.26094258 0.21247165 0.25661746
000190 ad 19 9e be 2e dd 7d 3e c1 e9 22 be b6 42 51 3e
       -0.30878964 0.24791405 -0.15909483 0.20435604
0001a0 f1 89 e1 bd 8a 3a 06 3e 49 66 b0 3e 1d e3 84 be
       -0.11012638 0.13108268 0.34453037 -0.25954524
0001b0 0f 22 a7 3e b6 d2 91 3e 3f 07 b9 3d 7b d8 d6 bb
       0.32643172 0.28481072 0.09034585 -0.006556568
0001c0 b6 42 81 3e 8b 1e 75 bd 75 38 25 3e 37 c9 56 3e
       0.2524621 -0.05984358 0.16134818 0.20975195
0001d0 9a 2f 3c bd a8 cd 99 3e 44 bf 81 bd 3e 45 fb bc
       -0.045943834 0.30039716 -0.06335309 -0.030672666
0001e0 5f 38 83 3e ea 6c 30 be 88 4d 89 3e 48 a2 8c be
       0.25628945 -0.17229047 0.26816964 -0.2746756
0001f0 2a ae d4 3d 43 d8 e5 3d ed b6 5f bd 28 fe 25 3e
       0.10384782 0.11222889 -0.05461781 0.16210234
000200 c1 cf 8e be 8f e5 07 3d be 29 85 be 19 1b b6 be
       -0.2789288 0.03317791 -0.2600841 -0.3556755
000210 03 8e 92 be b6 62 df bd 10 e3 9e be 67 b4 70 be
       -0.2862397 -0.109074995 -0.3103261 -0.23506318
000220 b9 00 92 be b6 22 ba bb bb 7a 4c be 7d 07 2e 3e
       -0.28516176 -0.0056804074 -0.19968693 0.16995044
000230 9e 4e 1f be 11 ef 4f 3d b8 8d 4b be e1 41 ab 3e
       -0.15557334 0.0507651 -0.1987828 0.334487
000240 1e 29 b0 bb 36 04 1b 3e 5c 50 84 be d7 62 54 3c
       -0.0053759953 0.15138325 -0.2584256 0.012963018
000250 fc df 0e be f0 f2 f8 3d cb f1 37 be 57 99 d8 3d
       -0.13952631 0.12155712 -0.1796333 0.10576122
000260 99 e9 81 3e 6e b2 8f 3e 1c 36 8e be 86 49 e5 3d
       0.25373533 0.2806582 -0.27775657 0.11195664
000270 c0 19 7e 3e b6 27 6a 3e 19 e2 42 be 3e 1a c7 3d
       0.2481451 0.22866711 -0.19031562 0.09721802
000280 e1 98 0d bd 9a 51 c3 3d 9c a2 22 be 97 46 e9 3d
       -0.034569625 0.09537049 -0.15882343 0.11390417
000290 8d f3 11 be d9 01 67 be cb 3f c4 be 1e 8c 2c 3e
       -0.14253063 -0.22559299 -0.3832992 0.16850325
0002a0 bb aa 8f be 6e 18 52 3e 49 53 a1 bd e8 8d 83 3e
       -0.28059945 0.20517132 -0.078772135 0.25694203
0002b0 4e ce 1d 3e bc 22 81 be 96 bb ac be 13 30 a1 3e
       0.1541073 -0.25221813 -0.33736867 0.3148199
0002c0 39 a8 67 3e 31 87 af be 24 8b 8b be 64 d4 80 3e
       0.22622766 -0.3428283 -0.27254593 0.2516204
0002d0 6c 9f a6 bd 34 9b db 3d 5c cb ae 3e bb 25 86 bd
       -0.08135876 0.10722962 0.34139526 -0.06550165
0002e0 75 a1 98 3d 5f 71 94 3e 9b 1a 58 be 5a 2f e5 3c
       0.074526705 0.28992745 -0.21103899 0.02797668
0002f0 b2 4e a6 be 74 30 9f be 49 d3 bf bd 12 b3 0f be
       -0.32481915 -0.31091654 -0.09366471 -0.14033154
000300 d5 1f 36 bd 56 cb 73 3e 9f 90 a0 3b f4 96 2b be
       -0.04446395 0.23808035 0.0049000527 -0.16756803
000310 e5 da 40 be a6 4d 9f be 96 39 81 bd 33 b4 28 3d
       -0.18833502 -0.3111393 -0.06309812 0.041187476
000320 67 59 57 be 04 e2 80 be 35 4d 78 3d 7d 11 57 3d
       -0.21030198 -0.25172436 0.060620505 0.052506912
000330 3d dc 8d be d0 63 87 3e e4 12 20 be 77 ab 49 bd
       -0.2770709 0.26443338 -0.15632206 -0.049235787
000340 b9 ae 20 be b6 5b 40 3e 81 80 58 be 2c ed 7e 3e
       -0.15691651 0.18784985 -0.2114277 0.24895161
000350 d6 9f 10 3e e2 e3 02 3c a4 e9 b4 be 2a 47 96 be
       0.14123473 0.007988902 -0.35334504 -0.2935117
000360 30 b8 aa 3e 73 67 59 3d d7 f3 6c 3e e5 3c 94 be
       0.3334365 0.053077172 0.23139893 -0.2895271
000370 4b ad eb 3d c2 e3 1c bd 54 79 25 3e e5 d9 57 3d
       0.115076624 -0.038303144 0.16159564 0.052698035
000380 4c bd 17 3e 97 06 75 3e 7a 81 89 be cf 23 8e 3e
       0.14818305 0.23928295 -0.26856595 0.27761695
000390 6a f8 43 bc 58 2e 12 bd 22 e0 8f be 00 36 92 be
       -0.011961082 -0.035688728 -0.28100687 -0.28556824
0003a0 6e 62 d1 bd d6 f2 a8 3e a1 d8 08 be dd 4b 6d 3e
       -0.10223852 0.3299777 -0.13363887 0.23173471
0003b0 da d7 9f 3d 5e 93 3c be a8 2b a2 3e 30 28 06 3e
       0.07804842 -0.18415591 0.31673932 0.13101268
0003c0 93 80 a8 be db 74 8b be 4b 10 56 3e dc d0 6e be
       -0.32910594 -0.2723759 0.20904653 -0.23321861
0003d0 c9 c9 66 be 91 f7 56 3c 30 63 8c be 16 e0 9a 3e
       -0.22537912 0.013120548 -0.27419424 0.3024909
0003e0 13 3f 75 3e 08 ef 2e 3e 01 3a a1 be a0 91 5e 3e
       0.23949842 0.1708337 -0.31489566 0.21735239
0003f0 86 0f 6c be c6 15 a3 bd 9b ff bd bd d6 72 ae be
       -0.23052797 -0.07963137 -0.092772685 -0.34071988
