results/priority-sort/priority-sort-task-1-batch-50000.model (torch_old, 876115 bytes, 49 tensors)

ntm.read0_bias f4 [1, 20]
000000 d3 d4 0b 3c 26 33 0a 3c 0d 66 07 bc 89 8c 3e 39
       0.008534628 0.008435046 -0.008264077 0.00018172165
000010 18 12 99 3b 83 6f 18 3c dd 0b 19 3b bd f5 35 3c
       0.0046713464 0.00930393 0.0023353018 0.011105952
000020 4d c3 c8 3b 41 e3 3a bc 7e 4e a9 ba f7 b1 ef ba
       0.0061267973 -0.011406721 -0.0012917069 -0.0018287291
000030 87 a4 d5 bc f7 f7 3f 3b 98 dc 8b 3c eb 0f 77 bc
       -0.02607943 0.0029292086 0.01707296 -0.015079479
000040 2d 3b 1a bc 44 c2 45 3b e9 ba 21 3c dc 91 b0 3a
       -0.009413523 0.0030175606 0.009871223 0.0013471204

ntm.read1_bias f4 [1, 20]
000000 26 7f f3 3b 16 22 21 bb eb 81 c9 3b 06 05 d1 3b
       0.0074309288 -0.0024586967 0.0061495206 0.0063787727
000010 07 69 5e 3b 59 80 a8 3b af 91 49 bb cb 9c f5 ba
       0.0033937113 0.0051422534 -0.0030757 -0.0018738745
000020 34 1a d5 ba 10 0a a6 ba 38 2b 9c 3c dd 00 36 3c
       -0.001625842 -0.0012667794 0.019063577 0.011108604
000030 cc c1 94 bb 4a 2c 23 bc fe e3 20 39 97 bd db bb
       -0.004539704 -0.00995929 0.00015343723 -0.0067059505
000040 d4 87 11 3b e4 78 0e 3c b7 70 1b bc ea 51 78 bb
       0.0022206204 0.008695815 -0.0094873225 -0.0037890621

ntm.read2_bias f4 [1, 20]
000000 5d ed 09 3c fb 63 b1 bc 34 97 d6 3c b3 e7 72 bc
       0.008418408 -0.02165412 0.026195146 -0.014825749
000010 83 36 e9 3b 8a e3 68 3b b0 e4 b0 3b 87 3d 34 3b
       0.007117094 0.0035536014 0.0053983554 0.0027502493
000020 14 97 25 bc 5b 63 23 bc 20 3e 24 3c ff 13 88 ba
       -0.010106821 -0.009972419 0.010024577 -0.0010381936
000030 92 03 64 bb 58 3d 7b 3b 6a 02 dc ba ab 40 67 3b
       -0.0034792167 0.0038336124 -0.0016785387 0.0035286348
000040 55 61 85 3c 46 3c 81 bc ed b1 95 3c 13 a6 32 bc
       0.016281763 -0.01577581 0.018273318 -0.010903853

ntm.read3_bias f4 [1, 20]
000000 e8 fc 10 bc 3e bf 0a 3b a0 79 22 bc e8 8e 9d 3b
       -0.00884936 0.0021171118 -0.009916693 0.0048082955
000010 db 03 d4 39 a6 a9 64 3b ed 59 b9 3c d3 a3 4e bc
       0.00040438664 0.0034891157 0.022625888 -0.012612301
000020 4b 5c d1 3a 9a 11 0c ba a5 f1 3c 3c 15 65 d3 3b
       0.001597294 -0.0005343199 0.011532222 0.006451259
000030 70 e9 57 ba f9 7e 82 3b 8e 46 c2 3b 61 60 06 bc
       -0.0008236384 0.0039824215 0.005928821 -0.008201689
000040 95 82 6b bc 40 a2 40 bb 90 8b 13 bc 19 48 90 3c
       -0.014374395 -0.0029393584 -0.009005442 0.017612504

ntm.read4_bias f4 [1, 20]
000000 b4 59 a9 3a ed 3d 92 3c 46 6d ee ba 1b 01 f3 3b
       0.001292041 0.017851794 -0.0018190525 0.0074159033
000010 00 a8 81 bb 10 fe 10 bc e6 12 d2 bb 50 1c 07 3c
       -0.0039567947 -0.008849636 -0.0064109443 0.008246496
000020 f6 4c 1d bb 30 4d 08 3c 7e 27 33 bc 74 55 70 bc
       -0.002400217 0.008319184 -0.010934709 -0.014668811
000030 4b 8f 44 bc d8 5d 1d bc 57 d2 c9 b9 bd f3 d8 3a
       -0.011997054 -0.009604894 -0.00038494423 0.0016552132
000040 4a 8c b8 3b 43 4f 13 bb b7 f8 8a bc b6 f7 29 3c
       0.005631958 -0.0022477664 -0.0169643 0.010374

ntm.controller.lstm_h_bias f4 [2, 1, 100]
000000 b4 02 a6 3d 55 41 ae bc b3 65 cd 3b 8c 8e 12 be
       0.08105984 -0.021271387 0.006268227 -0.1431219
000010 db d2 a2 bd d3 9f c1 3d 52 7e f1 bd dd 57 92 bc
       -0.07950374 0.09454312 -0.11791672 -0.017864162
000020 e1 0f 47 bc d6 4e 36 bc e4 57 21 bd d2 07 18 bd
       -0.012149782 -0.011127194 -0.03939046 -0.037116833
000030 24 65 32 3d 0c 5d 9b 3b 25 27 97 bd 2a 08 65 3d
       0.043553486 0.0047413167 -0.07380513 0.05591599
000040 a4 d7 3e bd ed 95 4a bd 2e e7 0e 3e 19 3f 92 3d
       -0.04659237 -0.049459387 0.13955376 0.07140941
000050 e5 36 c3 bc 48 a3 9d 3b 4a 21 80 3d 02 10 5a bd
       -0.023829887 0.0048107244 0.062563494 -0.053237922
000060 7d 3e 91 bd ba 8d d4 3d 50 22 07 bd 13 bf 54 bc
       -0.07091997 0.10378595 -0.032991707 -0.012985009
000070 10 31 04 bd f8 06 5d bd 75 37 46 bd 90 3e 59 bd
       -0.032273352 -0.053961724 -0.04839273 -0.05303818
000080 dd 7a a9 bc 64 8b 30 bd 61 62 0a be e0 76 5a 3d
       -0.020688469 -0.043101683 -0.13514091 0.053336024
000090 66 25 04 bd 57 0a 9e bc 6d d2 1f 3e 95 c3 b4 3c
       -0.03226223 -0.01929204 0.15607615 0.022065917
0000a0 fe e9 ac 3c 55 90 28 bd bf aa 81 bd 00 e5 d3 bb
       0.02110767 -0.04115327 -0.06331395 -0.006466508
0000b0 c6 43 64 3c 02 cb 82 bc 27 e7 a1 ba 27 6b 88 3d
       0.013932174 -0.015965942 -0.0012352214 0.06661063
0000c0 6a 2d 57 3d 0d 07 80 bc 43 75 65 3d 1c 9e 97 3d
       0.052533545 -0.015628362 0.056020033 0.07403204
0000d0 8e 6f 6f bd fb 08 0d 3e 52 73 01 3d f4 18 fb 3b
       -0.058455996 0.13772957 0.03160412 0.0076628868
0000e0 c6 92 58 3d 8a 6c c9 bd 5e 52 5d 3d 4e 8e 9c 3d
       0.05287435 -0.09835155 0.05403363 0.0764433
0000f0 1c c1 fd 3d a2 ac 46 bd f5 cf 11 3d 4c aa 87 bc
       0.12390348 -0.04850448 0.035598714 -0.016560696
000100 dd 05 b1 3d e7 ae a1 bd fb 95 33 bd 09 55 58 bd
       0.086436965 -0.07894688 -0.043844204 -0.05281547
000110 e0 de 07 be 1c 96 19 be 41 64 0c bc 97 fc ce bd
       -0.13268614 -0.14998668 -0.008568824 -0.101067714
000120 2f 7c 1d bd ec 3c 6c bc 98 42 24 3d 08 2c 8f bd
       -0.03844851 -0.014418822 0.04010257 -0.0699082
000130 2f 63 a7 bd 7f 76 f9 bd 6a b9 e0 3b ca 23 48 bd
       -0.08173215 -0.121808045 0.0068580406 -0.048862256
000140 f6 f9 ba bb f5 cb 33 bd c1 14 2a be d1 f3 e9 bb
       -0.005706067 -0.04389568 -0.1660948 -0.007139661
000150 4d 59 ac bc fd f6 31 3d 47 b8 a2 bd 09 af 01 bd
       -0.021038676 0.043448437 -0.07945304 -0.031661067
000160 7d 84 78 3c f8 24 eb 3d 1e bb 20 3c c1 d4 33 bc
       0.015168306 0.114816606 0.009810237 -0.010976017
000170 22 88 38 3d df 3d 01 bd 95 18 05 3e d6 7e 7c bd
       0.0450517 -0.031553145 0.12997659 -0.061644398
000180 1d 6b 5d 3d e4 c3 96 3d 3d 51 9e 3d d9 0a 07 bd
       0.05405723 0.07361582 0.07730339 -0.03296933
000190 8a 0c a6 3e c6 9b 29 3d d1 5c 72 3d b2 88 cb 3d
       0.32431442 0.041408323 0.059170548 0.09938182
0001a0 af f8 20 be 29 80 98 3d 30 d8 05 3e 9f 4c 29 be
       -0.15719865 0.074463196 0.1307075 -0.16533135
0001b0 6f f1 c6 3d a3 78 1a be 5d af 9f bd 46 74 b8 bd
       0.097140186 -0.15085082 -0.0779712 -0.090065524
0001c0 1e b0 15 3e 43 c6 92 3d a0 25 83 bd 7e 92 ef bd
       0.14617965 0.07166722 -0.06403661 -0.11697863
0001d0 34 68 48 3e 5c aa bd bb 0a 5c 36 be d2 b2 2c 3d
       0.19571 -0.0057881307 -0.17808548 0.042162724
0001e0 3a fc 6e bd 1e 13 a4 3d e7 75 0e 3d 02 b8 85 3d
       -0.05834601 0.08011459 0.03478041 0.06529237
0001f0 79 2f 46 bd 15 d7 c3 bd ed bc a9 bd ce 13 0a 3e
       -0.048385117 -0.09562508 -0.08287988 0.13484117
000200 0c 40 67 3c 68 12 32 3e 5f 7d cc 3d 5a 44 77 3d
       0.014114391 0.17389834 0.0998485 0.06036792
000210 a9 f0 96 3d ff b2 e5 bc 80 15 14 3e e1 24 01 be
       0.07370121 -0.028039454 0.14461327 -0.12611724
000220 b2 91 eb 3c 61 2a 29 3d 1f 5a ab 3d 98 f2 d7 bd
       0.028755996 0.04130018 0.083667986 -0.10544318
000230 50 57 d2 3d dc 88 60 bd fa 45 e4 bd 25 4d b0 bd
       0.1027056 -0.05481802 -0.111461595 -0.08608464
000240 9b 95 32 bc 93 a2 46 3d 86 63 db 3d b4 23 9b bc
       -0.010899927 0.048494887 0.10712342 -0.018937923
000250 a0 04 24 3e 37 5d 1b bd 0c 8b 84 3c 6f e7 2e 3e
       0.1601739 -0.037930693 0.016179584 0.17080472
000260 a6 45 a6 3d 7c 26 9a bc 2b 30 2a bd 72 f2 52 3c
       0.08118753 -0.018817179 -0.041549843 0.012875186
000270 9e 86 f8 bd 0a 1e a8 bd 74 15 37 3d 2a 6f df bd
       -0.12135051 -0.082088545 0.044698194 -0.10909875
000280 96 47 62 3d bd 5a 06 3e 5c 33 1a 3e 68 3f 10 3e
       0.05524405 0.13120551 0.15058655 0.14086688
000290 a0 ef ca bc 71 14 bf bc d8 bd a5 3c 01 8f 0c 3d
       -0.024772465 -0.023325177 0.020232126 0.034316067
0002a0 b5 78 b0 3d 55 2f 97 3d 44 9d ca 3c 84 21 97 3e
       0.08616773 0.07382075 0.024733193 0.29517758
0002b0 da 56 25 be 88 62 00 3e 97 c8 9d 3d 9c 0e fb bd
       -0.16146412 0.12537587 0.07704275 -0.12258646
0002c0 90 a6 f7 3d 33 c0 60 bd 29 1a 08 be 56 15 48 be
       0.12092316 -0.054870795 -0.1329123 -0.19539389
0002d0 56 fc b3 3d f2 91 91 bd 09 91 9e b9 24 04 d5 bd
       0.08788364 -0.07107915 -0.00030244168 -0.104011804
0002e0 19 73 69 3e f9 24 b0 bd 17 e2 b9 bd 31 ec 14 be
       0.22797813 -0.08600802 -0.09076326 -0.14543225
0002f0 b8 b5 37 bd ed 9d 0f be f5 a6 cc 3d cf 7b bb bd
       -0.044851035 -0.14025088 0.09992782 -0.09154474
000300 86 56 58 3d 38 1a 64 3e 09 4d 1a bd c4 42 34 be
       0.05281689 0.22275627 -0.037671123 -0.17603594
000310 12 56 ce 3d c4 ce 1b be ac 03 0c 3e fe 6c 4a bd
       0.1007501 -0.15215594 0.13673276 -0.04942035

ntm.controller.lstm_c_bias f4 [2, 1, 100]
000000 57 6e 7a 3d 61 47 59 bd 68 94 21 bd 72 6e d2 bc
       0.061140385 -0.053046588 -0.03944817 -0.02568743
000010 0f 63 86 bc 8e 6e 69 bc 8f 97 40 be 03 61 1b 3e
       -0.016404657 -0.01424755 -0.18807815 0.15173726
000020 0b fe a1 bd 87 31 52 bd 4e 4f 55 3d 8c 4e f3 bd
       -0.07909783 -0.051316764 0.052077584 -0.11880216
000030 fa 57 97 bb f7 e2 a9 bc a8 97 35 3e 66 c6 29 bd
       -0.004618642 -0.020738108 0.17733634 -0.041448973
000040 3a 01 26 3c ad ca 0b be 29 a4 cd 3d 45 9f 11 bd
       0.010132128 -0.13651533 0.10041077 -0.035552282
000050 f1 96 ac bb aa cc 7d bd 6f f1 21 3d d7 ca ea bb
       -0.005267017 -0.06196276 0.03953689 -0.0071652937
000060 34 5e 8c bc f1 2e 14 3e d6 cb 27 3c 42 4d 25 bc
       -0.017134763 0.14471032 0.010241469 -0.0100892205
000070 c9 e2 a7 bd be 76 87 bc b6 52 7d bd 48 38 83 bd
       -0.08197553 -0.016536113 -0.061846457 -0.06407219
000080 e9 95 6e bd 3a 03 88 bd 48 5b d9 bc 63 1c 8c bd
       -0.058248434 -0.066412404 -0.026532784 -0.06841352
000090 8f af 82 3a 0a b8 ea bd a9 d8 a1 3c 17 2f 8f bd
       0.0009970533 -0.11460884 0.019756632 -0.069914035
0000a0 3f b5 45 bc ff e8 8d bd e4 38 99 bd 7b 39 73 3d
       -0.012067138 -0.06929206 -0.07481554 0.05938099
0000b0 b1 cc 9e 3a 38 ba ae 3d bf f2 6c 3d 8a 1d 0c 3d
       0.0012115446 0.08531612 0.05784869 0.03420786
0000c0 30 5f 98 bc 28 d5 64 bb fb b6 e2 3b 55 3c 2a bd
       -0.018600076 -0.003491709 0.0069187856 -0.041561443
0000d0 8e cc a8 ba 5f 45 23 bd c1 17 08 3e 6e 38 13 bd
       -0.0012878345 -0.03986108 0.13290311 -0.035942487
0000e0 b8 88 c1 bc b0 18 a1 3c 9e 6b d4 3b 63 8c 5f 3c
       -0.023624763 0.019665092 0.0064825555 0.013644311
0000f0 7f 31 d8 3c 96 3e 65 bd 12 40 d2 bc c8 ad 74 bd
       0.02639079 -0.05596789 -0.025665317 -0.059736043
000100 07 97 f0 3c e4 c0 6b bd 7f 41 41 bd 4a f6 48 3d
       0.02936889 -0.057557 -0.047181603 0.049063005
000110 98 cf e9 3c f7 0e 06 bd 52 52 43 3c 50 06 50 bd
       0.028541371 -0.032729115 0.011921482 -0.05078727
000120 6f 6f 9b bd 45 74 0f 3d f1 c3 bd 3d d0 59 ae bc
       -0.07589614 0.035022993 0.092658885 -0.02128306
000130 a1 bf 1c 3d 44 b5 e7 bd e8 31 97 bd 27 89 90 bd
       0.03826869 -0.113138705 -0.07382566 -0.0705741
000140 00 2b 1a bd 9c 0f 69 bd 06 75 8a 3b d9 f3 b1 bd
       -0.037638664 -0.056899652 0.004225376 -0.086890884
000150 bc c2 be 3d 55 9c a0 3b f8 b4 c2 3c 57 55 d9 3d
       0.093144864 0.0049014487 0.023767933 0.106119804
000160 5c 96 8b bd c8 41 89 3b 6f 3b 1d 3c 8b fb e2 3b
       -0.06815788 0.00418875 0.00959669 0.006926959
000170 2d fb 9d 3c 56 d4 50 bd 08 9e a0 3b 8a 0e 12 bc
       0.019284809 -0.05098375 0.0049016513 -0.008914599
000180 a4 01 8b 3d 40 db 57 bc c9 b5 72 3c b6 5f bb bd
       0.06787422 -0.013174832 0.014813849 -0.09149115
000190 d7 9c a0 3d f0 5c 02 3d 02 a0 83 bd 3a 2b aa bc
       0.07842415 0.031826913 -0.064270034 -0.020772565
0001a0 d9 b8 07 be dd 25 da bc 9f 31 db 3d 3b bc 17 bc
       -0.13254108 -0.026629383 0.10702824 -0.009261186
0001b0 a1 5d e5 3d af 19 6a bd 43 45 ed bd 08 0d 9a bd
       0.11199499 -0.0571534 -0.11585476 -0.07522017
0001c0 fe 41 9d 3d f4 b6 31 3b 9d 9c 97 3c be f9 26 3e
       0.07678603 0.0027117105 0.018507296 0.16306207
0001d0 07 f6 19 3e 0b 07 0d 3e 66 e3 80 bd ce a7 d7 bd
       0.15035258 0.13772218 -0.06293373 -0.10530053
0001e0 0a 7f 70 bc 29 8d 86 bd 41 e7 f9 bc 60 6b f2 bc
       -0.014678726 -0.06569893 -0.030505778 -0.029592216
0001f0 1e 6f 14 be de f2 65 bd 76 ec b6 bd 66 07 82 3e
       -0.14495513 -0.05613982 -0.0893182 0.2539627
000200 3a 0f 94 bc ca 98 79 bd 38 0d e5 3d a4 44 a1 ba
       -0.018073667 -0.060936727 0.11184162 -0.0012303782
000210 b4 3f 0d 3d 23 71 b4 3d 65 10 38 3d ad 68 35 be
       0.03448458 0.088106416 0.04493751 -0.17715712
000220 be ed 5c 3d a4 b5 ab 3d 07 99 cd 3a 9c 83 8a bc
       0.053937666 0.083842546 0.0015685864 -0.01690846
000230 54 fb 6d 3c 7c 33 84 bd bb 64 c8 bd 52 14 ed bd
       0.014525253 -0.06455132 -0.09784838 -0.115761414
000240 2b 0b 1a bc 99 25 f3 bd 07 b5 da 3d 6b 68 b3 3d
       -0.009402077 -0.118724056 0.106790595 0.087601505
000250 11 52 e8 3d 89 fa ec 3d 32 ca 02 bd 93 ba cd bc
       0.11343778 0.11571223 -0.03193111 -0.02511338
000260 69 6e 7a 3d 6a d3 01 be 88 4a c3 bd bd e0 5c 3d
       0.06114045 -0.12678304 -0.095357 0.053925265
000270 2a 9b fe bc 00 93 00 3c bf 7a 78 3d 9c da a8 3d
       -0.031079847 0.0078475475 0.060663935 0.082448214
000280 57 b7 85 39 f7 07 a2 3d 73 0f fb bb bf 01 42 3d
       0.00025504336 0.079116754 -0.007661754 0.047364946
000290 86 ce 1b be ce 17 91 bb 26 b2 05 bd eb 0d d7 bc
       -0.15215501 -0.0044278866 -0.0326406 -0.026251754
0002a0 0b a2 94 bb 94 c9 d6 3d 9f 48 ae 3d bb ed e6 3c
       -0.0045359186 0.10487667 0.08509945 0.02818953
0002b0 1e 10 e2 bd b6 db 21 3d 07 2b b1 3c b5 31 3c bc
       -0.1103823 0.039516173 0.021626962 -0.01148646
0002c0 4a 39 10 3e b1 5d 27 be 11 75 a0 bd a2 ad d8 bd
       0.14084354 -0.16344334 -0.07834829 -0.10579993
0002d0 39 6d 99 3d 84 84 e2 3c 45 16 c6 3c 04 a2 2a be
       0.07491536 0.027651079 0.02418054 -0.16663367
0002e0 b2 42 95 3c ab 7c 84 bd ef 1d 7b bd d2 cc 25 be
       0.01822028 -0.06469091 -0.061307844 -0.16191414
0002f0 82 79 50 3e d3 c9 f5 3a c4 b4 8d 3d fd 1e 0b bb
       0.20358852 0.0018752165 0.06919244 -0.0021228187
000300 5e ea ec bd 37 bb 9e 3c 9d c5 84 3d fc 1c 25 be
       -0.115681395 0.01937638 0.06483004 -0.16124338
000310 bd 6a 8e 3d f3 a0 45 bd 8f 02 1c 3d 37 f1 f4 3c
       0.069539525 -0.048249196 0.038088378 0.029900176

ntm.controller.lstm.weight_ih_l0 f4 [400, 110]
000000 76 e2 9c be d3 e3 c0 3d 00 d2 16 3c 25 0d 80 be
       -0.30641526 0.09418454 0.009205341 -0.25010028
000010 c8 3e bb be ad 6e 70 be 52 dc fc 3c 65 a0 1d 3e
       -0.36571336 -0.2347972 0.030866776 0.15393217
000020 91 30 16 be f2 97 2a be 66 e2 27 be 6b 17 40 3d
       -0.14666964 -0.16659525 -0.16394958 0.046897333
000030 65 9c 9c 3e 45 39 12 3e 17 5b 09 3d af 4d 8a 3e
       0.3058807 0.14279659 0.033534136 0.27012393
000040 18 86 3b bd 5e ed ee 3d fd ea 57 3e 87 79 32 be
       -0.04578218 0.11666368 0.21085735 -0.17429172
000050 ec 91 cd 3d ef fa 91 be c6 0f 94 3d f0 1e c0 be
       0.10037598 -0.2851176 0.07229571 -0.37523603
000060 04 10 cf 3d 60 2b f8 bd 59 9f 24 be 8d e4 a0 be
       0.101104766 -0.12117648 -0.16076411 -0.3142437
000070 a7 08 6b be 17 09 87 bd 60 bc 8c 3c 1d 5a 8b be
       -0.2295252 -0.065935306 0.017179668 -0.27217188
000080 78 f1 a0 3d 59 23 88 3c 31 79 59 3e a2 5f 78 bc
       0.078585565 0.016618418 0.21237637 -0.015159519
000090 ff 22 93 be 55 51 b8 3e 48 5d 7b be 3b bb 43 3e
       -0.28737637 0.3599955 -0.24547303 0.19114392
0000a0 cd 88 22 3e a0 02 98 be 3b 4e 0e 3e 5f ca 09 3d
       0.15872498 -0.29689503 0.1389703 0.03364026
0000b0 ad 5c 9c 3e 29 a5 4f 3e f2 e3 5d 3e 9e 2c 55 3e
       0.30539456 0.20277847 0.21668985 0.20817801
0000c0 7c 08 81 3e 56 e7 65 be 96 c1 d3 bd cc 3c 06 3e
       0.25201786 -0.22451529 -0.10339658 0.1310913
0000d0 ce f8 ae 3e 56 d4 3a be d9 4f 8f be 43 ae 87 bd
       0.34174198 -0.18245062 -0.27990606 -0.06625035
0000e0 46 93 8b bc c5 18 a5 3a bb a4 52 3e 11 e8 69 be
       -0.017037999 0.0012595883 0.20570652 -0.22842433
0000f0 19 da a9 be c7 41 94 bb ec 45 a1 3c ba 5c 81 be
       -0.33174208 -0.004524443 0.019686662 -0.25266057
000100 3e 7e 7a be 66 e3 69 be 75 96 aa 3d 3d 71 0a bd
       -0.2446222 -0.22840652 0.08329479 -0.0337994
000110 cd a7 51 3e 66 a8 5f bd 42 47 5d be 3d 09 d3 3d
       0.20474167 -0.054603957 -0.21609214 0.103044964
000120 14 29 65 3d 51 39 7e 3d 1a 41 82 be e6 49 bc 3e
       0.05594738 0.06206638 -0.25440294 0.3677513
000130 f7 7b 8f 3d c3 56 93 3d f9 24 29 3e 59 d6 9b 3e
       0.07006066 0.07194283 0.1651801 0.30436972
000140 e3 36 a6 be ab d3 c8 3d 3c 04 c3 bd a2 56 37 be
       -0.3246375 0.098059975 -0.09522292 -0.17904142
000150 73 fd 03 bd 59 f6 6c 3e a0 20 5f 3c 31 bb 23 be
       -0.03222413 0.23140849 0.013618618 -0.15989377
000160 64 37 5e be 92 49 97 bd b0 36 16 bd ef e4 8f 3e
       -0.21700817 -0.07387079 -0.036673248 0.2810435
000170 b0 0b 75 3e 75 37 a0 3c 14 f6 42 3e 96 7d 34 be
       0.2393024 0.019557694 0.19039184 -0.17626032
000180 91 b5 4b bd 66 c2 8c 3e e9 85 9e 3e af 45 b7 3d
       -0.049733702 0.27492064 0.3096154 0.08948838
000190 f7 7b 7d 3d cc 99 ba bd c2 90 e9 bd 9a 40 81 be
       0.0618858 -0.09111366 -0.114045635 -0.252446
0001a0 a2 79 16 bd 61 9b 22 bc 87 45 a1 3d 54 07 a0 3e
       -0.03673709 -0.0099247405 0.078745894 0.3125559
0001b0 ed 5a b1 3e 46 a5 5c 3d 07 73 6b be 8d f7 06 bd
       0.34639683 0.053868555 -0.22993098 -0.032950927
0001c0 6c d3 36 be e4 cb 98 be d0 ec 1d 3e 82 41 8e 3a
       -0.17854089 -0.29843056 0.15422368 0.0010853263
0001d0 0b 92 a8 3d 15 a7 22 3e 26 73 9f be e9 0e e6 3c
       0.082309805 0.15884049 -0.3114254 0.028083282
0001e0 71 26 18 3d 9b 5d 59 3d 4b 7d 38 be 79 e2 a4 be
       0.037146036 0.053067785 -0.18016545 -0.32204035
0001f0 31 38 aa 3e 69 b2 2e 3e ed 37 30 3e 87 ce 87 be
       0.33245996 0.17060246 0.17208834 -0.26524755
000200 12 27 93 3c 81 58 b0 be a4 d9 07 3e 07 21 13 3e
       0.017962966 -0.34442523 0.13266617 0.14368068
000210 96 c5 9c be 75 5d 1d 3d b9 ef 9f be 69 fe 20 3c
       -0.30619496 0.038419206 -0.3123758 0.009826281
000220 d4 df 75 3e 86 5b 9f be 15 c4 db bc f2 0f 92 3e
       0.24011165 -0.31124514 -0.026826898 0.2852779
000230 e3 b7 a4 3d db fb 08 3e f8 64 8e be 56 8a 97 be
       0.08042886 0.13377325 -0.27811408 -0.2959773
000240 88 ce 52 be ba 6d 3c bd 21 0f 64 be 05 4b 86 3e
       -0.20586598 -0.04600308 -0.22271396 0.2622911
000250 96 9d 49 be 58 80 16 bd e3 37 b9 be db 53 8c be
       -0.1968902 -0.036743492 -0.3617545 -0.27407727
000260 38 2b 28 3e aa d7 9b be 5d c6 e5 3d 15 5b 47 3e
       0.16422737 -0.30437976 0.112194754 0.19468339
000270 87 f8 10 bd 58 ec 53 3e b7 d8 eb bd ad 0b 91 3d
       -0.035393264 0.20695627 -0.115159445 0.07082305
000280 d4 57 3a be 51 98 7f bd 1b 14 99 bc f9 89 04 3e
       -0.18197566 -0.06240112 -0.018686345 0.12943257
000290 b4 3b 6d 3e 4e 55 3c 3d 07 ed ac 3d 74 98 70 be
       0.23167306 0.04597979 0.08443647 -0.23495656
0002a0 46 11 ff bd 58 3d 12 3e be 62 9b be 1c 70 ab 3e
       -0.124544665 0.14281213 -0.30348772 0.3348397
0002b0 02 37 86 3e 38 68 03 3e 96 00 d6 bd 8a f9 bc be
       0.26213843 0.12832725 -0.104493305 -0.36909133
0002c0 02 d6 84 3e 6f 86 78 be 90 3d 25 be 2d ca 33 be
       0.25944525 -0.24270032 -0.16136765 -0.17557593
0002d0 13 73 55 3e c8 b6 6f 3e b3 05 93 be ab c8 a8 be
       0.20844679 0.2340957 -0.28715286 -0.32965598
0002e0 e1 9d 85 39 d0 03 7a be e5 d9 b6 3d 12 e5 bf be
       0.00025485366 -0.24415517 0.08928279 -0.37479454
0002f0 f6 60 8a bd 1c 7a 9b bd e6 ea 89 be 15 e6 a8 3e
       -0.06756775 -0.0759165 -0.26937026 0.3298804
000300 31 75 c4 be 12 31 a4 be 76 b6 61 be 99 9a 76 3d
       -0.3837066 -0.32068688 -0.2204226 0.06020603
000310 c1 4d 20 be 13 45 87 3e 22 18 a0 bd 28 2d db 3d
       -0.15654661 0.26419887 -0.07817103 0.10701972
000320 0f 81 11 be 7a 8a 74 3c 7c 5e ae 3b df 5a 07 3e
       -0.14209388 0.0149255935 0.005321322 0.13218258
000330 81 01 9b 3e ae d7 d5 3d 29 43 ab 3b fe 2a 3b be
       0.30274585 0.10441528 0.005226512 -0.18278119
000340 e6 80 5d be 9c c6 6e 3e f0 b0 15 3e 5f da 0b 3e
       -0.21631202 0.23317951 0.14618278 0.1365752
000350 68 14 3f be ad ac 50 3e 7c 2f 4c 3d ec 4d 1c be
       -0.18660128 0.2037837 0.049849972 -0.152641
000360 c5 e1 9f bd 53 40 f7 3d 1e 68 65 3e c5 49 f2 3c
       -0.07806734 0.12072816 0.22402999 0.029576192
000370 fb 9f 16 3e 55 39 e2 bd 2e cd 9d 3d 1b 74 33 3d
       0.14709465 -0.110460915 0.077051505 0.0438119
000380 8e 38 2a 3d 34 91 84 3d 1e c4 a1 bd a8 d3 33 be
       0.04155784 0.06473008 -0.078987345 -0.17561209
000390 83 47 c0 3e a1 68 70 3e 31 d3 76 3e 8c 24 49 3e
       0.3755456 0.23477413 0.24104 0.19642848
0003a0 f5 26 50 be 86 77 5c be e7 fd 82 3e 38 00 62 be
       -0.20327361 -0.2152997 0.25584337 -0.22070396
0003b0 13 b6 89 be 2d a0 5e 3e a6 d4 01 be fa 53 9d 3d
       -0.26896724 0.2174079 -0.12678775 0.07682033
0003c0 aa 15 71 3d 80 27 01 be 99 03 cf 3d 21 ae 34 be
       0.05885855 -0.12612724 0.10108108 -0.1764455
0003d0 c7 15 95 be 1a 4e 78 bd ea 85 5b be 30 80 d9 bd
       -0.29118177 -0.06062136 -0.21437803 -0.10620153
0003e0 db 0d 91 3c 4b 13 7b ba af be b4 be bf 87 11 bd
       0.017706802 -0.0009577765 -0.3530173 -0.03552985
0003f0 5f 85 d9 bd 16 f4 8d be 29 57 13 be 70 a4 7a bd
       -0.10621142 -0.27725285 -0.14388718 -0.061191976

ntm.controller.lstm.weight_hh_l0 f4 [400, 100]
000000 83 a3 98 be d7 7d b6 3d 9d ad 70 be bb a1 a3 3e
       -0.2981225 0.08910721 -0.23503728 0.31959328
000010 8b 5c 7b 3e ef e9 53 3e 9b d2 83 be f9 a6 b7 bd
       0.24547021 0.20694707 -0.25746617 -0.089673944
000020 6c 8d 7f be 2c 72 65 3e 80 1c 95 be ab b9 13 be
       -0.24956292 0.22406834 -0.29123306 -0.14426295
000030 fa eb a4 3e 8c f3 3b be 79 73 91 3e c0 2e 28 3c
       0.32211286 -0.18354625 0.2840841 0.010265052
000040 9b 6e 6e bd a1 79 ba bd b7 4c a6 be 55 39 41 be
       -0.05821095 -0.0910523 -0.32480404 -0.18869527
000050 63 eb f1 bd 47 c2 44 be c7 94 35 be c4 29 e3 bd
       -0.118124746 -0.19214736 -0.17732535 -0.110919505
000060 92 1b c5 3e 4f 22 00 3e 36 f8 79 3e 3c 41 ab 3a
       0.38497597 0.12513088 0.24411091 0.0013065706
000070 45 18 a9 3e 8a 9f cc bd 1a 93 c4 bd c8 7b 8d 3e
       0.3302633 -0.09991367 -0.0959837 0.276335
000080 aa c9 c6 3d a7 ba 96 bd 88 2f 16 3e 11 f6 3d 3e
       0.09706433 -0.0735982 0.14666569 0.18550898
000090 50 bc 15 3e 39 d7 a6 be 84 ad 2b 3d b3 c9 b6 be
       0.14622617 -0.32586077 0.041913524 -0.3570076
0000a0 b1 33 af 3e 44 f5 99 3e 28 c9 45 be ec 4d a6 3e
       0.34219125 0.30069935 -0.19315016 0.32481325
0000b0 13 9d 0e 3d 32 01 ba 3e d3 9c 7d be 50 33 91 be
       0.034817766 0.36329037 -0.24766855 -0.2835946
0000c0 93 95 8f 3d 3c fa b2 3e b2 8c a0 3d 3e 24 20 3e
       0.07010951 0.3495654 0.078393355 0.15638825
0000d0 c9 a8 4b ba 5a fa 1d bd ed e5 17 be 8e 4e 43 be
       -0.00077689864 -0.038568832 -0.14833803 -0.19072935
0000e0 47 ff 15 3e 64 2b 95 bd 0b 36 b6 bd 44 1a 20 3e
       0.14648162 -0.07283667 -0.08897027 0.1563502
0000f0 cc d4 c2 bd 98 8a 27 be 79 cd 6f be ce b9 8e 3e
       -0.09513244 -0.16361463 -0.23418225 0.27876133
000100 67 95 e0 3d eb f0 a1 bd f6 84 3c be f5 3b 4d 3d
       0.10965996 -0.079072796 -0.18410096 0.050106008
000110 f3 82 b1 3e d0 45 eb be 67 47 a0 3d e5 ca 89 3d
       0.3467022 -0.459517 0.07826119 0.06728152
000120 3d 86 4a 3e e2 2d 14 be 73 fd 88 3e 96 c0 ae 3d
       0.1977777 -0.14470628 0.26755866 0.085328266
000130 16 85 dd 3d 1d 88 a3 3e 1e 1e 2d be df 3e 70 3e
       0.108164 0.31939784 -0.1690602 0.23461483
000140 fe f3 25 be 19 02 cd be 00 cd b2 3e 4b b6 82 3e
       -0.16206357 -0.40040663 0.34922028 0.25529703
000150 b2 29 9c 3e 8c 68 4b be c3 ed 9a be 23 16 c8 bc
       0.3050056 -0.198641 -0.30259523 -0.024424618
000160 68 00 11 bc 85 e3 21 be a8 aa 23 3e a5 b1 44 3e
       -0.0088501945 -0.15809448 0.15983069 0.19208391
000170 9b 1f a2 be e0 f3 07 3e 97 d1 46 3e f4 fb 05 3e
       -0.31664738 0.13276625 0.1941589 0.13084394
000180 56 1f 0f 3d 18 db af 3d 92 49 bf 3d 22 c4 ad be
       0.034941994 0.08586711 0.09340204 -0.339387
000190 20 5d ab 3e 55 c2 72 be 95 05 5f be ea b8 1b be
       0.33469486 -0.23706944 -0.21779473 -0.15207258
0001a0 77 7a 18 be 1d cf 0d 3e 34 93 ee bc 24 cd 10 bc
       -0.14890467 0.13848539 -0.029122926 -0.008837972
0001b0 d5 24 01 3e a2 86 3c be 87 3b 06 3e 58 ea 18 3e
       0.12611707 -0.18410733 0.13108645 0.14933145
0001c0 67 28 a6 be 3b e7 1f 3e b2 c5 54 be 22 3b 2f 3e
       -0.324527 0.15615551 -0.2077854 0.17112401
0001d0 31 42 3c be 55 b0 52 be 8a f2 57 bd a0 00 a1 be
       -0.18384625 -0.20575078 -0.052721538 -0.3144579
0001e0 a1 ab a4 bc 2a 56 da bd a7 38 b8 3d 40 18 50 3d
       -0.02010137 -0.10660966 0.089951806 0.050804377
0001f0 21 0e 84 3e 3d 78 c8 be ac 3c b0 be 41 70 3d be
       0.2579203 -0.39154235 -0.3442129 -0.18499853
000200 c1 e2 08 be e7 0b 54 3e 00 e9 9d 3e 26 8d 2e 3e
       -0.1336775 0.20707665 0.30841827 0.17046031
000210 be ca d8 3e 03 c0 d4 be 47 4a bb 3e cb b2 4c 3e
       0.4234218 -0.41552743 0.36580107 0.19990079
000220 79 ad a9 3c d8 08 93 3b e5 85 71 be af d8 03 bd
       0.020712601 0.0044871382 -0.23586233 -0.032189067
000230 34 16 0e 3e f0 57 7a be 41 9c 94 3e de 86 63 3e
       0.13875657 -0.24447608 0.29025462 0.22219416
000240 b3 9b 10 be 98 40 df 3d a2 ab 27 be 8f a5 f9 bd
       -0.14121895 0.10900992 -0.16374066 -0.12189781
000250 25 c9 f3 3d fa 47 41 be 49 76 9d 3d fa 27 10 bc
       0.119036 -0.18875113 0.07688577 -0.008798594
000260 e6 d8 df 3d 69 8c c1 3d 06 b1 e7 bd 4e 78 68 be
       0.10930042 0.09450609 -0.113130614 -0.22702143
000270 0a 44 45 3e 8c fd 5a 3e ef 53 57 be 9e bf 28 3e
       0.19264236 0.21385783 -0.21028112 0.16479346
000280 4e 3a 34 3e a3 3b ef 3d a5 48 63 be 00 8f 85 be
       0.17600366 0.11681297 -0.2219568 -0.26085663
000290 43 82 aa 3e 70 6e 06 3e ad 7f 38 be 93 82 45 3d
       0.33302507 0.13128066 -0.18017454 0.04822023
0002a0 2a ef d7 3e 88 e4 1d be 3e 79 92 be 92 ca 95 3e
       0.42174655 -0.15419209 -0.28608125 0.2925611
0002b0 1b 5e 7b be ea 2d 2a be ff 1c cd be 2e b7 8a be
       -0.24547617 -0.16619077 -0.40061185 -0.2709288
0002c0 24 ad e7 3c fb 5d 37 3e 5d da 9b 3d 1c af 45 bd
       0.028280802 0.17906944 0.07610009 -0.0482627
0002d0 05 c2 57 bd 91 68 86 3e 5c a0 ae 3d 6f f9 48 3e
       -0.052675266 0.26251653 0.0852668 0.19626401
0002e0 8b e5 56 3d 2e c4 9e 3e 2c d2 5a 3d 3e 8b 34 be
       0.052465003 0.31009048 0.05342309 -0.17631242
0002f0 a6 81 04 3e de c6 76 3e 0f ed ec bd c8 56 54 3e
       0.12940082 0.240993 -0.11568653 0.2073623
000300 fe 00 24 bd 24 25 63 3d 0b 86 d0 bb 7a 89 42 3e
       -0.04004001 0.055455342 -0.0063636354 0.18997756
000310 a1 58 13 3c 91 83 a7 3e de 05 54 3e 00 b4 ae 3e
       0.008993299 0.32717565 0.20705363 0.34121704
000320 e7 f4 14 be c9 43 ca 3c f3 ce 96 3e 60 e1 80 be
       -0.14546548 0.024690526 0.29454765 -0.25171947
000330 d8 ba 45 3d 11 85 be bb 1b 83 54 3e d2 8d 70 3e
       0.04827389 -0.0058142026 0.20753138 0.234916
000340 dd fe 08 bc 6f 18 4b 3e 6b 89 3e bd 81 4a 73 be
       -0.008361545 0.1983354 -0.04651777 -0.2375889
000350 34 37 27 be af f6 69 be 0f 3c f3 bd a8 0b aa 3e
       -0.16329652 -0.22848009 -0.1187669 0.33212018
000360 bb 77 d9 3d b5 14 76 3e c0 62 3d 3e 95 b0 b7 be
       0.1061854 0.24031337 0.18494701 -0.3587691
000370 0b 08 49 be 0c 27 8e 3e b7 1c 9d bd 34 a9 c2 be
       -0.19631974 0.27764165 -0.076714925 -0.38019717
000380 44 5e a6 be fa 41 46 be 76 c1 4d 3e 0c 7a 50 be
       -0.32493794 -0.19361106 0.2009333 -0.20359057
000390 74 c7 a8 3e 7c 6a 99 3d 40 94 97 be 5b cc 7d be
       0.3296467 0.074910134 -0.29605293 -0.24784987
0003a0 9b 33 8f 3e 38 80 8d bd 27 78 90 bd 5d ed 25 be
       0.2796906 -0.069092214 -0.07054167 -0.16203828
0003b0 04 46 58 be 7b d5 ab 3e 8e 91 82 3e fa dd 55 3e
       -0.21120459 0.3356131 0.25501674 0.20885459
0003c0 37 15 88 3e 81 72 85 3e 7e 7b e2 3d 3e 44 91 3d
       0.26578686 0.26063922 0.110587105 0.07093094
0003d0 e3 bc 47 be 97 ce 83 3e 73 1b d9 3e 71 bd 6f 3d
       -0.19505648 0.25743553 0.42403755 0.058530275
0003e0 8e cc a6 3d 6f 10 24 be 51 15 c9 bd 50 d5 88 bd
       0.081444845 -0.16021894 -0.09818519 -0.06681311
0003f0 87 55 57 be 28 da 3e 3e cf fc 57 bd 30 47 43 3d
       -0.2102872 0.18637908 -0.05273133 0.04767531

ntm.controller.lstm.bias_ih_l0 f4 [400]
000000 9b f2 b5 3b cf 31 ee bc 79 01 59 bd 8a a5 83 3c
       0.0055526025 -0.029076485 -0.05297992 0.016070146
000010 f3 9e 32 bd 43 f5 ec bc 43 83 5e bd 07 43 d7 bd
       -0.043608617 -0.028925544 -0.0543244 -0.10510831
000020 21 cf f6 bc 6f c8 0d bd 74 23 9a bd 46 43 f0 bd
       -0.030128064 -0.034614976 -0.075262934 -0.117315814
000030 5a d3 b0 3b 6f 26 2f bd 7b dd fb bd fe ac 5e 3d
       0.005396289 -0.042761263 -0.122981034 0.054364197
000040 90 10 d8 3c aa 22 01 be 52 0d d6 bd 7d 5c ca bd
       0.026375085 -0.1261088 -0.104517594 -0.09880922
000050 51 68 8b bd 09 10 88 bd 26 f3 6a bd 81 a0 9b bc
       -0.06807006 -0.066436835 -0.05736079 -0.018997433
000060 9e ba ff bc c1 10 f0 bd 65 2e 8a bc 3c be 1a bd
       -0.031216916 -0.117219456 -0.016867826 -0.037779078
000070 77 e9 8b 3b 40 45 a8 bd c7 70 d1 bc 77 ee 2e bd
       0.0042697745 -0.082163334 -0.025566472 -0.042707887
000080 d6 20 3c bd 6b dd 06 bd 06 04 02 bd 90 b4 97 bc
       -0.045929752 -0.032926004 -0.03174212 -0.018518716
000090 15 d0 db bd e6 f5 b0 bd 01 bd b2 bd 62 53 72 bd
       -0.10733048 -0.086406514 -0.08727456 -0.05916155
0000a0 ca aa aa 3c c8 a7 33 bd 40 0c 83 bd 3f fa 29 bd
       0.020833392 -0.04386118 -0.06398821 -0.04149842
0000b0 49 86 36 bc 41 4d f6 bc 37 6c da bc dc 37 a0 bc
       -0.0111404145 -0.030066134 -0.026662929 -0.019557886
0000c0 8b 2b bb bd 03 f1 64 bc 77 4e cc bd 07 62 a7 bd
       -0.091391645 -0.013973477 -0.099759035 -0.08172994
0000d0 88 6b db bd ba e8 83 bd 4e 40 a0 bd 50 93 9c bd
       -0.10713869 -0.064408734 -0.07824765 -0.07645285
0000e0 7f ee e2 bb 85 04 64 bd 2f d2 8f bd c5 d2 e4 bc
       -0.0069254036 -0.055668373 -0.07022511 -0.027932534
0000f0 e2 3b 2b bd 90 c9 53 bc 72 93 73 bb 23 67 9f bd
       -0.041805156 -0.012926474 -0.0037166742 -0.07783344
000100 57 b7 2e bd 40 e6 0c bd b8 a9 86 bd 03 75 26 bd
       -0.042655315 -0.03439927 -0.0657534 -0.040638935
000110 de 65 b9 bd e8 cf ec bd ad fe 74 bd e0 f7 12 bd
       -0.09052633 -0.115630925 -0.05981319 -0.035880923
000120 a6 15 b4 bd e3 21 54 bd 7c c6 c3 bd 1a ac 3b bd
       -0.087931916 -0.05179013 -0.09559342 -0.045818426
000130 5d 4a 02 be ec b5 a6 bc 3c 01 3a bb ad 82 30 bd
       -0.1272368 -0.020350419 -0.0028382083 -0.043093372
000140 1e 69 75 bd 51 0d 69 bd a1 d2 b0 bd df 25 07 bd
       -0.0599147 -0.056897465 -0.08633924 -0.0329951
000150 09 01 1b bd 62 b2 e3 bd 6f e4 89 bc 80 2f ad bb
       -0.037842784 -0.11118008 -0.016832558 -0.0052852035
000160 ff b5 5b bd 75 82 63 3d 9c 4a 17 3c 5b b8 27 bd
       -0.053640362 0.055544335 0.009234097 -0.0409473
000170 fb 82 c0 bc 82 9c a0 bb 99 89 1a bd 0b 84 0a be
       -0.023499956 -0.0049014697 -0.03772888 -0.13526933
000180 88 dc df 3c 08 33 45 bd ec e2 ce bd 73 e7 1a 3d
       0.027326837 -0.04814437 -0.10101876 0.037818383
000190 62 72 c2 3c ab aa 87 3d 48 4f 65 bb 85 aa ab 3b
       0.023736183 0.06624349 -0.0034989882 0.0052388334
0001a0 9b 34 e3 3c 54 7d f0 3c 9e 04 a8 3a 10 85 ba bb
       0.027735045 0.029356636 0.0012818759 -0.005692132
0001b0 b8 cd 99 3d 43 ac 36 bd 1e 48 4f bc 97 5d 40 3c
       0.07509941 -0.044597875 -0.012651471 0.011741064
0001c0 4a 1c 6e bd de 20 21 bd 57 f4 1c bd 4d 11 ba 3d
       -0.058132447 -0.039337985 -0.038318958 0.09085331
0001d0 a5 61 6c 3b 67 ad 08 bb c4 bb 8f 3d ed 79 24 3d
       0.0036068943 -0.002085531 0.07018235 0.04015534
0001e0 8b 3b f3 bc 8e c4 7e bd 2d a6 11 3e ce c4 4f 3c
       -0.029691478 -0.062199168 0.14223547 0.012681199
0001f0 c1 4a 06 3e ed 4c 10 3c c9 ae 19 3d 68 a0 ca bc
       0.13114454 0.008807403 0.037520204 -0.02473469
000200 e7 56 cc bb 7b 4b 99 bd ed 04 a2 3d 99 d4 a9 3b
       -0.0062359455 -0.074851 0.07911096 0.0051828143
000210 61 52 e0 bc 68 aa d4 3b c6 f3 0d bb 0c c9 a6 bd
       -0.027383031 0.0064900406 -0.0021660193 -0.081438154
000220 53 71 4e bd 44 35 5b bd 25 41 52 3d ed 58 4a bd
       -0.050401043 -0.053517595 0.051331658 -0.049401212
000230 24 ed 16 3d 04 96 bc 3d 38 e8 82 bc f3 71 24 bd
       0.03684725 0.09208301 -0.015979871 -0.040147733
000240 63 c1 a3 3d da d1 2e 3d 05 bd 1a bd 17 85 be 3c
       0.0799587 0.0426806 -0.03777792 0.023256822
000250 ab 25 c4 bc df cb 33 3d cf d6 bf bb f9 4f ac bc
       -0.023943743 0.0438956 -0.0058544646 -0.021034228
000260 b4 c9 bf 3c 47 84 97 bd db fe 61 3d f6 a3 da bc
       0.02341161 -0.07398277 0.05517469 -0.02668951
000270 6d 18 98 bc 8f 3e 14 3c 4c ad 24 bc 28 cb 6e bc
       -0.018566335 0.009048118 -0.010051083 -0.014574803
000280 eb de 4e 3d 56 1e 1d 3d b2 0d d2 3b 40 6b c1 3d
       0.05050556 0.03835901 0.006410324 0.094442844
000290 71 f1 c7 3d d4 ff 6d 3d 1c c0 65 3c 5a 35 96 3d
       0.09762848 0.058105305 0.014022853 0.07334395
0002a0 a4 33 be 3d 8f 7d 27 bc d9 9b 26 bc 43 33 38 3d
       0.092871934 -0.010222807 -0.010168993 0.044970762
0002b0 46 e5 3b 3c 18 ef 6e 3d 86 3c af bd 69 0d b8 bc
       0.011468237 0.058333486 -0.08556466 -0.022467332
0002c0 b4 bc 4c bd 04 18 87 bc 09 13 28 bd 50 42 98 3d
       -0.04998465 -0.016490944 -0.04103378 0.07434523
0002d0 0b 63 81 bd 0b 95 84 bd 44 79 87 bd 10 6c 56 bd
       -0.06317719 -0.0647374 -0.066149265 -0.05234915
0002e0 8b 0d b1 bc ca bc 8d bd 2d 44 0c 3d 79 02 18 3d
       -0.021612903 -0.06920774 0.034244705 0.037111733
0002f0 15 fa fd 3a 71 eb 9c 3d e5 44 7c 3d 4c f7 6c bc
       0.0019376898 0.076620944 0.06158914 -0.014463257
000300 ba d3 c3 bc 05 49 76 3c cc 4b b8 bc 16 40 0f 3d
       -0.02390467 0.015032058 -0.02249708 0.034973226
000310 20 18 7c bd 58 73 fc bc 6a 0a 49 3d 42 6f 5e 3d
       -0.061546445 -0.030816719 0.049082197 0.054305322
000320 a6 89 9f 3d 70 81 6d 3c 62 95 2e 3c 9f 1a 49 3d
       0.07789926 0.014496192 0.010655733 0.049097653
000330 4a 04 79 bd 96 93 cc 3b ce 77 c1 bc df 32 9a ba
       -0.060795106 0.0062431796 -0.023616698 -0.0011764428
000340 30 99 c2 ba 11 63 c6 bd 87 5b e1 3c 6e f9 93 3c
       -0.0014846679 -0.09686864 0.027509464 0.018063273
000350 6a 03 18 3d ab 27 43 3c 92 0c 17 3d d1 95 1a bd
       0.03711263 0.011911313 0.036877222 -0.037740532
000360 22 79 e1 3c 96 7d 97 bc 19 63 98 bc 90 f4 42 bd
       0.027523581 -0.018492501 -0.018601941 -0.047596514
000370 cc 38 9d 3d 02 20 40 bd c6 4d 86 3c 4e aa fa bb
       0.07676849 -0.046905525 0.016394507 -0.0076496964
000380 a5 30 99 3a 68 0e c3 bb 11 61 7e 3c 95 9c 98 3c
       0.0011687471 -0.005952645 0.015526072 0.018629352
000390 99 9e 9d bd cc 41 61 bd 52 cd 9b 3b 15 52 92 3a
       -0.07696266 -0.05499439 0.0047547007 0.0011163378
0003a0 a5 03 44 3b 46 b6 49 bc 3c e3 41 3d 2d 44 43 bd
       0.00299094 -0.012311524 0.04733585 -0.04767244
0003b0 42 39 b2 3b 44 60 b7 bc 15 d0 75 bd 25 b9 a4 bd
       0.0054389546 -0.02238477 -0.060012896 -0.08043126
0003c0 e5 38 82 bc 93 ca c9 bb ee 55 ee bc ff f4 6a bc
       -0.01589627 -0.006158182 -0.029093709 -0.014340638
0003d0 63 db a7 3b 84 7e 51 3d b2 ee 7b 3d e0 e8 03 bd
       0.0051225885 0.051146045 0.061506934 -0.03220451
0003e0 cd 6b 37 3d 24 cd 0f 3c 14 69 73 bd fd 19 8d bc
       0.04478054 0.008776937 -0.059426382 -0.017224306
0003f0 c4 fe 03 3c 80 ab b4 3b 7e 20 eb 3b b3 d1 a7 3c
       0.008056346 0.0055136085 0.007175504 0.020485735

ntm.controller.lstm.bias_hh_l0 f4 [400]
000000 9b f2 b5 3b cf 31 ee bc 79 01 59 bd 8a a5 83 3c
       0.0055526025 -0.029076485 -0.05297992 0.016070146
000010 f3 9e 32 bd 43 f5 ec bc 43 83 5e bd 07 43 d7 bd
       -0.043608617 -0.028925544 -0.0543244 -0.10510831
000020 21 cf f6 bc 6f c8 0d bd 74 23 9a bd 46 43 f0 bd
       -0.030128064 -0.034614976 -0.075262934 -0.117315814
000030 5a d3 b0 3b 6f 26 2f bd 7b dd fb bd fe ac 5e 3d
       0.005396289 -0.042761263 -0.122981034 0.054364197
000040 90 10 d8 3c aa 22 01 be 52 0d d6 bd 7d 5c ca bd
       0.026375085 -0.1261088 -0.104517594 -0.09880922
000050 51 68 8b bd 09 10 88 bd 26 f3 6a bd 81 a0 9b bc
       -0.06807006 -0.066436835 -0.05736079 -0.018997433
000060 9e ba ff bc c1 10 f0 bd 65 2e 8a bc 3c be 1a bd
       -0.031216916 -0.117219456 -0.016867826 -0.037779078
000070 77 e9 8b 3b 40 45 a8 bd c7 70 d1 bc 77 ee 2e bd
       0.0042697745 -0.082163334 -0.025566472 -0.042707887
000080 d6 20 3c bd 6b dd 06 bd 06 04 02 bd 90 b4 97 bc
       -0.045929752 -0.032926004 -0.03174212 -0.018518716
000090 15 d0 db bd e6 f5 b0 bd 01 bd b2 bd 62 53 72 bd
       -0.10733048 -0.086406514 -0.08727456 -0.05916155
0000a0 ca aa aa 3c c8 a7 33 bd 40 0c 83 bd 3f fa 29 bd
       0.020833392 -0.04386118 -0.06398821 -0.04149842
0000b0 49 86 36 bc 41 4d f6 bc 37 6c da bc dc 37 a0 bc
       -0.0111404145 -0.030066134 -0.026662929 -0.019557886
0000c0 8b 2b bb bd 03 f1 64 bc 77 4e cc bd 07 62 a7 bd
       -0.091391645 -0.013973477 -0.099759035 -0.08172994
0000d0 88 6b db bd ba e8 83 bd 4e 40 a0 bd 50 93 9c bd
       -0.10713869 -0.064408734 -0.07824765 -0.07645285
0000e0 7f ee e2 bb 85 04 64 bd 2f d2 8f bd c5 d2 e4 bc
       -0.0069254036 -0.055668373 -0.07022511 -0.027932534
0000f0 e2 3b 2b bd 90 c9 53 bc 72 93 73 bb 23 67 9f bd
       -0.041805156 -0.012926474 -0.0037166742 -0.07783344
000100 57 b7 2e bd 40 e6 0c bd b8 a9 86 bd 03 75 26 bd
       -0.042655315 -0.03439927 -0.0657534 -0.040638935
000110 de 65 b9 bd e8 cf ec bd ad fe 74 bd e0 f7 12 bd
       -0.09052633 -0.115630925 -0.05981319 -0.035880923
000120 a6 15 b4 bd e3 21 54 bd 7c c6 c3 bd 1a ac 3b bd
       -0.087931916 -0.05179013 -0.09559342 -0.045818426
000130 5d 4a 02 be ec b5 a6 bc 3c 01 3a bb ad 82 30 bd
       -0.1272368 -0.020350419 -0.0028382083 -0.043093372
000140 1e 69 75 bd 51 0d 69 bd a1 d2 b0 bd df 25 07 bd
       -0.0599147 -0.056897465 -0.08633924 -0.0329951
000150 09 01 1b bd 62 b2 e3 bd 6f e4 89 bc 80 2f ad bb
       -0.037842784 -0.11118008 -0.016832558 -0.0052852035
000160 ff b5 5b bd 75 82 63 3d 9c 4a 17 3c 5b b8 27 bd
       -0.053640362 0.055544335 0.009234097 -0.0409473
000170 fb 82 c0 bc 82 9c a0 bb 99 89 1a bd 0b 84 0a be
       -0.023499956 -0.0049014697 -0.03772888 -0.13526933
000180 88 dc df 3c 08 33 45 bd ec e2 ce bd 73 e7 1a 3d
       0.027326837 -0.04814437 -0.10101876 0.037818383
000190 62 72 c2 3c ab aa 87 3d 48 4f 65 bb 85 aa ab 3b
       0.023736183 0.06624349 -0.0034989882 0.0052388334
0001a0 9b 34 e3 3c 54 7d f0 3c 9e 04 a8 3a 10 85 ba bb
       0.027735045 0.029356636 0.0012818759 -0.005692132
0001b0 b8 cd 99 3d 43 ac 36 bd 1e 48 4f bc 97 5d 40 3c
       0.07509941 -0.044597875 -0.012651471 0.011741064
0001c0 4a 1c 6e bd de 20 21 bd 57 f4 1c bd 4d 11 ba 3d
       -0.058132447 -0.039337985 -0.038318958 0.09085331
0001d0 a5 61 6c 3b 67 ad 08 bb c4 bb 8f 3d ed 79 24 3d
       0.0036068943 -0.002085531 0.07018235 0.04015534
0001e0 8b 3b f3 bc 8e c4 7e bd 2d a6 11 3e ce c4 4f 3c
       -0.029691478 -0.062199168 0.14223547 0.012681199
0001f0 c1 4a 06 3e ed 4c 10 3c c9 ae 19 3d 68 a0 ca bc
       0.13114454 0.008807403 0.037520204 -0.02473469
000200 e7 56 cc bb 7b 4b 99 bd ed 04 a2 3d 99 d4 a9 3b
       -0.0062359455 -0.074851 0.07911096 0.0051828143
000210 61 52 e0 bc 68 aa d4 3b c6 f3 0d bb 0c c9 a6 bd
       -0.027383031 0.0064900406 -0.0021660193 -0.081438154
000220 53 71 4e bd 44 35 5b bd 25 41 52 3d ed 58 4a bd
       -0.050401043 -0.053517595 0.051331658 -0.049401212
000230 24 ed 16 3d 04 96 bc 3d 38 e8 82 bc f3 71 24 bd
       0.03684725 0.09208301 -0.015979871 -0.040147733
000240 63 c1 a3 3d da d1 2e 3d 05 bd 1a bd 17 85 be 3c
       0.0799587 0.0426806 -0.03777792 0.023256822
000250 ab 25 c4 bc df cb 33 3d cf d6 bf bb f9 4f ac bc
       -0.023943743 0.0438956 -0.0058544646 -0.021034228
000260 b4 c9 bf 3c 47 84 97 bd db fe 61 3d f6 a3 da bc
       0.02341161 -0.07398277 0.05517469 -0.02668951
000270 6d 18 98 bc 8f 3e 14 3c 4c ad 24 bc 28 cb 6e bc
       -0.018566335 0.009048118 -0.010051083 -0.014574803
000280 eb de 4e 3d 56 1e 1d 3d b2 0d d2 3b 40 6b c1 3d
       0.05050556 0.03835901 0.006410324 0.094442844
000290 71 f1 c7 3d d4 ff 6d 3d 1c c0 65 3c 5a 35 96 3d
       0.09762848 0.058105305 0.014022853 0.07334395
0002a0 a4 33 be 3d 8f 7d 27 bc d9 9b 26 bc 43 33 38 3d
       0.092871934 -0.010222807 -0.010168993 0.044970762
0002b0 46 e5 3b 3c 18 ef 6e 3d 86 3c af bd 69 0d b8 bc
       0.011468237 0.058333486 -0.08556466 -0.022467332
0002c0 b4 bc 4c bd 04 18 87 bc 09 13 28 bd 50 42 98 3d
       -0.04998465 -0.016490944 -0.04103378 0.07434523
0002d0 0b 63 81 bd 0b 95 84 bd 44 79 87 bd 10 6c 56 bd
       -0.06317719 -0.0647374 -0.066149265 -0.05234915
0002e0 8b 0d b1 bc ca bc 8d bd 2d 44 0c 3d 79 02 18 3d
       -0.021612903 -0.06920774 0.034244705 0.037111733
0002f0 15 fa fd 3a 71 eb 9c 3d e5 44 7c 3d 4c f7 6c bc
       0.0019376898 0.076620944 0.06158914 -0.014463257
000300 ba d3 c3 bc 05 49 76 3c cc 4b b8 bc 16 40 0f 3d
       -0.02390467 0.015032058 -0.02249708 0.034973226
000310 20 18 7c bd 58 73 fc bc 6a 0a 49 3d 42 6f 5e 3d
       -0.061546445 -0.030816719 0.049082197 0.054305322
000320 a6 89 9f 3d 70 81 6d 3c 62 95 2e 3c 9f 1a 49 3d
       0.07789926 0.014496192 0.010655733 0.049097653
000330 4a 04 79 bd 96 93 cc 3b ce 77 c1 bc df 32 9a ba
       -0.060795106 0.0062431796 -0.023616698 -0.0011764428
000340 30 99 c2 ba 11 63 c6 bd 87 5b e1 3c 6e f9 93 3c
       -0.0014846679 -0.09686864 0.027509464 0.018063273
000350 6a 03 18 3d ab 27 43 3c 92 0c 17 3d d1 95 1a bd
       0.03711263 0.011911313 0.036877222 -0.037740532
000360 22 79 e1 3c 96 7d 97 bc 19 63 98 bc 90 f4 42 bd
       0.027523581 -0.018492501 -0.018601941 -0.047596514
000370 cc 38 9d 3d 02 20 40 bd c6 4d 86 3c 4e aa fa bb
       0.07676849 -0.046905525 0.016394507 -0.0076496964
000380 a5 30 99 3a 68 0e c3 bb 11 61 7e 3c 95 9c 98 3c
       0.0011687471 -0.005952645 0.015526072 0.018629352
000390 99 9e 9d bd cc 41 61 bd 52 cd 9b 3b 15 52 92 3a
       -0.07696266 -0.05499439 0.0047547007 0.0011163378
0003a0 a5 03 44 3b 46 b6 49 bc 3c e3 41 3d 2d 44 43 bd
       0.00299094 -0.012311524 0.04733585 -0.04767244
0003b0 42 39 b2 3b 44 60 b7 bc 15 d0 75 bd 25 b9 a4 bd
       0.0054389546 -0.02238477 -0.060012896 -0.08043126
0003c0 e5 38 82 bc 93 ca c9 bb ee 55 ee bc ff f4 6a bc
       -0.01589627 -0.006158182 -0.029093709 -0.014340638
0003d0 63 db a7 3b 84 7e 51 3d b2 ee 7b 3d e0 e8 03 bd
       0.0051225885 0.051146045 0.061506934 -0.03220451
0003e0 cd 6b 37 3d 24 cd 0f 3c 14 69 73 bd fd 19 8d bc
       0.04478054 0.008776937 -0.059426382 -0.017224306
0003f0 c4 fe 03 3c 80 ab b4 3b 7e 20 eb 3b b3 d1 a7 3c
       0.008056346 0.0055136085 0.007175504 0.020485735

ntm.controller.lstm.weight_ih_l1 f4 [400, 100]
000000 cf d1 87 be b9 57 4c 3e 9b 04 69 be 98 5a 40 be
       -0.2652726 0.19955339 -0.22755663 -0.18784559
000010 74 18 af 3c 7e 69 ae 3d 42 1d 6d bc f7 bd 61 be
       0.021373965 0.08516215 -0.014472308 -0.22045122
000020 d6 c3 fc bc 79 f5 8a be 33 2a 65 3e 3b 2f 7c 3e
       -0.0308551 -0.27140406 0.22379379 0.24627392
000030 25 46 50 3e 38 7a ea bd 77 05 e1 b7 a4 4f 82 bd
       0.20339258 -0.114490926 -2.6824635e-05 -0.063628465
000040 ae 4e c5 bc 70 1f 67 3c 76 c3 d3 bc 9a 8c 34 bd
       -0.024085369 0.014106616 -0.025850039 -0.0440794
000050 06 c1 05 bc f9 0e 61 be 24 ce 01 be 20 b2 85 be
       -0.008163696 -0.21978368 -0.12676293 -0.2611246
000060 5f 92 50 bd 87 50 53 be eb 7b 5d be 49 f6 01 be
       -0.05092084 -0.20636187 -0.21629302 -0.12691607
000070 fd 0b ee 3d cd 03 bd 3e 53 c7 01 be 4e bd 95 be
       0.1162338 0.36916962 -0.12673692 -0.2924599
000080 85 2f a8 3e cf 2d 56 3e 60 d9 06 3e 53 76 a4 be
       0.32848755 0.20915912 0.1316886 -0.32121524
000090 a5 cc 3f 3d af 0c 15 be a4 55 cd 3e 67 31 3d 3d
       0.046826024 -0.1455562 0.401044 0.046189692
0000a0 f1 c6 3b be 7e ea 97 3e 5d b1 a4 be a3 d5 3d be
       -0.18337609 0.2967109 -0.32166567 -0.18538527
0000b0 27 f1 02 be ca 1e 5f be a3 c8 a8 3d ea 8c 14 be
       -0.12787305 -0.21789089 0.082413934 -0.1450688
0000c0 b7 fd 01 bd a2 da ab bc 76 ed 6f 3e 35 64 b0 be
       -0.031736102 -0.020978276 0.23430428 -0.34451452
0000d0 37 69 d5 3c ee 98 02 be 00 33 13 be 42 48 c6 3e
       0.026051147 -0.1275365 -0.14374924 0.38727003
0000e0 75 bb a2 3e e9 fc 40 bb 2d 14 48 bd 02 43 cc bd
       0.31783643 -0.0029447621 -0.048847366 -0.09973718
0000f0 67 09 92 3d a6 11 43 be 7b 72 ed 3d 0a 88 95 be
       0.071306996 -0.19049701 0.11594101 -0.29205352
000100 b9 7d 1e 3e 26 3b d4 3d a9 d7 b8 be 7c 0f 4b 3e
       0.15477647 0.10362844 -0.36102036 0.19830126
000110 01 43 94 bd 3e b3 5b 3e 26 e3 24 3e 7c 96 6d 3e
       -0.072393425 0.21455094 0.16102275 0.23201936
000120 22 85 88 be 95 7c 2b 3e 8d 81 dc bb f1 53 60 3c
       -0.26664072 0.16746743 -0.006729311 0.013691888
000130 a6 5c 30 3e e1 16 60 3e 88 b0 8d 3e 76 33 24 3d
       0.17222843 0.21883728 0.27673745 0.04008814
000140 a6 04 a0 3e 66 2b 9e be fa 01 ec 3c 67 20 2f be
       0.31253546 -0.30892485 0.028809536 -0.17102204
000150 7c 9a 7b 3e 15 e6 11 be 08 50 df 3d 0c fe b3 bd
       0.2457065 -0.14247926 0.109039366 -0.0878869
000160 0b 41 a7 3e bb f5 80 3e 07 30 58 be 37 11 cb 3e
       0.3266681 0.25187477 -0.21112071 0.3966157
000170 45 a3 84 3e a9 9b 89 3e d5 19 88 3e 19 74 82 bd
       0.25905815 0.26876572 0.26582208 -0.063698
000180 01 96 bc 3d ab 72 7d 3e c4 fe 67 3e 93 3a 84 3e
       0.092082985 0.24750774 0.22655779 0.2582594
000190 b9 26 9f be 31 df af 3e 4d 74 e6 bd 35 cf 0e 3e
       -0.3108423 0.3434997 -0.11252651 0.1394623
0001a0 f4 60 52 be 7d 41 4c 3e a0 52 c2 3e 46 f6 73 be
       -0.20544797 0.19946857 0.37953663 -0.23824415
0001b0 4d 22 82 3e f2 40 a2 3e 04 81 b5 bc 0d 77 97 3c
       0.25416794 0.31690174 -0.022156246 0.018489385
0001c0 c8 66 a2 3e 94 ce 9e bd 34 13 2c 3e 28 32 92 3e
       0.3171904 -0.077542454 0.168042 0.2855389
0001d0 05 5b b6 bd 8c 0e a0 3e 64 a4 22 3c 7b f9 92 bd
       -0.08904079 0.31261098 0.009926889 -0.07176491
0001e0 ee 4b 61 3e 3f 4b 64 be 93 c2 ad 3e 40 4b 8b be
       0.22001621 -0.22294329 0.3393751 -0.2720585
0001f0 67 d5 06 3e 3e 16 f0 3d 59 08 b2 bd 64 c2 47 3e
       0.13167344 0.11722992 -0.086929984 0.19507748
000200 8f 01 7a be 02 ac b5 3d 98 46 b4 be cc 81 a0 be
       -0.24414657 0.088706985 -0.3521011 -0.31349027
000210 14 55 83 be 6e 02 83 3c 5d 05 bc be c8 c8 37 be
       -0.25650847 0.01599237 -0.36722842 -0.17947686
000220 60 d8 a0 be 1c f0 a4 3b 8e 36 65 be 37 78 54 3e
       -0.3141508 0.005033506 -0.22384092 0.20748983
000230 d1 32 15 be f6 2f 8e 3d 01 82 5a be 73 c3 89 3e
       -0.14570166 0.069427416 -0.21338655 0.26906928
000240 37 33 c2 bb 64 81 4b 3e 22 16 62 be 9e 07 a7 3c
       -0.0059265154 0.19873577 -0.22078755 0.020389374
000250 e2 cf d1 bd f3 45 0e 3e 13 3d 49 be 81 ee 79 3d
       -0.102447286 0.13893871 -0.19652204 0.06101847
000260 2a 1a 57 3e 5c 58 8f 3e f7 0b 85 be dd 0e a1 3c
       0.21006075 0.279971 -0.2598569 0.019660408
000270 d9 9b 9d 3e e7 ac 61 3e 3a 17 41 be df 4c d6 3d
       0.30782965 0.22038613 -0.18856516 0.10463881
000280 51 76 f8 bd 13 ad ca 3c a0 17 40 be f9 ac d2 3d
       -0.12131942 0.024740731 -0.18759012 0.10286898
000290 f3 c8 3b be 16 8e 9d be 57 c3 b3 be 4d ac e7 3d
       -0.18338375 -0.30772465 -0.3510997 0.11312161
0002a0 47 85 6f be f4 9c 51 3e cc ac 8e bd f8 70 6d 3e
       -0.23390685 0.20470029 -0.06966552 0.23187625
0002b0 2d 74 34 3d 57 f8 96 be 44 8b cf be c4 ca b8 3e
       0.044056106 -0.29486343 -0.4053594 0.36092198
0002c0 68 da 8c 3e d2 f6 98 be 4c 3d 83 be 49 ef 50 3e
       0.2751038 -0.2987581 -0.25632703 0.2040378
0002d0 58 ec 28 be 86 ac 07 bc b9 41 ae 3e b8 14 75 bd
       -0.16496408 -0.008280879 0.34034517 -0.059834212
0002e0 f3 ee 3b bc 6f d3 aa 3e a7 c7 74 be 0c 97 03 3d
       -0.011470544 0.33364436 -0.23904286 0.03212647
0002f0 ff 8b 94 be b9 63 a6 be b1 19 56 bc bf ce 37 be
       -0.2901306 -0.32497957 -0.013067649 -0.17949961
000300 f6 88 39 3d 65 83 7e 3e 7a 68 db 39 a2 b4 67 be
       0.04529663 0.2485481 0.00041848776 -0.226275
000310 b5 12 0c be df 1a d8 be 55 c6 08 3b ae 41 b5 3c
       -0.13679011 -0.42208 0.0020870168 0.022126045
000320 c1 5b 5f be 73 dc 6c be 6b c8 2d 3c d9 e3 c7 3c
       -0.21812345 -0.2313097 0.010606865 0.024400638
000330 c7 60 d3 be 8f 55 8c 3e e7 b4 1c be 4e 82 06 bd
       -0.41284773 0.27409026 -0.15303384 -0.032839112
000340 94 50 03 be 1d 81 5a 3e d9 49 7b be d0 be 83 3e
       -0.12823707 0.21338315 -0.2453989 0.25731516
000350 e6 e6 4f 3e 44 f8 e2 3c d9 cc ce be 79 c8 75 be
       0.20302925 0.027706273 -0.4039066 -0.24002255
000360 fe 84 b4 3e a7 fe af 3c 84 0a 68 3e 19 7c e5 be
       0.35257715 0.021483732 0.22660261 -0.44821241
000370 ef b5 2f 3d 46 72 e2 bd f1 81 05 3e c6 58 00 3e
       0.042898115 -0.11056952 0.1303785 0.12533864
000380 76 0c f9 3d b8 99 8e 3e 70 d7 a5 be f3 ba 7d 3e
       0.1216058 0.27851653 -0.32390928 0.24778347
000390 ff 63 33 3d e9 a6 a6 3c 47 66 a0 be ad 9a 7c be
       0.043796536 0.02034326 -0.3132803 -0.24668379
0003a0 52 4e d5 bd 1a 3c d7 3e 76 3e 4d be 8d a2 77 3e
       -0.10415329 0.4203804 -0.20043358 0.24183102
0003b0 6c e8 16 3d 1e d5 1a be 7d 20 ae 3e 88 a4 51 3e
       0.03684275 -0.1512036 0.34009162 0.2047292
0003c0 31 6a a6 be 40 81 84 be ad 8a 7e 3e 54 8a 9a be
       -0.32502893 -0.2587986 0.24857588 -0.3018366
0003d0 59 39 51 be d8 70 d8 bc b3 b3 67 be e7 31 9e 3e
       -0.20432033 -0.026420996 -0.22627144 0.30897447
0003e0 76 ea 16 3e 86 c8 78 3e 2d 78 b0 be 94 ab 3a 3e
       0.14737877 0.24295244 -0.34466687 0.18229514
0003f0 9c 66 83 be 64 55 01 be 0c 30 2a ba d9 0a e0 be
       -0.25664222 -0.1263023 -0.0006492145 -0.43758276
