results/priority-sort/priority-sort-task-42-1-4-batch-60000.model (torch_old, 859809 bytes, 49 tensors)

ntm.read0_bias f4 [1, 20]
-0.0035572627 -0.0049819485 0.00995084 0.012137308 0.0027797567 0.00073770067 0.0028724882 -0.0026738474
-0.0036304188 0.0067155003 -0.014056895 -0.0012651847 -0.00096311804 -0.023733532 0.00010969976 -0.016720295
0.0019719163 0.006258539 0.0028406885 -0.007095402
00000000: f720 69bb 9d3f a3bb d908 233c 8fdb 463c
00000010: 942c 363b 4162 413a 5b40 3c3b b73b 2fbb
00000020: 52ec 6dbb b30d dc3b e44e 66bc 8ed4 a5ba
00000030: c279 7cba d36c c2bc 9c0e e638 00f9 88bc
00000040: 443b 013b 6e14 cd3b d82a 3a3b 8c80 e8bb

ntm.read1_bias f4 [1, 20]
-0.015462668 0.008050646 -0.0098473225 -0.0039146096 0.0015459844 -0.0005004765 -0.001979026 0.013289739
0.0019246038 0.0011243038 -0.007871659 0.00052532175 0.014440175 -0.016012242 0.014378367 -0.01283213
0.00441156 -0.005121514 0.029838413 -0.01678841
00000000: 2157 7dbc dbe6 033c aa56 21bc 2046 80bb
00000010: a1a2 ca3a 6932 03ba 8cb2 01bb 35bd 593c
00000020: fd42 fc3a 605d 933a 21f8 00bc bfb5 093a
00000030: 7c96 6c3c 1b2c 83bc 3e93 6b3c db3d 52bc
00000040: d98e 903b 60d2 a7bb b06f f43c d987 89bc

ntm.read2_bias f4 [1, 20]
-0.0042965 -0.0069874506 0.004793297 -0.0011993548 0.011911328 -0.018279927 -0.0072900807 -0.0024595861
-0.010277609 -0.02068276 0.0005956136 0.0059210286 0.029030103 0.0022674245 0.0023220207 0.006162672
0.00532179 -0.005650604 0.009316902 0.009983232
00000000: a7c9 8cbb fcf6 e4bb 1711 9d3b ab33 9dba
00000010: bb27 433c c9bf 95bc a1e1 eebb 0231 21bb
00000020: 6b63 28bc e46e a9bc f422 1c3a 3005 c23b
00000030: 8ad0 ed3c 1299 143b 0b2d 183b 3df0 c93b
00000040: 6962 ae3b b428 b9bb eba5 183c b690 233c

ntm.read3_bias f4 [1, 20]
0.012262609 -0.009934142 0.021711942 0.008702201 -0.0010691673 -0.0022874435 0.00090526073 -0.0019888
0.0060574445 0.011929079 0.01367335 -0.0065483674 -0.0080361795 -0.0014462784 0.0053306525 0.005642078
0.005073308 0.0051999455 0.007356102 -0.004535973
00000000: 1ce9 483c d0c2 22bc 3edd b13c ad93 0e3c
00000010: 4d23 8cba efe8 15bb 054f 6d3a 8756 02bb
00000020: 877d c63b 2f72 433c 3006 603c b093 d6bb
00000030: 2eaa 03bc 0d91 bdba c1ac ae3b 2ee1 b83b
00000040: fe3d a63b 4e64 aa3b 750b f13b 80a2 94bb

ntm.read4_bias f4 [1, 20]
-0.0070915404 -0.007766071 0.01029399 -0.00018552034 -0.01177425 -0.01405039 0.0039273184 -0.0071924236
-0.0065525994 0.0007843727 0.0013760037 -0.004159667 -0.0008465685 -0.00037015072 0.005736511 0.005078306
-0.0071236556 -0.011115877 0.012289181 -0.024585813
00000000: 2760 e8bb 867a febb 20a8 283c 3d88 42b9
00000010: c9e8 40bc 9b33 66bc bcb0 803b 6cae ebbb
00000020: 30b7 d6bb 5c9e 4d3a 065b b43a d14d 88bb
00000030: 40ec 5dba ca10 c2b9 58f9 bb3b eb67 a63b
00000040: 8e6d e9bb 5e1f 36bc 9058 493c 3068 c9bc

ntm.controller.lstm_h_bias f4 [2, 1, 100]
-0.095908985 0.0650862 0.007838945 -0.01488556 0.019906966 -0.11267283 -0.009773265 0.1059851
0.0246381 0.050841972 0.018249057 0.028417118 -0.020359 0.13554512 -0.042700652 0.09035511
-0.022651725 0.010620518 -0.028035352 0.0036356 -0.039739523 -0.044826057 0.060826477 -0.055161715
-0.13109227 -0.08355135 -0.045874942 0.058916498 0.010142469 0.072877064 -0.06748291 0.02562951
-0.08323348 0.07648824 0.0012971435 0.008033789 -0.047333993 -0.036857694 0.07150455 -0.0679692
-0.04940548 0.022357814 -0.009007132 0.14529328 0.053036746 -0.037514243 -0.025124883 0.1322907
-0.030354058 -0.13110253 -0.029837634 -0.06739692 -0.0013066912 -0.007069044 0.027649753 0.06170798
0.010320242 -0.011617088 0.05152582 -0.0864624 0.03310193 0.016529232 0.032956973 0.053381436
-0.001613072 0.082647644 -0.012845369 0.09264031 -0.055577017 0.021046678 0.07289448 0.12184846
-0.018533261 0.028875237 -0.043759096 0.06697118 -0.053177025 0.016758686 -0.029935151 0.059451222
-0.039749507 -0.013592493 0.03818443 -0.051993918 0.11601904 0.09885192 0.006980591 -0.1390168
0.02231668 0.013671904 -0.017333722 -0.025321685 -0.07274321 0.06821338 0.10231299 0.05887259
0.020941311 0.012155745 0.005322678 0.029249256 0.015235946 -0.06629466 -0.09227888 0.01573817
0.050756015 -0.036550015 0.035652336 0.03184023 0.048121653 0.024353402 0.09810143 -0.057921484
0.0164013 0.008173575 -0.03203214 -0.046107367 -0.050268088 -0.032103427 0.005739838 0.00078702084
0.16535866 -0.014360827 -0.034787044 -0.106938325 -0.037505027 0.07132433 0.01058053 -0.028135644
-0.05926727 -0.08977035 -0.13694657 -0.020957354 0.033844326 0.05774105 0.046631332 -0.024090758
0.07891467 -0.0037234472 0.056353662 0.0053995335 0.03514068 0.0489314 0.04457047 0.004637873
-0.037390906 0.09836603 0.021431556 0.1058173 0.06749539 -0.028419493 0.034231827 -0.03194226
0.054837994 -0.028337084 -0.11496349 0.028455248 0.0070438148 0.054655366 0.023776313 0.08493045
-0.1339929 0.026320066 0.016524047 0.04384274 -0.052079313 0.018183101 -0.01882308 0.044238407
-0.09538807 0.03351404 -0.0738751 0.001511082 0.104438774 0.03074706 -0.056216203 -0.020863323
-0.017180588 -0.063456826 -0.05082425 0.11380908 -0.004467592 0.016941942 0.012298245 0.0013862352
-0.013475859 -0.059282552 0.1231569 0.07534436 -0.07113023 0.0018809664 0.024431463 0.0017928977
-0.04615719 -0.08178126 0.037048284 -0.07152627 -0.05625079 0.14859818 -0.011982974 0.03676706
00000000: ee6b c4bd ea4b 853d eb6e 003c 90e2 73bc
00000010: ef13 a33c 03c1 e6bd 0b20 20bc b70e d93d
00000020: d7d5 c93c ac3f 503d 0c7f 953c 04cb e83c
00000030: ebc7 a6bc 57cc 0a3e e1e6 2ebd 1a0c b93d
00000040: 1c90 b9bc ae01 2e3c 65aa e5bc 3f43 6e3b
00000050: e9c5 22bd 879b 37bd 2f25 793d 40f1 61bd
00000060: 0d3d 06be f81c abbd 5de7 3bbd 6d52 713d
00000070: 992c 263c 9240 953d 7b34 8abd faf4 d13c
00000080: 5176 aabd dea5 9c3d ea04 aa3a 27a0 033c
00000090: 4ae1 41bd 18f8 16bd fa70 923d 7033 8bbd
000000a0: 675d 4abd bc27 b73c a692 13bc c3c7 143e
000000b0: 0f3d 593d 89a8 19bd b3d2 cdbc 3777 073e
000000c0: 13a9 f8bc be3f 06be 0e6e f4bc 6507 8abd
000000d0: 4845 abba 70a3 e7bb bc81 e23c 82c1 7c3d
000000e0: 3b16 293c 9955 3ebc bd0c 533d 3313 b1bd
000000f0: e495 073d 5068 873c e4fd 063d 7ea6 5a3d
00000100: b76d d3ba 2b43 a93d 6275 52bc 34ba bd3d
00000110: baa4 63bd 156a ac3c b349 953d af8b f93d
00000120: 11d3 97bc c38b ec3c bd3c 33bd 3028 893d
00000130: 27d0 59bd 8349 893c 903a f5bc 2083 733d
00000140: 61d0 22bd 0cb3 5ebc 4767 1c3d 93f7 54bd
00000150: 649b ed3d e072 ca3d 71bd e43b 6c5a 0ebe
00000160: 78d1 b63c 1f00 603c 73ff 8dbc 6c6f cfbc
00000170: 64fa 94bd 75b3 8b3d 7989 d13d 6324 713d
00000180: 1d8d ab3c e428 473c dc69 ae3b 239c ef3c
00000190: 30a0 793c 7fc5 87bd b6fc bcbd 56ed 803c
000001a0: 8ae5 4f3d 78b5 15bd 2f08 123d e76a 023d
000001b0: 361b 453d c980 c73c 67e9 c83d 143f 6dbd
000001c0: 055c 863c 75ea 053c 2234 03bd 14db 3cbd
000001d0: e9e5 4dbd e27e 03bd 4015 bc3b 1350 4e3a
000001e0: c853 293e ad49 6bbc dc7c 0ebd 7b02 dbbd
000001f0: df9e 19bd 7e12 923d f659 2d3c b97c e6bc
00000200: 3dc2 72bd 84d9 b7bd b93b 0cbe c2ae abbc
00000210: 59a0 0a3d e181 6c3d 7f00 3f3d fb59 c5bc
00000220: 049e a13d 1405 74bb 19d3 663d 92ee b03b
00000230: acef 0f3d 4b6c 483d 868f 363d 4cf9 973b
00000240: 3527 19bd 2174 c93d 3b91 af3c beb6 d83d
00000250: 063b 8a3d ffcf e8bc ac36 0c3d e3d5 02bd
00000260: ce9d 603d 2c23 e8bc fa71 ebbd fb1a e93c
00000270: cdcf e63b 4ede 5f3d 8bc6 c23c 04f0 ad3d
00000280: 6f35 09be 2e9d d73c 705d 873c 7294 333d
00000290: 1e51 55bd baf4 943c dc32 9abc 5533 353d
000002a0: d25a c3bd 0546 093d d44b 97bd 800f c63a
000002b0: ffe3 d53d 42e1 fb3c f642 66bd 8fe9 aabc
000002c0: 4ebe 8cbc a7f5 81bd 172d 50bd bc14 e93d
000002d0: e164 92bb d4c9 8a3c 947e 493c 56b2 b53a
000002e0: d9c9 5cbc 43d2 72bd af39 fc3d 254e 9a3d
000002f0: baac 91bd c28a f63a 7e24 c83c aaff ea3a
00000300: 520f 3dbd ef7c a7bd f1bf 173d 5d7c 92bd
00000310: 3a67 66bd 1f2a 183e 3c54 44bc 0f99 163d

ntm.controller.lstm_c_bias f4 [2, 1, 100]
-0.08411868 -0.053150848 -0.017578062 0.06245286 0.009138763 -0.05233857 -0.023604106 0.05698439
0.06887201 -0.052269306 0.036164824 0.097610325 0.04004734 0.017752225 -0.08386258 -0.018479608
-0.018555157 0.031388935 -0.08709787 0.076124445 0.024563571 -0.081357464 0.014558609 -0.00959506
0.014886778 -0.050137144 -0.10281201 0.09775796 0.05607666 -0.013230163 -0.0939101 0.11061618
0.055291846 -0.22090207 -0.061782558 -0.00064459676 -0.08302509 0.037694585 -0.03300553 0.050192863
-0.0507495 -0.049904797 0.029820735 0.085526556 0.13950792 0.03428703 0.041852143 -0.0019209413
-0.066759564 -0.10012144 -0.02243132 -0.040859386 0.12300205 -0.004970873 -0.07101698 -0.052813612
-0.08010432 0.021422714 -0.00072703045 0.014776849 -0.10677874 0.08953759 -0.04109737 -0.08706974
0.03877266 -0.0647246 -0.04923733 -0.068367615 -0.037113998 0.04311759 0.096864365 -0.05619564
0.027217774 -0.0082078 -0.022281451 -0.0913595 -0.07119043 0.013208774 -0.0044033984 -0.001987625
0.01413195 0.029804576 -0.076166056 -0.06372616 0.05513771 0.036997598 0.023190152 0.102943495
-0.17996569 -0.026013076 0.034060977 0.008519733 -0.010587901 -0.07230475 -0.082956545 -0.061509475
0.036364075 -0.038854122 0.030016795 -0.02999976 -0.019001463 -0.035501942 -0.049813963 -0.045977917
0.0034964678 0.064470366 0.04802557 -0.041573886 0.07259449 0.08627961 0.035266638 -0.05778595
-0.03382939 0.0038300192 0.04450392 0.04157073 0.041596025 0.051671963 -0.0132920565 -0.07754025
0.13514459 -0.08166366 0.064265214 0.063116744 0.07203089 -0.028758677 0.0329859 0.081139885
-0.088643186 0.0936556 -0.011810003 0.029032946 0.04706097 0.020737078 0.015500861 0.018525455
-0.0050888746 -0.1521709 0.0051489165 -0.035649404 -0.04554124 -0.0013060276 -0.037313852 0.07549156
0.011583402 0.029643478 -0.025080238 -0.050313182 0.013239396 -0.028272236 -0.08806365 -0.014224863
0.05114857 -0.049248774 -0.038814675 0.15051652 0.08882274 0.007863386 0.040334225 -0.15154742
0.06405332 -0.12638007 -0.055333953 0.010643024 0.0032514015 -0.011649203 0.0032582383 -0.042563133
0.024889505 0.03006778 -0.14885658 -0.015995167 0.089793354 -0.13340844 0.035513844 0.03228044
-0.083301924 0.066445865 0.06633954 -0.050429408 0.00072267646 -0.029258333 0.074122466 -0.09774604
0.03753565 0.081639886 0.021225581 -0.09291348 0.0712369 -0.043503247 0.09755512 -0.02092086
-0.006226507 -0.02672901 0.06416646 0.0002564028 -0.039103486 -0.012538209 0.0013507588 0.064693
00000000: 6a46 acbd b4b4 59bd deff 8fbc 92ce 7f3d
00000010: c0ba 153c f860 56bd 665d c1bc 7768 693d
00000020: c50c 8d3d 5718 56bd 9121 143d ece7 c73d
00000030: ae08 243d 1d6d 913c 25c0 abbd 8c62 97bc
00000040: fc00 98bc af91 003d 5e60 b2bd 22e7 9b3d
00000050: 8b39 c93c be9e a6bd 3b87 6e3c 9934 1dbc
00000060: ace7 733c 9b5c 4dbd 1a8f d2bd 5335 c83d
00000070: a4b0 653d 53c3 58bc f053 c0bd bc8a e23d
00000080: b479 623d 2734 62be b50f 7dbd 28fa 28ba
00000090: 0f09 aabd a365 1a3d ce30 07bd 0897 4d3d
000000a0: b5de 4fbd f968 4cbd 9d4a f43c 8c28 af3d
000000b0: 2adb 0e3e 8f70 0c3d 276d 2b3d 18c8 fbba
000000c0: 3db9 88bd 780c cdbd e3c1 b7bc 2c5c 27bd
000000d0: 80e8 fb3d b4e2 a2bb 5a71 91bd 1653 58bd
000000e0: bc0d a4bd b07e af3c 3096 3eba 991a 723c
000000f0: d0ae dabd 7c5f b73d b755 28bd 9f51 b2bd
00000100: 15d0 1e3d 558e 84bd 15ad 49bd 5204 8cbd
00000110: d904 18bd 129c 303d d360 c63d 662d 66bd
00000120: cff7 de3c 027a 06bc 9787 b6bc b11a bbbd
00000130: 4acc 91bd 9d69 583c 624a 90bb d042 02bb
00000140: b289 673c ba28 f43c f3fc 9bbd dc82 82bd
00000150: 14d8 613d cb8a 173d 46f9 bd3c 0ad4 d23d
00000160: ed48 38be 6019 d5bc 8683 0b3d 5a96 0b3c
00000170: e078 2dbc 8314 94bd 1fe5 a9bd 5cf1 7bbd
00000180: 7ff2 143d 8025 1fbd c8e5 f53c 0fc2 f5bc
00000190: f5a8 9bbc 7c6a 11bd ba09 4cbd 5753 3cbd
000001a0: ff24 653b 0a09 843d 76b6 443d 6149 2abd
000001b0: 6cac 943d 5db3 b03d c073 103d f6b0 6cbd
000001c0: b090 0abd 0f01 7b3b be49 363d 1246 2a3d
000001d0: 9860 2a3d fba5 533d edc6 59bc 6ccd 9ebd
000001e0: 5863 0a3e 473f a7bd 7b9d 833d 5a43 813d
000001f0: ee84 933d 5197 ebbc 391c 073d ab2c a63d
00000200: 8f8a b5bd 82ce bf3d be7e 41bc 80d6 ed3c
00000210: 01c3 403d cee0 a93c 53f7 7d3c b2c2 973c
00000220: 93c0 a6bb b0d2 1bbe 3eb8 a83b 1c05 12bd
00000230: 7489 3abd 042f abba 69d6 18bd 529b 9a3d
00000240: 4fc8 3d3c e1d6 f23c 1275 cdbc 3215 4ebd
00000250: 0dea 583c 2d9b e7bc b75a b4bd 660f 69bc
00000260: 2a81 513d 15b9 49bd 23fc 1ebd 0121 1a3e
00000270: b2e8 b53d 6ed5 003c 8035 253d 3f2f 1bbe
00000280: 632e 833d c769 01be dba5 62bd 1460 2e3c
00000290: 7715 553b 4cdc 3ebc 2b88 553b ae56 2ebd
000002a0: 13e5 cb3c b450 f63c dc6d 18be 4c08 83bc
000002b0: 94e5 b73d 399c 08be f776 113d 7f38 043d
000002c0: 339a aabd c514 883d 06dd 873d 118f 4ebd
000002d0: ff71 3d3a 2caf efbc 85cd 973d 132f c8bd
000002e0: fbbe 193d d032 a73d 45e1 ad3c 6c49 bebd
000002f0: a7e4 913d 7630 32bd fbca c73d 3962 abbc
00000300: ba07 ccbb ccf6 dabc b469 833d cd6d 8639
00000310: fa2a 20bd 0f6d 4dbc f20b b13a c37d 843d

ntm.controller.lstm.weight_ih_l0 f4 [400, 103]
-0.42459756 0.5320756 0.21175252 -0.062784396 0.10884141 0.277434 -0.06359018 0.18692057
0.04736104 -0.2704495 0.18375795 -0.026511192 0.35912088 -0.23742706 0.3057508 -0.36191356
-0.11593003 0.07868467 0.23968586 -0.052528314 0.11165026 0.48784074 0.063990034 -0.039693076
-0.4325592 -0.029712168 -0.14422923 -0.3243068 -0.21120061 -0.24389273 -0.27091187 -0.08325898
0.3674538 0.22231573 -0.1608446 -0.39317697 -0.04190305 -0.33203027 0.21802661 -0.055351894
0.020142527 0.10387407 -0.11003008 0.18077563 -0.3450766 0.48783386 -0.39498 -0.14384526
-0.3249997 -0.1927193 0.063088 0.18202165 -0.26509297 -0.060774837 0.38825095 0.03886403
0.16071965 0.14390455 0.34572288 0.1483596 -0.34485018 0.09810806 -0.22688292 -0.4175033
-0.012433293 -0.06336634 0.21968672 0.15690157 0.080687225 0.025946368 -0.040793993 0.21843338
0.26270795 -0.4303057 0.29008597 -0.3484533 -0.16192359 -0.11665139 -0.20133324 -0.22945607
-0.14946398 -0.088915244 0.28098583 -0.3615286 -0.25111264 0.31115487 0.16237585 0.055559207
-0.21869193 0.06808144 -0.067441724 0.085070305 0.12512346 -0.35444736 0.1947624 -0.28883797
-0.036152974 0.13882825 0.24305667 0.22814813 -0.025169283 0.16404782 0.331164 -0.14071307
0.29581288 0.23389848 -0.2710714 -0.2717747 -0.13949609 -0.098597296 0.048616562 -0.07176626
0.17298028 0.25837752 -0.04852866 -0.26581573 -0.04175645 -0.2104307 -0.31532395 0.07019988
-0.23341157 0.38331613 0.11830175 -0.22842208 -0.14649765 -0.0799469 -0.3014395 -0.23949055
-0.010030002 -0.09040392 -0.024221232 -0.37085608 -0.23096901 -0.23969577 -0.007355392 0.19141263
-0.4151479 0.21859159 -0.30867594 -0.15904237 0.2523655 0.116957374 -0.47489253 0.05208538
0.013227734 0.21850273 -0.17125343 0.019245313 0.20667055 0.15197654 -0.060511854 -0.013791087
0.08723399 -0.3300822 -0.090659544 0.19634257 -0.10503878 -0.24883693 -0.17219464 0.109390356
-0.17074022 0.07877164 -0.05568546 -0.36452493 0.44006246 0.25104225 -0.032830395 -0.440399
0.20040561 0.00863482 -0.32464504 -0.03511044 0.09053952 0.18866245 -0.2011077 -0.11039304
-0.29914072 -0.16313457 -0.1413532 -0.21176212 -0.07752209 0.18419574 0.103276744 0.15917996
0.0591552 0.20304033 -0.31886703 -0.32893497 0.44528925 -0.30944875 -0.24153662 -0.39646143
-0.43020248 0.23665573 0.1792588 -0.34705418 -0.30979404 0.3771005 -0.13334344 -0.1676192
-0.43605185 -0.31613275 0.21552706 -0.16036785 0.060352933 -0.06564605 -0.32805532 0.62928736
0.2585656 0.013740333 -0.24559604 0.023721453 -0.34046832 0.1610307 -0.055492245 0.26837498
0.30563116 0.26449934 0.29123878 -0.08272674 0.067539155 0.014246506 -0.15180932 -0.34570736
-0.022024944 -0.288786 -0.30965605 -0.0905003 -0.36053106 0.20878515 -0.072627254 -0.17641394
0.13152014 -0.21558514 0.14007318 0.27221903 -0.14839171 0.23299065 -0.27339324 0.33485195
-0.2702404 -0.1860202 0.18452811 -0.15691884 0.19645773 -0.32087573 -0.18764839 0.00045870748
0.30011383 -0.38568583 -0.06666036 0.10816623 -0.008059056 -0.076924376 0.32404748 0.33378187
00000000: da64 d9be 1b36 083f a7d5 583e 1b95 80bd
00000010: 3fe8 de3d d40b 8e3e 913b 82bd 1b68 3f3e
00000020: a6fd 413d 5b78 8abe 0b2b 3c3e 002e d9bc
00000030: b1de b73e 1420 73be 5e8b 9c3e bc4c b9be
00000040: b96c edbd 6e25 a13d 3670 753e ee27 57bd
00000050: e4a8 e43d 43c6 f93e 350d 833d 3595 22bd
00000060: 6678 ddbe ef66 f3bc d4b0 13be 8a0b a6be
00000070: f944 58be 04bf 79be f6b4 8abe af83 aabd
00000080: e822 bc3e bca6 633e 72b4 24be 7e4e c9be
00000090: 88a2 2bbd dfff a9be 5e42 5f3e abb8 62bd
000000a0: f101 a53c eebb d43d 7357 e1bd 3f1d 393e
000000b0: e1ad b0be 5cc5 f93e d23a cabe 2c4c 13be
000000c0: 5c66 a6be 3558 45be 4834 813d e263 3a3e
000000d0: 44ba 87be 09ef 78bd d4c8 c63e e42f 1f3d
000000e0: b193 243e b75b 133e 9702 b13e 94eb 173e
000000f0: 3490 b0be e1ec c83d ff53 68be fec2 d5be
00000100: 03b5 4bbc 36c6 81bd 8ef5 603e ceaa 203e
00000110: 583f a53d 7a8d d43c 9a17 27bd 00ad 5f3e
00000120: a881 863e 0751 dcbe 2686 943e 7968 b2be
00000130: 4ccf 25be ede6 eebd 4d2a 4ebe 88f6 6abe
00000140: 160d 19be 3219 b6bd 60dd 8f3e 471a b9be
00000150: d691 80be b14f 9f3e db45 263e 0d92 633d
00000160: c7f0 5fbe 486e 8b3d e31e 8abd 5739 ae3d
00000170: 5d20 003e 207a b5be cb6f 473e 92e2 93be
00000180: 2415 14bd fe28 0e3e d9e3 783e aa9f 693e
00000190: d02f cebc 27fc 273e 548e a93e 1617 10be
000001a0: c974 973e 1583 6f3e dfc9 8abe 0e26 8bbe
000001b0: 10d8 0ebe 61ed c9bd 2922 473d 30fa 92bd
000001c0: be21 313e 0f4a 843e fdc5 46bd 0019 88be
000001d0: d008 2bbd 257b 57be 2472 a1be f4c4 8f3d
000001e0: 7103 6fbe 0342 c43e 3048 f23d 7ae7 69be
000001f0: 7b03 16be 33bb a3bd 4756 9abe 033d 75be
00000200: e154 24bc b125 b9bd 9b6b c6bc d9e0 bdbe
00000210: 2483 6cbe cf72 75be 8005 f1bb ac01 443e
00000220: 448e d4be 79d6 5f3e c60a 9ebe 01dc 22be
00000230: 0d36 813e 5987 ef3d 1d25 f3be 7b57 553d
00000240: 23b9 583c 2ebf 5f3e 0f5d 2fbe 59a8 9d3c
00000250: 72a1 533e bd9f 1b3e 47db 77bd 03f4 61bc
00000260: bca7 b23d 8900 a9be b6ab b9bd 070e 493e
00000270: 921e d7bd 1ccf 7ebe cb53 30be 0d08 e03d
00000280: 86d6 2ebe 0753 a13d 7016 64bd 03a3 babe
00000290: de4f e13e 9c88 803e 2a79 06bd fa7b e1be
000002a0: 2137 4d3e 0f79 0d3c e037 a6be f7cf 0fbd
000002b0: c96c b93d bb30 413e 2def 4dbe bf15 e2bd
000002c0: f928 99be c00c 27be e5be 10be 2bd8 58be
000002d0: e7c3 9ebd cf9d 3c3e c282 d33d 1200 233e
000002e0: b94c 723d cee9 4f3e 8a42 a3be 2a6a a8be
000002f0: f4fc e33e 1170 9ebe 6055 77be fefc cabe
00000300: 8043 dcbe e155 723e 9e8f 373e 16b1 b1be
00000310: 539d 9ebe 5113 c13e 2f8b 08be 5ea4 2bbe
00000320: 3042 dfbe 27dc a1be 20b3 5c3e 7837 24be
00000330: a334 773d 7071 86bd def6 a7be fa18 213f
00000340: b662 843e 221f 613c 877d 7bbe 7e53 c23c
00000350: dd51 aebe 3be5 243e d64b 63bd 7268 893e
00000360: b07b 9c3e 756c 873e 401d 953e a36c a9bd
00000370: f851 8a3d 2d6a 693c e773 1bbe 8e00 b1be
00000380: a86d b4bc c2db 93be 3d8b 9ebe 3958 b9bd
00000390: 8797 b8be c6cb 553e 99bd 94bd dba5 34be
000003a0: 37ad 063e 5ac2 5cbe 586f 0f3e 4b60 8b3e
000003b0: fff3 17be 1a95 6e3e 33fa 8bbe b771 ab3e
000003c0: f35c 8abe 147c 3ebe f0f4 3c3e 55af 20be
000003d0: 372c 493e d349 a4be e626 40be ad7e f039
000003e0: 85a8 993e 9d78 c5be 3a85 88bd 4286 dd3d
000003f0: 210a 04bc 878a 9dbd 8de9 a53e 75e5 aa3e

ntm.controller.lstm.weight_hh_l0 f4 [400, 100]
0.073437214 -0.25518957 -0.54183006 -0.0567659 -0.103800096 0.27648538 -0.41854635 0.04088148
0.22332644 0.3867163 -0.30964983 0.29620695 -0.2671047 0.12254125 0.58417225 -0.14739022
0.12613758 -0.09285081 -0.46291995 0.26909125 -0.075122826 -0.051166944 -0.2213837 -0.3365363
-0.1266749 -0.30599925 -0.16434084 -0.38945693 0.33608568 -0.44937843 -0.0409135 0.008831416
-0.06830496 -0.0030594699 0.035839736 0.16674729 0.017162813 0.033523027 -0.06539869 -0.3327862
-0.11037317 -0.30837145 0.42518646 -0.16941534 -0.08379761 0.30313757 0.0066544265 0.19625296
0.037735008 0.12089457 -0.008961498 0.28971004 -0.012406508 0.4597424 0.38611445 -0.10465717
-0.14856693 -0.19738808 -0.09877278 -0.07885109 0.18904854 -0.5398486 -0.32590127 0.36345196
0.31322247 0.01952236 -0.101470344 0.23661105 0.074797384 -0.14006682 -0.07081813 -0.1565375
0.5690442 0.06494701 0.016425386 -0.28039643 0.037048236 -0.42260793 -0.0043151504 0.12741795
0.26089704 -0.22747307 0.038517725 -0.25958312 0.29198313 -0.37501645 -0.04217556 0.33735293
0.14408067 0.32830742 0.11269031 0.04714607 0.10998693 0.15213104 0.16411488 0.105310395
-0.22655009 0.34857327 0.05155247 -0.070855096 -0.053250268 0.05531883 -0.20697974 0.20678583
0.09751431 -0.1624897 -0.18395886 -0.15766473 0.05222348 0.20307367 -0.14188461 -0.18468612
-0.0044073244 0.09762152 -0.39092156 -0.17917481 -0.17314735 0.17376511 0.12193294 0.014409377
0.01904869 -0.1210318 -0.05550163 0.03989666 0.24023011 0.1455787 0.3423971 0.25244632
-0.3302488 0.1502417 -0.0177718 0.1708595 0.22637202 0.029428212 -0.41839984 -0.05717197
0.055004783 -0.027096756 -0.05208759 0.2672758 0.20838282 -0.25230095 -0.117630996 0.038556054
0.15789817 0.066603914 0.10603901 0.11823683 -0.35441023 -0.042510737 0.19785178 0.18526594
-0.25713524 0.24037722 0.37037036 -0.38049075 0.33665317 0.22023104 -0.18417622 0.21727014
-0.0819646 -0.064826205 -0.17393811 -0.31858963 -0.20653662 0.36107352 -0.17138663 0.16695657
0.45418683 -0.05207287 0.03622269 -0.10773603 0.17467001 -0.08084735 0.06643338 0.3291099
0.09989703 0.17290217 -0.26162317 0.05445247 0.010450682 -0.23144627 -0.06924192 0.08727877
-0.23880117 0.1683397 -0.053527705 0.080323674 0.023103299 0.31871736 -0.28189147 -0.15179214
-0.0012633769 -0.17123145 0.050200332 -0.09134154 -0.20259173 -0.48319453 -0.2791549 -0.3287353
0.5225198 -0.3694697 -0.25465745 -0.26088518 -0.28600773 0.2294537 -0.2444618 -0.09348756
-0.28446817 0.28649476 -0.17289495 0.1678816 -0.19645973 0.055819172 0.43668717 -0.3321207
0.06545057 -0.22500679 0.35000277 0.15484518 0.3199883 0.22075596 -0.051786028 -0.10088685
-0.05697926 -0.017601972 0.32946244 -0.42919052 0.10823781 -0.041695647 0.19338423 -0.37824908
-0.4002586 -0.07692966 -0.30909225 0.08326077 -0.26419178 0.07253153 0.15940654 -0.0074091735
-0.19667149 0.22568183 0.35854802 -0.41089487 -0.08046944 -0.05825998 0.11372629 0.04522238
0.0010572284 0.457614 -0.18106866 0.4373552 0.07943844 -0.01870436 0.1038532 -0.24093045
00000000: 4066 963d 35a8 82be 60b5 0abf 5c83 68bd
00000010: 2595 d4bd 7e8f 8d3e b54b d6be 5773 273d
00000020: b0af 643e aeff c53e 6c8a 9ebe 70a8 973e
00000030: f2c1 88be e8f6 fa3d 508c 153f 76ed 16be
00000040: 362a 013e 9128 bebd d803 edbe 54c6 893e
00000050: ffd9 99bd 6e94 51bd 69b2 62be 7c4e acbe
00000060: 11b7 01be efab 9cbe f748 28be e666 c7be
00000070: 6c13 ac3e ee14 e6be ea94 27bd a5b1 103c
00000080: 79e3 8bbd 6381 48bb b0cc 123d cdbf 2a3e
00000090: 0799 8c3c 714f 093d c0ef 85bd f462 aabe
000000a0: 540b e2bd dde2 9dbe 0ab2 d93e 377b 2dbe
000000b0: 159e abbd d934 9b3e 600d da3b 89f6 483e
000000c0: 0690 1a3d 9397 f73d 3fd3 12bc e054 943e
000000d0: ab44 4bbc 5b63 eb3e cbb0 c53e 8056 d6bd
000000e0: ee21 18be 1a20 4abe 6249 cabd ae7c a1bd
000000f0: f195 413e 8533 0abf 88dc a6be 6016 ba3e
00000100: b25e a03e 5bed 9f3c afcf cfbd 2b4a 723e
00000110: 5f2f 993d ad6d 0fbe 1909 91bd 5e4b 20be
00000120: e1ac 113f f002 853d 888e 863c 1f90 8fbe
00000130: e4bf 173d 1160 d8be 1b66 8dbb da79 023e
00000140: 4c94 853e b3ee 68be c3c4 1d3d 14e8 84be
00000150: d07e 953e 2802 c0be 48c0 2cbd 86b9 ac3e
00000160: e289 133e e917 a83e 2dca e63d 3d1c 413d
00000170: d440 e13d 3dc8 1b3e bb0d 283e faac d73d
00000180: bffc 67be 3278 b23e af28 533d 7a1c 91bd
00000190: f41c 5abd ff95 623d 7ff2 53be aabf 533e
000001a0: 95b5 c73d b363 26be b65f 3cbe dd72 21be
000001b0: 4ae8 553d 8bf2 4f3e 334a 11be 5c1e 3dbe
000001c0: 516b 90bb cbed c73d df26 c8be 9a79 37be
000001d0: 8a4d 31be 7bef 313e fab7 f93d 4f15 6c3c
000001e0: 000c 9c3c 85df f7bd ad55 63bd ae6a 233d
000001f0: e2fe 753e 9512 153e ac4e af3e a540 813e
00000200: 5f16 a9be f6d8 193e 2a96 91bc cbf5 2e3e
00000210: 11ce 673e 6f13 f13c 8138 d6be 282d 6abd
00000220: b24c 613d 04fa ddbc cc59 55bd 60d8 883e
00000230: 4e62 553e 972d 81be 85e8 f0bd f4ec 1d3d
00000240: 0fb0 213e a267 883d fb2a d93d 2726 f23d
00000250: 4275 b5be bd1f 2ebd a899 4a3e 5bb6 3d3e
00000260: 3ba7 83be 7225 763e 2fa1 bd3e afcf c2be
00000270: ce5d ac3e 3f84 613e b198 3cbe 107c 5e3e
00000280: 0edd a7bd 9ac3 84bd d51c 32be 2e1e a3be
00000290: 567e 53be a1de b83e fa7f 2fbe aaf6 2a3e
000002a0: 2d8b e83e 5d4a 55bd 3e5e 143d b5a4 dcbd
000002b0: b2dc 323e 4c93 a5bd 390e 883d 1881 a83e
000002c0: d096 cc3d 440d 313e 79f3 85be 8e09 5f3d
000002d0: 5639 2b3c 4000 6dbe b5ce 8dbd 36bf b23d
000002e0: 4b88 74be 3e61 2c3e de3f 5bbd bd80 a43d
000002f0: 2143 bd3c ec2e a33e 1454 90be 666f 1bbe
00000300: e597 a5ba 4c57 2fbe dd9e 4d3d 4611 bbbd
00000310: 3574 4fbe 4665 f7be 64ed 8ebe fe4f a8be
00000320: dcc3 053f 222b bdbe 7662 82be be92 85be
00000330: 9b6f 92be e9f5 6a3e 3254 7abe 6876 bfbd
00000340: d0a5 91be 71af 923e 600b 31be 27e9 2b3e
00000350: bd2c 49be a5a2 643d 7695 df3e b90b aabe
00000360: f30a 863d 2e68 66be 9033 b33e bc8f 1e3e
00000370: 82d5 a33e da0d 623e 961d 54bd c49d cebd
00000380: 1663 69bd 0332 90bc 4daf a83e dcbe dbbe
00000390: c9ab dd3d 0ec9 2abd 8406 463e dda9 c1be
000003a0: b2ee ccbe 4c8d 9dbd 5741 9ebe 9f84 aa3d
000003b0: 2544 87be 698b 943d 783b 233e a7c8 f2bb
000003c0: 4064 49be 2319 673e 9b93 b73e d060 d2be
000003d0: 29cd a4bd 04a2 6ebd 54e9 e83d 1a3b 393d
000003e0: b392 8a3a 624c ea3e 106a 39be 05ed df3e
000003f0: 9fb0 a23d e339 99bc fdb0 d43d 79b6 76be

ntm.controller.lstm.bias_ih_l0 f4 [400]
0.00032507675 -0.083424486 -4.3385087e-05 -0.11636624 0.105350055 0.14726822 0.0035285146 -0.002103725
-0.015818661 -0.040443793 -0.05906498 -0.009432745 -0.108033985 0.020196399 0.034732636 -0.10585754
-0.045233194 0.0968691 0.05460226 0.0162657 -0.097012736 -0.06601067 -0.007505637 0.13579209
-0.014880324 -0.0047776117 0.02895531 -0.0826174 -0.01338313 -0.0982163 -0.020193422 -0.062033746
0.005159166 -0.049723715 -0.04560582 -0.024667477 -0.01706257 0.017874856 0.020952042 0.022993607
-0.057551216 -0.032528322 -0.018301247 -0.02698528 -0.04549837 -0.07024138 0.0209461 -0.03409791
-0.034203384 -0.020632625 -0.050219633 -0.043929134 -0.0500356 0.059851542 -0.18459629 -0.041678574
0.019855294 0.10777902 0.075456336 -0.03077733 0.026632294 -0.034656025 -0.097635455 0.049179204
0.112993084 -0.051217996 0.013873057 -0.017607128 -0.13200334 0.02691664 -0.053402856 -0.04795894
0.17760828 0.026731186 -0.06289981 0.035404872 -0.08299373 0.0028192163 0.0135990335 0.16486931
0.028791692 -0.020260748 0.0005440207 -0.024457827 -0.2017756 -0.08998003 -0.029594488 -0.049301464
-0.05237732 -0.030391121 -0.045378868 -0.03415041 -0.036487617 0.024077773 -0.041478682 0.00731245
-0.05282498 0.06141641 0.04389798 -0.008795092 0.06708404 -0.07517588 0.031277128 -0.24109297
-0.056452245 -0.0009775226 -0.005256871 -0.034545332 0.0096159605 -0.09184794 -0.02836312 0.045196384
-0.02507745 -0.046397064 0.041063875 -0.0013541243 0.0005689675 -0.067635365 -0.02572887 0.031425755
-0.097328216 0.06080838 -0.044338968 -0.034220092 -0.059646055 0.011380158 -0.08110906 0.063538425
-0.08753949 0.005330273 0.091185324 -0.119732596 -0.02246612 0.08341813 -0.09176125 0.067877606
0.007879479 0.056956686 0.014991579 -0.07822234 -0.0120235095 -0.028853185 -0.073605575 -0.046230797
0.027010996 -0.12895352 -0.0034043395 -0.05220415 0.0043456648 0.0014803672 -0.10650896 -0.032421406
-0.0076389625 0.041772325 -0.06784562 -0.1463596 0.05042361 0.08429167 -0.029731393 -0.059642907
-0.013317783 -0.004407654 -0.06631806 -0.047486186 0.00024708666 -0.043320302 -0.05069682 0.037086964
-0.0776659 -0.23562136 0.001144456 -0.069812946 -0.08017392 -0.02722032 0.035638582 -0.1409526
-0.09528322 0.12015564 -0.02633922 -0.12618014 -0.053265825 -0.07469083 -0.044984538 -0.038962424
-0.023219032 -0.053787883 0.0017769734 0.0054505584 0.052257106 -0.1214836 -0.086619586 -0.028007722
-0.04766396 0.07381075 0.0069558136 -0.099094994 -0.16193856 -0.11564987 -0.05502963 -0.060530156
-0.027548987 0.015803799 0.03350202 -0.014575693 0.016651455 -0.03403397 0.045932207 0.022409748
0.018832348 -0.016154656 0.011865759 -0.047569677 0.023234423 -0.034202483 0.0030250428 0.06454859
-0.014785595 -0.0034132798 0.019309726 -0.019640528 -0.083694406 0.02496249 -0.02005419 0.06547044
-0.013536121 0.07914595 -0.043519463 0.025772482 -0.030054823 -0.02775253 0.0020805928 0.061521098
0.022873083 -0.032746945 0.002286247 -0.01686836 0.0003853827 0.07080469 -0.028599657 0.042279188
0.05486966 -0.019884508 -0.040291864 -0.0089213485 -0.010726411 0.021675764 0.04873352 -0.043019157
0.0052666957 0.03441272 0.01604115 -0.083422676 -0.03270666 -0.038764864 0.021087501 -0.027726775
00000000: 106f aa39 75da aabd 62f8 35b8 6c51 eebd
00000010: c5c1 d73d 7bcd 163e a73e 673b a6de 09bb
00000020: 2396 81bc 64a8 25bd 1fee 71bd cd8b 1abc
00000030: ec40 ddbd eb72 a53c cf43 0e3d d7cb d8bd
00000040: 7146 39bd 4f63 c63d 9fa6 5f3d a53f 853c
00000050: 9dae c6bd 9a30 87bd d9f1 f5bb 150d 0b3e
00000060: 9acc 73bc 838d 9cbb b033 ed3c 5033 a9bd
00000070: ea44 5bbc a125 c9bd ad6c a5bc 1917 7ebd
00000080: 390e a93b 18ab 4bbd 2bcd 3abd 7313 cabc
00000090: cec6 8bbc 4a6e 923c 9ea3 ab3c 175d bc3c
000000a0: d3ba 6bbd 6b3c 05bd 7fec 95bc 3c10 ddbc
000000b0: 805c 3abd b6da 8fbd 2897 ab3c 40aa 0bbd
000000c0: d918 0cbd c005 a9bc 1ab3 4dbd 09ef 33bd
000000d0: 21f2 4cbd e426 753d cf06 3dbe 27b7 2abd
000000e0: 92a7 a23c 3fbb dc3d da88 9a3d bd20 fcbc
000000f0: f82b da3c 7af3 0dbd 19f5 c7bd 2270 493d
00000100: eb68 e73d f6c9 51bd d24b 633c d33c 90bc
00000110: e22b 07be 4980 dc3c f4bc 5abd 9870 44bd
00000120: f2de 353e 5cfb da3c 9ed1 80bd b304 113d
00000130: 9ef8 a9bd 9ac2 383b 7bce 5e3c 80d3 283e
00000140: 8edc eb3c def9 a5bc 9c9c 0e3a c85b c8bc
00000150: 439e 4ebe 7347 b8bd 2470 f2bc 55f0 49bd
00000160: 9a89 56bd cdf6 f8bc 31df 39bd 4de1 0bbd
00000170: 0a74 15bd c03e c53c 8de5 29bd 479d ef3b
00000180: 025f 58bd c68f 7b3d 5ece 333d 4a19 10bc
00000190: 5b63 893d d0f5 99bd 721c 003d 13e1 76be
000001a0: 783a 67bd 3720 80ba d541 acbb 687f 0dbd
000001b0: 438c 1d3c c61a bcbd c659 e8bc d81f 393d
000001c0: 396f cdbc d90a 3ebd 9832 283d df7c b1ba
000001d0: c326 153a 6984 8abd 5ac5 d2bc 4bb8 003d
000001e0: 0454 c7bd 3512 793d c79c 35bd 5e2a 0cbd
000001f0: 6c4f 74bd d873 3a3c 821c a6bd 6f20 823d
00000200: e747 b3bd 92a9 ae3b 5fbf ba3d 5d36 f5bd
00000210: de0a b8bc 20d7 aa3d 52ed bbbd 6a03 8b3d
00000220: ee18 013c 6a4b 693d 3d9f 753c 0933 a0bd
00000230: 41fe 44bc 845d ecbc 85be 96bd 815c 3dbd
00000240: 2a46 dd3c 640c 04be 571b 5fbb 05d4 55bd
00000250: 1466 8e3b e108 c23a 5f21 dabd 4fcc 04bd
00000260: 4350 fabb 7519 2b3d a5f2 8abd 4adf 15be
00000270: fd88 4e3d 1ca1 ac3d 408f f3bc 1f4c 74bd
00000280: d532 5abc 156e 90bb c3d1 87bd e080 42bd
00000290: 698b 8139 a170 31bd 78a7 4fbd 80e8 173d
000002a0: 4d0f 9fbd ba46 71be 9201 963a 17fa 8ebd
000002b0: 3932 a4bd 26fd debc c3f9 113d e155 10be
000002c0: d923 c3bd 2914 f63d 59c5 d7bc 5e35 01be
000002d0: 442d 5abd 82f7 98bd b541 38bd 1097 1fbd
000002e0: d735 bebc af50 5cbd 55e9 e83a 999a b23b
000002f0: 8c0b 563d 65cc f8bd 9c65 b1bd 7370 e5bc
00000300: 493b 43bd 172a 973d 98ed e33b 51f2 cabd
00000310: 39d3 25be d7d9 ecbd c066 61bd 78ee 77bd
00000320: 6aae e1bc f876 813c 6a39 093d e3ce 6ebc
00000330: a268 883c 3467 0bbd 6923 3c3d a694 b73c
00000340: 4c46 9a3c c556 84bc 9a68 423c 6cd8 42bd
00000350: 1e56 be3c e717 0cbd cc3f 463b 0d32 843d
00000360: 483f 72bc 55b1 5fbb 6e2f 9e3c 2ce5 a0bc
00000370: f967 abbd 237e cc3c af48 a4bc 5e15 863d
00000380: 9bc6 5dbc 4617 a23d 7741 32bd d020 d33c
00000390: 8835 f6bc 4659 e3bc 8e5a 083b 8cfd 7b3d
000003a0: 5560 bb3c a921 06bd dcd4 153b 842f 8abc
000003b0: 310d ca39 0d02 913d d449 eabc f12c 2d3d
000003c0: 02bf 603d d6e4 a2bc 1509 25bd d92a 12bc
000003d0: d4bd 2fbc 5f91 b13c cd9c 473d db34 30bd
000003e0: 3f94 ac3b 5af4 0c3d bb68 833c 82d9 aabd
000003f0: 6bf7 05bd e8c7 1ebd b2bf ac3c 4323 e3bc

ntm.controller.lstm.bias_hh_l0 f4 [400]
0.00032507675 -0.083424486 -4.3385087e-05 -0.11636624 0.105350055 0.14726822 0.0035285146 -0.002103725
-0.015818661 -0.040443793 -0.05906498 -0.009432745 -0.108033985 0.020196399 0.034732636 -0.10585754
-0.045233194 0.0968691 0.05460226 0.0162657 -0.097012736 -0.06601067 -0.007505637 0.13579209
-0.014880324 -0.0047776117 0.02895531 -0.0826174 -0.01338313 -0.0982163 -0.020193422 -0.062033746
0.005159166 -0.049723715 -0.04560582 -0.024667477 -0.01706257 0.017874856 0.020952042 0.022993607
-0.057551216 -0.032528322 -0.018301247 -0.02698528 -0.04549837 -0.07024138 0.0209461 -0.03409791
-0.034203384 -0.020632625 -0.050219633 -0.043929134 -0.0500356 0.059851542 -0.18459629 -0.041678574
0.019855294 0.10777902 0.075456336 -0.03077733 0.026632294 -0.034656025 -0.097635455 0.049179204
0.112993084 -0.051217996 0.013873057 -0.017607128 -0.13200334 0.02691664 -0.053402856 -0.04795894
0.17760828 0.026731186 -0.06289981 0.035404872 -0.08299373 0.0028192163 0.0135990335 0.16486931
0.028791692 -0.020260748 0.0005440207 -0.024457827 -0.2017756 -0.08998003 -0.029594488 -0.049301464
-0.05237732 -0.030391121 -0.045378868 -0.03415041 -0.036487617 0.024077773 -0.041478682 0.00731245
-0.05282498 0.06141641 0.04389798 -0.008795092 0.06708404 -0.07517588 0.031277128 -0.24109297
-0.056452245 -0.0009775226 -0.005256871 -0.034545332 0.0096159605 -0.09184794 -0.02836312 0.045196384
-0.02507745 -0.046397064 0.041063875 -0.0013541243 0.0005689675 -0.067635365 -0.02572887 0.031425755
-0.097328216 0.06080838 -0.044338968 -0.034220092 -0.059646055 0.011380158 -0.08110906 0.063538425
-0.08753949 0.005330273 0.091185324 -0.119732596 -0.02246612 0.08341813 -0.09176125 0.067877606
0.007879479 0.056956686 0.014991579 -0.07822234 -0.0120235095 -0.028853185 -0.073605575 -0.046230797
0.027010996 -0.12895352 -0.0034043395 -0.05220415 0.0043456648 0.0014803672 -0.10650896 -0.032421406
-0.0076389625 0.041772325 -0.06784562 -0.1463596 0.05042361 0.08429167 -0.029731393 -0.059642907
-0.013317783 -0.004407654 -0.06631806 -0.047486186 0.00024708666 -0.043320302 -0.05069682 0.037086964
-0.0776659 -0.23562136 0.001144456 -0.069812946 -0.08017392 -0.02722032 0.035638582 -0.1409526
-0.09528322 0.12015564 -0.02633922 -0.12618014 -0.053265825 -0.07469083 -0.044984538 -0.038962424
-0.023219032 -0.053787883 0.0017769734 0.0054505584 0.052257106 -0.1214836 -0.086619586 -0.028007722
-0.04766396 0.07381075 0.0069558136 -0.099094994 -0.16193856 -0.11564987 -0.05502963 -0.060530156
-0.027548987 0.015803799 0.03350202 -0.014575693 0.016651455 -0.03403397 0.045932207 0.022409748
0.018832348 -0.016154656 0.011865759 -0.047569677 0.023234423 -0.034202483 0.0030250428 0.06454859
-0.014785595 -0.0034132798 0.019309726 -0.019640528 -0.083694406 0.02496249 -0.02005419 0.06547044
-0.013536121 0.07914595 -0.043519463 0.025772482 -0.030054823 -0.02775253 0.0020805928 0.061521098
0.022873083 -0.032746945 0.002286247 -0.01686836 0.0003853827 0.07080469 -0.028599657 0.042279188
0.05486966 -0.019884508 -0.040291864 -0.0089213485 -0.010726411 0.021675764 0.04873352 -0.043019157
0.0052666957 0.03441272 0.01604115 -0.083422676 -0.03270666 -0.038764864 0.021087501 -0.027726775
00000000: 106f aa39 75da aabd 62f8 35b8 6c51 eebd
00000010: c5c1 d73d 7bcd 163e a73e 673b a6de 09bb
00000020: 2396 81bc 64a8 25bd 1fee 71bd cd8b 1abc
00000030: ec40 ddbd eb72 a53c cf43 0e3d d7cb d8bd
00000040: 7146 39bd 4f63 c63d 9fa6 5f3d a53f 853c
00000050: 9dae c6bd 9a30 87bd d9f1 f5bb 150d 0b3e
00000060: 9acc 73bc 838d 9cbb b033 ed3c 5033 a9bd
00000070: ea44 5bbc a125 c9bd ad6c a5bc 1917 7ebd
00000080: 390e a93b 18ab 4bbd 2bcd 3abd 7313 cabc
00000090: cec6 8bbc 4a6e 923c 9ea3 ab3c 175d bc3c
000000a0: d3ba 6bbd 6b3c 05bd 7fec 95bc 3c10 ddbc
000000b0: 805c 3abd b6da 8fbd 2897 ab3c 40aa 0bbd
000000c0: d918 0cbd c005 a9bc 1ab3 4dbd 09ef 33bd
000000d0: 21f2 4cbd e426 753d cf06 3dbe 27b7 2abd
000000e0: 92a7 a23c 3fbb dc3d da88 9a3d bd20 fcbc
000000f0: f82b da3c 7af3 0dbd 19f5 c7bd 2270 493d
00000100: eb68 e73d f6c9 51bd d24b 633c d33c 90bc
00000110: e22b 07be 4980 dc3c f4bc 5abd 9870 44bd
00000120: f2de 353e 5cfb da3c 9ed1 80bd b304 113d
00000130: 9ef8 a9bd 9ac2 383b 7bce 5e3c 80d3 283e
00000140: 8edc eb3c def9 a5bc 9c9c 0e3a c85b c8bc
00000150: 439e 4ebe 7347 b8bd 2470 f2bc 55f0 49bd
00000160: 9a89 56bd cdf6 f8bc 31df 39bd 4de1 0bbd
00000170: 0a74 15bd c03e c53c 8de5 29bd 479d ef3b
00000180: 025f 58bd c68f 7b3d 5ece 333d 4a19 10bc
00000190: 5b63 893d d0f5 99bd 721c 003d 13e1 76be
000001a0: 783a 67bd 3720 80ba d541 acbb 687f 0dbd
000001b0: 438c 1d3c c61a bcbd c659 e8bc d81f 393d
000001c0: 396f cdbc d90a 3ebd 9832 283d df7c b1ba
000001d0: c326 153a 6984 8abd 5ac5 d2bc 4bb8 003d
000001e0: 0454 c7bd 3512 793d c79c 35bd 5e2a 0cbd
000001f0: 6c4f 74bd d873 3a3c 821c a6bd 6f20 823d
00000200: e747 b3bd 92a9 ae3b 5fbf ba3d 5d36 f5bd
00000210: de0a b8bc 20d7 aa3d 52ed bbbd 6a03 8b3d
00000220: ee18 013c 6a4b 693d 3d9f 753c 0933 a0bd
00000230: 41fe 44bc 845d ecbc 85be 96bd 815c 3dbd
00000240: 2a46 dd3c 640c 04be 571b 5fbb 05d4 55bd
00000250: 1466 8e3b e108 c23a 5f21 dabd 4fcc 04bd
00000260: 4350 fabb 7519 2b3d a5f2 8abd 4adf 15be
00000270: fd88 4e3d 1ca1 ac3d 408f f3bc 1f4c 74bd
00000280: d532 5abc 156e 90bb c3d1 87bd e080 42bd
00000290: 698b 8139 a170 31bd 78a7 4fbd 80e8 173d
000002a0: 4d0f 9fbd ba46 71be 9201 963a 17fa 8ebd
000002b0: 3932 a4bd 26fd debc c3f9 113d e155 10be
000002c0: d923 c3bd 2914 f63d 59c5 d7bc 5e35 01be
000002d0: 442d 5abd 82f7 98bd b541 38bd 1097 1fbd
000002e0: d735 bebc af50 5cbd 55e9 e83a 999a b23b
000002f0: 8c0b 563d 65cc f8bd 9c65 b1bd 7370 e5bc
00000300: 493b 43bd 172a 973d 98ed e33b 51f2 cabd
00000310: 39d3 25be d7d9 ecbd c066 61bd 78ee 77bd
00000320: 6aae e1bc f876 813c 6a39 093d e3ce 6ebc
00000330: a268 883c 3467 0bbd 6923 3c3d a694 b73c
00000340: 4c46 9a3c c556 84bc 9a68 423c 6cd8 42bd
00000350: 1e56 be3c e717 0cbd cc3f 463b 0d32 843d
00000360: 483f 72bc 55b1 5fbb 6e2f 9e3c 2ce5 a0bc
00000370: f967 abbd 237e cc3c af48 a4bc 5e15 863d
00000380: 9bc6 5dbc 4617 a23d 7741 32bd d020 d33c
00000390: 8835 f6bc 4659 e3bc 8e5a 083b 8cfd 7b3d
000003a0: 5560 bb3c a921 06bd dcd4 153b 842f 8abc
000003b0: 310d ca39 0d02 913d d449 eabc f12c 2d3d
000003c0: 02bf 603d d6e4 a2bc 1509 25bd d92a 12bc
000003d0: d4bd 2fbc 5f91 b13c cd9c 473d db34 30bd
000003e0: 3f94 ac3b 5af4 0c3d bb68 833c 82d9 aabd
000003f0: 6bf7 05bd e8c7 1ebd b2bf ac3c 4323 e3bc

ntm.controller.lstm.weight_ih_l1 f4 [400, 100]
-0.20369726 0.3785588 -0.06839956 -0.08024816 -0.22833434 -0.10319299 -0.25540218 0.01781237
0.066414505 0.16283795 0.30339402 0.26755068 0.017955061 0.3434506 0.11645531 0.22062732
-0.18830131 0.3695912 0.4000517 -0.258762 -0.35077238 -0.021147253 0.32462686 -0.032837987
-0.30544198 0.15166318 -0.22079052 0.16068284 -0.041093703 0.21444999 -0.1898091 -0.26377922
-0.33752814 0.15194547 0.24070269 -0.13627839 -0.22026792 0.2497255 -0.11002474 0.13957426
0.21816482 0.098283626 0.18640837 -0.23725086 0.18124512 0.251844 -0.1580555 -0.31095
0.047763057 -0.16750552 0.10300646 0.007909732 -0.4510841 -0.038963858 -0.24327597 -0.21293159
-0.1645011 0.3483386 0.24582706 0.28578654 -0.30234355 0.16019328 0.28182518 0.3306831
-0.109282605 0.08400953 -0.25848612 0.2158392 -0.20483111 -0.024212135 -0.11792107 -0.1597203
-0.04452912 -0.15312693 -0.21707907 -0.31306747 -0.12180817 -0.18264082 0.21493433 -0.16266413
-0.31827343 0.19125314 0.1007456 0.3266806 0.078410365 -0.31749967 0.39189145 0.10503518
-0.18344563 -0.23270541 -0.21568002 0.13954432 0.17657173 -0.048470877 0.34781232 -0.3667954
0.11312164 -0.052937355 -0.16818753 0.17376041 -0.12790255 0.1261444 -0.23799501 -0.28528595
0.35624674 -0.2920168 0.015859006 0.3440227 0.27458912 -0.1041617 -0.15845183 -0.08148009
-0.11336088 -0.14722706 -0.030518543 0.13714296 0.192549 0.029988935 -0.24882494 0.27335808
-0.027608987 0.24451831 0.1842542 -0.005464282 -0.19202165 0.5297154 0.1797367 0.16572905
-0.20517528 -0.0016399014 -0.15495096 0.34356555 0.38390118 -0.35188305 -0.009815015 0.088286184
-0.07700409 0.10934092 -0.02750043 0.44894305 -0.26107195 -0.08391589 -0.22618882 0.15450646
-0.14605235 -0.14437243 0.24043253 0.15651663 0.15424128 0.18819901 0.03066478 0.092348404
0.10262476 -0.12139967 0.17251034 0.2360837 0.24854185 0.10958279 -9.949216e-05 0.060274106
0.058426388 -0.14529535 0.1398292 0.16104676 0.075071156 -0.2979217 0.14428905 -0.36704934
0.12846014 -0.3920603 -0.105205245 -0.007667024 -0.2409169 -0.279184 0.081537254 -0.36186013
-0.13996063 0.15995793 -0.40062714 0.1519833 -0.31287518 0.2665191 -0.27887475 -0.25513256
0.02126515 -0.22776936 0.22419752 0.26631984 -0.09720652 -0.16775553 0.2966258 0.22630951
0.31552774 -0.13514183 0.19673362 -0.24487993 0.0977549 -0.37043485 0.009520664 -0.29335907
-0.1591785 -0.23803888 -0.047915544 0.28619096 0.056823045 -0.310075 0.014631228 -0.27717394
-0.22008094 -0.26535165 0.24053389 -0.17618161 -0.15890977 -0.26063123 -0.23417047 -0.3195671
-0.10020949 0.30738625 0.022574509 -0.20725758 -0.1360341 0.05138541 -0.15750283 0.15462002
-0.26364028 0.27546838 0.017916316 0.2105843 0.22763772 0.23073205 0.2670595 0.009177784
0.11737548 -0.044329602 -0.05034687 0.13185538 0.21388559 -0.031962935 -0.2535011 0.18574396
-0.22007488 -0.29504672 -0.16979471 -0.10699538 0.085689165 -0.12894969 -0.14950943 -0.36167926
-0.2060463 -0.06647243 0.3175551 -0.11206843 -0.17783728 0.24330616 0.11285644 -0.017700765
00000000: 0496 50be 76d2 c13e 1215 8cbd 2659 a4bd
00000010: 7ad0 69be d956 d3bd 13c4 82be 3feb 913c
00000020: 5404 883d febe 263e 7656 9b3e 67fc 883e
00000030: 7e16 933c c2d8 af3e 1f80 ee3d 21ec 613e
00000040: 0fd2 40be 0f3b bd3e 94d3 cc3e 747c 84be
00000050: 7098 b3be 013d adbc 7e35 a63e 2081 06bd
00000060: e462 9cbe 984d 1b3e e916 62be 0b8a 243e
00000070: df51 28bd c798 5b3e 515d 42be 120e 87be
00000080: 7dd0 acbe 9897 1b3e c47a 763e 908c 0bbe
00000090: ea8d 61be 0bb8 7f3e a754 e1bd 8eec 0e3e
000000a0: 9966 5f3e ed48 c93d d6e1 3e3e e4f1 72be
000000b0: 5298 393e b2f1 803e 4dd9 21be d734 9fbe
000000c0: 32a3 433d 9186 2bbe 0df5 d23d d297 013c
000000d0: 7ff4 e6be 9198 1fbd 561d 79be bd0a 5abe
000000e0: fa72 28be 7059 b23e 17ba 7b3e 9d52 923e
000000f0: c6cc 9abe b509 243e 644b 903e 4c4f a93e
00000100: 8fcf dfbd 300d ac3d 4b58 84be f404 5d3e
00000110: 3fbf 51be 8758 c6bc 9a80 f1bd b88d 23be
00000120: 2b64 36bd 4ecd 1cbe fa49 5ebe 614a a0be
00000130: 9076 f9bd 3206 3bbe bf17 5c3e 6d91 26be
00000140: bcf4 a2be ddd7 433e b653 ce3d ae42 a73e
00000150: 9d95 a03d 518f a2be ffa5 c83e af1c d73d
00000160: 2cd9 3bbe 544a 6ebe 39db 5cbe b5e4 0e3e
00000170: 38cf 343e 6689 46bd 7514 b23e 9bcc bbbe
00000180: 52ac e73d d7d4 58bd 5a39 2cbe 40ee 313e
00000190: e3f8 02be ff2b 013e f7b4 73be 0011 92be
000001a0: f965 b63e 3a83 95be bfea 813c be23 b03e
000001b0: f296 8c3e bb52 d5bd 3241 22be 09df a6bd
000001c0: c029 e8bd b1c2 16be 0602 fabc 346f 0c3e
000001d0: 912b 453e 5bab f53c f7cb 7ebe 97f5 8b3e
000001e0: 3e2c e2bc 0263 7a3e 22ad 3c3e b80d b3bb
000001f0: 53a1 44be 6e9b 073f e60c 383e e0b4 293e
00000200: 7819 52be f6f1 d6ba 77ab 1ebe d3e7 af3e
00000210: b28e c43e 042a b4be 28cf 20bc 63cf b43d
00000220: 52b4 9dbd 22ee df3d 9548 e1bc dddb e53e
00000230: 39ab 85be 18dc abbd 0b9e 67be f136 1e3e
00000240: bf8e 15be 5ed6 13be f233 763e e545 203e
00000250: 6df1 1d3e 3eb7 403e b434 fb3c 2921 bd3d
00000260: ee2c d23d 64a0 f8bd 8da6 303e edbf 713e
00000270: c181 7e3e f16c e03d 72a6 d0b8 fbe1 763d
00000280: 8250 6f3d 4ec8 14be 632f 0f3e 71e9 243e
00000290: e8be 993d 3189 98be 82c0 133e e4ed bbbe
000002a0: 0e8b 033e 21bc c8be d975 d7bd a93b fbbb
000002b0: ebb2 76be 35f1 8ebe 01fd a63d bb45 b9be
000002c0: d751 0fbe 03cc 233e 001f cdbe 83a1 1b3e
000002d0: 2d31 a0be 3175 883e acc8 8ebe bca0 82be
000002e0: 4034 ae3c 5f3c 69be 0994 653e 135b 883e
000002f0: 3614 c7bd 1bc8 2bbe 56df 973e aebd 673e
00000300: da8c a13e 9f62 0abe 8a74 493e cec1 7abe
00000310: b933 c83d a3a9 bdbe 8ffc 1b3c 2933 96be
00000320: b0ff 22be 77c0 73be 1743 44bd 9f87 923e
00000330: 48bf 683d 27c2 9ebe d1b7 6f3c bee9 8dbe
00000340: e65c 61be 2cdc 87be 844e 763e f468 34be
00000350: 3eb9 22be 7571 85be 62ca 6fbe 4d9e a3be
00000360: a23a cdbd bb61 9d3e 2dee b83c 553b 54be
00000370: 864c 0bbe 8279 523d 6c48 21be b654 1e3e
00000380: dcfb 86be 310a 8d3e 3dc5 923c 69a3 573e
00000390: dd19 693e 0645 6c3e 06bc 883e 6b5e 163c
000003a0: 8e62 f03d f592 35bd 8538 4ebd 1905 073e
000003b0: d304 5b3e 91eb 02bd e5ca 81be aa33 3e3e
000003c0: 4f5b 61be 5d10 97be aade 2dbe 6520 dbbd
000003d0: cd7d af3d 630b 04be 0019 19be 062e b9be
000003e0: cdfd 52be b322 88bd 9596 a23e 2284 e5bd
000003f0: fa1a 36be 4025 793e 4721 e73d 3201 91bc

ntm.controller.lstm.weight_hh_l1 f4 [400, 100]
-0.18518941 0.33141664 0.040454406 0.2506059 0.02634425 -0.20147759 -0.30002478 0.13626432
-0.060104743 0.08401867 -0.028080381 0.04471596 0.0712919 0.10490162 -0.31285712 0.21032088
0.16499572 -0.21462263 0.45450208 -0.20151676 0.041209873 0.14097102 0.008811036 0.2890016
0.05765627 0.09490868 0.10710276 -0.008873765 -0.22515063 0.11008423 0.10338287 -0.036152422
0.37199405 0.3171789 -0.17889977 0.22271952 -0.07736114 -0.19479983 -0.032191966 0.19182847
-0.26863855 -0.0044992245 -0.22692037 0.19365333 0.18543273 -0.06391527 0.2769802 0.15701288
0.129753 -0.44325355 -0.35755357 0.112304784 -0.39782342 0.23052247 0.14963877 0.10110707
0.1476373 -0.16838405 -0.26221782 -0.04659055 -0.05920618 -0.21322694 -0.21651523 -0.46247715
0.050818548 -0.3849642 -0.061984085 -0.03241497 0.062605284 -0.34549528 0.40784684 0.101644486
0.24395299 0.23572181 0.06886695 0.3107815 -0.2005218 0.18356673 0.34655592 0.30006465
-0.06491946 -0.065190665 0.28571534 0.026558613 0.23671538 0.034671757 0.19171338 -0.20077065
-0.3044504 -0.17287208 -0.107278205 -0.23624569 0.37753806 -0.1218114 0.3077856 -0.18078198
-0.067540705 -0.1196657 -0.25989696 -0.08877761 -0.21997674 0.3434983 -0.30160445 0.27329898
0.38924238 0.051081028 -0.28881904 0.036955554 0.29021654 0.006429666 -0.104650244 0.21534877
-0.42582425 -0.05851013 -0.095129095 0.011892719 -0.14325573 0.13987431 -0.14473371 -0.020950228
-0.19759358 -0.43839216 0.27955317 -0.004791332 0.00053475634 -0.24831255 0.2574921 -0.11113884
-0.1984608 0.24050352 -0.28339887 -0.27916157 -0.14095166 0.259417 0.17880219 -0.048384327
0.06694588 0.15224044 0.20098272 0.24353781 -0.0116451485 -0.19240198 0.012313703 0.19533387
0.2353354 0.34554753 0.10699883 0.27833977 0.31436956 -0.22535394 0.0610739 0.092191
0.002126919 0.25781128 0.26065364 -0.40329817 0.27924353 0.3805183 -0.20234106 -0.13658762
0.0024714228 -0.111347854 -0.035760302 0.15587527 0.098697655 -0.16171785 -0.2446174 -0.35330138
0.11957572 0.12726355 0.35052094 0.21522419 0.042015295 -0.12483856 -0.34961292 -0.2090438
0.26305556 -0.22050312 -0.0746995 0.12255853 -0.1811766 -0.049803697 -0.033517636 -0.2794768
0.3775923 -0.45461795 0.25871822 0.14137052 -0.17985031 -0.17219053 -0.24486597 0.11953427
0.23843507 -0.20803371 -0.28580633 -0.122450545 -0.11669561 0.023417238 -0.03763826 0.21403988
-0.110074766 -0.21029268 0.41752723 0.37709773 -0.016875362 0.0054623233 0.088779755 -0.3303185
0.038931154 -0.14704621 -0.012136173 -0.20526005 0.15148711 -0.18101777 0.060992 0.030298704
-0.40462768 0.24949351 0.0744686 0.19296303 -0.033247184 -0.16497423 0.3573955 0.22840616
-0.40318704 0.13265172 0.2503265 0.27380314 -0.22629908 0.1523122 0.3365451 -0.06931661
-0.24149539 0.074123025 -0.25505957 0.1551027 0.42764306 0.13407944 0.3163301 -0.2604545
0.20502938 0.11215067 -0.23504306 0.18960388 -0.07050048 0.18282636 0.2949542 -0.061909776
-0.33660772 0.054830514 -0.2524551 -0.21000552 0.041355103 0.28317934 -0.0025036884 0.15945193
00000000: 4ba2 3dbe 71af a93e 85b3 253d 6b4f 803e
00000010: e6cf d73c 2450 4ebe d99c 99be e088 0b3e
00000020: 6430 76bd fb11 ac3d d408 e6bc 1528 373d
00000030: 7d01 923d a9d6 d63d cf2e a0be 5b5e 573e
00000040: a3f4 283e 09c6 5bbe 7fb4 e83e 695a 4ebe
00000050: afcb 283d b55a 103e 2a5c 103c 05f8 933e
00000060: fb28 6c3d 7b5f c23d b158 db3d 4563 11bc
00000070: e38d 66be d773 e13d 66ba d33d 9014 14bd
00000080: 0176 be3e 4665 a23e 8031 37be 9610 643e
00000090: 846f 9ebd 9b79 47be b9db 03bd af6e 443e
000000a0: fe8a 89be 3b6e 93bb d05d 68be 0f4d 463e
000000b0: 14e2 3d3e 02e6 82bd 59d0 8d3e fcc7 203e
000000c0: f8dd 043e 21f2 e2be 4311 b7be 0d00 e63d
000000d0: 83af cbbe 150e 6c3e e83a 193e 3911 cf3d
000000e0: 3b2e 173e de6c 2cbe 6a41 86be bcd5 3ebd
000000f0: 2e82 72bd 2a58 5abe 2bb6 5dbe cec9 ecbe
00000100: 1c27 503d 071a c5be 06e3 7dbd 8fc5 04bd
00000110: 3337 803d c2e4 b0be 4dd1 d03e fc2a d03d
00000120: d0ce 793e 0f61 713e 1e0a 8d3d c11e 9f3e
00000130: 9655 4dbe ebf8 3b3e c76f b13e 13a2 993e
00000140: 7ef4 84bd af82 85bd 4849 923e 7391 d93c
00000150: 8465 723e f903 0e3d 8350 443e d296 4dbe
00000160: ece0 9bbe 6105 31be adb4 dbbd 64ea 71be
00000170: ab4c c13e 4178 f9bd 1396 9d3e e91e 39be
00000180: c852 8abd 4a13 f5bd 3711 85be 09d1 b5bd
00000190: 9541 61be 02df af3e e66b 9abe d8ed 8b3e
000001a0: c74a c73e 573a 513d 17e0 93be b55e 173d
000001b0: 4397 943e f3af d23b de52 d6bd 6384 5c3e
000001c0: a305 dabe 51a8 6fbd 0bd3 c2bd aed9 423c
000001d0: a1b1 12be 363b 0f3e 1335 14be d09f abbc
000001e0: f955 4abe f074 e0be 9821 8f3e 9b00 9dbb
000001f0: e42e 0c3a a545 7ebe 01d6 833e c39c e3bd
00000200: 4f39 4bbe 8e46 763e a819 91be 44ee 8ebe
00000210: a255 10be 4ed2 843e ec17 373e a52e 46bd
00000220: ec1a 893d ebe4 1b3e 6ace 4d3e fa61 793e
00000230: 4bcb 3ebc 0605 45be 6abf 493c 9a05 483e
00000240: c3fb 703e 9beb b03e 3422 db3d 8d82 8e3e
00000250: 0cf5 a03e 2fc3 66be a028 7a3d a3ce bc3d
00000260: c863 0b3b d7ff 833e 6574 853e 197d cebe
00000270: 02f9 8e3e 4bd3 c23e 7f32 4fbe a0dd 0bbe
00000280: 98f7 213b 580a e4bd 6579 12bd c49d 1f3e
00000290: ff21 ca3d 5d99 25be fc7c 7abe ebe3 b4be
000002a0: 1de4 f43d 6051 023e 7b77 b33e bb63 5c3e
000002b0: 3b18 2c3d 5cab ffbd 7700 b3be 940f 56be
000002c0: 38af 863e 92cb 61be 0dfc 98bd f7ff fa3d
000002d0: 5c86 39be f6fe 4bbd ca49 09bd 9517 8fbe
000002e0: c753 c13e afc3 e8be b776 843e 6fc3 103e
000002f0: ae2a 38be b752 30be 25be 7abe 62ce f43d
00000300: 5328 743e ca06 55be 3555 92be 5ac7 fabd
00000310: 1cfe eebd 82d5 bf3c 932a 1abd 452d 5b3e
00000320: e16e e1bd f756 57be 21c6 d53e f412 c13e
00000330: 333e 8abc 4afd b23b 29d2 b53d 821f a9be
00000340: 4676 1f3d 4893 16be cdd6 46bc b12f 52be
00000350: 701f 1b3e b95c 39be bfd2 793d fd34 f83c
00000360: 5c2b cfbe 3a7b 7f3e fe82 983d 1a98 453e
00000370: 332e 08bd 01ef 28be 8bfc b63e 4ee3 693e
00000380: 886e cebe dad5 073e cc2a 803e ed2f 8c3e
00000390: f2ba 67be bbf7 1b3e a44f ac3e def5 8dbd
000003a0: 914a 77be d0cd 973d 2b97 82be 3ed3 1e3e
000003b0: 08f4 da3e 1f4c 093e 05f6 a13e 4b5a 85be
000003c0: 39f3 513e 40af e53d 21af 70be 8527 423e
000003d0: 8e62 90bd d536 3b3e 3d04 973e 1b95 7dbd
000003e0: d957 acbe f695 603d cb41 81be b00b 57be
000003f0: f863 293d e2fc 903e ec14 24bb 5e47 233e
