results/priority-sort/priority-sort-task-42-1-4-batch-80000.model (torch_old, 859809 bytes, 49 tensors)

ntm.read0_bias f4 [1, 20]
00000000: f720 69bb 9d3f a3bb d908 233c 8fdb 463c
00000010: 942c 363b 4162 413a 5b40 3c3b b73b 2fbb
00000020: 52ec 6dbb b30d dc3b e44e 66bc 8ed4 a5ba
00000030: c279 7cba d36c c2bc 9c0e e638 00f9 88bc
00000040: 443b 013b 6e14 cd3b d82a 3a3b 8c80 e8bb
-0.0035572627 -0.0049819485 0.00995084 0.012137308 0.0027797567 0.00073770067 0.0028724882 -0.0026738474
-0.0036304188 0.0067155003 -0.014056895 -0.0012651847 -0.00096311804 -0.023733532 0.00010969976 -0.016720295
0.0019719163 0.006258539 0.0028406885 -0.007095402

ntm.read1_bias f4 [1, 20]
00000000: 2157 7dbc dbe6 033c aa56 21bc 2046 80bb
00000010: a1a2 ca3a 6932 03ba 8cb2 01bb 35bd 593c
00000020: fd42 fc3a 605d 933a 21f8 00bc bfb5 093a
00000030: 7c96 6c3c 1b2c 83bc 3e93 6b3c db3d 52bc
00000040: d98e 903b 60d2 a7bb b06f f43c d987 89bc
-0.015462668 0.008050646 -0.0098473225 -0.0039146096 0.0015459844 -0.0005004765 -0.001979026 0.013289739
0.0019246038 0.0011243038 -0.007871659 0.00052532175 0.014440175 -0.016012242 0.014378367 -0.01283213
0.00441156 -0.005121514 0.029838413 -0.01678841

ntm.read2_bias f4 [1, 20]
00000000: a7c9 8cbb fcf6 e4bb 1711 9d3b ab33 9dba
00000010: bb27 433c c9bf 95bc a1e1 eebb 0231 21bb
00000020: 6b63 28bc e46e a9bc f422 1c3a 3005 c23b
00000030: 8ad0 ed3c 1299 143b 0b2d 183b 3df0 c93b
00000040: 6962 ae3b b428 b9bb eba5 183c b690 233c
-0.0042965 -0.0069874506 0.004793297 -0.0011993548 0.011911328 -0.018279927 -0.0072900807 -0.0024595861
-0.010277609 -0.02068276 0.0005956136 0.0059210286 0.029030103 0.0022674245 0.0023220207 0.006162672
0.00532179 -0.005650604 0.009316902 0.009983232

ntm.read3_bias f4 [1, 20]
00000000: 1ce9 483c d0c2 22bc 3edd b13c ad93 0e3c
00000010: 4d23 8cba efe8 15bb 054f 6d3a 8756 02bb
00000020: 877d c63b 2f72 433c 3006 603c b093 d6bb
00000030: 2eaa 03bc 0d91 bdba c1ac ae3b 2ee1 b83b
00000040: fe3d a63b 4e64 aa3b 750b f13b 80a2 94bb
0.012262609 -0.009934142 0.021711942 0.008702201 -0.0010691673 -0.0022874435 0.00090526073 -0.0019888
0.0060574445 0.011929079 0.01367335 -0.0065483674 -0.0080361795 -0.0014462784 0.0053306525 0.005642078
0.005073308 0.0051999455 0.007356102 -0.004535973

ntm.read4_bias f4 [1, 20]
00000000: 2760 e8bb 867a febb 20a8 283c 3d88 42b9
00000010: c9e8 40bc 9b33 66bc bcb0 803b 6cae ebbb
00000020: 30b7 d6bb 5c9e 4d3a 065b b43a d14d 88bb
00000030: 40ec 5dba ca10 c2b9 58f9 bb3b eb67 a63b
00000040: 8e6d e9bb 5e1f 36bc 9058 493c 3068 c9bc
-0.0070915404 -0.007766071 0.01029399 -0.00018552034 -0.01177425 -0.01405039 0.0039273184 -0.0071924236
-0.0065525994 0.0007843727 0.0013760037 -0.004159667 -0.0008465685 -0.00037015072 0.005736511 0.005078306
-0.0071236556 -0.011115877 0.012289181 -0.024585813

ntm.controller.lstm_h_bias f4 [2, 1, 100]
00000000: 0505 c5bd 0014 be3d 4f08 8e3c 8f0a 78ba
00000010: 319b a23c c1ba e9bd 8eae 1dbc a25a f83d
00000020: 886e 383d 6a5c 3a3d ab16 2e3d 44c0 563c
00000030: 6ffd 91bc b0c9 f23d 2266 51bd 57fa bb3d
00000040: d67e 95bc a2e6 0b3c 1fc3 a7bc 8f7c 8dbc
00000050: e87f 21bd 4a6d 56bd 89a1 633d c91f 09bd
00000060: 9e89 01be 6d2c a0bd f88f 29bd 63c5 443d
00000070: e126 823b c2ab 913d 48ec 8abd 7769 d43b
00000080: 72c8 aebd b138 a23d 9a90 afbc 63c0 9bbb
00000090: 304f c1bc 6b53 f6bc ef83 903d ad95 25bd
000000a0: 051d 86bd 21ef d23b d40f 113b 8311 f43d
000000b0: 3885 383d ffdc 3abd 3324 c6bb f05c ff3d
000000c0: 835c 49bd de5a 06be cc98 aebc cae9 bbbd
000000d0: 0327 ebbb 528f 4b3c dbf3 373c 7cf2 753d
000000e0: 921b 2e3c 3183 bf3b 32d1 2a3d fc47 b9bd
000000f0: f972 313c 2377 14bb 2ff2 4f3d 5d1d 113d
00000100: 14c3 07bb 32d4 9d3d 32f1 30bb 8b4a b53d
00000110: 38b1 55bd 7b8b 183c e2c0 853d 6be5 e33d
00000120: ab25 09bd 27b2 4c3d cd91 20bd f0ad 813d
00000130: 715a 8abd cb61 073d c616 14bd 508b 523d
00000140: c4d1 c8bc 5013 37bd 1b6a 1c3d 2124 15bd
00000150: 87fc e83d 87f0 9f3d b751 8cbb 01bc fcbd
00000160: 614e 8e3b bf5b 183c f42a f5bc d762 e7bb
00000170: a16d 82bd 0bab 4a3d 2d87 e23d 9a0f 583d
00000180: ddd2 fb3c 35a2 de3c c121 363b 5c18 c73c
00000190: ac8b 213c c7a8 57bd 1cec e1bd d268 d6bb
000001a0: 1f92 373d d5b0 61bd a201 4d3d 1027 303d
000001b0: 2ee0 3e3d 21dd 243d d659 bf3d 2886 8abd
000001c0: fdce fc3c 1981 2c3c e82d 57bc e67b 3dbd
000001d0: 8fa1 24bd eac4 04bd e546 8c3a 6829 37bc
000001e0: e0a3 363e 7082 963b 9f5a 69bc 2328 03be
000001f0: 05e9 43bc 12a2 a83d e421 d93b 0487 96bb
00000200: 350a 87bd 547b dbbd 89ad 25be 82a3 92bc
00000210: 8e48 493d 5991 863d 480f 843d 87f0 dfbc
00000220: c3ba 923d 29d5 903c 5ebf 6a3d 2684 58bc
00000230: 3eee 753d 7972 403d d44a fc3c 2fd9 f63c
00000240: b810 85bd 8d3b ac3d f86c be3c fdee 073e
00000250: 7c02 ad3d d1b3 27bd 2124 e43c d364 dfbc
00000260: 5937 893d a55e 10bd dc4d dabd afff 883c
00000270: be09 a73c 846e 1e3d 083d 1e3d c937 b93d
00000280: 50cc 05be 857f 273d 7445 993c 0053 393d
00000290: f315 7cbd 5b0d ddbb 0247 36bd 15e7 313d
000002a0: b7b8 e8bd 666a 673d 9587 85bd 99e6 0bbc
000002b0: 74b3 c23d bda0 0dbc 7144 40bd 818b d9bc
000002c0: eae0 dfbc 59b1 93bd c202 26bd 46f6 003e
000002d0: 579d 3b3b 8e82 6e3c e868 c6bb c259 933c
000002e0: 297b 8cbc c189 8fbd 15d7 fd3d c0e7 b23d
000002f0: e6e2 aebd 3fc2 6d3c ee32 a23c 598d c4b9
00000300: db18 86bd 9338 d0bd 4d9d 4f3d 84ec a6bd
00000310: c8c5 83bd a4db 243e bffa c6bc 5c92 2c3d
-0.09620098 0.092811584 0.017337946 -0.00094620226 0.019849392 -0.114125736 -0.009624137 0.12126662
0.045027286 0.04549829 0.042502087 0.013107363 -0.017821042 0.11854875 -0.051122792 0.09178608
-0.018248957 0.008538874 -0.020478783 -0.017271308 -0.03942862 -0.05235032 0.055573974 -0.03347758
-0.12650153 -0.078209735 -0.041397065 0.048039805 0.00397192 0.07112838 -0.06783348 0.006482299
-0.08534326 0.07920969 -0.021431256 -0.004753159 -0.02359733 -0.030069074 0.07056414 -0.040425945
-0.06548504 0.006437198 0.0022134678 0.119174026 0.045048922 -0.045620915 -0.0060467958 0.12468898
-0.04916049 -0.131206 -0.021313094 -0.09175451 -0.0071762814 0.012424307 0.011227573 0.060045704
0.01062669 0.0058444967 0.04170341 -0.09046933 0.010830634 -0.0022654019 0.050768074 0.035428394
-0.002071564 0.07706489 -0.0026999232 0.088521086 -0.052170962 0.0093105985 0.0653093 0.111277424
-0.03348319 0.049974587 -0.039201546 0.06332004 -0.067555316 0.033052247 -0.03615453 0.05140239
-0.024514087 -0.044696152 0.038187128 -0.03641141 0.11376291 0.07809549 -0.004282202 -0.123405464
0.0043428396 0.009299218 -0.029927708 -0.007061343 -0.06368566 0.049479526 0.11060939 0.052749254
0.030740196 0.027176956 0.0027791115 0.024303608 0.0098599605 -0.052651193 -0.110313624 -0.0065432573
0.044817086 -0.05510028 0.050050385 0.043006003 0.046600513 0.040249947 0.09343307 -0.067638695
0.030860418 0.010528826 -0.0131335035 -0.046260737 -0.040193137 -0.032414354 0.001070228 -0.011179306
0.17835951 0.004593186 -0.014242797 -0.1280828 -0.011957412 0.082340375 0.0066263545 -0.004593732
-0.06593744 -0.10716882 -0.1617948 -0.017900232 0.04914146 0.065706916 0.06448227 -0.027336372
0.07164528 0.017679768 0.05731141 -0.0132151 0.06004166 0.04698417 0.0307974 0.030132858
-0.064973295 0.08409796 0.02324532 0.1327476 0.084477395 -0.04094297 0.027849259 -0.027269756
0.0670001 -0.03524651 -0.10659382 0.016723482 0.020390388 0.038679615 0.038632423 0.09043843
-0.1306622 0.040893096 0.018709876 0.04524517 -0.06154437 -0.006745977 -0.044501312 0.043433268
-0.113633566 0.056497954 -0.06520001 -0.0085388655 0.09506884 -0.00864428 -0.04694027 -0.026555778
-0.027328927 -0.07211561 -0.040529974 0.12593946 0.0028627717 0.014557494 -0.0060549863 0.017987136
-0.017148571 -0.07008696 0.12394539 0.08735609 -0.08539371 0.014511644 0.019799676 -0.00037489345
-0.065477096 -0.10167041 0.050687123 -0.081505805 -0.06434208 0.16099411 -0.024289487 0.042131767

ntm.controller.lstm_c_bias f4 [2, 1, 100]
00000000: 9024 b5bd 33d0 2dbd 9875 a1bc bd60 453d
00000010: 4617 d73b a5e5 92bd 73ab fbbc 9d02 8e3d
00000020: 21cb bd3d dc03 24bd a948 0d3d 9bea e73d
00000030: 2760 373d f0a3 cb3c a9c0 a4bd e988 46bb
00000040: d296 b2bc 444f 303d 56e5 a9bd 6ef4 af3d
00000050: 408d ac3b 9c36 a5bd daf9 a13c b744 83bc
00000060: 3cdc 0f3c a27c 3abd e142 cfbd cfb5 c13d
00000070: cc49 503d d217 30bd 8ddc cabd 2b6a df3d
00000080: 43e7 993d fef8 60be 5335 89bd 2251 323c
00000090: 1710 b1bd 8ad0 233d d9ea 45bd 9395 6d3d
000000a0: e69a 8abd 31e0 71bd 59fd 1e3d 1b9b 9d3d
000000b0: ee1e 033e 582d 383c 279b 433d b727 9f3c
000000c0: 6ca3 76bd 50d7 debd 745c fabb 5ef8 2fbd
000000d0: 17a4 1e3e a142 d6b9 7f52 76bd e125 42bd
000000e0: d4b2 cebd 456c b43c 6a9e 97bb 50e3 17bc
000000f0: fbdb 07be b516 8d3d 1b85 34bd 7b21 c4bd
00000100: 20fa 0a3d 3eb6 31bd 2f73 32bd 666e 84bd
00000110: 85a3 40bd 4d6e 783d ebe1 d63d 4886 7dbd
00000120: 102b b73c dbed 40bc 786d 25bd 6ca5 9abd
00000130: 63c6 9abd 9d82 8a3b 9e3e 01bc 3cfc 0c3c
00000140: 8252 103d 9408 463c 2d4a afbd 7456 bbbd
00000150: 1597 863d 4588 163d aa40 903c 78c4 fc3d
00000160: 2969 46be 3984 25bd e161 4f3d 58d1 203d
00000170: 4f52 92bc 0dc3 8cbd ef3e dbbd 1a62 96bd
00000180: 4130 843d f249 05bd 381b 113d 07cf 18bd
00000190: ae68 0bbd 15dc debc 8c96 14bd 44b3 5bbd
000001a0: 33d2 c5bc d8c3 993d 297f 313d ddb6 4cbd
000001b0: db7b b13d b193 db3d 43ef 603c a98e 2cbd
000001c0: f262 a2bc 942c b0bb b4a9 df3c 5dcd a939
000001d0: f03a db3c b4c9 993d efc1 1dbd 60cf a8bd
000001e0: ec74 0e3e 8189 96bd 78e8 aa3d a223 143d
000001f0: a8a7 ac3d f98a 19bc 00df bb3c f481 ad3d
00000200: 1043 80bd 6c3f eb3d f208 ab3b c954 203d
00000210: 1f76 8c3d 4333 833c 4214 ba3c 3df7 5a3c
00000220: 2da7 83bc 47a0 21be f2ec 21bc 9415 52bd
00000230: f1db a2bc af88 c6bc bbbf 38bd b269 653d
00000240: 361b 0fbc 4c22 bd3c d112 95bc 5de9 91bd
00000250: daa5 193b 30cc 01bd b5ca b1bd a9c7 a4bc
00000260: a180 6d3d 4f11 61bd 61d6 62bd d124 1e3e
00000270: df48 cf3d 6006 5c3c 1d1f 063d 2078 22be
00000280: 0d07 853d 2dca febd 72d0 5fbd 298d 56ba
00000290: 4c37 9cbb 7daf 643b 738f 2ebb f81a 08bd
000002a0: d66a a23c 5f71 493d 5065 24be 9be5 acbc
000002b0: 72de b83d d663 28be e592 403d 3737 9a3c
000002c0: 3c03 cdbd f7ba ad3d 4222 8d3d 7607 66bd
000002d0: 5290 443c d491 afbc e8da 793d 7c3d febd
000002e0: 3b9e 683d 1eed b13d e64c 2a3c b974 bcbd
000002f0: c4b1 813d cbce 75bd 5ef3 d53d d272 04bd
00000300: 671e 00bd c22d 32bd 9e58 793d acda ebbb
00000310: d2af dabc 9eef f23b c7b3 253c fbd0 8f3d
-0.08844864 -0.042434882 -0.019709393 0.04818796 0.0065640537 -0.071727075 -0.030721402 0.06934092
0.092672594 -0.040042743 0.034493122 0.11324044 0.044769432 0.024858445 -0.080445595 -0.0030294007
-0.021800432 0.043044344 -0.082956955 0.08591543 0.0052658617 -0.080670565 0.019772459 -0.016023977
0.008780535 -0.045529015 -0.10120178 0.09458505 0.05085163 -0.042991467 -0.09905348 0.10908922
0.07514813 -0.21969983 -0.06699624 0.010883601 -0.08645647 0.0399938 -0.04831967 0.058003973
-0.06767826 -0.059051696 0.03881583 0.076956 0.12804767 0.01124128 0.047755387 0.019428117
-0.060214445 -0.10880911 -0.007640416 -0.04296147 0.15492283 -0.00040866903 -0.06013727 -0.047399405
-0.100927025 0.022024283 -0.0046270387 -0.009270504 -0.1326751 0.06889097 -0.04407225 -0.095766984
0.033929944 -0.04338669 -0.04356688 -0.06466369 -0.047030944 0.060652066 0.10492309 -0.06189564
0.022359401 -0.011775459 -0.0403876 -0.07551083 -0.075573705 0.004226996 -0.007888464 0.008605059
0.035234936 0.012087006 -0.0855907 -0.09147349 0.06571785 0.03675105 0.01760896 0.12342161
-0.19376053 -0.0404093 0.050630454 0.039262146 -0.017861513 -0.068731405 -0.10705363 -0.0734293
0.06454516 -0.032541223 0.03542635 -0.03730681 -0.034035377 -0.027204553 -0.036276385 -0.053637758
-0.024148082 0.07508057 0.04333416 -0.04997908 0.08666202 0.10721529 0.013728919 -0.04212824
-0.019822571 -0.005376408 0.0273026 0.000323872 0.026761502 0.07509175 -0.038515028 -0.08242679
0.1391179 -0.073504455 0.08345121 0.036166795 0.084304154 -0.009371513 0.022933483 0.08472052
-0.06262791 0.11486706 0.005219572 0.039143357 0.06858467 0.016015654 0.022714738 0.01336461
-0.016070927 -0.15783797 -0.009883152 -0.05129011 -0.019880267 -0.024235098 -0.045104723 0.056009002
-0.008734515 0.023087643 -0.018197449 -0.07124589 0.0023444803 -0.03168887 -0.086812414 -0.020114737
0.057984 -0.054948147 -0.05538023 0.15443732 0.10121321 0.013429254 0.032744516 -0.15866137
0.064954855 -0.12440906 -0.05464215 -0.00081844867 -0.004767334 0.0034894638 -0.0026635795 -0.033228844
0.019826334 0.049180385 -0.16054273 -0.021105578 0.09026803 -0.16444334 0.04701509 0.018825157
-0.100103825 0.08482926 0.068913 -0.05615946 0.011997299 -0.021431841 0.06099978 -0.12414071
0.056791525 0.08687805 0.010394311 -0.092019506 0.06332734 -0.060011666 0.10446809 -0.032336064
-0.031278994 -0.04350067 0.060875528 -0.0071976986 -0.026695166 0.0074138185 0.010113663 0.07022282

ntm.controller.lstm.weight_ih_l0 f4 [400, 103]
00000000: 3bc2 02bf f472 1a3f 7bce 383e 6850 a5bd
00000010: 484b e23d ddeb 823e 0c8c 6cbd 09f2 403e
00000020: 69a2 ac3d cad5 99be 4e47 283e 5f1a b3bc
00000030: 349b ca3e cc8a 4ebe 7f05 9b3e ca35 b6be
00000040: 1aa6 06be 7710 ac3d febc 853e 8ce5 2bbd
00000050: 2d25 fe3d 3e28 ea3e dd45 e13d a158 4abd
00000060: 0774 e1be ff80 29bb 20d2 04be 9297 a2be
00000070: c100 3cbe 096f 82be 6385 8dbe ed31 8ebd
00000080: c6d2 ca3e 71cd 7c3e e750 2ebe 0b9f c9be
00000090: 2209 54bd 161a adbe 17af 743e 5bda 82bd
000000a0: 8761 233d 51d9 d23d a00c c4bd a0d0 203e
000000b0: 7de5 b2be 26dc 013f 534f c6be 7252 15be
000000c0: 9013 93be fc49 40be 734d 7e3d 4a3b 503e
000000d0: 9e08 68be 6fdd 44bd c915 cb3e aee2 d53c
000000e0: bdbd fc3d 7148 0e3e 640c b93e aec6 103e
000000f0: b0af a8be 2a4d c23d bc2d 83be 4817 ddbe
00000100: 287c e8bc 7ea1 93bd 6e43 523e e465 213e
00000110: 22eb e23d b56e 5abb 88a1 40bd fa4e 673e
00000120: fe82 893e e2ea dbbe 809a 953e 96cb b8be
00000130: eabf 3ebe ebfe 0fbe 907b 4cbe f11e 85be
00000140: 11da 1bbe c1e8 a1bd 81ad 913e 7698 c2be
00000150: f5ab 8cbe 08df 973e a7b7 2a3e 2495 753d
00000160: a8f7 40be 75b6 7c3d ebc7 88bd 0a8b d33d
00000170: 3c49 063e f570 b9be 6328 503e 1f88 95be
00000180: b88e 49bd ed89 0a3e b8f1 883e c373 5c3e
00000190: c4d6 bebc a23c 2b3e 7adc b43e 31d0 5dbe
000001a0: 2d9a ab3e 4494 953e d75d 8cbe dbe4 85be
000001b0: 334c 04be b089 07be 7cca bb3c c478 00bd
000001c0: e67d 1c3e 049d 963e 587d 6bbd c5de 97be
000001d0: 23ce 6cbb 8c8e 79be e4dd 8abe 8648 e73b
000001e0: 5f12 9abe 1d8c d13e 0fa3 f33d 46c5 7fbe
000001f0: d4e7 32be e88e 35bd a95b 8dbe e196 77be
00000200: 3bda a33c 6d80 1cbe 4099 4abd 3899 aabe
00000210: 2311 81be 2337 4cbe 8442 88bc cc12 0e3e
00000220: 4df4 cebe fc3b 493e 289a 92be c7fa 3dbe
00000230: ac7f 4b3e 0e75 4a3e 3bb3 f3be d8a1 ed3c
00000240: 2377 6bbb 7200 8c3e 8d95 0ebe 0588 623c
00000250: f8b9 623e d66a c23d bc65 b9bd 2f2f 8c3c
00000260: 592b 803d 53f4 96be e78e cfbd 96da 243e
00000270: 6b3e d9bd b64a 97be a786 21be 40ad 9a3d
00000280: 2392 4ebe 1305 043e 932a 44bd 5ce5 c7be
00000290: ae0d dd3e 5e54 863e 22ea 11bc ee4e e9be
000002a0: a9f7 4e3e 3a1e 6fbd 6e58 aebe dc77 33bc
000002b0: 65fb 933d 7e75 5c3e 72b4 4cbe 1799 27be
000002c0: 1dba a0be 4e15 68be c85c 07be 1acf 82be
000002d0: ef10 c1bd a3c4 553e 9dfc ca3d 5727 083e
000002e0: 642a 993d c030 2b3e d364 90be 7781 b2be
000002f0: e56b fd3e ef34 bebe c7e4 8cbe 83a1 bbbe
00000300: 4517 eabe 42c3 893e 9923 103e 0c64 c6be
00000310: 6ebc a4be 1955 a13e 33fc 00be 83f4 4fbe
00000320: c4f0 f3be 4e7f 82be b4a4 403e fbbb 4bbe
00000330: b077 8d3d 8ab5 28bd 221f a4be 3ad0 323f
00000340: e864 683e b6b4 90bc 582d 80be 25d7 96bd
00000350: 385b a3be 2074 283e ed47 b5bc 0ecd 8f3e
00000360: 1630 ac3e 3960 9e3e 2186 bb3e c352 b3bd
00000370: c0c1 3a3e d39b c1bb 8013 c5bd 34d2 97be
00000380: 6123 923d ab12 9abe c69e afbe 71a8 4abd
00000390: 1933 f4be 9778 2b3e c3e7 c6bd 1cae 1dbe
000003a0: b1de 513e 4de9 50be 5e8f 043e e938 643e
000003b0: 9636 22be 7e1b 6c3e 7e03 31be fac0 a43e
000003c0: c5cd 86be 6ce2 5bbe 19cc 803e dc9d c4bd
000003d0: b153 0c3e 3f7d a3be 8c49 33be 2298 f23c
000003e0: 68d8 623e cd32 d5be a424 88bd a45d 933d
000003f0: 4844 5e3d 405e a7bd c7b4 c03e c262 9e3e
-0.5107762 0.60331655 0.18047516 -0.08071977 0.11049515 0.25570574 -0.057750747 0.18842329
0.08429415 -0.3004592 0.1643345 -0.02186316 0.39571536 -0.20170134 0.3027763 -0.35587913
-0.131493 0.08401578 0.26120752 -0.04196696 0.124094345 0.45733827 0.109996535 -0.04940093
-0.44033834 -0.0025864241 -0.12970781 -0.31756264 -0.18359663 -0.25475338 -0.27640828 -0.06943116
0.39613932 0.24687745 -0.1702305 -0.39379153 -0.051766522 -0.33808964 0.23894916 -0.06389304
0.03988793 0.10295356 -0.095727205 0.15704584 -0.3494071 0.50726545 -0.38732395 -0.14582232
-0.28725863 -0.18778223 0.06208558 0.20335117 -0.22659537 -0.048062738 0.39665058 0.026109066
0.12340877 0.13894822 0.36142266 0.1413829 -0.3294654 0.09487374 -0.2562083 -0.43181825
-0.028379515 -0.072085366 0.20533535 0.15761524 0.11080004 -0.0033330147 -0.04702905 0.22588721
0.26857752 -0.4295264 0.29219437 -0.36092824 -0.18627897 -0.14062087 -0.1996901 -0.2600017
-0.15219904 -0.079057224 0.28452685 -0.38006943 -0.27474943 0.29662347 0.1667162 0.059956685
-0.18844473 0.061697442 -0.06678756 0.10329254 0.13113874 -0.36218992 0.20327906 -0.29205415
-0.049208373 0.13529177 0.26746917 0.21528535 -0.023295768 0.16722348 0.3532446 -0.2166145
0.33516064 0.2921468 -0.27415344 -0.26151165 -0.12919693 -0.13236117 0.0229237 -0.03136517
0.15282401 0.29416668 -0.057492584 -0.29662147 -0.003613361 -0.24370784 -0.27122414 0.007058206
-0.3009214 0.4092721 0.11896335 -0.24977598 -0.17471248 -0.04432574 -0.27608994 -0.2417865
0.020001521 -0.15283366 -0.049462557 -0.33320022 -0.25208387 -0.19942908 -0.01663328 0.13874358
-0.40420762 0.19651788 -0.28633237 -0.18552695 0.19872922 0.19771215 -0.4759768 0.029007837
-0.0035929165 0.2734409 -0.13924237 0.013826375 0.22141254 0.094930336 -0.090526074 0.017112343
0.06258268 -0.2948328 -0.10134678 0.16099009 -0.106076084 -0.29549187 -0.15774022 0.07552576
-0.20172934 0.1289256 -0.047892164 -0.39042175 0.431745 0.26236242 -0.008905919 -0.4556803
0.20211662 -0.058378436 -0.34051841 -0.01095387 0.07225684 0.21529195 -0.1999071 -0.16366993
-0.31391993 -0.22664377 -0.13218987 -0.2554863 -0.09427058 0.20875792 0.099114634 0.13296257
0.074787885 0.16717815 -0.28201923 -0.348644 0.4949638 -0.3714976 -0.27518293 -0.3664666
-0.45720878 0.26906782 0.1407608 -0.38748205 -0.3217501 0.31510237 -0.12596206 -0.20308118
-0.47644627 -0.2548775 0.1881283 -0.19895928 0.06907594 -0.041188754 -0.32055002 0.6984898
0.22694743 -0.017664295 -0.25034595 -0.07365254 -0.31905532 0.16450548 -0.022129023 0.28086132
0.33630437 0.30932787 0.3662577 -0.0875602 0.18237972 -0.0059084683 -0.0962286 -0.2965256
0.07135654 -0.30092368 -0.34300822 -0.049477044 -0.47695234 0.1674522 -0.09712174 -0.15398449
0.20495106 -0.20401497 0.12945315 0.22287335 -0.15841135 0.23057362 -0.17286488 0.3217848
-0.26328865 -0.21473092 0.25155714 -0.09600422 0.137038 -0.31931493 -0.17508525 0.029613558
0.22152865 -0.4164032 -0.06647614 0.07195595 0.054264337 -0.08172274 0.37637922 0.3093472

ntm.controller.lstm.weight_hh_l0 f4 [400, 100]
00000000: a969 c73d 58bc 9fbe be81 0cbf e428 34bd
00000010: af1a d4bd 28dd 883e 5f7c fdbe ba48 4f3c
00000020: 7257 653e 0c68 c93e dc1f b7be d330 9c3e
00000030: 0222 96be d289 183e 5bbe 1a3f 73c7 50be
00000040: 3ef9 ea3d 424a 02be 3871 01bf d8fe a63e
00000050: b022 65bd 73e0 7cbd 5268 52be 6217 97be
00000060: c728 fdbd 081c b7be c614 16be b3d1 a7be
00000070: b599 b03e d240 f4be 40ee 27bc 5b05 a5bc
00000080: fb78 6dbd d9f8 b33c 6d23 673d 0996 4a3e
00000090: 1314 453d 0996 b43c e6d2 a0bd d4fc a6be
000000a0: 359a f5bc 7198 b6be 70ad dd3e fdd2 3abe
000000b0: 15b0 cebd 055b ad3e 7042 b6bb e05a 913e
000000c0: 8c62 ce3c 29c1 083e 53f2 963b 8d67 ab3e
000000d0: 481b 95bb 992f fd3e 3ceb ce3e 3518 bcbd
000000e0: 6fe8 0ebe b63c 39be f705 83bd e5ad cfbd
000000f0: 9c94 2a3e b29c 0abf f6c9 b6be d15d bb3e
00000100: 162a a33e 1b54 693c 4a8e 64bd 6ce0 8c3e
00000110: 96d6 d33d e047 19be 302e 0bbd e60b 09be
00000120: 5c24 103f 6f30 cb3c d972 ad3c 43b1 83be
00000130: 203e 713c 58a1 e1be 49b4 7b3c 4a59 8e3d
00000140: ad3f 8d3e afec 45be ef13 193d 6375 9cbe
00000150: 8ab0 a73e fa83 ccbe 43d7 1dbd 8fa8 a83e
00000160: 35b4 263e a42e c13e 0dd8 f93d 152f 7d3d
00000170: 2787 b73d 3f5f 583e a254 e93d 786d ce3d
00000180: 1f13 67be a02c c13e 7107 5abb b849 47bd
00000190: 96f0 a5bd b787 463d 3561 4dbe 40f2 5e3e
000001a0: f24e 203e a41e 4cbe 56ff 39be 550c 0dbe
000001b0: 181e 2a3d b013 543e 656c 0bbe 388e 84be
000001c0: baf4 b3bc 2591 833d c504 e0be a942 3abe
000001d0: 7f0e 48be e9e3 1c3e d05a 1d3e a1b3 a4bc
000001e0: b9c9 0a3c ed1a fabd afdc fabc e778 843d
000001f0: cea7 7d3e 977e 103e f256 bf3e 1c67 9f3e
00000200: 4c4c b9be 5df7 193e 9fa5 623d 1e5a 363e
00000210: 7a4e 753e 0250 493d 6ae2 bdbe e439 47bd
00000220: 64bd 143d e786 83bb 466b 93bd 5c12 7d3e
00000230: 397b 493e 32c4 85be 88c1 3abe f8a8 233d
00000240: e028 343e 19ea 923c daf5 2c3e dc0f c43d
00000250: 1570 a2be afbe 86bd 1423 903e 8f0b 193e
00000260: d0ba 94be 9e56 5f3e 7333 d93e 3d56 cbbe
00000270: 82d2 a13e a4a2 573e f366 35be 913c 853e
00000280: c349 40bd 49ba 86bd 7901 42be cc9b c3be
00000290: 2954 82be 92c1 973e ab06 58be 7dcc 473e
000002a0: ef1b e33e e271 82bd 4595 503c a09b 02be
000002b0: 327a 3a3e 930f fabc fcdd 993d 8e9a ae3e
000002c0: 4e67 bb3d 9f64 3c3e 23a0 64be c499 383d
000002d0: a889 eebc 8294 3fbe e6e4 a4bd 8f16 aa3d
000002e0: bde5 90be 6f88 3a3e d51f 78bd 8ef1 933d
000002f0: 792e a63d d069 a83e d4ef 99be 935e 62be
00000300: e217 533d 3e8e 3cbe 2d6e 2c3d e84e f2bd
00000310: ba43 54be c268 01bf 4df8 9ebe 5324 a2be
00000320: fabe fb3e bf12 e0be 903e 7cbe 69d3 5fbe
00000330: 5230 98be 37dc 643e 2337 94be 1d83 c0bd
00000340: e704 85be 3f24 9c3e 3038 47be dcf2 3e3e
00000350: 9c7a 4abe cf95 983d d2b2 e43e 2e89 bbbe
00000360: cb7d 6c3d 27d9 6ebe d95e b23e 0330 1b3e
00000370: 4500 a33e 8f53 5f3e 5f37 15bd d489 5cbd
00000380: a84d f2bd 18b1 12bd 15b6 a83e ce24 cbbe
00000390: 9670 c23d 3d0d e6bc 6e63 673e 97ff babe
000003a0: 1b43 e1be a075 1fbd c2d1 8cbe 9983 b73d
000003b0: 7cfe 78be ebb2 b23d 2397 1c3e 1de6 193a
000003c0: c030 14be 69e3 353e e8e1 a63e b527 ddbe
000003d0: dfb3 b9bd d7aa 03bd 07ad ec3d e6cf b23d
000003e0: f16e 373c 1f19 f13e 6ece 12be 7ffd e83e
000003f0: 17aa bb3d 5975 2b3c 5060 0d3e a712 63be
0.0973695 -0.31198382 -0.5488547 -0.04398431 -0.10356652 0.2673123 -0.4950895 0.012651617
0.22396639 0.39337194 -0.35766494 0.30506 -0.2932282 0.14896324 0.6044671 -0.20388584
0.114733204 -0.1272364 -0.50563383 0.32616305 -0.055941284 -0.06173749 -0.20547608 -0.29510027
-0.12361293 -0.35763574 -0.14656362 -0.32777175 0.3449227 -0.47705704 -0.010249674 -0.020144155
-0.057976704 0.021969246 0.05643027 0.19783796 0.048114847 0.022044199 -0.07852726 -0.32614768
-0.029980758 -0.3566318 0.43296385 -0.18244548 -0.10092179 0.33858505 -0.005562119 0.28389645
0.025193475 0.13354935 0.004606524 0.3347744 -0.0045503713 0.49450377 0.40413845 -0.091843046
-0.13955854 -0.18089566 -0.06397622 -0.101405896 0.16658252 -0.5414535 -0.3570096 0.36595014
0.31868047 0.014241244 -0.05579976 0.2751497 0.103436634 -0.14968824 -0.033979595 -0.13383445
0.5630548 0.024803368 0.021172928 -0.25721177 0.014724284 -0.44068408 0.015362808 0.06950624
0.27587643 -0.19328569 0.037372526 -0.3055831 0.32751876 -0.3994444 -0.038535368 0.329411
0.16279681 0.37730896 0.121994115 0.06181248 0.08961325 0.21130084 0.113930956 0.10079473
-0.22565888 0.3772936 -0.0033268596 -0.048654288 -0.08102529 0.04846927 -0.20056613 0.21772099
0.15655115 -0.19933563 -0.18163809 -0.13774236 0.041532606 0.20710635 -0.13615568 -0.25889754
-0.02196728 0.064241685 -0.4375364 -0.18189491 -0.1953678 0.15321316 0.15366673 -0.020105185
0.008470946 -0.12212167 -0.030622808 0.06468373 0.24771044 0.1411079 0.37371022 0.31133354
-0.36191022 0.15035768 0.05533373 0.17807814 0.23955718 0.049148567 -0.37086803 -0.048639193
0.03631343 -0.0040138843 -0.07198195 0.24714035 0.19675912 -0.26126248 -0.18237889 0.039956063
0.17593718 0.017933892 0.1689066 0.095733374 -0.31726137 -0.06579339 0.28151762 0.14945816
-0.29048777 0.21810386 0.42422065 -0.39714232 0.31605917 0.21058136 -0.17715053 0.2602277
-0.046945345 -0.065785 -0.18945874 -0.382048 -0.25454834 0.2963987 -0.21096294 0.195116
0.4435725 -0.06369378 0.012730901 -0.12754679 0.18210676 -0.030525004 0.07513043 0.3410229
0.09150563 0.18397759 -0.22326712 0.045068517 -0.029118374 -0.18708995 -0.080514714 0.08305084
-0.28300276 0.18216108 -0.060577232 0.07223807 0.08114333 0.3289323 -0.30065787 -0.2210639
0.05153645 -0.18413636 0.04209726 -0.118314564 -0.2072896 -0.5055047 -0.31048813 -0.31668338
0.4916914 -0.43764302 -0.2463324 -0.2185799 -0.29724365 0.2234963 -0.28948316 -0.09400008
-0.25980303 0.30496404 -0.19455028 0.18647331 -0.19773334 0.07450449 0.4466768 -0.36628097
0.057737153 -0.23325025 0.34837988 0.15155034 0.31836143 0.21809219 -0.03642976 -0.05384238
-0.11831218 -0.03581342 0.32951418 -0.39676517 0.0949413 -0.028082484 0.22596523 -0.36523125
-0.4399651 -0.038930535 -0.27503783 0.08960647 -0.24315828 0.08725532 0.15292029 0.00058707764
-0.14471722 0.17762531 0.32594228 -0.43194357 -0.09067511 -0.032145347 0.1155644 0.0873106
0.011195884 0.47089478 -0.14336559 0.45505902 0.091633014 0.01046499 0.13806272 -0.22175084

ntm.controller.lstm.bias_ih_l0 f4 [400]
00000000: 4f08 8cbc 7abc c7bd 2501 c9bb f091 11be
00000010: 8ca4 0b3e 914d 223e 083e 22bb 5f17 8bba
00000020: 8512 41bd 8cc0 4bbd b017 3dbd 731b 96bc
00000030: e65d 1abe fedd 8aba 2e81 473d 38ff 0cbe
00000040: 0d26 76bd 3e94 d03d d722 813c eb1c b53b
00000050: 18c7 ccbd df29 f8bd be65 cb3c 5d65 073e
00000060: 7365 68bd 06ff d8bc 9b25 603c 5a85 abbd
00000070: af67 a1bc 4e24 dfbd 815f cfbc afe9 a4bd
00000080: 0edf 24bc 43ab 9fbd 8018 a4bd eb22 36bd
00000090: 651c 3cbc 602a 01bd f20e 9c3b 3371 103c
000000a0: dd17 c6bd 7199 68bd 4332 3abb e78f 73bd
000000b0: f89c 8bbd 1af8 d7bd 1688 bbbc 0cc8 58bd
000000c0: c941 5abd 82df e2bc df9a 6dbd cc0b b7bc
000000d0: 442b bbbd 59fa 4c3d e8e9 47be 0be4 7abd
000000e0: 3f26 373c ec70 053e 248b b63d 6e65 17bd
000000f0: 8c9f f63c 06b1 9abd 509a 0cbe 9faa 6d3d
00000100: 86b6 023e 6a86 8ebd 0000 e63b 96ce 74bc
00000110: 37b1 20be 9a98 eb3c 0727 7ebd 6701 7fbd
00000120: aae6 563e 8c54 213d 2eb1 e2bd ccb0 913c
00000130: ed30 f3bd 4268 efbc eee0 993c d977 3f3e
00000140: 6136 6e3d ab4a 2cbd 3c0e f5bc d3d8 23bc
00000150: 94e4 8abe 32f9 f0bd 8994 26bd 4406 94bd
00000160: 3135 a4bd 612a 9fbc d786 90bd 6c6b 4fbc
00000170: 3be2 84bd fd7a 703c 9987 82bd 9ed5 54bc
00000180: eaac 55bd 6a64 863d bd4a 433d 9fd9 fbbc
00000190: 7d2f 353d 5b52 d7bd 61d1 1f3d 3b0c 97be
000001a0: 0eec b5bc c473 943b d06f 933c fa67 85bc
000001b0: 7e87 96bc 14cf d6bd bf96 93bd ec41 933c
000001c0: 5fcb 93bd 8cc1 82bd 7710 ec3c fa2b 9c3c
000001d0: 12df f1bb 048d 05be 3d66 54bd b1d2 f63c
000001e0: 3bdc f7bd 4eeb 2d3d 7fad 1fbd f8e2 50bd
000001f0: 5682 e4bd 81af 96bc b402 ffbd 3a89 f23c
00000200: 0dd6 debd 5408 de3c 98fc bd3d 86be 02be
00000210: 9af2 8abc d709 a03d 593e fcbd 9c92 6f3d
00000220: d8b1 213c ece4 e93c f233 793b bbac dfbd
00000230: aec1 93bc e23e 28bd 703e d5bd 14e7 59bd
00000240: 7c2a 633c b9ce 28be 00d3 86bc f6cb 8fbd
00000250: 5841 e03c d05b 0fbc 34b0 03be b1f9 abbc
00000260: baa6 61b9 9221 a23d a77a 5abd 84fc 5cbe
00000270: e61e f83c 7233 bb3d 881a 1cbd 8bb2 88bd
00000280: d684 44bd 4cde 8ebc 7ef5 c2bd c427 6bbd
00000290: c46f 82bc 508a 80bd fc8f afbd 44aa 943d
000002a0: c2c2 aebd df49 9bbe 0c97 b2bb 7eea 90bd
000002b0: 4dfb 01be e50b 28bd 612c 07bc e4d4 33be
000002c0: 494b f6bd 97a8 023e 6e81 c1bc 4d1f 2abe
000002d0: 53b4 82bd d3fe b8bd d96c a9bd 4cec 14bd
000002e0: 1f2a 0bbd 9cc9 a4bd 478a debc 3863 a63c
000002f0: 186d 4a3d 3d9a 10be 597e d5bd e3fe 0bbd
00000300: 09b2 92bd f032 913d 60f3 823b a45b dcbd
00000310: 3099 41be a542 40be fca5 66bd a08d ebbd
00000320: 290d bbbc 7fe2 683c 5aaf bf3c 7758 1cbc
00000330: 2802 943c d9f9 40bd 69ac 233d b63f 743c
00000340: d960 d63c 87e6 63bc 4186 243c f5c6 23bd
00000350: 708e 0b3d 5be6 0fbd 2a87 953b c01c 933d
00000360: 6942 93bc 970d d7ba 92ee dd3c 8b60 c9bc
00000370: c942 dbbd 0a13 0c3d d3ea f3bc 2646 9f3d
00000380: 0f59 a5bc 5de9 c83d 0ece 6dbd c5ee 023d
00000390: d510 06bd ce54 d4bc df1d 40bb 740f 8d3d
000003a0: d23d c83c ebe2 eabc c655 153c 3e66 6fbc
000003b0: 49c4 173b 60b0 943d fa11 e7bc ff54 4e3d
000003c0: 8823 5c3d da26 8fbc 07ce 61bd 88c6 5fbb
000003d0: c0b3 cabc e72f e13c 1e2a 9c3d fa82 39bd
000003e0: 37ee 5438 3cd6 593d bc63 07ba fdc2 c0bd
000003f0: 6eda d3bc 1839 29bd 6bae 5a3c 2c0a e4bc
-0.017093806 -0.09752746 -0.0061341696 -0.14215827 0.13636988 0.15849902 -0.0024756212 -0.0010611824
-0.047136802 -0.049744174 -0.04616517 -0.018323636 -0.15074882 -0.0010594723 0.04870718 -0.13769233
-0.06009488 0.10184525 0.015763683 0.005527129 -0.099989116 -0.12117361 0.024828788 0.13222261
-0.056737375 -0.026488792 0.013680841 -0.08375044 -0.01970276 -0.108955964 -0.025314094 -0.08052384
-0.010062946 -0.077963375 -0.080124855 -0.044466894 -0.011481379 -0.031534553 0.004762524 0.008816051
-0.0967252 -0.056786958 -0.0028411306 -0.059463408 -0.06817049 -0.105453685 -0.02289204 -0.052925155
-0.053285394 -0.027694467 -0.058009025 -0.022344492 -0.09139112 0.050043438 -0.19522822 -0.061252635
0.011178552 0.13031358 0.08913258 -0.036961965 0.030105375 -0.07553296 -0.1373074 0.058024045
0.1276494 -0.06959231 0.007019043 -0.014941832 -0.15692602 0.02875929 -0.062048938 -0.062257197
0.20986429 0.03938727 -0.110689506 0.017784499 -0.11874566 -0.029224519 0.018784013 0.18698062
0.05815733 -0.042063396 -0.029914014 -0.010000425 -0.27127516 -0.1176628 -0.040668998 -0.072277576
-0.08017958 -0.019429388 -0.07056969 -0.012659889 -0.064884625 0.01467776 -0.063735195 -0.012990383
-0.052166857 0.06562121 0.047678698 -0.030743418 0.04423474 -0.10513755 0.03901804 -0.2950152
-0.022207286 0.004530402 0.017997652 -0.016284931 -0.018375155 -0.10488716 -0.07206487 0.01797577
-0.07216524 -0.063845724 0.028816445 0.019063938 -0.0073813284 -0.13042074 -0.051855315 0.030129762
-0.121025525 0.042460732 -0.03898382 -0.050997704 -0.11157672 -0.018394234 -0.124516875 0.02960645
-0.10880671 0.02710358 0.09276694 -0.12767991 -0.016961385 0.07814377 -0.12316579 0.058489427
0.009869061 0.028551541 0.0038025347 -0.109216176 -0.01803669 -0.041075595 -0.104123 -0.05319889
0.0138651095 -0.16485108 -0.016458035 -0.07021324 0.027374908 -0.008749917 -0.12860185 -0.020993086
-0.00021519783 0.07916559 -0.053339627 -0.21580702 0.030288171 0.09140672 -0.03811124 -0.06674679
-0.047978245 -0.017439984 -0.0951948 -0.05741097 -0.015922435 -0.06276381 -0.08572385 0.07259038
-0.08533241 -0.30329797 -0.005450135 -0.07075976 -0.1269352 -0.04102697 -0.008250327 -0.1756168
-0.12026078 0.12759624 -0.023621287 -0.16613503 -0.0638205 -0.09032979 -0.08272714 -0.036358163
-0.033975717 -0.080462664 -0.027165545 0.020310983 0.049420446 -0.14121337 -0.104244895 -0.034178626
-0.07162864 0.07089794 0.0039962977 -0.107596666 -0.18906093 -0.18775423 -0.05631064 -0.11501622
-0.022833424 0.014214157 0.023399044 -0.009542576 0.018067434 -0.047113273 0.039959345 0.014907768
0.026169227 -0.0139099425 0.010041774 -0.039984662 0.034071386 -0.035131793 0.004563232 0.07183218
-0.017976003 -0.0016407248 0.027091298 -0.024582168 -0.10706098 0.034197845 -0.029775059 0.07777052
-0.020184068 0.098101355 -0.058057837 0.03196599 -0.032730896 -0.025919344 -0.002931468 0.06887713
0.02444354 -0.028672656 0.009114688 -0.014611779 0.0023157767 0.07260203 -0.028206814 0.050374027
0.053744823 -0.01747458 -0.055128124 -0.0034145433 -0.024743915 0.027488662 0.07625221 -0.045290925
5.0766594e-05 0.053182825 -0.0005164703 -0.09412191 -0.025860991 -0.041314214 0.013347249 -0.027836882

ntm.controller.lstm.bias_hh_l0 f4 [400]
00000000: 4f08 8cbc 7abc c7bd 2501 c9bb f091 11be
00000010: 8ca4 0b3e 914d 223e 083e 22bb 5f17 8bba
00000020: 8512 41bd 8cc0 4bbd b017 3dbd 731b 96bc
00000030: e65d 1abe fedd 8aba 2e81 473d 38ff 0cbe
00000040: 0d26 76bd 3e94 d03d d722 813c eb1c b53b
00000050: 18c7 ccbd df29 f8bd be65 cb3c 5d65 073e
00000060: 7365 68bd 06ff d8bc 9b25 603c 5a85 abbd
00000070: af67 a1bc 4e24 dfbd 815f cfbc afe9 a4bd
00000080: 0edf 24bc 43ab 9fbd 8018 a4bd eb22 36bd
00000090: 651c 3cbc 602a 01bd f20e 9c3b 3371 103c
000000a0: dd17 c6bd 7199 68bd 4332 3abb e78f 73bd
000000b0: f89c 8bbd 1af8 d7bd 1688 bbbc 0cc8 58bd
000000c0: c941 5abd 82df e2bc df9a 6dbd cc0b b7bc
000000d0: 442b bbbd 59fa 4c3d e8e9 47be 0be4 7abd
000000e0: 3f26 373c ec70 053e 248b b63d 6e65 17bd
000000f0: 8c9f f63c 06b1 9abd 509a 0cbe 9faa 6d3d
00000100: 86b6 023e 6a86 8ebd 0000 e63b 96ce 74bc
00000110: 37b1 20be 9a98 eb3c 0727 7ebd 6701 7fbd
00000120: aae6 563e 8c54 213d 2eb1 e2bd ccb0 913c
00000130: ed30 f3bd 4268 efbc eee0 993c d977 3f3e
00000140: 6136 6e3d ab4a 2cbd 3c0e f5bc d3d8 23bc
00000150: 94e4 8abe 32f9 f0bd 8994 26bd 4406 94bd
00000160: 3135 a4bd 612a 9fbc d786 90bd 6c6b 4fbc
00000170: 3be2 84bd fd7a 703c 9987 82bd 9ed5 54bc
00000180: eaac 55bd 6a64 863d bd4a 433d 9fd9 fbbc
00000190: 7d2f 353d 5b52 d7bd 61d1 1f3d 3b0c 97be
000001a0: 0eec b5bc c473 943b d06f 933c fa67 85bc
000001b0: 7e87 96bc 14cf d6bd bf96 93bd ec41 933c
000001c0: 5fcb 93bd 8cc1 82bd 7710 ec3c fa2b 9c3c
000001d0: 12df f1bb 048d 05be 3d66 54bd b1d2 f63c
000001e0: 3bdc f7bd 4eeb 2d3d 7fad 1fbd f8e2 50bd
000001f0: 5682 e4bd 81af 96bc b402 ffbd 3a89 f23c
00000200: 0dd6 debd 5408 de3c 98fc bd3d 86be 02be
00000210: 9af2 8abc d709 a03d 593e fcbd 9c92 6f3d
00000220: d8b1 213c ece4 e93c f233 793b bbac dfbd
00000230: aec1 93bc e23e 28bd 703e d5bd 14e7 59bd
00000240: 7c2a 633c b9ce 28be 00d3 86bc f6cb 8fbd
00000250: 5841 e03c d05b 0fbc 34b0 03be b1f9 abbc
00000260: baa6 61b9 9221 a23d a77a 5abd 84fc 5cbe
00000270: e61e f83c 7233 bb3d 881a 1cbd 8bb2 88bd
00000280: d684 44bd 4cde 8ebc 7ef5 c2bd c427 6bbd
00000290: c46f 82bc 508a 80bd fc8f afbd 44aa 943d
000002a0: c2c2 aebd df49 9bbe 0c97 b2bb 7eea 90bd
000002b0: 4dfb 01be e50b 28bd 612c 07bc e4d4 33be
000002c0: 494b f6bd 97a8 023e 6e81 c1bc 4d1f 2abe
000002d0: 53b4 82bd d3fe b8bd d96c a9bd 4cec 14bd
000002e0: 1f2a 0bbd 9cc9 a4bd 478a debc 3863 a63c
000002f0: 186d 4a3d 3d9a 10be 597e d5bd e3fe 0bbd
00000300: 09b2 92bd f032 913d 60f3 823b a45b dcbd
00000310: 3099 41be a542 40be fca5 66bd a08d ebbd
00000320: 290d bbbc 7fe2 683c 5aaf bf3c 7758 1cbc
00000330: 2802 943c d9f9 40bd 69ac 233d b63f 743c
00000340: d960 d63c 87e6 63bc 4186 243c f5c6 23bd
00000350: 708e 0b3d 5be6 0fbd 2a87 953b c01c 933d
00000360: 6942 93bc 970d d7ba 92ee dd3c 8b60 c9bc
00000370: c942 dbbd 0a13 0c3d d3ea f3bc 2646 9f3d
00000380: 0f59 a5bc 5de9 c83d 0ece 6dbd c5ee 023d
00000390: d510 06bd ce54 d4bc df1d 40bb 740f 8d3d
000003a0: d23d c83c ebe2 eabc c655 153c 3e66 6fbc
000003b0: 49c4 173b 60b0 943d fa11 e7bc ff54 4e3d
000003c0: 8823 5c3d da26 8fbc 07ce 61bd 88c6 5fbb
000003d0: c0b3 cabc e72f e13c 1e2a 9c3d fa82 39bd
000003e0: 37ee 5438 3cd6 593d bc63 07ba fdc2 c0bd
000003f0: 6eda d3bc 1839 29bd 6bae 5a3c 2c0a e4bc
-0.017093806 -0.09752746 -0.0061341696 -0.14215827 0.13636988 0.15849902 -0.0024756212 -0.0010611824
-0.047136802 -0.049744174 -0.04616517 -0.018323636 -0.15074882 -0.0010594723 0.04870718 -0.13769233
-0.06009488 0.10184525 0.015763683 0.005527129 -0.099989116 -0.12117361 0.024828788 0.13222261
-0.056737375 -0.026488792 0.013680841 -0.08375044 -0.01970276 -0.108955964 -0.025314094 -0.08052384
-0.010062946 -0.077963375 -0.080124855 -0.044466894 -0.011481379 -0.031534553 0.004762524 0.008816051
-0.0967252 -0.056786958 -0.0028411306 -0.059463408 -0.06817049 -0.105453685 -0.02289204 -0.052925155
-0.053285394 -0.027694467 -0.058009025 -0.022344492 -0.09139112 0.050043438 -0.19522822 -0.061252635
0.011178552 0.13031358 0.08913258 -0.036961965 0.030105375 -0.07553296 -0.1373074 0.058024045
0.1276494 -0.06959231 0.007019043 -0.014941832 -0.15692602 0.02875929 -0.062048938 -0.062257197
0.20986429 0.03938727 -0.110689506 0.017784499 -0.11874566 -0.029224519 0.018784013 0.18698062
0.05815733 -0.042063396 -0.029914014 -0.010000425 -0.27127516 -0.1176628 -0.040668998 -0.072277576
-0.08017958 -0.019429388 -0.07056969 -0.012659889 -0.064884625 0.01467776 -0.063735195 -0.012990383
-0.052166857 0.06562121 0.047678698 -0.030743418 0.04423474 -0.10513755 0.03901804 -0.2950152
-0.022207286 0.004530402 0.017997652 -0.016284931 -0.018375155 -0.10488716 -0.07206487 0.01797577
-0.07216524 -0.063845724 0.028816445 0.019063938 -0.0073813284 -0.13042074 -0.051855315 0.030129762
-0.121025525 0.042460732 -0.03898382 -0.050997704 -0.11157672 -0.018394234 -0.124516875 0.02960645
-0.10880671 0.02710358 0.09276694 -0.12767991 -0.016961385 0.07814377 -0.12316579 0.058489427
0.009869061 0.028551541 0.0038025347 -0.109216176 -0.01803669 -0.041075595 -0.104123 -0.05319889
0.0138651095 -0.16485108 -0.016458035 -0.07021324 0.027374908 -0.008749917 -0.12860185 -0.020993086
-0.00021519783 0.07916559 -0.053339627 -0.21580702 0.030288171 0.09140672 -0.03811124 -0.06674679
-0.047978245 -0.017439984 -0.0951948 -0.05741097 -0.015922435 -0.06276381 -0.08572385 0.07259038
-0.08533241 -0.30329797 -0.005450135 -0.07075976 -0.1269352 -0.04102697 -0.008250327 -0.1756168
-0.12026078 0.12759624 -0.023621287 -0.16613503 -0.0638205 -0.09032979 -0.08272714 -0.036358163
-0.033975717 -0.080462664 -0.027165545 0.020310983 0.049420446 -0.14121337 -0.104244895 -0.034178626
-0.07162864 0.07089794 0.0039962977 -0.107596666 -0.18906093 -0.18775423 -0.05631064 -0.11501622
-0.022833424 0.014214157 0.023399044 -0.009542576 0.018067434 -0.047113273 0.039959345 0.014907768
0.026169227 -0.0139099425 0.010041774 -0.039984662 0.034071386 -0.035131793 0.004563232 0.07183218
-0.017976003 -0.0016407248 0.027091298 -0.024582168 -0.10706098 0.034197845 -0.029775059 0.07777052
-0.020184068 0.098101355 -0.058057837 0.03196599 -0.032730896 -0.025919344 -0.002931468 0.06887713
0.02444354 -0.028672656 0.009114688 -0.014611779 0.0023157767 0.07260203 -0.028206814 0.050374027
0.053744823 -0.01747458 -0.055128124 -0.0034145433 -0.024743915 0.027488662 0.07625221 -0.045290925
5.0766594e-05 0.053182825 -0.0005164703 -0.09412191 -0.025860991 -0.041314214 0.013347249 -0.027836882

ntm.controller.lstm.weight_ih_l1 f4 [400, 100]
00000000: bf50 5bbe ad16 d93e 545e 3ebd 9f41 cfbd
00000010: 0264 59be 7066 cbbd ea57 84be 9794 d83c
00000020: 95dc 3c3d 25f4 3e3e 47e1 973e 9235 833e
00000030: d2bb 5a3c 55f8 b43e 0fd8 a93d debc 393e
00000040: b776 3fbe 24c5 bd3e f824 eb3e d74c a3be
00000050: ef79 bebe 02f5 85bc 29bb b83e 16b4 9cbd
00000060: 0280 a7be 4444 0f3e 8e53 58be be35 2d3e
00000070: 6e80 53bd e8f0 4b3e e685 42be a0d0 86be
00000080: 21c0 babe 3284 433e 2294 803e 6789 02be
00000090: af05 82be 5f72 623e 47b5 d3bd a3cf 0d3e
000000a0: 6abb 3e3e 03b7 fb3d 7ba6 123e 54c2 6abe
000000b0: def5 403e af07 803e 1ce9 0abe 56bb a8be
000000c0: f2c5 a43d 6901 2ebe b7f1 033e a645 2d3c
000000d0: a28a 06bf daeb a8bd 9a6f 30be 4036 74be
000000e0: 43e8 16be 2fbb b43e c35c 8c3e 86de 863e
000000f0: 67c9 85be e2c9 353e a81a 8a3e 24ed af3e
00000100: 139c 1cbe 0cc3 643d ad42 8cbe c390 683e
00000110: 41cd 41be cf14 a2bd 1ed5 a2bd 88ee 36be
00000120: f403 93bd dbc7 2bbe c2c6 55be 2c3f 8ebe
00000130: 0ebf c4bd b117 2cbe e95e 7c3e 22a6 0bbe
00000140: 7d41 b2be 918a 513e f3f0 ba3d 1cb5 a33e
00000150: b806 c53d 7459 acbe 895f c73e 7ef0 ed3d
00000160: 0203 e6bd cb51 6dbe 10d7 4ebe b45c f63d
00000170: ad41 643e 740f 34bd 63a7 b03e 9a73 c0be
00000180: 2261 b93d d8c8 0abd 12a1 49be 7b9a 5b3e
00000190: 5193 45be 7429 113e e963 58be db66 85be
000001a0: 7915 e33e 822c 9cbe 1f11 ae3b de1b bd3e
000001b0: 8279 8a3e f703 92bd 4041 27be 2ff4 cfbd
000001c0: 1e3f cdbd 83fa 0bbe 4156 f9bd cb15 153e
000001d0: 2e96 3c3e 14a6 a8bc aa09 87be 7da3 a03e
000001e0: b6d2 75bd 7c5b 393e dd47 3f3e 3612 0a3d
000001f0: ff27 2cbe bf18 003f c812 6a3e cf8e 473e
00000200: 947b 4dbe d940 da3c 4c28 17be 8b5c b63e
00000210: dcf9 ca3e d3cc a7be 2118 34bc 2925 a13d
00000220: 3f55 84bd 6a9f 0f3e 0abc 82bc cf9f cf3e
00000230: 6069 94be 1ca4 c9bd 3f74 91be ee51 083e
00000240: 5a0f cbbd 5dc1 25be cf38 813e 61c7 4e3e
00000250: 487b 033e caf6 313e 101a b43d 9732 e73d
00000260: f005 b33d 03ca f9bd 87cd 3f3e 8d87 8c3e
00000270: 6691 6e3e e1b4 103e 13ae 913c 1396 963c
00000280: edea 053e 9550 1bbe c9bf ed3d c95f 0b3e
00000290: 3550 8a3d bdcc 69be 145b 1f3e 72a3 cbbe
000002a0: af92 693e a1da ccbe 84d8 ddbd 5949 e8bc
000002b0: 6c47 9abe d977 77be 86ae ea3c c6e6 a9be
000002c0: 8eed 07be a4be 383e 641e c3be 955b e23d
000002d0: e7fe a4be e486 823e 8a14 76be 6183 95be
000002e0: bf33 c13d e5bb 5ebe d33d 3f3e 6df9 a33e
000002f0: c133 d2bd 755a 82be 341d 863e efcb 3f3e
00000300: e769 993e 6bfc 03be 927d 173e 28a1 a1be
00000310: 09a2 3d3e 43c0 a4be 5e8b 563c d081 5cbe
00000320: 8d74 3fbe 6f88 4bbe af35 0dbd 3b4d 983e
00000330: 6eb4 a63d 9514 a9be e77a 493d 9b3e 88be
00000340: 8b7c 5bbe f946 6fbe 9246 763e 796e 50be
00000350: a733 33be 040c 83be 12ca 96be 0ef1 96be
00000360: fd41 fdbd 6550 9f3e fd74 083d a11d 6cbe
00000370: 975b 26be 8bac 5c3d c804 06be b2d9 0a3e
00000380: 9b02 6abe a6f6 843e 3a09 ce3c a5aa 733e
00000390: 718c 803e 0e3e 773e 4cae 8f3e 9a0b 87bb
000003a0: 775b f03d 8643 2bbd 059d 76bc a4d8 f43d
000003b0: 1212 383e e841 073c 22c1 7cbe 7551 193e
000003c0: 55f5 93be 3c9e 9cbe 94dd 49be ec72 f2bd
000003d0: da3d a43d bdaf 15be bdf4 06be 7dcb c4be
000003e0: 269d 5abe 6530 90bd 8df8 a93e a7f5 c8bd
000003f0: 69d8 5fbe b04e 7b3e fda8 f93d 3bed 1b3d
-0.21417521 0.42400113 -0.046476677 -0.10119938 -0.21229556 -0.09931648 -0.25848323 0.02643804
0.0461088 0.18647821 0.2966406 0.25626808 0.013350444 0.35345712 0.08293163 0.18138453
-0.1869763 0.3706447 0.45926642 -0.31894562 -0.37202403 -0.01635218 0.36080292 -0.07651536
-0.3271485 0.13990885 -0.21125624 0.16915032 -0.051636152 0.19916117 -0.1899639 -0.26331043
-0.36474708 0.19093397 0.25113016 -0.12747727 -0.2539496 0.22113942 -0.1033731 0.13848738
0.1862618 0.12290766 0.1432132 -0.22925693 0.18843791 0.25005862 -0.13565487 -0.32955426
0.080455676 -0.16992725 0.12885176 0.0105756875 -0.52555287 -0.0824811 -0.17230073 -0.2384882
-0.14737038 0.3529906 0.27414522 0.26341647 -0.2613022 0.17752793 0.26973462 0.3436061
-0.15293913 0.055850074 -0.2739462 0.22711472 -0.18925954 -0.07914125 -0.07950805 -0.1786443
-0.071784884 -0.16775458 -0.20876601 -0.2778257 -0.09606753 -0.16805913 0.2464558 -0.13637593
-0.3481559 0.20463015 0.09127989 0.31974113 0.09620422 -0.33661997 0.38940075 0.11618136
-0.112310424 -0.23175733 -0.20199227 0.120294005 0.22290678 -0.04396005 0.34502706 -0.37588197
0.0905173 -0.033882946 -0.1969035 0.21445648 -0.19294478 0.1417597 -0.21131863 -0.26055035
0.4435232 -0.30502707 0.0053120996 0.36935323 0.27045828 -0.071296625 -0.16333485 -0.10153996
-0.10021804 -0.13669781 -0.12174655 0.14559095 0.18416664 -0.020587005 -0.2637456 0.31374732
-0.060015403 0.18101305 0.18679757 0.033708774 -0.16812132 0.5003776 0.22858727 0.19488071
-0.20066673 0.02664225 -0.14761466 0.3561748 0.39643753 -0.32773456 -0.010992081 0.07868416
-0.06461572 0.14025655 -0.015958805 0.40551612 -0.28986645 -0.098457545 -0.28409 0.13312504
-0.099150375 -0.16187043 0.25238654 0.20193245 0.12839997 0.17379299 0.087940335 0.11288946
0.08741367 -0.12196734 0.18730746 0.27447167 0.23297653 0.141315 0.0177832 0.018382108
0.13077898 -0.15167458 0.11608846 0.13610758 0.067535795 -0.22832008 0.15562087 -0.39773136
0.22809862 -0.4001055 -0.10832313 -0.028355287 -0.30132616 -0.24166812 0.028647672 -0.3318388
-0.13274214 0.18041474 -0.38109124 0.11052624 -0.32225725 0.25493538 -0.24031273 -0.29201797
0.09433698 -0.21751364 0.18675928 0.32026234 -0.102637775 -0.25459638 0.26194155 0.18730138
0.2996361 -0.12889259 0.14793995 -0.31568265 0.18518843 -0.32177934 0.013094751 -0.21533895
-0.18696804 -0.19876264 -0.034475025 0.29746422 0.08139883 -0.33023515 0.049189474 -0.26610264
-0.21434228 -0.23366918 0.24050358 -0.20354642 -0.17500173 -0.25595105 -0.29451042 -0.29480785
-0.12366102 0.31116024 0.033314694 -0.23058178 -0.16245876 0.053875487 -0.13087761 0.13559607
-0.22852556 0.25969428 0.025150884 0.23795564 0.25107148 0.24144766 0.28062665 -0.004121256
0.117361955 -0.041812442 -0.015052085 0.119553834 0.17975643 0.008255459 -0.2468305 0.1497248
-0.2889811 -0.30589473 -0.19713432 -0.11838326 0.0801961 -0.1461782 -0.13179298 -0.384365
-0.2134901 -0.070404805 0.33197442 -0.098124795 -0.21859898 0.24541736 0.12190435 0.038068037

ntm.controller.lstm.weight_hh_l1 f4 [400, 100]
00000000: d8b5 1cbe d60b a63e 9206 8d3d 95fa 883e
00000010: 44f2 8f3c c6b9 51be 29f9 a8be 06d1 a23d
00000020: b41f 97bd 2f9b 3a3d 3066 a33c 3fb6 8b3d
00000030: 072e 013d 8e72 a23d 5507 adbe a349 563e
00000040: 81a9 5b3e 3093 73be bd4e f23e 9c5d 5bbe
00000050: 87ef 493c fe13 ff3d 18da d03c 48ec 8b3e
00000060: 3aa4 c03d beeb da3d 718a 2a3e d275 29bd
00000070: 8912 5fbe d3b6 f83d 63b1 083e 4534 87bc
00000080: a2ce c93e aed4 a33e 7889 63be ff62 3b3e
00000090: f3fa 81bd 4ca9 45be 84a6 d53b 2a3f 4e3e
000000a0: 741c 90be 2486 81bc 8313 5bbe 2113 7b3e
000000b0: f763 363e 7999 abbd 0d56 953e 5d56 3b3e
000000c0: b750 f43d 1e11 e0be b1e9 afbe 2324 a83d
000000d0: c701 d8be 1375 813e 4e27 f53d 062c 7d3d
000000e0: ebf1 3a3e d844 6cbe 501d 8bbe 410d 61bd
000000f0: 8d31 4abd f61d 40be f62e 59be 0432 f0be
00000100: 78a4 573d b30c d9be 6c51 d3bd c3a7 c1bd
00000110: e126 0c3e e9c5 a3be 0adc d53e 8a96 eb3d
00000120: 492a 6f3e 9886 453e d6e9 133d 7254 af3e
00000130: 8743 62be c174 4d3e df8d bd3e cc3f 933e
00000140: f1d0 dabd 2db7 89bd 0fa6 9b3e ac05 ce3c
00000150: 929a 7b3e 18e7 c2bb 4228 5e3e 56d7 6cbe
00000160: a224 95be 1d80 42be d102 cebd 5a6f 40be
00000170: 3a99 d03e 94d8 e2bd e7bc 973e 4e91 15be
00000180: 22ad b1bc 7ea3 33be e14c 65be 3f8f febd
00000190: f16f 66be e137 b03e 6a44 98be 97da 903e
000001a0: 1bc9 c63e ff0e 8d3d 67c7 81be d9be 643d
000001b0: abd2 9c3e 9a0a ee3c 7f61 17be f987 1c3e
000001c0: 854e dbbe ec02 cbbd b02a dcbd 5818 44ba
000001d0: 9ebb 15be 43b0 1a3e cc5a 2dbe 50ef eabc
000001e0: 0d14 49be 19ff e5be 78c1 8c3e 6805 29bc
000001f0: 9d1b 86bb 61f9 8dbe 8e35 873e 0ddc 0abe
00000200: 72f2 5fbe e141 683e ff11 92be 9921 8bbe
00000210: 4c90 f7bd f8fd 823e 5251 533e a2fc 86bd
00000220: 4e26 a63d 4145 ce3d 693c 6c3e 629f 6b3e
00000230: 5a47 a4bc 5bbc 3dbe fb7f 913c e0f9 5f3e
00000240: a841 4f3e 382f b93e ea05 b93d f51a 7a3e
00000250: 5e27 9f3e bcd9 44be 54d3 443d 55fe d23d
00000260: 0ea5 473c 21e9 843e f0bf 873e e2c3 d6be
00000270: 8c9b 883e d851 b83e d916 32be bf7d 0abe
00000280: bd87 aebb 575a 07be 3b04 ecbc 7208 043e
00000290: fdfe f13d 5c6e 1fbe c2e7 83be af01 b3be
000002a0: ef4b e93d ade6 063e f67d bc3e d1ba 743e
000002b0: adce 413d 5128 f6bd 26df abbe 4748 37be
000002c0: 6f8f a33e f97d 88be 049a ddbd a8c6 dd3d
000002d0: 773f 61be b0b7 9fbd 8995 a8bc 2c41 79be
000002e0: a04c c93e 32e8 07bf 65ef 923e d934 413e
000002f0: 5665 45be d612 20be 0a83 76be f348 c03d
00000300: 2a1a 693e 7d0e 78be ffa2 aabe 2815 01be
00000310: 2bed acbd 3a57 643d c758 47bd 7952 6b3e
00000320: 365e a5bd cd32 59be 606f e93e a755 b73e
00000330: 0991 bfba 093a 213c 0f24 ac3d 602d a1be
00000340: 810d ab3c 14a7 0abe 1d5a 223c 3e61 67be
00000350: 3be3 0b3e 2423 19be 5f2a 763d b352 903d
00000360: 87b1 cabe c23a 743e a1a2 503d 0511 323e
00000370: e407 43bd 8212 12be bc38 b63e 6059 6f3e
00000380: 1feb c9be b4e3 013e e32d 9a3e 9bee 883e
00000390: da25 72be 278c f93d 969a ad3e 5f3e 90bd
000003a0: d6ea 5cbe 40af cf3d e327 85be 6365 233e
000003b0: dbbf db3e 61a6 133e cb64 a23e 55df 8bbe
000003c0: f242 4f3e 2889 ee3d bc11 6abe 3380 473e
000003d0: 197f fabc 8d5c 423e 5506 a63e 4991 4bbd
000003e0: 5e05 bebe 8a3e 3e3d bc02 8ebe 548e 84be
000003f0: 072f 5f3b b630 863e f778 a8bc 23eb ef3d
-0.15303743 0.32430905 0.06886019 0.2675368 0.017571576 -0.20481023 -0.33002594 0.07950024
-0.07379094 0.04555815 0.019946188 0.0682187 0.031538036 0.07932006 -0.33794656 0.20926528
0.2145138 -0.23786616 0.47325698 -0.21422428 0.012325174 0.12454985 0.02549462 0.27328706
0.09406324 0.106894955 0.16654374 -0.041372128 -0.21784414 0.12144246 0.13348918 -0.016504416
0.3941546 0.319982 -0.22220409 0.18299483 -0.06346693 -0.19302863 0.0065200943 0.20141283
-0.28146708 -0.015811034 -0.21394162 0.24519016 0.17811571 -0.08378882 0.29167214 0.18294664
0.11929458 -0.4376306 -0.3435798 0.082100175 -0.42188856 0.25284633 0.119703874 0.061809562
0.18256347 -0.23073137 -0.271708 -0.05494428 -0.04936366 -0.18761429 -0.2120932 -0.4691316
0.052647084 -0.423925 -0.10318264 -0.09455826 0.13686706 -0.3198693 0.4176944 0.115033224
0.23355974 0.19289625 0.036111675 0.34244114 -0.22096072 0.2006407 0.37022302 0.2875961
-0.10684384 -0.06724391 0.3040013 0.025149189 0.24570683 -0.0059479587 0.21695045 -0.23129019
-0.2912951 -0.18994184 -0.10059131 -0.18792477 0.40741903 -0.11076465 0.2963631 -0.1460621
-0.021689001 -0.17542836 -0.22392608 -0.12429666 -0.2250364 0.34417632 -0.29739696 0.2829177
0.38825306 0.06887626 -0.25347444 0.05584607 0.30629477 0.02905779 -0.14783286 0.15286244
-0.42833343 -0.09912667 -0.107503295 -0.0007480434 -0.14622352 0.15106301 -0.16929168 -0.028678566
-0.19636555 -0.44921187 0.27491355 -0.01031623 -0.004092647 -0.27729324 0.26408046 -0.13560505
-0.2186983 0.22681381 -0.28529355 -0.2717407 -0.12088069 0.25584388 0.2063649 -0.06591155
0.08112775 0.10071803 0.2306992 0.23010018 -0.020053554 -0.18528883 0.017761221 0.21872663
0.2023989 0.36168838 0.09034331 0.24424346 0.31084722 -0.19223684 0.0480531 0.10302416
0.012185348 0.25959113 0.26513624 -0.41946322 0.26681173 0.35999942 -0.17391528 -0.13524531
-0.00532624 -0.13218056 -0.028810611 0.12893847 0.11816213 -0.15569443 -0.25762755 -0.34962222
0.11391436 0.13173933 0.3681485 0.2389939 0.047316242 -0.120194085 -0.33568686 -0.17898665
0.3194537 -0.2665861 -0.10820392 0.10828906 -0.21996866 -0.077987075 -0.020579116 -0.24341267
0.39316273 -0.53088677 0.2869827 0.18867816 -0.19276938 -0.15632185 -0.24073425 0.09388914
0.22763887 -0.24224277 -0.3332748 -0.12605727 -0.08443674 0.05574725 -0.04866865 0.2298068
-0.0807461 -0.21210785 0.45592785 0.35807535 -0.0014615367 0.009840497 0.08405315 -0.3147993
0.020880463 -0.13540298 0.00990918 -0.22595689 0.136609 -0.14954811 0.060099002 0.070470236
-0.39588568 0.2385054 0.050936345 0.17389305 -0.047614947 -0.14264873 0.3559016 0.23373938
-0.39437196 0.12684518 0.30113134 0.26744542 -0.23647252 0.12184935 0.33907002 -0.07043146
-0.21573958 0.10140848 -0.26006994 0.15956645 0.42919812 0.14418937 0.31717524 -0.27318826
0.20240381 0.11647254 -0.22858328 0.19482498 -0.030578183 0.18980618 0.32426706 -0.0496991
-0.3711347 0.04644636 -0.2773646 -0.25889838 0.003405513 0.26209038 -0.020565493 0.11714771
