results/priority-sort/priority-sort-task-1-batch-24000.model (torch_old, 876115 bytes, 49 tensors)

ntm.read0_bias f4 [1, 20]
00000000: d3d4 0b3c 2633 0a3c 0d66 07bc 898c 3e39
00000010: 1812 993b 836f 183c dd0b 193b bdf5 353c
00000020: 4dc3 c83b 41e3 3abc 7e4e a9ba f7b1 efba
00000030: 87a4 d5bc f7f7 3f3b 98dc 8b3c eb0f 77bc
00000040: 2d3b 1abc 44c2 453b e9ba 213c dc91 b03a
0.008534628 0.008435046 -0.008264077 0.00018172165 0.0046713464 0.00930393 0.0023353018 0.011105952
0.0061267973 -0.011406721 -0.0012917069 -0.0018287291 -0.02607943 0.0029292086 0.01707296 -0.015079479
-0.009413523 0.0030175606 0.009871223 0.0013471204

ntm.read1_bias f4 [1, 20]
00000000: 267f f33b 1622 21bb eb81 c93b 0605 d13b
00000010: 0769 5e3b 5980 a83b af91 49bb cb9c f5ba
00000020: 341a d5ba 100a a6ba 382b 9c3c dd00 363c
00000030: ccc1 94bb 4a2c 23bc fee3 2039 97bd dbbb
00000040: d487 113b e478 0e3c b770 1bbc ea51 78bb
0.0074309288 -0.0024586967 0.0061495206 0.0063787727 0.0033937113 0.0051422534 -0.0030757 -0.0018738745
-0.001625842 -0.0012667794 0.019063577 0.011108604 -0.004539704 -0.00995929 0.00015343723 -0.0067059505
0.0022206204 0.008695815 -0.0094873225 -0.0037890621

ntm.read2_bias f4 [1, 20]
00000000: 5ded 093c fb63 b1bc 3497 d63c b3e7 72bc
00000010: 8336 e93b 8ae3 683b b0e4 b03b 873d 343b
00000020: 1497 25bc 5b63 23bc 203e 243c ff13 88ba
00000030: 9203 64bb 583d 7b3b 6a02 dcba ab40 673b
00000040: 5561 853c 463c 81bc edb1 953c 13a6 32bc
0.008418408 -0.02165412 0.026195146 -0.014825749 0.007117094 0.0035536014 0.0053983554 0.0027502493
-0.010106821 -0.009972419 0.010024577 -0.0010381936 -0.0034792167 0.0038336124 -0.0016785387 0.0035286348
0.016281763 -0.01577581 0.018273318 -0.010903853

ntm.read3_bias f4 [1, 20]
00000000: e8fc 10bc 3ebf 0a3b a079 22bc e88e 9d3b
00000010: db03 d439 a6a9 643b ed59 b93c d3a3 4ebc
00000020: 4b5c d13a 9a11 0cba a5f1 3c3c 1565 d33b
00000030: 70e9 57ba f97e 823b 8e46 c23b 6160 06bc
00000040: 9582 6bbc 40a2 40bb 908b 13bc 1948 903c
-0.00884936 0.0021171118 -0.009916693 0.0048082955 0.00040438664 0.0034891157 0.022625888 -0.012612301
0.001597294 -0.0005343199 0.011532222 0.006451259 -0.0008236384 0.0039824215 0.005928821 -0.008201689
-0.014374395 -0.0029393584 -0.009005442 0.017612504

ntm.read4_bias f4 [1, 20]
00000000: b459 a93a ed3d 923c 466d eeba 1b01 f33b
00000010: 00a8 81bb 10fe 10bc e612 d2bb 501c 073c
00000020: f64c 1dbb 304d 083c 7e27 33bc 7455 70bc
00000030: 4b8f 44bc d85d 1dbc 57d2 c9b9 bdf3 d83a
00000040: 4a8c b83b 434f 13bb b7f8 8abc b6f7 293c
0.001292041 0.017851794 -0.0018190525 0.0074159033 -0.0039567947 -0.008849636 -0.0064109443 0.008246496
-0.002400217 0.008319184 -0.010934709 -0.014668811 -0.011997054 -0.009604894 -0.00038494423 0.0016552132
0.005631958 -0.0022477664 -0.0169643 0.010374

ntm.controller.lstm_h_bias f4 [2, 1, 100]
00000000: 6db1 393d f934 1cbd abb7 c2bc 8735 dabd
00000010: 2e94 1bbd c5e1 a93d 9ee5 91bd 6b3d 59bd
00000020: 61fe 4e3c a94b 183b 4400 8cbc 5879 1ebd
00000030: 00cf 123d 0d61 993c aff6 bebd 2641 8d3d
00000040: e291 05bd 849a 9dbc 6408 b23d 356c 7a3d
00000050: 04f9 92bd bf49 fb3c 39b2 e93c 63e7 a0bd
00000060: 3edd 95bd f2bf cd3d c762 33bd 562c f9bc
00000070: 346d cdba 7df4 87bc 6050 71bd a637 a7bd
00000080: 9ec5 f2bc 065d 47bd f8cf 0abe 60c9 813c
00000090: cc2f 24bd 2a9a 09bd 66ff f63d cb5b 5eba
000000a0: bb43 4f3d 8e2e f0bc 51a8 f8bc d24e 993c
000000b0: 18bf 3abd 620b 0dbd dd7a 0cbc e93d a43d
000000c0: a8ec 183d 506f 19bc 8f61 a83b f357 e33d
000000d0: 3efb 61bc 893b 073e e759 d6bc 6466 fe3a
000000e0: 5ca7 3b3c d170 d2bd bbc6 3b3d 3826 d83d
000000f0: 4ee2 cd3d 9bd0 44bc d9a3 5a3d d78f a33c
00000100: eb60 7e3d 3761 10bd 62b3 4abc 80c7 9bbd
00000110: 0b71 d0bd f66a d6bd 15c3 d9bc a886 d1bd
00000120: 4c55 643c 1de2 dcbc f666 ea3b 2bbe eabc
00000130: 76e1 69bd 636f a5bd 5b63 163a 60bd c9bc
00000140: f3a8 cf3c 134f 72bd 8eee 28be 4e88 dfba
00000150: a373 01bd d33f 853c c071 2ebd ebd6 31bd
00000160: 2869 de3b b107 c73d 1be7 e9bb 710d 53bc
00000170: 47d5 4d3d 4a63 edbc 4643 b13d 1dec 8ebd
00000180: 680f bc3d 1fab c73d 17fb 443c 8838 21bd
00000190: beea 813e 8976 4b3d d0a6 993d 91a7 753d
000001a0: b61a 05be 9a44 8f3d fb86 ae3d 8088 ecbd
000001b0: d960 a13d 3f6c c2bd 598b 5dbc 3608 9bbd
000001c0: 80ad e73d 084b 7e3d ee7e 5abd d4fc a6bd
000001d0: 9388 1b3e 2493 c1bb 4090 e9bd 5fa1 0f3c
000001e0: 1840 82bd 6b77 2d3d 75d5 eb3c 181d 733d
000001f0: c1d6 ffbc 817b 8fbd e8de 22bd bb43 0e3e
00000200: bc26 0e3a fb4b 0b3e ff4f 7b3d a0b1 8f3c
00000210: 29f0 a13d 64a1 72bb 8399 063e 33a5 c1bd
00000220: 47da 6dbc 5066 d93c 601c c43d 2355 61bd
00000230: e463 863d 6510 a4bd a3bd b5bd ce1a 77bd
00000240: 4d88 2ebd 9407 ce3a 517c ca3d 6755 12bc
00000250: 3fa7 da3d e6c9 d4bc 6a1f da3b 602d c33d
00000260: ed86 5f3d da4b cfbc 052c 8bbd 2a4c 053c
00000270: d26c 09be 6d5d 90bd 0f0f 0a3d 2bbb b1bd
00000280: a4b4 683d 8546 c33d cf70 ef3d fc92 c63d
00000290: 2cdf 2bbd f0a2 7abd 66f4 e13b 8493 52bd
000002a0: 040f ae3c 7498 843d 6184 543d 2199 633e
000002b0: 9ad4 fdbd 2cb5 863d 176e 933d f4c2 29be
000002c0: fb6f 793d a9a7 febc a411 b8bd f9fe 2bbe
000002d0: 8b14 b83c 5d58 7abd fd7f ef3b 075a d0bd
000002e0: fac2 043e 22d5 d2bd 18e0 8abd 3e85 fcbd
000002f0: aa27 13bd e887 cfbd 9376 503d 48c3 8ebd
00000300: c398 293d 3898 273e 8c53 a9bb 15c7 19be
00000310: 959c 673d 6559 9ebd 31f8 f33d 5b54 c8bc
0.045335222 -0.038136456 -0.02376922 -0.10654741 -0.037983112 0.08295015 -0.07123874 -0.05303709
0.012633891 0.0023238456 -0.01708997 -0.03868994 0.03584194 0.018723035 -0.09324395 0.06897192
-0.032609828 -0.019238718 0.08693007 0.06113835 -0.07176402 0.030674813 0.028527366 -0.078566335
-0.07317589 0.10046376 -0.043795373 -0.030416649 -0.0015672804 -0.016596073 -0.058914542 -0.08164911
-0.029635247 -0.0486727 -0.13555896 0.015843093 -0.040084645 -0.033594288 0.12060432 -0.0008482306
0.050601702 -0.029319074 -0.030353697 0.018714342 -0.045592397 -0.034434684 -0.008574215 0.08019621
0.037335068 -0.009364918 0.005138583 0.11100759 -0.013792811 0.13206305 -0.026165916 0.0019409177
0.011453476 -0.10275424 0.04584382 0.10554165 0.1005293 -0.012012626 0.053378914 0.01996605
0.062104147 -0.03524896 -0.01237187 -0.07606411 -0.10177811 -0.1046962 -0.02658228 -0.10230762
0.013936352 -0.026963288 0.007153387 -0.028655132 -0.057099782 -0.08077886 0.0005736851 -0.024626434
0.025349116 -0.059157442 -0.16497251 -0.0017054172 -0.03160442 0.016265785 -0.04258895 -0.043417852
0.006787438 0.09718264 -0.0071381456 -0.012881623 0.050252225 -0.028978009 0.086554095 -0.06978629
0.09182626 0.09749436 0.012022755 -0.039360553 0.25374407 0.04967359 0.0750252 0.059974257
-0.1299847 0.069955066 0.08521839 -0.11549473 0.078798 -0.094933026 -0.013521993 -0.075699255
0.113123894 0.062083274 -0.053343706 -0.08153692 0.15188818 -0.005907433 -0.11404467 0.008766501
-0.06359881 0.042350214 0.028788308 0.059353918 -0.031230332 -0.070059784 -0.03976336 0.13893025
0.0005422642 0.13603203 0.061355587 0.017540753 0.07907135 -0.0037022466 0.13144498 -0.094553374
-0.014517373 0.026538044 0.095757246 -0.055012833 0.065620214 -0.080109395 -0.08874061 -0.060328297
-0.042610455 0.0015718811 0.09886993 -0.008931494 0.10676431 -0.025975179 0.006656577 0.09530139
0.054572035 -0.025304724 -0.067955054 0.008135835 -0.13420418 -0.070490696 0.033705767 -0.086782776
0.056812897 0.09534935 0.116914384 0.09696004 -0.04196088 -0.061190546 0.0068955896 -0.051410213
0.021247394 0.064743906 0.05188406 0.22226383 -0.12394066 0.065775245 0.07198732 -0.16578275
0.06089781 -0.031085806 -0.0898774 -0.16796483 0.022470733 -0.061119426 0.0073089586 -0.10173421
0.12965003 -0.10294558 -0.06781024 -0.123301014 -0.0359265 -0.10133344 0.05089433 -0.06970841
0.04140545 0.1636666 -0.0051674303 -0.1501735 0.056545813 -0.077318944 0.11912573 -0.024454286

ntm.controller.lstm_c_bias f4 [2, 1, 100]
00000000: e3e8 fd3c f545 4bbc 28ae 4bbd c798 cbbb
00000010: 6989 e83c 3d14 9dbc 7d89 01be 0270 a73d
00000020: 259c 71bd 91de 18bd 3684 8f3d 378f a0bd
00000030: 6fa9 1ebd b2ab d1bc 80b7 153e 0eab 4dbc
00000040: 16a7 ed3b 48d6 c7bd ffb6 bc3d 0ba7 43bd
00000050: a728 f8bc 3588 3dbd daf1 d33a 108a d8bc
00000060: 2626 bbb9 cbfc bb3d 1354 d93c 1f5d 76bc
00000070: 7adc 86bd 4e91 063d a09a a8bd 6d77 a3bd
00000080: 113f 6fbd 2792 afbd 6f0f f6bc b690 8bbd
00000090: 42a5 bdbc ea3c 03be ea50 c3bb 87df fcbc
000000a0: e5fa ce3c c806 6fbd a852 a3bd d1be b93c
000000b0: 10f4 c7b9 524c 1a3d c360 e53c eac8 c93c
000000c0: bc68 c9bc a2c8 013c 8fc4 543c 3cca 06bd
000000d0: 8e4c 433c 3c89 02bd c64b dd3d 13ab d6bc
000000e0: dacf 51bc 8273 8c3b 430b aa3b 2918 703d
000000f0: 1615 a23c b896 eabc 00fe aabb 16c9 27bc
00000100: 479a 113d 53fc 4cbc 9f60 24bd cafe 6f3d
00000110: e5dc 47bb 05e3 0bbd a9e1 133d 7327 f6bd
00000120: edc4 56bd 6ec2 1f3d cc38 ee3c 5f3f 53bd
00000130: f25a 0c3c 9702 05be 9d10 80bd 5012 4abd
00000140: d0bf 08bd 08a5 88bd 9869 0fb9 f031 86bd
00000150: ddd1 a33d 15e8 82bc fded e93b 50b9 a53d
00000160: b2ad 9fbd 895f d5bb 1c74 903a 9157 be3c
00000170: cda1 003d cc1f 45bd 7f02 8fbd f304 37bd
00000180: 828f 6c3d 4773 f63b cfd8 e5bc c279 a1bd
00000190: ebd5 773d 2b75 7d3c 04d8 4bbd 82b2 62bd
000001a0: 63d7 ddbd 424c 84bc 7aec 893d 4dac a03c
000001b0: cf75 cb3d c11c e8bc f6ed b9bd 2a00 90bd
000001c0: 2467 4f3d e571 41bd fcdb c5b9 b10a f73d
000001d0: 87a1 113e 3f47 0a3e 5f86 31bd af44 a4bd
000001e0: 85ca 06bd da5a 7ebd 1986 f6bc 00cd 46bd
000001f0: 716f 1dbe 2e5d 11bd 725a d2bc f73b 5d3e
00000200: dc36 7f3c f082 84bd b5d9 883d 86fa 35bd
00000210: 5fbc 103d 550a be3d 2291 623d 0348 28be
00000220: 6fc0 1e3d 2c89 cb3d 30a5 033d 4632 49bc
00000230: 2454 d93c d0b9 97bc a60b 96bd 5f99 a5bd
00000240: 60b8 ebbc ea0d efbd 14ba b43d f648 2e3d
00000250: b1f0 d93d de49 ef3d 868e 1abd b8f7 4abd
00000260: 09bb 043d 9b14 c2bd 8ac3 67bd 7435 3f3c
00000270: 5bcd 44bd cbfc a63d bf99 653d 001e b73d
00000280: 9aa5 0bbc 2258 303d 2ce4 05bd b76e 173d
00000290: a463 11be 486b 1bbd 5c9d 12bd 112c f0bc
000002a0: 2fe3 02bd 8f8b d43d d589 803d a25f d83c
000002b0: c7b5 b4bd dc37 963c 3679 8b3c f850 983c
000002c0: d815 853d 48fc f5bd 9344 14bd 7607 34bd
000002d0: 7013 4c3d 2c79 60bb d907 293d 157c 0fbe
000002e0: e67d 7fbc 1737 32bd fb8c 03bd d346 1abe
000002f0: 25bf 183e 5f84 413c c619 8f3d 7bd9 213d
00000300: ef6f e3bd cf4a 2a3b 5128 af3d 50b9 0bbe
00000310: a564 093c 2fc5 dabb 6f8a 113d 36cb 313d
0.030994838 -0.012406816 -0.049726635 -0.006213281 0.028385835 -0.01917469 -0.12650104 0.08175661
-0.0589868 -0.03732163 0.07007639 -0.07839816 -0.038735803 -0.025594566 0.14620781 -0.01255299
0.007252584 -0.09757668 0.09214591 -0.047766726 -0.030292822 -0.046272475 0.00161701 -0.02643302
-0.00035695842 0.09179076 0.026529348 -0.01503685 -0.06585021 0.032853417 -0.082326174 -0.07981763
-0.058409754 -0.08572798 -0.030036656 -0.06814711 -0.02315009 -0.12816206 -0.0059605734 -0.030868305
0.02526612 -0.058356076 -0.0797475 0.022673996 -0.00038138079 0.03767044 0.028000241 0.024631936
-0.024586074 0.00792137 0.012986316 -0.03290771 0.0119201075 -0.03186916 0.10805468 -0.026204621
-0.012805903 0.0042862305 0.005189331 0.05861679 0.019785445 -0.028636321 -0.0052182674 -0.010240814
0.03554752 -0.012511331 -0.040131208 0.058592595 -0.0030496654 -0.03415205 0.03610388 -0.12019243
-0.052433897 0.039003782 0.029079817 -0.051574107 0.008566605 -0.12989269 -0.06253169 -0.04933387
-0.03338605 -0.06672102 -0.0001367688 -0.065524936 0.079990126 -0.015979806 0.007138966 0.08091986
-0.077968016 -0.006511633 0.0011020931 0.023235114 0.031404305 -0.048126027 -0.06982898 -0.044682454
0.057754047 0.0075210663 -0.028057484 -0.078845516 0.060506742 0.01546983 -0.049766555 -0.05534602
-0.108320974 -0.016149644 0.067345574 0.01961341 0.099345796 -0.028334023 -0.090785906 -0.07031281
0.050635472 -0.04722776 -0.0003773867 0.12062586 0.14221774 0.1350374 -0.043341037 -0.08020913
-0.03290798 -0.06209836 -0.03009324 -0.048535347 -0.15374543 -0.035489254 -0.025677893 0.21604906
0.015577044 -0.06470287 0.06682149 -0.04442837 0.035335895 0.092793144 0.05531419 -0.1643372
0.038757738 0.09938273 0.032139957 -0.0122800525 0.02652938 -0.01852122 -0.073264405 -0.08085894
-0.02877444 -0.11672576 0.08824554 0.04255005 0.10641611 0.11684011 -0.037733577 -0.04955265
0.032404933 -0.094765864 -0.056582965 0.011670459 -0.048047405 0.08153685 0.056054827 0.08941269
-0.008523369 0.0430528 -0.032688305 0.03697082 -0.14198166 -0.03794411 -0.0357946 -0.029317887
-0.03195494 0.10378181 0.062762894 0.026412789 -0.08823734 0.018337183 0.017025571 0.018593296
0.06498307 -0.120110095 -0.03619821 -0.043952428 0.049823225 -0.0034251912 0.04126725 -0.14012177
-0.015593981 -0.04350957 -0.03211687 -0.1506608 0.14916666 0.011811345 0.06987338 0.039514046
-0.11105334 0.002598453 0.085526116 -0.1364491 0.008385812 -0.006676338 0.03553241 0.043406688

ntm.controller.lstm.weight_ih_l0 f4 [400, 110]
00000000: 17ee 87be 76b3 033e 07f9 183d 37c8 67be
00000010: 5803 b0be cc8b 5ebe 592d b03d 5b4d 203e
00000020: 9296 7abe a946 d5bd 1ad4 32be a95b 3c3d
00000030: fbe2 873e 86b4 f43d aeb6 ea3c a894 6f3e
00000040: f2b9 86bd 51a6 d93d ee19 6b3e 003c 5dbe
00000050: ae1b 9a3d 3e31 93be 099b 513d be6e b3be
00000060: f1ef 823d a0ab 03be b26a 09be 6d71 a6be
00000070: 40a5 78be 6876 34bd 5cc7 363d 74db 8ebe
00000080: 5276 943d 772d 463c a380 363e d437 3fbd
00000090: 1d34 9cbe d89d ad3e e088 59be 7f6d 4a3e
000000a0: e6ed 023e 11fb 95be 2151 dc3d 2595 343d
000000b0: 0e5e a13e d75e 2d3e 927f 7e3e ccff 4a3e
000000c0: 1536 723e 5922 5ebe 98d1 b9bd 2801 fe3d
000000d0: 9f75 a33e f991 30be 568e a6be c320 c9bd
000000e0: d7e1 08bd d6af b6bc 4907 773e a22e 54be
000000f0: 1e9b b5be 8d00 643b 5cd4 1fbc abe0 56be
00000100: 4d9f 5cbe d6a8 80be a4e9 e33d cf03 5bbd
00000110: a40b 283e 8a3c 5bbd 7316 73be 1612 d43d
00000120: 1d99 023c bcda 253d 75b4 80be 161d a83e
00000130: f03e 443d 0a4a 5d3d 00cd 343e 105f 873e
00000140: 0474 b3be bb43 cc3d de59 ebbd 07b4 21be
00000150: 131f a2bd a5e4 6e3e 4f85 283d 78f3 35be
00000160: bdb0 70be 8548 47bd e310 0abd 6786 9a3e
00000170: 8320 763e 5c10 b63c eb8b 143e 35d6 4fbe
00000180: 7759 93bd aa34 803e 71be a93e 995c b53d
00000190: 5f59 063d 10df ebbd 4e40 15be 0aa7 5ebe
000001a0: 8fcd 97bc fdc6 24bd 8444 e33d b359 9c3e
000001b0: 923b a23e a03a 753d d522 67be 98e2 afbc
000001c0: cc73 39be 0798 a1be b7bd 3c3e 52f7 d23c
000001d0: d3ad f33d 799a 333e 36c1 a3be e685 c8bc
000001e0: 1877 163d 6b86 533d 2d9d 05be 7799 adbe
000001f0: ef81 9b3e 8cd4 493e 6deb 453e b1f9 55be
00000200: 1f1e 253d b2fb 9ebe 87d0 1f3e b3fe 093e
00000210: 6b8f 9abe 886d d13c 53d4 9dbe 0aa1 213d
00000220: b89a 873e 0b79 96be 19d3 24bd 9810 a03e
00000230: 6348 993d aea6 033e 27f4 75be 575d acbe
00000240: db2b 67be 45da ccbc 5a9c 51be c4dc 9e3e
00000250: cfe2 2fbe dffa 17bd 53ae abbe 15a8 92be
00000260: 5836 303e f265 a4be 166c ae3d f21d 653e
00000270: 414d 9dbc 36e9 663e 5b90 13be 83c4 033e
00000280: a3d5 42be 670a 95bd 1b5a d63b 36ce b63d
00000290: 9a4f 543e 76f9 943d 1e7e d13d 1206 40be
000002a0: bea8 c6bd 189a 0e3e 12ac 8fbe 4c7f a53e
000002b0: 042c 8e3e c90a e13d c3d5 03be c160 a9be
000002c0: 51cf 8c3e e58a 72be c151 33be c230 02be
000002d0: a28f 5c3e 064e 663e eea9 6ebe b18e acbe
000002e0: 6549 edbc 7207 5bbe a86e f03d 98c8 a3be
000002f0: fa07 32bd 7000 3bbd 8409 80be f258 a53e
00000300: 35c0 c1be 86f4 aabe e0a6 51be 3e3b b93d
00000310: bbe3 07be e6db 993e 4c92 c5bd 8f0f 043e
00000320: ff07 14be 6d9c 293c fe7b 283d 8822 ec3d
00000330: 2b43 913e b841 013e 32df 8b3c b9ee 15be
00000340: 5fd5 46be d563 7c3e a32a 3c3e bd42 123e
00000350: 3166 37be cc43 4e3e 19b6 fe3c ec6d 0dbe
00000360: 8b27 75bd 3d15 143e a1b7 433e f8c1 9e3d
00000370: 279f 453e e692 cbbd 792a 0d3e 9831 773d
00000380: 7c4b 8f3d b6e9 d93d 8305 60bd 2360 11be
00000390: 1f2a 193e d138 8e3e e92c 833e 582f 4c3e
000003a0: 25c7 7fbe abc5 5abe 656f 803e 1e24 67be
000003b0: 1b34 8cbe f364 5e3e 4c39 e0bd f77d ca3c
000003c0: 7c28 8d3d ef12 f5bd 4579 c13d 0c9d 3abe
000003d0: 4f77 95be f9d2 c8bd 8a0a 5dbe 00bc bcbd
000003e0: 1ee9 163d a87d 9ebc f990 a0be dec4 32bd
000003f0: 5a0d 09be 03dc 8fbe 2e8d 2abe e099 82bd
-0.26548836 0.12861428 0.037346866 -0.2263497 -0.3437755 -0.21733016 0.086023994 0.15654509
-0.244715 -0.10413868 -0.17463723 0.04598585 0.2654036 0.119484946 0.028651562 0.23396552
-0.06578435 0.106274255 0.2295911 -0.2160492 0.07524811 -0.28748506 0.051173244 -0.35045427
0.063934214 -0.12858438 -0.13419607 -0.32508412 -0.24281788 -0.044058233 0.044623718 -0.27901804
0.0724913 0.012095801 0.17822509 -0.0466841 -0.3050851 0.33909488 -0.2124362 0.19768332
0.12786064 -0.2929311 0.107576616 0.044087548 0.3151707 0.1693071 0.24853352 0.19824141
0.23653443 -0.2169279 -0.0907318 0.12402564 0.31925675 -0.17243184 -0.3253047 -0.09820702
-0.033418503 -0.022300642 0.24123873 -0.20720914 -0.35469908 0.0034790367 -0.00975522 -0.20984142
-0.21545143 -0.25128812 0.11128548 -0.05347043 0.1641069 -0.05352453 -0.23739032 0.10355012
0.007971075 0.040491804 -0.25137678 0.3283469 0.047911584 0.054025687 0.17656326 0.26439714
-0.3504945 0.09973856 -0.1149175 -0.15791331 -0.07916083 0.23329408 0.041142758 -0.17768657
-0.2350492 -0.048653144 -0.03370751 0.30180666 0.2403584 0.022224598 0.145065 -0.20296557
-0.071947984 0.2504018 0.33153108 0.08855552 0.032800075 -0.11517155 -0.14575312 -0.21743408
-0.018530635 -0.040228833 0.11097053 0.30537185 0.31686074 0.059870362 -0.22571881 -0.021470353
-0.18110579 -0.315613 0.18431745 0.025752697 0.11898389 0.17539395 -0.31983346 -0.02447791
0.03673467 0.051641863 -0.13048239 -0.33906147 0.3037257 0.19709986 0.19328089 -0.20896031
0.04031193 -0.31051403 0.1560689 0.13476066 -0.30187544 0.025564924 -0.30826053 0.03946022
0.2648523 -0.29389223 -0.04024038 0.3126266 0.0748451 0.12856552 -0.24018918 -0.33664963
-0.22575323 -0.025006423 -0.204698 0.31027806 -0.17176364 -0.037104484 -0.33531436 -0.2864386
0.1720823 -0.32109028 0.085167095 0.22374704 -0.019201877 0.225499 -0.14410536 0.12867932
-0.19026808 -0.07277375 0.006541503 0.0892605 0.2073349 0.072741434 0.10229133 -0.18752316
-0.09700154 0.1392597 -0.28060967 0.32323682 0.27767956 0.10988385 -0.12874512 -0.3308163
0.2750192 -0.23685797 -0.17511655 -0.12713912 0.21539167 0.22490701 -0.2330701 -0.33702615
-0.028965661 -0.21389559 0.11739856 -0.31988978 -0.04346464 -0.045654714 -0.2500726 0.32294422
-0.37841955 -0.33389682 -0.20473814 0.09044503 -0.13270466 0.30050582 -0.096470445 0.1289656
-0.14456175 0.010352236 0.041133873 0.11530024 0.28371558 0.12622726 0.017074201 -0.14641847
-0.19417332 0.24647458 0.1837564 0.14283271 -0.17910077 0.2014305 0.03109269 -0.13811463
-0.059852164 0.14461227 0.19113018 0.0775184 0.19298993 -0.09940128 0.13785733 0.06035003
0.069968194 0.1064028 -0.054692756 -0.1419683 0.14957474 0.27777722 0.256202 0.19939935
-0.24978311 -0.21364467 0.25084987 -0.22572371 -0.27383503 0.21718197 -0.109484285 0.024718268
0.068924874 -0.11966502 0.094469585 -0.18223971 -0.29192588 -0.09805865 -0.21586052 -0.09215546
0.03684341 -0.019347027 -0.31360605 -0.04364478 -0.13384 -0.28097543 -0.16655418 -0.063770056

ntm.controller.lstm.weight_hh_l0 f4 [400, 100]
00000000: a61b 91be 9803 333d 012e 61be f3ed 9b3e
00000010: f43f 6a3e 0c87 403e baed 76be 3e88 aabd
00000020: 5da3 50be 46bb 633e aba3 8abe 50a2 0bbe
00000030: 8c7f 8e3e 00c4 4bbe 8d32 8b3e 842b f6bc
00000040: 7f38 81bd 52c2 c3bd 1fa5 96be 9ed3 35be
00000050: 82ae e8bd b597 40be 22ff 47be 552e 75bd
00000060: 72d8 b03e c25d e73d fab8 883e e7d6 a53b
00000070: eb70 9c3e 6ced eebd b7f6 9ebd e393 8d3e
00000080: 7c98 a63d ba06 b6bd 3c55 1a3e f894 423e
00000090: e51e 153e 195c a0be 7e61 de3d 20ee a6be
000000a0: e577 a63e 3eeb 8e3e ed4e 65be 10e2 9a3e
000000b0: 922c 823d dc36 b23e 7e8c 8fbe 4eba 94be
000000c0: 5f31 d13d 0bc4 9c3e 3124 d43d ae15 2e3e
000000d0: 17ac 653a 5902 fcbc 692c 1ebe 67d0 4bbe
000000e0: 8290 123e 3b2e 8fbd 1c93 03be b479 273e
000000f0: c958 91bd 3137 3bbe a45c 80be 0cff 9f3e
00000100: 3d75 fb3d bd9c 04be 6478 44be 00f7 953d
00000110: c394 9b3e 5ba9 d2be 6dca 813d 7f7c 2d3d
00000120: 371f 6a3e 029b 11be 64f2 653e bcd6 873c
00000130: cc3f a43d eabe a73e 0d46 3fbe 6344 563e
00000140: c8d2 2bbe 2800 c0be 4835 ba3e 1cc5 803e
00000150: 9885 903e 33b5 7abe 1791 9dbe 32fe 3ebd
00000160: 9bf4 cb3c bcf4 2cbe c223 313e d516 533e
00000170: d3f5 abbe 0db0 103e 146a 0f3e c869 ca3d
00000180: a9a8 e53c 9b52 bf3d 2450 c53d 296d 9bbe
00000190: a941 993e a4bc 28be 2956 4dbe f5f7 15be
000001a0: 084b 04be 2e4f 363e c27f 41bd 216a c33c
000001b0: 8141 e93d ffa8 22be d561 e73d 516c 233e
000001c0: 033e a9be 53b0 333e ac54 60be d873 413e
000001d0: d6f5 3cbe 84df 42be 68ce 8dbd 33e2 9bbe
000001e0: 330a 333b 7bd4 dfbd 505d 953d 3696 1f3d
000001f0: 023a 903e 1a70 b3be 8b59 b1be 6c29 71be
00000200: 6ef5 bcbd a370 6e3e 101c 9e3e f103 393e
00000210: 5634 d43e ec80 bebe cd9a a33e d325 353e
00000220: 662f be3b 0665 1e3c eba7 73be d62f 4bbd
00000230: eaa5 143e 2f23 72be 1b99 ab3e a68d 793e
00000240: 7c4a 17be b566 be3d 7cc5 01be 21ff dfbd
00000250: 63b5 303d c9ac 25be 35bb aa3d 6085 f2bc
00000260: f541 223e 5126 643d b010 13be ba31 86be
00000270: 8a57 583e 0735 2f3e 49cc 49be 1f0b 2d3e
00000280: ea03 303e 97a5 cc3d acad 59be 751d 63be
00000290: fd0b a13e 93c6 453e 12c5 33be aeb1 c73c
000002a0: f0c8 dd3e d734 14be 23e4 97be 8732 833e
000002b0: 90dc 3ebe 52fa 14be 2751 a9be 1b11 80be
000002c0: b8c0 c93c a14a 453e 7f51 af3d 488d 63bd
000002d0: a67c 0fbd 6c96 833e b58e 923d 5625 463e
000002e0: 4e1f e43c f068 9f3e 7b4c 6a3d a204 34be
000002f0: 6107 b73d 49a5 773e 3885 ddbd 011d 823e
00000300: e2fd 0d3d a6d0 513d b45d 343a 694c 4e3e
00000310: 12c6 843c 2920 ad3e e034 553e cddf ab3e
00000320: e61a d5bd a7d6 6ebc fd44 983e 8abb 8fbe
00000330: 8057 903d 3a94 9dbd 2a4b 2c3e bc18 813e
00000340: a78b 023d 63b5 243e 7ac7 cb3a 7fee 82be
00000350: 4b5a 2cbe f3e5 5ebe 7652 0dbe bacf 9a3e
00000360: 27a9 d23d c424 8e3e 1a3a 873e 70f3 9ebe
00000370: ed66 45be 00d3 973e 591d 04be 4541 b2be
00000380: 468a afbe 9ab3 64be b7cf 493e 1fde 40be
00000390: ad67 8d3e 9fc7 263d b19c a1be d79f 7cbe
000003a0: 9386 8a3e 853f d3bd 3cba 16bd 6235 3abe
000003b0: 8535 4cbe de91 b53e 23f3 8f3e 4228 8a3e
000003c0: 1296 6e3e 464b 733e d60f 843d ed0d 3f3c
000003d0: 3797 29be 92b8 7d3e 6655 bf3e 7f50 ed3c
000003e0: a314 0c3e e4b9 64be bbbd 8cbd 7650 c2bd
000003f0: a8f7 5abe fe91 463e b9ab 95bd e2cf 813d
-0.28341407 0.0437046 -0.21990205 0.30454978 0.22875959 0.18801516 -0.24114123 -0.083267674
-0.20374818 0.22239408 -0.27077994 -0.13636136 0.27831686 -0.19898987 0.27187005 -0.030050047
-0.06309604 -0.09558548 -0.29422852 -0.17756507 -0.1136141 -0.18807872 -0.19530919 -0.05985864
0.34540135 0.1129718 0.26703626 0.0050610187 0.305549 -0.116663784 -0.07761901 0.2765189
0.08134553 -0.08888002 0.15071577 0.1900214 0.14562567 -0.31320265 0.10858439 -0.3260355
0.32513347 0.2791385 -0.22393389 0.30250597 0.06356157 0.3480748 -0.28036875 -0.2904839
0.10214495 0.3061832 0.103584655 0.17000458 0.00087613 -0.030762838 -0.15446629 -0.19903718
0.14312938 -0.0699124 -0.12849087 0.1635502 -0.070970125 -0.18282773 -0.2507068 0.31249273
0.12278221 -0.12950416 -0.1918655 0.07322502 0.30386934 -0.41144833 0.06337438 0.042355057
0.2286347 -0.14219287 0.22455746 0.016581886 0.08019981 0.32762843 -0.18679066 0.20924525
-0.16779625 -0.3750012 0.36368775 0.25150383 0.28226924 -0.24483185 -0.30774757 -0.04662914
0.02489691 -0.16890234 0.17298797 0.20614178 -0.33585986 0.14129658 0.1400531 0.098834574
0.028034525 0.093419276 0.09634426 -0.3035672 0.29932907 -0.1647821 -0.20052399 -0.1464537
-0.12919247 0.17803642 -0.04724098 0.023854317 0.11389447 -0.1588478 0.11297957 0.15959288
-0.33055124 0.17547731 -0.219073 0.18891847 -0.18453154 -0.19030577 -0.069241345 -0.30446014
0.0027319312 -0.10929199 0.072931886 0.03896161 0.28169256 -0.35046464 -0.34638628 -0.23550957
-0.092264995 0.23285155 0.30880785 0.1806791 0.4144618 -0.37207735 0.3195404 0.1769021
0.00580399 0.009667641 -0.23794524 -0.049606167 0.14516416 -0.23646234 0.33515248 0.24370441
-0.14774507 0.092969336 -0.1267299 -0.10937334 0.043141734 -0.16179194 0.08336488 -0.029604614
0.15845473 0.055700604 -0.14361835 -0.26209813 0.21127144 0.17110072 -0.19706835 0.16898774
0.17188993 0.09992521 -0.21257657 -0.22179206 0.3145446 0.19314031 -0.17555645 0.024376716
0.43317366 -0.14473282 -0.29666242 0.25624487 -0.18638825 -0.14548615 -0.33069727 -0.2501305
0.024628028 0.1926675 0.08560466 -0.05555466 -0.035030983 0.257007 0.071561255 0.1935018
0.027846958 0.31134748 0.057201844 -0.17579892 0.08936954 0.24184145 -0.10816425 0.25412753
0.03466595 0.051224373 0.0006880418 0.20146336 0.016207729 0.338136 0.20820951 0.33569184
-0.10405521 -0.014577544 0.29740134 -0.28072768 0.07047939 -0.076942876 0.16825548 0.25214183
0.031871464 0.16084819 0.001554712 -0.25572583 -0.16831319 -0.21767406 -0.13800988 0.30236608
0.102861695 0.27762425 0.26411515 -0.31045103 -0.19277544 0.29653168 -0.1290182 -0.34815422
-0.34285182 -0.22334138 0.19708143 -0.18834732 0.2761816 0.040717717 -0.3156486 -0.24670349
0.27055797 -0.1031485 -0.0367987 -0.18184426 -0.19942291 0.3546285 0.28115186 0.2698384
0.23299435 0.23759183 0.06448333 0.011661035 -0.1656159 0.24777439 0.3736984 0.028969048
0.13679747 -0.22336537 -0.06872126 -0.09488003 -0.21383536 0.19391629 -0.07308144 0.063384786

ntm.controller.lstm.bias_ih_l0 f4 [400]
00000000: 1f56 ab3c 1356 0ebd 026b 66bb d7d0 c13a
00000010: 2f66 94bc ed62 17bd 3799 abbc 342c 5abd
00000020: bf7e 45bc d159 e7bc ffad fcbc 5757 a9bd
00000030: 6bf7 a03c e6bb 09bd 5f55 a0bd 9e98 2b3d
00000040: 19d1 2d3d 61a9 4dbd 17b8 6fbd 33a4 9dbd
00000050: f456 4dbd 1133 06bd d775 fbbc a7ff bfbb
00000060: 6e6d c23c 520a 17bd 2283 72bc 9bc9 b5bc
00000070: 5bda 753c 7255 5fbd a849 553c 8c4d 97ba
00000080: 9a1f dcbb 34bb bebc 74ed fcbc 6a16 7abc
00000090: 157c 63bd 5bd7 10bd b052 fabc e841 71bc
000000a0: febc a93b 10f0 76bc b90a 20bd 9c62 82bd
000000b0: 3662 213c 5a20 5ebb c02c e3bc 71ef 8aba
000000c0: b119 24bd 9a94 ae3b e652 3dbd 58d2 14bd
000000d0: ca35 68bc 6196 ebbc 11d6 39bd 0e60 11bd
000000e0: 3f94 8cbb 0bd5 9cbc 1f19 37bd b435 903c
000000f0: 7555 08bc 21ef bc3b 1a93 a3bb a6bb a4bc
00000100: dc89 2abc 77e8 c4bc 2e21 11bd 239c 9ebc
00000110: b7c4 d6bc 10dc 87bd 2d48 18bd 2bc8 3abb
00000120: 7b12 49bd ef87 2bbd bbe7 9fbd f20d e4bc
00000130: 3921 afbd 7af8 0dbd f4c6 87bc 1d4a dabc
00000140: 3e32 1dbd 08fe 14bd 3067 a6bd e767 a2bc
00000150: cc46 6bbc 484b 53bd 07d0 433b fff5 b53b
00000160: 8439 c7bc 1fb5 103d ed1d d33c 2e76 04bd
00000170: dff9 37bb bd5b 2e3c 9433 2abc 894d 45bd
00000180: 3b37 933b 9764 d0bc 2f81 4abd 553f 533d
00000190: c141 ab3c 1ebe 1a3d 217d 8e3c 2dbd 7f3b
000001a0: 8251 95bc 35a9 983c 9fe2 ba3b 52db 2fbc
000001b0: 6d1c 4a3d 172b 07bd 24c6 babb 69d8 53bc
000001c0: 46b4 b0bc d353 abbc 45dd 83bc 69ec 873d
000001d0: e5cd 5f3c 5890 7fbc accf b83c a6c2 85bc
000001e0: b534 eebc 45a4 16bd f724 913d 2cff c23b
000001f0: a87b 9f3d 6602 b13c 314c c93c f59f 55bb
00000200: e626 593b 9f91 0fbd dcb7 383d 9876 4a3c
00000210: 24ba 86bb 558a 9dbc 4110 5fbc e0ce eabc
00000220: 4344 4cbd f6f3 bbbc 57f1 9a3c 42fc 9abb
00000230: 4ab4 c43c 09c4 833d e095 04bc cf99 7abd
00000240: 3732 893d edf6 b53c f6dd 90bc 8046 b63c
00000250: be63 3dbb 076a f03c 4cfa 1abb d8fa 08bc
00000260: 91c1 ca3c d3fb ecbc 473e 293d ec84 093c
00000270: 8947 42bc 9203 abbc 77b3 8bbc a477 0a3c
00000280: 8c0e 703c 9d27 213d d0ac 973b 44f6 1e3d
00000290: 34fd 423d 9626 103d 154c 163c 2b4e 5e3d
000002a0: b2a8 593d 20c1 00bd 570a b8bc 4777 c23c
000002b0: ecc5 c0bc d9c8 0c3d 2ed9 9fbd 5257 2dbc
000002c0: 530a 65bd 8cec cebc c382 8bbc ae8c 2c3d
000002d0: f10a ddbc 04ea 43bd f167 a7bd f829 f3bc
000002e0: 1f0a 47bc a37f 6fbd 3ce8 863c 928c 013d
000002f0: 8859 c83b 3d6d 773d ec52 283d eb9d b7bb
00000300: 0e7d 9cbc 9165 e63b 0b7d 94bb c4d1 183c
00000310: 66b7 23bb fd8d dfbb cac3 313d ea7c 1a3d
00000320: ad97 3a3d 35a0 f2ba d023 913c 333a a23c
00000330: 8740 19bd 3ff1 9439 c738 abbb 7daa 59bc
00000340: 8588 83bb 0a50 1ebd c3f2 ff3c 4f83 af3b
00000350: e07c 223c a7b1 dfba 1f35 b73c e173 edbc
00000360: 9459 54bc 076b 8bbc ba25 cf3b bbe2 b9bc
00000370: 9800 653d 517b 0ebd 4278 6e3c d4bc 5bbb
00000380: 21d3 b53b b9e3 68ba c0cb b73c e678 3e3c
00000390: ca29 73bd e810 d6bc 7862 953a 3acd 133d
000003a0: d80e 88bc 2cc3 bdbb 771c 063d 78a5 19bd
000003b0: 99c3 833a f07d d9bc ecb6 12bd 8ebd 58bd
000003c0: ce4f e9bc 767f a2bc 80c7 42bd 58aa 31bc
000003d0: 26cd 1dbc 2171 253d 654b 753d 4eda 28bd
000003e0: 8895 5f3d bc9f e43b 0c6c 24bd 4ad1 debb
000003f0: 5282 b33c b302 433c 0aa5 a8bc e701 b83c
0.02091509 -0.034750056 -0.0035158996 0.001478697 -0.018115131 -0.036959577 -0.020947082 -0.05326481
-0.012054144 -0.02824107 -0.030844687 -0.08268612 0.019649228 -0.03362646 -0.07828783 0.041893594
0.04243574 -0.05021036 -0.05852517 -0.07697334 -0.050131753 -0.032763544 -0.030695839 -0.0058593336
0.02373382 -0.036875077 -0.014801772 -0.02219086 0.015005673 -0.054524846 0.013018049 -0.0011543497
-0.0067176344 -0.023282625 -0.030874945 -0.015264133 -0.055538256 -0.03536163 -0.030557007 -0.014725186
0.0051800003 -0.015071884 -0.039072726 -0.063664645 0.0098500755 -0.0033893795 -0.0277313 -0.0010599924
-0.040063564 0.0053277733 -0.046221636 -0.036333412 -0.014172981 -0.02875823 -0.045370165 -0.035491996
-0.0042901332 -0.019144556 -0.04470169 0.017603733 -0.008321156 0.005765811 -0.004991901 -0.020109009
-0.010408845 -0.02403663 -0.035432033 -0.019361561 -0.026216848 -0.066337705 -0.037178207 -0.0028500657
-0.04908989 -0.041877683 -0.07807871 -0.02783868 -0.085512586 -0.034660794 -0.01657436 -0.026646668
-0.038377993 -0.036375076 -0.0812515 -0.019824935 -0.014360141 -0.051585466 0.0029878633 0.0055530067
-0.024319418 0.03532898 0.025771106 -0.032339267 -0.0028072519 0.010641989 -0.010388274 -0.048169646
0.004492668 -0.02543859 -0.049439605 0.05157407 0.020905377 0.037778966 0.01739365 0.003902267
-0.018227343 0.018635372 0.005703285 -0.010733442 0.049343515 -0.033000078 -0.0056998897 -0.012930014
-0.021570336 -0.020913994 -0.01609672 0.066368885 0.013659929 -0.015598379 0.022559963 -0.016328167
-0.029077867 -0.036777753 0.070871286 0.005950829 0.077872574 0.021607589 0.024572464 -0.0032596563
0.0033134758 -0.035050984 0.045097217 0.0123573765 -0.004111545 -0.019231 -0.013614715 -0.028663099
-0.049869787 -0.022943478 0.018913908 -0.0047297785 0.02401175 0.06433875 -0.008092374 -0.06118184
0.06699031 0.02221247 -0.017683964 0.022250414 -0.0028898562 0.029347433 -0.0023647724 -0.008360587
0.024750503 -0.028928673 0.041319158 0.008393507 -0.011857876 -0.020875726 -0.017053349 0.008451376
0.014651906 0.03934442 0.004628755 0.038809076 0.047604755 0.03519305 0.009173413 0.054273766
0.053139396 -0.03143418 -0.022465868 0.023738516 -0.023531877 0.03437123 -0.078050956 -0.010579901
-0.05591805 -0.025259279 -0.017030125 0.04212635 -0.026982756 -0.047830597 -0.08174122 -0.029683098
-0.012148409 -0.058471333 0.01646816 0.0316282 0.0061141886 0.060406912 0.041094705 -0.005603542
-0.0191026 0.0070311506 -0.004531508 0.009327356 -0.002498114 -0.0068223462 0.04339961 0.037716784
0.045554806 -0.001851088 0.017717272 0.019803142 -0.037415054 0.00028408502 -0.0052252742 -0.0132852765
-0.004014077 -0.03865055 0.031243687 0.0053562294 0.009917468 -0.0017066494 0.022364197 -0.02898592
-0.01296081 -0.017018808 0.006321636 -0.022691121 0.05590877 -0.034785572 0.014555039 -0.0033529298
0.00554885 -0.0008884031 0.022436023 0.011625504 -0.059366025 -0.026131108 0.0011397144 0.03608439
-0.01660864 -0.0057910886 0.03274199 -0.03751132 0.00100528 -0.02654931 -0.03581898 -0.05291515
-0.028480437 -0.019836169 -0.04755354 -0.010843836 -0.009631431 0.04039109 0.059886355 -0.041223817
0.054585963 0.0069770496 -0.040142104 -0.0067998515 0.021912728 0.011902499 -0.02058651 0.022461845

ntm.controller.lstm.bias_hh_l0 f4 [400]
00000000: 1f56 ab3c 1356 0ebd 026b 66bb d7d0 c13a
00000010: 2f66 94bc ed62 17bd 3799 abbc 342c 5abd
00000020: bf7e 45bc d159 e7bc ffad fcbc 5757 a9bd
00000030: 6bf7 a03c e6bb 09bd 5f55 a0bd 9e98 2b3d
00000040: 19d1 2d3d 61a9 4dbd 17b8 6fbd 33a4 9dbd
00000050: f456 4dbd 1133 06bd d775 fbbc a7ff bfbb
00000060: 6e6d c23c 520a 17bd 2283 72bc 9bc9 b5bc
00000070: 5bda 753c 7255 5fbd a849 553c 8c4d 97ba
00000080: 9a1f dcbb 34bb bebc 74ed fcbc 6a16 7abc
00000090: 157c 63bd 5bd7 10bd b052 fabc e841 71bc
000000a0: febc a93b 10f0 76bc b90a 20bd 9c62 82bd
000000b0: 3662 213c 5a20 5ebb c02c e3bc 71ef 8aba
000000c0: b119 24bd 9a94 ae3b e652 3dbd 58d2 14bd
000000d0: ca35 68bc 6196 ebbc 11d6 39bd 0e60 11bd
000000e0: 3f94 8cbb 0bd5 9cbc 1f19 37bd b435 903c
000000f0: 7555 08bc 21ef bc3b 1a93 a3bb a6bb a4bc
00000100: dc89 2abc 77e8 c4bc 2e21 11bd 239c 9ebc
00000110: b7c4 d6bc 10dc 87bd 2d48 18bd 2bc8 3abb
00000120: 7b12 49bd ef87 2bbd bbe7 9fbd f20d e4bc
00000130: 3921 afbd 7af8 0dbd f4c6 87bc 1d4a dabc
00000140: 3e32 1dbd 08fe 14bd 3067 a6bd e767 a2bc
00000150: cc46 6bbc 484b 53bd 07d0 433b fff5 b53b
00000160: 8439 c7bc 1fb5 103d ed1d d33c 2e76 04bd
00000170: dff9 37bb bd5b 2e3c 9433 2abc 894d 45bd
00000180: 3b37 933b 9764 d0bc 2f81 4abd 553f 533d
00000190: c141 ab3c 1ebe 1a3d 217d 8e3c 2dbd 7f3b
000001a0: 8251 95bc 35a9 983c 9fe2 ba3b 52db 2fbc
000001b0: 6d1c 4a3d 172b 07bd 24c6 babb 69d8 53bc
000001c0: 46b4 b0bc d353 abbc 45dd 83bc 69ec 873d
000001d0: e5cd 5f3c 5890 7fbc accf b83c a6c2 85bc
000001e0: b534 eebc 45a4 16bd f724 913d 2cff c23b
000001f0: a87b 9f3d 6602 b13c 314c c93c f59f 55bb
00000200: e626 593b 9f91 0fbd dcb7 383d 9876 4a3c
00000210: 24ba 86bb 558a 9dbc 4110 5fbc e0ce eabc
00000220: 4344 4cbd f6f3 bbbc 57f1 9a3c 42fc 9abb
00000230: 4ab4 c43c 09c4 833d e095 04bc cf99 7abd
00000240: 3732 893d edf6 b53c f6dd 90bc 8046 b63c
00000250: be63 3dbb 076a f03c 4cfa 1abb d8fa 08bc
00000260: 91c1 ca3c d3fb ecbc 473e 293d ec84 093c
00000270: 8947 42bc 9203 abbc 77b3 8bbc a477 0a3c
00000280: 8c0e 703c 9d27 213d d0ac 973b 44f6 1e3d
00000290: 34fd 423d 9626 103d 154c 163c 2b4e 5e3d
000002a0: b2a8 593d 20c1 00bd 570a b8bc 4777 c23c
000002b0: ecc5 c0bc d9c8 0c3d 2ed9 9fbd 5257 2dbc
000002c0: 530a 65bd 8cec cebc c382 8bbc ae8c 2c3d
000002d0: f10a ddbc 04ea 43bd f167 a7bd f829 f3bc
000002e0: 1f0a 47bc a37f 6fbd 3ce8 863c 928c 013d
000002f0: 8859 c83b 3d6d 773d ec52 283d eb9d b7bb
00000300: 0e7d 9cbc 9165 e63b 0b7d 94bb c4d1 183c
00000310: 66b7 23bb fd8d dfbb cac3 313d ea7c 1a3d
00000320: ad97 3a3d 35a0 f2ba d023 913c 333a a23c
00000330: 8740 19bd 3ff1 9439 c738 abbb 7daa 59bc
00000340: 8588 83bb 0a50 1ebd c3f2 ff3c 4f83 af3b
00000350: e07c 223c a7b1 dfba 1f35 b73c e173 edbc
00000360: 9459 54bc 076b 8bbc ba25 cf3b bbe2 b9bc
00000370: 9800 653d 517b 0ebd 4278 6e3c d4bc 5bbb
00000380: 21d3 b53b b9e3 68ba c0cb b73c e678 3e3c
00000390: ca29 73bd e810 d6bc 7862 953a 3acd 133d
000003a0: d80e 88bc 2cc3 bdbb 771c 063d 78a5 19bd
000003b0: 99c3 833a f07d d9bc ecb6 12bd 8ebd 58bd
000003c0: ce4f e9bc 767f a2bc 80c7 42bd 58aa 31bc
000003d0: 26cd 1dbc 2171 253d 654b 753d 4eda 28bd
000003e0: 8895 5f3d bc9f e43b 0c6c 24bd 4ad1 debb
000003f0: 5282 b33c b302 433c 0aa5 a8bc e701 b83c
0.02091509 -0.034750056 -0.0035158996 0.001478697 -0.018115131 -0.036959577 -0.020947082 -0.05326481
-0.012054144 -0.02824107 -0.030844687 -0.08268612 0.019649228 -0.03362646 -0.07828783 0.041893594
0.04243574 -0.05021036 -0.05852517 -0.07697334 -0.050131753 -0.032763544 -0.030695839 -0.0058593336
0.02373382 -0.036875077 -0.014801772 -0.02219086 0.015005673 -0.054524846 0.013018049 -0.0011543497
-0.0067176344 -0.023282625 -0.030874945 -0.015264133 -0.055538256 -0.03536163 -0.030557007 -0.014725186
0.0051800003 -0.015071884 -0.039072726 -0.063664645 0.0098500755 -0.0033893795 -0.0277313 -0.0010599924
-0.040063564 0.0053277733 -0.046221636 -0.036333412 -0.014172981 -0.02875823 -0.045370165 -0.035491996
-0.0042901332 -0.019144556 -0.04470169 0.017603733 -0.008321156 0.005765811 -0.004991901 -0.020109009
-0.010408845 -0.02403663 -0.035432033 -0.019361561 -0.026216848 -0.066337705 -0.037178207 -0.0028500657
-0.04908989 -0.041877683 -0.07807871 -0.02783868 -0.085512586 -0.034660794 -0.01657436 -0.026646668
-0.038377993 -0.036375076 -0.0812515 -0.019824935 -0.014360141 -0.051585466 0.0029878633 0.0055530067
-0.024319418 0.03532898 0.025771106 -0.032339267 -0.0028072519 0.010641989 -0.010388274 -0.048169646
0.004492668 -0.02543859 -0.049439605 0.05157407 0.020905377 0.037778966 0.01739365 0.003902267
-0.018227343 0.018635372 0.005703285 -0.010733442 0.049343515 -0.033000078 -0.0056998897 -0.012930014
-0.021570336 -0.020913994 -0.01609672 0.066368885 0.013659929 -0.015598379 0.022559963 -0.016328167
-0.029077867 -0.036777753 0.070871286 0.005950829 0.077872574 0.021607589 0.024572464 -0.0032596563
0.0033134758 -0.035050984 0.045097217 0.0123573765 -0.004111545 -0.019231 -0.013614715 -0.028663099
-0.049869787 -0.022943478 0.018913908 -0.0047297785 0.02401175 0.06433875 -0.008092374 -0.06118184
0.06699031 0.02221247 -0.017683964 0.022250414 -0.0028898562 0.029347433 -0.0023647724 -0.008360587
0.024750503 -0.028928673 0.041319158 0.008393507 -0.011857876 -0.020875726 -0.017053349 0.008451376
0.014651906 0.03934442 0.004628755 0.038809076 0.047604755 0.03519305 0.009173413 0.054273766
0.053139396 -0.03143418 -0.022465868 0.023738516 -0.023531877 0.03437123 -0.078050956 -0.010579901
-0.05591805 -0.025259279 -0.017030125 0.04212635 -0.026982756 -0.047830597 -0.08174122 -0.029683098
-0.012148409 -0.058471333 0.01646816 0.0316282 0.0061141886 0.060406912 0.041094705 -0.005603542
-0.0191026 0.0070311506 -0.004531508 0.009327356 -0.002498114 -0.0068223462 0.04339961 0.037716784
0.045554806 -0.001851088 0.017717272 0.019803142 -0.037415054 0.00028408502 -0.0052252742 -0.0132852765
-0.004014077 -0.03865055 0.031243687 0.0053562294 0.009917468 -0.0017066494 0.022364197 -0.02898592
-0.01296081 -0.017018808 0.006321636 -0.022691121 0.05590877 -0.034785572 0.014555039 -0.0033529298
0.00554885 -0.0008884031 0.022436023 0.011625504 -0.059366025 -0.026131108 0.0011397144 0.03608439
-0.01660864 -0.0057910886 0.03274199 -0.03751132 0.00100528 -0.02654931 -0.03581898 -0.05291515
-0.028480437 -0.019836169 -0.04755354 -0.010843836 -0.009631431 0.04039109 0.059886355 -0.041223817
0.054585963 0.0069770496 -0.040142104 -0.0067998515 0.021912728 0.011902499 -0.02058651 0.022461845

ntm.controller.lstm.weight_ih_l1 f4 [400, 100]
00000000: 8095 8bbe 119f 5d3e 9f65 48be 2516 5dbe
00000010: 04af e53c c9d7 e83d 467d 87bd 4c04 7abe
00000020: a659 53bc e95e 90be f36d 723e 941f a33e
00000030: c952 2d3e e57e c8bd 35d7 22bb 1b9c 40bd
00000040: 9d0b 54bd 2dfd a33c 8b97 c43c 2877 aabd
00000050: ec59 bc3a 6ee6 37be 32da d2bd 05b7 82be
00000060: 3bdf df3c d400 50be 11b2 45be 66e5 eabd
00000070: 22b2 fb3d 8d31 b93e 3521 37be 9a3b a5be
00000080: d5e0 973e fa9c 683e 5e83 343e 923c a8be
00000090: 5e2b 4f3d 884b 3ebe 34d5 b03e fe0d b93d
000000a0: 9ea8 6fbe 6e24 833e 9b27 a7be db47 4bbe
000000b0: f52b fdbd 687a 6ebe a67d a73d a488 10be
000000c0: da52 c6bc f7b5 993b 132a 683e 1ed6 adbe
000000d0: 1c23 d53c e790 1dbe bc39 34be baca c33e
000000e0: 046c 863e 8bad 013d 54cd cdbd 9878 6fbd
000000f0: 890b 8c3d 6a82 5dbe 19e6 c53d 290c 90be
00000100: 712b 1a3e d0b4 ab3c 410c b8be d275 903e
00000110: d397 78bd 671f 5a3e 5cdd 2a3e 8c7e 8f3e
00000120: 4ff4 96be 646c 223e 8550 27bc d61b e9bb
00000130: 5889 1d3e 64a1 753e 2732 833e 3c69 ba3c
00000140: aa02 a83e d817 99be 2bfb 483d 96e4 3bbe
00000150: c0ca 5c3e d6a2 12be 470a d73d a35d 8bbd
00000160: deaf a03e aaba 4e3e cb25 4abe 2e47 c53e
00000170: 3102 813e c1d4 673e 9e00 8c3e 5c6d babd
00000180: abc4 f03d 0271 6c3e e448 723e 68e7 893e
00000190: 55de 99be 930b 8e3e 54e4 1abe 1b92 3c3e
000001a0: 5f08 e9bd b6bf 1b3e 6e43 b43e 7a8a 80be
000001b0: 9364 a23e df86 933e daec 5b3d f546 ebbb
000001c0: 00a5 843e a230 83bd 8e0e 2c3e df04 6c3e
000001d0: b71c 81bd f0c1 a03e 2e06 30bd d29f b5bc
000001e0: a929 893e 799c 3dbe 6196 963e f8d5 89be
000001f0: f5fd f63d c430 de3d 38fb 8cbd ea8c 363e
00000200: 725a 89be fc5d 403d 9ed1 8fbe e5ed a9be
00000210: add3 96be b50a 9ebd 81dd 9fbe b7c2 5bbe
00000220: 7fc4 99be 34c3 81bc 4db4 4bbe 6add 3d3e
00000230: 55fd 0bbe d7d8 2e3d 99db 5bbe f8d0 943e
00000240: 3e8f 2dba 2e11 143e fc97 79be fcd8 413c
00000250: 153b febd 7bb1 133e bc08 33be 13d4 e23d
00000260: fb15 793e 89ab 943e 335e 85be 7569 953d
00000270: c4a4 883e fdec 6a3e 7258 2dbe fa0a cb3d
00000280: 89dd 4fbd 7015 9e3d 4b4f 2bbe 6e0f d73d
00000290: bb69 1dbe 60e9 84be e970 bcbe 381b 303e
000002a0: bf27 90be fa8a 4a3e 88d2 9cbd cf9d 713e
000002b0: d6b6 f73d 9a22 8fbe 40ad adbe 7e5c a43e
000002c0: 960c 6f3e b6a4 aabe e6b2 7ebe 8cbe 6d3e
000002d0: e5af d4bd 0ecf b73d 1983 a83e c3a1 48bd
000002e0: 751c 883d 7864 a03e 8d6e 6dbe c155 873c
000002f0: efdf 9dbe 0ef9 9bbe aef2 86bd 1b07 2bbe
00000300: 2ddd 46bc 5366 7c3e 010b 28bc 42e7 38be
00000310: b325 34be 4ec5 aabe 2ed3 44bd a54d ae3c
00000320: 7117 60be 7e3d 82be b41e 233d 6401 283d
00000330: 0e4d a3be 805d 873e 1f59 1fbe 4d01 79bd
00000340: ea9e 16be eeed 443e c789 60be cbb5 7f3e
00000350: b60e 1c3e ca41 773c 86a2 b5be 184c 91be
00000360: 11b2 ae3e d3c2 1b3d 246b 6e3e b9bb a1be
00000370: 2119 cc3d 40d2 1bbd 268c 263e 8ad0 a43d
00000380: fa7d 233e 93c5 713e bce1 95be b9c1 843e
00000390: 8128 0abb fe2e 0fbd 2527 9cbe a06d 97be
000003a0: d970 ccbd 448f b13e 20f5 19be 27e2 6f3e
000003b0: 0edc a13d c4db 3dbe 4710 a83e bc9c 113e
000003c0: 010e a9be 675c 8dbe c6e7 6a3e dfb0 7fbe
000003d0: 3b6d 6dbe 373b 873c a82b 8ebe 9a64 a43e
000003e0: 7de6 633e 63c3 3e3e a7c4 a2be 88ab 603e
000003f0: 6abd 6bbe 40be 89bd 0074 93bd bbc3 b7be
-0.27262497 0.2164271 -0.19570015 -0.21590479 0.028037556 0.11369283 -0.06615691 -0.24415702
-0.012899792 -0.2819741 0.23674755 0.3186003 0.16926111 -0.09789828 -0.0024847512 -0.047023874
-0.051768888 0.020018185 0.023998043 -0.083235085 0.001437006 -0.17958996 -0.10295524 -0.25530258
0.027328124 -0.20312816 -0.19306208 -0.114695355 0.122898355 0.36170617 -0.17883761 -0.32272035
0.2966372 0.22716132 0.17628238 -0.3285871 0.050578468 -0.185835 0.3453766 0.09035872
-0.23404166 0.2561373 -0.32647404 -0.1985163 -0.123619 -0.23288882 0.081782624 -0.14114624
-0.024209429 0.0046908814 0.226723 -0.3395242 0.026017718 -0.15387307 -0.17600149 0.38240606
0.26254284 0.031659644 -0.10048929 -0.058464617 0.06838138 -0.2163178 0.09663028 -0.28134277
0.15055634 0.020960242 -0.3594685 0.2821489 -0.060691666 0.21301042 0.16686004 0.28026235
-0.29483268 0.1586166 -0.010212068 -0.007113914 0.15384424 0.23987347 0.256242 0.022755258
0.32814533 -0.29901004 0.049067657 -0.18348917 0.21561718 -0.1431993 0.10500007 -0.06804969
0.31384176 0.20188394 -0.1974098 0.38530868 0.25196984 0.22639753 0.2734422 -0.0910289
0.117562614 0.23089984 0.23660618 0.2693436 -0.30052438 0.27743205 -0.15126163 0.1841511
-0.1137855 0.1520985 0.35207695 -0.2510565 0.31717357 0.28813836 0.053692676 -0.0071800896
0.25907135 -0.0640576 0.16802427 0.23048733 -0.06304305 0.31397963 -0.042974643 -0.022170935
0.26789597 -0.18516721 0.29411605 -0.26921058 0.12060157 0.10849145 -0.06883854 0.17827192
-0.26826817 0.04696463 -0.28089613 -0.33189312 -0.2945837 -0.07716886 -0.31223682 -0.21460997
-0.30032727 -0.01584015 -0.19892998 0.18541494 -0.13670857 0.042687263 -0.21470489 0.2906568
-0.0006620771 0.14459679 -0.24374384 0.011831518 -0.12413613 0.14423172 -0.174838 0.11075606
0.24324791 0.2903712 -0.2604843 0.07295505 0.26688206 0.22941966 -0.1692827 0.09914203
-0.05074838 0.07718933 -0.16729467 0.1050099 -0.15372364 -0.259593 -0.36804894 0.17197883
-0.28155324 0.19779578 -0.07657343 0.23595355 0.1209542 -0.27956086 -0.33921242 0.32101816
0.23344645 -0.3332879 -0.24872932 0.23217219 -0.10385112 0.089750394 0.3291252 -0.048982393
0.06646053 0.31326652 -0.23186703 0.016520383 -0.3083491 -0.3046345 -0.06589256 -0.1670193
-0.012137693 0.24648409 -0.01025653 -0.18056968 -0.17592506 -0.33353657 -0.04805296 0.021277258
-0.21883942 -0.2543754 0.039824203 0.04101695 -0.31894726 0.26438522 -0.15561341 -0.060792256
-0.14709058 0.19231388 -0.21927558 0.24971692 0.15239987 0.015091369 -0.35475558 -0.28378367
0.3412023 0.038027596 0.23283058 -0.31588534 0.099657305 -0.038042307 0.162644 0.08047588
0.15966025 0.23610525 -0.29273784 0.2592905 -0.002108127 -0.034956925 -0.30498615 -0.29575825
-0.099824615 0.34679615 -0.15034914 0.23426114 0.079033 -0.18540865 0.3282492 0.14219946
-0.33018497 -0.2760956 0.22939977 -0.24969815 -0.231862 0.016507728 -0.27767682 0.32108003
0.22255893 0.18629222 -0.3179066 0.21940434 -0.23021474 -0.067257404 -0.071998596 -0.35891518

ntm.controller.lstm.weight_hh_l1 f4 [400, 100]
00000000: e4ca 813e 9b21 ab3d f9c4 88be b334 63ba
00000010: 62d6 923d 4abe 08be a8c4 4e3e 17f9 403c
00000020: 44f2 413e 94c1 a0be 4a16 2fbd 7688 83bd
00000030: 5d70 033d 01c1 50bc a000 57be 8f20 a9be
00000040: f74d 2cbe 0058 a23e b5f8 57bd 845e 80bc
00000050: e0a3 bd3d ff5d 483e 9000 203e c81c c43d
00000060: 1bf9 fb3d dd6a f3bc 31a9 34be d0c8 6a3e
00000070: 4086 3b3e 0e3f 7d3d 72ef 463e 24c6 8fbe
00000080: 08e4 2dbd 2df5 9f3e 66dc 6dbe 6d91 c43d
00000090: baed 413e 362c 14be cc16 703e 2a37 d63d
000000a0: 9d35 8c3c 39d5 973e ae4d fa3d 934d 933e
000000b0: 21e9 6bbe ba9d 46be 853d 113e 4b15 54be
000000c0: 5329 893c 53d5 b5be 52a9 48be da50 913e
000000d0: 0d1d b5bc 59f4 2e3d f926 743d e4d5 83be
000000e0: a7c7 cabd 62ed 813e 104c 85be 8dbf 5a3e
000000f0: 7c30 11be 1cf9 39be 1ed6 69be 7d7c 6fbe
00000100: 9443 abbe a0c1 cd3c 4513 833e ab51 93be
00000110: 9552 213d ef69 2b3d 230b 013e 0873 adbd
00000120: 1b7a 323e 834a 90be 40f9 fa3d 2d11 49be
00000130: d772 6b3e 542f 82bd 01b5 a53d da82 213d
00000140: 064e 633d e1b8 3e3e 210f 453d 532d 603c
00000150: 9583 1c3e a374 5a3e 5108 b8be a47c 503e
00000160: 2640 2c3e ae7b 0e3e f50c 9fbe a5d9 3dbe
00000170: cdb4 d63d 776a 613e c7c2 89be 84d9 edbd
00000180: 439b 9bbe 089a b2bd 54d7 07bd 74c9 2e3e
00000190: 2f85 c1bd d392 39be 0a56 73be 57d8 983e
000001a0: 46d2 003e 516f 87be 019c 80be c5fe c63c
000001b0: 49b5 c3bd e093 2abe f8ea 87be 0e44 a53e
000001c0: 3d5b 2a3c 25ca 8b3e 79ec 66be c3b0 a0be
000001d0: 9898 9c3e e736 083e 8d02 fdbd 2f66 aa3e
000001e0: 6c74 61bc f119 5dbc 2d60 4d3d fe5f d5bc
000001f0: 3467 5c3e 9c32 57be decd 99be 048d 92be
00000200: ee5b 5cbd d3c6 b03e 6a63 17bd 4569 5d3e
00000210: dc2e 103e 769e fb3d 1b60 61bd 7908 c23d
00000220: d7fe 80be 3292 81be 7d92 f03d 8d61 0bbd
00000230: d81a a9be e382 7d3e b85f ccbe daf8 873d
00000240: dd67 cabd ba82 b03e 1005 0b3e 658a 77be
00000250: 8b39 d73d 36c6 9b3d 4694 6cbe cb6e 9ebe
00000260: fe50 803d 50f6 9ebe 9726 263e 3391 8ebd
00000270: c5cb 733e 65c0 cebb bcec 833e 6d93 a03e
00000280: cf49 e1bd ca27 5a3d c90a 66be 6095 993d
00000290: a833 6b3d 1df8 86be c573 6bbe cdcc 943e
000002a0: ba12 1ebe 7cbe 863e daa7 85bd 6158 853e
000002b0: a7fb a3bd 45cc 8cbe 5bac 413e 315c 073d
000002c0: 7152 6d3e bcd7 1ebe 3588 a33e b31c 363e
000002d0: ba27 8abe 24fe 7c3e ae7c 04be eae0 453e
000002e0: 9636 29be b237 393e cfd2 ea3d 3f7d 69be
000002f0: 3981 073e 6aad 173d d6ae fa3d 6e7a 9ebe
00000300: f5e8 d43d 1fd4 733e 00de a43e 9dc8 923e
00000310: 0d6f 9a3e cbdc 5b3e 480a 10be 0116 a43e
00000320: e9a2 3f3e 5423 663e 3260 34be bc6a 6c3c
00000330: 59bd 9fbe eeea 85be 33ce 633d 99c5 a43e
00000340: fc0a 403e 496f fc3d 4007 ae3d 9ac4 793e
00000350: 439e f9bd a98e a7bd 7bdb b93d 45ef 0abe
00000360: bfc0 c63e 5e8b 1a3e 44a2 3f3e 3304 40be
00000370: 30c1 41bd 757a 34bc 96ce 8cbe 9537 8d3e
00000380: fb06 aabc a724 9abe d5a6 76be 02be 963e
00000390: 86e8 9c3e 0c5a 9a3d 8274 a63e 7b9c 9b3d
000003a0: a7be 8d3e 3e1c a7be 9dc5 32bd a01d e5bd
000003b0: 59f1 45bd 24c9 b5bc 9cdc 6e3c 654b 98ba
000003c0: 0ba7 8ebe 89c1 85be 8378 963d c052 5fbb
000003d0: bf3f 7d3e e846 a3be ecf6 153e cdc4 053e
000003e0: 4c7a 8bbe 93e9 483e 45d7 ea3d fe04 ab3d
000003f0: 6563 32be 143f bf3e 9525 123e bc0b b73c
0.25350106 0.08356019 -0.26712778 -0.00086672156 0.071697965 -0.1335384 0.20192206 0.011778138
0.18940073 -0.31397688 -0.042745866 -0.06422512 0.03208958 -0.012741328 -0.20996332 -0.33032653
-0.16826616 0.31707764 -0.05272742 -0.015670069 0.09259772 0.19567107 0.15625215 0.09575802
0.123033725 -0.029714042 -0.17642666 0.22928166 0.18312931 0.06182771 0.19427279 -0.28080857
-0.042453796 0.31241742 -0.23228607 0.0959805 0.18938342 -0.1446999 0.23446196 0.104597405
0.017115409 0.29654863 0.122218475 0.28770122 -0.2303815 -0.19396105 0.14183624 -0.20711248
0.016743338 -0.35514316 -0.1959584 0.28381997 -0.022108579 0.042713497 0.05960748 -0.25749123
-0.09901362 0.2537642 -0.26034594 0.21362133 -0.14178652 -0.18161434 -0.22835585 -0.23387332
-0.33449996 0.025116742 0.2560064 -0.28773245 0.039385397 0.041849073 0.12601905 -0.08469206
0.17429392 -0.28181848 0.12254572 -0.19635458 0.22993027 -0.063566834 0.080911644 0.03943143
0.05549433 0.18625213 0.04811013 0.013682681 0.1528457 0.21333556 -0.35943845 0.20360047
0.16821346 0.13914368 -0.31064573 -0.18540056 0.10483704 0.2201327 -0.26906416 -0.116137534
-0.30391893 -0.087207854 -0.033164337 0.17069036 -0.09449231 -0.18122415 -0.2376329 0.29852554
0.12580213 -0.26452115 -0.25119022 0.024291405 -0.09556062 -0.16657972 -0.26546454 0.32278484
0.010397729 0.27302662 -0.22551145 -0.31384858 0.3058517 0.13302194 -0.12354002 0.33281085
-0.013760667 -0.013494954 0.05014055 -0.02604675 0.21523744 -0.210154 -0.30039877 -0.2862321
-0.05379861 0.3452669 -0.036960043 0.21622188 0.14080375 0.122860834 -0.055023294 0.09474272
-0.25194427 -0.2530685 0.117466904 -0.03402858 -0.33028293 0.2475696 -0.39916778 0.066392615
-0.098830916 0.34474736 0.1357615 -0.24173887 0.10509022 0.07606165 -0.23103437 -0.30943903
0.06265448 -0.31047297 0.16225658 -0.06961288 0.238082 -0.0063095563 0.25766551 0.31362477
-0.11000406 0.053260602 -0.22465052 0.07499194 0.05742231 -0.2636117 -0.22993381 0.290625
-0.15436831 0.26317203 -0.06526156 0.2604399 -0.08006983 -0.27499595 0.18913405 0.033046905
0.2317598 -0.15511984 0.31939855 0.17784385 -0.26983434 0.24706322 -0.12938187 0.19324079
-0.16524729 0.18087652 0.1146599 -0.22801684 0.13232888 0.037030615 0.122403786 -0.3095278
0.103959955 0.23811387 0.32200623 0.2866868 0.3016285 0.21470945 -0.14066422 0.32048038
0.18714489 0.22474414 -0.1761482 0.014429744 -0.31199148 -0.261558 0.05561657 0.32182005
0.1875419 0.123259135 0.084974766 0.24391404 -0.12188389 -0.08181507 0.09075066 -0.13567837
0.3881893 0.15092227 0.18714243 -0.18751602 -0.04730338 -0.011015524 -0.27501363 0.27581468
-0.020755282 -0.3010609 -0.24087079 0.2944184 0.3064615 0.07536706 0.32510763 0.07598206
0.2768452 -0.32638735 -0.04364549 -0.11187291 -0.04832587 -0.022190638 0.014578965 -0.0011619149
-0.2786182 -0.26124218 0.073472045 -0.0034076422 0.24731348 -0.31890035 0.14644974 0.13063355
-0.27241743 0.19620351 0.11466841 0.083505616 -0.17420729 0.37352812 0.14272149 0.022344463
