results/priority-sort/priority-sort-task-1-batch-47000.model (torch_old, 876115 bytes, 49 tensors)

ntm.read0_bias f4 [1, 20]
000000 d3 d4 0b 3c 26 33 0a 3c 0d 66 07 bc 89 8c 3e 39
       0.008534628 0.008435046 -0.008264077 0.00018172165
000010 18 12 99 3b 83 6f 18 3c dd 0b 19 3b bd f5 35 3c
       0.0046713464 0.00930393 0.0023353018 0.011105952
000020 4d c3 c8 3b 41 e3 3a bc 7e 4e a9 ba f7 b1 ef ba
       0.0061267973 -0.011406721 -0.0012917069 -0.0018287291
000030 87 a4 d5 bc f7 f7 3f 3b 98 dc 8b 3c eb 0f 77 bc
       -0.02607943 0.0029292086 0.01707296 -0.015079479
000040 2d 3b 1a bc 44 c2 45 3b e9 ba 21 3c dc 91 b0 3a
       -0.009413523 0.0030175606 0.009871223 0.0013471204

ntm.read1_bias f4 [1, 20]
000000 26 7f f3 3b 16 22 21 bb eb 81 c9 3b 06 05 d1 3b
       0.0074309288 -0.0024586967 0.0061495206 0.0063787727
000010 07 69 5e 3b 59 80 a8 3b af 91 49 bb cb 9c f5 ba
       0.0033937113 0.0051422534 -0.0030757 -0.0018738745
000020 34 1a d5 ba 10 0a a6 ba 38 2b 9c 3c dd 00 36 3c
       -0.001625842 -0.0012667794 0.019063577 0.011108604
000030 cc c1 94 bb 4a 2c 23 bc fe e3 20 39 97 bd db bb
       -0.004539704 -0.00995929 0.00015343723 -0.0067059505
000040 d4 87 11 3b e4 78 0e 3c b7 70 1b bc ea 51 78 bb
       0.0022206204 0.008695815 -0.0094873225 -0.0037890621

ntm.read2_bias f4 [1, 20]
000000 5d ed 09 3c fb 63 b1 bc 34 97 d6 3c b3 e7 72 bc
       0.008418408 -0.02165412 0.026195146 -0.014825749
000010 83 36 e9 3b 8a e3 68 3b b0 e4 b0 3b 87 3d 34 3b
       0.007117094 0.0035536014 0.0053983554 0.0027502493
000020 14 97 25 bc 5b 63 23 bc 20 3e 24 3c ff 13 88 ba
       -0.010106821 -0.009972419 0.010024577 -0.0010381936
000030 92 03 64 bb 58 3d 7b 3b 6a 02 dc ba ab 40 67 3b
       -0.0034792167 0.0038336124 -0.0016785387 0.0035286348
000040 55 61 85 3c 46 3c 81 bc ed b1 95 3c 13 a6 32 bc
       0.016281763 -0.01577581 0.018273318 -0.010903853

ntm.read3_bias f4 [1, 20]
000000 e8 fc 10 bc 3e bf 0a 3b a0 79 22 bc e8 8e 9d 3b
       -0.00884936 0.0021171118 -0.009916693 0.0048082955
000010 db 03 d4 39 a6 a9 64 3b ed 59 b9 3c d3 a3 4e bc
       0.00040438664 0.0034891157 0.022625888 -0.012612301
000020 4b 5c d1 3a 9a 11 0c ba a5 f1 3c 3c 15 65 d3 3b
       0.001597294 -0.0005343199 0.011532222 0.006451259
000030 70 e9 57 ba f9 7e 82 3b 8e 46 c2 3b 61 60 06 bc
       -0.0008236384 0.0039824215 0.005928821 -0.008201689
000040 95 82 6b bc 40 a2 40 bb 90 8b 13 bc 19 48 90 3c
       -0.014374395 -0.0029393584 -0.009005442 0.017612504

ntm.read4_bias f4 [1, 20]
000000 b4 59 a9 3a ed 3d 92 3c 46 6d ee ba 1b 01 f3 3b
       0.001292041 0.017851794 -0.0018190525 0.0074159033
000010 00 a8 81 bb 10 fe 10 bc e6 12 d2 bb 50 1c 07 3c
       -0.0039567947 -0.008849636 -0.0064109443 0.008246496
000020 f6 4c 1d bb 30 4d 08 3c 7e 27 33 bc 74 55 70 bc
       -0.002400217 0.008319184 -0.010934709 -0.014668811
000030 4b 8f 44 bc d8 5d 1d bc 57 d2 c9 b9 bd f3 d8 3a
       -0.011997054 -0.009604894 -0.00038494423 0.0016552132
000040 4a 8c b8 3b 43 4f 13 bb b7 f8 8a bc b6 f7 29 3c
       0.005631958 -0.0022477664 -0.0169643 0.010374

ntm.controller.lstm_h_bias f4 [2, 1, 100]
000000 ea a2 8e 3d c6 c8 15 bd 19 6e 19 3c 92 ae 09 be
       0.06964667 -0.036568426 0.009364628 -0.134455
000010 51 19 a5 bd c0 1c bb 3d 36 e4 e5 bd 2b 70 fe bc
       -0.08061469 0.09136343 -0.112251684 -0.031059345
000020 f1 08 5c bc bd 15 0e bc 0d 45 3a bd f5 b2 26 bd
       -0.013429866 -0.008672175 -0.04547601 -0.04069801
000030 15 a5 56 3d 80 79 40 3c 0f 49 a2 bd 19 67 5a 3d
       0.05240353 0.011747718 -0.07924091 0.053320978
000040 50 8b 44 bd 87 24 40 bd 0a 1d 12 3e 03 81 8f 3d
       -0.04798442 -0.046909835 0.1426889 0.07007029
000050 27 fc 18 bd 0f 0b 06 3c 91 a5 78 3d 55 3d 82 bd
       -0.037349846 0.0081813475 0.06070477 -0.063593544
000060 ff fd 99 bd 12 24 d9 3d c6 86 02 bd 58 99 86 bc
       -0.07519149 0.10602583 -0.03186681 -0.016430542
000070 fc 16 f0 bc 88 c0 69 bd d7 a2 34 bd a2 fc 63 bd
       -0.029307835 -0.057068378 -0.04410061 -0.05566085
000080 00 4e e8 bc 88 d7 2d bd 0b 5d 0e be 72 25 32 3d
       -0.028357506 -0.042441875 -0.1390268 0.043492742
000090 42 a9 01 bd ac 82 bb bc 45 9f 29 3e f3 84 5b 3c
       -0.031655557 -0.022889458 0.16564663 0.013398397
0000a0 8b 3c a6 3c f3 3b 0e bd cd f0 6c bd 4d 19 d9 3a
       0.020292541 -0.03472514 -0.057846833 0.0016563326
0000b0 39 ca 83 3b f9 43 14 bc 05 67 23 3b c0 c4 92 3d
       0.0040219096 -0.009049409 0.002493323 0.07166433
0000c0 11 6f 50 3d 46 1a 91 bc 17 0e 49 3d 47 90 ba 3d
       0.05088717 -0.017712723 0.049085703 0.0910955
0000d0 50 e2 76 bd 95 1a 07 3e ff 98 f5 3c 5d 4a ed 3b
       -0.060274422 0.13193734 0.02998018 0.007241531
0000e0 cb c4 1e 3d f5 5f cf bd dc 56 5d 3d 0f b4 ab 3d
       0.038761895 -0.10125724 0.054037914 0.08383953
0000f0 c5 45 fa 3d 16 ea 34 bd 70 da 16 3d bb d9 82 bc
       0.12220339 -0.044168554 0.036829412 -0.015972963
000100 19 ac ac 3d a7 0d 94 bd bf 2e 2a bd c8 60 7c bd
       0.084312625 -0.072291665 -0.041548487 -0.061615735
000110 6e 03 00 be ba 6d 19 be f1 35 8b bc 5f 15 c6 bd
       -0.12501308 -0.14983264 -0.016993495 -0.09672045
000120 8b 50 c5 bc a6 b1 88 bc 7e 5c 01 3d ae 67 78 bd
       -0.024086257 -0.016686272 0.031582348 -0.06064575
000130 dc 0b c2 bd 6b 4f 02 be 62 37 04 3c 72 46 49 bd
       -0.09474918 -0.12725608 0.008069845 -0.049139448
000140 32 7d 61 bb 3e 9c 48 bd 84 2a 28 be b3 96 1d bb
       -0.0034406898 -0.04897713 -0.16422468 -0.0024046123
000150 cf 6d c8 bc 2e 6b 29 3d 47 3d 85 bd 35 7f 20 bd
       -0.024466423 0.04136198 -0.06505828 -0.039183814
000160 25 a5 ae 3c bb 45 d7 3d 65 b4 10 3c d4 29 b2 bc
       0.021318981 0.10511347 0.008832072 -0.02174846
000170 66 a3 34 3d 4d 2f e9 bc e9 64 06 3e c1 2e 74 bd
       0.04410114 -0.028464938 0.13124432 -0.0596149
000180 60 08 73 3d 17 15 a9 3d e1 41 89 3d 72 7b 0f bd
       0.05933416 0.08255976 0.067020185 -0.035029836
000190 a7 66 a2 3e d9 b8 45 3d f1 a9 5b 3d 22 1b c2 3d
       0.31718943 0.048271988 0.053628866 0.094778314
0001a0 f0 d7 1b be 50 6a 96 3d b0 77 02 3e ba b5 23 be
       -0.15219092 0.07344496 0.1274097 -0.15987292
0001b0 1a 85 df 3d ce de 0c be 8d ef 83 bd f0 22 b3 bd
       0.10914059 -0.13756868 -0.06442175 -0.08746898
0001c0 bd 26 12 3e 9b 6c 90 3d 06 07 84 bd aa 45 e1 bd
       0.1427259 0.07051965 -0.06446652 -0.109996155
0001d0 ea 8a 4a 3e a6 cc 13 bc 15 35 2d be 0f ae 0f 3d
       0.19779554 -0.00902096 -0.1691478 0.035078105
0001e0 76 2d 7f bd cd 09 a2 3d 08 b7 13 3d 23 52 90 3d
       -0.062299214 0.079120256 0.036063224 0.07046916
0001f0 19 9d 38 bd 6e 42 bf bd 4a 77 a7 bd cc 12 10 3e
       -0.045071695 -0.09338842 -0.081770495 0.1406967
000200 c7 78 9b 3c 3f 2f 2d 3e 10 a2 c6 3d 92 cf 5a 3d
       0.01897849 0.16912554 0.0969888 0.05342061
000210 68 c6 9e 3d 9e a0 bf bc c4 a4 1b 3e b5 65 f0 bd
       0.07752687 -0.023392018 0.15199572 -0.11738149
000220 0b 90 62 3c d8 c3 21 3d f2 0d b0 3d e6 c6 c7 bd
       0.013828288 0.03949341 0.0859641 -0.09754734
000230 5e 25 cf 3d 5e bb 6f bd bc 01 df bd 23 53 ae bd
       0.10114549 -0.058528297 -0.10889003 -0.08511951
000240 86 a1 0a bc 3e ca 05 3d 76 58 e9 3d 4f 64 84 bc
       -0.008461362 0.032663576 0.11393826 -0.016161112
000250 cd f3 1a 3e fd 6d 1d bd 67 2d 80 3c 46 d0 30 3e
       0.15132065 -0.03843497 0.01564665 0.1726695
000260 39 ec a1 3d 5b 8e 9c bc 06 19 52 bd 20 8b 45 3c
       0.07906384 -0.01911085 -0.051293395 0.012057096
000270 fd 09 f1 bd 75 bc c7 bd fa 1c 2f 3d 82 df e0 bd
       -0.11769483 -0.09752742 0.042752244 -0.10980131
000280 61 59 49 3d 04 92 0e 3e eb 25 19 3e d2 3d 09 3e
       0.049157504 0.13922888 0.14955871 0.13402489
000290 0a eb c0 bc c0 8f f3 bc ea 0f 9a 3c 52 cc bc 3c
       -0.023549575 -0.029731631 0.018806417 0.023046646
0002a0 75 12 b4 3d 63 6b 8f 3d 43 4e fa 3c f3 ab 8f 3e
       0.08792583 0.07002904 0.030554896 0.28060874
0002b0 70 e4 29 be ca 75 e4 3d 77 28 9b 3d 3d ff 01 be
       -0.16591048 0.11155279 0.075760774 -0.12695022
0002c0 f0 78 f0 3d 05 8f 5c bd 62 f4 03 be 71 ac 40 be
       0.11741817 -0.05384733 -0.12886193 -0.18815781
0002d0 28 88 a5 3d 03 f1 9b bd 2b 8e 0d bc 2a 0e d2 bd
       0.0808261 -0.07614329 -0.0086398525 -0.10256608
0002e0 c7 92 6b 3e 6d 8c c7 bd 42 39 b8 bd 86 88 17 be
       0.2300521 -0.09743581 -0.08995296 -0.14798173
0002f0 8e ea 0f bd ec ac 08 be 20 4d ad 3d a9 6b b9 bd
       -0.0351358 -0.13347214 0.08461976 -0.09053738
000300 c5 85 4a 3d 46 f1 61 3e a6 16 3a bd 07 84 32 be
       0.04944398 0.22064695 -0.045431755 -0.17433177
000310 c6 56 d5 3d 71 75 1c be 12 3b 04 3e 6b b4 3a bd
       0.10416941 -0.15279175 0.12913159 -0.045582216

ntm.controller.lstm_c_bias f4 [2, 1, 100]
000000 4f 06 74 3d 99 a1 37 bd 94 89 0e bd 3b 5a fd bc
       0.05957633 -0.044831846 -0.034799173 -0.030926814
000010 cf e7 78 bc ca 76 96 bc 9d 09 34 be f8 bb 16 3e
       -0.015191986 -0.01836719 -0.17581792 0.14720142
000020 87 9e a5 bd 76 66 6c bd 83 72 70 3d f7 56 f9 bd
       -0.08086877 -0.057714902 0.058702957 -0.1217479
000030 4d 30 09 bc 44 12 db bc b1 e5 35 3e de 4d 31 bd
       -0.008373332 -0.026742108 0.17763402 -0.04328715
000040 3d 61 24 3c 3f 1e 05 be 25 51 ca 3d 59 99 08 bd
       0.010032949 -0.12999819 0.09878758 -0.03334937
000050 99 c8 12 bc fb 14 69 bd e4 10 0b 3d ad 98 64 bc
       -0.008958959 -0.056904774 0.033951655 -0.013952416
000060 36 42 98 bc 01 84 0a 3e b3 e0 2d 3c b2 d5 b1 bb
       -0.01858626 0.13526918 0.0106126545 -0.005427086
000070 f5 1c a6 bd 2b f9 2c bc 75 94 84 bd 9a 4b 8c bd
       -0.08110992 -0.010557453 -0.064736284 -0.06850357
000080 70 4b 8a bd 52 de 9d bd ba b1 cd bc c8 77 79 bd
       -0.0675267 -0.0770842 -0.02510916 -0.060905248
000090 cd f6 b2 bb 4b fd f2 bd 02 6e 81 3c 1c c1 92 bd
       -0.00546155 -0.11864718 0.015799526 -0.07165739
0000a0 9c 93 19 bc ae b6 8a bd e0 2c a7 bd 08 25 6a 3d
       -0.009373572 -0.06773125 -0.08162856 0.057164222
0000b0 a7 90 24 ba 81 b6 a2 3d 69 f0 68 3d 10 93 0e 3d
       -0.00062776584 0.07944966 0.056869898 0.03480822
0000c0 ac 37 7a bc 12 ff c2 bb 86 fc 94 3c 6e 40 4c bd
       -0.015272062 -0.005950817 0.018186819 -0.049866132
0000d0 0c 0e 8e 3b 9d 64 c6 bc 71 f4 07 3e fc 17 02 bd
       0.0043351706 -0.024217898 0.13276841 -0.031761155
0000e0 06 fc b0 bc 8f 5b db 3c 49 24 79 3b 4e e7 aa 3c
       -0.02160455 0.026777057 0.0038016012 0.020862248
0000f0 e0 5c f4 3c 4d df 6a bd 21 f6 cb bc 0f 62 65 bd
       0.029829443 -0.057341862 -0.024897637 -0.05600172
000100 f0 20 0b 3d 85 a0 6d bd 75 7f 33 bd c1 7c 54 3d
       0.03396696 -0.05801441 -0.043822724 0.051876787
000110 19 d1 e9 3c 46 be 19 bd 84 a1 ba 3c 74 c1 7c bd
       0.028542088 -0.037534975 0.022782095 -0.06170793
000120 fe a4 a5 bd b3 99 2b 3d bb 65 a7 3d ce 57 f6 bc
       -0.080881104 0.041894626 0.081737004 -0.030071165
000130 40 52 05 3d 6b 9b 00 be 54 a6 85 bd 2f 66 7c bd
       0.032549143 -0.12559287 -0.06525865 -0.061620887
000140 b5 3d 12 bd b2 53 7d bd 5e 81 0d 3c 14 f8 ae bd
       -0.03570338 -0.061847396 0.008636801 -0.08543411
000150 4b eb c0 3d 12 71 b4 b9 ef b8 eb 3c 57 61 cd 3d
       0.094198786 -0.0003441652 0.028774707 0.10028332
000160 08 b0 97 bd be cf bf ba ca 71 fc 3b f0 11 12 3c
       -0.07406622 -0.0014634056 0.0077039944 0.008915409
000170 ac b7 90 3c ee c2 5e bd c6 82 c8 bb b2 21 ef bb
       0.017665707 -0.05438512 -0.006119105 -0.007297718
000180 9d 28 83 3d ef eb 96 bc 27 d2 5d 3b a0 b1 b6 bd
       0.06404231 -0.018423049 0.0033847184 -0.08920598
000190 aa c2 95 3d 23 63 0a 3d 99 c8 89 bd 88 90 d7 bc
       0.0731252 0.03378595 -0.06727714 -0.026314035
0001a0 f8 8c 05 be 5d 67 ac bc 32 d6 d6 3d 5d f8 61 bc
       -0.13042057 -0.021045381 0.10490073 -0.013792125
0001b0 7b 79 e9 3d fc a5 6c bd 72 26 e2 bd ef 1a 94 bd
       0.11400124 -0.057775483 -0.11042489 -0.072317
0001c0 f7 b6 8a 3d 96 b7 0d bb f5 51 80 ba 7b ea 22 3e
       0.06773179 -0.0021624318 -0.000979005 0.1590976
0001d0 34 bf 17 3e 2c 03 15 3e 24 2d 40 bd dd be d6 bd
       0.14819032 0.14551991 -0.04691805 -0.10485623
0001e0 a9 d3 97 bc b7 71 7e bd bf 16 f7 bc f6 fe dc bc
       -0.018533545 -0.062120166 -0.030162213 -0.026977044
0001f0 7f 1c 12 be e4 a2 65 bd 98 c5 a7 bd 27 f6 7f 3e
       -0.14268683 -0.056063548 -0.08191985 0.24996243
000200 94 86 93 bc cc 7d 86 bd 05 e9 da 3d d1 64 04 bc
       -0.018008508 -0.065669626 0.10688976 -0.008080677
000210 8d c6 ee 3c 80 09 b0 3d c4 08 4d 3d 49 53 38 be
       0.02914741 0.08595562 0.050057188 -0.18000521
000220 a6 df 53 3d 5d 46 b5 3d 5d 19 01 3c ce 1d 09 bc
       0.05172696 0.08851311 0.007879582 -0.008368922
000230 37 e2 1d 3c 0c 0b 7c bd 92 56 bf bd 4b 8a e5 bd
       0.009636453 -0.061533973 -0.09342684 -0.11208018
000240 5d cd 24 b9 cb 55 fc bd fd c0 d0 3d 53 bd aa 3d
       -0.00015716763 -0.12321051 0.101930596 0.08336892
000250 5c ef e6 3d 09 a6 ec 3d 17 51 1c bd ba 41 d8 bc
       0.11276123 0.11555106 -0.03816327 -0.026398528
000260 e0 3c 87 3d c0 b1 03 be 3f a9 cd bd f2 4c 41 3d
       0.06603408 -0.12860775 -0.10042047 0.04719252
000270 36 93 f4 bc 8c 69 39 3c 78 0e 6f 3d 76 ba ad 3d
       -0.029855352 0.011316668 0.058363408 0.0848283
000280 69 66 02 bb 13 30 98 3d fa 70 c3 bc 82 07 0e 3d
       -0.0019897467 0.074310444 -0.023857582 0.03467513
000290 b2 da 17 be 32 6f 24 bc 4e 93 0a bd 3a 16 d8 bc
       -0.1482952 -0.010036277 -0.033831887 -0.026377786
0002a0 52 b7 80 bb 8b 21 d0 3d ea 4a af 3d bf 78 9c 3c
       -0.0039281035 0.10162648 0.085592106 0.019100545
0002b0 13 e4 e1 bd a6 7c 06 3d 53 3c 93 3c b1 83 02 bc
       -0.1102983 0.032833718 0.0179731 -0.007965968
0002c0 65 fd 12 3e b3 24 2d be 14 f6 9d bd e3 cc c2 bd
       0.14354475 -0.16908531 -0.07712951 -0.09511735
0002d0 6c 6b 89 3d 75 72 f0 3c a8 f6 95 3c 50 ee 23 be
       0.06709942 0.029351452 0.018306091 -0.16008878
0002e0 28 e8 3a 3c 4f af 92 bd 96 1c 6e bd 73 eb 23 be
       0.011407889 -0.07162344 -0.05813273 -0.16007785
0002f0 44 96 4e 3e 95 25 d2 3b da 1d 72 3d 48 bc b8 ba
       0.2017451 0.0064131715 0.0591105 -0.0014094198
000300 be 60 ef bd e1 26 9e 3c 1e 81 7e 3d f9 ec 19 be
       -0.11688374 0.019305648 0.062134854 -0.15031804
000310 b7 28 89 3d c9 ef 3f bd f4 8d 23 3d a5 99 0c 3d
       0.06697219 -0.046859536 0.0399303 0.034326214

ntm.controller.lstm.weight_ih_l0 f4 [400, 110]
000000 a6 45 97 be 8e ec dd 3d 0e 8d e3 3b cf 90 82 be
       -0.29545325 0.10836135 0.0069443053 -0.25501105
000010 b0 c5 b9 be 19 c9 75 be 89 34 07 3d 46 c3 15 3e
       -0.36283636 -0.24002494 0.033009086 0.14625272
000020 f7 13 23 be 15 80 1c be d6 a3 2b be 22 d3 3e 3d
       -0.15925585 -0.15283234 -0.16761717 0.04658807
000030 95 56 98 3e e0 97 10 3e b9 e7 14 3d e5 ad 84 3e
       0.29753557 0.14120436 0.0363538 0.2591392
000040 f0 57 60 bd ea fb ef 3d c9 b7 5d 3e 59 61 45 be
       -0.054771364 0.11717971 0.2165214 -0.19275416
000050 eb 04 b6 3d 97 ec 8e be 1d 09 86 3d 6f 99 bb be
       0.08887657 -0.2791488 0.06544707 -0.36640498
000060 09 23 bf 3d 61 ca f6 bd 72 3f 19 be 5b 44 a6 be
       0.09332854 -0.120503195 -0.14965609 -0.32474026
000070 5f 17 67 be 12 c9 80 bd 9e 81 d9 3c 80 a6 8e be
       -0.22567509 -0.06288351 0.026551064 -0.27861404
000080 75 fc 9d 3d 57 d6 7b 3c be e6 52 3e a0 1d c5 bc
       0.07714168 0.015370927 0.20595834 -0.024061978
000090 cf d8 96 be 24 60 ba 3e df a4 72 be 97 89 3f 3e
       -0.29462287 0.36401474 -0.23695706 0.1870483
0000a0 fe b4 12 3e 60 52 95 be 4c 43 03 3e f9 22 08 3d
       0.14326856 -0.2916441 0.1281864 0.033236478
0000b0 83 18 9a 3e ce a5 47 3e 67 9d 6a 3e 37 da 50 3e
       0.30096826 0.19496843 0.22911607 0.20395742
0000c0 6c 6e 84 3e 18 4b 67 be d9 55 d2 bd 6c 04 02 3e
       0.25865495 -0.2258724 -0.102702804 0.12697
0000d0 97 f7 ab 3e 97 55 33 be ad d0 92 be e0 0f 9a bd
       0.33587334 -0.17513119 -0.28674832 -0.07522559
0000e0 4e e4 c5 bc 26 70 a6 bb 5c b9 59 3e e3 7f 67 be
       -0.024156716 -0.005079287 0.21262115 -0.22607379
0000f0 93 5a b0 be cf c6 bc 3a 54 ca 3c 3c e8 67 78 be
       -0.34444103 0.0014402511 0.011522848 -0.24258387
000100 84 f1 7b be 24 db 70 be ec 67 b2 3d c9 55 40 bd
       -0.2460385 -0.23521096 0.08711228 -0.04695681
000110 ce 3f 51 3e 93 b2 77 bd 60 1c 63 be 30 6f d5 3d
       0.20434496 -0.060473036 -0.22178793 0.10421598
000120 75 5a 42 3d 0c dd 74 3d 66 0b 80 be a9 4c b6 3e
       0.047449548 0.05978112 -0.25008696 0.35605362
000130 69 3f 78 3d 9d 49 90 3d 2e 9c 2d 3e 03 66 93 3e
       0.060607348 0.070452906 0.16954109 0.28788766
000140 e2 dd ab be 50 9d d5 3d 79 99 d2 bd 3d 20 2f be
       -0.3356772 0.104303956 -0.10283179 -0.17102142
000150 2d 26 34 bd 09 8d 70 3e 99 93 d2 3c 8e 88 30 be
       -0.04398172 0.234913 0.025705146 -0.17239591
000160 38 4b 5b be 38 fc 8e bd d3 c9 22 bd 2a 1f 8f 3e
       -0.21415412 -0.06981701 -0.039743256 0.27953464
000170 b5 ff 71 3e cd c8 c7 3c cd d8 39 3e 48 0e 3d be
       0.236327 0.024387741 0.18149109 -0.18462479
000180 5d 1e 73 bd e4 c8 8b 3e c9 28 a1 3e 50 7c a8 3d
       -0.05935513 0.27301705 0.3147643 0.08226836
000190 4e 76 5d 3d 87 b3 bc bd 4b 69 f8 bd 76 39 76 be
       0.054067902 -0.092139296 -0.12129458 -0.24045357
0001a0 b4 2d 2d bd 2d 90 b7 bc 19 6f b8 3d b5 76 9a 3e
       -0.042279914 -0.022407616 0.09005565 0.3016869
0001b0 64 82 b2 3e 24 48 57 3d 29 a7 60 be 58 6c 3e bd
       0.34865105 0.052559033 -0.21938767 -0.046490043
0001c0 f9 6b 31 be dc 28 95 be 36 f5 19 3e 77 1f 69 3c
       -0.17326345 -0.29132736 0.15034947 0.014228693
0001d0 55 b0 a2 3d 14 72 20 3e cf f4 a1 be fb 37 be 3c
       0.07943789 0.15668517 -0.31632087 0.023220053
0001e0 72 2e 3a 3d 4a 2d 78 3d 6a 54 2f be 94 70 a8 be
       0.04545445 0.060590066 -0.17122045 -0.3289839
0001f0 da f2 a8 3e 2d a4 2d 3e f1 47 35 3e b5 43 80 be
       0.3299778 0.1695716 0.17703225 -0.25051656
000200 8a ea e9 3c 67 aa ad be d4 61 05 3e 02 22 04 3e
       0.02855422 -0.3391907 0.130256 0.12903598
000210 f8 e4 9d be e1 05 01 3d b9 b3 9e be 2f 02 82 3c
       -0.30838752 0.031499747 -0.30996493 0.015870182
000220 ff 61 6f 3e ee 77 9d be a5 2f b6 bc ad 19 92 3e
       0.23377226 -0.30755562 -0.022239516 0.28535214
000230 57 2c b3 3d 62 14 0e 3e fc 56 89 be 00 b8 9c be
       0.087486915 0.13874963 -0.26824176 -0.3060913
000240 6c ea 56 be 53 29 43 bd d6 e3 61 be 5c 41 8c 3e
       -0.20987862 -0.04764683 -0.22059569 0.27393615
000250 6d b8 3e be 27 31 1a bd cb 31 b9 be d9 0b 93 be
       -0.1862504 -0.03764453 -0.36170802 -0.28719977
000260 7d 2a 27 3e 73 3d 9c be d7 44 dd 3d 46 64 4e 3e
       0.16324802 -0.30515632 0.10804146 0.20155439
000270 55 19 2c bd 0a 9d 57 3e 7f ea e8 bd e8 b2 9e 3d
       -0.042016346 0.21056 -0.113728516 0.077489674
000280 58 14 31 be d5 72 71 bd 44 b0 23 bc 3b 8c f0 3d
       -0.17292917 -0.058947403 -0.0099907555 0.11745497
000290 84 fd 65 3e 18 0c 41 3d a2 9a ae 3d 6f 7f 65 be
       0.2245999 0.047130674 0.085255876 -0.22411893
0002a0 c9 c1 e8 bd 0f 6e 11 3e df e3 9b be b8 86 a6 3e
       -0.113650866 0.1420214 -0.3044729 0.32524657
0002b0 0c 07 87 3e 47 2d 01 3e 19 6c f3 bd bb 42 b9 be
       0.26372564 0.12614928 -0.11885852 -0.36183724
0002c0 42 ba 83 3e 0a 69 79 be f9 0f 1e be e2 72 34 be
       0.2572804 -0.24356475 -0.1543578 -0.1762195
0002d0 4c 07 5d 3e 5e 3b 78 3e 53 a9 8d be 0f 27 ac be
       0.21584815 0.24241397 -0.27668247 -0.3362355
0002e0 fc 75 a5 ba ad ea 7a be ba 6f cd 3d 89 15 b8 be
       -0.0012623663 -0.24503584 0.10031076 -0.3595393
0002f0 99 f9 6b bd 8d 88 88 bd 9b 33 8c be 9e 35 a1 3e
       -0.05761108 -0.0666667 -0.27383122 0.3148622
000300 1c 8b c5 be a5 05 a8 be 97 7f 5f be 1a 88 85 3d
       -0.38582695 -0.32816806 -0.21826015 0.065201
000310 70 2d 27 be 2b db 8f 3e b5 a6 95 bd ad e3 d6 3d
       -0.16325927 0.280969 -0.073071875 0.104926445
000320 ec 7a 09 be 53 78 ac 3c 1c 6e 1f 3c ee 3a fc 3d
       -0.13425797 0.021053469 0.009730842 0.123159274
000330 f1 74 98 3e 6f aa d6 3d aa e5 56 3c 09 15 2f be
       0.2977672 0.104817264 0.01311628 -0.17097868
000340 9c 92 4e be e2 ed 72 3e 43 73 1a 3e fb 66 02 3e
       -0.20173115 0.23723558 0.15083031 0.12734596
000350 19 90 40 be 0b 09 54 3e da ec 29 3d 09 2d 18 be
       -0.18804969 0.20706575 0.041485645 -0.1486093
000360 9a 2a a5 bd b9 a1 00 3e af 5d 69 3e 90 51 09 3d
       -0.08064766 0.12561692 0.22789644 0.03352505
000370 46 9e 11 3e 06 92 f3 bd 7a be 90 3d 8f c1 ed 3c
       0.14220533 -0.11893086 0.070675805 0.02902296
000380 86 7e 0e 3d 8d 10 6c 3d 49 f0 a8 bd 59 f1 3a be
       0.03478863 0.05763297 -0.08248956 -0.1825613
000390 1b 41 af 3e 83 a5 76 3e 69 8a 7c 3e 5a 25 4d 3e
       0.3422936 0.24086575 0.24662174 0.2003378
0003a0 a0 30 5a be 0e 1c 64 be 42 53 81 3e c9 1f 5c be
       -0.21307611 -0.22276327 0.25258833 -0.214965
0003b0 df 5c 86 be 8f 31 60 3e 66 ef f1 bd 7d b8 9d 3d
       -0.2624273 0.21893905 -0.1181324 0.07701204
0003c0 01 f7 8b 3d 1d 12 f0 bd 2a ed ba 3d f6 56 40 be
       0.06834222 -0.11722205 0.09127267 -0.18783173
0003d0 be 1d 90 be 7f 4f 97 bd 0e 0b 57 be c2 59 d2 bd
       -0.2814769 -0.073882096 -0.21000311 -0.10271026
0003e0 cb 60 b8 3c 3e 88 fc 3b 6d cc b3 be 17 99 16 bd
       0.022507092 0.007706671 -0.35116902 -0.03676709
0003f0 5a 12 eb bd 89 d9 94 be 27 33 18 be ab 28 6a bd
       -0.1147811 -0.29072216 -0.14863263 -0.05716769

ntm.controller.lstm.weight_hh_l0 f4 [400, 100]
000000 91 f3 95 be a8 55 ab 3d 9c 69 71 be d4 ca a2 3e
       -0.2928739 0.08365947 -0.23575443 0.3179537
000010 ce 15 70 3e 22 a5 49 3e 42 76 80 be 31 ad 9e bd
       0.23445818 0.196919 -0.25090224 -0.077478774
000020 c2 9c 87 be b2 0e 66 3e 3d 42 9d be 53 df 0f be
       -0.26486784 0.22466543 -0.30714598 -0.14050035
000030 2c 18 a4 3e bd 31 3f be 83 57 92 3e 14 b1 8a 3c
       0.32049692 -0.18671317 0.2858239 0.01693014
000040 54 fb 86 bd 11 3d bb bd 24 47 a3 be 1f 4e 39 be
       -0.06590906 -0.09142507 -0.31890213 -0.18096207
000050 5d c6 eb bd 20 c1 36 be 80 b8 38 be 8d 65 e6 bd
       -0.11512444 -0.17847109 -0.18039131 -0.11249838
000060 e7 75 c5 3e c6 6d 05 3e e3 c7 7d 3e 4d 9b 7d 3a
       0.38566515 0.13030156 0.24783282 0.00096743257
000070 15 d9 a7 3e e6 8b ca bd 5c f6 cd bd 0a 53 8f 3e
       0.32782808 -0.09889965 -0.10056755 0.2799304
000080 66 17 bf 3d 4a ce 97 bd c2 65 1f 3e b4 64 42 3e
       0.09330635 -0.074123934 0.15566161 0.18983728
000090 bc ae 1b 3e 72 39 aa be 69 5b 54 3d df 41 af be
       0.15203375 -0.33246952 0.051844988 -0.34229943
0000a0 65 9b ae 3e 5c f4 9a 3e fa df 4c be d7 2e ad 3e
       0.34102932 0.30264556 -0.20007315 0.33824798
0000b0 e3 73 0c 3d ad 14 ba 3e 47 12 84 be 68 e8 90 be
       0.034290206 0.363439 -0.25795195 -0.28302312
0000c0 d0 9c 9a 3d 89 10 b3 3e 4c 47 b3 3d d0 a4 1d 3e
       0.07549441 0.34973553 0.08753833 0.15394902
0000d0 f7 01 88 3b 4a 41 61 bd 55 6d 13 be 02 d2 48 be
       0.004150625 -0.054993905 -0.14397176 -0.19611362
0000e0 44 42 20 3e 29 ff 92 bd 44 81 ca bd 70 9e 1b 3e
       0.15650278 -0.07177574 -0.09887937 0.15197158
0000f0 31 cf c1 bd b2 19 34 be 0b b7 76 be ab 4b 96 3e
       -0.09463347 -0.17587927 -0.24093263 0.29354605
000100 0d bb cd 3d c3 9b a7 bd a8 df 40 be 85 49 0f 3d
       0.10045443 -0.08184006 -0.18835318 0.034982223
000110 10 46 ac 3e 86 d4 ed be 96 ec 9b 3d 60 05 8a 3d
       0.33647203 -0.46451205 0.076134846 0.067393064
000120 b3 84 4d 3e 6b dc 16 be b7 3c 81 3e e6 01 89 3d
       0.20070152 -0.1473252 0.25241634 0.06689815
000130 f8 b0 ed 3d 00 ed a3 3e 01 81 26 be 30 7d 6a 3e
       0.1160602 0.32016754 -0.16260149 0.22899318
000140 6c 0a 2e be 63 4e cb be 4b fb b5 3e 01 2f 81 3e
       -0.16996163 -0.39708242 0.35543284 0.25231174
000150 31 8b 95 3e d9 ea 4d be e8 1b 9c be dd fd 09 bd
       0.29207757 -0.20109119 -0.3049004 -0.03368937
000160 f3 32 87 ba 17 55 1f be 02 5e 26 3e f3 cc 50 3e
       -0.0010314867 -0.15559803 0.16246799 0.20390682
000170 e5 73 9c be bc 92 08 3e 8f b3 35 3e 97 a6 07 3e
       -0.3055717 0.13337225 0.17744277 0.13247143
000180 55 a6 12 3d cb 80 9e 3d 25 2e c1 3d b1 18 a9 be
       0.035803158 0.07739409 0.094326295 -0.3302665
000190 8b 99 a7 3e 70 bd 5c be 24 54 50 be 63 9d 1c be
       0.3273433 -0.2155664 -0.20344597 -0.15294413
0001a0 50 90 14 be e6 68 0b 3e 23 c0 43 bd 74 ab 64 3b
       -0.14508176 0.13614234 -0.047790658 0.0034892233
0001b0 7e e9 fe 3d da 6b 38 be 19 43 06 3e a3 5e 1b 3e
       0.12446879 -0.18009892 0.13111533 0.1517282
0001c0 ab 41 a5 be 20 fa 1f 3e 16 78 50 be ac 77 37 3e
       -0.32276663 0.15622759 -0.20358309 0.17916745
0001d0 ce 5c 3d be 75 e5 4c be e0 e4 24 bd eb 85 a0 be
       -0.18492433 -0.20009406 -0.040257335 -0.3135217
0001e0 90 df 93 bc 0d aa de bd 32 1d 9f 3d f6 f3 30 3d
       -0.018050939 -0.10872278 0.077692404 0.04320141
0001f0 b6 20 84 3e 86 d5 c6 be d2 72 af be 2d 92 4f be
       0.25806206 -0.3883478 -0.34267288 -0.20270605
000200 fa 34 e1 bd ca 55 57 3e 73 12 9d 3e 54 46 2d 3e
       -0.109964326 0.2102882 0.30678138 0.1692136
000210 ef 15 d9 3e 51 86 ca be 1a 8a ba 3e 7e 95 55 3e
       0.42399547 -0.395556 0.36433488 0.20857808
000220 08 82 b9 3c 67 aa 2c bb 6c df 78 be 10 cf 06 bd
       0.022645012 -0.0026346685 -0.24303979 -0.032912314
000230 d4 88 0e 3e cc ed 77 be ac 70 9b 3e bc c4 67 3e
       0.13919383 -0.24211806 0.303594 0.22633642
000240 3f 51 13 be 86 f3 e8 3d 6a 8a 23 be ca 49 f2 bd
       -0.14386462 0.113745734 -0.1597077 -0.118304804
000250 d9 80 ce 3d 7e 59 45 be ca 7c a3 3d ad 0c aa bc
       0.100831695 -0.1927242 0.07982786 -0.020757997
000260 d3 36 f8 3d c7 6c be 3d c9 46 fb bd da 24 6a be
       0.12119832 0.092980914 -0.122693606 -0.2286562
000270 3c c6 40 3e ce 06 58 3e 80 4d 52 be 80 e8 26 3e
       0.1882562 0.21096346 -0.20537376 0.16299629
000280 1c b1 2a 3e 4b 70 e5 3d a2 1f 5b be 15 fd 7e be
       0.16669124 0.11203059 -0.21398786 -0.2490123
000290 e6 81 a5 3e 9e 2f 02 3e 1c f7 3a be 47 6b 40 3d
       0.32325667 0.12713477 -0.18258327 0.046977308
0002a0 24 54 d8 3e a0 11 1f be 3c e9 91 be 32 a9 99 3e
       0.42251694 -0.15534067 -0.28498256 0.30011898
0002b0 88 db 71 be 83 47 30 be dd 0c c5 be be 04 8e be
       -0.23618901 -0.1721478 -0.38486376 -0.27737993
0002c0 46 b7 20 3d cd 57 2a 3e 3d 92 a0 3d 3c 56 57 bd
       0.039237283 0.16635056 0.07840393 -0.052572474
0002d0 97 e0 62 bd c2 cf 86 3e 20 c9 bf 3d 43 47 49 3e
       -0.055389967 0.26330382 0.093645334 0.1965609
0002e0 90 25 0e 3d 23 89 9c 3e be 58 6f 3d 22 a6 2e be
       0.03470379 0.30573377 0.05843424 -0.17055562
0002f0 e7 f2 fd 3d 0b 8b 75 3e 4b a8 ed bd 40 29 6a 3e
       0.123998456 0.23978822 -0.11604365 0.22867298
000300 03 00 1b bd 21 34 87 3d 81 64 be bb 83 ea 31 3e
       -0.037841808 0.0660174 -0.005810321 0.17374615
000310 27 51 2b 3c 27 d1 a7 3e 5e a8 53 3e f7 be ae 3e
       0.01045636 0.32776758 0.20669696 0.3413007
000320 43 bf 19 be 07 72 78 3c 82 f7 94 3e 5d a3 81 be
       -0.15014367 0.015163905 0.29095083 -0.2531995
000330 e6 24 1c 3d d9 0e 4c bc cb bd 5a 3e 61 94 73 3e
       0.038121127 -0.012454712 0.21361463 0.23787071
000340 5c 9e a7 bb 0c 78 4e 3e 42 35 12 bd e2 a5 7b be
       -0.0051153135 0.20162982 -0.03569532 -0.24574998
000350 84 f5 32 be e7 e7 65 be 86 85 f8 bd bc f4 ac 3e
       -0.1747647 -0.22451745 -0.121348426 0.33780468
000360 b9 1a e9 3d 73 35 6e 3e fb 56 40 3e 91 e3 b5 be
       0.1138205 0.23262577 0.1878318 -0.35525182
000370 02 dd 4e be a4 e1 90 3e 81 9c 9d bd 18 57 be be
       -0.20201495 0.2829715 -0.076958664 -0.37175822
000380 46 49 a8 be b5 f3 49 be 23 53 48 3e 30 c0 57 be
       -0.32868403 -0.19721873 0.19562964 -0.21069407
000390 19 38 a9 3e 33 87 93 3d c5 cd 98 be 6d 30 84 be
       0.33050612 0.072035216 -0.2984449 -0.25818196
0003a0 75 b2 8e 3e 5a 70 8f bd a8 0c 8d bd 20 1a 30 be
       0.27870527 -0.07003851 -0.068871796 -0.17197466
0003b0 ab f3 48 be c1 e8 aa 3e 7f c3 83 3e 2e b0 5d 3e
       -0.19624202 0.33380702 0.2573509 0.21649238
0003c0 46 ee 80 3e d5 70 88 3e 27 62 eb 3d 8a 3d 82 3d
       0.25181788 0.26648584 0.114933304 0.06359394
0003d0 e5 81 49 be 53 68 86 3e 2d 87 ce 3e 5a 22 73 3d
       -0.19678457 0.26251468 0.40337506 0.059358932
0003e0 60 80 a6 3d 74 ae 22 be 44 15 be bd 02 45 a7 bd
       0.08129954 -0.15886861 -0.092814 -0.08167459
0003f0 96 d7 5b be ff fc 3d 3e fb 52 68 bd 6f 08 49 3d
       -0.21468958 0.18553542 -0.05671976 0.04908031

ntm.controller.lstm.bias_ih_l0 f4 [400]
000000 af eb 0a 3c bb d4 0d bd 45 44 6c bd 65 d1 9f 3c
       0.008479043 -0.034626704 -0.057682294 0.019509027
000010 03 53 19 bd 7e 3d 0f bd c4 96 60 bd 3f 52 e6 bd
       -0.03743268 -0.034970753 -0.05483128 -0.11246156
000020 3e 80 ae bc 71 50 12 bd cb b5 a8 bd 08 a4 f4 bd
       -0.021301385 -0.035721246 -0.08237799 -0.11945349
000030 e0 d9 c5 3c a5 b5 ec bc 35 92 02 be 3b 3a 76 3d
       0.024151742 -0.028895209 -0.12751086 0.060114127
000040 e1 69 ee 3c 0f 5c 00 be 06 e3 c9 bd e3 48 d7 bd
       0.029103221 -0.12535118 -0.098577544 -0.10511949
000050 25 40 81 bd f5 a0 7f bd 19 b7 7a bd c2 a4 9f bc
       -0.06311063 -0.06240936 -0.06120977 -0.019487742
000060 c6 5c 0b bd 8d b1 e4 bd d0 e9 c0 bc dc 30 19 bd
       -0.034024023 -0.111666776 -0.02354899 -0.03740011
000070 4f 7c 10 3b 00 b5 a7 bd 1d 4b aa bc 90 40 0f bd
       0.002204675 -0.0818882 -0.02078777 -0.03497368
000080 8f 06 15 bd 8e 30 0c bd e0 e0 06 bd 39 9e 4d bc
       -0.036383208 -0.034225993 -0.0329293 -0.01254993
000090 7d dd c6 bd fd 56 ad bd 37 9d 94 bd b8 5c 3b bd
       -0.09710214 -0.08463857 -0.07256549 -0.04574272
0000a0 c1 76 c1 3c 29 56 3e bd 10 13 86 bd d3 b1 45 bd
       0.023616197 -0.046468887 -0.06546605 -0.04826529
0000b0 2f b5 81 bc 28 2b 1c bd f2 06 01 bd 6a f1 89 bc
       -0.015833465 -0.038127095 -0.031500764 -0.016838748
0000c0 78 ac aa bd cc 49 f9 bb ae 32 bc bd 01 0a ac bd
       -0.08333677 -0.007607674 -0.09189354 -0.084003456
0000d0 1f cb c4 bd 17 a4 94 bd 98 dd 9a bd 94 59 85 bd
       -0.09609055 -0.0725786 -0.07561797 -0.06511226
0000e0 79 37 68 3a 28 93 2b bd e4 c1 8a bd 62 b8 e2 bc
       0.0008858364 -0.041888386 -0.06775263 -0.027675811
0000f0 cc cb 27 bd 10 b7 00 bc fa d4 9b bb 29 ce 99 bd
       -0.04096584 -0.0078561455 -0.0047556134 -0.07510025
000100 e4 f8 05 bd 62 84 f4 bc c5 02 84 bd 76 e6 2d bd
       -0.032708064 -0.029848281 -0.06445841 -0.042456113
000110 ac 27 9d bd 0b d4 d2 bd 16 c8 84 bd a8 88 c3 bc
       -0.076735824 -0.1029435 -0.06483476 -0.023868874
000120 91 8a ad bd 9b 82 84 bd 2d d5 ce bd a9 45 2d bd
       -0.08473695 -0.064702235 -0.10099254 -0.04230276
000130 21 00 01 be 20 4c a9 bc 66 96 38 3b c8 b4 3b bd
       -0.12597705 -0.020666182 0.0028165816 -0.045826703
000140 ef 6b 61 bd 77 2d 5d bd a0 43 bc bd 30 78 0d bd
       -0.055034574 -0.053998437 -0.09192586 -0.034538448
000150 87 31 1a bd 97 3a db bd b8 02 5e bc 34 d7 46 bb
       -0.03764489 -0.107045345 -0.013550453 -0.0030340673
000160 fa 0e 54 bd 07 a3 4e 3d b9 5f 85 3c 9e 18 3d bd
       -0.051772095 0.050448444 0.016280996 -0.046166055
000170 1c 7c 6a bc 9c f4 fb bb 09 cc bd bc 36 4f f0 bd
       -0.014311817 -0.007689072 -0.02316858 -0.11733858
000180 bf af 95 3c f4 8c 1d bd 41 8c c1 bd 5d b0 fd 3c
       0.018272279 -0.0384645 -0.094505794 0.030967886
000190 1b 34 d7 3c 4a 4b 87 3d 7b 60 60 bc 9a 1c b4 3b
       0.026269963 0.06606157 -0.013694878 0.0054965736
0001a0 d6 99 9d 3c a7 67 37 3c 52 fd a9 3a ca b0 22 bc
       0.019238394 0.011194146 0.0012969172 -0.009929845
0001b0 7d c4 a3 3d 59 38 33 bd 13 dc 83 bc dc a8 f8 3b
       0.079964615 -0.04375491 -0.01609615 0.007588489
0001c0 28 f7 3c bd 9a 13 06 bd be 36 f7 bc 12 08 ae 3d
       -0.046134144 -0.032733537 -0.03017747 0.08497633
0001d0 fe 5b 9c 3b ff e6 3a bc 55 7b 7f 3d b7 9f b1 3c
       0.0047717085 -0.011407613 0.062373478 0.021682603
0001e0 7c 6a e6 bc e7 ce 6d bd ae f7 0a 3e fe 45 01 3a
       -0.028126948 -0.058058646 0.13571045 0.0004931389
0001f0 a1 4c fd 3d 33 7e 87 3c 3f 02 0c 3d 75 9e d3 bc
       0.123681314 0.016539669 0.03418183 -0.025832394
000200 67 3d ce bb ba 0a 8f bd cf 2e a3 3d f5 e2 48 3c
       -0.006293941 -0.06984468 0.079679124 0.012261142
000210 67 79 ab bc 6b 9f d8 ba 20 a0 03 3b ba 95 98 bd
       -0.020931913 -0.0016527002 0.0020084456 -0.07450433
000220 c7 f7 56 bd ba ce 6a bd 63 dd 5e 3d 3d 45 78 bd
       -0.052482393 -0.057326056 0.05441035 -0.060612906
000230 8c cd 18 3d 63 06 a6 3d f8 06 8d bc 06 6d 51 bd
       0.0373054 0.08106687 -0.017215237 -0.051129363
000240 33 cf 9b 3d 44 92 c6 3c b8 2b 34 bd 8d e8 d0 3c
       0.076078795 0.024239667 -0.043987006 0.025501514
000250 22 a8 96 bc 93 90 36 3d 0c bb 58 bc 28 80 eb bc
       -0.018390719 0.04457147 -0.013228189 -0.028747633
000260 06 a9 e9 3c e4 64 a7 bd 35 ea 75 3d 42 40 71 bc
       0.02852298 -0.0817354 0.06003781 -0.014724793
000270 57 0a 8f bc 45 fc 53 3c 85 b4 00 bc c1 f4 93 bc
       -0.017460985 0.012938564 -0.007855539 -0.018061044
000280 a0 f1 26 3d 0d 49 09 3d 30 a3 20 3c dd 5d a6 3d
       0.040757775 0.033516932 0.009804532 0.08123372
000290 59 3f ca 3d 4d 97 5e 3d 10 82 8f 3c c0 a0 99 3d
       0.09875364 0.05434351 0.017518073 0.07501364
0002a0 01 21 a9 3d a0 14 70 bc 9b 36 7b bc 7b d1 33 3d
       0.08258248 -0.014653355 -0.015332843 0.043900948
0002b0 34 95 0b 3b 0f 49 47 3d 81 06 cf bd 2e 31 97 bc
       0.0021298649 0.04865366 -0.101086624 -0.018456068
0002c0 dd f7 58 bd ae 47 8c bc c3 b5 e9 bc 86 37 8b 3d
       -0.052970756 -0.017124023 -0.028529054 0.067977
0002d0 fa be 82 bd d0 c6 58 bd d5 2d 89 bd f2 71 45 bd
       -0.06384082 -0.052923977 -0.06698195 -0.04820437
0002e0 c5 74 9f bc b2 a6 95 bd 63 d6 04 3d 69 be 2b 3d
       -0.01946486 -0.07307185 0.032431018 0.041929636
0002f0 0f 52 e9 ba 8b ef a2 3d 39 4c 82 3d ce 9d 23 bc
       -0.0017800945 0.079558454 0.063621946 -0.009986354
000300 f7 20 45 bc 4e f0 47 3c 14 d8 79 bc 19 d1 08 3d
       -0.012031785 0.012203289 -0.015249271 0.033402536
000310 bb 92 84 bd 1a 08 b2 bc 97 3f 5b 3d 17 d5 68 3d
       -0.06473299 -0.021732379 0.05352744 0.056843843
000320 84 73 95 3d 0e 3c 2f 3c 67 a3 33 ba b2 96 48 3d
       0.072974235 0.0106954705 -0.0006852657 0.04897184
000330 a7 24 73 bd d5 22 51 3b 97 ce a6 bc b0 cc 3e bb
       -0.059361126 0.003191163 -0.020362182 -0.0029113702
000340 f4 45 2a bb a1 0e be bd 98 fe ea 3c 38 a0 7d 3c
       -0.0025981637 -0.09280134 0.028685853 0.015480094
000350 f1 0a f0 3c 61 65 f0 3b 70 9b 09 3d 80 91 21 bd
       0.029302092 0.007336304 0.033595502 -0.0394454
000360 1e 60 b9 3c 5b 89 a4 bc 48 e7 97 bc 96 31 3b bd
       0.02262884 -0.020085027 -0.0185429 -0.045701586
000370 e6 0d a4 3d c5 33 4f bd 05 51 74 3c 9a 94 49 bb
       0.080104634 -0.05058648 0.014911895 -0.003075874
000380 d4 be 63 3b b7 5e 01 bc 12 90 c0 3c fc b9 d7 3c
       0.0034751194 -0.007896117 0.023506198 0.026333801
000390 5e 35 9a bd 3d 2d 80 bd af 1a dc 3b 12 24 4c 3c
       -0.0752971 -0.062586285 0.006717048 0.012459772
0003a0 c7 24 94 3b 63 2c 1d bc e0 c6 5a 3d 57 ee 16 bd
       0.0045209858 -0.009593102 0.05341232 -0.036848392
0003b0 46 be ab 3b ca 70 9f bc 2f c8 81 bd 70 3c ae bd
       0.005241188 -0.019462962 -0.0633701 -0.08507621
0003c0 d0 e7 8c bc 49 90 5b bc 5b b3 0e bd ae 2e fb bb
       -0.01720038 -0.0134010995 -0.034839015 -0.0076654768
0003d0 1f 20 70 bb 34 bc 56 3d 46 33 52 3d 71 11 24 bd
       -0.003664024 0.05242558 0.05131843 -0.040055696
0003e0 de d0 36 3d 19 72 1c 3c b5 18 6a bd a3 85 9b bc
       0.044632785 0.009548687 -0.05715247 -0.018984621
0003f0 fe 78 83 3c 7e 89 04 3c f6 37 1e 3c 36 ba c9 3c
       0.016048905 0.008089421 0.009656897 0.024624925

ntm.controller.lstm.bias_hh_l0 f4 [400]
000000 af eb 0a 3c bb d4 0d bd 45 44 6c bd 65 d1 9f 3c
       0.008479043 -0.034626704 -0.057682294 0.019509027
000010 03 53 19 bd 7e 3d 0f bd c4 96 60 bd 3f 52 e6 bd
       -0.03743268 -0.034970753 -0.05483128 -0.11246156
000020 3e 80 ae bc 71 50 12 bd cb b5 a8 bd 08 a4 f4 bd
       -0.021301385 -0.035721246 -0.08237799 -0.11945349
000030 e0 d9 c5 3c a5 b5 ec bc 35 92 02 be 3b 3a 76 3d
       0.024151742 -0.028895209 -0.12751086 0.060114127
000040 e1 69 ee 3c 0f 5c 00 be 06 e3 c9 bd e3 48 d7 bd
       0.029103221 -0.12535118 -0.098577544 -0.10511949
000050 25 40 81 bd f5 a0 7f bd 19 b7 7a bd c2 a4 9f bc
       -0.06311063 -0.06240936 -0.06120977 -0.019487742
000060 c6 5c 0b bd 8d b1 e4 bd d0 e9 c0 bc dc 30 19 bd
       -0.034024023 -0.111666776 -0.02354899 -0.03740011
000070 4f 7c 10 3b 00 b5 a7 bd 1d 4b aa bc 90 40 0f bd
       0.002204675 -0.0818882 -0.02078777 -0.03497368
000080 8f 06 15 bd 8e 30 0c bd e0 e0 06 bd 39 9e 4d bc
       -0.036383208 -0.034225993 -0.0329293 -0.01254993
000090 7d dd c6 bd fd 56 ad bd 37 9d 94 bd b8 5c 3b bd
       -0.09710214 -0.08463857 -0.07256549 -0.04574272
0000a0 c1 76 c1 3c 29 56 3e bd 10 13 86 bd d3 b1 45 bd
       0.023616197 -0.046468887 -0.06546605 -0.04826529
0000b0 2f b5 81 bc 28 2b 1c bd f2 06 01 bd 6a f1 89 bc
       -0.015833465 -0.038127095 -0.031500764 -0.016838748
0000c0 78 ac aa bd cc 49 f9 bb ae 32 bc bd 01 0a ac bd
       -0.08333677 -0.007607674 -0.09189354 -0.084003456
0000d0 1f cb c4 bd 17 a4 94 bd 98 dd 9a bd 94 59 85 bd
       -0.09609055 -0.0725786 -0.07561797 -0.06511226
0000e0 79 37 68 3a 28 93 2b bd e4 c1 8a bd 62 b8 e2 bc
       0.0008858364 -0.041888386 -0.06775263 -0.027675811
0000f0 cc cb 27 bd 10 b7 00 bc fa d4 9b bb 29 ce 99 bd
       -0.04096584 -0.0078561455 -0.0047556134 -0.07510025
000100 e4 f8 05 bd 62 84 f4 bc c5 02 84 bd 76 e6 2d bd
       -0.032708064 -0.029848281 -0.06445841 -0.042456113
000110 ac 27 9d bd 0b d4 d2 bd 16 c8 84 bd a8 88 c3 bc
       -0.076735824 -0.1029435 -0.06483476 -0.023868874
000120 91 8a ad bd 9b 82 84 bd 2d d5 ce bd a9 45 2d bd
       -0.08473695 -0.064702235 -0.10099254 -0.04230276
000130 21 00 01 be 20 4c a9 bc 66 96 38 3b c8 b4 3b bd
       -0.12597705 -0.020666182 0.0028165816 -0.045826703
000140 ef 6b 61 bd 77 2d 5d bd a0 43 bc bd 30 78 0d bd
       -0.055034574 -0.053998437 -0.09192586 -0.034538448
000150 87 31 1a bd 97 3a db bd b8 02 5e bc 34 d7 46 bb
       -0.03764489 -0.107045345 -0.013550453 -0.0030340673
000160 fa 0e 54 bd 07 a3 4e 3d b9 5f 85 3c 9e 18 3d bd
       -0.051772095 0.050448444 0.016280996 -0.046166055
000170 1c 7c 6a bc 9c f4 fb bb 09 cc bd bc 36 4f f0 bd
       -0.014311817 -0.007689072 -0.02316858 -0.11733858
000180 bf af 95 3c f4 8c 1d bd 41 8c c1 bd 5d b0 fd 3c
       0.018272279 -0.0384645 -0.094505794 0.030967886
000190 1b 34 d7 3c 4a 4b 87 3d 7b 60 60 bc 9a 1c b4 3b
       0.026269963 0.06606157 -0.013694878 0.0054965736
0001a0 d6 99 9d 3c a7 67 37 3c 52 fd a9 3a ca b0 22 bc
       0.019238394 0.011194146 0.0012969172 -0.009929845
0001b0 7d c4 a3 3d 59 38 33 bd 13 dc 83 bc dc a8 f8 3b
       0.079964615 -0.04375491 -0.01609615 0.007588489
0001c0 28 f7 3c bd 9a 13 06 bd be 36 f7 bc 12 08 ae 3d
       -0.046134144 -0.032733537 -0.03017747 0.08497633
0001d0 fe 5b 9c 3b ff e6 3a bc 55 7b 7f 3d b7 9f b1 3c
       0.0047717085 -0.011407613 0.062373478 0.021682603
0001e0 7c 6a e6 bc e7 ce 6d bd ae f7 0a 3e fe 45 01 3a
       -0.028126948 -0.058058646 0.13571045 0.0004931389
0001f0 a1 4c fd 3d 33 7e 87 3c 3f 02 0c 3d 75 9e d3 bc
       0.123681314 0.016539669 0.03418183 -0.025832394
000200 67 3d ce bb ba 0a 8f bd cf 2e a3 3d f5 e2 48 3c
       -0.006293941 -0.06984468 0.079679124 0.012261142
000210 67 79 ab bc 6b 9f d8 ba 20 a0 03 3b ba 95 98 bd
       -0.020931913 -0.0016527002 0.0020084456 -0.07450433
000220 c7 f7 56 bd ba ce 6a bd 63 dd 5e 3d 3d 45 78 bd
       -0.052482393 -0.057326056 0.05441035 -0.060612906
000230 8c cd 18 3d 63 06 a6 3d f8 06 8d bc 06 6d 51 bd
       0.0373054 0.08106687 -0.017215237 -0.051129363
000240 33 cf 9b 3d 44 92 c6 3c b8 2b 34 bd 8d e8 d0 3c
       0.076078795 0.024239667 -0.043987006 0.025501514
000250 22 a8 96 bc 93 90 36 3d 0c bb 58 bc 28 80 eb bc
       -0.018390719 0.04457147 -0.013228189 -0.028747633
000260 06 a9 e9 3c e4 64 a7 bd 35 ea 75 3d 42 40 71 bc
       0.02852298 -0.0817354 0.06003781 -0.014724793
000270 57 0a 8f bc 45 fc 53 3c 85 b4 00 bc c1 f4 93 bc
       -0.017460985 0.012938564 -0.007855539 -0.018061044
000280 a0 f1 26 3d 0d 49 09 3d 30 a3 20 3c dd 5d a6 3d
       0.040757775 0.033516932 0.009804532 0.08123372
000290 59 3f ca 3d 4d 97 5e 3d 10 82 8f 3c c0 a0 99 3d
       0.09875364 0.05434351 0.017518073 0.07501364
0002a0 01 21 a9 3d a0 14 70 bc 9b 36 7b bc 7b d1 33 3d
       0.08258248 -0.014653355 -0.015332843 0.043900948
0002b0 34 95 0b 3b 0f 49 47 3d 81 06 cf bd 2e 31 97 bc
       0.0021298649 0.04865366 -0.101086624 -0.018456068
0002c0 dd f7 58 bd ae 47 8c bc c3 b5 e9 bc 86 37 8b 3d
       -0.052970756 -0.017124023 -0.028529054 0.067977
0002d0 fa be 82 bd d0 c6 58 bd d5 2d 89 bd f2 71 45 bd
       -0.06384082 -0.052923977 -0.06698195 -0.04820437
0002e0 c5 74 9f bc b2 a6 95 bd 63 d6 04 3d 69 be 2b 3d
       -0.01946486 -0.07307185 0.032431018 0.041929636
0002f0 0f 52 e9 ba 8b ef a2 3d 39 4c 82 3d ce 9d 23 bc
       -0.0017800945 0.079558454 0.063621946 -0.009986354
000300 f7 20 45 bc 4e f0 47 3c 14 d8 79 bc 19 d1 08 3d
       -0.012031785 0.012203289 -0.015249271 0.033402536
000310 bb 92 84 bd 1a 08 b2 bc 97 3f 5b 3d 17 d5 68 3d
       -0.06473299 -0.021732379 0.05352744 0.056843843
000320 84 73 95 3d 0e 3c 2f 3c 67 a3 33 ba b2 96 48 3d
       0.072974235 0.0106954705 -0.0006852657 0.04897184
000330 a7 24 73 bd d5 22 51 3b 97 ce a6 bc b0 cc 3e bb
       -0.059361126 0.003191163 -0.020362182 -0.0029113702
000340 f4 45 2a bb a1 0e be bd 98 fe ea 3c 38 a0 7d 3c
       -0.0025981637 -0.09280134 0.028685853 0.015480094
000350 f1 0a f0 3c 61 65 f0 3b 70 9b 09 3d 80 91 21 bd
       0.029302092 0.007336304 0.033595502 -0.0394454
000360 1e 60 b9 3c 5b 89 a4 bc 48 e7 97 bc 96 31 3b bd
       0.02262884 -0.020085027 -0.0185429 -0.045701586
000370 e6 0d a4 3d c5 33 4f bd 05 51 74 3c 9a 94 49 bb
       0.080104634 -0.05058648 0.014911895 -0.003075874
000380 d4 be 63 3b b7 5e 01 bc 12 90 c0 3c fc b9 d7 3c
       0.0034751194 -0.007896117 0.023506198 0.026333801
000390 5e 35 9a bd 3d 2d 80 bd af 1a dc 3b 12 24 4c 3c
       -0.0752971 -0.062586285 0.006717048 0.012459772
0003a0 c7 24 94 3b 63 2c 1d bc e0 c6 5a 3d 57 ee 16 bd
       0.0045209858 -0.009593102 0.05341232 -0.036848392
0003b0 46 be ab 3b ca 70 9f bc 2f c8 81 bd 70 3c ae bd
       0.005241188 -0.019462962 -0.0633701 -0.08507621
0003c0 d0 e7 8c bc 49 90 5b bc 5b b3 0e bd ae 2e fb bb
       -0.01720038 -0.0134010995 -0.034839015 -0.0076654768
0003d0 1f 20 70 bb 34 bc 56 3d 46 33 52 3d 71 11 24 bd
       -0.003664024 0.05242558 0.05131843 -0.040055696
0003e0 de d0 36 3d 19 72 1c 3c b5 18 6a bd a3 85 9b bc
       0.044632785 0.009548687 -0.05715247 -0.018984621
0003f0 fe 78 83 3c 7e 89 04 3c f6 37 1e 3c 36 ba c9 3c
       0.016048905 0.008089421 0.009656897 0.024624925

ntm.controller.lstm.weight_ih_l1 f4 [400, 100]
000000 d2 93 8a be 78 f8 47 3e 01 01 69 be b6 f1 4e be
       -0.27065903 0.19528377 -0.22754289 -0.20209393
000010 e2 f3 24 3d ba ec c7 3d 4a 43 fd bc bc 08 7a be
       0.040271647 0.09761949 -0.030915875 -0.24417394
000020 e9 c8 e9 bc ff 1b 8a be 69 70 71 3e be 64 89 3e
       -0.028538184 -0.26974484 0.23578037 0.26834673
000030 06 72 49 3e de 61 c3 bd ef a7 ca 3b 4e 6f 4c bd
       0.19672403 -0.09540151 0.00618457 -0.049910836
000040 4a be 39 bd 46 56 1e bb 1b 04 70 bc 14 67 56 bd
       -0.04534749 -0.002416031 -0.014649416 -0.052344397
000050 f2 00 36 bc f9 d7 4c be 8a c6 fa bd 89 35 80 be
       -0.011108624 -0.20004262 -0.122448996 -0.25040844
000060 9c f4 0d bd 70 65 59 be 1e 0e 54 be 13 78 ff bd
       -0.034657106 -0.21230102 -0.2070851 -0.12474074
000070 78 02 e8 3d b4 c4 bb 3e c1 d4 08 be f3 18 9d be
       0.11328596 0.3667351 -0.13362409 -0.30683097
000080 ff 1e ac 3e ec ca 53 3e 18 27 25 3e eb 94 a7 be
       0.33617398 0.20682877 0.16128194 -0.32730803
000090 45 59 46 3d bd c3 10 be 69 7c c8 3e 59 bd 67 3d
       0.048424978 -0.14137168 0.39157417 0.05657706
0000a0 ef 9b 4b be 74 6b 90 3e c5 e2 a2 be e7 f5 4c be
       -0.19883703 0.2820698 -0.31813636 -0.2001568
0000b0 9b 78 02 be d4 59 60 be 31 6d bf 3d 30 56 10 be
       -0.1274132 -0.21909267 0.093469985 -0.14095378
0000c0 4c 4b 09 bd 25 4e c7 bc 4f 3f 64 3e c6 c1 a9 be
       -0.033519074 -0.024329254 0.22289775 -0.3315565
0000d0 17 81 e8 3c 0c 8e 04 be db e1 29 be 5e db c5 3e
       0.028381867 -0.12944812 -0.16590063 0.38643926
0000e0 53 f6 a2 3e c7 e8 49 bb 2e f5 75 bd 7f f8 bf bd
       0.31828555 -0.0030808912 -0.060048275 -0.09373569
0000f0 10 0d 96 3d d8 5e 4f be 06 fc ed 3d d6 35 90 be
       0.0732671 -0.20251024 0.11620335 -0.28166074
000100 e5 db 22 3e c8 bd ca 3d 69 74 bb be 95 d0 60 3e
       0.15904196 0.09899479 -0.3661225 0.21954568
000110 f1 b2 58 bd c4 64 4f 3e d4 a1 15 3e a0 8c 7b 3e
       -0.052905027 0.20253283 0.14612514 0.24565363
000120 f3 9c 8c be 7b 3c 33 3e 85 a6 02 3c 91 6d 30 3c
       -0.27463493 0.1750354 0.007974272 0.01076831
000130 86 d4 31 3e 70 47 6c 3e 95 f1 8b 3e ad 27 47 3d
       0.17366228 0.23074126 0.2733275 0.048621822
000140 da 1b a5 3e 16 12 9a be 19 99 16 3c a1 bd 29 be
       0.32247812 -0.30091923 0.009191775 -0.16576244
000150 81 a0 77 3e 31 b8 15 be 75 25 ee 3d 8d f3 ac bd
       0.24182321 -0.14621045 0.11628238 -0.08444891
000160 5a df a3 3e 28 0a 76 3e f8 5b 5e be 81 2b c7 3e
       0.3200634 0.24027312 -0.21714771 0.38900378
000170 cd 65 8c 3e b3 2f 7f 3e a0 0a 87 3e 58 93 90 bd
       0.27421418 0.2492054 0.26375294 -0.070593536
000180 12 f9 b9 3d 47 b3 71 3e f1 68 64 3e 70 77 8b 3e
       0.090807095 0.23603545 0.22305657 0.2723956
000190 54 e9 9d be c2 ab af 3e 14 aa ea bd 35 e1 13 3e
       -0.30842078 0.34310728 -0.11458221 0.14441378
0001a0 9e 30 3c be 09 5a 2d 3e d7 b6 c5 3e c9 61 76 be
       -0.18377921 0.16928877 0.38616058 -0.2406074
0001b0 2f 1d 82 3e ca 05 9f 3e 1a 34 e5 bc c5 60 1f 3c
       0.2541289 0.31059104 -0.027978946 0.0097276615
0001c0 c0 28 96 3e 5e 7a 9b bd 3b fe 37 3e 38 e4 8f 3e
       0.29327965 -0.07591699 0.17968075 0.28103805
0001d0 ca 0a b3 bd b2 50 a7 3e 17 f9 91 3c e1 d0 10 bd
       -0.08742292 0.32678753 0.01781897 -0.035355452
0001e0 88 32 6f 3e 66 40 52 be d5 62 aa 3e ec f8 92 be
       0.2335912 -0.20532379 0.33278528 -0.28705537
0001f0 d3 ab 1b 3e 26 67 e9 3d a2 94 a6 bd f6 08 54 3e
       0.15202264 0.11396627 -0.08133818 0.20706543
000200 f2 7d 7e be 0a 52 98 3d 9f 4e b6 be af 83 9e be
       -0.24852732 0.07437523 -0.35606858 -0.30959842
000210 d3 23 81 be 1c 60 fb 3b 05 a2 b9 be 13 e1 3b be
       -0.25222644 0.0076713692 -0.36256424 -0.18347578
000220 fd 5b a2 be f8 ad 90 bc 97 06 6d be 10 10 4e 3e
       -0.31710806 -0.01766108 -0.23147045 0.20123315
000230 36 4c 10 be d6 5f 84 3d 93 e8 5f be 72 b5 87 3e
       -0.14091572 0.06463592 -0.21866064 0.2650562
000240 36 9d 57 bc e4 da 53 3e 6d 71 65 be b6 e6 87 3c
       -0.013160041 0.20688969 -0.2240655 0.016589504
000250 19 cb c7 bd f8 34 21 3e 2e 98 3a be 0d 08 6d 3d
       -0.09755535 0.15742862 -0.18222114 0.057869006
000260 b9 01 61 3e 09 e9 8d 3e 99 58 8b be 5a d4 c6 3c
       0.21973313 0.27716854 -0.27216032 0.024271179
000270 24 af 9a 3e 8c 36 62 3e aa 63 3a be 8a 32 1a 3e
       0.30211747 0.2209112 -0.18202081 0.15058342
000280 03 44 04 be 09 06 d4 3c 2b c1 43 be 4f f3 f1 3d
       -0.1291657 0.025881784 -0.19116656 0.118139856
000290 2d e8 32 be fa 5b aa be ae 07 a8 be 97 ec 04 3e
       -0.1747138 -0.33273298 -0.3281836 0.12980877
0002a0 06 aa 64 be 27 86 55 3e 63 23 90 bd 3a 42 68 3e
       -0.22330484 0.20851956 -0.070379995 0.22681513
0002b0 5a 8f 5d 3d ed 74 9b be e8 11 c8 be e5 ff b3 3e
       0.05409179 -0.30362645 -0.3907616 0.3515617
0002c0 c9 ea 8d 3e 28 a9 90 be 5f ca 79 be 91 5f 53 3e
       0.2771819 -0.28254056 -0.24393605 0.20641924
0002d0 27 4e 28 be 3a ae 3c 3c 35 83 ac 3e 3f 23 9d bd
       -0.16436063 0.011516148 0.33693853 -0.07672738
0002e0 c5 ac 21 bc 4c 1e a9 3e e9 a0 6b be 67 83 dd 3c
       -0.009867852 0.33030927 -0.23010601 0.027040197
0002f0 3a 07 94 be c6 8a a3 be af 98 6a bc c4 06 41 be
       -0.28911763 -0.31941813 -0.014318629 -0.18850237
000300 36 fb 3f 3d 9b 96 82 3e ee ee 9b bb f8 59 63 be
       0.046870433 0.25505528 -0.0047587072 -0.22202289
000310 f2 78 06 be a0 87 cc be e3 2d a0 bc 88 c1 88 3c
       -0.13132074 -0.39947224 -0.01955313 0.016693845
000320 65 f1 5b be 4d ff 6d be c0 54 6e 3c 75 6a e7 3c
       -0.21478803 -0.23241921 0.014546573 0.028249005
000330 1d 34 d2 be 6a 08 8e 3e b0 cf 18 be 0f 6b f7 bc
       -0.41055384 0.27740794 -0.14922976 -0.030202417
000340 49 00 05 be 11 b7 51 3e 84 a1 73 be 22 c6 7d 3e
       -0.1298839 0.2047999 -0.23792082 0.24782613
000350 a1 c5 40 3e f4 ab e3 3c 17 6d c6 be a1 74 73 be
       0.1882539 0.027791955 -0.38755104 -0.23774959
000360 3c 36 ba 3e 39 4d d6 3c 14 40 69 3e 0c 73 de be
       0.36369503 0.02615987 0.2277835 -0.4344715
000370 eb 92 6b 3d 38 77 b9 bd e5 7f 06 3e 0b 2b f3 3d
       0.05751316 -0.09055942 0.13134725 0.11873444
000380 dc e4 05 3e 8f 1b 8b 3e da 81 a6 be f2 7d 83 3e
       0.13075584 0.27169463 -0.32520944 0.25682026
000390 c7 ba 23 3d f5 40 a8 3c c2 b4 9d be d8 89 89 be
       0.039973047 0.020538786 -0.3080197 -0.2686298
0003a0 c5 27 b8 bd 0f d1 d0 3e 8e 27 4b be 2a 6d 77 3e
       -0.089919604 0.407845 -0.19839308 0.24162737
0003b0 df 73 20 3d 95 fb 26 be 53 a6 b7 3e 03 e1 47 3e
       0.039173003 -0.16306908 0.35869083 0.19519429
0003c0 6c a2 a4 be 2b a3 86 be 4e 54 7b 3e 14 d2 95 be
       -0.32155168 -0.26296362 0.24543878 -0.2926184
0003d0 c4 e5 5c be 33 33 65 bc f2 d6 71 be 69 c8 a4 3e
       -0.21572024 -0.013989258 -0.23617151 0.3218415
0003e0 f9 26 20 3e 66 18 74 3e 70 0f ad be 66 41 3d 3e
       0.15639867 0.23837432 -0.3380084 0.18481979
0003f0 fc d9 85 be f5 38 f8 bd 5b 66 ff bb 3d 3c d6 be
       -0.2614287 -0.12120239 -0.007794184 -0.41842833
