results/priority-sort/priority-sort-task-42-8-16-batch-200000.model (torch_old, 876637 bytes, 49 tensors)

ntm.read0_bias f4 [1, 20]
000000 2e db 84 bc 65 8b dc 3c 38 b2 3f bc 80 3a 67 3c
       -0.016217794 0.026921937 -0.0117002055 0.014113069
000010 33 c7 40 3c ee 99 45 bc bd f4 b9 3b b9 8b c1 b9
       0.011766243 -0.0120606255 0.005674927 -0.0003691593
000020 c9 b0 a3 3b 84 2b 9c 3b b7 a2 dd 3b 9d 6a 93 3c
       0.0049954397 0.0047659297 0.006763782 0.017995173
000030 ee b0 d1 bb aa ad 76 bb ce e4 d6 bb 7b 3e 21 3c
       -0.0063992655 -0.0037640133 -0.0065580374 0.009841557
000040 8a 77 d9 3b af bf 64 bb f7 28 93 3b 93 f5 f3 b9
       0.0066365646 -0.0034904291 0.0044909674 -0.0004653154

ntm.read1_bias f4 [1, 20]
000000 a7 eb 91 bc 42 d9 7d bb 04 ca 5b 3c b9 1e 16 3b
       -0.017812563 -0.0038734232 0.0134148635 0.0022906496
000010 68 8c 8b 3b a0 60 9c bc 80 b0 73 bb 70 5f 44 bc
       0.004258681 -0.019089043 -0.003718406 -0.011985645
000020 01 16 68 bc ce bb 3c bc 92 b4 04 bc 46 0e c0 bb
       -0.014165402 -0.0115193855 -0.008099692 -0.0058610765
000030 e6 93 16 3c 6b 2e 02 b9 a6 06 ee 3b 06 e0 5c bb
       0.009190535 -0.00012415058 0.007263976 -0.0033702864
000040 ea f6 05 3c a0 9f 51 bb 34 e8 02 bc 02 54 21 bc
       0.008176545 -0.0031986013 -0.007989932 -0.009846689

ntm.read2_bias f4 [1, 20]
000000 77 84 fd bb 05 cc a4 3a 42 2d 52 bb e5 f5 a5 3b
       -0.0077367383 0.001257301 -0.0032070433 0.0050647133
000010 0e 12 f6 bb 01 35 85 3c 92 ef cf b9 15 36 3a bb
       -0.0075094765 0.016260626 -0.0003966061 -0.0028413583
000020 7c a5 ee bc 64 7a 2f bc ea 55 50 bc fe 4a 2f 3c
       -0.029131643 -0.010710333 -0.012715796 0.010699032
000030 27 c6 92 bb 7d c2 ca 39 84 7e 49 3b f3 8a 47 3c
       -0.004479188 0.00038673347 0.0030745575 0.012179124
000040 f6 d3 17 3a d0 a0 b1 bc 04 fe d6 3b 58 f9 9e 3b
       0.00057917775 -0.021683127 0.0065610427 0.0048515014

ntm.read3_bias f4 [1, 20]
000000 8a b3 eb 3b 72 8b ae bb 0b ed 58 3c 69 c4 5d 3b
       0.0071930336 -0.005326682 0.013240109 0.0033838993
000010 7d 2a 3f bb af a7 d2 3b 54 94 5b 3b 05 82 82 ba
       -0.0029169612 0.006428681 0.0033505158 -0.0009956962
000020 22 33 7f bb ae 40 2c 3c 0d f5 97 bc 1b 22 b0 3b
       -0.003894039 0.010513468 -0.018549467 0.0053751594
000030 2f 1d 9c bb 83 4a 01 3c 30 2e 57 bb e4 e0 1d 3c
       -0.004764221 0.0078913 -0.0032833926 0.009636138
000040 06 2d 14 3b dd 4e 02 b9 d2 65 4b 3c 67 cd 74 bb
       0.0022609844 -0.00012427145 0.012414413 -0.0037353875

ntm.read4_bias f4 [1, 20]
000000 3c 24 a7 b9 9b 96 a1 ba c6 24 24 3c be 73 93 3c
       -0.0003187972 -0.0012328209 0.010018533 0.017999526
000010 44 57 4b 3b 47 e2 1b b9 ea 0d da bb 18 1c 15 bc
       0.0031027356 -0.00014866247 -0.0066544907 -0.009100936
000020 42 15 17 bc df 00 9d 3b 0a 8f d9 3a 1f 17 1a 3c
       -0.009221377 0.0047913636 0.0016598415 0.009404927
000030 e1 f3 9f bc a2 b5 f4 bb 8a 8c aa 3c 86 77 31 bc
       -0.01952547 -0.0074679414 0.020818967 -0.010831719
000040 e6 46 23 3c 0a fc b4 3c 93 a2 b6 bb 94 a4 80 bc
       0.009965634 0.022092838 -0.0055735796 -0.015703477

ntm.controller.lstm_h_bias f4 [2, 1, 100]
000000 e7 63 db bd 29 b9 f0 bd db 4d 18 3d 9c 02 6c 3c
       -0.10712414 -0.117540665 0.037183624 0.014404919
000010 fb a6 07 be 76 52 bc bd 95 91 28 bd e3 bc 68 3d
       -0.13247292 -0.09195416 -0.041154463 0.05682076
000020 9f 0a 15 3e 3f d6 81 bb 9f 8a 3f 3d 18 81 fe 3d
       0.14554833 -0.0039623077 0.04676306 0.124269664
000030 f2 f8 f4 b9 ec 5d 16 3d f3 10 c4 bd 51 0a 17 3e
       -0.00046724785 0.036710665 -0.09573545 0.14750029
000040 43 6b 15 be 1e db c5 3c b1 52 85 bb 0d 3e bd 3d
       -0.14591698 0.024152335 -0.0040686955 0.09240351
000050 b6 20 71 bd 50 fd 17 3b ae 59 82 bc 26 7e 1d 3d
       -0.058869086 0.0023191758 -0.015911903 0.038450383
000060 1e 2b e7 bd 4e bd c4 bd ad 68 81 bd 45 1a 02 be
       -0.11287521 -0.096064195 -0.063187934 -0.12705334
000070 eb 10 97 3d 01 de b7 3d b3 26 90 3e d8 2a b7 bc
       0.07376274 0.08977891 0.28154525 -0.022359297
000080 07 a4 8a ba f6 34 b2 3d 29 35 68 3d 79 f9 a4 bd
       -0.0010577448 0.08701508 0.056691322 -0.08055396
000090 bd 01 26 3d ee 06 40 bd 07 0e 1d bd 96 ef 2f bd
       0.040529 -0.04688161 -0.038343456 -0.042953096
0000a0 d9 60 1f 3e 39 e7 82 3e d0 24 5d 3d d9 37 a3 3c
       0.15564288 0.25567034 0.053990185 0.019924091
0000b0 1d 61 f6 bd cb a0 44 3e 41 ae a1 3d 58 0a 2a bd
       -0.12030242 0.19201963 0.078945644 -0.04151377
0000c0 18 57 05 be e6 e3 fb 3d 69 91 09 be 1a 28 02 be
       -0.13021505 0.122993276 -0.13434376 -0.1271061
0000d0 4a f1 fd 3d 1e 28 fe 3d e6 ae 44 3d 1b b7 b9 3d
       0.12399538 0.124099955 0.04801836 0.09068128
0000e0 8c 34 cd bc fa 68 4d 3e b6 f7 f7 3d 1d 87 4a be
       -0.02504947 0.20059577 0.12107794 -0.19778104
0000f0 5d 1b de bd 07 ff b4 bd f8 c0 ff 3c e7 67 e2 bd
       -0.10845063 -0.08837705 0.031219944 -0.11054974
000100 45 05 a0 bd 1c 21 7d 3d 49 88 21 bd e6 ac 9d 3d
       -0.07813505 0.061799154 -0.039436612 0.076989934
000110 a4 35 5f bd 47 c6 2e 3d e6 dc f3 3c f0 99 46 3d
       -0.054494515 0.04266956 0.029768419 0.04848665
000120 3c e0 ce 3c 66 2a 6b 3e 7b c0 83 3d bc 63 a3 3d
       0.025253408 0.22965392 0.06433197 0.07978007
000130 57 5b 9f 3d 74 24 df 3d 04 69 9e 3d 69 a3 10 3e
       0.077810936 0.10895625 0.07734874 0.14124836
000140 31 82 89 bd f6 ec f4 3d c0 19 3f 3e 58 68 f5 3d
       -0.06714285 0.11959259 0.18662167 0.119827926
000150 61 df a9 bc d0 57 9c bd 7d f8 1f 3d 32 1f 8c 3d
       -0.020736398 -0.076339364 0.039055336 0.068418875
000160 54 02 0f 3e 57 3d 63 3d c6 fe d4 3c d0 84 8f bd
       0.13965732 0.05547842 0.026000392 -0.07007754
000170 6f f1 60 3d 97 e7 a5 3d 1f b1 b9 bc 77 a1 18 3e
       0.05491775 0.08100813 -0.022667466 0.14905344
000180 59 3f 21 3d e9 fb 9d 3d 7a 65 6d 3d 55 4a e8 3d
       0.039367054 0.07714064 0.057958104 0.11342303
000190 ec 28 4a 3d 9d 45 92 bc 4d 0e 37 bd 17 93 56 3c
       0.049355432 -0.01785546 -0.044691373 0.013096592
0001a0 2d cf 37 3b 1b 29 a9 bd a8 03 aa 3d fb 6f 89 bd
       0.002804707 -0.08259793 0.083014786 -0.06710812
0001b0 19 85 d5 3d c1 47 cf bd a9 e4 82 3c 3b ad eb bd
       0.10425777 -0.10121108 0.015978174 -0.115076505
0001c0 4b 78 4e 3d 38 42 1e 3e 2e a6 b9 bc 1e e7 02 3e
       0.05040769 0.15454948 -0.022662248 0.12783477
0001d0 79 5a a3 3d 86 f0 9c 3d 15 58 a8 3d 26 57 ed 3c
       0.07976241 0.07663064 0.08219925 0.02897222
0001e0 41 6d 24 bc 4e 51 79 be f1 34 c2 3d 84 cf c8 3d
       -0.010035814 -0.24347422 0.09482754 0.098052055
0001f0 db e6 9e 3d 15 cd c7 bd 12 49 28 3e b2 94 ad 3d
       0.07758876 -0.09755913 0.16434124 0.08475627
000200 e9 91 c2 3d 82 02 1b bd 31 14 35 3d 83 67 0a be
       0.095004864 -0.03784419 0.04420871 -0.13516049
000210 77 0f 12 be 82 02 ee 3c 76 35 0b be 7e d3 23 bd
       -0.14263712 0.02905393 -0.13594612 -0.039996617
000220 ef 6a f1 3d 39 3b ff 3c 33 40 bb bc 5d c8 f9 3d
       0.11787974 0.03115617 -0.022857761 0.121964194
000230 46 cf e9 3b 9d dc 57 3d 6a aa 2c bc f0 e6 56 bc
       0.0071353046 0.052700628 -0.010538677 -0.013116583
000240 7e e2 c9 bc 49 81 18 3e 2b af 0b 3d 97 0a 21 be
       -0.024644133 0.14893068 0.0341026 -0.15726696
000250 c1 f7 b0 3d f4 88 23 3e fd a7 3b bd 7f 70 c0 bc
       0.08641005 0.15970212 -0.045814503 -0.023491142
000260 a9 6f 49 be 08 57 86 3d 86 30 57 3e 20 5e fd 3d
       -0.19671501 0.06559569 0.21014604 0.123714685
000270 e7 06 0d 3b 45 e5 82 bc ab 4e 98 3d 73 29 b6 bd
       0.0021519007 -0.015978465 0.0743688 -0.088946246
000280 73 de db bc 31 9b fc bd 6a 31 97 3b 9e bf ea 3d
       -0.02683947 -0.12334288 0.004614045 0.11462329
000290 36 8a b5 bd 99 d5 1c be f2 57 0a bc de 1a 27 be
       -0.08864252 -0.15315856 -0.008443819 -0.16318843
0002a0 bd e8 9b 3d 79 3d 8a 3c 20 b6 04 3e 6d 47 c6 3d
       0.07612751 0.016875016 0.129601 0.09681592
0002b0 02 a2 d7 3b b5 85 39 bd 6e 14 00 be f3 11 02 3a
       0.006580592 -0.04529353 -0.12507793 0.0004961781
0002c0 dd 40 90 3d e3 e6 d3 bb 22 e6 4c be 1f 24 c5 3c
       0.07043622 -0.006466733 -0.20009664 0.024065075
0002d0 3e 53 9b 3d 13 ac 46 3e 1e 3d 85 bd 88 21 99 bd
       0.075842366 0.19401579 -0.06505798 -0.07477099
0002e0 ca 60 93 bd 25 09 0f bd 4f 34 16 be 36 b6 d8 3d
       -0.071961954 -0.03492083 -0.14668392 0.10581629
0002f0 b7 cf 32 3e e0 e6 24 3e 7f d8 72 bd ae af 0f 3e
       0.1746205 0.16103697 -0.059288498 0.1403186
000300 6a 6b a7 bd 3c 59 79 3d 6a b7 21 bd 78 18 2c bd
       -0.081747845 0.060876116 -0.039481558 -0.042015523
000310 3e 88 72 bd dc 90 05 bd 73 c4 cd bc 0b b7 aa 3d
       -0.059211962 -0.03260885 -0.025118088 0.08335694

ntm.controller.lstm_c_bias f4 [2, 1, 100]
000000 42 cc 8b 3d d8 b7 60 be 7c 1f e4 bd 32 86 02 3e
       0.068260685 -0.21945131 -0.11138818 0.12746504
000010 21 0f 93 be 94 a2 d8 bd b3 b6 9a bc 25 22 62 bd
       -0.2872248 -0.10577884 -0.018885946 -0.055208344
000020 4d 43 aa 3e 74 33 a7 3b d6 80 26 3d 6c 63 45 3e
       0.3325447 0.0051025692 0.04065021 0.19276208
000030 87 21 3c 3d 12 d8 95 3d da 0b aa bc ef d1 57 3c
       0.04593041 0.07316603 -0.020757604 0.013172611
000040 e8 a1 d1 bd 46 7f 03 3e 6e 36 8c bd 60 8c 96 bd
       -0.10235959 0.1284152 -0.06846319 -0.07350993
000050 0d b8 13 be df 65 80 bc 06 2b 9b 3d 6d 9b 71 3d
       -0.14425679 -0.015673576 0.075765654 0.058986116
000060 53 51 09 be 17 7d 6c 3d 88 73 25 3e 45 0d 1f be
       -0.13409929 0.057736482 0.16157353 -0.15532406
000070 87 df 2c 3d 56 c5 5a 3b 52 8a ce 3e ce 59 d6 bc
       0.04220536 0.0033381782 0.40339905 -0.02616587
000080 0f 7d 6a 3d aa df 4a be af f7 ec 3c 4a 83 a1 bd
       0.05724817 -0.19811884 0.028926698 -0.078863695
000090 2f 90 c9 3c 5f c4 e9 bd 99 36 04 3d f2 06 50 be
       0.024604885 -0.11414408 0.03227863 -0.2031515
0000a0 07 f5 0c 3e 9d c2 5e 3d bf cb 65 3e 05 bb a5 bd
       0.13765346 0.054384816 0.22441004 -0.08092312
0000b0 43 0c 1c be dc fc 62 3e 91 95 11 3e 02 98 f7 bd
       -0.15239052 0.2216677 0.14217211 -0.1208954
0000c0 d6 e5 9e bc 3a 64 93 3c d5 8d 00 be c4 88 a7 bd
       -0.019396704 0.017992128 -0.12554105 -0.08180383
0000d0 37 e2 4b 3d df a2 88 3d 36 98 ef 3d 7f 39 a2 3c
       0.049776282 0.0667169 0.11698954 0.019802807
0000e0 cf 56 bd 3d 10 7e 17 3d 40 9b 0d 3e 62 8c 1a be
       0.09245073 0.036985457 0.13828754 -0.15092614
0000f0 c4 a2 53 be 48 dc 94 bc 96 36 0b be 66 05 80 bd
       -0.20667559 -0.018171445 -0.13595042 -0.0625103
000100 5f b5 6c bb 9b 36 17 3d 12 ba 36 bd 3a a6 ec 3d
       -0.0036118848 0.03691731 -0.044611044 0.11555143
000110 28 57 12 b9 b3 a4 97 bd 2b e5 cd bc fe 11 e3 3c
       -0.00013956113 -0.07404461 -0.02513369 0.02771854
000120 1a 49 05 3e e3 4f 96 bd d1 1f 49 3e fb cd b8 bd
       0.13016167 -0.07339456 0.19641043 -0.09023663
000130 fc 29 9e 3d 69 a2 44 3e 58 b4 5b 3d 27 5b 5c bd
       0.07722852 0.1920258 0.053638786 -0.053797867
000140 9c 4b 08 3d ad 51 01 3d f5 12 8a 3e 53 d6 cf 3c
       0.03327523 0.031572033 0.26967588 0.025370752
000150 c2 02 3b 3c 46 5b 04 be a8 02 6a be 08 5c 16 bd
       0.011414232 -0.12925443 -0.22852576 -0.03670886
000160 c3 35 60 3d 9a b4 d6 3d 06 c2 12 3e 7f 84 af bd
       0.05473877 0.10483666 0.14331827 -0.085701935
000170 a2 98 83 bd 88 6a ac bc a3 ba cb 3c e4 3c 01 3e
       -0.06425597 -0.021046892 0.024869269 0.12620884
000180 70 f5 cc 3d 6d cd de 3d 53 26 fa 3c 86 6f 00 3e
       0.10007751 0.108790256 0.030535853 0.12542543
000190 f5 98 4b 3e 21 87 38 3c 30 0f b7 ba b1 06 18 3e
       0.19882567 0.011262686 -0.0013966318 0.14846303
0001a0 c2 fc 76 3d 79 58 8b bd a8 7b ef 3d a9 c1 06 3d
       0.060299642 -0.06803984 0.116935074 0.032899532
0001b0 38 34 43 3e 78 ce 3e be 9a 9e e7 3d e3 ae 0a be
       0.19062889 -0.18633449 0.11309548 -0.13543276
0001c0 11 f5 55 3d 77 9d c2 3c 31 ba 26 be ea 5a 9f 3d
       0.052235667 0.023756726 -0.16281964 0.07781012
0001d0 8e 4a 50 3e 45 07 b1 3d 37 dc 5e bd 96 0d c8 bc
       0.2034094 0.08643965 -0.054409232 -0.02442054
0001e0 7b 15 53 bd 46 13 65 be 30 b9 5f bc 87 17 81 bb
       -0.051534157 -0.22370633 -0.013654992 -0.0039395723
0001f0 ab 7c a4 ba 87 9c 80 3d c2 ed 9f 3d 9c ec cd 3d
       -0.0012549361 0.06279855 0.078090206 0.10054895
000200 43 32 44 3e 1a 69 82 bd e7 64 16 3d a5 96 0b be
       0.19159798 -0.06367703 0.03671732 -0.13631685
000210 ab 4e 3a 3e 47 ea 8f 3a c8 ab 41 be 54 35 85 3d
       0.18194072 0.0010979854 -0.18913186 0.06504312
000220 da 5d 1e bb 55 4e b2 bd 05 f4 da bc 9c 7e 6a 3d
       -0.0024164827 -0.08706347 -0.026727686 0.05724965
000230 4f 72 91 bc d3 76 ca bc ff 03 13 be 83 62 87 3d
       -0.017754702 -0.024714863 -0.14356993 0.066105865
000240 48 af 8c bc b9 c1 e7 3d c4 ab 03 be 63 45 b1 bd
       -0.017173424 0.113162465 -0.12858492 -0.086558126
000250 1b c8 b7 3d 3e 4a f0 3d fd 57 21 be bf 7f 66 bd
       0.08973714 0.117329106 -0.15756221 -0.056274172
000260 18 71 1a be 60 d4 17 be 7f 09 8c 3d c3 80 59 3a
       -0.15082204 -0.14827108 0.06837749 0.000829708
000270 37 b8 9c 3d d2 29 cb 3d 5c 25 33 bc 8d 34 0a 3c
       0.07652324 0.09920086 -0.0109342 0.008435381
000280 dd 07 05 bd 8d 8c ec bd f5 52 e6 bc 66 44 e8 3c
       -0.032478202 -0.115502454 -0.028115729 0.028352927
000290 99 c8 ec 3b 3b f9 18 be 24 cd bc 3d be f2 50 be
       0.0072260615 -0.14938824 0.09218815 -0.20405099
0002a0 03 2c 97 3d 52 94 d7 3c db 62 47 3e 4f 18 5a bd
       0.073814414 0.026315842 0.19471304 -0.05324584
0002b0 63 a6 01 3c ee 98 cf bb c3 07 f7 bd 72 6b 66 bd
       0.007913205 -0.0063353693 -0.12062027 -0.05625481
0002c0 4e 6f a7 3d 79 11 b4 3d 2a 00 fd bd 65 0f 0d 3d
       0.081755266 0.08792395 -0.12353547 0.03443851
0002d0 e4 32 3d 3d 76 9d 45 3e 83 9b cb 3d 9f 60 5e 3d
       0.04619111 0.19298348 0.09941771 0.054291364
0002e0 0c a8 a3 bd 85 8d 59 3d 09 92 cc bd ce fb 11 3d
       -0.07991037 0.05311348 -0.099887915 0.03564053
0002f0 5e 4c 24 bd 29 2e 08 3e ed c3 91 bb b6 d6 3f 3d
       -0.040111892 0.13298859 -0.004448405 0.046835624
000300 72 d5 2f 3d 31 6c 03 3d a7 0e 37 bc fe 51 c7 ba
       0.042928167 0.0320856 -0.011172927 -0.0015206931
000310 91 46 80 be 34 a0 65 bc a7 dd e6 3d c4 5c 0e 3e
       -0.25053838 -0.014015246 0.112727456 0.13902575

ntm.controller.lstm.weight_ih_l0 f4 [400, 110]
000000 d5 57 2e be d8 9f 94 3d 29 64 2e 3e a9 70 be be
       -0.17025693 0.0725705 0.17030396 -0.37195328
000010 50 cd 96 3e 1d aa 90 3d 07 ca 52 be eb 13 25 3c
       0.29453516 0.070636965 -0.2058488 0.01007555
000020 e6 c7 a9 be 58 9d d0 3f 81 27 2a 3e 79 1d 7f be
       -0.33160323 1.6298018 0.16616632 -0.24913587
000030 83 59 94 bd cb de 95 be 9f 79 60 3e 5e b4 8c 3e
       -0.072436355 -0.2927154 0.21921395 0.2748136
000040 97 8f d2 3a e2 6a bc 3d 75 14 4c 3e 94 93 71 be
       0.0016064522 0.09200074 0.19929679 -0.23591453
000050 eb c6 4c 3e 55 9e fb 3d 02 bf 5d 3e ad 32 38 3e
       0.19997756 0.12286059 0.21654895 0.17988081
000060 1e 03 fc bd 97 f1 5b bb 51 9e cb be 9a 8a f7 3d
       -0.12305282 -0.0033560747 -0.39769223 0.12086983
000070 da 63 ac 3e c9 d1 88 bd 99 7c c5 3e a3 45 ab bd
       0.3366993 -0.06680638 0.38571623 -0.083628915
000080 01 ed 6f 3e 0e 84 bd 3d d8 75 4a 3e a9 b1 20 3e
       0.23430254 0.09253703 0.19771516 0.15692772
000090 d3 d0 ac be f3 79 91 bd 00 ba 0c 3d 1f bf c5 3d
       -0.3375307 -0.07103338 0.03435707 0.09655594
0000a0 1e 14 ea 3d 5f 00 af be 97 8c a2 bd 7b 41 7e be
       0.11429618 -0.3417997 -0.07936972 -0.24829666
0000b0 ca 38 67 be b7 cc 1a 3e 68 01 b2 3d 01 73 ef 3d
       -0.22580257 0.15117155 0.086916745 0.11691857
0000c0 f3 d5 90 3e de e7 07 3e f0 7a c2 3e ec 43 b0 ba
       0.2828823 0.13272044 0.3798442 -0.0013447977
0000d0 72 24 4d 3e 7b ee 26 be 95 3f 0a bd 16 65 0d 3e
       0.20033434 -0.1630191 -0.033752043 0.13808092
0000e0 75 4b 2c bd 4f 47 ad be 7b b1 9f 3c dd 60 91 be
       -0.04206415 -0.33843467 0.019493809 -0.28394213
0000f0 05 38 89 bc 12 1b a7 3d d5 28 4f 3b 5b 92 30 be
       -0.016750345 0.0815946 0.003161003 -0.1724333
000100 68 59 df bc 96 6c 14 3c 97 d4 92 bd 56 7a fd 3d
       -0.027264312 0.009059092 -0.071694545 0.12376849
000110 26 b1 c5 be 7b 7b a6 bc 37 8f 50 3e 6a 32 fc bd
       -0.38611716 -0.020322552 0.20367132 -0.12314303
000120 cd 5c 0f 3e 63 76 46 3e ae 4b 9e 3d 24 1b f0 3d
       0.14000244 0.19381098 0.077292785 0.11723927
000130 ea 5f 26 be be dd 94 be bf 17 9b be 7b bf 3c be
       -0.16247526 -0.29075426 -0.30291554 -0.18432419
000140 82 d8 ac 3d 7b 06 cf bc ee 11 c4 3e a0 8f 82 3d
       0.08439733 -0.025271645 0.3829493 0.063750505
000150 f0 2d 6e 3e 9d 0a bf 3e fe b3 3b be 02 87 21 3e
       0.23259711 0.37312785 -0.1833038 0.15774158
000160 08 a1 a4 3d 96 cb a8 3c 44 ff 3d 3d 3b ae bc 3e
       0.08038527 0.02060489 0.04638602 0.36851677
000170 ba cb 31 be 3d fd d7 3c c0 65 5b 3d 0a 6b ee bd
       -0.17362872 0.02636587 0.053563833 -0.1164151
000180 0c b9 4d be ec a8 5c 3e 26 93 4c 3e c0 f0 26 bd
       -0.20090121 0.21548814 0.19978008 -0.04075694
000190 89 08 ff bd 71 7c 85 3e 1a 48 d6 3e da 71 14 3e
       -0.124528 0.26071504 0.41851884 0.14496556
0001a0 3c ac bf bb fb 2b f3 bd 9d 35 a5 3c cb 83 bb 3e
       -0.0058493894 -0.11873623 0.020167166 0.36623988
0001b0 ce c0 29 be e2 65 6c 3e c9 61 38 3e 90 de cb 3e
       -0.16577455 0.2308574 0.18006052 0.3981824
0001c0 71 8d b6 bd 11 67 0b 3e d0 bb 92 be 2b e2 37 3e
       -0.089136966 0.13613535 -0.28658915 0.1795737
0001d0 92 08 99 be 1a 99 4f 3e ba 16 68 3e 6c 7d 12 bf
       -0.2988935 0.20273247 0.2266492 -0.5722263
0001e0 56 f4 08 be 7a 59 96 3e ef aa 85 3e 7b 79 80 3d
       -0.13374457 0.2936514 0.26106974 0.062731706
0001f0 2f 52 48 3e c1 51 9e 3e 38 81 27 3e 02 f6 8e 3d
       0.195626 0.30921748 0.16357887 0.06980516
000200 07 f4 51 bc b3 31 09 3e b8 0f b1 3e d7 40 43 3e
       -0.012814528 0.13397865 0.34582305 0.19067703
000210 57 54 32 3e d4 90 9f 3e 59 91 18 3e 17 af 86 3e
       0.17414986 0.31165183 0.14899196 0.26305458
000220 f3 56 e4 3e 27 16 25 3d c2 20 8a be 3a ea bb be
       0.44597587 0.04030433 -0.26978117 -0.36702138
000230 b1 0e 7c bd c9 9e 8e 3e 97 6e 9a 3e e7 bc f4 3d
       -0.06153745 0.27855518 0.30162498 0.11950093
000240 80 e7 4d 3e 5a b8 2e 3e d4 5b 8d be 9b d6 c1 3e
       0.20107841 0.17062512 -0.27609122 0.37859043
000250 f3 5b b0 be 59 e0 9f bc 5f e7 10 be db c3 be 3e
       -0.34445152 -0.019516157 -0.14150761 0.372588
000260 9a 57 fa bd 54 16 3b be 9f 2a 88 bd 64 a3 88 3e
       -0.1222374 -0.18270236 -0.06648754 0.26687157
000270 9f ab 68 be 1c e6 e3 3c 7a 58 9b be 8f bd 9c be
       -0.22721718 0.027819686 -0.3034094 -0.30613372
000280 f9 36 93 3c 6f b2 88 3e 23 f0 5f be 91 dc 1a 3e
       0.017970549 0.26698634 -0.21868949 0.15123202
000290 3e 81 db 3d 77 72 95 3e b7 e5 7d 3d c2 fc 05 be
       0.1071801 0.29188892 0.06198665 -0.130847
0002a0 61 80 ba 3c b5 f9 33 be ee 18 91 3d 30 dc 95 3e
       0.022766294 -0.17575724 0.07084833 0.29269552
0002b0 a2 53 fa bd cb 61 2c 3e 5f 27 b3 be 3d d2 1d 3d
       -0.12222983 0.1683418 -0.34990975 0.038530577
0002c0 1c c5 bd 3e e5 00 d0 bc b6 2e 5b 3e 32 38 80 bc
       0.37064445 -0.025391052 0.21404538 -0.015651796
0002d0 12 d8 15 3e 3a 25 86 3e e9 c8 00 3e 6f ec b1 bd
       0.14633206 0.26200277 0.12576641 -0.08687674
0002e0 aa de 81 3e 20 b2 01 3f c5 91 34 3d 12 9a da 3e
       0.25365192 0.5066242 0.04408433 0.4269567
0002f0 2d 9a 4f 3d c1 69 8f be d0 28 00 be 64 d9 de 3e
       0.050684143 -0.2801037 -0.12515569 0.4352523
000300 95 54 a1 3b 7e 00 c9 be ff a1 72 3e ed e9 af 3e
       0.004923413 -0.39258188 0.23694609 0.3435816
000310 6f 4a 4e be 35 0c a2 be 50 cf 17 be 3b 16 dc be
       -0.20145582 -0.31649938 -0.14825177 -0.4298571
000320 7c 01 34 3e 28 6e 98 3e 06 25 b7 bc 8c 34 58 be
       0.17578691 0.29771543 -0.022356521 -0.21113795
000330 d3 2f 47 be 97 3c 4f be e5 10 20 3e 44 d4 c1 3d
       -0.19451837 -0.20237957 0.15631445 0.094643146
000340 34 7b b7 bd 88 41 d1 be 2d 92 57 3e ef ba da 3d
       -0.08959046 -0.4087031 0.21051855 0.10680186
000350 a8 88 20 3e 00 a2 c8 be 45 16 eb 3d c8 50 46 3e
       0.1567713 -0.39186096 0.11478857 0.19366753
000360 29 89 91 3e 1c cc 93 be d2 28 bd be e2 3c 7b bd
       0.28424957 -0.2886666 -0.36945206 -0.06133736
000370 c9 9b 96 3d f2 2a 86 be ee 9e 6b bc f2 e5 2f 3f
       0.073539324 -0.2620464 -0.0143811535 0.68710244
000380 dd b6 c7 bd dd 7c 14 bf b1 ec 99 bd 1e 2e 95 be
       -0.09751675 -0.58003026 -0.075158484 -0.29136747
000390 eb 83 35 3f 09 3d 83 3f fb 18 b2 3d 15 25 c8 be
       0.70904416 1.0253001 0.08696171 -0.3909079
0003a0 1b b5 bc be e3 c6 3d 3e ba 29 19 be f9 92 60 be
       -0.36856923 0.185329 -0.14957324 -0.21931066
0003b0 c7 f5 3a 3d 3d f0 c1 bc 7f 68 cd bd c8 f4 41 bc
       0.045644548 -0.023674125 -0.10029697 -0.011838146
0003c0 64 83 ca be e5 05 fc 3d 72 c1 4d be 66 87 0e bd
       -0.39553368 0.12305812 -0.20093325 -0.034797095
0003d0 25 2f 69 3d 0b b5 fb 3d 95 1e 53 be 4e ce 2c 3e
       0.056929726 0.122903906 -0.20617135 0.16875574
0003e0 42 23 05 3e a9 80 8d 3e 95 cb b4 3c f2 1e 9c be
       0.13001731 0.27637222 0.022069732 -0.3049236
0003f0 c8 9f d5 bc 09 34 d0 3d 97 61 7c 3e 81 f3 9e bd
       -0.026077166 0.10166175 0.24646603 -0.077612884

ntm.controller.lstm.weight_hh_l0 f4 [400, 100]
000000 f9 15 9f be 7f f9 bd bd 79 6e 11 bd a3 28 31 3e
       -0.3107145 -0.09276103 -0.035505746 0.17300658
000010 a7 f5 f3 3b 35 0c b7 bd 8b b2 20 be ae ed 89 3e
       0.0074450555 -0.08937875 -0.15693109 0.26939148
000020 77 2b 37 bd ed 19 43 3e da 8f 5a 3e ff 40 ab 3d
       -0.044719186 0.19052859 0.21343938 0.083620064
000030 a5 57 3f be b0 f4 77 be 39 97 54 3e 52 1e 13 bd
       -0.18685777 -0.24214435 0.20760812 -0.035917588
000040 aa c8 cb bd 88 88 0c 3e b6 f9 67 bd 18 15 8f 3e
       -0.09950383 0.13723958 -0.056634627 0.2794578
000050 78 4b 86 be 77 b1 3f be 84 97 ae bd 2f fe d7 bd
       -0.26229453 -0.18720041 -0.08524993 -0.105465285
000060 8d de 75 be a5 95 d8 3d fc 13 09 bd 7b 61 bb bd
       -0.24010678 0.105754174 -0.033466324 -0.09149452
000070 87 44 bc 3a 6b e4 16 3e 0f ac 68 3e b8 d7 d8 be
       0.0014363684 0.14735572 0.22721885 -0.4235208
000080 ab 08 de 3d 6f 78 7a be 37 ed 17 3e 7f 48 82 be
       0.10841497 -0.24460004 0.14836584 -0.25445935
000090 2e 4e f7 3e 6f 38 53 be 92 62 ff bd 69 87 4c 3e
       0.48301834 -0.20626996 -0.12469973 0.1997353
0000a0 32 12 6d 3e b5 e5 bf 3e 94 b7 97 3e 84 99 a2 be
       0.23151472 0.3747994 0.29632246 -0.31757748
0000b0 41 08 ac be 42 b5 de bd b5 03 1e 3c d3 fe 02 3f
       -0.33600047 -0.10874416 0.0096444385 0.5117008
0000c0 10 1d 44 be de b5 b3 be 84 7e d0 3d 5f 93 af be
       -0.19151711 -0.3509969 0.10180381 -0.34292123
0000d0 d8 9c 1e 3e 4a 46 97 3d 8c 12 de 3e 2f e7 cc be
       0.15489519 0.073864534 0.43373525 -0.4002013
0000e0 55 66 5c 3e 16 79 98 3c bb 57 ec bd ad 49 25 3d
       0.21523412 0.018612426 -0.11540171 0.040353466
0000f0 e2 39 0a 3e a8 ca 3a ba 93 7d 6a be 70 b3 e2 3d
       0.13498643 -0.0007125535 -0.22899465 0.11069381
000100 0b 79 9b be e6 f3 9d 3e 8c a8 a4 be 84 da cd bd
       -0.30365786 0.30850142 -0.3215984 -0.10051444
000110 72 50 31 be 08 79 db 3d 39 d1 67 3e a1 48 47 be
       -0.17315844 0.10716444 0.22638406 -0.194613
000120 03 ef 8f bd 7d a9 ee 3e 72 51 ba 3e 98 42 d7 be
       -0.0702801 0.46613684 0.36390263 -0.42042994
000130 c9 0a 2c be d2 4b dd bc 75 1e 28 3e 8f a1 21 3e
       -0.16800989 -0.027013693 0.16417868 0.15784286
000140 f3 f7 68 3e ef 3f f3 3e cd d7 4e 3e ff 74 45 be
       0.22750835 0.47509715 0.20199509 -0.19282912
000150 29 cc a4 be 6d 1f 5a bd da 9d 28 3e ab 43 4d bd
       -0.32187012 -0.053252626 0.16466466 -0.05011336
000160 37 d9 b0 be bb 4b 54 3e e2 63 71 3e 82 cf 53 3e
       -0.34540722 0.20732014 0.23573259 0.20684627
000170 05 04 f6 bd 0f b9 23 3e 4c e5 6b 3d 6f 3f c2 3d
       -0.120124854 0.15988563 0.05759172 0.09484755
000180 6c 18 cb be ef 3a 1b 3e fa f0 35 be a2 72 42 bd
       -0.3966707 0.151592 -0.17767707 -0.047472604
000190 53 7d cb be fa d8 07 bd d6 15 d5 3e 2c 22 ab bd
       -0.39744052 -0.03316591 0.41618222 -0.08356127
0001a0 81 bf ce bd 82 b0 14 3e a5 fa 84 3d ac e6 54 3e
       -0.1009512 0.14520457 0.06493119 0.2079112
0001b0 87 ce cd 3d f1 5f 57 be 31 07 8a be c9 fd b9 3d
       0.100491576 -0.21032692 -0.26958612 0.09081609
0001c0 82 7a 3d 3e 89 61 4d bd 71 01 fe be 5a 49 af 3e
       0.18503764 -0.050141845 -0.49610475 0.3423565
0001d0 7d e5 b7 be 11 0e 40 be fe f8 af be 26 7a 70 bd
       -0.35917273 -0.18755366 -0.34369653 -0.05871024
0001e0 ae fe 74 be 80 00 b5 3e 48 31 86 3e 6b 60 80 3e
       -0.23925278 0.35351944 0.26209474 0.2507356
0001f0 1d 37 e8 3d e0 8d 50 be 09 95 87 3d e5 94 78 3d
       0.11338637 -0.20366621 0.06620223 0.060688872
000200 87 2a 63 bc 80 4f 8c be 4c f6 77 be 64 55 de bd
       -0.01386512 -0.27404404 -0.24215049 -0.10856131
000210 b6 bc 38 3c 33 55 ab 3e 2b 8a 9b 3e d0 da 2f be
       0.011275461 0.3346344 0.3037885 -0.17173314
000220 02 f9 68 be e6 c0 a8 3d 2a 08 52 be 04 fb 86 be
       -0.22751239 0.082399175 -0.20510927 -0.26363385
000230 e1 7d c0 bd 7c ed b6 3e d1 5d 97 be 7e e2 66 be
       -0.093990095 0.3572806 -0.29563764 -0.22547337
000240 24 12 cf 3d bb fd 36 be 12 a7 c1 3e ce 74 09 3e
       0.10110882 -0.17870228 0.37822777 0.13423464
000250 40 67 a5 3e 1a 84 cb bd 3d 86 23 3e 2d 2f 74 be
       0.32305336 -0.09937306 0.15969177 -0.23846121
000260 be 4c d0 bd 8b 4e b2 3e 86 ab 13 3e e7 2d 3c be
       -0.101708874 0.3482555 0.144209 -0.18376885
000270 f3 73 87 be 8f 2c 93 be 7d f0 35 be 80 cd b6 be
       -0.2645565 -0.28744933 -0.1776752 -0.3570366
000280 bf fc 02 be 5f b4 ad 3d 7c 24 a4 bd 04 6c ac 3d
       -0.12791727 0.08481669 -0.08014771 0.0841904
000290 e9 22 62 be 6c 3a 3f bd 2b 2a ee be ec 9b 9b bd
       -0.2208363 -0.046686575 -0.46516547 -0.07598099
0002a0 b9 65 a6 be dc b5 b3 be b7 ea 86 be bd 8f de 3d
       -0.32499483 -0.35099685 -0.26350948 0.1086726
0002b0 c2 61 a8 be fe d0 45 3b c8 1d c0 bd 2a b0 e9 3e
       -0.32887083 0.0030184384 -0.0938068 0.45642215
0002c0 24 fd 8a bd 74 35 c8 3e 64 93 5c 3e 65 b8 81 3e
       -0.06786564 0.39103281 0.215406 0.25335994
0002d0 64 46 66 3e 6e 7c a0 be 8c e1 ec 3d 66 a4 cb 3e
       0.2248779 -0.31344932 0.11566457 0.39773864
0002e0 14 8e a1 be 69 42 1b be 8c 0c 11 be e8 ca e0 bd
       -0.3155371 -0.15162052 -0.14164943 -0.10976201
0002f0 fa d9 6c 3b b5 63 aa 3e 9a 58 34 3e d2 02 83 3e
       0.0036140666 0.33279195 0.17611924 0.2558809
000300 15 b7 05 be 0c 25 a5 bd af 37 eb bd 29 5f 2d 3d
       -0.13058122 -0.08063707 -0.1148523 0.04232708
000310 46 27 87 bd 32 db 9e 3d 42 16 7d be 73 c3 d9 3e
       -0.06599288 0.07756652 -0.24715522 0.42531928
000320 d5 5e ec 3e 9b c7 50 3e bf cd de be ef 65 b2 bd
       0.461661 0.20388643 -0.43516347 -0.087108485
000330 9f d5 a9 be e3 32 c3 3c 82 2c 9f be 8f 78 09 bd
       -0.33170792 0.023827976 -0.31088644 -0.03356224
000340 cc 1f 88 3e 0b 04 0f 3e 63 55 cf 3e 42 e7 17 be
       0.2658676 0.13966386 0.40494832 -0.14834312
000350 8f 6b 4d 3e 20 43 8a be be 12 dc be df d7 d9 3e
       0.20060562 -0.27004337 -0.4298305 0.4254751
000360 e0 18 3d be 67 35 10 be 2f b3 4e be e6 56 b6 bd
       -0.1846652 -0.14082871 -0.2018554 -0.08903293
000370 cd d6 22 3e cf 92 37 3d 85 ef 1e 3e 5e aa ec 3d
       0.15902252 0.044817742 0.15521057 0.115559325
000380 41 93 6d 3e df 24 8d be 6d 29 3d 3e 9e f8 eb be
       0.23200704 -0.27567193 0.18472834 -0.46088117
000390 00 f3 fc 3c e6 47 65 3e 26 4a 83 3e de 81 48 3e
       0.03087759 0.22390708 0.25642508 0.1958079
0003a0 b8 c8 1d be c5 f2 25 3d e7 86 00 be 6e d2 a6 bd
       -0.154086 0.040514726 -0.12551461 -0.08145605
0003b0 51 58 1d be 65 55 ab 3e 89 00 81 3e 05 0e 21 3e
       -0.15365721 0.33463588 0.2519572 0.15728004
0003c0 ed fd d7 3e be 49 fe bc fe 7a aa bc 13 e8 05 be
       0.42185917 -0.031041022 -0.0208106 -0.1307681
0003d0 34 3f 6d be 63 14 ad 3e 0e b0 9a 3d 67 95 45 3e
       -0.23168641 0.33804616 0.07553111 0.19295274
0003e0 f6 3e f7 3d 08 ed d5 be 24 18 25 3e d9 9a 3a be
       0.12072556 -0.41782403 0.1612249 -0.18223132
0003f0 d6 48 56 3e 38 3b 03 be ca 9f 4c bd 55 e8 7f be
       0.20926222 -0.12815559 -0.049957074 -0.24990971

ntm.controller.lstm.bias_ih_l0 f4 [400]
000000 ca 00 3c 3d 42 3f e7 3d dc b0 cd bc 98 62 8b bd
       0.04589919 0.11291362 -0.025108747 -0.06805915
000010 37 27 2f be c8 e0 c2 be e0 86 00 be 4b ab 14 3c
       -0.17104803 -0.3806212 -0.1255145 0.009074043
000020 93 76 42 3d 1f 58 b2 bd 1e 2f 92 be ea b6 d5 bd
       0.047476362 -0.08708214 -0.28551573 -0.10435279
000030 a4 db 50 be 55 b9 4c be ed ec 5b 3b 4c 06 39 be
       -0.20396286 -0.19992574 0.0033557967 -0.18068808
000040 41 df 14 be fd 77 27 3d ce 71 52 be 0b 7d f2 bd
       -0.1453829 0.040885914 -0.20551226 -0.11840256
000050 f7 f2 61 3d 38 a9 12 bd 58 df b4 bd 63 6b 6c bc
       0.05516335 -0.03580591 -0.08831662 -0.0144299
000060 4d 00 42 3c 4b c3 64 3d 22 42 17 be ea e1 4f bd
       0.011840892 0.05585031 -0.14771321 -0.050752558
000070 3a 32 98 be 5e 3c 6f bd 00 cb 22 be a3 77 3f bc
       -0.2972582 -0.05840718 -0.15897751 -0.011686238
000080 5a e4 65 be c2 07 3b be d8 11 5b bd a4 19 6a bd
       -0.2245039 -0.18264678 -0.053483814 -0.05715336
000090 b2 a9 28 be 08 f0 c1 bd f8 a1 1b bd 19 79 9a be
       -0.16470984 -0.094696105 -0.037996262 -0.30170515
0000a0 83 6c d1 bd 0b cd 47 bd dd 84 39 be 98 33 7c be
       -0.10225775 -0.04877953 -0.1811709 -0.24629056
0000b0 5d 44 80 bd a6 4f fc bc bb 69 1b be 1e b6 e8 bd
       -0.06263039 -0.030799698 -0.15177052 -0.11362861
0000c0 97 8e 8c bd ab 4c 17 bb 24 3a 74 bd 97 47 eb bd
       -0.06863134 -0.002308647 -0.05962576 -0.11488264
0000d0 e9 77 f9 bd 4a f9 a8 bd e2 5f 2b be 13 2f 49 bd
       -0.12181074 -0.08250673 -0.16735795 -0.04911716
0000e0 af f6 95 bd 77 18 21 be 48 1d 63 be e4 a3 d7 bc
       -0.07322442 -0.15731989 -0.22179139 -0.026323266
0000f0 e6 14 51 3d 16 8a 52 bd 95 44 ae bd 58 55 d7 bc
       0.05104532 -0.05140122 -0.08509175 -0.026285812
000100 de 31 48 be 20 f0 25 be 44 d1 1b be 2e bf 84 3c
       -0.19550273 -0.16204882 -0.15216547 0.016204443
000110 56 91 14 be a0 80 14 be 36 48 f0 bd 28 a6 1d 3d
       -0.14508566 -0.14502192 -0.11732523 0.038488537
000120 cc 49 8e be 1c 94 3a be ab 44 3e be f1 2d a7 bd
       -0.27790678 -0.18220562 -0.18580882 -0.081630595
000130 3a 47 67 bd 3b 87 6b 3e a0 6c a5 3d 80 02 84 bc
       -0.05646441 0.23000805 0.08077359 -0.016114473
000140 4b 2c 21 be 0a c8 de 3d 8a 91 d9 bd 67 be bc bd
       -0.15739553 0.10877998 -0.106234625 -0.09216004
000150 87 da c6 bd ed a4 58 be 2f d0 e1 bd 3a d1 ca bc
       -0.097096495 -0.21156664 -0.11026036 -0.02475797
000160 13 ad 12 be d2 16 81 be 52 e0 0e bd 06 dd 4b be
       -0.14323835 -0.25212723 -0.034881897 -0.19908533
000170 8b f5 cf bd 34 a0 ca bd 0f 0f 79 3c 87 65 0f be
       -0.101542555 -0.098938376 0.015201344 -0.14003573
000180 93 f2 37 be f6 ca f1 bd 5d 9c be bd 75 17 2b be
       -0.17963628 -0.1180629 -0.09307168 -0.16708167
000190 96 72 18 be 7f 3a b9 3d ba 73 3d be d6 c0 5d bc
       -0.14887461 0.0904436 -0.18501177 -0.013534745
0001a0 d8 77 66 3e 41 71 9a be a8 bc a1 3c d1 24 54 be
       0.22506654 -0.3016453 0.019743279 -0.2071717
0001b0 92 7c 67 3d ae d5 8f bd 46 a7 bd 3e e1 bf a5 be
       0.056515284 -0.07023178 0.37041682 -0.32372954
0001c0 d4 83 a3 bd 16 17 ad be 8b cb 8c bd 12 a9 ed bd
       -0.079841286 -0.33806676 -0.0687476 -0.11604513
0001d0 de c4 c7 bd 7e ab 8c be e0 f3 07 be 1a 9c 9e 3c
       -0.09754346 -0.27474588 -0.13276625 0.019361544
0001e0 c3 dd 08 3e fd af 29 be 93 be 70 be 5c f2 86 be
       0.13365845 -0.1657104 -0.23510198 -0.2635678
0001f0 f6 12 29 bd 32 c2 55 be 81 38 21 be 01 00 6a 3c
       -0.04127785 -0.20874861 -0.15744211 0.0142822275
000200 19 58 fa bd 3a 0b e8 bd 83 20 4b 3e 87 b7 09 be
       -0.122238345 -0.11330266 0.19836621 -0.13448916
000210 af a7 4d 3e 86 6c 91 be 25 88 18 bd 92 19 59 be
       0.20083497 -0.2840311 -0.037239213 -0.2120116
000220 e1 27 76 be 3a 70 cb bc 09 32 af be 06 3a c4 be
       -0.2403865 -0.024833787 -0.3421786 -0.38325518
000230 68 1b d6 3d fb fa 43 bd 33 bc 04 be bd 1e 01 3c
       0.10454446 -0.047846776 -0.12962417 0.007880864
000240 a9 d4 42 be 3b 2f 15 3e 38 27 2a bd bf 07 3f bc
       -0.19026436 0.14568798 -0.04154131 -0.011659562
000250 98 22 b8 be 19 4f 2b be ba b1 51 bd ea 80 c0 be
       -0.35963893 -0.16729392 -0.051194884 -0.37598354
000260 9b ad 03 be da f4 3c 3c 98 aa 12 3e f8 0c 3a be
       -0.12859194 0.011532987 0.14322889 -0.1816901
000270 f8 7f 1f be 31 78 8f be 03 91 84 be b7 a6 25 be
       -0.1557616 -0.28021386 -0.25891885 -0.16176878
000280 8e 62 28 bd d3 e9 a3 bd 3a 25 22 be eb 65 74 bd
       -0.041109614 -0.08003583 -0.15834513 -0.05966751
000290 30 a7 27 be 63 e8 23 3d 25 21 44 be 65 e1 41 be
       -0.1637237 0.040016543 -0.19153269 -0.18933637
0002a0 3f 9a ad bd 7e 1a f0 bd b8 de dd bd 2e 26 2e be
       -0.08476686 -0.11723803 -0.10833496 -0.17006752
0002b0 95 0d 40 be 94 69 81 be c1 47 3f be 8c aa 56 3e
       -0.18755181 -0.25275862 -0.18679716 0.20963496
0002c0 db b3 88 bd a0 e4 46 3e 58 0c 43 bd 00 2d 1e be
       -0.0667493 0.19423151 -0.047619194 -0.15446854
0002d0 ba 00 96 bd a4 a0 9b be 7a 5e b1 3e 7c 13 a6 bd
       -0.07324357 -0.30395997 0.34642392 -0.08109185
0002e0 26 ab 4b be 4f ee 4f be cb 0e 97 bd 01 95 3a bd
       -0.19889507 -0.20305751 -0.073758684 -0.045552257
0002f0 f3 b1 d2 bd 86 72 a3 3d fa 0d b4 bd f9 ca 3d be
       -0.10287847 0.07980828 -0.08791728 -0.18534459
000300 25 b6 a0 ba 4e 66 3b be 94 9f 85 be 6c 2f 6b 3d
       -0.0012261315 -0.18300745 -0.2609831 0.057418272
000310 21 66 53 3e 05 4c a3 bd 1a de 41 be 59 20 06 be
       0.20644428 -0.07973484 -0.18932381 -0.13098277
000320 20 0a 73 3c 61 f6 32 be 90 55 e8 3c b5 a6 0e bb
       0.014833957 -0.17476799 0.028361112 -0.0021766846
000330 66 85 81 3c 3c c9 68 3d 6b 77 8b bd fb 2f 6d bd
       0.01581068 0.056832537 -0.068098865 -0.057907086
000340 3f c0 b4 3d e8 c6 ae bd 1f ac 2c bd f3 ec b1 3d
       0.088257305 -0.08534032 -0.042156335 0.086877726
000350 a2 b8 1f bd e9 95 f1 ba 29 bc ae 3c 4a f9 8d bd
       -0.03899444 -0.0018431518 0.021329956 -0.06932314
000360 a6 a1 1a 3c c7 a2 b1 3d 70 30 08 be 9f 27 2d bc
       0.009437954 0.086736254 -0.13299727 -0.010568528
000370 1e 4d 69 be d2 e3 6b bb 29 37 8d 3c 03 c2 82 bd
       -0.22783324 -0.0035993946 0.017238216 -0.06384661
000380 03 ae d4 bd 2b cb 7d bd d6 30 83 3c ed 2f fb bc
       -0.103847526 -0.061961334 0.016014498 -0.030662501
000390 87 50 24 bd 6f 1a 88 3c 83 b2 da 3d 4b 43 de bd
       -0.04011586 0.016614167 0.1067858 -0.10852679
0003a0 9c 1a 0a bd 6b 1b 3f bd 66 08 e1 3d b6 aa df 3c
       -0.033716783 -0.046657007 0.1098793 0.027303081
0003b0 7b ba 56 bb be 96 6e bd 2d f8 b2 bd d5 ab 72 bd
       -0.003276496 -0.058249228 -0.08738742 -0.059245903
0003c0 e7 1d 8d 3c 25 be 0f 3e 1e 79 99 3d bd 42 3c bc
       0.017226173 0.14037378 0.074938044 -0.011490521
0003d0 7e c7 6f bd 4f 66 01 3d db f8 d6 bd ed d9 13 3e
       -0.05853986 0.03159171 -0.10496684 0.14438601
0003e0 0e 73 73 bd 31 9e 7b bd c3 f5 ff bd ba dd 8c bd
       -0.059435897 -0.06143016 -0.12498047 -0.068782285
0003f0 77 1e 98 3d 0d da 8f bc 94 5a 7d bd c7 83 fa bc
       0.07427686 -0.01756003 -0.06185396 -0.030580414

ntm.controller.lstm.bias_hh_l0 f4 [400]
000000 ca 00 3c 3d 42 3f e7 3d dc b0 cd bc 98 62 8b bd
       0.04589919 0.11291362 -0.025108747 -0.06805915
000010 37 27 2f be c8 e0 c2 be e0 86 00 be 4b ab 14 3c
       -0.17104803 -0.3806212 -0.1255145 0.009074043
000020 93 76 42 3d 1f 58 b2 bd 1e 2f 92 be ea b6 d5 bd
       0.047476362 -0.08708214 -0.28551573 -0.10435279
000030 a4 db 50 be 55 b9 4c be ed ec 5b 3b 4c 06 39 be
       -0.20396286 -0.19992574 0.0033557967 -0.18068808
000040 41 df 14 be fd 77 27 3d ce 71 52 be 0b 7d f2 bd
       -0.1453829 0.040885914 -0.20551226 -0.11840256
000050 f7 f2 61 3d 38 a9 12 bd 58 df b4 bd 63 6b 6c bc
       0.05516335 -0.03580591 -0.08831662 -0.0144299
000060 4d 00 42 3c 4b c3 64 3d 22 42 17 be ea e1 4f bd
       0.011840892 0.05585031 -0.14771321 -0.050752558
000070 3a 32 98 be 5e 3c 6f bd 00 cb 22 be a3 77 3f bc
       -0.2972582 -0.05840718 -0.15897751 -0.011686238
000080 5a e4 65 be c2 07 3b be d8 11 5b bd a4 19 6a bd
       -0.2245039 -0.18264678 -0.053483814 -0.05715336
000090 b2 a9 28 be 08 f0 c1 bd f8 a1 1b bd 19 79 9a be
       -0.16470984 -0.094696105 -0.037996262 -0.30170515
0000a0 83 6c d1 bd 0b cd 47 bd dd 84 39 be 98 33 7c be
       -0.10225775 -0.04877953 -0.1811709 -0.24629056
0000b0 5d 44 80 bd a6 4f fc bc bb 69 1b be 1e b6 e8 bd
       -0.06263039 -0.030799698 -0.15177052 -0.11362861
0000c0 97 8e 8c bd ab 4c 17 bb 24 3a 74 bd 97 47 eb bd
       -0.06863134 -0.002308647 -0.05962576 -0.11488264
0000d0 e9 77 f9 bd 4a f9 a8 bd e2 5f 2b be 13 2f 49 bd
       -0.12181074 -0.08250673 -0.16735795 -0.04911716
0000e0 af f6 95 bd 77 18 21 be 48 1d 63 be e4 a3 d7 bc
       -0.07322442 -0.15731989 -0.22179139 -0.026323266
0000f0 e6 14 51 3d 16 8a 52 bd 95 44 ae bd 58 55 d7 bc
       0.05104532 -0.05140122 -0.08509175 -0.026285812
000100 de 31 48 be 20 f0 25 be 44 d1 1b be 2e bf 84 3c
       -0.19550273 -0.16204882 -0.15216547 0.016204443
000110 56 91 14 be a0 80 14 be 36 48 f0 bd 28 a6 1d 3d
       -0.14508566 -0.14502192 -0.11732523 0.038488537
000120 cc 49 8e be 1c 94 3a be ab 44 3e be f1 2d a7 bd
       -0.27790678 -0.18220562 -0.18580882 -0.081630595
000130 3a 47 67 bd 3b 87 6b 3e a0 6c a5 3d 80 02 84 bc
       -0.05646441 0.23000805 0.08077359 -0.016114473
000140 4b 2c 21 be 0a c8 de 3d 8a 91 d9 bd 67 be bc bd
       -0.15739553 0.10877998 -0.106234625 -0.09216004
000150 87 da c6 bd ed a4 58 be 2f d0 e1 bd 3a d1 ca bc
       -0.097096495 -0.21156664 -0.11026036 -0.02475797
000160 13 ad 12 be d2 16 81 be 52 e0 0e bd 06 dd 4b be
       -0.14323835 -0.25212723 -0.034881897 -0.19908533
000170 8b f5 cf bd 34 a0 ca bd 0f 0f 79 3c 87 65 0f be
       -0.101542555 -0.098938376 0.015201344 -0.14003573
000180 93 f2 37 be f6 ca f1 bd 5d 9c be bd 75 17 2b be
       -0.17963628 -0.1180629 -0.09307168 -0.16708167
000190 96 72 18 be 7f 3a b9 3d ba 73 3d be d6 c0 5d bc
       -0.14887461 0.0904436 -0.18501177 -0.013534745
0001a0 d8 77 66 3e 41 71 9a be a8 bc a1 3c d1 24 54 be
       0.22506654 -0.3016453 0.019743279 -0.2071717
0001b0 92 7c 67 3d ae d5 8f bd 46 a7 bd 3e e1 bf a5 be
       0.056515284 -0.07023178 0.37041682 -0.32372954
0001c0 d4 83 a3 bd 16 17 ad be 8b cb 8c bd 12 a9 ed bd
       -0.079841286 -0.33806676 -0.0687476 -0.11604513
0001d0 de c4 c7 bd 7e ab 8c be e0 f3 07 be 1a 9c 9e 3c
       -0.09754346 -0.27474588 -0.13276625 0.019361544
0001e0 c3 dd 08 3e fd af 29 be 93 be 70 be 5c f2 86 be
       0.13365845 -0.1657104 -0.23510198 -0.2635678
0001f0 f6 12 29 bd 32 c2 55 be 81 38 21 be 01 00 6a 3c
       -0.04127785 -0.20874861 -0.15744211 0.0142822275
000200 19 58 fa bd 3a 0b e8 bd 83 20 4b 3e 87 b7 09 be
       -0.122238345 -0.11330266 0.19836621 -0.13448916
000210 af a7 4d 3e 86 6c 91 be 25 88 18 bd 92 19 59 be
       0.20083497 -0.2840311 -0.037239213 -0.2120116
000220 e1 27 76 be 3a 70 cb bc 09 32 af be 06 3a c4 be
       -0.2403865 -0.024833787 -0.3421786 -0.38325518
000230 68 1b d6 3d fb fa 43 bd 33 bc 04 be bd 1e 01 3c
       0.10454446 -0.047846776 -0.12962417 0.007880864
000240 a9 d4 42 be 3b 2f 15 3e 38 27 2a bd bf 07 3f bc
       -0.19026436 0.14568798 -0.04154131 -0.011659562
000250 98 22 b8 be 19 4f 2b be ba b1 51 bd ea 80 c0 be
       -0.35963893 -0.16729392 -0.051194884 -0.37598354
000260 9b ad 03 be da f4 3c 3c 98 aa 12 3e f8 0c 3a be
       -0.12859194 0.011532987 0.14322889 -0.1816901
000270 f8 7f 1f be 31 78 8f be 03 91 84 be b7 a6 25 be
       -0.1557616 -0.28021386 -0.25891885 -0.16176878
000280 8e 62 28 bd d3 e9 a3 bd 3a 25 22 be eb 65 74 bd
       -0.041109614 -0.08003583 -0.15834513 -0.05966751
000290 30 a7 27 be 63 e8 23 3d 25 21 44 be 65 e1 41 be
       -0.1637237 0.040016543 -0.19153269 -0.18933637
0002a0 3f 9a ad bd 7e 1a f0 bd b8 de dd bd 2e 26 2e be
       -0.08476686 -0.11723803 -0.10833496 -0.17006752
0002b0 95 0d 40 be 94 69 81 be c1 47 3f be 8c aa 56 3e
       -0.18755181 -0.25275862 -0.18679716 0.20963496
0002c0 db b3 88 bd a0 e4 46 3e 58 0c 43 bd 00 2d 1e be
       -0.0667493 0.19423151 -0.047619194 -0.15446854
0002d0 ba 00 96 bd a4 a0 9b be 7a 5e b1 3e 7c 13 a6 bd
       -0.07324357 -0.30395997 0.34642392 -0.08109185
0002e0 26 ab 4b be 4f ee 4f be cb 0e 97 bd 01 95 3a bd
       -0.19889507 -0.20305751 -0.073758684 -0.045552257
0002f0 f3 b1 d2 bd 86 72 a3 3d fa 0d b4 bd f9 ca 3d be
       -0.10287847 0.07980828 -0.08791728 -0.18534459
000300 25 b6 a0 ba 4e 66 3b be 94 9f 85 be 6c 2f 6b 3d
       -0.0012261315 -0.18300745 -0.2609831 0.057418272
000310 21 66 53 3e 05 4c a3 bd 1a de 41 be 59 20 06 be
       0.20644428 -0.07973484 -0.18932381 -0.13098277
000320 20 0a 73 3c 61 f6 32 be 90 55 e8 3c b5 a6 0e bb
       0.014833957 -0.17476799 0.028361112 -0.0021766846
000330 66 85 81 3c 3c c9 68 3d 6b 77 8b bd fb 2f 6d bd
       0.01581068 0.056832537 -0.068098865 -0.057907086
000340 3f c0 b4 3d e8 c6 ae bd 1f ac 2c bd f3 ec b1 3d
       0.088257305 -0.08534032 -0.042156335 0.086877726
000350 a2 b8 1f bd e9 95 f1 ba 29 bc ae 3c 4a f9 8d bd
       -0.03899444 -0.0018431518 0.021329956 -0.06932314
000360 a6 a1 1a 3c c7 a2 b1 3d 70 30 08 be 9f 27 2d bc
       0.009437954 0.086736254 -0.13299727 -0.010568528
000370 1e 4d 69 be d2 e3 6b bb 29 37 8d 3c 03 c2 82 bd
       -0.22783324 -0.0035993946 0.017238216 -0.06384661
000380 03 ae d4 bd 2b cb 7d bd d6 30 83 3c ed 2f fb bc
       -0.103847526 -0.061961334 0.016014498 -0.030662501
000390 87 50 24 bd 6f 1a 88 3c 83 b2 da 3d 4b 43 de bd
       -0.04011586 0.016614167 0.1067858 -0.10852679
0003a0 9c 1a 0a bd 6b 1b 3f bd 66 08 e1 3d b6 aa df 3c
       -0.033716783 -0.046657007 0.1098793 0.027303081
0003b0 7b ba 56 bb be 96 6e bd 2d f8 b2 bd d5 ab 72 bd
       -0.003276496 -0.058249228 -0.08738742 -0.059245903
0003c0 e7 1d 8d 3c 25 be 0f 3e 1e 79 99 3d bd 42 3c bc
       0.017226173 0.14037378 0.074938044 -0.011490521
0003d0 7e c7 6f bd 4f 66 01 3d db f8 d6 bd ed d9 13 3e
       -0.05853986 0.03159171 -0.10496684 0.14438601
0003e0 0e 73 73 bd 31 9e 7b bd c3 f5 ff bd ba dd 8c bd
       -0.059435897 -0.06143016 -0.12498047 -0.068782285
0003f0 77 1e 98 3d 0d da 8f bc 94 5a 7d bd c7 83 fa bc
       0.07427686 -0.01756003 -0.06185396 -0.030580414

ntm.controller.lstm.weight_ih_l1 f4 [400, 100]
000000 a4 32 ac be 87 ce 01 3f 51 9f 0f 3e 0d a0 c1 3e
       -0.33632386 0.5070576 0.14025618 0.37817422
000010 7c 81 0e 3e dc ac f3 3d 90 af 17 3e 59 e3 f6 3e
       0.13916582 0.11898205 0.14813066 0.48220327
000020 73 5c 52 be 6e ce 28 be a7 52 91 be 49 c3 97 be
       -0.20543079 -0.16484997 -0.2838337 -0.29641178
000030 38 d1 ed 3d 4d 54 50 be 31 12 3f be 1b 8d b0 3e
       0.11612171 -0.20344658 -0.18659283 0.34482655
000040 b8 f8 db 3e 8c f7 bc 3e af d5 f2 3e 60 b1 b1 be
       0.42963195 0.36907613 0.47428653 -0.3470564
000050 b2 9f 1f be 3d 99 3f 3e 07 7e 45 3e f1 b4 a0 bd
       -0.15588263 0.187108 0.19286357 -0.07847012
000060 ac c7 c8 3d ad 40 9a 3d 0f 2e 32 3d 15 b9 00 3f
       0.098037094 0.07531867 0.043500956 0.5028241
000070 82 ef a6 bd 47 ad 87 be 32 9c 35 bd e1 e5 49 3e
       -0.08151151 -0.26499388 -0.044338413 0.19716598
000080 16 1c 45 3e 7f 5d 55 bd 72 c9 2e be 2e 6a 6f bd
       0.19248995 -0.052091118 -0.17069033 -0.05845087
000090 07 2d b1 3e 33 7e 26 3e a1 40 9a 3e a8 c0 d3 be
       0.34604666 0.16259079 0.30127433 -0.41357923
0000a0 42 ff 8a be 3a 52 ce bd 38 85 93 be 4f 00 8a 3d
       -0.2714787 -0.10074277 -0.28812575 0.0673834
0000b0 71 1a 48 be 72 3b 22 be 6c 0e 4a be f5 2e 7f be
       -0.19541337 -0.15842989 -0.19732064 -0.24920256
0000c0 01 cb 4e bd 23 c4 9a 3e bf d7 a7 3e 65 49 6f be
       -0.05048657 0.30227765 0.3278179 -0.23367842
0000d0 eb 1e 8e be f9 7b 8d 3d a8 db 40 3e 8c c7 22 3e
       -0.27757964 0.069084115 0.18833792 0.15896434
0000e0 a6 54 a6 bd f3 43 e8 3e f3 c3 02 bf 8e 90 f1 be
       -0.08121614 0.4536434 -0.51080245 -0.471806
0000f0 bd 0d 36 be 12 70 89 3d 28 69 69 3c 25 d8 8d 3e
       -0.17778678 0.06710829 0.014246263 0.27703968
000100 ec 5e 9a 3e 11 8e c4 be a9 58 f3 3d bc ba ed 3e
       0.30150545 -0.38389638 0.11882145 0.4643153
000110 78 43 38 bd b2 75 27 be 70 ac 4e 3d 84 0a 92 be
       -0.04498622 -0.16353491 0.050457418 -0.28523648
000120 16 57 a1 bd 27 77 3c 3e 11 26 cc be a6 cc 47 be
       -0.078779384 0.18404828 -0.39872792 -0.19511661
000130 77 d2 ab be f5 a6 d6 be 59 3c bd bd 67 ee 12 be
       -0.3355901 -0.41924253 -0.09240026 -0.14348756
000140 98 45 1e be 28 ad 4e 3e c6 70 6d be e2 f3 12 be
       -0.15456235 0.20183241 -0.23187551 -0.14350846
000150 bd 17 a9 3d b2 98 7e be ec 11 e7 3d 83 39 27 bd
       0.08256481 -0.24862936 0.11282715 -0.04082633
000160 59 47 3a 3e 96 b9 38 bd 98 1a 97 3e 4e 21 88 3e
       0.1819128 -0.045098864 0.29512477 0.2658791
000170 5a 50 2b 3e 84 f6 fa be b3 02 1a 3d 5e 99 4d be
       0.1672987 -0.49016201 0.03760023 -0.20078036
000180 4d fc d8 3d 28 1e e2 3b 90 b4 80 3e db 7b d2 be
       0.105949976 0.0069005676 0.25137758 -0.4111012
000190 26 0a dd 3d 9f 81 01 3e 0e 26 7f 3d a2 0e b8 be
       0.10792951 0.12647103 0.06229215 -0.35948664
0001a0 ba 1a 34 3d 28 ad 4e be a2 4e 16 3e b0 e0 a9 3d
       0.0439708 -0.20183241 0.14678434 0.08294809
0001b0 8f 06 f5 3c 01 d7 6a 3e e0 d2 a6 be bf 1e bd 3e
       0.029910354 0.2293358 -0.3258276 0.3693752
0001c0 4c 51 00 bf ce 5a 04 be de 8a 2f 3e 78 23 e8 3d
       -0.5012405 -0.12925264 0.17142817 0.1133489
0001d0 49 77 74 3e 8b d1 7d be ba d0 fd bc bc 1a 08 bf
       0.23873629 -0.24786966 -0.030983318 -0.53165793
0001e0 19 7e 0b 3e 04 d6 9e 3e eb a0 88 be ad fe 29 be
       0.13622321 0.31022656 -0.2668527 -0.16601057
0001f0 c6 5f 4b bd 90 ee ec 3d 91 a1 96 3c 3a 63 b7 3d
       -0.049651884 0.1156894 0.018387588 0.08954473
000200 ad 54 ca be 02 b5 75 be 71 13 dc 3d 07 ec 95 3e
       -0.39517727 -0.2399483 0.10745896 0.29281637
000210 5c 2a 8e bd d6 b3 0f 3e dc f4 01 3e 9f 7d c1 3e
       -0.06941673 0.14033446 0.12691063 0.37791154
000220 7f d9 e1 bd 41 37 cc bc 0a 89 49 be a8 b7 bf 3d
       -0.11027812 -0.02492869 -0.19681183 0.093612015
000230 35 a0 d7 3e 75 13 8b 3e f5 16 03 3c 6e fc 9a be
       0.42114416 0.27163282 0.008001079 -0.30270714
000240 ff 83 a7 be 80 60 34 3e f1 99 ab be cc 62 08 3e
       -0.32717893 0.17614937 -0.33515885 0.13318938
000250 ee 0b a8 bd 41 69 54 3d ec 9f 45 be ba ac 80 be
       -0.082054004 0.05185819 -0.19299287 -0.2513178
000260 e8 58 6d 3e cf db a9 3e 79 a2 1b 3e 67 35 14 3e
       0.23178446 0.33175513 0.15198697 0.14473496
000270 3d 0c ed 3d 2d 54 17 bd 31 76 fb bc 63 d1 95 3d
       0.115746 -0.03694551 -0.030696006 0.07315328
000280 1f 9b a5 3e e4 05 bc be b9 d7 e2 be 46 da 6d bd
       0.3234491 -0.36723244 -0.44305208 -0.05806949
000290 85 1c 16 3e 79 a3 0e bf b8 bc ad 3e 10 40 63 bd
       0.14659317 -0.5571819 0.33933043 -0.055481017
0002a0 9a 38 ef bc ae fb f2 be 47 a7 2e bd 73 a9 30 be
       -0.029201794 -0.4745764 -0.042639997 -0.1725214
0002b0 f9 ed 83 3e 33 46 07 3d 8a e0 33 3e 87 48 4f 3d
       0.25767496 0.03302593 0.17566124 0.050606277
0002c0 21 56 b0 bd c9 30 60 3d a1 76 cf be d7 1e 8e be
       -0.08610178 0.054734025 -0.40520194 -0.27757904
0002d0 39 61 7b be dd 61 5c be d3 58 3d be cd 88 01 bf
       -0.24548806 -0.21521707 -0.18490915 -0.50599366
0002e0 37 e6 39 3e 43 98 33 3d 5c d2 4d be 31 02 79 be
       0.18154226 0.04384638 -0.20099777 -0.24317242
0002f0 93 55 44 3e c8 15 b2 3e 7f a9 3d be 85 3d 47 be
       0.19173269 0.34782243 -0.18521689 -0.19457062
000300 78 2f ed 3e bc 8c 78 3d b7 67 b8 be 43 18 80 3e
       0.46325278 0.06068109 -0.36016628 0.2501851
000310 ab bd 25 3e 0b ed 9d be 07 5d 69 3c 83 64 66 bd
       0.16185634 -0.30844912 0.014243371 -0.0562482
000320 f6 0e 51 bd 44 46 08 3f ef d2 31 3c cd cc 52 3e
       -0.05103966 0.53232217 0.010853513 0.20585938
000330 04 bc ab bd 2f b8 fa ba cb 24 75 3d 79 95 c5 bd
       -0.083854705 -0.0019128377 0.05984954 -0.0964765
000340 9f 61 a7 bd 93 4d 89 bd 1f 37 c3 3d c0 1b db 3e
       -0.081729166 -0.06704249 0.09531998 0.4279461
000350 85 8b 5d bd df 85 58 be 07 59 14 be 44 c0 91 be
       -0.054088134 -0.21144818 -0.14487086 -0.28467
000360 0a f7 6e bc c7 41 10 3e 18 b7 3a be fb 66 8c bd
       -0.014585266 0.14087592 -0.18233907 -0.068555795
000370 d1 60 c3 3e 79 d3 1f 3c db 48 15 be 50 d2 95 be
       0.38159803 0.009755009 -0.14578573 -0.29262018
000380 b1 af 9e 3e 11 ce 55 3e 47 b2 55 3e e0 0e b1 be
       0.30993417 0.2087939 0.20868789 -0.3458166
000390 ad 90 d3 bd e1 b6 1d bc 9f a6 a2 be 6e 38 48 be
       -0.10330329 -0.009626121 -0.31767747 -0.19552776
0003a0 c2 fc ea 3d 7f a8 a1 3d 27 c9 13 be b6 33 ca 3d
       0.11473991 0.07893466 -0.14432202 0.09873144
0003b0 7f 16 30 3e ce 6b 15 3e f7 94 f3 3e 48 81 38 3e
       0.17196082 0.14591905 0.4757459 0.18018067
0003c0 10 02 d5 be a1 48 9f 3e ed c9 a7 3e 25 a2 2e be
       -0.41603136 0.311101 0.32771245 -0.1705404
0003d0 18 a7 de 3d 74 76 0f bd 27 b1 cb be 9f fa 13 3e
       0.10871714 -0.035025075 -0.39783594 0.14451073
0003e0 72 90 cc 3d 41 65 91 3d c8 75 e0 3c cc 5e fd 3e
       0.09988488 0.07099391 0.027399912 0.49486387
0003f0 dd 30 3a 3e 8b a6 6c 3e ca d9 dd be e7 40 83 3e
       0.18182702 0.23110406 -0.43330222 0.25635454
