results/priority-sort/priority-sort-task-10-batch-5000.model (torch_old, 859287 bytes, 49 tensors)

ntm.read0_bias f4 [1, 20]
00000000: d0ac 633c a705 3e3a b2b0 ffba db2e 603c
00000010: 3e18 de3a 58c9 413c d1cc 84bb 0508 95bb
00000020: 6540 f13b 7cc1 c13b ac38 7dbc 99df 6c3c
00000030: 46c6 cabb 55ca d63c bb9f 11bb 3872 d2bb
00000040: 2c13 ffbb d4ca 0d3c c2a8 8e3c 8d78 9a3b
0.013896182 0.0007248767 -0.0019507615 0.013683046 0.0016944481 0.011827789 -0.0040527363 -0.004548075
0.0073624128 0.0059129577 -0.015455406 0.014457607 -0.006188187 0.026219526 -0.002222045 -0.0064223073
-0.007784268 0.008654315 0.017414454 0.004714078

ntm.read1_bias f4 [1, 20]
00000000: c79c ddbb 6d29 9639 8147 b13b 4bd3 85bb
00000010: ab9b ba3b 74cb 42bb 97fe 3c3b 8b16 83bc
00000020: e6b9 96bc 02bc 1c3c 19aa 0a3c 646f 2cbc
00000030: 84ed 8939 30ea 723c 0bee 5c3b 8bb9 ee3b
00000040: 660a 003c dbbc e63b 7d4b eabb c578 39bc
-0.006763074 0.00028641094 0.0054101353 -0.004084026 0.0056948266 -0.0029723318 0.002883827 -0.01600196
-0.01839919 0.009566309 0.008463406 -0.0105246045 0.0002630764 0.014826342 0.003371122 0.007285302
0.007814979 0.0070415563 -0.007150112 -0.011320298

ntm.read2_bias f4 [1, 20]
00000000: 807e 4fbc e55a 843a a745 8a3b b42f 32bc
00000010: cdf9 98bb 5445 44bc 6604 fc3b f91d 09b8
00000020: bbd4 663b e9cb 523c 83cb ed3b 2a42 d0bb
00000030: d6ca 9c3b 861f 323c 3711 4abc 617d 1c3c
00000040: 756c d6bb 1a47 813b 8661 2dbb e251 95bb
-0.012664437 0.001009789 0.004219729 -0.010875631 -0.0046684504 -0.01197942 0.007690954 -3.269126e-05
0.0035222012 0.012865999 0.0072569265 -0.0063555436 0.004784922 0.010871774 -0.012333206 0.009551377
-0.006543691 0.0039452435 -0.0026455834 -0.0045568803

ntm.read3_bias f4 [1, 20]
00000000: 836d 6b3c f3a3 38bc 4512 58bc dbe3 8c3a
00000010: f917 3e3c 0419 9bbb c217 fd39 988c e2bb
00000020: 020e d4bb 18aa 0dbc 69be 76ba b684 98bb
00000030: cac5 e7bb 0bc9 aa3b 0104 bfba b196 99ba
00000040: 9405 07bc 668d ffbb 5607 04bc dee3 d4bb
0.014369371 -0.011269557 -0.01318795 0.0010749059 0.011602395 -0.0047332067 0.0004827362 -0.0069137327
-0.0064713964 -0.008646511 -0.00094125286 -0.0046544923 -0.007073139 0.0052119545 -0.0014573337 -0.0011717883
-0.008241076 -0.0077988384 -0.00805839 -0.0064968904

ntm.read4_bias f4 [1, 20]
00000000: 2eb2 d0bb b338 583a d41f 843a 39cb 02bb
00000010: 276b 2c3c 403b 33bc aae8 95bc a6b4 983a
00000020: bed7 fb3b ac75 953c c555 ee3a 573a a63a
00000030: c4d4 2a3c 702e 113b 993e 80bc 9929 ae3a
00000040: 168f 8cbb b047 2b3c 4cb9 023c cd50 823a
-0.006368897 0.0008248195 0.0010080286 -0.0019957556 0.010523594 -0.010939419 -0.01829942 0.0011650517
0.0076856306 0.018244587 0.001818352 0.0012682182 0.010426704 0.0022152923 -0.015654849 0.0013287544
-0.004289518 0.010454103 0.0079787485 0.0009942293

ntm.controller.lstm_h_bias f4 [2, 1, 100]
00000000: cb9b 84bd c3f5 83bd 1fd4 333d 3e7f a63b
00000010: 1e19 07bd 4842 1e3d f880 7bbd f30b 1dbd
00000020: 6a27 82bc a155 64bd 1a57 513c fbb4 fd3c
00000030: c308 dcbb 7e8e ecbd 8dd6 9ebc 2462 b0bc
00000040: e361 d1bc 980b 9b3c 7ee0 0a3c 7a6f 4cbb
00000050: ef9e b0bc 2081 0fbd adf0 3bbd 6f07 64bd
00000060: 72bf c83c 5f8d 79bc 6330 b3bd c88d 3e3d
00000070: 1fae 0d3d 3037 6dbc f91f e93c 6b80 203d
00000080: 5ff0 78bd a3b8 fbbc f731 a23c 101b 9d3c
00000090: 5723 b73d dfe2 d9bb c54c 1c3d 554f 23bd
000000a0: 81e4 f6bb 5108 c93c 016f 273c 8690 0fbc
000000b0: 9331 8abb 6f50 78bd 5d64 a4bd 5851 78bd
000000c0: 9849 c03d 9dcb 87bd 0f4c acbd d38e 38bd
000000d0: 6837 3ebc a7ca 763c 55b8 5b3d 2c62 cabd
000000e0: 8137 973d 184c 6b3d b120 2bbd e121 323c
000000f0: 263c ae3c 3054 193d cfdb 3d3b ec09 bd3c
00000100: 429f ee3d 2c41 d83d bf14 763d 247e ae3d
00000110: 18f5 903b f49e 5a3d b988 8abd f1f7 62bc
00000120: 03da ccbc 61fc 103d 3ad0 93bd e331 83bd
00000130: 1eda ea3c e0c1 41bd c085 02bc 1acd 0e3d
00000140: bbe2 5f3c a4cf 743b 492d dc3b 5e5d 9a3d
00000150: d465 85bd 4be0 093e 8d16 2d3e 6198 9d3b
00000160: a9c7 e2bd 2ff4 7abc 22cb e3bc 35a4 94bc
00000170: fe77 e9bc c6b1 8ebc 897b a8bd c07b a9bd
00000180: 71b9 4dbb d7f5 33be b9ce 83bd 23f4 44bd
00000190: 0593 bebd fbe2 83bd 4b07 973c 086e 45bd
000001a0: 86ea 83b9 550c 173c 44e0 623d 22af 9ebd
000001b0: b188 233d e8b7 0cbd 986e cf3b d23e 4ebd
000001c0: 11f8 3f3d 056a e4bc 8129 3dbd a27a 2fbc
000001d0: 1a02 b8bd 38a2 7e3c bd82 293d e71f e2bc
000001e0: d0d8 513d 464f d2bc 9759 843d 7beb 6bbd
000001f0: b4ab 6fbb 6835 1c3c 7fa7 833c 432d a3bc
00000200: a04e 6ebb 3430 533c 629e 8cbd 89de 5fbd
00000210: b7d5 6cbd efc3 073d 06f4 953d c88f 52bd
00000220: a365 1b3d 9079 3fbc 2a05 d13c a481 4abc
00000230: df86 09bd 9cf6 b7bb e6cf 923d bd90 bebd
00000240: 623e 8ebd cdd9 543c ce1f 47bc c652 8cbc
00000250: c33b 243d 67b3 eebc fc45 833d fcdf 833d
00000260: b844 ca3c 2021 a93d f1a3 8c3d 9d94 b23d
00000270: 7435 9fbd 0bc1 4dbd c010 d7bb 9490 8cbd
00000280: 8709 29bc 1d0d cebc e938 fe3d acf9 babc
00000290: 8207 fb3d 871d 75bd 1f98 a83c fec2 053d
000002a0: 88fd 043d 79a2 0dbc 7d19 aabb 25ea 413d
000002b0: d0af 4d3c 9bf5 0a3c ec27 84bd 5c57 3abd
000002c0: b82a 46bd 3ddc dd3d 0d6f c03c 41fe 9bbc
000002d0: f50c c53c 8aee 963d 4d00 043d 6d08 b3bc
000002e0: fc2d 4c3d 076c 84bd 8afc 1dba 35d4 dabb
000002f0: 7b17 b53d 71c2 30bc 7b13 9abc 1b16 ad3c
00000300: aa74 2f3c 9f8f 103e a3c7 bb3c 3188 03bd
00000310: beb3 f3bc 5a7c 2c3d 02c7 2ebc 69a4 94bd
-0.06475028 -0.0644336 0.043903466 0.0050810864 -0.032982938 0.03863743 -0.06140229 -0.038341474
-0.015887935 -0.055745725 0.012777114 0.030970087 -0.0067149117 -0.11550616 -0.019389415 -0.021531172
-0.025559371 0.018926427 0.008476375 -0.0031194375 -0.02156016 -0.035035253 -0.045883823 -0.05567115
0.02450535 -0.015231459 -0.087494634 0.046521932 0.034589883 -0.01447849 0.028457629 0.03918497
-0.06077611 -0.03072769 0.019799216 0.019177943 0.089422874 -0.0066493596 0.03815915 -0.03987058
-0.007534564 0.024540098 0.0102193365 -0.008762484 -0.0042173355 -0.060623582 -0.08026955 -0.06062445
0.09389037 -0.06630633 -0.084129445 -0.045058083 -0.01160989 0.0150629645 0.05364259 -0.09882006
0.073836334 0.057445616 -0.041779224 0.010872335 0.021268915 0.037433803 0.0028970127 0.02307602
0.1165147 0.105593055 0.06007838 0.08520153 0.0044237487 0.053374246 -0.06764359 -0.013853059
-0.0250063 0.035396937 -0.072174504 -0.064059995 0.02866846 -0.047304034 -0.007966459 0.03486357
0.013664897 0.0037355209 0.0067192656 0.0753734 -0.06513563 0.13464467 0.16903134 0.0048094247
-0.110732384 -0.015317007 -0.027806822 -0.018144706 -0.0284996 -0.017418753 -0.082266875 -0.082755566
-0.003139105 -0.17574249 -0.064359136 -0.04808439 -0.093053855 -0.064397775 0.018436095 -0.048200637
-0.00025161 0.009219249 0.055389658 -0.07748248 0.03992528 -0.034355074 0.0063303225 -0.05035288
0.046867434 -0.027882585 -0.04618216 -0.01071039 -0.08984776 0.015541606 0.041384447 -0.027603103
0.05123216 -0.025672566 0.064624004 -0.05759762 -0.003657085 0.009534217 0.01607108 -0.019919043
-0.0036362782 0.0128899105 -0.068661466 -0.054655585 -0.057821 0.03314584 0.073219344 -0.05140665
0.037938725 -0.011686698 0.025515158 -0.01236001 -0.03357589 -0.005614115 0.0716856 -0.093049504
-0.06945492 0.012991381 -0.012153579 -0.017129313 0.040096056 -0.02913828 0.06409833 0.06439206
0.02469097 0.08258271 0.06867207 0.08719752 -0.07773867 -0.05023293 -0.006563276 -0.068635136
-0.010317213 -0.025152737 0.124131985 -0.022824131 0.122572914 -0.059842613 0.02058035 0.032656662
0.03246835 -0.0086446935 -0.0051910267 0.04734244 0.012554124 0.0084814085 -0.06452927 -0.04549347
-0.048380584 0.10833023 0.023490453 -0.019042136 0.02405403 0.073697165 0.03222685 -0.021854604
0.04984854 -0.06465917 -0.0006026706 -0.006678129 0.08842369 -0.010788546 -0.018808117 0.021128705
0.010708967 0.14117287 0.022922343 -0.032112304 -0.029748794 0.04211078 -0.010667564 -0.07257921

ntm.controller.lstm_c_bias f4 [2, 1, 100]
00000000: 7d65 973b 3783 c6bd bac2 ef3d edc1 bdbd
00000010: 340d 4d3d db91 a63c bc43 c6bc feee e4bb
00000020: 9afb c7bd d971 263d 74d4 2b3d 0b00 9bbc
00000030: 0550 983b 2aea f2b9 1ff3 683d 4889 373d
00000040: bd29 fabc 6e47 293d 31d2 46bd 01eb f7bc
00000050: 0fdc f4bc 9039 75bd 3651 073e e662 c1bd
00000060: e35f c63c 1f07 a73d 2216 6b3d c196 8d3d
00000070: e7d4 883d cccb 07bd 271b e2bc b1d1 37bd
00000080: eab9 923d 7d75 7f3d 49ab a33d 9223 46bd
00000090: e84e 963d 95bd a93d 3d88 b03d 963c 9fbb
000000a0: 1f5e 863c 4726 68bc a770 fd3c 88f0 10bd
000000b0: b56c e73c b485 85bd d923 833d d7dd 6bbd
000000c0: 6a68 993b d488 69bd 9f94 aa3c a3d0 083c
000000d0: c3ca a6bd 7005 86bc 282a d4bb 9019 4c3a
000000e0: 825c 9abd 2162 72bd 57ee 903c 7ae7 5ebd
000000f0: a915 0bbe 64ec 4b3d e48e f8bb 6455 583c
00000100: 3ef6 c9ba 7832 3a3d a7e2 4e3d aee8 053c
00000110: f64b d03c 6e19 77bd 489b 083d 1446 f9bd
00000120: 70e7 173d d917 36bd a9bc 133d ef9e 46bd
00000130: 3378 3b3d dbdd 94bd d368 babd 6843 d3bc
00000140: 958a 4e3d 143e 333d 6d23 403d 35a3 15be
00000150: 4fe0 1e3d 2cd2 d93d 43ba fcbd c49a 42bd
00000160: 48a3 4ebd 696d c3bc cd03 513c 1879 59bd
00000170: 6326 abbd a56a 56bc e98a ca3d 2ff0 573d
00000180: 309f 2e3d 3475 013d 9e4b ab3c fffa a6bc
00000190: d217 d1bd cbca acbb eac5 8e3c 49c1 ae3c
000001a0: e2d6 54bc 74b8 3d3d 2232 453d 7d6b 48bc
000001b0: f250 3c3d a6dc b1bd f7c6 983c e02a e23c
000001c0: 65c4 883b 4d3d 8b3d f5e5 e13c 1472 eebc
000001d0: 5ea6 1b3c 7931 e83c 856d 95bd acc6 87bd
000001e0: 09f9 37bd 524d e93c 9e13 1cbc 3834 243c
000001f0: 528c 403c e702 90bd fd22 05be e946 513d
00000200: c276 2bbd a14d 833c 8e7c cebc 7b1e ad3d
00000210: 85b5 0ebc 52f1 9f3b 2b85 54bd 4f70 033d
00000220: fc61 023e b64b 583c 875f 44be e80b 483b
00000230: f394 d03d 1ad2 84bc 37a9 413d eac1 2cbd
00000240: 8325 f0bd d89b b9bd 53f9 f7bd eb95 2cbd
00000250: bef8 193b 151d f1bd fcb1 b73c 71a8 3cbd
00000260: fad8 61bc 6185 923d a9d5 db3c 4a91 363c
00000270: 3b1a 84bd 1b3d 1b3d 58f8 05bd 6cdc 41bc
00000280: db90 99bc 2f57 ac3d 4b49 c5bc b5ce 963c
00000290: 96f9 593d 3277 5bbd 2a9b 833c e53b 99bc
000002a0: ee75 293d d6ed 54bd a1a9 603c b503 103d
000002b0: 39e0 da3c cb2d 9cbc 28f3 cbbd bb87 b0bd
000002c0: 3173 e7bd 199e 973c 934c 4dbd b962 bd3d
000002d0: c015 b0bd 61a9 57bd d1ea 83bd e45b 983c
000002e0: f03d ebbd ffa3 8bbd a384 d3bd 53e2 4bbd
000002f0: 8e5d 013d abac 05bd 92f2 8fbd 5a23 3abd
00000300: 39c2 91bc 3ff0 c1bc 89cd 25bc cc03 333d
00000310: 2d62 8ebd 0da4 adbb 9c2f adbb bc7d c33d
0.0046202526 -0.09692996 0.11707063 -0.09265504 0.05006142 0.020333221 -0.02420222 -0.006986498
-0.09764786 0.040635917 0.041950658 -0.018920919 0.004648211 -0.00046332303 0.056872483 0.044808656
-0.03053748 0.041327886 -0.048540298 -0.030263426 -0.029890088 -0.05986935 0.13214573 -0.094426915
0.024215644 0.08155655 0.057394154 0.0691352 0.06681233 -0.03315334 -0.027600838 -0.04487771
0.071643665 0.062367905 0.079916544 -0.048373766 0.07339269 0.08288113 0.086197354 -0.0048595173
0.016402302 -0.014169282 0.030937506 -0.03538564 0.028250078 -0.065196425 0.06403322 -0.05758461
0.0046816366 -0.057015255 0.020822821 0.008350524 -0.081441425 -0.016360015 -0.006474752 0.00077857915
-0.07537176 -0.059175614 0.017691774 -0.054419972 -0.13582481 0.049785987 -0.0075853933 0.013203952
-0.0015408469 0.045458287 0.05050912 0.008173151 0.025426846 -0.060326986 0.033351213 -0.121715695
0.03708595 -0.044456337 0.036068592 -0.048491415 0.045768928 -0.07268878 -0.09102025 -0.025788978
0.05042513 0.043760374 0.046908785 -0.1461304 0.038788136 0.1063579 -0.12340214 -0.047510877
-0.050448686 -0.023855882 0.012757254 -0.053094 -0.08356931 -0.0130869495 0.09889776 0.05271929
0.04263228 0.031605914 0.02091008 -0.020383356 -0.102096215 -0.0052731982 0.017428357 0.0213324
-0.012990685 0.046318486 0.048143514 -0.012232658 0.045975633 -0.086846635 0.018649561 0.027608335
0.0041738027 0.067988016 0.027575472 -0.029107131 0.009500114 0.028343903 -0.0729628 -0.066296905
-0.044915233 0.028479252 -0.0095261615 0.010022216 0.011752205 -0.070318036 -0.13001628 0.051093016
-0.041861303 0.016028227 -0.025205877 0.08453079 -0.00871027 0.0048810625 -0.05188481 0.032089528
0.1273269 0.013201645 -0.19177066 0.0030524675 0.1018466 -0.016213465 0.047280516 -0.04217712
-0.11725905 -0.09062928 -0.12108102 -0.04213516 0.002349421 -0.11773125 0.022423737 -0.046059076
-0.013784641 0.07154346 0.02683528 0.011143038 -0.064503156 0.03790007 -0.032707542 -0.011832338
-0.01874583 0.084150665 -0.0240828 0.018409112 0.05321654 -0.05358047 0.016065199 -0.018705318
0.041372232 -0.05198463 0.013712318 0.035159785 0.026718246 -0.019064805 -0.09958488 -0.086196385
-0.11301268 0.018508004 -0.050121855 0.092473455 -0.085978985 -0.052651767 -0.06441272 0.018598504
-0.11486423 -0.06818389 -0.10328033 -0.049776386 0.03158336 -0.032635372 -0.070286885 -0.04544387
-0.017792808 -0.023674129 -0.010119804 0.043704793 -0.06952319 -0.0052990974 -0.0052852165 0.09545466

ntm.controller.lstm.weight_ih_l0 f4 [400, 103]
00000000: c472 4cbc 02e7 80be 164c 2bbe daf5 833e
00000010: 4203 89be 6fc8 893e a47d 5f3e 8c00 98be
00000020: 1eb5 12be c943 14bd c3d9 68be 796a 983d
00000030: ee38 19be 0833 66be 6d9a d5bd 835d 9ebe
00000040: 6b0c 883e 04c1 413e e1bd fc3d a6c2 843e
00000050: c1d5 87be fc56 b03e 39c1 a7be 5396 593e
00000060: 5968 91be ea18 b53d 91dd 97bc 2b5b 9c3e
00000070: f179 9dbe 41e4 88be f778 36be 3471 433d
00000080: 2940 82be 3b7b 1f3e 73ed a13e 5942 6abc
00000090: 632f 4e3e 494f 98be ea24 a73e 6b38 8cbe
000000a0: 4480 9a3e 7f80 a63e 8719 5ebd d04b c13e
000000b0: 220f 443d 69d0 dd3d ee70 9d3e fa0b 7c3d
000000c0: 897e 95ba 9854 a4bd b4b1 01be b379 88be
000000d0: 402d a23e aaa7 3abe 7ff5 5f3e 9458 81be
000000e0: 9086 7d3e e830 8a3e a92a 54be 1c38 c63d
000000f0: 1b2b d63d c2f7 e4bd 4613 d8bd e5aa c9bd
00000100: 1718 943e 9587 883e 5a07 623e 2042 aebe
00000110: d632 58be bc06 80bd 2cc4 e43d c7cc 64be
00000120: cf67 b93e 6950 693e cbfc babe a5fc a43e
00000130: 1888 9b3e 8177 8abe 64fb 66be 2aba bfbe
00000140: b85c 4fbe dc7a 12be 2769 2e3e 99e9 803e
00000150: 00d5 06be dc1f 8bbe dd7c b43e 4d68 b6bd
00000160: 2e3d 30be e1f9 80be 9dd3 fdbd 9ea5 063e
00000170: 4527 5f3e 56f3 95be cca7 b63d efac e83d
00000180: 9686 82bd 3c72 8c3c 1253 febd 8570 4ebe
00000190: 33fe 003e e34d a33e 79bd 19be 6089 353e
000001a0: 2d22 8e3e e0bb 87be 7880 9d3e ec3b 3cbd
000001b0: 6eb2 a53e 5e0a 62bc bdd6 c23c c18e 9abd
000001c0: b99f 95be 3eac a13e b6e4 b43e c23a 5bbc
000001d0: a691 a6be 0924 823e cb1c b2bd 0461 51bd
000001e0: 618f 09be d75a 97be d40a 943e a66e 84be
000001f0: 3055 443e 1baf 893e df19 97be 7248 583e
00000200: f317 8a3e 43f8 f53c 0b20 143e 3693 993e
00000210: 45cb 8fbe de64 1f3e 9ad9 fbbd d674 49be
00000220: c79b 2cbe c950 a83e cbdb b0bc 359c 54be
00000230: a911 2f3d 87d8 8fbe 3161 973e 5671 6e3e
00000240: 4e6e 23be 396f ad3e 14ee 26bc a071 97bd
00000250: 2d16 afbe b941 6f3e 292b 6cbd ba06 a9bd
00000260: e2a7 753e 4f43 9a3e 4234 703e a0a8 013d
00000270: d5b2 08be 08fe 463d 9307 3fbe 1aba 84be
00000280: 733a 603d 63be 963e daa4 2d3e eb68 24be
00000290: 4f8b 333d 2ce1 dabd 1123 a8be 8c22 353e
000002a0: 989c 24be 4162 c03d e9ed 81bc 59b4 0b3d
000002b0: fc56 9f3e 6fc6 073e 3976 55be 1610 063e
000002c0: 4612 a3be 061d 28bc 3f5a ac3e 8b40 b43c
000002d0: 1ac9 663e 69a2 953e daeb 99be 31cd f33d
000002e0: bf1f 95be 8123 8d3d 2661 3c3e a63b 253e
000002f0: fe7f afbe 3d40 f53d 650b 6a3e a72c a13e
00000300: a2f8 3e3e 62bc 2e3e 364b 00be d801 d5bd
00000310: 47f7 66be 3ac1 603e 7eec 51be 2bc1 723e
00000320: 1b07 783e af63 45be f458 45be 1ea3 05be
00000330: b083 a63e de8f 9f3e 4cc3 a4be 2d8d 243e
00000340: 7741 073e f8b9 4d3e 2dd8 3ebd 5f5d 183e
00000350: 1f96 ddbd b440 af3e 1250 f0bc 379a 6abe
00000360: 88b0 84bc 26e6 613d bfab 90be f300 99bd
00000370: e676 95be 36c8 0b3e c912 a33e 0736 333e
00000380: f3b4 073c dda7 74be 51ce 27be 2178 9abd
00000390: 842f b1bc 0a64 3c3e e233 9f3e 1164 92be
000003a0: e159 88be 58cb 933e 0f06 86be c227 a93e
000003b0: d411 91be 8a76 d43d 4d6a 99bd dc21 89bd
000003c0: 784d 49be 9837 80be 71f1 a8be 483d 0d3e
000003d0: 9b73 afbe 21e1 083e 3e08 8ebd 3fdd ae3e
000003e0: 87c9 b73e 3457 083c e835 a8be aee9 2cbe
000003f0: 8bdf b53d d35b 543c 59fb 4bbc 27e4 bb3c
-0.012478534 -0.25176245 -0.16728243 0.25773507 -0.26760298 0.2691073 0.21825272 -0.29687917
-0.14326903 -0.036197457 -0.2273932 0.07442183 -0.14963123 -0.22480404 -0.10429845 -0.3093072
0.26571974 0.18921286 0.12340904 0.25929755 -0.2653027 0.34441364 -0.32764605 0.2124875
-0.28399923 0.088426426 -0.018538268 0.30538306 -0.30757096 -0.26736644 -0.17819582 0.04771538
-0.25439575 0.15574352 0.31626472 -0.014298045 0.20135264 -0.2974799 0.3264535 -0.27386793
0.30175984 0.3251991 -0.054223564 0.37753153 0.047865994 0.10830767 0.3075022 0.06153486
-0.0011405508 -0.080239475 -0.12665445 -0.2665535 0.31675148 -0.18228021 0.21870993 -0.25262892
0.24758363 0.26990438 -0.20719399 0.09678671 0.104574405 -0.111800686 -0.10550551 -0.09847049
0.2892463 0.2666594 0.22073117 -0.34034824 -0.21113142 -0.062512845 0.11170229 -0.22343741
0.36212012 0.2278458 -0.3652099 0.32224002 0.3037727 -0.270443 -0.22556835 -0.3744672
-0.20250213 -0.1430468 0.170323 0.2517822 -0.1316719 -0.27172744 0.35251513 -0.089066125
-0.17210838 -0.25190642 -0.12393878 0.13149115 0.21792324 -0.29287213 0.089187235 0.113611095
-0.063733265 0.017144315 -0.12418188 -0.2016011 0.1259697 0.3189536 -0.15013684 0.17728186
0.2776045 -0.26510525 0.30762076 -0.045955583 0.32362694 -0.013796417 0.023784036 -0.075467594
-0.2922342 0.31576723 0.35330743 -0.013380708 -0.32532996 0.25418118 -0.08696898 -0.051117912
-0.13433601 -0.29561493 0.2891451 -0.25865668 0.19173121 0.26891407 -0.29511926 0.21121386
0.26971397 0.030025607 0.14465348 0.29995126 -0.2808477 0.15565822 -0.122973636 -0.19673476
-0.168563 0.32874134 -0.02158918 -0.20762713 0.04274145 -0.28094885 0.2956634 0.23285422
-0.15960047 0.3387392 -0.010188598 -0.07394719 -0.34196606 0.23364915 -0.05765835 -0.08253236
0.23989823 0.30129477 0.23457435 0.031654954 -0.13349469 0.048582107 -0.18655233 -0.25923234
0.05474324 0.2944213 0.16957417 -0.16055648 0.043834027 -0.106874794 -0.32839254 0.1768896
-0.16075361 0.093937404 -0.015860515 0.03410754 0.3112105 0.1325929 -0.2084588 0.13092074
-0.3184988 -0.010260826 0.33662602 0.022003433 0.22537652 0.29225472 -0.30062753 0.119043715
-0.29125783 0.068915375 0.18396434 0.16136035 -0.34277338 0.11975143 0.22855909 0.3147938
0.18649533 0.1706405 -0.1252869 -0.10400742 -0.22555266 0.2194871 -0.20500371 0.237065
0.2422146 -0.19276308 -0.19272214 -0.13050506 0.32522345 0.3116445 -0.3218025 0.1606948
0.13208567 0.20090473 -0.04659288 0.14879368 -0.10819649 0.34229052 -0.029335056 -0.22910391
-0.016197458 0.055151127 -0.28256032 -0.07470884 -0.29192275 0.13650593 0.3185027 0.17501079
0.008282888 -0.2389216 -0.16387297 -0.07542444 -0.021629103 0.18397537 0.3109427 -0.2859197
-0.26631072 0.28866076 -0.26176497 0.33038145 -0.28333914 0.10374172 -0.074909784 -0.06695911
-0.19658458 -0.25042415 -0.32996705 0.13792908 -0.34267887 0.1336713 -0.06935166 0.34153172
0.3589594 0.008321572 -0.32853627 -0.16886017 0.08880528 0.012961346 -0.012450063 0.02293594

ntm.controller.lstm.weight_hh_l0 f4 [400, 100]
00000000: 5fa4 f93d 2897 f43d 8f46 7fbe a2ea 4c3b
00000010: 8713 41bd ffde e7bd cf4e 2fbe d8d1 b43e
00000020: b84a 9b3e 45a4 61be c0a1 d83d fe6c 31be
00000030: 169a a23e 3969 54be c7f1 dfbd 3f43 8c3e
00000040: a3b4 223e d352 f5bd 4674 803e eae4 973e
00000050: 1a73 a33e c9a9 b4be 3f04 143e 17e2 ac3e
00000060: b589 c53c 757b 6c3e 8f08 86be 26b0 b23d
00000070: a987 4ebc 3f97 36be cb6f f13c 5862 a33e
00000080: 3666 e83d 7ea8 913e 5918 81be 1150 9cbe
00000090: 7af0 54be 6883 a13e 562a 603e 3923 8bbe
000000a0: 0d9b 753e 8c37 5c3e 2ff8 37be aa3c b43d
000000b0: 7487 61be 1a7d 07be c43d 973e a037 b1be
000000c0: 5f22 bfbc b19d 7dbe 8d8b b5be b5c0 73be
000000d0: fc7b 4c3e 0c5d b33e 84de 783e 0d7e 1cbe
000000e0: 9b68 94be 7c54 a63e cf26 78be 7a7f 7c3e
000000f0: fe3c 0a3d 7408 7c3e 51f7 99be 82cc f13d
00000100: d459 8b3d d0e2 093d f05c 49be 8c83 643d
00000110: c9a9 643e 3378 3ebe db4f a5be d226 83be
00000120: 9460 72be 6ec7 803e 5066 39be 9230 113e
00000130: 6944 1a3e a47e 46be 58c2 6f3e be2a 8e3e
00000140: 0b11 693d 7e17 33be 2208 01be 6493 61be
00000150: ecf9 f63d f0ff 763d 45c0 2b3e f652 bc3d
00000160: 2d6d af3e 60f8 073e d80a 473d e381 a83e
00000170: f044 4a3a a597 203d 2d64 8b3e a008 63be
00000180: 8d35 4d3e adb2 ad3e 4541 46be 832b bfbd
00000190: 2ee5 b73b 50a4 f13b 49d0 143e c2d5 dbbd
000001a0: 09ff 6cbe e56c a43e 846d 593e 3b4e 723e
000001b0: 1d07 d83e b002 ffbd d2fe 50be fe7f c63a
000001c0: de38 d2bd c3fd 1b3e eb0d 89be 0d3a 7e3e
000001d0: 0f27 6a3e c835 aabe 237c 403c f5f9 b43e
000001e0: 0a2f bc3e 7b58 8d3e 35f0 66be ec97 c5bd
000001f0: f3d8 133e bb8b 57be 720c 9cbe a2d4 3d3d
00000200: 6b24 d2bd c8b7 3f3e dc2b d2bd ab81 8cbe
00000210: 6005 9b3e 0121 833d 6ae7 593e e839 0abe
00000220: 635e 7ebd e0f7 a33e e325 393e 6ee7 d7bd
00000230: 8fc4 f43d 65c2 ac3e 7ebb 9e3e 475d 9a3e
00000240: d892 993e c798 453e 5551 3e3e af9a b03e
00000250: 5ee4 883c efb6 ec3d 8665 6a3e 7003 65be
00000260: 880c 5f3e 9322 873e 2033 6c3e c84f 963c
00000270: 8ce1 acbe 4bb2 823e 1b14 1c3d c361 913d
00000280: f88c 87be 08c7 9ebc 520a 653e 9698 3c3e
00000290: db2e c9bc c9f7 aebd f705 9b3e f4da b03e
000002a0: f861 70be e1d0 823e c83c d73d bec7 3cbe
000002b0: 33c0 59be dd90 96be 5605 163d 55b1 ae3e
000002c0: 0a09 56be d487 54bd 17f8 4dbe 35c2 813e
000002d0: f0f0 06be f1e7 8f3d 2178 8b3e 8211 ac3e
000002e0: 864e 8dbc 71e6 2fbe 316e 64bc 245c 2bbe
000002f0: 9c44 a73e cddb 493e 620f 93bc bb24 e33c
00000300: 2005 1d3e c91c 713e f630 a5bb aa0d 003e
00000310: f66f 5e3e 08c7 983e 54ce 583e a6db 52bd
00000320: 9971 2a3e 4536 743e 6e54 053e 0142 dabc
00000330: 2676 a63e 072c a33d 06a9 dd3d 4fde 1f3e
00000340: 4a4e 86be 6881 973e 3c77 acbe 0361 c33c
00000350: 9e54 b73e 423c bb3e e70c a6bc 3c93 5bbe
00000360: ad5b 9cbb ca8e 9bbe 7538 a83e 693a 99be
00000370: cca6 073e 6004 713e 7016 83be abc0 04be
00000380: f76c a13e 7120 833e b63b bdbd 4391 85bc
00000390: e442 83be c595 84be fa29 483d 2bb6 ac3d
000003a0: fc16 9cbe 0802 1cbe ec09 6d3e 29e6 91be
000003b0: 199e b43d f6e5 9bbe 8d53 e9bd 5cfd 2d3e
000003c0: 03a9 a23e eef2 0ebc bc98 293e 9bbe b7be
000003d0: 47b2 9cbe 32f9 b9bd d494 7d3e 0a61 78be
000003e0: c9f2 fb3d fe87 9fbd bc59 11be 19e3 bcbd
000003f0: eb58 87be 2d29 a4be fbe8 81be 69af 92be
0.121895544 0.11942893 -0.2492926 0.0031267782 -0.047137763 -0.1132183 -0.17119907 0.35316348
0.30330443 -0.2203532 0.10577726 -0.17326733 0.31758183 -0.20743264 -0.10934787 0.27395055
0.1588922 -0.11978688 0.2508871 0.29666835 0.31923753 -0.35285786 0.14454745 0.33766243
0.024113515 0.2309397 -0.26178405 0.08725004 -0.012605586 -0.17831133 0.029472252 0.31910968
0.1134762 0.28448862 -0.25213888 -0.30529836 -0.2079486 0.31545568 0.2189115 -0.2717531
0.23984928 0.21505564 -0.17965768 0.08800633 -0.22024328 -0.13231316 0.2953931 -0.3461275
-0.02333182 -0.24767186 -0.3545803 -0.2380398 0.19969171 0.35031927 0.24303633 -0.1528246
-0.28986058 0.3248633 -0.24233554 0.24658003 0.033749573 0.246126 -0.300715 0.11806585
0.06804243 0.03366357 -0.19664359 0.055789515 0.22330393 -0.1860054 -0.32287487 -0.25615555
-0.23669654 0.25152153 -0.18105435 0.14178684 0.15065159 -0.19384247 0.2341398 0.27766985
0.05690102 -0.1748943 -0.12600759 -0.22028881 0.120593876 0.060302675 0.16772564 0.09195511
0.34262982 0.13278341 0.048594326 0.32911596 0.0007715961 0.03920712 0.27224866 -0.22171259
0.20039959 0.3392538 -0.19360836 -0.09334471 0.005612037 0.007374324 0.1453258 -0.107341304
-0.23144163 0.3211433 0.21233183 0.23662655 0.42192927 -0.124516845 -0.20409706 0.0015144346
-0.10264753 0.15233521 -0.2676843 0.24826832 0.22866462 -0.33244157 0.0117483465 0.35346952
0.36754638 0.27606568 -0.22552569 -0.096481174 0.14438228 -0.21049397 -0.30478245 0.04634536
-0.102608524 0.1872245 -0.10262272 -0.2744268 0.30277538 0.06402779 0.21279684 -0.13498652
-0.062101733 0.3202505 0.18080859 -0.105421886 0.11951553 0.3374206 0.3100242 0.3014929
0.29994845 0.19296561 0.18585713 0.34493014 0.016710456 0.11558329 0.2289029 -0.22364593
0.21782124 0.26393566 0.23066378 0.01834859 -0.3376583 0.25526652 0.03810511 0.07098725
-0.26474738 -0.019382015 0.22367218 0.18417582 -0.024558475 -0.08543355 0.30277988 0.34542048
-0.23474872 0.25549987 0.1050964 -0.1843557 -0.21264724 -0.29407397 0.036626182 0.3411967
-0.20901886 -0.05188735 -0.2011417 0.2534348 -0.13177848 0.07026661 0.2724009 0.33607107
-0.017249357 -0.1717775 -0.013942287 -0.16734368 0.32669532 0.19712754 -0.017951671 0.027727475
0.15333986 0.23546137 -0.005041237 0.12505212 0.21722397 0.2983935 0.21172458 -0.051479004
0.16644897 0.23848827 0.13020489 -0.026642801 0.32512015 0.07967382 0.10823254 0.15612148
-0.26231605 0.29590917 -0.3368472 0.02384997 0.35806745 0.3656941 -0.020269824 -0.21442884
-0.004771671 -0.30382377 0.32855573 -0.29927376 0.13247222 0.23536825 -0.25603056 -0.12964122
0.31528446 0.25610688 -0.092399046 -0.016304618 -0.2563697 -0.25895515 0.048868157 0.08433183
-0.30486286 -0.1523515 0.23148316 -0.2849591 0.08819217 -0.30448884 -0.11392889 0.1699118
0.3176957 -0.008724911 0.1656217 -0.35887608 -0.30604765 -0.09080733 0.24763805 -0.24255767
0.12302167 -0.0778961 -0.14194387 -0.09223003 -0.26435027 -0.32062665 -0.25373062 -0.28649452

ntm.controller.lstm.bias_ih_l0 f4 [400]
00000000: 5e0e 983b d820 13bd 066f 71bc 1ab4 41bb
00000010: 2b12 963c 77fc 283c b828 673c 9e23 75bc
00000020: fd0a 5f3c f78e 15bb 0853 f53c 1a03 8f3d
00000030: 9304 703c 64eb 463d c5da a63c 6c43 023d
00000040: 6eb1 bd3c ac21 ef3c 023b 043d a0ec 773c
00000050: 089b 5e3c fc13 28bc c751 1b3c 3227 78bb
00000060: 0290 323c 86b9 953c 6b52 a53c efb2 983b
00000070: 5c6e e83b 1217 033c 3a18 5b3c 0768 583d
00000080: 91eb 3e3b 4098 e83c 4ac6 0c3c 3664 fbbc
00000090: 59de 073d 297a 333d 85a7 ef3b 3c3c 7c3c
000000a0: 5c45 bf3c b5b0 0abc 9b8d 58bc cd1b 70bd
000000b0: a248 1f3c 5036 04bc 8060 123d 28ae 8c3c
000000c0: 6a9f 8f3c a59d 363c bf48 b63c 66d8 143d
000000d0: 7e91 9d3c 54d6 833b abec d7bb caf9 17bc
000000e0: ed49 b7bb 9ab3 cd3c cd28 38bc ab85 1ebc
000000f0: e2de 4e3c 12f9 503c 6f03 aa3b c98c a2bb
00000100: 223b 81bb 2619 09bd f149 60bc eedd 573c
00000110: 5e92 cf3c 8710 9d3b 7d8b ab3c f5b0 b23c
00000120: b66f 6c3b 03e2 813b 2797 febb c26c 183c
00000130: d7a0 9b3b f880 43bd 58b4 713c ecea 413c
00000140: 00b3 a13c f6bb 8bbc a9a3 133c fd0a 8b3c
00000150: b551 573c 3452 71bc 8916 a73b b954 983b
00000160: 0f6c 9fba 6211 a73c 03c0 cf3a 413e 9f3c
00000170: a74a 623d 68b3 bf3b 7439 1f3c bf94 8e3c
00000180: eb0e 0e3c c86e ed3b 61d6 4c3d 06ba bdbb
00000190: f31f a23b 3cea 25bc 9c96 2fbc 9c7b bf3b
000001a0: 0502 58bb 8a87 0cbb 6231 36bb a3e5 fc3b
000001b0: f92e c73c 55d4 073b f262 8e3c a1bc 98bb
000001c0: 92d8 e53c c313 cc3c 25ea 9dba 4fd1 97bb
000001d0: 0da0 033d 44b6 033d a550 d53b 2442 c13c
000001e0: f099 733b 0985 e4b7 0998 5c3b dd47 e53b
000001f0: 3944 fd3b 722a a33c f952 4e3a 5053 a5bb
00000200: 2d1c 8f3c 1d8b bebb aebb 123c 5ba1 883c
00000210: 8d14 6c3c 2bf3 763b 7f7a 713c 5b7d ffba
00000220: b865 c2bb eb61 843d 127b 9bbb d2fd 963c
00000230: 1160 983c af9d 89bb 9653 443b 1b75 67bd
00000240: 4345 233c 5492 1c3b 5996 9f3c 8f0f 423d
00000250: 13f2 913c e40d fc3b f503 033c 7f0c ed3b
00000260: da49 b53a 7665 d73a 1844 8dba 866e 42ba
00000270: 4aac 613d 63be 653c fd06 b3bc a314 84bb
00000280: 11ec 343c 4e6c 573b f87b 0c3c 98c8 e0bb
00000290: e832 9dbc cba4 bcbc 9d76 94bc 9f8e 7dbc
000002a0: 6d7e 6f3c 63f4 3f3b 96ca 8dbb 8101 fdbb
000002b0: e522 2abc f018 a3bb d8ee 16bc 5dee 123c
000002c0: b143 0d3b b7b2 f0bc 030b b3bb 6933 d63c
000002d0: 4331 8e3c 53ef d0bb bdb5 a23c a681 a93b
000002e0: cfef 82ba bd6b 8bbc 282c 1e3d 65f3 26ba
000002f0: 9d07 b93c 4667 aa3b 761e eebb ce49 ae3b
00000300: 526c 853c 341f 97ba 1b77 dd3c 9c34 a0bc
00000310: bbdc b9bb c028 653c b31d ec3c c641 b9bc
00000320: 35f7 8ebc 6c86 693c 8a55 913c cf30 90bb
00000330: b23c fd3a e3ad a6bc c622 86bb 3a54 9d3c
00000340: bce7 94bc 1b7b 70bc df22 65bc 0eb8 9b3b
00000350: e4b8 fdbb c09b 6abc 15a2 d93b 2640 623b
00000360: ceb4 8c3c a2e1 743b ceb1 93bc e31b 75bb
00000370: 6555 4b3c 5e28 8ebc d7d7 e93b cae1 833b
00000380: 2a95 c8bc 4b3b eb3c 5fb8 e9bb 929b b93b
00000390: 08d1 713c bf3a 31bb 5954 5b3c 1406 36bc
000003a0: 1b0c 433c 8c50 f53b 6f70 1a3c 6904 c2bc
000003b0: 6457 20bc eee8 4e3d 7798 32bb da02 09bc
000003c0: 1d1e d0bc d35a ac3c 485c 25bc 9731 a0ba
000003d0: d8bc 67bc c6ab 633a 9808 cf39 02cb babc
000003e0: 6e7d 42bc bfd2 943c 6ecc 793c 0d24 adbc
000003f0: 1466 a3bc f894 293b a243 1dbc 18b9 9fbb
0.0046403846 -0.035919994 -0.014735943 -0.0029556812 0.01831921 0.010314099 0.014108829 -0.014962105
0.01361346 -0.002282081 0.029946819 0.069830135 0.014649528 0.04856433 0.02036799 0.03180258
0.023155894 0.02919086 0.032282837 0.015132099 0.013586767 -0.010258671 0.009479946 -0.003786516
0.010898592 0.018276941 0.020180902 0.0046600024 0.007093234 0.008001106 0.013372475 0.052833583
0.0029132108 0.028392911 0.008592198 -0.030687433 0.03317103 0.043817673 0.007313671 0.01539522
0.023348503 -0.008464982 -0.013217355 -0.058620263 0.009721907 -0.00806959 0.03573656 0.017172888
0.01753207 0.011145984 0.022251485 0.036339186 0.019234415 0.0040233526 -0.0065894923 -0.009275863
-0.0055935294 0.025110055 -0.011240196 -0.009675424 0.012626382 0.0127546955 0.0051883976 -0.0049606306
-0.0039438168 -0.03347125 -0.013689504 0.013175471 0.025338348 0.00479323 0.020940537 0.021812895
0.0036077327 0.0039637103 -0.0077694836 0.009303274 0.004749398 -0.047730416 0.01475247 0.011835795
0.019738674 -0.0170574 0.009011188 0.016973013 0.013142039 -0.014729071 0.005099122 0.0046487716
-0.0012162941 0.020394031 0.0015850071 0.019438865 0.055246975 0.0058502443 0.009718288 0.017404912
0.008670549 0.007245872 0.050009135 -0.005789998 0.0049476563 -0.010126647 -0.01071706 0.005843593
-0.0032960188 -0.0021443092 -0.002780043 0.0077178045 0.02431439 0.0020725925 0.017381165 -0.004661158
0.02805737 0.024911767 -0.001204793 -0.004633106 0.03213506 0.032156244 0.0065098577 0.023591109
0.0037170611 -2.7241667e-05 0.0033659956 0.006997092 0.00772908 0.0199177 0.000787064 -0.005045332
0.01746949 -0.0058149234 0.008955879 0.016678503 0.014409197 0.003768156 0.014738678 -0.0019492315
-0.005932536 0.06463989 -0.0047448957 0.018431578 0.018600496 -0.0041997056 0.0029957048 -0.056508165
0.009965244 0.002389093 0.019480871 0.04737812 0.017815625 0.0076920856 0.007996549 0.0072341557
0.0013831214 0.0016433436 -0.001077774 -0.0007416982 0.05509595 0.0140224425 -0.021853918 -0.0040307804
0.011042611 0.003287095 0.008574478 -0.00685985 -0.019189313 -0.023027798 -0.018122965 -0.015475898
0.014617545 0.0029289953 -0.0043271286 -0.0077211265 -0.010384296 -0.004977338 -0.009212218 0.008967963
0.002155524 -0.029382093 -0.005463959 0.026147561 0.017357474 -0.006376186 0.01986205 0.005172926
-0.0009989681 -0.017019147 0.03861633 -0.0006368666 0.022586638 0.0052002994 -0.007266815 0.005318857
0.016287003 -0.0011529685 0.027034333 -0.019556336 -0.005672065 0.013986766 0.028822755 -0.022614371
-0.017451862 0.01425324 0.017740984 -0.0044003497 0.0019320457 -0.020346588 -0.004093501 0.019205201
-0.018176906 -0.014677788 -0.013985365 0.0047521656 -0.007742988 -0.01431936 0.006641636 0.0034523099
0.017176058 0.0037365933 -0.01802912 -0.0037400655 0.012410496 -0.017353233 0.007136326 0.004024719
-0.02448519 0.028714797 -0.0071325745 0.0056642974 0.01475931 -0.0027043072 0.013386809 -0.011109848
0.011904742 0.0074864086 0.00942622 -0.023683744 -0.009786461 0.050515108 -0.002725152 -0.008362496
-0.025404984 0.021039402 -0.010092802 -0.001222181 -0.014144145 0.0008684959 0.0003948852 -0.02280188
-0.011870725 0.018166898 0.015246494 -0.021135354 -0.019946136 0.0025876146 -0.009598644 -0.00487436

ntm.controller.lstm.bias_hh_l0 f4 [400]
00000000: 5e0e 983b d820 13bd 066f 71bc 1ab4 41bb
00000010: 2b12 963c 77fc 283c b828 673c 9e23 75bc
00000020: fd0a 5f3c f78e 15bb 0853 f53c 1a03 8f3d
00000030: 9304 703c 64eb 463d c5da a63c 6c43 023d
00000040: 6eb1 bd3c ac21 ef3c 023b 043d a0ec 773c
00000050: 089b 5e3c fc13 28bc c751 1b3c 3227 78bb
00000060: 0290 323c 86b9 953c 6b52 a53c efb2 983b
00000070: 5c6e e83b 1217 033c 3a18 5b3c 0768 583d
00000080: 91eb 3e3b 4098 e83c 4ac6 0c3c 3664 fbbc
00000090: 59de 073d 297a 333d 85a7 ef3b 3c3c 7c3c
000000a0: 5c45 bf3c b5b0 0abc 9b8d 58bc cd1b 70bd
000000b0: a248 1f3c 5036 04bc 8060 123d 28ae 8c3c
000000c0: 6a9f 8f3c a59d 363c bf48 b63c 66d8 143d
000000d0: 7e91 9d3c 54d6 833b abec d7bb caf9 17bc
000000e0: ed49 b7bb 9ab3 cd3c cd28 38bc ab85 1ebc
000000f0: e2de 4e3c 12f9 503c 6f03 aa3b c98c a2bb
00000100: 223b 81bb 2619 09bd f149 60bc eedd 573c
00000110: 5e92 cf3c 8710 9d3b 7d8b ab3c f5b0 b23c
00000120: b66f 6c3b 03e2 813b 2797 febb c26c 183c
00000130: d7a0 9b3b f880 43bd 58b4 713c ecea 413c
00000140: 00b3 a13c f6bb 8bbc a9a3 133c fd0a 8b3c
00000150: b551 573c 3452 71bc 8916 a73b b954 983b
00000160: 0f6c 9fba 6211 a73c 03c0 cf3a 413e 9f3c
00000170: a74a 623d 68b3 bf3b 7439 1f3c bf94 8e3c
00000180: eb0e 0e3c c86e ed3b 61d6 4c3d 06ba bdbb
00000190: f31f a23b 3cea 25bc 9c96 2fbc 9c7b bf3b
000001a0: 0502 58bb 8a87 0cbb 6231 36bb a3e5 fc3b
000001b0: f92e c73c 55d4 073b f262 8e3c a1bc 98bb
000001c0: 92d8 e53c c313 cc3c 25ea 9dba 4fd1 97bb
000001d0: 0da0 033d 44b6 033d a550 d53b 2442 c13c
000001e0: f099 733b 0985 e4b7 0998 5c3b dd47 e53b
000001f0: 3944 fd3b 722a a33c f952 4e3a 5053 a5bb
00000200: 2d1c 8f3c 1d8b bebb aebb 123c 5ba1 883c
00000210: 8d14 6c3c 2bf3 763b 7f7a 713c 5b7d ffba
00000220: b865 c2bb eb61 843d 127b 9bbb d2fd 963c
00000230: 1160 983c af9d 89bb 9653 443b 1b75 67bd
00000240: 4345 233c 5492 1c3b 5996 9f3c 8f0f 423d
00000250: 13f2 913c e40d fc3b f503 033c 7f0c ed3b
00000260: da49 b53a 7665 d73a 1844 8dba 866e 42ba
00000270: 4aac 613d 63be 653c fd06 b3bc a314 84bb
00000280: 11ec 343c 4e6c 573b f87b 0c3c 98c8 e0bb
00000290: e832 9dbc cba4 bcbc 9d76 94bc 9f8e 7dbc
000002a0: 6d7e 6f3c 63f4 3f3b 96ca 8dbb 8101 fdbb
000002b0: e522 2abc f018 a3bb d8ee 16bc 5dee 123c
000002c0: b143 0d3b b7b2 f0bc 030b b3bb 6933 d63c
000002d0: 4331 8e3c 53ef d0bb bdb5 a23c a681 a93b
000002e0: cfef 82ba bd6b 8bbc 282c 1e3d 65f3 26ba
000002f0: 9d07 b93c 4667 aa3b 761e eebb ce49 ae3b
00000300: 526c 853c 341f 97ba 1b77 dd3c 9c34 a0bc
00000310: bbdc b9bb c028 653c b31d ec3c c641 b9bc
00000320: 35f7 8ebc 6c86 693c 8a55 913c cf30 90bb
00000330: b23c fd3a e3ad a6bc c622 86bb 3a54 9d3c
00000340: bce7 94bc 1b7b 70bc df22 65bc 0eb8 9b3b
00000350: e4b8 fdbb c09b 6abc 15a2 d93b 2640 623b
00000360: ceb4 8c3c a2e1 743b ceb1 93bc e31b 75bb
00000370: 6555 4b3c 5e28 8ebc d7d7 e93b cae1 833b
00000380: 2a95 c8bc 4b3b eb3c 5fb8 e9bb 929b b93b
00000390: 08d1 713c bf3a 31bb 5954 5b3c 1406 36bc
000003a0: 1b0c 433c 8c50 f53b 6f70 1a3c 6904 c2bc
000003b0: 6457 20bc eee8 4e3d 7798 32bb da02 09bc
000003c0: 1d1e d0bc d35a ac3c 485c 25bc 9731 a0ba
000003d0: d8bc 67bc c6ab 633a 9808 cf39 02cb babc
000003e0: 6e7d 42bc bfd2 943c 6ecc 793c 0d24 adbc
000003f0: 1466 a3bc f894 293b a243 1dbc 18b9 9fbb
0.0046403846 -0.035919994 -0.014735943 -0.0029556812 0.01831921 0.010314099 0.014108829 -0.014962105
0.01361346 -0.002282081 0.029946819 0.069830135 0.014649528 0.04856433 0.02036799 0.03180258
0.023155894 0.02919086 0.032282837 0.015132099 0.013586767 -0.010258671 0.009479946 -0.003786516
0.010898592 0.018276941 0.020180902 0.0046600024 0.007093234 0.008001106 0.013372475 0.052833583
0.0029132108 0.028392911 0.008592198 -0.030687433 0.03317103 0.043817673 0.007313671 0.01539522
0.023348503 -0.008464982 -0.013217355 -0.058620263 0.009721907 -0.00806959 0.03573656 0.017172888
0.01753207 0.011145984 0.022251485 0.036339186 0.019234415 0.0040233526 -0.0065894923 -0.009275863
-0.0055935294 0.025110055 -0.011240196 -0.009675424 0.012626382 0.0127546955 0.0051883976 -0.0049606306
-0.0039438168 -0.03347125 -0.013689504 0.013175471 0.025338348 0.00479323 0.020940537 0.021812895
0.0036077327 0.0039637103 -0.0077694836 0.009303274 0.004749398 -0.047730416 0.01475247 0.011835795
0.019738674 -0.0170574 0.009011188 0.016973013 0.013142039 -0.014729071 0.005099122 0.0046487716
-0.0012162941 0.020394031 0.0015850071 0.019438865 0.055246975 0.0058502443 0.009718288 0.017404912
0.008670549 0.007245872 0.050009135 -0.005789998 0.0049476563 -0.010126647 -0.01071706 0.005843593
-0.0032960188 -0.0021443092 -0.002780043 0.0077178045 0.02431439 0.0020725925 0.017381165 -0.004661158
0.02805737 0.024911767 -0.001204793 -0.004633106 0.03213506 0.032156244 0.0065098577 0.023591109
0.0037170611 -2.7241667e-05 0.0033659956 0.006997092 0.00772908 0.0199177 0.000787064 -0.005045332
0.01746949 -0.0058149234 0.008955879 0.016678503 0.014409197 0.003768156 0.014738678 -0.0019492315
-0.005932536 0.06463989 -0.0047448957 0.018431578 0.018600496 -0.0041997056 0.0029957048 -0.056508165
0.009965244 0.002389093 0.019480871 0.04737812 0.017815625 0.0076920856 0.007996549 0.0072341557
0.0013831214 0.0016433436 -0.001077774 -0.0007416982 0.05509595 0.0140224425 -0.021853918 -0.0040307804
0.011042611 0.003287095 0.008574478 -0.00685985 -0.019189313 -0.023027798 -0.018122965 -0.015475898
0.014617545 0.0029289953 -0.0043271286 -0.0077211265 -0.010384296 -0.004977338 -0.009212218 0.008967963
0.002155524 -0.029382093 -0.005463959 0.026147561 0.017357474 -0.006376186 0.01986205 0.005172926
-0.0009989681 -0.017019147 0.03861633 -0.0006368666 0.022586638 0.0052002994 -0.007266815 0.005318857
0.016287003 -0.0011529685 0.027034333 -0.019556336 -0.005672065 0.013986766 0.028822755 -0.022614371
-0.017451862 0.01425324 0.017740984 -0.0044003497 0.0019320457 -0.020346588 -0.004093501 0.019205201
-0.018176906 -0.014677788 -0.013985365 0.0047521656 -0.007742988 -0.01431936 0.006641636 0.0034523099
0.017176058 0.0037365933 -0.01802912 -0.0037400655 0.012410496 -0.017353233 0.007136326 0.004024719
-0.02448519 0.028714797 -0.0071325745 0.0056642974 0.01475931 -0.0027043072 0.013386809 -0.011109848
0.011904742 0.0074864086 0.00942622 -0.023683744 -0.009786461 0.050515108 -0.002725152 -0.008362496
-0.025404984 0.021039402 -0.010092802 -0.001222181 -0.014144145 0.0008684959 0.0003948852 -0.02280188
-0.011870725 0.018166898 0.015246494 -0.021135354 -0.019946136 0.0025876146 -0.009598644 -0.00487436

ntm.controller.lstm.weight_ih_l1 f4 [400, 100]
00000000: 127b 493e f893 96be 26fc 9e3e e594 a43c
00000010: 8a1d 943e 1b94 1abe 499b 3f3e 39e5 84be
00000020: 0568 023e eb23 81be d2ec 1bbd f460 bfbc
00000030: e631 0bbd a358 2a3e 31c0 85bd 663f e8bb
00000040: 9ef0 4b3e ea35 b5bc c4bf 93be 5fea 38be
00000050: 810f 95be 1ee6 c03e 6e20 27be 19d8 133e
00000060: 3162 553e 86d8 6fbe 1fb5 29be 9034 363d
00000070: 2da1 88be 2624 60bd 7312 223e 1778 2dbe
00000080: 2203 b5bd 2375 053e 0d75 98bd 072c 03be
00000090: 03e4 3a3e 6164 6dbe ba1a 0e3e 64c1 10bd
000000a0: aa95 d23d 0dfb db3d 38b8 953e 7379 333d
000000b0: 9cfd d93d 7071 6fbe cef2 5b3d 7b27 1ebe
000000c0: 35d1 203e cc83 823e 24b9 f43c 629f 46be
000000d0: d65b fa3d d9a4 883e a418 9dbe f5ce 89bd
000000e0: 7bc2 813e 4a70 f13d 0929 d63d 648c f43d
000000f0: 05d9 1bbd b8a2 a13d 1d69 873e 2aeb fabd
00000100: 6b2c b03e 1295 0bbd caff 9b3d ceed 0fbe
00000110: 79e6 db3d 9d32 55be 9f3a 863e dbdf 59be
00000120: e719 9d3e e678 cb3b cb95 833e ad7c a9bc
00000130: bb5d 09be e049 333e 190a fa3d 330f 5abc
00000140: 6f1b 4abe 70cc d2bc 259b 343e c001 8d3e
00000150: 2069 643e a328 5d3e e2b3 553d 46ce 143e
00000160: d160 66be 5ad6 253e d27c 2c3e a9cd c6bc
00000170: d8af c23e e991 2dbd be65 763e c03c b4bc
00000180: 349d 94be 2d32 f8bd 6308 9ebe 533a 7cbe
00000190: 613f 5abd 06a2 963e 0ad2 af3d 1f3e c83d
000001a0: 76d1 ab3d aecc 5dbe 62a4 883e 390d 533d
000001b0: 874c 8abe a967 9d3c a2bd 263e bebd 9ebe
000001c0: 34f1 3fbe c155 443e 525b aa3e 15eb 83be
000001d0: fceb 6bbe 0504 c93d 8539 efbd 2151 84be
000001e0: e077 ef3d d044 aa3d 83a5 fe3d 5f45 283e
000001f0: 5038 a33d 2ec2 c03e db1f 143d ffe9 40be
00000200: 8533 403e 5bc0 c5bd 8407 9d3e cabd 9fbe
00000210: d522 263d de6f 273d 7b33 43be 5f9d 65bd
00000220: 94a6 803e 8828 eb3d d06a 2c3e 29c3 76be
00000230: 8b4d adbe f912 fe3d 7180 3dbe c553 47be
00000240: c99b 683e ffb2 903e 7034 1abe ae57 95be
00000250: ac68 85be d1b4 12be 69f5 f8bd d8b0 703d
00000260: 40a0 653e f348 0bbe 15e5 12bd 42ba a8be
00000270: d91c e6bb 1769 95be 2e8d 85be 9252 bebe
00000280: 51b5 b73e 16eb a43e f044 5dbe bd41 8dbe
00000290: 33e4 413d 04d3 41bd 3367 5bbe 1a7e 773d
000002a0: 371f a13e 7165 b83d 6ffe 4fbe 085e 49be
000002b0: 79b4 d7bd 6b95 883e ac8a 8dbd 3664 393e
000002c0: b3ea 90be 440a 41be 771f 45be 21f2 0dbe
000002d0: fe34 8a3e 0829 63be 5658 013e a7e4 3ebd
000002e0: b678 52be 2a87 48be a63e a53e 8f71 63be
000002f0: 9e19 a53e 60bd 2dbd 67dd 72bd e56b c6be
00000300: 51a2 8c3e c430 1a3d 8194 99be ed59 a2be
00000310: 11b9 03be cce3 43be 6ddf 773e 038b 4c3e
00000320: 142e 34be 7a4a f93d 5bd3 92be f0dd b93d
00000330: dfce a73d b2c2 ad3c d6f8 92be ec11 34bc
00000340: d1d0 853d d99f 773e 42bf 27bd 0041 693d
00000350: ef36 fc3c edcf 92be 70ec 683e 7874 8bbd
00000360: b02a 1abd ae99 99bd fbe7 dfbb 8239 b83c
00000370: 631c 34be 602c 7cbe 1a28 84be 2f3a 553e
00000380: 121e 883e dc3f 0cbc d3e7 e23c 06c9 8cbe
00000390: 21b8 86be 75e2 db3c 6c28 403e 400c 4e3d
000003a0: 58bc bc3c fbb0 4c3e efcd 2abc 64ab 6cbe
000003b0: 7d44 313e 690f bbbe cf19 3fbe d7ed 3e3e
000003c0: 3f42 9e3e 1416 143d 0eda 1b3e d162 2f3c
000003d0: 5f50 b2be ad01 3b3e c9b6 043e 693f c33d
000003e0: 9a8b 013e 9999 423e 74b2 db3d fa0e cd3d
000003f0: 7596 d8bd 209c 383e ab90 623e c899 85be
0.19675854 -0.29409766 0.3105175 0.02009053 0.28928787 -0.1509556 0.1871158 -0.25956133
0.12734993 -0.25222716 -0.038067646 -0.02336166 -0.033983134 0.16635375 -0.06530798 -0.007087636
0.19916007 -0.022120435 -0.28857243 -0.18058155 -0.2911339 0.37675565 -0.16320965 0.14437903
0.20838238 -0.23422441 -0.16572998 0.04448372 -0.26685467 -0.054721974 0.1582735 -0.16940342
-0.08838488 0.13032965 -0.07444201 -0.12809764 0.18251042 -0.23182823 0.13877383 -0.03534068
0.102824524 0.107412435 0.2924211 0.043816995 0.10644075 -0.23383117 0.053698353 -0.15444748
0.15704806 0.25491178 0.029873438 -0.19396737 0.122245476 0.2668827 -0.30682862 -0.06728927
0.2534369 0.117889956 0.104570456 0.1194084 -0.038048763 0.07892364 0.26447383 -0.12251885
0.34408888 -0.03407771 0.07617147 -0.14055559 0.107373185 -0.20820089 0.262166 -0.212768
0.30683824 0.0062094806 0.2570022 -0.020689333 -0.13414662 0.1750865 0.12208957 -0.013309288
-0.19737028 -0.025732249 0.17637308 0.27540398 0.22305727 0.21597533 0.052173503 0.14531812
-0.2249787 0.1619505 0.1684449 -0.024267988 0.38024783 -0.04237548 0.24062249 -0.022001624
-0.29026186 -0.12118945 -0.30865774 -0.24631624 -0.0532831 0.2942049 0.08584984 0.09777474
0.08389561 -0.2166011 0.26687914 0.051526282 -0.2701151 0.019214468 0.16283277 -0.31004137
-0.18744355 0.19173338 0.33272797 -0.2576529 -0.2303924 0.0981522 -0.11680893 -0.25843146
0.11692786 0.08313906 0.124339126 0.16432713 0.07969725 0.37648147 0.036163192 -0.18839262
0.18769653 -0.096558295 0.30669796 -0.31199485 0.040560562 0.04087817 -0.19062607 -0.056058284
0.2512709 0.1148234 0.1683762 -0.24097885 -0.33848223 0.124059625 -0.18506028 -0.1946555
0.22715677 0.28261563 -0.15059066 -0.29168457 -0.2605642 -0.14326788 -0.12156183 0.0587624
0.22424412 -0.13602047 -0.035863 -0.32954603 -0.007022482 -0.2918174 -0.26084274 -0.3717237
0.3588052 0.32210606 -0.21608329 -0.27589217 0.04733677 -0.04732038 -0.21426086 0.060422994
0.31469128 0.090037234 -0.20311902 -0.19664776 -0.10532469 0.26676497 -0.06911215 0.18104634
-0.2830406 -0.18851572 -0.19250284 -0.13861896 0.26993555 -0.22183621 0.12631354 -0.04660478
-0.2055386 -0.19582811 0.3227436 -0.22211288 0.32246107 -0.04241693 -0.059293177 -0.38754192
0.27467588 0.037644163 -0.29996112 -0.31709233 -0.12863566 -0.19129866 0.24206324 0.19974904
-0.17595702 0.121724084 -0.28676876 0.09075534 0.081937544 0.021211002 -0.28705472 -0.010990601
0.06533969 0.24182071 -0.040953882 0.056946754 0.030787913 -0.2867426 0.22746444 -0.06809324
-0.037638366 -0.07500015 -0.006833074 0.02248836 -0.17588954 -0.24626303 -0.25811845 0.20822977
0.26585442 -0.008560147 0.027698433 -0.2749712 -0.26312354 0.026841382 0.1876542 0.05030465
0.023039028 0.19989388 -0.010425075 -0.23112255 0.17311282 -0.36535195 -0.18662189 0.18645416
0.30909917 0.036153868 0.152199 0.010704712 -0.34826943 0.18262358 0.12960352 0.09533579
0.1265091 0.19003905 0.107273966 0.10012622 -0.105755724 0.18028307 0.22125499 -0.26093888

ntm.controller.lstm.weight_hh_l1 f4 [400, 100]
00000000: 7b54 9cbe 0a62 5dbe 2b55 a53e 8d61 9cbe
00000010: d294 ac3e 8804 69be e912 f8bc fa86 173e
00000020: f735 5fbd de6d 17be 1727 a43d 9314 b1be
00000030: 9a58 c63d 27d4 18be 2992 94bc 7f3f eebd
00000040: 4093 303e b100 693e 290c 7e3e 9eb4 42be
00000050: a5e0 8ebe da0a 71be 1186 eabc 1ddc 86be
00000060: 8deb 843d e4a0 5f3e 202b 93be a5b6 92be
00000070: 4a00 a2bc 0041 843e 41a4 d3bd b5cf 62be
00000080: ad85 a13d 1e7a 6f3e cde3 923e 0aa5 2cbe
00000090: c70c 66be 026e b33d 296c 513e 4784 af3e
000000a0: 5a3b 423e 6d6b c0bc fdeb 363e 47f3 123c
000000b0: ae93 b23e c806 c2bd 327e 90be 12c1 97be
000000c0: 7ce3 b3be 432c b53d f44f 86bd 63d7 93be
000000d0: 185f 94be 5829 48bd 4303 b4be 8e2b 29be
000000e0: 86c5 983e d8aa 32be dbaf 2d3e fff2 5dbe
000000f0: 752b c63d b38a 80bb ea0b 0cbb 4a0f 72be
00000100: 1825 71be 8a79 7b3e a348 47be 5ffc 903e
00000110: 175f c6be a4ec ab3e 138c 1bbe 8f98 003e
00000120: 1d32 6f3e d540 833e 59f8 053e 7842 8b3e
00000130: 054c 353e 3990 5bbc ed9a 443e d96e 003e
00000140: 9496 823e 0ae7 bc3e ab66 4bbe c2d2 cfbd
00000150: 1add a2be d4c7 88be 6364 823e 7c22 70be
00000160: d788 8abd c740 9b3e a824 823d c24f a83e
00000170: ccec 8dbd b346 81be ccd2 bdbe 3906 573e
00000180: 45cb 67be 6e68 97be 7523 b2be 5baf b7be
00000190: cd0c a2be 1222 243e e3e0 903e e5b2 943e
000001a0: 5e8e 9f3e c326 893e 781a 653d 90ed 943e
000001b0: abeb 89be 7486 ac3e 52d0 853c 2503 653e
000001c0: e6a6 a3bd a629 593e 919f 8d3e 48df 1c3e
000001d0: 7b3d 9bbe 9dc9 923e d847 553e 39b7 453d
000001e0: 5b0b a63e 317a 75be c26a a83e 7541 b53e
000001f0: 7c79 cebd 3c51 833d 85b4 9fbe b529 943d
00000200: 9fe7 813d a4a5 a2be 0670 743e f8f8 ad3e
00000210: 2ca8 26be 1878 81bd 9159 d6bd 8c95 733d
00000220: 96a1 b63e 1877 47bd e2a3 7ebc c08c 9e3d
00000230: 6bd5 5bbe 6a53 993e 78c2 e53d f963 72be
00000240: ace3 94be e2fc 003e 7259 813c ec1a 9d3e
00000250: 0caf 97be 872f 4a3e 32bb e43d 4511 c8bd
00000260: 3646 b7bd 65f0 fc3c 4f88 543e aad5 d63d
00000270: ba7c 633e 3f3d 503e 3395 64be e454 c8bc
00000280: 9244 263d 2631 e83d 071f 9d3e d29a 9d3e
00000290: ad05 703e a4f4 4fbe a7bc 6d3e 1307 a63e
000002a0: d87f 023e 21b9 6c3e 29b8 073e 9a5a bcbe
000002b0: 3790 0cbe 6125 1ebe 921e 29be 84e7 08be
000002c0: 9aae 56be 0861 d13d 567b f7bd 15ef 4f3e
000002d0: 2a64 adbd 9958 5fbe 317e 593d ca8c d03d
000002e0: 5ff9 973e 2ce7 2e3e 0bb6 823e 358b 323a
000002f0: b279 fd3d 6a48 19bc 91dc f03d 0d16 a4be
00000300: 8934 33bd 544f 3e3a e2a9 4a3c 2793 a13e
00000310: 1881 143e 9c19 7f3e 43b4 71be 787d 4d3c
00000320: 90b5 fa3d fe82 383e eb14 1fbd 6b30 b43d
00000330: afa0 453e 9edd a5be 91c5 b1be f62d f53c
00000340: 8dae 8fbe c697 5c3e dea9 8d3d 566c 7f3e
00000350: 3d8f 023e d3d8 c13b 399e 933e 7d6f 4fbc
00000360: 4db7 adbe 3d89 c1bd 950e 8dbe 06fe a9be
00000370: a941 e73d 82e0 0fbe 3fbd 01bd 24ea 09be
00000380: dfb4 82bc 9f82 cd3d 6953 d8bc a974 2ebe
00000390: ac72 073e d4a8 dabd bbd4 e5bd e6c7 0fbe
000003a0: 64fd fdbc 843d 343e f26b 81be 4fef 6abe
000003b0: 2026 5bbe bee1 4ebd 16b1 6bbe cc87 e33d
000003c0: b98c 463e ef75 7bbc a594 55be 3986 dc3c
000003d0: 1f54 39be d2e5 003d cbd4 743e eaa3 20be
000003e0: 6cba 41be cdd1 76be fbca 613d df29 5a3e
000003f0: 56ab 903d 6b5a 49bb d7dd 083e e8e8 26be
-0.30533203 -0.2161943 0.3229154 -0.30543175 0.3370729 -0.22755635 -0.030282455 0.14797583
-0.054494824 -0.14788005 0.08015268 -0.3458601 0.09684868 -0.1492468 -0.0181361 -0.11633205
0.17243671 0.2275417 0.24809326 -0.19014212 -0.27905765 -0.23539296 -0.028628381 -0.26339808
0.0649024 0.21838719 -0.2874384 -0.28654972 -0.019775528 0.2583084 -0.10334063 -0.22149546
0.07886825 0.23386428 0.28689423 -0.16859832 -0.22465812 0.08761217 0.20451416 0.34280607
0.18967953 -0.023488725 0.1786346 0.008969135 0.34878296 -0.0947395 -0.2822128 -0.29639488
-0.35134494 0.08846333 -0.065582186 -0.28875265 -0.289788 -0.048867553 -0.35158738 -0.16520521
0.29838198 -0.17447984 0.16961615 -0.21674727 0.096762575 -0.0039227842 -0.0021369406 -0.23638645
-0.23549306 0.24558082 -0.19461302 0.28317544 -0.38744423 0.3357898 -0.15190153 0.12558196
0.2335896 0.256354 0.13083018 0.2719915 0.1770478 -0.013401085 0.19199724 0.12542285
0.25505507 0.3689502 -0.19863383 -0.10147621 -0.31809312 -0.26714957 0.25467214 -0.23450655
-0.067643814 0.3032286 0.06354648 0.3287335 -0.06929931 -0.25249252 -0.37074888 0.20998468
-0.22636135 -0.2957186 -0.34792677 -0.35875973 -0.3165039 0.16028622 0.28296575 0.29042736
0.31163305 0.26787385 0.055933446 0.29087496 -0.26937613 0.3369633 0.016334686 0.22364481
-0.07990818 0.21207294 0.27660802 0.1531955 -0.30320343 0.28669444 0.20828187 0.048270438
0.3243054 -0.23972394 0.3289395 0.35401502 -0.10081765 0.064119786 -0.31192413 0.072345175
0.06343006 -0.31767 0.23870859 0.3397901 -0.1627509 -0.06321734 -0.10466302 0.05946879
0.35670155 -0.04869756 -0.015542002 0.0774169 -0.21468131 0.29946452 0.112187326 -0.23670949
-0.2907995 0.12596467 0.015789721 0.30684602 -0.29625738 0.19744693 0.11168517 -0.09768919
-0.089489385 0.030876348 0.20755123 0.10489972 0.22215548 0.20335864 -0.2232254 -0.024454542
0.040592737 0.11337499 0.30687734 0.3078218 0.23439665 -0.20308167 0.23216496 0.32427272
0.12744081 0.23117496 0.13253845 -0.36787874 -0.13726889 -0.15443946 -0.16515568 -0.13369566
-0.20965043 0.10223585 -0.12084071 0.20306046 -0.084663704 -0.21811141 0.05309886 0.101831034
0.29682443 0.17080373 0.25529513 0.00068109046 0.12376727 -0.009355644 0.1176082 -0.32048073
-0.043751273 0.00072597456 0.012369605 0.3155758 0.1450237 0.24912113 -0.2360392 0.012542121
0.122416615 0.1801872 -0.03883831 0.087982975 0.19299577 -0.32395643 -0.34721044 0.029929142
-0.2806286 0.21542272 0.06917165 0.2494367 0.12749954 0.00591574 0.28831652 -0.012660858
-0.3392891 -0.09450004 -0.27550188 -0.33201617 0.112918206 -0.14050487 -0.03167462 -0.13468224
-0.015955387 0.100346796 -0.02640696 -0.1703669 0.13227338 -0.10676733 -0.11222216 -0.14041099
-0.031004615 0.17601591 -0.25277668 -0.22942851 -0.21401262 -0.050508253 -0.23016772 0.111098856
0.19389619 -0.015347942 -0.20857485 0.026919471 -0.18098496 0.031469174 0.23909299 -0.15687528
-0.1891877 -0.2410347 0.055125218 0.21305035 0.0706393 -0.003072406 0.13365875 -0.16299784
