results/priority-sort/priority-sort-task-1-batch-22000.model (torch_old, 876115 bytes, 49 tensors)

ntm.read0_bias f4 [1, 20]
0.008534628 0.008435046 -0.008264077 0.00018172165 0.0046713464 0.00930393 0.0023353018 0.011105952
0.0061267973 -0.011406721 -0.0012917069 -0.0018287291 -0.02607943 0.0029292086 0.01707296 -0.015079479
-0.009413523 0.0030175606 0.009871223 0.0013471204
00000000: d3d4 0b3c 2633 0a3c 0d66 07bc 898c 3e39
00000010: 1812 993b 836f 183c dd0b 193b bdf5 353c
00000020: 4dc3 c83b 41e3 3abc 7e4e a9ba f7b1 efba
00000030: 87a4 d5bc f7f7 3f3b 98dc 8b3c eb0f 77bc
00000040: 2d3b 1abc 44c2 453b e9ba 213c dc91 b03a

ntm.read1_bias f4 [1, 20]
0.0074309288 -0.0024586967 0.0061495206 0.0063787727 0.0033937113 0.0051422534 -0.0030757 -0.0018738745
-0.001625842 -0.0012667794 0.019063577 0.011108604 -0.004539704 -0.00995929 0.00015343723 -0.0067059505
0.0022206204 0.008695815 -0.0094873225 -0.0037890621
00000000: 267f f33b 1622 21bb eb81 c93b 0605 d13b
00000010: 0769 5e3b 5980 a83b af91 49bb cb9c f5ba
00000020: 341a d5ba 100a a6ba 382b 9c3c dd00 363c
00000030: ccc1 94bb 4a2c 23bc fee3 2039 97bd dbbb
00000040: d487 113b e478 0e3c b770 1bbc ea51 78bb

ntm.read2_bias f4 [1, 20]
0.008418408 -0.02165412 0.026195146 -0.014825749 0.007117094 0.0035536014 0.0053983554 0.0027502493
-0.010106821 -0.009972419 0.010024577 -0.0010381936 -0.0034792167 0.0038336124 -0.0016785387 0.0035286348
0.016281763 -0.01577581 0.018273318 -0.010903853
00000000: 5ded 093c fb63 b1bc 3497 d63c b3e7 72bc
00000010: 8336 e93b 8ae3 683b b0e4 b03b 873d 343b
00000020: 1497 25bc 5b63 23bc 203e 243c ff13 88ba
00000030: 9203 64bb 583d 7b3b 6a02 dcba ab40 673b
00000040: 5561 853c 463c 81bc edb1 953c 13a6 32bc

ntm.read3_bias f4 [1, 20]
-0.00884936 0.0021171118 -0.009916693 0.0048082955 0.00040438664 0.0034891157 0.022625888 -0.012612301
0.001597294 -0.0005343199 0.011532222 0.006451259 -0.0008236384 0.0039824215 0.005928821 -0.008201689
-0.014374395 -0.0029393584 -0.009005442 0.017612504
00000000: e8fc 10bc 3ebf 0a3b a079 22bc e88e 9d3b
00000010: db03 d439 a6a9 643b ed59 b93c d3a3 4ebc
00000020: 4b5c d13a 9a11 0cba a5f1 3c3c 1565 d33b
00000030: 70e9 57ba f97e 823b 8e46 c23b 6160 06bc
00000040: 9582 6bbc 40a2 40bb 908b 13bc 1948 903c

ntm.read4_bias f4 [1, 20]
0.001292041 0.017851794 -0.0018190525 0.0074159033 -0.0039567947 -0.008849636 -0.0064109443 0.008246496
-0.002400217 0.008319184 -0.010934709 -0.014668811 -0.011997054 -0.009604894 -0.00038494423 0.0016552132
0.005631958 -0.0022477664 -0.0169643 0.010374
00000000: b459 a93a ed3d 923c 466d eeba 1b01 f33b
00000010: 00a8 81bb 10fe 10bc e612 d2bb 501c 073c
00000020: f64c 1dbb 304d 083c 7e27 33bc 7455 70bc
00000030: 4b8f 44bc d85d 1dbc 57d2 c9b9 bdf3 d83a
00000040: 4a8c b83b 434f 13bb b7f8 8abc b6f7 293c

ntm.controller.lstm_h_bias f4 [2, 1, 100]
0.033554524 -0.04424573 -0.022364657 -0.10505242 -0.037955396 0.06658978 -0.06184793 -0.049457
0.009163586 0.0020296592 -0.014671001 -0.031861898 0.03456998 0.020737182 -0.09403559 0.07032184
-0.03902118 -0.0016911251 0.08745491 0.060481388 -0.06841162 0.023689004 0.03810679 -0.07314979
-0.07152064 0.09917599 -0.04159104 -0.028890166 -0.0055695116 -0.021296684 -0.05511332 -0.0840214
-0.020936267 -0.054002278 -0.13323355 0.019995546 -0.038255922 -0.035299234 0.10436069 -0.013770414
0.046363592 -0.03249381 -0.032860786 0.028579447 -0.034426987 -0.031038841 0.0016409744 0.07394914
0.04163717 -0.011113385 -0.0046932297 0.122098595 -0.0134576 0.13028948 -0.02443956 0.0023704749
0.006998165 -0.101837754 0.041004267 0.11081629 0.09708367 -0.01646051 0.05010055 0.021468159
0.06455095 -0.037664816 -0.0024253845 -0.0754697 -0.09388753 -0.109600596 -0.020219699 -0.10599727
0.015367427 -0.023848291 0.0049995095 -0.030818518 -0.05914198 -0.0835777 -0.0025796904 -0.011880536
0.03229875 -0.053973943 -0.15788823 -0.009407131 -0.029098097 0.017014863 -0.03707441 -0.041539907
0.0060394467 0.09920964 -0.0026550347 -0.012601973 0.047323596 -0.028935306 0.08559768 -0.06866276
0.08779903 0.09586638 0.0060867695 -0.034429584 0.25109276 0.038830265 0.07589353 0.05493017
-0.12525791 0.065766886 0.08034584 -0.11241263 0.07949801 -0.091586776 -0.013090597 -0.07399722
0.11286348 0.06554313 -0.053897146 -0.0763357 0.14662705 -0.0002732469 -0.11133065 0.009914335
-0.061389238 0.037047412 0.027569875 0.05046689 -0.02373768 -0.07396716 -0.036372278 0.14065936
0.0044656796 0.13135605 0.058827065 0.01450702 0.08299967 0.0010199093 0.13580944 -0.08889919
-0.015934512 0.03193453 0.09891773 -0.049770314 0.0693293 -0.083672225 -0.085630484 -0.055382825
-0.04464921 0.0054113297 0.10092046 -0.013014155 0.09897843 -0.024156606 0.000599862 0.08196643
0.061902072 -0.025667049 -0.07856532 0.009225409 -0.1373383 -0.06606345 0.029841496 -0.08028464
0.05681578 0.10288767 0.10802452 0.08938105 -0.04493812 -0.05532598 0.0036636216 -0.04965466
0.012420597 0.06564405 0.05035725 0.21356842 -0.12224253 0.05576571 0.068030775 -0.17564353
0.04573822 -0.026110206 -0.08886806 -0.15926872 0.018619053 -0.061215453 0.00409568 -0.091614254
0.11993037 -0.09653366 -0.058844015 -0.11741489 -0.03264335 -0.09944164 0.048055857 -0.06744665
0.0413517 0.15445516 -0.0037709903 -0.14932658 0.050675184 -0.06948046 0.12539877 -0.020044537
00000000: 7870 093d 033b 35bd 1636 b7bc b925 d7bd
00000010: 1e77 1bbd 3960 883d 4154 7dbd 6c93 4abd
00000020: de22 163c 0804 053b a35e 70bc 9f81 02bd
00000030: 4099 0d3d 06e1 a93c bb95 c0bd e604 903d
00000040: acd4 1fbd bea8 ddba 8f1b b33d 55bb 773d
00000050: 641b 8cbd 710f c23c de15 1c3d 8fcf 95bd
00000060: 6a79 92bd c81c cb3d 5e5b 2abd 12ab ecbc
00000070: 7380 b6bb 6276 aebc 81be 61bd 6913 acbd
00000080: 8982 abbc 7e31 5dbd 606e 08be b3cd a33c
00000090: 3eb2 1cbd ee95 10bd 0fbb d53d 4d9d 61bc
000000a0: c0e7 3d3d 3b18 05bd 0899 06bd 721f ea3c
000000b0: 5003 0dbd 2b45 febc f715 d73a a672 973d
000000c0: bd8b 2a3d ea14 36bc aac9 99bb d40e fa3d
000000d0: 447d 5cbc 9b6a 053e 7935 c8bc f859 1b3b
000000e0: dd50 e53b 5090 d0bd 17f4 273d a7f3 e23d
000000f0: ced3 c63d 31d8 86bc 3c36 4d3d fedd af3c
00000100: 4a33 843d 6c46 1abd 33f3 1ebb dc8f 9abd
00000110: 1b48 c0bd 4776 e0bd c8a3 a5bc 1915 d9bd
00000120: a9c7 7b3c 7e5d c3bc edd2 a33b 1e77 fcbc
00000130: dc3e 72bd c92a abbd 0610 29bb 94a6 42bc
00000140: b24b 043d c813 5dbd 74ad 21be 5e20 1abc
00000150: 225f eebc c162 8b3c 56db 17bd c025 2abd
00000160: 8de6 c53b 6c2e cb3d 1700 2ebb 8178 4ebc
00000170: 63d6 413d bc09 edbc d64d af3d 109f 8cbd
00000180: facf b33d 9855 c43d 8673 c73b 0906 0dbd
00000190: 3b8f 803e 7c0c 1f3d 116e 9b3d 75fe 603d
000001a0: 9c43 00be cab0 863d 5c8c a43d 9838 e6bd
000001b0: dacf a23d d991 bbbd f279 56bc db8b 97bd
000001c0: f824 e73d 7a3b 863d 41c3 5cbd e455 9cbd
000001d0: 6725 163e 9442 8fb9 5301 e4bd bc6f 223c
000001e0: 4873 7bbd 07bf 173d 38da e13c 5fb6 4e3d
000001f0: 8675 c2bc 187c 97bd 19fb 14bd 0209 103e
00000200: d654 923b 3382 063e a6f4 703d daae 6d3c
00000210: bbfb a93d 7aae 853a a111 0b3e c710 b6bd
00000220: 1889 82bc c8cd 023d 6195 ca3d f5db 4bbd
00000230: 85fc 8d3d 585c abbd 095f afbd 1ad9 62bd
00000240: 17e2 36bd 8651 b13b 63af ce3d 5339 55bc
00000250: 34b5 ca3d 13e4 c5bc 0f40 1d3a 04de a73d
00000260: 078d 7d3d b443 d2bc dbe6 a0bd 2b26 173c
00000270: 69a2 0cbe 464c 87bd 2776 f43c 466c a4bd
00000280: aab7 683d c5b6 d23d f63b dd3d 690d b73d
00000290: 0911 38bd 7f9d 62bd 5f19 703b af62 4bbd
000002a0: c27f 4b3c 6370 863d 6743 4e3d aeb1 5a3e
000002b0: 4b5a fabd 966a 643d b853 8b3d e6db 33be
000002c0: 0058 3b3d 12e5 d5bc 7500 b6bd 5717 23be
000002d0: fc86 983c 0ebd 7abd 0e35 863b 41a0 bbbd
000002e0: 0e9e f53d 71b3 c5bd 6c06 71bd 3877 f0bd
000002f0: 09b5 05bd 0fa8 cbbd 38d6 443d 7821 8abd
00000300: 6660 293d 7e29 1e3e b822 77bb 11e9 18be
00000310: c890 4f3d c54b 8ebd 8968 003e 7134 a4bc

ntm.controller.lstm_c_bias f4 [2, 1, 100]
0.036525223 -0.010576642 -0.04424586 -0.0064717326 0.031526238 -0.022738965 -0.11631704 0.076537125
-0.057154294 -0.037688322 0.07321386 -0.07752762 -0.03337586 -0.028297901 0.14973348 -0.017821398
0.007716141 -0.09589161 0.09822224 -0.05190599 -0.029338568 -0.051291816 0.0038779483 -0.026765166
0.0009327498 0.08638926 0.025566246 -0.005466571 -0.06806449 0.026786182 -0.0831468 -0.078153014
-0.05594485 -0.0874802 -0.02660313 -0.06772644 -0.028308472 -0.12624115 -0.004547076 -0.031544726
0.020443197 -0.06209776 -0.08470312 0.022783464 0.0017400874 0.030390766 0.023532337 0.018739417
-0.022399765 0.0105537595 0.01592705 -0.04127135 0.0061535123 -0.03194714 0.10484472 -0.018126504
-0.017229272 0.008429189 0.0041003944 0.059806656 0.019215364 -0.031344835 -0.010232281 -0.008727101
0.033212934 -0.008217623 -0.046556544 0.06007013 -0.0022815387 -0.02566356 0.03305843 -0.12043375
-0.055627167 0.0344791 0.020059096 -0.05245762 0.00276448 -0.13113551 -0.05710094 -0.047092535
-0.03956807 -0.06656411 0.0025499382 -0.0658788 0.08469785 -0.017482227 0.00033966126 0.07531768
-0.07541562 -0.006290527 0.0044427835 0.017835643 0.022773286 -0.04945052 -0.0761915 -0.03852541
0.054263584 0.010286319 -0.02132738 -0.07857152 0.05920867 0.008969309 -0.047792703 -0.058124702
-0.105787896 -0.016926706 0.059728194 0.019844025 0.098347425 -0.019140285 -0.092922345 -0.069107726
0.049825378 -0.04999052 0.008386525 0.11545781 0.13822322 0.124805905 -0.041547198 -0.079652734
-0.029055187 -0.058878385 -0.031362634 -0.045878243 -0.14754927 -0.027661284 -0.018049411 0.20011829
0.011843542 -0.06743378 0.061901465 -0.046250142 0.03048381 0.0978855 0.060121026 -0.1502202
0.036769163 0.09833252 0.037168883 -0.00010446631 0.022221316 -0.017601792 -0.0691509 -0.074802294
-0.037858054 -0.11473781 0.090856045 0.038477026 0.10423824 0.1174181 -0.04369427 -0.05076747
0.031933192 -0.08622677 -0.059941985 0.010169618 -0.051237293 0.08950094 0.05330766 0.08748351
-0.007206045 0.042406835 -0.039327532 0.037144404 -0.14332145 -0.036334157 -0.03918841 -0.023877779
-0.031215291 0.09887641 0.05977494 0.024652822 -0.08488138 0.0121444 0.021447495 0.016144747
0.055995382 -0.104861826 -0.032515347 -0.034758747 0.049667697 -0.0038886587 0.028867578 -0.13349289
-0.014598748 -0.04830861 -0.037021857 -0.14907905 0.14291778 0.011950593 0.06803962 0.044810567
-0.11143493 -0.0052236416 0.08712521 -0.13578695 0.0035749178 -0.0031237851 0.034745574 0.04422808
00000000: 799b 153d a749 2dbc 263b 35bd d410 d4bb
00000010: a821 013d 1147 babc a137 eebd 7fbf 9c3d
00000020: 9f1a 6abd 125f 1abd 26f1 953d cdc6 9ebd
00000030: 20b5 08bd 00d1 e7bc bc53 193e 2efe 91bc
00000040: afd7 fc3b d262 c4bd be28 c93d 609b 54bd
00000050: 7057 f0bc 5e17 52bd 2d25 7e3b 9f42 dbbc
00000060: c883 743a daec b03d 4e70 d13c ec20 b3bb
00000070: 6565 8bbd b26e db3c df48 aabd b00e a0bd
00000080: 6d26 65bd d228 b3bd cfee d9bc 29b4 8abd
00000090: 2be7 e7bc 5c45 01be a3ff 94bb 0b35 01bd
000000a0: 7e78 a73c 395a 7ebd d478 adbd 63a4 ba3c
000000b0: a513 e43a 0ef6 f83c e3c6 c03c 6883 993c
000000c0: b67f b7bc ade9 2c3c 7279 823c 260c 29bd
000000d0: 67a3 c93b 01db 02bd d4b8 d63d 097e 94bc
000000e0: 6724 8dbc 951a 0a3c 9a5c 863b d3f7 743d
000000f0: 8a69 9d3c 7163 00bd 4ca5 27bc 1dfc 0ebc
00000100: 490a 083d 36a3 06bc 13b2 3ebd 190c 763d
00000110: de85 15bb 633c d2bc 4768 073d f8a5 f6bd
00000120: 50d9 63bd f539 0d3d f952 a43c cddd 56bd
00000130: 472c 353b 6348 06be ade2 69bd 1ae4 40bd
00000140: 2112 22bd c452 88bd dd1c 273b 77eb 86bd
00000150: 1176 ad3d e336 8fbc 9014 b239 2840 9a3d
00000160: 8173 9abd c420 cebb c594 913b 0e1c 923c
00000170: 0b8f ba3c a18c 4abd 4a0a 9cbd d2cc 1dbd
00000180: 7e43 5e3d f387 283c c2b6 aebc 1bea a0bd
00000190: ca84 723d 02f4 123c 48c2 43bd 2b14 6ebd
000001a0: 53a7 d8bd e0a9 8abc 8da5 743d f08f a23c
000001b0: 606a c93d 16cc 9cbc 124e bebd 5a88 8dbd
000001c0: b215 4c3d dcc2 4cbd a367 093c 2575 ec3d
000001d0: 638a 0d3e 3d9a ff3d 652d 2abd f920 a3bd
000001e0: 2505 eebc 762a 71bd 1b76 00bd d3ea 3bbd
000001f0: 2817 17be eb99 e2bc 5cdc 93bc cfeb 4c3e
00000200: 6a0b 423c b91a 8abd 648c 7d3d ca70 3dbd
00000210: 2fb9 f93c 3178 c83d 7741 763d 53d3 19be
00000220: 439b 163d 8f62 c93d 663e 183d ec14 dbb8
00000230: 7a09 b63c a231 90bc fd9e 8dbd f231 99bd
00000240: 0c11 1bbd a8fb eabd bc12 ba3d 169a 1d3d
00000250: dc7a d53d e778 f03d c3f8 32bd 8df1 4fbd
00000260: 61cc 023d a997 b0bd ba85 75bd 789e 263c
00000270: 32de 51bd 454c b73d 2259 5a3d 8e2a b33d
00000280: b020 ecbb cab2 2d3d e815 21bd bb24 183d
00000290: dcc2 12be 20d3 14bd 0784 20bd 559b c3bc
000002a0: 36b7 ffbc b77f ca3d 91d6 743d b7f4 c93c
000002b0: 4ad6 adbd 4ef9 463c a8b2 af3c fd41 843c
000002c0: 6a5b 653d ccc1 d6bd d02e 05bd 305f 0ebd
000002d0: 5b70 4b3d ded8 7ebb b37b ec3c 5cb2 08be
000002e0: 962f 6fbc 40df 45bd 3ba4 17bd 2ea8 18be
000002f0: 0a59 123e 6ccc 433c 5b58 8b3d 498b 373d
00000300: ff37 e4bd 152b abbb b46e b23d bc0b 0bbe
00000310: 2b49 6a3b 6bb8 4cbb 6051 0e3d 8128 353d

ntm.controller.lstm.weight_ih_l0 f4 [400, 110]
-0.2562765 0.1327614 0.04126823 -0.22106987 -0.34082353 -0.21126695 0.09309866 0.16073678
-0.24890582 -0.10210637 -0.17066492 0.04197454 0.26736388 0.11917673 0.039545316 0.23141105
-0.06666555 0.1066386 0.2393481 -0.21582666 0.07027813 -0.2862132 0.04898207 -0.35369846
0.060826905 -0.13581549 -0.13250275 -0.32569453 -0.24823537 -0.030548604 0.048433185 -0.28507367
0.07916898 0.012928599 0.1873902 -0.048905678 -0.30548996 0.3420444 -0.20235875 0.19852318
0.12354845 -0.28837034 0.10307575 0.040123526 0.3140064 0.15885288 0.2515061 0.1995069
0.23085886 -0.20709096 -0.088304445 0.11865173 0.32539082 -0.16389745 -0.3168435 -0.1003333
-0.033947997 -0.022130946 0.24695642 -0.21012305 -0.35703745 0.004337502 -0.013043974 -0.2092698
-0.21240728 -0.2536501 0.111012265 -0.054692745 0.1573672 -0.04782372 -0.23351668 0.098832525
0.008910484 0.039077073 -0.24068393 0.32568732 0.047145776 0.055336446 0.1854185 0.26480424
-0.35576472 0.10092082 -0.11597767 -0.16210514 -0.08248653 0.23016341 0.04296444 -0.17821194
-0.2407157 -0.03691886 -0.031770464 0.3013683 0.24469565 0.026174977 0.15065421 -0.20527111
-0.073079444 0.24497457 0.34423843 0.088060066 0.029108625 -0.114545316 -0.15028243 -0.21580227
-0.018219218 -0.044689097 0.11031912 0.30492288 0.3110092 0.06507686 -0.23476088 -0.005517244
-0.18693405 -0.30630404 0.18573573 0.02024959 0.1253004 0.17494145 -0.3108724 -0.029711364
0.043334875 0.058762852 -0.1377666 -0.34401542 0.300777 0.19471739 0.18959367 -0.2059481
0.038021214 -0.30723077 0.15866622 0.13450648 -0.30644864 0.021312851 -0.3100597 0.052297093
0.27796137 -0.29809088 -0.039580658 0.31038448 0.08135561 0.13857484 -0.24491942 -0.34133244
-0.23365603 -0.027351022 -0.20822635 0.31269428 -0.17427127 -0.029392645 -0.33291185 -0.28557357
0.16793433 -0.3254016 0.08298131 0.23441836 -0.0072017573 0.22152416 -0.14444126 0.12006231
-0.18554804 -0.06563657 0.0016321163 0.08858623 0.20119284 0.06964148 0.09829929 -0.18593846
-0.09643416 0.14649424 -0.27911332 0.32263538 0.27323908 0.111270845 -0.13303563 -0.32451934
0.28719833 -0.24132505 -0.17837104 -0.13132496 0.22215247 0.22834519 -0.23994516 -0.3387033
-0.027807208 -0.21686521 0.11349761 -0.31670636 -0.045644604 -0.04605495 -0.2479107 0.32278776
-0.38324648 -0.3381556 -0.20718646 0.1032516 -0.11972447 0.29586545 -0.09710366 0.12895785
-0.13803142 0.018679606 0.038813483 0.11332858 0.28405944 0.12396541 0.014549153 -0.13846397
-0.19687207 0.2530538 0.18402919 0.1405374 -0.18300799 0.19809812 0.028208584 -0.12337383
-0.049967274 0.1408176 0.19188929 0.07544607 0.19279 -0.105731875 0.1372039 0.056545135
0.065158665 0.101826 -0.061587155 -0.14226837 0.11714411 0.2702679 0.25921002 0.19283257
-0.2425135 -0.20450187 0.24493073 -0.22192088 -0.2665737 0.21416575 -0.10537059 0.032260206
0.069522314 -0.11964279 0.094334126 -0.18795016 -0.29166213 -0.098112755 -0.21761525 -0.08645961
0.03957788 -0.019542519 -0.31320158 -0.052861474 -0.12838766 -0.2701982 -0.1701866 -0.059681453
00000000: ac36 83be 9bf2 073e e008 293d 2460 62be
00000010: 6c80 aebe 5d56 58be 83aa be3d 2f98 243e
00000020: 2be1 7ebe 251d d1bd c9c2 2ebe 7fed 2b3d
00000030: ebe3 883e ee12 f43d 45fa 213d 05f7 6c3e
00000040: f387 88bd 5765 da3d ab17 753e aa01 5dbe
00000050: fbed 8f3d 898a 92be 6ca1 483d f717 b5be
00000060: a225 793d 3713 0bbe cdae 07be 6fc1 a6be
00000070: 6a31 7ebe 1141 fabc e061 463d 2df5 91be
00000080: 5923 a23d 79d2 533c 37e3 3f3e 5251 48bd
00000090: 2e69 9cbe 7220 af3e 2237 4fbe a949 4b3e
000000a0: f806 fd3d 47a5 93be 6119 d33d 9158 243d
000000b0: 72c5 a03e 54aa 223e 68c5 803e 894b 4c3e
000000c0: 4466 6c3e a70f 54be f6d8 b4bd aeff f23d
000000d0: a099 a63e bcd4 27be 5039 a2be 8c7b cdbd
000000e0: 0e0d 0bbd f54b b5bc 25e2 7c3e 7f2a 57be
000000f0: 9dcd b6be 9b21 8e3b 64b6 55bc d34a 56be
00000100: 4b81 59be 6dde 81be 665a e33d 8005 60bd
00000110: de24 213e cee2 43bd ff1e 6fbe b568 ca3d
00000120: 47fd 113c 480f 203d d975 76be 7dc0 a63e
00000130: ee1b 413d 78a8 623d 59de 3d3e 6c94 873e
00000140: cb26 b6be 93af ce3d b385 edbd e4fe 25be
00000150: b3ee a8bd f5af 6b3e 7bfb 2f3d 317d 36be
00000160: 2d7e 76be 3b38 17bd bf21 02bd f24c 9a3e
00000170: 7f91 7a3e e86c d63c 1945 1a3e 9732 52be
00000180: adaa 95bd 9dda 7a3e 0540 b03e d658 b43d
00000190: 3675 ee3c bc96 eabd a3e3 19be 45fb 5cbe
000001a0: 7840 95bc ea0b 37bd feee e13d da1e 9c3e
000001b0: 993c 9f3e 0447 853d 2865 70be ffc9 b4bb
000001c0: a46b 3fbe e2d3 9cbe 8231 3e3e 78e2 a53c
000001d0: c04e 003e da23 333e ab2a 9fbe 3f65 f3bc
000001e0: e97f 313d 51b1 703d b012 0dbe ca22 b0be
000001f0: 71ff 993e ff63 473e d824 423e 0fe4 52be
00000200: 22bc 1b3d 5a4d 9dbe 6679 223e 11bc 093e
00000210: d6e6 9cbe 4a98 ae3c 25c0 9ebe 7a35 563d
00000220: f450 8e3e 5e9f 98be 541f 22bd b7ea 9e3e
00000230: c59d a63d 90e6 0d3e 28cc 7abe 20c3 aebe
00000240: 8743 6fbe 400f e0bc 4a39 55be 7719 a03e
00000250: 2b74 32be d8c8 f0bc 6c73 aabe b336 92be
00000260: faf6 2b3e 0a9b a6be 1bf2 a93d 5e0b 703e
00000270: b8fc ebbb 3bd7 623e 69e8 13be 3ae3 f53d
00000280: 4e00 3ebe 776c 86bd bcec d53a b36c b53d
00000290: 7f05 4e3e 31a0 8e3d 2351 c93d a766 3ebe
000002a0: 467f c5bd 9602 163e f1e7 8ebe 7730 a53e
000002b0: fee5 8b3e f8e1 e33d 7e3a 08be 6627 a6be
000002c0: a90b 933e ea1d 77be e6a6 36be 0d7a 06be
000002d0: f07b 633e 52d3 693e 2fb4 75be 856a adbe
000002e0: f1cb e3bc ea11 5ebe 6f71 e83d 5627 a2be
000002f0: d6f5 3abd 1ea4 3cbd 4ddc 7dbe 7044 a53e
00000300: e238 c4be bb22 adbe b028 54be 9375 d33d
00000310: 1a32 f5bd ad7b 973e 49de c6bd 870d 043e
00000320: 1c58 0dbe f905 993c e3fa 1e3d d118 e83d
00000330: 3d70 913e 94e1 fd3d 925f 6e3c 80c9 0dbe
00000340: d598 49be 4590 813e 2672 3c3e 09e9 0f3e
00000350: 7266 3bbe 3cda 4a3e b015 e73c 6bab fcbd
00000360: 7caa 4cbd 7d32 103e a07e 443e 7883 9a3d
00000370: be6a 453e f489 d8bd 2e7f 0c3e df9b 673d
00000380: e871 853d 268a d03d d042 7cbd cdae 11be
00000390: 40e9 ef3d 8e60 8a3e 2db7 843e e775 453e
000003a0: 7555 78be f068 51be 1fcf 7a3e 3a3f 63be
000003b0: 597c 88be 444e 5b3e 89cc d7bd 4723 043d
000003c0: b761 8e3d 4707 f5bd 4032 c13d 0276 40be
000003d0: bd54 95be 57ef c8bd 88d6 5ebe bc11 b1bd
000003e0: 6a1c 223d a217 a0bc f55b a0be 4685 58bd
000003f0: 0e78 03be 6b57 8abe 6545 2ebe 8a74 74bd

ntm.controller.lstm.weight_hh_l0 f4 [400, 100]
-0.28299177 0.030177679 -0.22069752 0.30174398 0.22983377 0.19557224 -0.25236687 -0.085058354
-0.19125913 0.2239598 -0.25741625 -0.13838063 0.26141575 -0.20077668 0.253305 -0.03660274
-0.06349672 -0.096507214 -0.30049413 -0.1591959 -0.12004784 -0.17970105 -0.2238035 -0.054449357
0.34002337 0.10934406 0.2639598 0.00488343 0.30697063 -0.11100875 -0.07364901 0.2732716
0.0825197 -0.0992005 0.16648 0.18879297 0.15200312 -0.3162906 0.122409746 -0.32146487
0.32333353 0.2708945 -0.22383001 0.30514726 0.06353965 0.3353198 -0.2820003 -0.2884028
0.10065619 0.29874274 0.12033925 0.16440366 0.009305846 -0.026464062 -0.1577173 -0.19612923
0.13162926 -0.06893636 -0.12052436 0.16231918 -0.0664973 -0.18077925 -0.24658287 0.32050878
0.124588825 -0.11954042 -0.1941364 0.07910296 0.2957596 -0.39589125 0.065129876 0.04762661
0.2428959 -0.13977778 0.22864795 0.011042523 0.09168071 0.3285281 -0.19608831 0.2068978
-0.157633 -0.36387336 0.36227643 0.2468712 0.28060335 -0.2540753 -0.31199193 -0.05166057
0.025703251 -0.1656162 0.1721496 0.21837649 -0.33911452 0.1428111 0.1373775 0.08510136
0.022593394 0.10811189 0.09381377 -0.30971563 0.3068171 -0.15946743 -0.19994809 -0.1446713
-0.14171596 0.1827835 -0.04736634 0.03470836 0.11944335 -0.15950333 0.11718812 0.15205857
-0.3277925 0.17156728 -0.21584153 0.19184327 -0.18220079 -0.18599889 -0.07608561 -0.3126291
0.009305302 -0.117442794 0.069134004 0.02922041 0.28142297 -0.34135434 -0.34565103 -0.23201218
-0.08662574 0.22349647 0.30979925 0.17561623 0.41150856 -0.37204513 0.3166954 0.17905825
0.007879071 0.013238705 -0.25431526 -0.058478598 0.1495761 -0.23919895 0.32978186 0.2463464
-0.14812265 0.08641901 -0.12408148 -0.111195065 0.04298329 -0.16559908 0.08093825 -0.020366134
0.15137124 0.053014114 -0.13763626 -0.25769132 0.22557324 0.16204552 -0.18994156 0.15930028
0.17377503 0.09914347 -0.21721658 -0.22439365 0.3038988 0.19799595 -0.18134397 0.019043637
0.42329845 -0.14605623 -0.2970837 0.25401998 -0.18551698 -0.14614773 -0.35145965 -0.24874263
0.023485225 0.18871196 0.096755676 -0.057939257 -0.042236753 0.2579925 0.07897333 0.1976927
0.035664476 0.31410897 0.04742142 -0.17730609 0.096539296 0.24558827 -0.10293569 0.2533949
0.035659987 0.04835242 0.0020573158 0.21393143 0.01655213 0.33626714 0.21704875 0.3312706
-0.1096744 -0.019690903 0.28826225 -0.27739537 0.07819442 -0.08189685 0.17280616 0.2489095
0.03700077 0.17169306 0.0065720878 -0.2544561 -0.17028672 -0.20935848 -0.1420857 0.29964954
0.10185126 0.27374253 0.26732934 -0.30071127 -0.19912101 0.30135673 -0.13568707 -0.3365214
-0.33971214 -0.22544189 0.20210752 -0.19462839 0.27528486 0.039917298 -0.32988745 -0.24884363
0.27486637 -0.10512984 -0.028032944 -0.19003935 -0.19247527 0.35558182 0.2796959 0.28471032
0.22614709 0.2432463 0.062321585 0.013127846 -0.16443756 0.24634473 0.38481444 0.03080272
0.13677733 -0.21898116 -0.06920853 -0.101098925 -0.21561845 0.19218689 -0.07421758 0.06608156
00000000: 4ce4 90be 2e37 f73c 88fe 61be 307e 9a3e
00000010: 8b59 6b3e 1744 483e 3b36 81be 1333 aebd
00000020: 6fd9 43be b855 653e 10cc 83be a7b3 0dbe
00000030: 49d8 853e 6798 4dbe 31b1 813e c1ec 15bd
00000040: 910a 82bd 93a5 c5bd 5eda 99be 4004 23be
00000050: a4db f5bd 8d03 38be bf2c 65be 4a06 5fbd
00000060: 8b17 ae3e c7ef df3d bd25 873e 2e05 a03b
00000070: 412b 9d3e 8e58 e3bd 4bd5 96bd 41ea 8b3e
00000080: 1700 a93d a229 cbbd bc79 2a3e f252 413e
00000090: b5a6 1b3e d7f0 a1be f6b1 fa3d 0b97 a4be
000000a0: f98b a53e afb2 8a3e b233 65be 433c 9c3e
000000b0: 1321 823d 09af ab3e 5862 90be 88a9 93be
000000c0: d524 ce3d cff4 983e 6d74 f63d 6f59 283e
000000d0: 8c77 183c 29cb d8bc a580 21be 1ad6 48be
000000e0: d2c9 063e 822e 8dbd 7ad5 f6bd 0037 263e
000000f0: bd2f 88bd 321e 39be 3880 7cbe ba19 a43e
00000100: 6d28 ff3d 9cd1 f4bd b1cb 46be bc00 a23d
00000110: cd6d 973e 42b2 cabe d062 853d 1f14 433d
00000120: b4b9 783e e821 0fbe b022 6a3e b3eb 343c
00000130: 19c3 bb3d d634 a83e 60cb 48be 04dd 533e
00000140: 8c6a 21be 9c4d babe 4c7c b93e cecb 7c3e
00000150: 3eab 8f3e 2816 82be 68bd 9fbe 099a 53bd
00000160: a08f d23c 4b97 29be fc47 303e 169e 5f3e
00000170: 6ba0 adbe 133d 123e b0ac 0c3e 9f49 ae3d
00000180: c815 b93c c469 dd3d 6f21 c03d 0c93 9ebe
00000190: 2217 9d3e 6e4b 23be 31bf 4cbe b724 14be
000001a0: fd1d 11be 992b 3b3e 3503 42bd 5a2a 0e3d
000001b0: b79e f43d d754 23be 5300 f03d 3eb5 1b3e
000001c0: 6bd4 a7be 55af 2f3e 9005 5dbe 9072 443e
000001d0: d892 3abe 7e76 3ebe c6d2 9bbd ec10 a0be
000001e0: 4475 183c d985 f0bd 2196 8d3d a45f ef3c
000001f0: ac16 903e ffc5 aebe 2cf9 b0be 9a94 6dbe
00000200: d668 b1bd 42dc 643e 029e 9e3e bed4 333e
00000210: 40b1 d23e b37c bebe e625 a23e 0c5b 373e
00000220: 3817 013c 27e7 583c 9c35 82be 4187 6fbd
00000230: 7a2a 193e 92f0 74be 2bd9 a83e 3b42 7c3e
00000240: 77ad 17be 73fc b03d 6e1e febd 3dba e3bd
00000250: 3f0f 303d ce92 29be f4c2 a53d e1d6 a6bc
00000260: 1001 1b3e 5425 593d 85f0 0cbe 1ef0 83be
00000270: acfc 663e 43ef 253e 0a80 42be 9d1f 233e
00000280: 15f2 313e bb0b cb3d 066e 5ebe 73c7 65be
00000290: a098 9b3e 73bf 4a3e 3cb2 39be 6701 9c3c
000002a0: 93ba d83e c48f 15be 5b1b 98be e80e 823e
000002b0: 2af8 3dbe c0a7 15be 85f2 b3be 63b6 7ebe
000002c0: 1664 c03c b53d 413e d727 c63d b751 6dbd
000002d0: 7200 2dbd 9817 843e c5bc a13d f56f 4a3e
000002e0: ea14 123d e4d2 a03e f73c 423d ba8f 35be
000002f0: 65b6 c53d 7e7b 7b3e f2cf d2bd fabc 813e
00000300: 3510 123d 300d 463d 08d4 063b d710 5b3e
00000310: 5598 873c 352b ac3e 0742 5e3e 4d9c a93e
00000320: f99c e0bd d14e a1bc 1c97 933e c406 8ebe
00000330: 6524 a03d 89b9 a7bd 19f4 303e 22e2 7e3e
00000340: 1f8e 173d 4ed0 2f3e ab5a d73b 1248 82be
00000350: a45f 2ebe 1262 56be ea7e 11be aa6b 993e
00000360: 6597 d03d fb27 8c3e 64df 883e d4f6 99be
00000370: 61e6 4bbe 6e4b 9a3e 8df1 0abe 884c acbe
00000380: c0ee adbe 3dda 66be 46f5 4e3e aa4c 47be
00000390: 23f2 8c3e 5280 233d 02e7 a8be ddd0 7ebe
000003a0: 49bb 8c3e 504e d7bd 58a5 e5bc ad99 42be
000003b0: 3d18 45be d20e b63e 4d34 8f3e 8dc5 913e
000003c0: 1a93 673e 8f15 793e eb44 7f3d 2d16 573c
000003d0: 5262 28be cb41 7c3e 6606 c53e fc55 fc3c
000003e0: 5b0f 0c3e 993c 60be 34bd 8dbd f40c cfbd
000003f0: 15cb 5cbe a4cc 443e 63ff 97bd c555 873d

ntm.controller.lstm.bias_ih_l0 f4 [400]
0.022140553 -0.030144623 -0.0063295187 -0.0020080393 -0.021406444 -0.020804588 -0.017008785 -0.039236404
-0.025567913 -0.012346082 -0.025624914 -0.08802392 0.017858038 -0.027536739 -0.068282425 0.03888968
0.043962613 -0.0398891 -0.0550798 -0.08453497 -0.04823461 -0.034190807 -0.035471544 -0.007322617
0.032035172 -0.037237193 -0.0060674567 -0.020154417 0.017175173 -0.049925644 0.021277677 -0.0034250193
-0.0023316024 -0.020348525 -0.028284132 -0.012203774 -0.045642626 -0.025015725 -0.024128724 -0.016154872
0.014701713 -0.004298716 -0.036868103 -0.06141516 0.013074811 0.00064514286 -0.026866974 0.0014940427
-0.03275501 -0.0025703826 -0.047683597 -0.037669506 -0.011552984 -0.03198373 -0.044120647 -0.02641609
-0.0056032646 -0.023853116 -0.044054672 0.023660786 -0.012585855 0.013814971 -0.0010072003 -0.026354367
-0.008609951 -0.020425644 -0.025629349 -0.015352145 -0.020663267 -0.054847155 -0.04337492 -0.0065188203
-0.054780055 -0.03390591 -0.07664665 -0.028361078 -0.078059725 -0.031986114 -0.01530836 -0.029648665
-0.044935714 -0.040391546 -0.07533049 -0.016208174 -0.013040633 -0.038984887 0.0011234711 0.0039713066
-0.023132285 0.03908363 0.025922852 -0.014109856 0.0045562102 0.0112030525 -0.01785945 -0.047222998
0.00935239 -0.031007405 -0.04679695 0.05463001 0.01988544 0.03782832 0.008572362 -0.00024398505
-0.02518713 0.036981937 0.0064007365 -0.012927082 0.03971821 -0.025324464 -0.0077513275 -0.00991173
-0.012631665 -0.014886424 -0.0130852545 0.06005492 0.013464261 -0.010753348 0.014150751 -0.02412633
-0.031382315 -0.039829217 0.060727693 0.0029413602 0.076235265 0.018623168 0.026074095 -0.0024777104
0.0052287383 -0.03226064 0.041780073 0.009965336 -0.0047805826 -0.014659935 -0.012223963 -0.025452727
-0.04979298 -0.015988389 0.013939297 -0.011553543 0.028298873 0.058546234 -0.006884605 -0.06221817
0.067973785 0.020760331 -0.011581626 0.023408275 -0.0014772656 0.022703053 -0.013055892 -0.016075505
0.01953205 -0.025767539 0.04049101 0.012187345 -0.013738162 -0.027695699 -0.015820976 0.013924147
0.011943516 0.03805463 0.006364592 0.03366434 0.0447548 0.033048894 0.0028146375 0.055914998
0.045659136 -0.030182324 -0.022689415 0.012230689 -0.031422608 0.030082865 -0.079320416 -0.014809432
-0.049141493 -0.021460034 -0.014998995 0.041142274 -0.028433817 -0.0534861 -0.07387623 -0.034958437
-0.01270424 -0.050941776 0.01475176 0.028755063 0.0061712433 0.061172873 0.03942305 0.0042903293
-0.012558096 0.00839163 -0.008613746 -0.0007309654 0.0010093563 -0.01179416 0.040530927 0.036108926
0.047868833 -0.0032472287 0.023053313 0.014859557 -0.042073026 -0.0019232461 -0.0055263448 -0.012646506
-0.003991182 -0.041783713 0.034679733 0.003886693 0.014493175 -0.014921568 0.025502551 -0.02892916
-0.0074968482 -0.016594507 0.007855567 -0.023087624 0.05668532 -0.044410236 0.01583513 -0.0018307816
0.004764217 -0.0037475026 0.029431572 0.015375748 -0.06685342 -0.027056154 0.0028650344 0.03306577
-0.016175782 -0.0068076225 0.029774498 -0.033031065 0.009669428 -0.022056181 -0.037090648 -0.051413123
-0.031542663 -0.019359084 -0.0456595 -0.004845623 -0.003591863 0.039839923 0.060251307 -0.046762835
0.061189454 0.0030780113 -0.038895544 -0.006619448 0.018216189 0.013481733 -0.014146975 0.023224015
00000000: 1b60 b53c dbf1 f6bc da67 cfbb 4f99 03bb
00000010: 915c afbc 626e aabc 0256 8bbc 5ab6 20bd
00000020: cd73 d1bc 3947 4abc 57eb d1bc e345 b4bd
00000030: 054b 923c ba94 e1bc a8d7 8bbd c94a 1f3d
00000040: 2412 343d c162 23bd 5b9b 61bd ac20 adbd
00000050: a891 45bd a90b 0cbd 9c4a 11bd 90f2 efbb
00000060: 5037 033d 0786 18bd 84d1 c6bb e01a a5bc
00000070: f3b2 8c3c d57e 4cbd 864e ae3c 4a76 60bb
00000080: cccd 18bb f3b1 a6bc 20b4 e7bc 57f2 47bc
00000090: c3f3 3abd c7ed ccbc 9aa9 c5bc 3957 84bc
000000a0: 74df 703c 3edc 8cbb 0203 17bd 768e 7bbd
000000b0: bb37 563c ce1e 293a 2118 dcbc c1d3 c33a
000000c0: 1e2a 06bd dd73 28bb e04f 43bd 574b 1abd
000000d0: ba48 3dbc 5f01 03bd dab7 34bd 8e66 d8bc
000000e0: 979b b7bb 9c67 c3bc ac72 34bd 44d4 c13c
000000f0: e734 4ebc 3058 623c 0904 84ba 1de5 d7bc
00000100: c010 0dbc ae53 a7bc a4f4 d1bc 9087 7bbc
00000110: 0346 a9bc 69a7 60bd e6a9 31bd d49b d5bb
00000120: 0d61 60bd ece0 0abd ebf8 9cbd 7e55 e8bc
00000130: c7dd 9fbd df03 03bd eacf 7abc c2e1 f2bc
00000140: 830e 38bd 9b71 25bd df46 9abd 01c7 84bc
00000150: 61a8 55bc 9eae 1fbd 6f41 933a bc21 823b
00000160: eb7f bdbc 2816 203d 295c d43c 072d 67bc
00000170: 434c 953b 028d 373c fb4d 92bc e76c 41bd
00000180: c43a 193c 3e03 febc 29ae 3fbd b8c3 5f3d
00000190: cae6 a23c def1 1a3d 1873 0c3c 3dd6 7fb9
000001a0: 3d55 cebc 5f7a 173d 45bd d13b 1dcc 53bc
000001b0: 90af 223d 4075 cfbc d9fe fdbb cf64 22bc
000001c0: 0bf5 4ebc 30e6 73bc 8963 56bc 26fc 753d
000001d0: 3499 5c3c cf2e 30bc 8dd8 673c 95a4 c5bc
000001e0: be8a 00bd f623 23bd 9abd 783d d6c3 403b
000001f0: 3c21 9c3d 9d8f 983c 5799 d53c 1561 22bb
00000200: d655 ab3b bc23 04bd 9521 2b3d a645 233c
00000210: 6fa6 9cbb 3930 70bc 0447 48bc 3d82 d0bc
00000220: b9f3 4bbd 15fa 82bc a661 643c 124b 3dbc
00000230: 0ad3 e73c 2dce 6f3d 4198 e1bb 7bd8 7ebd
00000240: d735 8b3d 9211 aa3c dcc0 3dbc b6c2 bf3c
00000250: cfa0 c1ba c1fb b93c 61e8 55bc c7b0 83bc
00000260: ad01 a03c 7216 d3bc e7d9 253d 6ead 473c
00000270: 0716 61bc 17e2 e2bc fe9a 81bc 1b22 643c
00000280: bdae 433c 2cdf 1b3d 118e d03b 9ee3 093d
00000290: cf50 373d 475e 073d c875 383b 2007 653d
000002a0: 1305 3b3d ec40 f7bc 27df b9bc 3a63 483c
000002b0: feb4 00bd 5770 f63c be72 a2bd 43a3 72bc
000002c0: 9748 49bd f4cc afbc 58be 75bc cd84 283d
000002d0: 09ee e8bc 3e14 5bbd 6c4c 97bd 9430 0fbd
000002e0: 7225 50bc 53a8 50bd 5eb1 713c bd8f eb3c
000002f0: 2438 ca3b 6890 7a3d 107a 213d e495 8c3b
00000300: 79c0 4dbc 0c7d 093c ab20 0dbc 429e 3fba
00000310: 614c 843a 4b3c 41bc c203 263d f4e6 133d
00000320: 1c12 443d 75cf 54bb 4dda bc3c 8075 733c
00000330: c454 2cbd 6e15 fcba 5716 b5bb 4a33 4fbc
00000340: 76c8 82bb 6625 2bbd 560c 0e3d e3b7 7e3b
00000350: c874 6d3c 9879 74bc baea d03c d9fc ecbc
00000360: 1fa8 f5bb 34f1 87bc a3b4 003c 4222 bdbc
00000370: de2e 683d 82e7 35bd adb8 813c d6f6 efba
00000380: 261d 9c3b a998 75bb 7b1a f13c 90ea 7b3c
00000390: 72ea 88bd dea4 ddbc 4dc3 3b3b f96f 073d
000003a0: 1383 84bc 7a12 dfbb a6e9 f33c 954b 07bd
000003b0: 856c 1e3c 2aaf b4bc 5dec 17bd 9196 52bd
000003c0: e132 01bd f196 9ebc 7505 3bbd 08c8 9ebb
000003d0: 7665 6bbb 302f 233d 13ca 763d 638a 3fbd
000003e0: cba1 7a3d 76b8 493b ef50 1fbd f4e7 d8bb
000003f0: 1e3a 953c 7de2 5c3c b7c8 67bc 4a40 be3c

ntm.controller.lstm.bias_hh_l0 f4 [400]
0.022140553 -0.030144623 -0.0063295187 -0.0020080393 -0.021406444 -0.020804588 -0.017008785 -0.039236404
-0.025567913 -0.012346082 -0.025624914 -0.08802392 0.017858038 -0.027536739 -0.068282425 0.03888968
0.043962613 -0.0398891 -0.0550798 -0.08453497 -0.04823461 -0.034190807 -0.035471544 -0.007322617
0.032035172 -0.037237193 -0.0060674567 -0.020154417 0.017175173 -0.049925644 0.021277677 -0.0034250193
-0.0023316024 -0.020348525 -0.028284132 -0.012203774 -0.045642626 -0.025015725 -0.024128724 -0.016154872
0.014701713 -0.004298716 -0.036868103 -0.06141516 0.013074811 0.00064514286 -0.026866974 0.0014940427
-0.03275501 -0.0025703826 -0.047683597 -0.037669506 -0.011552984 -0.03198373 -0.044120647 -0.02641609
-0.0056032646 -0.023853116 -0.044054672 0.023660786 -0.012585855 0.013814971 -0.0010072003 -0.026354367
-0.008609951 -0.020425644 -0.025629349 -0.015352145 -0.020663267 -0.054847155 -0.04337492 -0.0065188203
-0.054780055 -0.03390591 -0.07664665 -0.028361078 -0.078059725 -0.031986114 -0.01530836 -0.029648665
-0.044935714 -0.040391546 -0.07533049 -0.016208174 -0.013040633 -0.038984887 0.0011234711 0.0039713066
-0.023132285 0.03908363 0.025922852 -0.014109856 0.0045562102 0.0112030525 -0.01785945 -0.047222998
0.00935239 -0.031007405 -0.04679695 0.05463001 0.01988544 0.03782832 0.008572362 -0.00024398505
-0.02518713 0.036981937 0.0064007365 -0.012927082 0.03971821 -0.025324464 -0.0077513275 -0.00991173
-0.012631665 -0.014886424 -0.0130852545 0.06005492 0.013464261 -0.010753348 0.014150751 -0.02412633
-0.031382315 -0.039829217 0.060727693 0.0029413602 0.076235265 0.018623168 0.026074095 -0.0024777104
0.0052287383 -0.03226064 0.041780073 0.009965336 -0.0047805826 -0.014659935 -0.012223963 -0.025452727
-0.04979298 -0.015988389 0.013939297 -0.011553543 0.028298873 0.058546234 -0.006884605 -0.06221817
0.067973785 0.020760331 -0.011581626 0.023408275 -0.0014772656 0.022703053 -0.013055892 -0.016075505
0.01953205 -0.025767539 0.04049101 0.012187345 -0.013738162 -0.027695699 -0.015820976 0.013924147
0.011943516 0.03805463 0.006364592 0.03366434 0.0447548 0.033048894 0.0028146375 0.055914998
0.045659136 -0.030182324 -0.022689415 0.012230689 -0.031422608 0.030082865 -0.079320416 -0.014809432
-0.049141493 -0.021460034 -0.014998995 0.041142274 -0.028433817 -0.0534861 -0.07387623 -0.034958437
-0.01270424 -0.050941776 0.01475176 0.028755063 0.0061712433 0.061172873 0.03942305 0.0042903293
-0.012558096 0.00839163 -0.008613746 -0.0007309654 0.0010093563 -0.01179416 0.040530927 0.036108926
0.047868833 -0.0032472287 0.023053313 0.014859557 -0.042073026 -0.0019232461 -0.0055263448 -0.012646506
-0.003991182 -0.041783713 0.034679733 0.003886693 0.014493175 -0.014921568 0.025502551 -0.02892916
-0.0074968482 -0.016594507 0.007855567 -0.023087624 0.05668532 -0.044410236 0.01583513 -0.0018307816
0.004764217 -0.0037475026 0.029431572 0.015375748 -0.06685342 -0.027056154 0.0028650344 0.03306577
-0.016175782 -0.0068076225 0.029774498 -0.033031065 0.009669428 -0.022056181 -0.037090648 -0.051413123
-0.031542663 -0.019359084 -0.0456595 -0.004845623 -0.003591863 0.039839923 0.060251307 -0.046762835
0.061189454 0.0030780113 -0.038895544 -0.006619448 0.018216189 0.013481733 -0.014146975 0.023224015
00000000: 1b60 b53c dbf1 f6bc da67 cfbb 4f99 03bb
00000010: 915c afbc 626e aabc 0256 8bbc 5ab6 20bd
00000020: cd73 d1bc 3947 4abc 57eb d1bc e345 b4bd
00000030: 054b 923c ba94 e1bc a8d7 8bbd c94a 1f3d
00000040: 2412 343d c162 23bd 5b9b 61bd ac20 adbd
00000050: a891 45bd a90b 0cbd 9c4a 11bd 90f2 efbb
00000060: 5037 033d 0786 18bd 84d1 c6bb e01a a5bc
00000070: f3b2 8c3c d57e 4cbd 864e ae3c 4a76 60bb
00000080: cccd 18bb f3b1 a6bc 20b4 e7bc 57f2 47bc
00000090: c3f3 3abd c7ed ccbc 9aa9 c5bc 3957 84bc
000000a0: 74df 703c 3edc 8cbb 0203 17bd 768e 7bbd
000000b0: bb37 563c ce1e 293a 2118 dcbc c1d3 c33a
000000c0: 1e2a 06bd dd73 28bb e04f 43bd 574b 1abd
000000d0: ba48 3dbc 5f01 03bd dab7 34bd 8e66 d8bc
000000e0: 979b b7bb 9c67 c3bc ac72 34bd 44d4 c13c
000000f0: e734 4ebc 3058 623c 0904 84ba 1de5 d7bc
00000100: c010 0dbc ae53 a7bc a4f4 d1bc 9087 7bbc
00000110: 0346 a9bc 69a7 60bd e6a9 31bd d49b d5bb
00000120: 0d61 60bd ece0 0abd ebf8 9cbd 7e55 e8bc
00000130: c7dd 9fbd df03 03bd eacf 7abc c2e1 f2bc
00000140: 830e 38bd 9b71 25bd df46 9abd 01c7 84bc
00000150: 61a8 55bc 9eae 1fbd 6f41 933a bc21 823b
00000160: eb7f bdbc 2816 203d 295c d43c 072d 67bc
00000170: 434c 953b 028d 373c fb4d 92bc e76c 41bd
00000180: c43a 193c 3e03 febc 29ae 3fbd b8c3 5f3d
00000190: cae6 a23c def1 1a3d 1873 0c3c 3dd6 7fb9
000001a0: 3d55 cebc 5f7a 173d 45bd d13b 1dcc 53bc
000001b0: 90af 223d 4075 cfbc d9fe fdbb cf64 22bc
000001c0: 0bf5 4ebc 30e6 73bc 8963 56bc 26fc 753d
000001d0: 3499 5c3c cf2e 30bc 8dd8 673c 95a4 c5bc
000001e0: be8a 00bd f623 23bd 9abd 783d d6c3 403b
000001f0: 3c21 9c3d 9d8f 983c 5799 d53c 1561 22bb
00000200: d655 ab3b bc23 04bd 9521 2b3d a645 233c
00000210: 6fa6 9cbb 3930 70bc 0447 48bc 3d82 d0bc
00000220: b9f3 4bbd 15fa 82bc a661 643c 124b 3dbc
00000230: 0ad3 e73c 2dce 6f3d 4198 e1bb 7bd8 7ebd
00000240: d735 8b3d 9211 aa3c dcc0 3dbc b6c2 bf3c
00000250: cfa0 c1ba c1fb b93c 61e8 55bc c7b0 83bc
00000260: ad01 a03c 7216 d3bc e7d9 253d 6ead 473c
00000270: 0716 61bc 17e2 e2bc fe9a 81bc 1b22 643c
00000280: bdae 433c 2cdf 1b3d 118e d03b 9ee3 093d
00000290: cf50 373d 475e 073d c875 383b 2007 653d
000002a0: 1305 3b3d ec40 f7bc 27df b9bc 3a63 483c
000002b0: feb4 00bd 5770 f63c be72 a2bd 43a3 72bc
000002c0: 9748 49bd f4cc afbc 58be 75bc cd84 283d
000002d0: 09ee e8bc 3e14 5bbd 6c4c 97bd 9430 0fbd
000002e0: 7225 50bc 53a8 50bd 5eb1 713c bd8f eb3c
000002f0: 2438 ca3b 6890 7a3d 107a 213d e495 8c3b
00000300: 79c0 4dbc 0c7d 093c ab20 0dbc 429e 3fba
00000310: 614c 843a 4b3c 41bc c203 263d f4e6 133d
00000320: 1c12 443d 75cf 54bb 4dda bc3c 8075 733c
00000330: c454 2cbd 6e15 fcba 5716 b5bb 4a33 4fbc
00000340: 76c8 82bb 6625 2bbd 560c 0e3d e3b7 7e3b
00000350: c874 6d3c 9879 74bc baea d03c d9fc ecbc
00000360: 1fa8 f5bb 34f1 87bc a3b4 003c 4222 bdbc
00000370: de2e 683d 82e7 35bd adb8 813c d6f6 efba
00000380: 261d 9c3b a998 75bb 7b1a f13c 90ea 7b3c
00000390: 72ea 88bd dea4 ddbc 4dc3 3b3b f96f 073d
000003a0: 1383 84bc 7a12 dfbb a6e9 f33c 954b 07bd
000003b0: 856c 1e3c 2aaf b4bc 5dec 17bd 9196 52bd
000003c0: e132 01bd f196 9ebc 7505 3bbd 08c8 9ebb
000003d0: 7665 6bbb 302f 233d 13ca 763d 638a 3fbd
000003e0: cba1 7a3d 76b8 493b ef50 1fbd f4e7 d8bb
000003f0: 1e3a 953c 7de2 5c3c b7c8 67bc 4a40 be3c

ntm.controller.lstm.weight_ih_l1 f4 [400, 100]
-0.28126517 0.20687596 -0.20875391 -0.20495187 0.033271365 0.104499556 -0.07305608 -0.2642218
-0.012987958 -0.27631745 0.23308457 0.30962315 0.19216917 -0.08419245 -0.000598079 -0.042059876
-0.045243304 0.010979484 0.028576706 -0.07798766 -0.007082987 -0.18039326 -0.10200321 -0.25615823
0.028083721 -0.20429663 -0.19830051 -0.12217304 0.13039863 0.36191243 -0.18057147 -0.3301825
0.30351555 0.23059182 0.17808363 -0.3398159 0.05491335 -0.19312602 0.32997996 0.088691294
-0.2255647 0.2647451 -0.31899777 -0.20756398 -0.13069856 -0.23092803 0.08383758 -0.12909082
-0.03363708 0.003904236 0.21185525 -0.34360602 0.02742138 -0.14358102 -0.17959505 0.3764927
0.2624707 0.047140304 -0.10666639 -0.061847106 0.06399117 -0.21550956 0.10193603 -0.29049024
0.16456562 0.019002942 -0.36704516 0.277443 -0.05222698 0.19708264 0.16072303 0.2922335
-0.29473785 0.1764156 -0.008725907 0.011600226 0.16115184 0.24059904 0.26678765 0.027110219
0.32258138 -0.29918057 0.034063727 -0.17934708 0.21095322 -0.14204556 0.112196095 -0.055817742
0.30530092 0.20537634 -0.20361435 0.3643843 0.25310358 0.22359794 0.2697322 -0.09123229
0.12117185 0.23209 0.21711248 0.26665723 -0.31357935 0.26825774 -0.16285628 0.18405102
-0.124354675 0.15383013 0.34455338 -0.2509412 0.3203164 0.29767433 0.0565564 -0.0014490384
0.26166826 -0.055045623 0.16279988 0.22596647 -0.06350156 0.30770835 -0.039278783 -0.026769456
0.2580341 -0.18421976 0.28971773 -0.26786095 0.12306593 0.10883639 -0.06707962 0.16475354
-0.26106876 0.05500506 -0.2737906 -0.3445286 -0.29882976 -0.08628593 -0.30737388 -0.21982896
-0.29947165 -0.018327063 -0.19247971 0.18606353 -0.15193732 0.04130152 -0.21221341 0.3007523
0.0010648993 0.13500127 -0.24250084 0.018435676 -0.13094711 0.14224754 -0.18111755 0.10075729
0.23612046 0.29569614 -0.26632234 0.08983698 0.2434235 0.24510473 -0.18374296 0.099366575
-0.04916926 0.08242574 -0.15693903 0.10302118 -0.1510744 -0.24236241 -0.36870757 0.18117227
-0.29007387 0.19578655 -0.08833987 0.25037673 0.12449498 -0.26972643 -0.3337531 0.32791948
0.225731 -0.3430114 -0.24512812 0.232344 -0.104508 0.09639371 0.3284351 -0.051449977
0.06724937 0.31267372 -0.2315964 0.025971012 -0.31889236 -0.3085688 -0.0799658 -0.16910283
-0.02899829 0.24238554 -0.001407138 -0.17326187 -0.17771447 -0.318419 -0.054395717 0.026661186
-0.21849164 -0.2526574 0.040742926 0.046274725 -0.30803716 0.27787444 -0.15956394 -0.06192318
-0.15557729 0.18816428 -0.21826775 0.24983008 0.14843437 0.012062215 -0.35809812 -0.2796771
0.34420472 0.046574913 0.23747884 -0.31703085 0.107901216 -0.038203884 0.1603999 0.07641648
0.16729476 0.23083334 -0.29026973 0.26130164 6.094068e-05 -0.029487656 -0.29430217 -0.29485738
-0.0974838 0.3467035 -0.15099801 0.23564164 0.07978121 -0.18743439 0.32978246 0.12726867
-0.32684964 -0.2803645 0.2254815 -0.23594294 -0.23404333 0.015852008 -0.2725742 0.32236195
0.22148617 0.18573314 -0.32182363 0.21513814 -0.2272124 -0.0670405 -0.07621423 -0.34809485
00000000: fd01 90be 4bd7 533e 96c3 55be e7de 51be
00000010: 8e47 083d dd03 d63d 6d9e 95bd 1448 87be
00000020: 72cb 54bc 7b79 8dbe b9ad 6e3e ed86 9e3e
00000030: ffc7 443e 176d acbd 67c8 1cba fa46 2cbd
00000040: 0b51 39bd 4be3 333c b219 ea3c ffb7 9fbd
00000050: 6718 e8bb 03b9 38be 0fe7 d0bd 2c27 83be
00000060: d50f e63c 2333 51be 4a0f 4bbe dc35 fabd
00000070: 3887 053e 964c b93e bae7 38be ae0d a9be
00000080: 6466 9b3e 4320 6c3e 8e5b 363e 5afc adbe
00000090: d2ec 603d d4c2 45be 22f3 a83e c8a3 b53d
000000a0: 6ffa 66be ab8c 873e ad53 a3be a78b 54be
000000b0: d8d5 05be 6678 6cbe 0ab3 ab3d 6230 04be
000000c0: 09c7 09bd 36de 7f3b 95f0 583e 21ed afbe
000000d0: cda2 e03c e706 13be c4e7 37be a7c3 c03e
000000e0: 8f62 863e 3116 413d e973 dabd 6453 7dbd
000000f0: cd0d 833d 8aae 5cbe d6c3 d03d 23bb 94be
00000100: e483 283e 0fac 9b3c 58ed bbbe 020d 8e3e
00000110: f5eb 55bd 08d0 493e 9494 243e a19f 953e
00000120: e1e7 96be 4ba6 343e 1bf7 0ebc e00e 3e3c
00000130: fd04 253e 985f 763e 6498 883e 4016 de3c
00000140: 6329 a53e 322e 99be 6886 0b3d c3a6 37be
00000150: 1f04 583e 6474 11be 11c7 e53d 25a1 64bd
00000160: 6750 9c3e 2d4e 523e 4880 50be 9490 ba3e
00000170: cb96 813e dcf6 643e 571a 8a3e ffd7 babd
00000180: f228 f83d 00a9 6d3e bc52 5e3e 4c87 883e
00000190: 798d a0be 1459 893e ccc3 26be df77 3c3e
000001a0: aaad febd a585 1d3e 4d69 b03e 5d7b 80be
000001b0: 8300 a43e c568 983e afa7 673d a9ed bdba
000001c0: 62f9 853e 8577 61bd 03b5 263e c163 673e
000001d0: 1b0d 82bd f38b 9d3e cae2 20bd 9e4b dbbc
000001e0: 0c1d 843e 1ba4 3cbe e255 943e 1225 89be
000001f0: fe09 fc3d 9de5 de3d 0a61 89bd 27b5 283e
00000200: ceaa 85be fc4c 613d 482e 8cbe 0d66 b0be
00000210: 3700 99be adb6 b0bd 1c60 9dbe d81a 61be
00000220: 5954 99be a322 96bc 6719 45be 7087 3e3e
00000230: 7595 1bbe c82b 293d 794e 59be 35fc 993e
00000240: 1794 8b3a c63d 0a3e 2452 78be 6a06 973c
00000250: 0017 06be 57a9 113e e176 39be d759 ce3d
00000260: 90c9 713e 7c65 973e 675b 88be 73fc b73d
00000270: 0344 793e bcfc 7a3e 1d27 3cbe b480 cb3d
00000280: b565 49bd d4ce a83d a0b4 20be c5fc d23d
00000290: 3fb3 1abe da2d 78be 3dc7 bcbe 3985 393e
000002a0: 9084 94be 457c 483e 89eb b4bd 6131 803e
000002b0: 39f7 fe3d 9519 8abe b0e1 aabe 10e5 a73e
000002c0: 0726 673e 319f afbe de02 7bbe 96eb 6d3e
000002d0: 4a08 d6bd 116a c53d a528 a83e 36bd 52bd
000002e0: 0aba 893d c516 a03e 9b27 6dbe 29c1 d43c
000002f0: dc45 a3be bbfc 9dbe 1cc5 a3bd 4b29 2dbe
00000300: d28d edbc ea33 783e b76f b8ba 8f6b 31be
00000310: c8fa 35be d107 a3be 0bce 5ebd 8f68 da3c
00000320: 46bc 5fbe 505c 81be 0ee2 263d 918a 3d3d
00000330: 0cb7 9dbe 8f45 8e3e bb64 23be 29a3 7dbd
00000340: a74f 1fbe 23ae 403e 9581 5fbe 75d3 7f3e
00000350: 2eff 173e 99a0 453c a358 b7be d631 8fbe
00000360: 9a3b b03e 56c5 3e3d a72d 733e de51 a2be
00000370: 50fb dc3d ad7b 1cbd df3f 243e 3e80 9c3d
00000380: 514f 2b3e 935f 6c3e 3c9e 94be 54c9 853e
00000390: 8f9a 7f38 1990 f1bc c6ae 96be 8cf7 96be
000003a0: 96a5 c7bd 1f83 b13e 399f 1abe 0b4c 713e
000003b0: 5564 a33d cdee 3fbe 3fd9 a83e b852 023e
000003c0: d658 a7be f08b 8fbe 9fe4 663e 079b 71be
000003d0: 0ea9 6fbe 12dc 813c d88e 8bbe a00c a53e
000003e0: 45cd 623e d430 3e3e 11c6 a4be 2c4d 5c3e
000003f0: 5eaa 68be 884c 89bd 3516 9cbd 7d39 b2be

ntm.controller.lstm.weight_hh_l1 f4 [400, 100]
0.24524632 0.0772547 -0.26326555 0.0076755085 0.060232747 -0.14386304 0.21536879 0.008985625
0.20372961 -0.3246756 -0.05334113 -0.045457486 0.053902343 0.0023004946 -0.19717333 -0.31192997
-0.15223329 0.33757442 -0.043375254 -0.0059812213 0.07640156 0.17995787 0.15287791 0.08498882
0.10441798 -0.030187191 -0.18687536 0.2335993 0.179904 0.054929066 0.18999903 -0.28284484
-0.029537378 0.31919122 -0.229167 0.09379976 0.17665048 -0.14129919 0.24057664 0.11693752
0.04130934 0.28341073 0.12060691 0.30373803 -0.24434757 -0.20314182 0.16551755 -0.2006975
0.02767753 -0.3579036 -0.18018828 0.27643782 -0.00847786 0.051122595 0.052761745 -0.24966797
-0.10551179 0.24923517 -0.25309396 0.22221737 -0.15879153 -0.16710308 -0.2270448 -0.22842959
-0.33193633 0.025282996 0.246897 -0.27417067 0.02953017 0.054911673 0.14018062 -0.09710477
0.15991274 -0.26533827 0.11775442 -0.2094995 0.23127975 -0.066581614 0.07645401 0.036800347
0.04649334 0.19515663 0.038677283 0.0037403286 0.16414611 0.20939586 -0.34444815 0.20654584
0.1898832 0.14153475 -0.3288046 -0.19336188 0.10081953 0.21070172 -0.27656078 -0.13633545
-0.2841597 -0.09831029 -0.035742972 0.17076227 -0.10378192 -0.18013419 -0.23509651 0.30770776
0.118151814 -0.2679429 -0.2448027 0.009839347 -0.08602943 -0.17240758 -0.2699932 0.32695207
0.018842759 0.28799838 -0.21833704 -0.30866754 0.3099861 0.13372093 -0.11828053 0.33050376
-0.017499072 -0.015850678 0.04879856 -0.036767215 0.21457246 -0.21006268 -0.30666634 -0.28403953
-0.053563364 0.34142065 -0.027809756 0.21040195 0.14792526 0.12253749 -0.05016542 0.080581665
-0.2516053 -0.24561742 0.11746482 -0.028942766 -0.32293785 0.24255659 -0.39569506 0.07649545
-0.103313 0.32507488 0.14635473 -0.24073994 0.11449268 0.08058738 -0.23392732 -0.3206595
0.06763469 -0.297127 0.15813138 -0.062331513 0.22487365 -0.0072270297 0.26017925 0.32039467
-0.116840735 0.062396128 -0.22726719 0.07937331 0.06128198 -0.2645572 -0.23487733 0.29117775
-0.15363815 0.26996538 -0.06173556 0.2578961 -0.0976245 -0.27751908 0.1911218 0.03347849
0.23106596 -0.15926944 0.3108896 0.17204382 -0.28276822 0.25198817 -0.13161321 0.18044846
-0.15819862 0.18050179 0.10818578 -0.22380817 0.14188683 0.03183629 0.11819972 -0.32544237
0.09896107 0.23522444 0.31320813 0.2792818 0.3102917 0.20257854 -0.14163665 0.32015833
0.19245262 0.23125604 -0.17600137 0.013920373 -0.31097382 -0.2645075 0.04311068 0.3071056
0.18570074 0.12660134 0.08365796 0.23587619 -0.13454397 -0.07168232 0.096200846 -0.13065411
0.3856654 0.1512421 0.18400376 -0.183592 -0.047647957 -0.00778897 -0.28576905 0.2775038
-0.025490483 -0.30517173 -0.24710597 0.29428053 0.2978029 0.07464204 0.32207066 0.078284025
0.27822012 -0.3268119 -0.04367125 -0.10155877 -0.045691866 -0.026835803 0.011937416 -0.001865035
-0.27222857 -0.25929376 0.05399299 -0.0028195935 0.24724078 -0.3291121 0.13880846 0.13250862
-0.2729953 0.19367647 0.10964666 0.0887579 -0.17773272 0.37433046 0.13742578 0.02083199
00000000: da21 7b3e b637 9e3d beca 86be d582 fb3b
00000010: 9db6 763d d550 13be a389 5c3e 7138 133c
00000020: 7f9e 503e e13b a6be 3b7c 5abd a131 3abd
00000030: b4c8 5c3d e5c3 163b cee7 49be 49b5 9fbe
00000040: 0be3 1bbe 8ed6 ac3e 40aa 31bd 1ffe c3bb
00000050: 6c78 9c3d e046 383e 078c 1c3e 9e0e ae3d
00000060: 18d9 d53d 214b f7bc 415c 3fbe a834 6f3e
00000070: c138 383e 4dfd 603d 1b8f 423e 0ad1 90be
00000080: 5ff8 f1bc 086d a33e c1aa 6abe 171a c03d
00000090: dde3 343e bcb0 10be b959 763e f07c ef3d
000000a0: fc33 293d 361b 913e c100 f73d 8d83 9b3e
000000b0: 4036 7abe 6904 50be 6f7d 293e a583 4dbe
000000c0: fdbb e23c 243f b7be 4783 38be 4289 8d3e
000000d0: b9e6 0abc ed65 513d b31c 583d f6a8 7fbe
000000e0: 9116 d8bd 8137 7f3e 8895 81be f38c 633e
000000f0: 3f9a 22be 121d 2bbe 6f7e 68be 72e9 69be
00000100: 8ff3 a9be 491e cf3c 91d2 7c3e 1960 8cbe
00000110: 41e9 f13c 10eb 603d 828b 0f3e dede c6bd
00000120: 2ac0 233e 6bda 87be 3b29 f13d 0987 56be
00000130: 99d4 6c3e f15b 88bd ec93 9c3d f6bb 163d
00000140: cd6f 3e3d 24d7 473e 126c 1e3d 4d20 753b
00000150: eb15 283e de6b 563e 825b b0be c180 533e
00000160: be70 423e 7cee 103e 1459 a8be a800 46be
00000170: 787a ce3d 31c2 573e 6099 8dbe 859b 0bbe
00000180: 617d 91be e856 c9bd 3967 12bd 4edc 2e3e
00000190: 9e8b d4bd 1975 38be 24bd 70be df8b 9d3e
000001a0: 94f9 f13d d02f 89be 8fad 7abe 3635 213c
000001b0: 3330 b0bd 9d8b 30be 8c3c 8abe 4366 a73e
000001c0: 215c 9a3c 8674 933e bf93 5fbe ac09 9ebe
000001d0: 80b6 9e3e 24ee 083e 103d f2bd ca37 a93e
000001e0: 375a 8fbc 48d9 81bc 00e1 473d 3899 16bd
000001f0: e2b8 5b3e ac1a 57be 5f03 9dbe a16d 91be
00000200: 4265 5bbd b0ce ae3e 49d1 e3bc 9c73 573e
00000210: b879 173e f0f4 fa3d 417a 4dbd 0008 a53d
00000220: 69d2 80be 2283 7bbe 6591 f03d 6119 edbc
00000230: 1c58 a5be c160 783e 8b98 cabe a6a9 9c3d
00000240: c495 d3bd 3770 a63e 04de 153e 8884 76be
00000250: 237b ea3d ff0a a53d a58a 6fbe 7b2d a4be
00000260: 0e84 8a3d 0821 98be 31ed 213e 544f 7fbd
00000270: 4745 663e b8d0 ecbb 3736 853e c50a a43e
00000280: 324a efbd 1593 7f3d bbb8 68be 798e a23d
00000290: d002 7b3d 0b74 87be af83 70be 4015 953e
000002a0: 5253 1dbe e738 8a3e 6dde 7cbd f50a 843e
000002b0: 5bef c7bd fb16 8ebe 6fb5 433e be20 093d
000002c0: 8e9c 6c3e 8717 23be ec2c 9f3e 412c 303e
000002d0: ffc6 90be 9804 813e 9dc5 06be 7bc7 383e
000002e0: d2fe 21be 76d5 383e 8290 dd3d f82d 65be
000002f0: c84a 113e c566 023d b212 f23d 62a0 a6be
00000300: 1aac ca3d adde 703e d15c a03e 06fe 8e3e
00000310: 8ede 9e3e c070 4f3e 3309 11be cbeb a33e
00000320: 4d12 453e 62ce 6c3e b439 34be 4712 643c
00000330: f637 9fbe 876d 87be d394 303d f23c 9d3e
00000340: 5628 3e3e c8a3 013e dd54 ab3d 8789 713e
00000350: e5c5 09be 2ece 92bd f304 c53d 31ca 05be
00000360: ef75 c53e 36df 1a3e 7b6b 3c3e 8bff 3bbe
00000370: 812a 43bd 9e3a ffbb 5250 92be fa14 8e3e
00000380: 6bd1 d0bc 783f 9cbe 5909 7dbe f0ab 963e
00000390: 9f79 983e eddd 983d 72e6 a43e 6053 a03d
000003a0: de72 8e3e e453 a7be a0e0 32bd 0bfe cfbd
000003b0: 6527 3bbd c2d6 dbbc 2795 433c 3174 f4ba
000003c0: 8b61 8bbe 27c2 84be c127 5d3d eec8 38bb
000003d0: b02c 7d3e 6281 a8be ce23 0e3e 57b0 073e
000003e0: 0ac6 8bbe 2053 463e 6e8e e03d b4c6 b53d
000003f0: 91ff 35be 3ea8 bf3e 58b9 0c3e d9a7 aa3c
